…
        min_scale: 0.3
        max_scale: 1
        min_aspect_ratio: 0.5
        max_aspect_ratio: 2
      }
      sample_constraint {
        min_jaccard_overlap: 0.9
      }
      max_sample: 1
      max_trials: 50
    }
    batch_sampler {
      sampler {
        min_scale: 0.3
        max_scale: 1
        min_aspect_ratio: 0.5
        max_aspect_ratio: 2
      }
      sample_constraint {
        max_jaccard_overlap: 1
      }
      max_sample: 1
      max_trials: 50
    }
    label_map_file: "data/dbgr_trees/labelmap_voc.prototxt"
  }
}
layer {
  name: "conv1_1_rgbd"
  type: "Convolution"
  bottom: "data"
  top: "conv1_1_rgbd"
  param {
    lr_mult: 1
    decay_mult: 1
  }
  param {
    lr_mult: 2
    decay_mult: 0
  }
  convolution_param {
    num_output: 64
    pad: 1
    kernel_size: 3
    weight_filler {
      type: "xavier"
    }
    bias_filler {
      type: "constant"
      value: 0
    }
  }
}
layer {
  name: "relu1_1"
  type: "ReLU"
  bottom: "conv1_1_rgbd"
  top: "conv1_1_rgbd"
}
layer {
  name: "conv1_2"
  type: "Convolution"
  bottom: "conv1_1_rgbd"
  top: "conv1_2"
  param {
    lr_mult: 1
    decay_mult: 1
  }
  param {
    lr_mult: 2
    decay_mult: 0
  }
  convolution_param {
    num_output: 64
    pad: 1
    kernel_size: 3
    weight_filler {
      type: "xavier"
    }
    bias_filler {
      type: "constant"
      value: 0
    }
  }
}
layer {
  name: "relu1_2"
  type: "ReLU"
  bottom: "conv1_2"
  top: "conv1_2"
}
layer {
  name: "pool1"
  type: "Pooling"
  bottom: "conv1_2"
  top: "pool1"
  pooling_param {
    pool: MAX
    kernel_size: 2
    stride: 2
  }
}
layer {
  name: "conv2_1"
  type: "Convolution"
  bottom: "pool1"
  top: "conv2_1"
  param {
    lr_mult: 1
    decay_mult: 1
  }
  param {
    lr_mult: 2
    decay_mult: 0
  }
  convolution_param {
    num_output: 128
    pad: 1
    kernel_size: 3
    weight_filler {
      type: "xavier"
    }
    bias_filler {
      type: "constant"
      value: 0
    }
  }
}
layer {
  name: "relu2_1"
  type: "ReLU"
  bottom: "conv2_1"
  top: "conv2_1"
}
layer {
  name: "conv2_2"
  type: "Convolution"
  bottom: "conv2_1"
  top: "conv2_2"
  param {
    lr_mult: 1
    decay_mult: 1
  }
  param {
    lr_mult: 2
    decay_mult: 0
  }
  convolution_param {
    num_output: 128
    pad: 1
    kernel_size: 3
    weight_filler {
      type: "xavier"
    }
    bias_filler {
      type: "constant"
      value: 0
    }
  }
}
layer {
  name: "relu2_2"
  type: "ReLU"
  bottom: "conv2_2"
  top: "conv2_2"
}
layer {
  name: "pool2"
  type: "Pooling"
  bottom: "conv2_2"
  top: "pool2"
  pooling_param {
    pool: MAX
    kernel_size: 2
    stride: 2
  }
}
layer {
  name: "conv3_1"
  type: "Convolution"
  bottom: "pool2"
  top: "conv3_1"
  param {
    lr_mult: 1
    decay_mult: 1
  }
  param {
    lr_mult: 2
    decay_mult: 0
  }
  convolution_param {
    num_output: 256
    pad: 1
    kernel_size: 3
    weight_filler {
      type: "xavier"
    }
    bias_filler {
      type: "constant"
      value: 0
    }
  }
}
layer {
  name: "relu3_1"
  type: "ReLU"
  bottom: "conv3_1"
  top: "conv3_1"
}
layer {
  name: "conv3_2"
  type: "Convolution"
  bottom: "conv3_1"
  top: "conv3_2"
  param {
    lr_mult: 1
    decay_mult: 1
  }
  param {
    lr_mult: 2
    decay_mult: 0
  }
  convolution_param {
    num_output: 256
    pad: 1
    kernel_size: 3
    weight_filler {
      type: "xavier"
    }
    bias_filler {
      type: "constant"
      value: 0
    }
  }
}
layer {
  name: "relu3_2"
  type: "ReLU"
  bottom: "conv3_2"
  top: "conv3_2"
}
layer {
  name: "conv3_3"
  type: "Convolution"
  bottom: "conv3_2"
  top: "conv3_3"
  param {
    lr_mult: 1
    decay_mult: 1
  }
  param {
    lr_mult: 2
    decay_mult: 0
  }
  convolution_param {
    num_output: 256
    pad: 1
    kernel_size: 3
    weight_filler {
      type: "xavier"
    }
    bias_filler {
      type: "constant"
      value: 0
    }
  }
}
layer {
  name: "relu3_3"
  type: "ReLU"
  bottom: "conv3_3"
  top: "conv3_3"
}
layer {
  name: "pool3"
  type: "Pooling"
  bottom: "conv3_3"
  top: "pool3"
  pooling_param {
    pool: MAX
    kernel_size: 2
    stride: 2
  }
}
layer {
  name: "conv4_1"
  type: "Convolution"
  bottom: "pool3"
  top: "conv4_1"
  param {
    lr_mult: 1
    decay_mult: 1
  }
  param {
    lr_mult: 2
    decay_mult: 0
  }
  convolution_param {
    num_output: 512
    pad: 1
    kernel_size: 3
    weight_filler {
      type: "xavier"
    }
    bias_filler {
      type: "constant"
      value: 0
    }
  }
}
layer {
  name: "relu4_1"
  type: "ReLU"
  bottom: "conv4_1"
  top: "conv4_1"
}
layer {
  name: "conv4_2"
  type: "Convolution"
  bottom: "conv4_1"
  top: "conv4_2"
  param {
    lr_mult: 1
    decay_mult: 1
  }
  param {
    lr_mult: 2
    decay_mult: 0
  }
  convolution_param {
    num_output: 512
    pad: 1
    kernel_size: 3
    weight_filler {
      type: "xavier"
    }
    bias_filler {
      type: "constant"
      value: 0
    }
  }
}
layer {
  name: "relu4_2"
  type: "ReLU"
  bottom: "conv4_2"
  top: "conv4_2"
}
layer {
  name: "conv4_3"
  type: "Convolution"
  bottom: "conv4_2"
  top: "conv4_3"
  param {
    lr_mult: 1
    decay_mult: 1
  }
  param {
    lr_mult: 2
    decay_mult: 0
  }
  convolution_param {
    num_output: 512
    pad: 1
    kernel_size: 3
    weight_filler {
      type: "xavier"
    }
    bias_filler {
      type: "constant"
      value: 0
    }
  }
}
layer {
  name: "relu4_3"
  type: "ReLU"
  bottom: "conv4_3"
  top: "conv4_3"
}
layer {
  name: "pool4"
  type: "Pooling"
  bottom: "conv4_3"
  top: "pool4"
  pooling_param {
    pool: MAX
    kernel_size: 2
    stride: 2
  }
}
layer {
  name: "conv5_1"
  type: "Convolution"
  bottom: "pool4"
  top: "conv5_1"
  param {
    lr_mult: 1
    decay_mult: 1
  }
  param {
    lr_mult: 2
    decay_mult: 0
  }
  convolution_param {
    num_output: 512
    pad: 1
    kernel_size: 3
    weight_filler {
      type: "xavier"
    }
    bias_filler {
      type: "constant"
      value: 0
    }
    dilation: 1
  }
}
layer {
  name: "relu5_1"
  type: "ReLU"
  bottom: "conv5_1"
  top: "conv5_1"
}
layer {
  name: "conv5_2"
  type: "Convolution"
  bottom: "conv5_1"
  top: "conv5_2"
  param {
    lr_mult: 1
    decay_mult: 1
  }
  param {
    lr_mult: 2
    decay_mult: 0
  }
  convolution_param {
    num_output: 512
    pad: 1
    kernel_size: 3
    weight_filler {
      type: "xavier"
    }
    bias_filler {
      type: "constant"
      value: 0
    }
    dilation: 1
  }
}
layer {
  name: "relu5_2"
  type: "ReLU"
  bottom: "conv5_2"
  top: "conv5_2"
}
layer {
  name: "conv5_3"
  type: "Convolution"
  bottom: "conv5_2"
  top: "conv5_3"
  param {
    lr_mult: 1
    decay_mult: 1
  }
  param {
    lr_mult: 2
    decay_mult: 0
  }
  convolution_param {
    num_output: 512
    pad: 1
    kernel_size: 3
    weight_filler {
      type: "xavier"
    }
    bias_filler {
      type: "constant"
      value: 0
    }
    dilation: 1
  }
}
layer {
  name: "relu5_3"
  type: "ReLU"
  bottom: "conv5_3"
  top: "conv5_3"
}
layer {
  name: "pool5"
  type: "Pooling"
  bottom: "conv5_3"
  top: "pool5"
  pooling_param {
    pool: MAX
    kernel_size: 3
    stride: 1
    pad: 1
  }
}
layer {
  name: "fc6"
  type: "Convolution"
  bottom: "pool5"
  top: "fc6"
  param {
    lr_mult: 1
    decay_mult: 1
  }
  param {
    lr_mult: 2
    decay_mult: 0
  }
  convolution_param {
    num_output: 1024
    pad: 6
    kernel_size: 3
    weight_filler {
      type: "xavier"
    }
    bias_filler {
      type: "constant"
      value: 0
    }
    dilation: 6
  }
}
layer {
  name: "relu6"
  type: "ReLU"
  bottom: "fc6"
  top: "fc6"
}
layer {
  name: "fc7"
  type: "Convolution"
  bottom: "fc6"
  top: "fc7"
  param {
    lr_mult: 1
    decay_mult: 1
  }
  param {
    lr_mult: 2
    decay_mult: 0
  }
  convolution_param {
    num_output: 1024
    kernel_size: 1
    weight_filler {
      type: "xavier"
    }
    bias_filler {
      type: "constant"
      value: 0
    }
  }
}
layer {
  name: "relu7"
  type: "ReLU"
  bottom: "fc7"
  top: "fc7"
}
layer {
  name: "conv6_1"
  type: "Convolution"
  bottom: "fc7"
  top: "conv6_1"
  param {
    lr_mult: 1
    decay_mult: 1
  }
  param {
    lr_mult: 2
    decay_mult: 0
  }
  convolution_param {
    num_output: 256
    pad: 0
    kernel_size: 1
    stride: 1
    weight_filler {
      type: "xavier"
    }
    bias_filler {
      type: "constant"
      value: 0
    }
  }
}
layer {
  name: "conv6_1_relu"
  type: "ReLU"
  bottom: "conv6_1"
  top: "conv6_1"
}
layer {
  name: "conv6_2"
  type: "Convolution"
  bottom: "conv6_1"
  top: "conv6_2"
  param {
    lr_mult: 1
    decay_mult: 1
  }
  param {
    lr_mult: 2
    decay_mult: 0
  }
  convolution_param {
    num_output: 512
    pad: 1
    kernel_size: 3
    stride: 2
    weight_filler {
      type: "xavier"
    }
    bias_filler {
      type: "constant"
      value: 0
    }
  }
}
layer {
  name: "conv6_2_relu"
  type: "ReLU"
  bottom: "conv6_2"
  top: "conv6_2"
}
layer {
  name: "conv7_1"
  type: "Convolution"
  bottom: "conv6_2"
  top: "conv7_1"
  param {
    lr_mult: 1
    decay_mult: 1
  }
  param {
    lr_mult: 2
    decay_mult: 0
  }
  convolution_param {
    num_output: 128
    pad: 0
    kernel_size: 1
    stride: 1
    weight_filler {
      type: "xavier"
    }
    bias_filler {
      type: "constant"
      value: 0
    }
  }
}
layer {
  name: "conv7_1_relu"
  type: "ReLU"
  bottom: "conv7_1"
  top: "conv7_1"
}
layer {
  name: "conv7_2"
  type: "Convolution"
  bottom: "conv7_1"
  top: "conv7_2"
  param {
    lr_mult: 1
    decay_mult: 1
  }
  param {
    lr_mult: 2
    decay_mult: 0
  }
  convolution_param {
    num_output: 256
    pad: 1
    kernel_size: 3
    stride: 2
    weight_filler {
      type: "xavier"
    }
    bias_filler {
      type: "constant"
      value: 0
    }
  }
}
layer {
  name: "conv7_2_relu"
  type: "ReLU"
  bottom: "conv7_2"
  top: "conv7_2"
}
layer {
  name: "conv8_1"
  type: "Convolution"
  bottom: "conv7_2"
  top: "conv8_1"
  param {
    lr_mult: 1
    decay_mult: 1
  }
  param {
    lr_mult: 2
    decay_mult: 0
  }
  convolution_param {
    num_output: 128
    pad: 0
    kernel_size: 1
    stride: 1
    weight_filler {
      type: "xavier"
    }
    bias_filler {
      type: "constant"
      value: 0
    }
  }
}
layer {
  name: "conv8_1_relu"
  type: "ReLU"
  bottom: "conv8_1"
  top: "conv8_1"
}
layer {
  name: "conv8_2"
  type: "Convolution"
  bottom: "conv8_1"
  top: "conv8_2"
  param {
    lr_mult: 1
    decay_mult: 1
  }
  param {
    lr_mult: 2
    decay_mult: 0
  }
  convolution_param {
    num_output: 256
    pad: 0
    kernel_size: 3
    stride: 1
    weight_filler {
      type: "xavier"
    }
    bias_filler {
      type: "constant"
      value: 0
    }
  }
}
layer {
  name: "conv8_2_relu"
  type: "ReLU"
  bottom: "conv8_2"
  top: "conv8_2"
}
layer {
  name: "conv9_1"
  type: "Convolution"
  bottom: "conv8_2"
  top: "conv9_1"
  param {
    lr_mult: 1
    decay_mult: 1
  }
  param {
    lr_mult: 2
    decay_mult: 0
  }
  convolution_param {
    num_output: 128
    pad: 0
    kernel_size: 1
    stride: 1
    weight_filler {
      type: "xavier"
    }
    bias_filler {
      type: "constant"
      value: 0
    }
  }
}
layer {
  name: "conv9_1_relu"
  type: "ReLU"
  bottom: "conv9_1"
  top: "conv9_1"
}
layer {
  name: "conv9_2"
  type: "Convolution"
  bottom: "conv9_1"
  top: "conv9_2"
  param {
    lr_mult: 1
    decay_mult: 1
  }
  param {
    lr_mult: 2
    decay_mult: 0
  }
  convolution_param {
    num_output: 256
    pad: 0
    kernel_size: 3
    stride: 1
    weight_filler {
      type: "xavier"
    }
    bias_filler {
      type: "constant"
      value: 0
    }
  }
}
layer {
  name: "conv9_2_relu"
  type: "ReLU"
  bottom: "conv9_2"
  top: "conv9_2"
}
layer {
  name: "conv4_3_norm"
  type: "Normalize"
  bottom: "conv4_3"
  top: "conv4_3_norm"
  norm_param {
    across_spatial: false
    scale_filler {
      type: "constant"
      value: 20
    }
    channel_shared: false
  }
}
layer {
  name: "conv4_3_norm_mbox_loc"
  type: "Convolution"
  bottom: "conv4_3_norm"
  top: "conv4_3_norm_mbox_loc"
  param {
    lr_mult: 1
    decay_mult: 1
  }
  param {
    lr_mult: 2
    decay_mult: 0
  }
  convolution_param {
    num_output: 16
    pad: 1
    kernel_size: 3
    stride: 1
    weight_filler {
      type: "xavier"
    }
    bias_filler {
      type: "constant"
      value: 0
    }
  }
}
layer {
  name: "conv4_3_norm_mbox_loc_perm"
  type: "Permute"
  bottom: "conv4_3_norm_mbox_loc"
  top: "conv4_3_norm_mbox_loc_perm"
  permute_param {
    order: 0
    order: 2
    order: 3
    order: 1
  }
}
layer {
  name: "conv4_3_norm_mbox_loc_flat"
  type: "Flatten"
  bottom: "conv4_3_norm_mbox_loc_perm"
  top: "conv4_3_norm_mbox_loc_flat"
  flatten_param {
    axis: 1
  }
}
layer {
  name: "conv4_3_norm_mbox_conf"
  type: "Convolution"
  bottom: "conv4_3_norm"
  top: "conv4_3_norm_mbox_conf"
  param {
    lr_mult: 1
    decay_mult: 1
  }
  param {
    lr_mult: 2
    decay_mult: 0
  }
  convolution_param {
    num_output: 88
    pad: 1
    kernel_size: 3
    stride: 1
    weight_filler {
      type: "xavier"
    }
    bias_filler {
      type: "constant"
      value: 0
    }
  }
}
layer {
  name: "conv4_3_norm_mbox_conf_perm"
  type: "Permute"
  bottom: "conv4_3_norm_mbox_conf"
  top: "conv4_3_norm_mbox_conf_perm"
  permute_param {
    order: 0
    order: 2
    order: 3
    order: 1
  }
}
layer {
  name: "conv4_3_norm_mbox_conf_flat"
  type: "Flatten"
  bottom: "conv4_3_norm_mbox_conf_perm"
  top: "conv4_3_norm_mbox_conf_flat"
  flatten_param {
    axis: 1
  }
}
layer {
  name: "conv4_3_norm_mbox_priorbox"
  type: "PriorBox"
  bottom: "conv4_3_norm"
  bottom: "data"
  top: "conv4_3_norm_mbox_priorbox"
  prior_box_param {
    min_size: 30
    max_size: 60
    aspect_ratio: 2
    flip: true
    clip: false
    variance: 0.1
    variance: 0.1
    variance: 0.2
    variance: 0.2
    step: 8
    offset: 0.5
  }
}
layer {
  name: "fc7_mbox_loc"
  type: "Convolution"
  bottom: "fc7"
  top: "fc7_mbox_loc"
  param {
    lr_mult: 1
    decay_mult: 1
  }
  param {
    lr_mult: 2
    decay_mult: 0
  }
  convolution_param {
    num_output: 24
    pad: 1
    kernel_size: 3
    stride: 1
    weight_filler {
      type: "xavier"
    }
    bias_filler {
      type: "constant"
      value: 0
    }
  }
}
layer {
  name: "fc7_mbox_loc_perm"
  type: "Permute"
  bottom: "fc7_mbox_loc"
  top: "fc7_mbox_loc_perm"
  permute_param {
    order: 0
    order: 2
    order: 3
    order: 1
  }
}
layer {
  name: "fc7_mbox_loc_flat"
  type: "Flatten"
  bottom: "fc7_mbox_loc_perm"
  top: "fc7_mbox_loc_flat"
  flatten_param {
    axis: 1
  }
}
layer {
  name: "fc7_mbox_conf"
  type: "Convolution"
  bottom: "fc7"
  top: "fc7_mbox_conf"
  param {
    lr_mult: 1
    decay_mult: 1
  }
  param {
    lr_mult: 2
    decay_mult: 0
  }
  convolution_param {
    num_output: 132
    pad: 1
    kernel_size: 3
    stride: 1
    weight_filler {
      type: "xavier"
    }
    bias_filler {
      type: "constant"
      value: 0
    }
  }
}
layer {
  name: "fc7_mbox_conf_perm"
  type: "Permute"
  bottom: "fc7_mbox_conf"
  top: "fc7_mbox_conf_perm"
  permute_param {
    order: 0
    order: 2
    order: 3
    order: 1
  }
}
layer {
  name: "fc7_mbox_conf_flat"
  type: "Flatten"
  bottom: "fc7_mbox_conf_perm"
  top: "fc7_mbox_conf_flat"
  flatten_param {
    axis: 1
  }
}
layer {
  name: "fc7_mbox_priorbox"
  type: "PriorBox"
  bottom: "fc7"
  bottom: "data"
  top: "fc7_mbox_priorbox"
  prior_box_param {
    min_size: 60
    max_size: 111
    aspect_ratio: 2
    aspect_ratio: 3
    flip: true
    clip: false
    variance: 0.1
    variance: 0.1
    variance: 0.2
    variance: 0.2
    step: 16
    offset: 0.5
  }
}
layer {
  name: "conv6_2_mbox_loc"
  type: "Convolution"
  bottom: "conv6_2"
  top: "conv6_2_mbox_loc"
  param {
    lr_mult: 1
    decay_mult: 1
  }
  param {
    lr_mult: 2
    decay_mult: 0
  }
  convolution_param {
    num_output: 24
    pad: 1
    kernel_size: 3
    stride: 1
    weight_filler {
      type: "xavier"
    }
    bias_filler {
      type: "constant"
      value: 0
    }
  }
}
layer {
  name: "conv6_2_mbox_loc_perm"
  type: "Permute"
  bottom: "conv6_2_mbox_loc"
  top: "conv6_2_mbox_loc_perm"
  permute_param {
    order: 0
    order: 2
    order: 3
    order: 1
  }
}
layer {
  name: "conv6_2_mbox_loc_flat"
  type: "Flatten"
  bottom: "conv6_2_mbox_loc_perm"
  top: "conv6_2_mbox_loc_flat"
  flatten_param {
    axis: 1
  }
}
layer {
  name: "conv6_2_mbox_conf"
  type: "Convolution"
  bottom: "conv6_2"
  top: "conv6_2_mbox_conf"
  param {
    lr_mult: 1
    decay_mult: 1
  }
  param {
    lr_mult: 2
    decay_mult: 0
  }
  convolution_param {
    num_output: 132
    pad: 1
    kernel_size: 3
    stride: 1
    weight_filler {
      type: "xavier"
    }
    bias_filler {
      type: "constant"
      value: 0
    }
  }
}
layer {
  name: "conv6_2_mbox_conf_perm"
  type: "Permute"
  bottom: "conv6_2_mbox_conf"
  top: "conv6_2_mbox_conf_perm"
  permute_param {
    order: 0
    order: 2
    order: 3
    order: 1
  }
}
layer {
  name: "conv6_2_mbox_conf_flat"
  type: "Flatten"
  bottom: "conv6_2_mbox_conf_perm"
  top: "conv6_2_mbox_conf_flat"
  flatten_param {
    axis: 1
  }
}
layer {
  name: "conv6_2_mbox_priorbox"
  type: "PriorBox"
  bottom: "conv6_2"
  bottom: "data"
  top: "conv6_2_mbox_priorbox"
  prior_box_param {
    min_size: 111
    max_size: 162
    aspect_ratio: 2
    aspect_ratio: 3
    flip: true
    clip: false
    variance: 0.1
    variance: 0.1
    variance: 0.2
    variance: 0.2
    step: 32
    offset: 0.5
  }
}
layer {
  name: "conv7_2_mbox_loc"
  type: "Convolution"
  bottom: "conv7_2"
  top: "conv7_2_mbox_loc"
  param {
    lr_mult: 1
    decay_mult: 1
  }
  param {
    lr_mult: 2
    decay_mult: 0
  }
  convolution_param {
    num_output: 24
    pad: 1
    kernel_size: 3
    stride: 1
    weight_filler {
      type: "xavier"
    }
    bias_filler {
      type: "constant"
      value: 0
    }
  }
}
layer {
  name: "conv7_2_mbox_loc_perm"
  type: "Permute"
  bottom: "conv7_2_mbox_loc"
  top: "conv7_2_mbox_loc_perm"
  permute_param {
    order: 0
    order: 2
    order: 3
    order: 1
  }
}
layer {
  name: "conv7_2_mbox_loc_flat"
  type: "Flatten"
  bottom: "conv7_2_mbox_loc_perm"
  top: "conv7_2_mbox_loc_flat"
  flatten_param {
    axis: 1
  }
}
layer {
  name: "conv7_2_mbox_conf"
  type: "Convolution"
  bottom: "conv7_2"
  top: "conv7_2_mbox_conf"
  param {
    lr_mult: 1
    decay_mult: 1
  }
  param {
    lr_mult: 2
    decay_mult: 0
  }
  convolution_param {
    num_output: 132
    pad: 1
    kernel_size: 3
    stride: 1
    weight_filler {
      type: "xavier"
    }
    bias_filler {
      type: "constant"
      value: 0
    }
  }
}
layer {
  name: "conv7_2_mbox_conf_perm"
  type: "Permute"
  bottom: "conv7_2_mbox_conf"
  top: "conv7_2_mbox_conf_perm"
  permute_param {
    order: 0
    order: 2
    order: 3
    order: 1
  }
}
layer {
  name: "conv7_2_mbox_conf_flat"
  type: "Flatten"
  bottom: "conv7_2_mbox_conf_perm"
  top: "conv7_2_mbox_conf_flat"
  flatten_param {
    axis: 1
  }
}
layer {
  name: "conv7_2_mbox_priorbox"
  type: "PriorBox"
  bottom: "conv7_2"
  bottom: "data"
  top: "conv7_2_mbox_priorbox"
  prior_box_param {
    min_size: 162
    max_size: 213
    aspect_ratio: 2
    aspect_ratio: 3
    flip: true
    clip: false
    variance: 0.1
    variance: 0.1
    variance: 0.2
    variance: 0.2
    step: 64
    offset: 0.5
  }
}
layer {
  name: "conv8_2_mbox_loc"
  type: "Convolution"
  bottom: "conv8_2"
  top: "conv8_2_mbox_loc"
  param {
    lr_mult: 1
    decay_mult: 1
  }
  param {
    lr_mult: 2
    decay_mult: 0
  }
  convolution_param {
    num_output: 16
    pad: 1
    kernel_size: 3
    stride: 1
    weight_filler {
      type: "xavier"
    }
    bias_filler {
      type: "constant"
      value: 0
    }
  }
}
layer {
  name: "conv8_2_mbox_loc_perm"
  type: "Permute"
  bottom: "conv8_2_mbox_loc"
  top: "conv8_2_mbox_loc_perm"
  permute_param {
    order: 0
    order: 2
    order: 3
    order: 1
  }
}
layer {
  name: "conv8_2_mbox_loc_flat"
  type: "Flatten"
  bottom: "conv8_2_mbox_loc_perm"
  top: "conv8_2_mbox_loc_flat"
  flatten_param {
    axis: 1
  }
}
layer {
  name: "conv8_2_mbox_conf"
  type: "Convolution"
  bottom: "conv8_2"
  top: "conv8_2_mbox_conf"
  param {
    lr_mult: 1
    decay_mult: 1
  }
  param {
    lr_mult: 2
    decay_mult: 0
  }
  convolution_param {
    num_output: 88
    pad: 1
    kernel_size: 3
    stride: 1
    weight_filler {
      type: "xavier"
    }
    bias_filler {
      type: "constant"
      value: 0
    }
  }
}
layer {
  name: "conv8_2_mbox_conf_perm"
  type: "Permute"
  bottom: "conv8_2_mbox_conf"
  top: "conv8_2_mbox_conf_perm"
  permute_param {
    order: 0
    order: 2
    order: 3
    order: 1
  }
}
layer {
  name: "conv8_2_mbox_conf_flat"
  type: "Flatten"
  bottom: "conv8_2_mbox_conf_perm"
  top: "conv8_2_mbox_conf_flat"
  flatten_param {
    axis: 1
  }
}
layer {
  name: "conv8_2_mbox_priorbox"
  type: "PriorBox"
  bottom: "conv8_2"
  bottom: "data"
  top: "conv8_2_mbox_priorbox"
  prior_box_param {
    min_size: 213
    max_size: 264
    aspect_ratio: 2
    flip: true
    clip: false
    variance: 0.1
    variance: 0.1
    variance: 0.2
    variance: 0.2
    step: 100
    offset: 0.5
  }
}
layer {
  name: "conv9_2_mbox_loc"
  type: "Convolution"
  bottom: "conv9_2"
  top: "conv9_2_mbox_loc"
  param {
    lr_mult: 1
    decay_mult: 1
  }
  param {
    lr_mult: 2
    decay_mult: 0
  }
  convolution_param {
    num_output: 16
    pad: 1
    kernel_size: 3
    stride: 1
    weight_filler {
      type: "xavier"
    }
    bias_filler {
      type: "constant"
      value: 0
    }
  }
}
layer {
  name: "conv9_2_mbox_loc_perm"
  type: "Permute"
  bottom: "conv9_2_mbox_loc"
  top: "conv9_2_mbox_loc_perm"
  permute_param {
    order: 0
    order: 2
    order: 3
    order: 1
  }
}
layer {
  name: "conv9_2_mbox_loc_flat"
  type: "Flatten"
  bottom: "conv9_2_mbox_loc_perm"
  top: "conv9_2_mbox_loc_flat"
  flatten_param {
    axis: 1
  }
}
layer {
  name: "conv9_2_mbox_conf"
  type: "Convolution"
  bottom: "conv9_2"
  top: "conv9_2_mbox_conf"
  param {
    lr_mult: 1
    decay_mult: 1
  }
  param {
    lr_mult: 2
    decay_mult: 0
  }
  convolution_param {
    num_output: 88
    pad: 1
    kernel_size: 3
    stride: 1
    weight_filler {
      type: "xavier"
    }
    bias_filler {
      type: "constant"
      value: 0
    }
  }
}
layer {
  name: "conv9_2_mbox_conf_perm"
  type: "Permute"
  bottom: "conv9_2_mbox_conf"
  top: "conv9_2_mbox_conf_perm"
  permute_param {
    order: 0
    order: 2
    order: 3
    order: 1
  }
}
layer {
  name: "conv9_2_mbox_conf_flat"
  type: "Flatten"
  bottom: "conv9_2_mbox_conf_perm"
  top: "conv9_2_mbox_conf_flat"
  flatten_param {
    axis: 1
  }
}
layer {
  name: "conv9_2_mbox_priorbox"
  type: "PriorBox"
  bottom: "conv9_2"
  bottom: "data"
  top: "conv9_2_mbox_priorbox"
  prior_box_param {
    min_size: 264
    max_size: 315
    aspect_ratio: 2
    flip: true
    clip: false
    variance: 0.1
    variance: 0.1
    variance: 0.2
    variance: 0.2
    step: 300
    offset: 0.5
  }
}
layer {
  name: "mbox_loc"
  type: "Concat"
  bottom: "conv4_3_norm_mbox_loc_flat"
  bottom: "fc7_mbox_loc_flat"
  bottom: "conv6_2_mbox_loc_flat"
  bottom: "conv7_2_mbox_loc_flat"
  bottom: "conv8_2_mbox_loc_flat"
  bottom: "conv9_2_mbox_loc_flat"
  top: "mbox_loc"
  concat_param {
    axis: 1
  }
}
layer {
  name: "mbox_conf"
  type: "Concat"
  bottom: "conv4_3_norm_mbox_conf_flat"
  bottom: "fc7_mbox_conf_flat"
  bottom: "conv6_2_mbox_conf_flat"
  bottom: "conv7_2_mbox_conf_flat"
  bottom: "conv8_2_mbox_conf_flat"
  bottom: "conv9_2_mbox_conf_flat"
  top: "mbox_conf"
  concat_param {
    axis: 1
  }
}
layer {
  name: "mbox_priorbox"
  type: "Concat"
  bottom: "conv4_3_norm_mbox_priorbox"
  bottom: "fc7_mbox_priorbox"
  bottom: "conv6_2_mbox_priorbox"
  bottom: "conv7_2_mbox_priorbox"
  bottom: "conv8_2_mbox_priorbox"
  bottom: "conv9_2_mbox_priorbox"
  top: "mbox_priorbox"
  concat_param {
    axis: 2
  }
}
layer {
  name: "mbox_loss"
  type: "MultiBoxLoss"
  bottom: "mbox_loc"
  bottom: "mbox_conf"
  bottom: "mbox_priorbox"
  bottom: "label"
  top: "mbox_loss"
  include {
    phase: TRAIN
  }
  propagate_down: true
  propagate_down: true
  propagate_down: false
  propagate_down: false
  loss_param {
    normalization: VALID
  }
  multibox_loss_param {
    loc_loss_type: SMOOTH_L1
    conf_loss_type: SOFTMAX
    loc_weight: 1
    num_classes: 22
    share_location: true
    match_type: PER_PREDICTION
    overlap_threshold: 0.5
    use_prior_for_matching: true
    background_label_id: 0
    use_difficult_gt: true
    neg_pos_ratio: 3
    neg_overlap: 0.5
    code_type: CENTER_SIZE
    ignore_cross_boundary_bbox: false
    mining_type: MAX_NEGATIVE
  }
}
I0218 01:14:27.827172 22546 layer_factory.hpp:77] Creating layer data
I0218 01:14:27.827836 22546 net.cpp:100] Creating Layer data
I0218 01:14:27.827873 22546 net.cpp:408] data -> data
I0218 01:14:27.827932 22546 net.cpp:408] data -> label
I0218 01:14:27.828865 22563 db_lmdb.cpp:35] Opened lmdb examples/dbgr_trees/dbgr_trees_trainval_lmdb
I0218 01:14:27.852222 22546 annotated_data_layer.cpp:62] output data size: 32,4,300,300
I0218 01:14:27.915693 22546 net.cpp:150] Setting up data
I0218 01:14:27.915735 22546 net.cpp:157] Top shape: 32 4 300 300 (11520000)
I0218 01:14:27.915773 22546 net.cpp:157] Top shape: 1 1 3 8 (24)
I0218 01:14:27.915781 22546 net.cpp:165] Memory required for data: 46080096
I0218 01:14:27.915797 22546 layer_factory.hpp:77] Creating layer data_data_0_split
I0218 01:14:27.915825 22546 net.cpp:100] Creating Layer data_data_0_split
I0218 01:14:27.915838 22546 net.cpp:434] data_data_0_split <- data
I0218 01:14:27.915858 22546 net.cpp:408] data_data_0_split -> data_data_0_split_0
I0218 01:14:27.915877 22546 net.cpp:408] data_data_0_split -> data_data_0_split_1
I0218 01:14:27.915892 22546 net.cpp:408] data_data_0_split -> data_data_0_split_2
I0218 01:14:27.915909 22546 net.cpp:408] data_data_0_split -> data_data_0_split_3
I0218 01:14:27.915926 22546 net.cpp:408] data_data_0_split -> data_data_0_split_4
I0218 01:14:27.915943 22546 net.cpp:408] data_data_0_split -> data_data_0_split_5
I0218 01:14:27.915957 22546 net.cpp:408] data_data_0_split -> data_data_0_split_6
I0218 01:14:27.916066 22546 net.cpp:150] Setting up data_data_0_split
I0218 01:14:27.916079 22546 net.cpp:157] Top shape: 32 4 300 300 (11520000)
I0218 01:14:27.916088 22546 net.cpp:157] Top shape: 32 4 300 300 (11520000)
I0218 01:14:27.916097 22546 net.cpp:157] Top shape: 32 4 300 300 (11520000)
I0218 01:14:27.916105 22546 net.cpp:157] Top shape: 32 4 300 300 (11520000)
I0218 01:14:27.916113 22546 net.cpp:157] Top shape: 32 4 300 300 (11520000)
I0218 01:14:27.916121 22546 net.cpp:157] Top shape: 32 4 300 300 (11520000)
I0218 01:14:27.916131 22546 net.cpp:157] Top shape: 32 4 300 300 (11520000)
I0218 01:14:27.916138 22546 net.cpp:165] Memory required for data: 368640096
I0218 01:14:27.916146 22546 layer_factory.hpp:77] Creating layer conv1_1_rgbd
I0218 01:14:27.916170 22546 net.cpp:100] Creating Layer conv1_1_rgbd
I0218 01:14:27.916178 22546 net.cpp:434] conv1_1_rgbd <- data_data_0_split_0
I0218 01:14:27.916193 22546 net.cpp:408] conv1_1_rgbd -> conv1_1_rgbd
I0218 01:14:28.081868 22546 net.cpp:150] Setting up conv1_1_rgbd
I0218 01:14:28.081908 22546 net.cpp:157] Top shape: 32 64 300 300 (184320000)
I0218 01:14:28.081915 22546 net.cpp:165] Memory required for data: 1105920096
I0218 01:14:28.081945 22546 layer_factory.hpp:77] Creating layer relu1_1
I0218 01:14:28.081962 22546 net.cpp:100] Creating Layer relu1_1
I0218 01:14:28.081972 22546 net.cpp:434] relu1_1 <- conv1_1_rgbd
I0218 01:14:28.081984 22546 net.cpp:395] relu1_1 -> conv1_1_rgbd (in-place)
I0218 01:14:28.082314 22546 net.cpp:150] Setting up relu1_1
I0218 01:14:28.082330 22546 net.cpp:157] Top shape: 32 64 300 300 (184320000)
I0218 01:14:28.082339 22546 net.cpp:165] Memory required for data: 1843200096
I0218 01:14:28.082345 22546 layer_factory.hpp:77] Creating layer conv1_2
I0218 01:14:28.082367 22546 net.cpp:100] Creating Layer conv1_2
I0218 01:14:28.082379 22546 net.cpp:434] conv1_2 <- conv1_1_rgbd
I0218 01:14:28.082392 22546 net.cpp:408] conv1_2 -> conv1_2
I0218 01:14:28.084362 22546 net.cpp:150] Setting up conv1_2
I0218 01:14:28.084381 22546 net.cpp:157] Top shape: 32 64 300 300 (184320000)
I0218 01:14:28.084389 22546 net.cpp:165] Memory required for data: 2580480096
I0218 01:14:28.084406 22546 layer_factory.hpp:77] Creating layer relu1_2
I0218 01:14:28.084419 22546 net.cpp:100] Creating Layer relu1_2
I0218 01:14:28.084426 22546 net.cpp:434] relu1_2 <- conv1_2
I0218 01:14:28.084436 22546 net.cpp:395] relu1_2 -> conv1_2 (in-place)
I0218 01:14:28.084740 22546 net.cpp:150] Setting up relu1_2
I0218 01:14:28.084758 22546 net.cpp:157] Top shape: 32 64 300 300 (184320000)
I0218 01:14:28.084765 22546 net.cpp:165] Memory required for data: 3317760096
I0218 01:14:28.084772 22546 layer_factory.hpp:77] Creating layer pool1
I0218 01:14:28.084784 22546 net.cpp:100] Creating Layer pool1
I0218 01:14:28.084792 22546 net.cpp:434] pool1 <- conv1_2
I0218 01:14:28.084803 22546 net.cpp:408] pool1 -> pool1
I0218 01:14:28.084873 22546 net.cpp:150] Setting up pool1
I0218 01:14:28.084887 22546 net.cpp:157] Top shape: 32 64 150 150 (46080000)
I0218 01:14:28.084893 22546 net.cpp:165] Memory required for data: 3502080096
I0218 01:14:28.084923 22546 layer_factory.hpp:77] Creating layer conv2_1
I0218 01:14:28.084940 22546 net.cpp:100] Creating Layer conv2_1
I0218 01:14:28.084949 22546 net.cpp:434] conv2_1 <- pool1
I0218 01:14:28.084960 22546 net.cpp:408] conv2_1 -> conv2_1
I0218 01:14:28.086627 22546 net.cpp:150] Setting up conv2_1
I0218 01:14:28.086645 22546 net.cpp:157] Top shape: 32 128 150 150 (92160000)
I0218 01:14:28.086653 22546 net.cpp:165] Memory required for data: 3870720096
I0218 01:14:28.086669 22546 layer_factory.hpp:77] Creating layer relu2_1
I0218 01:14:28.086683 22546 net.cpp:100] Creating Layer relu2_1
I0218 01:14:28.086691 22546 net.cpp:434] relu2_1 <- conv2_1
I0218 01:14:28.086701 22546 net.cpp:395] relu2_1 -> conv2_1 (in-place)
I0218 01:14:28.086891 22546 net.cpp:150] Setting up relu2_1
I0218 01:14:28.086906 22546 net.cpp:157] Top shape: 32 128 150 150 (92160000)
I0218 01:14:28.086913 22546 net.cpp:165] Memory required for data: 4239360096
I0218 01:14:28.086920 22546 layer_factory.hpp:77] Creating layer conv2_2
I0218 01:14:28.086936 22546 net.cpp:100] Creating Layer conv2_2
I0218 01:14:28.086944 22546 net.cpp:434] conv2_2 <- conv2_1
I0218 01:14:28.086956 22546 net.cpp:408] conv2_2 -> conv2_2
I0218 01:14:28.089504 22546 net.cpp:150] Setting up conv2_2
I0218 01:14:28.089524 22546 net.cpp:157] Top shape: 32 128 150 150 (92160000)
I0218 01:14:28.089531 22546 net.cpp:165] Memory required for data: 4608000096
I0218 01:14:28.089545 22546 layer_factory.hpp:77] Creating layer relu2_2
I0218 01:14:28.089555 22546 net.cpp:100] Creating Layer relu2_2
I0218 01:14:28.089563 22546 net.cpp:434] relu2_2 <- conv2_2
I0218 01:14:28.089573 22546 net.cpp:395] relu2_2 -> conv2_2 (in-place)
I0218 01:14:28.089886 22546 net.cpp:150] Setting up relu2_2
I0218 01:14:28.089902 22546 net.cpp:157] Top shape: 32 128 150 150 (92160000)
I0218 01:14:28.089910 22546 net.cpp:165] Memory required for data: 4976640096
I0218 01:14:28.089917 22546 layer_factory.hpp:77] Creating layer pool2
I0218 01:14:28.089929 22546 net.cpp:100] Creating Layer pool2
I0218 01:14:28.089936 22546 net.cpp:434] pool2 <- conv2_2
I0218 01:14:28.089946 22546 net.cpp:408] pool2 -> pool2
I0218 01:14:28.090001 22546 net.cpp:150] Setting up pool2
I0218 01:14:28.090013 22546 net.cpp:157] Top shape: 32 128 75 75 (23040000)
I0218 01:14:28.090020 22546 net.cpp:165] Memory required for data: 5068800096
I0218 01:14:28.090028 22546 layer_factory.hpp:77] Creating layer conv3_1
I0218 01:14:28.090042 22546 net.cpp:100] Creating Layer conv3_1
I0218 01:14:28.090055 22546 net.cpp:434] conv3_1 <- pool2
I0218 01:14:28.090067 22546 net.cpp:408] conv3_1 -> conv3_1
I0218 01:14:28.094115 22546 net.cpp:150] Setting up conv3_1
I0218 01:14:28.094133 22546 net.cpp:157] Top shape: 32 256 75 75 (46080000)
I0218 01:14:28.094141 22546 net.cpp:165] Memory required for data: 5253120096
I0218 01:14:28.094158 22546 layer_factory.hpp:77] Creating layer relu3_1
I0218 01:14:28.094171 22546 net.cpp:100] Creating Layer relu3_1
I0218 01:14:28.094177 22546 net.cpp:434] relu3_1 <- conv3_1
I0218 01:14:28.094187 22546 net.cpp:395] relu3_1 -> conv3_1 (in-place)
I0218 01:14:28.094507 22546 net.cpp:150] Setting up relu3_1
I0218 01:14:28.094532 22546 net.cpp:157] Top shape: 32 256 75 75 (46080000)
I0218 01:14:28.094540 22546 net.cpp:165] Memory required for data: 5437440096
I0218 01:14:28.094547 22546 layer_factory.hpp:77] Creating layer conv3_2
I0218 01:14:28.094564 22546 net.cpp:100] Creating Layer conv3_2
I0218 01:14:28.094573 22546 net.cpp:434] conv3_2 <- conv3_1
I0218 01:14:28.094585 22546 net.cpp:408] conv3_2 -> conv3_2
I0218 01:14:28.100690 22546 net.cpp:150] Setting up conv3_2
I0218 01:14:28.100711 22546 net.cpp:157] Top shape: 32 256 75 75 (46080000)
I0218 01:14:28.100719 22546 net.cpp:165] Memory required for data: 5621760096
I0218 01:14:28.100731 22546 layer_factory.hpp:77] Creating layer relu3_2
I0218 01:14:28.100744 22546 net.cpp:100] Creating Layer relu3_2
I0218 01:14:28.100750 22546 net.cpp:434] relu3_2 <- conv3_2
I0218 01:14:28.100764 22546 net.cpp:395] relu3_2 -> conv3_2 (in-place)
I0218 01:14:28.100955 22546 net.cpp:150] Setting up relu3_2
I0218 01:14:28.100982 22546 net.cpp:157] Top shape: 32 256 75 75 (46080000)
I0218 01:14:28.100991 22546 net.cpp:165] Memory required for data: 5806080096
I0218 01:14:28.100997 22546 layer_factory.hpp:77] Creating layer conv3_3
I0218 01:14:28.101021 22546 net.cpp:100] Creating Layer conv3_3
I0218 01:14:28.101030 22546 net.cpp:434] conv3_3 <- conv3_2
I0218 01:14:28.101042 22546 net.cpp:408] conv3_3 -> conv3_3
I0218 01:14:28.107163 22546 net.cpp:150] Setting up conv3_3
I0218 01:14:28.107182 22546 net.cpp:157] Top shape: 32 256 75 75 (46080000)
I0218 01:14:28.107189 22546 net.cpp:165] Memory required for data: 5990400096
I0218 01:14:28.107203 22546 layer_factory.hpp:77] Creating layer relu3_3
I0218 01:14:28.107213 22546 net.cpp:100] Creating Layer relu3_3
I0218 01:14:28.107221 22546 net.cpp:434] relu3_3 <- conv3_3
I0218 01:14:28.107234 22546 net.cpp:395] relu3_3 -> conv3_3 (in-place)
I0218 01:14:28.107563 22546 net.cpp:150] Setting up relu3_3
I0218 01:14:28.107578 22546 net.cpp:157] Top shape: 32 256 75 75 (46080000)
I0218 01:14:28.107585 22546 net.cpp:165] Memory required for data: 6174720096
I0218 01:14:28.107592 22546 layer_factory.hpp:77] Creating layer pool3
I0218 01:14:28.107604 22546 net.cpp:100] Creating Layer pool3
I0218 01:14:28.107612 22546 net.cpp:434] pool3 <- conv3_3
I0218 01:14:28.107626 22546 net.cpp:408] pool3 -> pool3
I0218 01:14:28.107688 22546 net.cpp:150] Setting up pool3
I0218 01:14:28.107702 22546 net.cpp:157] Top shape: 32 256 38 38 (11829248)
I0218 01:14:28.107708 22546 net.cpp:165] Memory required for data: 6222037088
I0218 01:14:28.107714 22546 layer_factory.hpp:77] Creating layer conv4_1
I0218 01:14:28.107731 22546 net.cpp:100] Creating Layer conv4_1
I0218 01:14:28.107743 22546 net.cpp:434] conv4_1 <- pool3
I0218 01:14:28.107758 22546 net.cpp:408] conv4_1 -> conv4_1
I0218 01:14:28.119168 22546 net.cpp:150] Setting up conv4_1
I0218 01:14:28.119194 22546 net.cpp:157] Top shape: 32 512 38 38 (23658496)
I0218 01:14:28.119201 22546 net.cpp:165] Memory required for data: 6316671072
I0218 01:14:28.119213 22546 layer_factory.hpp:77] Creating layer relu4_1
I0218 01:14:28.119227 22546 net.cpp:100] Creating Layer relu4_1
I0218 01:14:28.119237 22546 net.cpp:434] relu4_1 <- conv4_1
I0218 01:14:28.119248 22546 net.cpp:395] relu4_1 -> conv4_1 (in-place)
I0218 01:14:28.119578 22546 net.cpp:150] Setting up relu4_1
I0218 01:14:28.119596 22546 net.cpp:157] Top shape: 32 512 38 38 (23658496)
I0218 01:14:28.119602 22546 net.cpp:165] Memory required for data: 6411305056
I0218 01:14:28.119609 22546 layer_factory.hpp:77] Creating layer conv4_2
I0218 01:14:28.119630 22546 net.cpp:100] Creating Layer conv4_2
I0218 01:14:28.119644 22546 net.cpp:434] conv4_2 <- conv4_1
I0218 01:14:28.119657 22546 net.cpp:408] conv4_2 -> conv4_2
I0218 01:14:28.140614 22546 net.cpp:150] Setting up conv4_2
I0218 01:14:28.140655 22546 net.cpp:157] Top shape: 32 512 38 38 (23658496)
I0218 01:14:28.140661 22546 net.cpp:165] Memory required for data: 6505939040
I0218 01:14:28.140683 22546 layer_factory.hpp:77] Creating layer relu4_2
I0218 01:14:28.140698 22546 net.cpp:100] Creating Layer relu4_2
I0218 01:14:28.140707 22546 net.cpp:434] relu4_2 <- conv4_2
I0218 01:14:28.140722 22546 net.cpp:395] relu4_2 -> conv4_2 (in-place)
I0218 01:14:28.140924 22546 net.cpp:150] Setting up relu4_2
I0218 01:14:28.140939 22546 net.cpp:157] Top shape: 32 512 38 38 (23658496)
I0218 01:14:28.140945 22546 net.cpp:165] Memory required for data: 6600573024
I0218 01:14:28.140952 22546 layer_factory.hpp:77] Creating layer conv4_3
I0218 01:14:28.140972 22546 net.cpp:100] Creating Layer conv4_3
I0218 01:14:28.140985 22546 net.cpp:434] conv4_3 <- conv4_2
I0218 01:14:28.141000 22546 net.cpp:408] conv4_3 -> conv4_3
I0218 01:14:28.161895 22546 net.cpp:150] Setting up conv4_3
I0218 01:14:28.161932 22546 net.cpp:157] Top shape: 32 512 38 38 (23658496)
I0218 01:14:28.161939 22546 net.cpp:165] Memory required for data: 6695207008
I0218 01:14:28.161952 22546 layer_factory.hpp:77] Creating layer relu4_3
I0218 01:14:28.161967 22546 net.cpp:100] Creating Layer relu4_3
I0218 01:14:28.161998 22546 net.cpp:434] relu4_3 <- conv4_3
I0218 01:14:28.162014 22546 net.cpp:395] relu4_3 -> conv4_3 (in-place)
I0218 01:14:28.162355 22546 net.cpp:150] Setting up relu4_3
I0218 01:14:28.162372 22546 net.cpp:157] Top shape: 32 512 38 38 (23658496)
I0218 01:14:28.162379 22546 net.cpp:165] Memory required for data: 6789840992
I0218 01:14:28.162386 22546 layer_factory.hpp:77] Creating layer conv4_3_relu4_3_0_split
I0218 01:14:28.162400 22546 net.cpp:100] Creating Layer conv4_3_relu4_3_0_split
I0218 01:14:28.162407 22546 net.cpp:434] conv4_3_relu4_3_0_split <- conv4_3
I0218 01:14:28.162418 22546 net.cpp:408] conv4_3_relu4_3_0_split -> conv4_3_relu4_3_0_split_0
I0218 01:14:28.162431 22546 net.cpp:408] conv4_3_relu4_3_0_split -> conv4_3_relu4_3_0_split_1
I0218 01:14:28.162495 22546 net.cpp:150] Setting up conv4_3_relu4_3_0_split
I0218 01:14:28.162508 22546 net.cpp:157] Top shape: 32 512 38 38 (23658496)
I0218 01:14:28.162516 22546 net.cpp:157] Top shape: 32 512 38 38 (23658496)
I0218 01:14:28.162528 22546 net.cpp:165] Memory required for data: 6979108960
I0218 01:14:28.162534 22546 layer_factory.hpp:77] Creating layer pool4
I0218 01:14:28.162545 22546 net.cpp:100] Creating Layer pool4
I0218 01:14:28.162554 22546 net.cpp:434] pool4 <- conv4_3_relu4_3_0_split_0
I0218 01:14:28.162565 22546 net.cpp:408] pool4 -> pool4
I0218 01:14:28.162619 22546 net.cpp:150] Setting up pool4
I0218 01:14:28.162631 22546 net.cpp:157] Top shape: 32 512 19 19 (5914624)
I0218 01:14:28.162638 22546 net.cpp:165] Memory required for data: 7002767456
I0218 01:14:28.162647 22546 layer_factory.hpp:77] Creating layer conv5_1
I0218 01:14:28.162668 22546 net.cpp:100] Creating Layer conv5_1
I0218 01:14:28.162678 22546 net.cpp:434] conv5_1 <- pool4
I0218 01:14:28.162690 22546 net.cpp:408] conv5_1 -> conv5_1
I0218 01:14:28.183595 22546 net.cpp:150] Setting up conv5_1
I0218 01:14:28.183634 22546 net.cpp:157] Top shape: 32 512 19 19 (5914624)
I0218 01:14:28.183641 22546 net.cpp:165] Memory required for data: 7026425952
I0218 01:14:28.183656 22546 layer_factory.hpp:77] Creating layer relu5_1
I0218 01:14:28.183670 22546 net.cpp:100] Creating Layer relu5_1
I0218 01:14:28.183681 22546 net.cpp:434] relu5_1 <- conv5_1
I0218 01:14:28.183693 22546 net.cpp:395] relu5_1 -> conv5_1 (in-place)
I0218 01:14:28.184018 22546 net.cpp:150] Setting up relu5_1
I0218 01:14:28.184036 22546 net.cpp:157] Top shape: 32 512 19 19 (5914624)
I0218 01:14:28.184042 22546 net.cpp:165] Memory required for data: 7050084448
I0218 01:14:28.184051 22546 layer_factory.hpp:77] Creating layer conv5_2
I0218 01:14:28.184070 22546 net.cpp:100] Creating Layer conv5_2
I0218 01:14:28.184084 22546 net.cpp:434] conv5_2 <- conv5_1
I0218 01:14:28.184100 22546 net.cpp:408] conv5_2 -> conv5_2
I0218 01:14:28.205158 22546 net.cpp:150] Setting up conv5_2
I0218 01:14:28.205200 22546 net.cpp:157] Top shape: 32 512 19 19 (5914624)
I0218 01:14:28.205209 22546 net.cpp:165] Memory required for data: 7073742944
I0218 01:14:28.205222 22546 layer_factory.hpp:77] Creating layer relu5_2
I0218 01:14:28.205240 22546 net.cpp:100] Creating Layer relu5_2
I0218 01:14:28.205250 22546 net.cpp:434] relu5_2 <- conv5_2
I0218 01:14:28.205265 22546 net.cpp:395] relu5_2 -> conv5_2 (in-place)
I0218 01:14:28.205464 22546 net.cpp:150] Setting up relu5_2
I0218 01:14:28.205479 22546 net.cpp:157] Top shape: 32 512 19 19 (5914624)
I0218 01:14:28.205485 22546 net.cpp:165] Memory required for data: 7097401440
I0218 01:14:28.205492 22546 layer_factory.hpp:77] Creating layer conv5_3
I0218 01:14:28.205513 22546 net.cpp:100] Creating Layer conv5_3
I0218 01:14:28.205528 22546 net.cpp:434] conv5_3 <- conv5_2
I0218 01:14:28.205540 22546 net.cpp:408] conv5_3 -> conv5_3
I0218 01:14:28.227048 22546 net.cpp:150] Setting up conv5_3
I0218 01:14:28.227088 22546 net.cpp:157] Top shape: 32 512 19 19 (5914624)
I0218 01:14:28.227095 22546 net.cpp:165] Memory required for data: 7121059936
I0218 01:14:28.227110 22546 layer_factory.hpp:77] Creating layer relu5_3
I0218 01:14:28.227130 22546 net.cpp:100] Creating Layer relu5_3
I0218 01:14:28.227140 22546 net.cpp:434] relu5_3 <- conv5_3
I0218 01:14:28.227190 22546 net.cpp:395] relu5_3 -> conv5_3 (in-place)
I0218 01:14:28.227530 22546 net.cpp:150] Setting up relu5_3
I0218 01:14:28.227547 22546 net.cpp:157] Top shape: 32 512 19 19 (5914624)
I0218 01:14:28.227555 22546 net.cpp:165] Memory required for data: 7144718432
I0218 01:14:28.227562 22546 layer_factory.hpp:77] Creating layer pool5
I0218 01:14:28.227574 22546 net.cpp:100] Creating Layer pool5
I0218 01:14:28.227581 22546 net.cpp:434] pool5 <- conv5_3
I0218 01:14:28.227596 22546 net.cpp:408] pool5 -> pool5
I0218 01:14:28.227658 22546 net.cpp:150] Setting up pool5
I0218 01:14:28.227670 22546 net.cpp:157] Top shape: 32 512 19 19 (5914624)
I0218 01:14:28.227676 22546 net.cpp:165] Memory required for data: 7168376928
I0218 01:14:28.227684 22546 layer_factory.hpp:77] Creating layer fc6
I0218 01:14:28.227704 22546 net.cpp:100] Creating Layer fc6
I0218 01:14:28.227713 22546 net.cpp:434] fc6 <- pool5
I0218 01:14:28.227725 22546 net.cpp:408] fc6 -> fc6
I0218 01:14:28.268072 22546 net.cpp:150] Setting up fc6
I0218 01:14:28.268110 22546 net.cpp:157] Top shape: 32 1024 19 19 (11829248)
I0218 01:14:28.268117 22546 net.cpp:165] Memory required for data: 7215693920
I0218 01:14:28.268131 22546 layer_factory.hpp:77] Creating layer relu6
I0218 01:14:28.268146 22546 net.cpp:100] Creating Layer relu6
I0218 01:14:28.268154 22546 net.cpp:434] relu6 <- fc6
I0218 01:14:28.268165 22546 net.cpp:395] relu6 -> fc6 (in-place)
I0218 01:14:28.268425 22546 net.cpp:150] Setting up relu6
I0218 01:14:28.268440 22546 net.cpp:157] Top shape: 32 1024 19 19 (11829248)
I0218 01:14:28.268446 22546 net.cpp:165] Memory required for data: 7263010912
I0218 01:14:28.268453 22546 layer_factory.hpp:77] Creating layer fc7
I0218 01:14:28.268473 22546 net.cpp:100] Creating Layer fc7
I0218 01:14:28.268486 22546 net.cpp:434] fc7 <- fc6
I0218 01:14:28.268502 22546 net.cpp:408] fc7 -> fc7
I0218 01:14:28.278494 22546 net.cpp:150] Setting up fc7
I0218 01:14:28.278517 22546 net.cpp:157] Top shape: 32 1024 19 19 (11829248)
I0218 01:14:28.278529 22546 net.cpp:165] Memory required for data: 7310327904
I0218 01:14:28.278542 22546 layer_factory.hpp:77] Creating layer relu7
I0218 01:14:28.278554 22546 net.cpp:100] Creating Layer relu7
I0218 01:14:28.278563 22546 net.cpp:434] relu7 <- fc7
I0218 01:14:28.278578 22546 net.cpp:395] relu7 -> fc7 (in-place)
I0218 01:14:28.278913 22546 net.cpp:150] Setting up relu7
I0218 01:14:28.278929 22546 net.cpp:157] Top shape: 32 1024 19 19 (11829248)
I0218 01:14:28.278936 22546 net.cpp:165] Memory required for data: 7357644896
I0218 01:14:28.278944 22546 layer_factory.hpp:77] Creating layer fc7_relu7_0_split
I0218 01:14:28.278957 22546 net.cpp:100] Creating Layer fc7_relu7_0_split
I0218 01:14:28.278965 22546 net.cpp:434] fc7_relu7_0_split <- fc7
I0218 01:14:28.278976 22546 net.cpp:408] fc7_relu7_0_split -> fc7_relu7_0_split_0
I0218 01:14:28.278990 22546 net.cpp:408] fc7_relu7_0_split -> fc7_relu7_0_split_1
I0218 01:14:28.279009 22546 net.cpp:408] fc7_relu7_0_split -> fc7_relu7_0_split_2
I0218 01:14:28.279023 22546 net.cpp:408] fc7_relu7_0_split -> fc7_relu7_0_split_3
I0218 01:14:28.279109 22546 net.cpp:150] Setting up fc7_relu7_0_split
I0218 01:14:28.279121 22546 net.cpp:157] Top shape: 32 1024 19 19 (11829248)
I0218 01:14:28.279134 22546 net.cpp:157] Top shape: 32 1024 19 19 (11829248)
I0218 01:14:28.279141 22546 net.cpp:157] Top shape: 32 1024 19 19 (11829248)
I0218 01:14:28.279150 22546 net.cpp:157] Top shape: 32 1024 19 19 (11829248)
I0218 01:14:28.279155 22546 net.cpp:165] Memory required for data: 7546912864
I0218 01:14:28.279162 22546 layer_factory.hpp:77] Creating layer conv6_1
I0218 01:14:28.279181 22546 net.cpp:100] Creating Layer conv6_1
I0218 01:14:28.279189 22546 net.cpp:434] conv6_1 <- fc7_relu7_0_split_0
I0218 01:14:28.279203 22546 net.cpp:408] conv6_1 -> conv6_1
I0218 01:14:28.282647 22546 net.cpp:150] Setting up conv6_1
I0218 01:14:28.282666 22546 net.cpp:157] Top shape: 32 256 19 19 (2957312)
I0218 01:14:28.282673 22546 net.cpp:165] Memory required for data: 7558742112
I0218 01:14:28.282711 22546 layer_factory.hpp:77] Creating layer conv6_1_relu
I0218 01:14:28.282727 22546 net.cpp:100] Creating Layer conv6_1_relu
I0218 01:14:28.282738 22546 net.cpp:434] conv6_1_relu <- conv6_1
I0218 01:14:28.282752 22546 net.cpp:395] conv6_1_relu -> conv6_1 (in-place)
I0218 01:14:28.283135 22546 net.cpp:150] Setting up conv6_1_relu
I0218 01:14:28.283151 22546 net.cpp:157] Top shape: 32 256 19 19 (2957312)
I0218 01:14:28.283159 22546 net.cpp:165] Memory required for data: 7570571360
I0218 01:14:28.283166 22546 layer_factory.hpp:77] Creating layer conv6_2
I0218 01:14:28.283184 22546 net.cpp:100] Creating Layer conv6_2
I0218 01:14:28.283192 22546 net.cpp:434] conv6_2 <- conv6_1
I0218 01:14:28.283206 22546 net.cpp:408] conv6_2 -> conv6_2
I0218 01:14:28.294242 22546 net.cpp:150] Setting up conv6_2
I0218 01:14:28.294273 22546 net.cpp:157] Top shape: 32 512 10 10 (1638400)
I0218 01:14:28.294281 22546 net.cpp:165] Memory required for data: 7577124960
I0218 01:14:28.294306 22546 layer_factory.hpp:77] Creating layer conv6_2_relu
I0218 01:14:28.294320 22546 net.cpp:100] Creating Layer conv6_2_relu
I0218 01:14:28.294329 22546 net.cpp:434] conv6_2_relu <- conv6_2
I0218 01:14:28.294342 22546 net.cpp:395] conv6_2_relu -> conv6_2 (in-place)
I0218 01:14:28.294553 22546 net.cpp:150] Setting up conv6_2_relu
I0218 01:14:28.294569 22546 net.cpp:157] Top shape: 32 512 10 10 (1638400)
I0218 01:14:28.294576 22546 net.cpp:165] Memory required for data: 7583678560
I0218 01:14:28.294584 22546 layer_factory.hpp:77] Creating layer conv6_2_conv6_2_relu_0_split
I0218 01:14:28.294595 22546 net.cpp:100] Creating Layer conv6_2_conv6_2_relu_0_split
I0218 01:14:28.294601 22546 net.cpp:434] conv6_2_conv6_2_relu_0_split <- conv6_2
I0218 01:14:28.294615 22546 net.cpp:408] conv6_2_conv6_2_relu_0_split -> conv6_2_conv6_2_relu_0_split_0
I0218 01:14:28.294630 22546 net.cpp:408] conv6_2_conv6_2_relu_0_split -> conv6_2_conv6_2_relu_0_split_1
I0218 01:14:28.294646 22546 net.cpp:408] conv6_2_conv6_2_relu_0_split -> conv6_2_conv6_2_relu_0_split_2
I0218 01:14:28.294661 22546 net.cpp:408] conv6_2_conv6_2_relu_0_split -> conv6_2_conv6_2_relu_0_split_3
I0218 01:14:28.294750 22546 net.cpp:150] Setting up conv6_2_conv6_2_relu_0_split
I0218 01:14:28.294764 22546 net.cpp:157] Top shape: 32 512 10 10 (1638400)
I0218 01:14:28.294771 22546 net.cpp:157] Top shape: 32 512 10 10 (1638400)
I0218 01:14:28.294780 22546 net.cpp:157] Top shape: 32 512 10 10 (1638400)
I0218 01:14:28.294787 22546 net.cpp:157] Top shape: 32 512 10 10 (1638400)
I0218 01:14:28.294793 22546 net.cpp:165] Memory required for data: 7609892960
I0218 01:14:28.294800 22546 layer_factory.hpp:77] Creating layer conv7_1
I0218 01:14:28.294818 22546 net.cpp:100] Creating Layer conv7_1
I0218 01:14:28.294828 22546 net.cpp:434] conv7_1 <- conv6_2_conv6_2_relu_0_split_0
I0218 01:14:28.294843 22546 net.cpp:408] conv7_1 -> conv7_1
I0218 01:14:28.296469 22546 net.cpp:150] Setting up conv7_1
I0218 01:14:28.296495 22546 net.cpp:157] Top shape: 32 128 10 10 (409600)
I0218 01:14:28.296502 22546 net.cpp:165] Memory required for data: 7611531360
I0218 01:14:28.296514 22546 layer_factory.hpp:77] Creating layer conv7_1_relu
I0218 01:14:28.296531 22546 net.cpp:100] Creating Layer conv7_1_relu
I0218 01:14:28.296540 22546 net.cpp:434] conv7_1_relu <- conv7_1
I0218 01:14:28.296551 22546 net.cpp:395] conv7_1_relu -> conv7_1 (in-place)
I0218 01:14:28.296886 22546 net.cpp:150] Setting up conv7_1_relu
I0218 01:14:28.296903 22546 net.cpp:157] Top shape: 32 128 10 10 (409600)
I0218 01:14:28.296916 22546 net.cpp:165] Memory required for data: 7613169760
I0218 01:14:28.296922 22546 layer_factory.hpp:77] Creating layer conv7_2
I0218 01:14:28.296943 22546 net.cpp:100] Creating Layer conv7_2
I0218 01:14:28.296954 22546 net.cpp:434] conv7_2 <- conv7_1
I0218 01:14:28.296967 22546 net.cpp:408] conv7_2 -> conv7_2
I0218 01:14:28.300577 22546 net.cpp:150] Setting up conv7_2
I0218 01:14:28.300595 22546 net.cpp:157] Top shape: 32 256 5 5 (204800)
I0218 01:14:28.300603 22546 net.cpp:165] Memory required for data: 7613988960
I0218 01:14:28.300616 22546 layer_factory.hpp:77] Creating layer conv7_2_relu
I0218 01:14:28.300655 22546 net.cpp:100] Creating Layer conv7_2_relu
I0218 01:14:28.300668 22546 net.cpp:434] conv7_2_relu <- conv7_2
I0218 01:14:28.300678 22546 net.cpp:395] conv7_2_relu -> conv7_2 (in-place)
I0218 01:14:28.301013 22546 net.cpp:150] Setting up conv7_2_relu
I0218 01:14:28.301029 22546 net.cpp:157] Top shape: 32 256 5 5 (204800)
I0218 01:14:28.301036 22546 net.cpp:165] Memory required for data: 7614808160
I0218 01:14:28.301044 22546 layer_factory.hpp:77] Creating layer conv7_2_conv7_2_relu_0_split
I0218 01:14:28.301057 22546 net.cpp:100] Creating Layer conv7_2_conv7_2_relu_0_split
I0218 01:14:28.301065 22546 net.cpp:434] conv7_2_conv7_2_relu_0_split <- conv7_2
I0218 01:14:28.301075 22546 net.cpp:408] conv7_2_conv7_2_relu_0_split -> conv7_2_conv7_2_relu_0_split_0
I0218 01:14:28.301090 22546 net.cpp:408] conv7_2_conv7_2_relu_0_split -> conv7_2_conv7_2_relu_0_split_1
I0218 01:14:28.301106 22546 net.cpp:408] conv7_2_conv7_2_relu_0_split -> conv7_2_conv7_2_relu_0_split_2
I0218 01:14:28.301121 22546 net.cpp:408] conv7_2_conv7_2_relu_0_split -> conv7_2_conv7_2_relu_0_split_3
I0218 01:14:28.301210 22546 net.cpp:150] Setting up conv7_2_conv7_2_relu_0_split
I0218 01:14:28.301223 22546 net.cpp:157] Top shape: 32 256 5 5 (204800)
I0218 01:14:28.301231 22546 net.cpp:157] Top shape: 32 256 5 5 (204800)
I0218 01:14:28.301239 22546 net.cpp:157] Top shape: 32 256 5 5 (204800)
I0218 01:14:28.301246 22546 net.cpp:157] Top shape: 32 256 5 5 (204800)
I0218 01:14:28.301252 22546 net.cpp:165] Memory required for data: 7618084960
I0218 01:14:28.301259 22546 layer_factory.hpp:77] Creating layer conv8_1
I0218 01:14:28.301276 22546 net.cpp:100] Creating Layer conv8_1
I0218 01:14:28.301286 22546 net.cpp:434] conv8_1 <- conv7_2_conv7_2_relu_0_split_0
I0218 01:14:28.301301 22546 net.cpp:408] conv8_1 -> conv8_1
I0218 01:14:28.302670 22546 net.cpp:150] Setting up conv8_1
I0218 01:14:28.302688 22546 net.cpp:157] Top shape: 32 128 5 5 (102400)
I0218 01:14:28.302696 22546 net.cpp:165] Memory required for data: 7618494560
I0218 01:14:28.302708 22546 layer_factory.hpp:77] Creating layer conv8_1_relu
I0218 01:14:28.302721 22546 net.cpp:100] Creating Layer conv8_1_relu
I0218 01:14:28.302731 22546 net.cpp:434] conv8_1_relu <- conv8_1
I0218 01:14:28.302742 22546 net.cpp:395] conv8_1_relu -> conv8_1 (in-place)
I0218 01:14:28.302937 22546 net.cpp:150] Setting up conv8_1_relu
I0218 01:14:28.302950 22546 net.cpp:157] Top shape: 32 128 5 5 (102400)
I0218 01:14:28.302958 22546 net.cpp:165] Memory required for data: 7618904160
I0218 01:14:28.302964 22546 layer_factory.hpp:77] Creating layer conv8_2
I0218 01:14:28.302983 22546 net.cpp:100] Creating Layer conv8_2
I0218 01:14:28.302991 22546 net.cpp:434] conv8_2 <- conv8_1
I0218 01:14:28.303004 22546 net.cpp:408] conv8_2 -> conv8_2
I0218 01:14:28.306709 22546 net.cpp:150] Setting up conv8_2
I0218 01:14:28.306726 22546 net.cpp:157] Top shape: 32 256 3 3 (73728)
I0218 01:14:28.306735 22546 net.cpp:165] Memory required for data: 7619199072
I0218 01:14:28.306746 22546 layer_factory.hpp:77] Creating layer conv8_2_relu
I0218 01:14:28.306759 22546 net.cpp:100] Creating Layer conv8_2_relu
I0218 01:14:28.306767 22546 net.cpp:434] conv8_2_relu <- conv8_2
I0218 01:14:28.306778 22546 net.cpp:395] conv8_2_relu -> conv8_2 (in-place)
I0218 01:14:28.307108 22546 net.cpp:150] Setting up conv8_2_relu
I0218 01:14:28.307126 22546 net.cpp:157] Top shape: 32 256 3 3 (73728)
I0218 01:14:28.307132 22546 net.cpp:165] Memory required for data: 7619493984
I0218 01:14:28.307139 22546 layer_factory.hpp:77] Creating layer conv8_2_conv8_2_relu_0_split
I0218 01:14:28.307152 22546 net.cpp:100] Creating Layer conv8_2_conv8_2_relu_0_split
I0218 01:14:28.307159 22546 net.cpp:434] conv8_2_conv8_2_relu_0_split <- conv8_2
I0218 01:14:28.307170 22546 net.cpp:408] conv8_2_conv8_2_relu_0_split -> conv8_2_conv8_2_relu_0_split_0
I0218 01:14:28.307184 22546 net.cpp:408] conv8_2_conv8_2_relu_0_split -> conv8_2_conv8_2_relu_0_split_1
I0218 01:14:28.307202 22546 net.cpp:408] conv8_2_conv8_2_relu_0_split -> conv8_2_conv8_2_relu_0_split_2
I0218 01:14:28.307232 22546 net.cpp:408] conv8_2_conv8_2_relu_0_split -> conv8_2_conv8_2_relu_0_split_3
I0218 01:14:28.307327 22546 net.cpp:150] Setting up conv8_2_conv8_2_relu_0_split
I0218 01:14:28.307339 22546 net.cpp:157] Top shape: 32 256 3 3 (73728)
I0218 01:14:28.307348 22546 net.cpp:157] Top shape: 32 256 3 3 (73728)
I0218 01:14:28.307355 22546 net.cpp:157] Top shape: 32 256 3 3 (73728)
I0218 01:14:28.307363 22546 net.cpp:157] Top shape: 32 256 3 3 (73728)
I0218 01:14:28.307369 22546 net.cpp:165] Memory required for data: 7620673632
I0218 01:14:28.307376 22546 layer_factory.hpp:77] Creating layer conv9_1
I0218 01:14:28.307394 22546 net.cpp:100] Creating Layer conv9_1
I0218 01:14:28.307404 22546 net.cpp:434] conv9_1 <- conv8_2_conv8_2_relu_0_split_0
I0218 01:14:28.307418 22546 net.cpp:408] conv9_1 -> conv9_1
I0218 01:14:28.308650 22546 net.cpp:150] Setting up conv9_1
I0218 01:14:28.308668 22546 net.cpp:157] Top shape: 32 128 3 3 (36864)
I0218 01:14:28.308676 22546 net.cpp:165] Memory required for data: 7620821088
I0218 01:14:28.308687 22546 layer_factory.hpp:77] Creating layer conv9_1_relu
I0218 01:14:28.308698 22546 net.cpp:100] Creating Layer conv9_1_relu
I0218 01:14:28.308706 22546 net.cpp:434] conv9_1_relu <- conv9_1
I0218 01:14:28.308719 22546 net.cpp:395] conv9_1_relu -> conv9_1 (in-place)
I0218 01:14:28.309051 22546 net.cpp:150] Setting up conv9_1_relu
I0218 01:14:28.309067 22546 net.cpp:157] Top shape: 32 128 3 3 (36864)
I0218 01:14:28.309074 22546 net.cpp:165] Memory required for data: 7620968544
I0218 01:14:28.309082 22546 layer_factory.hpp:77] Creating layer conv9_2
I0218 01:14:28.309105 22546 net.cpp:100] Creating Layer conv9_2
I0218 01:14:28.309116 22546 net.cpp:434] conv9_2 <- conv9_1
I0218 01:14:28.309129 22546 net.cpp:408] conv9_2 -> conv9_2
I0218 01:14:28.312839 22546 net.cpp:150] Setting up conv9_2
I0218 01:14:28.312857 22546 net.cpp:157] Top shape: 32 256 1 1 (8192)
I0218 01:14:28.312865 22546 net.cpp:165] Memory required for data: 7621001312
I0218 01:14:28.312876 22546 layer_factory.hpp:77] Creating layer conv9_2_relu
I0218 01:14:28.312889 22546 net.cpp:100] Creating Layer conv9_2_relu
I0218 01:14:28.312898 22546 net.cpp:434] conv9_2_relu <- conv9_2
I0218 01:14:28.312908 22546 net.cpp:395] conv9_2_relu -> conv9_2 (in-place)
I0218 01:14:28.313108 22546 net.cpp:150] Setting up conv9_2_relu
I0218 01:14:28.313123 22546 net.cpp:157] Top shape: 32 256 1 1 (8192)
I0218 01:14:28.313130 22546 net.cpp:165] Memory required for data: 7621034080
I0218 01:14:28.313138 22546 layer_factory.hpp:77] Creating layer conv9_2_conv9_2_relu_0_split
I0218 01:14:28.313149 22546 net.cpp:100] Creating Layer conv9_2_conv9_2_relu_0_split
I0218 01:14:28.313158 22546 net.cpp:434] conv9_2_conv9_2_relu_0_split <- conv9_2
I0218 01:14:28.313169 22546 net.cpp:408] conv9_2_conv9_2_relu_0_split -> conv9_2_conv9_2_relu_0_split_0
I0218 01:14:28.313182 22546 net.cpp:408] conv9_2_conv9_2_relu_0_split -> conv9_2_conv9_2_relu_0_split_1
I0218 01:14:28.313197 22546 net.cpp:408] conv9_2_conv9_2_relu_0_split -> conv9_2_conv9_2_relu_0_split_2
I0218 01:14:28.313277 22546 net.cpp:150] Setting up conv9_2_conv9_2_relu_0_split
I0218 01:14:28.313289 22546 net.cpp:157] Top shape: 32 256 1 1 (8192)
I0218 01:14:28.313297 22546 net.cpp:157] Top shape: 32 256 1 1 (8192)
I0218 01:14:28.313305 22546 net.cpp:157] Top shape: 32 256 1 1 (8192)
I0218 01:14:28.313311 22546 net.cpp:165] Memory required for data: 7621132384
I0218 01:14:28.313318 22546 layer_factory.hpp:77] Creating layer conv4_3_norm
I0218 01:14:28.313343 22546 net.cpp:100] Creating Layer conv4_3_norm
I0218 01:14:28.313350 22546 net.cpp:434] conv4_3_norm <- conv4_3_relu4_3_0_split_1
I0218 01:14:28.313364 22546 net.cpp:408] conv4_3_norm -> conv4_3_norm
I0218 01:14:28.313551 22546 net.cpp:150] Setting up conv4_3_norm
I0218 01:14:28.313565 22546 net.cpp:157] Top shape: 32 512 38 38 (23658496)
I0218 01:14:28.313570 22546 net.cpp:165] Memory required for data: 7715766368
I0218 01:14:28.313580 22546 layer_factory.hpp:77] Creating layer conv4_3_norm_conv4_3_norm_0_split
I0218 01:14:28.313607 22546 net.cpp:100] Creating Layer conv4_3_norm_conv4_3_norm_0_split
I0218 01:14:28.313616 22546 net.cpp:434] conv4_3_norm_conv4_3_norm_0_split <- conv4_3_norm
I0218 01:14:28.313627 22546 net.cpp:408] conv4_3_norm_conv4_3_norm_0_split -> conv4_3_norm_conv4_3_norm_0_split_0
I0218 01:14:28.313639 22546 net.cpp:408] conv4_3_norm_conv4_3_norm_0_split -> conv4_3_norm_conv4_3_norm_0_split_1
I0218 01:14:28.313653 22546 net.cpp:408] conv4_3_norm_conv4_3_norm_0_split -> conv4_3_norm_conv4_3_norm_0_split_2
I0218 01:14:28.313721 22546 net.cpp:150] Setting up conv4_3_norm_conv4_3_norm_0_split
I0218 01:14:28.313733 22546 net.cpp:157] Top shape: 32 512 38 38 (23658496)
I0218 01:14:28.313741 22546 net.cpp:157] Top shape: 32 512 38 38 (23658496)
I0218 01:14:28.313750 22546 net.cpp:157] Top shape: 32 512 38 38 (23658496)
I0218 01:14:28.313755 22546 net.cpp:165] Memory required for data: 7999668320
I0218 01:14:28.313762 22546 layer_factory.hpp:77] Creating layer conv4_3_norm_mbox_loc
I0218 01:14:28.313779 22546 net.cpp:100] Creating Layer conv4_3_norm_mbox_loc
I0218 01:14:28.313789 22546 net.cpp:434] conv4_3_norm_mbox_loc <- conv4_3_norm_conv4_3_norm_0_split_0
I0218 01:14:28.313802 22546 net.cpp:408] conv4_3_norm_mbox_loc -> conv4_3_norm_mbox_loc
I0218 01:14:28.315609 22546 net.cpp:150] Setting up conv4_3_norm_mbox_loc
I0218 01:14:28.315628 22546 net.cpp:157] Top shape: 32 16 38 38 (739328)
I0218 01:14:28.315634 22546 net.cpp:165] Memory required for data: 8002625632
I0218 01:14:28.315647 22546 layer_factory.hpp:77] Creating layer conv4_3_norm_mbox_loc_perm
I0218 01:14:28.315660 22546 net.cpp:100] Creating Layer conv4_3_norm_mbox_loc_perm
I0218 01:14:28.315668 22546 net.cpp:434] conv4_3_norm_mbox_loc_perm <- conv4_3_norm_mbox_loc
I0218 01:14:28.315681 22546 net.cpp:408] conv4_3_norm_mbox_loc_perm -> conv4_3_norm_mbox_loc_perm
I0218 01:14:28.315816 22546 net.cpp:150] Setting up conv4_3_norm_mbox_loc_perm
I0218 01:14:28.315829 22546 net.cpp:157] Top shape: 32 38 38 16 (739328)
I0218 01:14:28.315836 22546 net.cpp:165] Memory required for data: 8005582944
I0218 01:14:28.315841 22546 layer_factory.hpp:77] Creating layer conv4_3_norm_mbox_loc_flat
I0218 01:14:28.315860 22546 net.cpp:100] Creating Layer conv4_3_norm_mbox_loc_flat
I0218 01:14:28.315870 22546 net.cpp:434] conv4_3_norm_mbox_loc_flat <- conv4_3_norm_mbox_loc_perm
I0218 01:14:28.315879 22546 net.cpp:408] conv4_3_norm_mbox_loc_flat -> conv4_3_norm_mbox_loc_flat
I0218 01:14:28.315930 22546 net.cpp:150] Setting up conv4_3_norm_mbox_loc_flat
I0218 01:14:28.315943 22546 net.cpp:157] Top shape: 32 23104 (739328)
I0218 01:14:28.315950 22546 net.cpp:165] Memory required for data: 8008540256
I0218 01:14:28.315956 22546 layer_factory.hpp:77] Creating layer conv4_3_norm_mbox_conf
I0218 01:14:28.315984 22546 net.cpp:100] Creating Layer conv4_3_norm_mbox_conf
I0218 01:14:28.315991 22546 net.cpp:434] conv4_3_norm_mbox_conf <- conv4_3_norm_conv4_3_norm_0_split_1
I0218 01:14:28.316005 22546 net.cpp:408] conv4_3_norm_mbox_conf -> conv4_3_norm_mbox_conf
I0218 01:14:28.320636 22546 net.cpp:150] Setting up conv4_3_norm_mbox_conf
I0218 01:14:28.320655 22546 net.cpp:157] Top shape: 32 88 38 38 (4066304)
I0218 01:14:28.320664 22546 net.cpp:165] Memory required for data: 8024805472
I0218 01:14:28.320677 22546 layer_factory.hpp:77] Creating layer conv4_3_norm_mbox_conf_perm
I0218 01:14:28.320688 22546 net.cpp:100] Creating Layer conv4_3_norm_mbox_conf_perm
I0218 01:14:28.320698 22546 net.cpp:434] conv4_3_norm_mbox_conf_perm <- conv4_3_norm_mbox_conf
I0218 01:14:28.320708 22546 net.cpp:408] conv4_3_norm_mbox_conf_perm -> conv4_3_norm_mbox_conf_perm
I0218 01:14:28.320843 22546 net.cpp:150] Setting up conv4_3_norm_mbox_conf_perm
I0218 01:14:28.320858 22546 net.cpp:157] Top shape: 32 38 38 88 (4066304)
I0218 01:14:28.320863 22546 net.cpp:165] Memory required for data: 8041070688
I0218 01:14:28.320870 22546 layer_factory.hpp:77] Creating layer conv4_3_norm_mbox_conf_flat
I0218 01:14:28.320883 22546 net.cpp:100] Creating Layer conv4_3_norm_mbox_conf_flat
I0218 01:14:28.320890 22546 net.cpp:434] conv4_3_norm_mbox_conf_flat <- conv4_3_norm_mbox_conf_perm
I0218 01:14:28.320914 22546 net.cpp:408] conv4_3_norm_mbox_conf_flat -> conv4_3_norm_mbox_conf_flat
I0218 01:14:28.320963 22546 net.cpp:150] Setting up conv4_3_norm_mbox_conf_flat
I0218 01:14:28.320976 22546 net.cpp:157] Top shape: 32 127072 (4066304)
I0218 01:14:28.320982 22546 net.cpp:165] Memory required for data: 8057335904
I0218 01:14:28.320989 22546 layer_factory.hpp:77] Creating layer conv4_3_norm_mbox_priorbox
I0218 01:14:28.321002 22546 net.cpp:100] Creating Layer conv4_3_norm_mbox_priorbox
I0218 01:14:28.321009 22546 net.cpp:434] conv4_3_norm_mbox_priorbox <- conv4_3_norm_conv4_3_norm_0_split_2
I0218 01:14:28.321018 22546 net.cpp:434] conv4_3_norm_mbox_priorbox <- data_data_0_split_1
I0218 01:14:28.321032 22546 net.cpp:408] conv4_3_norm_mbox_priorbox -> conv4_3_norm_mbox_priorbox
I0218 01:14:28.321080 22546 net.cpp:150] Setting up conv4_3_norm_mbox_priorbox
I0218 01:14:28.321092 22546 net.cpp:157] Top shape: 1 2 23104 (46208)
I0218 01:14:28.321099 22546 net.cpp:165] Memory required for data: 8057520736
I0218 01:14:28.321105 22546 layer_factory.hpp:77] Creating layer fc7_mbox_loc
I0218 01:14:28.321122 22546 net.cpp:100] Creating Layer fc7_mbox_loc
I0218 01:14:28.321133 22546 net.cpp:434] fc7_mbox_loc <- fc7_relu7_0_split_1
I0218 01:14:28.321147 22546 net.cpp:408] fc7_mbox_loc -> fc7_mbox_loc
I0218 01:14:28.324334 22546 net.cpp:150] Setting up fc7_mbox_loc
I0218 01:14:28.324353 22546 net.cpp:157] Top shape: 32 24 19 19 (277248)
I0218 01:14:28.324360 22546 net.cpp:165] Memory required for data: 8058629728
I0218 01:14:28.324373 22546 layer_factory.hpp:77] Creating layer fc7_mbox_loc_perm
I0218 01:14:28.324386 22546 net.cpp:100] Creating Layer fc7_mbox_loc_perm
I0218 01:14:28.324395 22546 net.cpp:434] fc7_mbox_loc_perm <- fc7_mbox_loc
I0218 01:14:28.324406 22546 net.cpp:408] fc7_mbox_loc_perm -> fc7_mbox_loc_perm
I0218 01:14:28.324539 22546 net.cpp:150] Setting up fc7_mbox_loc_perm
I0218 01:14:28.324553 22546 net.cpp:157] Top shape: 32 19 19 24 (277248)
I0218 01:14:28.324559 22546 net.cpp:165] Memory required for data: 8059738720
I0218 01:14:28.324565 22546 layer_factory.hpp:77] Creating layer fc7_mbox_loc_flat
I0218 01:14:28.324575 22546 net.cpp:100] Creating Layer fc7_mbox_loc_flat
I0218 01:14:28.324582 22546 net.cpp:434] fc7_mbox_loc_flat <- fc7_mbox_loc_perm
I0218 01:14:28.324595 22546 net.cpp:408] fc7_mbox_loc_flat -> fc7_mbox_loc_flat
I0218 01:14:28.324638 22546 net.cpp:150] Setting up fc7_mbox_loc_flat
I0218 01:14:28.324651 22546 net.cpp:157] Top shape: 32 8664 (277248)
I0218 01:14:28.324656 22546 net.cpp:165] Memory required for data: 8060847712
I0218 01:14:28.324663 22546 layer_factory.hpp:77] Creating layer fc7_mbox_conf
I0218 01:14:28.324679 22546 net.cpp:100] Creating Layer fc7_mbox_conf
I0218 01:14:28.324692 22546 net.cpp:434] fc7_mbox_conf <- fc7_relu7_0_split_2
I0218 01:14:28.324707 22546 net.cpp:408] fc7_mbox_conf -> fc7_mbox_conf
I0218 01:14:28.336001 22546 net.cpp:150] Setting up fc7_mbox_conf
I0218 01:14:28.336031 22546 net.cpp:157] Top shape: 32 132 19 19 (1524864)
I0218 01:14:28.336038 22546 net.cpp:165] Memory required for data: 8066947168
I0218 01:14:28.336051 22546 layer_factory.hpp:77] Creating layer fc7_mbox_conf_perm
I0218 01:14:28.336069 22546 net.cpp:100] Creating Layer fc7_mbox_conf_perm
I0218 01:14:28.336079 22546 net.cpp:434] fc7_mbox_conf_perm <- fc7_mbox_conf
I0218 01:14:28.336092 22546 net.cpp:408] fc7_mbox_conf_perm -> fc7_mbox_conf_perm
I0218 01:14:28.336227 22546 net.cpp:150] Setting up fc7_mbox_conf_perm
I0218 01:14:28.336241 22546 net.cpp:157] Top shape: 32 19 19 132 (1524864)
I0218 01:14:28.336247 22546 net.cpp:165] Memory required for data: 8073046624
I0218 01:14:28.336253 22546 layer_factory.hpp:77] Creating layer fc7_mbox_conf_flat
I0218 01:14:28.336263 22546 net.cpp:100] Creating Layer fc7_mbox_conf_flat
I0218 01:14:28.336272 22546 net.cpp:434] fc7_mbox_conf_flat <- fc7_mbox_conf_perm
I0218 01:14:28.336284 22546 net.cpp:408] fc7_mbox_conf_flat -> fc7_mbox_conf_flat
I0218 01:14:28.336328 22546 net.cpp:150] Setting up fc7_mbox_conf_flat
I0218 01:14:28.336359 22546 net.cpp:157] Top shape: 32 47652 (1524864)
I0218 01:14:28.336366 22546 net.cpp:165] Memory required for data: 8079146080
I0218 01:14:28.336374 22546 layer_factory.hpp:77] Creating layer fc7_mbox_priorbox
I0218 01:14:28.336386 22546 net.cpp:100] Creating Layer fc7_mbox_priorbox
I0218 01:14:28.336400 22546 net.cpp:434] fc7_mbox_priorbox <- fc7_relu7_0_split_3
I0218 01:14:28.336410 22546 net.cpp:434] fc7_mbox_priorbox <- data_data_0_split_2
I0218 01:14:28.336422 22546 net.cpp:408] fc7_mbox_priorbox -> fc7_mbox_priorbox
I0218 01:14:28.336472 22546 net.cpp:150] Setting up fc7_mbox_priorbox
I0218 01:14:28.336483 22546 net.cpp:157] Top shape: 1 2 8664 (17328)
I0218 01:14:28.336490 22546 net.cpp:165] Memory required for data: 8079215392
I0218 01:14:28.336496 22546 layer_factory.hpp:77] Creating layer conv6_2_mbox_loc
I0218 01:14:28.336515 22546 net.cpp:100] Creating Layer conv6_2_mbox_loc
I0218 01:14:28.336526 22546 net.cpp:434] conv6_2_mbox_loc <- conv6_2_conv6_2_relu_0_split_1
I0218 01:14:28.336541 22546 net.cpp:408] conv6_2_mbox_loc -> conv6_2_mbox_loc
I0218 01:14:28.338940 22546 net.cpp:150] Setting up conv6_2_mbox_loc
I0218 01:14:28.338959 22546 net.cpp:157] Top shape: 32 24 10 10 (76800)
I0218 01:14:28.338966 22546 net.cpp:165] Memory required for data: 8079522592
I0218 01:14:28.338979 22546 layer_factory.hpp:77] Creating layer conv6_2_mbox_loc_perm
I0218 01:14:28.338994 22546 net.cpp:100] Creating Layer conv6_2_mbox_loc_perm
I0218 01:14:28.339002 22546 net.cpp:434] conv6_2_mbox_loc_perm <- conv6_2_mbox_loc
I0218 01:14:28.339013 22546 net.cpp:408] conv6_2_mbox_loc_perm -> conv6_2_mbox_loc_perm
I0218 01:14:28.339146 22546 net.cpp:150] Setting up conv6_2_mbox_loc_perm
I0218 01:14:28.339159 22546 net.cpp:157] Top shape: 32 10 10 24 (76800)
I0218 01:14:28.339166 22546 net.cpp:165] Memory required for data: 8079829792
I0218 01:14:28.339171 22546 layer_factory.hpp:77] Creating layer conv6_2_mbox_loc_flat
I0218 01:14:28.339180 22546 net.cpp:100] Creating Layer conv6_2_mbox_loc_flat
I0218 01:14:28.339187 22546 net.cpp:434] conv6_2_mbox_loc_flat <- conv6_2_mbox_loc_perm
I0218 01:14:28.339200 22546 net.cpp:408] conv6_2_mbox_loc_flat -> conv6_2_mbox_loc_flat
I0218 01:14:28.339244 22546 net.cpp:150] Setting up conv6_2_mbox_loc_flat
I0218 01:14:28.339257 22546 net.cpp:157] Top shape: 32 2400 (76800)
I0218 01:14:28.339262 22546 net.cpp:165] Memory required for data: 8080136992
I0218 01:14:28.339268 22546 layer_factory.hpp:77] Creating layer conv6_2_mbox_conf
I0218 01:14:28.339285 22546 net.cpp:100] Creating Layer conv6_2_mbox_conf
I0218 01:14:28.339296 22546 net.cpp:434] conv6_2_mbox_conf <- conv6_2_conv6_2_relu_0_split_2
I0218 01:14:28.339311 22546 net.cpp:408] conv6_2_mbox_conf -> conv6_2_mbox_conf
I0218 01:14:28.345717 22546 net.cpp:150] Setting up conv6_2_mbox_conf
I0218 01:14:28.345746 22546 net.cpp:157] Top shape: 32 132 10 10 (422400)
I0218 01:14:28.345754 22546 net.cpp:165] Memory required for data: 8081826592
I0218 01:14:28.345767 22546 layer_factory.hpp:77] Creating layer conv6_2_mbox_conf_perm
I0218 01:14:28.345782 22546 net.cpp:100] Creating Layer conv6_2_mbox_conf_perm
I0218 01:14:28.345793 22546 net.cpp:434] conv6_2_mbox_conf_perm <- conv6_2_mbox_conf
I0218 01:14:28.345805 22546 net.cpp:408] conv6_2_mbox_conf_perm -> conv6_2_mbox_conf_perm
I0218 01:14:28.345942 22546 net.cpp:150] Setting up conv6_2_mbox_conf_perm
I0218 01:14:28.345955 22546 net.cpp:157] Top shape: 32 10 10 132 (422400)
I0218 01:14:28.345963 22546 net.cpp:165] Memory required for data: 8083516192
I0218 01:14:28.345968 22546 layer_factory.hpp:77] Creating layer conv6_2_mbox_conf_flat
I0218 01:14:28.345980 22546 net.cpp:100] Creating Layer conv6_2_mbox_conf_flat
I0218 01:14:28.345990 22546 net.cpp:434] conv6_2_mbox_conf_flat <- conv6_2_mbox_conf_perm
I0218 01:14:28.346005 22546 net.cpp:408] conv6_2_mbox_conf_flat -> conv6_2_mbox_conf_flat
I0218 01:14:28.346053 22546 net.cpp:150] Setting up conv6_2_mbox_conf_flat
I0218 01:14:28.346066 22546 net.cpp:157] Top shape: 32 13200 (422400)
I0218 01:14:28.346072 22546 net.cpp:165] Memory required for data: 8085205792
I0218 01:14:28.346101 22546 layer_factory.hpp:77] Creating layer conv6_2_mbox_priorbox
I0218 01:14:28.346115 22546 net.cpp:100] Creating Layer conv6_2_mbox_priorbox
I0218 01:14:28.346124 22546 net.cpp:434] conv6_2_mbox_priorbox <- conv6_2_conv6_2_relu_0_split_3
I0218 01:14:28.346135 22546 net.cpp:434] conv6_2_mbox_priorbox <- data_data_0_split_3
I0218 01:14:28.346150 22546 net.cpp:408] conv6_2_mbox_priorbox -> conv6_2_mbox_priorbox
I0218 01:14:28.346200 22546 net.cpp:150] Setting up conv6_2_mbox_priorbox
I0218 01:14:28.346215 22546 net.cpp:157] Top shape: 1 2 2400 (4800)
I0218 01:14:28.346221 22546 net.cpp:165] Memory required for data: 8085224992
I0218 01:14:28.346228 22546 layer_factory.hpp:77] Creating layer conv7_2_mbox_loc
I0218 01:14:28.346247 22546 net.cpp:100] Creating Layer conv7_2_mbox_loc
I0218 01:14:28.346257 22546 net.cpp:434] conv7_2_mbox_loc <- conv7_2_conv7_2_relu_0_split_1
I0218 01:14:28.346271 22546 net.cpp:408] conv7_2_mbox_loc -> conv7_2_mbox_loc
I0218 01:14:28.348278 22546 net.cpp:150] Setting up conv7_2_mbox_loc
I0218 01:14:28.348299 22546 net.cpp:157] Top shape: 32 24 5 5 (19200)
I0218 01:14:28.348306 22546 net.cpp:165] Memory required for data: 8085301792
I0218 01:14:28.348318 22546 layer_factory.hpp:77] Creating layer conv7_2_mbox_loc_perm
I0218 01:14:28.348330 22546 net.cpp:100] Creating Layer conv7_2_mbox_loc_perm
I0218 01:14:28.348338 22546 net.cpp:434] conv7_2_mbox_loc_perm <- conv7_2_mbox_loc
I0218 01:14:28.348348 22546 net.cpp:408] conv7_2_mbox_loc_perm -> conv7_2_mbox_loc_perm
I0218 01:14:28.348484 22546 net.cpp:150] Setting up conv7_2_mbox_loc_perm
I0218 01:14:28.348498 22546 net.cpp:157] Top shape: 32 5 5 24 (19200)
I0218 01:14:28.348505 22546 net.cpp:165] Memory required for data: 8085378592
I0218 01:14:28.348510 22546 layer_factory.hpp:77] Creating layer conv7_2_mbox_loc_flat
I0218 01:14:28.348522 22546 net.cpp:100] Creating Layer conv7_2_mbox_loc_flat
I0218 01:14:28.348531 22546 net.cpp:434] conv7_2_mbox_loc_flat <- conv7_2_mbox_loc_perm
I0218 01:14:28.348541 22546 net.cpp:408] conv7_2_mbox_loc_flat -> conv7_2_mbox_loc_flat
I0218 01:14:28.348582 22546 net.cpp:150] Setting up conv7_2_mbox_loc_flat
I0218 01:14:28.348593 22546 net.cpp:157] Top shape: 32 600 (19200)
I0218 01:14:28.348599 22546 net.cpp:165] Memory required for data: 8085455392
I0218 01:14:28.348606 22546 layer_factory.hpp:77] Creating layer conv7_2_mbox_conf
I0218 01:14:28.348623 22546 net.cpp:100] Creating Layer conv7_2_mbox_conf
I0218 01:14:28.348633 22546 net.cpp:434] conv7_2_mbox_conf <- conv7_2_conv7_2_relu_0_split_2
I0218 01:14:28.348647 22546 net.cpp:408] conv7_2_mbox_conf -> conv7_2_mbox_conf
I0218 01:14:28.352501 22546 net.cpp:150] Setting up conv7_2_mbox_conf
I0218 01:14:28.352519 22546 net.cpp:157] Top shape: 32 132 5 5 (105600)
I0218 01:14:28.352527 22546 net.cpp:165] Memory required for data: 8085877792
I0218 01:14:28.352540 22546 layer_factory.hpp:77] Creating layer conv7_2_mbox_conf_perm
I0218 01:14:28.352553 22546 net.cpp:100] Creating Layer conv7_2_mbox_conf_perm
I0218 01:14:28.352562 22546 net.cpp:434] conv7_2_mbox_conf_perm <- conv7_2_mbox_conf
I0218 01:14:28.352573 22546 net.cpp:408] conv7_2_mbox_conf_perm -> conv7_2_mbox_conf_perm
I0218 01:14:28.352711 22546 net.cpp:150] Setting up conv7_2_mbox_conf_perm
I0218 01:14:28.352725 22546 net.cpp:157] Top shape: 32 5 5 132 (105600)
I0218 01:14:28.352731 22546 net.cpp:165] Memory required for data: 8086300192
I0218 01:14:28.352737 22546 layer_factory.hpp:77] Creating layer conv7_2_mbox_conf_flat
I0218 01:14:28.352746 22546 net.cpp:100] Creating Layer conv7_2_mbox_conf_flat
I0218 01:14:28.352754 22546 net.cpp:434] conv7_2_mbox_conf_flat <- conv7_2_mbox_conf_perm
I0218 01:14:28.352767 22546 net.cpp:408] conv7_2_mbox_conf_flat -> conv7_2_mbox_conf_flat
I0218 01:14:28.352812 22546 net.cpp:150] Setting up conv7_2_mbox_conf_flat
I0218 01:14:28.352823 22546 net.cpp:157] Top shape: 32 3300 (105600)
I0218 01:14:28.352829 22546 net.cpp:165] Memory required for data: 8086722592
I0218 01:14:28.352836 22546 layer_factory.hpp:77] Creating layer conv7_2_mbox_priorbox
I0218 01:14:28.352861 22546 net.cpp:100] Creating Layer conv7_2_mbox_priorbox
I0218 01:14:28.352874 22546 net.cpp:434] conv7_2_mbox_priorbox <- conv7_2_conv7_2_relu_0_split_3
I0218 01:14:28.352885 22546 net.cpp:434] conv7_2_mbox_priorbox <- data_data_0_split_4
I0218 01:14:28.352898 22546 net.cpp:408] conv7_2_mbox_priorbox -> conv7_2_mbox_priorbox
I0218 01:14:28.352946 22546 net.cpp:150] Setting up conv7_2_mbox_priorbox
I0218 01:14:28.352958 22546 net.cpp:157] Top shape: 1 2 600 (1200)
I0218 01:14:28.352965 22546 net.cpp:165] Memory required for data: 8086727392
I0218 01:14:28.352972 22546 layer_factory.hpp:77] Creating layer conv8_2_mbox_loc
I0218 01:14:28.352988 22546 net.cpp:100] Creating Layer conv8_2_mbox_loc
I0218 01:14:28.352998 22546 net.cpp:434] conv8_2_mbox_loc <- conv8_2_conv8_2_relu_0_split_1
I0218 01:14:28.353013 22546 net.cpp:408] conv8_2_mbox_loc -> conv8_2_mbox_loc
I0218 01:14:28.354349 22546 net.cpp:150] Setting up conv8_2_mbox_loc
I0218 01:14:28.354367 22546 net.cpp:157] Top shape: 32 16 3 3 (4608)
I0218 01:14:28.354374 22546 net.cpp:165] Memory required for data: 8086745824
I0218 01:14:28.354405 22546 layer_factory.hpp:77] Creating layer conv8_2_mbox_loc_perm
I0218 01:14:28.354420 22546 net.cpp:100] Creating Layer conv8_2_mbox_loc_perm
I0218 01:14:28.354429 22546 net.cpp:434] conv8_2_mbox_loc_perm <- conv8_2_mbox_loc
I0218 01:14:28.354440 22546 net.cpp:408] conv8_2_mbox_loc_perm -> conv8_2_mbox_loc_perm
I0218 01:14:28.354585 22546 net.cpp:150] Setting up conv8_2_mbox_loc_perm
I0218 01:14:28.354599 22546 net.cpp:157] Top shape: 32 3 3 16 (4608)
I0218 01:14:28.354606 22546 net.cpp:165] Memory required for data: 8086764256
I0218 01:14:28.354614 22546 layer_factory.hpp:77] Creating layer conv8_2_mbox_loc_flat
I0218 01:14:28.354625 22546 net.cpp:100] Creating Layer conv8_2_mbox_loc_flat
I0218 01:14:28.354634 22546 net.cpp:434] conv8_2_mbox_loc_flat <- conv8_2_mbox_loc_perm
I0218 01:14:28.354645 22546 net.cpp:408] conv8_2_mbox_loc_flat -> conv8_2_mbox_loc_flat
I0218 01:14:28.354686 22546 net.cpp:150] Setting up conv8_2_mbox_loc_flat
I0218 01:14:28.354698 22546 net.cpp:157] Top shape: 32 144 (4608)
I0218 01:14:28.354704 22546 net.cpp:165] Memory required for data: 8086782688
I0218 01:14:28.354712 22546 layer_factory.hpp:77] Creating layer conv8_2_mbox_conf
I0218 01:14:28.354729 22546 net.cpp:100] Creating Layer conv8_2_mbox_conf
I0218 01:14:28.354739 22546 net.cpp:434] conv8_2_mbox_conf <- conv8_2_conv8_2_relu_0_split_2
I0218 01:14:28.354753 22546 net.cpp:408] conv8_2_mbox_conf -> conv8_2_mbox_conf
I0218 01:14:28.357813 22546 net.cpp:150] Setting up conv8_2_mbox_conf
I0218 01:14:28.357831 22546 net.cpp:157] Top shape: 32 88 3 3 (25344)
I0218 01:14:28.357839 22546 net.cpp:165] Memory required for data: 8086884064
I0218 01:14:28.357851 22546 layer_factory.hpp:77] Creating layer conv8_2_mbox_conf_perm
I0218 01:14:28.357866 22546 net.cpp:100] Creating Layer conv8_2_mbox_conf_perm
I0218 01:14:28.357873 22546 net.cpp:434] conv8_2_mbox_conf_perm <- conv8_2_mbox_conf
I0218 01:14:28.357885 22546 net.cpp:408] conv8_2_mbox_conf_perm -> conv8_2_mbox_conf_perm
I0218 01:14:28.358022 22546 net.cpp:150] Setting up conv8_2_mbox_conf_perm
I0218 01:14:28.358036 22546 net.cpp:157] Top shape: 32 3 3 88 (25344)
I0218 01:14:28.358042 22546 net.cpp:165] Memory required for data: 8086985440
I0218 01:14:28.358047 22546 layer_factory.hpp:77] Creating layer conv8_2_mbox_conf_flat
I0218 01:14:28.358059 22546 net.cpp:100] Creating Layer conv8_2_mbox_conf_flat
I0218 01:14:28.358067 22546 net.cpp:434] conv8_2_mbox_conf_flat <- conv8_2_mbox_conf_perm
I0218 01:14:28.358078 22546 net.cpp:408] conv8_2_mbox_conf_flat -> conv8_2_mbox_conf_flat
I0218 01:14:28.358119 22546 net.cpp:150] Setting up conv8_2_mbox_conf_flat
I0218 01:14:28.358134 22546 net.cpp:157] Top shape: 32 792 (25344)
I0218 01:14:28.358141 22546 net.cpp:165] Memory required for data: 8087086816
I0218 01:14:28.358149 22546 layer_factory.hpp:77] Creating layer conv8_2_mbox_priorbox
I0218 01:14:28.358158 22546 net.cpp:100] Creating Layer conv8_2_mbox_priorbox
I0218 01:14:28.358180 22546 net.cpp:434] conv8_2_mbox_priorbox <- conv8_2_conv8_2_relu_0_split_3
I0218 01:14:28.358191 22546 net.cpp:434] conv8_2_mbox_priorbox <- data_data_0_split_5
I0218 01:14:28.358209 22546 net.cpp:408] conv8_2_mbox_priorbox -> conv8_2_mbox_priorbox
I0218 01:14:28.358253 22546 net.cpp:150] Setting up conv8_2_mbox_priorbox
I0218 01:14:28.358266 22546 net.cpp:157] Top shape: 1 2 144 (288)
I0218 01:14:28.358273 22546 net.cpp:165] Memory required for data: 8087087968
I0218 01:14:28.358279 22546 layer_factory.hpp:77] Creating layer conv9_2_mbox_loc
I0218 01:14:28.358299 22546 net.cpp:100] Creating Layer conv9_2_mbox_loc
I0218 01:14:28.358307 22546 net.cpp:434] conv9_2_mbox_loc <- conv9_2_conv9_2_relu_0_split_0
I0218 01:14:28.358320 22546 net.cpp:408] conv9_2_mbox_loc -> conv9_2_mbox_loc
I0218 01:14:28.359884 22546 net.cpp:150] Setting up conv9_2_mbox_loc
I0218 01:14:28.359902 22546 net.cpp:157] Top shape: 32 16 1 1 (512)
I0218 01:14:28.359910 22546 net.cpp:165] Memory required for data: 8087090016
I0218 01:14:28.359921 22546 layer_factory.hpp:77] Creating layer conv9_2_mbox_loc_perm
I0218 01:14:28.359933 22546 net.cpp:100] Creating Layer conv9_2_mbox_loc_perm
I0218 01:14:28.359941 22546 net.cpp:434] conv9_2_mbox_loc_perm <- conv9_2_mbox_loc
I0218 01:14:28.359956 22546 net.cpp:408] conv9_2_mbox_loc_perm -> conv9_2_mbox_loc_perm
I0218 01:14:28.360095 22546 net.cpp:150] Setting up conv9_2_mbox_loc_perm
I0218 01:14:28.360107 22546 net.cpp:157] Top shape: 32 1 1 16 (512)
I0218 01:14:28.360113 22546 net.cpp:165] Memory required for data: 8087092064
I0218 01:14:28.360121 22546 layer_factory.hpp:77] Creating layer conv9_2_mbox_loc_flat
I0218 01:14:28.360132 22546 net.cpp:100] Creating Layer conv9_2_mbox_loc_flat
I0218 01:14:28.360141 22546 net.cpp:434] conv9_2_mbox_loc_flat <- conv9_2_mbox_loc_perm
I0218 01:14:28.360153 22546 net.cpp:408] conv9_2_mbox_loc_flat -> conv9_2_mbox_loc_flat
I0218 01:14:28.360193 22546 net.cpp:150] Setting up conv9_2_mbox_loc_flat
I0218 01:14:28.360205 22546 net.cpp:157] Top shape: 32 16 (512)
I0218 01:14:28.360211 22546 net.cpp:165] Memory required for data: 8087094112
I0218 01:14:28.360219 22546 layer_factory.hpp:77] Creating layer conv9_2_mbox_conf
I0218 01:14:28.360236 22546 net.cpp:100] Creating Layer conv9_2_mbox_conf
I0218 01:14:28.360246 22546 net.cpp:434] conv9_2_mbox_conf <- conv9_2_conv9_2_relu_0_split_1
I0218 01:14:28.360258 22546 net.cpp:408] conv9_2_mbox_conf -> conv9_2_mbox_conf
I0218 01:14:28.363340 22546 net.cpp:150] Setting up conv9_2_mbox_conf
I0218 01:14:28.363359 22546 net.cpp:157] Top shape: 32 88 1 1 (2816)
I0218 01:14:28.363368 22546 net.cpp:165] Memory required for data: 8087105376
I0218 01:14:28.363379 22546 layer_factory.hpp:77] Creating layer conv9_2_mbox_conf_perm
I0218 01:14:28.363394 22546 net.cpp:100] Creating Layer conv9_2_mbox_conf_perm
I0218 01:14:28.363402 22546 net.cpp:434] conv9_2_mbox_conf_perm <- conv9_2_mbox_conf
I0218 01:14:28.363415 22546 net.cpp:408] conv9_2_mbox_conf_perm -> conv9_2_mbox_conf_perm
I0218 01:14:28.363554 22546 net.cpp:150] Setting up conv9_2_mbox_conf_perm
I0218 01:14:28.363569 22546 net.cpp:157] Top shape: 32 1 1 88 (2816)
I0218 01:14:28.363574 22546 net.cpp:165] Memory required for data: 8087116640
I0218 01:14:28.363581 22546 layer_factory.hpp:77] Creating layer conv9_2_mbox_conf_flat
I0218 01:14:28.363591 22546 net.cpp:100] Creating Layer conv9_2_mbox_conf_flat
I0218 01:14:28.363600 22546 net.cpp:434] conv9_2_mbox_conf_flat <- conv9_2_mbox_conf_perm
I0218 01:14:28.363612 22546 net.cpp:408] conv9_2_mbox_conf_flat -> conv9_2_mbox_conf_flat
I0218 01:14:28.363654 22546 net.cpp:150] Setting up conv9_2_mbox_conf_flat
I0218 01:14:28.363667 22546 net.cpp:157] Top shape: 32 88 (2816)
I0218 01:14:28.363672 22546 net.cpp:165] Memory required for data: 8087127904
I0218 01:14:28.363679 22546 layer_factory.hpp:77] Creating layer conv9_2_mbox_priorbox
I0218 01:14:28.363693 22546 net.cpp:100] Creating Layer conv9_2_mbox_priorbox
I0218 01:14:28.363701 22546 net.cpp:434] conv9_2_mbox_priorbox <- conv9_2_conv9_2_relu_0_split_2
I0218 01:14:28.363726 22546 net.cpp:434] conv9_2_mbox_priorbox <- data_data_0_split_6
I0218 01:14:28.363744 22546 net.cpp:408] conv9_2_mbox_priorbox -> conv9_2_mbox_priorbox
I0218 01:14:28.363790 22546 net.cpp:150] Setting up conv9_2_mbox_priorbox
I0218 01:14:28.363801 22546 net.cpp:157] Top shape: 1 2 16 (32)
I0218 01:14:28.363807 22546 net.cpp:165] Memory required for data: 8087128032
I0218 01:14:28.363813 22546 layer_factory.hpp:77] Creating layer mbox_loc
I0218 01:14:28.363837 22546 net.cpp:100] Creating Layer mbox_loc
I0218 01:14:28.363847 22546 net.cpp:434] mbox_loc <- conv4_3_norm_mbox_loc_flat
I0218 01:14:28.363858 22546 net.cpp:434] mbox_loc <- fc7_mbox_loc_flat
I0218 01:14:28.363868 22546 net.cpp:434] mbox_loc <- conv6_2_mbox_loc_flat
I0218 01:14:28.363878 22546 net.cpp:434] mbox_loc <- conv7_2_mbox_loc_flat
I0218 01:14:28.363888 22546 net.cpp:434] mbox_loc <- conv8_2_mbox_loc_flat
I0218 01:14:28.363896 22546 net.cpp:434] mbox_loc <- conv9_2_mbox_loc_flat
I0218 01:14:28.363909 22546 net.cpp:408] mbox_loc -> mbox_loc
I0218 01:14:28.363955 22546 net.cpp:150] Setting up mbox_loc
I0218 01:14:28.363967 22546 net.cpp:157] Top shape: 32 34928 (1117696)
I0218 01:14:28.363973 22546 net.cpp:165] Memory required for data: 8091598816
I0218 01:14:28.363981 22546 layer_factory.hpp:77] Creating layer mbox_conf
I0218 01:14:28.363994 22546 net.cpp:100] Creating Layer mbox_conf
I0218 01:14:28.364004 22546 net.cpp:434] mbox_conf <- conv4_3_norm_mbox_conf_flat
I0218 01:14:28.364014 22546 net.cpp:434] mbox_conf <- fc7_mbox_conf_flat
I0218 01:14:28.364023 22546 net.cpp:434] mbox_conf <- conv6_2_mbox_conf_flat
I0218 01:14:28.364032 22546 net.cpp:434] mbox_conf <- conv7_2_mbox_conf_flat
I0218 01:14:28.364039 22546 net.cpp:434] mbox_conf <- conv8_2_mbox_conf_flat
I0218 01:14:28.364048 22546 net.cpp:434] mbox_conf <- conv9_2_mbox_conf_flat
I0218 01:14:28.364058 22546 net.cpp:408] mbox_conf -> mbox_conf
I0218 01:14:28.364099 22546 net.cpp:150] Setting up mbox_conf
I0218 01:14:28.364109 22546 net.cpp:157] Top shape: 32 192104 (6147328)
I0218 01:14:28.364115 22546 net.cpp:165] Memory required for data: 8116188128
I0218 01:14:28.364122 22546 layer_factory.hpp:77] Creating layer mbox_priorbox
I0218 01:14:28.364133 22546 net.cpp:100] Creating Layer mbox_priorbox
I0218 01:14:28.364141 22546 net.cpp:434] mbox_priorbox <- conv4_3_norm_mbox_priorbox
I0218 01:14:28.364150 22546 net.cpp:434] mbox_priorbox <- fc7_mbox_priorbox
I0218 01:14:28.364158 22546 net.cpp:434] mbox_priorbox <- conv6_2_mbox_priorbox
I0218 01:14:28.364166 22546 net.cpp:434] mbox_priorbox <- conv7_2_mbox_priorbox
I0218 01:14:28.364174 22546 net.cpp:434] mbox_priorbox <- conv8_2_mbox_priorbox
I0218 01:14:28.364182 22546 net.cpp:434] mbox_priorbox <- conv9_2_mbox_priorbox
I0218 01:14:28.364194 22546 net.cpp:408] mbox_priorbox -> mbox_priorbox
I0218 01:14:28.364234 22546 net.cpp:150] Setting up mbox_priorbox
I0218 01:14:28.364246 22546 net.cpp:157] Top shape: 1 2 34928 (69856)
I0218 01:14:28.364253 22546 net.cpp:165] Memory required for data: 8116467552
I0218 01:14:28.364259 22546 layer_factory.hpp:77] Creating layer mbox_loss
I0218 01:14:28.364275 22546 net.cpp:100] Creating Layer mbox_loss
I0218 01:14:28.364284 22546 net.cpp:434] mbox_loss <- mbox_loc
I0218 01:14:28.364291 22546 net.cpp:434] mbox_loss <- mbox_conf
I0218 01:14:28.364300 22546 net.cpp:434] mbox_loss <- mbox_priorbox
…
  name: "data"
  type: "AnnotatedData"
  top: "data"
  top: "label"
  include {
    phase: TEST
  }
  transform_param {
    mean_value: 137
    mean_value: 84
    mean_value: 87
    mean_value: 84
    resize_param {
      prob: 1
      resize_mode: WARP
      height: 300
      width: 300
      interp_mode: LINEAR
    }
  }
  data_param {
    source: "examples/dbgr_trees/dbgr_trees_test_lmdb"
    batch_size: 1
    backend: LMDB
  }
  annotated_data_param {
    batch_sampler {
    }
    label_map_file: "data/dbgr_trees/labelmap_voc.prototxt"
  }
}
layer {
  name: "conv1_1_rgbd"
  type: "Convolution"
  bottom: "data"
  top: "conv1_1_rgbd"
  param {
    lr_mult: 1
    decay_mult: 1
  }
  param {
    lr_mult: 2
    decay_mult: 0
  }
  convolution_param {
    num_output: 64
    pad: 1
    kernel_size: 3
    weight_filler {
      type: "xavier"
    }
    bias_filler {
      type: "constant"
      value: 0
    }
  }
}
layer {
  name: "relu1_1"
  type: "ReLU"
  bottom: "conv1_1_rgbd"
  top: "conv1_1_rgbd"
}
layer {
  name: "conv1_2"
  type: "Convolution"
  bottom: "conv1_1_rgbd"
  top: "conv1_2"
  param {
    lr_mult: 1
    decay_mult: 1
  }
  param {
    lr_mult: 2
    decay_mult: 0
  }
  convolution_param {
    num_output: 64
    pad: 1
    kernel_size: 3
    weight_filler {
      type: "xavier"
    }
    bias_filler {
      type: "constant"
      value: 0
    }
  }
}
layer {
  name: "relu1_2"
  type: "ReLU"
  bottom: "conv1_2"
  top: "conv1_2"
}
layer {
  name: "pool1"
  type: "Pooling"
  bottom: "conv1_2"
  top: "pool1"
  pooling_param {
    pool: MAX
    kernel_size: 2
    stride: 2
  }
}
layer {
  name: "conv2_1"
  type: "Convolution"
  bottom: "pool1"
  top: "conv2_1"
  param {
    lr_mult: 1
    decay_mult: 1
  }
  param {
    lr_mult: 2
    decay_mult: 0
  }
  convolution_param {
    num_output: 128
    pad: 1
    kernel_size: 3
    weight_filler {
      type: "xavier"
    }
    bias_filler {
      type: "constant"
      value: 0
    }
  }
}
layer {
  name: "relu2_1"
  type: "ReLU"
  bottom: "conv2_1"
  top: "conv2_1"
}
layer {
  name: "conv2_2"
  type: "Convolution"
  bottom: "conv2_1"
  top: "conv2_2"
  param {
    lr_mult: 1
    decay_mult: 1
  }
  param {
    lr_mult: 2
    decay_mult: 0
  }
  convolution_param {
    num_output: 128
    pad: 1
    kernel_size: 3
    weight_filler {
      type: "xavier"
    }
    bias_filler {
      type: "constant"
      value: 0
    }
  }
}
layer {
  name: "relu2_2"
  type: "ReLU"
  bottom: "conv2_2"
  top: "conv2_2"
}
layer {
  name: "pool2"
  type: "Pooling"
  bottom: "conv2_2"
  top: "pool2"
  pooling_param {
    pool: MAX
    kernel_size: 2
    stride: 2
  }
}
layer {
  name: "conv3_1"
  type: "Convolution"
  bottom: "pool2"
  top: "conv3_1"
  param {
    lr_mult: 1
    decay_mult: 1
  }
  param {
    lr_mult: 2
    decay_mult: 0
  }
  convolution_param {
    num_output: 256
    pad: 1
    kernel_size: 3
    weight_filler {
      type: "xavier"
    }
    bias_filler {
      type: "constant"
      value: 0
    }
  }
}
layer {
  name: "relu3_1"
  type: "ReLU"
  bottom: "conv3_1"
  top: "conv3_1"
}
layer {
  name: "conv3_2"
  type: "Convolution"
  bottom: "conv3_1"
  top: "conv3_2"
  param {
    lr_mult: 1
    decay_mult: 1
  }
  param {
    lr_mult: 2
    decay_mult: 0
  }
  convolution_param {
    num_output: 256
    pad: 1
    kernel_size: 3
    weight_filler {
      type: "xavier"
    }
    bias_filler {
      type: "constant"
      value: 0
    }
  }
}
layer {
  name: "relu3_2"
  type: "ReLU"
  bottom: "conv3_2"
  top: "conv3_2"
}
layer {
  name: "conv3_3"
  type: "Convolution"
  bottom: "conv3_2"
  top: "conv3_3"
  param {
    lr_mult: 1
    decay_mult: 1
  }
  param {
    lr_mult: 2
    decay_mult: 0
  }
  convolution_param {
    num_output: 256
    pad: 1
    kernel_size: 3
    weight_filler {
      type: "xavier"
    }
    bias_filler {
      type: "constant"
      value: 0
    }
  }
}
layer {
  name: "relu3_3"
  type: "ReLU"
  bottom: "conv3_3"
  top: "conv3_3"
}
layer {
  name: "pool3"
  type: "Pooling"
  bottom: "conv3_3"
  top: "pool3"
  pooling_param {
    pool: MAX
    kernel_size: 2
    stride: 2
  }
}
layer {
  name: "conv4_1"
  type: "Convolution"
  bottom: "pool3"
  top: "conv4_1"
  param {
    lr_mult: 1
    decay_mult: 1
  }
  param {
    lr_mult: 2
    decay_mult: 0
  }
  convolution_param {
    num_output: 512
    pad: 1
    kernel_size: 3
    weight_filler {
      type: "xavier"
    }
    bias_filler {
      type: "constant"
      value: 0
    }
  }
}
layer {
  name: "relu4_1"
  type: "ReLU"
  bottom: "conv4_1"
  top: "conv4_1"
}
layer {
  name: "conv4_2"
  type: "Convolution"
  bottom: "conv4_1"
  top: "conv4_2"
  param {
    lr_mult: 1
    decay_mult: 1
  }
  param {
    lr_mult: 2
    decay_mult: 0
  }
  convolution_param {
    num_output: 512
    pad: 1
    kernel_size: 3
    weight_filler {
      type: "xavier"
    }
    bias_filler {
      type: "constant"
      value: 0
    }
  }
}
layer {
  name: "relu4_2"
  type: "ReLU"
  bottom: "conv4_2"
  top: "conv4_2"
}
layer {
  name: "conv4_3"
  type: "Convolution"
  bottom: "conv4_2"
  top: "conv4_3"
  param {
    lr_mult: 1
    decay_mult: 1
  }
  param {
    lr_mult: 2
    decay_mult: 0
  }
  convolution_param {
    num_output: 512
    pad: 1
    kernel_size: 3
    weight_filler {
      type: "xavier"
    }
    bias_filler {
      type: "constant"
      value: 0
    }
  }
}
layer {
  name: "relu4_3"
  type: "ReLU"
  bottom: "conv4_3"
  top: "conv4_3"
}
layer {
  name: "pool4"
  type: "Pooling"
  bottom: "conv4_3"
  top: "pool4"
  pooling_param {
    pool: MAX
    kernel_size: 2
    stride: 2
  }
}
layer {
  name: "conv5_1"
  type: "Convolution"
  bottom: "pool4"
  top: "conv5_1"
  param {
    lr_mult: 1
    decay_mult: 1
  }
  param {
    lr_mult: 2
    decay_mult: 0
  }
  convolution_param {
    num_output: 512
    pad: 1
    kernel_size: 3
    weight_filler {
      type: "xavier"
    }
    bias_filler {
      type: "constant"
      value: 0
    }
    dilation: 1
  }
}
layer {
  name: "relu5_1"
  type: "ReLU"
  bottom: "conv5_1"
  top: "conv5_1"
}
layer {
  name: "conv5_2"
  type: "Convolution"
  bottom: "conv5_1"
  top: "conv5_2"
  param {
    lr_mult: 1
    decay_mult: 1
  }
  param {
    lr_mult: 2
    decay_mult: 0
  }
  convolution_param {
    num_output: 512
    pad: 1
    kernel_size: 3
    weight_filler {
      type: "xavier"
    }
    bias_filler {
      type: "constant"
      value: 0
    }
    dilation: 1
  }
}
layer {
  name: "relu5_2"
  type: "ReLU"
  bottom: "conv5_2"
  top: "conv5_2"
}
layer {
  name: "conv5_3"
  type: "Convolution"
  bottom: "conv5_2"
  top: "conv5_3"
  param {
    lr_mult: 1
    decay_mult: 1
  }
  param {
    lr_mult: 2
    decay_mult: 0
  }
  convolution_param {
    num_output: 512
    pad: 1
    kernel_size: 3
    weight_filler {
      type: "xavier"
    }
    bias_filler {
      type: "constant"
      value: 0
    }
    dilation: 1
  }
}
layer {
  name: "relu5_3"
  type: "ReLU"
  bottom: "conv5_3"
  top: "conv5_3"
}
layer {
  name: "pool5"
  type: "Pooling"
  bottom: "conv5_3"
  top: "pool5"
  pooling_param {
    pool: MAX
    kernel_size: 3
    stride: 1
    pad: 1
  }
}
layer {
  name: "fc6"
  type: "Convolution"
  bottom: "pool5"
  top: "fc6"
  param {
    lr_mult: 1
    decay_mult: 1
  }
  param {
    lr_mult: 2
    decay_mult: 0
  }
  convolution_param {
    num_output: 1024
    pad: 6
    kernel_size: 3
    weight_filler {
      type: "xavier"
    }
    bias_filler {
      type: "constant"
      value: 0
    }
    dilation: 6
  }
}
layer {
  name: "relu6"
  type: "ReLU"
  bottom: "fc6"
  top: "fc6"
}
layer {
  name: "fc7"
  type: "Convolution"
  bottom: "fc6"
  top: "fc7"
  param {
    lr_mult: 1
    decay_mult: 1
  }
  param {
    lr_mult: 2
    decay_mult: 0
  }
  convolution_param {
    num_output: 1024
    kernel_size: 1
    weight_filler {
      type: "xavier"
    }
    bias_filler {
      type: "constant"
      value: 0
    }
  }
}
layer {
  name: "relu7"
  type: "ReLU"
  bottom: "fc7"
  top: "fc7"
}
layer {
  name: "conv6_1"
  type: "Convolution"
  bottom: "fc7"
  top: "conv6_1"
  param {
    lr_mult: 1
    decay_mult: 1
  }
  param {
    lr_mult: 2
    decay_mult: 0
  }
  convolution_param {
    num_output: 256
    pad: 0
    kernel_size: 1
    stride: 1
    weight_filler {
      type: "xavier"
    }
    bias_filler {
      type: "constant"
      value: 0
    }
  }
}
layer {
  name: "conv6_1_relu"
  type: "ReLU"
  bottom: "conv6_1"
  top: "conv6_1"
}
layer {
  name: "conv6_2"
  type: "Convolution"
  bottom: "conv6_1"
  top: "conv6_2"
  param {
    lr_mult: 1
    decay_mult: 1
  }
  param {
    lr_mult: 2
    decay_mult: 0
  }
  convolution_param {
    num_output: 512
    pad: 1
    kernel_size: 3
    stride: 2
    weight_filler {
      type: "xavier"
    }
    bias_filler {
      type: "constant"
      value: 0
    }
  }
}
layer {
  name: "conv6_2_relu"
  type: "ReLU"
  bottom: "conv6_2"
  top: "conv6_2"
}
layer {
  name: "conv7_1"
  type: "Convolution"
  bottom: "conv6_2"
  top: "conv7_1"
  param {
    lr_mult: 1
    decay_mult: 1
  }
  param {
    lr_mult: 2
    decay_mult: 0
  }
  convolution_param {
    num_output: 128
    pad: 0
    kernel_size: 1
    stride: 1
    weight_filler {
      type: "xavier"
    }
    bias_filler {
      type: "constant"
      value: 0
    }
  }
}
layer {
  name: "conv7_1_relu"
  type: "ReLU"
  bottom: "conv7_1"
  top: "conv7_1"
}
layer {
  name: "conv7_2"
  type: "Convolution"
  bottom: "conv7_1"
  top: "conv7_2"
  param {
    lr_mult: 1
    decay_mult: 1
  }
  param {
    lr_mult: 2
    decay_mult: 0
  }
  convolution_param {
    num_output: 256
    pad: 1
    kernel_size: 3
    stride: 2
    weight_filler {
      type: "xavier"
    }
    bias_filler {
      type: "constant"
      value: 0
    }
  }
}
layer {
  name: "conv7_2_relu"
  type: "ReLU"
  bottom: "conv7_2"
  top: "conv7_2"
}
layer {
  name: "conv8_1"
  type: "Convolution"
  bottom: "conv7_2"
  top: "conv8_1"
  param {
    lr_mult: 1
    decay_mult: 1
  }
  param {
    lr_mult: 2
    decay_mult: 0
  }
  convolution_param {
    num_output: 128
    pad: 0
    kernel_size: 1
    stride: 1
    weight_filler {
      type: "xavier"
    }
    bias_filler {
      type: "constant"
      value: 0
    }
  }
}
layer {
  name: "conv8_1_relu"
  type: "ReLU"
  bottom: "conv8_1"
  top: "conv8_1"
}
layer {
  name: "conv8_2"
  type: "Convolution"
  bottom: "conv8_1"
  top: "conv8_2"
  param {
    lr_mult: 1
    decay_mult: 1
  }
  param {
    lr_mult: 2
    decay_mult: 0
  }
  convolution_param {
    num_output: 256
    pad: 0
    kernel_size: 3
    stride: 1
    weight_filler {
      type: "xavier"
    }
    bias_filler {
      type: "constant"
      value: 0
    }
  }
}
layer {
  name: "conv8_2_relu"
  type: "ReLU"
  bottom: "conv8_2"
  top: "conv8_2"
}
layer {
  name: "conv9_1"
  type: "Convolution"
  bottom: "conv8_2"
  top: "conv9_1"
  param {
    lr_mult: 1
    decay_mult: 1
  }
  param {
    lr_mult: 2
    decay_mult: 0
  }
  convolution_param {
    num_output: 128
    pad: 0
    kernel_size: 1
    stride: 1
    weight_filler {
      type: "xavier"
    }
    bias_filler {
      type: "constant"
      value: 0
    }
  }
}
layer {
  name: "conv9_1_relu"
  type: "ReLU"
  bottom: "conv9_1"
  top: "conv9_1"
}
layer {
  name: "conv9_2"
  type: "Convolution"
  bottom: "conv9_1"
  top: "conv9_2"
  param {
    lr_mult: 1
    decay_mult: 1
  }
  param {
    lr_mult: 2
    decay_mult: 0
  }
  convolution_param {
    num_output: 256
    pad: 0
    kernel_size: 3
    stride: 1
    weight_filler {
      type: "xavier"
    }
    bias_filler {
      type: "constant"
      value: 0
    }
  }
}
layer {
  name: "conv9_2_relu"
  type: "ReLU"
  bottom: "conv9_2"
  top: "conv9_2"
}
layer {
  name: "conv4_3_norm"
  type: "Normalize"
  bottom: "conv4_3"
  top: "conv4_3_norm"
  norm_param {
    across_spatial: false
    scale_filler {
      type: "constant"
      value: 20
    }
    channel_shared: false
  }
}
layer {
  name: "conv4_3_norm_mbox_loc"
  type: "Convolution"
  bottom: "conv4_3_norm"
  top: "conv4_3_norm_mbox_loc"
  param {
    lr_mult: 1
    decay_mult: 1
  }
  param {
    lr_mult: 2
    decay_mult: 0
  }
  convolution_param {
    num_output: 16
    pad: 1
    kernel_size: 3
    stride: 1
    weight_filler {
      type: "xavier"
    }
    bias_filler {
      type: "constant"
      value: 0
    }
  }
}
layer {
  name: "conv4_3_norm_mbox_loc_perm"
  type: "Permute"
  bottom: "conv4_3_norm_mbox_loc"
  top: "conv4_3_norm_mbox_loc_perm"
  permute_param {
    order: 0
    order: 2
    order: 3
    order: 1
  }
}
layer {
  name: "conv4_3_norm_mbox_loc_flat"
  type: "Flatten"
  bottom: "conv4_3_norm_mbox_loc_perm"
  top: "conv4_3_norm_mbox_loc_flat"
  flatten_param {
    axis: 1
  }
}
layer {
  name: "conv4_3_norm_mbox_conf"
  type: "Convolution"
  bottom: "conv4_3_norm"
  top: "conv4_3_norm_mbox_conf"
  param {
    lr_mult: 1
    decay_mult: 1
  }
  param {
    lr_mult: 2
    decay_mult: 0
  }
  convolution_param {
    num_output: 88
    pad: 1
    kernel_size: 3
    stride: 1
    weight_filler {
      type: "xavier"
    }
    bias_filler {
      type: "constant"
      value: 0
    }
  }
}
layer {
  name: "conv4_3_norm_mbox_conf_perm"
  type: "Permute"
  bottom: "conv4_3_norm_mbox_conf"
  top: "conv4_3_norm_mbox_conf_perm"
  permute_param {
    order: 0
    order: 2
    order: 3
    order: 1
  }
}
layer {
  name: "conv4_3_norm_mbox_conf_flat"
  type: "Flatten"
  bottom: "conv4_3_norm_mbox_conf_perm"
  top: "conv4_3_norm_mbox_conf_flat"
  flatten_param {
    axis: 1
  }
}
layer {
  name: "conv4_3_norm_mbox_priorbox"
  type: "PriorBox"
  bottom: "conv4_3_norm"
  bottom: "data"
  top: "conv4_3_norm_mbox_priorbox"
  prior_box_param {
    min_size: 30
    max_size: 60
    aspect_ratio: 2
    flip: true
    clip: false
    variance: 0.1
    variance: 0.1
    variance: 0.2
    variance: 0.2
    step: 8
    offset: 0.5
  }
}
layer {
  name: "fc7_mbox_loc"
  type: "Convolution"
  bottom: "fc7"
  top: "fc7_mbox_loc"
  param {
    lr_mult: 1
    decay_mult: 1
  }
  param {
    lr_mult: 2
    decay_mult: 0
  }
  convolution_param {
    num_output: 24
    pad: 1
    kernel_size: 3
    stride: 1
    weight_filler {
      type: "xavier"
    }
    bias_filler {
      type: "constant"
      value: 0
    }
  }
}
layer {
  name: "fc7_mbox_loc_perm"
  type: "Permute"
  bottom: "fc7_mbox_loc"
  top: "fc7_mbox_loc_perm"
  permute_param {
    order: 0
    order: 2
    order: 3
    order: 1
  }
}
layer {
  name: "fc7_mbox_loc_flat"
  type: "Flatten"
  bottom: "fc7_mbox_loc_perm"
  top: "fc7_mbox_loc_flat"
  flatten_param {
    axis: 1
  }
}
layer {
  name: "fc7_mbox_conf"
  type: "Convolution"
  bottom: "fc7"
  top: "fc7_mbox_conf"
  param {
    lr_mult: 1
    decay_mult: 1
  }
  param {
    lr_mult: 2
    decay_mult: 0
  }
  convolution_param {
    num_output: 132
    pad: 1
    kernel_size: 3
    stride: 1
    weight_filler {
      type: "xavier"
    }
    bias_filler {
      type: "constant"
      value: 0
    }
  }
}
layer {
  name: "fc7_mbox_conf_perm"
  type: "Permute"
  bottom: "fc7_mbox_conf"
  top: "fc7_mbox_conf_perm"
  permute_param {
    order: 0
    order: 2
    order: 3
    order: 1
  }
}
layer {
  name: "fc7_mbox_conf_flat"
  type: "Flatten"
  bottom: "fc7_mbox_conf_perm"
  top: "fc7_mbox_conf_flat"
  flatten_param {
    axis: 1
  }
}
layer {
  name: "fc7_mbox_priorbox"
  type: "PriorBox"
  bottom: "fc7"
  bottom: "data"
  top: "fc7_mbox_priorbox"
  prior_box_param {
    min_size: 60
    max_size: 111
    aspect_ratio: 2
    aspect_ratio: 3
    flip: true
    clip: false
    variance: 0.1
    variance: 0.1
    variance: 0.2
    variance: 0.2
    step: 16
    offset: 0.5
  }
}
layer {
  name: "conv6_2_mbox_loc"
  type: "Convolution"
  bottom: "conv6_2"
  top: "conv6_2_mbox_loc"
  param {
    lr_mult: 1
    decay_mult: 1
  }
  param {
    lr_mult: 2
    decay_mult: 0
  }
  convolution_param {
    num_output: 24
    pad: 1
    kernel_size: 3
    stride: 1
    weight_filler {
      type: "xavier"
    }
    bias_filler {
      type: "constant"
      value: 0
    }
  }
}
layer {
  name: "conv6_2_mbox_loc_perm"
  type: "Permute"
  bottom: "conv6_2_mbox_loc"
  top: "conv6_2_mbox_loc_perm"
  permute_param {
    order: 0
    order: 2
    order: 3
    order: 1
  }
}
layer {
  name: "conv6_2_mbox_loc_flat"
  type: "Flatten"
  bottom: "conv6_2_mbox_loc_perm"
  top: "conv6_2_mbox_loc_flat"
  flatten_param {
    axis: 1
  }
}
layer {
  name: "conv6_2_mbox_conf"
  type: "Convolution"
  bottom: "conv6_2"
  top: "conv6_2_mbox_conf"
  param {
    lr_mult: 1
    decay_mult: 1
  }
  param {
    lr_mult: 2
    decay_mult: 0
  }
  convolution_param {
    num_output: 132
    pad: 1
    kernel_size: 3
    stride: 1
    weight_filler {
      type: "xavier"
    }
    bias_filler {
      type: "constant"
      value: 0
    }
  }
}
layer {
  name: "conv6_2_mbox_conf_perm"
  type: "Permute"
  bottom: "conv6_2_mbox_conf"
  top: "conv6_2_mbox_conf_perm"
  permute_param {
    order: 0
    order: 2
    order: 3
    order: 1
  }
}
layer {
  name: "conv6_2_mbox_conf_flat"
  type: "Flatten"
  bottom: "conv6_2_mbox_conf_perm"
  top: "conv6_2_mbox_conf_flat"
  flatten_param {
    axis: 1
  }
}
layer {
  name: "conv6_2_mbox_priorbox"
  type: "PriorBox"
  bottom: "conv6_2"
  bottom: "data"
  top: "conv6_2_mbox_priorbox"
  prior_box_param {
    min_size: 111
    max_size: 162
    aspect_ratio: 2
    aspect_ratio: 3
    flip: true
    clip: false
    variance: 0.1
    variance: 0.1
    variance: 0.2
    variance: 0.2
    step: 32
    offset: 0.5
  }
}
layer {
  name: "conv7_2_mbox_loc"
  type: "Convolution"
  bottom: "conv7_2"
  top: "conv7_2_mbox_loc"
  param {
    lr_mult: 1
    decay_mult: 1
  }
  param {
    lr_mult: 2
    decay_mult: 0
  }
  convolution_param {
    num_output: 24
    pad: 1
    kernel_size: 3
    stride: 1
    weight_filler {
      type: "xavier"
    }
    bias_filler {
      type: "constant"
      value: 0
    }
  }
}
layer {
  name: "conv7_2_mbox_loc_perm"
  type: "Permute"
  bottom: "conv7_2_mbox_loc"
  top: "conv7_2_mbox_loc_perm"
  permute_param {
    order: 0
    order: 2
    order: 3
    order: 1
  }
}
layer {
  name: "conv7_2_mbox_loc_flat"
  type: "Flatten"
  bottom: "conv7_2_mbox_loc_perm"
  top: "conv7_2_mbox_loc_flat"
  flatten_param {
    axis: 1
  }
}
layer {
  name: "conv7_2_mbox_conf"
  type: "Convolution"
  bottom: "conv7_2"
  top: "conv7_2_mbox_conf"
  param {
    lr_mult: 1
    decay_mult: 1
  }
  param {
    lr_mult: 2
    decay_mult: 0
  }
  convolution_param {
    num_output: 132
    pad: 1
    kernel_size: 3
    stride: 1
    weight_filler {
      type: "xavier"
    }
    bias_filler {
      type: "constant"
      value: 0
    }
  }
}
layer {
  name: "conv7_2_mbox_conf_perm"
  type: "Permute"
  bottom: "conv7_2_mbox_conf"
  top: "conv7_2_mbox_conf_perm"
  permute_param {
    order: 0
    order: 2
    order: 3
    order: 1
  }
}
layer {
  name: "conv7_2_mbox_conf_flat"
  type: "Flatten"
  bottom: "conv7_2_mbox_conf_perm"
  top: "conv7_2_mbox_conf_flat"
  flatten_param {
    axis: 1
  }
}
layer {
  name: "conv7_2_mbox_priorbox"
  type: "PriorBox"
  bottom: "conv7_2"
  bottom: "data"
  top: "conv7_2_mbox_priorbox"
  prior_box_param {
    min_size: 162
    max_size: 213
    aspect_ratio: 2
    aspect_ratio: 3
    flip: true
    clip: false
    variance: 0.1
    variance: 0.1
    variance: 0.2
    variance: 0.2
    step: 64
    offset: 0.5
  }
}
layer {
  name: "conv8_2_mbox_loc"
  type: "Convolution"
  bottom: "conv8_2"
  top: "conv8_2_mbox_loc"
  param {
    lr_mult: 1
    decay_mult: 1
  }
  param {
    lr_mult: 2
    decay_mult: 0
  }
  convolution_param {
    num_output: 16
    pad: 1
    kernel_size: 3
    stride: 1
    weight_filler {
      type: "xavier"
    }
    bias_filler {
      type: "constant"
      value: 0
    }
  }
}
layer {
  name: "conv8_2_mbox_loc_perm"
  type: "Permute"
  bottom: "conv8_2_mbox_loc"
  top: "conv8_2_mbox_loc_perm"
  permute_param {
    order: 0
    order: 2
    order: 3
    order: 1
  }
}
layer {
  name: "conv8_2_mbox_loc_flat"
  type: "Flatten"
  bottom: "conv8_2_mbox_loc_perm"
  top: "conv8_2_mbox_loc_flat"
  flatten_param {
    axis: 1
  }
}
layer {
  name: "conv8_2_mbox_conf"
  type: "Convolution"
  bottom: "conv8_2"
  top: "conv8_2_mbox_conf"
  param {
    lr_mult: 1
    decay_mult: 1
  }
  param {
    lr_mult: 2
    decay_mult: 0
  }
  convolution_param {
    num_output: 88
    pad: 1
    kernel_size: 3
    stride: 1
    weight_filler {
      type: "xavier"
    }
    bias_filler {
      type: "constant"
      value: 0
    }
  }
}
layer {
  name: "conv8_2_mbox_conf_perm"
  type: "Permute"
  bottom: "conv8_2_mbox_conf"
  top: "conv8_2_mbox_conf_perm"
  permute_param {
    order: 0
    order: 2
    order: 3
    order: 1
  }
}
layer {
  name: "conv8_2_mbox_conf_flat"
  type: "Flatten"
  bottom: "conv8_2_mbox_conf_perm"
  top: "conv8_2_mbox_conf_flat"
  flatten_param {
    axis: 1
  }
}
layer {
  name: "conv8_2_mbox_priorbox"
  type: "PriorBox"
  bottom: "conv8_2"
  bottom: "data"
  top: "conv8_2_mbox_priorbox"
  prior_box_param {
    min_size: 213
    max_size: 264
    aspect_ratio: 2
    flip: true
    clip: false
    variance: 0.1
    variance: 0.1
    variance: 0.2
    variance: 0.2
    step: 100
    offset: 0.5
  }
}
layer {
  name: "conv9_2_mbox_loc"
  type: "Convolution"
  bottom: "conv9_2"
  top: "conv9_2_mbox_loc"
  param {
    lr_mult: 1
    decay_mult: 1
  }
  param {
    lr_mult: 2
    decay_mult: 0
  }
  convolution_param {
    num_output: 16
    pad: 1
    kernel_size: 3
    stride: 1
    weight_filler {
      type: "xavier"
    }
    bias_filler {
      type: "constant"
      value: 0
    }
  }
}
layer {
  name: "conv9_2_mbox_loc_perm"
  type: "Permute"
  bottom: "conv9_2_mbox_loc"
  top: "conv9_2_mbox_loc_perm"
  permute_param {
    order: 0
    order: 2
    order: 3
    order: 1
  }
}
layer {
  name: "conv9_2_mbox_loc_flat"
  type: "Flatten"
  bottom: "conv9_2_mbox_loc_perm"
  top: "conv9_2_mbox_loc_flat"
  flatten_param {
    axis: 1
  }
}
layer {
  name: "conv9_2_mbox_conf"
  type: "Convolution"
  bottom: "conv9_2"
  top: "conv9_2_mbox_conf"
  param {
    lr_mult: 1
    decay_mult: 1
  }
  param {
    lr_mult: 2
    decay_mult: 0
  }
  convolution_param {
    num_output: 88
    pad: 1
    kernel_size: 3
    stride: 1
    weight_filler {
      type: "xavier"
    }
    bias_filler {
      type: "constant"
      value: 0
    }
  }
}
layer {
  name: "conv9_2_mbox_conf_perm"
  type: "Permute"
  bottom: "conv9_2_mbox_conf"
  top: "conv9_2_mbox_conf_perm"
  permute_param {
    order: 0
    order: 2
    order: 3
    order: 1
  }
}
layer {
  name: "conv9_2_mbox_conf_flat"
  type: "Flatten"
  bottom: "conv9_2_mbox_conf_perm"
  top: "conv9_2_mbox_conf_flat"
  flatten_param {
    axis: 1
  }
}
layer {
  name: "conv9_2_mbox_priorbox"
  type: "PriorBox"
  bottom: "conv9_2"
  bottom: "data"
  top: "conv9_2_mbox_priorbox"
  prior_box_param {
    min_size: 264
    max_size: 315
    aspect_ratio: 2
    flip: true
    clip: false
    variance: 0.1
    variance: 0.1
    variance: 0.2
    variance: 0.2
    step: 300
    offset: 0.5
  }
}
layer {
  name: "mbox_loc"
  type: "Concat"
  bottom: "conv4_3_norm_mbox_loc_flat"
  bottom: "fc7_mbox_loc_flat"
  bottom: "conv6_2_mbox_loc_flat"
  bottom: "conv7_2_mbox_loc_flat"
  bottom: "conv8_2_mbox_loc_flat"
  bottom: "conv9_2_mbox_loc_flat"
  top: "mbox_loc"
  concat_param {
    axis: 1
  }
}
layer {
  name: "mbox_conf"
  type: "Concat"
  bottom: "conv4_3_norm_mbox_conf_flat"
  bottom: "fc7_mbox_conf_flat"
  bottom: "conv6_2_mbox_conf_flat"
  bottom: "conv7_2_mbox_conf_flat"
  bottom: "conv8_2_mbox_conf_flat"
  bottom: "conv9_2_mbox_conf_flat"
  top: "mbox_conf"
  concat_param {
    axis: 1
  }
}
layer {
  name: "mbox_priorbox"
  type: "Concat"
  bottom: "conv4_3_norm_mbox_priorbox"
  bottom: "fc7_mbox_priorbox"
  bottom: "conv6_2_mbox_priorbox"
  bottom: "conv7_2_mbox_priorbox"
  bottom: "conv8_2_mbox_priorbox"
  bottom: "conv9_2_mbox_priorbox"
  top: "mbox_priorbox"
  concat_param {
    axis: 2
  }
}
layer {
  name: "mbox_conf_reshape"
  type: "Reshape"
  bottom: "mbox_conf"
  top: "mbox_conf_reshape"
  reshape_param {
    shape {
      dim: 0
      dim: -1
      dim: 22
    }
  }
}
layer {
  name: "mbox_conf_softmax"
  type: "Softmax"
  bottom: "mbox_conf_reshape"
  top: "mbox_conf_softmax"
  softmax_param {
    axis: 2
  }
}
layer {
  name: "mbox_conf_flatten"
  type: "Flatten"
  bottom: "mbox_conf_softmax"
  top: "mbox_conf_flatten"
  flatten_param {
    axis: 1
  }
}
layer {
  name: "detection_out"
  type: "DetectionOutput"
  bottom: "mbox_loc"
  bottom: "mbox_conf_flatten"
  bottom: "mbox_priorbox"
  top: "detection_out"
  include {
    phase: TEST
  }
  detection_output_param {
    num_classes: 22
    share_location: true
    background_label_id: 0
    nms_param {
      nms_threshold: 0.45
      top_k: 400
    }
    save_output_param {
      output_directory: "/home/dhall/data/VOCdevkit/results/dbgr_trees/SSD_dbgr_trees_300x300/Main"
      output_name_prefix: "comp4_det_test_"
      output_format: "VOC"
      label_map_file: "data/dbgr_trees/labelmap_voc.prototxt"
      name_size_file: "data/dbgr_trees/test_name_size.txt"
      num_test_image: 105
    }
    code_type: CENTER_SIZE
    keep_top_k: 200
    confidence_threshold: 0.01
  }
}
layer {
  name: "detection_eval"
  type: "DetectionEvaluate"
  bottom: "detection_out"
  bottom: "label"
  top: "detection_eval"
  include {
    phase: TEST
  }
  detection_evaluate_param {
    num_classes: 22
    background_label_id: 0
    overlap_threshold: 0.5
    evaluate_difficult_gt: false
    name_size_file: "data/dbgr_trees/test_name_size.txt"
  }
}
I0218 01:14:28.369635 22546 layer_factory.hpp:77] Creating layer data
I0218 01:14:28.369716 22546 net.cpp:100] Creating Layer data
I0218 01:14:28.369731 22546 net.cpp:408] data -> data
I0218 01:14:28.369748 22546 net.cpp:408] data -> label
I0218 01:14:28.371415 22565 db_lmdb.cpp:35] Opened lmdb examples/dbgr_trees/dbgr_trees_test_lmdb
I0218 01:14:28.384388 22546 annotated_data_layer.cpp:62] output data size: 1,4,300,300
I0218 01:14:28.387506 22546 net.cpp:150] Setting up data
I0218 01:14:28.387529 22546 net.cpp:157] Top shape: 1 4 300 300 (360000)
I0218 01:14:28.387540 22546 net.cpp:157] Top shape: 1 1 6 8 (48)
I0218 01:14:28.387547 22546 net.cpp:165] Memory required for data: 1440192
I0218 01:14:28.387557 22546 layer_factory.hpp:77] Creating layer data_data_0_split
I0218 01:14:28.387574 22546 net.cpp:100] Creating Layer data_data_0_split
I0218 01:14:28.387584 22546 net.cpp:434] data_data_0_split <- data
I0218 01:14:28.387598 22546 net.cpp:408] data_data_0_split -> data_data_0_split_0
I0218 01:14:28.387622 22546 net.cpp:408] data_data_0_split -> data_data_0_split_1
I0218 01:14:28.387636 22546 net.cpp:408] data_data_0_split -> data_data_0_split_2
I0218 01:14:28.387650 22546 net.cpp:408] data_data_0_split -> data_data_0_split_3
I0218 01:14:28.387662 22546 net.cpp:408] data_data_0_split -> data_data_0_split_4
I0218 01:14:28.387678 22546 net.cpp:408] data_data_0_split -> data_data_0_split_5
I0218 01:14:28.387692 22546 net.cpp:408] data_data_0_split -> data_data_0_split_6
I0218 01:14:28.387862 22546 net.cpp:150] Setting up data_data_0_split
I0218 01:14:28.387876 22546 net.cpp:157] Top shape: 1 4 300 300 (360000)
I0218 01:14:28.387884 22546 net.cpp:157] Top shape: 1 4 300 300 (360000)
I0218 01:14:28.387915 22546 net.cpp:157] Top shape: 1 4 300 300 (360000)
I0218 01:14:28.387925 22546 net.cpp:157] Top shape: 1 4 300 300 (360000)
I0218 01:14:28.387933 22546 net.cpp:157] Top shape: 1 4 300 300 (360000)
I0218 01:14:28.387940 22546 net.cpp:157] Top shape: 1 4 300 300 (360000)
I0218 01:14:28.387949 22546 net.cpp:157] Top shape: 1 4 300 300 (360000)
I0218 01:14:28.387955 22546 net.cpp:165] Memory required for data: 11520192
I0218 01:14:28.387962 22546 layer_factory.hpp:77] Creating layer conv1_1_rgbd
I0218 01:14:28.387982 22546 net.cpp:100] Creating Layer conv1_1_rgbd
I0218 01:14:28.387991 22546 net.cpp:434] conv1_1_rgbd <- data_data_0_split_0
I0218 01:14:28.388002 22546 net.cpp:408] conv1_1_rgbd -> conv1_1_rgbd
I0218 01:14:28.389554 22546 net.cpp:150] Setting up conv1_1_rgbd
I0218 01:14:28.389570 22546 net.cpp:157] Top shape: 1 64 300 300 (5760000)
I0218 01:14:28.389578 22546 net.cpp:165] Memory required for data: 34560192
I0218 01:14:28.389596 22546 layer_factory.hpp:77] Creating layer relu1_1
I0218 01:14:28.389609 22546 net.cpp:100] Creating Layer relu1_1
I0218 01:14:28.389618 22546 net.cpp:434] relu1_1 <- conv1_1_rgbd
I0218 01:14:28.389628 22546 net.cpp:395] relu1_1 -> conv1_1_rgbd (in-place)
I0218 01:14:28.389996 22546 net.cpp:150] Setting up relu1_1
I0218 01:14:28.390012 22546 net.cpp:157] Top shape: 1 64 300 300 (5760000)
I0218 01:14:28.390019 22546 net.cpp:165] Memory required for data: 57600192
I0218 01:14:28.390027 22546 layer_factory.hpp:77] Creating layer conv1_2
I0218 01:14:28.390043 22546 net.cpp:100] Creating Layer conv1_2
I0218 01:14:28.390051 22546 net.cpp:434] conv1_2 <- conv1_1_rgbd
I0218 01:14:28.390064 22546 net.cpp:408] conv1_2 -> conv1_2
I0218 01:14:28.392099 22546 net.cpp:150] Setting up conv1_2
I0218 01:14:28.392118 22546 net.cpp:157] Top shape: 1 64 300 300 (5760000)
I0218 01:14:28.392127 22546 net.cpp:165] Memory required for data: 80640192
I0218 01:14:28.392143 22546 layer_factory.hpp:77] Creating layer relu1_2
I0218 01:14:28.392154 22546 net.cpp:100] Creating Layer relu1_2
I0218 01:14:28.392161 22546 net.cpp:434] relu1_2 <- conv1_2
I0218 01:14:28.392171 22546 net.cpp:395] relu1_2 -> conv1_2 (in-place)
I0218 01:14:28.392382 22546 net.cpp:150] Setting up relu1_2
I0218 01:14:28.392397 22546 net.cpp:157] Top shape: 1 64 300 300 (5760000)
I0218 01:14:28.392405 22546 net.cpp:165] Memory required for data: 103680192
I0218 01:14:28.392411 22546 layer_factory.hpp:77] Creating layer pool1
I0218 01:14:28.392423 22546 net.cpp:100] Creating Layer pool1
I0218 01:14:28.392429 22546 net.cpp:434] pool1 <- conv1_2
I0218 01:14:28.392441 22546 net.cpp:408] pool1 -> pool1
I0218 01:14:28.392509 22546 net.cpp:150] Setting up pool1
I0218 01:14:28.392521 22546 net.cpp:157] Top shape: 1 64 150 150 (1440000)
I0218 01:14:28.392529 22546 net.cpp:165] Memory required for data: 109440192
I0218 01:14:28.392535 22546 layer_factory.hpp:77] Creating layer conv2_1
I0218 01:14:28.392550 22546 net.cpp:100] Creating Layer conv2_1
I0218 01:14:28.392560 22546 net.cpp:434] conv2_1 <- pool1
I0218 01:14:28.392571 22546 net.cpp:408] conv2_1 -> conv2_1
I0218 01:14:28.394417 22546 net.cpp:150] Setting up conv2_1
I0218 01:14:28.394434 22546 net.cpp:157] Top shape: 1 128 150 150 (2880000)
I0218 01:14:28.394443 22546 net.cpp:165] Memory required for data: 120960192
I0218 01:14:28.394459 22546 layer_factory.hpp:77] Creating layer relu2_1
I0218 01:14:28.394471 22546 net.cpp:100] Creating Layer relu2_1
I0218 01:14:28.394485 22546 net.cpp:434] relu2_1 <- conv2_1
I0218 01:14:28.394496 22546 net.cpp:395] relu2_1 -> conv2_1 (in-place)
I0218 01:14:28.394706 22546 net.cpp:150] Setting up relu2_1
I0218 01:14:28.394721 22546 net.cpp:157] Top shape: 1 128 150 150 (2880000)
I0218 01:14:28.394728 22546 net.cpp:165] Memory required for data: 132480192
I0218 01:14:28.394736 22546 layer_factory.hpp:77] Creating layer conv2_2
I0218 01:14:28.394755 22546 net.cpp:100] Creating Layer conv2_2
I0218 01:14:28.394762 22546 net.cpp:434] conv2_2 <- conv2_1
I0218 01:14:28.394774 22546 net.cpp:408] conv2_2 -> conv2_2
I0218 01:14:28.397459 22546 net.cpp:150] Setting up conv2_2
I0218 01:14:28.397490 22546 net.cpp:157] Top shape: 1 128 150 150 (2880000)
I0218 01:14:28.397498 22546 net.cpp:165] Memory required for data: 144000192
I0218 01:14:28.397511 22546 layer_factory.hpp:77] Creating layer relu2_2
I0218 01:14:28.397523 22546 net.cpp:100] Creating Layer relu2_2
I0218 01:14:28.397531 22546 net.cpp:434] relu2_2 <- conv2_2
I0218 01:14:28.397541 22546 net.cpp:395] relu2_2 -> conv2_2 (in-place)
I0218 01:14:28.397882 22546 net.cpp:150] Setting up relu2_2
I0218 01:14:28.397898 22546 net.cpp:157] Top shape: 1 128 150 150 (2880000)
I0218 01:14:28.397905 22546 net.cpp:165] Memory required for data: 155520192
I0218 01:14:28.397917 22546 layer_factory.hpp:77] Creating layer pool2
I0218 01:14:28.397928 22546 net.cpp:100] Creating Layer pool2
I0218 01:14:28.397935 22546 net.cpp:434] pool2 <- conv2_2
I0218 01:14:28.397945 22546 net.cpp:408] pool2 -> pool2
I0218 01:14:28.398015 22546 net.cpp:150] Setting up pool2
I0218 01:14:28.398028 22546 net.cpp:157] Top shape: 1 128 75 75 (720000)
I0218 01:14:28.398035 22546 net.cpp:165] Memory required for data: 158400192
I0218 01:14:28.398041 22546 layer_factory.hpp:77] Creating layer conv3_1
I0218 01:14:28.398056 22546 net.cpp:100] Creating Layer conv3_1
I0218 01:14:28.398069 22546 net.cpp:434] conv3_1 <- pool2
I0218 01:14:28.398082 22546 net.cpp:408] conv3_1 -> conv3_1
I0218 01:14:28.401881 22546 net.cpp:150] Setting up conv3_1
I0218 01:14:28.401901 22546 net.cpp:157] Top shape: 1 256 75 75 (1440000)
I0218 01:14:28.401908 22546 net.cpp:165] Memory required for data: 164160192
I0218 01:14:28.401924 22546 layer_factory.hpp:77] Creating layer relu3_1
I0218 01:14:28.401937 22546 net.cpp:100] Creating Layer relu3_1
I0218 01:14:28.401944 22546 net.cpp:434] relu3_1 <- conv3_1
I0218 01:14:28.401954 22546 net.cpp:395] relu3_1 -> conv3_1 (in-place)
I0218 01:14:28.402154 22546 net.cpp:150] Setting up relu3_1
I0218 01:14:28.402169 22546 net.cpp:157] Top shape: 1 256 75 75 (1440000)
I0218 01:14:28.402175 22546 net.cpp:165] Memory required for data: 169920192
I0218 01:14:28.402182 22546 layer_factory.hpp:77] Creating layer conv3_2
I0218 01:14:28.402196 22546 net.cpp:100] Creating Layer conv3_2
I0218 01:14:28.402204 22546 net.cpp:434] conv3_2 <- conv3_1
I0218 01:14:28.402216 22546 net.cpp:408] conv3_2 -> conv3_2
I0218 01:14:28.408428 22546 net.cpp:150] Setting up conv3_2
I0218 01:14:28.408450 22546 net.cpp:157] Top shape: 1 256 75 75 (1440000)
I0218 01:14:28.408458 22546 net.cpp:165] Memory required for data: 175680192
I0218 01:14:28.408470 22546 layer_factory.hpp:77] Creating layer relu3_2
I0218 01:14:28.408481 22546 net.cpp:100] Creating Layer relu3_2
I0218 01:14:28.408489 22546 net.cpp:434] relu3_2 <- conv3_2
I0218 01:14:28.408499 22546 net.cpp:395] relu3_2 -> conv3_2 (in-place)
I0218 01:14:28.408696 22546 net.cpp:150] Setting up relu3_2
I0218 01:14:28.408711 22546 net.cpp:157] Top shape: 1 256 75 75 (1440000)
I0218 01:14:28.408718 22546 net.cpp:165] Memory required for data: 181440192
I0218 01:14:28.408725 22546 layer_factory.hpp:77] Creating layer conv3_3
I0218 01:14:28.408743 22546 net.cpp:100] Creating Layer conv3_3
I0218 01:14:28.408757 22546 net.cpp:434] conv3_3 <- conv3_2
I0218 01:14:28.408771 22546 net.cpp:408] conv3_3 -> conv3_3
I0218 01:14:28.415165 22546 net.cpp:150] Setting up conv3_3
I0218 01:14:28.415189 22546 net.cpp:157] Top shape: 1 256 75 75 (1440000)
I0218 01:14:28.415195 22546 net.cpp:165] Memory required for data: 187200192
I0218 01:14:28.415206 22546 layer_factory.hpp:77] Creating layer relu3_3
I0218 01:14:28.415218 22546 net.cpp:100] Creating Layer relu3_3
I0218 01:14:28.415226 22546 net.cpp:434] relu3_3 <- conv3_3
I0218 01:14:28.415237 22546 net.cpp:395] relu3_3 -> conv3_3 (in-place)
I0218 01:14:28.415576 22546 net.cpp:150] Setting up relu3_3
I0218 01:14:28.415593 22546 net.cpp:157] Top shape: 1 256 75 75 (1440000)
I0218 01:14:28.415601 22546 net.cpp:165] Memory required for data: 192960192
I0218 01:14:28.415607 22546 layer_factory.hpp:77] Creating layer pool3
I0218 01:14:28.415619 22546 net.cpp:100] Creating Layer pool3
I0218 01:14:28.415627 22546 net.cpp:434] pool3 <- conv3_3
I0218 01:14:28.415663 22546 net.cpp:408] pool3 -> pool3
I0218 01:14:28.415740 22546 net.cpp:150] Setting up pool3
I0218 01:14:28.415752 22546 net.cpp:157] Top shape: 1 256 38 38 (369664)
I0218 01:14:28.415760 22546 net.cpp:165] Memory required for data: 194438848
I0218 01:14:28.415766 22546 layer_factory.hpp:77] Creating layer conv4_1
I0218 01:14:28.415781 22546 net.cpp:100] Creating Layer conv4_1
I0218 01:14:28.415793 22546 net.cpp:434] conv4_1 <- pool3
I0218 01:14:28.415807 22546 net.cpp:408] conv4_1 -> conv4_1
I0218 01:14:28.426977 22546 net.cpp:150] Setting up conv4_1
I0218 01:14:28.427006 22546 net.cpp:157] Top shape: 1 512 38 38 (739328)
I0218 01:14:28.427012 22546 net.cpp:165] Memory required for data: 197396160
I0218 01:14:28.427026 22546 layer_factory.hpp:77] Creating layer relu4_1
I0218 01:14:28.427037 22546 net.cpp:100] Creating Layer relu4_1
I0218 01:14:28.427045 22546 net.cpp:434] relu4_1 <- conv4_1
I0218 01:14:28.427057 22546 net.cpp:395] relu4_1 -> conv4_1 (in-place)
I0218 01:14:28.427268 22546 net.cpp:150] Setting up relu4_1
I0218 01:14:28.427283 22546 net.cpp:157] Top shape: 1 512 38 38 (739328)
I0218 01:14:28.427289 22546 net.cpp:165] Memory required for data: 200353472
I0218 01:14:28.427295 22546 layer_factory.hpp:77] Creating layer conv4_2
I0218 01:14:28.427312 22546 net.cpp:100] Creating Layer conv4_2
I0218 01:14:28.427320 22546 net.cpp:434] conv4_2 <- conv4_1
I0218 01:14:28.427331 22546 net.cpp:408] conv4_2 -> conv4_2
I0218 01:14:28.448583 22546 net.cpp:150] Setting up conv4_2
I0218 01:14:28.448616 22546 net.cpp:157] Top shape: 1 512 38 38 (739328)
I0218 01:14:28.448622 22546 net.cpp:165] Memory required for data: 203310784
I0218 01:14:28.448642 22546 layer_factory.hpp:77] Creating layer relu4_2
I0218 01:14:28.448657 22546 net.cpp:100] Creating Layer relu4_2
I0218 01:14:28.448667 22546 net.cpp:434] relu4_2 <- conv4_2
I0218 01:14:28.448678 22546 net.cpp:395] relu4_2 -> conv4_2 (in-place)
I0218 01:14:28.448891 22546 net.cpp:150] Setting up relu4_2
I0218 01:14:28.448905 22546 net.cpp:157] Top shape: 1 512 38 38 (739328)
I0218 01:14:28.448912 22546 net.cpp:165] Memory required for data: 206268096
I0218 01:14:28.448920 22546 layer_factory.hpp:77] Creating layer conv4_3
I0218 01:14:28.448936 22546 net.cpp:100] Creating Layer conv4_3
I0218 01:14:28.448945 22546 net.cpp:434] conv4_3 <- conv4_2
I0218 01:14:28.448956 22546 net.cpp:408] conv4_3 -> conv4_3
I0218 01:14:28.470111 22546 net.cpp:150] Setting up conv4_3
I0218 01:14:28.470150 22546 net.cpp:157] Top shape: 1 512 38 38 (739328)
I0218 01:14:28.470157 22546 net.cpp:165] Memory required for data: 209225408
I0218 01:14:28.470170 22546 layer_factory.hpp:77] Creating layer relu4_3
I0218 01:14:28.470185 22546 net.cpp:100] Creating Layer relu4_3
I0218 01:14:28.470193 22546 net.cpp:434] relu4_3 <- conv4_3
I0218 01:14:28.470206 22546 net.cpp:395] relu4_3 -> conv4_3 (in-place)
I0218 01:14:28.470577 22546 net.cpp:150] Setting up relu4_3
I0218 01:14:28.470594 22546 net.cpp:157] Top shape: 1 512 38 38 (739328)
I0218 01:14:28.470602 22546 net.cpp:165] Memory required for data: 212182720
I0218 01:14:28.470609 22546 layer_factory.hpp:77] Creating layer conv4_3_relu4_3_0_split
I0218 01:14:28.470623 22546 net.cpp:100] Creating Layer conv4_3_relu4_3_0_split
I0218 01:14:28.470630 22546 net.cpp:434] conv4_3_relu4_3_0_split <- conv4_3
I0218 01:14:28.470641 22546 net.cpp:408] conv4_3_relu4_3_0_split -> conv4_3_relu4_3_0_split_0
I0218 01:14:28.470655 22546 net.cpp:408] conv4_3_relu4_3_0_split -> conv4_3_relu4_3_0_split_1
I0218 01:14:28.470732 22546 net.cpp:150] Setting up conv4_3_relu4_3_0_split
I0218 01:14:28.470746 22546 net.cpp:157] Top shape: 1 512 38 38 (739328)
I0218 01:14:28.470753 22546 net.cpp:157] Top shape: 1 512 38 38 (739328)
I0218 01:14:28.470759 22546 net.cpp:165] Memory required for data: 218097344
I0218 01:14:28.470767 22546 layer_factory.hpp:77] Creating layer pool4
I0218 01:14:28.470778 22546 net.cpp:100] Creating Layer pool4
I0218 01:14:28.470787 22546 net.cpp:434] pool4 <- conv4_3_relu4_3_0_split_0
I0218 01:14:28.470796 22546 net.cpp:408] pool4 -> pool4
I0218 01:14:28.470887 22546 net.cpp:150] Setting up pool4
I0218 01:14:28.470901 22546 net.cpp:157] Top shape: 1 512 19 19 (184832)
I0218 01:14:28.470907 22546 net.cpp:165] Memory required for data: 218836672
I0218 01:14:28.470914 22546 layer_factory.hpp:77] Creating layer conv5_1
I0218 01:14:28.470934 22546 net.cpp:100] Creating Layer conv5_1
I0218 01:14:28.470944 22546 net.cpp:434] conv5_1 <- pool4
I0218 01:14:28.470957 22546 net.cpp:408] conv5_1 -> conv5_1
I0218 01:14:28.492491 22546 net.cpp:150] Setting up conv5_1
I0218 01:14:28.492527 22546 net.cpp:157] Top shape: 1 512 19 19 (184832)
I0218 01:14:28.492534 22546 net.cpp:165] Memory required for data: 219576000
I0218 01:14:28.492549 22546 layer_factory.hpp:77] Creating layer relu5_1
I0218 01:14:28.492564 22546 net.cpp:100] Creating Layer relu5_1
I0218 01:14:28.492573 22546 net.cpp:434] relu5_1 <- conv5_1
I0218 01:14:28.492588 22546 net.cpp:395] relu5_1 -> conv5_1 (in-place)
I0218 01:14:28.492815 22546 net.cpp:150] Setting up relu5_1
I0218 01:14:28.492830 22546 net.cpp:157] Top shape: 1 512 19 19 (184832)
I0218 01:14:28.492836 22546 net.cpp:165] Memory required for data: 220315328
I0218 01:14:28.492843 22546 layer_factory.hpp:77] Creating layer conv5_2
I0218 01:14:28.492868 22546 net.cpp:100] Creating Layer conv5_2
I0218 01:14:28.492878 22546 net.cpp:434] conv5_2 <- conv5_1
I0218 01:14:28.492892 22546 net.cpp:408] conv5_2 -> conv5_2
I0218 01:14:28.514776 22546 net.cpp:150] Setting up conv5_2
I0218 01:14:28.514816 22546 net.cpp:157] Top shape: 1 512 19 19 (184832)
I0218 01:14:28.514822 22546 net.cpp:165] Memory required for data: 221054656
I0218 01:14:28.514837 22546 layer_factory.hpp:77] Creating layer relu5_2
I0218 01:14:28.514853 22546 net.cpp:100] Creating Layer relu5_2
I0218 01:14:28.514861 22546 net.cpp:434] relu5_2 <- conv5_2
I0218 01:14:28.514873 22546 net.cpp:395] relu5_2 -> conv5_2 (in-place)
I0218 01:14:28.515105 22546 net.cpp:150] Setting up relu5_2
I0218 01:14:28.515120 22546 net.cpp:157] Top shape: 1 512 19 19 (184832)
I0218 01:14:28.515125 22546 net.cpp:165] Memory required for data: 221793984
I0218 01:14:28.515132 22546 layer_factory.hpp:77] Creating layer conv5_3
I0218 01:14:28.515153 22546 net.cpp:100] Creating Layer conv5_3
I0218 01:14:28.515166 22546 net.cpp:434] conv5_3 <- conv5_2
I0218 01:14:28.515180 22546 net.cpp:408] conv5_3 -> conv5_3
I0218 01:14:28.536525 22546 net.cpp:150] Setting up conv5_3
I0218 01:14:28.536562 22546 net.cpp:157] Top shape: 1 512 19 19 (184832)
I0218 01:14:28.536568 22546 net.cpp:165] Memory required for data: 222533312
I0218 01:14:28.536583 22546 layer_factory.hpp:77] Creating layer relu5_3
I0218 01:14:28.536607 22546 net.cpp:100] Creating Layer relu5_3
I0218 01:14:28.536618 22546 net.cpp:434] relu5_3 <- conv5_3
I0218 01:14:28.536630 22546 net.cpp:395] relu5_3 -> conv5_3 (in-place)
I0218 01:14:28.537009 22546 net.cpp:150] Setting up relu5_3
I0218 01:14:28.537025 22546 net.cpp:157] Top shape: 1 512 19 19 (184832)
I0218 01:14:28.537032 22546 net.cpp:165] Memory required for data: 223272640
I0218 01:14:28.537039 22546 layer_factory.hpp:77] Creating layer pool5
I0218 01:14:28.537051 22546 net.cpp:100] Creating Layer pool5
I0218 01:14:28.537058 22546 net.cpp:434] pool5 <- conv5_3
I0218 01:14:28.537072 22546 net.cpp:408] pool5 -> pool5
I0218 01:14:28.537149 22546 net.cpp:150] Setting up pool5
I0218 01:14:28.537163 22546 net.cpp:157] Top shape: 1 512 19 19 (184832)
I0218 01:14:28.537170 22546 net.cpp:165] Memory required for data: 224011968
I0218 01:14:28.537176 22546 layer_factory.hpp:77] Creating layer fc6
I0218 01:14:28.537199 22546 net.cpp:100] Creating Layer fc6
I0218 01:14:28.537209 22546 net.cpp:434] fc6 <- pool5
I0218 01:14:28.537220 22546 net.cpp:408] fc6 -> fc6
I0218 01:14:28.577812 22546 net.cpp:150] Setting up fc6
I0218 01:14:28.577852 22546 net.cpp:157] Top shape: 1 1024 19 19 (369664)
I0218 01:14:28.577857 22546 net.cpp:165] Memory required for data: 225490624
I0218 01:14:28.577872 22546 layer_factory.hpp:77] Creating layer relu6
I0218 01:14:28.577885 22546 net.cpp:100] Creating Layer relu6
I0218 01:14:28.577917 22546 net.cpp:434] relu6 <- fc6
I0218 01:14:28.577931 22546 net.cpp:395] relu6 -> fc6 (in-place)
I0218 01:14:28.578210 22546 net.cpp:150] Setting up relu6
I0218 01:14:28.578225 22546 net.cpp:157] Top shape: 1 1024 19 19 (369664)
I0218 01:14:28.578232 22546 net.cpp:165] Memory required for data: 226969280
I0218 01:14:28.578238 22546 layer_factory.hpp:77] Creating layer fc7
I0218 01:14:28.578261 22546 net.cpp:100] Creating Layer fc7
I0218 01:14:28.578270 22546 net.cpp:434] fc7 <- fc6
I0218 01:14:28.578285 22546 net.cpp:408] fc7 -> fc7
I0218 01:14:28.588642 22546 net.cpp:150] Setting up fc7
I0218 01:14:28.588672 22546 net.cpp:157] Top shape: 1 1024 19 19 (369664)
I0218 01:14:28.588680 22546 net.cpp:165] Memory required for data: 228447936
I0218 01:14:28.588692 22546 layer_factory.hpp:77] Creating layer relu7
I0218 01:14:28.588706 22546 net.cpp:100] Creating Layer relu7
I0218 01:14:28.588714 22546 net.cpp:434] relu7 <- fc7
I0218 01:14:28.588732 22546 net.cpp:395] relu7 -> fc7 (in-place)
I0218 01:14:28.589092 22546 net.cpp:150] Setting up relu7
I0218 01:14:28.589107 22546 net.cpp:157] Top shape: 1 1024 19 19 (369664)
I0218 01:14:28.589114 22546 net.cpp:165] Memory required for data: 229926592
I0218 01:14:28.589121 22546 layer_factory.hpp:77] Creating layer fc7_relu7_0_split
I0218 01:14:28.589134 22546 net.cpp:100] Creating Layer fc7_relu7_0_split
I0218 01:14:28.589143 22546 net.cpp:434] fc7_relu7_0_split <- fc7
I0218 01:14:28.589153 22546 net.cpp:408] fc7_relu7_0_split -> fc7_relu7_0_split_0
I0218 01:14:28.589166 22546 net.cpp:408] fc7_relu7_0_split -> fc7_relu7_0_split_1
I0218 01:14:28.589195 22546 net.cpp:408] fc7_relu7_0_split -> fc7_relu7_0_split_2
I0218 01:14:28.589207 22546 net.cpp:408] fc7_relu7_0_split -> fc7_relu7_0_split_3
I0218 01:14:28.589313 22546 net.cpp:150] Setting up fc7_relu7_0_split
I0218 01:14:28.589329 22546 net.cpp:157] Top shape: 1 1024 19 19 (369664)
I0218 01:14:28.589339 22546 net.cpp:157] Top shape: 1 1024 19 19 (369664)
I0218 01:14:28.589346 22546 net.cpp:157] Top shape: 1 1024 19 19 (369664)
I0218 01:14:28.589354 22546 net.cpp:157] Top shape: 1 1024 19 19 (369664)
I0218 01:14:28.589360 22546 net.cpp:165] Memory required for data: 235841216
I0218 01:14:28.589367 22546 layer_factory.hpp:77] Creating layer conv6_1
I0218 01:14:28.589387 22546 net.cpp:100] Creating Layer conv6_1
I0218 01:14:28.589397 22546 net.cpp:434] conv6_1 <- fc7_relu7_0_split_0
I0218 01:14:28.589411 22546 net.cpp:408] conv6_1 -> conv6_1
I0218 01:14:28.592916 22546 net.cpp:150] Setting up conv6_1
I0218 01:14:28.592936 22546 net.cpp:157] Top shape: 1 256 19 19 (92416)
I0218 01:14:28.592942 22546 net.cpp:165] Memory required for data: 236210880
I0218 01:14:28.592954 22546 layer_factory.hpp:77] Creating layer conv6_1_relu
I0218 01:14:28.592965 22546 net.cpp:100] Creating Layer conv6_1_relu
I0218 01:14:28.592973 22546 net.cpp:434] conv6_1_relu <- conv6_1
I0218 01:14:28.592986 22546 net.cpp:395] conv6_1_relu -> conv6_1 (in-place)
I0218 01:14:28.593344 22546 net.cpp:150] Setting up conv6_1_relu
I0218 01:14:28.593361 22546 net.cpp:157] Top shape: 1 256 19 19 (92416)
I0218 01:14:28.593369 22546 net.cpp:165] Memory required for data: 236580544
I0218 01:14:28.593376 22546 layer_factory.hpp:77] Creating layer conv6_2
I0218 01:14:28.593394 22546 net.cpp:100] Creating Layer conv6_2
I0218 01:14:28.593402 22546 net.cpp:434] conv6_2 <- conv6_1
I0218 01:14:28.593416 22546 net.cpp:408] conv6_2 -> conv6_2
I0218 01:14:28.604759 22546 net.cpp:150] Setting up conv6_2
I0218 01:14:28.604792 22546 net.cpp:157] Top shape: 1 512 10 10 (51200)
I0218 01:14:28.604800 22546 net.cpp:165] Memory required for data: 236785344
I0218 01:14:28.604825 22546 layer_factory.hpp:77] Creating layer conv6_2_relu
I0218 01:14:28.604841 22546 net.cpp:100] Creating Layer conv6_2_relu
I0218 01:14:28.604851 22546 net.cpp:434] conv6_2_relu <- conv6_2
I0218 01:14:28.604863 22546 net.cpp:395] conv6_2_relu -> conv6_2 (in-place)
I0218 01:14:28.605090 22546 net.cpp:150] Setting up conv6_2_relu
I0218 01:14:28.605105 22546 net.cpp:157] Top shape: 1 512 10 10 (51200)
I0218 01:14:28.605132 22546 net.cpp:165] Memory required for data: 236990144
I0218 01:14:28.605140 22546 layer_factory.hpp:77] Creating layer conv6_2_conv6_2_relu_0_split
I0218 01:14:28.605151 22546 net.cpp:100] Creating Layer conv6_2_conv6_2_relu_0_split
I0218 01:14:28.605165 22546 net.cpp:434] conv6_2_conv6_2_relu_0_split <- conv6_2
I0218 01:14:28.605180 22546 net.cpp:408] conv6_2_conv6_2_relu_0_split -> conv6_2_conv6_2_relu_0_split_0
I0218 01:14:28.605196 22546 net.cpp:408] conv6_2_conv6_2_relu_0_split -> conv6_2_conv6_2_relu_0_split_1
I0218 01:14:28.605211 22546 net.cpp:408] conv6_2_conv6_2_relu_0_split -> conv6_2_conv6_2_relu_0_split_2
I0218 01:14:28.605226 22546 net.cpp:408] conv6_2_conv6_2_relu_0_split -> conv6_2_conv6_2_relu_0_split_3
I0218 01:14:28.605339 22546 net.cpp:150] Setting up conv6_2_conv6_2_relu_0_split
I0218 01:14:28.605351 22546 net.cpp:157] Top shape: 1 512 10 10 (51200)
I0218 01:14:28.605360 22546 net.cpp:157] Top shape: 1 512 10 10 (51200)
I0218 01:14:28.605367 22546 net.cpp:157] Top shape: 1 512 10 10 (51200)
I0218 01:14:28.605376 22546 net.cpp:157] Top shape: 1 512 10 10 (51200)
I0218 01:14:28.605381 22546 net.cpp:165] Memory required for data: 237809344
I0218 01:14:28.605388 22546 layer_factory.hpp:77] Creating layer conv7_1
I0218 01:14:28.605409 22546 net.cpp:100] Creating Layer conv7_1
I0218 01:14:28.605418 22546 net.cpp:434] conv7_1 <- conv6_2_conv6_2_relu_0_split_0
I0218 01:14:28.605430 22546 net.cpp:408] conv7_1 -> conv7_1
I0218 01:14:28.607651 22546 net.cpp:150] Setting up conv7_1
I0218 01:14:28.607671 22546 net.cpp:157] Top shape: 1 128 10 10 (12800)
I0218 01:14:28.607677 22546 net.cpp:165] Memory required for data: 237860544
I0218 01:14:28.607689 22546 layer_factory.hpp:77] Creating layer conv7_1_relu
I0218 01:14:28.607700 22546 net.cpp:100] Creating Layer conv7_1_relu
I0218 01:14:28.607708 22546 net.cpp:434] conv7_1_relu <- conv7_1
I0218 01:14:28.607718 22546 net.cpp:395] conv7_1_relu -> conv7_1 (in-place)
I0218 01:14:28.608077 22546 net.cpp:150] Setting up conv7_1_relu
I0218 01:14:28.608093 22546 net.cpp:157] Top shape: 1 128 10 10 (12800)
I0218 01:14:28.608100 22546 net.cpp:165] Memory required for data: 237911744
I0218 01:14:28.608108 22546 layer_factory.hpp:77] Creating layer conv7_2
I0218 01:14:28.608125 22546 net.cpp:100] Creating Layer conv7_2
I0218 01:14:28.608134 22546 net.cpp:434] conv7_2 <- conv7_1
I0218 01:14:28.608147 22546 net.cpp:408] conv7_2 -> conv7_2
I0218 01:14:28.611891 22546 net.cpp:150] Setting up conv7_2
I0218 01:14:28.611910 22546 net.cpp:157] Top shape: 1 256 5 5 (6400)
I0218 01:14:28.611918 22546 net.cpp:165] Memory required for data: 237937344
I0218 01:14:28.611930 22546 layer_factory.hpp:77] Creating layer conv7_2_relu
I0218 01:14:28.611941 22546 net.cpp:100] Creating Layer conv7_2_relu
I0218 01:14:28.611949 22546 net.cpp:434] conv7_2_relu <- conv7_2
I0218 01:14:28.611961 22546 net.cpp:395] conv7_2_relu -> conv7_2 (in-place)
I0218 01:14:28.612321 22546 net.cpp:150] Setting up conv7_2_relu
I0218 01:14:28.612337 22546 net.cpp:157] Top shape: 1 256 5 5 (6400)
I0218 01:14:28.612344 22546 net.cpp:165] Memory required for data: 237962944
I0218 01:14:28.612352 22546 layer_factory.hpp:77] Creating layer conv7_2_conv7_2_relu_0_split
I0218 01:14:28.612362 22546 net.cpp:100] Creating Layer conv7_2_conv7_2_relu_0_split
I0218 01:14:28.612370 22546 net.cpp:434] conv7_2_conv7_2_relu_0_split <- conv7_2
I0218 01:14:28.612383 22546 net.cpp:408] conv7_2_conv7_2_relu_0_split -> conv7_2_conv7_2_relu_0_split_0
I0218 01:14:28.612396 22546 net.cpp:408] conv7_2_conv7_2_relu_0_split -> conv7_2_conv7_2_relu_0_split_1
I0218 01:14:28.612413 22546 net.cpp:408] conv7_2_conv7_2_relu_0_split -> conv7_2_conv7_2_relu_0_split_2
I0218 01:14:28.612429 22546 net.cpp:408] conv7_2_conv7_2_relu_0_split -> conv7_2_conv7_2_relu_0_split_3
I0218 01:14:28.612542 22546 net.cpp:150] Setting up conv7_2_conv7_2_relu_0_split
I0218 01:14:28.612555 22546 net.cpp:157] Top shape: 1 256 5 5 (6400)
I0218 01:14:28.612565 22546 net.cpp:157] Top shape: 1 256 5 5 (6400)
I0218 01:14:28.612572 22546 net.cpp:157] Top shape: 1 256 5 5 (6400)
I0218 01:14:28.612596 22546 net.cpp:157] Top shape: 1 256 5 5 (6400)
I0218 01:14:28.612607 22546 net.cpp:165] Memory required for data: 238065344
I0218 01:14:28.612614 22546 layer_factory.hpp:77] Creating layer conv8_1
I0218 01:14:28.612632 22546 net.cpp:100] Creating Layer conv8_1
I0218 01:14:28.612643 22546 net.cpp:434] conv8_1 <- conv7_2_conv7_2_relu_0_split_0
I0218 01:14:28.612658 22546 net.cpp:408] conv8_1 -> conv8_1
I0218 01:14:28.614168 22546 net.cpp:150] Setting up conv8_1
I0218 01:14:28.614187 22546 net.cpp:157] Top shape: 1 128 5 5 (3200)
I0218 01:14:28.614193 22546 net.cpp:165] Memory required for data: 238078144
I0218 01:14:28.614205 22546 layer_factory.hpp:77] Creating layer conv8_1_relu
I0218 01:14:28.614218 22546 net.cpp:100] Creating Layer conv8_1_relu
I0218 01:14:28.614226 22546 net.cpp:434] conv8_1_relu <- conv8_1
I0218 01:14:28.614238 22546 net.cpp:395] conv8_1_relu -> conv8_1 (in-place)
I0218 01:14:28.614449 22546 net.cpp:150] Setting up conv8_1_relu
I0218 01:14:28.614464 22546 net.cpp:157] Top shape: 1 128 5 5 (3200)
I0218 01:14:28.614470 22546 net.cpp:165] Memory required for data: 238090944
I0218 01:14:28.614477 22546 layer_factory.hpp:77] Creating layer conv8_2
I0218 01:14:28.614493 22546 net.cpp:100] Creating Layer conv8_2
I0218 01:14:28.614502 22546 net.cpp:434] conv8_2 <- conv8_1
I0218 01:14:28.614516 22546 net.cpp:408] conv8_2 -> conv8_2
I0218 01:14:28.618602 22546 net.cpp:150] Setting up conv8_2
I0218 01:14:28.618621 22546 net.cpp:157] Top shape: 1 256 3 3 (2304)
I0218 01:14:28.618628 22546 net.cpp:165] Memory required for data: 238100160
I0218 01:14:28.618641 22546 layer_factory.hpp:77] Creating layer conv8_2_relu
I0218 01:14:28.618652 22546 net.cpp:100] Creating Layer conv8_2_relu
I0218 01:14:28.618659 22546 net.cpp:434] conv8_2_relu <- conv8_2
I0218 01:14:28.618670 22546 net.cpp:395] conv8_2_relu -> conv8_2 (in-place)
I0218 01:14:28.619045 22546 net.cpp:150] Setting up conv8_2_relu
I0218 01:14:28.619062 22546 net.cpp:157] Top shape: 1 256 3 3 (2304)
I0218 01:14:28.619069 22546 net.cpp:165] Memory required for data: 238109376
I0218 01:14:28.619076 22546 layer_factory.hpp:77] Creating layer conv8_2_conv8_2_relu_0_split
I0218 01:14:28.619087 22546 net.cpp:100] Creating Layer conv8_2_conv8_2_relu_0_split
I0218 01:14:28.619094 22546 net.cpp:434] conv8_2_conv8_2_relu_0_split <- conv8_2
I0218 01:14:28.619107 22546 net.cpp:408] conv8_2_conv8_2_relu_0_split -> conv8_2_conv8_2_relu_0_split_0
I0218 01:14:28.619122 22546 net.cpp:408] conv8_2_conv8_2_relu_0_split -> conv8_2_conv8_2_relu_0_split_1
I0218 01:14:28.619139 22546 net.cpp:408] conv8_2_conv8_2_relu_0_split -> conv8_2_conv8_2_relu_0_split_2
I0218 01:14:28.619155 22546 net.cpp:408] conv8_2_conv8_2_relu_0_split -> conv8_2_conv8_2_relu_0_split_3
I0218 01:14:28.619273 22546 net.cpp:150] Setting up conv8_2_conv8_2_relu_0_split
I0218 01:14:28.619287 22546 net.cpp:157] Top shape: 1 256 3 3 (2304)
I0218 01:14:28.619295 22546 net.cpp:157] Top shape: 1 256 3 3 (2304)
I0218 01:14:28.619303 22546 net.cpp:157] Top shape: 1 256 3 3 (2304)
I0218 01:14:28.619310 22546 net.cpp:157] Top shape: 1 256 3 3 (2304)
I0218 01:14:28.619316 22546 net.cpp:165] Memory required for data: 238146240
I0218 01:14:28.619323 22546 layer_factory.hpp:77] Creating layer conv9_1
I0218 01:14:28.619343 22546 net.cpp:100] Creating Layer conv9_1
I0218 01:14:28.619352 22546 net.cpp:434] conv9_1 <- conv8_2_conv8_2_relu_0_split_0
I0218 01:14:28.619365 22546 net.cpp:408] conv9_1 -> conv9_1
I0218 01:14:28.620759 22546 net.cpp:150] Setting up conv9_1
I0218 01:14:28.620777 22546 net.cpp:157] Top shape: 1 128 3 3 (1152)
I0218 01:14:28.620784 22546 net.cpp:165] Memory required for data: 238150848
I0218 01:14:28.620796 22546 layer_factory.hpp:77] Creating layer conv9_1_relu
I0218 01:14:28.620810 22546 net.cpp:100] Creating Layer conv9_1_relu
I0218 01:14:28.620817 22546 net.cpp:434] conv9_1_relu <- conv9_1
I0218 01:14:28.620829 22546 net.cpp:395] conv9_1_relu -> conv9_1 (in-place)
I0218 01:14:28.621187 22546 net.cpp:150] Setting up conv9_1_relu
I0218 01:14:28.621204 22546 net.cpp:157] Top shape: 1 128 3 3 (1152)
I0218 01:14:28.621229 22546 net.cpp:165] Memory required for data: 238155456
I0218 01:14:28.621238 22546 layer_factory.hpp:77] Creating layer conv9_2
I0218 01:14:28.621258 22546 net.cpp:100] Creating Layer conv9_2
I0218 01:14:28.621268 22546 net.cpp:434] conv9_2 <- conv9_1
I0218 01:14:28.621281 22546 net.cpp:408] conv9_2 -> conv9_2
I0218 01:14:28.625174 22546 net.cpp:150] Setting up conv9_2
I0218 01:14:28.625193 22546 net.cpp:157] Top shape: 1 256 1 1 (256)
I0218 01:14:28.625200 22546 net.cpp:165] Memory required for data: 238156480
I0218 01:14:28.625212 22546 layer_factory.hpp:77] Creating layer conv9_2_relu
I0218 01:14:28.625226 22546 net.cpp:100] Creating Layer conv9_2_relu
I0218 01:14:28.625234 22546 net.cpp:434] conv9_2_relu <- conv9_2
I0218 01:14:28.625244 22546 net.cpp:395] conv9_2_relu -> conv9_2 (in-place)
I0218 01:14:28.625458 22546 net.cpp:150] Setting up conv9_2_relu
I0218 01:14:28.625473 22546 net.cpp:157] Top shape: 1 256 1 1 (256)
I0218 01:14:28.625479 22546 net.cpp:165] Memory required for data: 238157504
I0218 01:14:28.625486 22546 layer_factory.hpp:77] Creating layer conv9_2_conv9_2_relu_0_split
I0218 01:14:28.625497 22546 net.cpp:100] Creating Layer conv9_2_conv9_2_relu_0_split
I0218 01:14:28.625504 22546 net.cpp:434] conv9_2_conv9_2_relu_0_split <- conv9_2
I0218 01:14:28.625516 22546 net.cpp:408] conv9_2_conv9_2_relu_0_split -> conv9_2_conv9_2_relu_0_split_0
I0218 01:14:28.625530 22546 net.cpp:408] conv9_2_conv9_2_relu_0_split -> conv9_2_conv9_2_relu_0_split_1
I0218 01:14:28.625547 22546 net.cpp:408] conv9_2_conv9_2_relu_0_split -> conv9_2_conv9_2_relu_0_split_2
I0218 01:14:28.625644 22546 net.cpp:150] Setting up conv9_2_conv9_2_relu_0_split
I0218 01:14:28.625659 22546 net.cpp:157] Top shape: 1 256 1 1 (256)
I0218 01:14:28.625669 22546 net.cpp:157] Top shape: 1 256 1 1 (256)
I0218 01:14:28.625676 22546 net.cpp:157] Top shape: 1 256 1 1 (256)
I0218 01:14:28.625682 22546 net.cpp:165] Memory required for data: 238160576
I0218 01:14:28.625689 22546 layer_factory.hpp:77] Creating layer conv4_3_norm
I0218 01:14:28.625701 22546 net.cpp:100] Creating Layer conv4_3_norm
I0218 01:14:28.625716 22546 net.cpp:434] conv4_3_norm <- conv4_3_relu4_3_0_split_1
I0218 01:14:28.625728 22546 net.cpp:408] conv4_3_norm -> conv4_3_norm
I0218 01:14:28.625980 22546 net.cpp:150] Setting up conv4_3_norm
I0218 01:14:28.625994 22546 net.cpp:157] Top shape: 1 512 38 38 (739328)
I0218 01:14:28.626001 22546 net.cpp:165] Memory required for data: 241117888
I0218 01:14:28.626010 22546 layer_factory.hpp:77] Creating layer conv4_3_norm_conv4_3_norm_0_split
I0218 01:14:28.626020 22546 net.cpp:100] Creating Layer conv4_3_norm_conv4_3_norm_0_split
I0218 01:14:28.626027 22546 net.cpp:434] conv4_3_norm_conv4_3_norm_0_split <- conv4_3_norm
I0218 01:14:28.626037 22546 net.cpp:408] conv4_3_norm_conv4_3_norm_0_split -> conv4_3_norm_conv4_3_norm_0_split_0
I0218 01:14:28.626052 22546 net.cpp:408] conv4_3_norm_conv4_3_norm_0_split -> conv4_3_norm_conv4_3_norm_0_split_1
I0218 01:14:28.626066 22546 net.cpp:408] conv4_3_norm_conv4_3_norm_0_split -> conv4_3_norm_conv4_3_norm_0_split_2
I0218 01:14:28.626152 22546 net.cpp:150] Setting up conv4_3_norm_conv4_3_norm_0_split
I0218 01:14:28.626165 22546 net.cpp:157] Top shape: 1 512 38 38 (739328)
I0218 01:14:28.626173 22546 net.cpp:157] Top shape: 1 512 38 38 (739328)
I0218 01:14:28.626181 22546 net.cpp:157] Top shape: 1 512 38 38 (739328)
I0218 01:14:28.626188 22546 net.cpp:165] Memory required for data: 249989824
I0218 01:14:28.626194 22546 layer_factory.hpp:77] Creating layer conv4_3_norm_mbox_loc
I0218 01:14:28.626211 22546 net.cpp:100] Creating Layer conv4_3_norm_mbox_loc
I0218 01:14:28.626221 22546 net.cpp:434] conv4_3_norm_mbox_loc <- conv4_3_norm_conv4_3_norm_0_split_0
I0218 01:14:28.626233 22546 net.cpp:408] conv4_3_norm_mbox_loc -> conv4_3_norm_mbox_loc
I0218 01:14:28.628123 22546 net.cpp:150] Setting up conv4_3_norm_mbox_loc
I0218 01:14:28.628141 22546 net.cpp:157] Top shape: 1 16 38 38 (23104)
I0218 01:14:28.628149 22546 net.cpp:165] Memory required for data: 250082240
I0218 01:14:28.628178 22546 layer_factory.hpp:77] Creating layer conv4_3_norm_mbox_loc_perm
I0218 01:14:28.628196 22546 net.cpp:100] Creating Layer conv4_3_norm_mbox_loc_perm
I0218 01:14:28.628206 22546 net.cpp:434] conv4_3_norm_mbox_loc_perm <- conv4_3_norm_mbox_loc
I0218 01:14:28.628219 22546 net.cpp:408] conv4_3_norm_mbox_loc_perm -> conv4_3_norm_mbox_loc_perm
I0218 01:14:28.628391 22546 net.cpp:150] Setting up conv4_3_norm_mbox_loc_perm
I0218 01:14:28.628403 22546 net.cpp:157] Top shape: 1 38 38 16 (23104)
I0218 01:14:28.628412 22546 net.cpp:165] Memory required for data: 250174656
I0218 01:14:28.628419 22546 layer_factory.hpp:77] Creating layer conv4_3_norm_mbox_loc_flat
I0218 01:14:28.628430 22546 net.cpp:100] Creating Layer conv4_3_norm_mbox_loc_flat
I0218 01:14:28.628437 22546 net.cpp:434] conv4_3_norm_mbox_loc_flat <- conv4_3_norm_mbox_loc_perm
I0218 01:14:28.628450 22546 net.cpp:408] conv4_3_norm_mbox_loc_flat -> conv4_3_norm_mbox_loc_flat
I0218 01:14:28.628506 22546 net.cpp:150] Setting up conv4_3_norm_mbox_loc_flat
I0218 01:14:28.628520 22546 net.cpp:157] Top shape: 1 23104 (23104)
I0218 01:14:28.628527 22546 net.cpp:165] Memory required for data: 250267072
I0218 01:14:28.628535 22546 layer_factory.hpp:77] Creating layer conv4_3_norm_mbox_conf
I0218 01:14:28.628562 22546 net.cpp:100] Creating Layer conv4_3_norm_mbox_conf
I0218 01:14:28.628571 22546 net.cpp:434] conv4_3_norm_mbox_conf <- conv4_3_norm_conv4_3_norm_0_split_1
I0218 01:14:28.628583 22546 net.cpp:408] conv4_3_norm_mbox_conf -> conv4_3_norm_mbox_conf
I0218 01:14:28.633393 22546 net.cpp:150] Setting up conv4_3_norm_mbox_conf
I0218 01:14:28.633411 22546 net.cpp:157] Top shape: 1 88 38 38 (127072)
I0218 01:14:28.633419 22546 net.cpp:165] Memory required for data: 250775360
I0218 01:14:28.633432 22546 layer_factory.hpp:77] Creating layer conv4_3_norm_mbox_conf_perm
I0218 01:14:28.633445 22546 net.cpp:100] Creating Layer conv4_3_norm_mbox_conf_perm
I0218 01:14:28.633452 22546 net.cpp:434] conv4_3_norm_mbox_conf_perm <- conv4_3_norm_mbox_conf
I0218 01:14:28.633466 22546 net.cpp:408] conv4_3_norm_mbox_conf_perm -> conv4_3_norm_mbox_conf_perm
I0218 01:14:28.633635 22546 net.cpp:150] Setting up conv4_3_norm_mbox_conf_perm
I0218 01:14:28.633649 22546 net.cpp:157] Top shape: 1 38 38 88 (127072)
I0218 01:14:28.633656 22546 net.cpp:165] Memory required for data: 251283648
I0218 01:14:28.633662 22546 layer_factory.hpp:77] Creating layer conv4_3_norm_mbox_conf_flat
I0218 01:14:28.633677 22546 net.cpp:100] Creating Layer conv4_3_norm_mbox_conf_flat
I0218 01:14:28.633684 22546 net.cpp:434] conv4_3_norm_mbox_conf_flat <- conv4_3_norm_mbox_conf_perm
I0218 01:14:28.633694 22546 net.cpp:408] conv4_3_norm_mbox_conf_flat -> conv4_3_norm_mbox_conf_flat
I0218 01:14:28.633745 22546 net.cpp:150] Setting up conv4_3_norm_mbox_conf_flat
I0218 01:14:28.633757 22546 net.cpp:157] Top shape: 1 127072 (127072)
I0218 01:14:28.633764 22546 net.cpp:165] Memory required for data: 251791936
I0218 01:14:28.633770 22546 layer_factory.hpp:77] Creating layer conv4_3_norm_mbox_priorbox
I0218 01:14:28.633790 22546 net.cpp:100] Creating Layer conv4_3_norm_mbox_priorbox
I0218 01:14:28.633802 22546 net.cpp:434] conv4_3_norm_mbox_priorbox <- conv4_3_norm_conv4_3_norm_0_split_2
I0218 01:14:28.633812 22546 net.cpp:434] conv4_3_norm_mbox_priorbox <- data_data_0_split_1
I0218 01:14:28.633824 22546 net.cpp:408] conv4_3_norm_mbox_priorbox -> conv4_3_norm_mbox_priorbox
I0218 01:14:28.633880 22546 net.cpp:150] Setting up conv4_3_norm_mbox_priorbox
I0218 01:14:28.633893 22546 net.cpp:157] Top shape: 1 2 23104 (46208)
I0218 01:14:28.633899 22546 net.cpp:165] Memory required for data: 251976768
I0218 01:14:28.633905 22546 layer_factory.hpp:77] Creating layer fc7_mbox_loc
I0218 01:14:28.633924 22546 net.cpp:100] Creating Layer fc7_mbox_loc
I0218 01:14:28.633934 22546 net.cpp:434] fc7_mbox_loc <- fc7_relu7_0_split_1
I0218 01:14:28.633949 22546 net.cpp:408] fc7_mbox_loc -> fc7_mbox_loc
I0218 01:14:28.637437 22546 net.cpp:150] Setting up fc7_mbox_loc
I0218 01:14:28.637456 22546 net.cpp:157] Top shape: 1 24 19 19 (8664)
I0218 01:14:28.637482 22546 net.cpp:165] Memory required for data: 252011424
I0218 01:14:28.637497 22546 layer_factory.hpp:77] Creating layer fc7_mbox_loc_perm
I0218 01:14:28.637513 22546 net.cpp:100] Creating Layer fc7_mbox_loc_perm
I0218 01:14:28.637522 22546 net.cpp:434] fc7_mbox_loc_perm <- fc7_mbox_loc
I0218 01:14:28.637536 22546 net.cpp:408] fc7_mbox_loc_perm -> fc7_mbox_loc_perm
I0218 01:14:28.637708 22546 net.cpp:150] Setting up fc7_mbox_loc_perm
I0218 01:14:28.637724 22546 net.cpp:157] Top shape: 1 19 19 24 (8664)
I0218 01:14:28.637732 22546 net.cpp:165] Memory required for data: 252046080
I0218 01:14:28.637738 22546 layer_factory.hpp:77] Creating layer fc7_mbox_loc_flat
I0218 01:14:28.637748 22546 net.cpp:100] Creating Layer fc7_mbox_loc_flat
I0218 01:14:28.637756 22546 net.cpp:434] fc7_mbox_loc_flat <- fc7_mbox_loc_perm
I0218 01:14:28.637770 22546 net.cpp:408] fc7_mbox_loc_flat -> fc7_mbox_loc_flat
I0218 01:14:28.637817 22546 net.cpp:150] Setting up fc7_mbox_loc_flat
I0218 01:14:28.637830 22546 net.cpp:157] Top shape: 1 8664 (8664)
I0218 01:14:28.637836 22546 net.cpp:165] Memory required for data: 252080736
I0218 01:14:28.637843 22546 layer_factory.hpp:77] Creating layer fc7_mbox_conf
I0218 01:14:28.637862 22546 net.cpp:100] Creating Layer fc7_mbox_conf
I0218 01:14:28.637872 22546 net.cpp:434] fc7_mbox_conf <- fc7_relu7_0_split_2
I0218 01:14:28.637886 22546 net.cpp:408] fc7_mbox_conf -> fc7_mbox_conf
I0218 01:14:28.649560 22546 net.cpp:150] Setting up fc7_mbox_conf
I0218 01:14:28.649600 22546 net.cpp:157] Top shape: 1 132 19 19 (47652)
I0218 01:14:28.649608 22546 net.cpp:165] Memory required for data: 252271344
I0218 01:14:28.649622 22546 layer_factory.hpp:77] Creating layer fc7_mbox_conf_perm
I0218 01:14:28.649637 22546 net.cpp:100] Creating Layer fc7_mbox_conf_perm
I0218 01:14:28.649647 22546 net.cpp:434] fc7_mbox_conf_perm <- fc7_mbox_conf
I0218 01:14:28.649662 22546 net.cpp:408] fc7_mbox_conf_perm -> fc7_mbox_conf_perm
I0218 01:14:28.649838 22546 net.cpp:150] Setting up fc7_mbox_conf_perm
I0218 01:14:28.649852 22546 net.cpp:157] Top shape: 1 19 19 132 (47652)
I0218 01:14:28.649859 22546 net.cpp:165] Memory required for data: 252461952
I0218 01:14:28.649866 22546 layer_factory.hpp:77] Creating layer fc7_mbox_conf_flat
I0218 01:14:28.649880 22546 net.cpp:100] Creating Layer fc7_mbox_conf_flat
I0218 01:14:28.649888 22546 net.cpp:434] fc7_mbox_conf_flat <- fc7_mbox_conf_perm
I0218 01:14:28.649899 22546 net.cpp:408] fc7_mbox_conf_flat -> fc7_mbox_conf_flat
I0218 01:14:28.649950 22546 net.cpp:150] Setting up fc7_mbox_conf_flat
I0218 01:14:28.649962 22546 net.cpp:157] Top shape: 1 47652 (47652)
I0218 01:14:28.649969 22546 net.cpp:165] Memory required for data: 252652560
I0218 01:14:28.649976 22546 layer_factory.hpp:77] Creating layer fc7_mbox_priorbox
I0218 01:14:28.649988 22546 net.cpp:100] Creating Layer fc7_mbox_priorbox
I0218 01:14:28.649996 22546 net.cpp:434] fc7_mbox_priorbox <- fc7_relu7_0_split_3
I0218 01:14:28.650009 22546 net.cpp:434] fc7_mbox_priorbox <- data_data_0_split_2
I0218 01:14:28.650027 22546 net.cpp:408] fc7_mbox_priorbox -> fc7_mbox_priorbox
I0218 01:14:28.650087 22546 net.cpp:150] Setting up fc7_mbox_priorbox
I0218 01:14:28.650100 22546 net.cpp:157] Top shape: 1 2 8664 (17328)
I0218 01:14:28.650106 22546 net.cpp:165] Memory required for data: 252721872
I0218 01:14:28.650112 22546 layer_factory.hpp:77] Creating layer conv6_2_mbox_loc
I0218 01:14:28.650133 22546 net.cpp:100] Creating Layer conv6_2_mbox_loc
I0218 01:14:28.650144 22546 net.cpp:434] conv6_2_mbox_loc <- conv6_2_conv6_2_relu_0_split_1
I0218 01:14:28.650159 22546 net.cpp:408] conv6_2_mbox_loc -> conv6_2_mbox_loc
I0218 01:14:28.652758 22546 net.cpp:150] Setting up conv6_2_mbox_loc
I0218 01:14:28.652777 22546 net.cpp:157] Top shape: 1 24 10 10 (2400)
I0218 01:14:28.652786 22546 net.cpp:165] Memory required for data: 252731472
I0218 01:14:28.652797 22546 layer_factory.hpp:77] Creating layer conv6_2_mbox_loc_perm
I0218 01:14:28.652809 22546 net.cpp:100] Creating Layer conv6_2_mbox_loc_perm
I0218 01:14:28.652817 22546 net.cpp:434] conv6_2_mbox_loc_perm <- conv6_2_mbox_loc
I0218 01:14:28.652861 22546 net.cpp:408] conv6_2_mbox_loc_perm -> conv6_2_mbox_loc_perm
I0218 01:14:28.653038 22546 net.cpp:150] Setting up conv6_2_mbox_loc_perm
I0218 01:14:28.653050 22546 net.cpp:157] Top shape: 1 10 10 24 (2400)
I0218 01:14:28.653057 22546 net.cpp:165] Memory required for data: 252741072
I0218 01:14:28.653064 22546 layer_factory.hpp:77] Creating layer conv6_2_mbox_loc_flat
I0218 01:14:28.653076 22546 net.cpp:100] Creating Layer conv6_2_mbox_loc_flat
I0218 01:14:28.653084 22546 net.cpp:434] conv6_2_mbox_loc_flat <- conv6_2_mbox_loc_perm
I0218 01:14:28.653095 22546 net.cpp:408] conv6_2_mbox_loc_flat -> conv6_2_mbox_loc_flat
I0218 01:14:28.653144 22546 net.cpp:150] Setting up conv6_2_mbox_loc_flat
I0218 01:14:28.653156 22546 net.cpp:157] Top shape: 1 2400 (2400)
I0218 01:14:28.653162 22546 net.cpp:165] Memory required for data: 252750672
I0218 01:14:28.653169 22546 layer_factory.hpp:77] Creating layer conv6_2_mbox_conf
I0218 01:14:28.653187 22546 net.cpp:100] Creating Layer conv6_2_mbox_conf
I0218 01:14:28.653198 22546 net.cpp:434] conv6_2_mbox_conf <- conv6_2_conv6_2_relu_0_split_2
I0218 01:14:28.653211 22546 net.cpp:408] conv6_2_mbox_conf -> conv6_2_mbox_conf
I0218 01:14:28.659816 22546 net.cpp:150] Setting up conv6_2_mbox_conf
I0218 01:14:28.659837 22546 net.cpp:157] Top shape: 1 132 10 10 (13200)
I0218 01:14:28.659844 22546 net.cpp:165] Memory required for data: 252803472
I0218 01:14:28.659857 22546 layer_factory.hpp:77] Creating layer conv6_2_mbox_conf_perm
I0218 01:14:28.659869 22546 net.cpp:100] Creating Layer conv6_2_mbox_conf_perm
I0218 01:14:28.659878 22546 net.cpp:434] conv6_2_mbox_conf_perm <- conv6_2_mbox_conf
I0218 01:14:28.659889 22546 net.cpp:408] conv6_2_mbox_conf_perm -> conv6_2_mbox_conf_perm
I0218 01:14:28.660068 22546 net.cpp:150] Setting up conv6_2_mbox_conf_perm
I0218 01:14:28.660081 22546 net.cpp:157] Top shape: 1 10 10 132 (13200)
I0218 01:14:28.660089 22546 net.cpp:165] Memory required for data: 252856272
I0218 01:14:28.660095 22546 layer_factory.hpp:77] Creating layer conv6_2_mbox_conf_flat
I0218 01:14:28.660109 22546 net.cpp:100] Creating Layer conv6_2_mbox_conf_flat
I0218 01:14:28.660116 22546 net.cpp:434] conv6_2_mbox_conf_flat <- conv6_2_mbox_conf_perm
I0218 01:14:28.660126 22546 net.cpp:408] conv6_2_mbox_conf_flat -> conv6_2_mbox_conf_flat
I0218 01:14:28.660177 22546 net.cpp:150] Setting up conv6_2_mbox_conf_flat
I0218 01:14:28.660189 22546 net.cpp:157] Top shape: 1 13200 (13200)
I0218 01:14:28.660197 22546 net.cpp:165] Memory required for data: 252909072
I0218 01:14:28.660202 22546 layer_factory.hpp:77] Creating layer conv6_2_mbox_priorbox
I0218 01:14:28.660214 22546 net.cpp:100] Creating Layer conv6_2_mbox_priorbox
I0218 01:14:28.660223 22546 net.cpp:434] conv6_2_mbox_priorbox <- conv6_2_conv6_2_relu_0_split_3
I0218 01:14:28.660234 22546 net.cpp:434] conv6_2_mbox_priorbox <- data_data_0_split_3
I0218 01:14:28.660246 22546 net.cpp:408] conv6_2_mbox_priorbox -> conv6_2_mbox_priorbox
I0218 01:14:28.660302 22546 net.cpp:150] Setting up conv6_2_mbox_priorbox
I0218 01:14:28.660315 22546 net.cpp:157] Top shape: 1 2 2400 (4800)
I0218 01:14:28.660321 22546 net.cpp:165] Memory required for data: 252928272
I0218 01:14:28.660327 22546 layer_factory.hpp:77] Creating layer conv7_2_mbox_loc
I0218 01:14:28.660346 22546 net.cpp:100] Creating Layer conv7_2_mbox_loc
I0218 01:14:28.660358 22546 net.cpp:434] conv7_2_mbox_loc <- conv7_2_conv7_2_relu_0_split_1
I0218 01:14:28.660380 22546 net.cpp:408] conv7_2_mbox_loc -> conv7_2_mbox_loc
I0218 01:14:28.662267 22546 net.cpp:150] Setting up conv7_2_mbox_loc
I0218 01:14:28.662286 22546 net.cpp:157] Top shape: 1 24 5 5 (600)
I0218 01:14:28.662293 22546 net.cpp:165] Memory required for data: 252930672
I0218 01:14:28.662305 22546 layer_factory.hpp:77] Creating layer conv7_2_mbox_loc_perm
I0218 01:14:28.662317 22546 net.cpp:100] Creating Layer conv7_2_mbox_loc_perm
I0218 01:14:28.662327 22546 net.cpp:434] conv7_2_mbox_loc_perm <- conv7_2_mbox_loc
I0218 01:14:28.662339 22546 net.cpp:408] conv7_2_mbox_loc_perm -> conv7_2_mbox_loc_perm
I0218 01:14:28.662544 22546 net.cpp:150] Setting up conv7_2_mbox_loc_perm
I0218 01:14:28.662559 22546 net.cpp:157] Top shape: 1 5 5 24 (600)
I0218 01:14:28.662565 22546 net.cpp:165] Memory required for data: 252933072
I0218 01:14:28.662572 22546 layer_factory.hpp:77] Creating layer conv7_2_mbox_loc_flat
I0218 01:14:28.662582 22546 net.cpp:100] Creating Layer conv7_2_mbox_loc_flat
I0218 01:14:28.662590 22546 net.cpp:434] conv7_2_mbox_loc_flat <- conv7_2_mbox_loc_perm
I0218 01:14:28.662602 22546 net.cpp:408] conv7_2_mbox_loc_flat -> conv7_2_mbox_loc_flat
I0218 01:14:28.662652 22546 net.cpp:150] Setting up conv7_2_mbox_loc_flat
I0218 01:14:28.662664 22546 net.cpp:157] Top shape: 1 600 (600)
I0218 01:14:28.662670 22546 net.cpp:165] Memory required for data: 252935472
I0218 01:14:28.662678 22546 layer_factory.hpp:77] Creating layer conv7_2_mbox_conf
I0218 01:14:28.662696 22546 net.cpp:100] Creating Layer conv7_2_mbox_conf
I0218 01:14:28.662705 22546 net.cpp:434] conv7_2_mbox_conf <- conv7_2_conv7_2_relu_0_split_2
I0218 01:14:28.662719 22546 net.cpp:408] conv7_2_mbox_conf -> conv7_2_mbox_conf
I0218 01:14:28.666745 22546 net.cpp:150] Setting up conv7_2_mbox_conf
I0218 01:14:28.666764 22546 net.cpp:157] Top shape: 1 132 5 5 (3300)
I0218 01:14:28.666771 22546 net.cpp:165] Memory required for data: 252948672
I0218 01:14:28.666785 22546 layer_factory.hpp:77] Creating layer conv7_2_mbox_conf_perm
I0218 01:14:28.666798 22546 net.cpp:100] Creating Layer conv7_2_mbox_conf_perm
I0218 01:14:28.666806 22546 net.cpp:434] conv7_2_mbox_conf_perm <- conv7_2_mbox_conf
I0218 01:14:28.666818 22546 net.cpp:408] conv7_2_mbox_conf_perm -> conv7_2_mbox_conf_perm
I0218 01:14:28.666996 22546 net.cpp:150] Setting up conv7_2_mbox_conf_perm
I0218 01:14:28.667008 22546 net.cpp:157] Top shape: 1 5 5 132 (3300)
I0218 01:14:28.667016 22546 net.cpp:165] Memory required for data: 252961872
I0218 01:14:28.667022 22546 layer_factory.hpp:77] Creating layer conv7_2_mbox_conf_flat
I0218 01:14:28.667034 22546 net.cpp:100] Creating Layer conv7_2_mbox_conf_flat
I0218 01:14:28.667042 22546 net.cpp:434] conv7_2_mbox_conf_flat <- conv7_2_mbox_conf_perm
I0218 01:14:28.667052 22546 net.cpp:408] conv7_2_mbox_conf_flat -> conv7_2_mbox_conf_flat
I0218 01:14:28.667104 22546 net.cpp:150] Setting up conv7_2_mbox_conf_flat
I0218 01:14:28.667115 22546 net.cpp:157] Top shape: 1 3300 (3300)
I0218 01:14:28.667121 22546 net.cpp:165] Memory required for data: 252975072
I0218 01:14:28.667129 22546 layer_factory.hpp:77] Creating layer conv7_2_mbox_priorbox
I0218 01:14:28.667140 22546 net.cpp:100] Creating Layer conv7_2_mbox_priorbox
I0218 01:14:28.667146 22546 net.cpp:434] conv7_2_mbox_priorbox <- conv7_2_conv7_2_relu_0_split_3
I0218 01:14:28.667163 22546 net.cpp:434] conv7_2_mbox_priorbox <- data_data_0_split_4
I0218 01:14:28.667179 22546 net.cpp:408] conv7_2_mbox_priorbox -> conv7_2_mbox_priorbox
I0218 01:14:28.667237 22546 net.cpp:150] Setting up conv7_2_mbox_priorbox
I0218 01:14:28.667248 22546 net.cpp:157] Top shape: 1 2 600 (1200)
I0218 01:14:28.667254 22546 net.cpp:165] Memory required for data: 252979872
I0218 01:14:28.667261 22546 layer_factory.hpp:77] Creating layer conv8_2_mbox_loc
I0218 01:14:28.667279 22546 net.cpp:100] Creating Layer conv8_2_mbox_loc
I0218 01:14:28.667297 22546 net.cpp:434] conv8_2_mbox_loc <- conv8_2_conv8_2_relu_0_split_1
I0218 01:14:28.667313 22546 net.cpp:408] conv8_2_mbox_loc -> conv8_2_mbox_loc
I0218 01:14:28.668798 22546 net.cpp:150] Setting up conv8_2_mbox_loc
I0218 01:14:28.668815 22546 net.cpp:157] Top shape: 1 16 3 3 (144)
I0218 01:14:28.668823 22546 net.cpp:165] Memory required for data: 252980448
I0218 01:14:28.668853 22546 layer_factory.hpp:77] Creating layer conv8_2_mbox_loc_perm
I0218 01:14:28.668869 22546 net.cpp:100] Creating Layer conv8_2_mbox_loc_perm
I0218 01:14:28.668879 22546 net.cpp:434] conv8_2_mbox_loc_perm <- conv8_2_mbox_loc
I0218 01:14:28.668893 22546 net.cpp:408] conv8_2_mbox_loc_perm -> conv8_2_mbox_loc_perm
I0218 01:14:28.669073 22546 net.cpp:150] Setting up conv8_2_mbox_loc_perm
I0218 01:14:28.669098 22546 net.cpp:157] Top shape: 1 3 3 16 (144)
I0218 01:14:28.669106 22546 net.cpp:165] Memory required for data: 252981024
I0218 01:14:28.669112 22546 layer_factory.hpp:77] Creating layer conv8_2_mbox_loc_flat
I0218 01:14:28.669124 22546 net.cpp:100] Creating Layer conv8_2_mbox_loc_flat
I0218 01:14:28.669132 22546 net.cpp:434] conv8_2_mbox_loc_flat <- conv8_2_mbox_loc_perm
I0218 01:14:28.669142 22546 net.cpp:408] conv8_2_mbox_loc_flat -> conv8_2_mbox_loc_flat
I0218 01:14:28.669196 22546 net.cpp:150] Setting up conv8_2_mbox_loc_flat
I0218 01:14:28.669209 22546 net.cpp:157] Top shape: 1 144 (144)
I0218 01:14:28.669215 22546 net.cpp:165] Memory required for data: 252981600
I0218 01:14:28.669222 22546 layer_factory.hpp:77] Creating layer conv8_2_mbox_conf
I0218 01:14:28.669239 22546 net.cpp:100] Creating Layer conv8_2_mbox_conf
I0218 01:14:28.669250 22546 net.cpp:434] conv8_2_mbox_conf <- conv8_2_conv8_2_relu_0_split_2
I0218 01:14:28.669265 22546 net.cpp:408] conv8_2_mbox_conf -> conv8_2_mbox_conf
I0218 01:14:28.672508 22546 net.cpp:150] Setting up conv8_2_mbox_conf
I0218 01:14:28.672526 22546 net.cpp:157] Top shape: 1 88 3 3 (792)
I0218 01:14:28.672534 22546 net.cpp:165] Memory required for data: 252984768
I0218 01:14:28.672546 22546 layer_factory.hpp:77] Creating layer conv8_2_mbox_conf_perm
I0218 01:14:28.672557 22546 net.cpp:100] Creating Layer conv8_2_mbox_conf_perm
I0218 01:14:28.672565 22546 net.cpp:434] conv8_2_mbox_conf_perm <- conv8_2_mbox_conf
I0218 01:14:28.672580 22546 net.cpp:408] conv8_2_mbox_conf_perm -> conv8_2_mbox_conf_perm
I0218 01:14:28.672758 22546 net.cpp:150] Setting up conv8_2_mbox_conf_perm
I0218 01:14:28.672772 22546 net.cpp:157] Top shape: 1 3 3 88 (792)
I0218 01:14:28.672780 22546 net.cpp:165] Memory required for data: 252987936
I0218 01:14:28.672786 22546 layer_factory.hpp:77] Creating layer conv8_2_mbox_conf_flat
I0218 01:14:28.672796 22546 net.cpp:100] Creating Layer conv8_2_mbox_conf_flat
I0218 01:14:28.672804 22546 net.cpp:434] conv8_2_mbox_conf_flat <- conv8_2_mbox_conf_perm
I0218 01:14:28.672814 22546 net.cpp:408] conv8_2_mbox_conf_flat -> conv8_2_mbox_conf_flat
I0218 01:14:28.672865 22546 net.cpp:150] Setting up conv8_2_mbox_conf_flat
I0218 01:14:28.672878 22546 net.cpp:157] Top shape: 1 792 (792)
I0218 01:14:28.672884 22546 net.cpp:165] Memory required for data: 252991104
I0218 01:14:28.672891 22546 layer_factory.hpp:77] Creating layer conv8_2_mbox_priorbox
I0218 01:14:28.672904 22546 net.cpp:100] Creating Layer conv8_2_mbox_priorbox
I0218 01:14:28.672914 22546 net.cpp:434] conv8_2_mbox_priorbox <- conv8_2_conv8_2_relu_0_split_3
I0218 01:14:28.672924 22546 net.cpp:434] conv8_2_mbox_priorbox <- data_data_0_split_5
I0218 01:14:28.672935 22546 net.cpp:408] conv8_2_mbox_priorbox -> conv8_2_mbox_priorbox
I0218 01:14:28.672988 22546 net.cpp:150] Setting up conv8_2_mbox_priorbox
I0218 01:14:28.673001 22546 net.cpp:157] Top shape: 1 2 144 (288)
I0218 01:14:28.673007 22546 net.cpp:165] Memory required for data: 252992256
I0218 01:14:28.673013 22546 layer_factory.hpp:77] Creating layer conv9_2_mbox_loc
I0218 01:14:28.673030 22546 net.cpp:100] Creating Layer conv9_2_mbox_loc
I0218 01:14:28.673041 22546 net.cpp:434] conv9_2_mbox_loc <- conv9_2_conv9_2_relu_0_split_0
I0218 01:14:28.673056 22546 net.cpp:408] conv9_2_mbox_loc -> conv9_2_mbox_loc
I0218 01:14:28.674685 22546 net.cpp:150] Setting up conv9_2_mbox_loc
I0218 01:14:28.674702 22546 net.cpp:157] Top shape: 1 16 1 1 (16)
I0218 01:14:28.674710 22546 net.cpp:165] Memory required for data: 252992320
I0218 01:14:28.674722 22546 layer_factory.hpp:77] Creating layer conv9_2_mbox_loc_perm
I0218 01:14:28.674733 22546 net.cpp:100] Creating Layer conv9_2_mbox_loc_perm
I0218 01:14:28.674741 22546 net.cpp:434] conv9_2_mbox_loc_perm <- conv9_2_mbox_loc
I0218 01:14:28.674756 22546 net.cpp:408] conv9_2_mbox_loc_perm -> conv9_2_mbox_loc_perm
I0218 01:14:28.674929 22546 net.cpp:150] Setting up conv9_2_mbox_loc_perm
I0218 01:14:28.674942 22546 net.cpp:157] Top shape: 1 1 1 16 (16)
I0218 01:14:28.674949 22546 net.cpp:165] Memory required for data: 252992384
I0218 01:14:28.674971 22546 layer_factory.hpp:77] Creating layer conv9_2_mbox_loc_flat
I0218 01:14:28.674985 22546 net.cpp:100] Creating Layer conv9_2_mbox_loc_flat
I0218 01:14:28.674994 22546 net.cpp:434] conv9_2_mbox_loc_flat <- conv9_2_mbox_loc_perm
I0218 01:14:28.675005 22546 net.cpp:408] conv9_2_mbox_loc_flat -> conv9_2_mbox_loc_flat
I0218 01:14:28.675060 22546 net.cpp:150] Setting up conv9_2_mbox_loc_flat
I0218 01:14:28.675071 22546 net.cpp:157] Top shape: 1 16 (16)
I0218 01:14:28.675078 22546 net.cpp:165] Memory required for data: 252992448
I0218 01:14:28.675084 22546 layer_factory.hpp:77] Creating layer conv9_2_mbox_conf
I0218 01:14:28.675106 22546 net.cpp:100] Creating Layer conv9_2_mbox_conf
I0218 01:14:28.675114 22546 net.cpp:434] conv9_2_mbox_conf <- conv9_2_conv9_2_relu_0_split_1
I0218 01:14:28.675127 22546 net.cpp:408] conv9_2_mbox_conf -> conv9_2_mbox_conf
I0218 01:14:28.678367 22546 net.cpp:150] Setting up conv9_2_mbox_conf
I0218 01:14:28.678385 22546 net.cpp:157] Top shape: 1 88 1 1 (88)
I0218 01:14:28.678393 22546 net.cpp:165] Memory required for data: 252992800
I0218 01:14:28.678405 22546 layer_factory.hpp:77] Creating layer conv9_2_mbox_conf_perm
I0218 01:14:28.678419 22546 net.cpp:100] Creating Layer conv9_2_mbox_conf_perm
I0218 01:14:28.678428 22546 net.cpp:434] conv9_2_mbox_conf_perm <- conv9_2_mbox_conf
I0218 01:14:28.678439 22546 net.cpp:408] conv9_2_mbox_conf_perm -> conv9_2_mbox_conf_perm
I0218 01:14:28.678623 22546 net.cpp:150] Setting up conv9_2_mbox_conf_perm
I0218 01:14:28.678638 22546 net.cpp:157] Top shape: 1 1 1 88 (88)
I0218 01:14:28.678644 22546 net.cpp:165] Memory required for data: 252993152
I0218 01:14:28.678652 22546 layer_factory.hpp:77] Creating layer conv9_2_mbox_conf_flat
I0218 01:14:28.678661 22546 net.cpp:100] Creating Layer conv9_2_mbox_conf_flat
I0218 01:14:28.678668 22546 net.cpp:434] conv9_2_mbox_conf_flat <- conv9_2_mbox_conf_perm
I0218 01:14:28.678681 22546 net.cpp:408] conv9_2_mbox_conf_flat -> conv9_2_mbox_conf_flat
I0218 01:14:28.678731 22546 net.cpp:150] Setting up conv9_2_mbox_conf_flat
I0218 01:14:28.678745 22546 net.cpp:157] Top shape: 1 88 (88)
I0218 01:14:28.678750 22546 net.cpp:165] Memory required for data: 252993504
I0218 01:14:28.678757 22546 layer_factory.hpp:77] Creating layer conv9_2_mbox_priorbox
I0218 01:14:28.678771 22546 net.cpp:100] Creating Layer conv9_2_mbox_priorbox
I0218 01:14:28.678778 22546 net.cpp:434] conv9_2_mbox_priorbox <- conv9_2_conv9_2_relu_0_split_2
I0218 01:14:28.678788 22546 net.cpp:434] conv9_2_mbox_priorbox <- data_data_0_split_6
I0218 01:14:28.678800 22546 net.cpp:408] conv9_2_mbox_priorbox -> conv9_2_mbox_priorbox
I0218 01:14:28.678853 22546 net.cpp:150] Setting up conv9_2_mbox_priorbox
I0218 01:14:28.678865 22546 net.cpp:157] Top shape: 1 2 16 (32)
I0218 01:14:28.678871 22546 net.cpp:165] Memory required for data: 252993632
I0218 01:14:28.678879 22546 layer_factory.hpp:77] Creating layer mbox_loc
I0218 01:14:28.678897 22546 net.cpp:100] Creating Layer mbox_loc
I0218 01:14:28.678908 22546 net.cpp:434] mbox_loc <- conv4_3_norm_mbox_loc_flat
I0218 01:14:28.678918 22546 net.cpp:434] mbox_loc <- fc7_mbox_loc_flat
I0218 01:14:28.678928 22546 net.cpp:434] mbox_loc <- conv6_2_mbox_loc_flat
I0218 01:14:28.678939 22546 net.cpp:434] mbox_loc <- conv7_2_mbox_loc_flat
I0218 01:14:28.678947 22546 net.cpp:434] mbox_loc <- conv8_2_mbox_loc_flat
I0218 01:14:28.678956 22546 net.cpp:434] mbox_loc <- conv9_2_mbox_loc_flat
I0218 01:14:28.678968 22546 net.cpp:408] mbox_loc -> mbox_loc
I0218 01:14:28.679020 22546 net.cpp:150] Setting up mbox_loc
I0218 01:14:28.679033 22546 net.cpp:157] Top shape: 1 34928 (34928)
I0218 01:14:28.679039 22546 net.cpp:165] Memory required for data: 253133344
I0218 01:14:28.679045 22546 layer_factory.hpp:77] Creating layer mbox_conf
I0218 01:14:28.679059 22546 net.cpp:100] Creating Layer mbox_conf
I0218 01:14:28.679067 22546 net.cpp:434] mbox_conf <- conv4_3_norm_mbox_conf_flat
I0218 01:14:28.679076 22546 net.cpp:434] mbox_conf <- fc7_mbox_conf_flat
I0218 01:14:28.679085 22546 net.cpp:434] mbox_conf <- conv6_2_mbox_conf_flat
I0218 01:14:28.679107 22546 net.cpp:434] mbox_conf <- conv7_2_mbox_conf_flat
I0218 01:14:28.679117 22546 net.cpp:434] mbox_conf <- conv8_2_mbox_conf_flat
I0218 01:14:28.679126 22546 net.cpp:434] mbox_conf <- conv9_2_mbox_conf_flat
I0218 01:14:28.679136 22546 net.cpp:408] mbox_conf -> mbox_conf
I0218 01:14:28.679188 22546 net.cpp:150] Setting up mbox_conf
I0218 01:14:28.679199 22546 net.cpp:157] Top shape: 1 192104 (192104)
I0218 01:14:28.679206 22546 net.cpp:165] Memory required for data: 253901760
I0218 01:14:28.679213 22546 layer_factory.hpp:77] Creating layer mbox_priorbox
I0218 01:14:28.679224 22546 net.cpp:100] Creating Layer mbox_priorbox
I0218 01:14:28.679231 22546 net.cpp:434] mbox_priorbox <- conv4_3_norm_mbox_priorbox
I0218 01:14:28.679240 22546 net.cpp:434] mbox_priorbox <- fc7_mbox_priorbox
I0218 01:14:28.679250 22546 net.cpp:434] mbox_priorbox <- conv6_2_mbox_priorbox
I0218 01:14:28.679257 22546 net.cpp:434] mbox_priorbox <- conv7_2_mbox_priorbox
I0218 01:14:28.679265 22546 net.cpp:434] mbox_priorbox <- conv8_2_mbox_priorbox
I0218 01:14:28.679272 22546 net.cpp:434] mbox_priorbox <- conv9_2_mbox_priorbox
I0218 01:14:28.679286 22546 net.cpp:408] mbox_priorbox -> mbox_priorbox
I0218 01:14:28.679333 22546 net.cpp:150] Setting up mbox_priorbox
I0218 01:14:28.679344 22546 net.cpp:157] Top shape: 1 2 34928 (69856)
I0218 01:14:28.679352 22546 net.cpp:165] Memory required for data: 254181184
I0218 01:14:28.679358 22546 layer_factory.hpp:77] Creating layer mbox_conf_reshape
I0218 01:14:28.679370 22546 net.cpp:100] Creating Layer mbox_conf_reshape
I0218 01:14:28.679378 22546 net.cpp:434] mbox_conf_reshape <- mbox_conf
I0218 01:14:28.679388 22546 net.cpp:408] mbox_conf_reshape -> mbox_conf_reshape
I0218 01:14:28.679448 22546 net.cpp:150] Setting up mbox_conf_reshape
I0218 01:14:28.679461 22546 net.cpp:157] Top shape: 1 8732 22 (192104)
I0218 01:14:28.679467 22546 net.cpp:165] Memory required for data: 254949600
I0218 01:14:28.679473 22546 layer_factory.hpp:77] Creating layer mbox_conf_softmax
I0218 01:14:28.679487 22546 net.cpp:100] Creating Layer mbox_conf_softmax
I0218 01:14:28.679494 22546 net.cpp:434] mbox_conf_softmax <- mbox_conf_reshape
I0218 01:14:28.679504 22546 net.cpp:408] mbox_conf_softmax -> mbox_conf_softmax
I0218 01:14:28.679823 22546 net.cpp:150] Setting up mbox_conf_softmax
I0218 01:14:28.679838 22546 net.cpp:157] Top shape: 1 8732 22 (192104)
I0218 01:14:28.679846 22546 net.cpp:165] Memory required for data: 255718016
I0218 01:14:28.679852 22546 layer_factory.hpp:77] Creating layer mbox_conf_flatten
I0218 01:14:28.679867 22546 net.cpp:100] Creating Layer mbox_conf_flatten
I0218 01:14:28.679875 22546 net.cpp:434] mbox_conf_flatten <- mbox_conf_softmax
I0218 01:14:28.679885 22546 net.cpp:408] mbox_conf_flatten -> mbox_conf_flatten
I0218 01:14:28.679937 22546 net.cpp:150] Setting up mbox_conf_flatten
I0218 01:14:28.679949 22546 net.cpp:157] Top shape: 1 192104 (192104)
I0218 01:14:28.679956 22546 net.cpp:165] Memory required for data: 256486432
I0218 01:14:28.679962 22546 layer_factory.hpp:77] Creating layer detection_out
I0218 01:14:28.679991 22546 net.cpp:100] Creating Layer detection_out
I0218 01:14:28.679998 22546 net.cpp:434] detection_out <- mbox_loc
I0218 01:14:28.680007 22546 net.cpp:434] detection_out <- mbox_conf_flatten
I0218 01:14:28.680016 22546 net.cpp:434] detection_out <- mbox_priorbox
I0218 01:14:28.680030 22546 net.cpp:408] detection_out -> detection_out
I0218 01:14:28.681041 22546 net.cpp:150] Setting up detection_out
I0218 01:14:28.681059 22546 net.cpp:157] Top shape: 1 1 1 7 (7)
I0218 01:14:28.681067 22546 net.cpp:165] Memory required for data: 256486460
I0218 01:14:28.681074 22546 layer_factory.hpp:77] Creating layer detection_eval
I0218 01:14:28.681089 22546 net.cpp:100] Creating Layer detection_eval
I0218 01:14:28.681097 22546 net.cpp:434] detection_eval <- detection_out
I0218 01:14:28.681107 22546 net.cpp:434] detection_eval <- label
I0218 01:14:28.681118 22546 net.cpp:408] detection_eval -> detection_eval
I0218 01:14:28.681238 22546 net.cpp:150] Setting up detection_eval
I0218 01:14:28.681262 22546 net.cpp:157] Top shape: 1 1 22 5 (110)
I0218 01:14:28.681269 22546 net.cpp:165] Memory required for data: 256486900
I0218 01:14:28.681277 22546 net.cpp:228] detection_eval does not need backward computation.
I0218 01:14:28.681284 22546 net.cpp:228] detection_out does not need backward computation.
I0218 01:14:28.681291 22546 net.cpp:228] mbox_conf_flatten does not need backward computation.
I0218 01:14:28.681298 22546 net.cpp:228] mbox_conf_softmax does not need backward computation.
…
