…
        min_scale: 0.3
        max_scale: 1
        min_aspect_ratio: 0.5
        max_aspect_ratio: 2
      }
      sample_constraint {
        min_jaccard_overlap: 0.9
      }
      max_sample: 1
      max_trials: 50
    }
    batch_sampler {
      sampler {
        min_scale: 0.3
        max_scale: 1
        min_aspect_ratio: 0.5
        max_aspect_ratio: 2
      }
      sample_constraint {
        max_jaccard_overlap: 1
      }
      max_sample: 1
      max_trials: 50
    }
    label_map_file: "data/dbgr_trees/labelmap_voc.prototxt"
  }
}
layer {
  name: "conv1_1_rgbd"
  type: "Convolution"
  bottom: "data"
  top: "conv1_1_rgbd"
  param {
    lr_mult: 1
    decay_mult: 1
  }
  param {
    lr_mult: 2
    decay_mult: 0
  }
  convolution_param {
    num_output: 64
    pad: 1
    kernel_size: 3
    weight_filler {
      type: "xavier"
    }
    bias_filler {
      type: "constant"
      value: 0
    }
  }
}
layer {
  name: "relu1_1"
  type: "ReLU"
  bottom: "conv1_1_rgbd"
  top: "conv1_1_rgbd"
}
layer {
  name: "conv1_2"
  type: "Convolution"
  bottom: "conv1_1_rgbd"
  top: "conv1_2"
  param {
    lr_mult: 1
    decay_mult: 1
  }
  param {
    lr_mult: 2
    decay_mult: 0
  }
  convolution_param {
    num_output: 64
    pad: 1
    kernel_size: 3
    weight_filler {
      type: "xavier"
    }
    bias_filler {
      type: "constant"
      value: 0
    }
  }
}
layer {
  name: "relu1_2"
  type: "ReLU"
  bottom: "conv1_2"
  top: "conv1_2"
}
layer {
  name: "pool1"
  type: "Pooling"
  bottom: "conv1_2"
  top: "pool1"
  pooling_param {
    pool: MAX
    kernel_size: 2
    stride: 2
  }
}
layer {
  name: "conv2_1"
  type: "Convolution"
  bottom: "pool1"
  top: "conv2_1"
  param {
    lr_mult: 1
    decay_mult: 1
  }
  param {
    lr_mult: 2
    decay_mult: 0
  }
  convolution_param {
    num_output: 128
    pad: 1
    kernel_size: 3
    weight_filler {
      type: "xavier"
    }
    bias_filler {
      type: "constant"
      value: 0
    }
  }
}
layer {
  name: "relu2_1"
  type: "ReLU"
  bottom: "conv2_1"
  top: "conv2_1"
}
layer {
  name: "conv2_2"
  type: "Convolution"
  bottom: "conv2_1"
  top: "conv2_2"
  param {
    lr_mult: 1
    decay_mult: 1
  }
  param {
    lr_mult: 2
    decay_mult: 0
  }
  convolution_param {
    num_output: 128
    pad: 1
    kernel_size: 3
    weight_filler {
      type: "xavier"
    }
    bias_filler {
      type: "constant"
      value: 0
    }
  }
}
layer {
  name: "relu2_2"
  type: "ReLU"
  bottom: "conv2_2"
  top: "conv2_2"
}
layer {
  name: "pool2"
  type: "Pooling"
  bottom: "conv2_2"
  top: "pool2"
  pooling_param {
    pool: MAX
    kernel_size: 2
    stride: 2
  }
}
layer {
  name: "conv3_1"
  type: "Convolution"
  bottom: "pool2"
  top: "conv3_1"
  param {
    lr_mult: 1
    decay_mult: 1
  }
  param {
    lr_mult: 2
    decay_mult: 0
  }
  convolution_param {
    num_output: 256
    pad: 1
    kernel_size: 3
    weight_filler {
      type: "xavier"
    }
    bias_filler {
      type: "constant"
      value: 0
    }
  }
}
layer {
  name: "relu3_1"
  type: "ReLU"
  bottom: "conv3_1"
  top: "conv3_1"
}
layer {
  name: "conv3_2"
  type: "Convolution"
  bottom: "conv3_1"
  top: "conv3_2"
  param {
    lr_mult: 1
    decay_mult: 1
  }
  param {
    lr_mult: 2
    decay_mult: 0
  }
  convolution_param {
    num_output: 256
    pad: 1
    kernel_size: 3
    weight_filler {
      type: "xavier"
    }
    bias_filler {
      type: "constant"
      value: 0
    }
  }
}
layer {
  name: "relu3_2"
  type: "ReLU"
  bottom: "conv3_2"
  top: "conv3_2"
}
layer {
  name: "conv3_3"
  type: "Convolution"
  bottom: "conv3_2"
  top: "conv3_3"
  param {
    lr_mult: 1
    decay_mult: 1
  }
  param {
    lr_mult: 2
    decay_mult: 0
  }
  convolution_param {
    num_output: 256
    pad: 1
    kernel_size: 3
    weight_filler {
      type: "xavier"
    }
    bias_filler {
      type: "constant"
      value: 0
    }
  }
}
layer {
  name: "relu3_3"
  type: "ReLU"
  bottom: "conv3_3"
  top: "conv3_3"
}
layer {
  name: "pool3"
  type: "Pooling"
  bottom: "conv3_3"
  top: "pool3"
  pooling_param {
    pool: MAX
    kernel_size: 2
    stride: 2
  }
}
layer {
  name: "conv4_1"
  type: "Convolution"
  bottom: "pool3"
  top: "conv4_1"
  param {
    lr_mult: 1
    decay_mult: 1
  }
  param {
    lr_mult: 2
    decay_mult: 0
  }
  convolution_param {
    num_output: 512
    pad: 1
    kernel_size: 3
    weight_filler {
      type: "xavier"
    }
    bias_filler {
      type: "constant"
      value: 0
    }
  }
}
layer {
  name: "relu4_1"
  type: "ReLU"
  bottom: "conv4_1"
  top: "conv4_1"
}
layer {
  name: "conv4_2"
  type: "Convolution"
  bottom: "conv4_1"
  top: "conv4_2"
  param {
    lr_mult: 1
    decay_mult: 1
  }
  param {
    lr_mult: 2
    decay_mult: 0
  }
  convolution_param {
    num_output: 512
    pad: 1
    kernel_size: 3
    weight_filler {
      type: "xavier"
    }
    bias_filler {
      type: "constant"
      value: 0
    }
  }
}
layer {
  name: "relu4_2"
  type: "ReLU"
  bottom: "conv4_2"
  top: "conv4_2"
}
layer {
  name: "conv4_3"
  type: "Convolution"
  bottom: "conv4_2"
  top: "conv4_3"
  param {
    lr_mult: 1
    decay_mult: 1
  }
  param {
    lr_mult: 2
    decay_mult: 0
  }
  convolution_param {
    num_output: 512
    pad: 1
    kernel_size: 3
    weight_filler {
      type: "xavier"
    }
    bias_filler {
      type: "constant"
      value: 0
    }
  }
}
layer {
  name: "relu4_3"
  type: "ReLU"
  bottom: "conv4_3"
  top: "conv4_3"
}
layer {
  name: "pool4"
  type: "Pooling"
  bottom: "conv4_3"
  top: "pool4"
  pooling_param {
    pool: MAX
    kernel_size: 2
    stride: 2
  }
}
layer {
  name: "conv5_1"
  type: "Convolution"
  bottom: "pool4"
  top: "conv5_1"
  param {
    lr_mult: 1
    decay_mult: 1
  }
  param {
    lr_mult: 2
    decay_mult: 0
  }
  convolution_param {
    num_output: 512
    pad: 1
    kernel_size: 3
    weight_filler {
      type: "xavier"
    }
    bias_filler {
      type: "constant"
      value: 0
    }
    dilation: 1
  }
}
layer {
  name: "relu5_1"
  type: "ReLU"
  bottom: "conv5_1"
  top: "conv5_1"
}
layer {
  name: "conv5_2"
  type: "Convolution"
  bottom: "conv5_1"
  top: "conv5_2"
  param {
    lr_mult: 1
    decay_mult: 1
  }
  param {
    lr_mult: 2
    decay_mult: 0
  }
  convolution_param {
    num_output: 512
    pad: 1
    kernel_size: 3
    weight_filler {
      type: "xavier"
    }
    bias_filler {
      type: "constant"
      value: 0
    }
    dilation: 1
  }
}
layer {
  name: "relu5_2"
  type: "ReLU"
  bottom: "conv5_2"
  top: "conv5_2"
}
layer {
  name: "conv5_3"
  type: "Convolution"
  bottom: "conv5_2"
  top: "conv5_3"
  param {
    lr_mult: 1
    decay_mult: 1
  }
  param {
    lr_mult: 2
    decay_mult: 0
  }
  convolution_param {
    num_output: 512
    pad: 1
    kernel_size: 3
    weight_filler {
      type: "xavier"
    }
    bias_filler {
      type: "constant"
      value: 0
    }
    dilation: 1
  }
}
layer {
  name: "relu5_3"
  type: "ReLU"
  bottom: "conv5_3"
  top: "conv5_3"
}
layer {
  name: "pool5"
  type: "Pooling"
  bottom: "conv5_3"
  top: "pool5"
  pooling_param {
    pool: MAX
    kernel_size: 3
    stride: 1
    pad: 1
  }
}
layer {
  name: "fc6"
  type: "Convolution"
  bottom: "pool5"
  top: "fc6"
  param {
    lr_mult: 1
    decay_mult: 1
  }
  param {
    lr_mult: 2
    decay_mult: 0
  }
  convolution_param {
    num_output: 1024
    pad: 6
    kernel_size: 3
    weight_filler {
      type: "xavier"
    }
    bias_filler {
      type: "constant"
      value: 0
    }
    dilation: 6
  }
}
layer {
  name: "relu6"
  type: "ReLU"
  bottom: "fc6"
  top: "fc6"
}
layer {
  name: "fc7"
  type: "Convolution"
  bottom: "fc6"
  top: "fc7"
  param {
    lr_mult: 1
    decay_mult: 1
  }
  param {
    lr_mult: 2
    decay_mult: 0
  }
  convolution_param {
    num_output: 1024
    kernel_size: 1
    weight_filler {
      type: "xavier"
    }
    bias_filler {
      type: "constant"
      value: 0
    }
  }
}
layer {
  name: "relu7"
  type: "ReLU"
  bottom: "fc7"
  top: "fc7"
}
layer {
  name: "conv6_1"
  type: "Convolution"
  bottom: "fc7"
  top: "conv6_1"
  param {
    lr_mult: 1
    decay_mult: 1
  }
  param {
    lr_mult: 2
    decay_mult: 0
  }
  convolution_param {
    num_output: 256
    pad: 0
    kernel_size: 1
    stride: 1
    weight_filler {
      type: "xavier"
    }
    bias_filler {
      type: "constant"
      value: 0
    }
  }
}
layer {
  name: "conv6_1_relu"
  type: "ReLU"
  bottom: "conv6_1"
  top: "conv6_1"
}
layer {
  name: "conv6_2"
  type: "Convolution"
  bottom: "conv6_1"
  top: "conv6_2"
  param {
    lr_mult: 1
    decay_mult: 1
  }
  param {
    lr_mult: 2
    decay_mult: 0
  }
  convolution_param {
    num_output: 512
    pad: 1
    kernel_size: 3
    stride: 2
    weight_filler {
      type: "xavier"
    }
    bias_filler {
      type: "constant"
      value: 0
    }
  }
}
layer {
  name: "conv6_2_relu"
  type: "ReLU"
  bottom: "conv6_2"
  top: "conv6_2"
}
layer {
  name: "conv7_1"
  type: "Convolution"
  bottom: "conv6_2"
  top: "conv7_1"
  param {
    lr_mult: 1
    decay_mult: 1
  }
  param {
    lr_mult: 2
    decay_mult: 0
  }
  convolution_param {
    num_output: 128
    pad: 0
    kernel_size: 1
    stride: 1
    weight_filler {
      type: "xavier"
    }
    bias_filler {
      type: "constant"
      value: 0
    }
  }
}
layer {
  name: "conv7_1_relu"
  type: "ReLU"
  bottom: "conv7_1"
  top: "conv7_1"
}
layer {
  name: "conv7_2"
  type: "Convolution"
  bottom: "conv7_1"
  top: "conv7_2"
  param {
    lr_mult: 1
    decay_mult: 1
  }
  param {
    lr_mult: 2
    decay_mult: 0
  }
  convolution_param {
    num_output: 256
    pad: 1
    kernel_size: 3
    stride: 2
    weight_filler {
      type: "xavier"
    }
    bias_filler {
      type: "constant"
      value: 0
    }
  }
}
layer {
  name: "conv7_2_relu"
  type: "ReLU"
  bottom: "conv7_2"
  top: "conv7_2"
}
layer {
  name: "conv8_1"
  type: "Convolution"
  bottom: "conv7_2"
  top: "conv8_1"
  param {
    lr_mult: 1
    decay_mult: 1
  }
  param {
    lr_mult: 2
    decay_mult: 0
  }
  convolution_param {
    num_output: 128
    pad: 0
    kernel_size: 1
    stride: 1
    weight_filler {
      type: "xavier"
    }
    bias_filler {
      type: "constant"
      value: 0
    }
  }
}
layer {
  name: "conv8_1_relu"
  type: "ReLU"
  bottom: "conv8_1"
  top: "conv8_1"
}
layer {
  name: "conv8_2"
  type: "Convolution"
  bottom: "conv8_1"
  top: "conv8_2"
  param {
    lr_mult: 1
    decay_mult: 1
  }
  param {
    lr_mult: 2
    decay_mult: 0
  }
  convolution_param {
    num_output: 256
    pad: 0
    kernel_size: 3
    stride: 1
    weight_filler {
      type: "xavier"
    }
    bias_filler {
      type: "constant"
      value: 0
    }
  }
}
layer {
  name: "conv8_2_relu"
  type: "ReLU"
  bottom: "conv8_2"
  top: "conv8_2"
}
layer {
  name: "conv9_1"
  type: "Convolution"
  bottom: "conv8_2"
  top: "conv9_1"
  param {
    lr_mult: 1
    decay_mult: 1
  }
  param {
    lr_mult: 2
    decay_mult: 0
  }
  convolution_param {
    num_output: 128
    pad: 0
    kernel_size: 1
    stride: 1
    weight_filler {
      type: "xavier"
    }
    bias_filler {
      type: "constant"
      value: 0
    }
  }
}
layer {
  name: "conv9_1_relu"
  type: "ReLU"
  bottom: "conv9_1"
  top: "conv9_1"
}
layer {
  name: "conv9_2"
  type: "Convolution"
  bottom: "conv9_1"
  top: "conv9_2"
  param {
    lr_mult: 1
    decay_mult: 1
  }
  param {
    lr_mult: 2
    decay_mult: 0
  }
  convolution_param {
    num_output: 256
    pad: 0
    kernel_size: 3
    stride: 1
    weight_filler {
      type: "xavier"
    }
    bias_filler {
      type: "constant"
      value: 0
    }
  }
}
layer {
  name: "conv9_2_relu"
  type: "ReLU"
  bottom: "conv9_2"
  top: "conv9_2"
}
layer {
  name: "conv4_3_norm"
  type: "Normalize"
  bottom: "conv4_3"
  top: "conv4_3_norm"
  norm_param {
    across_spatial: false
    scale_filler {
      type: "constant"
      value: 20
    }
    channel_shared: false
  }
}
layer {
  name: "conv4_3_norm_mbox_loc"
  type: "Convolution"
  bottom: "conv4_3_norm"
  top: "conv4_3_norm_mbox_loc"
  param {
    lr_mult: 1
    decay_mult: 1
  }
  param {
    lr_mult: 2
    decay_mult: 0
  }
  convolution_param {
    num_output: 16
    pad: 1
    kernel_size: 3
    stride: 1
    weight_filler {
      type: "xavier"
    }
    bias_filler {
      type: "constant"
      value: 0
    }
  }
}
layer {
  name: "conv4_3_norm_mbox_loc_perm"
  type: "Permute"
  bottom: "conv4_3_norm_mbox_loc"
  top: "conv4_3_norm_mbox_loc_perm"
  permute_param {
    order: 0
    order: 2
    order: 3
    order: 1
  }
}
layer {
  name: "conv4_3_norm_mbox_loc_flat"
  type: "Flatten"
  bottom: "conv4_3_norm_mbox_loc_perm"
  top: "conv4_3_norm_mbox_loc_flat"
  flatten_param {
    axis: 1
  }
}
layer {
  name: "conv4_3_norm_mbox_conf"
  type: "Convolution"
  bottom: "conv4_3_norm"
  top: "conv4_3_norm_mbox_conf"
  param {
    lr_mult: 1
    decay_mult: 1
  }
  param {
    lr_mult: 2
    decay_mult: 0
  }
  convolution_param {
    num_output: 88
    pad: 1
    kernel_size: 3
    stride: 1
    weight_filler {
      type: "xavier"
    }
    bias_filler {
      type: "constant"
      value: 0
    }
  }
}
layer {
  name: "conv4_3_norm_mbox_conf_perm"
  type: "Permute"
  bottom: "conv4_3_norm_mbox_conf"
  top: "conv4_3_norm_mbox_conf_perm"
  permute_param {
    order: 0
    order: 2
    order: 3
    order: 1
  }
}
layer {
  name: "conv4_3_norm_mbox_conf_flat"
  type: "Flatten"
  bottom: "conv4_3_norm_mbox_conf_perm"
  top: "conv4_3_norm_mbox_conf_flat"
  flatten_param {
    axis: 1
  }
}
layer {
  name: "conv4_3_norm_mbox_priorbox"
  type: "PriorBox"
  bottom: "conv4_3_norm"
  bottom: "data"
  top: "conv4_3_norm_mbox_priorbox"
  prior_box_param {
    min_size: 30
    max_size: 60
    aspect_ratio: 2
    flip: true
    clip: false
    variance: 0.1
    variance: 0.1
    variance: 0.2
    variance: 0.2
    step: 8
    offset: 0.5
  }
}
layer {
  name: "fc7_mbox_loc"
  type: "Convolution"
  bottom: "fc7"
  top: "fc7_mbox_loc"
  param {
    lr_mult: 1
    decay_mult: 1
  }
  param {
    lr_mult: 2
    decay_mult: 0
  }
  convolution_param {
    num_output: 24
    pad: 1
    kernel_size: 3
    stride: 1
    weight_filler {
      type: "xavier"
    }
    bias_filler {
      type: "constant"
      value: 0
    }
  }
}
layer {
  name: "fc7_mbox_loc_perm"
  type: "Permute"
  bottom: "fc7_mbox_loc"
  top: "fc7_mbox_loc_perm"
  permute_param {
    order: 0
    order: 2
    order: 3
    order: 1
  }
}
layer {
  name: "fc7_mbox_loc_flat"
  type: "Flatten"
  bottom: "fc7_mbox_loc_perm"
  top: "fc7_mbox_loc_flat"
  flatten_param {
    axis: 1
  }
}
layer {
  name: "fc7_mbox_conf"
  type: "Convolution"
  bottom: "fc7"
  top: "fc7_mbox_conf"
  param {
    lr_mult: 1
    decay_mult: 1
  }
  param {
    lr_mult: 2
    decay_mult: 0
  }
  convolution_param {
    num_output: 132
    pad: 1
    kernel_size: 3
    stride: 1
    weight_filler {
      type: "xavier"
    }
    bias_filler {
      type: "constant"
      value: 0
    }
  }
}
layer {
  name: "fc7_mbox_conf_perm"
  type: "Permute"
  bottom: "fc7_mbox_conf"
  top: "fc7_mbox_conf_perm"
  permute_param {
    order: 0
    order: 2
    order: 3
    order: 1
  }
}
layer {
  name: "fc7_mbox_conf_flat"
  type: "Flatten"
  bottom: "fc7_mbox_conf_perm"
  top: "fc7_mbox_conf_flat"
  flatten_param {
    axis: 1
  }
}
layer {
  name: "fc7_mbox_priorbox"
  type: "PriorBox"
  bottom: "fc7"
  bottom: "data"
  top: "fc7_mbox_priorbox"
  prior_box_param {
    min_size: 60
    max_size: 111
    aspect_ratio: 2
    aspect_ratio: 3
    flip: true
    clip: false
    variance: 0.1
    variance: 0.1
    variance: 0.2
    variance: 0.2
    step: 16
    offset: 0.5
  }
}
layer {
  name: "conv6_2_mbox_loc"
  type: "Convolution"
  bottom: "conv6_2"
  top: "conv6_2_mbox_loc"
  param {
    lr_mult: 1
    decay_mult: 1
  }
  param {
    lr_mult: 2
    decay_mult: 0
  }
  convolution_param {
    num_output: 24
    pad: 1
    kernel_size: 3
    stride: 1
    weight_filler {
      type: "xavier"
    }
    bias_filler {
      type: "constant"
      value: 0
    }
  }
}
layer {
  name: "conv6_2_mbox_loc_perm"
  type: "Permute"
  bottom: "conv6_2_mbox_loc"
  top: "conv6_2_mbox_loc_perm"
  permute_param {
    order: 0
    order: 2
    order: 3
    order: 1
  }
}
layer {
  name: "conv6_2_mbox_loc_flat"
  type: "Flatten"
  bottom: "conv6_2_mbox_loc_perm"
  top: "conv6_2_mbox_loc_flat"
  flatten_param {
    axis: 1
  }
}
layer {
  name: "conv6_2_mbox_conf"
  type: "Convolution"
  bottom: "conv6_2"
  top: "conv6_2_mbox_conf"
  param {
    lr_mult: 1
    decay_mult: 1
  }
  param {
    lr_mult: 2
    decay_mult: 0
  }
  convolution_param {
    num_output: 132
    pad: 1
    kernel_size: 3
    stride: 1
    weight_filler {
      type: "xavier"
    }
    bias_filler {
      type: "constant"
      value: 0
    }
  }
}
layer {
  name: "conv6_2_mbox_conf_perm"
  type: "Permute"
  bottom: "conv6_2_mbox_conf"
  top: "conv6_2_mbox_conf_perm"
  permute_param {
    order: 0
    order: 2
    order: 3
    order: 1
  }
}
layer {
  name: "conv6_2_mbox_conf_flat"
  type: "Flatten"
  bottom: "conv6_2_mbox_conf_perm"
  top: "conv6_2_mbox_conf_flat"
  flatten_param {
    axis: 1
  }
}
layer {
  name: "conv6_2_mbox_priorbox"
  type: "PriorBox"
  bottom: "conv6_2"
  bottom: "data"
  top: "conv6_2_mbox_priorbox"
  prior_box_param {
    min_size: 111
    max_size: 162
    aspect_ratio: 2
    aspect_ratio: 3
    flip: true
    clip: false
    variance: 0.1
    variance: 0.1
    variance: 0.2
    variance: 0.2
    step: 32
    offset: 0.5
  }
}
layer {
  name: "conv7_2_mbox_loc"
  type: "Convolution"
  bottom: "conv7_2"
  top: "conv7_2_mbox_loc"
  param {
    lr_mult: 1
    decay_mult: 1
  }
  param {
    lr_mult: 2
    decay_mult: 0
  }
  convolution_param {
    num_output: 24
    pad: 1
    kernel_size: 3
    stride: 1
    weight_filler {
      type: "xavier"
    }
    bias_filler {
      type: "constant"
      value: 0
    }
  }
}
layer {
  name: "conv7_2_mbox_loc_perm"
  type: "Permute"
  bottom: "conv7_2_mbox_loc"
  top: "conv7_2_mbox_loc_perm"
  permute_param {
    order: 0
    order: 2
    order: 3
    order: 1
  }
}
layer {
  name: "conv7_2_mbox_loc_flat"
  type: "Flatten"
  bottom: "conv7_2_mbox_loc_perm"
  top: "conv7_2_mbox_loc_flat"
  flatten_param {
    axis: 1
  }
}
layer {
  name: "conv7_2_mbox_conf"
  type: "Convolution"
  bottom: "conv7_2"
  top: "conv7_2_mbox_conf"
  param {
    lr_mult: 1
    decay_mult: 1
  }
  param {
    lr_mult: 2
    decay_mult: 0
  }
  convolution_param {
    num_output: 132
    pad: 1
    kernel_size: 3
    stride: 1
    weight_filler {
      type: "xavier"
    }
    bias_filler {
      type: "constant"
      value: 0
    }
  }
}
layer {
  name: "conv7_2_mbox_conf_perm"
  type: "Permute"
  bottom: "conv7_2_mbox_conf"
  top: "conv7_2_mbox_conf_perm"
  permute_param {
    order: 0
    order: 2
    order: 3
    order: 1
  }
}
layer {
  name: "conv7_2_mbox_conf_flat"
  type: "Flatten"
  bottom: "conv7_2_mbox_conf_perm"
  top: "conv7_2_mbox_conf_flat"
  flatten_param {
    axis: 1
  }
}
layer {
  name: "conv7_2_mbox_priorbox"
  type: "PriorBox"
  bottom: "conv7_2"
  bottom: "data"
  top: "conv7_2_mbox_priorbox"
  prior_box_param {
    min_size: 162
    max_size: 213
    aspect_ratio: 2
    aspect_ratio: 3
    flip: true
    clip: false
    variance: 0.1
    variance: 0.1
    variance: 0.2
    variance: 0.2
    step: 64
    offset: 0.5
  }
}
layer {
  name: "conv8_2_mbox_loc"
  type: "Convolution"
  bottom: "conv8_2"
  top: "conv8_2_mbox_loc"
  param {
    lr_mult: 1
    decay_mult: 1
  }
  param {
    lr_mult: 2
    decay_mult: 0
  }
  convolution_param {
    num_output: 16
    pad: 1
    kernel_size: 3
    stride: 1
    weight_filler {
      type: "xavier"
    }
    bias_filler {
      type: "constant"
      value: 0
    }
  }
}
layer {
  name: "conv8_2_mbox_loc_perm"
  type: "Permute"
  bottom: "conv8_2_mbox_loc"
  top: "conv8_2_mbox_loc_perm"
  permute_param {
    order: 0
    order: 2
    order: 3
    order: 1
  }
}
layer {
  name: "conv8_2_mbox_loc_flat"
  type: "Flatten"
  bottom: "conv8_2_mbox_loc_perm"
  top: "conv8_2_mbox_loc_flat"
  flatten_param {
    axis: 1
  }
}
layer {
  name: "conv8_2_mbox_conf"
  type: "Convolution"
  bottom: "conv8_2"
  top: "conv8_2_mbox_conf"
  param {
    lr_mult: 1
    decay_mult: 1
  }
  param {
    lr_mult: 2
    decay_mult: 0
  }
  convolution_param {
    num_output: 88
    pad: 1
    kernel_size: 3
    stride: 1
    weight_filler {
      type: "xavier"
    }
    bias_filler {
      type: "constant"
      value: 0
    }
  }
}
layer {
  name: "conv8_2_mbox_conf_perm"
  type: "Permute"
  bottom: "conv8_2_mbox_conf"
  top: "conv8_2_mbox_conf_perm"
  permute_param {
    order: 0
    order: 2
    order: 3
    order: 1
  }
}
layer {
  name: "conv8_2_mbox_conf_flat"
  type: "Flatten"
  bottom: "conv8_2_mbox_conf_perm"
  top: "conv8_2_mbox_conf_flat"
  flatten_param {
    axis: 1
  }
}
layer {
  name: "conv8_2_mbox_priorbox"
  type: "PriorBox"
  bottom: "conv8_2"
  bottom: "data"
  top: "conv8_2_mbox_priorbox"
  prior_box_param {
    min_size: 213
    max_size: 264
    aspect_ratio: 2
    flip: true
    clip: false
    variance: 0.1
    variance: 0.1
    variance: 0.2
    variance: 0.2
    step: 100
    offset: 0.5
  }
}
layer {
  name: "conv9_2_mbox_loc"
  type: "Convolution"
  bottom: "conv9_2"
  top: "conv9_2_mbox_loc"
  param {
    lr_mult: 1
    decay_mult: 1
  }
  param {
    lr_mult: 2
    decay_mult: 0
  }
  convolution_param {
    num_output: 16
    pad: 1
    kernel_size: 3
    stride: 1
    weight_filler {
      type: "xavier"
    }
    bias_filler {
      type: "constant"
      value: 0
    }
  }
}
layer {
  name: "conv9_2_mbox_loc_perm"
  type: "Permute"
  bottom: "conv9_2_mbox_loc"
  top: "conv9_2_mbox_loc_perm"
  permute_param {
    order: 0
    order: 2
    order: 3
    order: 1
  }
}
layer {
  name: "conv9_2_mbox_loc_flat"
  type: "Flatten"
  bottom: "conv9_2_mbox_loc_perm"
  top: "conv9_2_mbox_loc_flat"
  flatten_param {
    axis: 1
  }
}
layer {
  name: "conv9_2_mbox_conf"
  type: "Convolution"
  bottom: "conv9_2"
  top: "conv9_2_mbox_conf"
  param {
    lr_mult: 1
    decay_mult: 1
  }
  param {
    lr_mult: 2
    decay_mult: 0
  }
  convolution_param {
    num_output: 88
    pad: 1
    kernel_size: 3
    stride: 1
    weight_filler {
      type: "xavier"
    }
    bias_filler {
      type: "constant"
      value: 0
    }
  }
}
layer {
  name: "conv9_2_mbox_conf_perm"
  type: "Permute"
  bottom: "conv9_2_mbox_conf"
  top: "conv9_2_mbox_conf_perm"
  permute_param {
    order: 0
    order: 2
    order: 3
    order: 1
  }
}
layer {
  name: "conv9_2_mbox_conf_flat"
  type: "Flatten"
  bottom: "conv9_2_mbox_conf_perm"
  top: "conv9_2_mbox_conf_flat"
  flatten_param {
    axis: 1
  }
}
layer {
  name: "conv9_2_mbox_priorbox"
  type: "PriorBox"
  bottom: "conv9_2"
  bottom: "data"
  top: "conv9_2_mbox_priorbox"
  prior_box_param {
    min_size: 264
    max_size: 315
    aspect_ratio: 2
    flip: true
    clip: false
    variance: 0.1
    variance: 0.1
    variance: 0.2
    variance: 0.2
    step: 300
    offset: 0.5
  }
}
layer {
  name: "mbox_loc"
  type: "Concat"
  bottom: "conv4_3_norm_mbox_loc_flat"
  bottom: "fc7_mbox_loc_flat"
  bottom: "conv6_2_mbox_loc_flat"
  bottom: "conv7_2_mbox_loc_flat"
  bottom: "conv8_2_mbox_loc_flat"
  bottom: "conv9_2_mbox_loc_flat"
  top: "mbox_loc"
  concat_param {
    axis: 1
  }
}
layer {
  name: "mbox_conf"
  type: "Concat"
  bottom: "conv4_3_norm_mbox_conf_flat"
  bottom: "fc7_mbox_conf_flat"
  bottom: "conv6_2_mbox_conf_flat"
  bottom: "conv7_2_mbox_conf_flat"
  bottom: "conv8_2_mbox_conf_flat"
  bottom: "conv9_2_mbox_conf_flat"
  top: "mbox_conf"
  concat_param {
    axis: 1
  }
}
layer {
  name: "mbox_priorbox"
  type: "Concat"
  bottom: "conv4_3_norm_mbox_priorbox"
  bottom: "fc7_mbox_priorbox"
  bottom: "conv6_2_mbox_priorbox"
  bottom: "conv7_2_mbox_priorbox"
  bottom: "conv8_2_mbox_priorbox"
  bottom: "conv9_2_mbox_priorbox"
  top: "mbox_priorbox"
  concat_param {
    axis: 2
  }
}
layer {
  name: "mbox_loss"
  type: "MultiBoxLoss"
  bottom: "mbox_loc"
  bottom: "mbox_conf"
  bottom: "mbox_priorbox"
  bottom: "label"
  top: "mbox_loss"
  include {
    phase: TRAIN
  }
  propagate_down: true
  propagate_down: true
  propagate_down: false
  propagate_down: false
  loss_param {
    normalization: VALID
  }
  multibox_loss_param {
    loc_loss_type: SMOOTH_L1
    conf_loss_type: SOFTMAX
    loc_weight: 1
    num_classes: 22
    share_location: true
    match_type: PER_PREDICTION
    overlap_threshold: 0.5
    use_prior_for_matching: true
    background_label_id: 0
    use_difficult_gt: true
    neg_pos_ratio: 3
    neg_overlap: 0.5
    code_type: CENTER_SIZE
    ignore_cross_boundary_bbox: false
    mining_type: MAX_NEGATIVE
  }
}
I0217 22:03:56.720999 16234 layer_factory.hpp:77] Creating layer data
I0217 22:03:56.721467 16234 net.cpp:100] Creating Layer data
I0217 22:03:56.721482 16234 net.cpp:408] data -> data
I0217 22:03:56.721521 16234 net.cpp:408] data -> label
I0217 22:03:56.723966 16250 db_lmdb.cpp:35] Opened lmdb examples/dbgr_trees/dbgr_trees_trainval_lmdb
I0217 22:03:56.746064 16234 annotated_data_layer.cpp:62] output data size: 32,4,300,300
I0217 22:03:56.813513 16234 net.cpp:150] Setting up data
I0217 22:03:56.813550 16234 net.cpp:157] Top shape: 32 4 300 300 (11520000)
I0217 22:03:56.813557 16234 net.cpp:157] Top shape: 1 1 3 8 (24)
I0217 22:03:56.813561 16234 net.cpp:165] Memory required for data: 46080096
I0217 22:03:56.813573 16234 layer_factory.hpp:77] Creating layer data_data_0_split
I0217 22:03:56.813596 16234 net.cpp:100] Creating Layer data_data_0_split
I0217 22:03:56.813601 16234 net.cpp:434] data_data_0_split <- data
I0217 22:03:56.813617 16234 net.cpp:408] data_data_0_split -> data_data_0_split_0
I0217 22:03:56.813629 16234 net.cpp:408] data_data_0_split -> data_data_0_split_1
I0217 22:03:56.813637 16234 net.cpp:408] data_data_0_split -> data_data_0_split_2
I0217 22:03:56.813642 16234 net.cpp:408] data_data_0_split -> data_data_0_split_3
I0217 22:03:56.813648 16234 net.cpp:408] data_data_0_split -> data_data_0_split_4
I0217 22:03:56.813654 16234 net.cpp:408] data_data_0_split -> data_data_0_split_5
I0217 22:03:56.813661 16234 net.cpp:408] data_data_0_split -> data_data_0_split_6
I0217 22:03:56.813752 16234 net.cpp:150] Setting up data_data_0_split
I0217 22:03:56.813761 16234 net.cpp:157] Top shape: 32 4 300 300 (11520000)
I0217 22:03:56.813766 16234 net.cpp:157] Top shape: 32 4 300 300 (11520000)
I0217 22:03:56.813771 16234 net.cpp:157] Top shape: 32 4 300 300 (11520000)
I0217 22:03:56.813776 16234 net.cpp:157] Top shape: 32 4 300 300 (11520000)
I0217 22:03:56.813779 16234 net.cpp:157] Top shape: 32 4 300 300 (11520000)
I0217 22:03:56.813783 16234 net.cpp:157] Top shape: 32 4 300 300 (11520000)
I0217 22:03:56.813787 16234 net.cpp:157] Top shape: 32 4 300 300 (11520000)
I0217 22:03:56.813791 16234 net.cpp:165] Memory required for data: 368640096
I0217 22:03:56.813796 16234 layer_factory.hpp:77] Creating layer conv1_1_rgbd
I0217 22:03:56.813813 16234 net.cpp:100] Creating Layer conv1_1_rgbd
I0217 22:03:56.813817 16234 net.cpp:434] conv1_1_rgbd <- data_data_0_split_0
I0217 22:03:56.813824 16234 net.cpp:408] conv1_1_rgbd -> conv1_1_rgbd
I0217 22:03:56.982811 16251 blocking_queue.cpp:50] Waiting for data
I0217 22:03:56.988346 16234 net.cpp:150] Setting up conv1_1_rgbd
I0217 22:03:56.988376 16234 net.cpp:157] Top shape: 32 64 300 300 (184320000)
I0217 22:03:56.988381 16234 net.cpp:165] Memory required for data: 1105920096
I0217 22:03:56.988401 16234 layer_factory.hpp:77] Creating layer relu1_1
I0217 22:03:56.988415 16234 net.cpp:100] Creating Layer relu1_1
I0217 22:03:56.988421 16234 net.cpp:434] relu1_1 <- conv1_1_rgbd
I0217 22:03:56.988428 16234 net.cpp:395] relu1_1 -> conv1_1_rgbd (in-place)
I0217 22:03:56.988744 16234 net.cpp:150] Setting up relu1_1
I0217 22:03:56.988759 16234 net.cpp:157] Top shape: 32 64 300 300 (184320000)
I0217 22:03:56.988764 16234 net.cpp:165] Memory required for data: 1843200096
I0217 22:03:56.988767 16234 layer_factory.hpp:77] Creating layer conv1_2
I0217 22:03:56.988782 16234 net.cpp:100] Creating Layer conv1_2
I0217 22:03:56.988788 16234 net.cpp:434] conv1_2 <- conv1_1_rgbd
I0217 22:03:56.988795 16234 net.cpp:408] conv1_2 -> conv1_2
I0217 22:03:56.990543 16234 net.cpp:150] Setting up conv1_2
I0217 22:03:56.990561 16234 net.cpp:157] Top shape: 32 64 300 300 (184320000)
I0217 22:03:56.990564 16234 net.cpp:165] Memory required for data: 2580480096
I0217 22:03:56.990574 16234 layer_factory.hpp:77] Creating layer relu1_2
I0217 22:03:56.990583 16234 net.cpp:100] Creating Layer relu1_2
I0217 22:03:56.990587 16234 net.cpp:434] relu1_2 <- conv1_2
I0217 22:03:56.990593 16234 net.cpp:395] relu1_2 -> conv1_2 (in-place)
I0217 22:03:56.990878 16234 net.cpp:150] Setting up relu1_2
I0217 22:03:56.990893 16234 net.cpp:157] Top shape: 32 64 300 300 (184320000)
I0217 22:03:56.990897 16234 net.cpp:165] Memory required for data: 3317760096
I0217 22:03:56.990901 16234 layer_factory.hpp:77] Creating layer pool1
I0217 22:03:56.990911 16234 net.cpp:100] Creating Layer pool1
I0217 22:03:56.990914 16234 net.cpp:434] pool1 <- conv1_2
I0217 22:03:56.990921 16234 net.cpp:408] pool1 -> pool1
I0217 22:03:56.990972 16234 net.cpp:150] Setting up pool1
I0217 22:03:56.990981 16234 net.cpp:157] Top shape: 32 64 150 150 (46080000)
I0217 22:03:56.991003 16234 net.cpp:165] Memory required for data: 3502080096
I0217 22:03:56.991008 16234 layer_factory.hpp:77] Creating layer conv2_1
I0217 22:03:56.991016 16234 net.cpp:100] Creating Layer conv2_1
I0217 22:03:56.991022 16234 net.cpp:434] conv2_1 <- pool1
I0217 22:03:56.991029 16234 net.cpp:408] conv2_1 -> conv2_1
I0217 22:03:56.992630 16234 net.cpp:150] Setting up conv2_1
I0217 22:03:56.992646 16234 net.cpp:157] Top shape: 32 128 150 150 (92160000)
I0217 22:03:56.992651 16234 net.cpp:165] Memory required for data: 3870720096
I0217 22:03:56.992661 16234 layer_factory.hpp:77] Creating layer relu2_1
I0217 22:03:56.992671 16234 net.cpp:100] Creating Layer relu2_1
I0217 22:03:56.992676 16234 net.cpp:434] relu2_1 <- conv2_1
I0217 22:03:56.992681 16234 net.cpp:395] relu2_1 -> conv2_1 (in-place)
I0217 22:03:56.992848 16234 net.cpp:150] Setting up relu2_1
I0217 22:03:56.992859 16234 net.cpp:157] Top shape: 32 128 150 150 (92160000)
I0217 22:03:56.992863 16234 net.cpp:165] Memory required for data: 4239360096
I0217 22:03:56.992867 16234 layer_factory.hpp:77] Creating layer conv2_2
I0217 22:03:56.992877 16234 net.cpp:100] Creating Layer conv2_2
I0217 22:03:56.992883 16234 net.cpp:434] conv2_2 <- conv2_1
I0217 22:03:56.992889 16234 net.cpp:408] conv2_2 -> conv2_2
I0217 22:03:56.995493 16234 net.cpp:150] Setting up conv2_2
I0217 22:03:56.995510 16234 net.cpp:157] Top shape: 32 128 150 150 (92160000)
I0217 22:03:56.995515 16234 net.cpp:165] Memory required for data: 4608000096
I0217 22:03:56.995522 16234 layer_factory.hpp:77] Creating layer relu2_2
I0217 22:03:56.995529 16234 net.cpp:100] Creating Layer relu2_2
I0217 22:03:56.995534 16234 net.cpp:434] relu2_2 <- conv2_2
I0217 22:03:56.995539 16234 net.cpp:395] relu2_2 -> conv2_2 (in-place)
I0217 22:03:56.995834 16234 net.cpp:150] Setting up relu2_2
I0217 22:03:56.995848 16234 net.cpp:157] Top shape: 32 128 150 150 (92160000)
I0217 22:03:56.995853 16234 net.cpp:165] Memory required for data: 4976640096
I0217 22:03:56.995857 16234 layer_factory.hpp:77] Creating layer pool2
I0217 22:03:56.995864 16234 net.cpp:100] Creating Layer pool2
I0217 22:03:56.995868 16234 net.cpp:434] pool2 <- conv2_2
I0217 22:03:56.995874 16234 net.cpp:408] pool2 -> pool2
I0217 22:03:56.995916 16234 net.cpp:150] Setting up pool2
I0217 22:03:56.995924 16234 net.cpp:157] Top shape: 32 128 75 75 (23040000)
I0217 22:03:56.995929 16234 net.cpp:165] Memory required for data: 5068800096
I0217 22:03:56.995934 16234 layer_factory.hpp:77] Creating layer conv3_1
I0217 22:03:56.995942 16234 net.cpp:100] Creating Layer conv3_1
I0217 22:03:56.995946 16234 net.cpp:434] conv3_1 <- pool2
I0217 22:03:56.995952 16234 net.cpp:408] conv3_1 -> conv3_1
I0217 22:03:57.000003 16234 net.cpp:150] Setting up conv3_1
I0217 22:03:57.000021 16234 net.cpp:157] Top shape: 32 256 75 75 (46080000)
I0217 22:03:57.000025 16234 net.cpp:165] Memory required for data: 5253120096
I0217 22:03:57.000037 16234 layer_factory.hpp:77] Creating layer relu3_1
I0217 22:03:57.000046 16234 net.cpp:100] Creating Layer relu3_1
I0217 22:03:57.000051 16234 net.cpp:434] relu3_1 <- conv3_1
I0217 22:03:57.000056 16234 net.cpp:395] relu3_1 -> conv3_1 (in-place)
I0217 22:03:57.000344 16234 net.cpp:150] Setting up relu3_1
I0217 22:03:57.000360 16234 net.cpp:157] Top shape: 32 256 75 75 (46080000)
I0217 22:03:57.000363 16234 net.cpp:165] Memory required for data: 5437440096
I0217 22:03:57.000368 16234 layer_factory.hpp:77] Creating layer conv3_2
I0217 22:03:57.000378 16234 net.cpp:100] Creating Layer conv3_2
I0217 22:03:57.000385 16234 net.cpp:434] conv3_2 <- conv3_1
I0217 22:03:57.000391 16234 net.cpp:408] conv3_2 -> conv3_2
I0217 22:03:57.006534 16234 net.cpp:150] Setting up conv3_2
I0217 22:03:57.006552 16234 net.cpp:157] Top shape: 32 256 75 75 (46080000)
I0217 22:03:57.006557 16234 net.cpp:165] Memory required for data: 5621760096
I0217 22:03:57.006564 16234 layer_factory.hpp:77] Creating layer relu3_2
I0217 22:03:57.006572 16234 net.cpp:100] Creating Layer relu3_2
I0217 22:03:57.006577 16234 net.cpp:434] relu3_2 <- conv3_2
I0217 22:03:57.006600 16234 net.cpp:395] relu3_2 -> conv3_2 (in-place)
I0217 22:03:57.006779 16234 net.cpp:150] Setting up relu3_2
I0217 22:03:57.006791 16234 net.cpp:157] Top shape: 32 256 75 75 (46080000)
I0217 22:03:57.006795 16234 net.cpp:165] Memory required for data: 5806080096
I0217 22:03:57.006799 16234 layer_factory.hpp:77] Creating layer conv3_3
I0217 22:03:57.006813 16234 net.cpp:100] Creating Layer conv3_3
I0217 22:03:57.006819 16234 net.cpp:434] conv3_3 <- conv3_2
I0217 22:03:57.006825 16234 net.cpp:408] conv3_3 -> conv3_3
I0217 22:03:57.012971 16234 net.cpp:150] Setting up conv3_3
I0217 22:03:57.012989 16234 net.cpp:157] Top shape: 32 256 75 75 (46080000)
I0217 22:03:57.012994 16234 net.cpp:165] Memory required for data: 5990400096
I0217 22:03:57.013000 16234 layer_factory.hpp:77] Creating layer relu3_3
I0217 22:03:57.013010 16234 net.cpp:100] Creating Layer relu3_3
I0217 22:03:57.013013 16234 net.cpp:434] relu3_3 <- conv3_3
I0217 22:03:57.013020 16234 net.cpp:395] relu3_3 -> conv3_3 (in-place)
I0217 22:03:57.013331 16234 net.cpp:150] Setting up relu3_3
I0217 22:03:57.013345 16234 net.cpp:157] Top shape: 32 256 75 75 (46080000)
I0217 22:03:57.013350 16234 net.cpp:165] Memory required for data: 6174720096
I0217 22:03:57.013355 16234 layer_factory.hpp:77] Creating layer pool3
I0217 22:03:57.013361 16234 net.cpp:100] Creating Layer pool3
I0217 22:03:57.013365 16234 net.cpp:434] pool3 <- conv3_3
I0217 22:03:57.013375 16234 net.cpp:408] pool3 -> pool3
I0217 22:03:57.013420 16234 net.cpp:150] Setting up pool3
I0217 22:03:57.013429 16234 net.cpp:157] Top shape: 32 256 38 38 (11829248)
I0217 22:03:57.013433 16234 net.cpp:165] Memory required for data: 6222037088
I0217 22:03:57.013437 16234 layer_factory.hpp:77] Creating layer conv4_1
I0217 22:03:57.013448 16234 net.cpp:100] Creating Layer conv4_1
I0217 22:03:57.013453 16234 net.cpp:434] conv4_1 <- pool3
I0217 22:03:57.013459 16234 net.cpp:408] conv4_1 -> conv4_1
I0217 22:03:57.024976 16234 net.cpp:150] Setting up conv4_1
I0217 22:03:57.024997 16234 net.cpp:157] Top shape: 32 512 38 38 (23658496)
I0217 22:03:57.025002 16234 net.cpp:165] Memory required for data: 6316671072
I0217 22:03:57.025009 16234 layer_factory.hpp:77] Creating layer relu4_1
I0217 22:03:57.025017 16234 net.cpp:100] Creating Layer relu4_1
I0217 22:03:57.025022 16234 net.cpp:434] relu4_1 <- conv4_1
I0217 22:03:57.025028 16234 net.cpp:395] relu4_1 -> conv4_1 (in-place)
I0217 22:03:57.025341 16234 net.cpp:150] Setting up relu4_1
I0217 22:03:57.025355 16234 net.cpp:157] Top shape: 32 512 38 38 (23658496)
I0217 22:03:57.025359 16234 net.cpp:165] Memory required for data: 6411305056
I0217 22:03:57.025364 16234 layer_factory.hpp:77] Creating layer conv4_2
I0217 22:03:57.025375 16234 net.cpp:100] Creating Layer conv4_2
I0217 22:03:57.025382 16234 net.cpp:434] conv4_2 <- conv4_1
I0217 22:03:57.025389 16234 net.cpp:408] conv4_2 -> conv4_2
I0217 22:03:57.046610 16234 net.cpp:150] Setting up conv4_2
I0217 22:03:57.046643 16234 net.cpp:157] Top shape: 32 512 38 38 (23658496)
I0217 22:03:57.046648 16234 net.cpp:165] Memory required for data: 6505939040
I0217 22:03:57.046663 16234 layer_factory.hpp:77] Creating layer relu4_2
I0217 22:03:57.046679 16234 net.cpp:100] Creating Layer relu4_2
I0217 22:03:57.046685 16234 net.cpp:434] relu4_2 <- conv4_2
I0217 22:03:57.046694 16234 net.cpp:395] relu4_2 -> conv4_2 (in-place)
I0217 22:03:57.046880 16234 net.cpp:150] Setting up relu4_2
I0217 22:03:57.046892 16234 net.cpp:157] Top shape: 32 512 38 38 (23658496)
I0217 22:03:57.046896 16234 net.cpp:165] Memory required for data: 6600573024
I0217 22:03:57.046900 16234 layer_factory.hpp:77] Creating layer conv4_3
I0217 22:03:57.046914 16234 net.cpp:100] Creating Layer conv4_3
I0217 22:03:57.046919 16234 net.cpp:434] conv4_3 <- conv4_2
I0217 22:03:57.046926 16234 net.cpp:408] conv4_3 -> conv4_3
I0217 22:03:57.068233 16234 net.cpp:150] Setting up conv4_3
I0217 22:03:57.068266 16234 net.cpp:157] Top shape: 32 512 38 38 (23658496)
I0217 22:03:57.068270 16234 net.cpp:165] Memory required for data: 6695207008
I0217 22:03:57.068298 16234 layer_factory.hpp:77] Creating layer relu4_3
I0217 22:03:57.068311 16234 net.cpp:100] Creating Layer relu4_3
I0217 22:03:57.068318 16234 net.cpp:434] relu4_3 <- conv4_3
I0217 22:03:57.068326 16234 net.cpp:395] relu4_3 -> conv4_3 (in-place)
I0217 22:03:57.068655 16234 net.cpp:150] Setting up relu4_3
I0217 22:03:57.068670 16234 net.cpp:157] Top shape: 32 512 38 38 (23658496)
I0217 22:03:57.068673 16234 net.cpp:165] Memory required for data: 6789840992
I0217 22:03:57.068678 16234 layer_factory.hpp:77] Creating layer conv4_3_relu4_3_0_split
I0217 22:03:57.068686 16234 net.cpp:100] Creating Layer conv4_3_relu4_3_0_split
I0217 22:03:57.068689 16234 net.cpp:434] conv4_3_relu4_3_0_split <- conv4_3
I0217 22:03:57.068697 16234 net.cpp:408] conv4_3_relu4_3_0_split -> conv4_3_relu4_3_0_split_0
I0217 22:03:57.068706 16234 net.cpp:408] conv4_3_relu4_3_0_split -> conv4_3_relu4_3_0_split_1
I0217 22:03:57.068753 16234 net.cpp:150] Setting up conv4_3_relu4_3_0_split
I0217 22:03:57.068760 16234 net.cpp:157] Top shape: 32 512 38 38 (23658496)
I0217 22:03:57.068765 16234 net.cpp:157] Top shape: 32 512 38 38 (23658496)
I0217 22:03:57.068768 16234 net.cpp:165] Memory required for data: 6979108960
I0217 22:03:57.068773 16234 layer_factory.hpp:77] Creating layer pool4
I0217 22:03:57.068781 16234 net.cpp:100] Creating Layer pool4
I0217 22:03:57.068785 16234 net.cpp:434] pool4 <- conv4_3_relu4_3_0_split_0
I0217 22:03:57.068791 16234 net.cpp:408] pool4 -> pool4
I0217 22:03:57.068831 16234 net.cpp:150] Setting up pool4
I0217 22:03:57.068840 16234 net.cpp:157] Top shape: 32 512 19 19 (5914624)
I0217 22:03:57.068842 16234 net.cpp:165] Memory required for data: 7002767456
I0217 22:03:57.068846 16234 layer_factory.hpp:77] Creating layer conv5_1
I0217 22:03:57.068858 16234 net.cpp:100] Creating Layer conv5_1
I0217 22:03:57.068863 16234 net.cpp:434] conv5_1 <- pool4
I0217 22:03:57.068871 16234 net.cpp:408] conv5_1 -> conv5_1
I0217 22:03:57.090189 16234 net.cpp:150] Setting up conv5_1
I0217 22:03:57.090222 16234 net.cpp:157] Top shape: 32 512 19 19 (5914624)
I0217 22:03:57.090226 16234 net.cpp:165] Memory required for data: 7026425952
I0217 22:03:57.090237 16234 layer_factory.hpp:77] Creating layer relu5_1
I0217 22:03:57.090250 16234 net.cpp:100] Creating Layer relu5_1
I0217 22:03:57.090255 16234 net.cpp:434] relu5_1 <- conv5_1
I0217 22:03:57.090263 16234 net.cpp:395] relu5_1 -> conv5_1 (in-place)
I0217 22:03:57.090581 16234 net.cpp:150] Setting up relu5_1
I0217 22:03:57.090596 16234 net.cpp:157] Top shape: 32 512 19 19 (5914624)
I0217 22:03:57.090600 16234 net.cpp:165] Memory required for data: 7050084448
I0217 22:03:57.090605 16234 layer_factory.hpp:77] Creating layer conv5_2
I0217 22:03:57.090623 16234 net.cpp:100] Creating Layer conv5_2
I0217 22:03:57.090629 16234 net.cpp:434] conv5_2 <- conv5_1
I0217 22:03:57.090636 16234 net.cpp:408] conv5_2 -> conv5_2
I0217 22:03:57.112030 16234 net.cpp:150] Setting up conv5_2
I0217 22:03:57.112059 16234 net.cpp:157] Top shape: 32 512 19 19 (5914624)
I0217 22:03:57.112066 16234 net.cpp:165] Memory required for data: 7073742944
I0217 22:03:57.112074 16234 layer_factory.hpp:77] Creating layer relu5_2
I0217 22:03:57.112085 16234 net.cpp:100] Creating Layer relu5_2
I0217 22:03:57.112092 16234 net.cpp:434] relu5_2 <- conv5_2
I0217 22:03:57.112098 16234 net.cpp:395] relu5_2 -> conv5_2 (in-place)
I0217 22:03:57.112282 16234 net.cpp:150] Setting up relu5_2
I0217 22:03:57.112293 16234 net.cpp:157] Top shape: 32 512 19 19 (5914624)
I0217 22:03:57.112298 16234 net.cpp:165] Memory required for data: 7097401440
I0217 22:03:57.112301 16234 layer_factory.hpp:77] Creating layer conv5_3
I0217 22:03:57.112314 16234 net.cpp:100] Creating Layer conv5_3
I0217 22:03:57.112319 16234 net.cpp:434] conv5_3 <- conv5_2
I0217 22:03:57.112327 16234 net.cpp:408] conv5_3 -> conv5_3
I0217 22:03:57.134202 16234 net.cpp:150] Setting up conv5_3
I0217 22:03:57.134228 16234 net.cpp:157] Top shape: 32 512 19 19 (5914624)
I0217 22:03:57.134233 16234 net.cpp:165] Memory required for data: 7121059936
I0217 22:03:57.134241 16234 layer_factory.hpp:77] Creating layer relu5_3
I0217 22:03:57.134275 16234 net.cpp:100] Creating Layer relu5_3
I0217 22:03:57.134282 16234 net.cpp:434] relu5_3 <- conv5_3
I0217 22:03:57.134290 16234 net.cpp:395] relu5_3 -> conv5_3 (in-place)
I0217 22:03:57.134613 16234 net.cpp:150] Setting up relu5_3
I0217 22:03:57.134629 16234 net.cpp:157] Top shape: 32 512 19 19 (5914624)
I0217 22:03:57.134632 16234 net.cpp:165] Memory required for data: 7144718432
I0217 22:03:57.134636 16234 layer_factory.hpp:77] Creating layer pool5
I0217 22:03:57.134644 16234 net.cpp:100] Creating Layer pool5
I0217 22:03:57.134649 16234 net.cpp:434] pool5 <- conv5_3
I0217 22:03:57.134656 16234 net.cpp:408] pool5 -> pool5
I0217 22:03:57.134706 16234 net.cpp:150] Setting up pool5
I0217 22:03:57.134716 16234 net.cpp:157] Top shape: 32 512 19 19 (5914624)
I0217 22:03:57.134719 16234 net.cpp:165] Memory required for data: 7168376928
I0217 22:03:57.134723 16234 layer_factory.hpp:77] Creating layer fc6
I0217 22:03:57.134737 16234 net.cpp:100] Creating Layer fc6
I0217 22:03:57.134742 16234 net.cpp:434] fc6 <- pool5
I0217 22:03:57.134748 16234 net.cpp:408] fc6 -> fc6
I0217 22:03:57.175952 16234 net.cpp:150] Setting up fc6
I0217 22:03:57.175987 16234 net.cpp:157] Top shape: 32 1024 19 19 (11829248)
I0217 22:03:57.175990 16234 net.cpp:165] Memory required for data: 7215693920
I0217 22:03:57.176000 16234 layer_factory.hpp:77] Creating layer relu6
I0217 22:03:57.176013 16234 net.cpp:100] Creating Layer relu6
I0217 22:03:57.176019 16234 net.cpp:434] relu6 <- fc6
I0217 22:03:57.176028 16234 net.cpp:395] relu6 -> fc6 (in-place)
I0217 22:03:57.176273 16234 net.cpp:150] Setting up relu6
I0217 22:03:57.176285 16234 net.cpp:157] Top shape: 32 1024 19 19 (11829248)
I0217 22:03:57.176290 16234 net.cpp:165] Memory required for data: 7263010912
I0217 22:03:57.176293 16234 layer_factory.hpp:77] Creating layer fc7
I0217 22:03:57.176306 16234 net.cpp:100] Creating Layer fc7
I0217 22:03:57.176311 16234 net.cpp:434] fc7 <- fc6
I0217 22:03:57.176322 16234 net.cpp:408] fc7 -> fc7
I0217 22:03:57.186540 16234 net.cpp:150] Setting up fc7
I0217 22:03:57.186563 16234 net.cpp:157] Top shape: 32 1024 19 19 (11829248)
I0217 22:03:57.186568 16234 net.cpp:165] Memory required for data: 7310327904
I0217 22:03:57.186576 16234 layer_factory.hpp:77] Creating layer relu7
I0217 22:03:57.186584 16234 net.cpp:100] Creating Layer relu7
I0217 22:03:57.186589 16234 net.cpp:434] relu7 <- fc7
I0217 22:03:57.186597 16234 net.cpp:395] relu7 -> fc7 (in-place)
I0217 22:03:57.186909 16234 net.cpp:150] Setting up relu7
I0217 22:03:57.186923 16234 net.cpp:157] Top shape: 32 1024 19 19 (11829248)
I0217 22:03:57.186928 16234 net.cpp:165] Memory required for data: 7357644896
I0217 22:03:57.186933 16234 layer_factory.hpp:77] Creating layer fc7_relu7_0_split
I0217 22:03:57.186939 16234 net.cpp:100] Creating Layer fc7_relu7_0_split
I0217 22:03:57.186944 16234 net.cpp:434] fc7_relu7_0_split <- fc7
I0217 22:03:57.186952 16234 net.cpp:408] fc7_relu7_0_split -> fc7_relu7_0_split_0
I0217 22:03:57.186960 16234 net.cpp:408] fc7_relu7_0_split -> fc7_relu7_0_split_1
I0217 22:03:57.186972 16234 net.cpp:408] fc7_relu7_0_split -> fc7_relu7_0_split_2
I0217 22:03:57.186983 16234 net.cpp:408] fc7_relu7_0_split -> fc7_relu7_0_split_3
I0217 22:03:57.187057 16234 net.cpp:150] Setting up fc7_relu7_0_split
I0217 22:03:57.187065 16234 net.cpp:157] Top shape: 32 1024 19 19 (11829248)
I0217 22:03:57.187070 16234 net.cpp:157] Top shape: 32 1024 19 19 (11829248)
I0217 22:03:57.187074 16234 net.cpp:157] Top shape: 32 1024 19 19 (11829248)
I0217 22:03:57.187079 16234 net.cpp:157] Top shape: 32 1024 19 19 (11829248)
I0217 22:03:57.187083 16234 net.cpp:165] Memory required for data: 7546912864
I0217 22:03:57.187085 16234 layer_factory.hpp:77] Creating layer conv6_1
I0217 22:03:57.187100 16234 net.cpp:100] Creating Layer conv6_1
I0217 22:03:57.187105 16234 net.cpp:434] conv6_1 <- fc7_relu7_0_split_0
I0217 22:03:57.187113 16234 net.cpp:408] conv6_1 -> conv6_1
I0217 22:03:57.190577 16234 net.cpp:150] Setting up conv6_1
I0217 22:03:57.190594 16234 net.cpp:157] Top shape: 32 256 19 19 (2957312)
I0217 22:03:57.190618 16234 net.cpp:165] Memory required for data: 7558742112
I0217 22:03:57.190626 16234 layer_factory.hpp:77] Creating layer conv6_1_relu
I0217 22:03:57.190634 16234 net.cpp:100] Creating Layer conv6_1_relu
I0217 22:03:57.190639 16234 net.cpp:434] conv6_1_relu <- conv6_1
I0217 22:03:57.190644 16234 net.cpp:395] conv6_1_relu -> conv6_1 (in-place)
I0217 22:03:57.190968 16234 net.cpp:150] Setting up conv6_1_relu
I0217 22:03:57.190982 16234 net.cpp:157] Top shape: 32 256 19 19 (2957312)
I0217 22:03:57.190986 16234 net.cpp:165] Memory required for data: 7570571360
I0217 22:03:57.190990 16234 layer_factory.hpp:77] Creating layer conv6_2
I0217 22:03:57.191002 16234 net.cpp:100] Creating Layer conv6_2
I0217 22:03:57.191006 16234 net.cpp:434] conv6_2 <- conv6_1
I0217 22:03:57.191015 16234 net.cpp:408] conv6_2 -> conv6_2
I0217 22:03:57.202112 16234 net.cpp:150] Setting up conv6_2
I0217 22:03:57.202131 16234 net.cpp:157] Top shape: 32 512 10 10 (1638400)
I0217 22:03:57.202134 16234 net.cpp:165] Memory required for data: 7577124960
I0217 22:03:57.202148 16234 layer_factory.hpp:77] Creating layer conv6_2_relu
I0217 22:03:57.202160 16234 net.cpp:100] Creating Layer conv6_2_relu
I0217 22:03:57.202164 16234 net.cpp:434] conv6_2_relu <- conv6_2
I0217 22:03:57.202170 16234 net.cpp:395] conv6_2_relu -> conv6_2 (in-place)
I0217 22:03:57.202356 16234 net.cpp:150] Setting up conv6_2_relu
I0217 22:03:57.202368 16234 net.cpp:157] Top shape: 32 512 10 10 (1638400)
I0217 22:03:57.202371 16234 net.cpp:165] Memory required for data: 7583678560
I0217 22:03:57.202376 16234 layer_factory.hpp:77] Creating layer conv6_2_conv6_2_relu_0_split
I0217 22:03:57.202383 16234 net.cpp:100] Creating Layer conv6_2_conv6_2_relu_0_split
I0217 22:03:57.202388 16234 net.cpp:434] conv6_2_conv6_2_relu_0_split <- conv6_2
I0217 22:03:57.202394 16234 net.cpp:408] conv6_2_conv6_2_relu_0_split -> conv6_2_conv6_2_relu_0_split_0
I0217 22:03:57.202401 16234 net.cpp:408] conv6_2_conv6_2_relu_0_split -> conv6_2_conv6_2_relu_0_split_1
I0217 22:03:57.202409 16234 net.cpp:408] conv6_2_conv6_2_relu_0_split -> conv6_2_conv6_2_relu_0_split_2
I0217 22:03:57.202417 16234 net.cpp:408] conv6_2_conv6_2_relu_0_split -> conv6_2_conv6_2_relu_0_split_3
I0217 22:03:57.202491 16234 net.cpp:150] Setting up conv6_2_conv6_2_relu_0_split
I0217 22:03:57.202500 16234 net.cpp:157] Top shape: 32 512 10 10 (1638400)
I0217 22:03:57.202504 16234 net.cpp:157] Top shape: 32 512 10 10 (1638400)
I0217 22:03:57.202509 16234 net.cpp:157] Top shape: 32 512 10 10 (1638400)
I0217 22:03:57.202513 16234 net.cpp:157] Top shape: 32 512 10 10 (1638400)
I0217 22:03:57.202517 16234 net.cpp:165] Memory required for data: 7609892960
I0217 22:03:57.202525 16234 layer_factory.hpp:77] Creating layer conv7_1
I0217 22:03:57.202538 16234 net.cpp:100] Creating Layer conv7_1
I0217 22:03:57.202543 16234 net.cpp:434] conv7_1 <- conv6_2_conv6_2_relu_0_split_0
I0217 22:03:57.202549 16234 net.cpp:408] conv7_1 -> conv7_1
I0217 22:03:57.204125 16234 net.cpp:150] Setting up conv7_1
I0217 22:03:57.204141 16234 net.cpp:157] Top shape: 32 128 10 10 (409600)
I0217 22:03:57.204145 16234 net.cpp:165] Memory required for data: 7611531360
I0217 22:03:57.204152 16234 layer_factory.hpp:77] Creating layer conv7_1_relu
I0217 22:03:57.204159 16234 net.cpp:100] Creating Layer conv7_1_relu
I0217 22:03:57.204165 16234 net.cpp:434] conv7_1_relu <- conv7_1
I0217 22:03:57.204171 16234 net.cpp:395] conv7_1_relu -> conv7_1 (in-place)
I0217 22:03:57.204484 16234 net.cpp:150] Setting up conv7_1_relu
I0217 22:03:57.204499 16234 net.cpp:157] Top shape: 32 128 10 10 (409600)
I0217 22:03:57.204502 16234 net.cpp:165] Memory required for data: 7613169760
I0217 22:03:57.204506 16234 layer_factory.hpp:77] Creating layer conv7_2
I0217 22:03:57.204519 16234 net.cpp:100] Creating Layer conv7_2
I0217 22:03:57.204522 16234 net.cpp:434] conv7_2 <- conv7_1
I0217 22:03:57.204530 16234 net.cpp:408] conv7_2 -> conv7_2
I0217 22:03:57.208128 16234 net.cpp:150] Setting up conv7_2
I0217 22:03:57.208145 16234 net.cpp:157] Top shape: 32 256 5 5 (204800)
I0217 22:03:57.208163 16234 net.cpp:165] Memory required for data: 7613988960
I0217 22:03:57.208170 16234 layer_factory.hpp:77] Creating layer conv7_2_relu
I0217 22:03:57.208178 16234 net.cpp:100] Creating Layer conv7_2_relu
I0217 22:03:57.208181 16234 net.cpp:434] conv7_2_relu <- conv7_2
I0217 22:03:57.208189 16234 net.cpp:395] conv7_2_relu -> conv7_2 (in-place)
I0217 22:03:57.208513 16234 net.cpp:150] Setting up conv7_2_relu
I0217 22:03:57.208528 16234 net.cpp:157] Top shape: 32 256 5 5 (204800)
I0217 22:03:57.208531 16234 net.cpp:165] Memory required for data: 7614808160
I0217 22:03:57.208535 16234 layer_factory.hpp:77] Creating layer conv7_2_conv7_2_relu_0_split
I0217 22:03:57.208542 16234 net.cpp:100] Creating Layer conv7_2_conv7_2_relu_0_split
I0217 22:03:57.208546 16234 net.cpp:434] conv7_2_conv7_2_relu_0_split <- conv7_2
I0217 22:03:57.208554 16234 net.cpp:408] conv7_2_conv7_2_relu_0_split -> conv7_2_conv7_2_relu_0_split_0
I0217 22:03:57.208562 16234 net.cpp:408] conv7_2_conv7_2_relu_0_split -> conv7_2_conv7_2_relu_0_split_1
I0217 22:03:57.208569 16234 net.cpp:408] conv7_2_conv7_2_relu_0_split -> conv7_2_conv7_2_relu_0_split_2
I0217 22:03:57.208575 16234 net.cpp:408] conv7_2_conv7_2_relu_0_split -> conv7_2_conv7_2_relu_0_split_3
I0217 22:03:57.208657 16234 net.cpp:150] Setting up conv7_2_conv7_2_relu_0_split
I0217 22:03:57.208667 16234 net.cpp:157] Top shape: 32 256 5 5 (204800)
I0217 22:03:57.208672 16234 net.cpp:157] Top shape: 32 256 5 5 (204800)
I0217 22:03:57.208675 16234 net.cpp:157] Top shape: 32 256 5 5 (204800)
I0217 22:03:57.208679 16234 net.cpp:157] Top shape: 32 256 5 5 (204800)
I0217 22:03:57.208683 16234 net.cpp:165] Memory required for data: 7618084960
I0217 22:03:57.208686 16234 layer_factory.hpp:77] Creating layer conv8_1
I0217 22:03:57.208696 16234 net.cpp:100] Creating Layer conv8_1
I0217 22:03:57.208701 16234 net.cpp:434] conv8_1 <- conv7_2_conv7_2_relu_0_split_0
I0217 22:03:57.208709 16234 net.cpp:408] conv8_1 -> conv8_1
I0217 22:03:57.210028 16234 net.cpp:150] Setting up conv8_1
I0217 22:03:57.210045 16234 net.cpp:157] Top shape: 32 128 5 5 (102400)
I0217 22:03:57.210049 16234 net.cpp:165] Memory required for data: 7618494560
I0217 22:03:57.210057 16234 layer_factory.hpp:77] Creating layer conv8_1_relu
I0217 22:03:57.210063 16234 net.cpp:100] Creating Layer conv8_1_relu
I0217 22:03:57.210067 16234 net.cpp:434] conv8_1_relu <- conv8_1
I0217 22:03:57.210073 16234 net.cpp:395] conv8_1_relu -> conv8_1 (in-place)
I0217 22:03:57.210255 16234 net.cpp:150] Setting up conv8_1_relu
I0217 22:03:57.210268 16234 net.cpp:157] Top shape: 32 128 5 5 (102400)
I0217 22:03:57.210270 16234 net.cpp:165] Memory required for data: 7618904160
I0217 22:03:57.210274 16234 layer_factory.hpp:77] Creating layer conv8_2
I0217 22:03:57.210285 16234 net.cpp:100] Creating Layer conv8_2
I0217 22:03:57.210289 16234 net.cpp:434] conv8_2 <- conv8_1
I0217 22:03:57.210297 16234 net.cpp:408] conv8_2 -> conv8_2
I0217 22:03:57.214035 16234 net.cpp:150] Setting up conv8_2
I0217 22:03:57.214052 16234 net.cpp:157] Top shape: 32 256 3 3 (73728)
I0217 22:03:57.214056 16234 net.cpp:165] Memory required for data: 7619199072
I0217 22:03:57.214063 16234 layer_factory.hpp:77] Creating layer conv8_2_relu
I0217 22:03:57.214071 16234 net.cpp:100] Creating Layer conv8_2_relu
I0217 22:03:57.214076 16234 net.cpp:434] conv8_2_relu <- conv8_2
I0217 22:03:57.214082 16234 net.cpp:395] conv8_2_relu -> conv8_2 (in-place)
I0217 22:03:57.214390 16234 net.cpp:150] Setting up conv8_2_relu
I0217 22:03:57.214403 16234 net.cpp:157] Top shape: 32 256 3 3 (73728)
I0217 22:03:57.214407 16234 net.cpp:165] Memory required for data: 7619493984
I0217 22:03:57.214411 16234 layer_factory.hpp:77] Creating layer conv8_2_conv8_2_relu_0_split
I0217 22:03:57.214418 16234 net.cpp:100] Creating Layer conv8_2_conv8_2_relu_0_split
I0217 22:03:57.214423 16234 net.cpp:434] conv8_2_conv8_2_relu_0_split <- conv8_2
I0217 22:03:57.214432 16234 net.cpp:408] conv8_2_conv8_2_relu_0_split -> conv8_2_conv8_2_relu_0_split_0
I0217 22:03:57.214439 16234 net.cpp:408] conv8_2_conv8_2_relu_0_split -> conv8_2_conv8_2_relu_0_split_1
I0217 22:03:57.214457 16234 net.cpp:408] conv8_2_conv8_2_relu_0_split -> conv8_2_conv8_2_relu_0_split_2
I0217 22:03:57.214464 16234 net.cpp:408] conv8_2_conv8_2_relu_0_split -> conv8_2_conv8_2_relu_0_split_3
I0217 22:03:57.214558 16234 net.cpp:150] Setting up conv8_2_conv8_2_relu_0_split
I0217 22:03:57.214576 16234 net.cpp:157] Top shape: 32 256 3 3 (73728)
I0217 22:03:57.214581 16234 net.cpp:157] Top shape: 32 256 3 3 (73728)
I0217 22:03:57.214586 16234 net.cpp:157] Top shape: 32 256 3 3 (73728)
I0217 22:03:57.214589 16234 net.cpp:157] Top shape: 32 256 3 3 (73728)
I0217 22:03:57.214592 16234 net.cpp:165] Memory required for data: 7620673632
I0217 22:03:57.214596 16234 layer_factory.hpp:77] Creating layer conv9_1
I0217 22:03:57.214607 16234 net.cpp:100] Creating Layer conv9_1
I0217 22:03:57.214612 16234 net.cpp:434] conv9_1 <- conv8_2_conv8_2_relu_0_split_0
I0217 22:03:57.214620 16234 net.cpp:408] conv9_1 -> conv9_1
I0217 22:03:57.215814 16234 net.cpp:150] Setting up conv9_1
I0217 22:03:57.215829 16234 net.cpp:157] Top shape: 32 128 3 3 (36864)
I0217 22:03:57.215834 16234 net.cpp:165] Memory required for data: 7620821088
I0217 22:03:57.215842 16234 layer_factory.hpp:77] Creating layer conv9_1_relu
I0217 22:03:57.215847 16234 net.cpp:100] Creating Layer conv9_1_relu
I0217 22:03:57.215852 16234 net.cpp:434] conv9_1_relu <- conv9_1
I0217 22:03:57.215859 16234 net.cpp:395] conv9_1_relu -> conv9_1 (in-place)
I0217 22:03:57.216173 16234 net.cpp:150] Setting up conv9_1_relu
I0217 22:03:57.216187 16234 net.cpp:157] Top shape: 32 128 3 3 (36864)
I0217 22:03:57.216190 16234 net.cpp:165] Memory required for data: 7620968544
I0217 22:03:57.216194 16234 layer_factory.hpp:77] Creating layer conv9_2
I0217 22:03:57.216205 16234 net.cpp:100] Creating Layer conv9_2
I0217 22:03:57.216210 16234 net.cpp:434] conv9_2 <- conv9_1
I0217 22:03:57.216220 16234 net.cpp:408] conv9_2 -> conv9_2
I0217 22:03:57.219959 16234 net.cpp:150] Setting up conv9_2
I0217 22:03:57.219975 16234 net.cpp:157] Top shape: 32 256 1 1 (8192)
I0217 22:03:57.219980 16234 net.cpp:165] Memory required for data: 7621001312
I0217 22:03:57.219986 16234 layer_factory.hpp:77] Creating layer conv9_2_relu
I0217 22:03:57.219993 16234 net.cpp:100] Creating Layer conv9_2_relu
I0217 22:03:57.219998 16234 net.cpp:434] conv9_2_relu <- conv9_2
I0217 22:03:57.220005 16234 net.cpp:395] conv9_2_relu -> conv9_2 (in-place)
I0217 22:03:57.220198 16234 net.cpp:150] Setting up conv9_2_relu
I0217 22:03:57.220211 16234 net.cpp:157] Top shape: 32 256 1 1 (8192)
I0217 22:03:57.220216 16234 net.cpp:165] Memory required for data: 7621034080
I0217 22:03:57.220219 16234 layer_factory.hpp:77] Creating layer conv9_2_conv9_2_relu_0_split
I0217 22:03:57.220227 16234 net.cpp:100] Creating Layer conv9_2_conv9_2_relu_0_split
I0217 22:03:57.220230 16234 net.cpp:434] conv9_2_conv9_2_relu_0_split <- conv9_2
I0217 22:03:57.220237 16234 net.cpp:408] conv9_2_conv9_2_relu_0_split -> conv9_2_conv9_2_relu_0_split_0
I0217 22:03:57.220243 16234 net.cpp:408] conv9_2_conv9_2_relu_0_split -> conv9_2_conv9_2_relu_0_split_1
I0217 22:03:57.220252 16234 net.cpp:408] conv9_2_conv9_2_relu_0_split -> conv9_2_conv9_2_relu_0_split_2
I0217 22:03:57.220312 16234 net.cpp:150] Setting up conv9_2_conv9_2_relu_0_split
I0217 22:03:57.220321 16234 net.cpp:157] Top shape: 32 256 1 1 (8192)
I0217 22:03:57.220325 16234 net.cpp:157] Top shape: 32 256 1 1 (8192)
I0217 22:03:57.220329 16234 net.cpp:157] Top shape: 32 256 1 1 (8192)
I0217 22:03:57.220333 16234 net.cpp:165] Memory required for data: 7621132384
I0217 22:03:57.220336 16234 layer_factory.hpp:77] Creating layer conv4_3_norm
I0217 22:03:57.220345 16234 net.cpp:100] Creating Layer conv4_3_norm
I0217 22:03:57.220350 16234 net.cpp:434] conv4_3_norm <- conv4_3_relu4_3_0_split_1
I0217 22:03:57.220355 16234 net.cpp:408] conv4_3_norm -> conv4_3_norm
I0217 22:03:57.220525 16234 net.cpp:150] Setting up conv4_3_norm
I0217 22:03:57.220535 16234 net.cpp:157] Top shape: 32 512 38 38 (23658496)
I0217 22:03:57.220538 16234 net.cpp:165] Memory required for data: 7715766368
I0217 22:03:57.220556 16234 layer_factory.hpp:77] Creating layer conv4_3_norm_conv4_3_norm_0_split
I0217 22:03:57.220562 16234 net.cpp:100] Creating Layer conv4_3_norm_conv4_3_norm_0_split
I0217 22:03:57.220566 16234 net.cpp:434] conv4_3_norm_conv4_3_norm_0_split <- conv4_3_norm
I0217 22:03:57.220571 16234 net.cpp:408] conv4_3_norm_conv4_3_norm_0_split -> conv4_3_norm_conv4_3_norm_0_split_0
I0217 22:03:57.220578 16234 net.cpp:408] conv4_3_norm_conv4_3_norm_0_split -> conv4_3_norm_conv4_3_norm_0_split_1
I0217 22:03:57.220584 16234 net.cpp:408] conv4_3_norm_conv4_3_norm_0_split -> conv4_3_norm_conv4_3_norm_0_split_2
I0217 22:03:57.220638 16234 net.cpp:150] Setting up conv4_3_norm_conv4_3_norm_0_split
I0217 22:03:57.220645 16234 net.cpp:157] Top shape: 32 512 38 38 (23658496)
I0217 22:03:57.220649 16234 net.cpp:157] Top shape: 32 512 38 38 (23658496)
I0217 22:03:57.220654 16234 net.cpp:157] Top shape: 32 512 38 38 (23658496)
I0217 22:03:57.220657 16234 net.cpp:165] Memory required for data: 7999668320
I0217 22:03:57.220660 16234 layer_factory.hpp:77] Creating layer conv4_3_norm_mbox_loc
I0217 22:03:57.220669 16234 net.cpp:100] Creating Layer conv4_3_norm_mbox_loc
I0217 22:03:57.220674 16234 net.cpp:434] conv4_3_norm_mbox_loc <- conv4_3_norm_conv4_3_norm_0_split_0
I0217 22:03:57.220681 16234 net.cpp:408] conv4_3_norm_mbox_loc -> conv4_3_norm_mbox_loc
I0217 22:03:57.222452 16234 net.cpp:150] Setting up conv4_3_norm_mbox_loc
I0217 22:03:57.222468 16234 net.cpp:157] Top shape: 32 16 38 38 (739328)
I0217 22:03:57.222472 16234 net.cpp:165] Memory required for data: 8002625632
I0217 22:03:57.222479 16234 layer_factory.hpp:77] Creating layer conv4_3_norm_mbox_loc_perm
I0217 22:03:57.222497 16234 net.cpp:100] Creating Layer conv4_3_norm_mbox_loc_perm
I0217 22:03:57.222502 16234 net.cpp:434] conv4_3_norm_mbox_loc_perm <- conv4_3_norm_mbox_loc
I0217 22:03:57.222510 16234 net.cpp:408] conv4_3_norm_mbox_loc_perm -> conv4_3_norm_mbox_loc_perm
I0217 22:03:57.222637 16234 net.cpp:150] Setting up conv4_3_norm_mbox_loc_perm
I0217 22:03:57.222648 16234 net.cpp:157] Top shape: 32 38 38 16 (739328)
I0217 22:03:57.222651 16234 net.cpp:165] Memory required for data: 8005582944
I0217 22:03:57.222656 16234 layer_factory.hpp:77] Creating layer conv4_3_norm_mbox_loc_flat
I0217 22:03:57.222664 16234 net.cpp:100] Creating Layer conv4_3_norm_mbox_loc_flat
I0217 22:03:57.222668 16234 net.cpp:434] conv4_3_norm_mbox_loc_flat <- conv4_3_norm_mbox_loc_perm
I0217 22:03:57.222673 16234 net.cpp:408] conv4_3_norm_mbox_loc_flat -> conv4_3_norm_mbox_loc_flat
I0217 22:03:57.222712 16234 net.cpp:150] Setting up conv4_3_norm_mbox_loc_flat
I0217 22:03:57.222720 16234 net.cpp:157] Top shape: 32 23104 (739328)
I0217 22:03:57.222724 16234 net.cpp:165] Memory required for data: 8008540256
I0217 22:03:57.222728 16234 layer_factory.hpp:77] Creating layer conv4_3_norm_mbox_conf
I0217 22:03:57.222744 16234 net.cpp:100] Creating Layer conv4_3_norm_mbox_conf
I0217 22:03:57.222750 16234 net.cpp:434] conv4_3_norm_mbox_conf <- conv4_3_norm_conv4_3_norm_0_split_1
I0217 22:03:57.222757 16234 net.cpp:408] conv4_3_norm_mbox_conf -> conv4_3_norm_mbox_conf
I0217 22:03:57.227823 16234 net.cpp:150] Setting up conv4_3_norm_mbox_conf
I0217 22:03:57.227839 16234 net.cpp:157] Top shape: 32 88 38 38 (4066304)
I0217 22:03:57.227843 16234 net.cpp:165] Memory required for data: 8024805472
I0217 22:03:57.227851 16234 layer_factory.hpp:77] Creating layer conv4_3_norm_mbox_conf_perm
I0217 22:03:57.227860 16234 net.cpp:100] Creating Layer conv4_3_norm_mbox_conf_perm
I0217 22:03:57.227864 16234 net.cpp:434] conv4_3_norm_mbox_conf_perm <- conv4_3_norm_mbox_conf
I0217 22:03:57.227871 16234 net.cpp:408] conv4_3_norm_mbox_conf_perm -> conv4_3_norm_mbox_conf_perm
I0217 22:03:57.227990 16234 net.cpp:150] Setting up conv4_3_norm_mbox_conf_perm
I0217 22:03:57.228000 16234 net.cpp:157] Top shape: 32 38 38 88 (4066304)
I0217 22:03:57.228004 16234 net.cpp:165] Memory required for data: 8041070688
I0217 22:03:57.228008 16234 layer_factory.hpp:77] Creating layer conv4_3_norm_mbox_conf_flat
I0217 22:03:57.228027 16234 net.cpp:100] Creating Layer conv4_3_norm_mbox_conf_flat
I0217 22:03:57.228032 16234 net.cpp:434] conv4_3_norm_mbox_conf_flat <- conv4_3_norm_mbox_conf_perm
I0217 22:03:57.228044 16234 net.cpp:408] conv4_3_norm_mbox_conf_flat -> conv4_3_norm_mbox_conf_flat
I0217 22:03:57.228075 16234 net.cpp:150] Setting up conv4_3_norm_mbox_conf_flat
I0217 22:03:57.228081 16234 net.cpp:157] Top shape: 32 127072 (4066304)
I0217 22:03:57.228085 16234 net.cpp:165] Memory required for data: 8057335904
I0217 22:03:57.228090 16234 layer_factory.hpp:77] Creating layer conv4_3_norm_mbox_priorbox
I0217 22:03:57.228102 16234 net.cpp:100] Creating Layer conv4_3_norm_mbox_priorbox
I0217 22:03:57.228108 16234 net.cpp:434] conv4_3_norm_mbox_priorbox <- conv4_3_norm_conv4_3_norm_0_split_2
I0217 22:03:57.228113 16234 net.cpp:434] conv4_3_norm_mbox_priorbox <- data_data_0_split_1
I0217 22:03:57.228122 16234 net.cpp:408] conv4_3_norm_mbox_priorbox -> conv4_3_norm_mbox_priorbox
I0217 22:03:57.228154 16234 net.cpp:150] Setting up conv4_3_norm_mbox_priorbox
I0217 22:03:57.228163 16234 net.cpp:157] Top shape: 1 2 23104 (46208)
I0217 22:03:57.228166 16234 net.cpp:165] Memory required for data: 8057520736
I0217 22:03:57.228169 16234 layer_factory.hpp:77] Creating layer fc7_mbox_loc
I0217 22:03:57.228181 16234 net.cpp:100] Creating Layer fc7_mbox_loc
I0217 22:03:57.228188 16234 net.cpp:434] fc7_mbox_loc <- fc7_relu7_0_split_1
I0217 22:03:57.228193 16234 net.cpp:408] fc7_mbox_loc -> fc7_mbox_loc
I0217 22:03:57.231377 16234 net.cpp:150] Setting up fc7_mbox_loc
I0217 22:03:57.231395 16234 net.cpp:157] Top shape: 32 24 19 19 (277248)
I0217 22:03:57.231400 16234 net.cpp:165] Memory required for data: 8058629728
I0217 22:03:57.231406 16234 layer_factory.hpp:77] Creating layer fc7_mbox_loc_perm
I0217 22:03:57.231413 16234 net.cpp:100] Creating Layer fc7_mbox_loc_perm
I0217 22:03:57.231418 16234 net.cpp:434] fc7_mbox_loc_perm <- fc7_mbox_loc
I0217 22:03:57.231426 16234 net.cpp:408] fc7_mbox_loc_perm -> fc7_mbox_loc_perm
I0217 22:03:57.231544 16234 net.cpp:150] Setting up fc7_mbox_loc_perm
I0217 22:03:57.231554 16234 net.cpp:157] Top shape: 32 19 19 24 (277248)
I0217 22:03:57.231564 16234 net.cpp:165] Memory required for data: 8059738720
I0217 22:03:57.231569 16234 layer_factory.hpp:77] Creating layer fc7_mbox_loc_flat
I0217 22:03:57.231575 16234 net.cpp:100] Creating Layer fc7_mbox_loc_flat
I0217 22:03:57.231578 16234 net.cpp:434] fc7_mbox_loc_flat <- fc7_mbox_loc_perm
I0217 22:03:57.231585 16234 net.cpp:408] fc7_mbox_loc_flat -> fc7_mbox_loc_flat
I0217 22:03:57.231611 16234 net.cpp:150] Setting up fc7_mbox_loc_flat
I0217 22:03:57.231619 16234 net.cpp:157] Top shape: 32 8664 (277248)
I0217 22:03:57.231622 16234 net.cpp:165] Memory required for data: 8060847712
I0217 22:03:57.231626 16234 layer_factory.hpp:77] Creating layer fc7_mbox_conf
I0217 22:03:57.231639 16234 net.cpp:100] Creating Layer fc7_mbox_conf
I0217 22:03:57.231647 16234 net.cpp:434] fc7_mbox_conf <- fc7_relu7_0_split_2
I0217 22:03:57.231653 16234 net.cpp:408] fc7_mbox_conf -> fc7_mbox_conf
I0217 22:03:57.242982 16234 net.cpp:150] Setting up fc7_mbox_conf
I0217 22:03:57.243005 16234 net.cpp:157] Top shape: 32 132 19 19 (1524864)
I0217 22:03:57.243008 16234 net.cpp:165] Memory required for data: 8066947168
I0217 22:03:57.243016 16234 layer_factory.hpp:77] Creating layer fc7_mbox_conf_perm
I0217 22:03:57.243024 16234 net.cpp:100] Creating Layer fc7_mbox_conf_perm
I0217 22:03:57.243029 16234 net.cpp:434] fc7_mbox_conf_perm <- fc7_mbox_conf
I0217 22:03:57.243039 16234 net.cpp:408] fc7_mbox_conf_perm -> fc7_mbox_conf_perm
I0217 22:03:57.243160 16234 net.cpp:150] Setting up fc7_mbox_conf_perm
I0217 22:03:57.243170 16234 net.cpp:157] Top shape: 32 19 19 132 (1524864)
I0217 22:03:57.243173 16234 net.cpp:165] Memory required for data: 8073046624
I0217 22:03:57.243177 16234 layer_factory.hpp:77] Creating layer fc7_mbox_conf_flat
I0217 22:03:57.243185 16234 net.cpp:100] Creating Layer fc7_mbox_conf_flat
I0217 22:03:57.243188 16234 net.cpp:434] fc7_mbox_conf_flat <- fc7_mbox_conf_perm
I0217 22:03:57.243208 16234 net.cpp:408] fc7_mbox_conf_flat -> fc7_mbox_conf_flat
I0217 22:03:57.243240 16234 net.cpp:150] Setting up fc7_mbox_conf_flat
I0217 22:03:57.243248 16234 net.cpp:157] Top shape: 32 47652 (1524864)
I0217 22:03:57.243252 16234 net.cpp:165] Memory required for data: 8079146080
I0217 22:03:57.243255 16234 layer_factory.hpp:77] Creating layer fc7_mbox_priorbox
I0217 22:03:57.243264 16234 net.cpp:100] Creating Layer fc7_mbox_priorbox
I0217 22:03:57.243271 16234 net.cpp:434] fc7_mbox_priorbox <- fc7_relu7_0_split_3
I0217 22:03:57.243278 16234 net.cpp:434] fc7_mbox_priorbox <- data_data_0_split_2
I0217 22:03:57.243283 16234 net.cpp:408] fc7_mbox_priorbox -> fc7_mbox_priorbox
I0217 22:03:57.243315 16234 net.cpp:150] Setting up fc7_mbox_priorbox
I0217 22:03:57.243324 16234 net.cpp:157] Top shape: 1 2 8664 (17328)
I0217 22:03:57.243326 16234 net.cpp:165] Memory required for data: 8079215392
I0217 22:03:57.243330 16234 layer_factory.hpp:77] Creating layer conv6_2_mbox_loc
I0217 22:03:57.243340 16234 net.cpp:100] Creating Layer conv6_2_mbox_loc
I0217 22:03:57.243346 16234 net.cpp:434] conv6_2_mbox_loc <- conv6_2_conv6_2_relu_0_split_1
I0217 22:03:57.243355 16234 net.cpp:408] conv6_2_mbox_loc -> conv6_2_mbox_loc
I0217 22:03:57.245743 16234 net.cpp:150] Setting up conv6_2_mbox_loc
I0217 22:03:57.245760 16234 net.cpp:157] Top shape: 32 24 10 10 (76800)
I0217 22:03:57.245764 16234 net.cpp:165] Memory required for data: 8079522592
I0217 22:03:57.245771 16234 layer_factory.hpp:77] Creating layer conv6_2_mbox_loc_perm
I0217 22:03:57.245779 16234 net.cpp:100] Creating Layer conv6_2_mbox_loc_perm
I0217 22:03:57.245784 16234 net.cpp:434] conv6_2_mbox_loc_perm <- conv6_2_mbox_loc
I0217 22:03:57.245791 16234 net.cpp:408] conv6_2_mbox_loc_perm -> conv6_2_mbox_loc_perm
I0217 22:03:57.245914 16234 net.cpp:150] Setting up conv6_2_mbox_loc_perm
I0217 22:03:57.245923 16234 net.cpp:157] Top shape: 32 10 10 24 (76800)
I0217 22:03:57.245926 16234 net.cpp:165] Memory required for data: 8079829792
I0217 22:03:57.245930 16234 layer_factory.hpp:77] Creating layer conv6_2_mbox_loc_flat
I0217 22:03:57.245936 16234 net.cpp:100] Creating Layer conv6_2_mbox_loc_flat
I0217 22:03:57.245941 16234 net.cpp:434] conv6_2_mbox_loc_flat <- conv6_2_mbox_loc_perm
I0217 22:03:57.245947 16234 net.cpp:408] conv6_2_mbox_loc_flat -> conv6_2_mbox_loc_flat
I0217 22:03:57.245975 16234 net.cpp:150] Setting up conv6_2_mbox_loc_flat
I0217 22:03:57.245982 16234 net.cpp:157] Top shape: 32 2400 (76800)
I0217 22:03:57.245986 16234 net.cpp:165] Memory required for data: 8080136992
I0217 22:03:57.245990 16234 layer_factory.hpp:77] Creating layer conv6_2_mbox_conf
I0217 22:03:57.246002 16234 net.cpp:100] Creating Layer conv6_2_mbox_conf
I0217 22:03:57.246008 16234 net.cpp:434] conv6_2_mbox_conf <- conv6_2_conv6_2_relu_0_split_2
I0217 22:03:57.246014 16234 net.cpp:408] conv6_2_mbox_conf -> conv6_2_mbox_conf
I0217 22:03:57.252398 16234 net.cpp:150] Setting up conv6_2_mbox_conf
I0217 22:03:57.252416 16234 net.cpp:157] Top shape: 32 132 10 10 (422400)
I0217 22:03:57.252420 16234 net.cpp:165] Memory required for data: 8081826592
I0217 22:03:57.252427 16234 layer_factory.hpp:77] Creating layer conv6_2_mbox_conf_perm
I0217 22:03:57.252435 16234 net.cpp:100] Creating Layer conv6_2_mbox_conf_perm
I0217 22:03:57.252440 16234 net.cpp:434] conv6_2_mbox_conf_perm <- conv6_2_mbox_conf
I0217 22:03:57.252449 16234 net.cpp:408] conv6_2_mbox_conf_perm -> conv6_2_mbox_conf_perm
I0217 22:03:57.252569 16234 net.cpp:150] Setting up conv6_2_mbox_conf_perm
I0217 22:03:57.252581 16234 net.cpp:157] Top shape: 32 10 10 132 (422400)
I0217 22:03:57.252584 16234 net.cpp:165] Memory required for data: 8083516192
I0217 22:03:57.252588 16234 layer_factory.hpp:77] Creating layer conv6_2_mbox_conf_flat
I0217 22:03:57.252594 16234 net.cpp:100] Creating Layer conv6_2_mbox_conf_flat
I0217 22:03:57.252599 16234 net.cpp:434] conv6_2_mbox_conf_flat <- conv6_2_mbox_conf_perm
I0217 22:03:57.252605 16234 net.cpp:408] conv6_2_mbox_conf_flat -> conv6_2_mbox_conf_flat
I0217 22:03:57.252634 16234 net.cpp:150] Setting up conv6_2_mbox_conf_flat
I0217 22:03:57.252653 16234 net.cpp:157] Top shape: 32 13200 (422400)
I0217 22:03:57.252657 16234 net.cpp:165] Memory required for data: 8085205792
I0217 22:03:57.252661 16234 layer_factory.hpp:77] Creating layer conv6_2_mbox_priorbox
I0217 22:03:57.252671 16234 net.cpp:100] Creating Layer conv6_2_mbox_priorbox
I0217 22:03:57.252676 16234 net.cpp:434] conv6_2_mbox_priorbox <- conv6_2_conv6_2_relu_0_split_3
I0217 22:03:57.252681 16234 net.cpp:434] conv6_2_mbox_priorbox <- data_data_0_split_3
I0217 22:03:57.252688 16234 net.cpp:408] conv6_2_mbox_priorbox -> conv6_2_mbox_priorbox
I0217 22:03:57.252722 16234 net.cpp:150] Setting up conv6_2_mbox_priorbox
I0217 22:03:57.252729 16234 net.cpp:157] Top shape: 1 2 2400 (4800)
I0217 22:03:57.252732 16234 net.cpp:165] Memory required for data: 8085224992
I0217 22:03:57.252737 16234 layer_factory.hpp:77] Creating layer conv7_2_mbox_loc
I0217 22:03:57.252748 16234 net.cpp:100] Creating Layer conv7_2_mbox_loc
I0217 22:03:57.252754 16234 net.cpp:434] conv7_2_mbox_loc <- conv7_2_conv7_2_relu_0_split_1
I0217 22:03:57.252761 16234 net.cpp:408] conv7_2_mbox_loc -> conv7_2_mbox_loc
I0217 22:03:57.254783 16234 net.cpp:150] Setting up conv7_2_mbox_loc
I0217 22:03:57.254799 16234 net.cpp:157] Top shape: 32 24 5 5 (19200)
I0217 22:03:57.254803 16234 net.cpp:165] Memory required for data: 8085301792
I0217 22:03:57.254811 16234 layer_factory.hpp:77] Creating layer conv7_2_mbox_loc_perm
I0217 22:03:57.254819 16234 net.cpp:100] Creating Layer conv7_2_mbox_loc_perm
I0217 22:03:57.254824 16234 net.cpp:434] conv7_2_mbox_loc_perm <- conv7_2_mbox_loc
I0217 22:03:57.254830 16234 net.cpp:408] conv7_2_mbox_loc_perm -> conv7_2_mbox_loc_perm
I0217 22:03:57.254952 16234 net.cpp:150] Setting up conv7_2_mbox_loc_perm
I0217 22:03:57.254961 16234 net.cpp:157] Top shape: 32 5 5 24 (19200)
I0217 22:03:57.254966 16234 net.cpp:165] Memory required for data: 8085378592
I0217 22:03:57.254968 16234 layer_factory.hpp:77] Creating layer conv7_2_mbox_loc_flat
I0217 22:03:57.254976 16234 net.cpp:100] Creating Layer conv7_2_mbox_loc_flat
I0217 22:03:57.254979 16234 net.cpp:434] conv7_2_mbox_loc_flat <- conv7_2_mbox_loc_perm
I0217 22:03:57.254986 16234 net.cpp:408] conv7_2_mbox_loc_flat -> conv7_2_mbox_loc_flat
I0217 22:03:57.255012 16234 net.cpp:150] Setting up conv7_2_mbox_loc_flat
I0217 22:03:57.255020 16234 net.cpp:157] Top shape: 32 600 (19200)
I0217 22:03:57.255024 16234 net.cpp:165] Memory required for data: 8085455392
I0217 22:03:57.255028 16234 layer_factory.hpp:77] Creating layer conv7_2_mbox_conf
I0217 22:03:57.255039 16234 net.cpp:100] Creating Layer conv7_2_mbox_conf
I0217 22:03:57.255044 16234 net.cpp:434] conv7_2_mbox_conf <- conv7_2_conv7_2_relu_0_split_2
I0217 22:03:57.255051 16234 net.cpp:408] conv7_2_mbox_conf -> conv7_2_mbox_conf
I0217 22:03:57.258918 16234 net.cpp:150] Setting up conv7_2_mbox_conf
I0217 22:03:57.258934 16234 net.cpp:157] Top shape: 32 132 5 5 (105600)
I0217 22:03:57.258939 16234 net.cpp:165] Memory required for data: 8085877792
I0217 22:03:57.258945 16234 layer_factory.hpp:77] Creating layer conv7_2_mbox_conf_perm
I0217 22:03:57.258955 16234 net.cpp:100] Creating Layer conv7_2_mbox_conf_perm
I0217 22:03:57.258960 16234 net.cpp:434] conv7_2_mbox_conf_perm <- conv7_2_mbox_conf
I0217 22:03:57.258965 16234 net.cpp:408] conv7_2_mbox_conf_perm -> conv7_2_mbox_conf_perm
I0217 22:03:57.259093 16234 net.cpp:150] Setting up conv7_2_mbox_conf_perm
I0217 22:03:57.259102 16234 net.cpp:157] Top shape: 32 5 5 132 (105600)
I0217 22:03:57.259106 16234 net.cpp:165] Memory required for data: 8086300192
I0217 22:03:57.259110 16234 layer_factory.hpp:77] Creating layer conv7_2_mbox_conf_flat
I0217 22:03:57.259116 16234 net.cpp:100] Creating Layer conv7_2_mbox_conf_flat
I0217 22:03:57.259120 16234 net.cpp:434] conv7_2_mbox_conf_flat <- conv7_2_mbox_conf_perm
I0217 22:03:57.259127 16234 net.cpp:408] conv7_2_mbox_conf_flat -> conv7_2_mbox_conf_flat
I0217 22:03:57.259155 16234 net.cpp:150] Setting up conv7_2_mbox_conf_flat
I0217 22:03:57.259165 16234 net.cpp:157] Top shape: 32 3300 (105600)
I0217 22:03:57.259181 16234 net.cpp:165] Memory required for data: 8086722592
I0217 22:03:57.259184 16234 layer_factory.hpp:77] Creating layer conv7_2_mbox_priorbox
I0217 22:03:57.259194 16234 net.cpp:100] Creating Layer conv7_2_mbox_priorbox
I0217 22:03:57.259198 16234 net.cpp:434] conv7_2_mbox_priorbox <- conv7_2_conv7_2_relu_0_split_3
I0217 22:03:57.259204 16234 net.cpp:434] conv7_2_mbox_priorbox <- data_data_0_split_4
I0217 22:03:57.259212 16234 net.cpp:408] conv7_2_mbox_priorbox -> conv7_2_mbox_priorbox
I0217 22:03:57.259246 16234 net.cpp:150] Setting up conv7_2_mbox_priorbox
I0217 22:03:57.259255 16234 net.cpp:157] Top shape: 1 2 600 (1200)
I0217 22:03:57.259259 16234 net.cpp:165] Memory required for data: 8086727392
I0217 22:03:57.259263 16234 layer_factory.hpp:77] Creating layer conv8_2_mbox_loc
I0217 22:03:57.259274 16234 net.cpp:100] Creating Layer conv8_2_mbox_loc
I0217 22:03:57.259280 16234 net.cpp:434] conv8_2_mbox_loc <- conv8_2_conv8_2_relu_0_split_1
I0217 22:03:57.259287 16234 net.cpp:408] conv8_2_mbox_loc -> conv8_2_mbox_loc
I0217 22:03:57.260591 16234 net.cpp:150] Setting up conv8_2_mbox_loc
I0217 22:03:57.260607 16234 net.cpp:157] Top shape: 32 16 3 3 (4608)
I0217 22:03:57.260610 16234 net.cpp:165] Memory required for data: 8086745824
I0217 22:03:57.260629 16234 layer_factory.hpp:77] Creating layer conv8_2_mbox_loc_perm
I0217 22:03:57.260639 16234 net.cpp:100] Creating Layer conv8_2_mbox_loc_perm
I0217 22:03:57.260644 16234 net.cpp:434] conv8_2_mbox_loc_perm <- conv8_2_mbox_loc
I0217 22:03:57.260650 16234 net.cpp:408] conv8_2_mbox_loc_perm -> conv8_2_mbox_loc_perm
I0217 22:03:57.260773 16234 net.cpp:150] Setting up conv8_2_mbox_loc_perm
I0217 22:03:57.260784 16234 net.cpp:157] Top shape: 32 3 3 16 (4608)
I0217 22:03:57.260787 16234 net.cpp:165] Memory required for data: 8086764256
I0217 22:03:57.260792 16234 layer_factory.hpp:77] Creating layer conv8_2_mbox_loc_flat
I0217 22:03:57.260797 16234 net.cpp:100] Creating Layer conv8_2_mbox_loc_flat
I0217 22:03:57.260802 16234 net.cpp:434] conv8_2_mbox_loc_flat <- conv8_2_mbox_loc_perm
I0217 22:03:57.260807 16234 net.cpp:408] conv8_2_mbox_loc_flat -> conv8_2_mbox_loc_flat
I0217 22:03:57.260836 16234 net.cpp:150] Setting up conv8_2_mbox_loc_flat
I0217 22:03:57.260843 16234 net.cpp:157] Top shape: 32 144 (4608)
I0217 22:03:57.260848 16234 net.cpp:165] Memory required for data: 8086782688
I0217 22:03:57.260850 16234 layer_factory.hpp:77] Creating layer conv8_2_mbox_conf
I0217 22:03:57.260861 16234 net.cpp:100] Creating Layer conv8_2_mbox_conf
I0217 22:03:57.260865 16234 net.cpp:434] conv8_2_mbox_conf <- conv8_2_conv8_2_relu_0_split_2
I0217 22:03:57.260874 16234 net.cpp:408] conv8_2_mbox_conf -> conv8_2_mbox_conf
I0217 22:03:57.263970 16234 net.cpp:150] Setting up conv8_2_mbox_conf
I0217 22:03:57.263986 16234 net.cpp:157] Top shape: 32 88 3 3 (25344)
I0217 22:03:57.263990 16234 net.cpp:165] Memory required for data: 8086884064
I0217 22:03:57.263998 16234 layer_factory.hpp:77] Creating layer conv8_2_mbox_conf_perm
I0217 22:03:57.264006 16234 net.cpp:100] Creating Layer conv8_2_mbox_conf_perm
I0217 22:03:57.264011 16234 net.cpp:434] conv8_2_mbox_conf_perm <- conv8_2_mbox_conf
I0217 22:03:57.264017 16234 net.cpp:408] conv8_2_mbox_conf_perm -> conv8_2_mbox_conf_perm
I0217 22:03:57.264144 16234 net.cpp:150] Setting up conv8_2_mbox_conf_perm
I0217 22:03:57.264154 16234 net.cpp:157] Top shape: 32 3 3 88 (25344)
I0217 22:03:57.264158 16234 net.cpp:165] Memory required for data: 8086985440
I0217 22:03:57.264161 16234 layer_factory.hpp:77] Creating layer conv8_2_mbox_conf_flat
I0217 22:03:57.264168 16234 net.cpp:100] Creating Layer conv8_2_mbox_conf_flat
I0217 22:03:57.264171 16234 net.cpp:434] conv8_2_mbox_conf_flat <- conv8_2_mbox_conf_perm
I0217 22:03:57.264178 16234 net.cpp:408] conv8_2_mbox_conf_flat -> conv8_2_mbox_conf_flat
I0217 22:03:57.264206 16234 net.cpp:150] Setting up conv8_2_mbox_conf_flat
I0217 22:03:57.264216 16234 net.cpp:157] Top shape: 32 792 (25344)
I0217 22:03:57.264219 16234 net.cpp:165] Memory required for data: 8087086816
I0217 22:03:57.264235 16234 layer_factory.hpp:77] Creating layer conv8_2_mbox_priorbox
I0217 22:03:57.264242 16234 net.cpp:100] Creating Layer conv8_2_mbox_priorbox
I0217 22:03:57.264246 16234 net.cpp:434] conv8_2_mbox_priorbox <- conv8_2_conv8_2_relu_0_split_3
I0217 22:03:57.264251 16234 net.cpp:434] conv8_2_mbox_priorbox <- data_data_0_split_5
I0217 22:03:57.264261 16234 net.cpp:408] conv8_2_mbox_priorbox -> conv8_2_mbox_priorbox
I0217 22:03:57.264292 16234 net.cpp:150] Setting up conv8_2_mbox_priorbox
I0217 22:03:57.264300 16234 net.cpp:157] Top shape: 1 2 144 (288)
I0217 22:03:57.264303 16234 net.cpp:165] Memory required for data: 8087087968
I0217 22:03:57.264307 16234 layer_factory.hpp:77] Creating layer conv9_2_mbox_loc
I0217 22:03:57.264318 16234 net.cpp:100] Creating Layer conv9_2_mbox_loc
I0217 22:03:57.264323 16234 net.cpp:434] conv9_2_mbox_loc <- conv9_2_conv9_2_relu_0_split_0
I0217 22:03:57.264331 16234 net.cpp:408] conv9_2_mbox_loc -> conv9_2_mbox_loc
I0217 22:03:57.265866 16234 net.cpp:150] Setting up conv9_2_mbox_loc
I0217 22:03:57.265882 16234 net.cpp:157] Top shape: 32 16 1 1 (512)
I0217 22:03:57.265887 16234 net.cpp:165] Memory required for data: 8087090016
I0217 22:03:57.265893 16234 layer_factory.hpp:77] Creating layer conv9_2_mbox_loc_perm
I0217 22:03:57.265902 16234 net.cpp:100] Creating Layer conv9_2_mbox_loc_perm
I0217 22:03:57.265908 16234 net.cpp:434] conv9_2_mbox_loc_perm <- conv9_2_mbox_loc
I0217 22:03:57.265914 16234 net.cpp:408] conv9_2_mbox_loc_perm -> conv9_2_mbox_loc_perm
I0217 22:03:57.266038 16234 net.cpp:150] Setting up conv9_2_mbox_loc_perm
I0217 22:03:57.266047 16234 net.cpp:157] Top shape: 32 1 1 16 (512)
I0217 22:03:57.266052 16234 net.cpp:165] Memory required for data: 8087092064
I0217 22:03:57.266054 16234 layer_factory.hpp:77] Creating layer conv9_2_mbox_loc_flat
I0217 22:03:57.266062 16234 net.cpp:100] Creating Layer conv9_2_mbox_loc_flat
I0217 22:03:57.266067 16234 net.cpp:434] conv9_2_mbox_loc_flat <- conv9_2_mbox_loc_perm
I0217 22:03:57.266072 16234 net.cpp:408] conv9_2_mbox_loc_flat -> conv9_2_mbox_loc_flat
I0217 22:03:57.266103 16234 net.cpp:150] Setting up conv9_2_mbox_loc_flat
I0217 22:03:57.266110 16234 net.cpp:157] Top shape: 32 16 (512)
I0217 22:03:57.266113 16234 net.cpp:165] Memory required for data: 8087094112
I0217 22:03:57.266118 16234 layer_factory.hpp:77] Creating layer conv9_2_mbox_conf
I0217 22:03:57.266127 16234 net.cpp:100] Creating Layer conv9_2_mbox_conf
I0217 22:03:57.266134 16234 net.cpp:434] conv9_2_mbox_conf <- conv9_2_conv9_2_relu_0_split_1
I0217 22:03:57.266141 16234 net.cpp:408] conv9_2_mbox_conf -> conv9_2_mbox_conf
I0217 22:03:57.269233 16234 net.cpp:150] Setting up conv9_2_mbox_conf
I0217 22:03:57.269250 16234 net.cpp:157] Top shape: 32 88 1 1 (2816)
I0217 22:03:57.269254 16234 net.cpp:165] Memory required for data: 8087105376
I0217 22:03:57.269261 16234 layer_factory.hpp:77] Creating layer conv9_2_mbox_conf_perm
I0217 22:03:57.269270 16234 net.cpp:100] Creating Layer conv9_2_mbox_conf_perm
I0217 22:03:57.269275 16234 net.cpp:434] conv9_2_mbox_conf_perm <- conv9_2_mbox_conf
I0217 22:03:57.269281 16234 net.cpp:408] conv9_2_mbox_conf_perm -> conv9_2_mbox_conf_perm
I0217 22:03:57.269407 16234 net.cpp:150] Setting up conv9_2_mbox_conf_perm
I0217 22:03:57.269415 16234 net.cpp:157] Top shape: 32 1 1 88 (2816)
I0217 22:03:57.269424 16234 net.cpp:165] Memory required for data: 8087116640
I0217 22:03:57.269428 16234 layer_factory.hpp:77] Creating layer conv9_2_mbox_conf_flat
I0217 22:03:57.269434 16234 net.cpp:100] Creating Layer conv9_2_mbox_conf_flat
I0217 22:03:57.269438 16234 net.cpp:434] conv9_2_mbox_conf_flat <- conv9_2_mbox_conf_perm
I0217 22:03:57.269443 16234 net.cpp:408] conv9_2_mbox_conf_flat -> conv9_2_mbox_conf_flat
I0217 22:03:57.269474 16234 net.cpp:150] Setting up conv9_2_mbox_conf_flat
I0217 22:03:57.269482 16234 net.cpp:157] Top shape: 32 88 (2816)
I0217 22:03:57.269486 16234 net.cpp:165] Memory required for data: 8087127904
I0217 22:03:57.269490 16234 layer_factory.hpp:77] Creating layer conv9_2_mbox_priorbox
I0217 22:03:57.269496 16234 net.cpp:100] Creating Layer conv9_2_mbox_priorbox
I0217 22:03:57.269513 16234 net.cpp:434] conv9_2_mbox_priorbox <- conv9_2_conv9_2_relu_0_split_2
I0217 22:03:57.269520 16234 net.cpp:434] conv9_2_mbox_priorbox <- data_data_0_split_6
I0217 22:03:57.269526 16234 net.cpp:408] conv9_2_mbox_priorbox -> conv9_2_mbox_priorbox
I0217 22:03:57.269559 16234 net.cpp:150] Setting up conv9_2_mbox_priorbox
I0217 22:03:57.269567 16234 net.cpp:157] Top shape: 1 2 16 (32)
I0217 22:03:57.269572 16234 net.cpp:165] Memory required for data: 8087128032
I0217 22:03:57.269575 16234 layer_factory.hpp:77] Creating layer mbox_loc
I0217 22:03:57.269583 16234 net.cpp:100] Creating Layer mbox_loc
I0217 22:03:57.269589 16234 net.cpp:434] mbox_loc <- conv4_3_norm_mbox_loc_flat
I0217 22:03:57.269594 16234 net.cpp:434] mbox_loc <- fc7_mbox_loc_flat
I0217 22:03:57.269600 16234 net.cpp:434] mbox_loc <- conv6_2_mbox_loc_flat
I0217 22:03:57.269605 16234 net.cpp:434] mbox_loc <- conv7_2_mbox_loc_flat
I0217 22:03:57.269609 16234 net.cpp:434] mbox_loc <- conv8_2_mbox_loc_flat
I0217 22:03:57.269613 16234 net.cpp:434] mbox_loc <- conv9_2_mbox_loc_flat
I0217 22:03:57.269619 16234 net.cpp:408] mbox_loc -> mbox_loc
I0217 22:03:57.269664 16234 net.cpp:150] Setting up mbox_loc
I0217 22:03:57.269671 16234 net.cpp:157] Top shape: 32 34928 (1117696)
I0217 22:03:57.269675 16234 net.cpp:165] Memory required for data: 8091598816
I0217 22:03:57.269680 16234 layer_factory.hpp:77] Creating layer mbox_conf
I0217 22:03:57.269685 16234 net.cpp:100] Creating Layer mbox_conf
I0217 22:03:57.269690 16234 net.cpp:434] mbox_conf <- conv4_3_norm_mbox_conf_flat
I0217 22:03:57.269695 16234 net.cpp:434] mbox_conf <- fc7_mbox_conf_flat
I0217 22:03:57.269701 16234 net.cpp:434] mbox_conf <- conv6_2_mbox_conf_flat
I0217 22:03:57.269706 16234 net.cpp:434] mbox_conf <- conv7_2_mbox_conf_flat
I0217 22:03:57.269711 16234 net.cpp:434] mbox_conf <- conv8_2_mbox_conf_flat
I0217 22:03:57.269714 16234 net.cpp:434] mbox_conf <- conv9_2_mbox_conf_flat
I0217 22:03:57.269719 16234 net.cpp:408] mbox_conf -> mbox_conf
I0217 22:03:57.269748 16234 net.cpp:150] Setting up mbox_conf
I0217 22:03:57.269755 16234 net.cpp:157] Top shape: 32 192104 (6147328)
I0217 22:03:57.269758 16234 net.cpp:165] Memory required for data: 8116188128
I0217 22:03:57.269762 16234 layer_factory.hpp:77] Creating layer mbox_priorbox
I0217 22:03:57.269770 16234 net.cpp:100] Creating Layer mbox_priorbox
I0217 22:03:57.269774 16234 net.cpp:434] mbox_priorbox <- conv4_3_norm_mbox_priorbox
I0217 22:03:57.269779 16234 net.cpp:434] mbox_priorbox <- fc7_mbox_priorbox
I0217 22:03:57.269784 16234 net.cpp:434] mbox_priorbox <- conv6_2_mbox_priorbox
I0217 22:03:57.269788 16234 net.cpp:434] mbox_priorbox <- conv7_2_mbox_priorbox
I0217 22:03:57.269793 16234 net.cpp:434] mbox_priorbox <- conv8_2_mbox_priorbox
I0217 22:03:57.269796 16234 net.cpp:434] mbox_priorbox <- conv9_2_mbox_priorbox
I0217 22:03:57.269801 16234 net.cpp:408] mbox_priorbox -> mbox_priorbox
I0217 22:03:57.269829 16234 net.cpp:150] Setting up mbox_priorbox
I0217 22:03:57.269837 16234 net.cpp:157] Top shape: 1 2 34928 (69856)
I0217 22:03:57.269840 16234 net.cpp:165] Memory required for data: 8116467552
I0217 22:03:57.269845 16234 layer_factory.hpp:77] Creating layer mbox_loss
I0217 22:03:57.269855 16234 net.cpp:100] Creating Layer mbox_loss
I0217 22:03:57.269860 16234 net.cpp:434] mbox_loss <- mbox_loc
I0217 22:03:57.269865 16234 net.cpp:434] mbox_loss <- mbox_conf
I0217 22:03:57.269868 16234 net.cpp:434] mbox_loss <- mbox_priorbox
…
  name: "data"
  type: "AnnotatedData"
  top: "data"
  top: "label"
  include {
    phase: TEST
  }
  transform_param {
    mean_value: 137
    mean_value: 84
    mean_value: 87
    mean_value: 84
    resize_param {
      prob: 1
      resize_mode: WARP
      height: 300
      width: 300
      interp_mode: LINEAR
    }
  }
  data_param {
    source: "examples/dbgr_trees/dbgr_trees_test_lmdb"
    batch_size: 1
    backend: LMDB
  }
  annotated_data_param {
    batch_sampler {
    }
    label_map_file: "data/dbgr_trees/labelmap_voc.prototxt"
  }
}
layer {
  name: "conv1_1_rgbd"
  type: "Convolution"
  bottom: "data"
  top: "conv1_1_rgbd"
  param {
    lr_mult: 1
    decay_mult: 1
  }
  param {
    lr_mult: 2
    decay_mult: 0
  }
  convolution_param {
    num_output: 64
    pad: 1
    kernel_size: 3
    weight_filler {
      type: "xavier"
    }
    bias_filler {
      type: "constant"
      value: 0
    }
  }
}
layer {
  name: "relu1_1"
  type: "ReLU"
  bottom: "conv1_1_rgbd"
  top: "conv1_1_rgbd"
}
layer {
  name: "conv1_2"
  type: "Convolution"
  bottom: "conv1_1_rgbd"
  top: "conv1_2"
  param {
    lr_mult: 1
    decay_mult: 1
  }
  param {
    lr_mult: 2
    decay_mult: 0
  }
  convolution_param {
    num_output: 64
    pad: 1
    kernel_size: 3
    weight_filler {
      type: "xavier"
    }
    bias_filler {
      type: "constant"
      value: 0
    }
  }
}
layer {
  name: "relu1_2"
  type: "ReLU"
  bottom: "conv1_2"
  top: "conv1_2"
}
layer {
  name: "pool1"
  type: "Pooling"
  bottom: "conv1_2"
  top: "pool1"
  pooling_param {
    pool: MAX
    kernel_size: 2
    stride: 2
  }
}
layer {
  name: "conv2_1"
  type: "Convolution"
  bottom: "pool1"
  top: "conv2_1"
  param {
    lr_mult: 1
    decay_mult: 1
  }
  param {
    lr_mult: 2
    decay_mult: 0
  }
  convolution_param {
    num_output: 128
    pad: 1
    kernel_size: 3
    weight_filler {
      type: "xavier"
    }
    bias_filler {
      type: "constant"
      value: 0
    }
  }
}
layer {
  name: "relu2_1"
  type: "ReLU"
  bottom: "conv2_1"
  top: "conv2_1"
}
layer {
  name: "conv2_2"
  type: "Convolution"
  bottom: "conv2_1"
  top: "conv2_2"
  param {
    lr_mult: 1
    decay_mult: 1
  }
  param {
    lr_mult: 2
    decay_mult: 0
  }
  convolution_param {
    num_output: 128
    pad: 1
    kernel_size: 3
    weight_filler {
      type: "xavier"
    }
    bias_filler {
      type: "constant"
      value: 0
    }
  }
}
layer {
  name: "relu2_2"
  type: "ReLU"
  bottom: "conv2_2"
  top: "conv2_2"
}
layer {
  name: "pool2"
  type: "Pooling"
  bottom: "conv2_2"
  top: "pool2"
  pooling_param {
    pool: MAX
    kernel_size: 2
    stride: 2
  }
}
layer {
  name: "conv3_1"
  type: "Convolution"
  bottom: "pool2"
  top: "conv3_1"
  param {
    lr_mult: 1
    decay_mult: 1
  }
  param {
    lr_mult: 2
    decay_mult: 0
  }
  convolution_param {
    num_output: 256
    pad: 1
    kernel_size: 3
    weight_filler {
      type: "xavier"
    }
    bias_filler {
      type: "constant"
      value: 0
    }
  }
}
layer {
  name: "relu3_1"
  type: "ReLU"
  bottom: "conv3_1"
  top: "conv3_1"
}
layer {
  name: "conv3_2"
  type: "Convolution"
  bottom: "conv3_1"
  top: "conv3_2"
  param {
    lr_mult: 1
    decay_mult: 1
  }
  param {
    lr_mult: 2
    decay_mult: 0
  }
  convolution_param {
    num_output: 256
    pad: 1
    kernel_size: 3
    weight_filler {
      type: "xavier"
    }
    bias_filler {
      type: "constant"
      value: 0
    }
  }
}
layer {
  name: "relu3_2"
  type: "ReLU"
  bottom: "conv3_2"
  top: "conv3_2"
}
layer {
  name: "conv3_3"
  type: "Convolution"
  bottom: "conv3_2"
  top: "conv3_3"
  param {
    lr_mult: 1
    decay_mult: 1
  }
  param {
    lr_mult: 2
    decay_mult: 0
  }
  convolution_param {
    num_output: 256
    pad: 1
    kernel_size: 3
    weight_filler {
      type: "xavier"
    }
    bias_filler {
      type: "constant"
      value: 0
    }
  }
}
layer {
  name: "relu3_3"
  type: "ReLU"
  bottom: "conv3_3"
  top: "conv3_3"
}
layer {
  name: "pool3"
  type: "Pooling"
  bottom: "conv3_3"
  top: "pool3"
  pooling_param {
    pool: MAX
    kernel_size: 2
    stride: 2
  }
}
layer {
  name: "conv4_1"
  type: "Convolution"
  bottom: "pool3"
  top: "conv4_1"
  param {
    lr_mult: 1
    decay_mult: 1
  }
  param {
    lr_mult: 2
    decay_mult: 0
  }
  convolution_param {
    num_output: 512
    pad: 1
    kernel_size: 3
    weight_filler {
      type: "xavier"
    }
    bias_filler {
      type: "constant"
      value: 0
    }
  }
}
layer {
  name: "relu4_1"
  type: "ReLU"
  bottom: "conv4_1"
  top: "conv4_1"
}
layer {
  name: "conv4_2"
  type: "Convolution"
  bottom: "conv4_1"
  top: "conv4_2"
  param {
    lr_mult: 1
    decay_mult: 1
  }
  param {
    lr_mult: 2
    decay_mult: 0
  }
  convolution_param {
    num_output: 512
    pad: 1
    kernel_size: 3
    weight_filler {
      type: "xavier"
    }
    bias_filler {
      type: "constant"
      value: 0
    }
  }
}
layer {
  name: "relu4_2"
  type: "ReLU"
  bottom: "conv4_2"
  top: "conv4_2"
}
layer {
  name: "conv4_3"
  type: "Convolution"
  bottom: "conv4_2"
  top: "conv4_3"
  param {
    lr_mult: 1
    decay_mult: 1
  }
  param {
    lr_mult: 2
    decay_mult: 0
  }
  convolution_param {
    num_output: 512
    pad: 1
    kernel_size: 3
    weight_filler {
      type: "xavier"
    }
    bias_filler {
      type: "constant"
      value: 0
    }
  }
}
layer {
  name: "relu4_3"
  type: "ReLU"
  bottom: "conv4_3"
  top: "conv4_3"
}
layer {
  name: "pool4"
  type: "Pooling"
  bottom: "conv4_3"
  top: "pool4"
  pooling_param {
    pool: MAX
    kernel_size: 2
    stride: 2
  }
}
layer {
  name: "conv5_1"
  type: "Convolution"
  bottom: "pool4"
  top: "conv5_1"
  param {
    lr_mult: 1
    decay_mult: 1
  }
  param {
    lr_mult: 2
    decay_mult: 0
  }
  convolution_param {
    num_output: 512
    pad: 1
    kernel_size: 3
    weight_filler {
      type: "xavier"
    }
    bias_filler {
      type: "constant"
      value: 0
    }
    dilation: 1
  }
}
layer {
  name: "relu5_1"
  type: "ReLU"
  bottom: "conv5_1"
  top: "conv5_1"
}
layer {
  name: "conv5_2"
  type: "Convolution"
  bottom: "conv5_1"
  top: "conv5_2"
  param {
    lr_mult: 1
    decay_mult: 1
  }
  param {
    lr_mult: 2
    decay_mult: 0
  }
  convolution_param {
    num_output: 512
    pad: 1
    kernel_size: 3
    weight_filler {
      type: "xavier"
    }
    bias_filler {
      type: "constant"
      value: 0
    }
    dilation: 1
  }
}
layer {
  name: "relu5_2"
  type: "ReLU"
  bottom: "conv5_2"
  top: "conv5_2"
}
layer {
  name: "conv5_3"
  type: "Convolution"
  bottom: "conv5_2"
  top: "conv5_3"
  param {
    lr_mult: 1
    decay_mult: 1
  }
  param {
    lr_mult: 2
    decay_mult: 0
  }
  convolution_param {
    num_output: 512
    pad: 1
    kernel_size: 3
    weight_filler {
      type: "xavier"
    }
    bias_filler {
      type: "constant"
      value: 0
    }
    dilation: 1
  }
}
layer {
  name: "relu5_3"
  type: "ReLU"
  bottom: "conv5_3"
  top: "conv5_3"
}
layer {
  name: "pool5"
  type: "Pooling"
  bottom: "conv5_3"
  top: "pool5"
  pooling_param {
    pool: MAX
    kernel_size: 3
    stride: 1
    pad: 1
  }
}
layer {
  name: "fc6"
  type: "Convolution"
  bottom: "pool5"
  top: "fc6"
  param {
    lr_mult: 1
    decay_mult: 1
  }
  param {
    lr_mult: 2
    decay_mult: 0
  }
  convolution_param {
    num_output: 1024
    pad: 6
    kernel_size: 3
    weight_filler {
      type: "xavier"
    }
    bias_filler {
      type: "constant"
      value: 0
    }
    dilation: 6
  }
}
layer {
  name: "relu6"
  type: "ReLU"
  bottom: "fc6"
  top: "fc6"
}
layer {
  name: "fc7"
  type: "Convolution"
  bottom: "fc6"
  top: "fc7"
  param {
    lr_mult: 1
    decay_mult: 1
  }
  param {
    lr_mult: 2
    decay_mult: 0
  }
  convolution_param {
    num_output: 1024
    kernel_size: 1
    weight_filler {
      type: "xavier"
    }
    bias_filler {
      type: "constant"
      value: 0
    }
  }
}
layer {
  name: "relu7"
  type: "ReLU"
  bottom: "fc7"
  top: "fc7"
}
layer {
  name: "conv6_1"
  type: "Convolution"
  bottom: "fc7"
  top: "conv6_1"
  param {
    lr_mult: 1
    decay_mult: 1
  }
  param {
    lr_mult: 2
    decay_mult: 0
  }
  convolution_param {
    num_output: 256
    pad: 0
    kernel_size: 1
    stride: 1
    weight_filler {
      type: "xavier"
    }
    bias_filler {
      type: "constant"
      value: 0
    }
  }
}
layer {
  name: "conv6_1_relu"
  type: "ReLU"
  bottom: "conv6_1"
  top: "conv6_1"
}
layer {
  name: "conv6_2"
  type: "Convolution"
  bottom: "conv6_1"
  top: "conv6_2"
  param {
    lr_mult: 1
    decay_mult: 1
  }
  param {
    lr_mult: 2
    decay_mult: 0
  }
  convolution_param {
    num_output: 512
    pad: 1
    kernel_size: 3
    stride: 2
    weight_filler {
      type: "xavier"
    }
    bias_filler {
      type: "constant"
      value: 0
    }
  }
}
layer {
  name: "conv6_2_relu"
  type: "ReLU"
  bottom: "conv6_2"
  top: "conv6_2"
}
layer {
  name: "conv7_1"
  type: "Convolution"
  bottom: "conv6_2"
  top: "conv7_1"
  param {
    lr_mult: 1
    decay_mult: 1
  }
  param {
    lr_mult: 2
    decay_mult: 0
  }
  convolution_param {
    num_output: 128
    pad: 0
    kernel_size: 1
    stride: 1
    weight_filler {
      type: "xavier"
    }
    bias_filler {
      type: "constant"
      value: 0
    }
  }
}
layer {
  name: "conv7_1_relu"
  type: "ReLU"
  bottom: "conv7_1"
  top: "conv7_1"
}
layer {
  name: "conv7_2"
  type: "Convolution"
  bottom: "conv7_1"
  top: "conv7_2"
  param {
    lr_mult: 1
    decay_mult: 1
  }
  param {
    lr_mult: 2
    decay_mult: 0
  }
  convolution_param {
    num_output: 256
    pad: 1
    kernel_size: 3
    stride: 2
    weight_filler {
      type: "xavier"
    }
    bias_filler {
      type: "constant"
      value: 0
    }
  }
}
layer {
  name: "conv7_2_relu"
  type: "ReLU"
  bottom: "conv7_2"
  top: "conv7_2"
}
layer {
  name: "conv8_1"
  type: "Convolution"
  bottom: "conv7_2"
  top: "conv8_1"
  param {
    lr_mult: 1
    decay_mult: 1
  }
  param {
    lr_mult: 2
    decay_mult: 0
  }
  convolution_param {
    num_output: 128
    pad: 0
    kernel_size: 1
    stride: 1
    weight_filler {
      type: "xavier"
    }
    bias_filler {
      type: "constant"
      value: 0
    }
  }
}
layer {
  name: "conv8_1_relu"
  type: "ReLU"
  bottom: "conv8_1"
  top: "conv8_1"
}
layer {
  name: "conv8_2"
  type: "Convolution"
  bottom: "conv8_1"
  top: "conv8_2"
  param {
    lr_mult: 1
    decay_mult: 1
  }
  param {
    lr_mult: 2
    decay_mult: 0
  }
  convolution_param {
    num_output: 256
    pad: 0
    kernel_size: 3
    stride: 1
    weight_filler {
      type: "xavier"
    }
    bias_filler {
      type: "constant"
      value: 0
    }
  }
}
layer {
  name: "conv8_2_relu"
  type: "ReLU"
  bottom: "conv8_2"
  top: "conv8_2"
}
layer {
  name: "conv9_1"
  type: "Convolution"
  bottom: "conv8_2"
  top: "conv9_1"
  param {
    lr_mult: 1
    decay_mult: 1
  }
  param {
    lr_mult: 2
    decay_mult: 0
  }
  convolution_param {
    num_output: 128
    pad: 0
    kernel_size: 1
    stride: 1
    weight_filler {
      type: "xavier"
    }
    bias_filler {
      type: "constant"
      value: 0
    }
  }
}
layer {
  name: "conv9_1_relu"
  type: "ReLU"
  bottom: "conv9_1"
  top: "conv9_1"
}
layer {
  name: "conv9_2"
  type: "Convolution"
  bottom: "conv9_1"
  top: "conv9_2"
  param {
    lr_mult: 1
    decay_mult: 1
  }
  param {
    lr_mult: 2
    decay_mult: 0
  }
  convolution_param {
    num_output: 256
    pad: 0
    kernel_size: 3
    stride: 1
    weight_filler {
      type: "xavier"
    }
    bias_filler {
      type: "constant"
      value: 0
    }
  }
}
layer {
  name: "conv9_2_relu"
  type: "ReLU"
  bottom: "conv9_2"
  top: "conv9_2"
}
layer {
  name: "conv4_3_norm"
  type: "Normalize"
  bottom: "conv4_3"
  top: "conv4_3_norm"
  norm_param {
    across_spatial: false
    scale_filler {
      type: "constant"
      value: 20
    }
    channel_shared: false
  }
}
layer {
  name: "conv4_3_norm_mbox_loc"
  type: "Convolution"
  bottom: "conv4_3_norm"
  top: "conv4_3_norm_mbox_loc"
  param {
    lr_mult: 1
    decay_mult: 1
  }
  param {
    lr_mult: 2
    decay_mult: 0
  }
  convolution_param {
    num_output: 16
    pad: 1
    kernel_size: 3
    stride: 1
    weight_filler {
      type: "xavier"
    }
    bias_filler {
      type: "constant"
      value: 0
    }
  }
}
layer {
  name: "conv4_3_norm_mbox_loc_perm"
  type: "Permute"
  bottom: "conv4_3_norm_mbox_loc"
  top: "conv4_3_norm_mbox_loc_perm"
  permute_param {
    order: 0
    order: 2
    order: 3
    order: 1
  }
}
layer {
  name: "conv4_3_norm_mbox_loc_flat"
  type: "Flatten"
  bottom: "conv4_3_norm_mbox_loc_perm"
  top: "conv4_3_norm_mbox_loc_flat"
  flatten_param {
    axis: 1
  }
}
layer {
  name: "conv4_3_norm_mbox_conf"
  type: "Convolution"
  bottom: "conv4_3_norm"
  top: "conv4_3_norm_mbox_conf"
  param {
    lr_mult: 1
    decay_mult: 1
  }
  param {
    lr_mult: 2
    decay_mult: 0
  }
  convolution_param {
    num_output: 88
    pad: 1
    kernel_size: 3
    stride: 1
    weight_filler {
      type: "xavier"
    }
    bias_filler {
      type: "constant"
      value: 0
    }
  }
}
layer {
  name: "conv4_3_norm_mbox_conf_perm"
  type: "Permute"
  bottom: "conv4_3_norm_mbox_conf"
  top: "conv4_3_norm_mbox_conf_perm"
  permute_param {
    order: 0
    order: 2
    order: 3
    order: 1
  }
}
layer {
  name: "conv4_3_norm_mbox_conf_flat"
  type: "Flatten"
  bottom: "conv4_3_norm_mbox_conf_perm"
  top: "conv4_3_norm_mbox_conf_flat"
  flatten_param {
    axis: 1
  }
}
layer {
  name: "conv4_3_norm_mbox_priorbox"
  type: "PriorBox"
  bottom: "conv4_3_norm"
  bottom: "data"
  top: "conv4_3_norm_mbox_priorbox"
  prior_box_param {
    min_size: 30
    max_size: 60
    aspect_ratio: 2
    flip: true
    clip: false
    variance: 0.1
    variance: 0.1
    variance: 0.2
    variance: 0.2
    step: 8
    offset: 0.5
  }
}
layer {
  name: "fc7_mbox_loc"
  type: "Convolution"
  bottom: "fc7"
  top: "fc7_mbox_loc"
  param {
    lr_mult: 1
    decay_mult: 1
  }
  param {
    lr_mult: 2
    decay_mult: 0
  }
  convolution_param {
    num_output: 24
    pad: 1
    kernel_size: 3
    stride: 1
    weight_filler {
      type: "xavier"
    }
    bias_filler {
      type: "constant"
      value: 0
    }
  }
}
layer {
  name: "fc7_mbox_loc_perm"
  type: "Permute"
  bottom: "fc7_mbox_loc"
  top: "fc7_mbox_loc_perm"
  permute_param {
    order: 0
    order: 2
    order: 3
    order: 1
  }
}
layer {
  name: "fc7_mbox_loc_flat"
  type: "Flatten"
  bottom: "fc7_mbox_loc_perm"
  top: "fc7_mbox_loc_flat"
  flatten_param {
    axis: 1
  }
}
layer {
  name: "fc7_mbox_conf"
  type: "Convolution"
  bottom: "fc7"
  top: "fc7_mbox_conf"
  param {
    lr_mult: 1
    decay_mult: 1
  }
  param {
    lr_mult: 2
    decay_mult: 0
  }
  convolution_param {
    num_output: 132
    pad: 1
    kernel_size: 3
    stride: 1
    weight_filler {
      type: "xavier"
    }
    bias_filler {
      type: "constant"
      value: 0
    }
  }
}
layer {
  name: "fc7_mbox_conf_perm"
  type: "Permute"
  bottom: "fc7_mbox_conf"
  top: "fc7_mbox_conf_perm"
  permute_param {
    order: 0
    order: 2
    order: 3
    order: 1
  }
}
layer {
  name: "fc7_mbox_conf_flat"
  type: "Flatten"
  bottom: "fc7_mbox_conf_perm"
  top: "fc7_mbox_conf_flat"
  flatten_param {
    axis: 1
  }
}
layer {
  name: "fc7_mbox_priorbox"
  type: "PriorBox"
  bottom: "fc7"
  bottom: "data"
  top: "fc7_mbox_priorbox"
  prior_box_param {
    min_size: 60
    max_size: 111
    aspect_ratio: 2
    aspect_ratio: 3
    flip: true
    clip: false
    variance: 0.1
    variance: 0.1
    variance: 0.2
    variance: 0.2
    step: 16
    offset: 0.5
  }
}
layer {
  name: "conv6_2_mbox_loc"
  type: "Convolution"
  bottom: "conv6_2"
  top: "conv6_2_mbox_loc"
  param {
    lr_mult: 1
    decay_mult: 1
  }
  param {
    lr_mult: 2
    decay_mult: 0
  }
  convolution_param {
    num_output: 24
    pad: 1
    kernel_size: 3
    stride: 1
    weight_filler {
      type: "xavier"
    }
    bias_filler {
      type: "constant"
      value: 0
    }
  }
}
layer {
  name: "conv6_2_mbox_loc_perm"
  type: "Permute"
  bottom: "conv6_2_mbox_loc"
  top: "conv6_2_mbox_loc_perm"
  permute_param {
    order: 0
    order: 2
    order: 3
    order: 1
  }
}
layer {
  name: "conv6_2_mbox_loc_flat"
  type: "Flatten"
  bottom: "conv6_2_mbox_loc_perm"
  top: "conv6_2_mbox_loc_flat"
  flatten_param {
    axis: 1
  }
}
layer {
  name: "conv6_2_mbox_conf"
  type: "Convolution"
  bottom: "conv6_2"
  top: "conv6_2_mbox_conf"
  param {
    lr_mult: 1
    decay_mult: 1
  }
  param {
    lr_mult: 2
    decay_mult: 0
  }
  convolution_param {
    num_output: 132
    pad: 1
    kernel_size: 3
    stride: 1
    weight_filler {
      type: "xavier"
    }
    bias_filler {
      type: "constant"
      value: 0
    }
  }
}
layer {
  name: "conv6_2_mbox_conf_perm"
  type: "Permute"
  bottom: "conv6_2_mbox_conf"
  top: "conv6_2_mbox_conf_perm"
  permute_param {
    order: 0
    order: 2
    order: 3
    order: 1
  }
}
layer {
  name: "conv6_2_mbox_conf_flat"
  type: "Flatten"
  bottom: "conv6_2_mbox_conf_perm"
  top: "conv6_2_mbox_conf_flat"
  flatten_param {
    axis: 1
  }
}
layer {
  name: "conv6_2_mbox_priorbox"
  type: "PriorBox"
  bottom: "conv6_2"
  bottom: "data"
  top: "conv6_2_mbox_priorbox"
  prior_box_param {
    min_size: 111
    max_size: 162
    aspect_ratio: 2
    aspect_ratio: 3
    flip: true
    clip: false
    variance: 0.1
    variance: 0.1
    variance: 0.2
    variance: 0.2
    step: 32
    offset: 0.5
  }
}
layer {
  name: "conv7_2_mbox_loc"
  type: "Convolution"
  bottom: "conv7_2"
  top: "conv7_2_mbox_loc"
  param {
    lr_mult: 1
    decay_mult: 1
  }
  param {
    lr_mult: 2
    decay_mult: 0
  }
  convolution_param {
    num_output: 24
    pad: 1
    kernel_size: 3
    stride: 1
    weight_filler {
      type: "xavier"
    }
    bias_filler {
      type: "constant"
      value: 0
    }
  }
}
layer {
  name: "conv7_2_mbox_loc_perm"
  type: "Permute"
  bottom: "conv7_2_mbox_loc"
  top: "conv7_2_mbox_loc_perm"
  permute_param {
    order: 0
    order: 2
    order: 3
    order: 1
  }
}
layer {
  name: "conv7_2_mbox_loc_flat"
  type: "Flatten"
  bottom: "conv7_2_mbox_loc_perm"
  top: "conv7_2_mbox_loc_flat"
  flatten_param {
    axis: 1
  }
}
layer {
  name: "conv7_2_mbox_conf"
  type: "Convolution"
  bottom: "conv7_2"
  top: "conv7_2_mbox_conf"
  param {
    lr_mult: 1
    decay_mult: 1
  }
  param {
    lr_mult: 2
    decay_mult: 0
  }
  convolution_param {
    num_output: 132
    pad: 1
    kernel_size: 3
    stride: 1
    weight_filler {
      type: "xavier"
    }
    bias_filler {
      type: "constant"
      value: 0
    }
  }
}
layer {
  name: "conv7_2_mbox_conf_perm"
  type: "Permute"
  bottom: "conv7_2_mbox_conf"
  top: "conv7_2_mbox_conf_perm"
  permute_param {
    order: 0
    order: 2
    order: 3
    order: 1
  }
}
layer {
  name: "conv7_2_mbox_conf_flat"
  type: "Flatten"
  bottom: "conv7_2_mbox_conf_perm"
  top: "conv7_2_mbox_conf_flat"
  flatten_param {
    axis: 1
  }
}
layer {
  name: "conv7_2_mbox_priorbox"
  type: "PriorBox"
  bottom: "conv7_2"
  bottom: "data"
  top: "conv7_2_mbox_priorbox"
  prior_box_param {
    min_size: 162
    max_size: 213
    aspect_ratio: 2
    aspect_ratio: 3
    flip: true
    clip: false
    variance: 0.1
    variance: 0.1
    variance: 0.2
    variance: 0.2
    step: 64
    offset: 0.5
  }
}
layer {
  name: "conv8_2_mbox_loc"
  type: "Convolution"
  bottom: "conv8_2"
  top: "conv8_2_mbox_loc"
  param {
    lr_mult: 1
    decay_mult: 1
  }
  param {
    lr_mult: 2
    decay_mult: 0
  }
  convolution_param {
    num_output: 16
    pad: 1
    kernel_size: 3
    stride: 1
    weight_filler {
      type: "xavier"
    }
    bias_filler {
      type: "constant"
      value: 0
    }
  }
}
layer {
  name: "conv8_2_mbox_loc_perm"
  type: "Permute"
  bottom: "conv8_2_mbox_loc"
  top: "conv8_2_mbox_loc_perm"
  permute_param {
    order: 0
    order: 2
    order: 3
    order: 1
  }
}
layer {
  name: "conv8_2_mbox_loc_flat"
  type: "Flatten"
  bottom: "conv8_2_mbox_loc_perm"
  top: "conv8_2_mbox_loc_flat"
  flatten_param {
    axis: 1
  }
}
layer {
  name: "conv8_2_mbox_conf"
  type: "Convolution"
  bottom: "conv8_2"
  top: "conv8_2_mbox_conf"
  param {
    lr_mult: 1
    decay_mult: 1
  }
  param {
    lr_mult: 2
    decay_mult: 0
  }
  convolution_param {
    num_output: 88
    pad: 1
    kernel_size: 3
    stride: 1
    weight_filler {
      type: "xavier"
    }
    bias_filler {
      type: "constant"
      value: 0
    }
  }
}
layer {
  name: "conv8_2_mbox_conf_perm"
  type: "Permute"
  bottom: "conv8_2_mbox_conf"
  top: "conv8_2_mbox_conf_perm"
  permute_param {
    order: 0
    order: 2
    order: 3
    order: 1
  }
}
layer {
  name: "conv8_2_mbox_conf_flat"
  type: "Flatten"
  bottom: "conv8_2_mbox_conf_perm"
  top: "conv8_2_mbox_conf_flat"
  flatten_param {
    axis: 1
  }
}
layer {
  name: "conv8_2_mbox_priorbox"
  type: "PriorBox"
  bottom: "conv8_2"
  bottom: "data"
  top: "conv8_2_mbox_priorbox"
  prior_box_param {
    min_size: 213
    max_size: 264
    aspect_ratio: 2
    flip: true
    clip: false
    variance: 0.1
    variance: 0.1
    variance: 0.2
    variance: 0.2
    step: 100
    offset: 0.5
  }
}
layer {
  name: "conv9_2_mbox_loc"
  type: "Convolution"
  bottom: "conv9_2"
  top: "conv9_2_mbox_loc"
  param {
    lr_mult: 1
    decay_mult: 1
  }
  param {
    lr_mult: 2
    decay_mult: 0
  }
  convolution_param {
    num_output: 16
    pad: 1
    kernel_size: 3
    stride: 1
    weight_filler {
      type: "xavier"
    }
    bias_filler {
      type: "constant"
      value: 0
    }
  }
}
layer {
  name: "conv9_2_mbox_loc_perm"
  type: "Permute"
  bottom: "conv9_2_mbox_loc"
  top: "conv9_2_mbox_loc_perm"
  permute_param {
    order: 0
    order: 2
    order: 3
    order: 1
  }
}
layer {
  name: "conv9_2_mbox_loc_flat"
  type: "Flatten"
  bottom: "conv9_2_mbox_loc_perm"
  top: "conv9_2_mbox_loc_flat"
  flatten_param {
    axis: 1
  }
}
layer {
  name: "conv9_2_mbox_conf"
  type: "Convolution"
  bottom: "conv9_2"
  top: "conv9_2_mbox_conf"
  param {
    lr_mult: 1
    decay_mult: 1
  }
  param {
    lr_mult: 2
    decay_mult: 0
  }
  convolution_param {
    num_output: 88
    pad: 1
    kernel_size: 3
    stride: 1
    weight_filler {
      type: "xavier"
    }
    bias_filler {
      type: "constant"
      value: 0
    }
  }
}
layer {
  name: "conv9_2_mbox_conf_perm"
  type: "Permute"
  bottom: "conv9_2_mbox_conf"
  top: "conv9_2_mbox_conf_perm"
  permute_param {
    order: 0
    order: 2
    order: 3
    order: 1
  }
}
layer {
  name: "conv9_2_mbox_conf_flat"
  type: "Flatten"
  bottom: "conv9_2_mbox_conf_perm"
  top: "conv9_2_mbox_conf_flat"
  flatten_param {
    axis: 1
  }
}
layer {
  name: "conv9_2_mbox_priorbox"
  type: "PriorBox"
  bottom: "conv9_2"
  bottom: "data"
  top: "conv9_2_mbox_priorbox"
  prior_box_param {
    min_size: 264
    max_size: 315
    aspect_ratio: 2
    flip: true
    clip: false
    variance: 0.1
    variance: 0.1
    variance: 0.2
    variance: 0.2
    step: 300
    offset: 0.5
  }
}
layer {
  name: "mbox_loc"
  type: "Concat"
  bottom: "conv4_3_norm_mbox_loc_flat"
  bottom: "fc7_mbox_loc_flat"
  bottom: "conv6_2_mbox_loc_flat"
  bottom: "conv7_2_mbox_loc_flat"
  bottom: "conv8_2_mbox_loc_flat"
  bottom: "conv9_2_mbox_loc_flat"
  top: "mbox_loc"
  concat_param {
    axis: 1
  }
}
layer {
  name: "mbox_conf"
  type: "Concat"
  bottom: "conv4_3_norm_mbox_conf_flat"
  bottom: "fc7_mbox_conf_flat"
  bottom: "conv6_2_mbox_conf_flat"
  bottom: "conv7_2_mbox_conf_flat"
  bottom: "conv8_2_mbox_conf_flat"
  bottom: "conv9_2_mbox_conf_flat"
  top: "mbox_conf"
  concat_param {
    axis: 1
  }
}
layer {
  name: "mbox_priorbox"
  type: "Concat"
  bottom: "conv4_3_norm_mbox_priorbox"
  bottom: "fc7_mbox_priorbox"
  bottom: "conv6_2_mbox_priorbox"
  bottom: "conv7_2_mbox_priorbox"
  bottom: "conv8_2_mbox_priorbox"
  bottom: "conv9_2_mbox_priorbox"
  top: "mbox_priorbox"
  concat_param {
    axis: 2
  }
}
layer {
  name: "mbox_conf_reshape"
  type: "Reshape"
  bottom: "mbox_conf"
  top: "mbox_conf_reshape"
  reshape_param {
    shape {
      dim: 0
      dim: -1
      dim: 22
    }
  }
}
layer {
  name: "mbox_conf_softmax"
  type: "Softmax"
  bottom: "mbox_conf_reshape"
  top: "mbox_conf_softmax"
  softmax_param {
    axis: 2
  }
}
layer {
  name: "mbox_conf_flatten"
  type: "Flatten"
  bottom: "mbox_conf_softmax"
  top: "mbox_conf_flatten"
  flatten_param {
    axis: 1
  }
}
layer {
  name: "detection_out"
  type: "DetectionOutput"
  bottom: "mbox_loc"
  bottom: "mbox_conf_flatten"
  bottom: "mbox_priorbox"
  top: "detection_out"
  include {
    phase: TEST
  }
  detection_output_param {
    num_classes: 22
    share_location: true
    background_label_id: 0
    nms_param {
      nms_threshold: 0.45
      top_k: 400
    }
    save_output_param {
      output_directory: "/home/dhall/data/VOCdevkit/results/dbgr_trees/SSD_dbgr_trees_300x300/Main"
      output_name_prefix: "comp4_det_test_"
      output_format: "VOC"
      label_map_file: "data/dbgr_trees/labelmap_voc.prototxt"
      name_size_file: "data/dbgr_trees/test_name_size.txt"
      num_test_image: 105
    }
    code_type: CENTER_SIZE
    keep_top_k: 200
    confidence_threshold: 0.01
  }
}
layer {
  name: "detection_eval"
  type: "DetectionEvaluate"
  bottom: "detection_out"
  bottom: "label"
  top: "detection_eval"
  include {
    phase: TEST
  }
  detection_evaluate_param {
    num_classes: 22
    background_label_id: 0
    overlap_threshold: 0.5
    evaluate_difficult_gt: false
    name_size_file: "data/dbgr_trees/test_name_size.txt"
  }
}
I0217 22:03:57.274598 16234 layer_factory.hpp:77] Creating layer data
I0217 22:03:57.274824 16234 net.cpp:100] Creating Layer data
I0217 22:03:57.274835 16234 net.cpp:408] data -> data
I0217 22:03:57.274845 16234 net.cpp:408] data -> label
I0217 22:03:57.276535 16252 db_lmdb.cpp:35] Opened lmdb examples/dbgr_trees/dbgr_trees_test_lmdb
I0217 22:03:57.289119 16234 annotated_data_layer.cpp:62] output data size: 1,4,300,300
I0217 22:03:57.292309 16234 net.cpp:150] Setting up data
I0217 22:03:57.292332 16234 net.cpp:157] Top shape: 1 4 300 300 (360000)
I0217 22:03:57.292340 16234 net.cpp:157] Top shape: 1 1 6 8 (48)
I0217 22:03:57.292342 16234 net.cpp:165] Memory required for data: 1440192
I0217 22:03:57.292349 16234 layer_factory.hpp:77] Creating layer data_data_0_split
I0217 22:03:57.292362 16234 net.cpp:100] Creating Layer data_data_0_split
I0217 22:03:57.292367 16234 net.cpp:434] data_data_0_split <- data
I0217 22:03:57.292376 16234 net.cpp:408] data_data_0_split -> data_data_0_split_0
I0217 22:03:57.292387 16234 net.cpp:408] data_data_0_split -> data_data_0_split_1
I0217 22:03:57.292393 16234 net.cpp:408] data_data_0_split -> data_data_0_split_2
I0217 22:03:57.292400 16234 net.cpp:408] data_data_0_split -> data_data_0_split_3
I0217 22:03:57.292405 16234 net.cpp:408] data_data_0_split -> data_data_0_split_4
I0217 22:03:57.292412 16234 net.cpp:408] data_data_0_split -> data_data_0_split_5
I0217 22:03:57.292417 16234 net.cpp:408] data_data_0_split -> data_data_0_split_6
I0217 22:03:57.292606 16234 net.cpp:150] Setting up data_data_0_split
I0217 22:03:57.292618 16234 net.cpp:157] Top shape: 1 4 300 300 (360000)
I0217 22:03:57.292637 16234 net.cpp:157] Top shape: 1 4 300 300 (360000)
I0217 22:03:57.292644 16234 net.cpp:157] Top shape: 1 4 300 300 (360000)
I0217 22:03:57.292647 16234 net.cpp:157] Top shape: 1 4 300 300 (360000)
I0217 22:03:57.292651 16234 net.cpp:157] Top shape: 1 4 300 300 (360000)
I0217 22:03:57.292655 16234 net.cpp:157] Top shape: 1 4 300 300 (360000)
I0217 22:03:57.292661 16234 net.cpp:157] Top shape: 1 4 300 300 (360000)
I0217 22:03:57.292665 16234 net.cpp:165] Memory required for data: 11520192
I0217 22:03:57.292668 16234 layer_factory.hpp:77] Creating layer conv1_1_rgbd
I0217 22:03:57.292681 16234 net.cpp:100] Creating Layer conv1_1_rgbd
I0217 22:03:57.292685 16234 net.cpp:434] conv1_1_rgbd <- data_data_0_split_0
I0217 22:03:57.292692 16234 net.cpp:408] conv1_1_rgbd -> conv1_1_rgbd
I0217 22:03:57.294247 16234 net.cpp:150] Setting up conv1_1_rgbd
I0217 22:03:57.294265 16234 net.cpp:157] Top shape: 1 64 300 300 (5760000)
I0217 22:03:57.294270 16234 net.cpp:165] Memory required for data: 34560192
I0217 22:03:57.294281 16234 layer_factory.hpp:77] Creating layer relu1_1
I0217 22:03:57.294289 16234 net.cpp:100] Creating Layer relu1_1
I0217 22:03:57.294294 16234 net.cpp:434] relu1_1 <- conv1_1_rgbd
I0217 22:03:57.294299 16234 net.cpp:395] relu1_1 -> conv1_1_rgbd (in-place)
I0217 22:03:57.294641 16234 net.cpp:150] Setting up relu1_1
I0217 22:03:57.294656 16234 net.cpp:157] Top shape: 1 64 300 300 (5760000)
I0217 22:03:57.294659 16234 net.cpp:165] Memory required for data: 57600192
I0217 22:03:57.294663 16234 layer_factory.hpp:77] Creating layer conv1_2
I0217 22:03:57.294675 16234 net.cpp:100] Creating Layer conv1_2
I0217 22:03:57.294679 16234 net.cpp:434] conv1_2 <- conv1_1_rgbd
I0217 22:03:57.294687 16234 net.cpp:408] conv1_2 -> conv1_2
I0217 22:03:57.296741 16234 net.cpp:150] Setting up conv1_2
I0217 22:03:57.296757 16234 net.cpp:157] Top shape: 1 64 300 300 (5760000)
I0217 22:03:57.296761 16234 net.cpp:165] Memory required for data: 80640192
I0217 22:03:57.296772 16234 layer_factory.hpp:77] Creating layer relu1_2
I0217 22:03:57.296779 16234 net.cpp:100] Creating Layer relu1_2
I0217 22:03:57.296783 16234 net.cpp:434] relu1_2 <- conv1_2
I0217 22:03:57.296789 16234 net.cpp:395] relu1_2 -> conv1_2 (in-place)
I0217 22:03:57.296983 16234 net.cpp:150] Setting up relu1_2
I0217 22:03:57.296995 16234 net.cpp:157] Top shape: 1 64 300 300 (5760000)
I0217 22:03:57.296999 16234 net.cpp:165] Memory required for data: 103680192
I0217 22:03:57.297003 16234 layer_factory.hpp:77] Creating layer pool1
I0217 22:03:57.297011 16234 net.cpp:100] Creating Layer pool1
I0217 22:03:57.297015 16234 net.cpp:434] pool1 <- conv1_2
I0217 22:03:57.297020 16234 net.cpp:408] pool1 -> pool1
I0217 22:03:57.297077 16234 net.cpp:150] Setting up pool1
I0217 22:03:57.297091 16234 net.cpp:157] Top shape: 1 64 150 150 (1440000)
I0217 22:03:57.297094 16234 net.cpp:165] Memory required for data: 109440192
I0217 22:03:57.297098 16234 layer_factory.hpp:77] Creating layer conv2_1
I0217 22:03:57.297108 16234 net.cpp:100] Creating Layer conv2_1
I0217 22:03:57.297112 16234 net.cpp:434] conv2_1 <- pool1
I0217 22:03:57.297118 16234 net.cpp:408] conv2_1 -> conv2_1
I0217 22:03:57.298928 16234 net.cpp:150] Setting up conv2_1
I0217 22:03:57.298944 16234 net.cpp:157] Top shape: 1 128 150 150 (2880000)
I0217 22:03:57.298949 16234 net.cpp:165] Memory required for data: 120960192
I0217 22:03:57.298959 16234 layer_factory.hpp:77] Creating layer relu2_1
I0217 22:03:57.298967 16234 net.cpp:100] Creating Layer relu2_1
I0217 22:03:57.298971 16234 net.cpp:434] relu2_1 <- conv2_1
I0217 22:03:57.298977 16234 net.cpp:395] relu2_1 -> conv2_1 (in-place)
I0217 22:03:57.299168 16234 net.cpp:150] Setting up relu2_1
I0217 22:03:57.299180 16234 net.cpp:157] Top shape: 1 128 150 150 (2880000)
I0217 22:03:57.299185 16234 net.cpp:165] Memory required for data: 132480192
I0217 22:03:57.299188 16234 layer_factory.hpp:77] Creating layer conv2_2
I0217 22:03:57.299197 16234 net.cpp:100] Creating Layer conv2_2
I0217 22:03:57.299201 16234 net.cpp:434] conv2_2 <- conv2_1
I0217 22:03:57.299223 16234 net.cpp:408] conv2_2 -> conv2_2
I0217 22:03:57.301918 16234 net.cpp:150] Setting up conv2_2
I0217 22:03:57.301934 16234 net.cpp:157] Top shape: 1 128 150 150 (2880000)
I0217 22:03:57.301939 16234 net.cpp:165] Memory required for data: 144000192
I0217 22:03:57.301945 16234 layer_factory.hpp:77] Creating layer relu2_2
I0217 22:03:57.301952 16234 net.cpp:100] Creating Layer relu2_2
I0217 22:03:57.301956 16234 net.cpp:434] relu2_2 <- conv2_2
I0217 22:03:57.301961 16234 net.cpp:395] relu2_2 -> conv2_2 (in-place)
I0217 22:03:57.302289 16234 net.cpp:150] Setting up relu2_2
I0217 22:03:57.302304 16234 net.cpp:157] Top shape: 1 128 150 150 (2880000)
I0217 22:03:57.302309 16234 net.cpp:165] Memory required for data: 155520192
I0217 22:03:57.302312 16234 layer_factory.hpp:77] Creating layer pool2
I0217 22:03:57.302320 16234 net.cpp:100] Creating Layer pool2
I0217 22:03:57.302323 16234 net.cpp:434] pool2 <- conv2_2
I0217 22:03:57.302330 16234 net.cpp:408] pool2 -> pool2
I0217 22:03:57.302386 16234 net.cpp:150] Setting up pool2
I0217 22:03:57.302398 16234 net.cpp:157] Top shape: 1 128 75 75 (720000)
I0217 22:03:57.302402 16234 net.cpp:165] Memory required for data: 158400192
I0217 22:03:57.302405 16234 layer_factory.hpp:77] Creating layer conv3_1
I0217 22:03:57.302414 16234 net.cpp:100] Creating Layer conv3_1
I0217 22:03:57.302418 16234 net.cpp:434] conv3_1 <- pool2
I0217 22:03:57.302424 16234 net.cpp:408] conv3_1 -> conv3_1
I0217 22:03:57.306232 16234 net.cpp:150] Setting up conv3_1
I0217 22:03:57.306249 16234 net.cpp:157] Top shape: 1 256 75 75 (1440000)
I0217 22:03:57.306254 16234 net.cpp:165] Memory required for data: 164160192
I0217 22:03:57.306264 16234 layer_factory.hpp:77] Creating layer relu3_1
I0217 22:03:57.306272 16234 net.cpp:100] Creating Layer relu3_1
I0217 22:03:57.306275 16234 net.cpp:434] relu3_1 <- conv3_1
I0217 22:03:57.306280 16234 net.cpp:395] relu3_1 -> conv3_1 (in-place)
I0217 22:03:57.306463 16234 net.cpp:150] Setting up relu3_1
I0217 22:03:57.306475 16234 net.cpp:157] Top shape: 1 256 75 75 (1440000)
I0217 22:03:57.306479 16234 net.cpp:165] Memory required for data: 169920192
I0217 22:03:57.306483 16234 layer_factory.hpp:77] Creating layer conv3_2
I0217 22:03:57.306493 16234 net.cpp:100] Creating Layer conv3_2
I0217 22:03:57.306496 16234 net.cpp:434] conv3_2 <- conv3_1
I0217 22:03:57.306502 16234 net.cpp:408] conv3_2 -> conv3_2
I0217 22:03:57.312759 16234 net.cpp:150] Setting up conv3_2
I0217 22:03:57.312777 16234 net.cpp:157] Top shape: 1 256 75 75 (1440000)
I0217 22:03:57.312783 16234 net.cpp:165] Memory required for data: 175680192
I0217 22:03:57.312789 16234 layer_factory.hpp:77] Creating layer relu3_2
I0217 22:03:57.312796 16234 net.cpp:100] Creating Layer relu3_2
I0217 22:03:57.312800 16234 net.cpp:434] relu3_2 <- conv3_2
I0217 22:03:57.312806 16234 net.cpp:395] relu3_2 -> conv3_2 (in-place)
I0217 22:03:57.312983 16234 net.cpp:150] Setting up relu3_2
I0217 22:03:57.312994 16234 net.cpp:157] Top shape: 1 256 75 75 (1440000)
I0217 22:03:57.312999 16234 net.cpp:165] Memory required for data: 181440192
I0217 22:03:57.313002 16234 layer_factory.hpp:77] Creating layer conv3_3
I0217 22:03:57.313014 16234 net.cpp:100] Creating Layer conv3_3
I0217 22:03:57.313019 16234 net.cpp:434] conv3_3 <- conv3_2
I0217 22:03:57.313024 16234 net.cpp:408] conv3_3 -> conv3_3
I0217 22:03:57.319939 16234 net.cpp:150] Setting up conv3_3
I0217 22:03:57.319959 16234 net.cpp:157] Top shape: 1 256 75 75 (1440000)
I0217 22:03:57.319964 16234 net.cpp:165] Memory required for data: 187200192
I0217 22:03:57.319972 16234 layer_factory.hpp:77] Creating layer relu3_3
I0217 22:03:57.319978 16234 net.cpp:100] Creating Layer relu3_3
I0217 22:03:57.319983 16234 net.cpp:434] relu3_3 <- conv3_3
I0217 22:03:57.319988 16234 net.cpp:395] relu3_3 -> conv3_3 (in-place)
I0217 22:03:57.320399 16234 net.cpp:150] Setting up relu3_3
I0217 22:03:57.320413 16234 net.cpp:157] Top shape: 1 256 75 75 (1440000)
I0217 22:03:57.320417 16234 net.cpp:165] Memory required for data: 192960192
I0217 22:03:57.320421 16234 layer_factory.hpp:77] Creating layer pool3
I0217 22:03:57.320447 16234 net.cpp:100] Creating Layer pool3
I0217 22:03:57.320452 16234 net.cpp:434] pool3 <- conv3_3
I0217 22:03:57.320457 16234 net.cpp:408] pool3 -> pool3
I0217 22:03:57.320518 16234 net.cpp:150] Setting up pool3
I0217 22:03:57.320528 16234 net.cpp:157] Top shape: 1 256 38 38 (369664)
I0217 22:03:57.320531 16234 net.cpp:165] Memory required for data: 194438848
I0217 22:03:57.320534 16234 layer_factory.hpp:77] Creating layer conv4_1
I0217 22:03:57.320544 16234 net.cpp:100] Creating Layer conv4_1
I0217 22:03:57.320549 16234 net.cpp:434] conv4_1 <- pool3
I0217 22:03:57.320554 16234 net.cpp:408] conv4_1 -> conv4_1
I0217 22:03:57.331751 16234 net.cpp:150] Setting up conv4_1
I0217 22:03:57.331773 16234 net.cpp:157] Top shape: 1 512 38 38 (739328)
I0217 22:03:57.331778 16234 net.cpp:165] Memory required for data: 197396160
I0217 22:03:57.331784 16234 layer_factory.hpp:77] Creating layer relu4_1
I0217 22:03:57.331792 16234 net.cpp:100] Creating Layer relu4_1
I0217 22:03:57.331797 16234 net.cpp:434] relu4_1 <- conv4_1
I0217 22:03:57.331804 16234 net.cpp:395] relu4_1 -> conv4_1 (in-place)
I0217 22:03:57.331990 16234 net.cpp:150] Setting up relu4_1
I0217 22:03:57.332002 16234 net.cpp:157] Top shape: 1 512 38 38 (739328)
I0217 22:03:57.332006 16234 net.cpp:165] Memory required for data: 200353472
I0217 22:03:57.332010 16234 layer_factory.hpp:77] Creating layer conv4_2
I0217 22:03:57.332020 16234 net.cpp:100] Creating Layer conv4_2
I0217 22:03:57.332025 16234 net.cpp:434] conv4_2 <- conv4_1
I0217 22:03:57.332031 16234 net.cpp:408] conv4_2 -> conv4_2
I0217 22:03:57.353382 16234 net.cpp:150] Setting up conv4_2
I0217 22:03:57.353412 16234 net.cpp:157] Top shape: 1 512 38 38 (739328)
I0217 22:03:57.353418 16234 net.cpp:165] Memory required for data: 203310784
I0217 22:03:57.353433 16234 layer_factory.hpp:77] Creating layer relu4_2
I0217 22:03:57.353444 16234 net.cpp:100] Creating Layer relu4_2
I0217 22:03:57.353449 16234 net.cpp:434] relu4_2 <- conv4_2
I0217 22:03:57.353456 16234 net.cpp:395] relu4_2 -> conv4_2 (in-place)
I0217 22:03:57.353652 16234 net.cpp:150] Setting up relu4_2
I0217 22:03:57.353663 16234 net.cpp:157] Top shape: 1 512 38 38 (739328)
I0217 22:03:57.353667 16234 net.cpp:165] Memory required for data: 206268096
I0217 22:03:57.353672 16234 layer_factory.hpp:77] Creating layer conv4_3
I0217 22:03:57.353682 16234 net.cpp:100] Creating Layer conv4_3
I0217 22:03:57.353687 16234 net.cpp:434] conv4_3 <- conv4_2
I0217 22:03:57.353693 16234 net.cpp:408] conv4_3 -> conv4_3
I0217 22:03:57.375463 16234 net.cpp:150] Setting up conv4_3
I0217 22:03:57.375496 16234 net.cpp:157] Top shape: 1 512 38 38 (739328)
I0217 22:03:57.375501 16234 net.cpp:165] Memory required for data: 209225408
I0217 22:03:57.375510 16234 layer_factory.hpp:77] Creating layer relu4_3
I0217 22:03:57.375521 16234 net.cpp:100] Creating Layer relu4_3
I0217 22:03:57.375527 16234 net.cpp:434] relu4_3 <- conv4_3
I0217 22:03:57.375535 16234 net.cpp:395] relu4_3 -> conv4_3 (in-place)
I0217 22:03:57.375879 16234 net.cpp:150] Setting up relu4_3
I0217 22:03:57.375893 16234 net.cpp:157] Top shape: 1 512 38 38 (739328)
I0217 22:03:57.375897 16234 net.cpp:165] Memory required for data: 212182720
I0217 22:03:57.375902 16234 layer_factory.hpp:77] Creating layer conv4_3_relu4_3_0_split
I0217 22:03:57.375910 16234 net.cpp:100] Creating Layer conv4_3_relu4_3_0_split
I0217 22:03:57.375913 16234 net.cpp:434] conv4_3_relu4_3_0_split <- conv4_3
I0217 22:03:57.375919 16234 net.cpp:408] conv4_3_relu4_3_0_split -> conv4_3_relu4_3_0_split_0
I0217 22:03:57.375927 16234 net.cpp:408] conv4_3_relu4_3_0_split -> conv4_3_relu4_3_0_split_1
I0217 22:03:57.375988 16234 net.cpp:150] Setting up conv4_3_relu4_3_0_split
I0217 22:03:57.375995 16234 net.cpp:157] Top shape: 1 512 38 38 (739328)
I0217 22:03:57.376000 16234 net.cpp:157] Top shape: 1 512 38 38 (739328)
I0217 22:03:57.376003 16234 net.cpp:165] Memory required for data: 218097344
I0217 22:03:57.376008 16234 layer_factory.hpp:77] Creating layer pool4
I0217 22:03:57.376015 16234 net.cpp:100] Creating Layer pool4
I0217 22:03:57.376037 16234 net.cpp:434] pool4 <- conv4_3_relu4_3_0_split_0
I0217 22:03:57.376045 16234 net.cpp:408] pool4 -> pool4
I0217 22:03:57.376099 16234 net.cpp:150] Setting up pool4
I0217 22:03:57.376108 16234 net.cpp:157] Top shape: 1 512 19 19 (184832)
I0217 22:03:57.376112 16234 net.cpp:165] Memory required for data: 218836672
I0217 22:03:57.376116 16234 layer_factory.hpp:77] Creating layer conv5_1
I0217 22:03:57.376128 16234 net.cpp:100] Creating Layer conv5_1
I0217 22:03:57.376132 16234 net.cpp:434] conv5_1 <- pool4
I0217 22:03:57.376139 16234 net.cpp:408] conv5_1 -> conv5_1
I0217 22:03:57.398104 16234 net.cpp:150] Setting up conv5_1
I0217 22:03:57.398136 16234 net.cpp:157] Top shape: 1 512 19 19 (184832)
I0217 22:03:57.398142 16234 net.cpp:165] Memory required for data: 219576000
I0217 22:03:57.398151 16234 layer_factory.hpp:77] Creating layer relu5_1
I0217 22:03:57.398162 16234 net.cpp:100] Creating Layer relu5_1
I0217 22:03:57.398169 16234 net.cpp:434] relu5_1 <- conv5_1
I0217 22:03:57.398176 16234 net.cpp:395] relu5_1 -> conv5_1 (in-place)
I0217 22:03:57.398386 16234 net.cpp:150] Setting up relu5_1
I0217 22:03:57.398398 16234 net.cpp:157] Top shape: 1 512 19 19 (184832)
I0217 22:03:57.398402 16234 net.cpp:165] Memory required for data: 220315328
I0217 22:03:57.398406 16234 layer_factory.hpp:77] Creating layer conv5_2
I0217 22:03:57.398419 16234 net.cpp:100] Creating Layer conv5_2
I0217 22:03:57.398423 16234 net.cpp:434] conv5_2 <- conv5_1
I0217 22:03:57.398432 16234 net.cpp:408] conv5_2 -> conv5_2
I0217 22:03:57.419950 16234 net.cpp:150] Setting up conv5_2
I0217 22:03:57.419981 16234 net.cpp:157] Top shape: 1 512 19 19 (184832)
I0217 22:03:57.419986 16234 net.cpp:165] Memory required for data: 221054656
I0217 22:03:57.419996 16234 layer_factory.hpp:77] Creating layer relu5_2
I0217 22:03:57.420006 16234 net.cpp:100] Creating Layer relu5_2
I0217 22:03:57.420011 16234 net.cpp:434] relu5_2 <- conv5_2
I0217 22:03:57.420020 16234 net.cpp:395] relu5_2 -> conv5_2 (in-place)
I0217 22:03:57.420231 16234 net.cpp:150] Setting up relu5_2
I0217 22:03:57.420245 16234 net.cpp:157] Top shape: 1 512 19 19 (184832)
I0217 22:03:57.420249 16234 net.cpp:165] Memory required for data: 221793984
I0217 22:03:57.420253 16234 layer_factory.hpp:77] Creating layer conv5_3
I0217 22:03:57.420266 16234 net.cpp:100] Creating Layer conv5_3
I0217 22:03:57.420270 16234 net.cpp:434] conv5_3 <- conv5_2
I0217 22:03:57.420277 16234 net.cpp:408] conv5_3 -> conv5_3
I0217 22:03:57.441839 16234 net.cpp:150] Setting up conv5_3
I0217 22:03:57.441870 16234 net.cpp:157] Top shape: 1 512 19 19 (184832)
I0217 22:03:57.441875 16234 net.cpp:165] Memory required for data: 222533312
I0217 22:03:57.441884 16234 layer_factory.hpp:77] Creating layer relu5_3
I0217 22:03:57.441900 16234 net.cpp:100] Creating Layer relu5_3
I0217 22:03:57.441905 16234 net.cpp:434] relu5_3 <- conv5_3
I0217 22:03:57.441913 16234 net.cpp:395] relu5_3 -> conv5_3 (in-place)
I0217 22:03:57.442278 16234 net.cpp:150] Setting up relu5_3
I0217 22:03:57.442293 16234 net.cpp:157] Top shape: 1 512 19 19 (184832)
I0217 22:03:57.442297 16234 net.cpp:165] Memory required for data: 223272640
I0217 22:03:57.442301 16234 layer_factory.hpp:77] Creating layer pool5
I0217 22:03:57.442311 16234 net.cpp:100] Creating Layer pool5
I0217 22:03:57.442314 16234 net.cpp:434] pool5 <- conv5_3
I0217 22:03:57.442320 16234 net.cpp:408] pool5 -> pool5
I0217 22:03:57.442384 16234 net.cpp:150] Setting up pool5
I0217 22:03:57.442394 16234 net.cpp:157] Top shape: 1 512 19 19 (184832)
I0217 22:03:57.442397 16234 net.cpp:165] Memory required for data: 224011968
I0217 22:03:57.442400 16234 layer_factory.hpp:77] Creating layer fc6
I0217 22:03:57.442414 16234 net.cpp:100] Creating Layer fc6
I0217 22:03:57.442417 16234 net.cpp:434] fc6 <- pool5
I0217 22:03:57.442425 16234 net.cpp:408] fc6 -> fc6
I0217 22:03:57.483510 16234 net.cpp:150] Setting up fc6
I0217 22:03:57.483537 16234 net.cpp:157] Top shape: 1 1024 19 19 (369664)
I0217 22:03:57.483542 16234 net.cpp:165] Memory required for data: 225490624
I0217 22:03:57.483567 16234 layer_factory.hpp:77] Creating layer relu6
I0217 22:03:57.483579 16234 net.cpp:100] Creating Layer relu6
I0217 22:03:57.483585 16234 net.cpp:434] relu6 <- fc6
I0217 22:03:57.483594 16234 net.cpp:395] relu6 -> fc6 (in-place)
I0217 22:03:57.483849 16234 net.cpp:150] Setting up relu6
I0217 22:03:57.483862 16234 net.cpp:157] Top shape: 1 1024 19 19 (369664)
I0217 22:03:57.483866 16234 net.cpp:165] Memory required for data: 226969280
I0217 22:03:57.483870 16234 layer_factory.hpp:77] Creating layer fc7
I0217 22:03:57.483883 16234 net.cpp:100] Creating Layer fc7
I0217 22:03:57.483888 16234 net.cpp:434] fc7 <- fc6
I0217 22:03:57.483894 16234 net.cpp:408] fc7 -> fc7
I0217 22:03:57.494233 16234 net.cpp:150] Setting up fc7
I0217 22:03:57.494256 16234 net.cpp:157] Top shape: 1 1024 19 19 (369664)
I0217 22:03:57.494261 16234 net.cpp:165] Memory required for data: 228447936
I0217 22:03:57.494269 16234 layer_factory.hpp:77] Creating layer relu7
I0217 22:03:57.494278 16234 net.cpp:100] Creating Layer relu7
I0217 22:03:57.494283 16234 net.cpp:434] relu7 <- fc7
I0217 22:03:57.494292 16234 net.cpp:395] relu7 -> fc7 (in-place)
I0217 22:03:57.494644 16234 net.cpp:150] Setting up relu7
I0217 22:03:57.494659 16234 net.cpp:157] Top shape: 1 1024 19 19 (369664)
I0217 22:03:57.494663 16234 net.cpp:165] Memory required for data: 229926592
I0217 22:03:57.494668 16234 layer_factory.hpp:77] Creating layer fc7_relu7_0_split
I0217 22:03:57.494675 16234 net.cpp:100] Creating Layer fc7_relu7_0_split
I0217 22:03:57.494679 16234 net.cpp:434] fc7_relu7_0_split <- fc7
I0217 22:03:57.494688 16234 net.cpp:408] fc7_relu7_0_split -> fc7_relu7_0_split_0
I0217 22:03:57.494695 16234 net.cpp:408] fc7_relu7_0_split -> fc7_relu7_0_split_1
I0217 22:03:57.494706 16234 net.cpp:408] fc7_relu7_0_split -> fc7_relu7_0_split_2
I0217 22:03:57.494714 16234 net.cpp:408] fc7_relu7_0_split -> fc7_relu7_0_split_3
I0217 22:03:57.494808 16234 net.cpp:150] Setting up fc7_relu7_0_split
I0217 22:03:57.494817 16234 net.cpp:157] Top shape: 1 1024 19 19 (369664)
I0217 22:03:57.494822 16234 net.cpp:157] Top shape: 1 1024 19 19 (369664)
I0217 22:03:57.494827 16234 net.cpp:157] Top shape: 1 1024 19 19 (369664)
I0217 22:03:57.494830 16234 net.cpp:157] Top shape: 1 1024 19 19 (369664)
I0217 22:03:57.494834 16234 net.cpp:165] Memory required for data: 235841216
I0217 22:03:57.494837 16234 layer_factory.hpp:77] Creating layer conv6_1
I0217 22:03:57.494849 16234 net.cpp:100] Creating Layer conv6_1
I0217 22:03:57.494854 16234 net.cpp:434] conv6_1 <- fc7_relu7_0_split_0
I0217 22:03:57.494863 16234 net.cpp:408] conv6_1 -> conv6_1
I0217 22:03:57.498316 16234 net.cpp:150] Setting up conv6_1
I0217 22:03:57.498332 16234 net.cpp:157] Top shape: 1 256 19 19 (92416)
I0217 22:03:57.498337 16234 net.cpp:165] Memory required for data: 236210880
I0217 22:03:57.498343 16234 layer_factory.hpp:77] Creating layer conv6_1_relu
I0217 22:03:57.498353 16234 net.cpp:100] Creating Layer conv6_1_relu
I0217 22:03:57.498358 16234 net.cpp:434] conv6_1_relu <- conv6_1
I0217 22:03:57.498363 16234 net.cpp:395] conv6_1_relu -> conv6_1 (in-place)
I0217 22:03:57.498723 16234 net.cpp:150] Setting up conv6_1_relu
I0217 22:03:57.498739 16234 net.cpp:157] Top shape: 1 256 19 19 (92416)
I0217 22:03:57.498742 16234 net.cpp:165] Memory required for data: 236580544
I0217 22:03:57.498746 16234 layer_factory.hpp:77] Creating layer conv6_2
I0217 22:03:57.498759 16234 net.cpp:100] Creating Layer conv6_2
I0217 22:03:57.498764 16234 net.cpp:434] conv6_2 <- conv6_1
I0217 22:03:57.498770 16234 net.cpp:408] conv6_2 -> conv6_2
I0217 22:03:57.510135 16234 net.cpp:150] Setting up conv6_2
I0217 22:03:57.510160 16234 net.cpp:157] Top shape: 1 512 10 10 (51200)
I0217 22:03:57.510165 16234 net.cpp:165] Memory required for data: 236785344
I0217 22:03:57.510181 16234 layer_factory.hpp:77] Creating layer conv6_2_relu
I0217 22:03:57.510191 16234 net.cpp:100] Creating Layer conv6_2_relu
I0217 22:03:57.510196 16234 net.cpp:434] conv6_2_relu <- conv6_2
I0217 22:03:57.510202 16234 net.cpp:395] conv6_2_relu -> conv6_2 (in-place)
I0217 22:03:57.510421 16234 net.cpp:150] Setting up conv6_2_relu
I0217 22:03:57.510433 16234 net.cpp:157] Top shape: 1 512 10 10 (51200)
I0217 22:03:57.510437 16234 net.cpp:165] Memory required for data: 236990144
I0217 22:03:57.510442 16234 layer_factory.hpp:77] Creating layer conv6_2_conv6_2_relu_0_split
I0217 22:03:57.510450 16234 net.cpp:100] Creating Layer conv6_2_conv6_2_relu_0_split
I0217 22:03:57.510454 16234 net.cpp:434] conv6_2_conv6_2_relu_0_split <- conv6_2
I0217 22:03:57.510462 16234 net.cpp:408] conv6_2_conv6_2_relu_0_split -> conv6_2_conv6_2_relu_0_split_0
I0217 22:03:57.510469 16234 net.cpp:408] conv6_2_conv6_2_relu_0_split -> conv6_2_conv6_2_relu_0_split_1
I0217 22:03:57.510476 16234 net.cpp:408] conv6_2_conv6_2_relu_0_split -> conv6_2_conv6_2_relu_0_split_2
I0217 22:03:57.510483 16234 net.cpp:408] conv6_2_conv6_2_relu_0_split -> conv6_2_conv6_2_relu_0_split_3
I0217 22:03:57.510586 16234 net.cpp:150] Setting up conv6_2_conv6_2_relu_0_split
I0217 22:03:57.510596 16234 net.cpp:157] Top shape: 1 512 10 10 (51200)
I0217 22:03:57.510601 16234 net.cpp:157] Top shape: 1 512 10 10 (51200)
I0217 22:03:57.510606 16234 net.cpp:157] Top shape: 1 512 10 10 (51200)
I0217 22:03:57.510609 16234 net.cpp:157] Top shape: 1 512 10 10 (51200)
I0217 22:03:57.510612 16234 net.cpp:165] Memory required for data: 237809344
I0217 22:03:57.510617 16234 layer_factory.hpp:77] Creating layer conv7_1
I0217 22:03:57.510627 16234 net.cpp:100] Creating Layer conv7_1
I0217 22:03:57.510632 16234 net.cpp:434] conv7_1 <- conv6_2_conv6_2_relu_0_split_0
I0217 22:03:57.510639 16234 net.cpp:408] conv7_1 -> conv7_1
I0217 22:03:57.512809 16234 net.cpp:150] Setting up conv7_1
I0217 22:03:57.512825 16234 net.cpp:157] Top shape: 1 128 10 10 (12800)
I0217 22:03:57.512830 16234 net.cpp:165] Memory required for data: 237860544
I0217 22:03:57.512836 16234 layer_factory.hpp:77] Creating layer conv7_1_relu
I0217 22:03:57.512845 16234 net.cpp:100] Creating Layer conv7_1_relu
I0217 22:03:57.512850 16234 net.cpp:434] conv7_1_relu <- conv7_1
I0217 22:03:57.512856 16234 net.cpp:395] conv7_1_relu -> conv7_1 (in-place)
I0217 22:03:57.513200 16234 net.cpp:150] Setting up conv7_1_relu
I0217 22:03:57.513216 16234 net.cpp:157] Top shape: 1 128 10 10 (12800)
I0217 22:03:57.513219 16234 net.cpp:165] Memory required for data: 237911744
I0217 22:03:57.513223 16234 layer_factory.hpp:77] Creating layer conv7_2
I0217 22:03:57.513236 16234 net.cpp:100] Creating Layer conv7_2
I0217 22:03:57.513240 16234 net.cpp:434] conv7_2 <- conv7_1
I0217 22:03:57.513247 16234 net.cpp:408] conv7_2 -> conv7_2
I0217 22:03:57.517508 16234 net.cpp:150] Setting up conv7_2
I0217 22:03:57.517526 16234 net.cpp:157] Top shape: 1 256 5 5 (6400)
I0217 22:03:57.517530 16234 net.cpp:165] Memory required for data: 237937344
I0217 22:03:57.517537 16234 layer_factory.hpp:77] Creating layer conv7_2_relu
I0217 22:03:57.517546 16234 net.cpp:100] Creating Layer conv7_2_relu
I0217 22:03:57.517550 16234 net.cpp:434] conv7_2_relu <- conv7_2
I0217 22:03:57.517556 16234 net.cpp:395] conv7_2_relu -> conv7_2 (in-place)
I0217 22:03:57.517910 16234 net.cpp:150] Setting up conv7_2_relu
I0217 22:03:57.517925 16234 net.cpp:157] Top shape: 1 256 5 5 (6400)
I0217 22:03:57.517930 16234 net.cpp:165] Memory required for data: 237962944
I0217 22:03:57.517933 16234 layer_factory.hpp:77] Creating layer conv7_2_conv7_2_relu_0_split
I0217 22:03:57.517941 16234 net.cpp:100] Creating Layer conv7_2_conv7_2_relu_0_split
I0217 22:03:57.517946 16234 net.cpp:434] conv7_2_conv7_2_relu_0_split <- conv7_2
I0217 22:03:57.517951 16234 net.cpp:408] conv7_2_conv7_2_relu_0_split -> conv7_2_conv7_2_relu_0_split_0
I0217 22:03:57.517961 16234 net.cpp:408] conv7_2_conv7_2_relu_0_split -> conv7_2_conv7_2_relu_0_split_1
I0217 22:03:57.517967 16234 net.cpp:408] conv7_2_conv7_2_relu_0_split -> conv7_2_conv7_2_relu_0_split_2
I0217 22:03:57.517973 16234 net.cpp:408] conv7_2_conv7_2_relu_0_split -> conv7_2_conv7_2_relu_0_split_3
I0217 22:03:57.518074 16234 net.cpp:150] Setting up conv7_2_conv7_2_relu_0_split
I0217 22:03:57.518082 16234 net.cpp:157] Top shape: 1 256 5 5 (6400)
I0217 22:03:57.518105 16234 net.cpp:157] Top shape: 1 256 5 5 (6400)
I0217 22:03:57.518110 16234 net.cpp:157] Top shape: 1 256 5 5 (6400)
I0217 22:03:57.518113 16234 net.cpp:157] Top shape: 1 256 5 5 (6400)
I0217 22:03:57.518116 16234 net.cpp:165] Memory required for data: 238065344
I0217 22:03:57.518121 16234 layer_factory.hpp:77] Creating layer conv8_1
I0217 22:03:57.518132 16234 net.cpp:100] Creating Layer conv8_1
I0217 22:03:57.518136 16234 net.cpp:434] conv8_1 <- conv7_2_conv7_2_relu_0_split_0
I0217 22:03:57.518143 16234 net.cpp:408] conv8_1 -> conv8_1
I0217 22:03:57.519634 16234 net.cpp:150] Setting up conv8_1
I0217 22:03:57.519650 16234 net.cpp:157] Top shape: 1 128 5 5 (3200)
I0217 22:03:57.519654 16234 net.cpp:165] Memory required for data: 238078144
I0217 22:03:57.519661 16234 layer_factory.hpp:77] Creating layer conv8_1_relu
I0217 22:03:57.519670 16234 net.cpp:100] Creating Layer conv8_1_relu
I0217 22:03:57.519675 16234 net.cpp:434] conv8_1_relu <- conv8_1
I0217 22:03:57.519680 16234 net.cpp:395] conv8_1_relu -> conv8_1 (in-place)
I0217 22:03:57.519881 16234 net.cpp:150] Setting up conv8_1_relu
I0217 22:03:57.519891 16234 net.cpp:157] Top shape: 1 128 5 5 (3200)
I0217 22:03:57.519896 16234 net.cpp:165] Memory required for data: 238090944
I0217 22:03:57.519899 16234 layer_factory.hpp:77] Creating layer conv8_2
I0217 22:03:57.519912 16234 net.cpp:100] Creating Layer conv8_2
I0217 22:03:57.519917 16234 net.cpp:434] conv8_2 <- conv8_1
I0217 22:03:57.519922 16234 net.cpp:408] conv8_2 -> conv8_2
I0217 22:03:57.524085 16234 net.cpp:150] Setting up conv8_2
I0217 22:03:57.524101 16234 net.cpp:157] Top shape: 1 256 3 3 (2304)
I0217 22:03:57.524106 16234 net.cpp:165] Memory required for data: 238100160
I0217 22:03:57.524113 16234 layer_factory.hpp:77] Creating layer conv8_2_relu
I0217 22:03:57.524121 16234 net.cpp:100] Creating Layer conv8_2_relu
I0217 22:03:57.524127 16234 net.cpp:434] conv8_2_relu <- conv8_2
I0217 22:03:57.524132 16234 net.cpp:395] conv8_2_relu -> conv8_2 (in-place)
I0217 22:03:57.524484 16234 net.cpp:150] Setting up conv8_2_relu
I0217 22:03:57.524499 16234 net.cpp:157] Top shape: 1 256 3 3 (2304)
I0217 22:03:57.524503 16234 net.cpp:165] Memory required for data: 238109376
I0217 22:03:57.524507 16234 layer_factory.hpp:77] Creating layer conv8_2_conv8_2_relu_0_split
I0217 22:03:57.524515 16234 net.cpp:100] Creating Layer conv8_2_conv8_2_relu_0_split
I0217 22:03:57.524520 16234 net.cpp:434] conv8_2_conv8_2_relu_0_split <- conv8_2
I0217 22:03:57.524526 16234 net.cpp:408] conv8_2_conv8_2_relu_0_split -> conv8_2_conv8_2_relu_0_split_0
I0217 22:03:57.524535 16234 net.cpp:408] conv8_2_conv8_2_relu_0_split -> conv8_2_conv8_2_relu_0_split_1
I0217 22:03:57.524541 16234 net.cpp:408] conv8_2_conv8_2_relu_0_split -> conv8_2_conv8_2_relu_0_split_2
I0217 22:03:57.524547 16234 net.cpp:408] conv8_2_conv8_2_relu_0_split -> conv8_2_conv8_2_relu_0_split_3
I0217 22:03:57.524647 16234 net.cpp:150] Setting up conv8_2_conv8_2_relu_0_split
I0217 22:03:57.524657 16234 net.cpp:157] Top shape: 1 256 3 3 (2304)
I0217 22:03:57.524662 16234 net.cpp:157] Top shape: 1 256 3 3 (2304)
I0217 22:03:57.524665 16234 net.cpp:157] Top shape: 1 256 3 3 (2304)
I0217 22:03:57.524669 16234 net.cpp:157] Top shape: 1 256 3 3 (2304)
I0217 22:03:57.524672 16234 net.cpp:165] Memory required for data: 238146240
I0217 22:03:57.524677 16234 layer_factory.hpp:77] Creating layer conv9_1
I0217 22:03:57.524687 16234 net.cpp:100] Creating Layer conv9_1
I0217 22:03:57.524691 16234 net.cpp:434] conv9_1 <- conv8_2_conv8_2_relu_0_split_0
I0217 22:03:57.524699 16234 net.cpp:408] conv9_1 -> conv9_1
I0217 22:03:57.526039 16234 net.cpp:150] Setting up conv9_1
I0217 22:03:57.526054 16234 net.cpp:157] Top shape: 1 128 3 3 (1152)
I0217 22:03:57.526058 16234 net.cpp:165] Memory required for data: 238150848
I0217 22:03:57.526065 16234 layer_factory.hpp:77] Creating layer conv9_1_relu
I0217 22:03:57.526073 16234 net.cpp:100] Creating Layer conv9_1_relu
I0217 22:03:57.526078 16234 net.cpp:434] conv9_1_relu <- conv9_1
I0217 22:03:57.526084 16234 net.cpp:395] conv9_1_relu -> conv9_1 (in-place)
I0217 22:03:57.526450 16234 net.cpp:150] Setting up conv9_1_relu
I0217 22:03:57.526465 16234 net.cpp:157] Top shape: 1 128 3 3 (1152)
I0217 22:03:57.526469 16234 net.cpp:165] Memory required for data: 238155456
I0217 22:03:57.526473 16234 layer_factory.hpp:77] Creating layer conv9_2
I0217 22:03:57.526485 16234 net.cpp:100] Creating Layer conv9_2
I0217 22:03:57.526490 16234 net.cpp:434] conv9_2 <- conv9_1
I0217 22:03:57.526497 16234 net.cpp:408] conv9_2 -> conv9_2
I0217 22:03:57.530386 16234 net.cpp:150] Setting up conv9_2
I0217 22:03:57.530403 16234 net.cpp:157] Top shape: 1 256 1 1 (256)
I0217 22:03:57.530407 16234 net.cpp:165] Memory required for data: 238156480
I0217 22:03:57.530414 16234 layer_factory.hpp:77] Creating layer conv9_2_relu
I0217 22:03:57.530421 16234 net.cpp:100] Creating Layer conv9_2_relu
I0217 22:03:57.530426 16234 net.cpp:434] conv9_2_relu <- conv9_2
I0217 22:03:57.530433 16234 net.cpp:395] conv9_2_relu -> conv9_2 (in-place)
I0217 22:03:57.530645 16234 net.cpp:150] Setting up conv9_2_relu
I0217 22:03:57.530658 16234 net.cpp:157] Top shape: 1 256 1 1 (256)
I0217 22:03:57.530661 16234 net.cpp:165] Memory required for data: 238157504
I0217 22:03:57.530665 16234 layer_factory.hpp:77] Creating layer conv9_2_conv9_2_relu_0_split
I0217 22:03:57.530673 16234 net.cpp:100] Creating Layer conv9_2_conv9_2_relu_0_split
I0217 22:03:57.530678 16234 net.cpp:434] conv9_2_conv9_2_relu_0_split <- conv9_2
I0217 22:03:57.530683 16234 net.cpp:408] conv9_2_conv9_2_relu_0_split -> conv9_2_conv9_2_relu_0_split_0
I0217 22:03:57.530690 16234 net.cpp:408] conv9_2_conv9_2_relu_0_split -> conv9_2_conv9_2_relu_0_split_1
I0217 22:03:57.530704 16234 net.cpp:408] conv9_2_conv9_2_relu_0_split -> conv9_2_conv9_2_relu_0_split_2
I0217 22:03:57.530783 16234 net.cpp:150] Setting up conv9_2_conv9_2_relu_0_split
I0217 22:03:57.530792 16234 net.cpp:157] Top shape: 1 256 1 1 (256)
I0217 22:03:57.530797 16234 net.cpp:157] Top shape: 1 256 1 1 (256)
I0217 22:03:57.530802 16234 net.cpp:157] Top shape: 1 256 1 1 (256)
I0217 22:03:57.530804 16234 net.cpp:165] Memory required for data: 238160576
I0217 22:03:57.530808 16234 layer_factory.hpp:77] Creating layer conv4_3_norm
I0217 22:03:57.530817 16234 net.cpp:100] Creating Layer conv4_3_norm
I0217 22:03:57.530822 16234 net.cpp:434] conv4_3_norm <- conv4_3_relu4_3_0_split_1
I0217 22:03:57.530827 16234 net.cpp:408] conv4_3_norm -> conv4_3_norm
I0217 22:03:57.531054 16234 net.cpp:150] Setting up conv4_3_norm
I0217 22:03:57.531064 16234 net.cpp:157] Top shape: 1 512 38 38 (739328)
I0217 22:03:57.531067 16234 net.cpp:165] Memory required for data: 241117888
I0217 22:03:57.531074 16234 layer_factory.hpp:77] Creating layer conv4_3_norm_conv4_3_norm_0_split
I0217 22:03:57.531080 16234 net.cpp:100] Creating Layer conv4_3_norm_conv4_3_norm_0_split
I0217 22:03:57.531085 16234 net.cpp:434] conv4_3_norm_conv4_3_norm_0_split <- conv4_3_norm
I0217 22:03:57.531090 16234 net.cpp:408] conv4_3_norm_conv4_3_norm_0_split -> conv4_3_norm_conv4_3_norm_0_split_0
I0217 22:03:57.531095 16234 net.cpp:408] conv4_3_norm_conv4_3_norm_0_split -> conv4_3_norm_conv4_3_norm_0_split_1
I0217 22:03:57.531101 16234 net.cpp:408] conv4_3_norm_conv4_3_norm_0_split -> conv4_3_norm_conv4_3_norm_0_split_2
I0217 22:03:57.531168 16234 net.cpp:150] Setting up conv4_3_norm_conv4_3_norm_0_split
I0217 22:03:57.531177 16234 net.cpp:157] Top shape: 1 512 38 38 (739328)
I0217 22:03:57.531182 16234 net.cpp:157] Top shape: 1 512 38 38 (739328)
I0217 22:03:57.531185 16234 net.cpp:157] Top shape: 1 512 38 38 (739328)
I0217 22:03:57.531189 16234 net.cpp:165] Memory required for data: 249989824
I0217 22:03:57.531193 16234 layer_factory.hpp:77] Creating layer conv4_3_norm_mbox_loc
I0217 22:03:57.531203 16234 net.cpp:100] Creating Layer conv4_3_norm_mbox_loc
I0217 22:03:57.531206 16234 net.cpp:434] conv4_3_norm_mbox_loc <- conv4_3_norm_conv4_3_norm_0_split_0
I0217 22:03:57.531213 16234 net.cpp:408] conv4_3_norm_mbox_loc -> conv4_3_norm_mbox_loc
I0217 22:03:57.533046 16234 net.cpp:150] Setting up conv4_3_norm_mbox_loc
I0217 22:03:57.533073 16234 net.cpp:157] Top shape: 1 16 38 38 (23104)
I0217 22:03:57.533078 16234 net.cpp:165] Memory required for data: 250082240
I0217 22:03:57.533087 16234 layer_factory.hpp:77] Creating layer conv4_3_norm_mbox_loc_perm
I0217 22:03:57.533095 16234 net.cpp:100] Creating Layer conv4_3_norm_mbox_loc_perm
I0217 22:03:57.533100 16234 net.cpp:434] conv4_3_norm_mbox_loc_perm <- conv4_3_norm_mbox_loc
I0217 22:03:57.533107 16234 net.cpp:408] conv4_3_norm_mbox_loc_perm -> conv4_3_norm_mbox_loc_perm
I0217 22:03:57.533260 16234 net.cpp:150] Setting up conv4_3_norm_mbox_loc_perm
I0217 22:03:57.533272 16234 net.cpp:157] Top shape: 1 38 38 16 (23104)
I0217 22:03:57.533275 16234 net.cpp:165] Memory required for data: 250174656
I0217 22:03:57.533279 16234 layer_factory.hpp:77] Creating layer conv4_3_norm_mbox_loc_flat
I0217 22:03:57.533287 16234 net.cpp:100] Creating Layer conv4_3_norm_mbox_loc_flat
I0217 22:03:57.533290 16234 net.cpp:434] conv4_3_norm_mbox_loc_flat <- conv4_3_norm_mbox_loc_perm
I0217 22:03:57.533295 16234 net.cpp:408] conv4_3_norm_mbox_loc_flat -> conv4_3_norm_mbox_loc_flat
I0217 22:03:57.533340 16234 net.cpp:150] Setting up conv4_3_norm_mbox_loc_flat
I0217 22:03:57.533349 16234 net.cpp:157] Top shape: 1 23104 (23104)
I0217 22:03:57.533354 16234 net.cpp:165] Memory required for data: 250267072
I0217 22:03:57.533356 16234 layer_factory.hpp:77] Creating layer conv4_3_norm_mbox_conf
I0217 22:03:57.533373 16234 net.cpp:100] Creating Layer conv4_3_norm_mbox_conf
I0217 22:03:57.533377 16234 net.cpp:434] conv4_3_norm_mbox_conf <- conv4_3_norm_conv4_3_norm_0_split_1
I0217 22:03:57.533385 16234 net.cpp:408] conv4_3_norm_mbox_conf -> conv4_3_norm_mbox_conf
I0217 22:03:57.538249 16234 net.cpp:150] Setting up conv4_3_norm_mbox_conf
I0217 22:03:57.538266 16234 net.cpp:157] Top shape: 1 88 38 38 (127072)
I0217 22:03:57.538271 16234 net.cpp:165] Memory required for data: 250775360
I0217 22:03:57.538278 16234 layer_factory.hpp:77] Creating layer conv4_3_norm_mbox_conf_perm
I0217 22:03:57.538287 16234 net.cpp:100] Creating Layer conv4_3_norm_mbox_conf_perm
I0217 22:03:57.538293 16234 net.cpp:434] conv4_3_norm_mbox_conf_perm <- conv4_3_norm_mbox_conf
I0217 22:03:57.538300 16234 net.cpp:408] conv4_3_norm_mbox_conf_perm -> conv4_3_norm_mbox_conf_perm
I0217 22:03:57.538455 16234 net.cpp:150] Setting up conv4_3_norm_mbox_conf_perm
I0217 22:03:57.538463 16234 net.cpp:157] Top shape: 1 38 38 88 (127072)
I0217 22:03:57.538467 16234 net.cpp:165] Memory required for data: 251283648
I0217 22:03:57.538471 16234 layer_factory.hpp:77] Creating layer conv4_3_norm_mbox_conf_flat
I0217 22:03:57.538480 16234 net.cpp:100] Creating Layer conv4_3_norm_mbox_conf_flat
I0217 22:03:57.538485 16234 net.cpp:434] conv4_3_norm_mbox_conf_flat <- conv4_3_norm_mbox_conf_perm
I0217 22:03:57.538491 16234 net.cpp:408] conv4_3_norm_mbox_conf_flat -> conv4_3_norm_mbox_conf_flat
I0217 22:03:57.538529 16234 net.cpp:150] Setting up conv4_3_norm_mbox_conf_flat
I0217 22:03:57.538540 16234 net.cpp:157] Top shape: 1 127072 (127072)
I0217 22:03:57.538543 16234 net.cpp:165] Memory required for data: 251791936
I0217 22:03:57.538547 16234 layer_factory.hpp:77] Creating layer conv4_3_norm_mbox_priorbox
I0217 22:03:57.538555 16234 net.cpp:100] Creating Layer conv4_3_norm_mbox_priorbox
I0217 22:03:57.538559 16234 net.cpp:434] conv4_3_norm_mbox_priorbox <- conv4_3_norm_conv4_3_norm_0_split_2
I0217 22:03:57.538565 16234 net.cpp:434] conv4_3_norm_mbox_priorbox <- data_data_0_split_1
I0217 22:03:57.538573 16234 net.cpp:408] conv4_3_norm_mbox_priorbox -> conv4_3_norm_mbox_priorbox
I0217 22:03:57.538609 16234 net.cpp:150] Setting up conv4_3_norm_mbox_priorbox
I0217 22:03:57.538619 16234 net.cpp:157] Top shape: 1 2 23104 (46208)
I0217 22:03:57.538621 16234 net.cpp:165] Memory required for data: 251976768
I0217 22:03:57.538625 16234 layer_factory.hpp:77] Creating layer fc7_mbox_loc
I0217 22:03:57.538640 16234 net.cpp:100] Creating Layer fc7_mbox_loc
I0217 22:03:57.538646 16234 net.cpp:434] fc7_mbox_loc <- fc7_relu7_0_split_1
I0217 22:03:57.538652 16234 net.cpp:408] fc7_mbox_loc -> fc7_mbox_loc
I0217 22:03:57.542114 16234 net.cpp:150] Setting up fc7_mbox_loc
I0217 22:03:57.542130 16234 net.cpp:157] Top shape: 1 24 19 19 (8664)
I0217 22:03:57.542135 16234 net.cpp:165] Memory required for data: 252011424
I0217 22:03:57.542141 16234 layer_factory.hpp:77] Creating layer fc7_mbox_loc_perm
I0217 22:03:57.542150 16234 net.cpp:100] Creating Layer fc7_mbox_loc_perm
I0217 22:03:57.542156 16234 net.cpp:434] fc7_mbox_loc_perm <- fc7_mbox_loc
I0217 22:03:57.542165 16234 net.cpp:408] fc7_mbox_loc_perm -> fc7_mbox_loc_perm
I0217 22:03:57.542315 16234 net.cpp:150] Setting up fc7_mbox_loc_perm
I0217 22:03:57.542325 16234 net.cpp:157] Top shape: 1 19 19 24 (8664)
I0217 22:03:57.542328 16234 net.cpp:165] Memory required for data: 252046080
I0217 22:03:57.542332 16234 layer_factory.hpp:77] Creating layer fc7_mbox_loc_flat
I0217 22:03:57.542340 16234 net.cpp:100] Creating Layer fc7_mbox_loc_flat
I0217 22:03:57.542345 16234 net.cpp:434] fc7_mbox_loc_flat <- fc7_mbox_loc_perm
I0217 22:03:57.542349 16234 net.cpp:408] fc7_mbox_loc_flat -> fc7_mbox_loc_flat
I0217 22:03:57.542384 16234 net.cpp:150] Setting up fc7_mbox_loc_flat
I0217 22:03:57.542392 16234 net.cpp:157] Top shape: 1 8664 (8664)
I0217 22:03:57.542395 16234 net.cpp:165] Memory required for data: 252080736
I0217 22:03:57.542399 16234 layer_factory.hpp:77] Creating layer fc7_mbox_conf
I0217 22:03:57.542410 16234 net.cpp:100] Creating Layer fc7_mbox_conf
I0217 22:03:57.542417 16234 net.cpp:434] fc7_mbox_conf <- fc7_relu7_0_split_2
I0217 22:03:57.542423 16234 net.cpp:408] fc7_mbox_conf -> fc7_mbox_conf
I0217 22:03:57.553941 16234 net.cpp:150] Setting up fc7_mbox_conf
I0217 22:03:57.553962 16234 net.cpp:157] Top shape: 1 132 19 19 (47652)
I0217 22:03:57.553967 16234 net.cpp:165] Memory required for data: 252271344
I0217 22:03:57.553975 16234 layer_factory.hpp:77] Creating layer fc7_mbox_conf_perm
I0217 22:03:57.553985 16234 net.cpp:100] Creating Layer fc7_mbox_conf_perm
I0217 22:03:57.553998 16234 net.cpp:434] fc7_mbox_conf_perm <- fc7_mbox_conf
I0217 22:03:57.554005 16234 net.cpp:408] fc7_mbox_conf_perm -> fc7_mbox_conf_perm
I0217 22:03:57.554163 16234 net.cpp:150] Setting up fc7_mbox_conf_perm
I0217 22:03:57.554173 16234 net.cpp:157] Top shape: 1 19 19 132 (47652)
I0217 22:03:57.554177 16234 net.cpp:165] Memory required for data: 252461952
I0217 22:03:57.554180 16234 layer_factory.hpp:77] Creating layer fc7_mbox_conf_flat
I0217 22:03:57.554186 16234 net.cpp:100] Creating Layer fc7_mbox_conf_flat
I0217 22:03:57.554191 16234 net.cpp:434] fc7_mbox_conf_flat <- fc7_mbox_conf_perm
I0217 22:03:57.554198 16234 net.cpp:408] fc7_mbox_conf_flat -> fc7_mbox_conf_flat
I0217 22:03:57.554232 16234 net.cpp:150] Setting up fc7_mbox_conf_flat
I0217 22:03:57.554240 16234 net.cpp:157] Top shape: 1 47652 (47652)
I0217 22:03:57.554244 16234 net.cpp:165] Memory required for data: 252652560
I0217 22:03:57.554247 16234 layer_factory.hpp:77] Creating layer fc7_mbox_priorbox
I0217 22:03:57.554257 16234 net.cpp:100] Creating Layer fc7_mbox_priorbox
I0217 22:03:57.554261 16234 net.cpp:434] fc7_mbox_priorbox <- fc7_relu7_0_split_3
I0217 22:03:57.554268 16234 net.cpp:434] fc7_mbox_priorbox <- data_data_0_split_2
I0217 22:03:57.554275 16234 net.cpp:408] fc7_mbox_priorbox -> fc7_mbox_priorbox
I0217 22:03:57.554312 16234 net.cpp:150] Setting up fc7_mbox_priorbox
I0217 22:03:57.554322 16234 net.cpp:157] Top shape: 1 2 8664 (17328)
I0217 22:03:57.554324 16234 net.cpp:165] Memory required for data: 252721872
I0217 22:03:57.554328 16234 layer_factory.hpp:77] Creating layer conv6_2_mbox_loc
I0217 22:03:57.554342 16234 net.cpp:100] Creating Layer conv6_2_mbox_loc
I0217 22:03:57.554347 16234 net.cpp:434] conv6_2_mbox_loc <- conv6_2_conv6_2_relu_0_split_1
I0217 22:03:57.554353 16234 net.cpp:408] conv6_2_mbox_loc -> conv6_2_mbox_loc
I0217 22:03:57.556934 16234 net.cpp:150] Setting up conv6_2_mbox_loc
I0217 22:03:57.556952 16234 net.cpp:157] Top shape: 1 24 10 10 (2400)
I0217 22:03:57.556957 16234 net.cpp:165] Memory required for data: 252731472
I0217 22:03:57.556964 16234 layer_factory.hpp:77] Creating layer conv6_2_mbox_loc_perm
I0217 22:03:57.556989 16234 net.cpp:100] Creating Layer conv6_2_mbox_loc_perm
I0217 22:03:57.556996 16234 net.cpp:434] conv6_2_mbox_loc_perm <- conv6_2_mbox_loc
I0217 22:03:57.557003 16234 net.cpp:408] conv6_2_mbox_loc_perm -> conv6_2_mbox_loc_perm
I0217 22:03:57.557158 16234 net.cpp:150] Setting up conv6_2_mbox_loc_perm
I0217 22:03:57.557168 16234 net.cpp:157] Top shape: 1 10 10 24 (2400)
I0217 22:03:57.557171 16234 net.cpp:165] Memory required for data: 252741072
I0217 22:03:57.557176 16234 layer_factory.hpp:77] Creating layer conv6_2_mbox_loc_flat
I0217 22:03:57.557184 16234 net.cpp:100] Creating Layer conv6_2_mbox_loc_flat
I0217 22:03:57.557188 16234 net.cpp:434] conv6_2_mbox_loc_flat <- conv6_2_mbox_loc_perm
I0217 22:03:57.557194 16234 net.cpp:408] conv6_2_mbox_loc_flat -> conv6_2_mbox_loc_flat
I0217 22:03:57.557229 16234 net.cpp:150] Setting up conv6_2_mbox_loc_flat
I0217 22:03:57.557238 16234 net.cpp:157] Top shape: 1 2400 (2400)
I0217 22:03:57.557241 16234 net.cpp:165] Memory required for data: 252750672
I0217 22:03:57.557245 16234 layer_factory.hpp:77] Creating layer conv6_2_mbox_conf
I0217 22:03:57.557257 16234 net.cpp:100] Creating Layer conv6_2_mbox_conf
I0217 22:03:57.557263 16234 net.cpp:434] conv6_2_mbox_conf <- conv6_2_conv6_2_relu_0_split_2
I0217 22:03:57.557271 16234 net.cpp:408] conv6_2_mbox_conf -> conv6_2_mbox_conf
I0217 22:03:57.564206 16234 net.cpp:150] Setting up conv6_2_mbox_conf
I0217 22:03:57.564229 16234 net.cpp:157] Top shape: 1 132 10 10 (13200)
I0217 22:03:57.564234 16234 net.cpp:165] Memory required for data: 252803472
I0217 22:03:57.564240 16234 layer_factory.hpp:77] Creating layer conv6_2_mbox_conf_perm
I0217 22:03:57.564249 16234 net.cpp:100] Creating Layer conv6_2_mbox_conf_perm
I0217 22:03:57.564254 16234 net.cpp:434] conv6_2_mbox_conf_perm <- conv6_2_mbox_conf
I0217 22:03:57.564260 16234 net.cpp:408] conv6_2_mbox_conf_perm -> conv6_2_mbox_conf_perm
I0217 22:03:57.564419 16234 net.cpp:150] Setting up conv6_2_mbox_conf_perm
I0217 22:03:57.564429 16234 net.cpp:157] Top shape: 1 10 10 132 (13200)
I0217 22:03:57.564432 16234 net.cpp:165] Memory required for data: 252856272
I0217 22:03:57.564436 16234 layer_factory.hpp:77] Creating layer conv6_2_mbox_conf_flat
I0217 22:03:57.564442 16234 net.cpp:100] Creating Layer conv6_2_mbox_conf_flat
I0217 22:03:57.564446 16234 net.cpp:434] conv6_2_mbox_conf_flat <- conv6_2_mbox_conf_perm
I0217 22:03:57.564453 16234 net.cpp:408] conv6_2_mbox_conf_flat -> conv6_2_mbox_conf_flat
I0217 22:03:57.564488 16234 net.cpp:150] Setting up conv6_2_mbox_conf_flat
I0217 22:03:57.564497 16234 net.cpp:157] Top shape: 1 13200 (13200)
I0217 22:03:57.564501 16234 net.cpp:165] Memory required for data: 252909072
I0217 22:03:57.564504 16234 layer_factory.hpp:77] Creating layer conv6_2_mbox_priorbox
I0217 22:03:57.564514 16234 net.cpp:100] Creating Layer conv6_2_mbox_priorbox
I0217 22:03:57.564520 16234 net.cpp:434] conv6_2_mbox_priorbox <- conv6_2_conv6_2_relu_0_split_3
I0217 22:03:57.564525 16234 net.cpp:434] conv6_2_mbox_priorbox <- data_data_0_split_3
I0217 22:03:57.564533 16234 net.cpp:408] conv6_2_mbox_priorbox -> conv6_2_mbox_priorbox
I0217 22:03:57.564571 16234 net.cpp:150] Setting up conv6_2_mbox_priorbox
I0217 22:03:57.564579 16234 net.cpp:157] Top shape: 1 2 2400 (4800)
I0217 22:03:57.564584 16234 net.cpp:165] Memory required for data: 252928272
I0217 22:03:57.564586 16234 layer_factory.hpp:77] Creating layer conv7_2_mbox_loc
I0217 22:03:57.564600 16234 net.cpp:100] Creating Layer conv7_2_mbox_loc
I0217 22:03:57.564605 16234 net.cpp:434] conv7_2_mbox_loc <- conv7_2_conv7_2_relu_0_split_1
I0217 22:03:57.564612 16234 net.cpp:408] conv7_2_mbox_loc -> conv7_2_mbox_loc
I0217 22:03:57.566465 16234 net.cpp:150] Setting up conv7_2_mbox_loc
I0217 22:03:57.566481 16234 net.cpp:157] Top shape: 1 24 5 5 (600)
I0217 22:03:57.566489 16234 net.cpp:165] Memory required for data: 252930672
I0217 22:03:57.566496 16234 layer_factory.hpp:77] Creating layer conv7_2_mbox_loc_perm
I0217 22:03:57.566504 16234 net.cpp:100] Creating Layer conv7_2_mbox_loc_perm
I0217 22:03:57.566529 16234 net.cpp:434] conv7_2_mbox_loc_perm <- conv7_2_mbox_loc
I0217 22:03:57.566539 16234 net.cpp:408] conv7_2_mbox_loc_perm -> conv7_2_mbox_loc_perm
I0217 22:03:57.566699 16234 net.cpp:150] Setting up conv7_2_mbox_loc_perm
I0217 22:03:57.566710 16234 net.cpp:157] Top shape: 1 5 5 24 (600)
I0217 22:03:57.566715 16234 net.cpp:165] Memory required for data: 252933072
I0217 22:03:57.566718 16234 layer_factory.hpp:77] Creating layer conv7_2_mbox_loc_flat
I0217 22:03:57.566725 16234 net.cpp:100] Creating Layer conv7_2_mbox_loc_flat
I0217 22:03:57.566728 16234 net.cpp:434] conv7_2_mbox_loc_flat <- conv7_2_mbox_loc_perm
I0217 22:03:57.566735 16234 net.cpp:408] conv7_2_mbox_loc_flat -> conv7_2_mbox_loc_flat
I0217 22:03:57.566771 16234 net.cpp:150] Setting up conv7_2_mbox_loc_flat
I0217 22:03:57.566778 16234 net.cpp:157] Top shape: 1 600 (600)
I0217 22:03:57.566782 16234 net.cpp:165] Memory required for data: 252935472
I0217 22:03:57.566787 16234 layer_factory.hpp:77] Creating layer conv7_2_mbox_conf
I0217 22:03:57.566797 16234 net.cpp:100] Creating Layer conv7_2_mbox_conf
I0217 22:03:57.566802 16234 net.cpp:434] conv7_2_mbox_conf <- conv7_2_conv7_2_relu_0_split_2
I0217 22:03:57.566810 16234 net.cpp:408] conv7_2_mbox_conf -> conv7_2_mbox_conf
I0217 22:03:57.570866 16234 net.cpp:150] Setting up conv7_2_mbox_conf
I0217 22:03:57.570883 16234 net.cpp:157] Top shape: 1 132 5 5 (3300)
I0217 22:03:57.570888 16234 net.cpp:165] Memory required for data: 252948672
I0217 22:03:57.570895 16234 layer_factory.hpp:77] Creating layer conv7_2_mbox_conf_perm
I0217 22:03:57.570904 16234 net.cpp:100] Creating Layer conv7_2_mbox_conf_perm
I0217 22:03:57.570910 16234 net.cpp:434] conv7_2_mbox_conf_perm <- conv7_2_mbox_conf
I0217 22:03:57.570916 16234 net.cpp:408] conv7_2_mbox_conf_perm -> conv7_2_mbox_conf_perm
I0217 22:03:57.571077 16234 net.cpp:150] Setting up conv7_2_mbox_conf_perm
I0217 22:03:57.571086 16234 net.cpp:157] Top shape: 1 5 5 132 (3300)
I0217 22:03:57.571090 16234 net.cpp:165] Memory required for data: 252961872
I0217 22:03:57.571094 16234 layer_factory.hpp:77] Creating layer conv7_2_mbox_conf_flat
I0217 22:03:57.571100 16234 net.cpp:100] Creating Layer conv7_2_mbox_conf_flat
I0217 22:03:57.571105 16234 net.cpp:434] conv7_2_mbox_conf_flat <- conv7_2_mbox_conf_perm
I0217 22:03:57.571111 16234 net.cpp:408] conv7_2_mbox_conf_flat -> conv7_2_mbox_conf_flat
I0217 22:03:57.571147 16234 net.cpp:150] Setting up conv7_2_mbox_conf_flat
I0217 22:03:57.571157 16234 net.cpp:157] Top shape: 1 3300 (3300)
I0217 22:03:57.571161 16234 net.cpp:165] Memory required for data: 252975072
I0217 22:03:57.571164 16234 layer_factory.hpp:77] Creating layer conv7_2_mbox_priorbox
I0217 22:03:57.571171 16234 net.cpp:100] Creating Layer conv7_2_mbox_priorbox
I0217 22:03:57.571175 16234 net.cpp:434] conv7_2_mbox_priorbox <- conv7_2_conv7_2_relu_0_split_3
I0217 22:03:57.571180 16234 net.cpp:434] conv7_2_mbox_priorbox <- data_data_0_split_4
I0217 22:03:57.571187 16234 net.cpp:408] conv7_2_mbox_priorbox -> conv7_2_mbox_priorbox
I0217 22:03:57.571233 16234 net.cpp:150] Setting up conv7_2_mbox_priorbox
I0217 22:03:57.571240 16234 net.cpp:157] Top shape: 1 2 600 (1200)
I0217 22:03:57.571244 16234 net.cpp:165] Memory required for data: 252979872
I0217 22:03:57.571247 16234 layer_factory.hpp:77] Creating layer conv8_2_mbox_loc
I0217 22:03:57.571259 16234 net.cpp:100] Creating Layer conv8_2_mbox_loc
I0217 22:03:57.571264 16234 net.cpp:434] conv8_2_mbox_loc <- conv8_2_conv8_2_relu_0_split_1
I0217 22:03:57.571272 16234 net.cpp:408] conv8_2_mbox_loc -> conv8_2_mbox_loc
I0217 22:03:57.572717 16234 net.cpp:150] Setting up conv8_2_mbox_loc
I0217 22:03:57.572733 16234 net.cpp:157] Top shape: 1 16 3 3 (144)
I0217 22:03:57.572738 16234 net.cpp:165] Memory required for data: 252980448
I0217 22:03:57.572758 16234 layer_factory.hpp:77] Creating layer conv8_2_mbox_loc_perm
I0217 22:03:57.572768 16234 net.cpp:100] Creating Layer conv8_2_mbox_loc_perm
I0217 22:03:57.572774 16234 net.cpp:434] conv8_2_mbox_loc_perm <- conv8_2_mbox_loc
I0217 22:03:57.572780 16234 net.cpp:408] conv8_2_mbox_loc_perm -> conv8_2_mbox_loc_perm
I0217 22:03:57.572957 16234 net.cpp:150] Setting up conv8_2_mbox_loc_perm
I0217 22:03:57.572968 16234 net.cpp:157] Top shape: 1 3 3 16 (144)
I0217 22:03:57.572971 16234 net.cpp:165] Memory required for data: 252981024
I0217 22:03:57.572974 16234 layer_factory.hpp:77] Creating layer conv8_2_mbox_loc_flat
I0217 22:03:57.572981 16234 net.cpp:100] Creating Layer conv8_2_mbox_loc_flat
I0217 22:03:57.572985 16234 net.cpp:434] conv8_2_mbox_loc_flat <- conv8_2_mbox_loc_perm
I0217 22:03:57.572993 16234 net.cpp:408] conv8_2_mbox_loc_flat -> conv8_2_mbox_loc_flat
I0217 22:03:57.573029 16234 net.cpp:150] Setting up conv8_2_mbox_loc_flat
I0217 22:03:57.573040 16234 net.cpp:157] Top shape: 1 144 (144)
I0217 22:03:57.573045 16234 net.cpp:165] Memory required for data: 252981600
I0217 22:03:57.573047 16234 layer_factory.hpp:77] Creating layer conv8_2_mbox_conf
I0217 22:03:57.573058 16234 net.cpp:100] Creating Layer conv8_2_mbox_conf
I0217 22:03:57.573062 16234 net.cpp:434] conv8_2_mbox_conf <- conv8_2_conv8_2_relu_0_split_2
I0217 22:03:57.573070 16234 net.cpp:408] conv8_2_mbox_conf -> conv8_2_mbox_conf
I0217 22:03:57.576314 16234 net.cpp:150] Setting up conv8_2_mbox_conf
I0217 22:03:57.576333 16234 net.cpp:157] Top shape: 1 88 3 3 (792)
I0217 22:03:57.576341 16234 net.cpp:165] Memory required for data: 252984768
I0217 22:03:57.576349 16234 layer_factory.hpp:77] Creating layer conv8_2_mbox_conf_perm
I0217 22:03:57.576356 16234 net.cpp:100] Creating Layer conv8_2_mbox_conf_perm
I0217 22:03:57.576360 16234 net.cpp:434] conv8_2_mbox_conf_perm <- conv8_2_mbox_conf
I0217 22:03:57.576367 16234 net.cpp:408] conv8_2_mbox_conf_perm -> conv8_2_mbox_conf_perm
I0217 22:03:57.576529 16234 net.cpp:150] Setting up conv8_2_mbox_conf_perm
I0217 22:03:57.576539 16234 net.cpp:157] Top shape: 1 3 3 88 (792)
I0217 22:03:57.576542 16234 net.cpp:165] Memory required for data: 252987936
I0217 22:03:57.576546 16234 layer_factory.hpp:77] Creating layer conv8_2_mbox_conf_flat
I0217 22:03:57.576555 16234 net.cpp:100] Creating Layer conv8_2_mbox_conf_flat
I0217 22:03:57.576558 16234 net.cpp:434] conv8_2_mbox_conf_flat <- conv8_2_mbox_conf_perm
I0217 22:03:57.576565 16234 net.cpp:408] conv8_2_mbox_conf_flat -> conv8_2_mbox_conf_flat
I0217 22:03:57.576601 16234 net.cpp:150] Setting up conv8_2_mbox_conf_flat
I0217 22:03:57.576609 16234 net.cpp:157] Top shape: 1 792 (792)
I0217 22:03:57.576613 16234 net.cpp:165] Memory required for data: 252991104
I0217 22:03:57.576617 16234 layer_factory.hpp:77] Creating layer conv8_2_mbox_priorbox
I0217 22:03:57.576623 16234 net.cpp:100] Creating Layer conv8_2_mbox_priorbox
I0217 22:03:57.576627 16234 net.cpp:434] conv8_2_mbox_priorbox <- conv8_2_conv8_2_relu_0_split_3
I0217 22:03:57.576632 16234 net.cpp:434] conv8_2_mbox_priorbox <- data_data_0_split_5
I0217 22:03:57.576640 16234 net.cpp:408] conv8_2_mbox_priorbox -> conv8_2_mbox_priorbox
I0217 22:03:57.576680 16234 net.cpp:150] Setting up conv8_2_mbox_priorbox
I0217 22:03:57.576689 16234 net.cpp:157] Top shape: 1 2 144 (288)
I0217 22:03:57.576692 16234 net.cpp:165] Memory required for data: 252992256
I0217 22:03:57.576696 16234 layer_factory.hpp:77] Creating layer conv9_2_mbox_loc
I0217 22:03:57.576707 16234 net.cpp:100] Creating Layer conv9_2_mbox_loc
I0217 22:03:57.576714 16234 net.cpp:434] conv9_2_mbox_loc <- conv9_2_conv9_2_relu_0_split_0
I0217 22:03:57.576721 16234 net.cpp:408] conv9_2_mbox_loc -> conv9_2_mbox_loc
I0217 22:03:57.578296 16234 net.cpp:150] Setting up conv9_2_mbox_loc
I0217 22:03:57.578313 16234 net.cpp:157] Top shape: 1 16 1 1 (16)
I0217 22:03:57.578320 16234 net.cpp:165] Memory required for data: 252992320
I0217 22:03:57.578326 16234 layer_factory.hpp:77] Creating layer conv9_2_mbox_loc_perm
I0217 22:03:57.578336 16234 net.cpp:100] Creating Layer conv9_2_mbox_loc_perm
I0217 22:03:57.578341 16234 net.cpp:434] conv9_2_mbox_loc_perm <- conv9_2_mbox_loc
I0217 22:03:57.578347 16234 net.cpp:408] conv9_2_mbox_loc_perm -> conv9_2_mbox_loc_perm
I0217 22:03:57.578506 16234 net.cpp:150] Setting up conv9_2_mbox_loc_perm
I0217 22:03:57.578533 16234 net.cpp:157] Top shape: 1 1 1 16 (16)
I0217 22:03:57.578537 16234 net.cpp:165] Memory required for data: 252992384
I0217 22:03:57.578541 16234 layer_factory.hpp:77] Creating layer conv9_2_mbox_loc_flat
I0217 22:03:57.578549 16234 net.cpp:100] Creating Layer conv9_2_mbox_loc_flat
I0217 22:03:57.578554 16234 net.cpp:434] conv9_2_mbox_loc_flat <- conv9_2_mbox_loc_perm
I0217 22:03:57.578559 16234 net.cpp:408] conv9_2_mbox_loc_flat -> conv9_2_mbox_loc_flat
I0217 22:03:57.578601 16234 net.cpp:150] Setting up conv9_2_mbox_loc_flat
I0217 22:03:57.578609 16234 net.cpp:157] Top shape: 1 16 (16)
I0217 22:03:57.578613 16234 net.cpp:165] Memory required for data: 252992448
I0217 22:03:57.578616 16234 layer_factory.hpp:77] Creating layer conv9_2_mbox_conf
I0217 22:03:57.578627 16234 net.cpp:100] Creating Layer conv9_2_mbox_conf
I0217 22:03:57.578632 16234 net.cpp:434] conv9_2_mbox_conf <- conv9_2_conv9_2_relu_0_split_1
I0217 22:03:57.578640 16234 net.cpp:408] conv9_2_mbox_conf -> conv9_2_mbox_conf
I0217 22:03:57.581887 16234 net.cpp:150] Setting up conv9_2_mbox_conf
I0217 22:03:57.581903 16234 net.cpp:157] Top shape: 1 88 1 1 (88)
I0217 22:03:57.581912 16234 net.cpp:165] Memory required for data: 252992800
I0217 22:03:57.581919 16234 layer_factory.hpp:77] Creating layer conv9_2_mbox_conf_perm
I0217 22:03:57.581928 16234 net.cpp:100] Creating Layer conv9_2_mbox_conf_perm
I0217 22:03:57.581933 16234 net.cpp:434] conv9_2_mbox_conf_perm <- conv9_2_mbox_conf
I0217 22:03:57.581941 16234 net.cpp:408] conv9_2_mbox_conf_perm -> conv9_2_mbox_conf_perm
I0217 22:03:57.582101 16234 net.cpp:150] Setting up conv9_2_mbox_conf_perm
I0217 22:03:57.582116 16234 net.cpp:157] Top shape: 1 1 1 88 (88)
I0217 22:03:57.582120 16234 net.cpp:165] Memory required for data: 252993152
I0217 22:03:57.582124 16234 layer_factory.hpp:77] Creating layer conv9_2_mbox_conf_flat
I0217 22:03:57.582130 16234 net.cpp:100] Creating Layer conv9_2_mbox_conf_flat
I0217 22:03:57.582134 16234 net.cpp:434] conv9_2_mbox_conf_flat <- conv9_2_mbox_conf_perm
I0217 22:03:57.582140 16234 net.cpp:408] conv9_2_mbox_conf_flat -> conv9_2_mbox_conf_flat
I0217 22:03:57.582176 16234 net.cpp:150] Setting up conv9_2_mbox_conf_flat
I0217 22:03:57.582185 16234 net.cpp:157] Top shape: 1 88 (88)
I0217 22:03:57.582188 16234 net.cpp:165] Memory required for data: 252993504
I0217 22:03:57.582192 16234 layer_factory.hpp:77] Creating layer conv9_2_mbox_priorbox
I0217 22:03:57.582201 16234 net.cpp:100] Creating Layer conv9_2_mbox_priorbox
I0217 22:03:57.582204 16234 net.cpp:434] conv9_2_mbox_priorbox <- conv9_2_conv9_2_relu_0_split_2
I0217 22:03:57.582209 16234 net.cpp:434] conv9_2_mbox_priorbox <- data_data_0_split_6
I0217 22:03:57.582216 16234 net.cpp:408] conv9_2_mbox_priorbox -> conv9_2_mbox_priorbox
I0217 22:03:57.582255 16234 net.cpp:150] Setting up conv9_2_mbox_priorbox
I0217 22:03:57.582263 16234 net.cpp:157] Top shape: 1 2 16 (32)
I0217 22:03:57.582267 16234 net.cpp:165] Memory required for data: 252993632
I0217 22:03:57.582270 16234 layer_factory.hpp:77] Creating layer mbox_loc
I0217 22:03:57.582279 16234 net.cpp:100] Creating Layer mbox_loc
I0217 22:03:57.582285 16234 net.cpp:434] mbox_loc <- conv4_3_norm_mbox_loc_flat
I0217 22:03:57.582291 16234 net.cpp:434] mbox_loc <- fc7_mbox_loc_flat
I0217 22:03:57.582298 16234 net.cpp:434] mbox_loc <- conv6_2_mbox_loc_flat
I0217 22:03:57.582303 16234 net.cpp:434] mbox_loc <- conv7_2_mbox_loc_flat
I0217 22:03:57.582306 16234 net.cpp:434] mbox_loc <- conv8_2_mbox_loc_flat
I0217 22:03:57.582311 16234 net.cpp:434] mbox_loc <- conv9_2_mbox_loc_flat
I0217 22:03:57.582316 16234 net.cpp:408] mbox_loc -> mbox_loc
I0217 22:03:57.582360 16234 net.cpp:150] Setting up mbox_loc
I0217 22:03:57.582368 16234 net.cpp:157] Top shape: 1 34928 (34928)
I0217 22:03:57.582371 16234 net.cpp:165] Memory required for data: 253133344
I0217 22:03:57.582376 16234 layer_factory.hpp:77] Creating layer mbox_conf
I0217 22:03:57.582381 16234 net.cpp:100] Creating Layer mbox_conf
I0217 22:03:57.582386 16234 net.cpp:434] mbox_conf <- conv4_3_norm_mbox_conf_flat
I0217 22:03:57.582403 16234 net.cpp:434] mbox_conf <- fc7_mbox_conf_flat
I0217 22:03:57.582409 16234 net.cpp:434] mbox_conf <- conv6_2_mbox_conf_flat
I0217 22:03:57.582414 16234 net.cpp:434] mbox_conf <- conv7_2_mbox_conf_flat
I0217 22:03:57.582418 16234 net.cpp:434] mbox_conf <- conv8_2_mbox_conf_flat
I0217 22:03:57.582422 16234 net.cpp:434] mbox_conf <- conv9_2_mbox_conf_flat
I0217 22:03:57.582428 16234 net.cpp:408] mbox_conf -> mbox_conf
I0217 22:03:57.582468 16234 net.cpp:150] Setting up mbox_conf
I0217 22:03:57.582475 16234 net.cpp:157] Top shape: 1 192104 (192104)
I0217 22:03:57.582479 16234 net.cpp:165] Memory required for data: 253901760
I0217 22:03:57.582482 16234 layer_factory.hpp:77] Creating layer mbox_priorbox
I0217 22:03:57.582490 16234 net.cpp:100] Creating Layer mbox_priorbox
I0217 22:03:57.582495 16234 net.cpp:434] mbox_priorbox <- conv4_3_norm_mbox_priorbox
I0217 22:03:57.582500 16234 net.cpp:434] mbox_priorbox <- fc7_mbox_priorbox
I0217 22:03:57.582505 16234 net.cpp:434] mbox_priorbox <- conv6_2_mbox_priorbox
I0217 22:03:57.582509 16234 net.cpp:434] mbox_priorbox <- conv7_2_mbox_priorbox
I0217 22:03:57.582514 16234 net.cpp:434] mbox_priorbox <- conv8_2_mbox_priorbox
I0217 22:03:57.582517 16234 net.cpp:434] mbox_priorbox <- conv9_2_mbox_priorbox
I0217 22:03:57.582528 16234 net.cpp:408] mbox_priorbox -> mbox_priorbox
I0217 22:03:57.582566 16234 net.cpp:150] Setting up mbox_priorbox
I0217 22:03:57.582574 16234 net.cpp:157] Top shape: 1 2 34928 (69856)
I0217 22:03:57.582578 16234 net.cpp:165] Memory required for data: 254181184
I0217 22:03:57.582581 16234 layer_factory.hpp:77] Creating layer mbox_conf_reshape
I0217 22:03:57.582590 16234 net.cpp:100] Creating Layer mbox_conf_reshape
I0217 22:03:57.582594 16234 net.cpp:434] mbox_conf_reshape <- mbox_conf
I0217 22:03:57.582602 16234 net.cpp:408] mbox_conf_reshape -> mbox_conf_reshape
I0217 22:03:57.582648 16234 net.cpp:150] Setting up mbox_conf_reshape
I0217 22:03:57.582656 16234 net.cpp:157] Top shape: 1 8732 22 (192104)
I0217 22:03:57.582660 16234 net.cpp:165] Memory required for data: 254949600
I0217 22:03:57.582664 16234 layer_factory.hpp:77] Creating layer mbox_conf_softmax
I0217 22:03:57.582671 16234 net.cpp:100] Creating Layer mbox_conf_softmax
I0217 22:03:57.582675 16234 net.cpp:434] mbox_conf_softmax <- mbox_conf_reshape
I0217 22:03:57.582682 16234 net.cpp:408] mbox_conf_softmax -> mbox_conf_softmax
I0217 22:03:57.582983 16234 net.cpp:150] Setting up mbox_conf_softmax
I0217 22:03:57.582995 16234 net.cpp:157] Top shape: 1 8732 22 (192104)
I0217 22:03:57.582999 16234 net.cpp:165] Memory required for data: 255718016
I0217 22:03:57.583003 16234 layer_factory.hpp:77] Creating layer mbox_conf_flatten
I0217 22:03:57.583009 16234 net.cpp:100] Creating Layer mbox_conf_flatten
I0217 22:03:57.583014 16234 net.cpp:434] mbox_conf_flatten <- mbox_conf_softmax
I0217 22:03:57.583021 16234 net.cpp:408] mbox_conf_flatten -> mbox_conf_flatten
I0217 22:03:57.583058 16234 net.cpp:150] Setting up mbox_conf_flatten
I0217 22:03:57.583067 16234 net.cpp:157] Top shape: 1 192104 (192104)
I0217 22:03:57.583070 16234 net.cpp:165] Memory required for data: 256486432
I0217 22:03:57.583075 16234 layer_factory.hpp:77] Creating layer detection_out
I0217 22:03:57.583099 16234 net.cpp:100] Creating Layer detection_out
I0217 22:03:57.583106 16234 net.cpp:434] detection_out <- mbox_loc
I0217 22:03:57.583111 16234 net.cpp:434] detection_out <- mbox_conf_flatten
I0217 22:03:57.583114 16234 net.cpp:434] detection_out <- mbox_priorbox
I0217 22:03:57.583120 16234 net.cpp:408] detection_out -> detection_out
I0217 22:03:57.584267 16234 net.cpp:150] Setting up detection_out
I0217 22:03:57.584283 16234 net.cpp:157] Top shape: 1 1 1 7 (7)
I0217 22:03:57.584287 16234 net.cpp:165] Memory required for data: 256486460
I0217 22:03:57.584292 16234 layer_factory.hpp:77] Creating layer detection_eval
I0217 22:03:57.584300 16234 net.cpp:100] Creating Layer detection_eval
I0217 22:03:57.584305 16234 net.cpp:434] detection_eval <- detection_out
I0217 22:03:57.584309 16234 net.cpp:434] detection_eval <- label
I0217 22:03:57.584327 16234 net.cpp:408] detection_eval -> detection_eval
I0217 22:03:57.584436 16234 net.cpp:150] Setting up detection_eval
I0217 22:03:57.584447 16234 net.cpp:157] Top shape: 1 1 22 5 (110)
I0217 22:03:57.584451 16234 net.cpp:165] Memory required for data: 256486900
I0217 22:03:57.584455 16234 net.cpp:228] detection_eval does not need backward computation.
I0217 22:03:57.584460 16234 net.cpp:228] detection_out does not need backward computation.
I0217 22:03:57.584465 16234 net.cpp:228] mbox_conf_flatten does not need backward computation.
I0217 22:03:57.584467 16234 net.cpp:228] mbox_conf_softmax does not need backward computation.
…
