…
        min_scale: 0.3
        max_scale: 1
        min_aspect_ratio: 0.5
        max_aspect_ratio: 2
      }
      sample_constraint {
        min_jaccard_overlap: 0.9
      }
      max_sample: 1
      max_trials: 50
    }
    batch_sampler {
      sampler {
        min_scale: 0.3
        max_scale: 1
        min_aspect_ratio: 0.5
        max_aspect_ratio: 2
      }
      sample_constraint {
        max_jaccard_overlap: 1
      }
      max_sample: 1
      max_trials: 50
    }
    label_map_file: "data/dbgr_trees/labelmap_voc.prototxt"
  }
}
layer {
  name: "conv1_1_rgbd"
  type: "Convolution"
  bottom: "data"
  top: "conv1_1_rgbd"
  param {
    lr_mult: 1
    decay_mult: 1
  }
  param {
    lr_mult: 2
    decay_mult: 0
  }
  convolution_param {
    num_output: 64
    pad: 1
    kernel_size: 3
    weight_filler {
      type: "xavier"
    }
    bias_filler {
      type: "constant"
      value: 0
    }
  }
}
layer {
  name: "relu1_1"
  type: "ReLU"
  bottom: "conv1_1_rgbd"
  top: "conv1_1_rgbd"
}
layer {
  name: "conv1_2"
  type: "Convolution"
  bottom: "conv1_1_rgbd"
  top: "conv1_2"
  param {
    lr_mult: 1
    decay_mult: 1
  }
  param {
    lr_mult: 2
    decay_mult: 0
  }
  convolution_param {
    num_output: 64
    pad: 1
    kernel_size: 3
    weight_filler {
      type: "xavier"
    }
    bias_filler {
      type: "constant"
      value: 0
    }
  }
}
layer {
  name: "relu1_2"
  type: "ReLU"
  bottom: "conv1_2"
  top: "conv1_2"
}
layer {
  name: "pool1"
  type: "Pooling"
  bottom: "conv1_2"
  top: "pool1"
  pooling_param {
    pool: MAX
    kernel_size: 2
    stride: 2
  }
}
layer {
  name: "conv2_1"
  type: "Convolution"
  bottom: "pool1"
  top: "conv2_1"
  param {
    lr_mult: 1
    decay_mult: 1
  }
  param {
    lr_mult: 2
    decay_mult: 0
  }
  convolution_param {
    num_output: 128
    pad: 1
    kernel_size: 3
    weight_filler {
      type: "xavier"
    }
    bias_filler {
      type: "constant"
      value: 0
    }
  }
}
layer {
  name: "relu2_1"
  type: "ReLU"
  bottom: "conv2_1"
  top: "conv2_1"
}
layer {
  name: "conv2_2"
  type: "Convolution"
  bottom: "conv2_1"
  top: "conv2_2"
  param {
    lr_mult: 1
    decay_mult: 1
  }
  param {
    lr_mult: 2
    decay_mult: 0
  }
  convolution_param {
    num_output: 128
    pad: 1
    kernel_size: 3
    weight_filler {
      type: "xavier"
    }
    bias_filler {
      type: "constant"
      value: 0
    }
  }
}
layer {
  name: "relu2_2"
  type: "ReLU"
  bottom: "conv2_2"
  top: "conv2_2"
}
layer {
  name: "pool2"
  type: "Pooling"
  bottom: "conv2_2"
  top: "pool2"
  pooling_param {
    pool: MAX
    kernel_size: 2
    stride: 2
  }
}
layer {
  name: "conv3_1"
  type: "Convolution"
  bottom: "pool2"
  top: "conv3_1"
  param {
    lr_mult: 1
    decay_mult: 1
  }
  param {
    lr_mult: 2
    decay_mult: 0
  }
  convolution_param {
    num_output: 256
    pad: 1
    kernel_size: 3
    weight_filler {
      type: "xavier"
    }
    bias_filler {
      type: "constant"
      value: 0
    }
  }
}
layer {
  name: "relu3_1"
  type: "ReLU"
  bottom: "conv3_1"
  top: "conv3_1"
}
layer {
  name: "conv3_2"
  type: "Convolution"
  bottom: "conv3_1"
  top: "conv3_2"
  param {
    lr_mult: 1
    decay_mult: 1
  }
  param {
    lr_mult: 2
    decay_mult: 0
  }
  convolution_param {
    num_output: 256
    pad: 1
    kernel_size: 3
    weight_filler {
      type: "xavier"
    }
    bias_filler {
      type: "constant"
      value: 0
    }
  }
}
layer {
  name: "relu3_2"
  type: "ReLU"
  bottom: "conv3_2"
  top: "conv3_2"
}
layer {
  name: "conv3_3"
  type: "Convolution"
  bottom: "conv3_2"
  top: "conv3_3"
  param {
    lr_mult: 1
    decay_mult: 1
  }
  param {
    lr_mult: 2
    decay_mult: 0
  }
  convolution_param {
    num_output: 256
    pad: 1
    kernel_size: 3
    weight_filler {
      type: "xavier"
    }
    bias_filler {
      type: "constant"
      value: 0
    }
  }
}
layer {
  name: "relu3_3"
  type: "ReLU"
  bottom: "conv3_3"
  top: "conv3_3"
}
layer {
  name: "pool3"
  type: "Pooling"
  bottom: "conv3_3"
  top: "pool3"
  pooling_param {
    pool: MAX
    kernel_size: 2
    stride: 2
  }
}
layer {
  name: "conv4_1"
  type: "Convolution"
  bottom: "pool3"
  top: "conv4_1"
  param {
    lr_mult: 1
    decay_mult: 1
  }
  param {
    lr_mult: 2
    decay_mult: 0
  }
  convolution_param {
    num_output: 512
    pad: 1
    kernel_size: 3
    weight_filler {
      type: "xavier"
    }
    bias_filler {
      type: "constant"
      value: 0
    }
  }
}
layer {
  name: "relu4_1"
  type: "ReLU"
  bottom: "conv4_1"
  top: "conv4_1"
}
layer {
  name: "conv4_2"
  type: "Convolution"
  bottom: "conv4_1"
  top: "conv4_2"
  param {
    lr_mult: 1
    decay_mult: 1
  }
  param {
    lr_mult: 2
    decay_mult: 0
  }
  convolution_param {
    num_output: 512
    pad: 1
    kernel_size: 3
    weight_filler {
      type: "xavier"
    }
    bias_filler {
      type: "constant"
      value: 0
    }
  }
}
layer {
  name: "relu4_2"
  type: "ReLU"
  bottom: "conv4_2"
  top: "conv4_2"
}
layer {
  name: "conv4_3"
  type: "Convolution"
  bottom: "conv4_2"
  top: "conv4_3"
  param {
    lr_mult: 1
    decay_mult: 1
  }
  param {
    lr_mult: 2
    decay_mult: 0
  }
  convolution_param {
    num_output: 512
    pad: 1
    kernel_size: 3
    weight_filler {
      type: "xavier"
    }
    bias_filler {
      type: "constant"
      value: 0
    }
  }
}
layer {
  name: "relu4_3"
  type: "ReLU"
  bottom: "conv4_3"
  top: "conv4_3"
}
layer {
  name: "pool4"
  type: "Pooling"
  bottom: "conv4_3"
  top: "pool4"
  pooling_param {
    pool: MAX
    kernel_size: 2
    stride: 2
  }
}
layer {
  name: "conv5_1"
  type: "Convolution"
  bottom: "pool4"
  top: "conv5_1"
  param {
    lr_mult: 1
    decay_mult: 1
  }
  param {
    lr_mult: 2
    decay_mult: 0
  }
  convolution_param {
    num_output: 512
    pad: 1
    kernel_size: 3
    weight_filler {
      type: "xavier"
    }
    bias_filler {
      type: "constant"
      value: 0
    }
    dilation: 1
  }
}
layer {
  name: "relu5_1"
  type: "ReLU"
  bottom: "conv5_1"
  top: "conv5_1"
}
layer {
  name: "conv5_2"
  type: "Convolution"
  bottom: "conv5_1"
  top: "conv5_2"
  param {
    lr_mult: 1
    decay_mult: 1
  }
  param {
    lr_mult: 2
    decay_mult: 0
  }
  convolution_param {
    num_output: 512
    pad: 1
    kernel_size: 3
    weight_filler {
      type: "xavier"
    }
    bias_filler {
      type: "constant"
      value: 0
    }
    dilation: 1
  }
}
layer {
  name: "relu5_2"
  type: "ReLU"
  bottom: "conv5_2"
  top: "conv5_2"
}
layer {
  name: "conv5_3"
  type: "Convolution"
  bottom: "conv5_2"
  top: "conv5_3"
  param {
    lr_mult: 1
    decay_mult: 1
  }
  param {
    lr_mult: 2
    decay_mult: 0
  }
  convolution_param {
    num_output: 512
    pad: 1
    kernel_size: 3
    weight_filler {
      type: "xavier"
    }
    bias_filler {
      type: "constant"
      value: 0
    }
    dilation: 1
  }
}
layer {
  name: "relu5_3"
  type: "ReLU"
  bottom: "conv5_3"
  top: "conv5_3"
}
layer {
  name: "pool5"
  type: "Pooling"
  bottom: "conv5_3"
  top: "pool5"
  pooling_param {
    pool: MAX
    kernel_size: 3
    stride: 1
    pad: 1
  }
}
layer {
  name: "fc6"
  type: "Convolution"
  bottom: "pool5"
  top: "fc6"
  param {
    lr_mult: 1
    decay_mult: 1
  }
  param {
    lr_mult: 2
    decay_mult: 0
  }
  convolution_param {
    num_output: 1024
    pad: 6
    kernel_size: 3
    weight_filler {
      type: "xavier"
    }
    bias_filler {
      type: "constant"
      value: 0
    }
    dilation: 6
  }
}
layer {
  name: "relu6"
  type: "ReLU"
  bottom: "fc6"
  top: "fc6"
}
layer {
  name: "fc7"
  type: "Convolution"
  bottom: "fc6"
  top: "fc7"
  param {
    lr_mult: 1
    decay_mult: 1
  }
  param {
    lr_mult: 2
    decay_mult: 0
  }
  convolution_param {
    num_output: 1024
    kernel_size: 1
    weight_filler {
      type: "xavier"
    }
    bias_filler {
      type: "constant"
      value: 0
    }
  }
}
layer {
  name: "relu7"
  type: "ReLU"
  bottom: "fc7"
  top: "fc7"
}
layer {
  name: "conv6_1"
  type: "Convolution"
  bottom: "fc7"
  top: "conv6_1"
  param {
    lr_mult: 1
    decay_mult: 1
  }
  param {
    lr_mult: 2
    decay_mult: 0
  }
  convolution_param {
    num_output: 256
    pad: 0
    kernel_size: 1
    stride: 1
    weight_filler {
      type: "xavier"
    }
    bias_filler {
      type: "constant"
      value: 0
    }
  }
}
layer {
  name: "conv6_1_relu"
  type: "ReLU"
  bottom: "conv6_1"
  top: "conv6_1"
}
layer {
  name: "conv6_2"
  type: "Convolution"
  bottom: "conv6_1"
  top: "conv6_2"
  param {
    lr_mult: 1
    decay_mult: 1
  }
  param {
    lr_mult: 2
    decay_mult: 0
  }
  convolution_param {
    num_output: 512
    pad: 1
    kernel_size: 3
    stride: 2
    weight_filler {
      type: "xavier"
    }
    bias_filler {
      type: "constant"
      value: 0
    }
  }
}
layer {
  name: "conv6_2_relu"
  type: "ReLU"
  bottom: "conv6_2"
  top: "conv6_2"
}
layer {
  name: "conv7_1"
  type: "Convolution"
  bottom: "conv6_2"
  top: "conv7_1"
  param {
    lr_mult: 1
    decay_mult: 1
  }
  param {
    lr_mult: 2
    decay_mult: 0
  }
  convolution_param {
    num_output: 128
    pad: 0
    kernel_size: 1
    stride: 1
    weight_filler {
      type: "xavier"
    }
    bias_filler {
      type: "constant"
      value: 0
    }
  }
}
layer {
  name: "conv7_1_relu"
  type: "ReLU"
  bottom: "conv7_1"
  top: "conv7_1"
}
layer {
  name: "conv7_2"
  type: "Convolution"
  bottom: "conv7_1"
  top: "conv7_2"
  param {
    lr_mult: 1
    decay_mult: 1
  }
  param {
    lr_mult: 2
    decay_mult: 0
  }
  convolution_param {
    num_output: 256
    pad: 1
    kernel_size: 3
    stride: 2
    weight_filler {
      type: "xavier"
    }
    bias_filler {
      type: "constant"
      value: 0
    }
  }
}
layer {
  name: "conv7_2_relu"
  type: "ReLU"
  bottom: "conv7_2"
  top: "conv7_2"
}
layer {
  name: "conv8_1"
  type: "Convolution"
  bottom: "conv7_2"
  top: "conv8_1"
  param {
    lr_mult: 1
    decay_mult: 1
  }
  param {
    lr_mult: 2
    decay_mult: 0
  }
  convolution_param {
    num_output: 128
    pad: 0
    kernel_size: 1
    stride: 1
    weight_filler {
      type: "xavier"
    }
    bias_filler {
      type: "constant"
      value: 0
    }
  }
}
layer {
  name: "conv8_1_relu"
  type: "ReLU"
  bottom: "conv8_1"
  top: "conv8_1"
}
layer {
  name: "conv8_2"
  type: "Convolution"
  bottom: "conv8_1"
  top: "conv8_2"
  param {
    lr_mult: 1
    decay_mult: 1
  }
  param {
    lr_mult: 2
    decay_mult: 0
  }
  convolution_param {
    num_output: 256
    pad: 0
    kernel_size: 3
    stride: 1
    weight_filler {
      type: "xavier"
    }
    bias_filler {
      type: "constant"
      value: 0
    }
  }
}
layer {
  name: "conv8_2_relu"
  type: "ReLU"
  bottom: "conv8_2"
  top: "conv8_2"
}
layer {
  name: "conv9_1"
  type: "Convolution"
  bottom: "conv8_2"
  top: "conv9_1"
  param {
    lr_mult: 1
    decay_mult: 1
  }
  param {
    lr_mult: 2
    decay_mult: 0
  }
  convolution_param {
    num_output: 128
    pad: 0
    kernel_size: 1
    stride: 1
    weight_filler {
      type: "xavier"
    }
    bias_filler {
      type: "constant"
      value: 0
    }
  }
}
layer {
  name: "conv9_1_relu"
  type: "ReLU"
  bottom: "conv9_1"
  top: "conv9_1"
}
layer {
  name: "conv9_2"
  type: "Convolution"
  bottom: "conv9_1"
  top: "conv9_2"
  param {
    lr_mult: 1
    decay_mult: 1
  }
  param {
    lr_mult: 2
    decay_mult: 0
  }
  convolution_param {
    num_output: 256
    pad: 0
    kernel_size: 3
    stride: 1
    weight_filler {
      type: "xavier"
    }
    bias_filler {
      type: "constant"
      value: 0
    }
  }
}
layer {
  name: "conv9_2_relu"
  type: "ReLU"
  bottom: "conv9_2"
  top: "conv9_2"
}
layer {
  name: "conv4_3_norm"
  type: "Normalize"
  bottom: "conv4_3"
  top: "conv4_3_norm"
  norm_param {
    across_spatial: false
    scale_filler {
      type: "constant"
      value: 20
    }
    channel_shared: false
  }
}
layer {
  name: "conv4_3_norm_mbox_loc"
  type: "Convolution"
  bottom: "conv4_3_norm"
  top: "conv4_3_norm_mbox_loc"
  param {
    lr_mult: 1
    decay_mult: 1
  }
  param {
    lr_mult: 2
    decay_mult: 0
  }
  convolution_param {
    num_output: 16
    pad: 1
    kernel_size: 3
    stride: 1
    weight_filler {
      type: "xavier"
    }
    bias_filler {
      type: "constant"
      value: 0
    }
  }
}
layer {
  name: "conv4_3_norm_mbox_loc_perm"
  type: "Permute"
  bottom: "conv4_3_norm_mbox_loc"
  top: "conv4_3_norm_mbox_loc_perm"
  permute_param {
    order: 0
    order: 2
    order: 3
    order: 1
  }
}
layer {
  name: "conv4_3_norm_mbox_loc_flat"
  type: "Flatten"
  bottom: "conv4_3_norm_mbox_loc_perm"
  top: "conv4_3_norm_mbox_loc_flat"
  flatten_param {
    axis: 1
  }
}
layer {
  name: "conv4_3_norm_mbox_conf"
  type: "Convolution"
  bottom: "conv4_3_norm"
  top: "conv4_3_norm_mbox_conf"
  param {
    lr_mult: 1
    decay_mult: 1
  }
  param {
    lr_mult: 2
    decay_mult: 0
  }
  convolution_param {
    num_output: 88
    pad: 1
    kernel_size: 3
    stride: 1
    weight_filler {
      type: "xavier"
    }
    bias_filler {
      type: "constant"
      value: 0
    }
  }
}
layer {
  name: "conv4_3_norm_mbox_conf_perm"
  type: "Permute"
  bottom: "conv4_3_norm_mbox_conf"
  top: "conv4_3_norm_mbox_conf_perm"
  permute_param {
    order: 0
    order: 2
    order: 3
    order: 1
  }
}
layer {
  name: "conv4_3_norm_mbox_conf_flat"
  type: "Flatten"
  bottom: "conv4_3_norm_mbox_conf_perm"
  top: "conv4_3_norm_mbox_conf_flat"
  flatten_param {
    axis: 1
  }
}
layer {
  name: "conv4_3_norm_mbox_priorbox"
  type: "PriorBox"
  bottom: "conv4_3_norm"
  bottom: "data"
  top: "conv4_3_norm_mbox_priorbox"
  prior_box_param {
    min_size: 30
    max_size: 60
    aspect_ratio: 2
    flip: true
    clip: false
    variance: 0.1
    variance: 0.1
    variance: 0.2
    variance: 0.2
    step: 8
    offset: 0.5
  }
}
layer {
  name: "fc7_mbox_loc"
  type: "Convolution"
  bottom: "fc7"
  top: "fc7_mbox_loc"
  param {
    lr_mult: 1
    decay_mult: 1
  }
  param {
    lr_mult: 2
    decay_mult: 0
  }
  convolution_param {
    num_output: 24
    pad: 1
    kernel_size: 3
    stride: 1
    weight_filler {
      type: "xavier"
    }
    bias_filler {
      type: "constant"
      value: 0
    }
  }
}
layer {
  name: "fc7_mbox_loc_perm"
  type: "Permute"
  bottom: "fc7_mbox_loc"
  top: "fc7_mbox_loc_perm"
  permute_param {
    order: 0
    order: 2
    order: 3
    order: 1
  }
}
layer {
  name: "fc7_mbox_loc_flat"
  type: "Flatten"
  bottom: "fc7_mbox_loc_perm"
  top: "fc7_mbox_loc_flat"
  flatten_param {
    axis: 1
  }
}
layer {
  name: "fc7_mbox_conf"
  type: "Convolution"
  bottom: "fc7"
  top: "fc7_mbox_conf"
  param {
    lr_mult: 1
    decay_mult: 1
  }
  param {
    lr_mult: 2
    decay_mult: 0
  }
  convolution_param {
    num_output: 132
    pad: 1
    kernel_size: 3
    stride: 1
    weight_filler {
      type: "xavier"
    }
    bias_filler {
      type: "constant"
      value: 0
    }
  }
}
layer {
  name: "fc7_mbox_conf_perm"
  type: "Permute"
  bottom: "fc7_mbox_conf"
  top: "fc7_mbox_conf_perm"
  permute_param {
    order: 0
    order: 2
    order: 3
    order: 1
  }
}
layer {
  name: "fc7_mbox_conf_flat"
  type: "Flatten"
  bottom: "fc7_mbox_conf_perm"
  top: "fc7_mbox_conf_flat"
  flatten_param {
    axis: 1
  }
}
layer {
  name: "fc7_mbox_priorbox"
  type: "PriorBox"
  bottom: "fc7"
  bottom: "data"
  top: "fc7_mbox_priorbox"
  prior_box_param {
    min_size: 60
    max_size: 111
    aspect_ratio: 2
    aspect_ratio: 3
    flip: true
    clip: false
    variance: 0.1
    variance: 0.1
    variance: 0.2
    variance: 0.2
    step: 16
    offset: 0.5
  }
}
layer {
  name: "conv6_2_mbox_loc"
  type: "Convolution"
  bottom: "conv6_2"
  top: "conv6_2_mbox_loc"
  param {
    lr_mult: 1
    decay_mult: 1
  }
  param {
    lr_mult: 2
    decay_mult: 0
  }
  convolution_param {
    num_output: 24
    pad: 1
    kernel_size: 3
    stride: 1
    weight_filler {
      type: "xavier"
    }
    bias_filler {
      type: "constant"
      value: 0
    }
  }
}
layer {
  name: "conv6_2_mbox_loc_perm"
  type: "Permute"
  bottom: "conv6_2_mbox_loc"
  top: "conv6_2_mbox_loc_perm"
  permute_param {
    order: 0
    order: 2
    order: 3
    order: 1
  }
}
layer {
  name: "conv6_2_mbox_loc_flat"
  type: "Flatten"
  bottom: "conv6_2_mbox_loc_perm"
  top: "conv6_2_mbox_loc_flat"
  flatten_param {
    axis: 1
  }
}
layer {
  name: "conv6_2_mbox_conf"
  type: "Convolution"
  bottom: "conv6_2"
  top: "conv6_2_mbox_conf"
  param {
    lr_mult: 1
    decay_mult: 1
  }
  param {
    lr_mult: 2
    decay_mult: 0
  }
  convolution_param {
    num_output: 132
    pad: 1
    kernel_size: 3
    stride: 1
    weight_filler {
      type: "xavier"
    }
    bias_filler {
      type: "constant"
      value: 0
    }
  }
}
layer {
  name: "conv6_2_mbox_conf_perm"
  type: "Permute"
  bottom: "conv6_2_mbox_conf"
  top: "conv6_2_mbox_conf_perm"
  permute_param {
    order: 0
    order: 2
    order: 3
    order: 1
  }
}
layer {
  name: "conv6_2_mbox_conf_flat"
  type: "Flatten"
  bottom: "conv6_2_mbox_conf_perm"
  top: "conv6_2_mbox_conf_flat"
  flatten_param {
    axis: 1
  }
}
layer {
  name: "conv6_2_mbox_priorbox"
  type: "PriorBox"
  bottom: "conv6_2"
  bottom: "data"
  top: "conv6_2_mbox_priorbox"
  prior_box_param {
    min_size: 111
    max_size: 162
    aspect_ratio: 2
    aspect_ratio: 3
    flip: true
    clip: false
    variance: 0.1
    variance: 0.1
    variance: 0.2
    variance: 0.2
    step: 32
    offset: 0.5
  }
}
layer {
  name: "conv7_2_mbox_loc"
  type: "Convolution"
  bottom: "conv7_2"
  top: "conv7_2_mbox_loc"
  param {
    lr_mult: 1
    decay_mult: 1
  }
  param {
    lr_mult: 2
    decay_mult: 0
  }
  convolution_param {
    num_output: 24
    pad: 1
    kernel_size: 3
    stride: 1
    weight_filler {
      type: "xavier"
    }
    bias_filler {
      type: "constant"
      value: 0
    }
  }
}
layer {
  name: "conv7_2_mbox_loc_perm"
  type: "Permute"
  bottom: "conv7_2_mbox_loc"
  top: "conv7_2_mbox_loc_perm"
  permute_param {
    order: 0
    order: 2
    order: 3
    order: 1
  }
}
layer {
  name: "conv7_2_mbox_loc_flat"
  type: "Flatten"
  bottom: "conv7_2_mbox_loc_perm"
  top: "conv7_2_mbox_loc_flat"
  flatten_param {
    axis: 1
  }
}
layer {
  name: "conv7_2_mbox_conf"
  type: "Convolution"
  bottom: "conv7_2"
  top: "conv7_2_mbox_conf"
  param {
    lr_mult: 1
    decay_mult: 1
  }
  param {
    lr_mult: 2
    decay_mult: 0
  }
  convolution_param {
    num_output: 132
    pad: 1
    kernel_size: 3
    stride: 1
    weight_filler {
      type: "xavier"
    }
    bias_filler {
      type: "constant"
      value: 0
    }
  }
}
layer {
  name: "conv7_2_mbox_conf_perm"
  type: "Permute"
  bottom: "conv7_2_mbox_conf"
  top: "conv7_2_mbox_conf_perm"
  permute_param {
    order: 0
    order: 2
    order: 3
    order: 1
  }
}
layer {
  name: "conv7_2_mbox_conf_flat"
  type: "Flatten"
  bottom: "conv7_2_mbox_conf_perm"
  top: "conv7_2_mbox_conf_flat"
  flatten_param {
    axis: 1
  }
}
layer {
  name: "conv7_2_mbox_priorbox"
  type: "PriorBox"
  bottom: "conv7_2"
  bottom: "data"
  top: "conv7_2_mbox_priorbox"
  prior_box_param {
    min_size: 162
    max_size: 213
    aspect_ratio: 2
    aspect_ratio: 3
    flip: true
    clip: false
    variance: 0.1
    variance: 0.1
    variance: 0.2
    variance: 0.2
    step: 64
    offset: 0.5
  }
}
layer {
  name: "conv8_2_mbox_loc"
  type: "Convolution"
  bottom: "conv8_2"
  top: "conv8_2_mbox_loc"
  param {
    lr_mult: 1
    decay_mult: 1
  }
  param {
    lr_mult: 2
    decay_mult: 0
  }
  convolution_param {
    num_output: 16
    pad: 1
    kernel_size: 3
    stride: 1
    weight_filler {
      type: "xavier"
    }
    bias_filler {
      type: "constant"
      value: 0
    }
  }
}
layer {
  name: "conv8_2_mbox_loc_perm"
  type: "Permute"
  bottom: "conv8_2_mbox_loc"
  top: "conv8_2_mbox_loc_perm"
  permute_param {
    order: 0
    order: 2
    order: 3
    order: 1
  }
}
layer {
  name: "conv8_2_mbox_loc_flat"
  type: "Flatten"
  bottom: "conv8_2_mbox_loc_perm"
  top: "conv8_2_mbox_loc_flat"
  flatten_param {
    axis: 1
  }
}
layer {
  name: "conv8_2_mbox_conf"
  type: "Convolution"
  bottom: "conv8_2"
  top: "conv8_2_mbox_conf"
  param {
    lr_mult: 1
    decay_mult: 1
  }
  param {
    lr_mult: 2
    decay_mult: 0
  }
  convolution_param {
    num_output: 88
    pad: 1
    kernel_size: 3
    stride: 1
    weight_filler {
      type: "xavier"
    }
    bias_filler {
      type: "constant"
      value: 0
    }
  }
}
layer {
  name: "conv8_2_mbox_conf_perm"
  type: "Permute"
  bottom: "conv8_2_mbox_conf"
  top: "conv8_2_mbox_conf_perm"
  permute_param {
    order: 0
    order: 2
    order: 3
    order: 1
  }
}
layer {
  name: "conv8_2_mbox_conf_flat"
  type: "Flatten"
  bottom: "conv8_2_mbox_conf_perm"
  top: "conv8_2_mbox_conf_flat"
  flatten_param {
    axis: 1
  }
}
layer {
  name: "conv8_2_mbox_priorbox"
  type: "PriorBox"
  bottom: "conv8_2"
  bottom: "data"
  top: "conv8_2_mbox_priorbox"
  prior_box_param {
    min_size: 213
    max_size: 264
    aspect_ratio: 2
    flip: true
    clip: false
    variance: 0.1
    variance: 0.1
    variance: 0.2
    variance: 0.2
    step: 100
    offset: 0.5
  }
}
layer {
  name: "conv9_2_mbox_loc"
  type: "Convolution"
  bottom: "conv9_2"
  top: "conv9_2_mbox_loc"
  param {
    lr_mult: 1
    decay_mult: 1
  }
  param {
    lr_mult: 2
    decay_mult: 0
  }
  convolution_param {
    num_output: 16
    pad: 1
    kernel_size: 3
    stride: 1
    weight_filler {
      type: "xavier"
    }
    bias_filler {
      type: "constant"
      value: 0
    }
  }
}
layer {
  name: "conv9_2_mbox_loc_perm"
  type: "Permute"
  bottom: "conv9_2_mbox_loc"
  top: "conv9_2_mbox_loc_perm"
  permute_param {
    order: 0
    order: 2
    order: 3
    order: 1
  }
}
layer {
  name: "conv9_2_mbox_loc_flat"
  type: "Flatten"
  bottom: "conv9_2_mbox_loc_perm"
  top: "conv9_2_mbox_loc_flat"
  flatten_param {
    axis: 1
  }
}
layer {
  name: "conv9_2_mbox_conf"
  type: "Convolution"
  bottom: "conv9_2"
  top: "conv9_2_mbox_conf"
  param {
    lr_mult: 1
    decay_mult: 1
  }
  param {
    lr_mult: 2
    decay_mult: 0
  }
  convolution_param {
    num_output: 88
    pad: 1
    kernel_size: 3
    stride: 1
    weight_filler {
      type: "xavier"
    }
    bias_filler {
      type: "constant"
      value: 0
    }
  }
}
layer {
  name: "conv9_2_mbox_conf_perm"
  type: "Permute"
  bottom: "conv9_2_mbox_conf"
  top: "conv9_2_mbox_conf_perm"
  permute_param {
    order: 0
    order: 2
    order: 3
    order: 1
  }
}
layer {
  name: "conv9_2_mbox_conf_flat"
  type: "Flatten"
  bottom: "conv9_2_mbox_conf_perm"
  top: "conv9_2_mbox_conf_flat"
  flatten_param {
    axis: 1
  }
}
layer {
  name: "conv9_2_mbox_priorbox"
  type: "PriorBox"
  bottom: "conv9_2"
  bottom: "data"
  top: "conv9_2_mbox_priorbox"
  prior_box_param {
    min_size: 264
    max_size: 315
    aspect_ratio: 2
    flip: true
    clip: false
    variance: 0.1
    variance: 0.1
    variance: 0.2
    variance: 0.2
    step: 300
    offset: 0.5
  }
}
layer {
  name: "mbox_loc"
  type: "Concat"
  bottom: "conv4_3_norm_mbox_loc_flat"
  bottom: "fc7_mbox_loc_flat"
  bottom: "conv6_2_mbox_loc_flat"
  bottom: "conv7_2_mbox_loc_flat"
  bottom: "conv8_2_mbox_loc_flat"
  bottom: "conv9_2_mbox_loc_flat"
  top: "mbox_loc"
  concat_param {
    axis: 1
  }
}
layer {
  name: "mbox_conf"
  type: "Concat"
  bottom: "conv4_3_norm_mbox_conf_flat"
  bottom: "fc7_mbox_conf_flat"
  bottom: "conv6_2_mbox_conf_flat"
  bottom: "conv7_2_mbox_conf_flat"
  bottom: "conv8_2_mbox_conf_flat"
  bottom: "conv9_2_mbox_conf_flat"
  top: "mbox_conf"
  concat_param {
    axis: 1
  }
}
layer {
  name: "mbox_priorbox"
  type: "Concat"
  bottom: "conv4_3_norm_mbox_priorbox"
  bottom: "fc7_mbox_priorbox"
  bottom: "conv6_2_mbox_priorbox"
  bottom: "conv7_2_mbox_priorbox"
  bottom: "conv8_2_mbox_priorbox"
  bottom: "conv9_2_mbox_priorbox"
  top: "mbox_priorbox"
  concat_param {
    axis: 2
  }
}
layer {
  name: "mbox_loss"
  type: "MultiBoxLoss"
  bottom: "mbox_loc"
  bottom: "mbox_conf"
  bottom: "mbox_priorbox"
  bottom: "label"
  top: "mbox_loss"
  include {
    phase: TRAIN
  }
  propagate_down: true
  propagate_down: true
  propagate_down: false
  propagate_down: false
  loss_param {
    normalization: VALID
  }
  multibox_loss_param {
    loc_loss_type: SMOOTH_L1
    conf_loss_type: SOFTMAX
    loc_weight: 1
    num_classes: 22
    share_location: true
    match_type: PER_PREDICTION
    overlap_threshold: 0.5
    use_prior_for_matching: true
    background_label_id: 0
    use_difficult_gt: true
    neg_pos_ratio: 3
    neg_overlap: 0.5
    code_type: CENTER_SIZE
    ignore_cross_boundary_bbox: false
    mining_type: MAX_NEGATIVE
  }
}
I0217 21:26:55.795096 15139 layer_factory.hpp:77] Creating layer data
I0217 21:26:55.795578 15139 net.cpp:100] Creating Layer data
I0217 21:26:55.795594 15139 net.cpp:408] data -> data
I0217 21:26:55.795641 15139 net.cpp:408] data -> label
I0217 21:26:55.797657 15155 db_lmdb.cpp:35] Opened lmdb examples/dbgr_trees/dbgr_trees_trainval_lmdb
I0217 21:26:55.819840 15139 annotated_data_layer.cpp:62] output data size: 32,4,300,300
I0217 21:26:55.886992 15139 net.cpp:150] Setting up data
I0217 21:26:55.887037 15139 net.cpp:157] Top shape: 32 4 300 300 (11520000)
I0217 21:26:55.887044 15139 net.cpp:157] Top shape: 1 1 3 8 (24)
I0217 21:26:55.887048 15139 net.cpp:165] Memory required for data: 46080096
I0217 21:26:55.887059 15139 layer_factory.hpp:77] Creating layer data_data_0_split
I0217 21:26:55.887080 15139 net.cpp:100] Creating Layer data_data_0_split
I0217 21:26:55.887087 15139 net.cpp:434] data_data_0_split <- data
I0217 21:26:55.887101 15139 net.cpp:408] data_data_0_split -> data_data_0_split_0
I0217 21:26:55.887114 15139 net.cpp:408] data_data_0_split -> data_data_0_split_1
I0217 21:26:55.887121 15139 net.cpp:408] data_data_0_split -> data_data_0_split_2
I0217 21:26:55.887128 15139 net.cpp:408] data_data_0_split -> data_data_0_split_3
I0217 21:26:55.887135 15139 net.cpp:408] data_data_0_split -> data_data_0_split_4
I0217 21:26:55.887140 15139 net.cpp:408] data_data_0_split -> data_data_0_split_5
I0217 21:26:55.887145 15139 net.cpp:408] data_data_0_split -> data_data_0_split_6
I0217 21:26:55.887250 15139 net.cpp:150] Setting up data_data_0_split
I0217 21:26:55.887260 15139 net.cpp:157] Top shape: 32 4 300 300 (11520000)
I0217 21:26:55.887264 15139 net.cpp:157] Top shape: 32 4 300 300 (11520000)
I0217 21:26:55.887269 15139 net.cpp:157] Top shape: 32 4 300 300 (11520000)
I0217 21:26:55.887274 15139 net.cpp:157] Top shape: 32 4 300 300 (11520000)
I0217 21:26:55.887277 15139 net.cpp:157] Top shape: 32 4 300 300 (11520000)
I0217 21:26:55.887281 15139 net.cpp:157] Top shape: 32 4 300 300 (11520000)
I0217 21:26:55.887286 15139 net.cpp:157] Top shape: 32 4 300 300 (11520000)
I0217 21:26:55.887290 15139 net.cpp:165] Memory required for data: 368640096
I0217 21:26:55.887293 15139 layer_factory.hpp:77] Creating layer conv1_1_rgbd
I0217 21:26:55.887318 15139 net.cpp:100] Creating Layer conv1_1_rgbd
I0217 21:26:55.887323 15139 net.cpp:434] conv1_1_rgbd <- data_data_0_split_0
I0217 21:26:55.887329 15139 net.cpp:408] conv1_1_rgbd -> conv1_1_rgbd
I0217 21:26:56.062043 15139 net.cpp:150] Setting up conv1_1_rgbd
I0217 21:26:56.062079 15139 net.cpp:157] Top shape: 32 64 300 300 (184320000)
I0217 21:26:56.062085 15139 net.cpp:165] Memory required for data: 1105920096
I0217 21:26:56.062106 15139 layer_factory.hpp:77] Creating layer relu1_1
I0217 21:26:56.062119 15139 net.cpp:100] Creating Layer relu1_1
I0217 21:26:56.062124 15139 net.cpp:434] relu1_1 <- conv1_1_rgbd
I0217 21:26:56.062130 15139 net.cpp:395] relu1_1 -> conv1_1_rgbd (in-place)
I0217 21:26:56.062449 15139 net.cpp:150] Setting up relu1_1
I0217 21:26:56.062464 15139 net.cpp:157] Top shape: 32 64 300 300 (184320000)
I0217 21:26:56.062469 15139 net.cpp:165] Memory required for data: 1843200096
I0217 21:26:56.062474 15139 layer_factory.hpp:77] Creating layer conv1_2
I0217 21:26:56.062489 15139 net.cpp:100] Creating Layer conv1_2
I0217 21:26:56.062492 15139 net.cpp:434] conv1_2 <- conv1_1_rgbd
I0217 21:26:56.062500 15139 net.cpp:408] conv1_2 -> conv1_2
I0217 21:26:56.064256 15139 net.cpp:150] Setting up conv1_2
I0217 21:26:56.064273 15139 net.cpp:157] Top shape: 32 64 300 300 (184320000)
I0217 21:26:56.064278 15139 net.cpp:165] Memory required for data: 2580480096
I0217 21:26:56.064288 15139 layer_factory.hpp:77] Creating layer relu1_2
I0217 21:26:56.064296 15139 net.cpp:100] Creating Layer relu1_2
I0217 21:26:56.064301 15139 net.cpp:434] relu1_2 <- conv1_2
I0217 21:26:56.064306 15139 net.cpp:395] relu1_2 -> conv1_2 (in-place)
I0217 21:26:56.064590 15139 net.cpp:150] Setting up relu1_2
I0217 21:26:56.064604 15139 net.cpp:157] Top shape: 32 64 300 300 (184320000)
I0217 21:26:56.064609 15139 net.cpp:165] Memory required for data: 3317760096
I0217 21:26:56.064612 15139 layer_factory.hpp:77] Creating layer pool1
I0217 21:26:56.064620 15139 net.cpp:100] Creating Layer pool1
I0217 21:26:56.064625 15139 net.cpp:434] pool1 <- conv1_2
I0217 21:26:56.064630 15139 net.cpp:408] pool1 -> pool1
I0217 21:26:56.064687 15139 net.cpp:150] Setting up pool1
I0217 21:26:56.064695 15139 net.cpp:157] Top shape: 32 64 150 150 (46080000)
I0217 21:26:56.064718 15139 net.cpp:165] Memory required for data: 3502080096
I0217 21:26:56.064723 15139 layer_factory.hpp:77] Creating layer conv2_1
I0217 21:26:56.064733 15139 net.cpp:100] Creating Layer conv2_1
I0217 21:26:56.064738 15139 net.cpp:434] conv2_1 <- pool1
I0217 21:26:56.064743 15139 net.cpp:408] conv2_1 -> conv2_1
I0217 21:26:56.066361 15139 net.cpp:150] Setting up conv2_1
I0217 21:26:56.066378 15139 net.cpp:157] Top shape: 32 128 150 150 (92160000)
I0217 21:26:56.066383 15139 net.cpp:165] Memory required for data: 3870720096
I0217 21:26:56.066393 15139 layer_factory.hpp:77] Creating layer relu2_1
I0217 21:26:56.066401 15139 net.cpp:100] Creating Layer relu2_1
I0217 21:26:56.066406 15139 net.cpp:434] relu2_1 <- conv2_1
I0217 21:26:56.066411 15139 net.cpp:395] relu2_1 -> conv2_1 (in-place)
I0217 21:26:56.066592 15139 net.cpp:150] Setting up relu2_1
I0217 21:26:56.066604 15139 net.cpp:157] Top shape: 32 128 150 150 (92160000)
I0217 21:26:56.066608 15139 net.cpp:165] Memory required for data: 4239360096
I0217 21:26:56.066612 15139 layer_factory.hpp:77] Creating layer conv2_2
I0217 21:26:56.066622 15139 net.cpp:100] Creating Layer conv2_2
I0217 21:26:56.066625 15139 net.cpp:434] conv2_2 <- conv2_1
I0217 21:26:56.066632 15139 net.cpp:408] conv2_2 -> conv2_2
I0217 21:26:56.069180 15139 net.cpp:150] Setting up conv2_2
I0217 21:26:56.069197 15139 net.cpp:157] Top shape: 32 128 150 150 (92160000)
I0217 21:26:56.069202 15139 net.cpp:165] Memory required for data: 4608000096
I0217 21:26:56.069209 15139 layer_factory.hpp:77] Creating layer relu2_2
I0217 21:26:56.069216 15139 net.cpp:100] Creating Layer relu2_2
I0217 21:26:56.069221 15139 net.cpp:434] relu2_2 <- conv2_2
I0217 21:26:56.069226 15139 net.cpp:395] relu2_2 -> conv2_2 (in-place)
I0217 21:26:56.069519 15139 net.cpp:150] Setting up relu2_2
I0217 21:26:56.069532 15139 net.cpp:157] Top shape: 32 128 150 150 (92160000)
I0217 21:26:56.069536 15139 net.cpp:165] Memory required for data: 4976640096
I0217 21:26:56.069540 15139 layer_factory.hpp:77] Creating layer pool2
I0217 21:26:56.069547 15139 net.cpp:100] Creating Layer pool2
I0217 21:26:56.069551 15139 net.cpp:434] pool2 <- conv2_2
I0217 21:26:56.069557 15139 net.cpp:408] pool2 -> pool2
I0217 21:26:56.069599 15139 net.cpp:150] Setting up pool2
I0217 21:26:56.069607 15139 net.cpp:157] Top shape: 32 128 75 75 (23040000)
I0217 21:26:56.069612 15139 net.cpp:165] Memory required for data: 5068800096
I0217 21:26:56.069615 15139 layer_factory.hpp:77] Creating layer conv3_1
I0217 21:26:56.069624 15139 net.cpp:100] Creating Layer conv3_1
I0217 21:26:56.069628 15139 net.cpp:434] conv3_1 <- pool2
I0217 21:26:56.069633 15139 net.cpp:408] conv3_1 -> conv3_1
I0217 21:26:56.073679 15139 net.cpp:150] Setting up conv3_1
I0217 21:26:56.073696 15139 net.cpp:157] Top shape: 32 256 75 75 (46080000)
I0217 21:26:56.073701 15139 net.cpp:165] Memory required for data: 5253120096
I0217 21:26:56.073712 15139 layer_factory.hpp:77] Creating layer relu3_1
I0217 21:26:56.073719 15139 net.cpp:100] Creating Layer relu3_1
I0217 21:26:56.073724 15139 net.cpp:434] relu3_1 <- conv3_1
I0217 21:26:56.073729 15139 net.cpp:395] relu3_1 -> conv3_1 (in-place)
I0217 21:26:56.074015 15139 net.cpp:150] Setting up relu3_1
I0217 21:26:56.074029 15139 net.cpp:157] Top shape: 32 256 75 75 (46080000)
I0217 21:26:56.074033 15139 net.cpp:165] Memory required for data: 5437440096
I0217 21:26:56.074038 15139 layer_factory.hpp:77] Creating layer conv3_2
I0217 21:26:56.074048 15139 net.cpp:100] Creating Layer conv3_2
I0217 21:26:56.074053 15139 net.cpp:434] conv3_2 <- conv3_1
I0217 21:26:56.074059 15139 net.cpp:408] conv3_2 -> conv3_2
I0217 21:26:56.080312 15139 net.cpp:150] Setting up conv3_2
I0217 21:26:56.080346 15139 net.cpp:157] Top shape: 32 256 75 75 (46080000)
I0217 21:26:56.080351 15139 net.cpp:165] Memory required for data: 5621760096
I0217 21:26:56.080360 15139 layer_factory.hpp:77] Creating layer relu3_2
I0217 21:26:56.080370 15139 net.cpp:100] Creating Layer relu3_2
I0217 21:26:56.080375 15139 net.cpp:434] relu3_2 <- conv3_2
I0217 21:26:56.080382 15139 net.cpp:395] relu3_2 -> conv3_2 (in-place)
I0217 21:26:56.080565 15139 net.cpp:150] Setting up relu3_2
I0217 21:26:56.080576 15139 net.cpp:157] Top shape: 32 256 75 75 (46080000)
I0217 21:26:56.080580 15139 net.cpp:165] Memory required for data: 5806080096
I0217 21:26:56.080585 15139 layer_factory.hpp:77] Creating layer conv3_3
I0217 21:26:56.080600 15139 net.cpp:100] Creating Layer conv3_3
I0217 21:26:56.080605 15139 net.cpp:434] conv3_3 <- conv3_2
I0217 21:26:56.080610 15139 net.cpp:408] conv3_3 -> conv3_3
I0217 21:26:56.086894 15139 net.cpp:150] Setting up conv3_3
I0217 21:26:56.086927 15139 net.cpp:157] Top shape: 32 256 75 75 (46080000)
I0217 21:26:56.086932 15139 net.cpp:165] Memory required for data: 5990400096
I0217 21:26:56.086942 15139 layer_factory.hpp:77] Creating layer relu3_3
I0217 21:26:56.086952 15139 net.cpp:100] Creating Layer relu3_3
I0217 21:26:56.086959 15139 net.cpp:434] relu3_3 <- conv3_3
I0217 21:26:56.086966 15139 net.cpp:395] relu3_3 -> conv3_3 (in-place)
I0217 21:26:56.087265 15139 net.cpp:150] Setting up relu3_3
I0217 21:26:56.087280 15139 net.cpp:157] Top shape: 32 256 75 75 (46080000)
I0217 21:26:56.087283 15139 net.cpp:165] Memory required for data: 6174720096
I0217 21:26:56.087287 15139 layer_factory.hpp:77] Creating layer pool3
I0217 21:26:56.087296 15139 net.cpp:100] Creating Layer pool3
I0217 21:26:56.087301 15139 net.cpp:434] pool3 <- conv3_3
I0217 21:26:56.087306 15139 net.cpp:408] pool3 -> pool3
I0217 21:26:56.087352 15139 net.cpp:150] Setting up pool3
I0217 21:26:56.087359 15139 net.cpp:157] Top shape: 32 256 38 38 (11829248)
I0217 21:26:56.087363 15139 net.cpp:165] Memory required for data: 6222037088
I0217 21:26:56.087366 15139 layer_factory.hpp:77] Creating layer conv4_1
I0217 21:26:56.087378 15139 net.cpp:100] Creating Layer conv4_1
I0217 21:26:56.087381 15139 net.cpp:434] conv4_1 <- pool3
I0217 21:26:56.087388 15139 net.cpp:408] conv4_1 -> conv4_1
I0217 21:26:56.093610 15156 blocking_queue.cpp:50] Waiting for data
I0217 21:26:56.099200 15139 net.cpp:150] Setting up conv4_1
I0217 21:26:56.099236 15139 net.cpp:157] Top shape: 32 512 38 38 (23658496)
I0217 21:26:56.099241 15139 net.cpp:165] Memory required for data: 6316671072
I0217 21:26:56.099251 15139 layer_factory.hpp:77] Creating layer relu4_1
I0217 21:26:56.099262 15139 net.cpp:100] Creating Layer relu4_1
I0217 21:26:56.099268 15139 net.cpp:434] relu4_1 <- conv4_1
I0217 21:26:56.099282 15139 net.cpp:395] relu4_1 -> conv4_1 (in-place)
I0217 21:26:56.099582 15139 net.cpp:150] Setting up relu4_1
I0217 21:26:56.099597 15139 net.cpp:157] Top shape: 32 512 38 38 (23658496)
I0217 21:26:56.099601 15139 net.cpp:165] Memory required for data: 6411305056
I0217 21:26:56.099606 15139 layer_factory.hpp:77] Creating layer conv4_2
I0217 21:26:56.099619 15139 net.cpp:100] Creating Layer conv4_2
I0217 21:26:56.099623 15139 net.cpp:434] conv4_2 <- conv4_1
I0217 21:26:56.099629 15139 net.cpp:408] conv4_2 -> conv4_2
I0217 21:26:56.121222 15139 net.cpp:150] Setting up conv4_2
I0217 21:26:56.121258 15139 net.cpp:157] Top shape: 32 512 38 38 (23658496)
I0217 21:26:56.121263 15139 net.cpp:165] Memory required for data: 6505939040
I0217 21:26:56.121279 15139 layer_factory.hpp:77] Creating layer relu4_2
I0217 21:26:56.121290 15139 net.cpp:100] Creating Layer relu4_2
I0217 21:26:56.121296 15139 net.cpp:434] relu4_2 <- conv4_2
I0217 21:26:56.121304 15139 net.cpp:395] relu4_2 -> conv4_2 (in-place)
I0217 21:26:56.121484 15139 net.cpp:150] Setting up relu4_2
I0217 21:26:56.121495 15139 net.cpp:157] Top shape: 32 512 38 38 (23658496)
I0217 21:26:56.121500 15139 net.cpp:165] Memory required for data: 6600573024
I0217 21:26:56.121503 15139 layer_factory.hpp:77] Creating layer conv4_3
I0217 21:26:56.121515 15139 net.cpp:100] Creating Layer conv4_3
I0217 21:26:56.121520 15139 net.cpp:434] conv4_3 <- conv4_2
I0217 21:26:56.121526 15139 net.cpp:408] conv4_3 -> conv4_3
I0217 21:26:56.142668 15139 net.cpp:150] Setting up conv4_3
I0217 21:26:56.142704 15139 net.cpp:157] Top shape: 32 512 38 38 (23658496)
I0217 21:26:56.142709 15139 net.cpp:165] Memory required for data: 6695207008
I0217 21:26:56.142742 15139 layer_factory.hpp:77] Creating layer relu4_3
I0217 21:26:56.142752 15139 net.cpp:100] Creating Layer relu4_3
I0217 21:26:56.142757 15139 net.cpp:434] relu4_3 <- conv4_3
I0217 21:26:56.142765 15139 net.cpp:395] relu4_3 -> conv4_3 (in-place)
I0217 21:26:56.143071 15139 net.cpp:150] Setting up relu4_3
I0217 21:26:56.143090 15139 net.cpp:157] Top shape: 32 512 38 38 (23658496)
I0217 21:26:56.143095 15139 net.cpp:165] Memory required for data: 6789840992
I0217 21:26:56.143098 15139 layer_factory.hpp:77] Creating layer conv4_3_relu4_3_0_split
I0217 21:26:56.143105 15139 net.cpp:100] Creating Layer conv4_3_relu4_3_0_split
I0217 21:26:56.143110 15139 net.cpp:434] conv4_3_relu4_3_0_split <- conv4_3
I0217 21:26:56.143115 15139 net.cpp:408] conv4_3_relu4_3_0_split -> conv4_3_relu4_3_0_split_0
I0217 21:26:56.143123 15139 net.cpp:408] conv4_3_relu4_3_0_split -> conv4_3_relu4_3_0_split_1
I0217 21:26:56.143165 15139 net.cpp:150] Setting up conv4_3_relu4_3_0_split
I0217 21:26:56.143172 15139 net.cpp:157] Top shape: 32 512 38 38 (23658496)
I0217 21:26:56.143177 15139 net.cpp:157] Top shape: 32 512 38 38 (23658496)
I0217 21:26:56.143180 15139 net.cpp:165] Memory required for data: 6979108960
I0217 21:26:56.143184 15139 layer_factory.hpp:77] Creating layer pool4
I0217 21:26:56.143191 15139 net.cpp:100] Creating Layer pool4
I0217 21:26:56.143195 15139 net.cpp:434] pool4 <- conv4_3_relu4_3_0_split_0
I0217 21:26:56.143201 15139 net.cpp:408] pool4 -> pool4
I0217 21:26:56.143237 15139 net.cpp:150] Setting up pool4
I0217 21:26:56.143245 15139 net.cpp:157] Top shape: 32 512 19 19 (5914624)
I0217 21:26:56.143249 15139 net.cpp:165] Memory required for data: 7002767456
I0217 21:26:56.143252 15139 layer_factory.hpp:77] Creating layer conv5_1
I0217 21:26:56.143263 15139 net.cpp:100] Creating Layer conv5_1
I0217 21:26:56.143268 15139 net.cpp:434] conv5_1 <- pool4
I0217 21:26:56.143275 15139 net.cpp:408] conv5_1 -> conv5_1
I0217 21:26:56.164428 15139 net.cpp:150] Setting up conv5_1
I0217 21:26:56.164464 15139 net.cpp:157] Top shape: 32 512 19 19 (5914624)
I0217 21:26:56.164469 15139 net.cpp:165] Memory required for data: 7026425952
I0217 21:26:56.164479 15139 layer_factory.hpp:77] Creating layer relu5_1
I0217 21:26:56.164489 15139 net.cpp:100] Creating Layer relu5_1
I0217 21:26:56.164494 15139 net.cpp:434] relu5_1 <- conv5_1
I0217 21:26:56.164502 15139 net.cpp:395] relu5_1 -> conv5_1 (in-place)
I0217 21:26:56.164793 15139 net.cpp:150] Setting up relu5_1
I0217 21:26:56.164808 15139 net.cpp:157] Top shape: 32 512 19 19 (5914624)
I0217 21:26:56.164811 15139 net.cpp:165] Memory required for data: 7050084448
I0217 21:26:56.164816 15139 layer_factory.hpp:77] Creating layer conv5_2
I0217 21:26:56.164829 15139 net.cpp:100] Creating Layer conv5_2
I0217 21:26:56.164832 15139 net.cpp:434] conv5_2 <- conv5_1
I0217 21:26:56.164839 15139 net.cpp:408] conv5_2 -> conv5_2
I0217 21:26:56.186025 15139 net.cpp:150] Setting up conv5_2
I0217 21:26:56.186060 15139 net.cpp:157] Top shape: 32 512 19 19 (5914624)
I0217 21:26:56.186065 15139 net.cpp:165] Memory required for data: 7073742944
I0217 21:26:56.186074 15139 layer_factory.hpp:77] Creating layer relu5_2
I0217 21:26:56.186084 15139 net.cpp:100] Creating Layer relu5_2
I0217 21:26:56.186090 15139 net.cpp:434] relu5_2 <- conv5_2
I0217 21:26:56.186097 15139 net.cpp:395] relu5_2 -> conv5_2 (in-place)
I0217 21:26:56.186266 15139 net.cpp:150] Setting up relu5_2
I0217 21:26:56.186277 15139 net.cpp:157] Top shape: 32 512 19 19 (5914624)
I0217 21:26:56.186281 15139 net.cpp:165] Memory required for data: 7097401440
I0217 21:26:56.186285 15139 layer_factory.hpp:77] Creating layer conv5_3
I0217 21:26:56.186296 15139 net.cpp:100] Creating Layer conv5_3
I0217 21:26:56.186301 15139 net.cpp:434] conv5_3 <- conv5_2
I0217 21:26:56.186306 15139 net.cpp:408] conv5_3 -> conv5_3
I0217 21:26:56.207631 15139 net.cpp:150] Setting up conv5_3
I0217 21:26:56.207666 15139 net.cpp:157] Top shape: 32 512 19 19 (5914624)
I0217 21:26:56.207672 15139 net.cpp:165] Memory required for data: 7121059936
I0217 21:26:56.207681 15139 layer_factory.hpp:77] Creating layer relu5_3
I0217 21:26:56.207720 15139 net.cpp:100] Creating Layer relu5_3
I0217 21:26:56.207726 15139 net.cpp:434] relu5_3 <- conv5_3
I0217 21:26:56.207734 15139 net.cpp:395] relu5_3 -> conv5_3 (in-place)
I0217 21:26:56.208042 15139 net.cpp:150] Setting up relu5_3
I0217 21:26:56.208057 15139 net.cpp:157] Top shape: 32 512 19 19 (5914624)
I0217 21:26:56.208061 15139 net.cpp:165] Memory required for data: 7144718432
I0217 21:26:56.208065 15139 layer_factory.hpp:77] Creating layer pool5
I0217 21:26:56.208073 15139 net.cpp:100] Creating Layer pool5
I0217 21:26:56.208078 15139 net.cpp:434] pool5 <- conv5_3
I0217 21:26:56.208084 15139 net.cpp:408] pool5 -> pool5
I0217 21:26:56.208130 15139 net.cpp:150] Setting up pool5
I0217 21:26:56.208147 15139 net.cpp:157] Top shape: 32 512 19 19 (5914624)
I0217 21:26:56.208149 15139 net.cpp:165] Memory required for data: 7168376928
I0217 21:26:56.208153 15139 layer_factory.hpp:77] Creating layer fc6
I0217 21:26:56.208165 15139 net.cpp:100] Creating Layer fc6
I0217 21:26:56.208169 15139 net.cpp:434] fc6 <- pool5
I0217 21:26:56.208175 15139 net.cpp:408] fc6 -> fc6
I0217 21:26:56.249081 15139 net.cpp:150] Setting up fc6
I0217 21:26:56.249117 15139 net.cpp:157] Top shape: 32 1024 19 19 (11829248)
I0217 21:26:56.249122 15139 net.cpp:165] Memory required for data: 7215693920
I0217 21:26:56.249132 15139 layer_factory.hpp:77] Creating layer relu6
I0217 21:26:56.249143 15139 net.cpp:100] Creating Layer relu6
I0217 21:26:56.249150 15139 net.cpp:434] relu6 <- fc6
I0217 21:26:56.249157 15139 net.cpp:395] relu6 -> fc6 (in-place)
I0217 21:26:56.249392 15139 net.cpp:150] Setting up relu6
I0217 21:26:56.249402 15139 net.cpp:157] Top shape: 32 1024 19 19 (11829248)
I0217 21:26:56.249406 15139 net.cpp:165] Memory required for data: 7263010912
I0217 21:26:56.249410 15139 layer_factory.hpp:77] Creating layer fc7
I0217 21:26:56.249423 15139 net.cpp:100] Creating Layer fc7
I0217 21:26:56.249426 15139 net.cpp:434] fc7 <- fc6
I0217 21:26:56.249433 15139 net.cpp:408] fc7 -> fc7
I0217 21:26:56.259681 15139 net.cpp:150] Setting up fc7
I0217 21:26:56.259716 15139 net.cpp:157] Top shape: 32 1024 19 19 (11829248)
I0217 21:26:56.259721 15139 net.cpp:165] Memory required for data: 7310327904
I0217 21:26:56.259730 15139 layer_factory.hpp:77] Creating layer relu7
I0217 21:26:56.259742 15139 net.cpp:100] Creating Layer relu7
I0217 21:26:56.259747 15139 net.cpp:434] relu7 <- fc7
I0217 21:26:56.259755 15139 net.cpp:395] relu7 -> fc7 (in-place)
I0217 21:26:56.260073 15139 net.cpp:150] Setting up relu7
I0217 21:26:56.260088 15139 net.cpp:157] Top shape: 32 1024 19 19 (11829248)
I0217 21:26:56.260092 15139 net.cpp:165] Memory required for data: 7357644896
I0217 21:26:56.260095 15139 layer_factory.hpp:77] Creating layer fc7_relu7_0_split
I0217 21:26:56.260105 15139 net.cpp:100] Creating Layer fc7_relu7_0_split
I0217 21:26:56.260109 15139 net.cpp:434] fc7_relu7_0_split <- fc7
I0217 21:26:56.260115 15139 net.cpp:408] fc7_relu7_0_split -> fc7_relu7_0_split_0
I0217 21:26:56.260123 15139 net.cpp:408] fc7_relu7_0_split -> fc7_relu7_0_split_1
I0217 21:26:56.260134 15139 net.cpp:408] fc7_relu7_0_split -> fc7_relu7_0_split_2
I0217 21:26:56.260140 15139 net.cpp:408] fc7_relu7_0_split -> fc7_relu7_0_split_3
I0217 21:26:56.260210 15139 net.cpp:150] Setting up fc7_relu7_0_split
I0217 21:26:56.260221 15139 net.cpp:157] Top shape: 32 1024 19 19 (11829248)
I0217 21:26:56.260226 15139 net.cpp:157] Top shape: 32 1024 19 19 (11829248)
I0217 21:26:56.260231 15139 net.cpp:157] Top shape: 32 1024 19 19 (11829248)
I0217 21:26:56.260234 15139 net.cpp:157] Top shape: 32 1024 19 19 (11829248)
I0217 21:26:56.260237 15139 net.cpp:165] Memory required for data: 7546912864
I0217 21:26:56.260241 15139 layer_factory.hpp:77] Creating layer conv6_1
I0217 21:26:56.260253 15139 net.cpp:100] Creating Layer conv6_1
I0217 21:26:56.260259 15139 net.cpp:434] conv6_1 <- fc7_relu7_0_split_0
I0217 21:26:56.260267 15139 net.cpp:408] conv6_1 -> conv6_1
I0217 21:26:56.263774 15139 net.cpp:150] Setting up conv6_1
I0217 21:26:56.263795 15139 net.cpp:157] Top shape: 32 256 19 19 (2957312)
I0217 21:26:56.263818 15139 net.cpp:165] Memory required for data: 7558742112
I0217 21:26:56.263826 15139 layer_factory.hpp:77] Creating layer conv6_1_relu
I0217 21:26:56.263834 15139 net.cpp:100] Creating Layer conv6_1_relu
I0217 21:26:56.263839 15139 net.cpp:434] conv6_1_relu <- conv6_1
I0217 21:26:56.263846 15139 net.cpp:395] conv6_1_relu -> conv6_1 (in-place)
I0217 21:26:56.264175 15139 net.cpp:150] Setting up conv6_1_relu
I0217 21:26:56.264189 15139 net.cpp:157] Top shape: 32 256 19 19 (2957312)
I0217 21:26:56.264194 15139 net.cpp:165] Memory required for data: 7570571360
I0217 21:26:56.264197 15139 layer_factory.hpp:77] Creating layer conv6_2
I0217 21:26:56.264210 15139 net.cpp:100] Creating Layer conv6_2
I0217 21:26:56.264215 15139 net.cpp:434] conv6_2 <- conv6_1
I0217 21:26:56.264222 15139 net.cpp:408] conv6_2 -> conv6_2
I0217 21:26:56.275346 15139 net.cpp:150] Setting up conv6_2
I0217 21:26:56.275367 15139 net.cpp:157] Top shape: 32 512 10 10 (1638400)
I0217 21:26:56.275372 15139 net.cpp:165] Memory required for data: 7577124960
I0217 21:26:56.275389 15139 layer_factory.hpp:77] Creating layer conv6_2_relu
I0217 21:26:56.275398 15139 net.cpp:100] Creating Layer conv6_2_relu
I0217 21:26:56.275403 15139 net.cpp:434] conv6_2_relu <- conv6_2
I0217 21:26:56.275409 15139 net.cpp:395] conv6_2_relu -> conv6_2 (in-place)
I0217 21:26:56.275591 15139 net.cpp:150] Setting up conv6_2_relu
I0217 21:26:56.275602 15139 net.cpp:157] Top shape: 32 512 10 10 (1638400)
I0217 21:26:56.275606 15139 net.cpp:165] Memory required for data: 7583678560
I0217 21:26:56.275609 15139 layer_factory.hpp:77] Creating layer conv6_2_conv6_2_relu_0_split
I0217 21:26:56.275616 15139 net.cpp:100] Creating Layer conv6_2_conv6_2_relu_0_split
I0217 21:26:56.275621 15139 net.cpp:434] conv6_2_conv6_2_relu_0_split <- conv6_2
I0217 21:26:56.275627 15139 net.cpp:408] conv6_2_conv6_2_relu_0_split -> conv6_2_conv6_2_relu_0_split_0
I0217 21:26:56.275635 15139 net.cpp:408] conv6_2_conv6_2_relu_0_split -> conv6_2_conv6_2_relu_0_split_1
I0217 21:26:56.275641 15139 net.cpp:408] conv6_2_conv6_2_relu_0_split -> conv6_2_conv6_2_relu_0_split_2
I0217 21:26:56.275647 15139 net.cpp:408] conv6_2_conv6_2_relu_0_split -> conv6_2_conv6_2_relu_0_split_3
I0217 21:26:56.275717 15139 net.cpp:150] Setting up conv6_2_conv6_2_relu_0_split
I0217 21:26:56.275725 15139 net.cpp:157] Top shape: 32 512 10 10 (1638400)
I0217 21:26:56.275729 15139 net.cpp:157] Top shape: 32 512 10 10 (1638400)
I0217 21:26:56.275733 15139 net.cpp:157] Top shape: 32 512 10 10 (1638400)
I0217 21:26:56.275738 15139 net.cpp:157] Top shape: 32 512 10 10 (1638400)
I0217 21:26:56.275741 15139 net.cpp:165] Memory required for data: 7609892960
I0217 21:26:56.275744 15139 layer_factory.hpp:77] Creating layer conv7_1
I0217 21:26:56.275756 15139 net.cpp:100] Creating Layer conv7_1
I0217 21:26:56.275763 15139 net.cpp:434] conv7_1 <- conv6_2_conv6_2_relu_0_split_0
I0217 21:26:56.275770 15139 net.cpp:408] conv7_1 -> conv7_1
I0217 21:26:56.277328 15139 net.cpp:150] Setting up conv7_1
I0217 21:26:56.277343 15139 net.cpp:157] Top shape: 32 128 10 10 (409600)
I0217 21:26:56.277348 15139 net.cpp:165] Memory required for data: 7611531360
I0217 21:26:56.277355 15139 layer_factory.hpp:77] Creating layer conv7_1_relu
I0217 21:26:56.277364 15139 net.cpp:100] Creating Layer conv7_1_relu
I0217 21:26:56.277369 15139 net.cpp:434] conv7_1_relu <- conv7_1
I0217 21:26:56.277374 15139 net.cpp:395] conv7_1_relu -> conv7_1 (in-place)
I0217 21:26:56.277686 15139 net.cpp:150] Setting up conv7_1_relu
I0217 21:26:56.277700 15139 net.cpp:157] Top shape: 32 128 10 10 (409600)
I0217 21:26:56.277704 15139 net.cpp:165] Memory required for data: 7613169760
I0217 21:26:56.277709 15139 layer_factory.hpp:77] Creating layer conv7_2
I0217 21:26:56.277720 15139 net.cpp:100] Creating Layer conv7_2
I0217 21:26:56.277724 15139 net.cpp:434] conv7_2 <- conv7_1
I0217 21:26:56.277731 15139 net.cpp:408] conv7_2 -> conv7_2
I0217 21:26:56.281319 15139 net.cpp:150] Setting up conv7_2
I0217 21:26:56.281335 15139 net.cpp:157] Top shape: 32 256 5 5 (204800)
I0217 21:26:56.281354 15139 net.cpp:165] Memory required for data: 7613988960
I0217 21:26:56.281363 15139 layer_factory.hpp:77] Creating layer conv7_2_relu
I0217 21:26:56.281370 15139 net.cpp:100] Creating Layer conv7_2_relu
I0217 21:26:56.281374 15139 net.cpp:434] conv7_2_relu <- conv7_2
I0217 21:26:56.281380 15139 net.cpp:395] conv7_2_relu -> conv7_2 (in-place)
I0217 21:26:56.281703 15139 net.cpp:150] Setting up conv7_2_relu
I0217 21:26:56.281718 15139 net.cpp:157] Top shape: 32 256 5 5 (204800)
I0217 21:26:56.281723 15139 net.cpp:165] Memory required for data: 7614808160
I0217 21:26:56.281725 15139 layer_factory.hpp:77] Creating layer conv7_2_conv7_2_relu_0_split
I0217 21:26:56.281734 15139 net.cpp:100] Creating Layer conv7_2_conv7_2_relu_0_split
I0217 21:26:56.281738 15139 net.cpp:434] conv7_2_conv7_2_relu_0_split <- conv7_2
I0217 21:26:56.281744 15139 net.cpp:408] conv7_2_conv7_2_relu_0_split -> conv7_2_conv7_2_relu_0_split_0
I0217 21:26:56.281751 15139 net.cpp:408] conv7_2_conv7_2_relu_0_split -> conv7_2_conv7_2_relu_0_split_1
I0217 21:26:56.281759 15139 net.cpp:408] conv7_2_conv7_2_relu_0_split -> conv7_2_conv7_2_relu_0_split_2
I0217 21:26:56.281765 15139 net.cpp:408] conv7_2_conv7_2_relu_0_split -> conv7_2_conv7_2_relu_0_split_3
I0217 21:26:56.281838 15139 net.cpp:150] Setting up conv7_2_conv7_2_relu_0_split
I0217 21:26:56.281847 15139 net.cpp:157] Top shape: 32 256 5 5 (204800)
I0217 21:26:56.281852 15139 net.cpp:157] Top shape: 32 256 5 5 (204800)
I0217 21:26:56.281857 15139 net.cpp:157] Top shape: 32 256 5 5 (204800)
I0217 21:26:56.281860 15139 net.cpp:157] Top shape: 32 256 5 5 (204800)
I0217 21:26:56.281863 15139 net.cpp:165] Memory required for data: 7618084960
I0217 21:26:56.281867 15139 layer_factory.hpp:77] Creating layer conv8_1
I0217 21:26:56.281877 15139 net.cpp:100] Creating Layer conv8_1
I0217 21:26:56.281882 15139 net.cpp:434] conv8_1 <- conv7_2_conv7_2_relu_0_split_0
I0217 21:26:56.281889 15139 net.cpp:408] conv8_1 -> conv8_1
I0217 21:26:56.283211 15139 net.cpp:150] Setting up conv8_1
I0217 21:26:56.283227 15139 net.cpp:157] Top shape: 32 128 5 5 (102400)
I0217 21:26:56.283231 15139 net.cpp:165] Memory required for data: 7618494560
I0217 21:26:56.283238 15139 layer_factory.hpp:77] Creating layer conv8_1_relu
I0217 21:26:56.283246 15139 net.cpp:100] Creating Layer conv8_1_relu
I0217 21:26:56.283249 15139 net.cpp:434] conv8_1_relu <- conv8_1
I0217 21:26:56.283257 15139 net.cpp:395] conv8_1_relu -> conv8_1 (in-place)
I0217 21:26:56.283434 15139 net.cpp:150] Setting up conv8_1_relu
I0217 21:26:56.283445 15139 net.cpp:157] Top shape: 32 128 5 5 (102400)
I0217 21:26:56.283448 15139 net.cpp:165] Memory required for data: 7618904160
I0217 21:26:56.283452 15139 layer_factory.hpp:77] Creating layer conv8_2
I0217 21:26:56.283464 15139 net.cpp:100] Creating Layer conv8_2
I0217 21:26:56.283468 15139 net.cpp:434] conv8_2 <- conv8_1
I0217 21:26:56.283475 15139 net.cpp:408] conv8_2 -> conv8_2
I0217 21:26:56.287197 15139 net.cpp:150] Setting up conv8_2
I0217 21:26:56.287214 15139 net.cpp:157] Top shape: 32 256 3 3 (73728)
I0217 21:26:56.287219 15139 net.cpp:165] Memory required for data: 7619199072
I0217 21:26:56.287225 15139 layer_factory.hpp:77] Creating layer conv8_2_relu
I0217 21:26:56.287233 15139 net.cpp:100] Creating Layer conv8_2_relu
I0217 21:26:56.287238 15139 net.cpp:434] conv8_2_relu <- conv8_2
I0217 21:26:56.287245 15139 net.cpp:395] conv8_2_relu -> conv8_2 (in-place)
I0217 21:26:56.287561 15139 net.cpp:150] Setting up conv8_2_relu
I0217 21:26:56.287576 15139 net.cpp:157] Top shape: 32 256 3 3 (73728)
I0217 21:26:56.287580 15139 net.cpp:165] Memory required for data: 7619493984
I0217 21:26:56.287585 15139 layer_factory.hpp:77] Creating layer conv8_2_conv8_2_relu_0_split
I0217 21:26:56.287591 15139 net.cpp:100] Creating Layer conv8_2_conv8_2_relu_0_split
I0217 21:26:56.287595 15139 net.cpp:434] conv8_2_conv8_2_relu_0_split <- conv8_2
I0217 21:26:56.287601 15139 net.cpp:408] conv8_2_conv8_2_relu_0_split -> conv8_2_conv8_2_relu_0_split_0
I0217 21:26:56.287608 15139 net.cpp:408] conv8_2_conv8_2_relu_0_split -> conv8_2_conv8_2_relu_0_split_1
I0217 21:26:56.287628 15139 net.cpp:408] conv8_2_conv8_2_relu_0_split -> conv8_2_conv8_2_relu_0_split_2
I0217 21:26:56.287636 15139 net.cpp:408] conv8_2_conv8_2_relu_0_split -> conv8_2_conv8_2_relu_0_split_3
I0217 21:26:56.287711 15139 net.cpp:150] Setting up conv8_2_conv8_2_relu_0_split
I0217 21:26:56.287721 15139 net.cpp:157] Top shape: 32 256 3 3 (73728)
I0217 21:26:56.287726 15139 net.cpp:157] Top shape: 32 256 3 3 (73728)
I0217 21:26:56.287730 15139 net.cpp:157] Top shape: 32 256 3 3 (73728)
I0217 21:26:56.287734 15139 net.cpp:157] Top shape: 32 256 3 3 (73728)
I0217 21:26:56.287737 15139 net.cpp:165] Memory required for data: 7620673632
I0217 21:26:56.287741 15139 layer_factory.hpp:77] Creating layer conv9_1
I0217 21:26:56.287752 15139 net.cpp:100] Creating Layer conv9_1
I0217 21:26:56.287757 15139 net.cpp:434] conv9_1 <- conv8_2_conv8_2_relu_0_split_0
I0217 21:26:56.287765 15139 net.cpp:408] conv9_1 -> conv9_1
I0217 21:26:56.288954 15139 net.cpp:150] Setting up conv9_1
I0217 21:26:56.288969 15139 net.cpp:157] Top shape: 32 128 3 3 (36864)
I0217 21:26:56.288972 15139 net.cpp:165] Memory required for data: 7620821088
I0217 21:26:56.288980 15139 layer_factory.hpp:77] Creating layer conv9_1_relu
I0217 21:26:56.288987 15139 net.cpp:100] Creating Layer conv9_1_relu
I0217 21:26:56.288991 15139 net.cpp:434] conv9_1_relu <- conv9_1
I0217 21:26:56.288997 15139 net.cpp:395] conv9_1_relu -> conv9_1 (in-place)
I0217 21:26:56.289314 15139 net.cpp:150] Setting up conv9_1_relu
I0217 21:26:56.289328 15139 net.cpp:157] Top shape: 32 128 3 3 (36864)
I0217 21:26:56.289332 15139 net.cpp:165] Memory required for data: 7620968544
I0217 21:26:56.289336 15139 layer_factory.hpp:77] Creating layer conv9_2
I0217 21:26:56.289350 15139 net.cpp:100] Creating Layer conv9_2
I0217 21:26:56.289353 15139 net.cpp:434] conv9_2 <- conv9_1
I0217 21:26:56.289361 15139 net.cpp:408] conv9_2 -> conv9_2
I0217 21:26:56.293088 15139 net.cpp:150] Setting up conv9_2
I0217 21:26:56.293104 15139 net.cpp:157] Top shape: 32 256 1 1 (8192)
I0217 21:26:56.293108 15139 net.cpp:165] Memory required for data: 7621001312
I0217 21:26:56.293115 15139 layer_factory.hpp:77] Creating layer conv9_2_relu
I0217 21:26:56.293123 15139 net.cpp:100] Creating Layer conv9_2_relu
I0217 21:26:56.293128 15139 net.cpp:434] conv9_2_relu <- conv9_2
I0217 21:26:56.293133 15139 net.cpp:395] conv9_2_relu -> conv9_2 (in-place)
I0217 21:26:56.293318 15139 net.cpp:150] Setting up conv9_2_relu
I0217 21:26:56.293329 15139 net.cpp:157] Top shape: 32 256 1 1 (8192)
I0217 21:26:56.293331 15139 net.cpp:165] Memory required for data: 7621034080
I0217 21:26:56.293335 15139 layer_factory.hpp:77] Creating layer conv9_2_conv9_2_relu_0_split
I0217 21:26:56.293341 15139 net.cpp:100] Creating Layer conv9_2_conv9_2_relu_0_split
I0217 21:26:56.293345 15139 net.cpp:434] conv9_2_conv9_2_relu_0_split <- conv9_2
I0217 21:26:56.293352 15139 net.cpp:408] conv9_2_conv9_2_relu_0_split -> conv9_2_conv9_2_relu_0_split_0
I0217 21:26:56.293359 15139 net.cpp:408] conv9_2_conv9_2_relu_0_split -> conv9_2_conv9_2_relu_0_split_1
I0217 21:26:56.293365 15139 net.cpp:408] conv9_2_conv9_2_relu_0_split -> conv9_2_conv9_2_relu_0_split_2
I0217 21:26:56.293426 15139 net.cpp:150] Setting up conv9_2_conv9_2_relu_0_split
I0217 21:26:56.293433 15139 net.cpp:157] Top shape: 32 256 1 1 (8192)
I0217 21:26:56.293437 15139 net.cpp:157] Top shape: 32 256 1 1 (8192)
I0217 21:26:56.293442 15139 net.cpp:157] Top shape: 32 256 1 1 (8192)
I0217 21:26:56.293444 15139 net.cpp:165] Memory required for data: 7621132384
I0217 21:26:56.293448 15139 layer_factory.hpp:77] Creating layer conv4_3_norm
I0217 21:26:56.293457 15139 net.cpp:100] Creating Layer conv4_3_norm
I0217 21:26:56.293462 15139 net.cpp:434] conv4_3_norm <- conv4_3_relu4_3_0_split_1
I0217 21:26:56.293468 15139 net.cpp:408] conv4_3_norm -> conv4_3_norm
I0217 21:26:56.293637 15139 net.cpp:150] Setting up conv4_3_norm
I0217 21:26:56.293647 15139 net.cpp:157] Top shape: 32 512 38 38 (23658496)
I0217 21:26:56.293650 15139 net.cpp:165] Memory required for data: 7715766368
I0217 21:26:56.293666 15139 layer_factory.hpp:77] Creating layer conv4_3_norm_conv4_3_norm_0_split
I0217 21:26:56.293674 15139 net.cpp:100] Creating Layer conv4_3_norm_conv4_3_norm_0_split
I0217 21:26:56.293678 15139 net.cpp:434] conv4_3_norm_conv4_3_norm_0_split <- conv4_3_norm
I0217 21:26:56.293684 15139 net.cpp:408] conv4_3_norm_conv4_3_norm_0_split -> conv4_3_norm_conv4_3_norm_0_split_0
I0217 21:26:56.293690 15139 net.cpp:408] conv4_3_norm_conv4_3_norm_0_split -> conv4_3_norm_conv4_3_norm_0_split_1
I0217 21:26:56.293696 15139 net.cpp:408] conv4_3_norm_conv4_3_norm_0_split -> conv4_3_norm_conv4_3_norm_0_split_2
I0217 21:26:56.293748 15139 net.cpp:150] Setting up conv4_3_norm_conv4_3_norm_0_split
I0217 21:26:56.293756 15139 net.cpp:157] Top shape: 32 512 38 38 (23658496)
I0217 21:26:56.293761 15139 net.cpp:157] Top shape: 32 512 38 38 (23658496)
I0217 21:26:56.293764 15139 net.cpp:157] Top shape: 32 512 38 38 (23658496)
I0217 21:26:56.293767 15139 net.cpp:165] Memory required for data: 7999668320
I0217 21:26:56.293771 15139 layer_factory.hpp:77] Creating layer conv4_3_norm_mbox_loc
I0217 21:26:56.293781 15139 net.cpp:100] Creating Layer conv4_3_norm_mbox_loc
I0217 21:26:56.293786 15139 net.cpp:434] conv4_3_norm_mbox_loc <- conv4_3_norm_conv4_3_norm_0_split_0
I0217 21:26:56.293792 15139 net.cpp:408] conv4_3_norm_mbox_loc -> conv4_3_norm_mbox_loc
I0217 21:26:56.295567 15139 net.cpp:150] Setting up conv4_3_norm_mbox_loc
I0217 21:26:56.295583 15139 net.cpp:157] Top shape: 32 16 38 38 (739328)
I0217 21:26:56.295588 15139 net.cpp:165] Memory required for data: 8002625632
I0217 21:26:56.295594 15139 layer_factory.hpp:77] Creating layer conv4_3_norm_mbox_loc_perm
I0217 21:26:56.295603 15139 net.cpp:100] Creating Layer conv4_3_norm_mbox_loc_perm
I0217 21:26:56.295606 15139 net.cpp:434] conv4_3_norm_mbox_loc_perm <- conv4_3_norm_mbox_loc
I0217 21:26:56.295614 15139 net.cpp:408] conv4_3_norm_mbox_loc_perm -> conv4_3_norm_mbox_loc_perm
I0217 21:26:56.295735 15139 net.cpp:150] Setting up conv4_3_norm_mbox_loc_perm
I0217 21:26:56.295744 15139 net.cpp:157] Top shape: 32 38 38 16 (739328)
I0217 21:26:56.295747 15139 net.cpp:165] Memory required for data: 8005582944
I0217 21:26:56.295752 15139 layer_factory.hpp:77] Creating layer conv4_3_norm_mbox_loc_flat
I0217 21:26:56.295768 15139 net.cpp:100] Creating Layer conv4_3_norm_mbox_loc_flat
I0217 21:26:56.295771 15139 net.cpp:434] conv4_3_norm_mbox_loc_flat <- conv4_3_norm_mbox_loc_perm
I0217 21:26:56.295778 15139 net.cpp:408] conv4_3_norm_mbox_loc_flat -> conv4_3_norm_mbox_loc_flat
I0217 21:26:56.295814 15139 net.cpp:150] Setting up conv4_3_norm_mbox_loc_flat
I0217 21:26:56.295824 15139 net.cpp:157] Top shape: 32 23104 (739328)
I0217 21:26:56.295826 15139 net.cpp:165] Memory required for data: 8008540256
I0217 21:26:56.295830 15139 layer_factory.hpp:77] Creating layer conv4_3_norm_mbox_conf
I0217 21:26:56.295847 15139 net.cpp:100] Creating Layer conv4_3_norm_mbox_conf
I0217 21:26:56.295852 15139 net.cpp:434] conv4_3_norm_mbox_conf <- conv4_3_norm_conv4_3_norm_0_split_1
I0217 21:26:56.295861 15139 net.cpp:408] conv4_3_norm_mbox_conf -> conv4_3_norm_mbox_conf
I0217 21:26:56.300510 15139 net.cpp:150] Setting up conv4_3_norm_mbox_conf
I0217 21:26:56.300529 15139 net.cpp:157] Top shape: 32 88 38 38 (4066304)
I0217 21:26:56.300532 15139 net.cpp:165] Memory required for data: 8024805472
I0217 21:26:56.300539 15139 layer_factory.hpp:77] Creating layer conv4_3_norm_mbox_conf_perm
I0217 21:26:56.300547 15139 net.cpp:100] Creating Layer conv4_3_norm_mbox_conf_perm
I0217 21:26:56.300551 15139 net.cpp:434] conv4_3_norm_mbox_conf_perm <- conv4_3_norm_mbox_conf
I0217 21:26:56.300559 15139 net.cpp:408] conv4_3_norm_mbox_conf_perm -> conv4_3_norm_mbox_conf_perm
I0217 21:26:56.300674 15139 net.cpp:150] Setting up conv4_3_norm_mbox_conf_perm
I0217 21:26:56.300684 15139 net.cpp:157] Top shape: 32 38 38 88 (4066304)
I0217 21:26:56.300688 15139 net.cpp:165] Memory required for data: 8041070688
I0217 21:26:56.300691 15139 layer_factory.hpp:77] Creating layer conv4_3_norm_mbox_conf_flat
I0217 21:26:56.300709 15139 net.cpp:100] Creating Layer conv4_3_norm_mbox_conf_flat
I0217 21:26:56.300714 15139 net.cpp:434] conv4_3_norm_mbox_conf_flat <- conv4_3_norm_mbox_conf_perm
I0217 21:26:56.300720 15139 net.cpp:408] conv4_3_norm_mbox_conf_flat -> conv4_3_norm_mbox_conf_flat
I0217 21:26:56.300750 15139 net.cpp:150] Setting up conv4_3_norm_mbox_conf_flat
I0217 21:26:56.300755 15139 net.cpp:157] Top shape: 32 127072 (4066304)
I0217 21:26:56.300758 15139 net.cpp:165] Memory required for data: 8057335904
I0217 21:26:56.300762 15139 layer_factory.hpp:77] Creating layer conv4_3_norm_mbox_priorbox
I0217 21:26:56.300770 15139 net.cpp:100] Creating Layer conv4_3_norm_mbox_priorbox
I0217 21:26:56.300773 15139 net.cpp:434] conv4_3_norm_mbox_priorbox <- conv4_3_norm_conv4_3_norm_0_split_2
I0217 21:26:56.300779 15139 net.cpp:434] conv4_3_norm_mbox_priorbox <- data_data_0_split_1
I0217 21:26:56.300786 15139 net.cpp:408] conv4_3_norm_mbox_priorbox -> conv4_3_norm_mbox_priorbox
I0217 21:26:56.300817 15139 net.cpp:150] Setting up conv4_3_norm_mbox_priorbox
I0217 21:26:56.300830 15139 net.cpp:157] Top shape: 1 2 23104 (46208)
I0217 21:26:56.300833 15139 net.cpp:165] Memory required for data: 8057520736
I0217 21:26:56.300837 15139 layer_factory.hpp:77] Creating layer fc7_mbox_loc
I0217 21:26:56.300848 15139 net.cpp:100] Creating Layer fc7_mbox_loc
I0217 21:26:56.300851 15139 net.cpp:434] fc7_mbox_loc <- fc7_relu7_0_split_1
I0217 21:26:56.300859 15139 net.cpp:408] fc7_mbox_loc -> fc7_mbox_loc
I0217 21:26:56.304033 15139 net.cpp:150] Setting up fc7_mbox_loc
I0217 21:26:56.304049 15139 net.cpp:157] Top shape: 32 24 19 19 (277248)
I0217 21:26:56.304052 15139 net.cpp:165] Memory required for data: 8058629728
I0217 21:26:56.304059 15139 layer_factory.hpp:77] Creating layer fc7_mbox_loc_perm
I0217 21:26:56.304071 15139 net.cpp:100] Creating Layer fc7_mbox_loc_perm
I0217 21:26:56.304076 15139 net.cpp:434] fc7_mbox_loc_perm <- fc7_mbox_loc
I0217 21:26:56.304083 15139 net.cpp:408] fc7_mbox_loc_perm -> fc7_mbox_loc_perm
I0217 21:26:56.304198 15139 net.cpp:150] Setting up fc7_mbox_loc_perm
I0217 21:26:56.304206 15139 net.cpp:157] Top shape: 32 19 19 24 (277248)
I0217 21:26:56.304210 15139 net.cpp:165] Memory required for data: 8059738720
I0217 21:26:56.304214 15139 layer_factory.hpp:77] Creating layer fc7_mbox_loc_flat
I0217 21:26:56.304219 15139 net.cpp:100] Creating Layer fc7_mbox_loc_flat
I0217 21:26:56.304224 15139 net.cpp:434] fc7_mbox_loc_flat <- fc7_mbox_loc_perm
I0217 21:26:56.304230 15139 net.cpp:408] fc7_mbox_loc_flat -> fc7_mbox_loc_flat
I0217 21:26:56.304257 15139 net.cpp:150] Setting up fc7_mbox_loc_flat
I0217 21:26:56.304263 15139 net.cpp:157] Top shape: 32 8664 (277248)
I0217 21:26:56.304266 15139 net.cpp:165] Memory required for data: 8060847712
I0217 21:26:56.304270 15139 layer_factory.hpp:77] Creating layer fc7_mbox_conf
I0217 21:26:56.304280 15139 net.cpp:100] Creating Layer fc7_mbox_conf
I0217 21:26:56.304283 15139 net.cpp:434] fc7_mbox_conf <- fc7_relu7_0_split_2
I0217 21:26:56.304291 15139 net.cpp:408] fc7_mbox_conf -> fc7_mbox_conf
I0217 21:26:56.315670 15139 net.cpp:150] Setting up fc7_mbox_conf
I0217 21:26:56.315696 15139 net.cpp:157] Top shape: 32 132 19 19 (1524864)
I0217 21:26:56.315701 15139 net.cpp:165] Memory required for data: 8066947168
I0217 21:26:56.315708 15139 layer_factory.hpp:77] Creating layer fc7_mbox_conf_perm
I0217 21:26:56.315718 15139 net.cpp:100] Creating Layer fc7_mbox_conf_perm
I0217 21:26:56.315726 15139 net.cpp:434] fc7_mbox_conf_perm <- fc7_mbox_conf
I0217 21:26:56.315732 15139 net.cpp:408] fc7_mbox_conf_perm -> fc7_mbox_conf_perm
I0217 21:26:56.315850 15139 net.cpp:150] Setting up fc7_mbox_conf_perm
I0217 21:26:56.315860 15139 net.cpp:157] Top shape: 32 19 19 132 (1524864)
I0217 21:26:56.315863 15139 net.cpp:165] Memory required for data: 8073046624
I0217 21:26:56.315866 15139 layer_factory.hpp:77] Creating layer fc7_mbox_conf_flat
I0217 21:26:56.315873 15139 net.cpp:100] Creating Layer fc7_mbox_conf_flat
I0217 21:26:56.315877 15139 net.cpp:434] fc7_mbox_conf_flat <- fc7_mbox_conf_perm
I0217 21:26:56.315901 15139 net.cpp:408] fc7_mbox_conf_flat -> fc7_mbox_conf_flat
I0217 21:26:56.315930 15139 net.cpp:150] Setting up fc7_mbox_conf_flat
I0217 21:26:56.315937 15139 net.cpp:157] Top shape: 32 47652 (1524864)
I0217 21:26:56.315942 15139 net.cpp:165] Memory required for data: 8079146080
I0217 21:26:56.315944 15139 layer_factory.hpp:77] Creating layer fc7_mbox_priorbox
I0217 21:26:56.315953 15139 net.cpp:100] Creating Layer fc7_mbox_priorbox
I0217 21:26:56.315956 15139 net.cpp:434] fc7_mbox_priorbox <- fc7_relu7_0_split_3
I0217 21:26:56.315961 15139 net.cpp:434] fc7_mbox_priorbox <- data_data_0_split_2
I0217 21:26:56.315968 15139 net.cpp:408] fc7_mbox_priorbox -> fc7_mbox_priorbox
I0217 21:26:56.315999 15139 net.cpp:150] Setting up fc7_mbox_priorbox
I0217 21:26:56.316012 15139 net.cpp:157] Top shape: 1 2 8664 (17328)
I0217 21:26:56.316016 15139 net.cpp:165] Memory required for data: 8079215392
I0217 21:26:56.316020 15139 layer_factory.hpp:77] Creating layer conv6_2_mbox_loc
I0217 21:26:56.316030 15139 net.cpp:100] Creating Layer conv6_2_mbox_loc
I0217 21:26:56.316035 15139 net.cpp:434] conv6_2_mbox_loc <- conv6_2_conv6_2_relu_0_split_1
I0217 21:26:56.316042 15139 net.cpp:408] conv6_2_mbox_loc -> conv6_2_mbox_loc
I0217 21:26:56.318436 15139 net.cpp:150] Setting up conv6_2_mbox_loc
I0217 21:26:56.318452 15139 net.cpp:157] Top shape: 32 24 10 10 (76800)
I0217 21:26:56.318456 15139 net.cpp:165] Memory required for data: 8079522592
I0217 21:26:56.318464 15139 layer_factory.hpp:77] Creating layer conv6_2_mbox_loc_perm
I0217 21:26:56.318472 15139 net.cpp:100] Creating Layer conv6_2_mbox_loc_perm
I0217 21:26:56.318477 15139 net.cpp:434] conv6_2_mbox_loc_perm <- conv6_2_mbox_loc
I0217 21:26:56.318483 15139 net.cpp:408] conv6_2_mbox_loc_perm -> conv6_2_mbox_loc_perm
I0217 21:26:56.318605 15139 net.cpp:150] Setting up conv6_2_mbox_loc_perm
I0217 21:26:56.318614 15139 net.cpp:157] Top shape: 32 10 10 24 (76800)
I0217 21:26:56.318619 15139 net.cpp:165] Memory required for data: 8079829792
I0217 21:26:56.318622 15139 layer_factory.hpp:77] Creating layer conv6_2_mbox_loc_flat
I0217 21:26:56.318629 15139 net.cpp:100] Creating Layer conv6_2_mbox_loc_flat
I0217 21:26:56.318632 15139 net.cpp:434] conv6_2_mbox_loc_flat <- conv6_2_mbox_loc_perm
I0217 21:26:56.318639 15139 net.cpp:408] conv6_2_mbox_loc_flat -> conv6_2_mbox_loc_flat
I0217 21:26:56.318666 15139 net.cpp:150] Setting up conv6_2_mbox_loc_flat
I0217 21:26:56.318672 15139 net.cpp:157] Top shape: 32 2400 (76800)
I0217 21:26:56.318675 15139 net.cpp:165] Memory required for data: 8080136992
I0217 21:26:56.318678 15139 layer_factory.hpp:77] Creating layer conv6_2_mbox_conf
I0217 21:26:56.318688 15139 net.cpp:100] Creating Layer conv6_2_mbox_conf
I0217 21:26:56.318693 15139 net.cpp:434] conv6_2_mbox_conf <- conv6_2_conv6_2_relu_0_split_2
I0217 21:26:56.318701 15139 net.cpp:408] conv6_2_mbox_conf -> conv6_2_mbox_conf
I0217 21:26:56.325060 15139 net.cpp:150] Setting up conv6_2_mbox_conf
I0217 21:26:56.325078 15139 net.cpp:157] Top shape: 32 132 10 10 (422400)
I0217 21:26:56.325081 15139 net.cpp:165] Memory required for data: 8081826592
I0217 21:26:56.325088 15139 layer_factory.hpp:77] Creating layer conv6_2_mbox_conf_perm
I0217 21:26:56.325098 15139 net.cpp:100] Creating Layer conv6_2_mbox_conf_perm
I0217 21:26:56.325103 15139 net.cpp:434] conv6_2_mbox_conf_perm <- conv6_2_mbox_conf
I0217 21:26:56.325109 15139 net.cpp:408] conv6_2_mbox_conf_perm -> conv6_2_mbox_conf_perm
I0217 21:26:56.325224 15139 net.cpp:150] Setting up conv6_2_mbox_conf_perm
I0217 21:26:56.325233 15139 net.cpp:157] Top shape: 32 10 10 132 (422400)
I0217 21:26:56.325237 15139 net.cpp:165] Memory required for data: 8083516192
I0217 21:26:56.325240 15139 layer_factory.hpp:77] Creating layer conv6_2_mbox_conf_flat
I0217 21:26:56.325248 15139 net.cpp:100] Creating Layer conv6_2_mbox_conf_flat
I0217 21:26:56.325251 15139 net.cpp:434] conv6_2_mbox_conf_flat <- conv6_2_mbox_conf_perm
I0217 21:26:56.325258 15139 net.cpp:408] conv6_2_mbox_conf_flat -> conv6_2_mbox_conf_flat
I0217 21:26:56.325290 15139 net.cpp:150] Setting up conv6_2_mbox_conf_flat
I0217 21:26:56.325309 15139 net.cpp:157] Top shape: 32 13200 (422400)
I0217 21:26:56.325312 15139 net.cpp:165] Memory required for data: 8085205792
I0217 21:26:56.325316 15139 layer_factory.hpp:77] Creating layer conv6_2_mbox_priorbox
I0217 21:26:56.325323 15139 net.cpp:100] Creating Layer conv6_2_mbox_priorbox
I0217 21:26:56.325327 15139 net.cpp:434] conv6_2_mbox_priorbox <- conv6_2_conv6_2_relu_0_split_3
I0217 21:26:56.325332 15139 net.cpp:434] conv6_2_mbox_priorbox <- data_data_0_split_3
I0217 21:26:56.325340 15139 net.cpp:408] conv6_2_mbox_priorbox -> conv6_2_mbox_priorbox
I0217 21:26:56.325372 15139 net.cpp:150] Setting up conv6_2_mbox_priorbox
I0217 21:26:56.325383 15139 net.cpp:157] Top shape: 1 2 2400 (4800)
I0217 21:26:56.325387 15139 net.cpp:165] Memory required for data: 8085224992
I0217 21:26:56.325392 15139 layer_factory.hpp:77] Creating layer conv7_2_mbox_loc
I0217 21:26:56.325402 15139 net.cpp:100] Creating Layer conv7_2_mbox_loc
I0217 21:26:56.325407 15139 net.cpp:434] conv7_2_mbox_loc <- conv7_2_conv7_2_relu_0_split_1
I0217 21:26:56.325413 15139 net.cpp:408] conv7_2_mbox_loc -> conv7_2_mbox_loc
I0217 21:26:56.327390 15139 net.cpp:150] Setting up conv7_2_mbox_loc
I0217 21:26:56.327409 15139 net.cpp:157] Top shape: 32 24 5 5 (19200)
I0217 21:26:56.327412 15139 net.cpp:165] Memory required for data: 8085301792
I0217 21:26:56.327419 15139 layer_factory.hpp:77] Creating layer conv7_2_mbox_loc_perm
I0217 21:26:56.327426 15139 net.cpp:100] Creating Layer conv7_2_mbox_loc_perm
I0217 21:26:56.327431 15139 net.cpp:434] conv7_2_mbox_loc_perm <- conv7_2_mbox_loc
I0217 21:26:56.327437 15139 net.cpp:408] conv7_2_mbox_loc_perm -> conv7_2_mbox_loc_perm
I0217 21:26:56.327554 15139 net.cpp:150] Setting up conv7_2_mbox_loc_perm
I0217 21:26:56.327564 15139 net.cpp:157] Top shape: 32 5 5 24 (19200)
I0217 21:26:56.327566 15139 net.cpp:165] Memory required for data: 8085378592
I0217 21:26:56.327570 15139 layer_factory.hpp:77] Creating layer conv7_2_mbox_loc_flat
I0217 21:26:56.327577 15139 net.cpp:100] Creating Layer conv7_2_mbox_loc_flat
I0217 21:26:56.327581 15139 net.cpp:434] conv7_2_mbox_loc_flat <- conv7_2_mbox_loc_perm
I0217 21:26:56.327587 15139 net.cpp:408] conv7_2_mbox_loc_flat -> conv7_2_mbox_loc_flat
I0217 21:26:56.327613 15139 net.cpp:150] Setting up conv7_2_mbox_loc_flat
I0217 21:26:56.327620 15139 net.cpp:157] Top shape: 32 600 (19200)
I0217 21:26:56.327622 15139 net.cpp:165] Memory required for data: 8085455392
I0217 21:26:56.327626 15139 layer_factory.hpp:77] Creating layer conv7_2_mbox_conf
I0217 21:26:56.327636 15139 net.cpp:100] Creating Layer conv7_2_mbox_conf
I0217 21:26:56.327641 15139 net.cpp:434] conv7_2_mbox_conf <- conv7_2_conv7_2_relu_0_split_2
I0217 21:26:56.327648 15139 net.cpp:408] conv7_2_mbox_conf -> conv7_2_mbox_conf
I0217 21:26:56.331543 15139 net.cpp:150] Setting up conv7_2_mbox_conf
I0217 21:26:56.331568 15139 net.cpp:157] Top shape: 32 132 5 5 (105600)
I0217 21:26:56.331573 15139 net.cpp:165] Memory required for data: 8085877792
I0217 21:26:56.331580 15139 layer_factory.hpp:77] Creating layer conv7_2_mbox_conf_perm
I0217 21:26:56.331589 15139 net.cpp:100] Creating Layer conv7_2_mbox_conf_perm
I0217 21:26:56.331595 15139 net.cpp:434] conv7_2_mbox_conf_perm <- conv7_2_mbox_conf
I0217 21:26:56.331603 15139 net.cpp:408] conv7_2_mbox_conf_perm -> conv7_2_mbox_conf_perm
I0217 21:26:56.331725 15139 net.cpp:150] Setting up conv7_2_mbox_conf_perm
I0217 21:26:56.331733 15139 net.cpp:157] Top shape: 32 5 5 132 (105600)
I0217 21:26:56.331737 15139 net.cpp:165] Memory required for data: 8086300192
I0217 21:26:56.331740 15139 layer_factory.hpp:77] Creating layer conv7_2_mbox_conf_flat
I0217 21:26:56.331748 15139 net.cpp:100] Creating Layer conv7_2_mbox_conf_flat
I0217 21:26:56.331753 15139 net.cpp:434] conv7_2_mbox_conf_flat <- conv7_2_mbox_conf_perm
I0217 21:26:56.331758 15139 net.cpp:408] conv7_2_mbox_conf_flat -> conv7_2_mbox_conf_flat
I0217 21:26:56.331786 15139 net.cpp:150] Setting up conv7_2_mbox_conf_flat
I0217 21:26:56.331792 15139 net.cpp:157] Top shape: 32 3300 (105600)
I0217 21:26:56.331809 15139 net.cpp:165] Memory required for data: 8086722592
I0217 21:26:56.331814 15139 layer_factory.hpp:77] Creating layer conv7_2_mbox_priorbox
I0217 21:26:56.331820 15139 net.cpp:100] Creating Layer conv7_2_mbox_priorbox
I0217 21:26:56.331825 15139 net.cpp:434] conv7_2_mbox_priorbox <- conv7_2_conv7_2_relu_0_split_3
I0217 21:26:56.331830 15139 net.cpp:434] conv7_2_mbox_priorbox <- data_data_0_split_4
I0217 21:26:56.331837 15139 net.cpp:408] conv7_2_mbox_priorbox -> conv7_2_mbox_priorbox
I0217 21:26:56.331873 15139 net.cpp:150] Setting up conv7_2_mbox_priorbox
I0217 21:26:56.331882 15139 net.cpp:157] Top shape: 1 2 600 (1200)
I0217 21:26:56.331885 15139 net.cpp:165] Memory required for data: 8086727392
I0217 21:26:56.331889 15139 layer_factory.hpp:77] Creating layer conv8_2_mbox_loc
I0217 21:26:56.331900 15139 net.cpp:100] Creating Layer conv8_2_mbox_loc
I0217 21:26:56.331904 15139 net.cpp:434] conv8_2_mbox_loc <- conv8_2_conv8_2_relu_0_split_1
I0217 21:26:56.331912 15139 net.cpp:408] conv8_2_mbox_loc -> conv8_2_mbox_loc
I0217 21:26:56.333219 15139 net.cpp:150] Setting up conv8_2_mbox_loc
I0217 21:26:56.333235 15139 net.cpp:157] Top shape: 32 16 3 3 (4608)
I0217 21:26:56.333238 15139 net.cpp:165] Memory required for data: 8086745824
I0217 21:26:56.333259 15139 layer_factory.hpp:77] Creating layer conv8_2_mbox_loc_perm
I0217 21:26:56.333267 15139 net.cpp:100] Creating Layer conv8_2_mbox_loc_perm
I0217 21:26:56.333272 15139 net.cpp:434] conv8_2_mbox_loc_perm <- conv8_2_mbox_loc
I0217 21:26:56.333278 15139 net.cpp:408] conv8_2_mbox_loc_perm -> conv8_2_mbox_loc_perm
I0217 21:26:56.333401 15139 net.cpp:150] Setting up conv8_2_mbox_loc_perm
I0217 21:26:56.333410 15139 net.cpp:157] Top shape: 32 3 3 16 (4608)
I0217 21:26:56.333415 15139 net.cpp:165] Memory required for data: 8086764256
I0217 21:26:56.333417 15139 layer_factory.hpp:77] Creating layer conv8_2_mbox_loc_flat
I0217 21:26:56.333425 15139 net.cpp:100] Creating Layer conv8_2_mbox_loc_flat
I0217 21:26:56.333428 15139 net.cpp:434] conv8_2_mbox_loc_flat <- conv8_2_mbox_loc_perm
I0217 21:26:56.333436 15139 net.cpp:408] conv8_2_mbox_loc_flat -> conv8_2_mbox_loc_flat
I0217 21:26:56.333461 15139 net.cpp:150] Setting up conv8_2_mbox_loc_flat
I0217 21:26:56.333467 15139 net.cpp:157] Top shape: 32 144 (4608)
I0217 21:26:56.333472 15139 net.cpp:165] Memory required for data: 8086782688
I0217 21:26:56.333474 15139 layer_factory.hpp:77] Creating layer conv8_2_mbox_conf
I0217 21:26:56.333487 15139 net.cpp:100] Creating Layer conv8_2_mbox_conf
I0217 21:26:56.333490 15139 net.cpp:434] conv8_2_mbox_conf <- conv8_2_conv8_2_relu_0_split_2
I0217 21:26:56.333498 15139 net.cpp:408] conv8_2_mbox_conf -> conv8_2_mbox_conf
I0217 21:26:56.336587 15139 net.cpp:150] Setting up conv8_2_mbox_conf
I0217 21:26:56.336603 15139 net.cpp:157] Top shape: 32 88 3 3 (25344)
I0217 21:26:56.336608 15139 net.cpp:165] Memory required for data: 8086884064
I0217 21:26:56.336616 15139 layer_factory.hpp:77] Creating layer conv8_2_mbox_conf_perm
I0217 21:26:56.336623 15139 net.cpp:100] Creating Layer conv8_2_mbox_conf_perm
I0217 21:26:56.336628 15139 net.cpp:434] conv8_2_mbox_conf_perm <- conv8_2_mbox_conf
I0217 21:26:56.336634 15139 net.cpp:408] conv8_2_mbox_conf_perm -> conv8_2_mbox_conf_perm
I0217 21:26:56.336755 15139 net.cpp:150] Setting up conv8_2_mbox_conf_perm
I0217 21:26:56.336765 15139 net.cpp:157] Top shape: 32 3 3 88 (25344)
I0217 21:26:56.336768 15139 net.cpp:165] Memory required for data: 8086985440
I0217 21:26:56.336771 15139 layer_factory.hpp:77] Creating layer conv8_2_mbox_conf_flat
I0217 21:26:56.336784 15139 net.cpp:100] Creating Layer conv8_2_mbox_conf_flat
I0217 21:26:56.336788 15139 net.cpp:434] conv8_2_mbox_conf_flat <- conv8_2_mbox_conf_perm
I0217 21:26:56.336794 15139 net.cpp:408] conv8_2_mbox_conf_flat -> conv8_2_mbox_conf_flat
I0217 21:26:56.336822 15139 net.cpp:150] Setting up conv8_2_mbox_conf_flat
I0217 21:26:56.336828 15139 net.cpp:157] Top shape: 32 792 (25344)
I0217 21:26:56.336833 15139 net.cpp:165] Memory required for data: 8087086816
I0217 21:26:56.336846 15139 layer_factory.hpp:77] Creating layer conv8_2_mbox_priorbox
I0217 21:26:56.336853 15139 net.cpp:100] Creating Layer conv8_2_mbox_priorbox
I0217 21:26:56.336858 15139 net.cpp:434] conv8_2_mbox_priorbox <- conv8_2_conv8_2_relu_0_split_3
I0217 21:26:56.336863 15139 net.cpp:434] conv8_2_mbox_priorbox <- data_data_0_split_5
I0217 21:26:56.336874 15139 net.cpp:408] conv8_2_mbox_priorbox -> conv8_2_mbox_priorbox
I0217 21:26:56.336906 15139 net.cpp:150] Setting up conv8_2_mbox_priorbox
I0217 21:26:56.336920 15139 net.cpp:157] Top shape: 1 2 144 (288)
I0217 21:26:56.336923 15139 net.cpp:165] Memory required for data: 8087087968
I0217 21:26:56.336927 15139 layer_factory.hpp:77] Creating layer conv9_2_mbox_loc
I0217 21:26:56.336937 15139 net.cpp:100] Creating Layer conv9_2_mbox_loc
I0217 21:26:56.336941 15139 net.cpp:434] conv9_2_mbox_loc <- conv9_2_conv9_2_relu_0_split_0
I0217 21:26:56.336948 15139 net.cpp:408] conv9_2_mbox_loc -> conv9_2_mbox_loc
I0217 21:26:56.338467 15139 net.cpp:150] Setting up conv9_2_mbox_loc
I0217 21:26:56.338484 15139 net.cpp:157] Top shape: 32 16 1 1 (512)
I0217 21:26:56.338488 15139 net.cpp:165] Memory required for data: 8087090016
I0217 21:26:56.338495 15139 layer_factory.hpp:77] Creating layer conv9_2_mbox_loc_perm
I0217 21:26:56.338502 15139 net.cpp:100] Creating Layer conv9_2_mbox_loc_perm
I0217 21:26:56.338506 15139 net.cpp:434] conv9_2_mbox_loc_perm <- conv9_2_mbox_loc
I0217 21:26:56.338515 15139 net.cpp:408] conv9_2_mbox_loc_perm -> conv9_2_mbox_loc_perm
I0217 21:26:56.338640 15139 net.cpp:150] Setting up conv9_2_mbox_loc_perm
I0217 21:26:56.338649 15139 net.cpp:157] Top shape: 32 1 1 16 (512)
I0217 21:26:56.338654 15139 net.cpp:165] Memory required for data: 8087092064
I0217 21:26:56.338657 15139 layer_factory.hpp:77] Creating layer conv9_2_mbox_loc_flat
I0217 21:26:56.338665 15139 net.cpp:100] Creating Layer conv9_2_mbox_loc_flat
I0217 21:26:56.338670 15139 net.cpp:434] conv9_2_mbox_loc_flat <- conv9_2_mbox_loc_perm
I0217 21:26:56.338676 15139 net.cpp:408] conv9_2_mbox_loc_flat -> conv9_2_mbox_loc_flat
I0217 21:26:56.338704 15139 net.cpp:150] Setting up conv9_2_mbox_loc_flat
I0217 21:26:56.338711 15139 net.cpp:157] Top shape: 32 16 (512)
I0217 21:26:56.338713 15139 net.cpp:165] Memory required for data: 8087094112
I0217 21:26:56.338716 15139 layer_factory.hpp:77] Creating layer conv9_2_mbox_conf
I0217 21:26:56.338727 15139 net.cpp:100] Creating Layer conv9_2_mbox_conf
I0217 21:26:56.338732 15139 net.cpp:434] conv9_2_mbox_conf <- conv9_2_conv9_2_relu_0_split_1
I0217 21:26:56.338738 15139 net.cpp:408] conv9_2_mbox_conf -> conv9_2_mbox_conf
I0217 21:26:56.341811 15139 net.cpp:150] Setting up conv9_2_mbox_conf
I0217 21:26:56.341828 15139 net.cpp:157] Top shape: 32 88 1 1 (2816)
I0217 21:26:56.341832 15139 net.cpp:165] Memory required for data: 8087105376
I0217 21:26:56.341840 15139 layer_factory.hpp:77] Creating layer conv9_2_mbox_conf_perm
I0217 21:26:56.341848 15139 net.cpp:100] Creating Layer conv9_2_mbox_conf_perm
I0217 21:26:56.341852 15139 net.cpp:434] conv9_2_mbox_conf_perm <- conv9_2_mbox_conf
I0217 21:26:56.341859 15139 net.cpp:408] conv9_2_mbox_conf_perm -> conv9_2_mbox_conf_perm
I0217 21:26:56.341980 15139 net.cpp:150] Setting up conv9_2_mbox_conf_perm
I0217 21:26:56.341989 15139 net.cpp:157] Top shape: 32 1 1 88 (2816)
I0217 21:26:56.341992 15139 net.cpp:165] Memory required for data: 8087116640
I0217 21:26:56.341996 15139 layer_factory.hpp:77] Creating layer conv9_2_mbox_conf_flat
I0217 21:26:56.342003 15139 net.cpp:100] Creating Layer conv9_2_mbox_conf_flat
I0217 21:26:56.342007 15139 net.cpp:434] conv9_2_mbox_conf_flat <- conv9_2_mbox_conf_perm
I0217 21:26:56.342012 15139 net.cpp:408] conv9_2_mbox_conf_flat -> conv9_2_mbox_conf_flat
I0217 21:26:56.342041 15139 net.cpp:150] Setting up conv9_2_mbox_conf_flat
I0217 21:26:56.342047 15139 net.cpp:157] Top shape: 32 88 (2816)
I0217 21:26:56.342051 15139 net.cpp:165] Memory required for data: 8087127904
I0217 21:26:56.342054 15139 layer_factory.hpp:77] Creating layer conv9_2_mbox_priorbox
I0217 21:26:56.342061 15139 net.cpp:100] Creating Layer conv9_2_mbox_priorbox
I0217 21:26:56.342074 15139 net.cpp:434] conv9_2_mbox_priorbox <- conv9_2_conv9_2_relu_0_split_2
I0217 21:26:56.342080 15139 net.cpp:434] conv9_2_mbox_priorbox <- data_data_0_split_6
I0217 21:26:56.342092 15139 net.cpp:408] conv9_2_mbox_priorbox -> conv9_2_mbox_priorbox
I0217 21:26:56.342123 15139 net.cpp:150] Setting up conv9_2_mbox_priorbox
I0217 21:26:56.342131 15139 net.cpp:157] Top shape: 1 2 16 (32)
I0217 21:26:56.342135 15139 net.cpp:165] Memory required for data: 8087128032
I0217 21:26:56.342139 15139 layer_factory.hpp:77] Creating layer mbox_loc
I0217 21:26:56.342155 15139 net.cpp:100] Creating Layer mbox_loc
I0217 21:26:56.342161 15139 net.cpp:434] mbox_loc <- conv4_3_norm_mbox_loc_flat
I0217 21:26:56.342167 15139 net.cpp:434] mbox_loc <- fc7_mbox_loc_flat
I0217 21:26:56.342172 15139 net.cpp:434] mbox_loc <- conv6_2_mbox_loc_flat
I0217 21:26:56.342177 15139 net.cpp:434] mbox_loc <- conv7_2_mbox_loc_flat
I0217 21:26:56.342181 15139 net.cpp:434] mbox_loc <- conv8_2_mbox_loc_flat
I0217 21:26:56.342186 15139 net.cpp:434] mbox_loc <- conv9_2_mbox_loc_flat
I0217 21:26:56.342192 15139 net.cpp:408] mbox_loc -> mbox_loc
I0217 21:26:56.342226 15139 net.cpp:150] Setting up mbox_loc
I0217 21:26:56.342234 15139 net.cpp:157] Top shape: 32 34928 (1117696)
I0217 21:26:56.342238 15139 net.cpp:165] Memory required for data: 8091598816
I0217 21:26:56.342242 15139 layer_factory.hpp:77] Creating layer mbox_conf
I0217 21:26:56.342249 15139 net.cpp:100] Creating Layer mbox_conf
I0217 21:26:56.342254 15139 net.cpp:434] mbox_conf <- conv4_3_norm_mbox_conf_flat
I0217 21:26:56.342259 15139 net.cpp:434] mbox_conf <- fc7_mbox_conf_flat
I0217 21:26:56.342264 15139 net.cpp:434] mbox_conf <- conv6_2_mbox_conf_flat
I0217 21:26:56.342268 15139 net.cpp:434] mbox_conf <- conv7_2_mbox_conf_flat
I0217 21:26:56.342272 15139 net.cpp:434] mbox_conf <- conv8_2_mbox_conf_flat
I0217 21:26:56.342278 15139 net.cpp:434] mbox_conf <- conv9_2_mbox_conf_flat
I0217 21:26:56.342281 15139 net.cpp:408] mbox_conf -> mbox_conf
I0217 21:26:56.342309 15139 net.cpp:150] Setting up mbox_conf
I0217 21:26:56.342315 15139 net.cpp:157] Top shape: 32 192104 (6147328)
I0217 21:26:56.342319 15139 net.cpp:165] Memory required for data: 8116188128
I0217 21:26:56.342321 15139 layer_factory.hpp:77] Creating layer mbox_priorbox
I0217 21:26:56.342327 15139 net.cpp:100] Creating Layer mbox_priorbox
I0217 21:26:56.342331 15139 net.cpp:434] mbox_priorbox <- conv4_3_norm_mbox_priorbox
I0217 21:26:56.342336 15139 net.cpp:434] mbox_priorbox <- fc7_mbox_priorbox
I0217 21:26:56.342340 15139 net.cpp:434] mbox_priorbox <- conv6_2_mbox_priorbox
I0217 21:26:56.342345 15139 net.cpp:434] mbox_priorbox <- conv7_2_mbox_priorbox
I0217 21:26:56.342350 15139 net.cpp:434] mbox_priorbox <- conv8_2_mbox_priorbox
I0217 21:26:56.342353 15139 net.cpp:434] mbox_priorbox <- conv9_2_mbox_priorbox
I0217 21:26:56.342360 15139 net.cpp:408] mbox_priorbox -> mbox_priorbox
I0217 21:26:56.342386 15139 net.cpp:150] Setting up mbox_priorbox
I0217 21:26:56.342391 15139 net.cpp:157] Top shape: 1 2 34928 (69856)
I0217 21:26:56.342394 15139 net.cpp:165] Memory required for data: 8116467552
I0217 21:26:56.342397 15139 layer_factory.hpp:77] Creating layer mbox_loss
I0217 21:26:56.342408 15139 net.cpp:100] Creating Layer mbox_loss
I0217 21:26:56.342412 15139 net.cpp:434] mbox_loss <- mbox_loc
I0217 21:26:56.342417 15139 net.cpp:434] mbox_loss <- mbox_conf
I0217 21:26:56.342422 15139 net.cpp:434] mbox_loss <- mbox_priorbox
…
  name: "data"
  type: "AnnotatedData"
  top: "data"
  top: "label"
  include {
    phase: TEST
  }
  transform_param {
    mean_value: 137
    mean_value: 84
    mean_value: 87
    mean_value: 84
    resize_param {
      prob: 1
      resize_mode: WARP
      height: 300
      width: 300
      interp_mode: LINEAR
    }
  }
  data_param {
    source: "examples/dbgr_trees/dbgr_trees_test_lmdb"
    batch_size: 1
    backend: LMDB
  }
  annotated_data_param {
    batch_sampler {
    }
    label_map_file: "data/dbgr_trees/labelmap_voc.prototxt"
  }
}
layer {
  name: "conv1_1_rgbd"
  type: "Convolution"
  bottom: "data"
  top: "conv1_1_rgbd"
  param {
    lr_mult: 1
    decay_mult: 1
  }
  param {
    lr_mult: 2
    decay_mult: 0
  }
  convolution_param {
    num_output: 64
    pad: 1
    kernel_size: 3
    weight_filler {
      type: "xavier"
    }
    bias_filler {
      type: "constant"
      value: 0
    }
  }
}
layer {
  name: "relu1_1"
  type: "ReLU"
  bottom: "conv1_1_rgbd"
  top: "conv1_1_rgbd"
}
layer {
  name: "conv1_2"
  type: "Convolution"
  bottom: "conv1_1_rgbd"
  top: "conv1_2"
  param {
    lr_mult: 1
    decay_mult: 1
  }
  param {
    lr_mult: 2
    decay_mult: 0
  }
  convolution_param {
    num_output: 64
    pad: 1
    kernel_size: 3
    weight_filler {
      type: "xavier"
    }
    bias_filler {
      type: "constant"
      value: 0
    }
  }
}
layer {
  name: "relu1_2"
  type: "ReLU"
  bottom: "conv1_2"
  top: "conv1_2"
}
layer {
  name: "pool1"
  type: "Pooling"
  bottom: "conv1_2"
  top: "pool1"
  pooling_param {
    pool: MAX
    kernel_size: 2
    stride: 2
  }
}
layer {
  name: "conv2_1"
  type: "Convolution"
  bottom: "pool1"
  top: "conv2_1"
  param {
    lr_mult: 1
    decay_mult: 1
  }
  param {
    lr_mult: 2
    decay_mult: 0
  }
  convolution_param {
    num_output: 128
    pad: 1
    kernel_size: 3
    weight_filler {
      type: "xavier"
    }
    bias_filler {
      type: "constant"
      value: 0
    }
  }
}
layer {
  name: "relu2_1"
  type: "ReLU"
  bottom: "conv2_1"
  top: "conv2_1"
}
layer {
  name: "conv2_2"
  type: "Convolution"
  bottom: "conv2_1"
  top: "conv2_2"
  param {
    lr_mult: 1
    decay_mult: 1
  }
  param {
    lr_mult: 2
    decay_mult: 0
  }
  convolution_param {
    num_output: 128
    pad: 1
    kernel_size: 3
    weight_filler {
      type: "xavier"
    }
    bias_filler {
      type: "constant"
      value: 0
    }
  }
}
layer {
  name: "relu2_2"
  type: "ReLU"
  bottom: "conv2_2"
  top: "conv2_2"
}
layer {
  name: "pool2"
  type: "Pooling"
  bottom: "conv2_2"
  top: "pool2"
  pooling_param {
    pool: MAX
    kernel_size: 2
    stride: 2
  }
}
layer {
  name: "conv3_1"
  type: "Convolution"
  bottom: "pool2"
  top: "conv3_1"
  param {
    lr_mult: 1
    decay_mult: 1
  }
  param {
    lr_mult: 2
    decay_mult: 0
  }
  convolution_param {
    num_output: 256
    pad: 1
    kernel_size: 3
    weight_filler {
      type: "xavier"
    }
    bias_filler {
      type: "constant"
      value: 0
    }
  }
}
layer {
  name: "relu3_1"
  type: "ReLU"
  bottom: "conv3_1"
  top: "conv3_1"
}
layer {
  name: "conv3_2"
  type: "Convolution"
  bottom: "conv3_1"
  top: "conv3_2"
  param {
    lr_mult: 1
    decay_mult: 1
  }
  param {
    lr_mult: 2
    decay_mult: 0
  }
  convolution_param {
    num_output: 256
    pad: 1
    kernel_size: 3
    weight_filler {
      type: "xavier"
    }
    bias_filler {
      type: "constant"
      value: 0
    }
  }
}
layer {
  name: "relu3_2"
  type: "ReLU"
  bottom: "conv3_2"
  top: "conv3_2"
}
layer {
  name: "conv3_3"
  type: "Convolution"
  bottom: "conv3_2"
  top: "conv3_3"
  param {
    lr_mult: 1
    decay_mult: 1
  }
  param {
    lr_mult: 2
    decay_mult: 0
  }
  convolution_param {
    num_output: 256
    pad: 1
    kernel_size: 3
    weight_filler {
      type: "xavier"
    }
    bias_filler {
      type: "constant"
      value: 0
    }
  }
}
layer {
  name: "relu3_3"
  type: "ReLU"
  bottom: "conv3_3"
  top: "conv3_3"
}
layer {
  name: "pool3"
  type: "Pooling"
  bottom: "conv3_3"
  top: "pool3"
  pooling_param {
    pool: MAX
    kernel_size: 2
    stride: 2
  }
}
layer {
  name: "conv4_1"
  type: "Convolution"
  bottom: "pool3"
  top: "conv4_1"
  param {
    lr_mult: 1
    decay_mult: 1
  }
  param {
    lr_mult: 2
    decay_mult: 0
  }
  convolution_param {
    num_output: 512
    pad: 1
    kernel_size: 3
    weight_filler {
      type: "xavier"
    }
    bias_filler {
      type: "constant"
      value: 0
    }
  }
}
layer {
  name: "relu4_1"
  type: "ReLU"
  bottom: "conv4_1"
  top: "conv4_1"
}
layer {
  name: "conv4_2"
  type: "Convolution"
  bottom: "conv4_1"
  top: "conv4_2"
  param {
    lr_mult: 1
    decay_mult: 1
  }
  param {
    lr_mult: 2
    decay_mult: 0
  }
  convolution_param {
    num_output: 512
    pad: 1
    kernel_size: 3
    weight_filler {
      type: "xavier"
    }
    bias_filler {
      type: "constant"
      value: 0
    }
  }
}
layer {
  name: "relu4_2"
  type: "ReLU"
  bottom: "conv4_2"
  top: "conv4_2"
}
layer {
  name: "conv4_3"
  type: "Convolution"
  bottom: "conv4_2"
  top: "conv4_3"
  param {
    lr_mult: 1
    decay_mult: 1
  }
  param {
    lr_mult: 2
    decay_mult: 0
  }
  convolution_param {
    num_output: 512
    pad: 1
    kernel_size: 3
    weight_filler {
      type: "xavier"
    }
    bias_filler {
      type: "constant"
      value: 0
    }
  }
}
layer {
  name: "relu4_3"
  type: "ReLU"
  bottom: "conv4_3"
  top: "conv4_3"
}
layer {
  name: "pool4"
  type: "Pooling"
  bottom: "conv4_3"
  top: "pool4"
  pooling_param {
    pool: MAX
    kernel_size: 2
    stride: 2
  }
}
layer {
  name: "conv5_1"
  type: "Convolution"
  bottom: "pool4"
  top: "conv5_1"
  param {
    lr_mult: 1
    decay_mult: 1
  }
  param {
    lr_mult: 2
    decay_mult: 0
  }
  convolution_param {
    num_output: 512
    pad: 1
    kernel_size: 3
    weight_filler {
      type: "xavier"
    }
    bias_filler {
      type: "constant"
      value: 0
    }
    dilation: 1
  }
}
layer {
  name: "relu5_1"
  type: "ReLU"
  bottom: "conv5_1"
  top: "conv5_1"
}
layer {
  name: "conv5_2"
  type: "Convolution"
  bottom: "conv5_1"
  top: "conv5_2"
  param {
    lr_mult: 1
    decay_mult: 1
  }
  param {
    lr_mult: 2
    decay_mult: 0
  }
  convolution_param {
    num_output: 512
    pad: 1
    kernel_size: 3
    weight_filler {
      type: "xavier"
    }
    bias_filler {
      type: "constant"
      value: 0
    }
    dilation: 1
  }
}
layer {
  name: "relu5_2"
  type: "ReLU"
  bottom: "conv5_2"
  top: "conv5_2"
}
layer {
  name: "conv5_3"
  type: "Convolution"
  bottom: "conv5_2"
  top: "conv5_3"
  param {
    lr_mult: 1
    decay_mult: 1
  }
  param {
    lr_mult: 2
    decay_mult: 0
  }
  convolution_param {
    num_output: 512
    pad: 1
    kernel_size: 3
    weight_filler {
      type: "xavier"
    }
    bias_filler {
      type: "constant"
      value: 0
    }
    dilation: 1
  }
}
layer {
  name: "relu5_3"
  type: "ReLU"
  bottom: "conv5_3"
  top: "conv5_3"
}
layer {
  name: "pool5"
  type: "Pooling"
  bottom: "conv5_3"
  top: "pool5"
  pooling_param {
    pool: MAX
    kernel_size: 3
    stride: 1
    pad: 1
  }
}
layer {
  name: "fc6"
  type: "Convolution"
  bottom: "pool5"
  top: "fc6"
  param {
    lr_mult: 1
    decay_mult: 1
  }
  param {
    lr_mult: 2
    decay_mult: 0
  }
  convolution_param {
    num_output: 1024
    pad: 6
    kernel_size: 3
    weight_filler {
      type: "xavier"
    }
    bias_filler {
      type: "constant"
      value: 0
    }
    dilation: 6
  }
}
layer {
  name: "relu6"
  type: "ReLU"
  bottom: "fc6"
  top: "fc6"
}
layer {
  name: "fc7"
  type: "Convolution"
  bottom: "fc6"
  top: "fc7"
  param {
    lr_mult: 1
    decay_mult: 1
  }
  param {
    lr_mult: 2
    decay_mult: 0
  }
  convolution_param {
    num_output: 1024
    kernel_size: 1
    weight_filler {
      type: "xavier"
    }
    bias_filler {
      type: "constant"
      value: 0
    }
  }
}
layer {
  name: "relu7"
  type: "ReLU"
  bottom: "fc7"
  top: "fc7"
}
layer {
  name: "conv6_1"
  type: "Convolution"
  bottom: "fc7"
  top: "conv6_1"
  param {
    lr_mult: 1
    decay_mult: 1
  }
  param {
    lr_mult: 2
    decay_mult: 0
  }
  convolution_param {
    num_output: 256
    pad: 0
    kernel_size: 1
    stride: 1
    weight_filler {
      type: "xavier"
    }
    bias_filler {
      type: "constant"
      value: 0
    }
  }
}
layer {
  name: "conv6_1_relu"
  type: "ReLU"
  bottom: "conv6_1"
  top: "conv6_1"
}
layer {
  name: "conv6_2"
  type: "Convolution"
  bottom: "conv6_1"
  top: "conv6_2"
  param {
    lr_mult: 1
    decay_mult: 1
  }
  param {
    lr_mult: 2
    decay_mult: 0
  }
  convolution_param {
    num_output: 512
    pad: 1
    kernel_size: 3
    stride: 2
    weight_filler {
      type: "xavier"
    }
    bias_filler {
      type: "constant"
      value: 0
    }
  }
}
layer {
  name: "conv6_2_relu"
  type: "ReLU"
  bottom: "conv6_2"
  top: "conv6_2"
}
layer {
  name: "conv7_1"
  type: "Convolution"
  bottom: "conv6_2"
  top: "conv7_1"
  param {
    lr_mult: 1
    decay_mult: 1
  }
  param {
    lr_mult: 2
    decay_mult: 0
  }
  convolution_param {
    num_output: 128
    pad: 0
    kernel_size: 1
    stride: 1
    weight_filler {
      type: "xavier"
    }
    bias_filler {
      type: "constant"
      value: 0
    }
  }
}
layer {
  name: "conv7_1_relu"
  type: "ReLU"
  bottom: "conv7_1"
  top: "conv7_1"
}
layer {
  name: "conv7_2"
  type: "Convolution"
  bottom: "conv7_1"
  top: "conv7_2"
  param {
    lr_mult: 1
    decay_mult: 1
  }
  param {
    lr_mult: 2
    decay_mult: 0
  }
  convolution_param {
    num_output: 256
    pad: 1
    kernel_size: 3
    stride: 2
    weight_filler {
      type: "xavier"
    }
    bias_filler {
      type: "constant"
      value: 0
    }
  }
}
layer {
  name: "conv7_2_relu"
  type: "ReLU"
  bottom: "conv7_2"
  top: "conv7_2"
}
layer {
  name: "conv8_1"
  type: "Convolution"
  bottom: "conv7_2"
  top: "conv8_1"
  param {
    lr_mult: 1
    decay_mult: 1
  }
  param {
    lr_mult: 2
    decay_mult: 0
  }
  convolution_param {
    num_output: 128
    pad: 0
    kernel_size: 1
    stride: 1
    weight_filler {
      type: "xavier"
    }
    bias_filler {
      type: "constant"
      value: 0
    }
  }
}
layer {
  name: "conv8_1_relu"
  type: "ReLU"
  bottom: "conv8_1"
  top: "conv8_1"
}
layer {
  name: "conv8_2"
  type: "Convolution"
  bottom: "conv8_1"
  top: "conv8_2"
  param {
    lr_mult: 1
    decay_mult: 1
  }
  param {
    lr_mult: 2
    decay_mult: 0
  }
  convolution_param {
    num_output: 256
    pad: 0
    kernel_size: 3
    stride: 1
    weight_filler {
      type: "xavier"
    }
    bias_filler {
      type: "constant"
      value: 0
    }
  }
}
layer {
  name: "conv8_2_relu"
  type: "ReLU"
  bottom: "conv8_2"
  top: "conv8_2"
}
layer {
  name: "conv9_1"
  type: "Convolution"
  bottom: "conv8_2"
  top: "conv9_1"
  param {
    lr_mult: 1
    decay_mult: 1
  }
  param {
    lr_mult: 2
    decay_mult: 0
  }
  convolution_param {
    num_output: 128
    pad: 0
    kernel_size: 1
    stride: 1
    weight_filler {
      type: "xavier"
    }
    bias_filler {
      type: "constant"
      value: 0
    }
  }
}
layer {
  name: "conv9_1_relu"
  type: "ReLU"
  bottom: "conv9_1"
  top: "conv9_1"
}
layer {
  name: "conv9_2"
  type: "Convolution"
  bottom: "conv9_1"
  top: "conv9_2"
  param {
    lr_mult: 1
    decay_mult: 1
  }
  param {
    lr_mult: 2
    decay_mult: 0
  }
  convolution_param {
    num_output: 256
    pad: 0
    kernel_size: 3
    stride: 1
    weight_filler {
      type: "xavier"
    }
    bias_filler {
      type: "constant"
      value: 0
    }
  }
}
layer {
  name: "conv9_2_relu"
  type: "ReLU"
  bottom: "conv9_2"
  top: "conv9_2"
}
layer {
  name: "conv4_3_norm"
  type: "Normalize"
  bottom: "conv4_3"
  top: "conv4_3_norm"
  norm_param {
    across_spatial: false
    scale_filler {
      type: "constant"
      value: 20
    }
    channel_shared: false
  }
}
layer {
  name: "conv4_3_norm_mbox_loc"
  type: "Convolution"
  bottom: "conv4_3_norm"
  top: "conv4_3_norm_mbox_loc"
  param {
    lr_mult: 1
    decay_mult: 1
  }
  param {
    lr_mult: 2
    decay_mult: 0
  }
  convolution_param {
    num_output: 16
    pad: 1
    kernel_size: 3
    stride: 1
    weight_filler {
      type: "xavier"
    }
    bias_filler {
      type: "constant"
      value: 0
    }
  }
}
layer {
  name: "conv4_3_norm_mbox_loc_perm"
  type: "Permute"
  bottom: "conv4_3_norm_mbox_loc"
  top: "conv4_3_norm_mbox_loc_perm"
  permute_param {
    order: 0
    order: 2
    order: 3
    order: 1
  }
}
layer {
  name: "conv4_3_norm_mbox_loc_flat"
  type: "Flatten"
  bottom: "conv4_3_norm_mbox_loc_perm"
  top: "conv4_3_norm_mbox_loc_flat"
  flatten_param {
    axis: 1
  }
}
layer {
  name: "conv4_3_norm_mbox_conf"
  type: "Convolution"
  bottom: "conv4_3_norm"
  top: "conv4_3_norm_mbox_conf"
  param {
    lr_mult: 1
    decay_mult: 1
  }
  param {
    lr_mult: 2
    decay_mult: 0
  }
  convolution_param {
    num_output: 88
    pad: 1
    kernel_size: 3
    stride: 1
    weight_filler {
      type: "xavier"
    }
    bias_filler {
      type: "constant"
      value: 0
    }
  }
}
layer {
  name: "conv4_3_norm_mbox_conf_perm"
  type: "Permute"
  bottom: "conv4_3_norm_mbox_conf"
  top: "conv4_3_norm_mbox_conf_perm"
  permute_param {
    order: 0
    order: 2
    order: 3
    order: 1
  }
}
layer {
  name: "conv4_3_norm_mbox_conf_flat"
  type: "Flatten"
  bottom: "conv4_3_norm_mbox_conf_perm"
  top: "conv4_3_norm_mbox_conf_flat"
  flatten_param {
    axis: 1
  }
}
layer {
  name: "conv4_3_norm_mbox_priorbox"
  type: "PriorBox"
  bottom: "conv4_3_norm"
  bottom: "data"
  top: "conv4_3_norm_mbox_priorbox"
  prior_box_param {
    min_size: 30
    max_size: 60
    aspect_ratio: 2
    flip: true
    clip: false
    variance: 0.1
    variance: 0.1
    variance: 0.2
    variance: 0.2
    step: 8
    offset: 0.5
  }
}
layer {
  name: "fc7_mbox_loc"
  type: "Convolution"
  bottom: "fc7"
  top: "fc7_mbox_loc"
  param {
    lr_mult: 1
    decay_mult: 1
  }
  param {
    lr_mult: 2
    decay_mult: 0
  }
  convolution_param {
    num_output: 24
    pad: 1
    kernel_size: 3
    stride: 1
    weight_filler {
      type: "xavier"
    }
    bias_filler {
      type: "constant"
      value: 0
    }
  }
}
layer {
  name: "fc7_mbox_loc_perm"
  type: "Permute"
  bottom: "fc7_mbox_loc"
  top: "fc7_mbox_loc_perm"
  permute_param {
    order: 0
    order: 2
    order: 3
    order: 1
  }
}
layer {
  name: "fc7_mbox_loc_flat"
  type: "Flatten"
  bottom: "fc7_mbox_loc_perm"
  top: "fc7_mbox_loc_flat"
  flatten_param {
    axis: 1
  }
}
layer {
  name: "fc7_mbox_conf"
  type: "Convolution"
  bottom: "fc7"
  top: "fc7_mbox_conf"
  param {
    lr_mult: 1
    decay_mult: 1
  }
  param {
    lr_mult: 2
    decay_mult: 0
  }
  convolution_param {
    num_output: 132
    pad: 1
    kernel_size: 3
    stride: 1
    weight_filler {
      type: "xavier"
    }
    bias_filler {
      type: "constant"
      value: 0
    }
  }
}
layer {
  name: "fc7_mbox_conf_perm"
  type: "Permute"
  bottom: "fc7_mbox_conf"
  top: "fc7_mbox_conf_perm"
  permute_param {
    order: 0
    order: 2
    order: 3
    order: 1
  }
}
layer {
  name: "fc7_mbox_conf_flat"
  type: "Flatten"
  bottom: "fc7_mbox_conf_perm"
  top: "fc7_mbox_conf_flat"
  flatten_param {
    axis: 1
  }
}
layer {
  name: "fc7_mbox_priorbox"
  type: "PriorBox"
  bottom: "fc7"
  bottom: "data"
  top: "fc7_mbox_priorbox"
  prior_box_param {
    min_size: 60
    max_size: 111
    aspect_ratio: 2
    aspect_ratio: 3
    flip: true
    clip: false
    variance: 0.1
    variance: 0.1
    variance: 0.2
    variance: 0.2
    step: 16
    offset: 0.5
  }
}
layer {
  name: "conv6_2_mbox_loc"
  type: "Convolution"
  bottom: "conv6_2"
  top: "conv6_2_mbox_loc"
  param {
    lr_mult: 1
    decay_mult: 1
  }
  param {
    lr_mult: 2
    decay_mult: 0
  }
  convolution_param {
    num_output: 24
    pad: 1
    kernel_size: 3
    stride: 1
    weight_filler {
      type: "xavier"
    }
    bias_filler {
      type: "constant"
      value: 0
    }
  }
}
layer {
  name: "conv6_2_mbox_loc_perm"
  type: "Permute"
  bottom: "conv6_2_mbox_loc"
  top: "conv6_2_mbox_loc_perm"
  permute_param {
    order: 0
    order: 2
    order: 3
    order: 1
  }
}
layer {
  name: "conv6_2_mbox_loc_flat"
  type: "Flatten"
  bottom: "conv6_2_mbox_loc_perm"
  top: "conv6_2_mbox_loc_flat"
  flatten_param {
    axis: 1
  }
}
layer {
  name: "conv6_2_mbox_conf"
  type: "Convolution"
  bottom: "conv6_2"
  top: "conv6_2_mbox_conf"
  param {
    lr_mult: 1
    decay_mult: 1
  }
  param {
    lr_mult: 2
    decay_mult: 0
  }
  convolution_param {
    num_output: 132
    pad: 1
    kernel_size: 3
    stride: 1
    weight_filler {
      type: "xavier"
    }
    bias_filler {
      type: "constant"
      value: 0
    }
  }
}
layer {
  name: "conv6_2_mbox_conf_perm"
  type: "Permute"
  bottom: "conv6_2_mbox_conf"
  top: "conv6_2_mbox_conf_perm"
  permute_param {
    order: 0
    order: 2
    order: 3
    order: 1
  }
}
layer {
  name: "conv6_2_mbox_conf_flat"
  type: "Flatten"
  bottom: "conv6_2_mbox_conf_perm"
  top: "conv6_2_mbox_conf_flat"
  flatten_param {
    axis: 1
  }
}
layer {
  name: "conv6_2_mbox_priorbox"
  type: "PriorBox"
  bottom: "conv6_2"
  bottom: "data"
  top: "conv6_2_mbox_priorbox"
  prior_box_param {
    min_size: 111
    max_size: 162
    aspect_ratio: 2
    aspect_ratio: 3
    flip: true
    clip: false
    variance: 0.1
    variance: 0.1
    variance: 0.2
    variance: 0.2
    step: 32
    offset: 0.5
  }
}
layer {
  name: "conv7_2_mbox_loc"
  type: "Convolution"
  bottom: "conv7_2"
  top: "conv7_2_mbox_loc"
  param {
    lr_mult: 1
    decay_mult: 1
  }
  param {
    lr_mult: 2
    decay_mult: 0
  }
  convolution_param {
    num_output: 24
    pad: 1
    kernel_size: 3
    stride: 1
    weight_filler {
      type: "xavier"
    }
    bias_filler {
      type: "constant"
      value: 0
    }
  }
}
layer {
  name: "conv7_2_mbox_loc_perm"
  type: "Permute"
  bottom: "conv7_2_mbox_loc"
  top: "conv7_2_mbox_loc_perm"
  permute_param {
    order: 0
    order: 2
    order: 3
    order: 1
  }
}
layer {
  name: "conv7_2_mbox_loc_flat"
  type: "Flatten"
  bottom: "conv7_2_mbox_loc_perm"
  top: "conv7_2_mbox_loc_flat"
  flatten_param {
    axis: 1
  }
}
layer {
  name: "conv7_2_mbox_conf"
  type: "Convolution"
  bottom: "conv7_2"
  top: "conv7_2_mbox_conf"
  param {
    lr_mult: 1
    decay_mult: 1
  }
  param {
    lr_mult: 2
    decay_mult: 0
  }
  convolution_param {
    num_output: 132
    pad: 1
    kernel_size: 3
    stride: 1
    weight_filler {
      type: "xavier"
    }
    bias_filler {
      type: "constant"
      value: 0
    }
  }
}
layer {
  name: "conv7_2_mbox_conf_perm"
  type: "Permute"
  bottom: "conv7_2_mbox_conf"
  top: "conv7_2_mbox_conf_perm"
  permute_param {
    order: 0
    order: 2
    order: 3
    order: 1
  }
}
layer {
  name: "conv7_2_mbox_conf_flat"
  type: "Flatten"
  bottom: "conv7_2_mbox_conf_perm"
  top: "conv7_2_mbox_conf_flat"
  flatten_param {
    axis: 1
  }
}
layer {
  name: "conv7_2_mbox_priorbox"
  type: "PriorBox"
  bottom: "conv7_2"
  bottom: "data"
  top: "conv7_2_mbox_priorbox"
  prior_box_param {
    min_size: 162
    max_size: 213
    aspect_ratio: 2
    aspect_ratio: 3
    flip: true
    clip: false
    variance: 0.1
    variance: 0.1
    variance: 0.2
    variance: 0.2
    step: 64
    offset: 0.5
  }
}
layer {
  name: "conv8_2_mbox_loc"
  type: "Convolution"
  bottom: "conv8_2"
  top: "conv8_2_mbox_loc"
  param {
    lr_mult: 1
    decay_mult: 1
  }
  param {
    lr_mult: 2
    decay_mult: 0
  }
  convolution_param {
    num_output: 16
    pad: 1
    kernel_size: 3
    stride: 1
    weight_filler {
      type: "xavier"
    }
    bias_filler {
      type: "constant"
      value: 0
    }
  }
}
layer {
  name: "conv8_2_mbox_loc_perm"
  type: "Permute"
  bottom: "conv8_2_mbox_loc"
  top: "conv8_2_mbox_loc_perm"
  permute_param {
    order: 0
    order: 2
    order: 3
    order: 1
  }
}
layer {
  name: "conv8_2_mbox_loc_flat"
  type: "Flatten"
  bottom: "conv8_2_mbox_loc_perm"
  top: "conv8_2_mbox_loc_flat"
  flatten_param {
    axis: 1
  }
}
layer {
  name: "conv8_2_mbox_conf"
  type: "Convolution"
  bottom: "conv8_2"
  top: "conv8_2_mbox_conf"
  param {
    lr_mult: 1
    decay_mult: 1
  }
  param {
    lr_mult: 2
    decay_mult: 0
  }
  convolution_param {
    num_output: 88
    pad: 1
    kernel_size: 3
    stride: 1
    weight_filler {
      type: "xavier"
    }
    bias_filler {
      type: "constant"
      value: 0
    }
  }
}
layer {
  name: "conv8_2_mbox_conf_perm"
  type: "Permute"
  bottom: "conv8_2_mbox_conf"
  top: "conv8_2_mbox_conf_perm"
  permute_param {
    order: 0
    order: 2
    order: 3
    order: 1
  }
}
layer {
  name: "conv8_2_mbox_conf_flat"
  type: "Flatten"
  bottom: "conv8_2_mbox_conf_perm"
  top: "conv8_2_mbox_conf_flat"
  flatten_param {
    axis: 1
  }
}
layer {
  name: "conv8_2_mbox_priorbox"
  type: "PriorBox"
  bottom: "conv8_2"
  bottom: "data"
  top: "conv8_2_mbox_priorbox"
  prior_box_param {
    min_size: 213
    max_size: 264
    aspect_ratio: 2
    flip: true
    clip: false
    variance: 0.1
    variance: 0.1
    variance: 0.2
    variance: 0.2
    step: 100
    offset: 0.5
  }
}
layer {
  name: "conv9_2_mbox_loc"
  type: "Convolution"
  bottom: "conv9_2"
  top: "conv9_2_mbox_loc"
  param {
    lr_mult: 1
    decay_mult: 1
  }
  param {
    lr_mult: 2
    decay_mult: 0
  }
  convolution_param {
    num_output: 16
    pad: 1
    kernel_size: 3
    stride: 1
    weight_filler {
      type: "xavier"
    }
    bias_filler {
      type: "constant"
      value: 0
    }
  }
}
layer {
  name: "conv9_2_mbox_loc_perm"
  type: "Permute"
  bottom: "conv9_2_mbox_loc"
  top: "conv9_2_mbox_loc_perm"
  permute_param {
    order: 0
    order: 2
    order: 3
    order: 1
  }
}
layer {
  name: "conv9_2_mbox_loc_flat"
  type: "Flatten"
  bottom: "conv9_2_mbox_loc_perm"
  top: "conv9_2_mbox_loc_flat"
  flatten_param {
    axis: 1
  }
}
layer {
  name: "conv9_2_mbox_conf"
  type: "Convolution"
  bottom: "conv9_2"
  top: "conv9_2_mbox_conf"
  param {
    lr_mult: 1
    decay_mult: 1
  }
  param {
    lr_mult: 2
    decay_mult: 0
  }
  convolution_param {
    num_output: 88
    pad: 1
    kernel_size: 3
    stride: 1
    weight_filler {
      type: "xavier"
    }
    bias_filler {
      type: "constant"
      value: 0
    }
  }
}
layer {
  name: "conv9_2_mbox_conf_perm"
  type: "Permute"
  bottom: "conv9_2_mbox_conf"
  top: "conv9_2_mbox_conf_perm"
  permute_param {
    order: 0
    order: 2
    order: 3
    order: 1
  }
}
layer {
  name: "conv9_2_mbox_conf_flat"
  type: "Flatten"
  bottom: "conv9_2_mbox_conf_perm"
  top: "conv9_2_mbox_conf_flat"
  flatten_param {
    axis: 1
  }
}
layer {
  name: "conv9_2_mbox_priorbox"
  type: "PriorBox"
  bottom: "conv9_2"
  bottom: "data"
  top: "conv9_2_mbox_priorbox"
  prior_box_param {
    min_size: 264
    max_size: 315
    aspect_ratio: 2
    flip: true
    clip: false
    variance: 0.1
    variance: 0.1
    variance: 0.2
    variance: 0.2
    step: 300
    offset: 0.5
  }
}
layer {
  name: "mbox_loc"
  type: "Concat"
  bottom: "conv4_3_norm_mbox_loc_flat"
  bottom: "fc7_mbox_loc_flat"
  bottom: "conv6_2_mbox_loc_flat"
  bottom: "conv7_2_mbox_loc_flat"
  bottom: "conv8_2_mbox_loc_flat"
  bottom: "conv9_2_mbox_loc_flat"
  top: "mbox_loc"
  concat_param {
    axis: 1
  }
}
layer {
  name: "mbox_conf"
  type: "Concat"
  bottom: "conv4_3_norm_mbox_conf_flat"
  bottom: "fc7_mbox_conf_flat"
  bottom: "conv6_2_mbox_conf_flat"
  bottom: "conv7_2_mbox_conf_flat"
  bottom: "conv8_2_mbox_conf_flat"
  bottom: "conv9_2_mbox_conf_flat"
  top: "mbox_conf"
  concat_param {
    axis: 1
  }
}
layer {
  name: "mbox_priorbox"
  type: "Concat"
  bottom: "conv4_3_norm_mbox_priorbox"
  bottom: "fc7_mbox_priorbox"
  bottom: "conv6_2_mbox_priorbox"
  bottom: "conv7_2_mbox_priorbox"
  bottom: "conv8_2_mbox_priorbox"
  bottom: "conv9_2_mbox_priorbox"
  top: "mbox_priorbox"
  concat_param {
    axis: 2
  }
}
layer {
  name: "mbox_conf_reshape"
  type: "Reshape"
  bottom: "mbox_conf"
  top: "mbox_conf_reshape"
  reshape_param {
    shape {
      dim: 0
      dim: -1
      dim: 22
    }
  }
}
layer {
  name: "mbox_conf_softmax"
  type: "Softmax"
  bottom: "mbox_conf_reshape"
  top: "mbox_conf_softmax"
  softmax_param {
    axis: 2
  }
}
layer {
  name: "mbox_conf_flatten"
  type: "Flatten"
  bottom: "mbox_conf_softmax"
  top: "mbox_conf_flatten"
  flatten_param {
    axis: 1
  }
}
layer {
  name: "detection_out"
  type: "DetectionOutput"
  bottom: "mbox_loc"
  bottom: "mbox_conf_flatten"
  bottom: "mbox_priorbox"
  top: "detection_out"
  include {
    phase: TEST
  }
  detection_output_param {
    num_classes: 22
    share_location: true
    background_label_id: 0
    nms_param {
      nms_threshold: 0.45
      top_k: 400
    }
    save_output_param {
      output_directory: "/home/dhall/data/VOCdevkit/results/dbgr_trees/SSD_dbgr_trees_300x300/Main"
      output_name_prefix: "comp4_det_test_"
      output_format: "VOC"
      label_map_file: "data/dbgr_trees/labelmap_voc.prototxt"
      name_size_file: "data/dbgr_trees/test_name_size.txt"
      num_test_image: 105
    }
    code_type: CENTER_SIZE
    keep_top_k: 200
    confidence_threshold: 0.01
  }
}
layer {
  name: "detection_eval"
  type: "DetectionEvaluate"
  bottom: "detection_out"
  bottom: "label"
  top: "detection_eval"
  include {
    phase: TEST
  }
  detection_evaluate_param {
    num_classes: 22
    background_label_id: 0
    overlap_threshold: 0.5
    evaluate_difficult_gt: false
    name_size_file: "data/dbgr_trees/test_name_size.txt"
  }
}
I0217 21:26:56.347059 15139 layer_factory.hpp:77] Creating layer data
I0217 21:26:56.347121 15139 net.cpp:100] Creating Layer data
I0217 21:26:56.347131 15139 net.cpp:408] data -> data
I0217 21:26:56.347141 15139 net.cpp:408] data -> label
I0217 21:26:56.348829 15157 db_lmdb.cpp:35] Opened lmdb examples/dbgr_trees/dbgr_trees_test_lmdb
I0217 21:26:56.361469 15139 annotated_data_layer.cpp:62] output data size: 1,4,300,300
I0217 21:26:56.364735 15139 net.cpp:150] Setting up data
I0217 21:26:56.364758 15139 net.cpp:157] Top shape: 1 4 300 300 (360000)
I0217 21:26:56.364765 15139 net.cpp:157] Top shape: 1 1 6 8 (48)
I0217 21:26:56.364768 15139 net.cpp:165] Memory required for data: 1440192
I0217 21:26:56.364774 15139 layer_factory.hpp:77] Creating layer data_data_0_split
I0217 21:26:56.364789 15139 net.cpp:100] Creating Layer data_data_0_split
I0217 21:26:56.364792 15139 net.cpp:434] data_data_0_split <- data
I0217 21:26:56.364801 15139 net.cpp:408] data_data_0_split -> data_data_0_split_0
I0217 21:26:56.364812 15139 net.cpp:408] data_data_0_split -> data_data_0_split_1
I0217 21:26:56.364819 15139 net.cpp:408] data_data_0_split -> data_data_0_split_2
I0217 21:26:56.364825 15139 net.cpp:408] data_data_0_split -> data_data_0_split_3
I0217 21:26:56.364830 15139 net.cpp:408] data_data_0_split -> data_data_0_split_4
I0217 21:26:56.364836 15139 net.cpp:408] data_data_0_split -> data_data_0_split_5
I0217 21:26:56.364841 15139 net.cpp:408] data_data_0_split -> data_data_0_split_6
I0217 21:26:56.365053 15139 net.cpp:150] Setting up data_data_0_split
I0217 21:26:56.365063 15139 net.cpp:157] Top shape: 1 4 300 300 (360000)
I0217 21:26:56.365085 15139 net.cpp:157] Top shape: 1 4 300 300 (360000)
I0217 21:26:56.365090 15139 net.cpp:157] Top shape: 1 4 300 300 (360000)
I0217 21:26:56.365094 15139 net.cpp:157] Top shape: 1 4 300 300 (360000)
I0217 21:26:56.365098 15139 net.cpp:157] Top shape: 1 4 300 300 (360000)
I0217 21:26:56.365103 15139 net.cpp:157] Top shape: 1 4 300 300 (360000)
I0217 21:26:56.365106 15139 net.cpp:157] Top shape: 1 4 300 300 (360000)
I0217 21:26:56.365109 15139 net.cpp:165] Memory required for data: 11520192
I0217 21:26:56.365113 15139 layer_factory.hpp:77] Creating layer conv1_1_rgbd
I0217 21:26:56.365128 15139 net.cpp:100] Creating Layer conv1_1_rgbd
I0217 21:26:56.365131 15139 net.cpp:434] conv1_1_rgbd <- data_data_0_split_0
I0217 21:26:56.365139 15139 net.cpp:408] conv1_1_rgbd -> conv1_1_rgbd
I0217 21:26:56.366857 15139 net.cpp:150] Setting up conv1_1_rgbd
I0217 21:26:56.366873 15139 net.cpp:157] Top shape: 1 64 300 300 (5760000)
I0217 21:26:56.366878 15139 net.cpp:165] Memory required for data: 34560192
I0217 21:26:56.366889 15139 layer_factory.hpp:77] Creating layer relu1_1
I0217 21:26:56.366897 15139 net.cpp:100] Creating Layer relu1_1
I0217 21:26:56.366901 15139 net.cpp:434] relu1_1 <- conv1_1_rgbd
I0217 21:26:56.366906 15139 net.cpp:395] relu1_1 -> conv1_1_rgbd (in-place)
I0217 21:26:56.367322 15139 net.cpp:150] Setting up relu1_1
I0217 21:26:56.367336 15139 net.cpp:157] Top shape: 1 64 300 300 (5760000)
I0217 21:26:56.367339 15139 net.cpp:165] Memory required for data: 57600192
I0217 21:26:56.367344 15139 layer_factory.hpp:77] Creating layer conv1_2
I0217 21:26:56.367355 15139 net.cpp:100] Creating Layer conv1_2
I0217 21:26:56.367359 15139 net.cpp:434] conv1_2 <- conv1_1_rgbd
I0217 21:26:56.367365 15139 net.cpp:408] conv1_2 -> conv1_2
I0217 21:26:56.369398 15139 net.cpp:150] Setting up conv1_2
I0217 21:26:56.369415 15139 net.cpp:157] Top shape: 1 64 300 300 (5760000)
I0217 21:26:56.369420 15139 net.cpp:165] Memory required for data: 80640192
I0217 21:26:56.369429 15139 layer_factory.hpp:77] Creating layer relu1_2
I0217 21:26:56.369437 15139 net.cpp:100] Creating Layer relu1_2
I0217 21:26:56.369441 15139 net.cpp:434] relu1_2 <- conv1_2
I0217 21:26:56.369446 15139 net.cpp:395] relu1_2 -> conv1_2 (in-place)
I0217 21:26:56.369645 15139 net.cpp:150] Setting up relu1_2
I0217 21:26:56.369657 15139 net.cpp:157] Top shape: 1 64 300 300 (5760000)
I0217 21:26:56.369660 15139 net.cpp:165] Memory required for data: 103680192
I0217 21:26:56.369663 15139 layer_factory.hpp:77] Creating layer pool1
I0217 21:26:56.369671 15139 net.cpp:100] Creating Layer pool1
I0217 21:26:56.369675 15139 net.cpp:434] pool1 <- conv1_2
I0217 21:26:56.369680 15139 net.cpp:408] pool1 -> pool1
I0217 21:26:56.369735 15139 net.cpp:150] Setting up pool1
I0217 21:26:56.369742 15139 net.cpp:157] Top shape: 1 64 150 150 (1440000)
I0217 21:26:56.369746 15139 net.cpp:165] Memory required for data: 109440192
I0217 21:26:56.369750 15139 layer_factory.hpp:77] Creating layer conv2_1
I0217 21:26:56.369758 15139 net.cpp:100] Creating Layer conv2_1
I0217 21:26:56.369762 15139 net.cpp:434] conv2_1 <- pool1
I0217 21:26:56.369768 15139 net.cpp:408] conv2_1 -> conv2_1
I0217 21:26:56.371564 15139 net.cpp:150] Setting up conv2_1
I0217 21:26:56.371580 15139 net.cpp:157] Top shape: 1 128 150 150 (2880000)
I0217 21:26:56.371584 15139 net.cpp:165] Memory required for data: 120960192
I0217 21:26:56.371594 15139 layer_factory.hpp:77] Creating layer relu2_1
I0217 21:26:56.371603 15139 net.cpp:100] Creating Layer relu2_1
I0217 21:26:56.371606 15139 net.cpp:434] relu2_1 <- conv2_1
I0217 21:26:56.371611 15139 net.cpp:395] relu2_1 -> conv2_1 (in-place)
I0217 21:26:56.371804 15139 net.cpp:150] Setting up relu2_1
I0217 21:26:56.371815 15139 net.cpp:157] Top shape: 1 128 150 150 (2880000)
I0217 21:26:56.371819 15139 net.cpp:165] Memory required for data: 132480192
I0217 21:26:56.371822 15139 layer_factory.hpp:77] Creating layer conv2_2
I0217 21:26:56.371832 15139 net.cpp:100] Creating Layer conv2_2
I0217 21:26:56.371836 15139 net.cpp:434] conv2_2 <- conv2_1
I0217 21:26:56.371857 15139 net.cpp:408] conv2_2 -> conv2_2
I0217 21:26:56.374524 15139 net.cpp:150] Setting up conv2_2
I0217 21:26:56.374541 15139 net.cpp:157] Top shape: 1 128 150 150 (2880000)
I0217 21:26:56.374546 15139 net.cpp:165] Memory required for data: 144000192
I0217 21:26:56.374552 15139 layer_factory.hpp:77] Creating layer relu2_2
I0217 21:26:56.374559 15139 net.cpp:100] Creating Layer relu2_2
I0217 21:26:56.374563 15139 net.cpp:434] relu2_2 <- conv2_2
I0217 21:26:56.374569 15139 net.cpp:395] relu2_2 -> conv2_2 (in-place)
I0217 21:26:56.374893 15139 net.cpp:150] Setting up relu2_2
I0217 21:26:56.374907 15139 net.cpp:157] Top shape: 1 128 150 150 (2880000)
I0217 21:26:56.374912 15139 net.cpp:165] Memory required for data: 155520192
I0217 21:26:56.374917 15139 layer_factory.hpp:77] Creating layer pool2
I0217 21:26:56.374923 15139 net.cpp:100] Creating Layer pool2
I0217 21:26:56.374927 15139 net.cpp:434] pool2 <- conv2_2
I0217 21:26:56.374933 15139 net.cpp:408] pool2 -> pool2
I0217 21:26:56.374987 15139 net.cpp:150] Setting up pool2
I0217 21:26:56.374994 15139 net.cpp:157] Top shape: 1 128 75 75 (720000)
I0217 21:26:56.374997 15139 net.cpp:165] Memory required for data: 158400192
I0217 21:26:56.375000 15139 layer_factory.hpp:77] Creating layer conv3_1
I0217 21:26:56.375010 15139 net.cpp:100] Creating Layer conv3_1
I0217 21:26:56.375013 15139 net.cpp:434] conv3_1 <- pool2
I0217 21:26:56.375020 15139 net.cpp:408] conv3_1 -> conv3_1
I0217 21:26:56.378808 15139 net.cpp:150] Setting up conv3_1
I0217 21:26:56.378824 15139 net.cpp:157] Top shape: 1 256 75 75 (1440000)
I0217 21:26:56.378829 15139 net.cpp:165] Memory required for data: 164160192
I0217 21:26:56.378839 15139 layer_factory.hpp:77] Creating layer relu3_1
I0217 21:26:56.378846 15139 net.cpp:100] Creating Layer relu3_1
I0217 21:26:56.378850 15139 net.cpp:434] relu3_1 <- conv3_1
I0217 21:26:56.378855 15139 net.cpp:395] relu3_1 -> conv3_1 (in-place)
I0217 21:26:56.379039 15139 net.cpp:150] Setting up relu3_1
I0217 21:26:56.379048 15139 net.cpp:157] Top shape: 1 256 75 75 (1440000)
I0217 21:26:56.379052 15139 net.cpp:165] Memory required for data: 169920192
I0217 21:26:56.379055 15139 layer_factory.hpp:77] Creating layer conv3_2
I0217 21:26:56.379065 15139 net.cpp:100] Creating Layer conv3_2
I0217 21:26:56.379068 15139 net.cpp:434] conv3_2 <- conv3_1
I0217 21:26:56.379075 15139 net.cpp:408] conv3_2 -> conv3_2
I0217 21:26:56.385274 15139 net.cpp:150] Setting up conv3_2
I0217 21:26:56.385293 15139 net.cpp:157] Top shape: 1 256 75 75 (1440000)
I0217 21:26:56.385298 15139 net.cpp:165] Memory required for data: 175680192
I0217 21:26:56.385305 15139 layer_factory.hpp:77] Creating layer relu3_2
I0217 21:26:56.385313 15139 net.cpp:100] Creating Layer relu3_2
I0217 21:26:56.385316 15139 net.cpp:434] relu3_2 <- conv3_2
I0217 21:26:56.385321 15139 net.cpp:395] relu3_2 -> conv3_2 (in-place)
I0217 21:26:56.385499 15139 net.cpp:150] Setting up relu3_2
I0217 21:26:56.385510 15139 net.cpp:157] Top shape: 1 256 75 75 (1440000)
I0217 21:26:56.385514 15139 net.cpp:165] Memory required for data: 181440192
I0217 21:26:56.385517 15139 layer_factory.hpp:77] Creating layer conv3_3
I0217 21:26:56.385529 15139 net.cpp:100] Creating Layer conv3_3
I0217 21:26:56.385534 15139 net.cpp:434] conv3_3 <- conv3_2
I0217 21:26:56.385540 15139 net.cpp:408] conv3_3 -> conv3_3
I0217 21:26:56.391948 15139 net.cpp:150] Setting up conv3_3
I0217 21:26:56.391969 15139 net.cpp:157] Top shape: 1 256 75 75 (1440000)
I0217 21:26:56.391974 15139 net.cpp:165] Memory required for data: 187200192
I0217 21:26:56.391983 15139 layer_factory.hpp:77] Creating layer relu3_3
I0217 21:26:56.391988 15139 net.cpp:100] Creating Layer relu3_3
I0217 21:26:56.391993 15139 net.cpp:434] relu3_3 <- conv3_3
I0217 21:26:56.391999 15139 net.cpp:395] relu3_3 -> conv3_3 (in-place)
I0217 21:26:56.392323 15139 net.cpp:150] Setting up relu3_3
I0217 21:26:56.392338 15139 net.cpp:157] Top shape: 1 256 75 75 (1440000)
I0217 21:26:56.392341 15139 net.cpp:165] Memory required for data: 192960192
I0217 21:26:56.392345 15139 layer_factory.hpp:77] Creating layer pool3
I0217 21:26:56.392371 15139 net.cpp:100] Creating Layer pool3
I0217 21:26:56.392375 15139 net.cpp:434] pool3 <- conv3_3
I0217 21:26:56.392381 15139 net.cpp:408] pool3 -> pool3
I0217 21:26:56.392441 15139 net.cpp:150] Setting up pool3
I0217 21:26:56.392449 15139 net.cpp:157] Top shape: 1 256 38 38 (369664)
I0217 21:26:56.392453 15139 net.cpp:165] Memory required for data: 194438848
I0217 21:26:56.392457 15139 layer_factory.hpp:77] Creating layer conv4_1
I0217 21:26:56.392467 15139 net.cpp:100] Creating Layer conv4_1
I0217 21:26:56.392470 15139 net.cpp:434] conv4_1 <- pool3
I0217 21:26:56.392477 15139 net.cpp:408] conv4_1 -> conv4_1
I0217 21:26:56.403604 15139 net.cpp:150] Setting up conv4_1
I0217 21:26:56.403627 15139 net.cpp:157] Top shape: 1 512 38 38 (739328)
I0217 21:26:56.403631 15139 net.cpp:165] Memory required for data: 197396160
I0217 21:26:56.403640 15139 layer_factory.hpp:77] Creating layer relu4_1
I0217 21:26:56.403647 15139 net.cpp:100] Creating Layer relu4_1
I0217 21:26:56.403652 15139 net.cpp:434] relu4_1 <- conv4_1
I0217 21:26:56.403658 15139 net.cpp:395] relu4_1 -> conv4_1 (in-place)
I0217 21:26:56.403848 15139 net.cpp:150] Setting up relu4_1
I0217 21:26:56.403859 15139 net.cpp:157] Top shape: 1 512 38 38 (739328)
I0217 21:26:56.403863 15139 net.cpp:165] Memory required for data: 200353472
I0217 21:26:56.403867 15139 layer_factory.hpp:77] Creating layer conv4_2
I0217 21:26:56.403877 15139 net.cpp:100] Creating Layer conv4_2
I0217 21:26:56.403882 15139 net.cpp:434] conv4_2 <- conv4_1
I0217 21:26:56.403887 15139 net.cpp:408] conv4_2 -> conv4_2
I0217 21:26:56.425406 15139 net.cpp:150] Setting up conv4_2
I0217 21:26:56.425441 15139 net.cpp:157] Top shape: 1 512 38 38 (739328)
I0217 21:26:56.425446 15139 net.cpp:165] Memory required for data: 203310784
I0217 21:26:56.425462 15139 layer_factory.hpp:77] Creating layer relu4_2
I0217 21:26:56.425472 15139 net.cpp:100] Creating Layer relu4_2
I0217 21:26:56.425477 15139 net.cpp:434] relu4_2 <- conv4_2
I0217 21:26:56.425483 15139 net.cpp:395] relu4_2 -> conv4_2 (in-place)
I0217 21:26:56.425676 15139 net.cpp:150] Setting up relu4_2
I0217 21:26:56.425688 15139 net.cpp:157] Top shape: 1 512 38 38 (739328)
I0217 21:26:56.425690 15139 net.cpp:165] Memory required for data: 206268096
I0217 21:26:56.425694 15139 layer_factory.hpp:77] Creating layer conv4_3
I0217 21:26:56.425706 15139 net.cpp:100] Creating Layer conv4_3
I0217 21:26:56.425710 15139 net.cpp:434] conv4_3 <- conv4_2
I0217 21:26:56.425716 15139 net.cpp:408] conv4_3 -> conv4_3
I0217 21:26:56.447198 15139 net.cpp:150] Setting up conv4_3
I0217 21:26:56.447232 15139 net.cpp:157] Top shape: 1 512 38 38 (739328)
I0217 21:26:56.447237 15139 net.cpp:165] Memory required for data: 209225408
I0217 21:26:56.447247 15139 layer_factory.hpp:77] Creating layer relu4_3
I0217 21:26:56.447257 15139 net.cpp:100] Creating Layer relu4_3
I0217 21:26:56.447263 15139 net.cpp:434] relu4_3 <- conv4_3
I0217 21:26:56.447270 15139 net.cpp:395] relu4_3 -> conv4_3 (in-place)
I0217 21:26:56.447616 15139 net.cpp:150] Setting up relu4_3
I0217 21:26:56.447630 15139 net.cpp:157] Top shape: 1 512 38 38 (739328)
I0217 21:26:56.447634 15139 net.cpp:165] Memory required for data: 212182720
I0217 21:26:56.447638 15139 layer_factory.hpp:77] Creating layer conv4_3_relu4_3_0_split
I0217 21:26:56.447646 15139 net.cpp:100] Creating Layer conv4_3_relu4_3_0_split
I0217 21:26:56.447650 15139 net.cpp:434] conv4_3_relu4_3_0_split <- conv4_3
I0217 21:26:56.447656 15139 net.cpp:408] conv4_3_relu4_3_0_split -> conv4_3_relu4_3_0_split_0
I0217 21:26:56.447664 15139 net.cpp:408] conv4_3_relu4_3_0_split -> conv4_3_relu4_3_0_split_1
I0217 21:26:56.447722 15139 net.cpp:150] Setting up conv4_3_relu4_3_0_split
I0217 21:26:56.447731 15139 net.cpp:157] Top shape: 1 512 38 38 (739328)
I0217 21:26:56.447736 15139 net.cpp:157] Top shape: 1 512 38 38 (739328)
I0217 21:26:56.447738 15139 net.cpp:165] Memory required for data: 218097344
I0217 21:26:56.447742 15139 layer_factory.hpp:77] Creating layer pool4
I0217 21:26:56.447749 15139 net.cpp:100] Creating Layer pool4
I0217 21:26:56.447772 15139 net.cpp:434] pool4 <- conv4_3_relu4_3_0_split_0
I0217 21:26:56.447777 15139 net.cpp:408] pool4 -> pool4
I0217 21:26:56.447832 15139 net.cpp:150] Setting up pool4
I0217 21:26:56.447841 15139 net.cpp:157] Top shape: 1 512 19 19 (184832)
I0217 21:26:56.447844 15139 net.cpp:165] Memory required for data: 218836672
I0217 21:26:56.447849 15139 layer_factory.hpp:77] Creating layer conv5_1
I0217 21:26:56.447860 15139 net.cpp:100] Creating Layer conv5_1
I0217 21:26:56.447865 15139 net.cpp:434] conv5_1 <- pool4
I0217 21:26:56.447870 15139 net.cpp:408] conv5_1 -> conv5_1
I0217 21:26:56.469310 15139 net.cpp:150] Setting up conv5_1
I0217 21:26:56.469347 15139 net.cpp:157] Top shape: 1 512 19 19 (184832)
I0217 21:26:56.469352 15139 net.cpp:165] Memory required for data: 219576000
I0217 21:26:56.469362 15139 layer_factory.hpp:77] Creating layer relu5_1
I0217 21:26:56.469372 15139 net.cpp:100] Creating Layer relu5_1
I0217 21:26:56.469378 15139 net.cpp:434] relu5_1 <- conv5_1
I0217 21:26:56.469386 15139 net.cpp:395] relu5_1 -> conv5_1 (in-place)
I0217 21:26:56.469594 15139 net.cpp:150] Setting up relu5_1
I0217 21:26:56.469605 15139 net.cpp:157] Top shape: 1 512 19 19 (184832)
I0217 21:26:56.469609 15139 net.cpp:165] Memory required for data: 220315328
I0217 21:26:56.469612 15139 layer_factory.hpp:77] Creating layer conv5_2
I0217 21:26:56.469626 15139 net.cpp:100] Creating Layer conv5_2
I0217 21:26:56.469631 15139 net.cpp:434] conv5_2 <- conv5_1
I0217 21:26:56.469637 15139 net.cpp:408] conv5_2 -> conv5_2
I0217 21:26:56.491271 15139 net.cpp:150] Setting up conv5_2
I0217 21:26:56.491305 15139 net.cpp:157] Top shape: 1 512 19 19 (184832)
I0217 21:26:56.491309 15139 net.cpp:165] Memory required for data: 221054656
I0217 21:26:56.491319 15139 layer_factory.hpp:77] Creating layer relu5_2
I0217 21:26:56.491331 15139 net.cpp:100] Creating Layer relu5_2
I0217 21:26:56.491338 15139 net.cpp:434] relu5_2 <- conv5_2
I0217 21:26:56.491345 15139 net.cpp:395] relu5_2 -> conv5_2 (in-place)
I0217 21:26:56.491554 15139 net.cpp:150] Setting up relu5_2
I0217 21:26:56.491565 15139 net.cpp:157] Top shape: 1 512 19 19 (184832)
I0217 21:26:56.491569 15139 net.cpp:165] Memory required for data: 221793984
I0217 21:26:56.491574 15139 layer_factory.hpp:77] Creating layer conv5_3
I0217 21:26:56.491586 15139 net.cpp:100] Creating Layer conv5_3
I0217 21:26:56.491590 15139 net.cpp:434] conv5_3 <- conv5_2
I0217 21:26:56.491598 15139 net.cpp:408] conv5_3 -> conv5_3
I0217 21:26:56.513427 15139 net.cpp:150] Setting up conv5_3
I0217 21:26:56.513461 15139 net.cpp:157] Top shape: 1 512 19 19 (184832)
I0217 21:26:56.513466 15139 net.cpp:165] Memory required for data: 222533312
I0217 21:26:56.513475 15139 layer_factory.hpp:77] Creating layer relu5_3
I0217 21:26:56.513492 15139 net.cpp:100] Creating Layer relu5_3
I0217 21:26:56.513497 15139 net.cpp:434] relu5_3 <- conv5_3
I0217 21:26:56.513505 15139 net.cpp:395] relu5_3 -> conv5_3 (in-place)
I0217 21:26:56.513871 15139 net.cpp:150] Setting up relu5_3
I0217 21:26:56.513885 15139 net.cpp:157] Top shape: 1 512 19 19 (184832)
I0217 21:26:56.513890 15139 net.cpp:165] Memory required for data: 223272640
I0217 21:26:56.513893 15139 layer_factory.hpp:77] Creating layer pool5
I0217 21:26:56.513901 15139 net.cpp:100] Creating Layer pool5
I0217 21:26:56.513906 15139 net.cpp:434] pool5 <- conv5_3
I0217 21:26:56.513913 15139 net.cpp:408] pool5 -> pool5
I0217 21:26:56.513977 15139 net.cpp:150] Setting up pool5
I0217 21:26:56.513984 15139 net.cpp:157] Top shape: 1 512 19 19 (184832)
I0217 21:26:56.513988 15139 net.cpp:165] Memory required for data: 224011968
I0217 21:26:56.513991 15139 layer_factory.hpp:77] Creating layer fc6
I0217 21:26:56.514005 15139 net.cpp:100] Creating Layer fc6
I0217 21:26:56.514009 15139 net.cpp:434] fc6 <- pool5
I0217 21:26:56.514016 15139 net.cpp:408] fc6 -> fc6
I0217 21:26:56.554952 15139 net.cpp:150] Setting up fc6
I0217 21:26:56.554986 15139 net.cpp:157] Top shape: 1 1024 19 19 (369664)
I0217 21:26:56.554991 15139 net.cpp:165] Memory required for data: 225490624
I0217 21:26:56.555027 15139 layer_factory.hpp:77] Creating layer relu6
I0217 21:26:56.555037 15139 net.cpp:100] Creating Layer relu6
I0217 21:26:56.555043 15139 net.cpp:434] relu6 <- fc6
I0217 21:26:56.555050 15139 net.cpp:395] relu6 -> fc6 (in-place)
I0217 21:26:56.555313 15139 net.cpp:150] Setting up relu6
I0217 21:26:56.555325 15139 net.cpp:157] Top shape: 1 1024 19 19 (369664)
I0217 21:26:56.555328 15139 net.cpp:165] Memory required for data: 226969280
I0217 21:26:56.555332 15139 layer_factory.hpp:77] Creating layer fc7
I0217 21:26:56.555346 15139 net.cpp:100] Creating Layer fc7
I0217 21:26:56.555351 15139 net.cpp:434] fc7 <- fc6
I0217 21:26:56.555357 15139 net.cpp:408] fc7 -> fc7
I0217 21:26:56.565789 15139 net.cpp:150] Setting up fc7
I0217 21:26:56.565811 15139 net.cpp:157] Top shape: 1 1024 19 19 (369664)
I0217 21:26:56.565815 15139 net.cpp:165] Memory required for data: 228447936
I0217 21:26:56.565824 15139 layer_factory.hpp:77] Creating layer relu7
I0217 21:26:56.565834 15139 net.cpp:100] Creating Layer relu7
I0217 21:26:56.565838 15139 net.cpp:434] relu7 <- fc7
I0217 21:26:56.565845 15139 net.cpp:395] relu7 -> fc7 (in-place)
I0217 21:26:56.566190 15139 net.cpp:150] Setting up relu7
I0217 21:26:56.566205 15139 net.cpp:157] Top shape: 1 1024 19 19 (369664)
I0217 21:26:56.566208 15139 net.cpp:165] Memory required for data: 229926592
I0217 21:26:56.566212 15139 layer_factory.hpp:77] Creating layer fc7_relu7_0_split
I0217 21:26:56.566221 15139 net.cpp:100] Creating Layer fc7_relu7_0_split
I0217 21:26:56.566226 15139 net.cpp:434] fc7_relu7_0_split <- fc7
I0217 21:26:56.566231 15139 net.cpp:408] fc7_relu7_0_split -> fc7_relu7_0_split_0
I0217 21:26:56.566241 15139 net.cpp:408] fc7_relu7_0_split -> fc7_relu7_0_split_1
I0217 21:26:56.566252 15139 net.cpp:408] fc7_relu7_0_split -> fc7_relu7_0_split_2
I0217 21:26:56.566258 15139 net.cpp:408] fc7_relu7_0_split -> fc7_relu7_0_split_3
I0217 21:26:56.566350 15139 net.cpp:150] Setting up fc7_relu7_0_split
I0217 21:26:56.566360 15139 net.cpp:157] Top shape: 1 1024 19 19 (369664)
I0217 21:26:56.566365 15139 net.cpp:157] Top shape: 1 1024 19 19 (369664)
I0217 21:26:56.566370 15139 net.cpp:157] Top shape: 1 1024 19 19 (369664)
I0217 21:26:56.566373 15139 net.cpp:157] Top shape: 1 1024 19 19 (369664)
I0217 21:26:56.566376 15139 net.cpp:165] Memory required for data: 235841216
I0217 21:26:56.566380 15139 layer_factory.hpp:77] Creating layer conv6_1
I0217 21:26:56.566392 15139 net.cpp:100] Creating Layer conv6_1
I0217 21:26:56.566396 15139 net.cpp:434] conv6_1 <- fc7_relu7_0_split_0
I0217 21:26:56.566404 15139 net.cpp:408] conv6_1 -> conv6_1
I0217 21:26:56.569830 15139 net.cpp:150] Setting up conv6_1
I0217 21:26:56.569847 15139 net.cpp:157] Top shape: 1 256 19 19 (92416)
I0217 21:26:56.569851 15139 net.cpp:165] Memory required for data: 236210880
I0217 21:26:56.569859 15139 layer_factory.hpp:77] Creating layer conv6_1_relu
I0217 21:26:56.569865 15139 net.cpp:100] Creating Layer conv6_1_relu
I0217 21:26:56.569870 15139 net.cpp:434] conv6_1_relu <- conv6_1
I0217 21:26:56.569876 15139 net.cpp:395] conv6_1_relu -> conv6_1 (in-place)
I0217 21:26:56.570222 15139 net.cpp:150] Setting up conv6_1_relu
I0217 21:26:56.570236 15139 net.cpp:157] Top shape: 1 256 19 19 (92416)
I0217 21:26:56.570240 15139 net.cpp:165] Memory required for data: 236580544
I0217 21:26:56.570245 15139 layer_factory.hpp:77] Creating layer conv6_2
I0217 21:26:56.570255 15139 net.cpp:100] Creating Layer conv6_2
I0217 21:26:56.570260 15139 net.cpp:434] conv6_2 <- conv6_1
I0217 21:26:56.570266 15139 net.cpp:408] conv6_2 -> conv6_2
I0217 21:26:56.581678 15139 net.cpp:150] Setting up conv6_2
I0217 21:26:56.581709 15139 net.cpp:157] Top shape: 1 512 10 10 (51200)
I0217 21:26:56.581714 15139 net.cpp:165] Memory required for data: 236785344
I0217 21:26:56.581730 15139 layer_factory.hpp:77] Creating layer conv6_2_relu
I0217 21:26:56.581742 15139 net.cpp:100] Creating Layer conv6_2_relu
I0217 21:26:56.581748 15139 net.cpp:434] conv6_2_relu <- conv6_2
I0217 21:26:56.581753 15139 net.cpp:395] conv6_2_relu -> conv6_2 (in-place)
I0217 21:26:56.581982 15139 net.cpp:150] Setting up conv6_2_relu
I0217 21:26:56.581995 15139 net.cpp:157] Top shape: 1 512 10 10 (51200)
I0217 21:26:56.581998 15139 net.cpp:165] Memory required for data: 236990144
I0217 21:26:56.582002 15139 layer_factory.hpp:77] Creating layer conv6_2_conv6_2_relu_0_split
I0217 21:26:56.582010 15139 net.cpp:100] Creating Layer conv6_2_conv6_2_relu_0_split
I0217 21:26:56.582013 15139 net.cpp:434] conv6_2_conv6_2_relu_0_split <- conv6_2
I0217 21:26:56.582021 15139 net.cpp:408] conv6_2_conv6_2_relu_0_split -> conv6_2_conv6_2_relu_0_split_0
I0217 21:26:56.582028 15139 net.cpp:408] conv6_2_conv6_2_relu_0_split -> conv6_2_conv6_2_relu_0_split_1
I0217 21:26:56.582036 15139 net.cpp:408] conv6_2_conv6_2_relu_0_split -> conv6_2_conv6_2_relu_0_split_2
I0217 21:26:56.582041 15139 net.cpp:408] conv6_2_conv6_2_relu_0_split -> conv6_2_conv6_2_relu_0_split_3
I0217 21:26:56.582136 15139 net.cpp:150] Setting up conv6_2_conv6_2_relu_0_split
I0217 21:26:56.582146 15139 net.cpp:157] Top shape: 1 512 10 10 (51200)
I0217 21:26:56.582151 15139 net.cpp:157] Top shape: 1 512 10 10 (51200)
I0217 21:26:56.582155 15139 net.cpp:157] Top shape: 1 512 10 10 (51200)
I0217 21:26:56.582159 15139 net.cpp:157] Top shape: 1 512 10 10 (51200)
I0217 21:26:56.582162 15139 net.cpp:165] Memory required for data: 237809344
I0217 21:26:56.582166 15139 layer_factory.hpp:77] Creating layer conv7_1
I0217 21:26:56.582178 15139 net.cpp:100] Creating Layer conv7_1
I0217 21:26:56.582182 15139 net.cpp:434] conv7_1 <- conv6_2_conv6_2_relu_0_split_0
I0217 21:26:56.582190 15139 net.cpp:408] conv7_1 -> conv7_1
I0217 21:26:56.584410 15139 net.cpp:150] Setting up conv7_1
I0217 21:26:56.584434 15139 net.cpp:157] Top shape: 1 128 10 10 (12800)
I0217 21:26:56.584439 15139 net.cpp:165] Memory required for data: 237860544
I0217 21:26:56.584445 15139 layer_factory.hpp:77] Creating layer conv7_1_relu
I0217 21:26:56.584453 15139 net.cpp:100] Creating Layer conv7_1_relu
I0217 21:26:56.584458 15139 net.cpp:434] conv7_1_relu <- conv7_1
I0217 21:26:56.584465 15139 net.cpp:395] conv7_1_relu -> conv7_1 (in-place)
I0217 21:26:56.584813 15139 net.cpp:150] Setting up conv7_1_relu
I0217 21:26:56.584827 15139 net.cpp:157] Top shape: 1 128 10 10 (12800)
I0217 21:26:56.584831 15139 net.cpp:165] Memory required for data: 237911744
I0217 21:26:56.584836 15139 layer_factory.hpp:77] Creating layer conv7_2
I0217 21:26:56.584848 15139 net.cpp:100] Creating Layer conv7_2
I0217 21:26:56.584852 15139 net.cpp:434] conv7_2 <- conv7_1
I0217 21:26:56.584861 15139 net.cpp:408] conv7_2 -> conv7_2
I0217 21:26:56.588632 15139 net.cpp:150] Setting up conv7_2
I0217 21:26:56.588649 15139 net.cpp:157] Top shape: 1 256 5 5 (6400)
I0217 21:26:56.588654 15139 net.cpp:165] Memory required for data: 237937344
I0217 21:26:56.588660 15139 layer_factory.hpp:77] Creating layer conv7_2_relu
I0217 21:26:56.588667 15139 net.cpp:100] Creating Layer conv7_2_relu
I0217 21:26:56.588671 15139 net.cpp:434] conv7_2_relu <- conv7_2
I0217 21:26:56.588678 15139 net.cpp:395] conv7_2_relu -> conv7_2 (in-place)
I0217 21:26:56.589028 15139 net.cpp:150] Setting up conv7_2_relu
I0217 21:26:56.589042 15139 net.cpp:157] Top shape: 1 256 5 5 (6400)
I0217 21:26:56.589046 15139 net.cpp:165] Memory required for data: 237962944
I0217 21:26:56.589051 15139 layer_factory.hpp:77] Creating layer conv7_2_conv7_2_relu_0_split
I0217 21:26:56.589058 15139 net.cpp:100] Creating Layer conv7_2_conv7_2_relu_0_split
I0217 21:26:56.589063 15139 net.cpp:434] conv7_2_conv7_2_relu_0_split <- conv7_2
I0217 21:26:56.589069 15139 net.cpp:408] conv7_2_conv7_2_relu_0_split -> conv7_2_conv7_2_relu_0_split_0
I0217 21:26:56.589077 15139 net.cpp:408] conv7_2_conv7_2_relu_0_split -> conv7_2_conv7_2_relu_0_split_1
I0217 21:26:56.589083 15139 net.cpp:408] conv7_2_conv7_2_relu_0_split -> conv7_2_conv7_2_relu_0_split_2
I0217 21:26:56.589089 15139 net.cpp:408] conv7_2_conv7_2_relu_0_split -> conv7_2_conv7_2_relu_0_split_3
I0217 21:26:56.589186 15139 net.cpp:150] Setting up conv7_2_conv7_2_relu_0_split
I0217 21:26:56.589195 15139 net.cpp:157] Top shape: 1 256 5 5 (6400)
I0217 21:26:56.589215 15139 net.cpp:157] Top shape: 1 256 5 5 (6400)
I0217 21:26:56.589218 15139 net.cpp:157] Top shape: 1 256 5 5 (6400)
I0217 21:26:56.589222 15139 net.cpp:157] Top shape: 1 256 5 5 (6400)
I0217 21:26:56.589226 15139 net.cpp:165] Memory required for data: 238065344
I0217 21:26:56.589229 15139 layer_factory.hpp:77] Creating layer conv8_1
I0217 21:26:56.589241 15139 net.cpp:100] Creating Layer conv8_1
I0217 21:26:56.589244 15139 net.cpp:434] conv8_1 <- conv7_2_conv7_2_relu_0_split_0
I0217 21:26:56.589252 15139 net.cpp:408] conv8_1 -> conv8_1
I0217 21:26:56.590744 15139 net.cpp:150] Setting up conv8_1
I0217 21:26:56.590759 15139 net.cpp:157] Top shape: 1 128 5 5 (3200)
I0217 21:26:56.590764 15139 net.cpp:165] Memory required for data: 238078144
I0217 21:26:56.590770 15139 layer_factory.hpp:77] Creating layer conv8_1_relu
I0217 21:26:56.590780 15139 net.cpp:100] Creating Layer conv8_1_relu
I0217 21:26:56.590783 15139 net.cpp:434] conv8_1_relu <- conv8_1
I0217 21:26:56.590790 15139 net.cpp:395] conv8_1_relu -> conv8_1 (in-place)
I0217 21:26:56.590991 15139 net.cpp:150] Setting up conv8_1_relu
I0217 21:26:56.591001 15139 net.cpp:157] Top shape: 1 128 5 5 (3200)
I0217 21:26:56.591004 15139 net.cpp:165] Memory required for data: 238090944
I0217 21:26:56.591008 15139 layer_factory.hpp:77] Creating layer conv8_2
I0217 21:26:56.591018 15139 net.cpp:100] Creating Layer conv8_2
I0217 21:26:56.591023 15139 net.cpp:434] conv8_2 <- conv8_1
I0217 21:26:56.591030 15139 net.cpp:408] conv8_2 -> conv8_2
I0217 21:26:56.595093 15139 net.cpp:150] Setting up conv8_2
I0217 21:26:56.595111 15139 net.cpp:157] Top shape: 1 256 3 3 (2304)
I0217 21:26:56.595116 15139 net.cpp:165] Memory required for data: 238100160
I0217 21:26:56.595124 15139 layer_factory.hpp:77] Creating layer conv8_2_relu
I0217 21:26:56.595130 15139 net.cpp:100] Creating Layer conv8_2_relu
I0217 21:26:56.595135 15139 net.cpp:434] conv8_2_relu <- conv8_2
I0217 21:26:56.595142 15139 net.cpp:395] conv8_2_relu -> conv8_2 (in-place)
I0217 21:26:56.595502 15139 net.cpp:150] Setting up conv8_2_relu
I0217 21:26:56.595516 15139 net.cpp:157] Top shape: 1 256 3 3 (2304)
I0217 21:26:56.595520 15139 net.cpp:165] Memory required for data: 238109376
I0217 21:26:56.595525 15139 layer_factory.hpp:77] Creating layer conv8_2_conv8_2_relu_0_split
I0217 21:26:56.595531 15139 net.cpp:100] Creating Layer conv8_2_conv8_2_relu_0_split
I0217 21:26:56.595535 15139 net.cpp:434] conv8_2_conv8_2_relu_0_split <- conv8_2
I0217 21:26:56.595543 15139 net.cpp:408] conv8_2_conv8_2_relu_0_split -> conv8_2_conv8_2_relu_0_split_0
I0217 21:26:56.595551 15139 net.cpp:408] conv8_2_conv8_2_relu_0_split -> conv8_2_conv8_2_relu_0_split_1
I0217 21:26:56.595557 15139 net.cpp:408] conv8_2_conv8_2_relu_0_split -> conv8_2_conv8_2_relu_0_split_2
I0217 21:26:56.595563 15139 net.cpp:408] conv8_2_conv8_2_relu_0_split -> conv8_2_conv8_2_relu_0_split_3
I0217 21:26:56.595664 15139 net.cpp:150] Setting up conv8_2_conv8_2_relu_0_split
I0217 21:26:56.595672 15139 net.cpp:157] Top shape: 1 256 3 3 (2304)
I0217 21:26:56.595677 15139 net.cpp:157] Top shape: 1 256 3 3 (2304)
I0217 21:26:56.595681 15139 net.cpp:157] Top shape: 1 256 3 3 (2304)
I0217 21:26:56.595685 15139 net.cpp:157] Top shape: 1 256 3 3 (2304)
I0217 21:26:56.595688 15139 net.cpp:165] Memory required for data: 238146240
I0217 21:26:56.595692 15139 layer_factory.hpp:77] Creating layer conv9_1
I0217 21:26:56.595705 15139 net.cpp:100] Creating Layer conv9_1
I0217 21:26:56.595708 15139 net.cpp:434] conv9_1 <- conv8_2_conv8_2_relu_0_split_0
I0217 21:26:56.595715 15139 net.cpp:408] conv9_1 -> conv9_1
I0217 21:26:56.597074 15139 net.cpp:150] Setting up conv9_1
I0217 21:26:56.597090 15139 net.cpp:157] Top shape: 1 128 3 3 (1152)
I0217 21:26:56.597093 15139 net.cpp:165] Memory required for data: 238150848
I0217 21:26:56.597100 15139 layer_factory.hpp:77] Creating layer conv9_1_relu
I0217 21:26:56.597107 15139 net.cpp:100] Creating Layer conv9_1_relu
I0217 21:26:56.597112 15139 net.cpp:434] conv9_1_relu <- conv9_1
I0217 21:26:56.597118 15139 net.cpp:395] conv9_1_relu -> conv9_1 (in-place)
I0217 21:26:56.597478 15139 net.cpp:150] Setting up conv9_1_relu
I0217 21:26:56.597492 15139 net.cpp:157] Top shape: 1 128 3 3 (1152)
I0217 21:26:56.597496 15139 net.cpp:165] Memory required for data: 238155456
I0217 21:26:56.597501 15139 layer_factory.hpp:77] Creating layer conv9_2
I0217 21:26:56.597512 15139 net.cpp:100] Creating Layer conv9_2
I0217 21:26:56.597515 15139 net.cpp:434] conv9_2 <- conv9_1
I0217 21:26:56.597527 15139 net.cpp:408] conv9_2 -> conv9_2
I0217 21:26:56.601428 15139 net.cpp:150] Setting up conv9_2
I0217 21:26:56.601444 15139 net.cpp:157] Top shape: 1 256 1 1 (256)
I0217 21:26:56.601449 15139 net.cpp:165] Memory required for data: 238156480
I0217 21:26:56.601455 15139 layer_factory.hpp:77] Creating layer conv9_2_relu
I0217 21:26:56.601464 15139 net.cpp:100] Creating Layer conv9_2_relu
I0217 21:26:56.601469 15139 net.cpp:434] conv9_2_relu <- conv9_2
I0217 21:26:56.601475 15139 net.cpp:395] conv9_2_relu -> conv9_2 (in-place)
I0217 21:26:56.601673 15139 net.cpp:150] Setting up conv9_2_relu
I0217 21:26:56.601685 15139 net.cpp:157] Top shape: 1 256 1 1 (256)
I0217 21:26:56.601688 15139 net.cpp:165] Memory required for data: 238157504
I0217 21:26:56.601691 15139 layer_factory.hpp:77] Creating layer conv9_2_conv9_2_relu_0_split
I0217 21:26:56.601698 15139 net.cpp:100] Creating Layer conv9_2_conv9_2_relu_0_split
I0217 21:26:56.601702 15139 net.cpp:434] conv9_2_conv9_2_relu_0_split <- conv9_2
I0217 21:26:56.601708 15139 net.cpp:408] conv9_2_conv9_2_relu_0_split -> conv9_2_conv9_2_relu_0_split_0
I0217 21:26:56.601716 15139 net.cpp:408] conv9_2_conv9_2_relu_0_split -> conv9_2_conv9_2_relu_0_split_1
I0217 21:26:56.601722 15139 net.cpp:408] conv9_2_conv9_2_relu_0_split -> conv9_2_conv9_2_relu_0_split_2
I0217 21:26:56.601801 15139 net.cpp:150] Setting up conv9_2_conv9_2_relu_0_split
I0217 21:26:56.601810 15139 net.cpp:157] Top shape: 1 256 1 1 (256)
I0217 21:26:56.601815 15139 net.cpp:157] Top shape: 1 256 1 1 (256)
I0217 21:26:56.601819 15139 net.cpp:157] Top shape: 1 256 1 1 (256)
I0217 21:26:56.601822 15139 net.cpp:165] Memory required for data: 238160576
I0217 21:26:56.601826 15139 layer_factory.hpp:77] Creating layer conv4_3_norm
I0217 21:26:56.601833 15139 net.cpp:100] Creating Layer conv4_3_norm
I0217 21:26:56.601838 15139 net.cpp:434] conv4_3_norm <- conv4_3_relu4_3_0_split_1
I0217 21:26:56.601845 15139 net.cpp:408] conv4_3_norm -> conv4_3_norm
I0217 21:26:56.602073 15139 net.cpp:150] Setting up conv4_3_norm
I0217 21:26:56.602087 15139 net.cpp:157] Top shape: 1 512 38 38 (739328)
I0217 21:26:56.602090 15139 net.cpp:165] Memory required for data: 241117888
I0217 21:26:56.602097 15139 layer_factory.hpp:77] Creating layer conv4_3_norm_conv4_3_norm_0_split
I0217 21:26:56.602102 15139 net.cpp:100] Creating Layer conv4_3_norm_conv4_3_norm_0_split
I0217 21:26:56.602105 15139 net.cpp:434] conv4_3_norm_conv4_3_norm_0_split <- conv4_3_norm
I0217 21:26:56.602113 15139 net.cpp:408] conv4_3_norm_conv4_3_norm_0_split -> conv4_3_norm_conv4_3_norm_0_split_0
I0217 21:26:56.602119 15139 net.cpp:408] conv4_3_norm_conv4_3_norm_0_split -> conv4_3_norm_conv4_3_norm_0_split_1
I0217 21:26:56.602125 15139 net.cpp:408] conv4_3_norm_conv4_3_norm_0_split -> conv4_3_norm_conv4_3_norm_0_split_2
I0217 21:26:56.602191 15139 net.cpp:150] Setting up conv4_3_norm_conv4_3_norm_0_split
I0217 21:26:56.602200 15139 net.cpp:157] Top shape: 1 512 38 38 (739328)
I0217 21:26:56.602205 15139 net.cpp:157] Top shape: 1 512 38 38 (739328)
I0217 21:26:56.602208 15139 net.cpp:157] Top shape: 1 512 38 38 (739328)
I0217 21:26:56.602211 15139 net.cpp:165] Memory required for data: 249989824
I0217 21:26:56.602215 15139 layer_factory.hpp:77] Creating layer conv4_3_norm_mbox_loc
I0217 21:26:56.602226 15139 net.cpp:100] Creating Layer conv4_3_norm_mbox_loc
I0217 21:26:56.602229 15139 net.cpp:434] conv4_3_norm_mbox_loc <- conv4_3_norm_conv4_3_norm_0_split_0
I0217 21:26:56.602236 15139 net.cpp:408] conv4_3_norm_mbox_loc -> conv4_3_norm_mbox_loc
I0217 21:26:56.604073 15139 net.cpp:150] Setting up conv4_3_norm_mbox_loc
I0217 21:26:56.604099 15139 net.cpp:157] Top shape: 1 16 38 38 (23104)
I0217 21:26:56.604104 15139 net.cpp:165] Memory required for data: 250082240
I0217 21:26:56.604110 15139 layer_factory.hpp:77] Creating layer conv4_3_norm_mbox_loc_perm
I0217 21:26:56.604118 15139 net.cpp:100] Creating Layer conv4_3_norm_mbox_loc_perm
I0217 21:26:56.604123 15139 net.cpp:434] conv4_3_norm_mbox_loc_perm <- conv4_3_norm_mbox_loc
I0217 21:26:56.604131 15139 net.cpp:408] conv4_3_norm_mbox_loc_perm -> conv4_3_norm_mbox_loc_perm
I0217 21:26:56.604286 15139 net.cpp:150] Setting up conv4_3_norm_mbox_loc_perm
I0217 21:26:56.604295 15139 net.cpp:157] Top shape: 1 38 38 16 (23104)
I0217 21:26:56.604300 15139 net.cpp:165] Memory required for data: 250174656
I0217 21:26:56.604302 15139 layer_factory.hpp:77] Creating layer conv4_3_norm_mbox_loc_flat
I0217 21:26:56.604310 15139 net.cpp:100] Creating Layer conv4_3_norm_mbox_loc_flat
I0217 21:26:56.604315 15139 net.cpp:434] conv4_3_norm_mbox_loc_flat <- conv4_3_norm_mbox_loc_perm
I0217 21:26:56.604321 15139 net.cpp:408] conv4_3_norm_mbox_loc_flat -> conv4_3_norm_mbox_loc_flat
I0217 21:26:56.604364 15139 net.cpp:150] Setting up conv4_3_norm_mbox_loc_flat
I0217 21:26:56.604373 15139 net.cpp:157] Top shape: 1 23104 (23104)
I0217 21:26:56.604377 15139 net.cpp:165] Memory required for data: 250267072
I0217 21:26:56.604382 15139 layer_factory.hpp:77] Creating layer conv4_3_norm_mbox_conf
I0217 21:26:56.604399 15139 net.cpp:100] Creating Layer conv4_3_norm_mbox_conf
I0217 21:26:56.604408 15139 net.cpp:434] conv4_3_norm_mbox_conf <- conv4_3_norm_conv4_3_norm_0_split_1
I0217 21:26:56.604414 15139 net.cpp:408] conv4_3_norm_mbox_conf -> conv4_3_norm_mbox_conf
I0217 21:26:56.609215 15139 net.cpp:150] Setting up conv4_3_norm_mbox_conf
I0217 21:26:56.609232 15139 net.cpp:157] Top shape: 1 88 38 38 (127072)
I0217 21:26:56.609237 15139 net.cpp:165] Memory required for data: 250775360
I0217 21:26:56.609244 15139 layer_factory.hpp:77] Creating layer conv4_3_norm_mbox_conf_perm
I0217 21:26:56.609252 15139 net.cpp:100] Creating Layer conv4_3_norm_mbox_conf_perm
I0217 21:26:56.609256 15139 net.cpp:434] conv4_3_norm_mbox_conf_perm <- conv4_3_norm_mbox_conf
I0217 21:26:56.609264 15139 net.cpp:408] conv4_3_norm_mbox_conf_perm -> conv4_3_norm_mbox_conf_perm
I0217 21:26:56.609418 15139 net.cpp:150] Setting up conv4_3_norm_mbox_conf_perm
I0217 21:26:56.609428 15139 net.cpp:157] Top shape: 1 38 38 88 (127072)
I0217 21:26:56.609431 15139 net.cpp:165] Memory required for data: 251283648
I0217 21:26:56.609436 15139 layer_factory.hpp:77] Creating layer conv4_3_norm_mbox_conf_flat
I0217 21:26:56.609443 15139 net.cpp:100] Creating Layer conv4_3_norm_mbox_conf_flat
I0217 21:26:56.609447 15139 net.cpp:434] conv4_3_norm_mbox_conf_flat <- conv4_3_norm_mbox_conf_perm
I0217 21:26:56.609453 15139 net.cpp:408] conv4_3_norm_mbox_conf_flat -> conv4_3_norm_mbox_conf_flat
I0217 21:26:56.609488 15139 net.cpp:150] Setting up conv4_3_norm_mbox_conf_flat
I0217 21:26:56.609496 15139 net.cpp:157] Top shape: 1 127072 (127072)
I0217 21:26:56.609500 15139 net.cpp:165] Memory required for data: 251791936
I0217 21:26:56.609503 15139 layer_factory.hpp:77] Creating layer conv4_3_norm_mbox_priorbox
I0217 21:26:56.609513 15139 net.cpp:100] Creating Layer conv4_3_norm_mbox_priorbox
I0217 21:26:56.609516 15139 net.cpp:434] conv4_3_norm_mbox_priorbox <- conv4_3_norm_conv4_3_norm_0_split_2
I0217 21:26:56.609521 15139 net.cpp:434] conv4_3_norm_mbox_priorbox <- data_data_0_split_1
I0217 21:26:56.609527 15139 net.cpp:408] conv4_3_norm_mbox_priorbox -> conv4_3_norm_mbox_priorbox
I0217 21:26:56.609566 15139 net.cpp:150] Setting up conv4_3_norm_mbox_priorbox
I0217 21:26:56.609575 15139 net.cpp:157] Top shape: 1 2 23104 (46208)
I0217 21:26:56.609577 15139 net.cpp:165] Memory required for data: 251976768
I0217 21:26:56.609581 15139 layer_factory.hpp:77] Creating layer fc7_mbox_loc
I0217 21:26:56.609591 15139 net.cpp:100] Creating Layer fc7_mbox_loc
I0217 21:26:56.609596 15139 net.cpp:434] fc7_mbox_loc <- fc7_relu7_0_split_1
I0217 21:26:56.609604 15139 net.cpp:408] fc7_mbox_loc -> fc7_mbox_loc
I0217 21:26:56.613095 15139 net.cpp:150] Setting up fc7_mbox_loc
I0217 21:26:56.613113 15139 net.cpp:157] Top shape: 1 24 19 19 (8664)
I0217 21:26:56.613118 15139 net.cpp:165] Memory required for data: 252011424
I0217 21:26:56.613126 15139 layer_factory.hpp:77] Creating layer fc7_mbox_loc_perm
I0217 21:26:56.613132 15139 net.cpp:100] Creating Layer fc7_mbox_loc_perm
I0217 21:26:56.613137 15139 net.cpp:434] fc7_mbox_loc_perm <- fc7_mbox_loc
I0217 21:26:56.613145 15139 net.cpp:408] fc7_mbox_loc_perm -> fc7_mbox_loc_perm
I0217 21:26:56.613302 15139 net.cpp:150] Setting up fc7_mbox_loc_perm
I0217 21:26:56.613312 15139 net.cpp:157] Top shape: 1 19 19 24 (8664)
I0217 21:26:56.613315 15139 net.cpp:165] Memory required for data: 252046080
I0217 21:26:56.613319 15139 layer_factory.hpp:77] Creating layer fc7_mbox_loc_flat
I0217 21:26:56.613325 15139 net.cpp:100] Creating Layer fc7_mbox_loc_flat
I0217 21:26:56.613329 15139 net.cpp:434] fc7_mbox_loc_flat <- fc7_mbox_loc_perm
I0217 21:26:56.613337 15139 net.cpp:408] fc7_mbox_loc_flat -> fc7_mbox_loc_flat
I0217 21:26:56.613370 15139 net.cpp:150] Setting up fc7_mbox_loc_flat
I0217 21:26:56.613379 15139 net.cpp:157] Top shape: 1 8664 (8664)
I0217 21:26:56.613382 15139 net.cpp:165] Memory required for data: 252080736
I0217 21:26:56.613385 15139 layer_factory.hpp:77] Creating layer fc7_mbox_conf
I0217 21:26:56.613397 15139 net.cpp:100] Creating Layer fc7_mbox_conf
I0217 21:26:56.613402 15139 net.cpp:434] fc7_mbox_conf <- fc7_relu7_0_split_2
I0217 21:26:56.613409 15139 net.cpp:408] fc7_mbox_conf -> fc7_mbox_conf
I0217 21:26:56.625061 15139 net.cpp:150] Setting up fc7_mbox_conf
I0217 21:26:56.625093 15139 net.cpp:157] Top shape: 1 132 19 19 (47652)
I0217 21:26:56.625097 15139 net.cpp:165] Memory required for data: 252271344
I0217 21:26:56.625108 15139 layer_factory.hpp:77] Creating layer fc7_mbox_conf_perm
I0217 21:26:56.625116 15139 net.cpp:100] Creating Layer fc7_mbox_conf_perm
I0217 21:26:56.625123 15139 net.cpp:434] fc7_mbox_conf_perm <- fc7_mbox_conf
I0217 21:26:56.625133 15139 net.cpp:408] fc7_mbox_conf_perm -> fc7_mbox_conf_perm
I0217 21:26:56.625293 15139 net.cpp:150] Setting up fc7_mbox_conf_perm
I0217 21:26:56.625301 15139 net.cpp:157] Top shape: 1 19 19 132 (47652)
I0217 21:26:56.625305 15139 net.cpp:165] Memory required for data: 252461952
I0217 21:26:56.625309 15139 layer_factory.hpp:77] Creating layer fc7_mbox_conf_flat
I0217 21:26:56.625318 15139 net.cpp:100] Creating Layer fc7_mbox_conf_flat
I0217 21:26:56.625322 15139 net.cpp:434] fc7_mbox_conf_flat <- fc7_mbox_conf_perm
I0217 21:26:56.625327 15139 net.cpp:408] fc7_mbox_conf_flat -> fc7_mbox_conf_flat
I0217 21:26:56.625365 15139 net.cpp:150] Setting up fc7_mbox_conf_flat
I0217 21:26:56.625372 15139 net.cpp:157] Top shape: 1 47652 (47652)
I0217 21:26:56.625376 15139 net.cpp:165] Memory required for data: 252652560
I0217 21:26:56.625380 15139 layer_factory.hpp:77] Creating layer fc7_mbox_priorbox
I0217 21:26:56.625388 15139 net.cpp:100] Creating Layer fc7_mbox_priorbox
I0217 21:26:56.625392 15139 net.cpp:434] fc7_mbox_priorbox <- fc7_relu7_0_split_3
I0217 21:26:56.625398 15139 net.cpp:434] fc7_mbox_priorbox <- data_data_0_split_2
I0217 21:26:56.625404 15139 net.cpp:408] fc7_mbox_priorbox -> fc7_mbox_priorbox
I0217 21:26:56.625452 15139 net.cpp:150] Setting up fc7_mbox_priorbox
I0217 21:26:56.625459 15139 net.cpp:157] Top shape: 1 2 8664 (17328)
I0217 21:26:56.625463 15139 net.cpp:165] Memory required for data: 252721872
I0217 21:26:56.625466 15139 layer_factory.hpp:77] Creating layer conv6_2_mbox_loc
I0217 21:26:56.625478 15139 net.cpp:100] Creating Layer conv6_2_mbox_loc
I0217 21:26:56.625483 15139 net.cpp:434] conv6_2_mbox_loc <- conv6_2_conv6_2_relu_0_split_1
I0217 21:26:56.625491 15139 net.cpp:408] conv6_2_mbox_loc -> conv6_2_mbox_loc
I0217 21:26:56.628068 15139 net.cpp:150] Setting up conv6_2_mbox_loc
I0217 21:26:56.628084 15139 net.cpp:157] Top shape: 1 24 10 10 (2400)
I0217 21:26:56.628089 15139 net.cpp:165] Memory required for data: 252731472
I0217 21:26:56.628096 15139 layer_factory.hpp:77] Creating layer conv6_2_mbox_loc_perm
I0217 21:26:56.628124 15139 net.cpp:100] Creating Layer conv6_2_mbox_loc_perm
I0217 21:26:56.628132 15139 net.cpp:434] conv6_2_mbox_loc_perm <- conv6_2_mbox_loc
I0217 21:26:56.628140 15139 net.cpp:408] conv6_2_mbox_loc_perm -> conv6_2_mbox_loc_perm
I0217 21:26:56.628299 15139 net.cpp:150] Setting up conv6_2_mbox_loc_perm
I0217 21:26:56.628309 15139 net.cpp:157] Top shape: 1 10 10 24 (2400)
I0217 21:26:56.628311 15139 net.cpp:165] Memory required for data: 252741072
I0217 21:26:56.628315 15139 layer_factory.hpp:77] Creating layer conv6_2_mbox_loc_flat
I0217 21:26:56.628324 15139 net.cpp:100] Creating Layer conv6_2_mbox_loc_flat
I0217 21:26:56.628327 15139 net.cpp:434] conv6_2_mbox_loc_flat <- conv6_2_mbox_loc_perm
I0217 21:26:56.628334 15139 net.cpp:408] conv6_2_mbox_loc_flat -> conv6_2_mbox_loc_flat
I0217 21:26:56.628368 15139 net.cpp:150] Setting up conv6_2_mbox_loc_flat
I0217 21:26:56.628376 15139 net.cpp:157] Top shape: 1 2400 (2400)
I0217 21:26:56.628379 15139 net.cpp:165] Memory required for data: 252750672
I0217 21:26:56.628383 15139 layer_factory.hpp:77] Creating layer conv6_2_mbox_conf
I0217 21:26:56.628396 15139 net.cpp:100] Creating Layer conv6_2_mbox_conf
I0217 21:26:56.628401 15139 net.cpp:434] conv6_2_mbox_conf <- conv6_2_conv6_2_relu_0_split_2
I0217 21:26:56.628408 15139 net.cpp:408] conv6_2_mbox_conf -> conv6_2_mbox_conf
I0217 21:26:56.634940 15139 net.cpp:150] Setting up conv6_2_mbox_conf
I0217 21:26:56.634958 15139 net.cpp:157] Top shape: 1 132 10 10 (13200)
I0217 21:26:56.634963 15139 net.cpp:165] Memory required for data: 252803472
I0217 21:26:56.634970 15139 layer_factory.hpp:77] Creating layer conv6_2_mbox_conf_perm
I0217 21:26:56.634977 15139 net.cpp:100] Creating Layer conv6_2_mbox_conf_perm
I0217 21:26:56.634982 15139 net.cpp:434] conv6_2_mbox_conf_perm <- conv6_2_mbox_conf
I0217 21:26:56.634989 15139 net.cpp:408] conv6_2_mbox_conf_perm -> conv6_2_mbox_conf_perm
I0217 21:26:56.635146 15139 net.cpp:150] Setting up conv6_2_mbox_conf_perm
I0217 21:26:56.635156 15139 net.cpp:157] Top shape: 1 10 10 132 (13200)
I0217 21:26:56.635159 15139 net.cpp:165] Memory required for data: 252856272
I0217 21:26:56.635164 15139 layer_factory.hpp:77] Creating layer conv6_2_mbox_conf_flat
I0217 21:26:56.635171 15139 net.cpp:100] Creating Layer conv6_2_mbox_conf_flat
I0217 21:26:56.635175 15139 net.cpp:434] conv6_2_mbox_conf_flat <- conv6_2_mbox_conf_perm
I0217 21:26:56.635180 15139 net.cpp:408] conv6_2_mbox_conf_flat -> conv6_2_mbox_conf_flat
I0217 21:26:56.635217 15139 net.cpp:150] Setting up conv6_2_mbox_conf_flat
I0217 21:26:56.635226 15139 net.cpp:157] Top shape: 1 13200 (13200)
I0217 21:26:56.635228 15139 net.cpp:165] Memory required for data: 252909072
I0217 21:26:56.635232 15139 layer_factory.hpp:77] Creating layer conv6_2_mbox_priorbox
I0217 21:26:56.635241 15139 net.cpp:100] Creating Layer conv6_2_mbox_priorbox
I0217 21:26:56.635247 15139 net.cpp:434] conv6_2_mbox_priorbox <- conv6_2_conv6_2_relu_0_split_3
I0217 21:26:56.635253 15139 net.cpp:434] conv6_2_mbox_priorbox <- data_data_0_split_3
I0217 21:26:56.635259 15139 net.cpp:408] conv6_2_mbox_priorbox -> conv6_2_mbox_priorbox
I0217 21:26:56.635299 15139 net.cpp:150] Setting up conv6_2_mbox_priorbox
I0217 21:26:56.635308 15139 net.cpp:157] Top shape: 1 2 2400 (4800)
I0217 21:26:56.635311 15139 net.cpp:165] Memory required for data: 252928272
I0217 21:26:56.635314 15139 layer_factory.hpp:77] Creating layer conv7_2_mbox_loc
I0217 21:26:56.635325 15139 net.cpp:100] Creating Layer conv7_2_mbox_loc
I0217 21:26:56.635330 15139 net.cpp:434] conv7_2_mbox_loc <- conv7_2_conv7_2_relu_0_split_1
I0217 21:26:56.635337 15139 net.cpp:408] conv7_2_mbox_loc -> conv7_2_mbox_loc
I0217 21:26:56.637188 15139 net.cpp:150] Setting up conv7_2_mbox_loc
I0217 21:26:56.637204 15139 net.cpp:157] Top shape: 1 24 5 5 (600)
I0217 21:26:56.637208 15139 net.cpp:165] Memory required for data: 252930672
I0217 21:26:56.637215 15139 layer_factory.hpp:77] Creating layer conv7_2_mbox_loc_perm
I0217 21:26:56.637224 15139 net.cpp:100] Creating Layer conv7_2_mbox_loc_perm
I0217 21:26:56.637241 15139 net.cpp:434] conv7_2_mbox_loc_perm <- conv7_2_mbox_loc
I0217 21:26:56.637249 15139 net.cpp:408] conv7_2_mbox_loc_perm -> conv7_2_mbox_loc_perm
I0217 21:26:56.637410 15139 net.cpp:150] Setting up conv7_2_mbox_loc_perm
I0217 21:26:56.637419 15139 net.cpp:157] Top shape: 1 5 5 24 (600)
I0217 21:26:56.637423 15139 net.cpp:165] Memory required for data: 252933072
I0217 21:26:56.637426 15139 layer_factory.hpp:77] Creating layer conv7_2_mbox_loc_flat
I0217 21:26:56.637434 15139 net.cpp:100] Creating Layer conv7_2_mbox_loc_flat
I0217 21:26:56.637437 15139 net.cpp:434] conv7_2_mbox_loc_flat <- conv7_2_mbox_loc_perm
I0217 21:26:56.637444 15139 net.cpp:408] conv7_2_mbox_loc_flat -> conv7_2_mbox_loc_flat
I0217 21:26:56.637478 15139 net.cpp:150] Setting up conv7_2_mbox_loc_flat
I0217 21:26:56.637486 15139 net.cpp:157] Top shape: 1 600 (600)
I0217 21:26:56.637490 15139 net.cpp:165] Memory required for data: 252935472
I0217 21:26:56.637493 15139 layer_factory.hpp:77] Creating layer conv7_2_mbox_conf
I0217 21:26:56.637508 15139 net.cpp:100] Creating Layer conv7_2_mbox_conf
I0217 21:26:56.637514 15139 net.cpp:434] conv7_2_mbox_conf <- conv7_2_conv7_2_relu_0_split_2
I0217 21:26:56.637521 15139 net.cpp:408] conv7_2_mbox_conf -> conv7_2_mbox_conf
I0217 21:26:56.641532 15139 net.cpp:150] Setting up conv7_2_mbox_conf
I0217 21:26:56.641549 15139 net.cpp:157] Top shape: 1 132 5 5 (3300)
I0217 21:26:56.641553 15139 net.cpp:165] Memory required for data: 252948672
I0217 21:26:56.641561 15139 layer_factory.hpp:77] Creating layer conv7_2_mbox_conf_perm
I0217 21:26:56.641569 15139 net.cpp:100] Creating Layer conv7_2_mbox_conf_perm
I0217 21:26:56.641577 15139 net.cpp:434] conv7_2_mbox_conf_perm <- conv7_2_mbox_conf
I0217 21:26:56.641585 15139 net.cpp:408] conv7_2_mbox_conf_perm -> conv7_2_mbox_conf_perm
I0217 21:26:56.641741 15139 net.cpp:150] Setting up conv7_2_mbox_conf_perm
I0217 21:26:56.641751 15139 net.cpp:157] Top shape: 1 5 5 132 (3300)
I0217 21:26:56.641753 15139 net.cpp:165] Memory required for data: 252961872
I0217 21:26:56.641757 15139 layer_factory.hpp:77] Creating layer conv7_2_mbox_conf_flat
I0217 21:26:56.641764 15139 net.cpp:100] Creating Layer conv7_2_mbox_conf_flat
I0217 21:26:56.641769 15139 net.cpp:434] conv7_2_mbox_conf_flat <- conv7_2_mbox_conf_perm
I0217 21:26:56.641774 15139 net.cpp:408] conv7_2_mbox_conf_flat -> conv7_2_mbox_conf_flat
I0217 21:26:56.641811 15139 net.cpp:150] Setting up conv7_2_mbox_conf_flat
I0217 21:26:56.641819 15139 net.cpp:157] Top shape: 1 3300 (3300)
I0217 21:26:56.641822 15139 net.cpp:165] Memory required for data: 252975072
I0217 21:26:56.641826 15139 layer_factory.hpp:77] Creating layer conv7_2_mbox_priorbox
I0217 21:26:56.641834 15139 net.cpp:100] Creating Layer conv7_2_mbox_priorbox
I0217 21:26:56.641839 15139 net.cpp:434] conv7_2_mbox_priorbox <- conv7_2_conv7_2_relu_0_split_3
I0217 21:26:56.641844 15139 net.cpp:434] conv7_2_mbox_priorbox <- data_data_0_split_4
I0217 21:26:56.641849 15139 net.cpp:408] conv7_2_mbox_priorbox -> conv7_2_mbox_priorbox
I0217 21:26:56.641888 15139 net.cpp:150] Setting up conv7_2_mbox_priorbox
I0217 21:26:56.641896 15139 net.cpp:157] Top shape: 1 2 600 (1200)
I0217 21:26:56.641899 15139 net.cpp:165] Memory required for data: 252979872
I0217 21:26:56.641903 15139 layer_factory.hpp:77] Creating layer conv8_2_mbox_loc
I0217 21:26:56.641916 15139 net.cpp:100] Creating Layer conv8_2_mbox_loc
I0217 21:26:56.641921 15139 net.cpp:434] conv8_2_mbox_loc <- conv8_2_conv8_2_relu_0_split_1
I0217 21:26:56.641930 15139 net.cpp:408] conv8_2_mbox_loc -> conv8_2_mbox_loc
I0217 21:26:56.643379 15139 net.cpp:150] Setting up conv8_2_mbox_loc
I0217 21:26:56.643395 15139 net.cpp:157] Top shape: 1 16 3 3 (144)
I0217 21:26:56.643399 15139 net.cpp:165] Memory required for data: 252980448
I0217 21:26:56.643419 15139 layer_factory.hpp:77] Creating layer conv8_2_mbox_loc_perm
I0217 21:26:56.643429 15139 net.cpp:100] Creating Layer conv8_2_mbox_loc_perm
I0217 21:26:56.643435 15139 net.cpp:434] conv8_2_mbox_loc_perm <- conv8_2_mbox_loc
I0217 21:26:56.643442 15139 net.cpp:408] conv8_2_mbox_loc_perm -> conv8_2_mbox_loc_perm
I0217 21:26:56.643618 15139 net.cpp:150] Setting up conv8_2_mbox_loc_perm
I0217 21:26:56.643628 15139 net.cpp:157] Top shape: 1 3 3 16 (144)
I0217 21:26:56.643632 15139 net.cpp:165] Memory required for data: 252981024
I0217 21:26:56.643636 15139 layer_factory.hpp:77] Creating layer conv8_2_mbox_loc_flat
I0217 21:26:56.643645 15139 net.cpp:100] Creating Layer conv8_2_mbox_loc_flat
I0217 21:26:56.643649 15139 net.cpp:434] conv8_2_mbox_loc_flat <- conv8_2_mbox_loc_perm
I0217 21:26:56.643654 15139 net.cpp:408] conv8_2_mbox_loc_flat -> conv8_2_mbox_loc_flat
I0217 21:26:56.643692 15139 net.cpp:150] Setting up conv8_2_mbox_loc_flat
I0217 21:26:56.643699 15139 net.cpp:157] Top shape: 1 144 (144)
I0217 21:26:56.643703 15139 net.cpp:165] Memory required for data: 252981600
I0217 21:26:56.643707 15139 layer_factory.hpp:77] Creating layer conv8_2_mbox_conf
I0217 21:26:56.643717 15139 net.cpp:100] Creating Layer conv8_2_mbox_conf
I0217 21:26:56.643723 15139 net.cpp:434] conv8_2_mbox_conf <- conv8_2_conv8_2_relu_0_split_2
I0217 21:26:56.643730 15139 net.cpp:408] conv8_2_mbox_conf -> conv8_2_mbox_conf
I0217 21:26:56.646960 15139 net.cpp:150] Setting up conv8_2_mbox_conf
I0217 21:26:56.646976 15139 net.cpp:157] Top shape: 1 88 3 3 (792)
I0217 21:26:56.646981 15139 net.cpp:165] Memory required for data: 252984768
I0217 21:26:56.646987 15139 layer_factory.hpp:77] Creating layer conv8_2_mbox_conf_perm
I0217 21:26:56.646996 15139 net.cpp:100] Creating Layer conv8_2_mbox_conf_perm
I0217 21:26:56.647001 15139 net.cpp:434] conv8_2_mbox_conf_perm <- conv8_2_mbox_conf
I0217 21:26:56.647008 15139 net.cpp:408] conv8_2_mbox_conf_perm -> conv8_2_mbox_conf_perm
I0217 21:26:56.647168 15139 net.cpp:150] Setting up conv8_2_mbox_conf_perm
I0217 21:26:56.647177 15139 net.cpp:157] Top shape: 1 3 3 88 (792)
I0217 21:26:56.647181 15139 net.cpp:165] Memory required for data: 252987936
I0217 21:26:56.647184 15139 layer_factory.hpp:77] Creating layer conv8_2_mbox_conf_flat
I0217 21:26:56.647191 15139 net.cpp:100] Creating Layer conv8_2_mbox_conf_flat
I0217 21:26:56.647195 15139 net.cpp:434] conv8_2_mbox_conf_flat <- conv8_2_mbox_conf_perm
I0217 21:26:56.647200 15139 net.cpp:408] conv8_2_mbox_conf_flat -> conv8_2_mbox_conf_flat
I0217 21:26:56.647238 15139 net.cpp:150] Setting up conv8_2_mbox_conf_flat
I0217 21:26:56.647245 15139 net.cpp:157] Top shape: 1 792 (792)
I0217 21:26:56.647250 15139 net.cpp:165] Memory required for data: 252991104
I0217 21:26:56.647254 15139 layer_factory.hpp:77] Creating layer conv8_2_mbox_priorbox
I0217 21:26:56.647260 15139 net.cpp:100] Creating Layer conv8_2_mbox_priorbox
I0217 21:26:56.647264 15139 net.cpp:434] conv8_2_mbox_priorbox <- conv8_2_conv8_2_relu_0_split_3
I0217 21:26:56.647269 15139 net.cpp:434] conv8_2_mbox_priorbox <- data_data_0_split_5
I0217 21:26:56.647275 15139 net.cpp:408] conv8_2_mbox_priorbox -> conv8_2_mbox_priorbox
I0217 21:26:56.647315 15139 net.cpp:150] Setting up conv8_2_mbox_priorbox
I0217 21:26:56.647323 15139 net.cpp:157] Top shape: 1 2 144 (288)
I0217 21:26:56.647327 15139 net.cpp:165] Memory required for data: 252992256
I0217 21:26:56.647330 15139 layer_factory.hpp:77] Creating layer conv9_2_mbox_loc
I0217 21:26:56.647344 15139 net.cpp:100] Creating Layer conv9_2_mbox_loc
I0217 21:26:56.647351 15139 net.cpp:434] conv9_2_mbox_loc <- conv9_2_conv9_2_relu_0_split_0
I0217 21:26:56.647358 15139 net.cpp:408] conv9_2_mbox_loc -> conv9_2_mbox_loc
I0217 21:26:56.648947 15139 net.cpp:150] Setting up conv9_2_mbox_loc
I0217 21:26:56.648962 15139 net.cpp:157] Top shape: 1 16 1 1 (16)
I0217 21:26:56.648967 15139 net.cpp:165] Memory required for data: 252992320
I0217 21:26:56.648974 15139 layer_factory.hpp:77] Creating layer conv9_2_mbox_loc_perm
I0217 21:26:56.648983 15139 net.cpp:100] Creating Layer conv9_2_mbox_loc_perm
I0217 21:26:56.648988 15139 net.cpp:434] conv9_2_mbox_loc_perm <- conv9_2_mbox_loc
I0217 21:26:56.648996 15139 net.cpp:408] conv9_2_mbox_loc_perm -> conv9_2_mbox_loc_perm
I0217 21:26:56.649158 15139 net.cpp:150] Setting up conv9_2_mbox_loc_perm
I0217 21:26:56.649178 15139 net.cpp:157] Top shape: 1 1 1 16 (16)
I0217 21:26:56.649181 15139 net.cpp:165] Memory required for data: 252992384
I0217 21:26:56.649185 15139 layer_factory.hpp:77] Creating layer conv9_2_mbox_loc_flat
I0217 21:26:56.649194 15139 net.cpp:100] Creating Layer conv9_2_mbox_loc_flat
I0217 21:26:56.649197 15139 net.cpp:434] conv9_2_mbox_loc_flat <- conv9_2_mbox_loc_perm
I0217 21:26:56.649205 15139 net.cpp:408] conv9_2_mbox_loc_flat -> conv9_2_mbox_loc_flat
I0217 21:26:56.649243 15139 net.cpp:150] Setting up conv9_2_mbox_loc_flat
I0217 21:26:56.649251 15139 net.cpp:157] Top shape: 1 16 (16)
I0217 21:26:56.649255 15139 net.cpp:165] Memory required for data: 252992448
I0217 21:26:56.649258 15139 layer_factory.hpp:77] Creating layer conv9_2_mbox_conf
I0217 21:26:56.649269 15139 net.cpp:100] Creating Layer conv9_2_mbox_conf
I0217 21:26:56.649276 15139 net.cpp:434] conv9_2_mbox_conf <- conv9_2_conv9_2_relu_0_split_1
I0217 21:26:56.649282 15139 net.cpp:408] conv9_2_mbox_conf -> conv9_2_mbox_conf
I0217 21:26:56.652515 15139 net.cpp:150] Setting up conv9_2_mbox_conf
I0217 21:26:56.652531 15139 net.cpp:157] Top shape: 1 88 1 1 (88)
I0217 21:26:56.652535 15139 net.cpp:165] Memory required for data: 252992800
I0217 21:26:56.652542 15139 layer_factory.hpp:77] Creating layer conv9_2_mbox_conf_perm
I0217 21:26:56.652551 15139 net.cpp:100] Creating Layer conv9_2_mbox_conf_perm
I0217 21:26:56.652559 15139 net.cpp:434] conv9_2_mbox_conf_perm <- conv9_2_mbox_conf
I0217 21:26:56.652565 15139 net.cpp:408] conv9_2_mbox_conf_perm -> conv9_2_mbox_conf_perm
I0217 21:26:56.652725 15139 net.cpp:150] Setting up conv9_2_mbox_conf_perm
I0217 21:26:56.652734 15139 net.cpp:157] Top shape: 1 1 1 88 (88)
I0217 21:26:56.652737 15139 net.cpp:165] Memory required for data: 252993152
I0217 21:26:56.652741 15139 layer_factory.hpp:77] Creating layer conv9_2_mbox_conf_flat
I0217 21:26:56.652747 15139 net.cpp:100] Creating Layer conv9_2_mbox_conf_flat
I0217 21:26:56.652752 15139 net.cpp:434] conv9_2_mbox_conf_flat <- conv9_2_mbox_conf_perm
I0217 21:26:56.652758 15139 net.cpp:408] conv9_2_mbox_conf_flat -> conv9_2_mbox_conf_flat
I0217 21:26:56.652792 15139 net.cpp:150] Setting up conv9_2_mbox_conf_flat
I0217 21:26:56.652801 15139 net.cpp:157] Top shape: 1 88 (88)
I0217 21:26:56.652804 15139 net.cpp:165] Memory required for data: 252993504
I0217 21:26:56.652807 15139 layer_factory.hpp:77] Creating layer conv9_2_mbox_priorbox
I0217 21:26:56.652815 15139 net.cpp:100] Creating Layer conv9_2_mbox_priorbox
I0217 21:26:56.652819 15139 net.cpp:434] conv9_2_mbox_priorbox <- conv9_2_conv9_2_relu_0_split_2
I0217 21:26:56.652824 15139 net.cpp:434] conv9_2_mbox_priorbox <- data_data_0_split_6
I0217 21:26:56.652832 15139 net.cpp:408] conv9_2_mbox_priorbox -> conv9_2_mbox_priorbox
I0217 21:26:56.652868 15139 net.cpp:150] Setting up conv9_2_mbox_priorbox
I0217 21:26:56.652875 15139 net.cpp:157] Top shape: 1 2 16 (32)
I0217 21:26:56.652879 15139 net.cpp:165] Memory required for data: 252993632
I0217 21:26:56.652882 15139 layer_factory.hpp:77] Creating layer mbox_loc
I0217 21:26:56.652894 15139 net.cpp:100] Creating Layer mbox_loc
I0217 21:26:56.652901 15139 net.cpp:434] mbox_loc <- conv4_3_norm_mbox_loc_flat
I0217 21:26:56.652907 15139 net.cpp:434] mbox_loc <- fc7_mbox_loc_flat
I0217 21:26:56.652912 15139 net.cpp:434] mbox_loc <- conv6_2_mbox_loc_flat
I0217 21:26:56.652917 15139 net.cpp:434] mbox_loc <- conv7_2_mbox_loc_flat
I0217 21:26:56.652921 15139 net.cpp:434] mbox_loc <- conv8_2_mbox_loc_flat
I0217 21:26:56.652926 15139 net.cpp:434] mbox_loc <- conv9_2_mbox_loc_flat
I0217 21:26:56.652935 15139 net.cpp:408] mbox_loc -> mbox_loc
I0217 21:26:56.652976 15139 net.cpp:150] Setting up mbox_loc
I0217 21:26:56.652984 15139 net.cpp:157] Top shape: 1 34928 (34928)
I0217 21:26:56.652987 15139 net.cpp:165] Memory required for data: 253133344
I0217 21:26:56.652992 15139 layer_factory.hpp:77] Creating layer mbox_conf
I0217 21:26:56.652998 15139 net.cpp:100] Creating Layer mbox_conf
I0217 21:26:56.653003 15139 net.cpp:434] mbox_conf <- conv4_3_norm_mbox_conf_flat
I0217 21:26:56.653019 15139 net.cpp:434] mbox_conf <- fc7_mbox_conf_flat
I0217 21:26:56.653025 15139 net.cpp:434] mbox_conf <- conv6_2_mbox_conf_flat
I0217 21:26:56.653030 15139 net.cpp:434] mbox_conf <- conv7_2_mbox_conf_flat
I0217 21:26:56.653034 15139 net.cpp:434] mbox_conf <- conv8_2_mbox_conf_flat
I0217 21:26:56.653039 15139 net.cpp:434] mbox_conf <- conv9_2_mbox_conf_flat
I0217 21:26:56.653044 15139 net.cpp:408] mbox_conf -> mbox_conf
I0217 21:26:56.653084 15139 net.cpp:150] Setting up mbox_conf
I0217 21:26:56.653091 15139 net.cpp:157] Top shape: 1 192104 (192104)
I0217 21:26:56.653095 15139 net.cpp:165] Memory required for data: 253901760
I0217 21:26:56.653098 15139 layer_factory.hpp:77] Creating layer mbox_priorbox
I0217 21:26:56.653105 15139 net.cpp:100] Creating Layer mbox_priorbox
I0217 21:26:56.653108 15139 net.cpp:434] mbox_priorbox <- conv4_3_norm_mbox_priorbox
I0217 21:26:56.653113 15139 net.cpp:434] mbox_priorbox <- fc7_mbox_priorbox
I0217 21:26:56.653118 15139 net.cpp:434] mbox_priorbox <- conv6_2_mbox_priorbox
I0217 21:26:56.653122 15139 net.cpp:434] mbox_priorbox <- conv7_2_mbox_priorbox
I0217 21:26:56.653126 15139 net.cpp:434] mbox_priorbox <- conv8_2_mbox_priorbox
I0217 21:26:56.653131 15139 net.cpp:434] mbox_priorbox <- conv9_2_mbox_priorbox
I0217 21:26:56.653137 15139 net.cpp:408] mbox_priorbox -> mbox_priorbox
I0217 21:26:56.653172 15139 net.cpp:150] Setting up mbox_priorbox
I0217 21:26:56.653180 15139 net.cpp:157] Top shape: 1 2 34928 (69856)
I0217 21:26:56.653183 15139 net.cpp:165] Memory required for data: 254181184
I0217 21:26:56.653187 15139 layer_factory.hpp:77] Creating layer mbox_conf_reshape
I0217 21:26:56.653195 15139 net.cpp:100] Creating Layer mbox_conf_reshape
I0217 21:26:56.653199 15139 net.cpp:434] mbox_conf_reshape <- mbox_conf
I0217 21:26:56.653204 15139 net.cpp:408] mbox_conf_reshape -> mbox_conf_reshape
I0217 21:26:56.653251 15139 net.cpp:150] Setting up mbox_conf_reshape
I0217 21:26:56.653259 15139 net.cpp:157] Top shape: 1 8732 22 (192104)
I0217 21:26:56.653262 15139 net.cpp:165] Memory required for data: 254949600
I0217 21:26:56.653266 15139 layer_factory.hpp:77] Creating layer mbox_conf_softmax
I0217 21:26:56.653275 15139 net.cpp:100] Creating Layer mbox_conf_softmax
I0217 21:26:56.653278 15139 net.cpp:434] mbox_conf_softmax <- mbox_conf_reshape
I0217 21:26:56.653285 15139 net.cpp:408] mbox_conf_softmax -> mbox_conf_softmax
I0217 21:26:56.653586 15139 net.cpp:150] Setting up mbox_conf_softmax
I0217 21:26:56.653599 15139 net.cpp:157] Top shape: 1 8732 22 (192104)
I0217 21:26:56.653601 15139 net.cpp:165] Memory required for data: 255718016
I0217 21:26:56.653605 15139 layer_factory.hpp:77] Creating layer mbox_conf_flatten
I0217 21:26:56.653612 15139 net.cpp:100] Creating Layer mbox_conf_flatten
I0217 21:26:56.653617 15139 net.cpp:434] mbox_conf_flatten <- mbox_conf_softmax
I0217 21:26:56.653622 15139 net.cpp:408] mbox_conf_flatten -> mbox_conf_flatten
I0217 21:26:56.653661 15139 net.cpp:150] Setting up mbox_conf_flatten
I0217 21:26:56.653669 15139 net.cpp:157] Top shape: 1 192104 (192104)
I0217 21:26:56.653672 15139 net.cpp:165] Memory required for data: 256486432
I0217 21:26:56.653676 15139 layer_factory.hpp:77] Creating layer detection_out
I0217 21:26:56.653697 15139 net.cpp:100] Creating Layer detection_out
I0217 21:26:56.653702 15139 net.cpp:434] detection_out <- mbox_loc
I0217 21:26:56.653707 15139 net.cpp:434] detection_out <- mbox_conf_flatten
I0217 21:26:56.653712 15139 net.cpp:434] detection_out <- mbox_priorbox
I0217 21:26:56.653718 15139 net.cpp:408] detection_out -> detection_out
I0217 21:26:56.654728 15139 net.cpp:150] Setting up detection_out
I0217 21:26:56.654744 15139 net.cpp:157] Top shape: 1 1 1 7 (7)
I0217 21:26:56.654748 15139 net.cpp:165] Memory required for data: 256486460
I0217 21:26:56.654752 15139 layer_factory.hpp:77] Creating layer detection_eval
I0217 21:26:56.654760 15139 net.cpp:100] Creating Layer detection_eval
I0217 21:26:56.654765 15139 net.cpp:434] detection_eval <- detection_out
I0217 21:26:56.654770 15139 net.cpp:434] detection_eval <- label
I0217 21:26:56.654785 15139 net.cpp:408] detection_eval -> detection_eval
I0217 21:26:56.654893 15139 net.cpp:150] Setting up detection_eval
I0217 21:26:56.654904 15139 net.cpp:157] Top shape: 1 1 22 5 (110)
I0217 21:26:56.654908 15139 net.cpp:165] Memory required for data: 256486900
I0217 21:26:56.654912 15139 net.cpp:228] detection_eval does not need backward computation.
I0217 21:26:56.654917 15139 net.cpp:228] detection_out does not need backward computation.
I0217 21:26:56.654922 15139 net.cpp:228] mbox_conf_flatten does not need backward computation.
I0217 21:26:56.654924 15139 net.cpp:228] mbox_conf_softmax does not need backward computation.
…
