…
        min_scale: 0.3
        max_scale: 1
        min_aspect_ratio: 0.5
        max_aspect_ratio: 2
      }
      sample_constraint {
        min_jaccard_overlap: 0.9
      }
      max_sample: 1
      max_trials: 50
    }
    batch_sampler {
      sampler {
        min_scale: 0.3
        max_scale: 1
        min_aspect_ratio: 0.5
        max_aspect_ratio: 2
      }
      sample_constraint {
        max_jaccard_overlap: 1
      }
      max_sample: 1
      max_trials: 50
    }
    label_map_file: "data/dbgr_trees/labelmap_voc.prototxt"
  }
}
layer {
  name: "conv1_1_rgbd"
  type: "Convolution"
  bottom: "data"
  top: "conv1_1_rgbd"
  param {
    lr_mult: 1
    decay_mult: 1
  }
  param {
    lr_mult: 2
    decay_mult: 0
  }
  convolution_param {
    num_output: 64
    pad: 1
    kernel_size: 3
    weight_filler {
      type: "xavier"
    }
    bias_filler {
      type: "constant"
      value: 0
    }
  }
}
layer {
  name: "relu1_1"
  type: "ReLU"
  bottom: "conv1_1_rgbd"
  top: "conv1_1_rgbd"
}
layer {
  name: "conv1_2"
  type: "Convolution"
  bottom: "conv1_1_rgbd"
  top: "conv1_2"
  param {
    lr_mult: 1
    decay_mult: 1
  }
  param {
    lr_mult: 2
    decay_mult: 0
  }
  convolution_param {
    num_output: 64
    pad: 1
    kernel_size: 3
    weight_filler {
      type: "xavier"
    }
    bias_filler {
      type: "constant"
      value: 0
    }
  }
}
layer {
  name: "relu1_2"
  type: "ReLU"
  bottom: "conv1_2"
  top: "conv1_2"
}
layer {
  name: "pool1"
  type: "Pooling"
  bottom: "conv1_2"
  top: "pool1"
  pooling_param {
    pool: MAX
    kernel_size: 2
    stride: 2
  }
}
layer {
  name: "conv2_1"
  type: "Convolution"
  bottom: "pool1"
  top: "conv2_1"
  param {
    lr_mult: 1
    decay_mult: 1
  }
  param {
    lr_mult: 2
    decay_mult: 0
  }
  convolution_param {
    num_output: 128
    pad: 1
    kernel_size: 3
    weight_filler {
      type: "xavier"
    }
    bias_filler {
      type: "constant"
      value: 0
    }
  }
}
layer {
  name: "relu2_1"
  type: "ReLU"
  bottom: "conv2_1"
  top: "conv2_1"
}
layer {
  name: "conv2_2"
  type: "Convolution"
  bottom: "conv2_1"
  top: "conv2_2"
  param {
    lr_mult: 1
    decay_mult: 1
  }
  param {
    lr_mult: 2
    decay_mult: 0
  }
  convolution_param {
    num_output: 128
    pad: 1
    kernel_size: 3
    weight_filler {
      type: "xavier"
    }
    bias_filler {
      type: "constant"
      value: 0
    }
  }
}
layer {
  name: "relu2_2"
  type: "ReLU"
  bottom: "conv2_2"
  top: "conv2_2"
}
layer {
  name: "pool2"
  type: "Pooling"
  bottom: "conv2_2"
  top: "pool2"
  pooling_param {
    pool: MAX
    kernel_size: 2
    stride: 2
  }
}
layer {
  name: "conv3_1"
  type: "Convolution"
  bottom: "pool2"
  top: "conv3_1"
  param {
    lr_mult: 1
    decay_mult: 1
  }
  param {
    lr_mult: 2
    decay_mult: 0
  }
  convolution_param {
    num_output: 256
    pad: 1
    kernel_size: 3
    weight_filler {
      type: "xavier"
    }
    bias_filler {
      type: "constant"
      value: 0
    }
  }
}
layer {
  name: "relu3_1"
  type: "ReLU"
  bottom: "conv3_1"
  top: "conv3_1"
}
layer {
  name: "conv3_2"
  type: "Convolution"
  bottom: "conv3_1"
  top: "conv3_2"
  param {
    lr_mult: 1
    decay_mult: 1
  }
  param {
    lr_mult: 2
    decay_mult: 0
  }
  convolution_param {
    num_output: 256
    pad: 1
    kernel_size: 3
    weight_filler {
      type: "xavier"
    }
    bias_filler {
      type: "constant"
      value: 0
    }
  }
}
layer {
  name: "relu3_2"
  type: "ReLU"
  bottom: "conv3_2"
  top: "conv3_2"
}
layer {
  name: "conv3_3"
  type: "Convolution"
  bottom: "conv3_2"
  top: "conv3_3"
  param {
    lr_mult: 1
    decay_mult: 1
  }
  param {
    lr_mult: 2
    decay_mult: 0
  }
  convolution_param {
    num_output: 256
    pad: 1
    kernel_size: 3
    weight_filler {
      type: "xavier"
    }
    bias_filler {
      type: "constant"
      value: 0
    }
  }
}
layer {
  name: "relu3_3"
  type: "ReLU"
  bottom: "conv3_3"
  top: "conv3_3"
}
layer {
  name: "pool3"
  type: "Pooling"
  bottom: "conv3_3"
  top: "pool3"
  pooling_param {
    pool: MAX
    kernel_size: 2
    stride: 2
  }
}
layer {
  name: "conv4_1"
  type: "Convolution"
  bottom: "pool3"
  top: "conv4_1"
  param {
    lr_mult: 1
    decay_mult: 1
  }
  param {
    lr_mult: 2
    decay_mult: 0
  }
  convolution_param {
    num_output: 512
    pad: 1
    kernel_size: 3
    weight_filler {
      type: "xavier"
    }
    bias_filler {
      type: "constant"
      value: 0
    }
  }
}
layer {
  name: "relu4_1"
  type: "ReLU"
  bottom: "conv4_1"
  top: "conv4_1"
}
layer {
  name: "conv4_2"
  type: "Convolution"
  bottom: "conv4_1"
  top: "conv4_2"
  param {
    lr_mult: 1
    decay_mult: 1
  }
  param {
    lr_mult: 2
    decay_mult: 0
  }
  convolution_param {
    num_output: 512
    pad: 1
    kernel_size: 3
    weight_filler {
      type: "xavier"
    }
    bias_filler {
      type: "constant"
      value: 0
    }
  }
}
layer {
  name: "relu4_2"
  type: "ReLU"
  bottom: "conv4_2"
  top: "conv4_2"
}
layer {
  name: "conv4_3"
  type: "Convolution"
  bottom: "conv4_2"
  top: "conv4_3"
  param {
    lr_mult: 1
    decay_mult: 1
  }
  param {
    lr_mult: 2
    decay_mult: 0
  }
  convolution_param {
    num_output: 512
    pad: 1
    kernel_size: 3
    weight_filler {
      type: "xavier"
    }
    bias_filler {
      type: "constant"
      value: 0
    }
  }
}
layer {
  name: "relu4_3"
  type: "ReLU"
  bottom: "conv4_3"
  top: "conv4_3"
}
layer {
  name: "pool4"
  type: "Pooling"
  bottom: "conv4_3"
  top: "pool4"
  pooling_param {
    pool: MAX
    kernel_size: 2
    stride: 2
  }
}
layer {
  name: "conv5_1"
  type: "Convolution"
  bottom: "pool4"
  top: "conv5_1"
  param {
    lr_mult: 1
    decay_mult: 1
  }
  param {
    lr_mult: 2
    decay_mult: 0
  }
  convolution_param {
    num_output: 512
    pad: 1
    kernel_size: 3
    weight_filler {
      type: "xavier"
    }
    bias_filler {
      type: "constant"
      value: 0
    }
    dilation: 1
  }
}
layer {
  name: "relu5_1"
  type: "ReLU"
  bottom: "conv5_1"
  top: "conv5_1"
}
layer {
  name: "conv5_2"
  type: "Convolution"
  bottom: "conv5_1"
  top: "conv5_2"
  param {
    lr_mult: 1
    decay_mult: 1
  }
  param {
    lr_mult: 2
    decay_mult: 0
  }
  convolution_param {
    num_output: 512
    pad: 1
    kernel_size: 3
    weight_filler {
      type: "xavier"
    }
    bias_filler {
      type: "constant"
      value: 0
    }
    dilation: 1
  }
}
layer {
  name: "relu5_2"
  type: "ReLU"
  bottom: "conv5_2"
  top: "conv5_2"
}
layer {
  name: "conv5_3"
  type: "Convolution"
  bottom: "conv5_2"
  top: "conv5_3"
  param {
    lr_mult: 1
    decay_mult: 1
  }
  param {
    lr_mult: 2
    decay_mult: 0
  }
  convolution_param {
    num_output: 512
    pad: 1
    kernel_size: 3
    weight_filler {
      type: "xavier"
    }
    bias_filler {
      type: "constant"
      value: 0
    }
    dilation: 1
  }
}
layer {
  name: "relu5_3"
  type: "ReLU"
  bottom: "conv5_3"
  top: "conv5_3"
}
layer {
  name: "pool5"
  type: "Pooling"
  bottom: "conv5_3"
  top: "pool5"
  pooling_param {
    pool: MAX
    kernel_size: 3
    stride: 1
    pad: 1
  }
}
layer {
  name: "fc6"
  type: "Convolution"
  bottom: "pool5"
  top: "fc6"
  param {
    lr_mult: 1
    decay_mult: 1
  }
  param {
    lr_mult: 2
    decay_mult: 0
  }
  convolution_param {
    num_output: 1024
    pad: 6
    kernel_size: 3
    weight_filler {
      type: "xavier"
    }
    bias_filler {
      type: "constant"
      value: 0
    }
    dilation: 6
  }
}
layer {
  name: "relu6"
  type: "ReLU"
  bottom: "fc6"
  top: "fc6"
}
layer {
  name: "fc7"
  type: "Convolution"
  bottom: "fc6"
  top: "fc7"
  param {
    lr_mult: 1
    decay_mult: 1
  }
  param {
    lr_mult: 2
    decay_mult: 0
  }
  convolution_param {
    num_output: 1024
    kernel_size: 1
    weight_filler {
      type: "xavier"
    }
    bias_filler {
      type: "constant"
      value: 0
    }
  }
}
layer {
  name: "relu7"
  type: "ReLU"
  bottom: "fc7"
  top: "fc7"
}
layer {
  name: "conv6_1"
  type: "Convolution"
  bottom: "fc7"
  top: "conv6_1"
  param {
    lr_mult: 1
    decay_mult: 1
  }
  param {
    lr_mult: 2
    decay_mult: 0
  }
  convolution_param {
    num_output: 256
    pad: 0
    kernel_size: 1
    stride: 1
    weight_filler {
      type: "xavier"
    }
    bias_filler {
      type: "constant"
      value: 0
    }
  }
}
layer {
  name: "conv6_1_relu"
  type: "ReLU"
  bottom: "conv6_1"
  top: "conv6_1"
}
layer {
  name: "conv6_2"
  type: "Convolution"
  bottom: "conv6_1"
  top: "conv6_2"
  param {
    lr_mult: 1
    decay_mult: 1
  }
  param {
    lr_mult: 2
    decay_mult: 0
  }
  convolution_param {
    num_output: 512
    pad: 1
    kernel_size: 3
    stride: 2
    weight_filler {
      type: "xavier"
    }
    bias_filler {
      type: "constant"
      value: 0
    }
  }
}
layer {
  name: "conv6_2_relu"
  type: "ReLU"
  bottom: "conv6_2"
  top: "conv6_2"
}
layer {
  name: "conv7_1"
  type: "Convolution"
  bottom: "conv6_2"
  top: "conv7_1"
  param {
    lr_mult: 1
    decay_mult: 1
  }
  param {
    lr_mult: 2
    decay_mult: 0
  }
  convolution_param {
    num_output: 128
    pad: 0
    kernel_size: 1
    stride: 1
    weight_filler {
      type: "xavier"
    }
    bias_filler {
      type: "constant"
      value: 0
    }
  }
}
layer {
  name: "conv7_1_relu"
  type: "ReLU"
  bottom: "conv7_1"
  top: "conv7_1"
}
layer {
  name: "conv7_2"
  type: "Convolution"
  bottom: "conv7_1"
  top: "conv7_2"
  param {
    lr_mult: 1
    decay_mult: 1
  }
  param {
    lr_mult: 2
    decay_mult: 0
  }
  convolution_param {
    num_output: 256
    pad: 1
    kernel_size: 3
    stride: 2
    weight_filler {
      type: "xavier"
    }
    bias_filler {
      type: "constant"
      value: 0
    }
  }
}
layer {
  name: "conv7_2_relu"
  type: "ReLU"
  bottom: "conv7_2"
  top: "conv7_2"
}
layer {
  name: "conv8_1"
  type: "Convolution"
  bottom: "conv7_2"
  top: "conv8_1"
  param {
    lr_mult: 1
    decay_mult: 1
  }
  param {
    lr_mult: 2
    decay_mult: 0
  }
  convolution_param {
    num_output: 128
    pad: 0
    kernel_size: 1
    stride: 1
    weight_filler {
      type: "xavier"
    }
    bias_filler {
      type: "constant"
      value: 0
    }
  }
}
layer {
  name: "conv8_1_relu"
  type: "ReLU"
  bottom: "conv8_1"
  top: "conv8_1"
}
layer {
  name: "conv8_2"
  type: "Convolution"
  bottom: "conv8_1"
  top: "conv8_2"
  param {
    lr_mult: 1
    decay_mult: 1
  }
  param {
    lr_mult: 2
    decay_mult: 0
  }
  convolution_param {
    num_output: 256
    pad: 0
    kernel_size: 3
    stride: 1
    weight_filler {
      type: "xavier"
    }
    bias_filler {
      type: "constant"
      value: 0
    }
  }
}
layer {
  name: "conv8_2_relu"
  type: "ReLU"
  bottom: "conv8_2"
  top: "conv8_2"
}
layer {
  name: "conv9_1"
  type: "Convolution"
  bottom: "conv8_2"
  top: "conv9_1"
  param {
    lr_mult: 1
    decay_mult: 1
  }
  param {
    lr_mult: 2
    decay_mult: 0
  }
  convolution_param {
    num_output: 128
    pad: 0
    kernel_size: 1
    stride: 1
    weight_filler {
      type: "xavier"
    }
    bias_filler {
      type: "constant"
      value: 0
    }
  }
}
layer {
  name: "conv9_1_relu"
  type: "ReLU"
  bottom: "conv9_1"
  top: "conv9_1"
}
layer {
  name: "conv9_2"
  type: "Convolution"
  bottom: "conv9_1"
  top: "conv9_2"
  param {
    lr_mult: 1
    decay_mult: 1
  }
  param {
    lr_mult: 2
    decay_mult: 0
  }
  convolution_param {
    num_output: 256
    pad: 0
    kernel_size: 3
    stride: 1
    weight_filler {
      type: "xavier"
    }
    bias_filler {
      type: "constant"
      value: 0
    }
  }
}
layer {
  name: "conv9_2_relu"
  type: "ReLU"
  bottom: "conv9_2"
  top: "conv9_2"
}
layer {
  name: "conv4_3_norm"
  type: "Normalize"
  bottom: "conv4_3"
  top: "conv4_3_norm"
  norm_param {
    across_spatial: false
    scale_filler {
      type: "constant"
      value: 20
    }
    channel_shared: false
  }
}
layer {
  name: "conv4_3_norm_mbox_loc"
  type: "Convolution"
  bottom: "conv4_3_norm"
  top: "conv4_3_norm_mbox_loc"
  param {
    lr_mult: 1
    decay_mult: 1
  }
  param {
    lr_mult: 2
    decay_mult: 0
  }
  convolution_param {
    num_output: 16
    pad: 1
    kernel_size: 3
    stride: 1
    weight_filler {
      type: "xavier"
    }
    bias_filler {
      type: "constant"
      value: 0
    }
  }
}
layer {
  name: "conv4_3_norm_mbox_loc_perm"
  type: "Permute"
  bottom: "conv4_3_norm_mbox_loc"
  top: "conv4_3_norm_mbox_loc_perm"
  permute_param {
    order: 0
    order: 2
    order: 3
    order: 1
  }
}
layer {
  name: "conv4_3_norm_mbox_loc_flat"
  type: "Flatten"
  bottom: "conv4_3_norm_mbox_loc_perm"
  top: "conv4_3_norm_mbox_loc_flat"
  flatten_param {
    axis: 1
  }
}
layer {
  name: "conv4_3_norm_mbox_conf"
  type: "Convolution"
  bottom: "conv4_3_norm"
  top: "conv4_3_norm_mbox_conf"
  param {
    lr_mult: 1
    decay_mult: 1
  }
  param {
    lr_mult: 2
    decay_mult: 0
  }
  convolution_param {
    num_output: 88
    pad: 1
    kernel_size: 3
    stride: 1
    weight_filler {
      type: "xavier"
    }
    bias_filler {
      type: "constant"
      value: 0
    }
  }
}
layer {
  name: "conv4_3_norm_mbox_conf_perm"
  type: "Permute"
  bottom: "conv4_3_norm_mbox_conf"
  top: "conv4_3_norm_mbox_conf_perm"
  permute_param {
    order: 0
    order: 2
    order: 3
    order: 1
  }
}
layer {
  name: "conv4_3_norm_mbox_conf_flat"
  type: "Flatten"
  bottom: "conv4_3_norm_mbox_conf_perm"
  top: "conv4_3_norm_mbox_conf_flat"
  flatten_param {
    axis: 1
  }
}
layer {
  name: "conv4_3_norm_mbox_priorbox"
  type: "PriorBox"
  bottom: "conv4_3_norm"
  bottom: "data"
  top: "conv4_3_norm_mbox_priorbox"
  prior_box_param {
    min_size: 30
    max_size: 60
    aspect_ratio: 2
    flip: true
    clip: false
    variance: 0.1
    variance: 0.1
    variance: 0.2
    variance: 0.2
    step: 8
    offset: 0.5
  }
}
layer {
  name: "fc7_mbox_loc"
  type: "Convolution"
  bottom: "fc7"
  top: "fc7_mbox_loc"
  param {
    lr_mult: 1
    decay_mult: 1
  }
  param {
    lr_mult: 2
    decay_mult: 0
  }
  convolution_param {
    num_output: 24
    pad: 1
    kernel_size: 3
    stride: 1
    weight_filler {
      type: "xavier"
    }
    bias_filler {
      type: "constant"
      value: 0
    }
  }
}
layer {
  name: "fc7_mbox_loc_perm"
  type: "Permute"
  bottom: "fc7_mbox_loc"
  top: "fc7_mbox_loc_perm"
  permute_param {
    order: 0
    order: 2
    order: 3
    order: 1
  }
}
layer {
  name: "fc7_mbox_loc_flat"
  type: "Flatten"
  bottom: "fc7_mbox_loc_perm"
  top: "fc7_mbox_loc_flat"
  flatten_param {
    axis: 1
  }
}
layer {
  name: "fc7_mbox_conf"
  type: "Convolution"
  bottom: "fc7"
  top: "fc7_mbox_conf"
  param {
    lr_mult: 1
    decay_mult: 1
  }
  param {
    lr_mult: 2
    decay_mult: 0
  }
  convolution_param {
    num_output: 132
    pad: 1
    kernel_size: 3
    stride: 1
    weight_filler {
      type: "xavier"
    }
    bias_filler {
      type: "constant"
      value: 0
    }
  }
}
layer {
  name: "fc7_mbox_conf_perm"
  type: "Permute"
  bottom: "fc7_mbox_conf"
  top: "fc7_mbox_conf_perm"
  permute_param {
    order: 0
    order: 2
    order: 3
    order: 1
  }
}
layer {
  name: "fc7_mbox_conf_flat"
  type: "Flatten"
  bottom: "fc7_mbox_conf_perm"
  top: "fc7_mbox_conf_flat"
  flatten_param {
    axis: 1
  }
}
layer {
  name: "fc7_mbox_priorbox"
  type: "PriorBox"
  bottom: "fc7"
  bottom: "data"
  top: "fc7_mbox_priorbox"
  prior_box_param {
    min_size: 60
    max_size: 111
    aspect_ratio: 2
    aspect_ratio: 3
    flip: true
    clip: false
    variance: 0.1
    variance: 0.1
    variance: 0.2
    variance: 0.2
    step: 16
    offset: 0.5
  }
}
layer {
  name: "conv6_2_mbox_loc"
  type: "Convolution"
  bottom: "conv6_2"
  top: "conv6_2_mbox_loc"
  param {
    lr_mult: 1
    decay_mult: 1
  }
  param {
    lr_mult: 2
    decay_mult: 0
  }
  convolution_param {
    num_output: 24
    pad: 1
    kernel_size: 3
    stride: 1
    weight_filler {
      type: "xavier"
    }
    bias_filler {
      type: "constant"
      value: 0
    }
  }
}
layer {
  name: "conv6_2_mbox_loc_perm"
  type: "Permute"
  bottom: "conv6_2_mbox_loc"
  top: "conv6_2_mbox_loc_perm"
  permute_param {
    order: 0
    order: 2
    order: 3
    order: 1
  }
}
layer {
  name: "conv6_2_mbox_loc_flat"
  type: "Flatten"
  bottom: "conv6_2_mbox_loc_perm"
  top: "conv6_2_mbox_loc_flat"
  flatten_param {
    axis: 1
  }
}
layer {
  name: "conv6_2_mbox_conf"
  type: "Convolution"
  bottom: "conv6_2"
  top: "conv6_2_mbox_conf"
  param {
    lr_mult: 1
    decay_mult: 1
  }
  param {
    lr_mult: 2
    decay_mult: 0
  }
  convolution_param {
    num_output: 132
    pad: 1
    kernel_size: 3
    stride: 1
    weight_filler {
      type: "xavier"
    }
    bias_filler {
      type: "constant"
      value: 0
    }
  }
}
layer {
  name: "conv6_2_mbox_conf_perm"
  type: "Permute"
  bottom: "conv6_2_mbox_conf"
  top: "conv6_2_mbox_conf_perm"
  permute_param {
    order: 0
    order: 2
    order: 3
    order: 1
  }
}
layer {
  name: "conv6_2_mbox_conf_flat"
  type: "Flatten"
  bottom: "conv6_2_mbox_conf_perm"
  top: "conv6_2_mbox_conf_flat"
  flatten_param {
    axis: 1
  }
}
layer {
  name: "conv6_2_mbox_priorbox"
  type: "PriorBox"
  bottom: "conv6_2"
  bottom: "data"
  top: "conv6_2_mbox_priorbox"
  prior_box_param {
    min_size: 111
    max_size: 162
    aspect_ratio: 2
    aspect_ratio: 3
    flip: true
    clip: false
    variance: 0.1
    variance: 0.1
    variance: 0.2
    variance: 0.2
    step: 32
    offset: 0.5
  }
}
layer {
  name: "conv7_2_mbox_loc"
  type: "Convolution"
  bottom: "conv7_2"
  top: "conv7_2_mbox_loc"
  param {
    lr_mult: 1
    decay_mult: 1
  }
  param {
    lr_mult: 2
    decay_mult: 0
  }
  convolution_param {
    num_output: 24
    pad: 1
    kernel_size: 3
    stride: 1
    weight_filler {
      type: "xavier"
    }
    bias_filler {
      type: "constant"
      value: 0
    }
  }
}
layer {
  name: "conv7_2_mbox_loc_perm"
  type: "Permute"
  bottom: "conv7_2_mbox_loc"
  top: "conv7_2_mbox_loc_perm"
  permute_param {
    order: 0
    order: 2
    order: 3
    order: 1
  }
}
layer {
  name: "conv7_2_mbox_loc_flat"
  type: "Flatten"
  bottom: "conv7_2_mbox_loc_perm"
  top: "conv7_2_mbox_loc_flat"
  flatten_param {
    axis: 1
  }
}
layer {
  name: "conv7_2_mbox_conf"
  type: "Convolution"
  bottom: "conv7_2"
  top: "conv7_2_mbox_conf"
  param {
    lr_mult: 1
    decay_mult: 1
  }
  param {
    lr_mult: 2
    decay_mult: 0
  }
  convolution_param {
    num_output: 132
    pad: 1
    kernel_size: 3
    stride: 1
    weight_filler {
      type: "xavier"
    }
    bias_filler {
      type: "constant"
      value: 0
    }
  }
}
layer {
  name: "conv7_2_mbox_conf_perm"
  type: "Permute"
  bottom: "conv7_2_mbox_conf"
  top: "conv7_2_mbox_conf_perm"
  permute_param {
    order: 0
    order: 2
    order: 3
    order: 1
  }
}
layer {
  name: "conv7_2_mbox_conf_flat"
  type: "Flatten"
  bottom: "conv7_2_mbox_conf_perm"
  top: "conv7_2_mbox_conf_flat"
  flatten_param {
    axis: 1
  }
}
layer {
  name: "conv7_2_mbox_priorbox"
  type: "PriorBox"
  bottom: "conv7_2"
  bottom: "data"
  top: "conv7_2_mbox_priorbox"
  prior_box_param {
    min_size: 162
    max_size: 213
    aspect_ratio: 2
    aspect_ratio: 3
    flip: true
    clip: false
    variance: 0.1
    variance: 0.1
    variance: 0.2
    variance: 0.2
    step: 64
    offset: 0.5
  }
}
layer {
  name: "conv8_2_mbox_loc"
  type: "Convolution"
  bottom: "conv8_2"
  top: "conv8_2_mbox_loc"
  param {
    lr_mult: 1
    decay_mult: 1
  }
  param {
    lr_mult: 2
    decay_mult: 0
  }
  convolution_param {
    num_output: 16
    pad: 1
    kernel_size: 3
    stride: 1
    weight_filler {
      type: "xavier"
    }
    bias_filler {
      type: "constant"
      value: 0
    }
  }
}
layer {
  name: "conv8_2_mbox_loc_perm"
  type: "Permute"
  bottom: "conv8_2_mbox_loc"
  top: "conv8_2_mbox_loc_perm"
  permute_param {
    order: 0
    order: 2
    order: 3
    order: 1
  }
}
layer {
  name: "conv8_2_mbox_loc_flat"
  type: "Flatten"
  bottom: "conv8_2_mbox_loc_perm"
  top: "conv8_2_mbox_loc_flat"
  flatten_param {
    axis: 1
  }
}
layer {
  name: "conv8_2_mbox_conf"
  type: "Convolution"
  bottom: "conv8_2"
  top: "conv8_2_mbox_conf"
  param {
    lr_mult: 1
    decay_mult: 1
  }
  param {
    lr_mult: 2
    decay_mult: 0
  }
  convolution_param {
    num_output: 88
    pad: 1
    kernel_size: 3
    stride: 1
    weight_filler {
      type: "xavier"
    }
    bias_filler {
      type: "constant"
      value: 0
    }
  }
}
layer {
  name: "conv8_2_mbox_conf_perm"
  type: "Permute"
  bottom: "conv8_2_mbox_conf"
  top: "conv8_2_mbox_conf_perm"
  permute_param {
    order: 0
    order: 2
    order: 3
    order: 1
  }
}
layer {
  name: "conv8_2_mbox_conf_flat"
  type: "Flatten"
  bottom: "conv8_2_mbox_conf_perm"
  top: "conv8_2_mbox_conf_flat"
  flatten_param {
    axis: 1
  }
}
layer {
  name: "conv8_2_mbox_priorbox"
  type: "PriorBox"
  bottom: "conv8_2"
  bottom: "data"
  top: "conv8_2_mbox_priorbox"
  prior_box_param {
    min_size: 213
    max_size: 264
    aspect_ratio: 2
    flip: true
    clip: false
    variance: 0.1
    variance: 0.1
    variance: 0.2
    variance: 0.2
    step: 100
    offset: 0.5
  }
}
layer {
  name: "conv9_2_mbox_loc"
  type: "Convolution"
  bottom: "conv9_2"
  top: "conv9_2_mbox_loc"
  param {
    lr_mult: 1
    decay_mult: 1
  }
  param {
    lr_mult: 2
    decay_mult: 0
  }
  convolution_param {
    num_output: 16
    pad: 1
    kernel_size: 3
    stride: 1
    weight_filler {
      type: "xavier"
    }
    bias_filler {
      type: "constant"
      value: 0
    }
  }
}
layer {
  name: "conv9_2_mbox_loc_perm"
  type: "Permute"
  bottom: "conv9_2_mbox_loc"
  top: "conv9_2_mbox_loc_perm"
  permute_param {
    order: 0
    order: 2
    order: 3
    order: 1
  }
}
layer {
  name: "conv9_2_mbox_loc_flat"
  type: "Flatten"
  bottom: "conv9_2_mbox_loc_perm"
  top: "conv9_2_mbox_loc_flat"
  flatten_param {
    axis: 1
  }
}
layer {
  name: "conv9_2_mbox_conf"
  type: "Convolution"
  bottom: "conv9_2"
  top: "conv9_2_mbox_conf"
  param {
    lr_mult: 1
    decay_mult: 1
  }
  param {
    lr_mult: 2
    decay_mult: 0
  }
  convolution_param {
    num_output: 88
    pad: 1
    kernel_size: 3
    stride: 1
    weight_filler {
      type: "xavier"
    }
    bias_filler {
      type: "constant"
      value: 0
    }
  }
}
layer {
  name: "conv9_2_mbox_conf_perm"
  type: "Permute"
  bottom: "conv9_2_mbox_conf"
  top: "conv9_2_mbox_conf_perm"
  permute_param {
    order: 0
    order: 2
    order: 3
    order: 1
  }
}
layer {
  name: "conv9_2_mbox_conf_flat"
  type: "Flatten"
  bottom: "conv9_2_mbox_conf_perm"
  top: "conv9_2_mbox_conf_flat"
  flatten_param {
    axis: 1
  }
}
layer {
  name: "conv9_2_mbox_priorbox"
  type: "PriorBox"
  bottom: "conv9_2"
  bottom: "data"
  top: "conv9_2_mbox_priorbox"
  prior_box_param {
    min_size: 264
    max_size: 315
    aspect_ratio: 2
    flip: true
    clip: false
    variance: 0.1
    variance: 0.1
    variance: 0.2
    variance: 0.2
    step: 300
    offset: 0.5
  }
}
layer {
  name: "mbox_loc"
  type: "Concat"
  bottom: "conv4_3_norm_mbox_loc_flat"
  bottom: "fc7_mbox_loc_flat"
  bottom: "conv6_2_mbox_loc_flat"
  bottom: "conv7_2_mbox_loc_flat"
  bottom: "conv8_2_mbox_loc_flat"
  bottom: "conv9_2_mbox_loc_flat"
  top: "mbox_loc"
  concat_param {
    axis: 1
  }
}
layer {
  name: "mbox_conf"
  type: "Concat"
  bottom: "conv4_3_norm_mbox_conf_flat"
  bottom: "fc7_mbox_conf_flat"
  bottom: "conv6_2_mbox_conf_flat"
  bottom: "conv7_2_mbox_conf_flat"
  bottom: "conv8_2_mbox_conf_flat"
  bottom: "conv9_2_mbox_conf_flat"
  top: "mbox_conf"
  concat_param {
    axis: 1
  }
}
layer {
  name: "mbox_priorbox"
  type: "Concat"
  bottom: "conv4_3_norm_mbox_priorbox"
  bottom: "fc7_mbox_priorbox"
  bottom: "conv6_2_mbox_priorbox"
  bottom: "conv7_2_mbox_priorbox"
  bottom: "conv8_2_mbox_priorbox"
  bottom: "conv9_2_mbox_priorbox"
  top: "mbox_priorbox"
  concat_param {
    axis: 2
  }
}
layer {
  name: "mbox_loss"
  type: "MultiBoxLoss"
  bottom: "mbox_loc"
  bottom: "mbox_conf"
  bottom: "mbox_priorbox"
  bottom: "label"
  top: "mbox_loss"
  include {
    phase: TRAIN
  }
  propagate_down: true
  propagate_down: true
  propagate_down: false
  propagate_down: false
  loss_param {
    normalization: VALID
  }
  multibox_loss_param {
    loc_loss_type: SMOOTH_L1
    conf_loss_type: SOFTMAX
    loc_weight: 1
    num_classes: 22
    share_location: true
    match_type: PER_PREDICTION
    overlap_threshold: 0.5
    use_prior_for_matching: true
    background_label_id: 0
    use_difficult_gt: true
    neg_pos_ratio: 3
    neg_overlap: 0.5
    code_type: CENTER_SIZE
    ignore_cross_boundary_bbox: false
    mining_type: MAX_NEGATIVE
  }
}
I0219 12:22:50.997606  3815 layer_factory.hpp:77] Creating layer data
I0219 12:22:51.056208  3815 net.cpp:100] Creating Layer data
I0219 12:22:51.056259  3815 net.cpp:408] data -> data
I0219 12:22:51.056325  3815 net.cpp:408] data -> label
I0219 12:22:51.141922  3833 db_lmdb.cpp:35] Opened lmdb examples/dbgr_trees/dbgr_trees_trainval_lmdb
I0219 12:22:52.941968  3815 annotated_data_layer.cpp:62] output data size: 32,4,300,300
I0219 12:22:53.218992  3815 net.cpp:150] Setting up data
I0219 12:22:53.219038  3815 net.cpp:157] Top shape: 32 4 300 300 (11520000)
I0219 12:22:53.219069  3815 net.cpp:157] Top shape: 1 1 3 8 (24)
I0219 12:22:53.219074  3815 net.cpp:165] Memory required for data: 46080096
I0219 12:22:53.219085  3815 layer_factory.hpp:77] Creating layer data_data_0_split
I0219 12:22:53.317631  3815 net.cpp:100] Creating Layer data_data_0_split
I0219 12:22:53.317677  3815 net.cpp:434] data_data_0_split <- data
I0219 12:22:53.317708  3815 net.cpp:408] data_data_0_split -> data_data_0_split_0
I0219 12:22:53.317742  3815 net.cpp:408] data_data_0_split -> data_data_0_split_1
I0219 12:22:53.317757  3815 net.cpp:408] data_data_0_split -> data_data_0_split_2
I0219 12:22:53.317772  3815 net.cpp:408] data_data_0_split -> data_data_0_split_3
I0219 12:22:53.317782  3815 net.cpp:408] data_data_0_split -> data_data_0_split_4
I0219 12:22:53.317792  3815 net.cpp:408] data_data_0_split -> data_data_0_split_5
I0219 12:22:53.317801  3815 net.cpp:408] data_data_0_split -> data_data_0_split_6
I0219 12:22:53.317991  3815 net.cpp:150] Setting up data_data_0_split
I0219 12:22:53.318008  3815 net.cpp:157] Top shape: 32 4 300 300 (11520000)
I0219 12:22:53.318022  3815 net.cpp:157] Top shape: 32 4 300 300 (11520000)
I0219 12:22:53.318029  3815 net.cpp:157] Top shape: 32 4 300 300 (11520000)
I0219 12:22:53.318037  3815 net.cpp:157] Top shape: 32 4 300 300 (11520000)
I0219 12:22:53.318044  3815 net.cpp:157] Top shape: 32 4 300 300 (11520000)
I0219 12:22:53.318051  3815 net.cpp:157] Top shape: 32 4 300 300 (11520000)
I0219 12:22:53.318058  3815 net.cpp:157] Top shape: 32 4 300 300 (11520000)
I0219 12:22:53.318064  3815 net.cpp:165] Memory required for data: 368640096
I0219 12:22:53.318076  3815 layer_factory.hpp:77] Creating layer conv1_1_rgbd
I0219 12:22:53.318104  3815 net.cpp:100] Creating Layer conv1_1_rgbd
I0219 12:22:53.318114  3815 net.cpp:434] conv1_1_rgbd <- data_data_0_split_0
I0219 12:22:53.318126  3815 net.cpp:408] conv1_1_rgbd -> conv1_1_rgbd
I0219 12:22:59.512512  3815 net.cpp:150] Setting up conv1_1_rgbd
I0219 12:22:59.512560  3815 net.cpp:157] Top shape: 32 64 300 300 (184320000)
I0219 12:22:59.512568  3815 net.cpp:165] Memory required for data: 1105920096
I0219 12:22:59.512596  3815 layer_factory.hpp:77] Creating layer relu1_1
I0219 12:22:59.512612  3815 net.cpp:100] Creating Layer relu1_1
I0219 12:22:59.512624  3815 net.cpp:434] relu1_1 <- conv1_1_rgbd
I0219 12:22:59.512635  3815 net.cpp:395] relu1_1 -> conv1_1_rgbd (in-place)
I0219 12:22:59.540998  3815 net.cpp:150] Setting up relu1_1
I0219 12:22:59.541029  3815 net.cpp:157] Top shape: 32 64 300 300 (184320000)
I0219 12:22:59.541038  3815 net.cpp:165] Memory required for data: 1843200096
I0219 12:22:59.541046  3815 layer_factory.hpp:77] Creating layer conv1_2
I0219 12:22:59.541074  3815 net.cpp:100] Creating Layer conv1_2
I0219 12:22:59.541085  3815 net.cpp:434] conv1_2 <- conv1_1_rgbd
I0219 12:22:59.541097  3815 net.cpp:408] conv1_2 -> conv1_2
I0219 12:22:59.543682  3815 net.cpp:150] Setting up conv1_2
I0219 12:22:59.543707  3815 net.cpp:157] Top shape: 32 64 300 300 (184320000)
I0219 12:22:59.543715  3815 net.cpp:165] Memory required for data: 2580480096
I0219 12:22:59.543733  3815 layer_factory.hpp:77] Creating layer relu1_2
I0219 12:22:59.543746  3815 net.cpp:100] Creating Layer relu1_2
I0219 12:22:59.543753  3815 net.cpp:434] relu1_2 <- conv1_2
I0219 12:22:59.543771  3815 net.cpp:395] relu1_2 -> conv1_2 (in-place)
I0219 12:22:59.544153  3815 net.cpp:150] Setting up relu1_2
I0219 12:22:59.544173  3815 net.cpp:157] Top shape: 32 64 300 300 (184320000)
I0219 12:22:59.544179  3815 net.cpp:165] Memory required for data: 3317760096
I0219 12:22:59.544186  3815 layer_factory.hpp:77] Creating layer pool1
I0219 12:22:59.544198  3815 net.cpp:100] Creating Layer pool1
I0219 12:22:59.544205  3815 net.cpp:434] pool1 <- conv1_2
I0219 12:22:59.544214  3815 net.cpp:408] pool1 -> pool1
I0219 12:22:59.561700  3815 net.cpp:150] Setting up pool1
I0219 12:22:59.561724  3815 net.cpp:157] Top shape: 32 64 150 150 (46080000)
I0219 12:22:59.561731  3815 net.cpp:165] Memory required for data: 3502080096
I0219 12:22:59.561760  3815 layer_factory.hpp:77] Creating layer conv2_1
I0219 12:22:59.561782  3815 net.cpp:100] Creating Layer conv2_1
I0219 12:22:59.561794  3815 net.cpp:434] conv2_1 <- pool1
I0219 12:22:59.561805  3815 net.cpp:408] conv2_1 -> conv2_1
I0219 12:22:59.564136  3815 net.cpp:150] Setting up conv2_1
I0219 12:22:59.564157  3815 net.cpp:157] Top shape: 32 128 150 150 (92160000)
I0219 12:22:59.564165  3815 net.cpp:165] Memory required for data: 3870720096
I0219 12:22:59.564184  3815 layer_factory.hpp:77] Creating layer relu2_1
I0219 12:22:59.564198  3815 net.cpp:100] Creating Layer relu2_1
I0219 12:22:59.564205  3815 net.cpp:434] relu2_1 <- conv2_1
I0219 12:22:59.564214  3815 net.cpp:395] relu2_1 -> conv2_1 (in-place)
I0219 12:22:59.564465  3815 net.cpp:150] Setting up relu2_1
I0219 12:22:59.564481  3815 net.cpp:157] Top shape: 32 128 150 150 (92160000)
I0219 12:22:59.564487  3815 net.cpp:165] Memory required for data: 4239360096
I0219 12:22:59.564494  3815 layer_factory.hpp:77] Creating layer conv2_2
I0219 12:22:59.564513  3815 net.cpp:100] Creating Layer conv2_2
I0219 12:22:59.564522  3815 net.cpp:434] conv2_2 <- conv2_1
I0219 12:22:59.564532  3815 net.cpp:408] conv2_2 -> conv2_2
I0219 12:22:59.568258  3815 net.cpp:150] Setting up conv2_2
I0219 12:22:59.568290  3815 net.cpp:157] Top shape: 32 128 150 150 (92160000)
I0219 12:22:59.568297  3815 net.cpp:165] Memory required for data: 4608000096
I0219 12:22:59.568311  3815 layer_factory.hpp:77] Creating layer relu2_2
I0219 12:22:59.568325  3815 net.cpp:100] Creating Layer relu2_2
I0219 12:22:59.568334  3815 net.cpp:434] relu2_2 <- conv2_2
I0219 12:22:59.568347  3815 net.cpp:395] relu2_2 -> conv2_2 (in-place)
I0219 12:22:59.568743  3815 net.cpp:150] Setting up relu2_2
I0219 12:22:59.568763  3815 net.cpp:157] Top shape: 32 128 150 150 (92160000)
I0219 12:22:59.568768  3815 net.cpp:165] Memory required for data: 4976640096
I0219 12:22:59.568775  3815 layer_factory.hpp:77] Creating layer pool2
I0219 12:22:59.568807  3815 net.cpp:100] Creating Layer pool2
I0219 12:22:59.568815  3815 net.cpp:434] pool2 <- conv2_2
I0219 12:22:59.568825  3815 net.cpp:408] pool2 -> pool2
I0219 12:22:59.568889  3815 net.cpp:150] Setting up pool2
I0219 12:22:59.568902  3815 net.cpp:157] Top shape: 32 128 75 75 (23040000)
I0219 12:22:59.568908  3815 net.cpp:165] Memory required for data: 5068800096
I0219 12:22:59.568914  3815 layer_factory.hpp:77] Creating layer conv3_1
I0219 12:22:59.568930  3815 net.cpp:100] Creating Layer conv3_1
I0219 12:22:59.568939  3815 net.cpp:434] conv3_1 <- pool2
I0219 12:22:59.568949  3815 net.cpp:408] conv3_1 -> conv3_1
I0219 12:22:59.576251  3815 net.cpp:150] Setting up conv3_1
I0219 12:22:59.576289  3815 net.cpp:157] Top shape: 32 256 75 75 (46080000)
I0219 12:22:59.576297  3815 net.cpp:165] Memory required for data: 5253120096
I0219 12:22:59.576318  3815 layer_factory.hpp:77] Creating layer relu3_1
I0219 12:22:59.576333  3815 net.cpp:100] Creating Layer relu3_1
I0219 12:22:59.576344  3815 net.cpp:434] relu3_1 <- conv3_1
I0219 12:22:59.576354  3815 net.cpp:395] relu3_1 -> conv3_1 (in-place)
I0219 12:22:59.576745  3815 net.cpp:150] Setting up relu3_1
I0219 12:22:59.576763  3815 net.cpp:157] Top shape: 32 256 75 75 (46080000)
I0219 12:22:59.576771  3815 net.cpp:165] Memory required for data: 5437440096
I0219 12:22:59.576777  3815 layer_factory.hpp:77] Creating layer conv3_2
I0219 12:22:59.576798  3815 net.cpp:100] Creating Layer conv3_2
I0219 12:22:59.576805  3815 net.cpp:434] conv3_2 <- conv3_1
I0219 12:22:59.576817  3815 net.cpp:408] conv3_2 -> conv3_2
I0219 12:22:59.585228  3815 net.cpp:150] Setting up conv3_2
I0219 12:22:59.585263  3815 net.cpp:157] Top shape: 32 256 75 75 (46080000)
I0219 12:22:59.585270  3815 net.cpp:165] Memory required for data: 5621760096
I0219 12:22:59.585285  3815 layer_factory.hpp:77] Creating layer relu3_2
I0219 12:22:59.585300  3815 net.cpp:100] Creating Layer relu3_2
I0219 12:22:59.585312  3815 net.cpp:434] relu3_2 <- conv3_2
I0219 12:22:59.585324  3815 net.cpp:395] relu3_2 -> conv3_2 (in-place)
I0219 12:22:59.585563  3815 net.cpp:150] Setting up relu3_2
I0219 12:22:59.585602  3815 net.cpp:157] Top shape: 32 256 75 75 (46080000)
I0219 12:22:59.585608  3815 net.cpp:165] Memory required for data: 5806080096
I0219 12:22:59.585615  3815 layer_factory.hpp:77] Creating layer conv3_3
I0219 12:22:59.585638  3815 net.cpp:100] Creating Layer conv3_3
I0219 12:22:59.585645  3815 net.cpp:434] conv3_3 <- conv3_2
I0219 12:22:59.585656  3815 net.cpp:408] conv3_3 -> conv3_3
I0219 12:22:59.594347  3815 net.cpp:150] Setting up conv3_3
I0219 12:22:59.594389  3815 net.cpp:157] Top shape: 32 256 75 75 (46080000)
I0219 12:22:59.594398  3815 net.cpp:165] Memory required for data: 5990400096
I0219 12:22:59.594413  3815 layer_factory.hpp:77] Creating layer relu3_3
I0219 12:22:59.594425  3815 net.cpp:100] Creating Layer relu3_3
I0219 12:22:59.594437  3815 net.cpp:434] relu3_3 <- conv3_3
I0219 12:22:59.594449  3815 net.cpp:395] relu3_3 -> conv3_3 (in-place)
I0219 12:22:59.594858  3815 net.cpp:150] Setting up relu3_3
I0219 12:22:59.594878  3815 net.cpp:157] Top shape: 32 256 75 75 (46080000)
I0219 12:22:59.594885  3815 net.cpp:165] Memory required for data: 6174720096
I0219 12:22:59.594892  3815 layer_factory.hpp:77] Creating layer pool3
I0219 12:22:59.594904  3815 net.cpp:100] Creating Layer pool3
I0219 12:22:59.594913  3815 net.cpp:434] pool3 <- conv3_3
I0219 12:22:59.594923  3815 net.cpp:408] pool3 -> pool3
I0219 12:22:59.594987  3815 net.cpp:150] Setting up pool3
I0219 12:22:59.594997  3815 net.cpp:157] Top shape: 32 256 38 38 (11829248)
I0219 12:22:59.595003  3815 net.cpp:165] Memory required for data: 6222037088
I0219 12:22:59.595010  3815 layer_factory.hpp:77] Creating layer conv4_1
I0219 12:22:59.595026  3815 net.cpp:100] Creating Layer conv4_1
I0219 12:22:59.595032  3815 net.cpp:434] conv4_1 <- pool3
I0219 12:22:59.595042  3815 net.cpp:408] conv4_1 -> conv4_1
I0219 12:22:59.610709  3815 net.cpp:150] Setting up conv4_1
I0219 12:22:59.610756  3815 net.cpp:157] Top shape: 32 512 38 38 (23658496)
I0219 12:22:59.610764  3815 net.cpp:165] Memory required for data: 6316671072
I0219 12:22:59.610780  3815 layer_factory.hpp:77] Creating layer relu4_1
I0219 12:22:59.610793  3815 net.cpp:100] Creating Layer relu4_1
I0219 12:22:59.610801  3815 net.cpp:434] relu4_1 <- conv4_1
I0219 12:22:59.610813  3815 net.cpp:395] relu4_1 -> conv4_1 (in-place)
I0219 12:22:59.611356  3815 net.cpp:150] Setting up relu4_1
I0219 12:22:59.611377  3815 net.cpp:157] Top shape: 32 512 38 38 (23658496)
I0219 12:22:59.611382  3815 net.cpp:165] Memory required for data: 6411305056
I0219 12:22:59.611389  3815 layer_factory.hpp:77] Creating layer conv4_2
I0219 12:22:59.611407  3815 net.cpp:100] Creating Layer conv4_2
I0219 12:22:59.611418  3815 net.cpp:434] conv4_2 <- conv4_1
I0219 12:22:59.611428  3815 net.cpp:408] conv4_2 -> conv4_2
I0219 12:22:59.640527  3815 net.cpp:150] Setting up conv4_2
I0219 12:22:59.640558  3815 net.cpp:157] Top shape: 32 512 38 38 (23658496)
I0219 12:22:59.640566  3815 net.cpp:165] Memory required for data: 6505939040
I0219 12:22:59.640588  3815 layer_factory.hpp:77] Creating layer relu4_2
I0219 12:22:59.640607  3815 net.cpp:100] Creating Layer relu4_2
I0219 12:22:59.640616  3815 net.cpp:434] relu4_2 <- conv4_2
I0219 12:22:59.640627  3815 net.cpp:395] relu4_2 -> conv4_2 (in-place)
I0219 12:22:59.640872  3815 net.cpp:150] Setting up relu4_2
I0219 12:22:59.640887  3815 net.cpp:157] Top shape: 32 512 38 38 (23658496)
I0219 12:22:59.640893  3815 net.cpp:165] Memory required for data: 6600573024
I0219 12:22:59.640900  3815 layer_factory.hpp:77] Creating layer conv4_3
I0219 12:22:59.640918  3815 net.cpp:100] Creating Layer conv4_3
I0219 12:22:59.640928  3815 net.cpp:434] conv4_3 <- conv4_2
I0219 12:22:59.640938  3815 net.cpp:408] conv4_3 -> conv4_3
I0219 12:22:59.670572  3815 net.cpp:150] Setting up conv4_3
I0219 12:22:59.670624  3815 net.cpp:157] Top shape: 32 512 38 38 (23658496)
I0219 12:22:59.670632  3815 net.cpp:165] Memory required for data: 6695207008
I0219 12:22:59.670647  3815 layer_factory.hpp:77] Creating layer relu4_3
I0219 12:22:59.670662  3815 net.cpp:100] Creating Layer relu4_3
I0219 12:22:59.670693  3815 net.cpp:434] relu4_3 <- conv4_3
I0219 12:22:59.670706  3815 net.cpp:395] relu4_3 -> conv4_3 (in-place)
I0219 12:22:59.671129  3815 net.cpp:150] Setting up relu4_3
I0219 12:22:59.671149  3815 net.cpp:157] Top shape: 32 512 38 38 (23658496)
I0219 12:22:59.671155  3815 net.cpp:165] Memory required for data: 6789840992
I0219 12:22:59.671162  3815 layer_factory.hpp:77] Creating layer conv4_3_relu4_3_0_split
I0219 12:22:59.671174  3815 net.cpp:100] Creating Layer conv4_3_relu4_3_0_split
I0219 12:22:59.671181  3815 net.cpp:434] conv4_3_relu4_3_0_split <- conv4_3
I0219 12:22:59.671190  3815 net.cpp:408] conv4_3_relu4_3_0_split -> conv4_3_relu4_3_0_split_0
I0219 12:22:59.671205  3815 net.cpp:408] conv4_3_relu4_3_0_split -> conv4_3_relu4_3_0_split_1
I0219 12:22:59.671268  3815 net.cpp:150] Setting up conv4_3_relu4_3_0_split
I0219 12:22:59.671280  3815 net.cpp:157] Top shape: 32 512 38 38 (23658496)
I0219 12:22:59.671288  3815 net.cpp:157] Top shape: 32 512 38 38 (23658496)
I0219 12:22:59.671295  3815 net.cpp:165] Memory required for data: 6979108960
I0219 12:22:59.671303  3815 layer_factory.hpp:77] Creating layer pool4
I0219 12:22:59.671334  3815 net.cpp:100] Creating Layer pool4
I0219 12:22:59.671344  3815 net.cpp:434] pool4 <- conv4_3_relu4_3_0_split_0
I0219 12:22:59.671353  3815 net.cpp:408] pool4 -> pool4
I0219 12:22:59.671414  3815 net.cpp:150] Setting up pool4
I0219 12:22:59.671427  3815 net.cpp:157] Top shape: 32 512 19 19 (5914624)
I0219 12:22:59.671432  3815 net.cpp:165] Memory required for data: 7002767456
I0219 12:22:59.671438  3815 layer_factory.hpp:77] Creating layer conv5_1
I0219 12:22:59.671456  3815 net.cpp:100] Creating Layer conv5_1
I0219 12:22:59.671465  3815 net.cpp:434] conv5_1 <- pool4
I0219 12:22:59.671476  3815 net.cpp:408] conv5_1 -> conv5_1
I0219 12:22:59.696985  3815 net.cpp:150] Setting up conv5_1
I0219 12:22:59.697021  3815 net.cpp:157] Top shape: 32 512 19 19 (5914624)
I0219 12:22:59.697026  3815 net.cpp:165] Memory required for data: 7026425952
I0219 12:22:59.697036  3815 layer_factory.hpp:77] Creating layer relu5_1
I0219 12:22:59.697047  3815 net.cpp:100] Creating Layer relu5_1
I0219 12:22:59.697053  3815 net.cpp:434] relu5_1 <- conv5_1
I0219 12:22:59.697060  3815 net.cpp:395] relu5_1 -> conv5_1 (in-place)
I0219 12:22:59.697352  3815 net.cpp:150] Setting up relu5_1
I0219 12:22:59.697367  3815 net.cpp:157] Top shape: 32 512 19 19 (5914624)
I0219 12:22:59.697371  3815 net.cpp:165] Memory required for data: 7050084448
I0219 12:22:59.697376  3815 layer_factory.hpp:77] Creating layer conv5_2
I0219 12:22:59.697387  3815 net.cpp:100] Creating Layer conv5_2
I0219 12:22:59.697396  3815 net.cpp:434] conv5_2 <- conv5_1
I0219 12:22:59.697407  3815 net.cpp:408] conv5_2 -> conv5_2
I0219 12:22:59.719208  3815 net.cpp:150] Setting up conv5_2
I0219 12:22:59.719254  3815 net.cpp:157] Top shape: 32 512 19 19 (5914624)
I0219 12:22:59.719260  3815 net.cpp:165] Memory required for data: 7073742944
I0219 12:22:59.719274  3815 layer_factory.hpp:77] Creating layer relu5_2
I0219 12:22:59.719293  3815 net.cpp:100] Creating Layer relu5_2
I0219 12:22:59.719306  3815 net.cpp:434] relu5_2 <- conv5_2
I0219 12:22:59.719319  3815 net.cpp:395] relu5_2 -> conv5_2 (in-place)
I0219 12:22:59.719518  3815 net.cpp:150] Setting up relu5_2
I0219 12:22:59.719533  3815 net.cpp:157] Top shape: 32 512 19 19 (5914624)
I0219 12:22:59.719539  3815 net.cpp:165] Memory required for data: 7097401440
I0219 12:22:59.719547  3815 layer_factory.hpp:77] Creating layer conv5_3
I0219 12:22:59.719570  3815 net.cpp:100] Creating Layer conv5_3
I0219 12:22:59.719579  3815 net.cpp:434] conv5_3 <- conv5_2
I0219 12:22:59.719594  3815 net.cpp:408] conv5_3 -> conv5_3
I0219 12:22:59.741622  3815 net.cpp:150] Setting up conv5_3
I0219 12:22:59.741667  3815 net.cpp:157] Top shape: 32 512 19 19 (5914624)
I0219 12:22:59.741673  3815 net.cpp:165] Memory required for data: 7121059936
I0219 12:22:59.741688  3815 layer_factory.hpp:77] Creating layer relu5_3
I0219 12:22:59.741711  3815 net.cpp:100] Creating Layer relu5_3
I0219 12:22:59.741726  3815 net.cpp:434] relu5_3 <- conv5_3
I0219 12:22:59.741760  3815 net.cpp:395] relu5_3 -> conv5_3 (in-place)
I0219 12:22:59.742094  3815 net.cpp:150] Setting up relu5_3
I0219 12:22:59.742111  3815 net.cpp:157] Top shape: 32 512 19 19 (5914624)
I0219 12:22:59.742120  3815 net.cpp:165] Memory required for data: 7144718432
I0219 12:22:59.742131  3815 layer_factory.hpp:77] Creating layer pool5
I0219 12:22:59.742143  3815 net.cpp:100] Creating Layer pool5
I0219 12:22:59.742147  3815 net.cpp:434] pool5 <- conv5_3
I0219 12:22:59.742153  3815 net.cpp:408] pool5 -> pool5
I0219 12:22:59.742207  3815 net.cpp:150] Setting up pool5
I0219 12:22:59.742215  3815 net.cpp:157] Top shape: 32 512 19 19 (5914624)
I0219 12:22:59.742219  3815 net.cpp:165] Memory required for data: 7168376928
I0219 12:22:59.742223  3815 layer_factory.hpp:77] Creating layer fc6
I0219 12:22:59.742235  3815 net.cpp:100] Creating Layer fc6
I0219 12:22:59.742240  3815 net.cpp:434] fc6 <- pool5
I0219 12:22:59.742246  3815 net.cpp:408] fc6 -> fc6
I0219 12:22:59.794267  3815 net.cpp:150] Setting up fc6
I0219 12:22:59.794308  3815 net.cpp:157] Top shape: 32 1024 19 19 (11829248)
I0219 12:22:59.794315  3815 net.cpp:165] Memory required for data: 7215693920
I0219 12:22:59.794329  3815 layer_factory.hpp:77] Creating layer relu6
I0219 12:22:59.794347  3815 net.cpp:100] Creating Layer relu6
I0219 12:22:59.794358  3815 net.cpp:434] relu6 <- fc6
I0219 12:22:59.794373  3815 net.cpp:395] relu6 -> fc6 (in-place)
I0219 12:22:59.794694  3815 net.cpp:150] Setting up relu6
I0219 12:22:59.794711  3815 net.cpp:157] Top shape: 32 1024 19 19 (11829248)
I0219 12:22:59.794720  3815 net.cpp:165] Memory required for data: 7263010912
I0219 12:22:59.794729  3815 layer_factory.hpp:77] Creating layer fc7
I0219 12:22:59.794749  3815 net.cpp:100] Creating Layer fc7
I0219 12:22:59.794755  3815 net.cpp:434] fc7 <- fc6
I0219 12:22:59.794766  3815 net.cpp:408] fc7 -> fc7
I0219 12:22:59.808182  3815 net.cpp:150] Setting up fc7
I0219 12:22:59.808217  3815 net.cpp:157] Top shape: 32 1024 19 19 (11829248)
I0219 12:22:59.808223  3815 net.cpp:165] Memory required for data: 7310327904
I0219 12:22:59.808238  3815 layer_factory.hpp:77] Creating layer relu7
I0219 12:22:59.808254  3815 net.cpp:100] Creating Layer relu7
I0219 12:22:59.808262  3815 net.cpp:434] relu7 <- fc7
I0219 12:22:59.808274  3815 net.cpp:395] relu7 -> fc7 (in-place)
I0219 12:22:59.808714  3815 net.cpp:150] Setting up relu7
I0219 12:22:59.808734  3815 net.cpp:157] Top shape: 32 1024 19 19 (11829248)
I0219 12:22:59.808740  3815 net.cpp:165] Memory required for data: 7357644896
I0219 12:22:59.808748  3815 layer_factory.hpp:77] Creating layer fc7_relu7_0_split
I0219 12:22:59.808758  3815 net.cpp:100] Creating Layer fc7_relu7_0_split
I0219 12:22:59.808764  3815 net.cpp:434] fc7_relu7_0_split <- fc7
I0219 12:22:59.808776  3815 net.cpp:408] fc7_relu7_0_split -> fc7_relu7_0_split_0
I0219 12:22:59.808789  3815 net.cpp:408] fc7_relu7_0_split -> fc7_relu7_0_split_1
I0219 12:22:59.808810  3815 net.cpp:408] fc7_relu7_0_split -> fc7_relu7_0_split_2
I0219 12:22:59.808822  3815 net.cpp:408] fc7_relu7_0_split -> fc7_relu7_0_split_3
I0219 12:22:59.808938  3815 net.cpp:150] Setting up fc7_relu7_0_split
I0219 12:22:59.808953  3815 net.cpp:157] Top shape: 32 1024 19 19 (11829248)
I0219 12:22:59.808964  3815 net.cpp:157] Top shape: 32 1024 19 19 (11829248)
I0219 12:22:59.808972  3815 net.cpp:157] Top shape: 32 1024 19 19 (11829248)
I0219 12:22:59.808979  3815 net.cpp:157] Top shape: 32 1024 19 19 (11829248)
I0219 12:22:59.808985  3815 net.cpp:165] Memory required for data: 7546912864
I0219 12:22:59.808991  3815 layer_factory.hpp:77] Creating layer conv6_1
I0219 12:22:59.809010  3815 net.cpp:100] Creating Layer conv6_1
I0219 12:22:59.809016  3815 net.cpp:434] conv6_1 <- fc7_relu7_0_split_0
I0219 12:22:59.809029  3815 net.cpp:408] conv6_1 -> conv6_1
I0219 12:22:59.813794  3815 net.cpp:150] Setting up conv6_1
I0219 12:22:59.813817  3815 net.cpp:157] Top shape: 32 256 19 19 (2957312)
I0219 12:22:59.813824  3815 net.cpp:165] Memory required for data: 7558742112
I0219 12:22:59.813858  3815 layer_factory.hpp:77] Creating layer conv6_1_relu
I0219 12:22:59.813871  3815 net.cpp:100] Creating Layer conv6_1_relu
I0219 12:22:59.813879  3815 net.cpp:434] conv6_1_relu <- conv6_1
I0219 12:22:59.813887  3815 net.cpp:395] conv6_1_relu -> conv6_1 (in-place)
I0219 12:22:59.814321  3815 net.cpp:150] Setting up conv6_1_relu
I0219 12:22:59.814338  3815 net.cpp:157] Top shape: 32 256 19 19 (2957312)
I0219 12:22:59.814345  3815 net.cpp:165] Memory required for data: 7570571360
I0219 12:22:59.814352  3815 layer_factory.hpp:77] Creating layer conv6_2
I0219 12:22:59.814370  3815 net.cpp:100] Creating Layer conv6_2
I0219 12:22:59.814380  3815 net.cpp:434] conv6_2 <- conv6_1
I0219 12:22:59.814391  3815 net.cpp:408] conv6_2 -> conv6_2
I0219 12:22:59.830037  3815 net.cpp:150] Setting up conv6_2
I0219 12:22:59.830078  3815 net.cpp:157] Top shape: 32 512 10 10 (1638400)
I0219 12:22:59.830085  3815 net.cpp:165] Memory required for data: 7577124960
I0219 12:22:59.830111  3815 layer_factory.hpp:77] Creating layer conv6_2_relu
I0219 12:22:59.830127  3815 net.cpp:100] Creating Layer conv6_2_relu
I0219 12:22:59.830140  3815 net.cpp:434] conv6_2_relu <- conv6_2
I0219 12:22:59.830152  3815 net.cpp:395] conv6_2_relu -> conv6_2 (in-place)
I0219 12:22:59.830420  3815 net.cpp:150] Setting up conv6_2_relu
I0219 12:22:59.830436  3815 net.cpp:157] Top shape: 32 512 10 10 (1638400)
I0219 12:22:59.830442  3815 net.cpp:165] Memory required for data: 7583678560
I0219 12:22:59.830451  3815 layer_factory.hpp:77] Creating layer conv6_2_conv6_2_relu_0_split
I0219 12:22:59.830469  3815 net.cpp:100] Creating Layer conv6_2_conv6_2_relu_0_split
I0219 12:22:59.830478  3815 net.cpp:434] conv6_2_conv6_2_relu_0_split <- conv6_2
I0219 12:22:59.830489  3815 net.cpp:408] conv6_2_conv6_2_relu_0_split -> conv6_2_conv6_2_relu_0_split_0
I0219 12:22:59.830505  3815 net.cpp:408] conv6_2_conv6_2_relu_0_split -> conv6_2_conv6_2_relu_0_split_1
I0219 12:22:59.830518  3815 net.cpp:408] conv6_2_conv6_2_relu_0_split -> conv6_2_conv6_2_relu_0_split_2
I0219 12:22:59.830538  3815 net.cpp:408] conv6_2_conv6_2_relu_0_split -> conv6_2_conv6_2_relu_0_split_3
I0219 12:22:59.830667  3815 net.cpp:150] Setting up conv6_2_conv6_2_relu_0_split
I0219 12:22:59.830682  3815 net.cpp:157] Top shape: 32 512 10 10 (1638400)
I0219 12:22:59.830691  3815 net.cpp:157] Top shape: 32 512 10 10 (1638400)
I0219 12:22:59.830700  3815 net.cpp:157] Top shape: 32 512 10 10 (1638400)
I0219 12:22:59.830709  3815 net.cpp:157] Top shape: 32 512 10 10 (1638400)
I0219 12:22:59.830716  3815 net.cpp:165] Memory required for data: 7609892960
I0219 12:22:59.830724  3815 layer_factory.hpp:77] Creating layer conv7_1
I0219 12:22:59.830744  3815 net.cpp:100] Creating Layer conv7_1
I0219 12:22:59.830752  3815 net.cpp:434] conv7_1 <- conv6_2_conv6_2_relu_0_split_0
I0219 12:22:59.830767  3815 net.cpp:408] conv7_1 -> conv7_1
I0219 12:22:59.832962  3815 net.cpp:150] Setting up conv7_1
I0219 12:22:59.832989  3815 net.cpp:157] Top shape: 32 128 10 10 (409600)
I0219 12:22:59.832996  3815 net.cpp:165] Memory required for data: 7611531360
I0219 12:22:59.833008  3815 layer_factory.hpp:77] Creating layer conv7_1_relu
I0219 12:22:59.833019  3815 net.cpp:100] Creating Layer conv7_1_relu
I0219 12:22:59.833036  3815 net.cpp:434] conv7_1_relu <- conv7_1
I0219 12:22:59.833050  3815 net.cpp:395] conv7_1_relu -> conv7_1 (in-place)
I0219 12:22:59.833468  3815 net.cpp:150] Setting up conv7_1_relu
I0219 12:22:59.833499  3815 net.cpp:157] Top shape: 32 128 10 10 (409600)
I0219 12:22:59.833508  3815 net.cpp:165] Memory required for data: 7613169760
I0219 12:22:59.833514  3815 layer_factory.hpp:77] Creating layer conv7_2
I0219 12:22:59.833531  3815 net.cpp:100] Creating Layer conv7_2
I0219 12:22:59.833539  3815 net.cpp:434] conv7_2 <- conv7_1
I0219 12:22:59.833551  3815 net.cpp:408] conv7_2 -> conv7_2
I0219 12:22:59.840136  3815 net.cpp:150] Setting up conv7_2
I0219 12:22:59.840159  3815 net.cpp:157] Top shape: 32 256 5 5 (204800)
I0219 12:22:59.840169  3815 net.cpp:165] Memory required for data: 7613988960
I0219 12:22:59.840180  3815 layer_factory.hpp:77] Creating layer conv7_2_relu
I0219 12:22:59.840212  3815 net.cpp:100] Creating Layer conv7_2_relu
I0219 12:22:59.840220  3815 net.cpp:434] conv7_2_relu <- conv7_2
I0219 12:22:59.840232  3815 net.cpp:395] conv7_2_relu -> conv7_2 (in-place)
I0219 12:22:59.840674  3815 net.cpp:150] Setting up conv7_2_relu
I0219 12:22:59.840695  3815 net.cpp:157] Top shape: 32 256 5 5 (204800)
I0219 12:22:59.840705  3815 net.cpp:165] Memory required for data: 7614808160
I0219 12:22:59.840713  3815 layer_factory.hpp:77] Creating layer conv7_2_conv7_2_relu_0_split
I0219 12:22:59.840723  3815 net.cpp:100] Creating Layer conv7_2_conv7_2_relu_0_split
I0219 12:22:59.840730  3815 net.cpp:434] conv7_2_conv7_2_relu_0_split <- conv7_2
I0219 12:22:59.840741  3815 net.cpp:408] conv7_2_conv7_2_relu_0_split -> conv7_2_conv7_2_relu_0_split_0
I0219 12:22:59.840754  3815 net.cpp:408] conv7_2_conv7_2_relu_0_split -> conv7_2_conv7_2_relu_0_split_1
I0219 12:22:59.840767  3815 net.cpp:408] conv7_2_conv7_2_relu_0_split -> conv7_2_conv7_2_relu_0_split_2
I0219 12:22:59.840780  3815 net.cpp:408] conv7_2_conv7_2_relu_0_split -> conv7_2_conv7_2_relu_0_split_3
I0219 12:22:59.840895  3815 net.cpp:150] Setting up conv7_2_conv7_2_relu_0_split
I0219 12:22:59.840911  3815 net.cpp:157] Top shape: 32 256 5 5 (204800)
I0219 12:22:59.840921  3815 net.cpp:157] Top shape: 32 256 5 5 (204800)
I0219 12:22:59.840929  3815 net.cpp:157] Top shape: 32 256 5 5 (204800)
I0219 12:22:59.840939  3815 net.cpp:157] Top shape: 32 256 5 5 (204800)
I0219 12:22:59.840945  3815 net.cpp:165] Memory required for data: 7618084960
I0219 12:22:59.840953  3815 layer_factory.hpp:77] Creating layer conv8_1
I0219 12:22:59.840970  3815 net.cpp:100] Creating Layer conv8_1
I0219 12:22:59.840979  3815 net.cpp:434] conv8_1 <- conv7_2_conv7_2_relu_0_split_0
I0219 12:22:59.840992  3815 net.cpp:408] conv8_1 -> conv8_1
I0219 12:22:59.842869  3815 net.cpp:150] Setting up conv8_1
I0219 12:22:59.842890  3815 net.cpp:157] Top shape: 32 128 5 5 (102400)
I0219 12:22:59.842897  3815 net.cpp:165] Memory required for data: 7618494560
I0219 12:22:59.842908  3815 layer_factory.hpp:77] Creating layer conv8_1_relu
I0219 12:22:59.842922  3815 net.cpp:100] Creating Layer conv8_1_relu
I0219 12:22:59.842931  3815 net.cpp:434] conv8_1_relu <- conv8_1
I0219 12:22:59.842941  3815 net.cpp:395] conv8_1_relu -> conv8_1 (in-place)
I0219 12:22:59.843199  3815 net.cpp:150] Setting up conv8_1_relu
I0219 12:22:59.843216  3815 net.cpp:157] Top shape: 32 128 5 5 (102400)
I0219 12:22:59.843224  3815 net.cpp:165] Memory required for data: 7618904160
I0219 12:22:59.843231  3815 layer_factory.hpp:77] Creating layer conv8_2
I0219 12:22:59.843248  3815 net.cpp:100] Creating Layer conv8_2
I0219 12:22:59.843257  3815 net.cpp:434] conv8_2 <- conv8_1
I0219 12:22:59.843271  3815 net.cpp:408] conv8_2 -> conv8_2
I0219 12:22:59.848433  3815 net.cpp:150] Setting up conv8_2
I0219 12:22:59.848456  3815 net.cpp:157] Top shape: 32 256 3 3 (73728)
I0219 12:22:59.848464  3815 net.cpp:165] Memory required for data: 7619199072
I0219 12:22:59.848474  3815 layer_factory.hpp:77] Creating layer conv8_2_relu
I0219 12:22:59.848486  3815 net.cpp:100] Creating Layer conv8_2_relu
I0219 12:22:59.848495  3815 net.cpp:434] conv8_2_relu <- conv8_2
I0219 12:22:59.848505  3815 net.cpp:395] conv8_2_relu -> conv8_2 (in-place)
I0219 12:22:59.848923  3815 net.cpp:150] Setting up conv8_2_relu
I0219 12:22:59.848942  3815 net.cpp:157] Top shape: 32 256 3 3 (73728)
I0219 12:22:59.848948  3815 net.cpp:165] Memory required for data: 7619493984
I0219 12:22:59.848955  3815 layer_factory.hpp:77] Creating layer conv8_2_conv8_2_relu_0_split
I0219 12:22:59.848965  3815 net.cpp:100] Creating Layer conv8_2_conv8_2_relu_0_split
I0219 12:22:59.848973  3815 net.cpp:434] conv8_2_conv8_2_relu_0_split <- conv8_2
I0219 12:22:59.848986  3815 net.cpp:408] conv8_2_conv8_2_relu_0_split -> conv8_2_conv8_2_relu_0_split_0
I0219 12:22:59.849001  3815 net.cpp:408] conv8_2_conv8_2_relu_0_split -> conv8_2_conv8_2_relu_0_split_1
I0219 12:22:59.849014  3815 net.cpp:408] conv8_2_conv8_2_relu_0_split -> conv8_2_conv8_2_relu_0_split_2
I0219 12:22:59.849040  3815 net.cpp:408] conv8_2_conv8_2_relu_0_split -> conv8_2_conv8_2_relu_0_split_3
I0219 12:22:59.849162  3815 net.cpp:150] Setting up conv8_2_conv8_2_relu_0_split
I0219 12:22:59.849179  3815 net.cpp:157] Top shape: 32 256 3 3 (73728)
I0219 12:22:59.849189  3815 net.cpp:157] Top shape: 32 256 3 3 (73728)
I0219 12:22:59.849196  3815 net.cpp:157] Top shape: 32 256 3 3 (73728)
I0219 12:22:59.849203  3815 net.cpp:157] Top shape: 32 256 3 3 (73728)
I0219 12:22:59.849210  3815 net.cpp:165] Memory required for data: 7620673632
I0219 12:22:59.849215  3815 layer_factory.hpp:77] Creating layer conv9_1
I0219 12:22:59.849233  3815 net.cpp:100] Creating Layer conv9_1
I0219 12:22:59.849242  3815 net.cpp:434] conv9_1 <- conv8_2_conv8_2_relu_0_split_0
I0219 12:22:59.849258  3815 net.cpp:408] conv9_1 -> conv9_1
I0219 12:22:59.850956  3815 net.cpp:150] Setting up conv9_1
I0219 12:22:59.850977  3815 net.cpp:157] Top shape: 32 128 3 3 (36864)
I0219 12:22:59.850985  3815 net.cpp:165] Memory required for data: 7620821088
I0219 12:22:59.850996  3815 layer_factory.hpp:77] Creating layer conv9_1_relu
I0219 12:22:59.851006  3815 net.cpp:100] Creating Layer conv9_1_relu
I0219 12:22:59.851012  3815 net.cpp:434] conv9_1_relu <- conv9_1
I0219 12:22:59.851021  3815 net.cpp:395] conv9_1_relu -> conv9_1 (in-place)
I0219 12:22:59.851440  3815 net.cpp:150] Setting up conv9_1_relu
I0219 12:22:59.851459  3815 net.cpp:157] Top shape: 32 128 3 3 (36864)
I0219 12:22:59.851466  3815 net.cpp:165] Memory required for data: 7620968544
I0219 12:22:59.851472  3815 layer_factory.hpp:77] Creating layer conv9_2
I0219 12:22:59.851490  3815 net.cpp:100] Creating Layer conv9_2
I0219 12:22:59.851500  3815 net.cpp:434] conv9_2 <- conv9_1
I0219 12:22:59.851512  3815 net.cpp:408] conv9_2 -> conv9_2
I0219 12:22:59.855829  3815 net.cpp:150] Setting up conv9_2
I0219 12:22:59.855847  3815 net.cpp:157] Top shape: 32 256 1 1 (8192)
I0219 12:22:59.855851  3815 net.cpp:165] Memory required for data: 7621001312
I0219 12:22:59.855859  3815 layer_factory.hpp:77] Creating layer conv9_2_relu
I0219 12:22:59.855867  3815 net.cpp:100] Creating Layer conv9_2_relu
I0219 12:22:59.855872  3815 net.cpp:434] conv9_2_relu <- conv9_2
I0219 12:22:59.855880  3815 net.cpp:395] conv9_2_relu -> conv9_2 (in-place)
I0219 12:22:59.856065  3815 net.cpp:150] Setting up conv9_2_relu
I0219 12:22:59.856077  3815 net.cpp:157] Top shape: 32 256 1 1 (8192)
I0219 12:22:59.856081  3815 net.cpp:165] Memory required for data: 7621034080
I0219 12:22:59.856086  3815 layer_factory.hpp:77] Creating layer conv9_2_conv9_2_relu_0_split
I0219 12:22:59.856094  3815 net.cpp:100] Creating Layer conv9_2_conv9_2_relu_0_split
I0219 12:22:59.856098  3815 net.cpp:434] conv9_2_conv9_2_relu_0_split <- conv9_2
I0219 12:22:59.856104  3815 net.cpp:408] conv9_2_conv9_2_relu_0_split -> conv9_2_conv9_2_relu_0_split_0
I0219 12:22:59.856112  3815 net.cpp:408] conv9_2_conv9_2_relu_0_split -> conv9_2_conv9_2_relu_0_split_1
I0219 12:22:59.856122  3815 net.cpp:408] conv9_2_conv9_2_relu_0_split -> conv9_2_conv9_2_relu_0_split_2
I0219 12:22:59.856199  3815 net.cpp:150] Setting up conv9_2_conv9_2_relu_0_split
I0219 12:22:59.856211  3815 net.cpp:157] Top shape: 32 256 1 1 (8192)
I0219 12:22:59.856220  3815 net.cpp:157] Top shape: 32 256 1 1 (8192)
I0219 12:22:59.856230  3815 net.cpp:157] Top shape: 32 256 1 1 (8192)
I0219 12:22:59.856235  3815 net.cpp:165] Memory required for data: 7621132384
I0219 12:22:59.856238  3815 layer_factory.hpp:77] Creating layer conv4_3_norm
I0219 12:22:59.856248  3815 net.cpp:100] Creating Layer conv4_3_norm
I0219 12:22:59.856254  3815 net.cpp:434] conv4_3_norm <- conv4_3_relu4_3_0_split_1
I0219 12:22:59.856261  3815 net.cpp:408] conv4_3_norm -> conv4_3_norm
I0219 12:22:59.856451  3815 net.cpp:150] Setting up conv4_3_norm
I0219 12:22:59.856462  3815 net.cpp:157] Top shape: 32 512 38 38 (23658496)
I0219 12:22:59.856465  3815 net.cpp:165] Memory required for data: 7715766368
I0219 12:22:59.856472  3815 layer_factory.hpp:77] Creating layer conv4_3_norm_conv4_3_norm_0_split
I0219 12:22:59.856489  3815 net.cpp:100] Creating Layer conv4_3_norm_conv4_3_norm_0_split
I0219 12:22:59.856494  3815 net.cpp:434] conv4_3_norm_conv4_3_norm_0_split <- conv4_3_norm
I0219 12:22:59.856501  3815 net.cpp:408] conv4_3_norm_conv4_3_norm_0_split -> conv4_3_norm_conv4_3_norm_0_split_0
I0219 12:22:59.856513  3815 net.cpp:408] conv4_3_norm_conv4_3_norm_0_split -> conv4_3_norm_conv4_3_norm_0_split_1
I0219 12:22:59.856523  3815 net.cpp:408] conv4_3_norm_conv4_3_norm_0_split -> conv4_3_norm_conv4_3_norm_0_split_2
I0219 12:22:59.856583  3815 net.cpp:150] Setting up conv4_3_norm_conv4_3_norm_0_split
I0219 12:22:59.856593  3815 net.cpp:157] Top shape: 32 512 38 38 (23658496)
I0219 12:22:59.856597  3815 net.cpp:157] Top shape: 32 512 38 38 (23658496)
I0219 12:22:59.856603  3815 net.cpp:157] Top shape: 32 512 38 38 (23658496)
I0219 12:22:59.856606  3815 net.cpp:165] Memory required for data: 7999668320
I0219 12:22:59.856611  3815 layer_factory.hpp:77] Creating layer conv4_3_norm_mbox_loc
I0219 12:22:59.856621  3815 net.cpp:100] Creating Layer conv4_3_norm_mbox_loc
I0219 12:22:59.856626  3815 net.cpp:434] conv4_3_norm_mbox_loc <- conv4_3_norm_conv4_3_norm_0_split_0
I0219 12:22:59.856633  3815 net.cpp:408] conv4_3_norm_mbox_loc -> conv4_3_norm_mbox_loc
I0219 12:22:59.858430  3815 net.cpp:150] Setting up conv4_3_norm_mbox_loc
I0219 12:22:59.858446  3815 net.cpp:157] Top shape: 32 16 38 38 (739328)
I0219 12:22:59.858451  3815 net.cpp:165] Memory required for data: 8002625632
I0219 12:22:59.858458  3815 layer_factory.hpp:77] Creating layer conv4_3_norm_mbox_loc_perm
I0219 12:22:59.897629  3815 net.cpp:100] Creating Layer conv4_3_norm_mbox_loc_perm
I0219 12:22:59.897672  3815 net.cpp:434] conv4_3_norm_mbox_loc_perm <- conv4_3_norm_mbox_loc
I0219 12:22:59.897688  3815 net.cpp:408] conv4_3_norm_mbox_loc_perm -> conv4_3_norm_mbox_loc_perm
I0219 12:22:59.897950  3815 net.cpp:150] Setting up conv4_3_norm_mbox_loc_perm
I0219 12:22:59.897967  3815 net.cpp:157] Top shape: 32 38 38 16 (739328)
I0219 12:22:59.897974  3815 net.cpp:165] Memory required for data: 8005582944
I0219 12:22:59.897981  3815 layer_factory.hpp:77] Creating layer conv4_3_norm_mbox_loc_flat
I0219 12:22:59.897997  3815 net.cpp:100] Creating Layer conv4_3_norm_mbox_loc_flat
I0219 12:22:59.898005  3815 net.cpp:434] conv4_3_norm_mbox_loc_flat <- conv4_3_norm_mbox_loc_perm
I0219 12:22:59.898015  3815 net.cpp:408] conv4_3_norm_mbox_loc_flat -> conv4_3_norm_mbox_loc_flat
I0219 12:22:59.898068  3815 net.cpp:150] Setting up conv4_3_norm_mbox_loc_flat
I0219 12:22:59.898082  3815 net.cpp:157] Top shape: 32 23104 (739328)
I0219 12:22:59.898087  3815 net.cpp:165] Memory required for data: 8008540256
I0219 12:22:59.898092  3815 layer_factory.hpp:77] Creating layer conv4_3_norm_mbox_conf
I0219 12:22:59.898123  3815 net.cpp:100] Creating Layer conv4_3_norm_mbox_conf
I0219 12:22:59.898133  3815 net.cpp:434] conv4_3_norm_mbox_conf <- conv4_3_norm_conv4_3_norm_0_split_1
I0219 12:22:59.898142  3815 net.cpp:408] conv4_3_norm_mbox_conf -> conv4_3_norm_mbox_conf
I0219 12:22:59.904649  3815 net.cpp:150] Setting up conv4_3_norm_mbox_conf
I0219 12:22:59.904671  3815 net.cpp:157] Top shape: 32 88 38 38 (4066304)
I0219 12:22:59.904678  3815 net.cpp:165] Memory required for data: 8024805472
I0219 12:22:59.904692  3815 layer_factory.hpp:77] Creating layer conv4_3_norm_mbox_conf_perm
I0219 12:22:59.904706  3815 net.cpp:100] Creating Layer conv4_3_norm_mbox_conf_perm
I0219 12:22:59.904712  3815 net.cpp:434] conv4_3_norm_mbox_conf_perm <- conv4_3_norm_mbox_conf
I0219 12:22:59.904721  3815 net.cpp:408] conv4_3_norm_mbox_conf_perm -> conv4_3_norm_mbox_conf_perm
I0219 12:22:59.904881  3815 net.cpp:150] Setting up conv4_3_norm_mbox_conf_perm
I0219 12:22:59.904896  3815 net.cpp:157] Top shape: 32 38 38 88 (4066304)
I0219 12:22:59.904901  3815 net.cpp:165] Memory required for data: 8041070688
I0219 12:22:59.904908  3815 layer_factory.hpp:77] Creating layer conv4_3_norm_mbox_conf_flat
I0219 12:22:59.904917  3815 net.cpp:100] Creating Layer conv4_3_norm_mbox_conf_flat
I0219 12:22:59.904927  3815 net.cpp:434] conv4_3_norm_mbox_conf_flat <- conv4_3_norm_mbox_conf_perm
I0219 12:22:59.904959  3815 net.cpp:408] conv4_3_norm_mbox_conf_flat -> conv4_3_norm_mbox_conf_flat
I0219 12:22:59.904999  3815 net.cpp:150] Setting up conv4_3_norm_mbox_conf_flat
I0219 12:22:59.905014  3815 net.cpp:157] Top shape: 32 127072 (4066304)
I0219 12:22:59.905021  3815 net.cpp:165] Memory required for data: 8057335904
I0219 12:22:59.905027  3815 layer_factory.hpp:77] Creating layer conv4_3_norm_mbox_priorbox
I0219 12:22:59.905043  3815 net.cpp:100] Creating Layer conv4_3_norm_mbox_priorbox
I0219 12:22:59.905050  3815 net.cpp:434] conv4_3_norm_mbox_priorbox <- conv4_3_norm_conv4_3_norm_0_split_2
I0219 12:22:59.905058  3815 net.cpp:434] conv4_3_norm_mbox_priorbox <- data_data_0_split_1
I0219 12:22:59.905069  3815 net.cpp:408] conv4_3_norm_mbox_priorbox -> conv4_3_norm_mbox_priorbox
I0219 12:22:59.905122  3815 net.cpp:150] Setting up conv4_3_norm_mbox_priorbox
I0219 12:22:59.905135  3815 net.cpp:157] Top shape: 1 2 23104 (46208)
I0219 12:22:59.905143  3815 net.cpp:165] Memory required for data: 8057520736
I0219 12:22:59.905150  3815 layer_factory.hpp:77] Creating layer fc7_mbox_loc
I0219 12:22:59.905166  3815 net.cpp:100] Creating Layer fc7_mbox_loc
I0219 12:22:59.905174  3815 net.cpp:434] fc7_mbox_loc <- fc7_relu7_0_split_1
I0219 12:22:59.905189  3815 net.cpp:408] fc7_mbox_loc -> fc7_mbox_loc
I0219 12:22:59.909469  3815 net.cpp:150] Setting up fc7_mbox_loc
I0219 12:22:59.909492  3815 net.cpp:157] Top shape: 32 24 19 19 (277248)
I0219 12:22:59.909498  3815 net.cpp:165] Memory required for data: 8058629728
I0219 12:22:59.909512  3815 layer_factory.hpp:77] Creating layer fc7_mbox_loc_perm
I0219 12:22:59.909524  3815 net.cpp:100] Creating Layer fc7_mbox_loc_perm
I0219 12:22:59.909534  3815 net.cpp:434] fc7_mbox_loc_perm <- fc7_mbox_loc
I0219 12:22:59.909545  3815 net.cpp:408] fc7_mbox_loc_perm -> fc7_mbox_loc_perm
I0219 12:22:59.909713  3815 net.cpp:150] Setting up fc7_mbox_loc_perm
I0219 12:22:59.909726  3815 net.cpp:157] Top shape: 32 19 19 24 (277248)
I0219 12:22:59.909734  3815 net.cpp:165] Memory required for data: 8059738720
I0219 12:22:59.909739  3815 layer_factory.hpp:77] Creating layer fc7_mbox_loc_flat
I0219 12:22:59.909749  3815 net.cpp:100] Creating Layer fc7_mbox_loc_flat
I0219 12:22:59.909756  3815 net.cpp:434] fc7_mbox_loc_flat <- fc7_mbox_loc_perm
I0219 12:22:59.909765  3815 net.cpp:408] fc7_mbox_loc_flat -> fc7_mbox_loc_flat
I0219 12:22:59.909806  3815 net.cpp:150] Setting up fc7_mbox_loc_flat
I0219 12:22:59.909817  3815 net.cpp:157] Top shape: 32 8664 (277248)
I0219 12:22:59.909822  3815 net.cpp:165] Memory required for data: 8060847712
I0219 12:22:59.909827  3815 layer_factory.hpp:77] Creating layer fc7_mbox_conf
I0219 12:22:59.909842  3815 net.cpp:100] Creating Layer fc7_mbox_conf
I0219 12:22:59.909850  3815 net.cpp:434] fc7_mbox_conf <- fc7_relu7_0_split_2
I0219 12:22:59.909863  3815 net.cpp:408] fc7_mbox_conf -> fc7_mbox_conf
I0219 12:22:59.925222  3815 net.cpp:150] Setting up fc7_mbox_conf
I0219 12:22:59.925258  3815 net.cpp:157] Top shape: 32 132 19 19 (1524864)
I0219 12:22:59.925266  3815 net.cpp:165] Memory required for data: 8066947168
I0219 12:22:59.925279  3815 layer_factory.hpp:77] Creating layer fc7_mbox_conf_perm
I0219 12:22:59.925300  3815 net.cpp:100] Creating Layer fc7_mbox_conf_perm
I0219 12:22:59.925312  3815 net.cpp:434] fc7_mbox_conf_perm <- fc7_mbox_conf
I0219 12:22:59.925325  3815 net.cpp:408] fc7_mbox_conf_perm -> fc7_mbox_conf_perm
I0219 12:22:59.925495  3815 net.cpp:150] Setting up fc7_mbox_conf_perm
I0219 12:22:59.925509  3815 net.cpp:157] Top shape: 32 19 19 132 (1524864)
I0219 12:22:59.925515  3815 net.cpp:165] Memory required for data: 8073046624
I0219 12:22:59.925523  3815 layer_factory.hpp:77] Creating layer fc7_mbox_conf_flat
I0219 12:22:59.925537  3815 net.cpp:100] Creating Layer fc7_mbox_conf_flat
I0219 12:22:59.925544  3815 net.cpp:434] fc7_mbox_conf_flat <- fc7_mbox_conf_perm
I0219 12:22:59.925552  3815 net.cpp:408] fc7_mbox_conf_flat -> fc7_mbox_conf_flat
I0219 12:22:59.925593  3815 net.cpp:150] Setting up fc7_mbox_conf_flat
I0219 12:22:59.925624  3815 net.cpp:157] Top shape: 32 47652 (1524864)
I0219 12:22:59.925631  3815 net.cpp:165] Memory required for data: 8079146080
I0219 12:22:59.925637  3815 layer_factory.hpp:77] Creating layer fc7_mbox_priorbox
I0219 12:22:59.925649  3815 net.cpp:100] Creating Layer fc7_mbox_priorbox
I0219 12:22:59.925657  3815 net.cpp:434] fc7_mbox_priorbox <- fc7_relu7_0_split_3
I0219 12:22:59.925664  3815 net.cpp:434] fc7_mbox_priorbox <- data_data_0_split_2
I0219 12:22:59.925678  3815 net.cpp:408] fc7_mbox_priorbox -> fc7_mbox_priorbox
I0219 12:22:59.925729  3815 net.cpp:150] Setting up fc7_mbox_priorbox
I0219 12:22:59.925741  3815 net.cpp:157] Top shape: 1 2 8664 (17328)
I0219 12:22:59.925747  3815 net.cpp:165] Memory required for data: 8079215392
I0219 12:22:59.925756  3815 layer_factory.hpp:77] Creating layer conv6_2_mbox_loc
I0219 12:22:59.925773  3815 net.cpp:100] Creating Layer conv6_2_mbox_loc
I0219 12:22:59.925789  3815 net.cpp:434] conv6_2_mbox_loc <- conv6_2_conv6_2_relu_0_split_1
I0219 12:22:59.925802  3815 net.cpp:408] conv6_2_mbox_loc -> conv6_2_mbox_loc
I0219 12:22:59.929103  3815 net.cpp:150] Setting up conv6_2_mbox_loc
I0219 12:22:59.929126  3815 net.cpp:157] Top shape: 32 24 10 10 (76800)
I0219 12:22:59.929133  3815 net.cpp:165] Memory required for data: 8079522592
I0219 12:22:59.929147  3815 layer_factory.hpp:77] Creating layer conv6_2_mbox_loc_perm
I0219 12:22:59.929160  3815 net.cpp:100] Creating Layer conv6_2_mbox_loc_perm
I0219 12:22:59.929167  3815 net.cpp:434] conv6_2_mbox_loc_perm <- conv6_2_mbox_loc
I0219 12:22:59.929179  3815 net.cpp:408] conv6_2_mbox_loc_perm -> conv6_2_mbox_loc_perm
I0219 12:22:59.929352  3815 net.cpp:150] Setting up conv6_2_mbox_loc_perm
I0219 12:22:59.929366  3815 net.cpp:157] Top shape: 32 10 10 24 (76800)
I0219 12:22:59.929373  3815 net.cpp:165] Memory required for data: 8079829792
I0219 12:22:59.929378  3815 layer_factory.hpp:77] Creating layer conv6_2_mbox_loc_flat
I0219 12:22:59.929388  3815 net.cpp:100] Creating Layer conv6_2_mbox_loc_flat
I0219 12:22:59.929399  3815 net.cpp:434] conv6_2_mbox_loc_flat <- conv6_2_mbox_loc_perm
I0219 12:22:59.929406  3815 net.cpp:408] conv6_2_mbox_loc_flat -> conv6_2_mbox_loc_flat
I0219 12:22:59.929450  3815 net.cpp:150] Setting up conv6_2_mbox_loc_flat
I0219 12:22:59.929461  3815 net.cpp:157] Top shape: 32 2400 (76800)
I0219 12:22:59.929468  3815 net.cpp:165] Memory required for data: 8080136992
I0219 12:22:59.929474  3815 layer_factory.hpp:77] Creating layer conv6_2_mbox_conf
I0219 12:22:59.929488  3815 net.cpp:100] Creating Layer conv6_2_mbox_conf
I0219 12:22:59.929497  3815 net.cpp:434] conv6_2_mbox_conf <- conv6_2_conv6_2_relu_0_split_2
I0219 12:22:59.929508  3815 net.cpp:408] conv6_2_mbox_conf -> conv6_2_mbox_conf
I0219 12:22:59.938315  3815 net.cpp:150] Setting up conv6_2_mbox_conf
I0219 12:22:59.938340  3815 net.cpp:157] Top shape: 32 132 10 10 (422400)
I0219 12:22:59.938347  3815 net.cpp:165] Memory required for data: 8081826592
I0219 12:22:59.938372  3815 layer_factory.hpp:77] Creating layer conv6_2_mbox_conf_perm
I0219 12:22:59.938386  3815 net.cpp:100] Creating Layer conv6_2_mbox_conf_perm
I0219 12:22:59.938396  3815 net.cpp:434] conv6_2_mbox_conf_perm <- conv6_2_mbox_conf
I0219 12:22:59.938408  3815 net.cpp:408] conv6_2_mbox_conf_perm -> conv6_2_mbox_conf_perm
I0219 12:22:59.938588  3815 net.cpp:150] Setting up conv6_2_mbox_conf_perm
I0219 12:22:59.938607  3815 net.cpp:157] Top shape: 32 10 10 132 (422400)
I0219 12:22:59.938614  3815 net.cpp:165] Memory required for data: 8083516192
I0219 12:22:59.938621  3815 layer_factory.hpp:77] Creating layer conv6_2_mbox_conf_flat
I0219 12:22:59.938630  3815 net.cpp:100] Creating Layer conv6_2_mbox_conf_flat
I0219 12:22:59.938638  3815 net.cpp:434] conv6_2_mbox_conf_flat <- conv6_2_mbox_conf_perm
I0219 12:22:59.938647  3815 net.cpp:408] conv6_2_mbox_conf_flat -> conv6_2_mbox_conf_flat
I0219 12:22:59.938690  3815 net.cpp:150] Setting up conv6_2_mbox_conf_flat
I0219 12:22:59.938701  3815 net.cpp:157] Top shape: 32 13200 (422400)
I0219 12:22:59.938709  3815 net.cpp:165] Memory required for data: 8085205792
I0219 12:22:59.938730  3815 layer_factory.hpp:77] Creating layer conv6_2_mbox_priorbox
I0219 12:22:59.938742  3815 net.cpp:100] Creating Layer conv6_2_mbox_priorbox
I0219 12:22:59.938751  3815 net.cpp:434] conv6_2_mbox_priorbox <- conv6_2_conv6_2_relu_0_split_3
I0219 12:22:59.938760  3815 net.cpp:434] conv6_2_mbox_priorbox <- data_data_0_split_3
I0219 12:22:59.938771  3815 net.cpp:408] conv6_2_mbox_priorbox -> conv6_2_mbox_priorbox
I0219 12:22:59.938818  3815 net.cpp:150] Setting up conv6_2_mbox_priorbox
I0219 12:22:59.938832  3815 net.cpp:157] Top shape: 1 2 2400 (4800)
I0219 12:22:59.938838  3815 net.cpp:165] Memory required for data: 8085224992
I0219 12:22:59.938844  3815 layer_factory.hpp:77] Creating layer conv7_2_mbox_loc
I0219 12:22:59.938860  3815 net.cpp:100] Creating Layer conv7_2_mbox_loc
I0219 12:22:59.938869  3815 net.cpp:434] conv7_2_mbox_loc <- conv7_2_conv7_2_relu_0_split_1
I0219 12:22:59.938885  3815 net.cpp:408] conv7_2_mbox_loc -> conv7_2_mbox_loc
I0219 12:22:59.941606  3815 net.cpp:150] Setting up conv7_2_mbox_loc
I0219 12:22:59.941628  3815 net.cpp:157] Top shape: 32 24 5 5 (19200)
I0219 12:22:59.941637  3815 net.cpp:165] Memory required for data: 8085301792
I0219 12:22:59.941648  3815 layer_factory.hpp:77] Creating layer conv7_2_mbox_loc_perm
I0219 12:22:59.941661  3815 net.cpp:100] Creating Layer conv7_2_mbox_loc_perm
I0219 12:22:59.941670  3815 net.cpp:434] conv7_2_mbox_loc_perm <- conv7_2_mbox_loc
I0219 12:22:59.941680  3815 net.cpp:408] conv7_2_mbox_loc_perm -> conv7_2_mbox_loc_perm
I0219 12:22:59.941854  3815 net.cpp:150] Setting up conv7_2_mbox_loc_perm
I0219 12:22:59.941866  3815 net.cpp:157] Top shape: 32 5 5 24 (19200)
I0219 12:22:59.941871  3815 net.cpp:165] Memory required for data: 8085378592
I0219 12:22:59.941877  3815 layer_factory.hpp:77] Creating layer conv7_2_mbox_loc_flat
I0219 12:22:59.941887  3815 net.cpp:100] Creating Layer conv7_2_mbox_loc_flat
I0219 12:22:59.941895  3815 net.cpp:434] conv7_2_mbox_loc_flat <- conv7_2_mbox_loc_perm
I0219 12:22:59.941905  3815 net.cpp:408] conv7_2_mbox_loc_flat -> conv7_2_mbox_loc_flat
I0219 12:22:59.941946  3815 net.cpp:150] Setting up conv7_2_mbox_loc_flat
I0219 12:22:59.941959  3815 net.cpp:157] Top shape: 32 600 (19200)
I0219 12:22:59.941967  3815 net.cpp:165] Memory required for data: 8085455392
I0219 12:22:59.941972  3815 layer_factory.hpp:77] Creating layer conv7_2_mbox_conf
I0219 12:22:59.941987  3815 net.cpp:100] Creating Layer conv7_2_mbox_conf
I0219 12:22:59.941995  3815 net.cpp:434] conv7_2_mbox_conf <- conv7_2_conv7_2_relu_0_split_2
I0219 12:22:59.942005  3815 net.cpp:408] conv7_2_mbox_conf -> conv7_2_mbox_conf
I0219 12:22:59.947335  3815 net.cpp:150] Setting up conv7_2_mbox_conf
I0219 12:22:59.947357  3815 net.cpp:157] Top shape: 32 132 5 5 (105600)
I0219 12:22:59.947366  3815 net.cpp:165] Memory required for data: 8085877792
I0219 12:22:59.947377  3815 layer_factory.hpp:77] Creating layer conv7_2_mbox_conf_perm
I0219 12:22:59.947389  3815 net.cpp:100] Creating Layer conv7_2_mbox_conf_perm
I0219 12:22:59.947401  3815 net.cpp:434] conv7_2_mbox_conf_perm <- conv7_2_mbox_conf
I0219 12:22:59.947412  3815 net.cpp:408] conv7_2_mbox_conf_perm -> conv7_2_mbox_conf_perm
I0219 12:22:59.947585  3815 net.cpp:150] Setting up conv7_2_mbox_conf_perm
I0219 12:22:59.947598  3815 net.cpp:157] Top shape: 32 5 5 132 (105600)
I0219 12:22:59.947603  3815 net.cpp:165] Memory required for data: 8086300192
I0219 12:22:59.947609  3815 layer_factory.hpp:77] Creating layer conv7_2_mbox_conf_flat
I0219 12:22:59.947618  3815 net.cpp:100] Creating Layer conv7_2_mbox_conf_flat
I0219 12:22:59.947626  3815 net.cpp:434] conv7_2_mbox_conf_flat <- conv7_2_mbox_conf_perm
I0219 12:22:59.947635  3815 net.cpp:408] conv7_2_mbox_conf_flat -> conv7_2_mbox_conf_flat
I0219 12:22:59.947682  3815 net.cpp:150] Setting up conv7_2_mbox_conf_flat
I0219 12:22:59.947693  3815 net.cpp:157] Top shape: 32 3300 (105600)
I0219 12:22:59.947702  3815 net.cpp:165] Memory required for data: 8086722592
I0219 12:22:59.947708  3815 layer_factory.hpp:77] Creating layer conv7_2_mbox_priorbox
I0219 12:22:59.947736  3815 net.cpp:100] Creating Layer conv7_2_mbox_priorbox
I0219 12:22:59.947744  3815 net.cpp:434] conv7_2_mbox_priorbox <- conv7_2_conv7_2_relu_0_split_3
I0219 12:22:59.947760  3815 net.cpp:434] conv7_2_mbox_priorbox <- data_data_0_split_4
I0219 12:22:59.947772  3815 net.cpp:408] conv7_2_mbox_priorbox -> conv7_2_mbox_priorbox
I0219 12:22:59.947818  3815 net.cpp:150] Setting up conv7_2_mbox_priorbox
I0219 12:22:59.947830  3815 net.cpp:157] Top shape: 1 2 600 (1200)
I0219 12:22:59.947837  3815 net.cpp:165] Memory required for data: 8086727392
I0219 12:22:59.947842  3815 layer_factory.hpp:77] Creating layer conv8_2_mbox_loc
I0219 12:22:59.947857  3815 net.cpp:100] Creating Layer conv8_2_mbox_loc
I0219 12:22:59.947865  3815 net.cpp:434] conv8_2_mbox_loc <- conv8_2_conv8_2_relu_0_split_1
I0219 12:22:59.947877  3815 net.cpp:408] conv8_2_mbox_loc -> conv8_2_mbox_loc
I0219 12:22:59.949712  3815 net.cpp:150] Setting up conv8_2_mbox_loc
I0219 12:22:59.949733  3815 net.cpp:157] Top shape: 32 16 3 3 (4608)
I0219 12:22:59.949743  3815 net.cpp:165] Memory required for data: 8086745824
I0219 12:22:59.949786  3815 layer_factory.hpp:77] Creating layer conv8_2_mbox_loc_perm
I0219 12:22:59.949800  3815 net.cpp:100] Creating Layer conv8_2_mbox_loc_perm
I0219 12:22:59.949808  3815 net.cpp:434] conv8_2_mbox_loc_perm <- conv8_2_mbox_loc
I0219 12:22:59.949817  3815 net.cpp:408] conv8_2_mbox_loc_perm -> conv8_2_mbox_loc_perm
I0219 12:22:59.949998  3815 net.cpp:150] Setting up conv8_2_mbox_loc_perm
I0219 12:22:59.950012  3815 net.cpp:157] Top shape: 32 3 3 16 (4608)
I0219 12:22:59.950021  3815 net.cpp:165] Memory required for data: 8086764256
I0219 12:22:59.950026  3815 layer_factory.hpp:77] Creating layer conv8_2_mbox_loc_flat
I0219 12:22:59.950037  3815 net.cpp:100] Creating Layer conv8_2_mbox_loc_flat
I0219 12:22:59.950044  3815 net.cpp:434] conv8_2_mbox_loc_flat <- conv8_2_mbox_loc_perm
I0219 12:22:59.950055  3815 net.cpp:408] conv8_2_mbox_loc_flat -> conv8_2_mbox_loc_flat
I0219 12:22:59.950098  3815 net.cpp:150] Setting up conv8_2_mbox_loc_flat
I0219 12:22:59.950110  3815 net.cpp:157] Top shape: 32 144 (4608)
I0219 12:22:59.950116  3815 net.cpp:165] Memory required for data: 8086782688
I0219 12:22:59.950122  3815 layer_factory.hpp:77] Creating layer conv8_2_mbox_conf
I0219 12:22:59.950136  3815 net.cpp:100] Creating Layer conv8_2_mbox_conf
I0219 12:22:59.950145  3815 net.cpp:434] conv8_2_mbox_conf <- conv8_2_conv8_2_relu_0_split_2
I0219 12:22:59.950156  3815 net.cpp:408] conv8_2_mbox_conf -> conv8_2_mbox_conf
I0219 12:22:59.954501  3815 net.cpp:150] Setting up conv8_2_mbox_conf
I0219 12:22:59.954532  3815 net.cpp:157] Top shape: 32 88 3 3 (25344)
I0219 12:22:59.954555  3815 net.cpp:165] Memory required for data: 8086884064
I0219 12:22:59.954567  3815 layer_factory.hpp:77] Creating layer conv8_2_mbox_conf_perm
I0219 12:22:59.954581  3815 net.cpp:100] Creating Layer conv8_2_mbox_conf_perm
I0219 12:22:59.954589  3815 net.cpp:434] conv8_2_mbox_conf_perm <- conv8_2_mbox_conf
I0219 12:22:59.954604  3815 net.cpp:408] conv8_2_mbox_conf_perm -> conv8_2_mbox_conf_perm
I0219 12:22:59.954787  3815 net.cpp:150] Setting up conv8_2_mbox_conf_perm
I0219 12:22:59.954808  3815 net.cpp:157] Top shape: 32 3 3 88 (25344)
I0219 12:22:59.954815  3815 net.cpp:165] Memory required for data: 8086985440
I0219 12:22:59.954823  3815 layer_factory.hpp:77] Creating layer conv8_2_mbox_conf_flat
I0219 12:22:59.954833  3815 net.cpp:100] Creating Layer conv8_2_mbox_conf_flat
I0219 12:22:59.954843  3815 net.cpp:434] conv8_2_mbox_conf_flat <- conv8_2_mbox_conf_perm
I0219 12:22:59.954854  3815 net.cpp:408] conv8_2_mbox_conf_flat -> conv8_2_mbox_conf_flat
I0219 12:22:59.954895  3815 net.cpp:150] Setting up conv8_2_mbox_conf_flat
I0219 12:22:59.954907  3815 net.cpp:157] Top shape: 32 792 (25344)
I0219 12:22:59.954915  3815 net.cpp:165] Memory required for data: 8087086816
I0219 12:22:59.954919  3815 layer_factory.hpp:77] Creating layer conv8_2_mbox_priorbox
I0219 12:22:59.954932  3815 net.cpp:100] Creating Layer conv8_2_mbox_priorbox
I0219 12:22:59.954958  3815 net.cpp:434] conv8_2_mbox_priorbox <- conv8_2_conv8_2_relu_0_split_3
I0219 12:22:59.954968  3815 net.cpp:434] conv8_2_mbox_priorbox <- data_data_0_split_5
I0219 12:22:59.954980  3815 net.cpp:408] conv8_2_mbox_priorbox -> conv8_2_mbox_priorbox
I0219 12:22:59.955027  3815 net.cpp:150] Setting up conv8_2_mbox_priorbox
I0219 12:22:59.955040  3815 net.cpp:157] Top shape: 1 2 144 (288)
I0219 12:22:59.955047  3815 net.cpp:165] Memory required for data: 8087087968
I0219 12:22:59.955054  3815 layer_factory.hpp:77] Creating layer conv9_2_mbox_loc
I0219 12:22:59.955070  3815 net.cpp:100] Creating Layer conv9_2_mbox_loc
I0219 12:22:59.955078  3815 net.cpp:434] conv9_2_mbox_loc <- conv9_2_conv9_2_relu_0_split_0
I0219 12:22:59.955092  3815 net.cpp:408] conv9_2_mbox_loc -> conv9_2_mbox_loc
I0219 12:22:59.957211  3815 net.cpp:150] Setting up conv9_2_mbox_loc
I0219 12:22:59.957231  3815 net.cpp:157] Top shape: 32 16 1 1 (512)
I0219 12:22:59.957239  3815 net.cpp:165] Memory required for data: 8087090016
I0219 12:22:59.957250  3815 layer_factory.hpp:77] Creating layer conv9_2_mbox_loc_perm
I0219 12:22:59.957263  3815 net.cpp:100] Creating Layer conv9_2_mbox_loc_perm
I0219 12:22:59.957273  3815 net.cpp:434] conv9_2_mbox_loc_perm <- conv9_2_mbox_loc
I0219 12:22:59.957283  3815 net.cpp:408] conv9_2_mbox_loc_perm -> conv9_2_mbox_loc_perm
I0219 12:22:59.957463  3815 net.cpp:150] Setting up conv9_2_mbox_loc_perm
I0219 12:22:59.957476  3815 net.cpp:157] Top shape: 32 1 1 16 (512)
I0219 12:22:59.957484  3815 net.cpp:165] Memory required for data: 8087092064
I0219 12:22:59.957489  3815 layer_factory.hpp:77] Creating layer conv9_2_mbox_loc_flat
I0219 12:22:59.957499  3815 net.cpp:100] Creating Layer conv9_2_mbox_loc_flat
I0219 12:22:59.957518  3815 net.cpp:434] conv9_2_mbox_loc_flat <- conv9_2_mbox_loc_perm
I0219 12:22:59.957530  3815 net.cpp:408] conv9_2_mbox_loc_flat -> conv9_2_mbox_loc_flat
I0219 12:22:59.957576  3815 net.cpp:150] Setting up conv9_2_mbox_loc_flat
I0219 12:22:59.957592  3815 net.cpp:157] Top shape: 32 16 (512)
I0219 12:22:59.957598  3815 net.cpp:165] Memory required for data: 8087094112
I0219 12:22:59.957604  3815 layer_factory.hpp:77] Creating layer conv9_2_mbox_conf
I0219 12:22:59.957623  3815 net.cpp:100] Creating Layer conv9_2_mbox_conf
I0219 12:22:59.957631  3815 net.cpp:434] conv9_2_mbox_conf <- conv9_2_conv9_2_relu_0_split_1
I0219 12:22:59.957643  3815 net.cpp:408] conv9_2_mbox_conf -> conv9_2_mbox_conf
I0219 12:22:59.961899  3815 net.cpp:150] Setting up conv9_2_mbox_conf
I0219 12:22:59.961921  3815 net.cpp:157] Top shape: 32 88 1 1 (2816)
I0219 12:22:59.961928  3815 net.cpp:165] Memory required for data: 8087105376
I0219 12:22:59.961940  3815 layer_factory.hpp:77] Creating layer conv9_2_mbox_conf_perm
I0219 12:22:59.961951  3815 net.cpp:100] Creating Layer conv9_2_mbox_conf_perm
I0219 12:22:59.961961  3815 net.cpp:434] conv9_2_mbox_conf_perm <- conv9_2_mbox_conf
I0219 12:22:59.961974  3815 net.cpp:408] conv9_2_mbox_conf_perm -> conv9_2_mbox_conf_perm
I0219 12:22:59.962155  3815 net.cpp:150] Setting up conv9_2_mbox_conf_perm
I0219 12:22:59.962168  3815 net.cpp:157] Top shape: 32 1 1 88 (2816)
I0219 12:22:59.962173  3815 net.cpp:165] Memory required for data: 8087116640
I0219 12:22:59.962179  3815 layer_factory.hpp:77] Creating layer conv9_2_mbox_conf_flat
I0219 12:22:59.962190  3815 net.cpp:100] Creating Layer conv9_2_mbox_conf_flat
I0219 12:22:59.962198  3815 net.cpp:434] conv9_2_mbox_conf_flat <- conv9_2_mbox_conf_perm
I0219 12:22:59.962206  3815 net.cpp:408] conv9_2_mbox_conf_flat -> conv9_2_mbox_conf_flat
I0219 12:22:59.962249  3815 net.cpp:150] Setting up conv9_2_mbox_conf_flat
I0219 12:22:59.962261  3815 net.cpp:157] Top shape: 32 88 (2816)
I0219 12:22:59.962268  3815 net.cpp:165] Memory required for data: 8087127904
I0219 12:22:59.962275  3815 layer_factory.hpp:77] Creating layer conv9_2_mbox_priorbox
I0219 12:22:59.962287  3815 net.cpp:100] Creating Layer conv9_2_mbox_priorbox
I0219 12:22:59.962296  3815 net.cpp:434] conv9_2_mbox_priorbox <- conv9_2_conv9_2_relu_0_split_2
I0219 12:22:59.962321  3815 net.cpp:434] conv9_2_mbox_priorbox <- data_data_0_split_6
I0219 12:22:59.962332  3815 net.cpp:408] conv9_2_mbox_priorbox -> conv9_2_mbox_priorbox
I0219 12:22:59.962380  3815 net.cpp:150] Setting up conv9_2_mbox_priorbox
I0219 12:22:59.962393  3815 net.cpp:157] Top shape: 1 2 16 (32)
I0219 12:22:59.962399  3815 net.cpp:165] Memory required for data: 8087128032
I0219 12:22:59.962405  3815 layer_factory.hpp:77] Creating layer mbox_loc
I0219 12:22:59.962424  3815 net.cpp:100] Creating Layer mbox_loc
I0219 12:22:59.962433  3815 net.cpp:434] mbox_loc <- conv4_3_norm_mbox_loc_flat
I0219 12:22:59.962445  3815 net.cpp:434] mbox_loc <- fc7_mbox_loc_flat
I0219 12:22:59.962453  3815 net.cpp:434] mbox_loc <- conv6_2_mbox_loc_flat
I0219 12:22:59.962461  3815 net.cpp:434] mbox_loc <- conv7_2_mbox_loc_flat
I0219 12:22:59.962471  3815 net.cpp:434] mbox_loc <- conv8_2_mbox_loc_flat
I0219 12:22:59.962477  3815 net.cpp:434] mbox_loc <- conv9_2_mbox_loc_flat
I0219 12:22:59.962489  3815 net.cpp:408] mbox_loc -> mbox_loc
I0219 12:22:59.962548  3815 net.cpp:150] Setting up mbox_loc
I0219 12:22:59.962563  3815 net.cpp:157] Top shape: 32 34928 (1117696)
I0219 12:22:59.962569  3815 net.cpp:165] Memory required for data: 8091598816
I0219 12:22:59.962576  3815 layer_factory.hpp:77] Creating layer mbox_conf
I0219 12:22:59.962586  3815 net.cpp:100] Creating Layer mbox_conf
I0219 12:22:59.962594  3815 net.cpp:434] mbox_conf <- conv4_3_norm_mbox_conf_flat
I0219 12:22:59.962604  3815 net.cpp:434] mbox_conf <- fc7_mbox_conf_flat
I0219 12:22:59.962612  3815 net.cpp:434] mbox_conf <- conv6_2_mbox_conf_flat
I0219 12:22:59.962621  3815 net.cpp:434] mbox_conf <- conv7_2_mbox_conf_flat
I0219 12:22:59.962630  3815 net.cpp:434] mbox_conf <- conv8_2_mbox_conf_flat
I0219 12:22:59.962640  3815 net.cpp:434] mbox_conf <- conv9_2_mbox_conf_flat
I0219 12:22:59.962651  3815 net.cpp:408] mbox_conf -> mbox_conf
I0219 12:22:59.962693  3815 net.cpp:150] Setting up mbox_conf
I0219 12:22:59.962704  3815 net.cpp:157] Top shape: 32 192104 (6147328)
I0219 12:22:59.962712  3815 net.cpp:165] Memory required for data: 8116188128
I0219 12:22:59.962718  3815 layer_factory.hpp:77] Creating layer mbox_priorbox
I0219 12:22:59.962726  3815 net.cpp:100] Creating Layer mbox_priorbox
I0219 12:22:59.962733  3815 net.cpp:434] mbox_priorbox <- conv4_3_norm_mbox_priorbox
I0219 12:22:59.962741  3815 net.cpp:434] mbox_priorbox <- fc7_mbox_priorbox
I0219 12:22:59.962749  3815 net.cpp:434] mbox_priorbox <- conv6_2_mbox_priorbox
I0219 12:22:59.962756  3815 net.cpp:434] mbox_priorbox <- conv7_2_mbox_priorbox
I0219 12:22:59.962764  3815 net.cpp:434] mbox_priorbox <- conv8_2_mbox_priorbox
I0219 12:22:59.962770  3815 net.cpp:434] mbox_priorbox <- conv9_2_mbox_priorbox
I0219 12:22:59.962780  3815 net.cpp:408] mbox_priorbox -> mbox_priorbox
I0219 12:22:59.962826  3815 net.cpp:150] Setting up mbox_priorbox
I0219 12:22:59.962837  3815 net.cpp:157] Top shape: 1 2 34928 (69856)
I0219 12:22:59.962843  3815 net.cpp:165] Memory required for data: 8116467552
I0219 12:22:59.962851  3815 layer_factory.hpp:77] Creating layer mbox_loss
I0219 12:22:59.962864  3815 net.cpp:100] Creating Layer mbox_loss
I0219 12:22:59.962872  3815 net.cpp:434] mbox_loss <- mbox_loc
I0219 12:22:59.962879  3815 net.cpp:434] mbox_loss <- mbox_conf
I0219 12:22:59.962888  3815 net.cpp:434] mbox_loss <- mbox_priorbox
…
  name: "data"
  type: "AnnotatedData"
  top: "data"
  top: "label"
  include {
    phase: TEST
  }
  transform_param {
    mean_value: 137
    mean_value: 84
    mean_value: 87
    mean_value: 84
    resize_param {
      prob: 1
      resize_mode: WARP
      height: 300
      width: 300
      interp_mode: LINEAR
    }
  }
  data_param {
    source: "examples/dbgr_trees/dbgr_trees_test_lmdb"
    batch_size: 1
    backend: LMDB
  }
  annotated_data_param {
    batch_sampler {
    }
    label_map_file: "data/dbgr_trees/labelmap_voc.prototxt"
  }
}
layer {
  name: "conv1_1_rgbd"
  type: "Convolution"
  bottom: "data"
  top: "conv1_1_rgbd"
  param {
    lr_mult: 1
    decay_mult: 1
  }
  param {
    lr_mult: 2
    decay_mult: 0
  }
  convolution_param {
    num_output: 64
    pad: 1
    kernel_size: 3
    weight_filler {
      type: "xavier"
    }
    bias_filler {
      type: "constant"
      value: 0
    }
  }
}
layer {
  name: "relu1_1"
  type: "ReLU"
  bottom: "conv1_1_rgbd"
  top: "conv1_1_rgbd"
}
layer {
  name: "conv1_2"
  type: "Convolution"
  bottom: "conv1_1_rgbd"
  top: "conv1_2"
  param {
    lr_mult: 1
    decay_mult: 1
  }
  param {
    lr_mult: 2
    decay_mult: 0
  }
  convolution_param {
    num_output: 64
    pad: 1
    kernel_size: 3
    weight_filler {
      type: "xavier"
    }
    bias_filler {
      type: "constant"
      value: 0
    }
  }
}
layer {
  name: "relu1_2"
  type: "ReLU"
  bottom: "conv1_2"
  top: "conv1_2"
}
layer {
  name: "pool1"
  type: "Pooling"
  bottom: "conv1_2"
  top: "pool1"
  pooling_param {
    pool: MAX
    kernel_size: 2
    stride: 2
  }
}
layer {
  name: "conv2_1"
  type: "Convolution"
  bottom: "pool1"
  top: "conv2_1"
  param {
    lr_mult: 1
    decay_mult: 1
  }
  param {
    lr_mult: 2
    decay_mult: 0
  }
  convolution_param {
    num_output: 128
    pad: 1
    kernel_size: 3
    weight_filler {
      type: "xavier"
    }
    bias_filler {
      type: "constant"
      value: 0
    }
  }
}
layer {
  name: "relu2_1"
  type: "ReLU"
  bottom: "conv2_1"
  top: "conv2_1"
}
layer {
  name: "conv2_2"
  type: "Convolution"
  bottom: "conv2_1"
  top: "conv2_2"
  param {
    lr_mult: 1
    decay_mult: 1
  }
  param {
    lr_mult: 2
    decay_mult: 0
  }
  convolution_param {
    num_output: 128
    pad: 1
    kernel_size: 3
    weight_filler {
      type: "xavier"
    }
    bias_filler {
      type: "constant"
      value: 0
    }
  }
}
layer {
  name: "relu2_2"
  type: "ReLU"
  bottom: "conv2_2"
  top: "conv2_2"
}
layer {
  name: "pool2"
  type: "Pooling"
  bottom: "conv2_2"
  top: "pool2"
  pooling_param {
    pool: MAX
    kernel_size: 2
    stride: 2
  }
}
layer {
  name: "conv3_1"
  type: "Convolution"
  bottom: "pool2"
  top: "conv3_1"
  param {
    lr_mult: 1
    decay_mult: 1
  }
  param {
    lr_mult: 2
    decay_mult: 0
  }
  convolution_param {
    num_output: 256
    pad: 1
    kernel_size: 3
    weight_filler {
      type: "xavier"
    }
    bias_filler {
      type: "constant"
      value: 0
    }
  }
}
layer {
  name: "relu3_1"
  type: "ReLU"
  bottom: "conv3_1"
  top: "conv3_1"
}
layer {
  name: "conv3_2"
  type: "Convolution"
  bottom: "conv3_1"
  top: "conv3_2"
  param {
    lr_mult: 1
    decay_mult: 1
  }
  param {
    lr_mult: 2
    decay_mult: 0
  }
  convolution_param {
    num_output: 256
    pad: 1
    kernel_size: 3
    weight_filler {
      type: "xavier"
    }
    bias_filler {
      type: "constant"
      value: 0
    }
  }
}
layer {
  name: "relu3_2"
  type: "ReLU"
  bottom: "conv3_2"
  top: "conv3_2"
}
layer {
  name: "conv3_3"
  type: "Convolution"
  bottom: "conv3_2"
  top: "conv3_3"
  param {
    lr_mult: 1
    decay_mult: 1
  }
  param {
    lr_mult: 2
    decay_mult: 0
  }
  convolution_param {
    num_output: 256
    pad: 1
    kernel_size: 3
    weight_filler {
      type: "xavier"
    }
    bias_filler {
      type: "constant"
      value: 0
    }
  }
}
layer {
  name: "relu3_3"
  type: "ReLU"
  bottom: "conv3_3"
  top: "conv3_3"
}
layer {
  name: "pool3"
  type: "Pooling"
  bottom: "conv3_3"
  top: "pool3"
  pooling_param {
    pool: MAX
    kernel_size: 2
    stride: 2
  }
}
layer {
  name: "conv4_1"
  type: "Convolution"
  bottom: "pool3"
  top: "conv4_1"
  param {
    lr_mult: 1
    decay_mult: 1
  }
  param {
    lr_mult: 2
    decay_mult: 0
  }
  convolution_param {
    num_output: 512
    pad: 1
    kernel_size: 3
    weight_filler {
      type: "xavier"
    }
    bias_filler {
      type: "constant"
      value: 0
    }
  }
}
layer {
  name: "relu4_1"
  type: "ReLU"
  bottom: "conv4_1"
  top: "conv4_1"
}
layer {
  name: "conv4_2"
  type: "Convolution"
  bottom: "conv4_1"
  top: "conv4_2"
  param {
    lr_mult: 1
    decay_mult: 1
  }
  param {
    lr_mult: 2
    decay_mult: 0
  }
  convolution_param {
    num_output: 512
    pad: 1
    kernel_size: 3
    weight_filler {
      type: "xavier"
    }
    bias_filler {
      type: "constant"
      value: 0
    }
  }
}
layer {
  name: "relu4_2"
  type: "ReLU"
  bottom: "conv4_2"
  top: "conv4_2"
}
layer {
  name: "conv4_3"
  type: "Convolution"
  bottom: "conv4_2"
  top: "conv4_3"
  param {
    lr_mult: 1
    decay_mult: 1
  }
  param {
    lr_mult: 2
    decay_mult: 0
  }
  convolution_param {
    num_output: 512
    pad: 1
    kernel_size: 3
    weight_filler {
      type: "xavier"
    }
    bias_filler {
      type: "constant"
      value: 0
    }
  }
}
layer {
  name: "relu4_3"
  type: "ReLU"
  bottom: "conv4_3"
  top: "conv4_3"
}
layer {
  name: "pool4"
  type: "Pooling"
  bottom: "conv4_3"
  top: "pool4"
  pooling_param {
    pool: MAX
    kernel_size: 2
    stride: 2
  }
}
layer {
  name: "conv5_1"
  type: "Convolution"
  bottom: "pool4"
  top: "conv5_1"
  param {
    lr_mult: 1
    decay_mult: 1
  }
  param {
    lr_mult: 2
    decay_mult: 0
  }
  convolution_param {
    num_output: 512
    pad: 1
    kernel_size: 3
    weight_filler {
      type: "xavier"
    }
    bias_filler {
      type: "constant"
      value: 0
    }
    dilation: 1
  }
}
layer {
  name: "relu5_1"
  type: "ReLU"
  bottom: "conv5_1"
  top: "conv5_1"
}
layer {
  name: "conv5_2"
  type: "Convolution"
  bottom: "conv5_1"
  top: "conv5_2"
  param {
    lr_mult: 1
    decay_mult: 1
  }
  param {
    lr_mult: 2
    decay_mult: 0
  }
  convolution_param {
    num_output: 512
    pad: 1
    kernel_size: 3
    weight_filler {
      type: "xavier"
    }
    bias_filler {
      type: "constant"
      value: 0
    }
    dilation: 1
  }
}
layer {
  name: "relu5_2"
  type: "ReLU"
  bottom: "conv5_2"
  top: "conv5_2"
}
layer {
  name: "conv5_3"
  type: "Convolution"
  bottom: "conv5_2"
  top: "conv5_3"
  param {
    lr_mult: 1
    decay_mult: 1
  }
  param {
    lr_mult: 2
    decay_mult: 0
  }
  convolution_param {
    num_output: 512
    pad: 1
    kernel_size: 3
    weight_filler {
      type: "xavier"
    }
    bias_filler {
      type: "constant"
      value: 0
    }
    dilation: 1
  }
}
layer {
  name: "relu5_3"
  type: "ReLU"
  bottom: "conv5_3"
  top: "conv5_3"
}
layer {
  name: "pool5"
  type: "Pooling"
  bottom: "conv5_3"
  top: "pool5"
  pooling_param {
    pool: MAX
    kernel_size: 3
    stride: 1
    pad: 1
  }
}
layer {
  name: "fc6"
  type: "Convolution"
  bottom: "pool5"
  top: "fc6"
  param {
    lr_mult: 1
    decay_mult: 1
  }
  param {
    lr_mult: 2
    decay_mult: 0
  }
  convolution_param {
    num_output: 1024
    pad: 6
    kernel_size: 3
    weight_filler {
      type: "xavier"
    }
    bias_filler {
      type: "constant"
      value: 0
    }
    dilation: 6
  }
}
layer {
  name: "relu6"
  type: "ReLU"
  bottom: "fc6"
  top: "fc6"
}
layer {
  name: "fc7"
  type: "Convolution"
  bottom: "fc6"
  top: "fc7"
  param {
    lr_mult: 1
    decay_mult: 1
  }
  param {
    lr_mult: 2
    decay_mult: 0
  }
  convolution_param {
    num_output: 1024
    kernel_size: 1
    weight_filler {
      type: "xavier"
    }
    bias_filler {
      type: "constant"
      value: 0
    }
  }
}
layer {
  name: "relu7"
  type: "ReLU"
  bottom: "fc7"
  top: "fc7"
}
layer {
  name: "conv6_1"
  type: "Convolution"
  bottom: "fc7"
  top: "conv6_1"
  param {
    lr_mult: 1
    decay_mult: 1
  }
  param {
    lr_mult: 2
    decay_mult: 0
  }
  convolution_param {
    num_output: 256
    pad: 0
    kernel_size: 1
    stride: 1
    weight_filler {
      type: "xavier"
    }
    bias_filler {
      type: "constant"
      value: 0
    }
  }
}
layer {
  name: "conv6_1_relu"
  type: "ReLU"
  bottom: "conv6_1"
  top: "conv6_1"
}
layer {
  name: "conv6_2"
  type: "Convolution"
  bottom: "conv6_1"
  top: "conv6_2"
  param {
    lr_mult: 1
    decay_mult: 1
  }
  param {
    lr_mult: 2
    decay_mult: 0
  }
  convolution_param {
    num_output: 512
    pad: 1
    kernel_size: 3
    stride: 2
    weight_filler {
      type: "xavier"
    }
    bias_filler {
      type: "constant"
      value: 0
    }
  }
}
layer {
  name: "conv6_2_relu"
  type: "ReLU"
  bottom: "conv6_2"
  top: "conv6_2"
}
layer {
  name: "conv7_1"
  type: "Convolution"
  bottom: "conv6_2"
  top: "conv7_1"
  param {
    lr_mult: 1
    decay_mult: 1
  }
  param {
    lr_mult: 2
    decay_mult: 0
  }
  convolution_param {
    num_output: 128
    pad: 0
    kernel_size: 1
    stride: 1
    weight_filler {
      type: "xavier"
    }
    bias_filler {
      type: "constant"
      value: 0
    }
  }
}
layer {
  name: "conv7_1_relu"
  type: "ReLU"
  bottom: "conv7_1"
  top: "conv7_1"
}
layer {
  name: "conv7_2"
  type: "Convolution"
  bottom: "conv7_1"
  top: "conv7_2"
  param {
    lr_mult: 1
    decay_mult: 1
  }
  param {
    lr_mult: 2
    decay_mult: 0
  }
  convolution_param {
    num_output: 256
    pad: 1
    kernel_size: 3
    stride: 2
    weight_filler {
      type: "xavier"
    }
    bias_filler {
      type: "constant"
      value: 0
    }
  }
}
layer {
  name: "conv7_2_relu"
  type: "ReLU"
  bottom: "conv7_2"
  top: "conv7_2"
}
layer {
  name: "conv8_1"
  type: "Convolution"
  bottom: "conv7_2"
  top: "conv8_1"
  param {
    lr_mult: 1
    decay_mult: 1
  }
  param {
    lr_mult: 2
    decay_mult: 0
  }
  convolution_param {
    num_output: 128
    pad: 0
    kernel_size: 1
    stride: 1
    weight_filler {
      type: "xavier"
    }
    bias_filler {
      type: "constant"
      value: 0
    }
  }
}
layer {
  name: "conv8_1_relu"
  type: "ReLU"
  bottom: "conv8_1"
  top: "conv8_1"
}
layer {
  name: "conv8_2"
  type: "Convolution"
  bottom: "conv8_1"
  top: "conv8_2"
  param {
    lr_mult: 1
    decay_mult: 1
  }
  param {
    lr_mult: 2
    decay_mult: 0
  }
  convolution_param {
    num_output: 256
    pad: 0
    kernel_size: 3
    stride: 1
    weight_filler {
      type: "xavier"
    }
    bias_filler {
      type: "constant"
      value: 0
    }
  }
}
layer {
  name: "conv8_2_relu"
  type: "ReLU"
  bottom: "conv8_2"
  top: "conv8_2"
}
layer {
  name: "conv9_1"
  type: "Convolution"
  bottom: "conv8_2"
  top: "conv9_1"
  param {
    lr_mult: 1
    decay_mult: 1
  }
  param {
    lr_mult: 2
    decay_mult: 0
  }
  convolution_param {
    num_output: 128
    pad: 0
    kernel_size: 1
    stride: 1
    weight_filler {
      type: "xavier"
    }
    bias_filler {
      type: "constant"
      value: 0
    }
  }
}
layer {
  name: "conv9_1_relu"
  type: "ReLU"
  bottom: "conv9_1"
  top: "conv9_1"
}
layer {
  name: "conv9_2"
  type: "Convolution"
  bottom: "conv9_1"
  top: "conv9_2"
  param {
    lr_mult: 1
    decay_mult: 1
  }
  param {
    lr_mult: 2
    decay_mult: 0
  }
  convolution_param {
    num_output: 256
    pad: 0
    kernel_size: 3
    stride: 1
    weight_filler {
      type: "xavier"
    }
    bias_filler {
      type: "constant"
      value: 0
    }
  }
}
layer {
  name: "conv9_2_relu"
  type: "ReLU"
  bottom: "conv9_2"
  top: "conv9_2"
}
layer {
  name: "conv4_3_norm"
  type: "Normalize"
  bottom: "conv4_3"
  top: "conv4_3_norm"
  norm_param {
    across_spatial: false
    scale_filler {
      type: "constant"
      value: 20
    }
    channel_shared: false
  }
}
layer {
  name: "conv4_3_norm_mbox_loc"
  type: "Convolution"
  bottom: "conv4_3_norm"
  top: "conv4_3_norm_mbox_loc"
  param {
    lr_mult: 1
    decay_mult: 1
  }
  param {
    lr_mult: 2
    decay_mult: 0
  }
  convolution_param {
    num_output: 16
    pad: 1
    kernel_size: 3
    stride: 1
    weight_filler {
      type: "xavier"
    }
    bias_filler {
      type: "constant"
      value: 0
    }
  }
}
layer {
  name: "conv4_3_norm_mbox_loc_perm"
  type: "Permute"
  bottom: "conv4_3_norm_mbox_loc"
  top: "conv4_3_norm_mbox_loc_perm"
  permute_param {
    order: 0
    order: 2
    order: 3
    order: 1
  }
}
layer {
  name: "conv4_3_norm_mbox_loc_flat"
  type: "Flatten"
  bottom: "conv4_3_norm_mbox_loc_perm"
  top: "conv4_3_norm_mbox_loc_flat"
  flatten_param {
    axis: 1
  }
}
layer {
  name: "conv4_3_norm_mbox_conf"
  type: "Convolution"
  bottom: "conv4_3_norm"
  top: "conv4_3_norm_mbox_conf"
  param {
    lr_mult: 1
    decay_mult: 1
  }
  param {
    lr_mult: 2
    decay_mult: 0
  }
  convolution_param {
    num_output: 88
    pad: 1
    kernel_size: 3
    stride: 1
    weight_filler {
      type: "xavier"
    }
    bias_filler {
      type: "constant"
      value: 0
    }
  }
}
layer {
  name: "conv4_3_norm_mbox_conf_perm"
  type: "Permute"
  bottom: "conv4_3_norm_mbox_conf"
  top: "conv4_3_norm_mbox_conf_perm"
  permute_param {
    order: 0
    order: 2
    order: 3
    order: 1
  }
}
layer {
  name: "conv4_3_norm_mbox_conf_flat"
  type: "Flatten"
  bottom: "conv4_3_norm_mbox_conf_perm"
  top: "conv4_3_norm_mbox_conf_flat"
  flatten_param {
    axis: 1
  }
}
layer {
  name: "conv4_3_norm_mbox_priorbox"
  type: "PriorBox"
  bottom: "conv4_3_norm"
  bottom: "data"
  top: "conv4_3_norm_mbox_priorbox"
  prior_box_param {
    min_size: 30
    max_size: 60
    aspect_ratio: 2
    flip: true
    clip: false
    variance: 0.1
    variance: 0.1
    variance: 0.2
    variance: 0.2
    step: 8
    offset: 0.5
  }
}
layer {
  name: "fc7_mbox_loc"
  type: "Convolution"
  bottom: "fc7"
  top: "fc7_mbox_loc"
  param {
    lr_mult: 1
    decay_mult: 1
  }
  param {
    lr_mult: 2
    decay_mult: 0
  }
  convolution_param {
    num_output: 24
    pad: 1
    kernel_size: 3
    stride: 1
    weight_filler {
      type: "xavier"
    }
    bias_filler {
      type: "constant"
      value: 0
    }
  }
}
layer {
  name: "fc7_mbox_loc_perm"
  type: "Permute"
  bottom: "fc7_mbox_loc"
  top: "fc7_mbox_loc_perm"
  permute_param {
    order: 0
    order: 2
    order: 3
    order: 1
  }
}
layer {
  name: "fc7_mbox_loc_flat"
  type: "Flatten"
  bottom: "fc7_mbox_loc_perm"
  top: "fc7_mbox_loc_flat"
  flatten_param {
    axis: 1
  }
}
layer {
  name: "fc7_mbox_conf"
  type: "Convolution"
  bottom: "fc7"
  top: "fc7_mbox_conf"
  param {
    lr_mult: 1
    decay_mult: 1
  }
  param {
    lr_mult: 2
    decay_mult: 0
  }
  convolution_param {
    num_output: 132
    pad: 1
    kernel_size: 3
    stride: 1
    weight_filler {
      type: "xavier"
    }
    bias_filler {
      type: "constant"
      value: 0
    }
  }
}
layer {
  name: "fc7_mbox_conf_perm"
  type: "Permute"
  bottom: "fc7_mbox_conf"
  top: "fc7_mbox_conf_perm"
  permute_param {
    order: 0
    order: 2
    order: 3
    order: 1
  }
}
layer {
  name: "fc7_mbox_conf_flat"
  type: "Flatten"
  bottom: "fc7_mbox_conf_perm"
  top: "fc7_mbox_conf_flat"
  flatten_param {
    axis: 1
  }
}
layer {
  name: "fc7_mbox_priorbox"
  type: "PriorBox"
  bottom: "fc7"
  bottom: "data"
  top: "fc7_mbox_priorbox"
  prior_box_param {
    min_size: 60
    max_size: 111
    aspect_ratio: 2
    aspect_ratio: 3
    flip: true
    clip: false
    variance: 0.1
    variance: 0.1
    variance: 0.2
    variance: 0.2
    step: 16
    offset: 0.5
  }
}
layer {
  name: "conv6_2_mbox_loc"
  type: "Convolution"
  bottom: "conv6_2"
  top: "conv6_2_mbox_loc"
  param {
    lr_mult: 1
    decay_mult: 1
  }
  param {
    lr_mult: 2
    decay_mult: 0
  }
  convolution_param {
    num_output: 24
    pad: 1
    kernel_size: 3
    stride: 1
    weight_filler {
      type: "xavier"
    }
    bias_filler {
      type: "constant"
      value: 0
    }
  }
}
layer {
  name: "conv6_2_mbox_loc_perm"
  type: "Permute"
  bottom: "conv6_2_mbox_loc"
  top: "conv6_2_mbox_loc_perm"
  permute_param {
    order: 0
    order: 2
    order: 3
    order: 1
  }
}
layer {
  name: "conv6_2_mbox_loc_flat"
  type: "Flatten"
  bottom: "conv6_2_mbox_loc_perm"
  top: "conv6_2_mbox_loc_flat"
  flatten_param {
    axis: 1
  }
}
layer {
  name: "conv6_2_mbox_conf"
  type: "Convolution"
  bottom: "conv6_2"
  top: "conv6_2_mbox_conf"
  param {
    lr_mult: 1
    decay_mult: 1
  }
  param {
    lr_mult: 2
    decay_mult: 0
  }
  convolution_param {
    num_output: 132
    pad: 1
    kernel_size: 3
    stride: 1
    weight_filler {
      type: "xavier"
    }
    bias_filler {
      type: "constant"
      value: 0
    }
  }
}
layer {
  name: "conv6_2_mbox_conf_perm"
  type: "Permute"
  bottom: "conv6_2_mbox_conf"
  top: "conv6_2_mbox_conf_perm"
  permute_param {
    order: 0
    order: 2
    order: 3
    order: 1
  }
}
layer {
  name: "conv6_2_mbox_conf_flat"
  type: "Flatten"
  bottom: "conv6_2_mbox_conf_perm"
  top: "conv6_2_mbox_conf_flat"
  flatten_param {
    axis: 1
  }
}
layer {
  name: "conv6_2_mbox_priorbox"
  type: "PriorBox"
  bottom: "conv6_2"
  bottom: "data"
  top: "conv6_2_mbox_priorbox"
  prior_box_param {
    min_size: 111
    max_size: 162
    aspect_ratio: 2
    aspect_ratio: 3
    flip: true
    clip: false
    variance: 0.1
    variance: 0.1
    variance: 0.2
    variance: 0.2
    step: 32
    offset: 0.5
  }
}
layer {
  name: "conv7_2_mbox_loc"
  type: "Convolution"
  bottom: "conv7_2"
  top: "conv7_2_mbox_loc"
  param {
    lr_mult: 1
    decay_mult: 1
  }
  param {
    lr_mult: 2
    decay_mult: 0
  }
  convolution_param {
    num_output: 24
    pad: 1
    kernel_size: 3
    stride: 1
    weight_filler {
      type: "xavier"
    }
    bias_filler {
      type: "constant"
      value: 0
    }
  }
}
layer {
  name: "conv7_2_mbox_loc_perm"
  type: "Permute"
  bottom: "conv7_2_mbox_loc"
  top: "conv7_2_mbox_loc_perm"
  permute_param {
    order: 0
    order: 2
    order: 3
    order: 1
  }
}
layer {
  name: "conv7_2_mbox_loc_flat"
  type: "Flatten"
  bottom: "conv7_2_mbox_loc_perm"
  top: "conv7_2_mbox_loc_flat"
  flatten_param {
    axis: 1
  }
}
layer {
  name: "conv7_2_mbox_conf"
  type: "Convolution"
  bottom: "conv7_2"
  top: "conv7_2_mbox_conf"
  param {
    lr_mult: 1
    decay_mult: 1
  }
  param {
    lr_mult: 2
    decay_mult: 0
  }
  convolution_param {
    num_output: 132
    pad: 1
    kernel_size: 3
    stride: 1
    weight_filler {
      type: "xavier"
    }
    bias_filler {
      type: "constant"
      value: 0
    }
  }
}
layer {
  name: "conv7_2_mbox_conf_perm"
  type: "Permute"
  bottom: "conv7_2_mbox_conf"
  top: "conv7_2_mbox_conf_perm"
  permute_param {
    order: 0
    order: 2
    order: 3
    order: 1
  }
}
layer {
  name: "conv7_2_mbox_conf_flat"
  type: "Flatten"
  bottom: "conv7_2_mbox_conf_perm"
  top: "conv7_2_mbox_conf_flat"
  flatten_param {
    axis: 1
  }
}
layer {
  name: "conv7_2_mbox_priorbox"
  type: "PriorBox"
  bottom: "conv7_2"
  bottom: "data"
  top: "conv7_2_mbox_priorbox"
  prior_box_param {
    min_size: 162
    max_size: 213
    aspect_ratio: 2
    aspect_ratio: 3
    flip: true
    clip: false
    variance: 0.1
    variance: 0.1
    variance: 0.2
    variance: 0.2
    step: 64
    offset: 0.5
  }
}
layer {
  name: "conv8_2_mbox_loc"
  type: "Convolution"
  bottom: "conv8_2"
  top: "conv8_2_mbox_loc"
  param {
    lr_mult: 1
    decay_mult: 1
  }
  param {
    lr_mult: 2
    decay_mult: 0
  }
  convolution_param {
    num_output: 16
    pad: 1
    kernel_size: 3
    stride: 1
    weight_filler {
      type: "xavier"
    }
    bias_filler {
      type: "constant"
      value: 0
    }
  }
}
layer {
  name: "conv8_2_mbox_loc_perm"
  type: "Permute"
  bottom: "conv8_2_mbox_loc"
  top: "conv8_2_mbox_loc_perm"
  permute_param {
    order: 0
    order: 2
    order: 3
    order: 1
  }
}
layer {
  name: "conv8_2_mbox_loc_flat"
  type: "Flatten"
  bottom: "conv8_2_mbox_loc_perm"
  top: "conv8_2_mbox_loc_flat"
  flatten_param {
    axis: 1
  }
}
layer {
  name: "conv8_2_mbox_conf"
  type: "Convolution"
  bottom: "conv8_2"
  top: "conv8_2_mbox_conf"
  param {
    lr_mult: 1
    decay_mult: 1
  }
  param {
    lr_mult: 2
    decay_mult: 0
  }
  convolution_param {
    num_output: 88
    pad: 1
    kernel_size: 3
    stride: 1
    weight_filler {
      type: "xavier"
    }
    bias_filler {
      type: "constant"
      value: 0
    }
  }
}
layer {
  name: "conv8_2_mbox_conf_perm"
  type: "Permute"
  bottom: "conv8_2_mbox_conf"
  top: "conv8_2_mbox_conf_perm"
  permute_param {
    order: 0
    order: 2
    order: 3
    order: 1
  }
}
layer {
  name: "conv8_2_mbox_conf_flat"
  type: "Flatten"
  bottom: "conv8_2_mbox_conf_perm"
  top: "conv8_2_mbox_conf_flat"
  flatten_param {
    axis: 1
  }
}
layer {
  name: "conv8_2_mbox_priorbox"
  type: "PriorBox"
  bottom: "conv8_2"
  bottom: "data"
  top: "conv8_2_mbox_priorbox"
  prior_box_param {
    min_size: 213
    max_size: 264
    aspect_ratio: 2
    flip: true
    clip: false
    variance: 0.1
    variance: 0.1
    variance: 0.2
    variance: 0.2
    step: 100
    offset: 0.5
  }
}
layer {
  name: "conv9_2_mbox_loc"
  type: "Convolution"
  bottom: "conv9_2"
  top: "conv9_2_mbox_loc"
  param {
    lr_mult: 1
    decay_mult: 1
  }
  param {
    lr_mult: 2
    decay_mult: 0
  }
  convolution_param {
    num_output: 16
    pad: 1
    kernel_size: 3
    stride: 1
    weight_filler {
      type: "xavier"
    }
    bias_filler {
      type: "constant"
      value: 0
    }
  }
}
layer {
  name: "conv9_2_mbox_loc_perm"
  type: "Permute"
  bottom: "conv9_2_mbox_loc"
  top: "conv9_2_mbox_loc_perm"
  permute_param {
    order: 0
    order: 2
    order: 3
    order: 1
  }
}
layer {
  name: "conv9_2_mbox_loc_flat"
  type: "Flatten"
  bottom: "conv9_2_mbox_loc_perm"
  top: "conv9_2_mbox_loc_flat"
  flatten_param {
    axis: 1
  }
}
layer {
  name: "conv9_2_mbox_conf"
  type: "Convolution"
  bottom: "conv9_2"
  top: "conv9_2_mbox_conf"
  param {
    lr_mult: 1
    decay_mult: 1
  }
  param {
    lr_mult: 2
    decay_mult: 0
  }
  convolution_param {
    num_output: 88
    pad: 1
    kernel_size: 3
    stride: 1
    weight_filler {
      type: "xavier"
    }
    bias_filler {
      type: "constant"
      value: 0
    }
  }
}
layer {
  name: "conv9_2_mbox_conf_perm"
  type: "Permute"
  bottom: "conv9_2_mbox_conf"
  top: "conv9_2_mbox_conf_perm"
  permute_param {
    order: 0
    order: 2
    order: 3
    order: 1
  }
}
layer {
  name: "conv9_2_mbox_conf_flat"
  type: "Flatten"
  bottom: "conv9_2_mbox_conf_perm"
  top: "conv9_2_mbox_conf_flat"
  flatten_param {
    axis: 1
  }
}
layer {
  name: "conv9_2_mbox_priorbox"
  type: "PriorBox"
  bottom: "conv9_2"
  bottom: "data"
  top: "conv9_2_mbox_priorbox"
  prior_box_param {
    min_size: 264
    max_size: 315
    aspect_ratio: 2
    flip: true
    clip: false
    variance: 0.1
    variance: 0.1
    variance: 0.2
    variance: 0.2
    step: 300
    offset: 0.5
  }
}
layer {
  name: "mbox_loc"
  type: "Concat"
  bottom: "conv4_3_norm_mbox_loc_flat"
  bottom: "fc7_mbox_loc_flat"
  bottom: "conv6_2_mbox_loc_flat"
  bottom: "conv7_2_mbox_loc_flat"
  bottom: "conv8_2_mbox_loc_flat"
  bottom: "conv9_2_mbox_loc_flat"
  top: "mbox_loc"
  concat_param {
    axis: 1
  }
}
layer {
  name: "mbox_conf"
  type: "Concat"
  bottom: "conv4_3_norm_mbox_conf_flat"
  bottom: "fc7_mbox_conf_flat"
  bottom: "conv6_2_mbox_conf_flat"
  bottom: "conv7_2_mbox_conf_flat"
  bottom: "conv8_2_mbox_conf_flat"
  bottom: "conv9_2_mbox_conf_flat"
  top: "mbox_conf"
  concat_param {
    axis: 1
  }
}
layer {
  name: "mbox_priorbox"
  type: "Concat"
  bottom: "conv4_3_norm_mbox_priorbox"
  bottom: "fc7_mbox_priorbox"
  bottom: "conv6_2_mbox_priorbox"
  bottom: "conv7_2_mbox_priorbox"
  bottom: "conv8_2_mbox_priorbox"
  bottom: "conv9_2_mbox_priorbox"
  top: "mbox_priorbox"
  concat_param {
    axis: 2
  }
}
layer {
  name: "mbox_conf_reshape"
  type: "Reshape"
  bottom: "mbox_conf"
  top: "mbox_conf_reshape"
  reshape_param {
    shape {
      dim: 0
      dim: -1
      dim: 22
    }
  }
}
layer {
  name: "mbox_conf_softmax"
  type: "Softmax"
  bottom: "mbox_conf_reshape"
  top: "mbox_conf_softmax"
  softmax_param {
    axis: 2
  }
}
layer {
  name: "mbox_conf_flatten"
  type: "Flatten"
  bottom: "mbox_conf_softmax"
  top: "mbox_conf_flatten"
  flatten_param {
    axis: 1
  }
}
layer {
  name: "detection_out"
  type: "DetectionOutput"
  bottom: "mbox_loc"
  bottom: "mbox_conf_flatten"
  bottom: "mbox_priorbox"
  top: "detection_out"
  include {
    phase: TEST
  }
  detection_output_param {
    num_classes: 22
    share_location: true
    background_label_id: 0
    nms_param {
      nms_threshold: 0.45
      top_k: 400
    }
    save_output_param {
      output_directory: "/home/dhall/data/VOCdevkit/results/dbgr_trees/SSD_dbgr_trees_300x300/Main"
      output_name_prefix: "comp4_det_test_"
      output_format: "VOC"
      label_map_file: "data/dbgr_trees/labelmap_voc.prototxt"
      name_size_file: "data/dbgr_trees/test_name_size.txt"
      num_test_image: 105
    }
    code_type: CENTER_SIZE
    keep_top_k: 200
    confidence_threshold: 0.01
  }
}
layer {
  name: "detection_eval"
  type: "DetectionEvaluate"
  bottom: "detection_out"
  bottom: "label"
  top: "detection_eval"
  include {
    phase: TEST
  }
  detection_evaluate_param {
    num_classes: 22
    background_label_id: 0
    overlap_threshold: 0.5
    evaluate_difficult_gt: false
    name_size_file: "data/dbgr_trees/test_name_size.txt"
  }
}
I0219 12:23:00.334470  3815 layer_factory.hpp:77] Creating layer data
I0219 12:23:00.334609  3815 net.cpp:100] Creating Layer data
I0219 12:23:00.334630  3815 net.cpp:408] data -> data
I0219 12:23:00.334656  3815 net.cpp:408] data -> label
I0219 12:23:00.671401  3862 db_lmdb.cpp:35] Opened lmdb examples/dbgr_trees/dbgr_trees_test_lmdb
I0219 12:23:00.828173  3815 annotated_data_layer.cpp:62] output data size: 1,4,300,300
I0219 12:23:00.833912  3815 net.cpp:150] Setting up data
I0219 12:23:00.833958  3815 net.cpp:157] Top shape: 1 4 300 300 (360000)
I0219 12:23:00.833976  3815 net.cpp:157] Top shape: 1 1 6 8 (48)
I0219 12:23:00.833986  3815 net.cpp:165] Memory required for data: 1440192
I0219 12:23:00.834002  3815 layer_factory.hpp:77] Creating layer data_data_0_split
I0219 12:23:00.834026  3815 net.cpp:100] Creating Layer data_data_0_split
I0219 12:23:00.834038  3815 net.cpp:434] data_data_0_split <- data
I0219 12:23:00.834056  3815 net.cpp:408] data_data_0_split -> data_data_0_split_0
I0219 12:23:00.834081  3815 net.cpp:408] data_data_0_split -> data_data_0_split_1
I0219 12:23:00.834100  3815 net.cpp:408] data_data_0_split -> data_data_0_split_2
I0219 12:23:00.834118  3815 net.cpp:408] data_data_0_split -> data_data_0_split_3
I0219 12:23:00.834133  3815 net.cpp:408] data_data_0_split -> data_data_0_split_4
I0219 12:23:00.834151  3815 net.cpp:408] data_data_0_split -> data_data_0_split_5
I0219 12:23:00.834167  3815 net.cpp:408] data_data_0_split -> data_data_0_split_6
I0219 12:23:00.834576  3815 net.cpp:150] Setting up data_data_0_split
I0219 12:23:00.834605  3815 net.cpp:157] Top shape: 1 4 300 300 (360000)
I0219 12:23:00.834615  3815 net.cpp:157] Top shape: 1 4 300 300 (360000)
I0219 12:23:00.834647  3815 net.cpp:157] Top shape: 1 4 300 300 (360000)
I0219 12:23:00.834656  3815 net.cpp:157] Top shape: 1 4 300 300 (360000)
I0219 12:23:00.834661  3815 net.cpp:157] Top shape: 1 4 300 300 (360000)
I0219 12:23:00.834667  3815 net.cpp:157] Top shape: 1 4 300 300 (360000)
I0219 12:23:00.834674  3815 net.cpp:157] Top shape: 1 4 300 300 (360000)
I0219 12:23:00.834679  3815 net.cpp:165] Memory required for data: 11520192
I0219 12:23:00.834691  3815 layer_factory.hpp:77] Creating layer conv1_1_rgbd
I0219 12:23:00.834717  3815 net.cpp:100] Creating Layer conv1_1_rgbd
I0219 12:23:00.834728  3815 net.cpp:434] conv1_1_rgbd <- data_data_0_split_0
I0219 12:23:00.834743  3815 net.cpp:408] conv1_1_rgbd -> conv1_1_rgbd
I0219 12:23:00.837954  3815 net.cpp:150] Setting up conv1_1_rgbd
I0219 12:23:00.837990  3815 net.cpp:157] Top shape: 1 64 300 300 (5760000)
I0219 12:23:00.838003  3815 net.cpp:165] Memory required for data: 34560192
I0219 12:23:00.838030  3815 layer_factory.hpp:77] Creating layer relu1_1
I0219 12:23:00.838049  3815 net.cpp:100] Creating Layer relu1_1
I0219 12:23:00.838059  3815 net.cpp:434] relu1_1 <- conv1_1_rgbd
I0219 12:23:00.838073  3815 net.cpp:395] relu1_1 -> conv1_1_rgbd (in-place)
I0219 12:23:00.838738  3815 net.cpp:150] Setting up relu1_1
I0219 12:23:00.838768  3815 net.cpp:157] Top shape: 1 64 300 300 (5760000)
I0219 12:23:00.838778  3815 net.cpp:165] Memory required for data: 57600192
I0219 12:23:00.838788  3815 layer_factory.hpp:77] Creating layer conv1_2
I0219 12:23:00.838809  3815 net.cpp:100] Creating Layer conv1_2
I0219 12:23:00.838819  3815 net.cpp:434] conv1_2 <- conv1_1_rgbd
I0219 12:23:00.838835  3815 net.cpp:408] conv1_2 -> conv1_2
I0219 12:23:00.843003  3815 net.cpp:150] Setting up conv1_2
I0219 12:23:00.843037  3815 net.cpp:157] Top shape: 1 64 300 300 (5760000)
I0219 12:23:00.843049  3815 net.cpp:165] Memory required for data: 80640192
I0219 12:23:00.843072  3815 layer_factory.hpp:77] Creating layer relu1_2
I0219 12:23:00.843087  3815 net.cpp:100] Creating Layer relu1_2
I0219 12:23:00.843097  3815 net.cpp:434] relu1_2 <- conv1_2
I0219 12:23:00.843111  3815 net.cpp:395] relu1_2 -> conv1_2 (in-place)
I0219 12:23:00.843528  3815 net.cpp:150] Setting up relu1_2
I0219 12:23:00.843555  3815 net.cpp:157] Top shape: 1 64 300 300 (5760000)
I0219 12:23:00.843565  3815 net.cpp:165] Memory required for data: 103680192
I0219 12:23:00.843575  3815 layer_factory.hpp:77] Creating layer pool1
I0219 12:23:00.843590  3815 net.cpp:100] Creating Layer pool1
I0219 12:23:00.843598  3815 net.cpp:434] pool1 <- conv1_2
I0219 12:23:00.843611  3815 net.cpp:408] pool1 -> pool1
I0219 12:23:00.843720  3815 net.cpp:150] Setting up pool1
I0219 12:23:00.843739  3815 net.cpp:157] Top shape: 1 64 150 150 (1440000)
I0219 12:23:00.843747  3815 net.cpp:165] Memory required for data: 109440192
I0219 12:23:00.843756  3815 layer_factory.hpp:77] Creating layer conv2_1
I0219 12:23:00.843775  3815 net.cpp:100] Creating Layer conv2_1
I0219 12:23:00.843785  3815 net.cpp:434] conv2_1 <- pool1
I0219 12:23:00.843798  3815 net.cpp:408] conv2_1 -> conv2_1
I0219 12:23:00.847503  3815 net.cpp:150] Setting up conv2_1
I0219 12:23:00.847537  3815 net.cpp:157] Top shape: 1 128 150 150 (2880000)
I0219 12:23:00.847548  3815 net.cpp:165] Memory required for data: 120960192
I0219 12:23:00.847571  3815 layer_factory.hpp:77] Creating layer relu2_1
I0219 12:23:00.847590  3815 net.cpp:100] Creating Layer relu2_1
I0219 12:23:00.847604  3815 net.cpp:434] relu2_1 <- conv2_1
I0219 12:23:00.847618  3815 net.cpp:395] relu2_1 -> conv2_1 (in-place)
I0219 12:23:00.848052  3815 net.cpp:150] Setting up relu2_1
I0219 12:23:00.848083  3815 net.cpp:157] Top shape: 1 128 150 150 (2880000)
I0219 12:23:00.848094  3815 net.cpp:165] Memory required for data: 132480192
I0219 12:23:00.848104  3815 layer_factory.hpp:77] Creating layer conv2_2
I0219 12:23:00.848126  3815 net.cpp:100] Creating Layer conv2_2
I0219 12:23:00.848135  3815 net.cpp:434] conv2_2 <- conv2_1
I0219 12:23:00.848150  3815 net.cpp:408] conv2_2 -> conv2_2
I0219 12:23:00.853598  3815 net.cpp:150] Setting up conv2_2
I0219 12:23:00.853682  3815 net.cpp:157] Top shape: 1 128 150 150 (2880000)
I0219 12:23:00.853693  3815 net.cpp:165] Memory required for data: 144000192
I0219 12:23:00.853711  3815 layer_factory.hpp:77] Creating layer relu2_2
I0219 12:23:00.853730  3815 net.cpp:100] Creating Layer relu2_2
I0219 12:23:00.853740  3815 net.cpp:434] relu2_2 <- conv2_2
I0219 12:23:00.853754  3815 net.cpp:395] relu2_2 -> conv2_2 (in-place)
I0219 12:23:00.854318  3815 net.cpp:150] Setting up relu2_2
I0219 12:23:00.854344  3815 net.cpp:157] Top shape: 1 128 150 150 (2880000)
I0219 12:23:00.854353  3815 net.cpp:165] Memory required for data: 155520192
I0219 12:23:00.854363  3815 layer_factory.hpp:77] Creating layer pool2
I0219 12:23:00.854377  3815 net.cpp:100] Creating Layer pool2
I0219 12:23:00.854387  3815 net.cpp:434] pool2 <- conv2_2
I0219 12:23:00.854399  3815 net.cpp:408] pool2 -> pool2
I0219 12:23:00.854514  3815 net.cpp:150] Setting up pool2
I0219 12:23:00.854542  3815 net.cpp:157] Top shape: 1 128 75 75 (720000)
I0219 12:23:00.854552  3815 net.cpp:165] Memory required for data: 158400192
I0219 12:23:00.854562  3815 layer_factory.hpp:77] Creating layer conv3_1
I0219 12:23:00.854583  3815 net.cpp:100] Creating Layer conv3_1
I0219 12:23:00.854593  3815 net.cpp:434] conv3_1 <- pool2
I0219 12:23:00.854607  3815 net.cpp:408] conv3_1 -> conv3_1
I0219 12:23:00.861805  3815 net.cpp:150] Setting up conv3_1
I0219 12:23:00.861838  3815 net.cpp:157] Top shape: 1 256 75 75 (1440000)
I0219 12:23:00.861848  3815 net.cpp:165] Memory required for data: 164160192
I0219 12:23:00.861871  3815 layer_factory.hpp:77] Creating layer relu3_1
I0219 12:23:00.861886  3815 net.cpp:100] Creating Layer relu3_1
I0219 12:23:00.861901  3815 net.cpp:434] relu3_1 <- conv3_1
I0219 12:23:00.861914  3815 net.cpp:395] relu3_1 -> conv3_1 (in-place)
I0219 12:23:00.862263  3815 net.cpp:150] Setting up relu3_1
I0219 12:23:00.862283  3815 net.cpp:157] Top shape: 1 256 75 75 (1440000)
I0219 12:23:00.862292  3815 net.cpp:165] Memory required for data: 169920192
I0219 12:23:00.862300  3815 layer_factory.hpp:77] Creating layer conv3_2
I0219 12:23:00.862319  3815 net.cpp:100] Creating Layer conv3_2
I0219 12:23:00.862329  3815 net.cpp:434] conv3_2 <- conv3_1
I0219 12:23:00.862342  3815 net.cpp:408] conv3_2 -> conv3_2
I0219 12:23:00.873992  3815 net.cpp:150] Setting up conv3_2
I0219 12:23:00.874043  3815 net.cpp:157] Top shape: 1 256 75 75 (1440000)
I0219 12:23:00.874053  3815 net.cpp:165] Memory required for data: 175680192
I0219 12:23:00.874073  3815 layer_factory.hpp:77] Creating layer relu3_2
I0219 12:23:00.874089  3815 net.cpp:100] Creating Layer relu3_2
I0219 12:23:00.874100  3815 net.cpp:434] relu3_2 <- conv3_2
I0219 12:23:00.874114  3815 net.cpp:395] relu3_2 -> conv3_2 (in-place)
I0219 12:23:00.874442  3815 net.cpp:150] Setting up relu3_2
I0219 12:23:00.874462  3815 net.cpp:157] Top shape: 1 256 75 75 (1440000)
I0219 12:23:00.874470  3815 net.cpp:165] Memory required for data: 181440192
I0219 12:23:00.874480  3815 layer_factory.hpp:77] Creating layer conv3_3
I0219 12:23:00.874505  3815 net.cpp:100] Creating Layer conv3_3
I0219 12:23:00.874514  3815 net.cpp:434] conv3_3 <- conv3_2
I0219 12:23:00.874539  3815 net.cpp:408] conv3_3 -> conv3_3
I0219 12:23:00.886310  3815 net.cpp:150] Setting up conv3_3
I0219 12:23:00.886351  3815 net.cpp:157] Top shape: 1 256 75 75 (1440000)
I0219 12:23:00.886361  3815 net.cpp:165] Memory required for data: 187200192
I0219 12:23:00.886378  3815 layer_factory.hpp:77] Creating layer relu3_3
I0219 12:23:00.886394  3815 net.cpp:100] Creating Layer relu3_3
I0219 12:23:00.886405  3815 net.cpp:434] relu3_3 <- conv3_3
I0219 12:23:00.886417  3815 net.cpp:395] relu3_3 -> conv3_3 (in-place)
I0219 12:23:00.886955  3815 net.cpp:150] Setting up relu3_3
I0219 12:23:00.886976  3815 net.cpp:157] Top shape: 1 256 75 75 (1440000)
I0219 12:23:00.886986  3815 net.cpp:165] Memory required for data: 192960192
I0219 12:23:00.886993  3815 layer_factory.hpp:77] Creating layer pool3
I0219 12:23:00.887006  3815 net.cpp:100] Creating Layer pool3
I0219 12:23:00.887014  3815 net.cpp:434] pool3 <- conv3_3
I0219 12:23:00.887049  3815 net.cpp:408] pool3 -> pool3
I0219 12:23:00.887148  3815 net.cpp:150] Setting up pool3
I0219 12:23:00.887164  3815 net.cpp:157] Top shape: 1 256 38 38 (369664)
I0219 12:23:00.887171  3815 net.cpp:165] Memory required for data: 194438848
I0219 12:23:00.887178  3815 layer_factory.hpp:77] Creating layer conv4_1
I0219 12:23:00.887197  3815 net.cpp:100] Creating Layer conv4_1
I0219 12:23:00.887203  3815 net.cpp:434] conv4_1 <- pool3
I0219 12:23:00.887215  3815 net.cpp:408] conv4_1 -> conv4_1
I0219 12:23:00.906071  3815 net.cpp:150] Setting up conv4_1
I0219 12:23:00.906118  3815 net.cpp:157] Top shape: 1 512 38 38 (739328)
I0219 12:23:00.906128  3815 net.cpp:165] Memory required for data: 197396160
I0219 12:23:00.906146  3815 layer_factory.hpp:77] Creating layer relu4_1
I0219 12:23:00.906162  3815 net.cpp:100] Creating Layer relu4_1
I0219 12:23:00.906182  3815 net.cpp:434] relu4_1 <- conv4_1
I0219 12:23:00.906194  3815 net.cpp:395] relu4_1 -> conv4_1 (in-place)
I0219 12:23:00.906512  3815 net.cpp:150] Setting up relu4_1
I0219 12:23:00.906536  3815 net.cpp:157] Top shape: 1 512 38 38 (739328)
I0219 12:23:00.906544  3815 net.cpp:165] Memory required for data: 200353472
I0219 12:23:00.906551  3815 layer_factory.hpp:77] Creating layer conv4_2
I0219 12:23:00.906570  3815 net.cpp:100] Creating Layer conv4_2
I0219 12:23:00.906581  3815 net.cpp:434] conv4_2 <- conv4_1
I0219 12:23:00.906599  3815 net.cpp:408] conv4_2 -> conv4_2
I0219 12:23:00.940173  3815 net.cpp:150] Setting up conv4_2
I0219 12:23:00.940235  3815 net.cpp:157] Top shape: 1 512 38 38 (739328)
I0219 12:23:00.940249  3815 net.cpp:165] Memory required for data: 203310784
I0219 12:23:00.940274  3815 layer_factory.hpp:77] Creating layer relu4_2
I0219 12:23:00.940295  3815 net.cpp:100] Creating Layer relu4_2
I0219 12:23:00.940304  3815 net.cpp:434] relu4_2 <- conv4_2
I0219 12:23:00.940315  3815 net.cpp:395] relu4_2 -> conv4_2 (in-place)
I0219 12:23:00.940593  3815 net.cpp:150] Setting up relu4_2
I0219 12:23:00.940608  3815 net.cpp:157] Top shape: 1 512 38 38 (739328)
I0219 12:23:00.940614  3815 net.cpp:165] Memory required for data: 206268096
I0219 12:23:00.940620  3815 layer_factory.hpp:77] Creating layer conv4_3
I0219 12:23:00.940637  3815 net.cpp:100] Creating Layer conv4_3
I0219 12:23:00.940646  3815 net.cpp:434] conv4_3 <- conv4_2
I0219 12:23:00.940657  3815 net.cpp:408] conv4_3 -> conv4_3
I0219 12:23:00.970986  3815 net.cpp:150] Setting up conv4_3
I0219 12:23:00.971032  3815 net.cpp:157] Top shape: 1 512 38 38 (739328)
I0219 12:23:00.971040  3815 net.cpp:165] Memory required for data: 209225408
I0219 12:23:00.971055  3815 layer_factory.hpp:77] Creating layer relu4_3
I0219 12:23:00.971070  3815 net.cpp:100] Creating Layer relu4_3
I0219 12:23:00.971078  3815 net.cpp:434] relu4_3 <- conv4_3
I0219 12:23:00.971088  3815 net.cpp:395] relu4_3 -> conv4_3 (in-place)
I0219 12:23:00.971545  3815 net.cpp:150] Setting up relu4_3
I0219 12:23:00.971565  3815 net.cpp:157] Top shape: 1 512 38 38 (739328)
I0219 12:23:00.971570  3815 net.cpp:165] Memory required for data: 212182720
I0219 12:23:00.971577  3815 layer_factory.hpp:77] Creating layer conv4_3_relu4_3_0_split
I0219 12:23:00.971586  3815 net.cpp:100] Creating Layer conv4_3_relu4_3_0_split
I0219 12:23:00.971593  3815 net.cpp:434] conv4_3_relu4_3_0_split <- conv4_3
I0219 12:23:00.971602  3815 net.cpp:408] conv4_3_relu4_3_0_split -> conv4_3_relu4_3_0_split_0
I0219 12:23:00.971614  3815 net.cpp:408] conv4_3_relu4_3_0_split -> conv4_3_relu4_3_0_split_1
I0219 12:23:00.971689  3815 net.cpp:150] Setting up conv4_3_relu4_3_0_split
I0219 12:23:00.971702  3815 net.cpp:157] Top shape: 1 512 38 38 (739328)
I0219 12:23:00.971710  3815 net.cpp:157] Top shape: 1 512 38 38 (739328)
I0219 12:23:00.971715  3815 net.cpp:165] Memory required for data: 218097344
I0219 12:23:00.971721  3815 layer_factory.hpp:77] Creating layer pool4
I0219 12:23:00.971734  3815 net.cpp:100] Creating Layer pool4
I0219 12:23:00.971740  3815 net.cpp:434] pool4 <- conv4_3_relu4_3_0_split_0
I0219 12:23:00.971748  3815 net.cpp:408] pool4 -> pool4
I0219 12:23:00.971842  3815 net.cpp:150] Setting up pool4
I0219 12:23:00.971854  3815 net.cpp:157] Top shape: 1 512 19 19 (184832)
I0219 12:23:00.971860  3815 net.cpp:165] Memory required for data: 218836672
I0219 12:23:00.971865  3815 layer_factory.hpp:77] Creating layer conv5_1
I0219 12:23:00.971882  3815 net.cpp:100] Creating Layer conv5_1
I0219 12:23:00.971891  3815 net.cpp:434] conv5_1 <- pool4
I0219 12:23:00.971902  3815 net.cpp:408] conv5_1 -> conv5_1
I0219 12:23:01.001896  3815 net.cpp:150] Setting up conv5_1
I0219 12:23:01.001947  3815 net.cpp:157] Top shape: 1 512 19 19 (184832)
I0219 12:23:01.001955  3815 net.cpp:165] Memory required for data: 219576000
I0219 12:23:01.001971  3815 layer_factory.hpp:77] Creating layer relu5_1
I0219 12:23:01.001986  3815 net.cpp:100] Creating Layer relu5_1
I0219 12:23:01.001993  3815 net.cpp:434] relu5_1 <- conv5_1
I0219 12:23:01.002005  3815 net.cpp:395] relu5_1 -> conv5_1 (in-place)
I0219 12:23:01.002284  3815 net.cpp:150] Setting up relu5_1
I0219 12:23:01.002300  3815 net.cpp:157] Top shape: 1 512 19 19 (184832)
I0219 12:23:01.002306  3815 net.cpp:165] Memory required for data: 220315328
I0219 12:23:01.002313  3815 layer_factory.hpp:77] Creating layer conv5_2
I0219 12:23:01.002331  3815 net.cpp:100] Creating Layer conv5_2
I0219 12:23:01.002339  3815 net.cpp:434] conv5_2 <- conv5_1
I0219 12:23:01.002351  3815 net.cpp:408] conv5_2 -> conv5_2
I0219 12:23:01.032373  3815 net.cpp:150] Setting up conv5_2
I0219 12:23:01.032421  3815 net.cpp:157] Top shape: 1 512 19 19 (184832)
I0219 12:23:01.032428  3815 net.cpp:165] Memory required for data: 221054656
I0219 12:23:01.032443  3815 layer_factory.hpp:77] Creating layer relu5_2
I0219 12:23:01.032457  3815 net.cpp:100] Creating Layer relu5_2
I0219 12:23:01.032466  3815 net.cpp:434] relu5_2 <- conv5_2
I0219 12:23:01.032480  3815 net.cpp:395] relu5_2 -> conv5_2 (in-place)
I0219 12:23:01.032764  3815 net.cpp:150] Setting up relu5_2
I0219 12:23:01.032781  3815 net.cpp:157] Top shape: 1 512 19 19 (184832)
I0219 12:23:01.032786  3815 net.cpp:165] Memory required for data: 221793984
I0219 12:23:01.032793  3815 layer_factory.hpp:77] Creating layer conv5_3
I0219 12:23:01.032811  3815 net.cpp:100] Creating Layer conv5_3
I0219 12:23:01.032820  3815 net.cpp:434] conv5_3 <- conv5_2
I0219 12:23:01.032832  3815 net.cpp:408] conv5_3 -> conv5_3
I0219 12:23:01.062616  3815 net.cpp:150] Setting up conv5_3
I0219 12:23:01.062665  3815 net.cpp:157] Top shape: 1 512 19 19 (184832)
I0219 12:23:01.062674  3815 net.cpp:165] Memory required for data: 222533312
I0219 12:23:01.062690  3815 layer_factory.hpp:77] Creating layer relu5_3
I0219 12:23:01.062713  3815 net.cpp:100] Creating Layer relu5_3
I0219 12:23:01.062726  3815 net.cpp:434] relu5_3 <- conv5_3
I0219 12:23:01.062738  3815 net.cpp:395] relu5_3 -> conv5_3 (in-place)
I0219 12:23:01.063236  3815 net.cpp:150] Setting up relu5_3
I0219 12:23:01.063257  3815 net.cpp:157] Top shape: 1 512 19 19 (184832)
I0219 12:23:01.063264  3815 net.cpp:165] Memory required for data: 223272640
I0219 12:23:01.063272  3815 layer_factory.hpp:77] Creating layer pool5
I0219 12:23:01.063285  3815 net.cpp:100] Creating Layer pool5
I0219 12:23:01.063293  3815 net.cpp:434] pool5 <- conv5_3
I0219 12:23:01.063305  3815 net.cpp:408] pool5 -> pool5
I0219 12:23:01.063401  3815 net.cpp:150] Setting up pool5
I0219 12:23:01.063416  3815 net.cpp:157] Top shape: 1 512 19 19 (184832)
I0219 12:23:01.063423  3815 net.cpp:165] Memory required for data: 224011968
I0219 12:23:01.063429  3815 layer_factory.hpp:77] Creating layer fc6
I0219 12:23:01.063448  3815 net.cpp:100] Creating Layer fc6
I0219 12:23:01.063457  3815 net.cpp:434] fc6 <- pool5
I0219 12:23:01.063470  3815 net.cpp:408] fc6 -> fc6
I0219 12:23:01.120687  3815 net.cpp:150] Setting up fc6
I0219 12:23:01.120728  3815 net.cpp:157] Top shape: 1 1024 19 19 (369664)
I0219 12:23:01.120735  3815 net.cpp:165] Memory required for data: 225490624
I0219 12:23:01.120748  3815 layer_factory.hpp:77] Creating layer relu6
I0219 12:23:01.120765  3815 net.cpp:100] Creating Layer relu6
I0219 12:23:01.120800  3815 net.cpp:434] relu6 <- fc6
I0219 12:23:01.120815  3815 net.cpp:395] relu6 -> fc6 (in-place)
I0219 12:23:01.121165  3815 net.cpp:150] Setting up relu6
I0219 12:23:01.121181  3815 net.cpp:157] Top shape: 1 1024 19 19 (369664)
I0219 12:23:01.121187  3815 net.cpp:165] Memory required for data: 226969280
I0219 12:23:01.121194  3815 layer_factory.hpp:77] Creating layer fc7
I0219 12:23:01.121212  3815 net.cpp:100] Creating Layer fc7
I0219 12:23:01.121218  3815 net.cpp:434] fc7 <- fc6
I0219 12:23:01.121234  3815 net.cpp:408] fc7 -> fc7
I0219 12:23:01.135526  3815 net.cpp:150] Setting up fc7
I0219 12:23:01.135562  3815 net.cpp:157] Top shape: 1 1024 19 19 (369664)
I0219 12:23:01.135571  3815 net.cpp:165] Memory required for data: 228447936
I0219 12:23:01.135586  3815 layer_factory.hpp:77] Creating layer relu7
I0219 12:23:01.135603  3815 net.cpp:100] Creating Layer relu7
I0219 12:23:01.135628  3815 net.cpp:434] relu7 <- fc7
I0219 12:23:01.135640  3815 net.cpp:395] relu7 -> fc7 (in-place)
I0219 12:23:01.136116  3815 net.cpp:150] Setting up relu7
I0219 12:23:01.136137  3815 net.cpp:157] Top shape: 1 1024 19 19 (369664)
I0219 12:23:01.136144  3815 net.cpp:165] Memory required for data: 229926592
I0219 12:23:01.136152  3815 layer_factory.hpp:77] Creating layer fc7_relu7_0_split
I0219 12:23:01.136167  3815 net.cpp:100] Creating Layer fc7_relu7_0_split
I0219 12:23:01.136178  3815 net.cpp:434] fc7_relu7_0_split <- fc7
I0219 12:23:01.136188  3815 net.cpp:408] fc7_relu7_0_split -> fc7_relu7_0_split_0
I0219 12:23:01.136198  3815 net.cpp:408] fc7_relu7_0_split -> fc7_relu7_0_split_1
I0219 12:23:01.136219  3815 net.cpp:408] fc7_relu7_0_split -> fc7_relu7_0_split_2
I0219 12:23:01.136232  3815 net.cpp:408] fc7_relu7_0_split -> fc7_relu7_0_split_3
I0219 12:23:01.136368  3815 net.cpp:150] Setting up fc7_relu7_0_split
I0219 12:23:01.136382  3815 net.cpp:157] Top shape: 1 1024 19 19 (369664)
I0219 12:23:01.136390  3815 net.cpp:157] Top shape: 1 1024 19 19 (369664)
I0219 12:23:01.136399  3815 net.cpp:157] Top shape: 1 1024 19 19 (369664)
I0219 12:23:01.136405  3815 net.cpp:157] Top shape: 1 1024 19 19 (369664)
I0219 12:23:01.136410  3815 net.cpp:165] Memory required for data: 235841216
I0219 12:23:01.136415  3815 layer_factory.hpp:77] Creating layer conv6_1
I0219 12:23:01.136437  3815 net.cpp:100] Creating Layer conv6_1
I0219 12:23:01.136447  3815 net.cpp:434] conv6_1 <- fc7_relu7_0_split_0
I0219 12:23:01.136463  3815 net.cpp:408] conv6_1 -> conv6_1
I0219 12:23:01.141446  3815 net.cpp:150] Setting up conv6_1
I0219 12:23:01.141471  3815 net.cpp:157] Top shape: 1 256 19 19 (92416)
I0219 12:23:01.141479  3815 net.cpp:165] Memory required for data: 236210880
I0219 12:23:01.141489  3815 layer_factory.hpp:77] Creating layer conv6_1_relu
I0219 12:23:01.141508  3815 net.cpp:100] Creating Layer conv6_1_relu
I0219 12:23:01.141515  3815 net.cpp:434] conv6_1_relu <- conv6_1
I0219 12:23:01.141525  3815 net.cpp:395] conv6_1_relu -> conv6_1 (in-place)
I0219 12:23:01.141966  3815 net.cpp:150] Setting up conv6_1_relu
I0219 12:23:01.141985  3815 net.cpp:157] Top shape: 1 256 19 19 (92416)
I0219 12:23:01.141991  3815 net.cpp:165] Memory required for data: 236580544
I0219 12:23:01.141997  3815 layer_factory.hpp:77] Creating layer conv6_2
I0219 12:23:01.142014  3815 net.cpp:100] Creating Layer conv6_2
I0219 12:23:01.142019  3815 net.cpp:434] conv6_2 <- conv6_1
I0219 12:23:01.142031  3815 net.cpp:408] conv6_2 -> conv6_2
I0219 12:23:01.157742  3815 net.cpp:150] Setting up conv6_2
I0219 12:23:01.157773  3815 net.cpp:157] Top shape: 1 512 10 10 (51200)
I0219 12:23:01.157779  3815 net.cpp:165] Memory required for data: 236785344
I0219 12:23:01.157806  3815 layer_factory.hpp:77] Creating layer conv6_2_relu
I0219 12:23:01.157820  3815 net.cpp:100] Creating Layer conv6_2_relu
I0219 12:23:01.157829  3815 net.cpp:434] conv6_2_relu <- conv6_2
I0219 12:23:01.157848  3815 net.cpp:395] conv6_2_relu -> conv6_2 (in-place)
I0219 12:23:01.158161  3815 net.cpp:150] Setting up conv6_2_relu
I0219 12:23:01.158180  3815 net.cpp:157] Top shape: 1 512 10 10 (51200)
I0219 12:23:01.158206  3815 net.cpp:165] Memory required for data: 236990144
I0219 12:23:01.158216  3815 layer_factory.hpp:77] Creating layer conv6_2_conv6_2_relu_0_split
I0219 12:23:01.158227  3815 net.cpp:100] Creating Layer conv6_2_conv6_2_relu_0_split
I0219 12:23:01.158234  3815 net.cpp:434] conv6_2_conv6_2_relu_0_split <- conv6_2
I0219 12:23:01.158247  3815 net.cpp:408] conv6_2_conv6_2_relu_0_split -> conv6_2_conv6_2_relu_0_split_0
I0219 12:23:01.158260  3815 net.cpp:408] conv6_2_conv6_2_relu_0_split -> conv6_2_conv6_2_relu_0_split_1
I0219 12:23:01.158272  3815 net.cpp:408] conv6_2_conv6_2_relu_0_split -> conv6_2_conv6_2_relu_0_split_2
I0219 12:23:01.158282  3815 net.cpp:408] conv6_2_conv6_2_relu_0_split -> conv6_2_conv6_2_relu_0_split_3
I0219 12:23:01.158437  3815 net.cpp:150] Setting up conv6_2_conv6_2_relu_0_split
I0219 12:23:01.158457  3815 net.cpp:157] Top shape: 1 512 10 10 (51200)
I0219 12:23:01.158464  3815 net.cpp:157] Top shape: 1 512 10 10 (51200)
I0219 12:23:01.158471  3815 net.cpp:157] Top shape: 1 512 10 10 (51200)
I0219 12:23:01.158478  3815 net.cpp:157] Top shape: 1 512 10 10 (51200)
I0219 12:23:01.158483  3815 net.cpp:165] Memory required for data: 237809344
I0219 12:23:01.158488  3815 layer_factory.hpp:77] Creating layer conv7_1
I0219 12:23:01.158506  3815 net.cpp:100] Creating Layer conv7_1
I0219 12:23:01.158514  3815 net.cpp:434] conv7_1 <- conv6_2_conv6_2_relu_0_split_0
I0219 12:23:01.158534  3815 net.cpp:408] conv7_1 -> conv7_1
I0219 12:23:01.161730  3815 net.cpp:150] Setting up conv7_1
I0219 12:23:01.161752  3815 net.cpp:157] Top shape: 1 128 10 10 (12800)
I0219 12:23:01.161761  3815 net.cpp:165] Memory required for data: 237860544
I0219 12:23:01.161772  3815 layer_factory.hpp:77] Creating layer conv7_1_relu
I0219 12:23:01.161785  3815 net.cpp:100] Creating Layer conv7_1_relu
I0219 12:23:01.161793  3815 net.cpp:434] conv7_1_relu <- conv7_1
I0219 12:23:01.161803  3815 net.cpp:395] conv7_1_relu -> conv7_1 (in-place)
I0219 12:23:01.162362  3815 net.cpp:150] Setting up conv7_1_relu
I0219 12:23:01.162384  3815 net.cpp:157] Top shape: 1 128 10 10 (12800)
I0219 12:23:01.162391  3815 net.cpp:165] Memory required for data: 237911744
I0219 12:23:01.162398  3815 layer_factory.hpp:77] Creating layer conv7_2
I0219 12:23:01.162418  3815 net.cpp:100] Creating Layer conv7_2
I0219 12:23:01.162426  3815 net.cpp:434] conv7_2 <- conv7_1
I0219 12:23:01.162441  3815 net.cpp:408] conv7_2 -> conv7_2
I0219 12:23:01.168078  3815 net.cpp:150] Setting up conv7_2
I0219 12:23:01.168124  3815 net.cpp:157] Top shape: 1 256 5 5 (6400)
I0219 12:23:01.168133  3815 net.cpp:165] Memory required for data: 237937344
I0219 12:23:01.168148  3815 layer_factory.hpp:77] Creating layer conv7_2_relu
I0219 12:23:01.168162  3815 net.cpp:100] Creating Layer conv7_2_relu
I0219 12:23:01.168172  3815 net.cpp:434] conv7_2_relu <- conv7_2
I0219 12:23:01.168182  3815 net.cpp:395] conv7_2_relu -> conv7_2 (in-place)
I0219 12:23:01.168663  3815 net.cpp:150] Setting up conv7_2_relu
I0219 12:23:01.168684  3815 net.cpp:157] Top shape: 1 256 5 5 (6400)
I0219 12:23:01.168691  3815 net.cpp:165] Memory required for data: 237962944
I0219 12:23:01.168697  3815 layer_factory.hpp:77] Creating layer conv7_2_conv7_2_relu_0_split
I0219 12:23:01.168709  3815 net.cpp:100] Creating Layer conv7_2_conv7_2_relu_0_split
I0219 12:23:01.168716  3815 net.cpp:434] conv7_2_conv7_2_relu_0_split <- conv7_2
I0219 12:23:01.168728  3815 net.cpp:408] conv7_2_conv7_2_relu_0_split -> conv7_2_conv7_2_relu_0_split_0
I0219 12:23:01.168742  3815 net.cpp:408] conv7_2_conv7_2_relu_0_split -> conv7_2_conv7_2_relu_0_split_1
I0219 12:23:01.168754  3815 net.cpp:408] conv7_2_conv7_2_relu_0_split -> conv7_2_conv7_2_relu_0_split_2
I0219 12:23:01.168772  3815 net.cpp:408] conv7_2_conv7_2_relu_0_split -> conv7_2_conv7_2_relu_0_split_3
I0219 12:23:01.168951  3815 net.cpp:150] Setting up conv7_2_conv7_2_relu_0_split
I0219 12:23:01.168965  3815 net.cpp:157] Top shape: 1 256 5 5 (6400)
I0219 12:23:01.168973  3815 net.cpp:157] Top shape: 1 256 5 5 (6400)
I0219 12:23:01.168982  3815 net.cpp:157] Top shape: 1 256 5 5 (6400)
I0219 12:23:01.169009  3815 net.cpp:157] Top shape: 1 256 5 5 (6400)
I0219 12:23:01.169016  3815 net.cpp:165] Memory required for data: 238065344
I0219 12:23:01.169023  3815 layer_factory.hpp:77] Creating layer conv8_1
I0219 12:23:01.169044  3815 net.cpp:100] Creating Layer conv8_1
I0219 12:23:01.169055  3815 net.cpp:434] conv8_1 <- conv7_2_conv7_2_relu_0_split_0
I0219 12:23:01.169066  3815 net.cpp:408] conv8_1 -> conv8_1
I0219 12:23:01.171322  3815 net.cpp:150] Setting up conv8_1
I0219 12:23:01.171345  3815 net.cpp:157] Top shape: 1 128 5 5 (3200)
I0219 12:23:01.171353  3815 net.cpp:165] Memory required for data: 238078144
I0219 12:23:01.171365  3815 layer_factory.hpp:77] Creating layer conv8_1_relu
I0219 12:23:01.171377  3815 net.cpp:100] Creating Layer conv8_1_relu
I0219 12:23:01.171386  3815 net.cpp:434] conv8_1_relu <- conv8_1
I0219 12:23:01.171396  3815 net.cpp:395] conv8_1_relu -> conv8_1 (in-place)
I0219 12:23:01.171701  3815 net.cpp:150] Setting up conv8_1_relu
I0219 12:23:01.171720  3815 net.cpp:157] Top shape: 1 128 5 5 (3200)
I0219 12:23:01.171728  3815 net.cpp:165] Memory required for data: 238090944
I0219 12:23:01.171736  3815 layer_factory.hpp:77] Creating layer conv8_2
I0219 12:23:01.171752  3815 net.cpp:100] Creating Layer conv8_2
I0219 12:23:01.171759  3815 net.cpp:434] conv8_2 <- conv8_1
I0219 12:23:01.171773  3815 net.cpp:408] conv8_2 -> conv8_2
I0219 12:23:01.177609  3815 net.cpp:150] Setting up conv8_2
I0219 12:23:01.177633  3815 net.cpp:157] Top shape: 1 256 3 3 (2304)
I0219 12:23:01.177641  3815 net.cpp:165] Memory required for data: 238100160
I0219 12:23:01.177652  3815 layer_factory.hpp:77] Creating layer conv8_2_relu
I0219 12:23:01.177666  3815 net.cpp:100] Creating Layer conv8_2_relu
I0219 12:23:01.177675  3815 net.cpp:434] conv8_2_relu <- conv8_2
I0219 12:23:01.177685  3815 net.cpp:395] conv8_2_relu -> conv8_2 (in-place)
I0219 12:23:01.178272  3815 net.cpp:150] Setting up conv8_2_relu
I0219 12:23:01.178294  3815 net.cpp:157] Top shape: 1 256 3 3 (2304)
I0219 12:23:01.178303  3815 net.cpp:165] Memory required for data: 238109376
I0219 12:23:01.178309  3815 layer_factory.hpp:77] Creating layer conv8_2_conv8_2_relu_0_split
I0219 12:23:01.178319  3815 net.cpp:100] Creating Layer conv8_2_conv8_2_relu_0_split
I0219 12:23:01.178326  3815 net.cpp:434] conv8_2_conv8_2_relu_0_split <- conv8_2
I0219 12:23:01.178339  3815 net.cpp:408] conv8_2_conv8_2_relu_0_split -> conv8_2_conv8_2_relu_0_split_0
I0219 12:23:01.178352  3815 net.cpp:408] conv8_2_conv8_2_relu_0_split -> conv8_2_conv8_2_relu_0_split_1
I0219 12:23:01.178364  3815 net.cpp:408] conv8_2_conv8_2_relu_0_split -> conv8_2_conv8_2_relu_0_split_2
I0219 12:23:01.178375  3815 net.cpp:408] conv8_2_conv8_2_relu_0_split -> conv8_2_conv8_2_relu_0_split_3
I0219 12:23:01.178560  3815 net.cpp:150] Setting up conv8_2_conv8_2_relu_0_split
I0219 12:23:01.178580  3815 net.cpp:157] Top shape: 1 256 3 3 (2304)
I0219 12:23:01.178589  3815 net.cpp:157] Top shape: 1 256 3 3 (2304)
I0219 12:23:01.178599  3815 net.cpp:157] Top shape: 1 256 3 3 (2304)
I0219 12:23:01.178609  3815 net.cpp:157] Top shape: 1 256 3 3 (2304)
I0219 12:23:01.178616  3815 net.cpp:165] Memory required for data: 238146240
I0219 12:23:01.178622  3815 layer_factory.hpp:77] Creating layer conv9_1
I0219 12:23:01.178638  3815 net.cpp:100] Creating Layer conv9_1
I0219 12:23:01.178647  3815 net.cpp:434] conv9_1 <- conv8_2_conv8_2_relu_0_split_0
I0219 12:23:01.178660  3815 net.cpp:408] conv9_1 -> conv9_1
I0219 12:23:01.180742  3815 net.cpp:150] Setting up conv9_1
I0219 12:23:01.180766  3815 net.cpp:157] Top shape: 1 128 3 3 (1152)
I0219 12:23:01.180773  3815 net.cpp:165] Memory required for data: 238150848
I0219 12:23:01.180784  3815 layer_factory.hpp:77] Creating layer conv9_1_relu
I0219 12:23:01.180794  3815 net.cpp:100] Creating Layer conv9_1_relu
I0219 12:23:01.180801  3815 net.cpp:434] conv9_1_relu <- conv9_1
I0219 12:23:01.180810  3815 net.cpp:395] conv9_1_relu -> conv9_1 (in-place)
I0219 12:23:01.181275  3815 net.cpp:150] Setting up conv9_1_relu
I0219 12:23:01.181298  3815 net.cpp:157] Top shape: 1 128 3 3 (1152)
I0219 12:23:01.181326  3815 net.cpp:165] Memory required for data: 238155456
I0219 12:23:01.181335  3815 layer_factory.hpp:77] Creating layer conv9_2
I0219 12:23:01.181352  3815 net.cpp:100] Creating Layer conv9_2
I0219 12:23:01.181366  3815 net.cpp:434] conv9_2 <- conv9_1
I0219 12:23:01.181382  3815 net.cpp:408] conv9_2 -> conv9_2
I0219 12:23:01.187000  3815 net.cpp:150] Setting up conv9_2
I0219 12:23:01.187041  3815 net.cpp:157] Top shape: 1 256 1 1 (256)
I0219 12:23:01.187048  3815 net.cpp:165] Memory required for data: 238156480
I0219 12:23:01.187062  3815 layer_factory.hpp:77] Creating layer conv9_2_relu
I0219 12:23:01.187077  3815 net.cpp:100] Creating Layer conv9_2_relu
I0219 12:23:01.187088  3815 net.cpp:434] conv9_2_relu <- conv9_2
I0219 12:23:01.187098  3815 net.cpp:395] conv9_2_relu -> conv9_2 (in-place)
I0219 12:23:01.187374  3815 net.cpp:150] Setting up conv9_2_relu
I0219 12:23:01.187391  3815 net.cpp:157] Top shape: 1 256 1 1 (256)
I0219 12:23:01.187397  3815 net.cpp:165] Memory required for data: 238157504
I0219 12:23:01.187402  3815 layer_factory.hpp:77] Creating layer conv9_2_conv9_2_relu_0_split
I0219 12:23:01.187413  3815 net.cpp:100] Creating Layer conv9_2_conv9_2_relu_0_split
I0219 12:23:01.187420  3815 net.cpp:434] conv9_2_conv9_2_relu_0_split <- conv9_2
I0219 12:23:01.187430  3815 net.cpp:408] conv9_2_conv9_2_relu_0_split -> conv9_2_conv9_2_relu_0_split_0
I0219 12:23:01.187443  3815 net.cpp:408] conv9_2_conv9_2_relu_0_split -> conv9_2_conv9_2_relu_0_split_1
I0219 12:23:01.187453  3815 net.cpp:408] conv9_2_conv9_2_relu_0_split -> conv9_2_conv9_2_relu_0_split_2
I0219 12:23:01.187561  3815 net.cpp:150] Setting up conv9_2_conv9_2_relu_0_split
I0219 12:23:01.187572  3815 net.cpp:157] Top shape: 1 256 1 1 (256)
I0219 12:23:01.187579  3815 net.cpp:157] Top shape: 1 256 1 1 (256)
I0219 12:23:01.187587  3815 net.cpp:157] Top shape: 1 256 1 1 (256)
I0219 12:23:01.187592  3815 net.cpp:165] Memory required for data: 238160576
I0219 12:23:01.187597  3815 layer_factory.hpp:77] Creating layer conv4_3_norm
I0219 12:23:01.187611  3815 net.cpp:100] Creating Layer conv4_3_norm
I0219 12:23:01.187618  3815 net.cpp:434] conv4_3_norm <- conv4_3_relu4_3_0_split_1
I0219 12:23:01.187628  3815 net.cpp:408] conv4_3_norm -> conv4_3_norm
I0219 12:23:01.187954  3815 net.cpp:150] Setting up conv4_3_norm
I0219 12:23:01.187968  3815 net.cpp:157] Top shape: 1 512 38 38 (739328)
I0219 12:23:01.187973  3815 net.cpp:165] Memory required for data: 241117888
I0219 12:23:01.187981  3815 layer_factory.hpp:77] Creating layer conv4_3_norm_conv4_3_norm_0_split
I0219 12:23:01.187993  3815 net.cpp:100] Creating Layer conv4_3_norm_conv4_3_norm_0_split
I0219 12:23:01.187999  3815 net.cpp:434] conv4_3_norm_conv4_3_norm_0_split <- conv4_3_norm
I0219 12:23:01.188005  3815 net.cpp:408] conv4_3_norm_conv4_3_norm_0_split -> conv4_3_norm_conv4_3_norm_0_split_0
I0219 12:23:01.188015  3815 net.cpp:408] conv4_3_norm_conv4_3_norm_0_split -> conv4_3_norm_conv4_3_norm_0_split_1
I0219 12:23:01.188024  3815 net.cpp:408] conv4_3_norm_conv4_3_norm_0_split -> conv4_3_norm_conv4_3_norm_0_split_2
I0219 12:23:01.188119  3815 net.cpp:150] Setting up conv4_3_norm_conv4_3_norm_0_split
I0219 12:23:01.188132  3815 net.cpp:157] Top shape: 1 512 38 38 (739328)
I0219 12:23:01.188139  3815 net.cpp:157] Top shape: 1 512 38 38 (739328)
I0219 12:23:01.188145  3815 net.cpp:157] Top shape: 1 512 38 38 (739328)
I0219 12:23:01.188151  3815 net.cpp:165] Memory required for data: 249989824
I0219 12:23:01.188156  3815 layer_factory.hpp:77] Creating layer conv4_3_norm_mbox_loc
I0219 12:23:01.188174  3815 net.cpp:100] Creating Layer conv4_3_norm_mbox_loc
I0219 12:23:01.188181  3815 net.cpp:434] conv4_3_norm_mbox_loc <- conv4_3_norm_conv4_3_norm_0_split_0
I0219 12:23:01.188191  3815 net.cpp:408] conv4_3_norm_mbox_loc -> conv4_3_norm_mbox_loc
I0219 12:23:01.190891  3815 net.cpp:150] Setting up conv4_3_norm_mbox_loc
I0219 12:23:01.190912  3815 net.cpp:157] Top shape: 1 16 38 38 (23104)
I0219 12:23:01.190920  3815 net.cpp:165] Memory required for data: 250082240
I0219 12:23:01.190956  3815 layer_factory.hpp:77] Creating layer conv4_3_norm_mbox_loc_perm
I0219 12:23:01.190973  3815 net.cpp:100] Creating Layer conv4_3_norm_mbox_loc_perm
I0219 12:23:01.190981  3815 net.cpp:434] conv4_3_norm_mbox_loc_perm <- conv4_3_norm_mbox_loc
I0219 12:23:01.190995  3815 net.cpp:408] conv4_3_norm_mbox_loc_perm -> conv4_3_norm_mbox_loc_perm
I0219 12:23:01.191292  3815 net.cpp:150] Setting up conv4_3_norm_mbox_loc_perm
I0219 12:23:01.191310  3815 net.cpp:157] Top shape: 1 38 38 16 (23104)
I0219 12:23:01.191319  3815 net.cpp:165] Memory required for data: 250174656
I0219 12:23:01.191326  3815 layer_factory.hpp:77] Creating layer conv4_3_norm_mbox_loc_flat
I0219 12:23:01.191337  3815 net.cpp:100] Creating Layer conv4_3_norm_mbox_loc_flat
I0219 12:23:01.191347  3815 net.cpp:434] conv4_3_norm_mbox_loc_flat <- conv4_3_norm_mbox_loc_perm
I0219 12:23:01.191356  3815 net.cpp:408] conv4_3_norm_mbox_loc_flat -> conv4_3_norm_mbox_loc_flat
I0219 12:23:01.191429  3815 net.cpp:150] Setting up conv4_3_norm_mbox_loc_flat
I0219 12:23:01.191444  3815 net.cpp:157] Top shape: 1 23104 (23104)
I0219 12:23:01.191450  3815 net.cpp:165] Memory required for data: 250267072
I0219 12:23:01.191457  3815 layer_factory.hpp:77] Creating layer conv4_3_norm_mbox_conf
I0219 12:23:01.191484  3815 net.cpp:100] Creating Layer conv4_3_norm_mbox_conf
I0219 12:23:01.191496  3815 net.cpp:434] conv4_3_norm_mbox_conf <- conv4_3_norm_conv4_3_norm_0_split_1
I0219 12:23:01.191509  3815 net.cpp:408] conv4_3_norm_mbox_conf -> conv4_3_norm_mbox_conf
I0219 12:23:01.198379  3815 net.cpp:150] Setting up conv4_3_norm_mbox_conf
I0219 12:23:01.198415  3815 net.cpp:157] Top shape: 1 88 38 38 (127072)
I0219 12:23:01.198422  3815 net.cpp:165] Memory required for data: 250775360
I0219 12:23:01.198437  3815 layer_factory.hpp:77] Creating layer conv4_3_norm_mbox_conf_perm
I0219 12:23:01.198456  3815 net.cpp:100] Creating Layer conv4_3_norm_mbox_conf_perm
I0219 12:23:01.198467  3815 net.cpp:434] conv4_3_norm_mbox_conf_perm <- conv4_3_norm_mbox_conf
I0219 12:23:01.198482  3815 net.cpp:408] conv4_3_norm_mbox_conf_perm -> conv4_3_norm_mbox_conf_perm
I0219 12:23:01.198740  3815 net.cpp:150] Setting up conv4_3_norm_mbox_conf_perm
I0219 12:23:01.198760  3815 net.cpp:157] Top shape: 1 38 38 88 (127072)
I0219 12:23:01.198766  3815 net.cpp:165] Memory required for data: 251283648
I0219 12:23:01.198772  3815 layer_factory.hpp:77] Creating layer conv4_3_norm_mbox_conf_flat
I0219 12:23:01.198784  3815 net.cpp:100] Creating Layer conv4_3_norm_mbox_conf_flat
I0219 12:23:01.198791  3815 net.cpp:434] conv4_3_norm_mbox_conf_flat <- conv4_3_norm_mbox_conf_perm
I0219 12:23:01.198801  3815 net.cpp:408] conv4_3_norm_mbox_conf_flat -> conv4_3_norm_mbox_conf_flat
I0219 12:23:01.198858  3815 net.cpp:150] Setting up conv4_3_norm_mbox_conf_flat
I0219 12:23:01.198871  3815 net.cpp:157] Top shape: 1 127072 (127072)
I0219 12:23:01.198876  3815 net.cpp:165] Memory required for data: 251791936
I0219 12:23:01.198882  3815 layer_factory.hpp:77] Creating layer conv4_3_norm_mbox_priorbox
I0219 12:23:01.198896  3815 net.cpp:100] Creating Layer conv4_3_norm_mbox_priorbox
I0219 12:23:01.198904  3815 net.cpp:434] conv4_3_norm_mbox_priorbox <- conv4_3_norm_conv4_3_norm_0_split_2
I0219 12:23:01.198914  3815 net.cpp:434] conv4_3_norm_mbox_priorbox <- data_data_0_split_1
I0219 12:23:01.198925  3815 net.cpp:408] conv4_3_norm_mbox_priorbox -> conv4_3_norm_mbox_priorbox
I0219 12:23:01.198994  3815 net.cpp:150] Setting up conv4_3_norm_mbox_priorbox
I0219 12:23:01.199008  3815 net.cpp:157] Top shape: 1 2 23104 (46208)
I0219 12:23:01.199014  3815 net.cpp:165] Memory required for data: 251976768
I0219 12:23:01.199020  3815 layer_factory.hpp:77] Creating layer fc7_mbox_loc
I0219 12:23:01.199043  3815 net.cpp:100] Creating Layer fc7_mbox_loc
I0219 12:23:01.199051  3815 net.cpp:434] fc7_mbox_loc <- fc7_relu7_0_split_1
I0219 12:23:01.199064  3815 net.cpp:408] fc7_mbox_loc -> fc7_mbox_loc
I0219 12:23:01.204190  3815 net.cpp:150] Setting up fc7_mbox_loc
I0219 12:23:01.204236  3815 net.cpp:157] Top shape: 1 24 19 19 (8664)
I0219 12:23:01.204268  3815 net.cpp:165] Memory required for data: 252011424
I0219 12:23:01.204286  3815 layer_factory.hpp:77] Creating layer fc7_mbox_loc_perm
I0219 12:23:01.204300  3815 net.cpp:100] Creating Layer fc7_mbox_loc_perm
I0219 12:23:01.204310  3815 net.cpp:434] fc7_mbox_loc_perm <- fc7_mbox_loc
I0219 12:23:01.204325  3815 net.cpp:408] fc7_mbox_loc_perm -> fc7_mbox_loc_perm
I0219 12:23:01.204546  3815 net.cpp:150] Setting up fc7_mbox_loc_perm
I0219 12:23:01.204560  3815 net.cpp:157] Top shape: 1 19 19 24 (8664)
I0219 12:23:01.204566  3815 net.cpp:165] Memory required for data: 252046080
I0219 12:23:01.204572  3815 layer_factory.hpp:77] Creating layer fc7_mbox_loc_flat
I0219 12:23:01.204583  3815 net.cpp:100] Creating Layer fc7_mbox_loc_flat
I0219 12:23:01.204589  3815 net.cpp:434] fc7_mbox_loc_flat <- fc7_mbox_loc_perm
I0219 12:23:01.204597  3815 net.cpp:408] fc7_mbox_loc_flat -> fc7_mbox_loc_flat
I0219 12:23:01.204648  3815 net.cpp:150] Setting up fc7_mbox_loc_flat
I0219 12:23:01.204659  3815 net.cpp:157] Top shape: 1 8664 (8664)
I0219 12:23:01.204665  3815 net.cpp:165] Memory required for data: 252080736
I0219 12:23:01.204670  3815 layer_factory.hpp:77] Creating layer fc7_mbox_conf
I0219 12:23:01.204690  3815 net.cpp:100] Creating Layer fc7_mbox_conf
I0219 12:23:01.204697  3815 net.cpp:434] fc7_mbox_conf <- fc7_relu7_0_split_2
I0219 12:23:01.204710  3815 net.cpp:408] fc7_mbox_conf -> fc7_mbox_conf
I0219 12:23:01.220840  3815 net.cpp:150] Setting up fc7_mbox_conf
I0219 12:23:01.220875  3815 net.cpp:157] Top shape: 1 132 19 19 (47652)
I0219 12:23:01.220881  3815 net.cpp:165] Memory required for data: 252271344
I0219 12:23:01.220896  3815 layer_factory.hpp:77] Creating layer fc7_mbox_conf_perm
I0219 12:23:01.220914  3815 net.cpp:100] Creating Layer fc7_mbox_conf_perm
I0219 12:23:01.220924  3815 net.cpp:434] fc7_mbox_conf_perm <- fc7_mbox_conf
I0219 12:23:01.220938  3815 net.cpp:408] fc7_mbox_conf_perm -> fc7_mbox_conf_perm
I0219 12:23:01.221153  3815 net.cpp:150] Setting up fc7_mbox_conf_perm
I0219 12:23:01.221168  3815 net.cpp:157] Top shape: 1 19 19 132 (47652)
I0219 12:23:01.221174  3815 net.cpp:165] Memory required for data: 252461952
I0219 12:23:01.221179  3815 layer_factory.hpp:77] Creating layer fc7_mbox_conf_flat
I0219 12:23:01.221192  3815 net.cpp:100] Creating Layer fc7_mbox_conf_flat
I0219 12:23:01.221199  3815 net.cpp:434] fc7_mbox_conf_flat <- fc7_mbox_conf_perm
I0219 12:23:01.221209  3815 net.cpp:408] fc7_mbox_conf_flat -> fc7_mbox_conf_flat
I0219 12:23:01.221257  3815 net.cpp:150] Setting up fc7_mbox_conf_flat
I0219 12:23:01.221269  3815 net.cpp:157] Top shape: 1 47652 (47652)
I0219 12:23:01.221276  3815 net.cpp:165] Memory required for data: 252652560
I0219 12:23:01.221281  3815 layer_factory.hpp:77] Creating layer fc7_mbox_priorbox
I0219 12:23:01.221294  3815 net.cpp:100] Creating Layer fc7_mbox_priorbox
I0219 12:23:01.221302  3815 net.cpp:434] fc7_mbox_priorbox <- fc7_relu7_0_split_3
I0219 12:23:01.221309  3815 net.cpp:434] fc7_mbox_priorbox <- data_data_0_split_2
I0219 12:23:01.221319  3815 net.cpp:408] fc7_mbox_priorbox -> fc7_mbox_priorbox
I0219 12:23:01.221377  3815 net.cpp:150] Setting up fc7_mbox_priorbox
I0219 12:23:01.221390  3815 net.cpp:157] Top shape: 1 2 8664 (17328)
I0219 12:23:01.221395  3815 net.cpp:165] Memory required for data: 252721872
I0219 12:23:01.221400  3815 layer_factory.hpp:77] Creating layer conv6_2_mbox_loc
I0219 12:23:01.221420  3815 net.cpp:100] Creating Layer conv6_2_mbox_loc
I0219 12:23:01.221426  3815 net.cpp:434] conv6_2_mbox_loc <- conv6_2_conv6_2_relu_0_split_1
I0219 12:23:01.221439  3815 net.cpp:408] conv6_2_mbox_loc -> conv6_2_mbox_loc
I0219 12:23:01.224969  3815 net.cpp:150] Setting up conv6_2_mbox_loc
I0219 12:23:01.224995  3815 net.cpp:157] Top shape: 1 24 10 10 (2400)
I0219 12:23:01.225003  3815 net.cpp:165] Memory required for data: 252731472
I0219 12:23:01.225013  3815 layer_factory.hpp:77] Creating layer conv6_2_mbox_loc_perm
I0219 12:23:01.225028  3815 net.cpp:100] Creating Layer conv6_2_mbox_loc_perm
I0219 12:23:01.225034  3815 net.cpp:434] conv6_2_mbox_loc_perm <- conv6_2_mbox_loc
I0219 12:23:01.225069  3815 net.cpp:408] conv6_2_mbox_loc_perm -> conv6_2_mbox_loc_perm
I0219 12:23:01.225327  3815 net.cpp:150] Setting up conv6_2_mbox_loc_perm
I0219 12:23:01.225348  3815 net.cpp:157] Top shape: 1 10 10 24 (2400)
I0219 12:23:01.225355  3815 net.cpp:165] Memory required for data: 252741072
I0219 12:23:01.225363  3815 layer_factory.hpp:77] Creating layer conv6_2_mbox_loc_flat
I0219 12:23:01.225373  3815 net.cpp:100] Creating Layer conv6_2_mbox_loc_flat
I0219 12:23:01.225378  3815 net.cpp:434] conv6_2_mbox_loc_flat <- conv6_2_mbox_loc_perm
I0219 12:23:01.225388  3815 net.cpp:408] conv6_2_mbox_loc_flat -> conv6_2_mbox_loc_flat
I0219 12:23:01.225447  3815 net.cpp:150] Setting up conv6_2_mbox_loc_flat
I0219 12:23:01.225463  3815 net.cpp:157] Top shape: 1 2400 (2400)
I0219 12:23:01.225469  3815 net.cpp:165] Memory required for data: 252750672
I0219 12:23:01.225476  3815 layer_factory.hpp:77] Creating layer conv6_2_mbox_conf
I0219 12:23:01.225492  3815 net.cpp:100] Creating Layer conv6_2_mbox_conf
I0219 12:23:01.225499  3815 net.cpp:434] conv6_2_mbox_conf <- conv6_2_conv6_2_relu_0_split_2
I0219 12:23:01.225513  3815 net.cpp:408] conv6_2_mbox_conf -> conv6_2_mbox_conf
I0219 12:23:01.234642  3815 net.cpp:150] Setting up conv6_2_mbox_conf
I0219 12:23:01.234668  3815 net.cpp:157] Top shape: 1 132 10 10 (13200)
I0219 12:23:01.234676  3815 net.cpp:165] Memory required for data: 252803472
I0219 12:23:01.234689  3815 layer_factory.hpp:77] Creating layer conv6_2_mbox_conf_perm
I0219 12:23:01.234701  3815 net.cpp:100] Creating Layer conv6_2_mbox_conf_perm
I0219 12:23:01.234710  3815 net.cpp:434] conv6_2_mbox_conf_perm <- conv6_2_mbox_conf
I0219 12:23:01.234721  3815 net.cpp:408] conv6_2_mbox_conf_perm -> conv6_2_mbox_conf_perm
I0219 12:23:01.234984  3815 net.cpp:150] Setting up conv6_2_mbox_conf_perm
I0219 12:23:01.235003  3815 net.cpp:157] Top shape: 1 10 10 132 (13200)
I0219 12:23:01.235011  3815 net.cpp:165] Memory required for data: 252856272
I0219 12:23:01.235018  3815 layer_factory.hpp:77] Creating layer conv6_2_mbox_conf_flat
I0219 12:23:01.235031  3815 net.cpp:100] Creating Layer conv6_2_mbox_conf_flat
I0219 12:23:01.235039  3815 net.cpp:434] conv6_2_mbox_conf_flat <- conv6_2_mbox_conf_perm
I0219 12:23:01.235049  3815 net.cpp:408] conv6_2_mbox_conf_flat -> conv6_2_mbox_conf_flat
I0219 12:23:01.235108  3815 net.cpp:150] Setting up conv6_2_mbox_conf_flat
I0219 12:23:01.235123  3815 net.cpp:157] Top shape: 1 13200 (13200)
I0219 12:23:01.235129  3815 net.cpp:165] Memory required for data: 252909072
I0219 12:23:01.235137  3815 layer_factory.hpp:77] Creating layer conv6_2_mbox_priorbox
I0219 12:23:01.235152  3815 net.cpp:100] Creating Layer conv6_2_mbox_priorbox
I0219 12:23:01.235159  3815 net.cpp:434] conv6_2_mbox_priorbox <- conv6_2_conv6_2_relu_0_split_3
I0219 12:23:01.235169  3815 net.cpp:434] conv6_2_mbox_priorbox <- data_data_0_split_3
I0219 12:23:01.235179  3815 net.cpp:408] conv6_2_mbox_priorbox -> conv6_2_mbox_priorbox
I0219 12:23:01.235245  3815 net.cpp:150] Setting up conv6_2_mbox_priorbox
I0219 12:23:01.235262  3815 net.cpp:157] Top shape: 1 2 2400 (4800)
I0219 12:23:01.235268  3815 net.cpp:165] Memory required for data: 252928272
I0219 12:23:01.235275  3815 layer_factory.hpp:77] Creating layer conv7_2_mbox_loc
I0219 12:23:01.235293  3815 net.cpp:100] Creating Layer conv7_2_mbox_loc
I0219 12:23:01.235301  3815 net.cpp:434] conv7_2_mbox_loc <- conv7_2_conv7_2_relu_0_split_1
I0219 12:23:01.235314  3815 net.cpp:408] conv7_2_mbox_loc -> conv7_2_mbox_loc
I0219 12:23:01.238067  3815 net.cpp:150] Setting up conv7_2_mbox_loc
I0219 12:23:01.238091  3815 net.cpp:157] Top shape: 1 24 5 5 (600)
I0219 12:23:01.238100  3815 net.cpp:165] Memory required for data: 252930672
I0219 12:23:01.238111  3815 layer_factory.hpp:77] Creating layer conv7_2_mbox_loc_perm
I0219 12:23:01.238124  3815 net.cpp:100] Creating Layer conv7_2_mbox_loc_perm
I0219 12:23:01.238132  3815 net.cpp:434] conv7_2_mbox_loc_perm <- conv7_2_mbox_loc
I0219 12:23:01.238148  3815 net.cpp:408] conv7_2_mbox_loc_perm -> conv7_2_mbox_loc_perm
I0219 12:23:01.238454  3815 net.cpp:150] Setting up conv7_2_mbox_loc_perm
I0219 12:23:01.238472  3815 net.cpp:157] Top shape: 1 5 5 24 (600)
I0219 12:23:01.238479  3815 net.cpp:165] Memory required for data: 252933072
I0219 12:23:01.238487  3815 layer_factory.hpp:77] Creating layer conv7_2_mbox_loc_flat
I0219 12:23:01.238497  3815 net.cpp:100] Creating Layer conv7_2_mbox_loc_flat
I0219 12:23:01.238504  3815 net.cpp:434] conv7_2_mbox_loc_flat <- conv7_2_mbox_loc_perm
I0219 12:23:01.238515  3815 net.cpp:408] conv7_2_mbox_loc_flat -> conv7_2_mbox_loc_flat
I0219 12:23:01.238580  3815 net.cpp:150] Setting up conv7_2_mbox_loc_flat
I0219 12:23:01.238600  3815 net.cpp:157] Top shape: 1 600 (600)
I0219 12:23:01.238607  3815 net.cpp:165] Memory required for data: 252935472
I0219 12:23:01.238613  3815 layer_factory.hpp:77] Creating layer conv7_2_mbox_conf
I0219 12:23:01.238631  3815 net.cpp:100] Creating Layer conv7_2_mbox_conf
I0219 12:23:01.238637  3815 net.cpp:434] conv7_2_mbox_conf <- conv7_2_conv7_2_relu_0_split_2
I0219 12:23:01.238649  3815 net.cpp:408] conv7_2_mbox_conf -> conv7_2_mbox_conf
I0219 12:23:01.244556  3815 net.cpp:150] Setting up conv7_2_mbox_conf
I0219 12:23:01.244582  3815 net.cpp:157] Top shape: 1 132 5 5 (3300)
I0219 12:23:01.244590  3815 net.cpp:165] Memory required for data: 252948672
I0219 12:23:01.244603  3815 layer_factory.hpp:77] Creating layer conv7_2_mbox_conf_perm
I0219 12:23:01.244617  3815 net.cpp:100] Creating Layer conv7_2_mbox_conf_perm
I0219 12:23:01.244629  3815 net.cpp:434] conv7_2_mbox_conf_perm <- conv7_2_mbox_conf
I0219 12:23:01.244640  3815 net.cpp:408] conv7_2_mbox_conf_perm -> conv7_2_mbox_conf_perm
I0219 12:23:01.244956  3815 net.cpp:150] Setting up conv7_2_mbox_conf_perm
I0219 12:23:01.244976  3815 net.cpp:157] Top shape: 1 5 5 132 (3300)
I0219 12:23:01.244983  3815 net.cpp:165] Memory required for data: 252961872
I0219 12:23:01.244990  3815 layer_factory.hpp:77] Creating layer conv7_2_mbox_conf_flat
I0219 12:23:01.245002  3815 net.cpp:100] Creating Layer conv7_2_mbox_conf_flat
I0219 12:23:01.245008  3815 net.cpp:434] conv7_2_mbox_conf_flat <- conv7_2_mbox_conf_perm
I0219 12:23:01.245020  3815 net.cpp:408] conv7_2_mbox_conf_flat -> conv7_2_mbox_conf_flat
I0219 12:23:01.245085  3815 net.cpp:150] Setting up conv7_2_mbox_conf_flat
I0219 12:23:01.245103  3815 net.cpp:157] Top shape: 1 3300 (3300)
I0219 12:23:01.245110  3815 net.cpp:165] Memory required for data: 252975072
I0219 12:23:01.245116  3815 layer_factory.hpp:77] Creating layer conv7_2_mbox_priorbox
I0219 12:23:01.245128  3815 net.cpp:100] Creating Layer conv7_2_mbox_priorbox
I0219 12:23:01.245136  3815 net.cpp:434] conv7_2_mbox_priorbox <- conv7_2_conv7_2_relu_0_split_3
I0219 12:23:01.245144  3815 net.cpp:434] conv7_2_mbox_priorbox <- data_data_0_split_4
I0219 12:23:01.245158  3815 net.cpp:408] conv7_2_mbox_priorbox -> conv7_2_mbox_priorbox
I0219 12:23:01.245223  3815 net.cpp:150] Setting up conv7_2_mbox_priorbox
I0219 12:23:01.245239  3815 net.cpp:157] Top shape: 1 2 600 (1200)
I0219 12:23:01.245244  3815 net.cpp:165] Memory required for data: 252979872
I0219 12:23:01.245250  3815 layer_factory.hpp:77] Creating layer conv8_2_mbox_loc
I0219 12:23:01.245270  3815 net.cpp:100] Creating Layer conv8_2_mbox_loc
I0219 12:23:01.245278  3815 net.cpp:434] conv8_2_mbox_loc <- conv8_2_conv8_2_relu_0_split_1
I0219 12:23:01.245291  3815 net.cpp:408] conv8_2_mbox_loc -> conv8_2_mbox_loc
I0219 12:23:01.247512  3815 net.cpp:150] Setting up conv8_2_mbox_loc
I0219 12:23:01.247537  3815 net.cpp:157] Top shape: 1 16 3 3 (144)
I0219 12:23:01.247545  3815 net.cpp:165] Memory required for data: 252980448
I0219 12:23:01.247576  3815 layer_factory.hpp:77] Creating layer conv8_2_mbox_loc_perm
I0219 12:23:01.247592  3815 net.cpp:100] Creating Layer conv8_2_mbox_loc_perm
I0219 12:23:01.247601  3815 net.cpp:434] conv8_2_mbox_loc_perm <- conv8_2_mbox_loc
I0219 12:23:01.247611  3815 net.cpp:408] conv8_2_mbox_loc_perm -> conv8_2_mbox_loc_perm
I0219 12:23:01.247925  3815 net.cpp:150] Setting up conv8_2_mbox_loc_perm
I0219 12:23:01.247956  3815 net.cpp:157] Top shape: 1 3 3 16 (144)
I0219 12:23:01.247963  3815 net.cpp:165] Memory required for data: 252981024
I0219 12:23:01.247970  3815 layer_factory.hpp:77] Creating layer conv8_2_mbox_loc_flat
I0219 12:23:01.247982  3815 net.cpp:100] Creating Layer conv8_2_mbox_loc_flat
I0219 12:23:01.247988  3815 net.cpp:434] conv8_2_mbox_loc_flat <- conv8_2_mbox_loc_perm
I0219 12:23:01.248001  3815 net.cpp:408] conv8_2_mbox_loc_flat -> conv8_2_mbox_loc_flat
I0219 12:23:01.248066  3815 net.cpp:150] Setting up conv8_2_mbox_loc_flat
I0219 12:23:01.248081  3815 net.cpp:157] Top shape: 1 144 (144)
I0219 12:23:01.248087  3815 net.cpp:165] Memory required for data: 252981600
I0219 12:23:01.248095  3815 layer_factory.hpp:77] Creating layer conv8_2_mbox_conf
I0219 12:23:01.248112  3815 net.cpp:100] Creating Layer conv8_2_mbox_conf
I0219 12:23:01.248119  3815 net.cpp:434] conv8_2_mbox_conf <- conv8_2_conv8_2_relu_0_split_2
I0219 12:23:01.248134  3815 net.cpp:408] conv8_2_mbox_conf -> conv8_2_mbox_conf
I0219 12:23:01.253182  3815 net.cpp:150] Setting up conv8_2_mbox_conf
I0219 12:23:01.253206  3815 net.cpp:157] Top shape: 1 88 3 3 (792)
I0219 12:23:01.253213  3815 net.cpp:165] Memory required for data: 252984768
I0219 12:23:01.253226  3815 layer_factory.hpp:77] Creating layer conv8_2_mbox_conf_perm
I0219 12:23:01.253243  3815 net.cpp:100] Creating Layer conv8_2_mbox_conf_perm
I0219 12:23:01.253252  3815 net.cpp:434] conv8_2_mbox_conf_perm <- conv8_2_mbox_conf
I0219 12:23:01.253267  3815 net.cpp:408] conv8_2_mbox_conf_perm -> conv8_2_mbox_conf_perm
I0219 12:23:01.253581  3815 net.cpp:150] Setting up conv8_2_mbox_conf_perm
I0219 12:23:01.253597  3815 net.cpp:157] Top shape: 1 3 3 88 (792)
I0219 12:23:01.253603  3815 net.cpp:165] Memory required for data: 252987936
I0219 12:23:01.253610  3815 layer_factory.hpp:77] Creating layer conv8_2_mbox_conf_flat
I0219 12:23:01.253623  3815 net.cpp:100] Creating Layer conv8_2_mbox_conf_flat
I0219 12:23:01.253631  3815 net.cpp:434] conv8_2_mbox_conf_flat <- conv8_2_mbox_conf_perm
I0219 12:23:01.253641  3815 net.cpp:408] conv8_2_mbox_conf_flat -> conv8_2_mbox_conf_flat
I0219 12:23:01.253703  3815 net.cpp:150] Setting up conv8_2_mbox_conf_flat
I0219 12:23:01.253718  3815 net.cpp:157] Top shape: 1 792 (792)
I0219 12:23:01.253725  3815 net.cpp:165] Memory required for data: 252991104
I0219 12:23:01.253731  3815 layer_factory.hpp:77] Creating layer conv8_2_mbox_priorbox
I0219 12:23:01.253746  3815 net.cpp:100] Creating Layer conv8_2_mbox_priorbox
I0219 12:23:01.253754  3815 net.cpp:434] conv8_2_mbox_priorbox <- conv8_2_conv8_2_relu_0_split_3
I0219 12:23:01.253763  3815 net.cpp:434] conv8_2_mbox_priorbox <- data_data_0_split_5
I0219 12:23:01.253774  3815 net.cpp:408] conv8_2_mbox_priorbox -> conv8_2_mbox_priorbox
I0219 12:23:01.253844  3815 net.cpp:150] Setting up conv8_2_mbox_priorbox
I0219 12:23:01.253859  3815 net.cpp:157] Top shape: 1 2 144 (288)
I0219 12:23:01.253865  3815 net.cpp:165] Memory required for data: 252992256
I0219 12:23:01.253870  3815 layer_factory.hpp:77] Creating layer conv9_2_mbox_loc
I0219 12:23:01.253888  3815 net.cpp:100] Creating Layer conv9_2_mbox_loc
I0219 12:23:01.253896  3815 net.cpp:434] conv9_2_mbox_loc <- conv9_2_conv9_2_relu_0_split_0
I0219 12:23:01.253911  3815 net.cpp:408] conv9_2_mbox_loc -> conv9_2_mbox_loc
I0219 12:23:01.255975  3815 net.cpp:150] Setting up conv9_2_mbox_loc
I0219 12:23:01.255993  3815 net.cpp:157] Top shape: 1 16 1 1 (16)
I0219 12:23:01.255998  3815 net.cpp:165] Memory required for data: 252992320
I0219 12:23:01.256006  3815 layer_factory.hpp:77] Creating layer conv9_2_mbox_loc_perm
I0219 12:23:01.256014  3815 net.cpp:100] Creating Layer conv9_2_mbox_loc_perm
I0219 12:23:01.256019  3815 net.cpp:434] conv9_2_mbox_loc_perm <- conv9_2_mbox_loc
I0219 12:23:01.256027  3815 net.cpp:408] conv9_2_mbox_loc_perm -> conv9_2_mbox_loc_perm
I0219 12:23:01.256183  3815 net.cpp:150] Setting up conv9_2_mbox_loc_perm
I0219 12:23:01.256197  3815 net.cpp:157] Top shape: 1 1 1 16 (16)
I0219 12:23:01.256201  3815 net.cpp:165] Memory required for data: 252992384
I0219 12:23:01.256217  3815 layer_factory.hpp:77] Creating layer conv9_2_mbox_loc_flat
I0219 12:23:01.256223  3815 net.cpp:100] Creating Layer conv9_2_mbox_loc_flat
I0219 12:23:01.256227  3815 net.cpp:434] conv9_2_mbox_loc_flat <- conv9_2_mbox_loc_perm
I0219 12:23:01.256233  3815 net.cpp:408] conv9_2_mbox_loc_flat -> conv9_2_mbox_loc_flat
I0219 12:23:01.256273  3815 net.cpp:150] Setting up conv9_2_mbox_loc_flat
I0219 12:23:01.256281  3815 net.cpp:157] Top shape: 1 16 (16)
I0219 12:23:01.256284  3815 net.cpp:165] Memory required for data: 252992448
I0219 12:23:01.256288  3815 layer_factory.hpp:77] Creating layer conv9_2_mbox_conf
I0219 12:23:01.256299  3815 net.cpp:100] Creating Layer conv9_2_mbox_conf
I0219 12:23:01.256304  3815 net.cpp:434] conv9_2_mbox_conf <- conv9_2_conv9_2_relu_0_split_1
I0219 12:23:01.256311  3815 net.cpp:408] conv9_2_mbox_conf -> conv9_2_mbox_conf
I0219 12:23:01.259577  3815 net.cpp:150] Setting up conv9_2_mbox_conf
I0219 12:23:01.259593  3815 net.cpp:157] Top shape: 1 88 1 1 (88)
I0219 12:23:01.259598  3815 net.cpp:165] Memory required for data: 252992800
I0219 12:23:01.259605  3815 layer_factory.hpp:77] Creating layer conv9_2_mbox_conf_perm
I0219 12:23:01.259613  3815 net.cpp:100] Creating Layer conv9_2_mbox_conf_perm
I0219 12:23:01.259618  3815 net.cpp:434] conv9_2_mbox_conf_perm <- conv9_2_mbox_conf
I0219 12:23:01.259625  3815 net.cpp:408] conv9_2_mbox_conf_perm -> conv9_2_mbox_conf_perm
I0219 12:23:01.259781  3815 net.cpp:150] Setting up conv9_2_mbox_conf_perm
I0219 12:23:01.259790  3815 net.cpp:157] Top shape: 1 1 1 88 (88)
I0219 12:23:01.259794  3815 net.cpp:165] Memory required for data: 252993152
I0219 12:23:01.259799  3815 layer_factory.hpp:77] Creating layer conv9_2_mbox_conf_flat
I0219 12:23:01.259804  3815 net.cpp:100] Creating Layer conv9_2_mbox_conf_flat
I0219 12:23:01.259809  3815 net.cpp:434] conv9_2_mbox_conf_flat <- conv9_2_mbox_conf_perm
I0219 12:23:01.259815  3815 net.cpp:408] conv9_2_mbox_conf_flat -> conv9_2_mbox_conf_flat
I0219 12:23:01.259850  3815 net.cpp:150] Setting up conv9_2_mbox_conf_flat
I0219 12:23:01.259860  3815 net.cpp:157] Top shape: 1 88 (88)
I0219 12:23:01.259865  3815 net.cpp:165] Memory required for data: 252993504
I0219 12:23:01.259867  3815 layer_factory.hpp:77] Creating layer conv9_2_mbox_priorbox
I0219 12:23:01.259874  3815 net.cpp:100] Creating Layer conv9_2_mbox_priorbox
I0219 12:23:01.259878  3815 net.cpp:434] conv9_2_mbox_priorbox <- conv9_2_conv9_2_relu_0_split_2
I0219 12:23:01.259883  3815 net.cpp:434] conv9_2_mbox_priorbox <- data_data_0_split_6
I0219 12:23:01.259891  3815 net.cpp:408] conv9_2_mbox_priorbox -> conv9_2_mbox_priorbox
I0219 12:23:01.259928  3815 net.cpp:150] Setting up conv9_2_mbox_priorbox
I0219 12:23:01.259938  3815 net.cpp:157] Top shape: 1 2 16 (32)
I0219 12:23:01.259943  3815 net.cpp:165] Memory required for data: 252993632
I0219 12:23:01.259946  3815 layer_factory.hpp:77] Creating layer mbox_loc
I0219 12:23:01.259954  3815 net.cpp:100] Creating Layer mbox_loc
I0219 12:23:01.259958  3815 net.cpp:434] mbox_loc <- conv4_3_norm_mbox_loc_flat
I0219 12:23:01.259964  3815 net.cpp:434] mbox_loc <- fc7_mbox_loc_flat
I0219 12:23:01.259970  3815 net.cpp:434] mbox_loc <- conv6_2_mbox_loc_flat
I0219 12:23:01.259976  3815 net.cpp:434] mbox_loc <- conv7_2_mbox_loc_flat
I0219 12:23:01.259980  3815 net.cpp:434] mbox_loc <- conv8_2_mbox_loc_flat
I0219 12:23:01.259984  3815 net.cpp:434] mbox_loc <- conv9_2_mbox_loc_flat
I0219 12:23:01.259990  3815 net.cpp:408] mbox_loc -> mbox_loc
I0219 12:23:01.260032  3815 net.cpp:150] Setting up mbox_loc
I0219 12:23:01.260041  3815 net.cpp:157] Top shape: 1 34928 (34928)
I0219 12:23:01.260045  3815 net.cpp:165] Memory required for data: 253133344
I0219 12:23:01.260048  3815 layer_factory.hpp:77] Creating layer mbox_conf
I0219 12:23:01.260056  3815 net.cpp:100] Creating Layer mbox_conf
I0219 12:23:01.260061  3815 net.cpp:434] mbox_conf <- conv4_3_norm_mbox_conf_flat
I0219 12:23:01.260066  3815 net.cpp:434] mbox_conf <- fc7_mbox_conf_flat
I0219 12:23:01.260071  3815 net.cpp:434] mbox_conf <- conv6_2_mbox_conf_flat
I0219 12:23:01.260087  3815 net.cpp:434] mbox_conf <- conv7_2_mbox_conf_flat
I0219 12:23:01.260092  3815 net.cpp:434] mbox_conf <- conv8_2_mbox_conf_flat
I0219 12:23:01.260095  3815 net.cpp:434] mbox_conf <- conv9_2_mbox_conf_flat
I0219 12:23:01.260100  3815 net.cpp:408] mbox_conf -> mbox_conf
I0219 12:23:01.260143  3815 net.cpp:150] Setting up mbox_conf
I0219 12:23:01.260149  3815 net.cpp:157] Top shape: 1 192104 (192104)
I0219 12:23:01.260152  3815 net.cpp:165] Memory required for data: 253901760
I0219 12:23:01.260155  3815 layer_factory.hpp:77] Creating layer mbox_priorbox
I0219 12:23:01.260161  3815 net.cpp:100] Creating Layer mbox_priorbox
I0219 12:23:01.260165  3815 net.cpp:434] mbox_priorbox <- conv4_3_norm_mbox_priorbox
I0219 12:23:01.260170  3815 net.cpp:434] mbox_priorbox <- fc7_mbox_priorbox
I0219 12:23:01.260174  3815 net.cpp:434] mbox_priorbox <- conv6_2_mbox_priorbox
I0219 12:23:01.260179  3815 net.cpp:434] mbox_priorbox <- conv7_2_mbox_priorbox
I0219 12:23:01.260184  3815 net.cpp:434] mbox_priorbox <- conv8_2_mbox_priorbox
I0219 12:23:01.260186  3815 net.cpp:434] mbox_priorbox <- conv9_2_mbox_priorbox
I0219 12:23:01.260191  3815 net.cpp:408] mbox_priorbox -> mbox_priorbox
I0219 12:23:01.260226  3815 net.cpp:150] Setting up mbox_priorbox
I0219 12:23:01.260233  3815 net.cpp:157] Top shape: 1 2 34928 (69856)
I0219 12:23:01.260236  3815 net.cpp:165] Memory required for data: 254181184
I0219 12:23:01.260239  3815 layer_factory.hpp:77] Creating layer mbox_conf_reshape
I0219 12:23:01.260254  3815 net.cpp:100] Creating Layer mbox_conf_reshape
I0219 12:23:01.260258  3815 net.cpp:434] mbox_conf_reshape <- mbox_conf
I0219 12:23:01.260265  3815 net.cpp:408] mbox_conf_reshape -> mbox_conf_reshape
I0219 12:23:01.260309  3815 net.cpp:150] Setting up mbox_conf_reshape
I0219 12:23:01.260315  3815 net.cpp:157] Top shape: 1 8732 22 (192104)
I0219 12:23:01.260319  3815 net.cpp:165] Memory required for data: 254949600
I0219 12:23:01.260323  3815 layer_factory.hpp:77] Creating layer mbox_conf_softmax
I0219 12:23:01.260329  3815 net.cpp:100] Creating Layer mbox_conf_softmax
I0219 12:23:01.260334  3815 net.cpp:434] mbox_conf_softmax <- mbox_conf_reshape
I0219 12:23:01.260340  3815 net.cpp:408] mbox_conf_softmax -> mbox_conf_softmax
I0219 12:23:01.260651  3815 net.cpp:150] Setting up mbox_conf_softmax
I0219 12:23:01.260665  3815 net.cpp:157] Top shape: 1 8732 22 (192104)
I0219 12:23:01.260669  3815 net.cpp:165] Memory required for data: 255718016
I0219 12:23:01.260673  3815 layer_factory.hpp:77] Creating layer mbox_conf_flatten
I0219 12:23:01.260681  3815 net.cpp:100] Creating Layer mbox_conf_flatten
I0219 12:23:01.260685  3815 net.cpp:434] mbox_conf_flatten <- mbox_conf_softmax
I0219 12:23:01.260691  3815 net.cpp:408] mbox_conf_flatten -> mbox_conf_flatten
I0219 12:23:01.260730  3815 net.cpp:150] Setting up mbox_conf_flatten
I0219 12:23:01.260740  3815 net.cpp:157] Top shape: 1 192104 (192104)
I0219 12:23:01.260743  3815 net.cpp:165] Memory required for data: 256486432
I0219 12:23:01.260746  3815 layer_factory.hpp:77] Creating layer detection_out
I0219 12:23:01.310914  3815 net.cpp:100] Creating Layer detection_out
I0219 12:23:01.310940  3815 net.cpp:434] detection_out <- mbox_loc
I0219 12:23:01.310948  3815 net.cpp:434] detection_out <- mbox_conf_flatten
I0219 12:23:01.310955  3815 net.cpp:434] detection_out <- mbox_priorbox
I0219 12:23:01.310962  3815 net.cpp:408] detection_out -> detection_out
I0219 12:23:01.553473  3815 net.cpp:150] Setting up detection_out
I0219 12:23:01.553505  3815 net.cpp:157] Top shape: 1 1 1 7 (7)
I0219 12:23:01.553510  3815 net.cpp:165] Memory required for data: 256486460
I0219 12:23:01.553516  3815 layer_factory.hpp:77] Creating layer detection_eval
I0219 12:23:01.553536  3815 net.cpp:100] Creating Layer detection_eval
I0219 12:23:01.553544  3815 net.cpp:434] detection_eval <- detection_out
I0219 12:23:01.553550  3815 net.cpp:434] detection_eval <- label
I0219 12:23:01.553558  3815 net.cpp:408] detection_eval -> detection_eval
I0219 12:23:01.553685  3815 net.cpp:150] Setting up detection_eval
I0219 12:23:01.553732  3815 net.cpp:157] Top shape: 1 1 22 5 (110)
I0219 12:23:01.553737  3815 net.cpp:165] Memory required for data: 256486900
I0219 12:23:01.553741  3815 net.cpp:228] detection_eval does not need backward computation.
I0219 12:23:01.553746  3815 net.cpp:228] detection_out does not need backward computation.
I0219 12:23:01.553750  3815 net.cpp:228] mbox_conf_flatten does not need backward computation.
I0219 12:23:01.553755  3815 net.cpp:228] mbox_conf_softmax does not need backward computation.
…
