…
        min_scale: 0.3
        max_scale: 1
        min_aspect_ratio: 0.5
        max_aspect_ratio: 2
      }
      sample_constraint {
        min_jaccard_overlap: 0.9
      }
      max_sample: 1
      max_trials: 50
    }
    batch_sampler {
      sampler {
        min_scale: 0.3
        max_scale: 1
        min_aspect_ratio: 0.5
        max_aspect_ratio: 2
      }
      sample_constraint {
        max_jaccard_overlap: 1
      }
      max_sample: 1
      max_trials: 50
    }
    label_map_file: "data/dbgr_trees/labelmap_voc.prototxt"
  }
}
layer {
  name: "conv1_1_rgbd"
  type: "Convolution"
  bottom: "data"
  top: "conv1_1_rgbd"
  param {
    lr_mult: 1
    decay_mult: 1
  }
  param {
    lr_mult: 2
    decay_mult: 0
  }
  convolution_param {
    num_output: 64
    pad: 1
    kernel_size: 3
    weight_filler {
      type: "xavier"
    }
    bias_filler {
      type: "constant"
      value: 0
    }
  }
}
layer {
  name: "relu1_1"
  type: "ReLU"
  bottom: "conv1_1_rgbd"
  top: "conv1_1_rgbd"
}
layer {
  name: "conv1_2"
  type: "Convolution"
  bottom: "conv1_1_rgbd"
  top: "conv1_2"
  param {
    lr_mult: 1
    decay_mult: 1
  }
  param {
    lr_mult: 2
    decay_mult: 0
  }
  convolution_param {
    num_output: 64
    pad: 1
    kernel_size: 3
    weight_filler {
      type: "xavier"
    }
    bias_filler {
      type: "constant"
      value: 0
    }
  }
}
layer {
  name: "relu1_2"
  type: "ReLU"
  bottom: "conv1_2"
  top: "conv1_2"
}
layer {
  name: "pool1"
  type: "Pooling"
  bottom: "conv1_2"
  top: "pool1"
  pooling_param {
    pool: MAX
    kernel_size: 2
    stride: 2
  }
}
layer {
  name: "conv2_1"
  type: "Convolution"
  bottom: "pool1"
  top: "conv2_1"
  param {
    lr_mult: 1
    decay_mult: 1
  }
  param {
    lr_mult: 2
    decay_mult: 0
  }
  convolution_param {
    num_output: 128
    pad: 1
    kernel_size: 3
    weight_filler {
      type: "xavier"
    }
    bias_filler {
      type: "constant"
      value: 0
    }
  }
}
layer {
  name: "relu2_1"
  type: "ReLU"
  bottom: "conv2_1"
  top: "conv2_1"
}
layer {
  name: "conv2_2"
  type: "Convolution"
  bottom: "conv2_1"
  top: "conv2_2"
  param {
    lr_mult: 1
    decay_mult: 1
  }
  param {
    lr_mult: 2
    decay_mult: 0
  }
  convolution_param {
    num_output: 128
    pad: 1
    kernel_size: 3
    weight_filler {
      type: "xavier"
    }
    bias_filler {
      type: "constant"
      value: 0
    }
  }
}
layer {
  name: "relu2_2"
  type: "ReLU"
  bottom: "conv2_2"
  top: "conv2_2"
}
layer {
  name: "pool2"
  type: "Pooling"
  bottom: "conv2_2"
  top: "pool2"
  pooling_param {
    pool: MAX
    kernel_size: 2
    stride: 2
  }
}
layer {
  name: "conv3_1"
  type: "Convolution"
  bottom: "pool2"
  top: "conv3_1"
  param {
    lr_mult: 1
    decay_mult: 1
  }
  param {
    lr_mult: 2
    decay_mult: 0
  }
  convolution_param {
    num_output: 256
    pad: 1
    kernel_size: 3
    weight_filler {
      type: "xavier"
    }
    bias_filler {
      type: "constant"
      value: 0
    }
  }
}
layer {
  name: "relu3_1"
  type: "ReLU"
  bottom: "conv3_1"
  top: "conv3_1"
}
layer {
  name: "conv3_2"
  type: "Convolution"
  bottom: "conv3_1"
  top: "conv3_2"
  param {
    lr_mult: 1
    decay_mult: 1
  }
  param {
    lr_mult: 2
    decay_mult: 0
  }
  convolution_param {
    num_output: 256
    pad: 1
    kernel_size: 3
    weight_filler {
      type: "xavier"
    }
    bias_filler {
      type: "constant"
      value: 0
    }
  }
}
layer {
  name: "relu3_2"
  type: "ReLU"
  bottom: "conv3_2"
  top: "conv3_2"
}
layer {
  name: "conv3_3"
  type: "Convolution"
  bottom: "conv3_2"
  top: "conv3_3"
  param {
    lr_mult: 1
    decay_mult: 1
  }
  param {
    lr_mult: 2
    decay_mult: 0
  }
  convolution_param {
    num_output: 256
    pad: 1
    kernel_size: 3
    weight_filler {
      type: "xavier"
    }
    bias_filler {
      type: "constant"
      value: 0
    }
  }
}
layer {
  name: "relu3_3"
  type: "ReLU"
  bottom: "conv3_3"
  top: "conv3_3"
}
layer {
  name: "pool3"
  type: "Pooling"
  bottom: "conv3_3"
  top: "pool3"
  pooling_param {
    pool: MAX
    kernel_size: 2
    stride: 2
  }
}
layer {
  name: "conv4_1"
  type: "Convolution"
  bottom: "pool3"
  top: "conv4_1"
  param {
    lr_mult: 1
    decay_mult: 1
  }
  param {
    lr_mult: 2
    decay_mult: 0
  }
  convolution_param {
    num_output: 512
    pad: 1
    kernel_size: 3
    weight_filler {
      type: "xavier"
    }
    bias_filler {
      type: "constant"
      value: 0
    }
  }
}
layer {
  name: "relu4_1"
  type: "ReLU"
  bottom: "conv4_1"
  top: "conv4_1"
}
layer {
  name: "conv4_2"
  type: "Convolution"
  bottom: "conv4_1"
  top: "conv4_2"
  param {
    lr_mult: 1
    decay_mult: 1
  }
  param {
    lr_mult: 2
    decay_mult: 0
  }
  convolution_param {
    num_output: 512
    pad: 1
    kernel_size: 3
    weight_filler {
      type: "xavier"
    }
    bias_filler {
      type: "constant"
      value: 0
    }
  }
}
layer {
  name: "relu4_2"
  type: "ReLU"
  bottom: "conv4_2"
  top: "conv4_2"
}
layer {
  name: "conv4_3"
  type: "Convolution"
  bottom: "conv4_2"
  top: "conv4_3"
  param {
    lr_mult: 1
    decay_mult: 1
  }
  param {
    lr_mult: 2
    decay_mult: 0
  }
  convolution_param {
    num_output: 512
    pad: 1
    kernel_size: 3
    weight_filler {
      type: "xavier"
    }
    bias_filler {
      type: "constant"
      value: 0
    }
  }
}
layer {
  name: "relu4_3"
  type: "ReLU"
  bottom: "conv4_3"
  top: "conv4_3"
}
layer {
  name: "pool4"
  type: "Pooling"
  bottom: "conv4_3"
  top: "pool4"
  pooling_param {
    pool: MAX
    kernel_size: 2
    stride: 2
  }
}
layer {
  name: "conv5_1"
  type: "Convolution"
  bottom: "pool4"
  top: "conv5_1"
  param {
    lr_mult: 1
    decay_mult: 1
  }
  param {
    lr_mult: 2
    decay_mult: 0
  }
  convolution_param {
    num_output: 512
    pad: 1
    kernel_size: 3
    weight_filler {
      type: "xavier"
    }
    bias_filler {
      type: "constant"
      value: 0
    }
    dilation: 1
  }
}
layer {
  name: "relu5_1"
  type: "ReLU"
  bottom: "conv5_1"
  top: "conv5_1"
}
layer {
  name: "conv5_2"
  type: "Convolution"
  bottom: "conv5_1"
  top: "conv5_2"
  param {
    lr_mult: 1
    decay_mult: 1
  }
  param {
    lr_mult: 2
    decay_mult: 0
  }
  convolution_param {
    num_output: 512
    pad: 1
    kernel_size: 3
    weight_filler {
      type: "xavier"
    }
    bias_filler {
      type: "constant"
      value: 0
    }
    dilation: 1
  }
}
layer {
  name: "relu5_2"
  type: "ReLU"
  bottom: "conv5_2"
  top: "conv5_2"
}
layer {
  name: "conv5_3"
  type: "Convolution"
  bottom: "conv5_2"
  top: "conv5_3"
  param {
    lr_mult: 1
    decay_mult: 1
  }
  param {
    lr_mult: 2
    decay_mult: 0
  }
  convolution_param {
    num_output: 512
    pad: 1
    kernel_size: 3
    weight_filler {
      type: "xavier"
    }
    bias_filler {
      type: "constant"
      value: 0
    }
    dilation: 1
  }
}
layer {
  name: "relu5_3"
  type: "ReLU"
  bottom: "conv5_3"
  top: "conv5_3"
}
layer {
  name: "pool5"
  type: "Pooling"
  bottom: "conv5_3"
  top: "pool5"
  pooling_param {
    pool: MAX
    kernel_size: 3
    stride: 1
    pad: 1
  }
}
layer {
  name: "fc6"
  type: "Convolution"
  bottom: "pool5"
  top: "fc6"
  param {
    lr_mult: 1
    decay_mult: 1
  }
  param {
    lr_mult: 2
    decay_mult: 0
  }
  convolution_param {
    num_output: 1024
    pad: 6
    kernel_size: 3
    weight_filler {
      type: "xavier"
    }
    bias_filler {
      type: "constant"
      value: 0
    }
    dilation: 6
  }
}
layer {
  name: "relu6"
  type: "ReLU"
  bottom: "fc6"
  top: "fc6"
}
layer {
  name: "fc7"
  type: "Convolution"
  bottom: "fc6"
  top: "fc7"
  param {
    lr_mult: 1
    decay_mult: 1
  }
  param {
    lr_mult: 2
    decay_mult: 0
  }
  convolution_param {
    num_output: 1024
    kernel_size: 1
    weight_filler {
      type: "xavier"
    }
    bias_filler {
      type: "constant"
      value: 0
    }
  }
}
layer {
  name: "relu7"
  type: "ReLU"
  bottom: "fc7"
  top: "fc7"
}
layer {
  name: "conv6_1"
  type: "Convolution"
  bottom: "fc7"
  top: "conv6_1"
  param {
    lr_mult: 1
    decay_mult: 1
  }
  param {
    lr_mult: 2
    decay_mult: 0
  }
  convolution_param {
    num_output: 256
    pad: 0
    kernel_size: 1
    stride: 1
    weight_filler {
      type: "xavier"
    }
    bias_filler {
      type: "constant"
      value: 0
    }
  }
}
layer {
  name: "conv6_1_relu"
  type: "ReLU"
  bottom: "conv6_1"
  top: "conv6_1"
}
layer {
  name: "conv6_2"
  type: "Convolution"
  bottom: "conv6_1"
  top: "conv6_2"
  param {
    lr_mult: 1
    decay_mult: 1
  }
  param {
    lr_mult: 2
    decay_mult: 0
  }
  convolution_param {
    num_output: 512
    pad: 1
    kernel_size: 3
    stride: 2
    weight_filler {
      type: "xavier"
    }
    bias_filler {
      type: "constant"
      value: 0
    }
  }
}
layer {
  name: "conv6_2_relu"
  type: "ReLU"
  bottom: "conv6_2"
  top: "conv6_2"
}
layer {
  name: "conv7_1"
  type: "Convolution"
  bottom: "conv6_2"
  top: "conv7_1"
  param {
    lr_mult: 1
    decay_mult: 1
  }
  param {
    lr_mult: 2
    decay_mult: 0
  }
  convolution_param {
    num_output: 128
    pad: 0
    kernel_size: 1
    stride: 1
    weight_filler {
      type: "xavier"
    }
    bias_filler {
      type: "constant"
      value: 0
    }
  }
}
layer {
  name: "conv7_1_relu"
  type: "ReLU"
  bottom: "conv7_1"
  top: "conv7_1"
}
layer {
  name: "conv7_2"
  type: "Convolution"
  bottom: "conv7_1"
  top: "conv7_2"
  param {
    lr_mult: 1
    decay_mult: 1
  }
  param {
    lr_mult: 2
    decay_mult: 0
  }
  convolution_param {
    num_output: 256
    pad: 1
    kernel_size: 3
    stride: 2
    weight_filler {
      type: "xavier"
    }
    bias_filler {
      type: "constant"
      value: 0
    }
  }
}
layer {
  name: "conv7_2_relu"
  type: "ReLU"
  bottom: "conv7_2"
  top: "conv7_2"
}
layer {
  name: "conv8_1"
  type: "Convolution"
  bottom: "conv7_2"
  top: "conv8_1"
  param {
    lr_mult: 1
    decay_mult: 1
  }
  param {
    lr_mult: 2
    decay_mult: 0
  }
  convolution_param {
    num_output: 128
    pad: 0
    kernel_size: 1
    stride: 1
    weight_filler {
      type: "xavier"
    }
    bias_filler {
      type: "constant"
      value: 0
    }
  }
}
layer {
  name: "conv8_1_relu"
  type: "ReLU"
  bottom: "conv8_1"
  top: "conv8_1"
}
layer {
  name: "conv8_2"
  type: "Convolution"
  bottom: "conv8_1"
  top: "conv8_2"
  param {
    lr_mult: 1
    decay_mult: 1
  }
  param {
    lr_mult: 2
    decay_mult: 0
  }
  convolution_param {
    num_output: 256
    pad: 0
    kernel_size: 3
    stride: 1
    weight_filler {
      type: "xavier"
    }
    bias_filler {
      type: "constant"
      value: 0
    }
  }
}
layer {
  name: "conv8_2_relu"
  type: "ReLU"
  bottom: "conv8_2"
  top: "conv8_2"
}
layer {
  name: "conv9_1"
  type: "Convolution"
  bottom: "conv8_2"
  top: "conv9_1"
  param {
    lr_mult: 1
    decay_mult: 1
  }
  param {
    lr_mult: 2
    decay_mult: 0
  }
  convolution_param {
    num_output: 128
    pad: 0
    kernel_size: 1
    stride: 1
    weight_filler {
      type: "xavier"
    }
    bias_filler {
      type: "constant"
      value: 0
    }
  }
}
layer {
  name: "conv9_1_relu"
  type: "ReLU"
  bottom: "conv9_1"
  top: "conv9_1"
}
layer {
  name: "conv9_2"
  type: "Convolution"
  bottom: "conv9_1"
  top: "conv9_2"
  param {
    lr_mult: 1
    decay_mult: 1
  }
  param {
    lr_mult: 2
    decay_mult: 0
  }
  convolution_param {
    num_output: 256
    pad: 0
    kernel_size: 3
    stride: 1
    weight_filler {
      type: "xavier"
    }
    bias_filler {
      type: "constant"
      value: 0
    }
  }
}
layer {
  name: "conv9_2_relu"
  type: "ReLU"
  bottom: "conv9_2"
  top: "conv9_2"
}
layer {
  name: "conv4_3_norm"
  type: "Normalize"
  bottom: "conv4_3"
  top: "conv4_3_norm"
  norm_param {
    across_spatial: false
    scale_filler {
      type: "constant"
      value: 20
    }
    channel_shared: false
  }
}
layer {
  name: "conv4_3_norm_mbox_loc"
  type: "Convolution"
  bottom: "conv4_3_norm"
  top: "conv4_3_norm_mbox_loc"
  param {
    lr_mult: 1
    decay_mult: 1
  }
  param {
    lr_mult: 2
    decay_mult: 0
  }
  convolution_param {
    num_output: 16
    pad: 1
    kernel_size: 3
    stride: 1
    weight_filler {
      type: "xavier"
    }
    bias_filler {
      type: "constant"
      value: 0
    }
  }
}
layer {
  name: "conv4_3_norm_mbox_loc_perm"
  type: "Permute"
  bottom: "conv4_3_norm_mbox_loc"
  top: "conv4_3_norm_mbox_loc_perm"
  permute_param {
    order: 0
    order: 2
    order: 3
    order: 1
  }
}
layer {
  name: "conv4_3_norm_mbox_loc_flat"
  type: "Flatten"
  bottom: "conv4_3_norm_mbox_loc_perm"
  top: "conv4_3_norm_mbox_loc_flat"
  flatten_param {
    axis: 1
  }
}
layer {
  name: "conv4_3_norm_mbox_conf"
  type: "Convolution"
  bottom: "conv4_3_norm"
  top: "conv4_3_norm_mbox_conf"
  param {
    lr_mult: 1
    decay_mult: 1
  }
  param {
    lr_mult: 2
    decay_mult: 0
  }
  convolution_param {
    num_output: 88
    pad: 1
    kernel_size: 3
    stride: 1
    weight_filler {
      type: "xavier"
    }
    bias_filler {
      type: "constant"
      value: 0
    }
  }
}
layer {
  name: "conv4_3_norm_mbox_conf_perm"
  type: "Permute"
  bottom: "conv4_3_norm_mbox_conf"
  top: "conv4_3_norm_mbox_conf_perm"
  permute_param {
    order: 0
    order: 2
    order: 3
    order: 1
  }
}
layer {
  name: "conv4_3_norm_mbox_conf_flat"
  type: "Flatten"
  bottom: "conv4_3_norm_mbox_conf_perm"
  top: "conv4_3_norm_mbox_conf_flat"
  flatten_param {
    axis: 1
  }
}
layer {
  name: "conv4_3_norm_mbox_priorbox"
  type: "PriorBox"
  bottom: "conv4_3_norm"
  bottom: "data"
  top: "conv4_3_norm_mbox_priorbox"
  prior_box_param {
    min_size: 30
    max_size: 60
    aspect_ratio: 2
    flip: true
    clip: false
    variance: 0.1
    variance: 0.1
    variance: 0.2
    variance: 0.2
    step: 8
    offset: 0.5
  }
}
layer {
  name: "fc7_mbox_loc"
  type: "Convolution"
  bottom: "fc7"
  top: "fc7_mbox_loc"
  param {
    lr_mult: 1
    decay_mult: 1
  }
  param {
    lr_mult: 2
    decay_mult: 0
  }
  convolution_param {
    num_output: 24
    pad: 1
    kernel_size: 3
    stride: 1
    weight_filler {
      type: "xavier"
    }
    bias_filler {
      type: "constant"
      value: 0
    }
  }
}
layer {
  name: "fc7_mbox_loc_perm"
  type: "Permute"
  bottom: "fc7_mbox_loc"
  top: "fc7_mbox_loc_perm"
  permute_param {
    order: 0
    order: 2
    order: 3
    order: 1
  }
}
layer {
  name: "fc7_mbox_loc_flat"
  type: "Flatten"
  bottom: "fc7_mbox_loc_perm"
  top: "fc7_mbox_loc_flat"
  flatten_param {
    axis: 1
  }
}
layer {
  name: "fc7_mbox_conf"
  type: "Convolution"
  bottom: "fc7"
  top: "fc7_mbox_conf"
  param {
    lr_mult: 1
    decay_mult: 1
  }
  param {
    lr_mult: 2
    decay_mult: 0
  }
  convolution_param {
    num_output: 132
    pad: 1
    kernel_size: 3
    stride: 1
    weight_filler {
      type: "xavier"
    }
    bias_filler {
      type: "constant"
      value: 0
    }
  }
}
layer {
  name: "fc7_mbox_conf_perm"
  type: "Permute"
  bottom: "fc7_mbox_conf"
  top: "fc7_mbox_conf_perm"
  permute_param {
    order: 0
    order: 2
    order: 3
    order: 1
  }
}
layer {
  name: "fc7_mbox_conf_flat"
  type: "Flatten"
  bottom: "fc7_mbox_conf_perm"
  top: "fc7_mbox_conf_flat"
  flatten_param {
    axis: 1
  }
}
layer {
  name: "fc7_mbox_priorbox"
  type: "PriorBox"
  bottom: "fc7"
  bottom: "data"
  top: "fc7_mbox_priorbox"
  prior_box_param {
    min_size: 60
    max_size: 111
    aspect_ratio: 2
    aspect_ratio: 3
    flip: true
    clip: false
    variance: 0.1
    variance: 0.1
    variance: 0.2
    variance: 0.2
    step: 16
    offset: 0.5
  }
}
layer {
  name: "conv6_2_mbox_loc"
  type: "Convolution"
  bottom: "conv6_2"
  top: "conv6_2_mbox_loc"
  param {
    lr_mult: 1
    decay_mult: 1
  }
  param {
    lr_mult: 2
    decay_mult: 0
  }
  convolution_param {
    num_output: 24
    pad: 1
    kernel_size: 3
    stride: 1
    weight_filler {
      type: "xavier"
    }
    bias_filler {
      type: "constant"
      value: 0
    }
  }
}
layer {
  name: "conv6_2_mbox_loc_perm"
  type: "Permute"
  bottom: "conv6_2_mbox_loc"
  top: "conv6_2_mbox_loc_perm"
  permute_param {
    order: 0
    order: 2
    order: 3
    order: 1
  }
}
layer {
  name: "conv6_2_mbox_loc_flat"
  type: "Flatten"
  bottom: "conv6_2_mbox_loc_perm"
  top: "conv6_2_mbox_loc_flat"
  flatten_param {
    axis: 1
  }
}
layer {
  name: "conv6_2_mbox_conf"
  type: "Convolution"
  bottom: "conv6_2"
  top: "conv6_2_mbox_conf"
  param {
    lr_mult: 1
    decay_mult: 1
  }
  param {
    lr_mult: 2
    decay_mult: 0
  }
  convolution_param {
    num_output: 132
    pad: 1
    kernel_size: 3
    stride: 1
    weight_filler {
      type: "xavier"
    }
    bias_filler {
      type: "constant"
      value: 0
    }
  }
}
layer {
  name: "conv6_2_mbox_conf_perm"
  type: "Permute"
  bottom: "conv6_2_mbox_conf"
  top: "conv6_2_mbox_conf_perm"
  permute_param {
    order: 0
    order: 2
    order: 3
    order: 1
  }
}
layer {
  name: "conv6_2_mbox_conf_flat"
  type: "Flatten"
  bottom: "conv6_2_mbox_conf_perm"
  top: "conv6_2_mbox_conf_flat"
  flatten_param {
    axis: 1
  }
}
layer {
  name: "conv6_2_mbox_priorbox"
  type: "PriorBox"
  bottom: "conv6_2"
  bottom: "data"
  top: "conv6_2_mbox_priorbox"
  prior_box_param {
    min_size: 111
    max_size: 162
    aspect_ratio: 2
    aspect_ratio: 3
    flip: true
    clip: false
    variance: 0.1
    variance: 0.1
    variance: 0.2
    variance: 0.2
    step: 32
    offset: 0.5
  }
}
layer {
  name: "conv7_2_mbox_loc"
  type: "Convolution"
  bottom: "conv7_2"
  top: "conv7_2_mbox_loc"
  param {
    lr_mult: 1
    decay_mult: 1
  }
  param {
    lr_mult: 2
    decay_mult: 0
  }
  convolution_param {
    num_output: 24
    pad: 1
    kernel_size: 3
    stride: 1
    weight_filler {
      type: "xavier"
    }
    bias_filler {
      type: "constant"
      value: 0
    }
  }
}
layer {
  name: "conv7_2_mbox_loc_perm"
  type: "Permute"
  bottom: "conv7_2_mbox_loc"
  top: "conv7_2_mbox_loc_perm"
  permute_param {
    order: 0
    order: 2
    order: 3
    order: 1
  }
}
layer {
  name: "conv7_2_mbox_loc_flat"
  type: "Flatten"
  bottom: "conv7_2_mbox_loc_perm"
  top: "conv7_2_mbox_loc_flat"
  flatten_param {
    axis: 1
  }
}
layer {
  name: "conv7_2_mbox_conf"
  type: "Convolution"
  bottom: "conv7_2"
  top: "conv7_2_mbox_conf"
  param {
    lr_mult: 1
    decay_mult: 1
  }
  param {
    lr_mult: 2
    decay_mult: 0
  }
  convolution_param {
    num_output: 132
    pad: 1
    kernel_size: 3
    stride: 1
    weight_filler {
      type: "xavier"
    }
    bias_filler {
      type: "constant"
      value: 0
    }
  }
}
layer {
  name: "conv7_2_mbox_conf_perm"
  type: "Permute"
  bottom: "conv7_2_mbox_conf"
  top: "conv7_2_mbox_conf_perm"
  permute_param {
    order: 0
    order: 2
    order: 3
    order: 1
  }
}
layer {
  name: "conv7_2_mbox_conf_flat"
  type: "Flatten"
  bottom: "conv7_2_mbox_conf_perm"
  top: "conv7_2_mbox_conf_flat"
  flatten_param {
    axis: 1
  }
}
layer {
  name: "conv7_2_mbox_priorbox"
  type: "PriorBox"
  bottom: "conv7_2"
  bottom: "data"
  top: "conv7_2_mbox_priorbox"
  prior_box_param {
    min_size: 162
    max_size: 213
    aspect_ratio: 2
    aspect_ratio: 3
    flip: true
    clip: false
    variance: 0.1
    variance: 0.1
    variance: 0.2
    variance: 0.2
    step: 64
    offset: 0.5
  }
}
layer {
  name: "conv8_2_mbox_loc"
  type: "Convolution"
  bottom: "conv8_2"
  top: "conv8_2_mbox_loc"
  param {
    lr_mult: 1
    decay_mult: 1
  }
  param {
    lr_mult: 2
    decay_mult: 0
  }
  convolution_param {
    num_output: 16
    pad: 1
    kernel_size: 3
    stride: 1
    weight_filler {
      type: "xavier"
    }
    bias_filler {
      type: "constant"
      value: 0
    }
  }
}
layer {
  name: "conv8_2_mbox_loc_perm"
  type: "Permute"
  bottom: "conv8_2_mbox_loc"
  top: "conv8_2_mbox_loc_perm"
  permute_param {
    order: 0
    order: 2
    order: 3
    order: 1
  }
}
layer {
  name: "conv8_2_mbox_loc_flat"
  type: "Flatten"
  bottom: "conv8_2_mbox_loc_perm"
  top: "conv8_2_mbox_loc_flat"
  flatten_param {
    axis: 1
  }
}
layer {
  name: "conv8_2_mbox_conf"
  type: "Convolution"
  bottom: "conv8_2"
  top: "conv8_2_mbox_conf"
  param {
    lr_mult: 1
    decay_mult: 1
  }
  param {
    lr_mult: 2
    decay_mult: 0
  }
  convolution_param {
    num_output: 88
    pad: 1
    kernel_size: 3
    stride: 1
    weight_filler {
      type: "xavier"
    }
    bias_filler {
      type: "constant"
      value: 0
    }
  }
}
layer {
  name: "conv8_2_mbox_conf_perm"
  type: "Permute"
  bottom: "conv8_2_mbox_conf"
  top: "conv8_2_mbox_conf_perm"
  permute_param {
    order: 0
    order: 2
    order: 3
    order: 1
  }
}
layer {
  name: "conv8_2_mbox_conf_flat"
  type: "Flatten"
  bottom: "conv8_2_mbox_conf_perm"
  top: "conv8_2_mbox_conf_flat"
  flatten_param {
    axis: 1
  }
}
layer {
  name: "conv8_2_mbox_priorbox"
  type: "PriorBox"
  bottom: "conv8_2"
  bottom: "data"
  top: "conv8_2_mbox_priorbox"
  prior_box_param {
    min_size: 213
    max_size: 264
    aspect_ratio: 2
    flip: true
    clip: false
    variance: 0.1
    variance: 0.1
    variance: 0.2
    variance: 0.2
    step: 100
    offset: 0.5
  }
}
layer {
  name: "conv9_2_mbox_loc"
  type: "Convolution"
  bottom: "conv9_2"
  top: "conv9_2_mbox_loc"
  param {
    lr_mult: 1
    decay_mult: 1
  }
  param {
    lr_mult: 2
    decay_mult: 0
  }
  convolution_param {
    num_output: 16
    pad: 1
    kernel_size: 3
    stride: 1
    weight_filler {
      type: "xavier"
    }
    bias_filler {
      type: "constant"
      value: 0
    }
  }
}
layer {
  name: "conv9_2_mbox_loc_perm"
  type: "Permute"
  bottom: "conv9_2_mbox_loc"
  top: "conv9_2_mbox_loc_perm"
  permute_param {
    order: 0
    order: 2
    order: 3
    order: 1
  }
}
layer {
  name: "conv9_2_mbox_loc_flat"
  type: "Flatten"
  bottom: "conv9_2_mbox_loc_perm"
  top: "conv9_2_mbox_loc_flat"
  flatten_param {
    axis: 1
  }
}
layer {
  name: "conv9_2_mbox_conf"
  type: "Convolution"
  bottom: "conv9_2"
  top: "conv9_2_mbox_conf"
  param {
    lr_mult: 1
    decay_mult: 1
  }
  param {
    lr_mult: 2
    decay_mult: 0
  }
  convolution_param {
    num_output: 88
    pad: 1
    kernel_size: 3
    stride: 1
    weight_filler {
      type: "xavier"
    }
    bias_filler {
      type: "constant"
      value: 0
    }
  }
}
layer {
  name: "conv9_2_mbox_conf_perm"
  type: "Permute"
  bottom: "conv9_2_mbox_conf"
  top: "conv9_2_mbox_conf_perm"
  permute_param {
    order: 0
    order: 2
    order: 3
    order: 1
  }
}
layer {
  name: "conv9_2_mbox_conf_flat"
  type: "Flatten"
  bottom: "conv9_2_mbox_conf_perm"
  top: "conv9_2_mbox_conf_flat"
  flatten_param {
    axis: 1
  }
}
layer {
  name: "conv9_2_mbox_priorbox"
  type: "PriorBox"
  bottom: "conv9_2"
  bottom: "data"
  top: "conv9_2_mbox_priorbox"
  prior_box_param {
    min_size: 264
    max_size: 315
    aspect_ratio: 2
    flip: true
    clip: false
    variance: 0.1
    variance: 0.1
    variance: 0.2
    variance: 0.2
    step: 300
    offset: 0.5
  }
}
layer {
  name: "mbox_loc"
  type: "Concat"
  bottom: "conv4_3_norm_mbox_loc_flat"
  bottom: "fc7_mbox_loc_flat"
  bottom: "conv6_2_mbox_loc_flat"
  bottom: "conv7_2_mbox_loc_flat"
  bottom: "conv8_2_mbox_loc_flat"
  bottom: "conv9_2_mbox_loc_flat"
  top: "mbox_loc"
  concat_param {
    axis: 1
  }
}
layer {
  name: "mbox_conf"
  type: "Concat"
  bottom: "conv4_3_norm_mbox_conf_flat"
  bottom: "fc7_mbox_conf_flat"
  bottom: "conv6_2_mbox_conf_flat"
  bottom: "conv7_2_mbox_conf_flat"
  bottom: "conv8_2_mbox_conf_flat"
  bottom: "conv9_2_mbox_conf_flat"
  top: "mbox_conf"
  concat_param {
    axis: 1
  }
}
layer {
  name: "mbox_priorbox"
  type: "Concat"
  bottom: "conv4_3_norm_mbox_priorbox"
  bottom: "fc7_mbox_priorbox"
  bottom: "conv6_2_mbox_priorbox"
  bottom: "conv7_2_mbox_priorbox"
  bottom: "conv8_2_mbox_priorbox"
  bottom: "conv9_2_mbox_priorbox"
  top: "mbox_priorbox"
  concat_param {
    axis: 2
  }
}
layer {
  name: "mbox_loss"
  type: "MultiBoxLoss"
  bottom: "mbox_loc"
  bottom: "mbox_conf"
  bottom: "mbox_priorbox"
  bottom: "label"
  top: "mbox_loss"
  include {
    phase: TRAIN
  }
  propagate_down: true
  propagate_down: true
  propagate_down: false
  propagate_down: false
  loss_param {
    normalization: VALID
  }
  multibox_loss_param {
    loc_loss_type: SMOOTH_L1
    conf_loss_type: SOFTMAX
    loc_weight: 1
    num_classes: 22
    share_location: true
    match_type: PER_PREDICTION
    overlap_threshold: 0.5
    use_prior_for_matching: true
    background_label_id: 0
    use_difficult_gt: true
    neg_pos_ratio: 3
    neg_overlap: 0.5
    code_type: CENTER_SIZE
    ignore_cross_boundary_bbox: false
    mining_type: MAX_NEGATIVE
  }
}
I0217 21:25:45.132304 15035 layer_factory.hpp:77] Creating layer data
I0217 21:25:45.132773 15035 net.cpp:100] Creating Layer data
I0217 21:25:45.132792 15035 net.cpp:408] data -> data
I0217 21:25:45.132836 15035 net.cpp:408] data -> label
I0217 21:25:45.133922 15051 db_lmdb.cpp:35] Opened lmdb examples/dbgr_trees/dbgr_trees_trainval_lmdb
I0217 21:25:45.174708 15035 annotated_data_layer.cpp:62] output data size: 32,4,300,300
I0217 21:25:45.254438 15035 net.cpp:150] Setting up data
I0217 21:25:45.254478 15035 net.cpp:157] Top shape: 32 4 300 300 (11520000)
I0217 21:25:45.254487 15035 net.cpp:157] Top shape: 1 1 3 8 (24)
I0217 21:25:45.254492 15035 net.cpp:165] Memory required for data: 46080096
I0217 21:25:45.254506 15035 layer_factory.hpp:77] Creating layer data_data_0_split
I0217 21:25:45.254535 15035 net.cpp:100] Creating Layer data_data_0_split
I0217 21:25:45.254544 15035 net.cpp:434] data_data_0_split <- data
I0217 21:25:45.254559 15035 net.cpp:408] data_data_0_split -> data_data_0_split_0
I0217 21:25:45.254572 15035 net.cpp:408] data_data_0_split -> data_data_0_split_1
I0217 21:25:45.254583 15035 net.cpp:408] data_data_0_split -> data_data_0_split_2
I0217 21:25:45.254592 15035 net.cpp:408] data_data_0_split -> data_data_0_split_3
I0217 21:25:45.254598 15035 net.cpp:408] data_data_0_split -> data_data_0_split_4
I0217 21:25:45.254606 15035 net.cpp:408] data_data_0_split -> data_data_0_split_5
I0217 21:25:45.254612 15035 net.cpp:408] data_data_0_split -> data_data_0_split_6
I0217 21:25:45.254776 15035 net.cpp:150] Setting up data_data_0_split
I0217 21:25:45.254791 15035 net.cpp:157] Top shape: 32 4 300 300 (11520000)
I0217 21:25:45.254797 15035 net.cpp:157] Top shape: 32 4 300 300 (11520000)
I0217 21:25:45.254803 15035 net.cpp:157] Top shape: 32 4 300 300 (11520000)
I0217 21:25:45.254808 15035 net.cpp:157] Top shape: 32 4 300 300 (11520000)
I0217 21:25:45.254813 15035 net.cpp:157] Top shape: 32 4 300 300 (11520000)
I0217 21:25:45.254818 15035 net.cpp:157] Top shape: 32 4 300 300 (11520000)
I0217 21:25:45.254823 15035 net.cpp:157] Top shape: 32 4 300 300 (11520000)
I0217 21:25:45.254827 15035 net.cpp:165] Memory required for data: 368640096
I0217 21:25:45.254832 15035 layer_factory.hpp:77] Creating layer conv1_1_rgbd
I0217 21:25:45.254854 15035 net.cpp:100] Creating Layer conv1_1_rgbd
I0217 21:25:45.254859 15035 net.cpp:434] conv1_1_rgbd <- data_data_0_split_0
I0217 21:25:45.254868 15035 net.cpp:408] conv1_1_rgbd -> conv1_1_rgbd
I0217 21:25:45.426316 15035 net.cpp:150] Setting up conv1_1_rgbd
I0217 21:25:45.426355 15035 net.cpp:157] Top shape: 32 64 300 300 (184320000)
I0217 21:25:45.426362 15035 net.cpp:165] Memory required for data: 1105920096
I0217 21:25:45.426381 15035 layer_factory.hpp:77] Creating layer relu1_1
I0217 21:25:45.426394 15035 net.cpp:100] Creating Layer relu1_1
I0217 21:25:45.426400 15035 net.cpp:434] relu1_1 <- conv1_1_rgbd
I0217 21:25:45.426407 15035 net.cpp:395] relu1_1 -> conv1_1_rgbd (in-place)
I0217 21:25:45.426730 15035 net.cpp:150] Setting up relu1_1
I0217 21:25:45.426746 15035 net.cpp:157] Top shape: 32 64 300 300 (184320000)
I0217 21:25:45.426750 15035 net.cpp:165] Memory required for data: 1843200096
I0217 21:25:45.426755 15035 layer_factory.hpp:77] Creating layer conv1_2
I0217 21:25:45.426770 15035 net.cpp:100] Creating Layer conv1_2
I0217 21:25:45.426774 15035 net.cpp:434] conv1_2 <- conv1_1_rgbd
I0217 21:25:45.426781 15035 net.cpp:408] conv1_2 -> conv1_2
I0217 21:25:45.428539 15035 net.cpp:150] Setting up conv1_2
I0217 21:25:45.428556 15035 net.cpp:157] Top shape: 32 64 300 300 (184320000)
I0217 21:25:45.428561 15035 net.cpp:165] Memory required for data: 2580480096
I0217 21:25:45.428572 15035 layer_factory.hpp:77] Creating layer relu1_2
I0217 21:25:45.428580 15035 net.cpp:100] Creating Layer relu1_2
I0217 21:25:45.428584 15035 net.cpp:434] relu1_2 <- conv1_2
I0217 21:25:45.428589 15035 net.cpp:395] relu1_2 -> conv1_2 (in-place)
I0217 21:25:45.428871 15035 net.cpp:150] Setting up relu1_2
I0217 21:25:45.428886 15035 net.cpp:157] Top shape: 32 64 300 300 (184320000)
I0217 21:25:45.428890 15035 net.cpp:165] Memory required for data: 3317760096
I0217 21:25:45.428894 15035 layer_factory.hpp:77] Creating layer pool1
I0217 21:25:45.428903 15035 net.cpp:100] Creating Layer pool1
I0217 21:25:45.428907 15035 net.cpp:434] pool1 <- conv1_2
I0217 21:25:45.428913 15035 net.cpp:408] pool1 -> pool1
I0217 21:25:45.428969 15035 net.cpp:150] Setting up pool1
I0217 21:25:45.428978 15035 net.cpp:157] Top shape: 32 64 150 150 (46080000)
I0217 21:25:45.429003 15035 net.cpp:165] Memory required for data: 3502080096
I0217 21:25:45.429008 15035 layer_factory.hpp:77] Creating layer conv2_1
I0217 21:25:45.429018 15035 net.cpp:100] Creating Layer conv2_1
I0217 21:25:45.429021 15035 net.cpp:434] conv2_1 <- pool1
I0217 21:25:45.429028 15035 net.cpp:408] conv2_1 -> conv2_1
I0217 21:25:45.430649 15035 net.cpp:150] Setting up conv2_1
I0217 21:25:45.430666 15035 net.cpp:157] Top shape: 32 128 150 150 (92160000)
I0217 21:25:45.430670 15035 net.cpp:165] Memory required for data: 3870720096
I0217 21:25:45.430681 15035 layer_factory.hpp:77] Creating layer relu2_1
I0217 21:25:45.430690 15035 net.cpp:100] Creating Layer relu2_1
I0217 21:25:45.430694 15035 net.cpp:434] relu2_1 <- conv2_1
I0217 21:25:45.430699 15035 net.cpp:395] relu2_1 -> conv2_1 (in-place)
I0217 21:25:45.430865 15035 net.cpp:150] Setting up relu2_1
I0217 21:25:45.430876 15035 net.cpp:157] Top shape: 32 128 150 150 (92160000)
I0217 21:25:45.430879 15035 net.cpp:165] Memory required for data: 4239360096
I0217 21:25:45.430883 15035 layer_factory.hpp:77] Creating layer conv2_2
I0217 21:25:45.430893 15035 net.cpp:100] Creating Layer conv2_2
I0217 21:25:45.430897 15035 net.cpp:434] conv2_2 <- conv2_1
I0217 21:25:45.430903 15035 net.cpp:408] conv2_2 -> conv2_2
I0217 21:25:45.433482 15035 net.cpp:150] Setting up conv2_2
I0217 21:25:45.433501 15035 net.cpp:157] Top shape: 32 128 150 150 (92160000)
I0217 21:25:45.433506 15035 net.cpp:165] Memory required for data: 4608000096
I0217 21:25:45.433513 15035 layer_factory.hpp:77] Creating layer relu2_2
I0217 21:25:45.433522 15035 net.cpp:100] Creating Layer relu2_2
I0217 21:25:45.433527 15035 net.cpp:434] relu2_2 <- conv2_2
I0217 21:25:45.433532 15035 net.cpp:395] relu2_2 -> conv2_2 (in-place)
I0217 21:25:45.433836 15035 net.cpp:150] Setting up relu2_2
I0217 21:25:45.433851 15035 net.cpp:157] Top shape: 32 128 150 150 (92160000)
I0217 21:25:45.433856 15035 net.cpp:165] Memory required for data: 4976640096
I0217 21:25:45.433859 15035 layer_factory.hpp:77] Creating layer pool2
I0217 21:25:45.433869 15035 net.cpp:100] Creating Layer pool2
I0217 21:25:45.433873 15035 net.cpp:434] pool2 <- conv2_2
I0217 21:25:45.433879 15035 net.cpp:408] pool2 -> pool2
I0217 21:25:45.433924 15035 net.cpp:150] Setting up pool2
I0217 21:25:45.433933 15035 net.cpp:157] Top shape: 32 128 75 75 (23040000)
I0217 21:25:45.433936 15035 net.cpp:165] Memory required for data: 5068800096
I0217 21:25:45.433940 15035 layer_factory.hpp:77] Creating layer conv3_1
I0217 21:25:45.433953 15035 net.cpp:100] Creating Layer conv3_1
I0217 21:25:45.433956 15035 net.cpp:434] conv3_1 <- pool2
I0217 21:25:45.433964 15035 net.cpp:408] conv3_1 -> conv3_1
I0217 21:25:45.438038 15035 net.cpp:150] Setting up conv3_1
I0217 21:25:45.438058 15035 net.cpp:157] Top shape: 32 256 75 75 (46080000)
I0217 21:25:45.438063 15035 net.cpp:165] Memory required for data: 5253120096
I0217 21:25:45.438076 15035 layer_factory.hpp:77] Creating layer relu3_1
I0217 21:25:45.438083 15035 net.cpp:100] Creating Layer relu3_1
I0217 21:25:45.438087 15035 net.cpp:434] relu3_1 <- conv3_1
I0217 21:25:45.438094 15035 net.cpp:395] relu3_1 -> conv3_1 (in-place)
I0217 21:25:45.438396 15035 net.cpp:150] Setting up relu3_1
I0217 21:25:45.438411 15035 net.cpp:157] Top shape: 32 256 75 75 (46080000)
I0217 21:25:45.438416 15035 net.cpp:165] Memory required for data: 5437440096
I0217 21:25:45.438419 15035 layer_factory.hpp:77] Creating layer conv3_2
I0217 21:25:45.438433 15035 net.cpp:100] Creating Layer conv3_2
I0217 21:25:45.438438 15035 net.cpp:434] conv3_2 <- conv3_1
I0217 21:25:45.438446 15035 net.cpp:408] conv3_2 -> conv3_2
I0217 21:25:45.444509 15035 net.cpp:150] Setting up conv3_2
I0217 21:25:45.444527 15035 net.cpp:157] Top shape: 32 256 75 75 (46080000)
I0217 21:25:45.444531 15035 net.cpp:165] Memory required for data: 5621760096
I0217 21:25:45.444540 15035 layer_factory.hpp:77] Creating layer relu3_2
I0217 21:25:45.444546 15035 net.cpp:100] Creating Layer relu3_2
I0217 21:25:45.444550 15035 net.cpp:434] relu3_2 <- conv3_2
I0217 21:25:45.444558 15035 net.cpp:395] relu3_2 -> conv3_2 (in-place)
I0217 21:25:45.444747 15035 net.cpp:150] Setting up relu3_2
I0217 21:25:45.444761 15035 net.cpp:157] Top shape: 32 256 75 75 (46080000)
I0217 21:25:45.444764 15035 net.cpp:165] Memory required for data: 5806080096
I0217 21:25:45.444768 15035 layer_factory.hpp:77] Creating layer conv3_3
I0217 21:25:45.444783 15035 net.cpp:100] Creating Layer conv3_3
I0217 21:25:45.444787 15035 net.cpp:434] conv3_3 <- conv3_2
I0217 21:25:45.444794 15035 net.cpp:408] conv3_3 -> conv3_3
I0217 21:25:45.450872 15035 net.cpp:150] Setting up conv3_3
I0217 21:25:45.450891 15035 net.cpp:157] Top shape: 32 256 75 75 (46080000)
I0217 21:25:45.450896 15035 net.cpp:165] Memory required for data: 5990400096
I0217 21:25:45.450902 15035 layer_factory.hpp:77] Creating layer relu3_3
I0217 21:25:45.450911 15035 net.cpp:100] Creating Layer relu3_3
I0217 21:25:45.450914 15035 net.cpp:434] relu3_3 <- conv3_3
I0217 21:25:45.450922 15035 net.cpp:395] relu3_3 -> conv3_3 (in-place)
I0217 21:25:45.451230 15035 net.cpp:150] Setting up relu3_3
I0217 21:25:45.451244 15035 net.cpp:157] Top shape: 32 256 75 75 (46080000)
I0217 21:25:45.451248 15035 net.cpp:165] Memory required for data: 6174720096
I0217 21:25:45.451252 15035 layer_factory.hpp:77] Creating layer pool3
I0217 21:25:45.451263 15035 net.cpp:100] Creating Layer pool3
I0217 21:25:45.451267 15035 net.cpp:434] pool3 <- conv3_3
I0217 21:25:45.451273 15035 net.cpp:408] pool3 -> pool3
I0217 21:25:45.451323 15035 net.cpp:150] Setting up pool3
I0217 21:25:45.451329 15035 net.cpp:157] Top shape: 32 256 38 38 (11829248)
I0217 21:25:45.451333 15035 net.cpp:165] Memory required for data: 6222037088
I0217 21:25:45.451336 15035 layer_factory.hpp:77] Creating layer conv4_1
I0217 21:25:45.451347 15035 net.cpp:100] Creating Layer conv4_1
I0217 21:25:45.451351 15035 net.cpp:434] conv4_1 <- pool3
I0217 21:25:45.451359 15035 net.cpp:408] conv4_1 -> conv4_1
I0217 21:25:45.462802 15035 net.cpp:150] Setting up conv4_1
I0217 21:25:45.462831 15035 net.cpp:157] Top shape: 32 512 38 38 (23658496)
I0217 21:25:45.462836 15035 net.cpp:165] Memory required for data: 6316671072
I0217 21:25:45.462844 15035 layer_factory.hpp:77] Creating layer relu4_1
I0217 21:25:45.462855 15035 net.cpp:100] Creating Layer relu4_1
I0217 21:25:45.462860 15035 net.cpp:434] relu4_1 <- conv4_1
I0217 21:25:45.462867 15035 net.cpp:395] relu4_1 -> conv4_1 (in-place)
I0217 21:25:45.463178 15035 net.cpp:150] Setting up relu4_1
I0217 21:25:45.463193 15035 net.cpp:157] Top shape: 32 512 38 38 (23658496)
I0217 21:25:45.463197 15035 net.cpp:165] Memory required for data: 6411305056
I0217 21:25:45.463201 15035 layer_factory.hpp:77] Creating layer conv4_2
I0217 21:25:45.463217 15035 net.cpp:100] Creating Layer conv4_2
I0217 21:25:45.463222 15035 net.cpp:434] conv4_2 <- conv4_1
I0217 21:25:45.463229 15035 net.cpp:408] conv4_2 -> conv4_2
I0217 21:25:45.484216 15035 net.cpp:150] Setting up conv4_2
I0217 21:25:45.484252 15035 net.cpp:157] Top shape: 32 512 38 38 (23658496)
I0217 21:25:45.484257 15035 net.cpp:165] Memory required for data: 6505939040
I0217 21:25:45.484273 15035 layer_factory.hpp:77] Creating layer relu4_2
I0217 21:25:45.484284 15035 net.cpp:100] Creating Layer relu4_2
I0217 21:25:45.484290 15035 net.cpp:434] relu4_2 <- conv4_2
I0217 21:25:45.484298 15035 net.cpp:395] relu4_2 -> conv4_2 (in-place)
I0217 21:25:45.484482 15035 net.cpp:150] Setting up relu4_2
I0217 21:25:45.484493 15035 net.cpp:157] Top shape: 32 512 38 38 (23658496)
I0217 21:25:45.484496 15035 net.cpp:165] Memory required for data: 6600573024
I0217 21:25:45.484500 15035 layer_factory.hpp:77] Creating layer conv4_3
I0217 21:25:45.484513 15035 net.cpp:100] Creating Layer conv4_3
I0217 21:25:45.484519 15035 net.cpp:434] conv4_3 <- conv4_2
I0217 21:25:45.484526 15035 net.cpp:408] conv4_3 -> conv4_3
I0217 21:25:45.503485 15052 blocking_queue.cpp:50] Waiting for data
I0217 21:25:45.505542 15035 net.cpp:150] Setting up conv4_3
I0217 21:25:45.505563 15035 net.cpp:157] Top shape: 32 512 38 38 (23658496)
I0217 21:25:45.505568 15035 net.cpp:165] Memory required for data: 6695207008
I0217 21:25:45.505595 15035 layer_factory.hpp:77] Creating layer relu4_3
I0217 21:25:45.505607 15035 net.cpp:100] Creating Layer relu4_3
I0217 21:25:45.505612 15035 net.cpp:434] relu4_3 <- conv4_3
I0217 21:25:45.505622 15035 net.cpp:395] relu4_3 -> conv4_3 (in-place)
I0217 21:25:45.505939 15035 net.cpp:150] Setting up relu4_3
I0217 21:25:45.505954 15035 net.cpp:157] Top shape: 32 512 38 38 (23658496)
I0217 21:25:45.505959 15035 net.cpp:165] Memory required for data: 6789840992
I0217 21:25:45.505962 15035 layer_factory.hpp:77] Creating layer conv4_3_relu4_3_0_split
I0217 21:25:45.505972 15035 net.cpp:100] Creating Layer conv4_3_relu4_3_0_split
I0217 21:25:45.505977 15035 net.cpp:434] conv4_3_relu4_3_0_split <- conv4_3
I0217 21:25:45.505983 15035 net.cpp:408] conv4_3_relu4_3_0_split -> conv4_3_relu4_3_0_split_0
I0217 21:25:45.505990 15035 net.cpp:408] conv4_3_relu4_3_0_split -> conv4_3_relu4_3_0_split_1
I0217 21:25:45.506037 15035 net.cpp:150] Setting up conv4_3_relu4_3_0_split
I0217 21:25:45.506043 15035 net.cpp:157] Top shape: 32 512 38 38 (23658496)
I0217 21:25:45.506048 15035 net.cpp:157] Top shape: 32 512 38 38 (23658496)
I0217 21:25:45.506052 15035 net.cpp:165] Memory required for data: 6979108960
I0217 21:25:45.506055 15035 layer_factory.hpp:77] Creating layer pool4
I0217 21:25:45.506062 15035 net.cpp:100] Creating Layer pool4
I0217 21:25:45.506067 15035 net.cpp:434] pool4 <- conv4_3_relu4_3_0_split_0
I0217 21:25:45.506072 15035 net.cpp:408] pool4 -> pool4
I0217 21:25:45.506111 15035 net.cpp:150] Setting up pool4
I0217 21:25:45.506117 15035 net.cpp:157] Top shape: 32 512 19 19 (5914624)
I0217 21:25:45.506120 15035 net.cpp:165] Memory required for data: 7002767456
I0217 21:25:45.506124 15035 layer_factory.hpp:77] Creating layer conv5_1
I0217 21:25:45.506139 15035 net.cpp:100] Creating Layer conv5_1
I0217 21:25:45.506142 15035 net.cpp:434] conv5_1 <- pool4
I0217 21:25:45.506148 15035 net.cpp:408] conv5_1 -> conv5_1
I0217 21:25:45.527123 15035 net.cpp:150] Setting up conv5_1
I0217 21:25:45.527158 15035 net.cpp:157] Top shape: 32 512 19 19 (5914624)
I0217 21:25:45.527163 15035 net.cpp:165] Memory required for data: 7026425952
I0217 21:25:45.527173 15035 layer_factory.hpp:77] Creating layer relu5_1
I0217 21:25:45.527184 15035 net.cpp:100] Creating Layer relu5_1
I0217 21:25:45.527189 15035 net.cpp:434] relu5_1 <- conv5_1
I0217 21:25:45.527197 15035 net.cpp:395] relu5_1 -> conv5_1 (in-place)
I0217 21:25:45.527514 15035 net.cpp:150] Setting up relu5_1
I0217 21:25:45.527529 15035 net.cpp:157] Top shape: 32 512 19 19 (5914624)
I0217 21:25:45.527534 15035 net.cpp:165] Memory required for data: 7050084448
I0217 21:25:45.527537 15035 layer_factory.hpp:77] Creating layer conv5_2
I0217 21:25:45.527551 15035 net.cpp:100] Creating Layer conv5_2
I0217 21:25:45.527556 15035 net.cpp:434] conv5_2 <- conv5_1
I0217 21:25:45.527565 15035 net.cpp:408] conv5_2 -> conv5_2
I0217 21:25:45.548698 15035 net.cpp:150] Setting up conv5_2
I0217 21:25:45.548734 15035 net.cpp:157] Top shape: 32 512 19 19 (5914624)
I0217 21:25:45.548739 15035 net.cpp:165] Memory required for data: 7073742944
I0217 21:25:45.548748 15035 layer_factory.hpp:77] Creating layer relu5_2
I0217 21:25:45.548761 15035 net.cpp:100] Creating Layer relu5_2
I0217 21:25:45.548768 15035 net.cpp:434] relu5_2 <- conv5_2
I0217 21:25:45.548776 15035 net.cpp:395] relu5_2 -> conv5_2 (in-place)
I0217 21:25:45.548955 15035 net.cpp:150] Setting up relu5_2
I0217 21:25:45.548966 15035 net.cpp:157] Top shape: 32 512 19 19 (5914624)
I0217 21:25:45.548970 15035 net.cpp:165] Memory required for data: 7097401440
I0217 21:25:45.548974 15035 layer_factory.hpp:77] Creating layer conv5_3
I0217 21:25:45.548990 15035 net.cpp:100] Creating Layer conv5_3
I0217 21:25:45.548995 15035 net.cpp:434] conv5_3 <- conv5_2
I0217 21:25:45.549000 15035 net.cpp:408] conv5_3 -> conv5_3
I0217 21:25:45.570097 15035 net.cpp:150] Setting up conv5_3
I0217 21:25:45.570134 15035 net.cpp:157] Top shape: 32 512 19 19 (5914624)
I0217 21:25:45.570139 15035 net.cpp:165] Memory required for data: 7121059936
I0217 21:25:45.570149 15035 layer_factory.hpp:77] Creating layer relu5_3
I0217 21:25:45.570188 15035 net.cpp:100] Creating Layer relu5_3
I0217 21:25:45.570195 15035 net.cpp:434] relu5_3 <- conv5_3
I0217 21:25:45.570204 15035 net.cpp:395] relu5_3 -> conv5_3 (in-place)
I0217 21:25:45.570524 15035 net.cpp:150] Setting up relu5_3
I0217 21:25:45.570538 15035 net.cpp:157] Top shape: 32 512 19 19 (5914624)
I0217 21:25:45.570543 15035 net.cpp:165] Memory required for data: 7144718432
I0217 21:25:45.570547 15035 layer_factory.hpp:77] Creating layer pool5
I0217 21:25:45.570556 15035 net.cpp:100] Creating Layer pool5
I0217 21:25:45.570561 15035 net.cpp:434] pool5 <- conv5_3
I0217 21:25:45.570567 15035 net.cpp:408] pool5 -> pool5
I0217 21:25:45.570619 15035 net.cpp:150] Setting up pool5
I0217 21:25:45.570626 15035 net.cpp:157] Top shape: 32 512 19 19 (5914624)
I0217 21:25:45.570629 15035 net.cpp:165] Memory required for data: 7168376928
I0217 21:25:45.570633 15035 layer_factory.hpp:77] Creating layer fc6
I0217 21:25:45.570647 15035 net.cpp:100] Creating Layer fc6
I0217 21:25:45.570650 15035 net.cpp:434] fc6 <- pool5
I0217 21:25:45.570657 15035 net.cpp:408] fc6 -> fc6
I0217 21:25:45.611079 15035 net.cpp:150] Setting up fc6
I0217 21:25:45.611116 15035 net.cpp:157] Top shape: 32 1024 19 19 (11829248)
I0217 21:25:45.611120 15035 net.cpp:165] Memory required for data: 7215693920
I0217 21:25:45.611130 15035 layer_factory.hpp:77] Creating layer relu6
I0217 21:25:45.611140 15035 net.cpp:100] Creating Layer relu6
I0217 21:25:45.611146 15035 net.cpp:434] relu6 <- fc6
I0217 21:25:45.611155 15035 net.cpp:395] relu6 -> fc6 (in-place)
I0217 21:25:45.611404 15035 net.cpp:150] Setting up relu6
I0217 21:25:45.611416 15035 net.cpp:157] Top shape: 32 1024 19 19 (11829248)
I0217 21:25:45.611420 15035 net.cpp:165] Memory required for data: 7263010912
I0217 21:25:45.611424 15035 layer_factory.hpp:77] Creating layer fc7
I0217 21:25:45.611438 15035 net.cpp:100] Creating Layer fc7
I0217 21:25:45.611441 15035 net.cpp:434] fc7 <- fc6
I0217 21:25:45.611449 15035 net.cpp:408] fc7 -> fc7
I0217 21:25:45.621501 15035 net.cpp:150] Setting up fc7
I0217 21:25:45.621522 15035 net.cpp:157] Top shape: 32 1024 19 19 (11829248)
I0217 21:25:45.621527 15035 net.cpp:165] Memory required for data: 7310327904
I0217 21:25:45.621536 15035 layer_factory.hpp:77] Creating layer relu7
I0217 21:25:45.621544 15035 net.cpp:100] Creating Layer relu7
I0217 21:25:45.621549 15035 net.cpp:434] relu7 <- fc7
I0217 21:25:45.621557 15035 net.cpp:395] relu7 -> fc7 (in-place)
I0217 21:25:45.621872 15035 net.cpp:150] Setting up relu7
I0217 21:25:45.621886 15035 net.cpp:157] Top shape: 32 1024 19 19 (11829248)
I0217 21:25:45.621891 15035 net.cpp:165] Memory required for data: 7357644896
I0217 21:25:45.621896 15035 layer_factory.hpp:77] Creating layer fc7_relu7_0_split
I0217 21:25:45.621904 15035 net.cpp:100] Creating Layer fc7_relu7_0_split
I0217 21:25:45.621908 15035 net.cpp:434] fc7_relu7_0_split <- fc7
I0217 21:25:45.621915 15035 net.cpp:408] fc7_relu7_0_split -> fc7_relu7_0_split_0
I0217 21:25:45.621923 15035 net.cpp:408] fc7_relu7_0_split -> fc7_relu7_0_split_1
I0217 21:25:45.621935 15035 net.cpp:408] fc7_relu7_0_split -> fc7_relu7_0_split_2
I0217 21:25:45.621942 15035 net.cpp:408] fc7_relu7_0_split -> fc7_relu7_0_split_3
I0217 21:25:45.622012 15035 net.cpp:150] Setting up fc7_relu7_0_split
I0217 21:25:45.622020 15035 net.cpp:157] Top shape: 32 1024 19 19 (11829248)
I0217 21:25:45.622025 15035 net.cpp:157] Top shape: 32 1024 19 19 (11829248)
I0217 21:25:45.622030 15035 net.cpp:157] Top shape: 32 1024 19 19 (11829248)
I0217 21:25:45.622033 15035 net.cpp:157] Top shape: 32 1024 19 19 (11829248)
I0217 21:25:45.622036 15035 net.cpp:165] Memory required for data: 7546912864
I0217 21:25:45.622042 15035 layer_factory.hpp:77] Creating layer conv6_1
I0217 21:25:45.622054 15035 net.cpp:100] Creating Layer conv6_1
I0217 21:25:45.622058 15035 net.cpp:434] conv6_1 <- fc7_relu7_0_split_0
I0217 21:25:45.622066 15035 net.cpp:408] conv6_1 -> conv6_1
I0217 21:25:45.627149 15035 net.cpp:150] Setting up conv6_1
I0217 21:25:45.627169 15035 net.cpp:157] Top shape: 32 256 19 19 (2957312)
I0217 21:25:45.627192 15035 net.cpp:165] Memory required for data: 7558742112
I0217 21:25:45.627200 15035 layer_factory.hpp:77] Creating layer conv6_1_relu
I0217 21:25:45.627207 15035 net.cpp:100] Creating Layer conv6_1_relu
I0217 21:25:45.627212 15035 net.cpp:434] conv6_1_relu <- conv6_1
I0217 21:25:45.627219 15035 net.cpp:395] conv6_1_relu -> conv6_1 (in-place)
I0217 21:25:45.627547 15035 net.cpp:150] Setting up conv6_1_relu
I0217 21:25:45.627562 15035 net.cpp:157] Top shape: 32 256 19 19 (2957312)
I0217 21:25:45.627565 15035 net.cpp:165] Memory required for data: 7570571360
I0217 21:25:45.627569 15035 layer_factory.hpp:77] Creating layer conv6_2
I0217 21:25:45.627581 15035 net.cpp:100] Creating Layer conv6_2
I0217 21:25:45.627586 15035 net.cpp:434] conv6_2 <- conv6_1
I0217 21:25:45.627594 15035 net.cpp:408] conv6_2 -> conv6_2
I0217 21:25:45.638726 15035 net.cpp:150] Setting up conv6_2
I0217 21:25:45.638756 15035 net.cpp:157] Top shape: 32 512 10 10 (1638400)
I0217 21:25:45.638761 15035 net.cpp:165] Memory required for data: 7577124960
I0217 21:25:45.638780 15035 layer_factory.hpp:77] Creating layer conv6_2_relu
I0217 21:25:45.638792 15035 net.cpp:100] Creating Layer conv6_2_relu
I0217 21:25:45.638797 15035 net.cpp:434] conv6_2_relu <- conv6_2
I0217 21:25:45.638804 15035 net.cpp:395] conv6_2_relu -> conv6_2 (in-place)
I0217 21:25:45.638985 15035 net.cpp:150] Setting up conv6_2_relu
I0217 21:25:45.638996 15035 net.cpp:157] Top shape: 32 512 10 10 (1638400)
I0217 21:25:45.639000 15035 net.cpp:165] Memory required for data: 7583678560
I0217 21:25:45.639004 15035 layer_factory.hpp:77] Creating layer conv6_2_conv6_2_relu_0_split
I0217 21:25:45.639012 15035 net.cpp:100] Creating Layer conv6_2_conv6_2_relu_0_split
I0217 21:25:45.639015 15035 net.cpp:434] conv6_2_conv6_2_relu_0_split <- conv6_2
I0217 21:25:45.639024 15035 net.cpp:408] conv6_2_conv6_2_relu_0_split -> conv6_2_conv6_2_relu_0_split_0
I0217 21:25:45.639034 15035 net.cpp:408] conv6_2_conv6_2_relu_0_split -> conv6_2_conv6_2_relu_0_split_1
I0217 21:25:45.639039 15035 net.cpp:408] conv6_2_conv6_2_relu_0_split -> conv6_2_conv6_2_relu_0_split_2
I0217 21:25:45.639045 15035 net.cpp:408] conv6_2_conv6_2_relu_0_split -> conv6_2_conv6_2_relu_0_split_3
I0217 21:25:45.639116 15035 net.cpp:150] Setting up conv6_2_conv6_2_relu_0_split
I0217 21:25:45.639122 15035 net.cpp:157] Top shape: 32 512 10 10 (1638400)
I0217 21:25:45.639127 15035 net.cpp:157] Top shape: 32 512 10 10 (1638400)
I0217 21:25:45.639132 15035 net.cpp:157] Top shape: 32 512 10 10 (1638400)
I0217 21:25:45.639135 15035 net.cpp:157] Top shape: 32 512 10 10 (1638400)
I0217 21:25:45.639138 15035 net.cpp:165] Memory required for data: 7609892960
I0217 21:25:45.639142 15035 layer_factory.hpp:77] Creating layer conv7_1
I0217 21:25:45.639154 15035 net.cpp:100] Creating Layer conv7_1
I0217 21:25:45.639158 15035 net.cpp:434] conv7_1 <- conv6_2_conv6_2_relu_0_split_0
I0217 21:25:45.639166 15035 net.cpp:408] conv7_1 -> conv7_1
I0217 21:25:45.640733 15035 net.cpp:150] Setting up conv7_1
I0217 21:25:45.640749 15035 net.cpp:157] Top shape: 32 128 10 10 (409600)
I0217 21:25:45.640754 15035 net.cpp:165] Memory required for data: 7611531360
I0217 21:25:45.640761 15035 layer_factory.hpp:77] Creating layer conv7_1_relu
I0217 21:25:45.640770 15035 net.cpp:100] Creating Layer conv7_1_relu
I0217 21:25:45.640776 15035 net.cpp:434] conv7_1_relu <- conv7_1
I0217 21:25:45.640781 15035 net.cpp:395] conv7_1_relu -> conv7_1 (in-place)
I0217 21:25:45.641090 15035 net.cpp:150] Setting up conv7_1_relu
I0217 21:25:45.641104 15035 net.cpp:157] Top shape: 32 128 10 10 (409600)
I0217 21:25:45.641108 15035 net.cpp:165] Memory required for data: 7613169760
I0217 21:25:45.641113 15035 layer_factory.hpp:77] Creating layer conv7_2
I0217 21:25:45.641125 15035 net.cpp:100] Creating Layer conv7_2
I0217 21:25:45.641130 15035 net.cpp:434] conv7_2 <- conv7_1
I0217 21:25:45.641137 15035 net.cpp:408] conv7_2 -> conv7_2
I0217 21:25:45.644714 15035 net.cpp:150] Setting up conv7_2
I0217 21:25:45.644731 15035 net.cpp:157] Top shape: 32 256 5 5 (204800)
I0217 21:25:45.644752 15035 net.cpp:165] Memory required for data: 7613988960
I0217 21:25:45.644760 15035 layer_factory.hpp:77] Creating layer conv7_2_relu
I0217 21:25:45.644769 15035 net.cpp:100] Creating Layer conv7_2_relu
I0217 21:25:45.644773 15035 net.cpp:434] conv7_2_relu <- conv7_2
I0217 21:25:45.644779 15035 net.cpp:395] conv7_2_relu -> conv7_2 (in-place)
I0217 21:25:45.645097 15035 net.cpp:150] Setting up conv7_2_relu
I0217 21:25:45.645112 15035 net.cpp:157] Top shape: 32 256 5 5 (204800)
I0217 21:25:45.645115 15035 net.cpp:165] Memory required for data: 7614808160
I0217 21:25:45.645120 15035 layer_factory.hpp:77] Creating layer conv7_2_conv7_2_relu_0_split
I0217 21:25:45.645128 15035 net.cpp:100] Creating Layer conv7_2_conv7_2_relu_0_split
I0217 21:25:45.645133 15035 net.cpp:434] conv7_2_conv7_2_relu_0_split <- conv7_2
I0217 21:25:45.645138 15035 net.cpp:408] conv7_2_conv7_2_relu_0_split -> conv7_2_conv7_2_relu_0_split_0
I0217 21:25:45.645146 15035 net.cpp:408] conv7_2_conv7_2_relu_0_split -> conv7_2_conv7_2_relu_0_split_1
I0217 21:25:45.645153 15035 net.cpp:408] conv7_2_conv7_2_relu_0_split -> conv7_2_conv7_2_relu_0_split_2
I0217 21:25:45.645160 15035 net.cpp:408] conv7_2_conv7_2_relu_0_split -> conv7_2_conv7_2_relu_0_split_3
I0217 21:25:45.645236 15035 net.cpp:150] Setting up conv7_2_conv7_2_relu_0_split
I0217 21:25:45.645241 15035 net.cpp:157] Top shape: 32 256 5 5 (204800)
I0217 21:25:45.645246 15035 net.cpp:157] Top shape: 32 256 5 5 (204800)
I0217 21:25:45.645251 15035 net.cpp:157] Top shape: 32 256 5 5 (204800)
I0217 21:25:45.645254 15035 net.cpp:157] Top shape: 32 256 5 5 (204800)
I0217 21:25:45.645257 15035 net.cpp:165] Memory required for data: 7618084960
I0217 21:25:45.645262 15035 layer_factory.hpp:77] Creating layer conv8_1
I0217 21:25:45.645272 15035 net.cpp:100] Creating Layer conv8_1
I0217 21:25:45.645275 15035 net.cpp:434] conv8_1 <- conv7_2_conv7_2_relu_0_split_0
I0217 21:25:45.645283 15035 net.cpp:408] conv8_1 -> conv8_1
I0217 21:25:45.646596 15035 net.cpp:150] Setting up conv8_1
I0217 21:25:45.646612 15035 net.cpp:157] Top shape: 32 128 5 5 (102400)
I0217 21:25:45.646616 15035 net.cpp:165] Memory required for data: 7618494560
I0217 21:25:45.646623 15035 layer_factory.hpp:77] Creating layer conv8_1_relu
I0217 21:25:45.646631 15035 net.cpp:100] Creating Layer conv8_1_relu
I0217 21:25:45.646634 15035 net.cpp:434] conv8_1_relu <- conv8_1
I0217 21:25:45.646641 15035 net.cpp:395] conv8_1_relu -> conv8_1 (in-place)
I0217 21:25:45.646819 15035 net.cpp:150] Setting up conv8_1_relu
I0217 21:25:45.646831 15035 net.cpp:157] Top shape: 32 128 5 5 (102400)
I0217 21:25:45.646834 15035 net.cpp:165] Memory required for data: 7618904160
I0217 21:25:45.646837 15035 layer_factory.hpp:77] Creating layer conv8_2
I0217 21:25:45.646850 15035 net.cpp:100] Creating Layer conv8_2
I0217 21:25:45.646854 15035 net.cpp:434] conv8_2 <- conv8_1
I0217 21:25:45.646862 15035 net.cpp:408] conv8_2 -> conv8_2
I0217 21:25:45.650552 15035 net.cpp:150] Setting up conv8_2
I0217 21:25:45.650568 15035 net.cpp:157] Top shape: 32 256 3 3 (73728)
I0217 21:25:45.650573 15035 net.cpp:165] Memory required for data: 7619199072
I0217 21:25:45.650579 15035 layer_factory.hpp:77] Creating layer conv8_2_relu
I0217 21:25:45.650588 15035 net.cpp:100] Creating Layer conv8_2_relu
I0217 21:25:45.650593 15035 net.cpp:434] conv8_2_relu <- conv8_2
I0217 21:25:45.650599 15035 net.cpp:395] conv8_2_relu -> conv8_2 (in-place)
I0217 21:25:45.650913 15035 net.cpp:150] Setting up conv8_2_relu
I0217 21:25:45.650929 15035 net.cpp:157] Top shape: 32 256 3 3 (73728)
I0217 21:25:45.650933 15035 net.cpp:165] Memory required for data: 7619493984
I0217 21:25:45.650938 15035 layer_factory.hpp:77] Creating layer conv8_2_conv8_2_relu_0_split
I0217 21:25:45.650944 15035 net.cpp:100] Creating Layer conv8_2_conv8_2_relu_0_split
I0217 21:25:45.650949 15035 net.cpp:434] conv8_2_conv8_2_relu_0_split <- conv8_2
I0217 21:25:45.650954 15035 net.cpp:408] conv8_2_conv8_2_relu_0_split -> conv8_2_conv8_2_relu_0_split_0
I0217 21:25:45.650961 15035 net.cpp:408] conv8_2_conv8_2_relu_0_split -> conv8_2_conv8_2_relu_0_split_1
I0217 21:25:45.650984 15035 net.cpp:408] conv8_2_conv8_2_relu_0_split -> conv8_2_conv8_2_relu_0_split_2
I0217 21:25:45.650990 15035 net.cpp:408] conv8_2_conv8_2_relu_0_split -> conv8_2_conv8_2_relu_0_split_3
I0217 21:25:45.651067 15035 net.cpp:150] Setting up conv8_2_conv8_2_relu_0_split
I0217 21:25:45.651074 15035 net.cpp:157] Top shape: 32 256 3 3 (73728)
I0217 21:25:45.651078 15035 net.cpp:157] Top shape: 32 256 3 3 (73728)
I0217 21:25:45.651082 15035 net.cpp:157] Top shape: 32 256 3 3 (73728)
I0217 21:25:45.651087 15035 net.cpp:157] Top shape: 32 256 3 3 (73728)
I0217 21:25:45.651090 15035 net.cpp:165] Memory required for data: 7620673632
I0217 21:25:45.651094 15035 layer_factory.hpp:77] Creating layer conv9_1
I0217 21:25:45.651105 15035 net.cpp:100] Creating Layer conv9_1
I0217 21:25:45.651110 15035 net.cpp:434] conv9_1 <- conv8_2_conv8_2_relu_0_split_0
I0217 21:25:45.651118 15035 net.cpp:408] conv9_1 -> conv9_1
I0217 21:25:45.652305 15035 net.cpp:150] Setting up conv9_1
I0217 21:25:45.652321 15035 net.cpp:157] Top shape: 32 128 3 3 (36864)
I0217 21:25:45.652326 15035 net.cpp:165] Memory required for data: 7620821088
I0217 21:25:45.652334 15035 layer_factory.hpp:77] Creating layer conv9_1_relu
I0217 21:25:45.652343 15035 net.cpp:100] Creating Layer conv9_1_relu
I0217 21:25:45.652346 15035 net.cpp:434] conv9_1_relu <- conv9_1
I0217 21:25:45.652353 15035 net.cpp:395] conv9_1_relu -> conv9_1 (in-place)
I0217 21:25:45.652671 15035 net.cpp:150] Setting up conv9_1_relu
I0217 21:25:45.652685 15035 net.cpp:157] Top shape: 32 128 3 3 (36864)
I0217 21:25:45.652689 15035 net.cpp:165] Memory required for data: 7620968544
I0217 21:25:45.652694 15035 layer_factory.hpp:77] Creating layer conv9_2
I0217 21:25:45.652707 15035 net.cpp:100] Creating Layer conv9_2
I0217 21:25:45.652711 15035 net.cpp:434] conv9_2 <- conv9_1
I0217 21:25:45.652719 15035 net.cpp:408] conv9_2 -> conv9_2
I0217 21:25:45.656404 15035 net.cpp:150] Setting up conv9_2
I0217 21:25:45.656420 15035 net.cpp:157] Top shape: 32 256 1 1 (8192)
I0217 21:25:45.656424 15035 net.cpp:165] Memory required for data: 7621001312
I0217 21:25:45.656432 15035 layer_factory.hpp:77] Creating layer conv9_2_relu
I0217 21:25:45.656440 15035 net.cpp:100] Creating Layer conv9_2_relu
I0217 21:25:45.656445 15035 net.cpp:434] conv9_2_relu <- conv9_2
I0217 21:25:45.656450 15035 net.cpp:395] conv9_2_relu -> conv9_2 (in-place)
I0217 21:25:45.656635 15035 net.cpp:150] Setting up conv9_2_relu
I0217 21:25:45.656646 15035 net.cpp:157] Top shape: 32 256 1 1 (8192)
I0217 21:25:45.656649 15035 net.cpp:165] Memory required for data: 7621034080
I0217 21:25:45.656653 15035 layer_factory.hpp:77] Creating layer conv9_2_conv9_2_relu_0_split
I0217 21:25:45.656659 15035 net.cpp:100] Creating Layer conv9_2_conv9_2_relu_0_split
I0217 21:25:45.656663 15035 net.cpp:434] conv9_2_conv9_2_relu_0_split <- conv9_2
I0217 21:25:45.656671 15035 net.cpp:408] conv9_2_conv9_2_relu_0_split -> conv9_2_conv9_2_relu_0_split_0
I0217 21:25:45.656678 15035 net.cpp:408] conv9_2_conv9_2_relu_0_split -> conv9_2_conv9_2_relu_0_split_1
I0217 21:25:45.656684 15035 net.cpp:408] conv9_2_conv9_2_relu_0_split -> conv9_2_conv9_2_relu_0_split_2
I0217 21:25:45.656744 15035 net.cpp:150] Setting up conv9_2_conv9_2_relu_0_split
I0217 21:25:45.656749 15035 net.cpp:157] Top shape: 32 256 1 1 (8192)
I0217 21:25:45.656754 15035 net.cpp:157] Top shape: 32 256 1 1 (8192)
I0217 21:25:45.656759 15035 net.cpp:157] Top shape: 32 256 1 1 (8192)
I0217 21:25:45.656761 15035 net.cpp:165] Memory required for data: 7621132384
I0217 21:25:45.656765 15035 layer_factory.hpp:77] Creating layer conv4_3_norm
I0217 21:25:45.656780 15035 net.cpp:100] Creating Layer conv4_3_norm
I0217 21:25:45.656785 15035 net.cpp:434] conv4_3_norm <- conv4_3_relu4_3_0_split_1
I0217 21:25:45.656792 15035 net.cpp:408] conv4_3_norm -> conv4_3_norm
I0217 21:25:45.656960 15035 net.cpp:150] Setting up conv4_3_norm
I0217 21:25:45.656970 15035 net.cpp:157] Top shape: 32 512 38 38 (23658496)
I0217 21:25:45.656973 15035 net.cpp:165] Memory required for data: 7715766368
I0217 21:25:45.656991 15035 layer_factory.hpp:77] Creating layer conv4_3_norm_conv4_3_norm_0_split
I0217 21:25:45.656998 15035 net.cpp:100] Creating Layer conv4_3_norm_conv4_3_norm_0_split
I0217 21:25:45.657002 15035 net.cpp:434] conv4_3_norm_conv4_3_norm_0_split <- conv4_3_norm
I0217 21:25:45.657007 15035 net.cpp:408] conv4_3_norm_conv4_3_norm_0_split -> conv4_3_norm_conv4_3_norm_0_split_0
I0217 21:25:45.657014 15035 net.cpp:408] conv4_3_norm_conv4_3_norm_0_split -> conv4_3_norm_conv4_3_norm_0_split_1
I0217 21:25:45.657021 15035 net.cpp:408] conv4_3_norm_conv4_3_norm_0_split -> conv4_3_norm_conv4_3_norm_0_split_2
I0217 21:25:45.657076 15035 net.cpp:150] Setting up conv4_3_norm_conv4_3_norm_0_split
I0217 21:25:45.657083 15035 net.cpp:157] Top shape: 32 512 38 38 (23658496)
I0217 21:25:45.657088 15035 net.cpp:157] Top shape: 32 512 38 38 (23658496)
I0217 21:25:45.657091 15035 net.cpp:157] Top shape: 32 512 38 38 (23658496)
I0217 21:25:45.657095 15035 net.cpp:165] Memory required for data: 7999668320
I0217 21:25:45.657099 15035 layer_factory.hpp:77] Creating layer conv4_3_norm_mbox_loc
I0217 21:25:45.657109 15035 net.cpp:100] Creating Layer conv4_3_norm_mbox_loc
I0217 21:25:45.657114 15035 net.cpp:434] conv4_3_norm_mbox_loc <- conv4_3_norm_conv4_3_norm_0_split_0
I0217 21:25:45.657119 15035 net.cpp:408] conv4_3_norm_mbox_loc -> conv4_3_norm_mbox_loc
I0217 21:25:45.658884 15035 net.cpp:150] Setting up conv4_3_norm_mbox_loc
I0217 21:25:45.658900 15035 net.cpp:157] Top shape: 32 16 38 38 (739328)
I0217 21:25:45.658905 15035 net.cpp:165] Memory required for data: 8002625632
I0217 21:25:45.658911 15035 layer_factory.hpp:77] Creating layer conv4_3_norm_mbox_loc_perm
I0217 21:25:45.658920 15035 net.cpp:100] Creating Layer conv4_3_norm_mbox_loc_perm
I0217 21:25:45.658924 15035 net.cpp:434] conv4_3_norm_mbox_loc_perm <- conv4_3_norm_mbox_loc
I0217 21:25:45.658932 15035 net.cpp:408] conv4_3_norm_mbox_loc_perm -> conv4_3_norm_mbox_loc_perm
I0217 21:25:45.659051 15035 net.cpp:150] Setting up conv4_3_norm_mbox_loc_perm
I0217 21:25:45.659060 15035 net.cpp:157] Top shape: 32 38 38 16 (739328)
I0217 21:25:45.659065 15035 net.cpp:165] Memory required for data: 8005582944
I0217 21:25:45.659068 15035 layer_factory.hpp:77] Creating layer conv4_3_norm_mbox_loc_flat
I0217 21:25:45.659082 15035 net.cpp:100] Creating Layer conv4_3_norm_mbox_loc_flat
I0217 21:25:45.659087 15035 net.cpp:434] conv4_3_norm_mbox_loc_flat <- conv4_3_norm_mbox_loc_perm
I0217 21:25:45.659095 15035 net.cpp:408] conv4_3_norm_mbox_loc_flat -> conv4_3_norm_mbox_loc_flat
I0217 21:25:45.659131 15035 net.cpp:150] Setting up conv4_3_norm_mbox_loc_flat
I0217 21:25:45.659138 15035 net.cpp:157] Top shape: 32 23104 (739328)
I0217 21:25:45.659142 15035 net.cpp:165] Memory required for data: 8008540256
I0217 21:25:45.659145 15035 layer_factory.hpp:77] Creating layer conv4_3_norm_mbox_conf
I0217 21:25:45.659162 15035 net.cpp:100] Creating Layer conv4_3_norm_mbox_conf
I0217 21:25:45.659167 15035 net.cpp:434] conv4_3_norm_mbox_conf <- conv4_3_norm_conv4_3_norm_0_split_1
I0217 21:25:45.659174 15035 net.cpp:408] conv4_3_norm_mbox_conf -> conv4_3_norm_mbox_conf
I0217 21:25:45.663769 15035 net.cpp:150] Setting up conv4_3_norm_mbox_conf
I0217 21:25:45.663787 15035 net.cpp:157] Top shape: 32 88 38 38 (4066304)
I0217 21:25:45.663792 15035 net.cpp:165] Memory required for data: 8024805472
I0217 21:25:45.663800 15035 layer_factory.hpp:77] Creating layer conv4_3_norm_mbox_conf_perm
I0217 21:25:45.663807 15035 net.cpp:100] Creating Layer conv4_3_norm_mbox_conf_perm
I0217 21:25:45.663813 15035 net.cpp:434] conv4_3_norm_mbox_conf_perm <- conv4_3_norm_mbox_conf
I0217 21:25:45.663820 15035 net.cpp:408] conv4_3_norm_mbox_conf_perm -> conv4_3_norm_mbox_conf_perm
I0217 21:25:45.663938 15035 net.cpp:150] Setting up conv4_3_norm_mbox_conf_perm
I0217 21:25:45.663945 15035 net.cpp:157] Top shape: 32 38 38 88 (4066304)
I0217 21:25:45.663949 15035 net.cpp:165] Memory required for data: 8041070688
I0217 21:25:45.663952 15035 layer_factory.hpp:77] Creating layer conv4_3_norm_mbox_conf_flat
I0217 21:25:45.663971 15035 net.cpp:100] Creating Layer conv4_3_norm_mbox_conf_flat
I0217 21:25:45.663977 15035 net.cpp:434] conv4_3_norm_mbox_conf_flat <- conv4_3_norm_mbox_conf_perm
I0217 21:25:45.663982 15035 net.cpp:408] conv4_3_norm_mbox_conf_flat -> conv4_3_norm_mbox_conf_flat
I0217 21:25:45.664013 15035 net.cpp:150] Setting up conv4_3_norm_mbox_conf_flat
I0217 21:25:45.664019 15035 net.cpp:157] Top shape: 32 127072 (4066304)
I0217 21:25:45.664022 15035 net.cpp:165] Memory required for data: 8057335904
I0217 21:25:45.664026 15035 layer_factory.hpp:77] Creating layer conv4_3_norm_mbox_priorbox
I0217 21:25:45.664034 15035 net.cpp:100] Creating Layer conv4_3_norm_mbox_priorbox
I0217 21:25:45.664038 15035 net.cpp:434] conv4_3_norm_mbox_priorbox <- conv4_3_norm_conv4_3_norm_0_split_2
I0217 21:25:45.664044 15035 net.cpp:434] conv4_3_norm_mbox_priorbox <- data_data_0_split_1
I0217 21:25:45.664052 15035 net.cpp:408] conv4_3_norm_mbox_priorbox -> conv4_3_norm_mbox_priorbox
I0217 21:25:45.664085 15035 net.cpp:150] Setting up conv4_3_norm_mbox_priorbox
I0217 21:25:45.664091 15035 net.cpp:157] Top shape: 1 2 23104 (46208)
I0217 21:25:45.664095 15035 net.cpp:165] Memory required for data: 8057520736
I0217 21:25:45.664098 15035 layer_factory.hpp:77] Creating layer fc7_mbox_loc
I0217 21:25:45.664109 15035 net.cpp:100] Creating Layer fc7_mbox_loc
I0217 21:25:45.664113 15035 net.cpp:434] fc7_mbox_loc <- fc7_relu7_0_split_1
I0217 21:25:45.664124 15035 net.cpp:408] fc7_mbox_loc -> fc7_mbox_loc
I0217 21:25:45.667271 15035 net.cpp:150] Setting up fc7_mbox_loc
I0217 21:25:45.667289 15035 net.cpp:157] Top shape: 32 24 19 19 (277248)
I0217 21:25:45.667292 15035 net.cpp:165] Memory required for data: 8058629728
I0217 21:25:45.667299 15035 layer_factory.hpp:77] Creating layer fc7_mbox_loc_perm
I0217 21:25:45.667309 15035 net.cpp:100] Creating Layer fc7_mbox_loc_perm
I0217 21:25:45.667313 15035 net.cpp:434] fc7_mbox_loc_perm <- fc7_mbox_loc
I0217 21:25:45.667320 15035 net.cpp:408] fc7_mbox_loc_perm -> fc7_mbox_loc_perm
I0217 21:25:45.667436 15035 net.cpp:150] Setting up fc7_mbox_loc_perm
I0217 21:25:45.667448 15035 net.cpp:157] Top shape: 32 19 19 24 (277248)
I0217 21:25:45.667451 15035 net.cpp:165] Memory required for data: 8059738720
I0217 21:25:45.667455 15035 layer_factory.hpp:77] Creating layer fc7_mbox_loc_flat
I0217 21:25:45.667461 15035 net.cpp:100] Creating Layer fc7_mbox_loc_flat
I0217 21:25:45.667465 15035 net.cpp:434] fc7_mbox_loc_flat <- fc7_mbox_loc_perm
I0217 21:25:45.667471 15035 net.cpp:408] fc7_mbox_loc_flat -> fc7_mbox_loc_flat
I0217 21:25:45.667500 15035 net.cpp:150] Setting up fc7_mbox_loc_flat
I0217 21:25:45.667505 15035 net.cpp:157] Top shape: 32 8664 (277248)
I0217 21:25:45.667510 15035 net.cpp:165] Memory required for data: 8060847712
I0217 21:25:45.667512 15035 layer_factory.hpp:77] Creating layer fc7_mbox_conf
I0217 21:25:45.667522 15035 net.cpp:100] Creating Layer fc7_mbox_conf
I0217 21:25:45.667526 15035 net.cpp:434] fc7_mbox_conf <- fc7_relu7_0_split_2
I0217 21:25:45.667536 15035 net.cpp:408] fc7_mbox_conf -> fc7_mbox_conf
I0217 21:25:45.678962 15035 net.cpp:150] Setting up fc7_mbox_conf
I0217 21:25:45.679002 15035 net.cpp:157] Top shape: 32 132 19 19 (1524864)
I0217 21:25:45.679005 15035 net.cpp:165] Memory required for data: 8066947168
I0217 21:25:45.679015 15035 layer_factory.hpp:77] Creating layer fc7_mbox_conf_perm
I0217 21:25:45.679031 15035 net.cpp:100] Creating Layer fc7_mbox_conf_perm
I0217 21:25:45.679039 15035 net.cpp:434] fc7_mbox_conf_perm <- fc7_mbox_conf
I0217 21:25:45.679049 15035 net.cpp:408] fc7_mbox_conf_perm -> fc7_mbox_conf_perm
I0217 21:25:45.679174 15035 net.cpp:150] Setting up fc7_mbox_conf_perm
I0217 21:25:45.679184 15035 net.cpp:157] Top shape: 32 19 19 132 (1524864)
I0217 21:25:45.679188 15035 net.cpp:165] Memory required for data: 8073046624
I0217 21:25:45.679193 15035 layer_factory.hpp:77] Creating layer fc7_mbox_conf_flat
I0217 21:25:45.679200 15035 net.cpp:100] Creating Layer fc7_mbox_conf_flat
I0217 21:25:45.679204 15035 net.cpp:434] fc7_mbox_conf_flat <- fc7_mbox_conf_perm
I0217 21:25:45.679229 15035 net.cpp:408] fc7_mbox_conf_flat -> fc7_mbox_conf_flat
I0217 21:25:45.679260 15035 net.cpp:150] Setting up fc7_mbox_conf_flat
I0217 21:25:45.679267 15035 net.cpp:157] Top shape: 32 47652 (1524864)
I0217 21:25:45.679271 15035 net.cpp:165] Memory required for data: 8079146080
I0217 21:25:45.679275 15035 layer_factory.hpp:77] Creating layer fc7_mbox_priorbox
I0217 21:25:45.679283 15035 net.cpp:100] Creating Layer fc7_mbox_priorbox
I0217 21:25:45.679287 15035 net.cpp:434] fc7_mbox_priorbox <- fc7_relu7_0_split_3
I0217 21:25:45.679293 15035 net.cpp:434] fc7_mbox_priorbox <- data_data_0_split_2
I0217 21:25:45.679301 15035 net.cpp:408] fc7_mbox_priorbox -> fc7_mbox_priorbox
I0217 21:25:45.679334 15035 net.cpp:150] Setting up fc7_mbox_priorbox
I0217 21:25:45.679342 15035 net.cpp:157] Top shape: 1 2 8664 (17328)
I0217 21:25:45.679345 15035 net.cpp:165] Memory required for data: 8079215392
I0217 21:25:45.679348 15035 layer_factory.hpp:77] Creating layer conv6_2_mbox_loc
I0217 21:25:45.679361 15035 net.cpp:100] Creating Layer conv6_2_mbox_loc
I0217 21:25:45.679366 15035 net.cpp:434] conv6_2_mbox_loc <- conv6_2_conv6_2_relu_0_split_1
I0217 21:25:45.679373 15035 net.cpp:408] conv6_2_mbox_loc -> conv6_2_mbox_loc
I0217 21:25:45.681828 15035 net.cpp:150] Setting up conv6_2_mbox_loc
I0217 21:25:45.681851 15035 net.cpp:157] Top shape: 32 24 10 10 (76800)
I0217 21:25:45.681855 15035 net.cpp:165] Memory required for data: 8079522592
I0217 21:25:45.681864 15035 layer_factory.hpp:77] Creating layer conv6_2_mbox_loc_perm
I0217 21:25:45.681874 15035 net.cpp:100] Creating Layer conv6_2_mbox_loc_perm
I0217 21:25:45.681879 15035 net.cpp:434] conv6_2_mbox_loc_perm <- conv6_2_mbox_loc
I0217 21:25:45.681885 15035 net.cpp:408] conv6_2_mbox_loc_perm -> conv6_2_mbox_loc_perm
I0217 21:25:45.682003 15035 net.cpp:150] Setting up conv6_2_mbox_loc_perm
I0217 21:25:45.682013 15035 net.cpp:157] Top shape: 32 10 10 24 (76800)
I0217 21:25:45.682016 15035 net.cpp:165] Memory required for data: 8079829792
I0217 21:25:45.682020 15035 layer_factory.hpp:77] Creating layer conv6_2_mbox_loc_flat
I0217 21:25:45.682026 15035 net.cpp:100] Creating Layer conv6_2_mbox_loc_flat
I0217 21:25:45.682031 15035 net.cpp:434] conv6_2_mbox_loc_flat <- conv6_2_mbox_loc_perm
I0217 21:25:45.682037 15035 net.cpp:408] conv6_2_mbox_loc_flat -> conv6_2_mbox_loc_flat
I0217 21:25:45.682066 15035 net.cpp:150] Setting up conv6_2_mbox_loc_flat
I0217 21:25:45.682072 15035 net.cpp:157] Top shape: 32 2400 (76800)
I0217 21:25:45.682076 15035 net.cpp:165] Memory required for data: 8080136992
I0217 21:25:45.682080 15035 layer_factory.hpp:77] Creating layer conv6_2_mbox_conf
I0217 21:25:45.682091 15035 net.cpp:100] Creating Layer conv6_2_mbox_conf
I0217 21:25:45.682097 15035 net.cpp:434] conv6_2_mbox_conf <- conv6_2_conv6_2_relu_0_split_2
I0217 21:25:45.682109 15035 net.cpp:408] conv6_2_mbox_conf -> conv6_2_mbox_conf
I0217 21:25:45.688691 15035 net.cpp:150] Setting up conv6_2_mbox_conf
I0217 21:25:45.688729 15035 net.cpp:157] Top shape: 32 132 10 10 (422400)
I0217 21:25:45.688733 15035 net.cpp:165] Memory required for data: 8081826592
I0217 21:25:45.688742 15035 layer_factory.hpp:77] Creating layer conv6_2_mbox_conf_perm
I0217 21:25:45.688755 15035 net.cpp:100] Creating Layer conv6_2_mbox_conf_perm
I0217 21:25:45.688762 15035 net.cpp:434] conv6_2_mbox_conf_perm <- conv6_2_mbox_conf
I0217 21:25:45.688771 15035 net.cpp:408] conv6_2_mbox_conf_perm -> conv6_2_mbox_conf_perm
I0217 21:25:45.688895 15035 net.cpp:150] Setting up conv6_2_mbox_conf_perm
I0217 21:25:45.688908 15035 net.cpp:157] Top shape: 32 10 10 132 (422400)
I0217 21:25:45.688913 15035 net.cpp:165] Memory required for data: 8083516192
I0217 21:25:45.688916 15035 layer_factory.hpp:77] Creating layer conv6_2_mbox_conf_flat
I0217 21:25:45.688925 15035 net.cpp:100] Creating Layer conv6_2_mbox_conf_flat
I0217 21:25:45.688928 15035 net.cpp:434] conv6_2_mbox_conf_flat <- conv6_2_mbox_conf_perm
I0217 21:25:45.688935 15035 net.cpp:408] conv6_2_mbox_conf_flat -> conv6_2_mbox_conf_flat
I0217 21:25:45.688966 15035 net.cpp:150] Setting up conv6_2_mbox_conf_flat
I0217 21:25:45.688989 15035 net.cpp:157] Top shape: 32 13200 (422400)
I0217 21:25:45.688993 15035 net.cpp:165] Memory required for data: 8085205792
I0217 21:25:45.688997 15035 layer_factory.hpp:77] Creating layer conv6_2_mbox_priorbox
I0217 21:25:45.689004 15035 net.cpp:100] Creating Layer conv6_2_mbox_priorbox
I0217 21:25:45.689009 15035 net.cpp:434] conv6_2_mbox_priorbox <- conv6_2_conv6_2_relu_0_split_3
I0217 21:25:45.689015 15035 net.cpp:434] conv6_2_mbox_priorbox <- data_data_0_split_3
I0217 21:25:45.689025 15035 net.cpp:408] conv6_2_mbox_priorbox -> conv6_2_mbox_priorbox
I0217 21:25:45.689062 15035 net.cpp:150] Setting up conv6_2_mbox_priorbox
I0217 21:25:45.689069 15035 net.cpp:157] Top shape: 1 2 2400 (4800)
I0217 21:25:45.689072 15035 net.cpp:165] Memory required for data: 8085224992
I0217 21:25:45.689076 15035 layer_factory.hpp:77] Creating layer conv7_2_mbox_loc
I0217 21:25:45.689088 15035 net.cpp:100] Creating Layer conv7_2_mbox_loc
I0217 21:25:45.689092 15035 net.cpp:434] conv7_2_mbox_loc <- conv7_2_conv7_2_relu_0_split_1
I0217 21:25:45.689100 15035 net.cpp:408] conv7_2_mbox_loc -> conv7_2_mbox_loc
I0217 21:25:45.691110 15035 net.cpp:150] Setting up conv7_2_mbox_loc
I0217 21:25:45.691129 15035 net.cpp:157] Top shape: 32 24 5 5 (19200)
I0217 21:25:45.691134 15035 net.cpp:165] Memory required for data: 8085301792
I0217 21:25:45.691141 15035 layer_factory.hpp:77] Creating layer conv7_2_mbox_loc_perm
I0217 21:25:45.691149 15035 net.cpp:100] Creating Layer conv7_2_mbox_loc_perm
I0217 21:25:45.691155 15035 net.cpp:434] conv7_2_mbox_loc_perm <- conv7_2_mbox_loc
I0217 21:25:45.691162 15035 net.cpp:408] conv7_2_mbox_loc_perm -> conv7_2_mbox_loc_perm
I0217 21:25:45.691284 15035 net.cpp:150] Setting up conv7_2_mbox_loc_perm
I0217 21:25:45.691293 15035 net.cpp:157] Top shape: 32 5 5 24 (19200)
I0217 21:25:45.691298 15035 net.cpp:165] Memory required for data: 8085378592
I0217 21:25:45.691301 15035 layer_factory.hpp:77] Creating layer conv7_2_mbox_loc_flat
I0217 21:25:45.691308 15035 net.cpp:100] Creating Layer conv7_2_mbox_loc_flat
I0217 21:25:45.691313 15035 net.cpp:434] conv7_2_mbox_loc_flat <- conv7_2_mbox_loc_perm
I0217 21:25:45.691318 15035 net.cpp:408] conv7_2_mbox_loc_flat -> conv7_2_mbox_loc_flat
I0217 21:25:45.691347 15035 net.cpp:150] Setting up conv7_2_mbox_loc_flat
I0217 21:25:45.691354 15035 net.cpp:157] Top shape: 32 600 (19200)
I0217 21:25:45.691356 15035 net.cpp:165] Memory required for data: 8085455392
I0217 21:25:45.691360 15035 layer_factory.hpp:77] Creating layer conv7_2_mbox_conf
I0217 21:25:45.691370 15035 net.cpp:100] Creating Layer conv7_2_mbox_conf
I0217 21:25:45.691375 15035 net.cpp:434] conv7_2_mbox_conf <- conv7_2_conv7_2_relu_0_split_2
I0217 21:25:45.691382 15035 net.cpp:408] conv7_2_mbox_conf -> conv7_2_mbox_conf
I0217 21:25:45.695348 15035 net.cpp:150] Setting up conv7_2_mbox_conf
I0217 21:25:45.695386 15035 net.cpp:157] Top shape: 32 132 5 5 (105600)
I0217 21:25:45.695391 15035 net.cpp:165] Memory required for data: 8085877792
I0217 21:25:45.695400 15035 layer_factory.hpp:77] Creating layer conv7_2_mbox_conf_perm
I0217 21:25:45.695411 15035 net.cpp:100] Creating Layer conv7_2_mbox_conf_perm
I0217 21:25:45.695418 15035 net.cpp:434] conv7_2_mbox_conf_perm <- conv7_2_mbox_conf
I0217 21:25:45.695427 15035 net.cpp:408] conv7_2_mbox_conf_perm -> conv7_2_mbox_conf_perm
I0217 21:25:45.695556 15035 net.cpp:150] Setting up conv7_2_mbox_conf_perm
I0217 21:25:45.695566 15035 net.cpp:157] Top shape: 32 5 5 132 (105600)
I0217 21:25:45.695569 15035 net.cpp:165] Memory required for data: 8086300192
I0217 21:25:45.695574 15035 layer_factory.hpp:77] Creating layer conv7_2_mbox_conf_flat
I0217 21:25:45.695581 15035 net.cpp:100] Creating Layer conv7_2_mbox_conf_flat
I0217 21:25:45.695586 15035 net.cpp:434] conv7_2_mbox_conf_flat <- conv7_2_mbox_conf_perm
I0217 21:25:45.695591 15035 net.cpp:408] conv7_2_mbox_conf_flat -> conv7_2_mbox_conf_flat
I0217 21:25:45.695622 15035 net.cpp:150] Setting up conv7_2_mbox_conf_flat
I0217 21:25:45.695628 15035 net.cpp:157] Top shape: 32 3300 (105600)
I0217 21:25:45.695650 15035 net.cpp:165] Memory required for data: 8086722592
I0217 21:25:45.695654 15035 layer_factory.hpp:77] Creating layer conv7_2_mbox_priorbox
I0217 21:25:45.695663 15035 net.cpp:100] Creating Layer conv7_2_mbox_priorbox
I0217 21:25:45.695667 15035 net.cpp:434] conv7_2_mbox_priorbox <- conv7_2_conv7_2_relu_0_split_3
I0217 21:25:45.695673 15035 net.cpp:434] conv7_2_mbox_priorbox <- data_data_0_split_4
I0217 21:25:45.695680 15035 net.cpp:408] conv7_2_mbox_priorbox -> conv7_2_mbox_priorbox
I0217 21:25:45.695721 15035 net.cpp:150] Setting up conv7_2_mbox_priorbox
I0217 21:25:45.695729 15035 net.cpp:157] Top shape: 1 2 600 (1200)
I0217 21:25:45.695731 15035 net.cpp:165] Memory required for data: 8086727392
I0217 21:25:45.695734 15035 layer_factory.hpp:77] Creating layer conv8_2_mbox_loc
I0217 21:25:45.695749 15035 net.cpp:100] Creating Layer conv8_2_mbox_loc
I0217 21:25:45.695752 15035 net.cpp:434] conv8_2_mbox_loc <- conv8_2_conv8_2_relu_0_split_1
I0217 21:25:45.695760 15035 net.cpp:408] conv8_2_mbox_loc -> conv8_2_mbox_loc
I0217 21:25:45.697111 15035 net.cpp:150] Setting up conv8_2_mbox_loc
I0217 21:25:45.697130 15035 net.cpp:157] Top shape: 32 16 3 3 (4608)
I0217 21:25:45.697135 15035 net.cpp:165] Memory required for data: 8086745824
I0217 21:25:45.697157 15035 layer_factory.hpp:77] Creating layer conv8_2_mbox_loc_perm
I0217 21:25:45.697167 15035 net.cpp:100] Creating Layer conv8_2_mbox_loc_perm
I0217 21:25:45.697171 15035 net.cpp:434] conv8_2_mbox_loc_perm <- conv8_2_mbox_loc
I0217 21:25:45.697178 15035 net.cpp:408] conv8_2_mbox_loc_perm -> conv8_2_mbox_loc_perm
I0217 21:25:45.697305 15035 net.cpp:150] Setting up conv8_2_mbox_loc_perm
I0217 21:25:45.697315 15035 net.cpp:157] Top shape: 32 3 3 16 (4608)
I0217 21:25:45.697319 15035 net.cpp:165] Memory required for data: 8086764256
I0217 21:25:45.697322 15035 layer_factory.hpp:77] Creating layer conv8_2_mbox_loc_flat
I0217 21:25:45.697329 15035 net.cpp:100] Creating Layer conv8_2_mbox_loc_flat
I0217 21:25:45.697334 15035 net.cpp:434] conv8_2_mbox_loc_flat <- conv8_2_mbox_loc_perm
I0217 21:25:45.697340 15035 net.cpp:408] conv8_2_mbox_loc_flat -> conv8_2_mbox_loc_flat
I0217 21:25:45.697368 15035 net.cpp:150] Setting up conv8_2_mbox_loc_flat
I0217 21:25:45.697374 15035 net.cpp:157] Top shape: 32 144 (4608)
I0217 21:25:45.697377 15035 net.cpp:165] Memory required for data: 8086782688
I0217 21:25:45.697381 15035 layer_factory.hpp:77] Creating layer conv8_2_mbox_conf
I0217 21:25:45.697393 15035 net.cpp:100] Creating Layer conv8_2_mbox_conf
I0217 21:25:45.697397 15035 net.cpp:434] conv8_2_mbox_conf <- conv8_2_conv8_2_relu_0_split_2
I0217 21:25:45.697404 15035 net.cpp:408] conv8_2_mbox_conf -> conv8_2_mbox_conf
I0217 21:25:45.700706 15035 net.cpp:150] Setting up conv8_2_mbox_conf
I0217 21:25:45.700742 15035 net.cpp:157] Top shape: 32 88 3 3 (25344)
I0217 21:25:45.700747 15035 net.cpp:165] Memory required for data: 8086884064
I0217 21:25:45.700757 15035 layer_factory.hpp:77] Creating layer conv8_2_mbox_conf_perm
I0217 21:25:45.700769 15035 net.cpp:100] Creating Layer conv8_2_mbox_conf_perm
I0217 21:25:45.700778 15035 net.cpp:434] conv8_2_mbox_conf_perm <- conv8_2_mbox_conf
I0217 21:25:45.700786 15035 net.cpp:408] conv8_2_mbox_conf_perm -> conv8_2_mbox_conf_perm
I0217 21:25:45.700917 15035 net.cpp:150] Setting up conv8_2_mbox_conf_perm
I0217 21:25:45.700927 15035 net.cpp:157] Top shape: 32 3 3 88 (25344)
I0217 21:25:45.700930 15035 net.cpp:165] Memory required for data: 8086985440
I0217 21:25:45.700933 15035 layer_factory.hpp:77] Creating layer conv8_2_mbox_conf_flat
I0217 21:25:45.700942 15035 net.cpp:100] Creating Layer conv8_2_mbox_conf_flat
I0217 21:25:45.700947 15035 net.cpp:434] conv8_2_mbox_conf_flat <- conv8_2_mbox_conf_perm
I0217 21:25:45.700953 15035 net.cpp:408] conv8_2_mbox_conf_flat -> conv8_2_mbox_conf_flat
I0217 21:25:45.700981 15035 net.cpp:150] Setting up conv8_2_mbox_conf_flat
I0217 21:25:45.700989 15035 net.cpp:157] Top shape: 32 792 (25344)
I0217 21:25:45.700991 15035 net.cpp:165] Memory required for data: 8087086816
I0217 21:25:45.701014 15035 layer_factory.hpp:77] Creating layer conv8_2_mbox_priorbox
I0217 21:25:45.701022 15035 net.cpp:100] Creating Layer conv8_2_mbox_priorbox
I0217 21:25:45.701026 15035 net.cpp:434] conv8_2_mbox_priorbox <- conv8_2_conv8_2_relu_0_split_3
I0217 21:25:45.701031 15035 net.cpp:434] conv8_2_mbox_priorbox <- data_data_0_split_5
I0217 21:25:45.701040 15035 net.cpp:408] conv8_2_mbox_priorbox -> conv8_2_mbox_priorbox
I0217 21:25:45.701078 15035 net.cpp:150] Setting up conv8_2_mbox_priorbox
I0217 21:25:45.701084 15035 net.cpp:157] Top shape: 1 2 144 (288)
I0217 21:25:45.701088 15035 net.cpp:165] Memory required for data: 8087087968
I0217 21:25:45.701092 15035 layer_factory.hpp:77] Creating layer conv9_2_mbox_loc
I0217 21:25:45.701107 15035 net.cpp:100] Creating Layer conv9_2_mbox_loc
I0217 21:25:45.701110 15035 net.cpp:434] conv9_2_mbox_loc <- conv9_2_conv9_2_relu_0_split_0
I0217 21:25:45.701117 15035 net.cpp:408] conv9_2_mbox_loc -> conv9_2_mbox_loc
I0217 21:25:45.702688 15035 net.cpp:150] Setting up conv9_2_mbox_loc
I0217 21:25:45.702705 15035 net.cpp:157] Top shape: 32 16 1 1 (512)
I0217 21:25:45.702709 15035 net.cpp:165] Memory required for data: 8087090016
I0217 21:25:45.702716 15035 layer_factory.hpp:77] Creating layer conv9_2_mbox_loc_perm
I0217 21:25:45.702723 15035 net.cpp:100] Creating Layer conv9_2_mbox_loc_perm
I0217 21:25:45.702728 15035 net.cpp:434] conv9_2_mbox_loc_perm <- conv9_2_mbox_loc
I0217 21:25:45.702738 15035 net.cpp:408] conv9_2_mbox_loc_perm -> conv9_2_mbox_loc_perm
I0217 21:25:45.702862 15035 net.cpp:150] Setting up conv9_2_mbox_loc_perm
I0217 21:25:45.702875 15035 net.cpp:157] Top shape: 32 1 1 16 (512)
I0217 21:25:45.702878 15035 net.cpp:165] Memory required for data: 8087092064
I0217 21:25:45.702883 15035 layer_factory.hpp:77] Creating layer conv9_2_mbox_loc_flat
I0217 21:25:45.702890 15035 net.cpp:100] Creating Layer conv9_2_mbox_loc_flat
I0217 21:25:45.702894 15035 net.cpp:434] conv9_2_mbox_loc_flat <- conv9_2_mbox_loc_perm
I0217 21:25:45.702901 15035 net.cpp:408] conv9_2_mbox_loc_flat -> conv9_2_mbox_loc_flat
I0217 21:25:45.702930 15035 net.cpp:150] Setting up conv9_2_mbox_loc_flat
I0217 21:25:45.702936 15035 net.cpp:157] Top shape: 32 16 (512)
I0217 21:25:45.702939 15035 net.cpp:165] Memory required for data: 8087094112
I0217 21:25:45.702944 15035 layer_factory.hpp:77] Creating layer conv9_2_mbox_conf
I0217 21:25:45.702955 15035 net.cpp:100] Creating Layer conv9_2_mbox_conf
I0217 21:25:45.702960 15035 net.cpp:434] conv9_2_mbox_conf <- conv9_2_conv9_2_relu_0_split_1
I0217 21:25:45.702965 15035 net.cpp:408] conv9_2_mbox_conf -> conv9_2_mbox_conf
I0217 21:25:45.706037 15035 net.cpp:150] Setting up conv9_2_mbox_conf
I0217 21:25:45.706053 15035 net.cpp:157] Top shape: 32 88 1 1 (2816)
I0217 21:25:45.706058 15035 net.cpp:165] Memory required for data: 8087105376
I0217 21:25:45.706065 15035 layer_factory.hpp:77] Creating layer conv9_2_mbox_conf_perm
I0217 21:25:45.706074 15035 net.cpp:100] Creating Layer conv9_2_mbox_conf_perm
I0217 21:25:45.706079 15035 net.cpp:434] conv9_2_mbox_conf_perm <- conv9_2_mbox_conf
I0217 21:25:45.706086 15035 net.cpp:408] conv9_2_mbox_conf_perm -> conv9_2_mbox_conf_perm
I0217 21:25:45.706210 15035 net.cpp:150] Setting up conv9_2_mbox_conf_perm
I0217 21:25:45.706219 15035 net.cpp:157] Top shape: 32 1 1 88 (2816)
I0217 21:25:45.706223 15035 net.cpp:165] Memory required for data: 8087116640
I0217 21:25:45.706228 15035 layer_factory.hpp:77] Creating layer conv9_2_mbox_conf_flat
I0217 21:25:45.706234 15035 net.cpp:100] Creating Layer conv9_2_mbox_conf_flat
I0217 21:25:45.706238 15035 net.cpp:434] conv9_2_mbox_conf_flat <- conv9_2_mbox_conf_perm
I0217 21:25:45.706244 15035 net.cpp:408] conv9_2_mbox_conf_flat -> conv9_2_mbox_conf_flat
I0217 21:25:45.706272 15035 net.cpp:150] Setting up conv9_2_mbox_conf_flat
I0217 21:25:45.706279 15035 net.cpp:157] Top shape: 32 88 (2816)
I0217 21:25:45.706284 15035 net.cpp:165] Memory required for data: 8087127904
I0217 21:25:45.706286 15035 layer_factory.hpp:77] Creating layer conv9_2_mbox_priorbox
I0217 21:25:45.706293 15035 net.cpp:100] Creating Layer conv9_2_mbox_priorbox
I0217 21:25:45.706310 15035 net.cpp:434] conv9_2_mbox_priorbox <- conv9_2_conv9_2_relu_0_split_2
I0217 21:25:45.706315 15035 net.cpp:434] conv9_2_mbox_priorbox <- data_data_0_split_6
I0217 21:25:45.706323 15035 net.cpp:408] conv9_2_mbox_priorbox -> conv9_2_mbox_priorbox
I0217 21:25:45.706356 15035 net.cpp:150] Setting up conv9_2_mbox_priorbox
I0217 21:25:45.706362 15035 net.cpp:157] Top shape: 1 2 16 (32)
I0217 21:25:45.706364 15035 net.cpp:165] Memory required for data: 8087128032
I0217 21:25:45.706368 15035 layer_factory.hpp:77] Creating layer mbox_loc
I0217 21:25:45.706385 15035 net.cpp:100] Creating Layer mbox_loc
I0217 21:25:45.706392 15035 net.cpp:434] mbox_loc <- conv4_3_norm_mbox_loc_flat
I0217 21:25:45.706396 15035 net.cpp:434] mbox_loc <- fc7_mbox_loc_flat
I0217 21:25:45.706403 15035 net.cpp:434] mbox_loc <- conv6_2_mbox_loc_flat
I0217 21:25:45.706408 15035 net.cpp:434] mbox_loc <- conv7_2_mbox_loc_flat
I0217 21:25:45.706413 15035 net.cpp:434] mbox_loc <- conv8_2_mbox_loc_flat
I0217 21:25:45.706416 15035 net.cpp:434] mbox_loc <- conv9_2_mbox_loc_flat
I0217 21:25:45.706423 15035 net.cpp:408] mbox_loc -> mbox_loc
I0217 21:25:45.706457 15035 net.cpp:150] Setting up mbox_loc
I0217 21:25:45.706463 15035 net.cpp:157] Top shape: 32 34928 (1117696)
I0217 21:25:45.706467 15035 net.cpp:165] Memory required for data: 8091598816
I0217 21:25:45.706470 15035 layer_factory.hpp:77] Creating layer mbox_conf
I0217 21:25:45.706478 15035 net.cpp:100] Creating Layer mbox_conf
I0217 21:25:45.706483 15035 net.cpp:434] mbox_conf <- conv4_3_norm_mbox_conf_flat
I0217 21:25:45.706488 15035 net.cpp:434] mbox_conf <- fc7_mbox_conf_flat
I0217 21:25:45.706493 15035 net.cpp:434] mbox_conf <- conv6_2_mbox_conf_flat
I0217 21:25:45.706497 15035 net.cpp:434] mbox_conf <- conv7_2_mbox_conf_flat
I0217 21:25:45.706502 15035 net.cpp:434] mbox_conf <- conv8_2_mbox_conf_flat
I0217 21:25:45.706506 15035 net.cpp:434] mbox_conf <- conv9_2_mbox_conf_flat
I0217 21:25:45.706511 15035 net.cpp:408] mbox_conf -> mbox_conf
I0217 21:25:45.706545 15035 net.cpp:150] Setting up mbox_conf
I0217 21:25:45.706552 15035 net.cpp:157] Top shape: 32 192104 (6147328)
I0217 21:25:45.706555 15035 net.cpp:165] Memory required for data: 8116188128
I0217 21:25:45.706559 15035 layer_factory.hpp:77] Creating layer mbox_priorbox
I0217 21:25:45.706565 15035 net.cpp:100] Creating Layer mbox_priorbox
I0217 21:25:45.706569 15035 net.cpp:434] mbox_priorbox <- conv4_3_norm_mbox_priorbox
I0217 21:25:45.706573 15035 net.cpp:434] mbox_priorbox <- fc7_mbox_priorbox
I0217 21:25:45.706578 15035 net.cpp:434] mbox_priorbox <- conv6_2_mbox_priorbox
I0217 21:25:45.706583 15035 net.cpp:434] mbox_priorbox <- conv7_2_mbox_priorbox
I0217 21:25:45.706586 15035 net.cpp:434] mbox_priorbox <- conv8_2_mbox_priorbox
I0217 21:25:45.706590 15035 net.cpp:434] mbox_priorbox <- conv9_2_mbox_priorbox
I0217 21:25:45.706598 15035 net.cpp:408] mbox_priorbox -> mbox_priorbox
I0217 21:25:45.706625 15035 net.cpp:150] Setting up mbox_priorbox
I0217 21:25:45.706631 15035 net.cpp:157] Top shape: 1 2 34928 (69856)
I0217 21:25:45.706634 15035 net.cpp:165] Memory required for data: 8116467552
I0217 21:25:45.706639 15035 layer_factory.hpp:77] Creating layer mbox_loss
I0217 21:25:45.706648 15035 net.cpp:100] Creating Layer mbox_loss
I0217 21:25:45.706652 15035 net.cpp:434] mbox_loss <- mbox_loc
I0217 21:25:45.706658 15035 net.cpp:434] mbox_loss <- mbox_conf
I0217 21:25:45.706662 15035 net.cpp:434] mbox_loss <- mbox_priorbox
…
  name: "data"
  type: "AnnotatedData"
  top: "data"
  top: "label"
  include {
    phase: TEST
  }
  transform_param {
    mean_value: 137
    mean_value: 84
    mean_value: 87
    mean_value: 84
    resize_param {
      prob: 1
      resize_mode: WARP
      height: 300
      width: 300
      interp_mode: LINEAR
    }
  }
  data_param {
    source: "examples/dbgr_trees/dbgr_trees_test_lmdb"
    batch_size: 1
    backend: LMDB
  }
  annotated_data_param {
    batch_sampler {
    }
    label_map_file: "data/dbgr_trees/labelmap_voc.prototxt"
  }
}
layer {
  name: "conv1_1_rgbd"
  type: "Convolution"
  bottom: "data"
  top: "conv1_1_rgbd"
  param {
    lr_mult: 1
    decay_mult: 1
  }
  param {
    lr_mult: 2
    decay_mult: 0
  }
  convolution_param {
    num_output: 64
    pad: 1
    kernel_size: 3
    weight_filler {
      type: "xavier"
    }
    bias_filler {
      type: "constant"
      value: 0
    }
  }
}
layer {
  name: "relu1_1"
  type: "ReLU"
  bottom: "conv1_1_rgbd"
  top: "conv1_1_rgbd"
}
layer {
  name: "conv1_2"
  type: "Convolution"
  bottom: "conv1_1_rgbd"
  top: "conv1_2"
  param {
    lr_mult: 1
    decay_mult: 1
  }
  param {
    lr_mult: 2
    decay_mult: 0
  }
  convolution_param {
    num_output: 64
    pad: 1
    kernel_size: 3
    weight_filler {
      type: "xavier"
    }
    bias_filler {
      type: "constant"
      value: 0
    }
  }
}
layer {
  name: "relu1_2"
  type: "ReLU"
  bottom: "conv1_2"
  top: "conv1_2"
}
layer {
  name: "pool1"
  type: "Pooling"
  bottom: "conv1_2"
  top: "pool1"
  pooling_param {
    pool: MAX
    kernel_size: 2
    stride: 2
  }
}
layer {
  name: "conv2_1"
  type: "Convolution"
  bottom: "pool1"
  top: "conv2_1"
  param {
    lr_mult: 1
    decay_mult: 1
  }
  param {
    lr_mult: 2
    decay_mult: 0
  }
  convolution_param {
    num_output: 128
    pad: 1
    kernel_size: 3
    weight_filler {
      type: "xavier"
    }
    bias_filler {
      type: "constant"
      value: 0
    }
  }
}
layer {
  name: "relu2_1"
  type: "ReLU"
  bottom: "conv2_1"
  top: "conv2_1"
}
layer {
  name: "conv2_2"
  type: "Convolution"
  bottom: "conv2_1"
  top: "conv2_2"
  param {
    lr_mult: 1
    decay_mult: 1
  }
  param {
    lr_mult: 2
    decay_mult: 0
  }
  convolution_param {
    num_output: 128
    pad: 1
    kernel_size: 3
    weight_filler {
      type: "xavier"
    }
    bias_filler {
      type: "constant"
      value: 0
    }
  }
}
layer {
  name: "relu2_2"
  type: "ReLU"
  bottom: "conv2_2"
  top: "conv2_2"
}
layer {
  name: "pool2"
  type: "Pooling"
  bottom: "conv2_2"
  top: "pool2"
  pooling_param {
    pool: MAX
    kernel_size: 2
    stride: 2
  }
}
layer {
  name: "conv3_1"
  type: "Convolution"
  bottom: "pool2"
  top: "conv3_1"
  param {
    lr_mult: 1
    decay_mult: 1
  }
  param {
    lr_mult: 2
    decay_mult: 0
  }
  convolution_param {
    num_output: 256
    pad: 1
    kernel_size: 3
    weight_filler {
      type: "xavier"
    }
    bias_filler {
      type: "constant"
      value: 0
    }
  }
}
layer {
  name: "relu3_1"
  type: "ReLU"
  bottom: "conv3_1"
  top: "conv3_1"
}
layer {
  name: "conv3_2"
  type: "Convolution"
  bottom: "conv3_1"
  top: "conv3_2"
  param {
    lr_mult: 1
    decay_mult: 1
  }
  param {
    lr_mult: 2
    decay_mult: 0
  }
  convolution_param {
    num_output: 256
    pad: 1
    kernel_size: 3
    weight_filler {
      type: "xavier"
    }
    bias_filler {
      type: "constant"
      value: 0
    }
  }
}
layer {
  name: "relu3_2"
  type: "ReLU"
  bottom: "conv3_2"
  top: "conv3_2"
}
layer {
  name: "conv3_3"
  type: "Convolution"
  bottom: "conv3_2"
  top: "conv3_3"
  param {
    lr_mult: 1
    decay_mult: 1
  }
  param {
    lr_mult: 2
    decay_mult: 0
  }
  convolution_param {
    num_output: 256
    pad: 1
    kernel_size: 3
    weight_filler {
      type: "xavier"
    }
    bias_filler {
      type: "constant"
      value: 0
    }
  }
}
layer {
  name: "relu3_3"
  type: "ReLU"
  bottom: "conv3_3"
  top: "conv3_3"
}
layer {
  name: "pool3"
  type: "Pooling"
  bottom: "conv3_3"
  top: "pool3"
  pooling_param {
    pool: MAX
    kernel_size: 2
    stride: 2
  }
}
layer {
  name: "conv4_1"
  type: "Convolution"
  bottom: "pool3"
  top: "conv4_1"
  param {
    lr_mult: 1
    decay_mult: 1
  }
  param {
    lr_mult: 2
    decay_mult: 0
  }
  convolution_param {
    num_output: 512
    pad: 1
    kernel_size: 3
    weight_filler {
      type: "xavier"
    }
    bias_filler {
      type: "constant"
      value: 0
    }
  }
}
layer {
  name: "relu4_1"
  type: "ReLU"
  bottom: "conv4_1"
  top: "conv4_1"
}
layer {
  name: "conv4_2"
  type: "Convolution"
  bottom: "conv4_1"
  top: "conv4_2"
  param {
    lr_mult: 1
    decay_mult: 1
  }
  param {
    lr_mult: 2
    decay_mult: 0
  }
  convolution_param {
    num_output: 512
    pad: 1
    kernel_size: 3
    weight_filler {
      type: "xavier"
    }
    bias_filler {
      type: "constant"
      value: 0
    }
  }
}
layer {
  name: "relu4_2"
  type: "ReLU"
  bottom: "conv4_2"
  top: "conv4_2"
}
layer {
  name: "conv4_3"
  type: "Convolution"
  bottom: "conv4_2"
  top: "conv4_3"
  param {
    lr_mult: 1
    decay_mult: 1
  }
  param {
    lr_mult: 2
    decay_mult: 0
  }
  convolution_param {
    num_output: 512
    pad: 1
    kernel_size: 3
    weight_filler {
      type: "xavier"
    }
    bias_filler {
      type: "constant"
      value: 0
    }
  }
}
layer {
  name: "relu4_3"
  type: "ReLU"
  bottom: "conv4_3"
  top: "conv4_3"
}
layer {
  name: "pool4"
  type: "Pooling"
  bottom: "conv4_3"
  top: "pool4"
  pooling_param {
    pool: MAX
    kernel_size: 2
    stride: 2
  }
}
layer {
  name: "conv5_1"
  type: "Convolution"
  bottom: "pool4"
  top: "conv5_1"
  param {
    lr_mult: 1
    decay_mult: 1
  }
  param {
    lr_mult: 2
    decay_mult: 0
  }
  convolution_param {
    num_output: 512
    pad: 1
    kernel_size: 3
    weight_filler {
      type: "xavier"
    }
    bias_filler {
      type: "constant"
      value: 0
    }
    dilation: 1
  }
}
layer {
  name: "relu5_1"
  type: "ReLU"
  bottom: "conv5_1"
  top: "conv5_1"
}
layer {
  name: "conv5_2"
  type: "Convolution"
  bottom: "conv5_1"
  top: "conv5_2"
  param {
    lr_mult: 1
    decay_mult: 1
  }
  param {
    lr_mult: 2
    decay_mult: 0
  }
  convolution_param {
    num_output: 512
    pad: 1
    kernel_size: 3
    weight_filler {
      type: "xavier"
    }
    bias_filler {
      type: "constant"
      value: 0
    }
    dilation: 1
  }
}
layer {
  name: "relu5_2"
  type: "ReLU"
  bottom: "conv5_2"
  top: "conv5_2"
}
layer {
  name: "conv5_3"
  type: "Convolution"
  bottom: "conv5_2"
  top: "conv5_3"
  param {
    lr_mult: 1
    decay_mult: 1
  }
  param {
    lr_mult: 2
    decay_mult: 0
  }
  convolution_param {
    num_output: 512
    pad: 1
    kernel_size: 3
    weight_filler {
      type: "xavier"
    }
    bias_filler {
      type: "constant"
      value: 0
    }
    dilation: 1
  }
}
layer {
  name: "relu5_3"
  type: "ReLU"
  bottom: "conv5_3"
  top: "conv5_3"
}
layer {
  name: "pool5"
  type: "Pooling"
  bottom: "conv5_3"
  top: "pool5"
  pooling_param {
    pool: MAX
    kernel_size: 3
    stride: 1
    pad: 1
  }
}
layer {
  name: "fc6"
  type: "Convolution"
  bottom: "pool5"
  top: "fc6"
  param {
    lr_mult: 1
    decay_mult: 1
  }
  param {
    lr_mult: 2
    decay_mult: 0
  }
  convolution_param {
    num_output: 1024
    pad: 6
    kernel_size: 3
    weight_filler {
      type: "xavier"
    }
    bias_filler {
      type: "constant"
      value: 0
    }
    dilation: 6
  }
}
layer {
  name: "relu6"
  type: "ReLU"
  bottom: "fc6"
  top: "fc6"
}
layer {
  name: "fc7"
  type: "Convolution"
  bottom: "fc6"
  top: "fc7"
  param {
    lr_mult: 1
    decay_mult: 1
  }
  param {
    lr_mult: 2
    decay_mult: 0
  }
  convolution_param {
    num_output: 1024
    kernel_size: 1
    weight_filler {
      type: "xavier"
    }
    bias_filler {
      type: "constant"
      value: 0
    }
  }
}
layer {
  name: "relu7"
  type: "ReLU"
  bottom: "fc7"
  top: "fc7"
}
layer {
  name: "conv6_1"
  type: "Convolution"
  bottom: "fc7"
  top: "conv6_1"
  param {
    lr_mult: 1
    decay_mult: 1
  }
  param {
    lr_mult: 2
    decay_mult: 0
  }
  convolution_param {
    num_output: 256
    pad: 0
    kernel_size: 1
    stride: 1
    weight_filler {
      type: "xavier"
    }
    bias_filler {
      type: "constant"
      value: 0
    }
  }
}
layer {
  name: "conv6_1_relu"
  type: "ReLU"
  bottom: "conv6_1"
  top: "conv6_1"
}
layer {
  name: "conv6_2"
  type: "Convolution"
  bottom: "conv6_1"
  top: "conv6_2"
  param {
    lr_mult: 1
    decay_mult: 1
  }
  param {
    lr_mult: 2
    decay_mult: 0
  }
  convolution_param {
    num_output: 512
    pad: 1
    kernel_size: 3
    stride: 2
    weight_filler {
      type: "xavier"
    }
    bias_filler {
      type: "constant"
      value: 0
    }
  }
}
layer {
  name: "conv6_2_relu"
  type: "ReLU"
  bottom: "conv6_2"
  top: "conv6_2"
}
layer {
  name: "conv7_1"
  type: "Convolution"
  bottom: "conv6_2"
  top: "conv7_1"
  param {
    lr_mult: 1
    decay_mult: 1
  }
  param {
    lr_mult: 2
    decay_mult: 0
  }
  convolution_param {
    num_output: 128
    pad: 0
    kernel_size: 1
    stride: 1
    weight_filler {
      type: "xavier"
    }
    bias_filler {
      type: "constant"
      value: 0
    }
  }
}
layer {
  name: "conv7_1_relu"
  type: "ReLU"
  bottom: "conv7_1"
  top: "conv7_1"
}
layer {
  name: "conv7_2"
  type: "Convolution"
  bottom: "conv7_1"
  top: "conv7_2"
  param {
    lr_mult: 1
    decay_mult: 1
  }
  param {
    lr_mult: 2
    decay_mult: 0
  }
  convolution_param {
    num_output: 256
    pad: 1
    kernel_size: 3
    stride: 2
    weight_filler {
      type: "xavier"
    }
    bias_filler {
      type: "constant"
      value: 0
    }
  }
}
layer {
  name: "conv7_2_relu"
  type: "ReLU"
  bottom: "conv7_2"
  top: "conv7_2"
}
layer {
  name: "conv8_1"
  type: "Convolution"
  bottom: "conv7_2"
  top: "conv8_1"
  param {
    lr_mult: 1
    decay_mult: 1
  }
  param {
    lr_mult: 2
    decay_mult: 0
  }
  convolution_param {
    num_output: 128
    pad: 0
    kernel_size: 1
    stride: 1
    weight_filler {
      type: "xavier"
    }
    bias_filler {
      type: "constant"
      value: 0
    }
  }
}
layer {
  name: "conv8_1_relu"
  type: "ReLU"
  bottom: "conv8_1"
  top: "conv8_1"
}
layer {
  name: "conv8_2"
  type: "Convolution"
  bottom: "conv8_1"
  top: "conv8_2"
  param {
    lr_mult: 1
    decay_mult: 1
  }
  param {
    lr_mult: 2
    decay_mult: 0
  }
  convolution_param {
    num_output: 256
    pad: 0
    kernel_size: 3
    stride: 1
    weight_filler {
      type: "xavier"
    }
    bias_filler {
      type: "constant"
      value: 0
    }
  }
}
layer {
  name: "conv8_2_relu"
  type: "ReLU"
  bottom: "conv8_2"
  top: "conv8_2"
}
layer {
  name: "conv9_1"
  type: "Convolution"
  bottom: "conv8_2"
  top: "conv9_1"
  param {
    lr_mult: 1
    decay_mult: 1
  }
  param {
    lr_mult: 2
    decay_mult: 0
  }
  convolution_param {
    num_output: 128
    pad: 0
    kernel_size: 1
    stride: 1
    weight_filler {
      type: "xavier"
    }
    bias_filler {
      type: "constant"
      value: 0
    }
  }
}
layer {
  name: "conv9_1_relu"
  type: "ReLU"
  bottom: "conv9_1"
  top: "conv9_1"
}
layer {
  name: "conv9_2"
  type: "Convolution"
  bottom: "conv9_1"
  top: "conv9_2"
  param {
    lr_mult: 1
    decay_mult: 1
  }
  param {
    lr_mult: 2
    decay_mult: 0
  }
  convolution_param {
    num_output: 256
    pad: 0
    kernel_size: 3
    stride: 1
    weight_filler {
      type: "xavier"
    }
    bias_filler {
      type: "constant"
      value: 0
    }
  }
}
layer {
  name: "conv9_2_relu"
  type: "ReLU"
  bottom: "conv9_2"
  top: "conv9_2"
}
layer {
  name: "conv4_3_norm"
  type: "Normalize"
  bottom: "conv4_3"
  top: "conv4_3_norm"
  norm_param {
    across_spatial: false
    scale_filler {
      type: "constant"
      value: 20
    }
    channel_shared: false
  }
}
layer {
  name: "conv4_3_norm_mbox_loc"
  type: "Convolution"
  bottom: "conv4_3_norm"
  top: "conv4_3_norm_mbox_loc"
  param {
    lr_mult: 1
    decay_mult: 1
  }
  param {
    lr_mult: 2
    decay_mult: 0
  }
  convolution_param {
    num_output: 16
    pad: 1
    kernel_size: 3
    stride: 1
    weight_filler {
      type: "xavier"
    }
    bias_filler {
      type: "constant"
      value: 0
    }
  }
}
layer {
  name: "conv4_3_norm_mbox_loc_perm"
  type: "Permute"
  bottom: "conv4_3_norm_mbox_loc"
  top: "conv4_3_norm_mbox_loc_perm"
  permute_param {
    order: 0
    order: 2
    order: 3
    order: 1
  }
}
layer {
  name: "conv4_3_norm_mbox_loc_flat"
  type: "Flatten"
  bottom: "conv4_3_norm_mbox_loc_perm"
  top: "conv4_3_norm_mbox_loc_flat"
  flatten_param {
    axis: 1
  }
}
layer {
  name: "conv4_3_norm_mbox_conf"
  type: "Convolution"
  bottom: "conv4_3_norm"
  top: "conv4_3_norm_mbox_conf"
  param {
    lr_mult: 1
    decay_mult: 1
  }
  param {
    lr_mult: 2
    decay_mult: 0
  }
  convolution_param {
    num_output: 88
    pad: 1
    kernel_size: 3
    stride: 1
    weight_filler {
      type: "xavier"
    }
    bias_filler {
      type: "constant"
      value: 0
    }
  }
}
layer {
  name: "conv4_3_norm_mbox_conf_perm"
  type: "Permute"
  bottom: "conv4_3_norm_mbox_conf"
  top: "conv4_3_norm_mbox_conf_perm"
  permute_param {
    order: 0
    order: 2
    order: 3
    order: 1
  }
}
layer {
  name: "conv4_3_norm_mbox_conf_flat"
  type: "Flatten"
  bottom: "conv4_3_norm_mbox_conf_perm"
  top: "conv4_3_norm_mbox_conf_flat"
  flatten_param {
    axis: 1
  }
}
layer {
  name: "conv4_3_norm_mbox_priorbox"
  type: "PriorBox"
  bottom: "conv4_3_norm"
  bottom: "data"
  top: "conv4_3_norm_mbox_priorbox"
  prior_box_param {
    min_size: 30
    max_size: 60
    aspect_ratio: 2
    flip: true
    clip: false
    variance: 0.1
    variance: 0.1
    variance: 0.2
    variance: 0.2
    step: 8
    offset: 0.5
  }
}
layer {
  name: "fc7_mbox_loc"
  type: "Convolution"
  bottom: "fc7"
  top: "fc7_mbox_loc"
  param {
    lr_mult: 1
    decay_mult: 1
  }
  param {
    lr_mult: 2
    decay_mult: 0
  }
  convolution_param {
    num_output: 24
    pad: 1
    kernel_size: 3
    stride: 1
    weight_filler {
      type: "xavier"
    }
    bias_filler {
      type: "constant"
      value: 0
    }
  }
}
layer {
  name: "fc7_mbox_loc_perm"
  type: "Permute"
  bottom: "fc7_mbox_loc"
  top: "fc7_mbox_loc_perm"
  permute_param {
    order: 0
    order: 2
    order: 3
    order: 1
  }
}
layer {
  name: "fc7_mbox_loc_flat"
  type: "Flatten"
  bottom: "fc7_mbox_loc_perm"
  top: "fc7_mbox_loc_flat"
  flatten_param {
    axis: 1
  }
}
layer {
  name: "fc7_mbox_conf"
  type: "Convolution"
  bottom: "fc7"
  top: "fc7_mbox_conf"
  param {
    lr_mult: 1
    decay_mult: 1
  }
  param {
    lr_mult: 2
    decay_mult: 0
  }
  convolution_param {
    num_output: 132
    pad: 1
    kernel_size: 3
    stride: 1
    weight_filler {
      type: "xavier"
    }
    bias_filler {
      type: "constant"
      value: 0
    }
  }
}
layer {
  name: "fc7_mbox_conf_perm"
  type: "Permute"
  bottom: "fc7_mbox_conf"
  top: "fc7_mbox_conf_perm"
  permute_param {
    order: 0
    order: 2
    order: 3
    order: 1
  }
}
layer {
  name: "fc7_mbox_conf_flat"
  type: "Flatten"
  bottom: "fc7_mbox_conf_perm"
  top: "fc7_mbox_conf_flat"
  flatten_param {
    axis: 1
  }
}
layer {
  name: "fc7_mbox_priorbox"
  type: "PriorBox"
  bottom: "fc7"
  bottom: "data"
  top: "fc7_mbox_priorbox"
  prior_box_param {
    min_size: 60
    max_size: 111
    aspect_ratio: 2
    aspect_ratio: 3
    flip: true
    clip: false
    variance: 0.1
    variance: 0.1
    variance: 0.2
    variance: 0.2
    step: 16
    offset: 0.5
  }
}
layer {
  name: "conv6_2_mbox_loc"
  type: "Convolution"
  bottom: "conv6_2"
  top: "conv6_2_mbox_loc"
  param {
    lr_mult: 1
    decay_mult: 1
  }
  param {
    lr_mult: 2
    decay_mult: 0
  }
  convolution_param {
    num_output: 24
    pad: 1
    kernel_size: 3
    stride: 1
    weight_filler {
      type: "xavier"
    }
    bias_filler {
      type: "constant"
      value: 0
    }
  }
}
layer {
  name: "conv6_2_mbox_loc_perm"
  type: "Permute"
  bottom: "conv6_2_mbox_loc"
  top: "conv6_2_mbox_loc_perm"
  permute_param {
    order: 0
    order: 2
    order: 3
    order: 1
  }
}
layer {
  name: "conv6_2_mbox_loc_flat"
  type: "Flatten"
  bottom: "conv6_2_mbox_loc_perm"
  top: "conv6_2_mbox_loc_flat"
  flatten_param {
    axis: 1
  }
}
layer {
  name: "conv6_2_mbox_conf"
  type: "Convolution"
  bottom: "conv6_2"
  top: "conv6_2_mbox_conf"
  param {
    lr_mult: 1
    decay_mult: 1
  }
  param {
    lr_mult: 2
    decay_mult: 0
  }
  convolution_param {
    num_output: 132
    pad: 1
    kernel_size: 3
    stride: 1
    weight_filler {
      type: "xavier"
    }
    bias_filler {
      type: "constant"
      value: 0
    }
  }
}
layer {
  name: "conv6_2_mbox_conf_perm"
  type: "Permute"
  bottom: "conv6_2_mbox_conf"
  top: "conv6_2_mbox_conf_perm"
  permute_param {
    order: 0
    order: 2
    order: 3
    order: 1
  }
}
layer {
  name: "conv6_2_mbox_conf_flat"
  type: "Flatten"
  bottom: "conv6_2_mbox_conf_perm"
  top: "conv6_2_mbox_conf_flat"
  flatten_param {
    axis: 1
  }
}
layer {
  name: "conv6_2_mbox_priorbox"
  type: "PriorBox"
  bottom: "conv6_2"
  bottom: "data"
  top: "conv6_2_mbox_priorbox"
  prior_box_param {
    min_size: 111
    max_size: 162
    aspect_ratio: 2
    aspect_ratio: 3
    flip: true
    clip: false
    variance: 0.1
    variance: 0.1
    variance: 0.2
    variance: 0.2
    step: 32
    offset: 0.5
  }
}
layer {
  name: "conv7_2_mbox_loc"
  type: "Convolution"
  bottom: "conv7_2"
  top: "conv7_2_mbox_loc"
  param {
    lr_mult: 1
    decay_mult: 1
  }
  param {
    lr_mult: 2
    decay_mult: 0
  }
  convolution_param {
    num_output: 24
    pad: 1
    kernel_size: 3
    stride: 1
    weight_filler {
      type: "xavier"
    }
    bias_filler {
      type: "constant"
      value: 0
    }
  }
}
layer {
  name: "conv7_2_mbox_loc_perm"
  type: "Permute"
  bottom: "conv7_2_mbox_loc"
  top: "conv7_2_mbox_loc_perm"
  permute_param {
    order: 0
    order: 2
    order: 3
    order: 1
  }
}
layer {
  name: "conv7_2_mbox_loc_flat"
  type: "Flatten"
  bottom: "conv7_2_mbox_loc_perm"
  top: "conv7_2_mbox_loc_flat"
  flatten_param {
    axis: 1
  }
}
layer {
  name: "conv7_2_mbox_conf"
  type: "Convolution"
  bottom: "conv7_2"
  top: "conv7_2_mbox_conf"
  param {
    lr_mult: 1
    decay_mult: 1
  }
  param {
    lr_mult: 2
    decay_mult: 0
  }
  convolution_param {
    num_output: 132
    pad: 1
    kernel_size: 3
    stride: 1
    weight_filler {
      type: "xavier"
    }
    bias_filler {
      type: "constant"
      value: 0
    }
  }
}
layer {
  name: "conv7_2_mbox_conf_perm"
  type: "Permute"
  bottom: "conv7_2_mbox_conf"
  top: "conv7_2_mbox_conf_perm"
  permute_param {
    order: 0
    order: 2
    order: 3
    order: 1
  }
}
layer {
  name: "conv7_2_mbox_conf_flat"
  type: "Flatten"
  bottom: "conv7_2_mbox_conf_perm"
  top: "conv7_2_mbox_conf_flat"
  flatten_param {
    axis: 1
  }
}
layer {
  name: "conv7_2_mbox_priorbox"
  type: "PriorBox"
  bottom: "conv7_2"
  bottom: "data"
  top: "conv7_2_mbox_priorbox"
  prior_box_param {
    min_size: 162
    max_size: 213
    aspect_ratio: 2
    aspect_ratio: 3
    flip: true
    clip: false
    variance: 0.1
    variance: 0.1
    variance: 0.2
    variance: 0.2
    step: 64
    offset: 0.5
  }
}
layer {
  name: "conv8_2_mbox_loc"
  type: "Convolution"
  bottom: "conv8_2"
  top: "conv8_2_mbox_loc"
  param {
    lr_mult: 1
    decay_mult: 1
  }
  param {
    lr_mult: 2
    decay_mult: 0
  }
  convolution_param {
    num_output: 16
    pad: 1
    kernel_size: 3
    stride: 1
    weight_filler {
      type: "xavier"
    }
    bias_filler {
      type: "constant"
      value: 0
    }
  }
}
layer {
  name: "conv8_2_mbox_loc_perm"
  type: "Permute"
  bottom: "conv8_2_mbox_loc"
  top: "conv8_2_mbox_loc_perm"
  permute_param {
    order: 0
    order: 2
    order: 3
    order: 1
  }
}
layer {
  name: "conv8_2_mbox_loc_flat"
  type: "Flatten"
  bottom: "conv8_2_mbox_loc_perm"
  top: "conv8_2_mbox_loc_flat"
  flatten_param {
    axis: 1
  }
}
layer {
  name: "conv8_2_mbox_conf"
  type: "Convolution"
  bottom: "conv8_2"
  top: "conv8_2_mbox_conf"
  param {
    lr_mult: 1
    decay_mult: 1
  }
  param {
    lr_mult: 2
    decay_mult: 0
  }
  convolution_param {
    num_output: 88
    pad: 1
    kernel_size: 3
    stride: 1
    weight_filler {
      type: "xavier"
    }
    bias_filler {
      type: "constant"
      value: 0
    }
  }
}
layer {
  name: "conv8_2_mbox_conf_perm"
  type: "Permute"
  bottom: "conv8_2_mbox_conf"
  top: "conv8_2_mbox_conf_perm"
  permute_param {
    order: 0
    order: 2
    order: 3
    order: 1
  }
}
layer {
  name: "conv8_2_mbox_conf_flat"
  type: "Flatten"
  bottom: "conv8_2_mbox_conf_perm"
  top: "conv8_2_mbox_conf_flat"
  flatten_param {
    axis: 1
  }
}
layer {
  name: "conv8_2_mbox_priorbox"
  type: "PriorBox"
  bottom: "conv8_2"
  bottom: "data"
  top: "conv8_2_mbox_priorbox"
  prior_box_param {
    min_size: 213
    max_size: 264
    aspect_ratio: 2
    flip: true
    clip: false
    variance: 0.1
    variance: 0.1
    variance: 0.2
    variance: 0.2
    step: 100
    offset: 0.5
  }
}
layer {
  name: "conv9_2_mbox_loc"
  type: "Convolution"
  bottom: "conv9_2"
  top: "conv9_2_mbox_loc"
  param {
    lr_mult: 1
    decay_mult: 1
  }
  param {
    lr_mult: 2
    decay_mult: 0
  }
  convolution_param {
    num_output: 16
    pad: 1
    kernel_size: 3
    stride: 1
    weight_filler {
      type: "xavier"
    }
    bias_filler {
      type: "constant"
      value: 0
    }
  }
}
layer {
  name: "conv9_2_mbox_loc_perm"
  type: "Permute"
  bottom: "conv9_2_mbox_loc"
  top: "conv9_2_mbox_loc_perm"
  permute_param {
    order: 0
    order: 2
    order: 3
    order: 1
  }
}
layer {
  name: "conv9_2_mbox_loc_flat"
  type: "Flatten"
  bottom: "conv9_2_mbox_loc_perm"
  top: "conv9_2_mbox_loc_flat"
  flatten_param {
    axis: 1
  }
}
layer {
  name: "conv9_2_mbox_conf"
  type: "Convolution"
  bottom: "conv9_2"
  top: "conv9_2_mbox_conf"
  param {
    lr_mult: 1
    decay_mult: 1
  }
  param {
    lr_mult: 2
    decay_mult: 0
  }
  convolution_param {
    num_output: 88
    pad: 1
    kernel_size: 3
    stride: 1
    weight_filler {
      type: "xavier"
    }
    bias_filler {
      type: "constant"
      value: 0
    }
  }
}
layer {
  name: "conv9_2_mbox_conf_perm"
  type: "Permute"
  bottom: "conv9_2_mbox_conf"
  top: "conv9_2_mbox_conf_perm"
  permute_param {
    order: 0
    order: 2
    order: 3
    order: 1
  }
}
layer {
  name: "conv9_2_mbox_conf_flat"
  type: "Flatten"
  bottom: "conv9_2_mbox_conf_perm"
  top: "conv9_2_mbox_conf_flat"
  flatten_param {
    axis: 1
  }
}
layer {
  name: "conv9_2_mbox_priorbox"
  type: "PriorBox"
  bottom: "conv9_2"
  bottom: "data"
  top: "conv9_2_mbox_priorbox"
  prior_box_param {
    min_size: 264
    max_size: 315
    aspect_ratio: 2
    flip: true
    clip: false
    variance: 0.1
    variance: 0.1
    variance: 0.2
    variance: 0.2
    step: 300
    offset: 0.5
  }
}
layer {
  name: "mbox_loc"
  type: "Concat"
  bottom: "conv4_3_norm_mbox_loc_flat"
  bottom: "fc7_mbox_loc_flat"
  bottom: "conv6_2_mbox_loc_flat"
  bottom: "conv7_2_mbox_loc_flat"
  bottom: "conv8_2_mbox_loc_flat"
  bottom: "conv9_2_mbox_loc_flat"
  top: "mbox_loc"
  concat_param {
    axis: 1
  }
}
layer {
  name: "mbox_conf"
  type: "Concat"
  bottom: "conv4_3_norm_mbox_conf_flat"
  bottom: "fc7_mbox_conf_flat"
  bottom: "conv6_2_mbox_conf_flat"
  bottom: "conv7_2_mbox_conf_flat"
  bottom: "conv8_2_mbox_conf_flat"
  bottom: "conv9_2_mbox_conf_flat"
  top: "mbox_conf"
  concat_param {
    axis: 1
  }
}
layer {
  name: "mbox_priorbox"
  type: "Concat"
  bottom: "conv4_3_norm_mbox_priorbox"
  bottom: "fc7_mbox_priorbox"
  bottom: "conv6_2_mbox_priorbox"
  bottom: "conv7_2_mbox_priorbox"
  bottom: "conv8_2_mbox_priorbox"
  bottom: "conv9_2_mbox_priorbox"
  top: "mbox_priorbox"
  concat_param {
    axis: 2
  }
}
layer {
  name: "mbox_conf_reshape"
  type: "Reshape"
  bottom: "mbox_conf"
  top: "mbox_conf_reshape"
  reshape_param {
    shape {
      dim: 0
      dim: -1
      dim: 22
    }
  }
}
layer {
  name: "mbox_conf_softmax"
  type: "Softmax"
  bottom: "mbox_conf_reshape"
  top: "mbox_conf_softmax"
  softmax_param {
    axis: 2
  }
}
layer {
  name: "mbox_conf_flatten"
  type: "Flatten"
  bottom: "mbox_conf_softmax"
  top: "mbox_conf_flatten"
  flatten_param {
    axis: 1
  }
}
layer {
  name: "detection_out"
  type: "DetectionOutput"
  bottom: "mbox_loc"
  bottom: "mbox_conf_flatten"
  bottom: "mbox_priorbox"
  top: "detection_out"
  include {
    phase: TEST
  }
  detection_output_param {
    num_classes: 22
    share_location: true
    background_label_id: 0
    nms_param {
      nms_threshold: 0.45
      top_k: 400
    }
    save_output_param {
      output_directory: "/home/dhall/data/VOCdevkit/results/dbgr_trees/SSD_dbgr_trees_300x300/Main"
      output_name_prefix: "comp4_det_test_"
      output_format: "VOC"
      label_map_file: "data/dbgr_trees/labelmap_voc.prototxt"
      name_size_file: "data/dbgr_trees/test_name_size.txt"
      num_test_image: 105
    }
    code_type: CENTER_SIZE
    keep_top_k: 200
    confidence_threshold: 0.01
  }
}
layer {
  name: "detection_eval"
  type: "DetectionEvaluate"
  bottom: "detection_out"
  bottom: "label"
  top: "detection_eval"
  include {
    phase: TEST
  }
  detection_evaluate_param {
    num_classes: 22
    background_label_id: 0
    overlap_threshold: 0.5
    evaluate_difficult_gt: false
    name_size_file: "data/dbgr_trees/test_name_size.txt"
  }
}
I0217 21:25:45.711259 15035 layer_factory.hpp:77] Creating layer data
I0217 21:25:45.711320 15035 net.cpp:100] Creating Layer data
I0217 21:25:45.711330 15035 net.cpp:408] data -> data
I0217 21:25:45.711341 15035 net.cpp:408] data -> label
I0217 21:25:45.712997 15054 db_lmdb.cpp:35] Opened lmdb examples/dbgr_trees/dbgr_trees_test_lmdb
I0217 21:25:45.725630 15035 annotated_data_layer.cpp:62] output data size: 1,4,300,300
I0217 21:25:45.728688 15035 net.cpp:150] Setting up data
I0217 21:25:45.728709 15035 net.cpp:157] Top shape: 1 4 300 300 (360000)
I0217 21:25:45.728715 15035 net.cpp:157] Top shape: 1 1 6 8 (48)
I0217 21:25:45.728719 15035 net.cpp:165] Memory required for data: 1440192
I0217 21:25:45.728726 15035 layer_factory.hpp:77] Creating layer data_data_0_split
I0217 21:25:45.728739 15035 net.cpp:100] Creating Layer data_data_0_split
I0217 21:25:45.728744 15035 net.cpp:434] data_data_0_split <- data
I0217 21:25:45.728751 15035 net.cpp:408] data_data_0_split -> data_data_0_split_0
I0217 21:25:45.728765 15035 net.cpp:408] data_data_0_split -> data_data_0_split_1
I0217 21:25:45.728776 15035 net.cpp:408] data_data_0_split -> data_data_0_split_2
I0217 21:25:45.728785 15035 net.cpp:408] data_data_0_split -> data_data_0_split_3
I0217 21:25:45.728790 15035 net.cpp:408] data_data_0_split -> data_data_0_split_4
I0217 21:25:45.728796 15035 net.cpp:408] data_data_0_split -> data_data_0_split_5
I0217 21:25:45.728801 15035 net.cpp:408] data_data_0_split -> data_data_0_split_6
I0217 21:25:45.728989 15035 net.cpp:150] Setting up data_data_0_split
I0217 21:25:45.729002 15035 net.cpp:157] Top shape: 1 4 300 300 (360000)
I0217 21:25:45.729024 15035 net.cpp:157] Top shape: 1 4 300 300 (360000)
I0217 21:25:45.729030 15035 net.cpp:157] Top shape: 1 4 300 300 (360000)
I0217 21:25:45.729034 15035 net.cpp:157] Top shape: 1 4 300 300 (360000)
I0217 21:25:45.729038 15035 net.cpp:157] Top shape: 1 4 300 300 (360000)
I0217 21:25:45.729043 15035 net.cpp:157] Top shape: 1 4 300 300 (360000)
I0217 21:25:45.729048 15035 net.cpp:157] Top shape: 1 4 300 300 (360000)
I0217 21:25:45.729051 15035 net.cpp:165] Memory required for data: 11520192
I0217 21:25:45.729055 15035 layer_factory.hpp:77] Creating layer conv1_1_rgbd
I0217 21:25:45.729068 15035 net.cpp:100] Creating Layer conv1_1_rgbd
I0217 21:25:45.729073 15035 net.cpp:434] conv1_1_rgbd <- data_data_0_split_0
I0217 21:25:45.729079 15035 net.cpp:408] conv1_1_rgbd -> conv1_1_rgbd
I0217 21:25:45.730759 15035 net.cpp:150] Setting up conv1_1_rgbd
I0217 21:25:45.730777 15035 net.cpp:157] Top shape: 1 64 300 300 (5760000)
I0217 21:25:45.730780 15035 net.cpp:165] Memory required for data: 34560192
I0217 21:25:45.730792 15035 layer_factory.hpp:77] Creating layer relu1_1
I0217 21:25:45.730800 15035 net.cpp:100] Creating Layer relu1_1
I0217 21:25:45.730804 15035 net.cpp:434] relu1_1 <- conv1_1_rgbd
I0217 21:25:45.730808 15035 net.cpp:395] relu1_1 -> conv1_1_rgbd (in-place)
I0217 21:25:45.731230 15035 net.cpp:150] Setting up relu1_1
I0217 21:25:45.731245 15035 net.cpp:157] Top shape: 1 64 300 300 (5760000)
I0217 21:25:45.731250 15035 net.cpp:165] Memory required for data: 57600192
I0217 21:25:45.731253 15035 layer_factory.hpp:77] Creating layer conv1_2
I0217 21:25:45.731264 15035 net.cpp:100] Creating Layer conv1_2
I0217 21:25:45.731268 15035 net.cpp:434] conv1_2 <- conv1_1_rgbd
I0217 21:25:45.731276 15035 net.cpp:408] conv1_2 -> conv1_2
I0217 21:25:45.733286 15035 net.cpp:150] Setting up conv1_2
I0217 21:25:45.733304 15035 net.cpp:157] Top shape: 1 64 300 300 (5760000)
I0217 21:25:45.733309 15035 net.cpp:165] Memory required for data: 80640192
I0217 21:25:45.733319 15035 layer_factory.hpp:77] Creating layer relu1_2
I0217 21:25:45.733325 15035 net.cpp:100] Creating Layer relu1_2
I0217 21:25:45.733330 15035 net.cpp:434] relu1_2 <- conv1_2
I0217 21:25:45.733335 15035 net.cpp:395] relu1_2 -> conv1_2 (in-place)
I0217 21:25:45.733530 15035 net.cpp:150] Setting up relu1_2
I0217 21:25:45.733543 15035 net.cpp:157] Top shape: 1 64 300 300 (5760000)
I0217 21:25:45.733549 15035 net.cpp:165] Memory required for data: 103680192
I0217 21:25:45.733556 15035 layer_factory.hpp:77] Creating layer pool1
I0217 21:25:45.733566 15035 net.cpp:100] Creating Layer pool1
I0217 21:25:45.733574 15035 net.cpp:434] pool1 <- conv1_2
I0217 21:25:45.733583 15035 net.cpp:408] pool1 -> pool1
I0217 21:25:45.733656 15035 net.cpp:150] Setting up pool1
I0217 21:25:45.733669 15035 net.cpp:157] Top shape: 1 64 150 150 (1440000)
I0217 21:25:45.733675 15035 net.cpp:165] Memory required for data: 109440192
I0217 21:25:45.733682 15035 layer_factory.hpp:77] Creating layer conv2_1
I0217 21:25:45.733697 15035 net.cpp:100] Creating Layer conv2_1
I0217 21:25:45.733705 15035 net.cpp:434] conv2_1 <- pool1
I0217 21:25:45.733716 15035 net.cpp:408] conv2_1 -> conv2_1
I0217 21:25:45.735569 15035 net.cpp:150] Setting up conv2_1
I0217 21:25:45.735589 15035 net.cpp:157] Top shape: 1 128 150 150 (2880000)
I0217 21:25:45.735596 15035 net.cpp:165] Memory required for data: 120960192
I0217 21:25:45.735612 15035 layer_factory.hpp:77] Creating layer relu2_1
I0217 21:25:45.735626 15035 net.cpp:100] Creating Layer relu2_1
I0217 21:25:45.735635 15035 net.cpp:434] relu2_1 <- conv2_1
I0217 21:25:45.735643 15035 net.cpp:395] relu2_1 -> conv2_1 (in-place)
I0217 21:25:45.735846 15035 net.cpp:150] Setting up relu2_1
I0217 21:25:45.735860 15035 net.cpp:157] Top shape: 1 128 150 150 (2880000)
I0217 21:25:45.735867 15035 net.cpp:165] Memory required for data: 132480192
I0217 21:25:45.735874 15035 layer_factory.hpp:77] Creating layer conv2_2
I0217 21:25:45.735888 15035 net.cpp:100] Creating Layer conv2_2
I0217 21:25:45.735896 15035 net.cpp:434] conv2_2 <- conv2_1
I0217 21:25:45.735930 15035 net.cpp:408] conv2_2 -> conv2_2
I0217 21:25:45.738636 15035 net.cpp:150] Setting up conv2_2
I0217 21:25:45.738656 15035 net.cpp:157] Top shape: 1 128 150 150 (2880000)
I0217 21:25:45.738663 15035 net.cpp:165] Memory required for data: 144000192
I0217 21:25:45.738675 15035 layer_factory.hpp:77] Creating layer relu2_2
I0217 21:25:45.738687 15035 net.cpp:100] Creating Layer relu2_2
I0217 21:25:45.738694 15035 net.cpp:434] relu2_2 <- conv2_2
I0217 21:25:45.738704 15035 net.cpp:395] relu2_2 -> conv2_2 (in-place)
I0217 21:25:45.739054 15035 net.cpp:150] Setting up relu2_2
I0217 21:25:45.739071 15035 net.cpp:157] Top shape: 1 128 150 150 (2880000)
I0217 21:25:45.739078 15035 net.cpp:165] Memory required for data: 155520192
I0217 21:25:45.739085 15035 layer_factory.hpp:77] Creating layer pool2
I0217 21:25:45.739096 15035 net.cpp:100] Creating Layer pool2
I0217 21:25:45.739104 15035 net.cpp:434] pool2 <- conv2_2
I0217 21:25:45.739114 15035 net.cpp:408] pool2 -> pool2
I0217 21:25:45.739187 15035 net.cpp:150] Setting up pool2
I0217 21:25:45.739199 15035 net.cpp:157] Top shape: 1 128 75 75 (720000)
I0217 21:25:45.739205 15035 net.cpp:165] Memory required for data: 158400192
I0217 21:25:45.739212 15035 layer_factory.hpp:77] Creating layer conv3_1
I0217 21:25:45.739226 15035 net.cpp:100] Creating Layer conv3_1
I0217 21:25:45.739234 15035 net.cpp:434] conv3_1 <- pool2
I0217 21:25:45.739245 15035 net.cpp:408] conv3_1 -> conv3_1
I0217 21:25:45.743041 15035 net.cpp:150] Setting up conv3_1
I0217 21:25:45.743062 15035 net.cpp:157] Top shape: 1 256 75 75 (1440000)
I0217 21:25:45.743068 15035 net.cpp:165] Memory required for data: 164160192
I0217 21:25:45.743085 15035 layer_factory.hpp:77] Creating layer relu3_1
I0217 21:25:45.743096 15035 net.cpp:100] Creating Layer relu3_1
I0217 21:25:45.743104 15035 net.cpp:434] relu3_1 <- conv3_1
I0217 21:25:45.743113 15035 net.cpp:395] relu3_1 -> conv3_1 (in-place)
I0217 21:25:45.743309 15035 net.cpp:150] Setting up relu3_1
I0217 21:25:45.743324 15035 net.cpp:157] Top shape: 1 256 75 75 (1440000)
I0217 21:25:45.743330 15035 net.cpp:165] Memory required for data: 169920192
I0217 21:25:45.743337 15035 layer_factory.hpp:77] Creating layer conv3_2
I0217 21:25:45.743351 15035 net.cpp:100] Creating Layer conv3_2
I0217 21:25:45.743360 15035 net.cpp:434] conv3_2 <- conv3_1
I0217 21:25:45.743371 15035 net.cpp:408] conv3_2 -> conv3_2
I0217 21:25:45.749603 15035 net.cpp:150] Setting up conv3_2
I0217 21:25:45.749624 15035 net.cpp:157] Top shape: 1 256 75 75 (1440000)
I0217 21:25:45.749631 15035 net.cpp:165] Memory required for data: 175680192
I0217 21:25:45.749644 15035 layer_factory.hpp:77] Creating layer relu3_2
I0217 21:25:45.749655 15035 net.cpp:100] Creating Layer relu3_2
I0217 21:25:45.749662 15035 net.cpp:434] relu3_2 <- conv3_2
I0217 21:25:45.749672 15035 net.cpp:395] relu3_2 -> conv3_2 (in-place)
I0217 21:25:45.749867 15035 net.cpp:150] Setting up relu3_2
I0217 21:25:45.749882 15035 net.cpp:157] Top shape: 1 256 75 75 (1440000)
I0217 21:25:45.749889 15035 net.cpp:165] Memory required for data: 181440192
I0217 21:25:45.749896 15035 layer_factory.hpp:77] Creating layer conv3_3
I0217 21:25:45.749913 15035 net.cpp:100] Creating Layer conv3_3
I0217 21:25:45.749922 15035 net.cpp:434] conv3_3 <- conv3_2
I0217 21:25:45.749934 15035 net.cpp:408] conv3_3 -> conv3_3
I0217 21:25:45.756798 15035 net.cpp:150] Setting up conv3_3
I0217 21:25:45.756821 15035 net.cpp:157] Top shape: 1 256 75 75 (1440000)
I0217 21:25:45.756829 15035 net.cpp:165] Memory required for data: 187200192
I0217 21:25:45.756841 15035 layer_factory.hpp:77] Creating layer relu3_3
I0217 21:25:45.756852 15035 net.cpp:100] Creating Layer relu3_3
I0217 21:25:45.756860 15035 net.cpp:434] relu3_3 <- conv3_3
I0217 21:25:45.756870 15035 net.cpp:395] relu3_3 -> conv3_3 (in-place)
I0217 21:25:45.757210 15035 net.cpp:150] Setting up relu3_3
I0217 21:25:45.757227 15035 net.cpp:157] Top shape: 1 256 75 75 (1440000)
I0217 21:25:45.757235 15035 net.cpp:165] Memory required for data: 192960192
I0217 21:25:45.757242 15035 layer_factory.hpp:77] Creating layer pool3
I0217 21:25:45.757280 15035 net.cpp:100] Creating Layer pool3
I0217 21:25:45.757292 15035 net.cpp:434] pool3 <- conv3_3
I0217 21:25:45.757303 15035 net.cpp:408] pool3 -> pool3
I0217 21:25:45.757378 15035 net.cpp:150] Setting up pool3
I0217 21:25:45.757392 15035 net.cpp:157] Top shape: 1 256 38 38 (369664)
I0217 21:25:45.757398 15035 net.cpp:165] Memory required for data: 194438848
I0217 21:25:45.757405 15035 layer_factory.hpp:77] Creating layer conv4_1
I0217 21:25:45.757421 15035 net.cpp:100] Creating Layer conv4_1
I0217 21:25:45.757427 15035 net.cpp:434] conv4_1 <- pool3
I0217 21:25:45.757439 15035 net.cpp:408] conv4_1 -> conv4_1
I0217 21:25:45.768554 15035 net.cpp:150] Setting up conv4_1
I0217 21:25:45.768579 15035 net.cpp:157] Top shape: 1 512 38 38 (739328)
I0217 21:25:45.768586 15035 net.cpp:165] Memory required for data: 197396160
I0217 21:25:45.768599 15035 layer_factory.hpp:77] Creating layer relu4_1
I0217 21:25:45.768610 15035 net.cpp:100] Creating Layer relu4_1
I0217 21:25:45.768617 15035 net.cpp:434] relu4_1 <- conv4_1
I0217 21:25:45.768626 15035 net.cpp:395] relu4_1 -> conv4_1 (in-place)
I0217 21:25:45.768837 15035 net.cpp:150] Setting up relu4_1
I0217 21:25:45.768851 15035 net.cpp:157] Top shape: 1 512 38 38 (739328)
I0217 21:25:45.768862 15035 net.cpp:165] Memory required for data: 200353472
I0217 21:25:45.768869 15035 layer_factory.hpp:77] Creating layer conv4_2
I0217 21:25:45.768885 15035 net.cpp:100] Creating Layer conv4_2
I0217 21:25:45.768893 15035 net.cpp:434] conv4_2 <- conv4_1
I0217 21:25:45.768905 15035 net.cpp:408] conv4_2 -> conv4_2
I0217 21:25:45.790205 15035 net.cpp:150] Setting up conv4_2
I0217 21:25:45.790243 15035 net.cpp:157] Top shape: 1 512 38 38 (739328)
I0217 21:25:45.790251 15035 net.cpp:165] Memory required for data: 203310784
I0217 21:25:45.790272 15035 layer_factory.hpp:77] Creating layer relu4_2
I0217 21:25:45.790292 15035 net.cpp:100] Creating Layer relu4_2
I0217 21:25:45.790299 15035 net.cpp:434] relu4_2 <- conv4_2
I0217 21:25:45.790309 15035 net.cpp:395] relu4_2 -> conv4_2 (in-place)
I0217 21:25:45.790532 15035 net.cpp:150] Setting up relu4_2
I0217 21:25:45.790547 15035 net.cpp:157] Top shape: 1 512 38 38 (739328)
I0217 21:25:45.790554 15035 net.cpp:165] Memory required for data: 206268096
I0217 21:25:45.790560 15035 layer_factory.hpp:77] Creating layer conv4_3
I0217 21:25:45.790578 15035 net.cpp:100] Creating Layer conv4_3
I0217 21:25:45.790585 15035 net.cpp:434] conv4_3 <- conv4_2
I0217 21:25:45.790597 15035 net.cpp:408] conv4_3 -> conv4_3
I0217 21:25:45.811844 15035 net.cpp:150] Setting up conv4_3
I0217 21:25:45.811882 15035 net.cpp:157] Top shape: 1 512 38 38 (739328)
I0217 21:25:45.811890 15035 net.cpp:165] Memory required for data: 209225408
I0217 21:25:45.811905 15035 layer_factory.hpp:77] Creating layer relu4_3
I0217 21:25:45.811920 15035 net.cpp:100] Creating Layer relu4_3
I0217 21:25:45.811930 15035 net.cpp:434] relu4_3 <- conv4_3
I0217 21:25:45.811944 15035 net.cpp:395] relu4_3 -> conv4_3 (in-place)
I0217 21:25:45.812312 15035 net.cpp:150] Setting up relu4_3
I0217 21:25:45.812330 15035 net.cpp:157] Top shape: 1 512 38 38 (739328)
I0217 21:25:45.812336 15035 net.cpp:165] Memory required for data: 212182720
I0217 21:25:45.812345 15035 layer_factory.hpp:77] Creating layer conv4_3_relu4_3_0_split
I0217 21:25:45.812357 15035 net.cpp:100] Creating Layer conv4_3_relu4_3_0_split
I0217 21:25:45.812364 15035 net.cpp:434] conv4_3_relu4_3_0_split <- conv4_3
I0217 21:25:45.812376 15035 net.cpp:408] conv4_3_relu4_3_0_split -> conv4_3_relu4_3_0_split_0
I0217 21:25:45.812388 15035 net.cpp:408] conv4_3_relu4_3_0_split -> conv4_3_relu4_3_0_split_1
I0217 21:25:45.812459 15035 net.cpp:150] Setting up conv4_3_relu4_3_0_split
I0217 21:25:45.812472 15035 net.cpp:157] Top shape: 1 512 38 38 (739328)
I0217 21:25:45.812480 15035 net.cpp:157] Top shape: 1 512 38 38 (739328)
I0217 21:25:45.812487 15035 net.cpp:165] Memory required for data: 218097344
I0217 21:25:45.812494 15035 layer_factory.hpp:77] Creating layer pool4
I0217 21:25:45.812506 15035 net.cpp:100] Creating Layer pool4
I0217 21:25:45.812535 15035 net.cpp:434] pool4 <- conv4_3_relu4_3_0_split_0
I0217 21:25:45.812548 15035 net.cpp:408] pool4 -> pool4
I0217 21:25:45.812616 15035 net.cpp:150] Setting up pool4
I0217 21:25:45.812628 15035 net.cpp:157] Top shape: 1 512 19 19 (184832)
I0217 21:25:45.812635 15035 net.cpp:165] Memory required for data: 218836672
I0217 21:25:45.812643 15035 layer_factory.hpp:77] Creating layer conv5_1
I0217 21:25:45.812661 15035 net.cpp:100] Creating Layer conv5_1
I0217 21:25:45.812670 15035 net.cpp:434] conv5_1 <- pool4
I0217 21:25:45.812683 15035 net.cpp:408] conv5_1 -> conv5_1
I0217 21:25:45.834275 15035 net.cpp:150] Setting up conv5_1
I0217 21:25:45.834307 15035 net.cpp:157] Top shape: 1 512 19 19 (184832)
I0217 21:25:45.834314 15035 net.cpp:165] Memory required for data: 219576000
I0217 21:25:45.834327 15035 layer_factory.hpp:77] Creating layer relu5_1
I0217 21:25:45.834343 15035 net.cpp:100] Creating Layer relu5_1
I0217 21:25:45.834352 15035 net.cpp:434] relu5_1 <- conv5_1
I0217 21:25:45.834365 15035 net.cpp:395] relu5_1 -> conv5_1 (in-place)
I0217 21:25:45.834617 15035 net.cpp:150] Setting up relu5_1
I0217 21:25:45.834633 15035 net.cpp:157] Top shape: 1 512 19 19 (184832)
I0217 21:25:45.834640 15035 net.cpp:165] Memory required for data: 220315328
I0217 21:25:45.834648 15035 layer_factory.hpp:77] Creating layer conv5_2
I0217 21:25:45.834674 15035 net.cpp:100] Creating Layer conv5_2
I0217 21:25:45.834687 15035 net.cpp:434] conv5_2 <- conv5_1
I0217 21:25:45.834700 15035 net.cpp:408] conv5_2 -> conv5_2
I0217 21:25:45.856017 15035 net.cpp:150] Setting up conv5_2
I0217 21:25:45.856053 15035 net.cpp:157] Top shape: 1 512 19 19 (184832)
I0217 21:25:45.856060 15035 net.cpp:165] Memory required for data: 221054656
I0217 21:25:45.856075 15035 layer_factory.hpp:77] Creating layer relu5_2
I0217 21:25:45.856092 15035 net.cpp:100] Creating Layer relu5_2
I0217 21:25:45.856101 15035 net.cpp:434] relu5_2 <- conv5_2
I0217 21:25:45.856113 15035 net.cpp:395] relu5_2 -> conv5_2 (in-place)
I0217 21:25:45.856349 15035 net.cpp:150] Setting up relu5_2
I0217 21:25:45.856366 15035 net.cpp:157] Top shape: 1 512 19 19 (184832)
I0217 21:25:45.856374 15035 net.cpp:165] Memory required for data: 221793984
I0217 21:25:45.856380 15035 layer_factory.hpp:77] Creating layer conv5_3
I0217 21:25:45.856401 15035 net.cpp:100] Creating Layer conv5_3
I0217 21:25:45.856412 15035 net.cpp:434] conv5_3 <- conv5_2
I0217 21:25:45.856427 15035 net.cpp:408] conv5_3 -> conv5_3
I0217 21:25:45.877909 15035 net.cpp:150] Setting up conv5_3
I0217 21:25:45.877950 15035 net.cpp:157] Top shape: 1 512 19 19 (184832)
I0217 21:25:45.877957 15035 net.cpp:165] Memory required for data: 222533312
I0217 21:25:45.877971 15035 layer_factory.hpp:77] Creating layer relu5_3
I0217 21:25:45.877997 15035 net.cpp:100] Creating Layer relu5_3
I0217 21:25:45.878007 15035 net.cpp:434] relu5_3 <- conv5_3
I0217 21:25:45.878017 15035 net.cpp:395] relu5_3 -> conv5_3 (in-place)
I0217 21:25:45.878409 15035 net.cpp:150] Setting up relu5_3
I0217 21:25:45.878428 15035 net.cpp:157] Top shape: 1 512 19 19 (184832)
I0217 21:25:45.878437 15035 net.cpp:165] Memory required for data: 223272640
I0217 21:25:45.878443 15035 layer_factory.hpp:77] Creating layer pool5
I0217 21:25:45.878456 15035 net.cpp:100] Creating Layer pool5
I0217 21:25:45.878463 15035 net.cpp:434] pool5 <- conv5_3
I0217 21:25:45.878474 15035 net.cpp:408] pool5 -> pool5
I0217 21:25:45.878561 15035 net.cpp:150] Setting up pool5
I0217 21:25:45.878576 15035 net.cpp:157] Top shape: 1 512 19 19 (184832)
I0217 21:25:45.878582 15035 net.cpp:165] Memory required for data: 224011968
I0217 21:25:45.878588 15035 layer_factory.hpp:77] Creating layer fc6
I0217 21:25:45.878609 15035 net.cpp:100] Creating Layer fc6
I0217 21:25:45.878621 15035 net.cpp:434] fc6 <- pool5
I0217 21:25:45.878635 15035 net.cpp:408] fc6 -> fc6
I0217 21:25:45.919252 15035 net.cpp:150] Setting up fc6
I0217 21:25:45.919286 15035 net.cpp:157] Top shape: 1 1024 19 19 (369664)
I0217 21:25:45.919293 15035 net.cpp:165] Memory required for data: 225490624
I0217 21:25:45.919337 15035 layer_factory.hpp:77] Creating layer relu6
I0217 21:25:45.919358 15035 net.cpp:100] Creating Layer relu6
I0217 21:25:45.919368 15035 net.cpp:434] relu6 <- fc6
I0217 21:25:45.919380 15035 net.cpp:395] relu6 -> fc6 (in-place)
I0217 21:25:45.919648 15035 net.cpp:150] Setting up relu6
I0217 21:25:45.919663 15035 net.cpp:157] Top shape: 1 1024 19 19 (369664)
I0217 21:25:45.919670 15035 net.cpp:165] Memory required for data: 226969280
I0217 21:25:45.919677 15035 layer_factory.hpp:77] Creating layer fc7
I0217 21:25:45.919701 15035 net.cpp:100] Creating Layer fc7
I0217 21:25:45.919711 15035 net.cpp:434] fc7 <- fc6
I0217 21:25:45.919724 15035 net.cpp:408] fc7 -> fc7
I0217 21:25:45.930054 15035 net.cpp:150] Setting up fc7
I0217 21:25:45.930084 15035 net.cpp:157] Top shape: 1 1024 19 19 (369664)
I0217 21:25:45.930091 15035 net.cpp:165] Memory required for data: 228447936
I0217 21:25:45.930104 15035 layer_factory.hpp:77] Creating layer relu7
I0217 21:25:45.930116 15035 net.cpp:100] Creating Layer relu7
I0217 21:25:45.930124 15035 net.cpp:434] relu7 <- fc7
I0217 21:25:45.930141 15035 net.cpp:395] relu7 -> fc7 (in-place)
I0217 21:25:45.930510 15035 net.cpp:150] Setting up relu7
I0217 21:25:45.930532 15035 net.cpp:157] Top shape: 1 1024 19 19 (369664)
I0217 21:25:45.930541 15035 net.cpp:165] Memory required for data: 229926592
I0217 21:25:45.930548 15035 layer_factory.hpp:77] Creating layer fc7_relu7_0_split
I0217 21:25:45.930559 15035 net.cpp:100] Creating Layer fc7_relu7_0_split
I0217 21:25:45.930567 15035 net.cpp:434] fc7_relu7_0_split <- fc7
I0217 21:25:45.930582 15035 net.cpp:408] fc7_relu7_0_split -> fc7_relu7_0_split_0
I0217 21:25:45.930595 15035 net.cpp:408] fc7_relu7_0_split -> fc7_relu7_0_split_1
I0217 21:25:45.930619 15035 net.cpp:408] fc7_relu7_0_split -> fc7_relu7_0_split_2
I0217 21:25:45.930634 15035 net.cpp:408] fc7_relu7_0_split -> fc7_relu7_0_split_3
I0217 21:25:45.930739 15035 net.cpp:150] Setting up fc7_relu7_0_split
I0217 21:25:45.930752 15035 net.cpp:157] Top shape: 1 1024 19 19 (369664)
I0217 21:25:45.930764 15035 net.cpp:157] Top shape: 1 1024 19 19 (369664)
I0217 21:25:45.930773 15035 net.cpp:157] Top shape: 1 1024 19 19 (369664)
I0217 21:25:45.930781 15035 net.cpp:157] Top shape: 1 1024 19 19 (369664)
I0217 21:25:45.930788 15035 net.cpp:165] Memory required for data: 235841216
I0217 21:25:45.930794 15035 layer_factory.hpp:77] Creating layer conv6_1
I0217 21:25:45.930812 15035 net.cpp:100] Creating Layer conv6_1
I0217 21:25:45.930824 15035 net.cpp:434] conv6_1 <- fc7_relu7_0_split_0
I0217 21:25:45.930840 15035 net.cpp:408] conv6_1 -> conv6_1
I0217 21:25:45.934304 15035 net.cpp:150] Setting up conv6_1
I0217 21:25:45.934325 15035 net.cpp:157] Top shape: 1 256 19 19 (92416)
I0217 21:25:45.934334 15035 net.cpp:165] Memory required for data: 236210880
I0217 21:25:45.934345 15035 layer_factory.hpp:77] Creating layer conv6_1_relu
I0217 21:25:45.934356 15035 net.cpp:100] Creating Layer conv6_1_relu
I0217 21:25:45.934365 15035 net.cpp:434] conv6_1_relu <- conv6_1
I0217 21:25:45.934375 15035 net.cpp:395] conv6_1_relu -> conv6_1 (in-place)
I0217 21:25:45.934738 15035 net.cpp:150] Setting up conv6_1_relu
I0217 21:25:45.934756 15035 net.cpp:157] Top shape: 1 256 19 19 (92416)
I0217 21:25:45.934762 15035 net.cpp:165] Memory required for data: 236580544
I0217 21:25:45.934770 15035 layer_factory.hpp:77] Creating layer conv6_2
I0217 21:25:45.934787 15035 net.cpp:100] Creating Layer conv6_2
I0217 21:25:45.934797 15035 net.cpp:434] conv6_2 <- conv6_1
I0217 21:25:45.934811 15035 net.cpp:408] conv6_2 -> conv6_2
I0217 21:25:45.946131 15035 net.cpp:150] Setting up conv6_2
I0217 21:25:45.946164 15035 net.cpp:157] Top shape: 1 512 10 10 (51200)
I0217 21:25:45.946171 15035 net.cpp:165] Memory required for data: 236785344
I0217 21:25:45.946197 15035 layer_factory.hpp:77] Creating layer conv6_2_relu
I0217 21:25:45.946215 15035 net.cpp:100] Creating Layer conv6_2_relu
I0217 21:25:45.946225 15035 net.cpp:434] conv6_2_relu <- conv6_2
I0217 21:25:45.946238 15035 net.cpp:395] conv6_2_relu -> conv6_2 (in-place)
I0217 21:25:45.946478 15035 net.cpp:150] Setting up conv6_2_relu
I0217 21:25:45.946493 15035 net.cpp:157] Top shape: 1 512 10 10 (51200)
I0217 21:25:45.946501 15035 net.cpp:165] Memory required for data: 236990144
I0217 21:25:45.946507 15035 layer_factory.hpp:77] Creating layer conv6_2_conv6_2_relu_0_split
I0217 21:25:45.946522 15035 net.cpp:100] Creating Layer conv6_2_conv6_2_relu_0_split
I0217 21:25:45.946532 15035 net.cpp:434] conv6_2_conv6_2_relu_0_split <- conv6_2
I0217 21:25:45.946544 15035 net.cpp:408] conv6_2_conv6_2_relu_0_split -> conv6_2_conv6_2_relu_0_split_0
I0217 21:25:45.946558 15035 net.cpp:408] conv6_2_conv6_2_relu_0_split -> conv6_2_conv6_2_relu_0_split_1
I0217 21:25:45.946570 15035 net.cpp:408] conv6_2_conv6_2_relu_0_split -> conv6_2_conv6_2_relu_0_split_2
I0217 21:25:45.946588 15035 net.cpp:408] conv6_2_conv6_2_relu_0_split -> conv6_2_conv6_2_relu_0_split_3
I0217 21:25:45.946704 15035 net.cpp:150] Setting up conv6_2_conv6_2_relu_0_split
I0217 21:25:45.946718 15035 net.cpp:157] Top shape: 1 512 10 10 (51200)
I0217 21:25:45.946727 15035 net.cpp:157] Top shape: 1 512 10 10 (51200)
I0217 21:25:45.946734 15035 net.cpp:157] Top shape: 1 512 10 10 (51200)
I0217 21:25:45.946743 15035 net.cpp:157] Top shape: 1 512 10 10 (51200)
I0217 21:25:45.946748 15035 net.cpp:165] Memory required for data: 237809344
I0217 21:25:45.946755 15035 layer_factory.hpp:77] Creating layer conv7_1
I0217 21:25:45.946776 15035 net.cpp:100] Creating Layer conv7_1
I0217 21:25:45.946786 15035 net.cpp:434] conv7_1 <- conv6_2_conv6_2_relu_0_split_0
I0217 21:25:45.946799 15035 net.cpp:408] conv7_1 -> conv7_1
I0217 21:25:45.948981 15035 net.cpp:150] Setting up conv7_1
I0217 21:25:45.949002 15035 net.cpp:157] Top shape: 1 128 10 10 (12800)
I0217 21:25:45.949009 15035 net.cpp:165] Memory required for data: 237860544
I0217 21:25:45.949021 15035 layer_factory.hpp:77] Creating layer conv7_1_relu
I0217 21:25:45.949033 15035 net.cpp:100] Creating Layer conv7_1_relu
I0217 21:25:45.949040 15035 net.cpp:434] conv7_1_relu <- conv7_1
I0217 21:25:45.949051 15035 net.cpp:395] conv7_1_relu -> conv7_1 (in-place)
I0217 21:25:45.949412 15035 net.cpp:150] Setting up conv7_1_relu
I0217 21:25:45.949429 15035 net.cpp:157] Top shape: 1 128 10 10 (12800)
I0217 21:25:45.949436 15035 net.cpp:165] Memory required for data: 237911744
I0217 21:25:45.949443 15035 layer_factory.hpp:77] Creating layer conv7_2
I0217 21:25:45.949461 15035 net.cpp:100] Creating Layer conv7_2
I0217 21:25:45.949470 15035 net.cpp:434] conv7_2 <- conv7_1
I0217 21:25:45.949486 15035 net.cpp:408] conv7_2 -> conv7_2
I0217 21:25:45.953222 15035 net.cpp:150] Setting up conv7_2
I0217 21:25:45.953241 15035 net.cpp:157] Top shape: 1 256 5 5 (6400)
I0217 21:25:45.953249 15035 net.cpp:165] Memory required for data: 237937344
I0217 21:25:45.953261 15035 layer_factory.hpp:77] Creating layer conv7_2_relu
I0217 21:25:45.953274 15035 net.cpp:100] Creating Layer conv7_2_relu
I0217 21:25:45.953284 15035 net.cpp:434] conv7_2_relu <- conv7_2
I0217 21:25:45.953295 15035 net.cpp:395] conv7_2_relu -> conv7_2 (in-place)
I0217 21:25:45.953656 15035 net.cpp:150] Setting up conv7_2_relu
I0217 21:25:45.953675 15035 net.cpp:157] Top shape: 1 256 5 5 (6400)
I0217 21:25:45.953683 15035 net.cpp:165] Memory required for data: 237962944
I0217 21:25:45.953691 15035 layer_factory.hpp:77] Creating layer conv7_2_conv7_2_relu_0_split
I0217 21:25:45.953701 15035 net.cpp:100] Creating Layer conv7_2_conv7_2_relu_0_split
I0217 21:25:45.953708 15035 net.cpp:434] conv7_2_conv7_2_relu_0_split <- conv7_2
I0217 21:25:45.953722 15035 net.cpp:408] conv7_2_conv7_2_relu_0_split -> conv7_2_conv7_2_relu_0_split_0
I0217 21:25:45.953735 15035 net.cpp:408] conv7_2_conv7_2_relu_0_split -> conv7_2_conv7_2_relu_0_split_1
I0217 21:25:45.953753 15035 net.cpp:408] conv7_2_conv7_2_relu_0_split -> conv7_2_conv7_2_relu_0_split_2
I0217 21:25:45.953769 15035 net.cpp:408] conv7_2_conv7_2_relu_0_split -> conv7_2_conv7_2_relu_0_split_3
I0217 21:25:45.953883 15035 net.cpp:150] Setting up conv7_2_conv7_2_relu_0_split
I0217 21:25:45.953898 15035 net.cpp:157] Top shape: 1 256 5 5 (6400)
I0217 21:25:45.953927 15035 net.cpp:157] Top shape: 1 256 5 5 (6400)
I0217 21:25:45.953939 15035 net.cpp:157] Top shape: 1 256 5 5 (6400)
I0217 21:25:45.953948 15035 net.cpp:157] Top shape: 1 256 5 5 (6400)
I0217 21:25:45.953954 15035 net.cpp:165] Memory required for data: 238065344
I0217 21:25:45.953961 15035 layer_factory.hpp:77] Creating layer conv8_1
I0217 21:25:45.953979 15035 net.cpp:100] Creating Layer conv8_1
I0217 21:25:45.953989 15035 net.cpp:434] conv8_1 <- conv7_2_conv7_2_relu_0_split_0
I0217 21:25:45.954002 15035 net.cpp:408] conv8_1 -> conv8_1
I0217 21:25:45.955507 15035 net.cpp:150] Setting up conv8_1
I0217 21:25:45.955526 15035 net.cpp:157] Top shape: 1 128 5 5 (3200)
I0217 21:25:45.955533 15035 net.cpp:165] Memory required for data: 238078144
I0217 21:25:45.955545 15035 layer_factory.hpp:77] Creating layer conv8_1_relu
I0217 21:25:45.955559 15035 net.cpp:100] Creating Layer conv8_1_relu
I0217 21:25:45.955567 15035 net.cpp:434] conv8_1_relu <- conv8_1
I0217 21:25:45.955577 15035 net.cpp:395] conv8_1_relu -> conv8_1 (in-place)
I0217 21:25:45.955790 15035 net.cpp:150] Setting up conv8_1_relu
I0217 21:25:45.955806 15035 net.cpp:157] Top shape: 1 128 5 5 (3200)
I0217 21:25:45.955811 15035 net.cpp:165] Memory required for data: 238090944
I0217 21:25:45.955818 15035 layer_factory.hpp:77] Creating layer conv8_2
I0217 21:25:45.955837 15035 net.cpp:100] Creating Layer conv8_2
I0217 21:25:45.955844 15035 net.cpp:434] conv8_2 <- conv8_1
I0217 21:25:45.955859 15035 net.cpp:408] conv8_2 -> conv8_2
I0217 21:25:45.961576 15035 net.cpp:150] Setting up conv8_2
I0217 21:25:45.961601 15035 net.cpp:157] Top shape: 1 256 3 3 (2304)
I0217 21:25:45.961609 15035 net.cpp:165] Memory required for data: 238100160
I0217 21:25:45.961622 15035 layer_factory.hpp:77] Creating layer conv8_2_relu
I0217 21:25:45.961633 15035 net.cpp:100] Creating Layer conv8_2_relu
I0217 21:25:45.961640 15035 net.cpp:434] conv8_2_relu <- conv8_2
I0217 21:25:45.961650 15035 net.cpp:395] conv8_2_relu -> conv8_2 (in-place)
I0217 21:25:45.962039 15035 net.cpp:150] Setting up conv8_2_relu
I0217 21:25:45.962057 15035 net.cpp:157] Top shape: 1 256 3 3 (2304)
I0217 21:25:45.962064 15035 net.cpp:165] Memory required for data: 238109376
I0217 21:25:45.962071 15035 layer_factory.hpp:77] Creating layer conv8_2_conv8_2_relu_0_split
I0217 21:25:45.962082 15035 net.cpp:100] Creating Layer conv8_2_conv8_2_relu_0_split
I0217 21:25:45.962090 15035 net.cpp:434] conv8_2_conv8_2_relu_0_split <- conv8_2
I0217 21:25:45.962103 15035 net.cpp:408] conv8_2_conv8_2_relu_0_split -> conv8_2_conv8_2_relu_0_split_0
I0217 21:25:45.962117 15035 net.cpp:408] conv8_2_conv8_2_relu_0_split -> conv8_2_conv8_2_relu_0_split_1
I0217 21:25:45.962131 15035 net.cpp:408] conv8_2_conv8_2_relu_0_split -> conv8_2_conv8_2_relu_0_split_2
I0217 21:25:45.962147 15035 net.cpp:408] conv8_2_conv8_2_relu_0_split -> conv8_2_conv8_2_relu_0_split_3
I0217 21:25:45.962267 15035 net.cpp:150] Setting up conv8_2_conv8_2_relu_0_split
I0217 21:25:45.962281 15035 net.cpp:157] Top shape: 1 256 3 3 (2304)
I0217 21:25:45.962290 15035 net.cpp:157] Top shape: 1 256 3 3 (2304)
I0217 21:25:45.962297 15035 net.cpp:157] Top shape: 1 256 3 3 (2304)
I0217 21:25:45.962306 15035 net.cpp:157] Top shape: 1 256 3 3 (2304)
I0217 21:25:45.962311 15035 net.cpp:165] Memory required for data: 238146240
I0217 21:25:45.962318 15035 layer_factory.hpp:77] Creating layer conv9_1
I0217 21:25:45.962338 15035 net.cpp:100] Creating Layer conv9_1
I0217 21:25:45.962348 15035 net.cpp:434] conv9_1 <- conv8_2_conv8_2_relu_0_split_0
I0217 21:25:45.962362 15035 net.cpp:408] conv9_1 -> conv9_1
I0217 21:25:45.963747 15035 net.cpp:150] Setting up conv9_1
I0217 21:25:45.963764 15035 net.cpp:157] Top shape: 1 128 3 3 (1152)
I0217 21:25:45.963773 15035 net.cpp:165] Memory required for data: 238150848
I0217 21:25:45.963784 15035 layer_factory.hpp:77] Creating layer conv9_1_relu
I0217 21:25:45.963798 15035 net.cpp:100] Creating Layer conv9_1_relu
I0217 21:25:45.963807 15035 net.cpp:434] conv9_1_relu <- conv9_1
I0217 21:25:45.963817 15035 net.cpp:395] conv9_1_relu -> conv9_1 (in-place)
I0217 21:25:45.964195 15035 net.cpp:150] Setting up conv9_1_relu
I0217 21:25:45.964212 15035 net.cpp:157] Top shape: 1 128 3 3 (1152)
I0217 21:25:45.964220 15035 net.cpp:165] Memory required for data: 238155456
I0217 21:25:45.964226 15035 layer_factory.hpp:77] Creating layer conv9_2
I0217 21:25:45.964247 15035 net.cpp:100] Creating Layer conv9_2
I0217 21:25:45.964262 15035 net.cpp:434] conv9_2 <- conv9_1
I0217 21:25:45.964275 15035 net.cpp:408] conv9_2 -> conv9_2
I0217 21:25:45.968166 15035 net.cpp:150] Setting up conv9_2
I0217 21:25:45.968185 15035 net.cpp:157] Top shape: 1 256 1 1 (256)
I0217 21:25:45.968194 15035 net.cpp:165] Memory required for data: 238156480
I0217 21:25:45.968206 15035 layer_factory.hpp:77] Creating layer conv9_2_relu
I0217 21:25:45.968217 15035 net.cpp:100] Creating Layer conv9_2_relu
I0217 21:25:45.968225 15035 net.cpp:434] conv9_2_relu <- conv9_2
I0217 21:25:45.968238 15035 net.cpp:395] conv9_2_relu -> conv9_2 (in-place)
I0217 21:25:45.968454 15035 net.cpp:150] Setting up conv9_2_relu
I0217 21:25:45.968472 15035 net.cpp:157] Top shape: 1 256 1 1 (256)
I0217 21:25:45.968478 15035 net.cpp:165] Memory required for data: 238157504
I0217 21:25:45.968485 15035 layer_factory.hpp:77] Creating layer conv9_2_conv9_2_relu_0_split
I0217 21:25:45.968495 15035 net.cpp:100] Creating Layer conv9_2_conv9_2_relu_0_split
I0217 21:25:45.968503 15035 net.cpp:434] conv9_2_conv9_2_relu_0_split <- conv9_2
I0217 21:25:45.968513 15035 net.cpp:408] conv9_2_conv9_2_relu_0_split -> conv9_2_conv9_2_relu_0_split_0
I0217 21:25:45.968526 15035 net.cpp:408] conv9_2_conv9_2_relu_0_split -> conv9_2_conv9_2_relu_0_split_1
I0217 21:25:45.968544 15035 net.cpp:408] conv9_2_conv9_2_relu_0_split -> conv9_2_conv9_2_relu_0_split_2
I0217 21:25:45.968639 15035 net.cpp:150] Setting up conv9_2_conv9_2_relu_0_split
I0217 21:25:45.968652 15035 net.cpp:157] Top shape: 1 256 1 1 (256)
I0217 21:25:45.968662 15035 net.cpp:157] Top shape: 1 256 1 1 (256)
I0217 21:25:45.968669 15035 net.cpp:157] Top shape: 1 256 1 1 (256)
I0217 21:25:45.968675 15035 net.cpp:165] Memory required for data: 238160576
I0217 21:25:45.968683 15035 layer_factory.hpp:77] Creating layer conv4_3_norm
I0217 21:25:45.968696 15035 net.cpp:100] Creating Layer conv4_3_norm
I0217 21:25:45.968711 15035 net.cpp:434] conv4_3_norm <- conv4_3_relu4_3_0_split_1
I0217 21:25:45.968722 15035 net.cpp:408] conv4_3_norm -> conv4_3_norm
I0217 21:25:45.968967 15035 net.cpp:150] Setting up conv4_3_norm
I0217 21:25:45.968981 15035 net.cpp:157] Top shape: 1 512 38 38 (739328)
I0217 21:25:45.968986 15035 net.cpp:165] Memory required for data: 241117888
I0217 21:25:45.968997 15035 layer_factory.hpp:77] Creating layer conv4_3_norm_conv4_3_norm_0_split
I0217 21:25:45.969007 15035 net.cpp:100] Creating Layer conv4_3_norm_conv4_3_norm_0_split
I0217 21:25:45.969013 15035 net.cpp:434] conv4_3_norm_conv4_3_norm_0_split <- conv4_3_norm
I0217 21:25:45.969023 15035 net.cpp:408] conv4_3_norm_conv4_3_norm_0_split -> conv4_3_norm_conv4_3_norm_0_split_0
I0217 21:25:45.969034 15035 net.cpp:408] conv4_3_norm_conv4_3_norm_0_split -> conv4_3_norm_conv4_3_norm_0_split_1
I0217 21:25:45.969046 15035 net.cpp:408] conv4_3_norm_conv4_3_norm_0_split -> conv4_3_norm_conv4_3_norm_0_split_2
I0217 21:25:45.969130 15035 net.cpp:150] Setting up conv4_3_norm_conv4_3_norm_0_split
I0217 21:25:45.969142 15035 net.cpp:157] Top shape: 1 512 38 38 (739328)
I0217 21:25:45.969151 15035 net.cpp:157] Top shape: 1 512 38 38 (739328)
I0217 21:25:45.969158 15035 net.cpp:157] Top shape: 1 512 38 38 (739328)
I0217 21:25:45.969164 15035 net.cpp:165] Memory required for data: 249989824
I0217 21:25:45.969172 15035 layer_factory.hpp:77] Creating layer conv4_3_norm_mbox_loc
I0217 21:25:45.969187 15035 net.cpp:100] Creating Layer conv4_3_norm_mbox_loc
I0217 21:25:45.969193 15035 net.cpp:434] conv4_3_norm_mbox_loc <- conv4_3_norm_conv4_3_norm_0_split_0
I0217 21:25:45.969208 15035 net.cpp:408] conv4_3_norm_mbox_loc -> conv4_3_norm_mbox_loc
I0217 21:25:45.971063 15035 net.cpp:150] Setting up conv4_3_norm_mbox_loc
I0217 21:25:45.971097 15035 net.cpp:157] Top shape: 1 16 38 38 (23104)
I0217 21:25:45.971107 15035 net.cpp:165] Memory required for data: 250082240
I0217 21:25:45.971118 15035 layer_factory.hpp:77] Creating layer conv4_3_norm_mbox_loc_perm
I0217 21:25:45.971132 15035 net.cpp:100] Creating Layer conv4_3_norm_mbox_loc_perm
I0217 21:25:45.971139 15035 net.cpp:434] conv4_3_norm_mbox_loc_perm <- conv4_3_norm_mbox_loc
I0217 21:25:45.971153 15035 net.cpp:408] conv4_3_norm_mbox_loc_perm -> conv4_3_norm_mbox_loc_perm
I0217 21:25:45.971323 15035 net.cpp:150] Setting up conv4_3_norm_mbox_loc_perm
I0217 21:25:45.971338 15035 net.cpp:157] Top shape: 1 38 38 16 (23104)
I0217 21:25:45.971343 15035 net.cpp:165] Memory required for data: 250174656
I0217 21:25:45.971350 15035 layer_factory.hpp:77] Creating layer conv4_3_norm_mbox_loc_flat
I0217 21:25:45.971364 15035 net.cpp:100] Creating Layer conv4_3_norm_mbox_loc_flat
I0217 21:25:45.971372 15035 net.cpp:434] conv4_3_norm_mbox_loc_flat <- conv4_3_norm_mbox_loc_perm
I0217 21:25:45.971382 15035 net.cpp:408] conv4_3_norm_mbox_loc_flat -> conv4_3_norm_mbox_loc_flat
I0217 21:25:45.971439 15035 net.cpp:150] Setting up conv4_3_norm_mbox_loc_flat
I0217 21:25:45.971452 15035 net.cpp:157] Top shape: 1 23104 (23104)
I0217 21:25:45.971458 15035 net.cpp:165] Memory required for data: 250267072
I0217 21:25:45.971465 15035 layer_factory.hpp:77] Creating layer conv4_3_norm_mbox_conf
I0217 21:25:45.971493 15035 net.cpp:100] Creating Layer conv4_3_norm_mbox_conf
I0217 21:25:45.971500 15035 net.cpp:434] conv4_3_norm_mbox_conf <- conv4_3_norm_conv4_3_norm_0_split_1
I0217 21:25:45.971514 15035 net.cpp:408] conv4_3_norm_mbox_conf -> conv4_3_norm_mbox_conf
I0217 21:25:45.976367 15035 net.cpp:150] Setting up conv4_3_norm_mbox_conf
I0217 21:25:45.976388 15035 net.cpp:157] Top shape: 1 88 38 38 (127072)
I0217 21:25:45.976397 15035 net.cpp:165] Memory required for data: 250775360
I0217 21:25:45.976409 15035 layer_factory.hpp:77] Creating layer conv4_3_norm_mbox_conf_perm
I0217 21:25:45.976420 15035 net.cpp:100] Creating Layer conv4_3_norm_mbox_conf_perm
I0217 21:25:45.976428 15035 net.cpp:434] conv4_3_norm_mbox_conf_perm <- conv4_3_norm_mbox_conf
I0217 21:25:45.976439 15035 net.cpp:408] conv4_3_norm_mbox_conf_perm -> conv4_3_norm_mbox_conf_perm
I0217 21:25:45.976616 15035 net.cpp:150] Setting up conv4_3_norm_mbox_conf_perm
I0217 21:25:45.976630 15035 net.cpp:157] Top shape: 1 38 38 88 (127072)
I0217 21:25:45.976637 15035 net.cpp:165] Memory required for data: 251283648
I0217 21:25:45.976644 15035 layer_factory.hpp:77] Creating layer conv4_3_norm_mbox_conf_flat
I0217 21:25:45.976663 15035 net.cpp:100] Creating Layer conv4_3_norm_mbox_conf_flat
I0217 21:25:45.976671 15035 net.cpp:434] conv4_3_norm_mbox_conf_flat <- conv4_3_norm_mbox_conf_perm
I0217 21:25:45.976681 15035 net.cpp:408] conv4_3_norm_mbox_conf_flat -> conv4_3_norm_mbox_conf_flat
I0217 21:25:45.976732 15035 net.cpp:150] Setting up conv4_3_norm_mbox_conf_flat
I0217 21:25:45.976743 15035 net.cpp:157] Top shape: 1 127072 (127072)
I0217 21:25:45.976750 15035 net.cpp:165] Memory required for data: 251791936
I0217 21:25:45.976758 15035 layer_factory.hpp:77] Creating layer conv4_3_norm_mbox_priorbox
I0217 21:25:45.976769 15035 net.cpp:100] Creating Layer conv4_3_norm_mbox_priorbox
I0217 21:25:45.976778 15035 net.cpp:434] conv4_3_norm_mbox_priorbox <- conv4_3_norm_conv4_3_norm_0_split_2
I0217 21:25:45.976786 15035 net.cpp:434] conv4_3_norm_mbox_priorbox <- data_data_0_split_1
I0217 21:25:45.976800 15035 net.cpp:408] conv4_3_norm_mbox_priorbox -> conv4_3_norm_mbox_priorbox
I0217 21:25:45.976860 15035 net.cpp:150] Setting up conv4_3_norm_mbox_priorbox
I0217 21:25:45.976871 15035 net.cpp:157] Top shape: 1 2 23104 (46208)
I0217 21:25:45.976878 15035 net.cpp:165] Memory required for data: 251976768
I0217 21:25:45.976884 15035 layer_factory.hpp:77] Creating layer fc7_mbox_loc
I0217 21:25:45.976903 15035 net.cpp:100] Creating Layer fc7_mbox_loc
I0217 21:25:45.976913 15035 net.cpp:434] fc7_mbox_loc <- fc7_relu7_0_split_1
I0217 21:25:45.976928 15035 net.cpp:408] fc7_mbox_loc -> fc7_mbox_loc
I0217 21:25:45.980381 15035 net.cpp:150] Setting up fc7_mbox_loc
I0217 21:25:45.980402 15035 net.cpp:157] Top shape: 1 24 19 19 (8664)
I0217 21:25:45.980410 15035 net.cpp:165] Memory required for data: 252011424
I0217 21:25:45.980422 15035 layer_factory.hpp:77] Creating layer fc7_mbox_loc_perm
I0217 21:25:45.980434 15035 net.cpp:100] Creating Layer fc7_mbox_loc_perm
I0217 21:25:45.980443 15035 net.cpp:434] fc7_mbox_loc_perm <- fc7_mbox_loc
I0217 21:25:45.980458 15035 net.cpp:408] fc7_mbox_loc_perm -> fc7_mbox_loc_perm
I0217 21:25:45.980633 15035 net.cpp:150] Setting up fc7_mbox_loc_perm
I0217 21:25:45.980646 15035 net.cpp:157] Top shape: 1 19 19 24 (8664)
I0217 21:25:45.980654 15035 net.cpp:165] Memory required for data: 252046080
I0217 21:25:45.980660 15035 layer_factory.hpp:77] Creating layer fc7_mbox_loc_flat
I0217 21:25:45.980672 15035 net.cpp:100] Creating Layer fc7_mbox_loc_flat
I0217 21:25:45.980680 15035 net.cpp:434] fc7_mbox_loc_flat <- fc7_mbox_loc_perm
I0217 21:25:45.980690 15035 net.cpp:408] fc7_mbox_loc_flat -> fc7_mbox_loc_flat
I0217 21:25:45.980741 15035 net.cpp:150] Setting up fc7_mbox_loc_flat
I0217 21:25:45.980752 15035 net.cpp:157] Top shape: 1 8664 (8664)
I0217 21:25:45.980759 15035 net.cpp:165] Memory required for data: 252080736
I0217 21:25:45.980765 15035 layer_factory.hpp:77] Creating layer fc7_mbox_conf
I0217 21:25:45.980784 15035 net.cpp:100] Creating Layer fc7_mbox_conf
I0217 21:25:45.980795 15035 net.cpp:434] fc7_mbox_conf <- fc7_relu7_0_split_2
I0217 21:25:45.980808 15035 net.cpp:408] fc7_mbox_conf -> fc7_mbox_conf
I0217 21:25:45.992322 15035 net.cpp:150] Setting up fc7_mbox_conf
I0217 21:25:45.992357 15035 net.cpp:157] Top shape: 1 132 19 19 (47652)
I0217 21:25:45.992363 15035 net.cpp:165] Memory required for data: 252271344
I0217 21:25:45.992377 15035 layer_factory.hpp:77] Creating layer fc7_mbox_conf_perm
I0217 21:25:45.992393 15035 net.cpp:100] Creating Layer fc7_mbox_conf_perm
I0217 21:25:45.992403 15035 net.cpp:434] fc7_mbox_conf_perm <- fc7_mbox_conf
I0217 21:25:45.992416 15035 net.cpp:408] fc7_mbox_conf_perm -> fc7_mbox_conf_perm
I0217 21:25:45.992594 15035 net.cpp:150] Setting up fc7_mbox_conf_perm
I0217 21:25:45.992609 15035 net.cpp:157] Top shape: 1 19 19 132 (47652)
I0217 21:25:45.992614 15035 net.cpp:165] Memory required for data: 252461952
I0217 21:25:45.992621 15035 layer_factory.hpp:77] Creating layer fc7_mbox_conf_flat
I0217 21:25:45.992632 15035 net.cpp:100] Creating Layer fc7_mbox_conf_flat
I0217 21:25:45.992640 15035 net.cpp:434] fc7_mbox_conf_flat <- fc7_mbox_conf_perm
I0217 21:25:45.992652 15035 net.cpp:408] fc7_mbox_conf_flat -> fc7_mbox_conf_flat
I0217 21:25:45.992703 15035 net.cpp:150] Setting up fc7_mbox_conf_flat
I0217 21:25:45.992715 15035 net.cpp:157] Top shape: 1 47652 (47652)
I0217 21:25:45.992722 15035 net.cpp:165] Memory required for data: 252652560
I0217 21:25:45.992728 15035 layer_factory.hpp:77] Creating layer fc7_mbox_priorbox
I0217 21:25:45.992740 15035 net.cpp:100] Creating Layer fc7_mbox_priorbox
I0217 21:25:45.992748 15035 net.cpp:434] fc7_mbox_priorbox <- fc7_relu7_0_split_3
I0217 21:25:45.992758 15035 net.cpp:434] fc7_mbox_priorbox <- data_data_0_split_2
I0217 21:25:45.992771 15035 net.cpp:408] fc7_mbox_priorbox -> fc7_mbox_priorbox
I0217 21:25:45.992827 15035 net.cpp:150] Setting up fc7_mbox_priorbox
I0217 21:25:45.992841 15035 net.cpp:157] Top shape: 1 2 8664 (17328)
I0217 21:25:45.992847 15035 net.cpp:165] Memory required for data: 252721872
I0217 21:25:45.992853 15035 layer_factory.hpp:77] Creating layer conv6_2_mbox_loc
I0217 21:25:45.992873 15035 net.cpp:100] Creating Layer conv6_2_mbox_loc
I0217 21:25:45.992884 15035 net.cpp:434] conv6_2_mbox_loc <- conv6_2_conv6_2_relu_0_split_1
I0217 21:25:45.992899 15035 net.cpp:408] conv6_2_mbox_loc -> conv6_2_mbox_loc
I0217 21:25:45.995477 15035 net.cpp:150] Setting up conv6_2_mbox_loc
I0217 21:25:45.995501 15035 net.cpp:157] Top shape: 1 24 10 10 (2400)
I0217 21:25:45.995508 15035 net.cpp:165] Memory required for data: 252731472
I0217 21:25:45.995520 15035 layer_factory.hpp:77] Creating layer conv6_2_mbox_loc_perm
I0217 21:25:45.995559 15035 net.cpp:100] Creating Layer conv6_2_mbox_loc_perm
I0217 21:25:45.995573 15035 net.cpp:434] conv6_2_mbox_loc_perm <- conv6_2_mbox_loc
I0217 21:25:45.995584 15035 net.cpp:408] conv6_2_mbox_loc_perm -> conv6_2_mbox_loc_perm
I0217 21:25:45.995759 15035 net.cpp:150] Setting up conv6_2_mbox_loc_perm
I0217 21:25:45.995771 15035 net.cpp:157] Top shape: 1 10 10 24 (2400)
I0217 21:25:45.995777 15035 net.cpp:165] Memory required for data: 252741072
I0217 21:25:45.995784 15035 layer_factory.hpp:77] Creating layer conv6_2_mbox_loc_flat
I0217 21:25:45.995797 15035 net.cpp:100] Creating Layer conv6_2_mbox_loc_flat
I0217 21:25:45.995805 15035 net.cpp:434] conv6_2_mbox_loc_flat <- conv6_2_mbox_loc_perm
I0217 21:25:45.995815 15035 net.cpp:408] conv6_2_mbox_loc_flat -> conv6_2_mbox_loc_flat
I0217 21:25:45.995865 15035 net.cpp:150] Setting up conv6_2_mbox_loc_flat
I0217 21:25:45.995877 15035 net.cpp:157] Top shape: 1 2400 (2400)
I0217 21:25:45.995884 15035 net.cpp:165] Memory required for data: 252750672
I0217 21:25:45.995890 15035 layer_factory.hpp:77] Creating layer conv6_2_mbox_conf
I0217 21:25:45.995908 15035 net.cpp:100] Creating Layer conv6_2_mbox_conf
I0217 21:25:45.995918 15035 net.cpp:434] conv6_2_mbox_conf <- conv6_2_conv6_2_relu_0_split_2
I0217 21:25:45.995934 15035 net.cpp:408] conv6_2_mbox_conf -> conv6_2_mbox_conf
I0217 21:25:46.002683 15035 net.cpp:150] Setting up conv6_2_mbox_conf
I0217 21:25:46.002714 15035 net.cpp:157] Top shape: 1 132 10 10 (13200)
I0217 21:25:46.002722 15035 net.cpp:165] Memory required for data: 252803472
I0217 21:25:46.002737 15035 layer_factory.hpp:77] Creating layer conv6_2_mbox_conf_perm
I0217 21:25:46.002750 15035 net.cpp:100] Creating Layer conv6_2_mbox_conf_perm
I0217 21:25:46.002760 15035 net.cpp:434] conv6_2_mbox_conf_perm <- conv6_2_mbox_conf
I0217 21:25:46.002774 15035 net.cpp:408] conv6_2_mbox_conf_perm -> conv6_2_mbox_conf_perm
I0217 21:25:46.002954 15035 net.cpp:150] Setting up conv6_2_mbox_conf_perm
I0217 21:25:46.002969 15035 net.cpp:157] Top shape: 1 10 10 132 (13200)
I0217 21:25:46.002975 15035 net.cpp:165] Memory required for data: 252856272
I0217 21:25:46.002981 15035 layer_factory.hpp:77] Creating layer conv6_2_mbox_conf_flat
I0217 21:25:46.002993 15035 net.cpp:100] Creating Layer conv6_2_mbox_conf_flat
I0217 21:25:46.003001 15035 net.cpp:434] conv6_2_mbox_conf_flat <- conv6_2_mbox_conf_perm
I0217 21:25:46.003013 15035 net.cpp:408] conv6_2_mbox_conf_flat -> conv6_2_mbox_conf_flat
I0217 21:25:46.003065 15035 net.cpp:150] Setting up conv6_2_mbox_conf_flat
I0217 21:25:46.003077 15035 net.cpp:157] Top shape: 1 13200 (13200)
I0217 21:25:46.003084 15035 net.cpp:165] Memory required for data: 252909072
I0217 21:25:46.003092 15035 layer_factory.hpp:77] Creating layer conv6_2_mbox_priorbox
I0217 21:25:46.003104 15035 net.cpp:100] Creating Layer conv6_2_mbox_priorbox
I0217 21:25:46.003113 15035 net.cpp:434] conv6_2_mbox_priorbox <- conv6_2_conv6_2_relu_0_split_3
I0217 21:25:46.003123 15035 net.cpp:434] conv6_2_mbox_priorbox <- data_data_0_split_3
I0217 21:25:46.003136 15035 net.cpp:408] conv6_2_mbox_priorbox -> conv6_2_mbox_priorbox
I0217 21:25:46.003197 15035 net.cpp:150] Setting up conv6_2_mbox_priorbox
I0217 21:25:46.003209 15035 net.cpp:157] Top shape: 1 2 2400 (4800)
I0217 21:25:46.003216 15035 net.cpp:165] Memory required for data: 252928272
I0217 21:25:46.003223 15035 layer_factory.hpp:77] Creating layer conv7_2_mbox_loc
I0217 21:25:46.003243 15035 net.cpp:100] Creating Layer conv7_2_mbox_loc
I0217 21:25:46.003253 15035 net.cpp:434] conv7_2_mbox_loc <- conv7_2_conv7_2_relu_0_split_1
I0217 21:25:46.003268 15035 net.cpp:408] conv7_2_mbox_loc -> conv7_2_mbox_loc
I0217 21:25:46.005138 15035 net.cpp:150] Setting up conv7_2_mbox_loc
I0217 21:25:46.005157 15035 net.cpp:157] Top shape: 1 24 5 5 (600)
I0217 21:25:46.005164 15035 net.cpp:165] Memory required for data: 252930672
I0217 21:25:46.005177 15035 layer_factory.hpp:77] Creating layer conv7_2_mbox_loc_perm
I0217 21:25:46.005189 15035 net.cpp:100] Creating Layer conv7_2_mbox_loc_perm
I0217 21:25:46.005221 15035 net.cpp:434] conv7_2_mbox_loc_perm <- conv7_2_mbox_loc
I0217 21:25:46.005237 15035 net.cpp:408] conv7_2_mbox_loc_perm -> conv7_2_mbox_loc_perm
I0217 21:25:46.005419 15035 net.cpp:150] Setting up conv7_2_mbox_loc_perm
I0217 21:25:46.005432 15035 net.cpp:157] Top shape: 1 5 5 24 (600)
I0217 21:25:46.005439 15035 net.cpp:165] Memory required for data: 252933072
I0217 21:25:46.005445 15035 layer_factory.hpp:77] Creating layer conv7_2_mbox_loc_flat
I0217 21:25:46.005458 15035 net.cpp:100] Creating Layer conv7_2_mbox_loc_flat
I0217 21:25:46.005466 15035 net.cpp:434] conv7_2_mbox_loc_flat <- conv7_2_mbox_loc_perm
I0217 21:25:46.005478 15035 net.cpp:408] conv7_2_mbox_loc_flat -> conv7_2_mbox_loc_flat
I0217 21:25:46.005527 15035 net.cpp:150] Setting up conv7_2_mbox_loc_flat
I0217 21:25:46.005539 15035 net.cpp:157] Top shape: 1 600 (600)
I0217 21:25:46.005545 15035 net.cpp:165] Memory required for data: 252935472
I0217 21:25:46.005553 15035 layer_factory.hpp:77] Creating layer conv7_2_mbox_conf
I0217 21:25:46.005570 15035 net.cpp:100] Creating Layer conv7_2_mbox_conf
I0217 21:25:46.005580 15035 net.cpp:434] conv7_2_mbox_conf <- conv7_2_conv7_2_relu_0_split_2
I0217 21:25:46.005594 15035 net.cpp:408] conv7_2_mbox_conf -> conv7_2_mbox_conf
I0217 21:25:46.009634 15035 net.cpp:150] Setting up conv7_2_mbox_conf
I0217 21:25:46.009655 15035 net.cpp:157] Top shape: 1 132 5 5 (3300)
I0217 21:25:46.009662 15035 net.cpp:165] Memory required for data: 252948672
I0217 21:25:46.009675 15035 layer_factory.hpp:77] Creating layer conv7_2_mbox_conf_perm
I0217 21:25:46.009688 15035 net.cpp:100] Creating Layer conv7_2_mbox_conf_perm
I0217 21:25:46.009697 15035 net.cpp:434] conv7_2_mbox_conf_perm <- conv7_2_mbox_conf
I0217 21:25:46.009708 15035 net.cpp:408] conv7_2_mbox_conf_perm -> conv7_2_mbox_conf_perm
I0217 21:25:46.009887 15035 net.cpp:150] Setting up conv7_2_mbox_conf_perm
I0217 21:25:46.009902 15035 net.cpp:157] Top shape: 1 5 5 132 (3300)
I0217 21:25:46.009908 15035 net.cpp:165] Memory required for data: 252961872
I0217 21:25:46.009915 15035 layer_factory.hpp:77] Creating layer conv7_2_mbox_conf_flat
I0217 21:25:46.009925 15035 net.cpp:100] Creating Layer conv7_2_mbox_conf_flat
I0217 21:25:46.009933 15035 net.cpp:434] conv7_2_mbox_conf_flat <- conv7_2_mbox_conf_perm
I0217 21:25:46.009945 15035 net.cpp:408] conv7_2_mbox_conf_flat -> conv7_2_mbox_conf_flat
I0217 21:25:46.009995 15035 net.cpp:150] Setting up conv7_2_mbox_conf_flat
I0217 21:25:46.010009 15035 net.cpp:157] Top shape: 1 3300 (3300)
I0217 21:25:46.010015 15035 net.cpp:165] Memory required for data: 252975072
I0217 21:25:46.010021 15035 layer_factory.hpp:77] Creating layer conv7_2_mbox_priorbox
I0217 21:25:46.010035 15035 net.cpp:100] Creating Layer conv7_2_mbox_priorbox
I0217 21:25:46.010043 15035 net.cpp:434] conv7_2_mbox_priorbox <- conv7_2_conv7_2_relu_0_split_3
I0217 21:25:46.010053 15035 net.cpp:434] conv7_2_mbox_priorbox <- data_data_0_split_4
I0217 21:25:46.010066 15035 net.cpp:408] conv7_2_mbox_priorbox -> conv7_2_mbox_priorbox
I0217 21:25:46.010123 15035 net.cpp:150] Setting up conv7_2_mbox_priorbox
I0217 21:25:46.010134 15035 net.cpp:157] Top shape: 1 2 600 (1200)
I0217 21:25:46.010140 15035 net.cpp:165] Memory required for data: 252979872
I0217 21:25:46.010148 15035 layer_factory.hpp:77] Creating layer conv8_2_mbox_loc
I0217 21:25:46.010169 15035 net.cpp:100] Creating Layer conv8_2_mbox_loc
I0217 21:25:46.010179 15035 net.cpp:434] conv8_2_mbox_loc <- conv8_2_conv8_2_relu_0_split_1
I0217 21:25:46.010192 15035 net.cpp:408] conv8_2_mbox_loc -> conv8_2_mbox_loc
I0217 21:25:46.011667 15035 net.cpp:150] Setting up conv8_2_mbox_loc
I0217 21:25:46.011685 15035 net.cpp:157] Top shape: 1 16 3 3 (144)
I0217 21:25:46.011693 15035 net.cpp:165] Memory required for data: 252980448
I0217 21:25:46.011723 15035 layer_factory.hpp:77] Creating layer conv8_2_mbox_loc_perm
I0217 21:25:46.011740 15035 net.cpp:100] Creating Layer conv8_2_mbox_loc_perm
I0217 21:25:46.011750 15035 net.cpp:434] conv8_2_mbox_loc_perm <- conv8_2_mbox_loc
I0217 21:25:46.011762 15035 net.cpp:408] conv8_2_mbox_loc_perm -> conv8_2_mbox_loc_perm
I0217 21:25:46.011953 15035 net.cpp:150] Setting up conv8_2_mbox_loc_perm
I0217 21:25:46.011968 15035 net.cpp:157] Top shape: 1 3 3 16 (144)
I0217 21:25:46.011975 15035 net.cpp:165] Memory required for data: 252981024
I0217 21:25:46.011981 15035 layer_factory.hpp:77] Creating layer conv8_2_mbox_loc_flat
I0217 21:25:46.011992 15035 net.cpp:100] Creating Layer conv8_2_mbox_loc_flat
I0217 21:25:46.011999 15035 net.cpp:434] conv8_2_mbox_loc_flat <- conv8_2_mbox_loc_perm
I0217 21:25:46.012012 15035 net.cpp:408] conv8_2_mbox_loc_flat -> conv8_2_mbox_loc_flat
I0217 21:25:46.012061 15035 net.cpp:150] Setting up conv8_2_mbox_loc_flat
I0217 21:25:46.012073 15035 net.cpp:157] Top shape: 1 144 (144)
I0217 21:25:46.012079 15035 net.cpp:165] Memory required for data: 252981600
I0217 21:25:46.012086 15035 layer_factory.hpp:77] Creating layer conv8_2_mbox_conf
I0217 21:25:46.012106 15035 net.cpp:100] Creating Layer conv8_2_mbox_conf
I0217 21:25:46.012116 15035 net.cpp:434] conv8_2_mbox_conf <- conv8_2_conv8_2_relu_0_split_2
I0217 21:25:46.012128 15035 net.cpp:408] conv8_2_mbox_conf -> conv8_2_mbox_conf
I0217 21:25:46.015347 15035 net.cpp:150] Setting up conv8_2_mbox_conf
I0217 21:25:46.015367 15035 net.cpp:157] Top shape: 1 88 3 3 (792)
I0217 21:25:46.015374 15035 net.cpp:165] Memory required for data: 252984768
I0217 21:25:46.015386 15035 layer_factory.hpp:77] Creating layer conv8_2_mbox_conf_perm
I0217 21:25:46.015400 15035 net.cpp:100] Creating Layer conv8_2_mbox_conf_perm
I0217 21:25:46.015409 15035 net.cpp:434] conv8_2_mbox_conf_perm <- conv8_2_mbox_conf
I0217 21:25:46.015424 15035 net.cpp:408] conv8_2_mbox_conf_perm -> conv8_2_mbox_conf_perm
I0217 21:25:46.015601 15035 net.cpp:150] Setting up conv8_2_mbox_conf_perm
I0217 21:25:46.015616 15035 net.cpp:157] Top shape: 1 3 3 88 (792)
I0217 21:25:46.015624 15035 net.cpp:165] Memory required for data: 252987936
I0217 21:25:46.015630 15035 layer_factory.hpp:77] Creating layer conv8_2_mbox_conf_flat
I0217 21:25:46.015640 15035 net.cpp:100] Creating Layer conv8_2_mbox_conf_flat
I0217 21:25:46.015648 15035 net.cpp:434] conv8_2_mbox_conf_flat <- conv8_2_mbox_conf_perm
I0217 21:25:46.015658 15035 net.cpp:408] conv8_2_mbox_conf_flat -> conv8_2_mbox_conf_flat
I0217 21:25:46.015710 15035 net.cpp:150] Setting up conv8_2_mbox_conf_flat
I0217 21:25:46.015722 15035 net.cpp:157] Top shape: 1 792 (792)
I0217 21:25:46.015729 15035 net.cpp:165] Memory required for data: 252991104
I0217 21:25:46.015735 15035 layer_factory.hpp:77] Creating layer conv8_2_mbox_priorbox
I0217 21:25:46.015750 15035 net.cpp:100] Creating Layer conv8_2_mbox_priorbox
I0217 21:25:46.015758 15035 net.cpp:434] conv8_2_mbox_priorbox <- conv8_2_conv8_2_relu_0_split_3
I0217 21:25:46.015768 15035 net.cpp:434] conv8_2_mbox_priorbox <- data_data_0_split_5
I0217 21:25:46.015779 15035 net.cpp:408] conv8_2_mbox_priorbox -> conv8_2_mbox_priorbox
I0217 21:25:46.015831 15035 net.cpp:150] Setting up conv8_2_mbox_priorbox
I0217 21:25:46.015843 15035 net.cpp:157] Top shape: 1 2 144 (288)
I0217 21:25:46.015851 15035 net.cpp:165] Memory required for data: 252992256
I0217 21:25:46.015856 15035 layer_factory.hpp:77] Creating layer conv9_2_mbox_loc
I0217 21:25:46.015874 15035 net.cpp:100] Creating Layer conv9_2_mbox_loc
I0217 21:25:46.015884 15035 net.cpp:434] conv9_2_mbox_loc <- conv9_2_conv9_2_relu_0_split_0
I0217 21:25:46.015899 15035 net.cpp:408] conv9_2_mbox_loc -> conv9_2_mbox_loc
I0217 21:25:46.017489 15035 net.cpp:150] Setting up conv9_2_mbox_loc
I0217 21:25:46.017509 15035 net.cpp:157] Top shape: 1 16 1 1 (16)
I0217 21:25:46.017518 15035 net.cpp:165] Memory required for data: 252992320
I0217 21:25:46.017529 15035 layer_factory.hpp:77] Creating layer conv9_2_mbox_loc_perm
I0217 21:25:46.017541 15035 net.cpp:100] Creating Layer conv9_2_mbox_loc_perm
I0217 21:25:46.017549 15035 net.cpp:434] conv9_2_mbox_loc_perm <- conv9_2_mbox_loc
I0217 21:25:46.017561 15035 net.cpp:408] conv9_2_mbox_loc_perm -> conv9_2_mbox_loc_perm
I0217 21:25:46.017734 15035 net.cpp:150] Setting up conv9_2_mbox_loc_perm
I0217 21:25:46.017756 15035 net.cpp:157] Top shape: 1 1 1 16 (16)
I0217 21:25:46.017765 15035 net.cpp:165] Memory required for data: 252992384
I0217 21:25:46.017771 15035 layer_factory.hpp:77] Creating layer conv9_2_mbox_loc_flat
I0217 21:25:46.017784 15035 net.cpp:100] Creating Layer conv9_2_mbox_loc_flat
I0217 21:25:46.017792 15035 net.cpp:434] conv9_2_mbox_loc_flat <- conv9_2_mbox_loc_perm
I0217 21:25:46.017802 15035 net.cpp:408] conv9_2_mbox_loc_flat -> conv9_2_mbox_loc_flat
I0217 21:25:46.017858 15035 net.cpp:150] Setting up conv9_2_mbox_loc_flat
I0217 21:25:46.017869 15035 net.cpp:157] Top shape: 1 16 (16)
I0217 21:25:46.017876 15035 net.cpp:165] Memory required for data: 252992448
I0217 21:25:46.017882 15035 layer_factory.hpp:77] Creating layer conv9_2_mbox_conf
I0217 21:25:46.017899 15035 net.cpp:100] Creating Layer conv9_2_mbox_conf
I0217 21:25:46.017910 15035 net.cpp:434] conv9_2_mbox_conf <- conv9_2_conv9_2_relu_0_split_1
I0217 21:25:46.017925 15035 net.cpp:408] conv9_2_mbox_conf -> conv9_2_mbox_conf
I0217 21:25:46.021158 15035 net.cpp:150] Setting up conv9_2_mbox_conf
I0217 21:25:46.021178 15035 net.cpp:157] Top shape: 1 88 1 1 (88)
I0217 21:25:46.021185 15035 net.cpp:165] Memory required for data: 252992800
I0217 21:25:46.021198 15035 layer_factory.hpp:77] Creating layer conv9_2_mbox_conf_perm
I0217 21:25:46.021209 15035 net.cpp:100] Creating Layer conv9_2_mbox_conf_perm
I0217 21:25:46.021217 15035 net.cpp:434] conv9_2_mbox_conf_perm <- conv9_2_mbox_conf
I0217 21:25:46.021231 15035 net.cpp:408] conv9_2_mbox_conf_perm -> conv9_2_mbox_conf_perm
I0217 21:25:46.021417 15035 net.cpp:150] Setting up conv9_2_mbox_conf_perm
I0217 21:25:46.021431 15035 net.cpp:157] Top shape: 1 1 1 88 (88)
I0217 21:25:46.021438 15035 net.cpp:165] Memory required for data: 252993152
I0217 21:25:46.021445 15035 layer_factory.hpp:77] Creating layer conv9_2_mbox_conf_flat
I0217 21:25:46.021456 15035 net.cpp:100] Creating Layer conv9_2_mbox_conf_flat
I0217 21:25:46.021462 15035 net.cpp:434] conv9_2_mbox_conf_flat <- conv9_2_mbox_conf_perm
I0217 21:25:46.021476 15035 net.cpp:408] conv9_2_mbox_conf_flat -> conv9_2_mbox_conf_flat
I0217 21:25:46.021524 15035 net.cpp:150] Setting up conv9_2_mbox_conf_flat
I0217 21:25:46.021538 15035 net.cpp:157] Top shape: 1 88 (88)
I0217 21:25:46.021543 15035 net.cpp:165] Memory required for data: 252993504
I0217 21:25:46.021549 15035 layer_factory.hpp:77] Creating layer conv9_2_mbox_priorbox
I0217 21:25:46.021564 15035 net.cpp:100] Creating Layer conv9_2_mbox_priorbox
I0217 21:25:46.021571 15035 net.cpp:434] conv9_2_mbox_priorbox <- conv9_2_conv9_2_relu_0_split_2
I0217 21:25:46.021580 15035 net.cpp:434] conv9_2_mbox_priorbox <- data_data_0_split_6
I0217 21:25:46.021595 15035 net.cpp:408] conv9_2_mbox_priorbox -> conv9_2_mbox_priorbox
I0217 21:25:46.021646 15035 net.cpp:150] Setting up conv9_2_mbox_priorbox
I0217 21:25:46.021657 15035 net.cpp:157] Top shape: 1 2 16 (32)
I0217 21:25:46.021664 15035 net.cpp:165] Memory required for data: 252993632
I0217 21:25:46.021672 15035 layer_factory.hpp:77] Creating layer mbox_loc
I0217 21:25:46.021688 15035 net.cpp:100] Creating Layer mbox_loc
I0217 21:25:46.021700 15035 net.cpp:434] mbox_loc <- conv4_3_norm_mbox_loc_flat
I0217 21:25:46.021711 15035 net.cpp:434] mbox_loc <- fc7_mbox_loc_flat
I0217 21:25:46.021721 15035 net.cpp:434] mbox_loc <- conv6_2_mbox_loc_flat
I0217 21:25:46.021733 15035 net.cpp:434] mbox_loc <- conv7_2_mbox_loc_flat
I0217 21:25:46.021740 15035 net.cpp:434] mbox_loc <- conv8_2_mbox_loc_flat
I0217 21:25:46.021749 15035 net.cpp:434] mbox_loc <- conv9_2_mbox_loc_flat
I0217 21:25:46.021759 15035 net.cpp:408] mbox_loc -> mbox_loc
I0217 21:25:46.021811 15035 net.cpp:150] Setting up mbox_loc
I0217 21:25:46.021822 15035 net.cpp:157] Top shape: 1 34928 (34928)
I0217 21:25:46.021829 15035 net.cpp:165] Memory required for data: 253133344
I0217 21:25:46.021836 15035 layer_factory.hpp:77] Creating layer mbox_conf
I0217 21:25:46.021847 15035 net.cpp:100] Creating Layer mbox_conf
I0217 21:25:46.021854 15035 net.cpp:434] mbox_conf <- conv4_3_norm_mbox_conf_flat
I0217 21:25:46.021878 15035 net.cpp:434] mbox_conf <- fc7_mbox_conf_flat
I0217 21:25:46.021889 15035 net.cpp:434] mbox_conf <- conv6_2_mbox_conf_flat
I0217 21:25:46.021898 15035 net.cpp:434] mbox_conf <- conv7_2_mbox_conf_flat
I0217 21:25:46.021905 15035 net.cpp:434] mbox_conf <- conv8_2_mbox_conf_flat
I0217 21:25:46.021913 15035 net.cpp:434] mbox_conf <- conv9_2_mbox_conf_flat
I0217 21:25:46.021925 15035 net.cpp:408] mbox_conf -> mbox_conf
I0217 21:25:46.021975 15035 net.cpp:150] Setting up mbox_conf
I0217 21:25:46.021986 15035 net.cpp:157] Top shape: 1 192104 (192104)
I0217 21:25:46.021993 15035 net.cpp:165] Memory required for data: 253901760
I0217 21:25:46.021999 15035 layer_factory.hpp:77] Creating layer mbox_priorbox
I0217 21:25:46.022011 15035 net.cpp:100] Creating Layer mbox_priorbox
I0217 21:25:46.022018 15035 net.cpp:434] mbox_priorbox <- conv4_3_norm_mbox_priorbox
I0217 21:25:46.022027 15035 net.cpp:434] mbox_priorbox <- fc7_mbox_priorbox
I0217 21:25:46.022035 15035 net.cpp:434] mbox_priorbox <- conv6_2_mbox_priorbox
I0217 21:25:46.022043 15035 net.cpp:434] mbox_priorbox <- conv7_2_mbox_priorbox
I0217 21:25:46.022050 15035 net.cpp:434] mbox_priorbox <- conv8_2_mbox_priorbox
I0217 21:25:46.022058 15035 net.cpp:434] mbox_priorbox <- conv9_2_mbox_priorbox
I0217 21:25:46.022069 15035 net.cpp:408] mbox_priorbox -> mbox_priorbox
I0217 21:25:46.022119 15035 net.cpp:150] Setting up mbox_priorbox
I0217 21:25:46.022130 15035 net.cpp:157] Top shape: 1 2 34928 (69856)
I0217 21:25:46.022136 15035 net.cpp:165] Memory required for data: 254181184
I0217 21:25:46.022143 15035 layer_factory.hpp:77] Creating layer mbox_conf_reshape
I0217 21:25:46.022156 15035 net.cpp:100] Creating Layer mbox_conf_reshape
I0217 21:25:46.022164 15035 net.cpp:434] mbox_conf_reshape <- mbox_conf
I0217 21:25:46.022174 15035 net.cpp:408] mbox_conf_reshape -> mbox_conf_reshape
I0217 21:25:46.022230 15035 net.cpp:150] Setting up mbox_conf_reshape
I0217 21:25:46.022243 15035 net.cpp:157] Top shape: 1 8732 22 (192104)
I0217 21:25:46.022249 15035 net.cpp:165] Memory required for data: 254949600
I0217 21:25:46.022255 15035 layer_factory.hpp:77] Creating layer mbox_conf_softmax
I0217 21:25:46.022269 15035 net.cpp:100] Creating Layer mbox_conf_softmax
I0217 21:25:46.022277 15035 net.cpp:434] mbox_conf_softmax <- mbox_conf_reshape
I0217 21:25:46.022287 15035 net.cpp:408] mbox_conf_softmax -> mbox_conf_softmax
I0217 21:25:46.022609 15035 net.cpp:150] Setting up mbox_conf_softmax
I0217 21:25:46.022625 15035 net.cpp:157] Top shape: 1 8732 22 (192104)
I0217 21:25:46.022631 15035 net.cpp:165] Memory required for data: 255718016
I0217 21:25:46.022639 15035 layer_factory.hpp:77] Creating layer mbox_conf_flatten
I0217 21:25:46.022649 15035 net.cpp:100] Creating Layer mbox_conf_flatten
I0217 21:25:46.022656 15035 net.cpp:434] mbox_conf_flatten <- mbox_conf_softmax
I0217 21:25:46.022670 15035 net.cpp:408] mbox_conf_flatten -> mbox_conf_flatten
I0217 21:25:46.022722 15035 net.cpp:150] Setting up mbox_conf_flatten
I0217 21:25:46.022733 15035 net.cpp:157] Top shape: 1 192104 (192104)
I0217 21:25:46.022740 15035 net.cpp:165] Memory required for data: 256486432
I0217 21:25:46.022747 15035 layer_factory.hpp:77] Creating layer detection_out
I0217 21:25:46.022774 15035 net.cpp:100] Creating Layer detection_out
I0217 21:25:46.022783 15035 net.cpp:434] detection_out <- mbox_loc
I0217 21:25:46.022791 15035 net.cpp:434] detection_out <- mbox_conf_flatten
I0217 21:25:46.022799 15035 net.cpp:434] detection_out <- mbox_priorbox
I0217 21:25:46.022812 15035 net.cpp:408] detection_out -> detection_out
I0217 21:25:46.023988 15035 net.cpp:150] Setting up detection_out
I0217 21:25:46.024006 15035 net.cpp:157] Top shape: 1 1 1 7 (7)
I0217 21:25:46.024014 15035 net.cpp:165] Memory required for data: 256486460
I0217 21:25:46.024021 15035 layer_factory.hpp:77] Creating layer detection_eval
I0217 21:25:46.024036 15035 net.cpp:100] Creating Layer detection_eval
I0217 21:25:46.024045 15035 net.cpp:434] detection_eval <- detection_out
I0217 21:25:46.024054 15035 net.cpp:434] detection_eval <- label
I0217 21:25:46.024081 15035 net.cpp:408] detection_eval -> detection_eval
I0217 21:25:46.024204 15035 net.cpp:150] Setting up detection_eval
I0217 21:25:46.024219 15035 net.cpp:157] Top shape: 1 1 22 5 (110)
I0217 21:25:46.024225 15035 net.cpp:165] Memory required for data: 256486900
I0217 21:25:46.024232 15035 net.cpp:228] detection_eval does not need backward computation.
I0217 21:25:46.024240 15035 net.cpp:228] detection_out does not need backward computation.
I0217 21:25:46.024248 15035 net.cpp:228] mbox_conf_flatten does not need backward computation.
I0217 21:25:46.024255 15035 net.cpp:228] mbox_conf_softmax does not need backward computation.
…
