…
        min_scale: 0.3
        max_scale: 1
        min_aspect_ratio: 0.5
        max_aspect_ratio: 2
      }
      sample_constraint {
        min_jaccard_overlap: 0.9
      }
      max_sample: 1
      max_trials: 50
    }
    batch_sampler {
      sampler {
        min_scale: 0.3
        max_scale: 1
        min_aspect_ratio: 0.5
        max_aspect_ratio: 2
      }
      sample_constraint {
        max_jaccard_overlap: 1
      }
      max_sample: 1
      max_trials: 50
    }
    label_map_file: "data/dbgr_trees/labelmap_voc.prototxt"
  }
}
layer {
  name: "conv1_1_rgbd"
  type: "Convolution"
  bottom: "data"
  top: "conv1_1_rgbd"
  param {
    lr_mult: 1
    decay_mult: 1
  }
  param {
    lr_mult: 2
    decay_mult: 0
  }
  convolution_param {
    num_output: 64
    pad: 1
    kernel_size: 3
    weight_filler {
      type: "xavier"
    }
    bias_filler {
      type: "constant"
      value: 0
    }
  }
}
layer {
  name: "relu1_1"
  type: "ReLU"
  bottom: "conv1_1_rgbd"
  top: "conv1_1_rgbd"
}
layer {
  name: "conv1_2"
  type: "Convolution"
  bottom: "conv1_1_rgbd"
  top: "conv1_2"
  param {
    lr_mult: 1
    decay_mult: 1
  }
  param {
    lr_mult: 2
    decay_mult: 0
  }
  convolution_param {
    num_output: 64
    pad: 1
    kernel_size: 3
    weight_filler {
      type: "xavier"
    }
    bias_filler {
      type: "constant"
      value: 0
    }
  }
}
layer {
  name: "relu1_2"
  type: "ReLU"
  bottom: "conv1_2"
  top: "conv1_2"
}
layer {
  name: "pool1"
  type: "Pooling"
  bottom: "conv1_2"
  top: "pool1"
  pooling_param {
    pool: MAX
    kernel_size: 2
    stride: 2
  }
}
layer {
  name: "conv2_1"
  type: "Convolution"
  bottom: "pool1"
  top: "conv2_1"
  param {
    lr_mult: 1
    decay_mult: 1
  }
  param {
    lr_mult: 2
    decay_mult: 0
  }
  convolution_param {
    num_output: 128
    pad: 1
    kernel_size: 3
    weight_filler {
      type: "xavier"
    }
    bias_filler {
      type: "constant"
      value: 0
    }
  }
}
layer {
  name: "relu2_1"
  type: "ReLU"
  bottom: "conv2_1"
  top: "conv2_1"
}
layer {
  name: "conv2_2"
  type: "Convolution"
  bottom: "conv2_1"
  top: "conv2_2"
  param {
    lr_mult: 1
    decay_mult: 1
  }
  param {
    lr_mult: 2
    decay_mult: 0
  }
  convolution_param {
    num_output: 128
    pad: 1
    kernel_size: 3
    weight_filler {
      type: "xavier"
    }
    bias_filler {
      type: "constant"
      value: 0
    }
  }
}
layer {
  name: "relu2_2"
  type: "ReLU"
  bottom: "conv2_2"
  top: "conv2_2"
}
layer {
  name: "pool2"
  type: "Pooling"
  bottom: "conv2_2"
  top: "pool2"
  pooling_param {
    pool: MAX
    kernel_size: 2
    stride: 2
  }
}
layer {
  name: "conv3_1"
  type: "Convolution"
  bottom: "pool2"
  top: "conv3_1"
  param {
    lr_mult: 1
    decay_mult: 1
  }
  param {
    lr_mult: 2
    decay_mult: 0
  }
  convolution_param {
    num_output: 256
    pad: 1
    kernel_size: 3
    weight_filler {
      type: "xavier"
    }
    bias_filler {
      type: "constant"
      value: 0
    }
  }
}
layer {
  name: "relu3_1"
  type: "ReLU"
  bottom: "conv3_1"
  top: "conv3_1"
}
layer {
  name: "conv3_2"
  type: "Convolution"
  bottom: "conv3_1"
  top: "conv3_2"
  param {
    lr_mult: 1
    decay_mult: 1
  }
  param {
    lr_mult: 2
    decay_mult: 0
  }
  convolution_param {
    num_output: 256
    pad: 1
    kernel_size: 3
    weight_filler {
      type: "xavier"
    }
    bias_filler {
      type: "constant"
      value: 0
    }
  }
}
layer {
  name: "relu3_2"
  type: "ReLU"
  bottom: "conv3_2"
  top: "conv3_2"
}
layer {
  name: "conv3_3"
  type: "Convolution"
  bottom: "conv3_2"
  top: "conv3_3"
  param {
    lr_mult: 1
    decay_mult: 1
  }
  param {
    lr_mult: 2
    decay_mult: 0
  }
  convolution_param {
    num_output: 256
    pad: 1
    kernel_size: 3
    weight_filler {
      type: "xavier"
    }
    bias_filler {
      type: "constant"
      value: 0
    }
  }
}
layer {
  name: "relu3_3"
  type: "ReLU"
  bottom: "conv3_3"
  top: "conv3_3"
}
layer {
  name: "pool3"
  type: "Pooling"
  bottom: "conv3_3"
  top: "pool3"
  pooling_param {
    pool: MAX
    kernel_size: 2
    stride: 2
  }
}
layer {
  name: "conv4_1"
  type: "Convolution"
  bottom: "pool3"
  top: "conv4_1"
  param {
    lr_mult: 1
    decay_mult: 1
  }
  param {
    lr_mult: 2
    decay_mult: 0
  }
  convolution_param {
    num_output: 512
    pad: 1
    kernel_size: 3
    weight_filler {
      type: "xavier"
    }
    bias_filler {
      type: "constant"
      value: 0
    }
  }
}
layer {
  name: "relu4_1"
  type: "ReLU"
  bottom: "conv4_1"
  top: "conv4_1"
}
layer {
  name: "conv4_2"
  type: "Convolution"
  bottom: "conv4_1"
  top: "conv4_2"
  param {
    lr_mult: 1
    decay_mult: 1
  }
  param {
    lr_mult: 2
    decay_mult: 0
  }
  convolution_param {
    num_output: 512
    pad: 1
    kernel_size: 3
    weight_filler {
      type: "xavier"
    }
    bias_filler {
      type: "constant"
      value: 0
    }
  }
}
layer {
  name: "relu4_2"
  type: "ReLU"
  bottom: "conv4_2"
  top: "conv4_2"
}
layer {
  name: "conv4_3"
  type: "Convolution"
  bottom: "conv4_2"
  top: "conv4_3"
  param {
    lr_mult: 1
    decay_mult: 1
  }
  param {
    lr_mult: 2
    decay_mult: 0
  }
  convolution_param {
    num_output: 512
    pad: 1
    kernel_size: 3
    weight_filler {
      type: "xavier"
    }
    bias_filler {
      type: "constant"
      value: 0
    }
  }
}
layer {
  name: "relu4_3"
  type: "ReLU"
  bottom: "conv4_3"
  top: "conv4_3"
}
layer {
  name: "pool4"
  type: "Pooling"
  bottom: "conv4_3"
  top: "pool4"
  pooling_param {
    pool: MAX
    kernel_size: 2
    stride: 2
  }
}
layer {
  name: "conv5_1"
  type: "Convolution"
  bottom: "pool4"
  top: "conv5_1"
  param {
    lr_mult: 1
    decay_mult: 1
  }
  param {
    lr_mult: 2
    decay_mult: 0
  }
  convolution_param {
    num_output: 512
    pad: 1
    kernel_size: 3
    weight_filler {
      type: "xavier"
    }
    bias_filler {
      type: "constant"
      value: 0
    }
    dilation: 1
  }
}
layer {
  name: "relu5_1"
  type: "ReLU"
  bottom: "conv5_1"
  top: "conv5_1"
}
layer {
  name: "conv5_2"
  type: "Convolution"
  bottom: "conv5_1"
  top: "conv5_2"
  param {
    lr_mult: 1
    decay_mult: 1
  }
  param {
    lr_mult: 2
    decay_mult: 0
  }
  convolution_param {
    num_output: 512
    pad: 1
    kernel_size: 3
    weight_filler {
      type: "xavier"
    }
    bias_filler {
      type: "constant"
      value: 0
    }
    dilation: 1
  }
}
layer {
  name: "relu5_2"
  type: "ReLU"
  bottom: "conv5_2"
  top: "conv5_2"
}
layer {
  name: "conv5_3"
  type: "Convolution"
  bottom: "conv5_2"
  top: "conv5_3"
  param {
    lr_mult: 1
    decay_mult: 1
  }
  param {
    lr_mult: 2
    decay_mult: 0
  }
  convolution_param {
    num_output: 512
    pad: 1
    kernel_size: 3
    weight_filler {
      type: "xavier"
    }
    bias_filler {
      type: "constant"
      value: 0
    }
    dilation: 1
  }
}
layer {
  name: "relu5_3"
  type: "ReLU"
  bottom: "conv5_3"
  top: "conv5_3"
}
layer {
  name: "pool5"
  type: "Pooling"
  bottom: "conv5_3"
  top: "pool5"
  pooling_param {
    pool: MAX
    kernel_size: 3
    stride: 1
    pad: 1
  }
}
layer {
  name: "fc6"
  type: "Convolution"
  bottom: "pool5"
  top: "fc6"
  param {
    lr_mult: 1
    decay_mult: 1
  }
  param {
    lr_mult: 2
    decay_mult: 0
  }
  convolution_param {
    num_output: 1024
    pad: 6
    kernel_size: 3
    weight_filler {
      type: "xavier"
    }
    bias_filler {
      type: "constant"
      value: 0
    }
    dilation: 6
  }
}
layer {
  name: "relu6"
  type: "ReLU"
  bottom: "fc6"
  top: "fc6"
}
layer {
  name: "fc7"
  type: "Convolution"
  bottom: "fc6"
  top: "fc7"
  param {
    lr_mult: 1
    decay_mult: 1
  }
  param {
    lr_mult: 2
    decay_mult: 0
  }
  convolution_param {
    num_output: 1024
    kernel_size: 1
    weight_filler {
      type: "xavier"
    }
    bias_filler {
      type: "constant"
      value: 0
    }
  }
}
layer {
  name: "relu7"
  type: "ReLU"
  bottom: "fc7"
  top: "fc7"
}
layer {
  name: "conv6_1"
  type: "Convolution"
  bottom: "fc7"
  top: "conv6_1"
  param {
    lr_mult: 1
    decay_mult: 1
  }
  param {
    lr_mult: 2
    decay_mult: 0
  }
  convolution_param {
    num_output: 256
    pad: 0
    kernel_size: 1
    stride: 1
    weight_filler {
      type: "xavier"
    }
    bias_filler {
      type: "constant"
      value: 0
    }
  }
}
layer {
  name: "conv6_1_relu"
  type: "ReLU"
  bottom: "conv6_1"
  top: "conv6_1"
}
layer {
  name: "conv6_2"
  type: "Convolution"
  bottom: "conv6_1"
  top: "conv6_2"
  param {
    lr_mult: 1
    decay_mult: 1
  }
  param {
    lr_mult: 2
    decay_mult: 0
  }
  convolution_param {
    num_output: 512
    pad: 1
    kernel_size: 3
    stride: 2
    weight_filler {
      type: "xavier"
    }
    bias_filler {
      type: "constant"
      value: 0
    }
  }
}
layer {
  name: "conv6_2_relu"
  type: "ReLU"
  bottom: "conv6_2"
  top: "conv6_2"
}
layer {
  name: "conv7_1"
  type: "Convolution"
  bottom: "conv6_2"
  top: "conv7_1"
  param {
    lr_mult: 1
    decay_mult: 1
  }
  param {
    lr_mult: 2
    decay_mult: 0
  }
  convolution_param {
    num_output: 128
    pad: 0
    kernel_size: 1
    stride: 1
    weight_filler {
      type: "xavier"
    }
    bias_filler {
      type: "constant"
      value: 0
    }
  }
}
layer {
  name: "conv7_1_relu"
  type: "ReLU"
  bottom: "conv7_1"
  top: "conv7_1"
}
layer {
  name: "conv7_2"
  type: "Convolution"
  bottom: "conv7_1"
  top: "conv7_2"
  param {
    lr_mult: 1
    decay_mult: 1
  }
  param {
    lr_mult: 2
    decay_mult: 0
  }
  convolution_param {
    num_output: 256
    pad: 1
    kernel_size: 3
    stride: 2
    weight_filler {
      type: "xavier"
    }
    bias_filler {
      type: "constant"
      value: 0
    }
  }
}
layer {
  name: "conv7_2_relu"
  type: "ReLU"
  bottom: "conv7_2"
  top: "conv7_2"
}
layer {
  name: "conv8_1"
  type: "Convolution"
  bottom: "conv7_2"
  top: "conv8_1"
  param {
    lr_mult: 1
    decay_mult: 1
  }
  param {
    lr_mult: 2
    decay_mult: 0
  }
  convolution_param {
    num_output: 128
    pad: 0
    kernel_size: 1
    stride: 1
    weight_filler {
      type: "xavier"
    }
    bias_filler {
      type: "constant"
      value: 0
    }
  }
}
layer {
  name: "conv8_1_relu"
  type: "ReLU"
  bottom: "conv8_1"
  top: "conv8_1"
}
layer {
  name: "conv8_2"
  type: "Convolution"
  bottom: "conv8_1"
  top: "conv8_2"
  param {
    lr_mult: 1
    decay_mult: 1
  }
  param {
    lr_mult: 2
    decay_mult: 0
  }
  convolution_param {
    num_output: 256
    pad: 0
    kernel_size: 3
    stride: 1
    weight_filler {
      type: "xavier"
    }
    bias_filler {
      type: "constant"
      value: 0
    }
  }
}
layer {
  name: "conv8_2_relu"
  type: "ReLU"
  bottom: "conv8_2"
  top: "conv8_2"
}
layer {
  name: "conv9_1"
  type: "Convolution"
  bottom: "conv8_2"
  top: "conv9_1"
  param {
    lr_mult: 1
    decay_mult: 1
  }
  param {
    lr_mult: 2
    decay_mult: 0
  }
  convolution_param {
    num_output: 128
    pad: 0
    kernel_size: 1
    stride: 1
    weight_filler {
      type: "xavier"
    }
    bias_filler {
      type: "constant"
      value: 0
    }
  }
}
layer {
  name: "conv9_1_relu"
  type: "ReLU"
  bottom: "conv9_1"
  top: "conv9_1"
}
layer {
  name: "conv9_2"
  type: "Convolution"
  bottom: "conv9_1"
  top: "conv9_2"
  param {
    lr_mult: 1
    decay_mult: 1
  }
  param {
    lr_mult: 2
    decay_mult: 0
  }
  convolution_param {
    num_output: 256
    pad: 0
    kernel_size: 3
    stride: 1
    weight_filler {
      type: "xavier"
    }
    bias_filler {
      type: "constant"
      value: 0
    }
  }
}
layer {
  name: "conv9_2_relu"
  type: "ReLU"
  bottom: "conv9_2"
  top: "conv9_2"
}
layer {
  name: "conv4_3_norm"
  type: "Normalize"
  bottom: "conv4_3"
  top: "conv4_3_norm"
  norm_param {
    across_spatial: false
    scale_filler {
      type: "constant"
      value: 20
    }
    channel_shared: false
  }
}
layer {
  name: "conv4_3_norm_mbox_loc"
  type: "Convolution"
  bottom: "conv4_3_norm"
  top: "conv4_3_norm_mbox_loc"
  param {
    lr_mult: 1
    decay_mult: 1
  }
  param {
    lr_mult: 2
    decay_mult: 0
  }
  convolution_param {
    num_output: 16
    pad: 1
    kernel_size: 3
    stride: 1
    weight_filler {
      type: "xavier"
    }
    bias_filler {
      type: "constant"
      value: 0
    }
  }
}
layer {
  name: "conv4_3_norm_mbox_loc_perm"
  type: "Permute"
  bottom: "conv4_3_norm_mbox_loc"
  top: "conv4_3_norm_mbox_loc_perm"
  permute_param {
    order: 0
    order: 2
    order: 3
    order: 1
  }
}
layer {
  name: "conv4_3_norm_mbox_loc_flat"
  type: "Flatten"
  bottom: "conv4_3_norm_mbox_loc_perm"
  top: "conv4_3_norm_mbox_loc_flat"
  flatten_param {
    axis: 1
  }
}
layer {
  name: "conv4_3_norm_mbox_conf"
  type: "Convolution"
  bottom: "conv4_3_norm"
  top: "conv4_3_norm_mbox_conf"
  param {
    lr_mult: 1
    decay_mult: 1
  }
  param {
    lr_mult: 2
    decay_mult: 0
  }
  convolution_param {
    num_output: 88
    pad: 1
    kernel_size: 3
    stride: 1
    weight_filler {
      type: "xavier"
    }
    bias_filler {
      type: "constant"
      value: 0
    }
  }
}
layer {
  name: "conv4_3_norm_mbox_conf_perm"
  type: "Permute"
  bottom: "conv4_3_norm_mbox_conf"
  top: "conv4_3_norm_mbox_conf_perm"
  permute_param {
    order: 0
    order: 2
    order: 3
    order: 1
  }
}
layer {
  name: "conv4_3_norm_mbox_conf_flat"
  type: "Flatten"
  bottom: "conv4_3_norm_mbox_conf_perm"
  top: "conv4_3_norm_mbox_conf_flat"
  flatten_param {
    axis: 1
  }
}
layer {
  name: "conv4_3_norm_mbox_priorbox"
  type: "PriorBox"
  bottom: "conv4_3_norm"
  bottom: "data"
  top: "conv4_3_norm_mbox_priorbox"
  prior_box_param {
    min_size: 30
    max_size: 60
    aspect_ratio: 2
    flip: true
    clip: false
    variance: 0.1
    variance: 0.1
    variance: 0.2
    variance: 0.2
    step: 8
    offset: 0.5
  }
}
layer {
  name: "fc7_mbox_loc"
  type: "Convolution"
  bottom: "fc7"
  top: "fc7_mbox_loc"
  param {
    lr_mult: 1
    decay_mult: 1
  }
  param {
    lr_mult: 2
    decay_mult: 0
  }
  convolution_param {
    num_output: 24
    pad: 1
    kernel_size: 3
    stride: 1
    weight_filler {
      type: "xavier"
    }
    bias_filler {
      type: "constant"
      value: 0
    }
  }
}
layer {
  name: "fc7_mbox_loc_perm"
  type: "Permute"
  bottom: "fc7_mbox_loc"
  top: "fc7_mbox_loc_perm"
  permute_param {
    order: 0
    order: 2
    order: 3
    order: 1
  }
}
layer {
  name: "fc7_mbox_loc_flat"
  type: "Flatten"
  bottom: "fc7_mbox_loc_perm"
  top: "fc7_mbox_loc_flat"
  flatten_param {
    axis: 1
  }
}
layer {
  name: "fc7_mbox_conf"
  type: "Convolution"
  bottom: "fc7"
  top: "fc7_mbox_conf"
  param {
    lr_mult: 1
    decay_mult: 1
  }
  param {
    lr_mult: 2
    decay_mult: 0
  }
  convolution_param {
    num_output: 132
    pad: 1
    kernel_size: 3
    stride: 1
    weight_filler {
      type: "xavier"
    }
    bias_filler {
      type: "constant"
      value: 0
    }
  }
}
layer {
  name: "fc7_mbox_conf_perm"
  type: "Permute"
  bottom: "fc7_mbox_conf"
  top: "fc7_mbox_conf_perm"
  permute_param {
    order: 0
    order: 2
    order: 3
    order: 1
  }
}
layer {
  name: "fc7_mbox_conf_flat"
  type: "Flatten"
  bottom: "fc7_mbox_conf_perm"
  top: "fc7_mbox_conf_flat"
  flatten_param {
    axis: 1
  }
}
layer {
  name: "fc7_mbox_priorbox"
  type: "PriorBox"
  bottom: "fc7"
  bottom: "data"
  top: "fc7_mbox_priorbox"
  prior_box_param {
    min_size: 60
    max_size: 111
    aspect_ratio: 2
    aspect_ratio: 3
    flip: true
    clip: false
    variance: 0.1
    variance: 0.1
    variance: 0.2
    variance: 0.2
    step: 16
    offset: 0.5
  }
}
layer {
  name: "conv6_2_mbox_loc"
  type: "Convolution"
  bottom: "conv6_2"
  top: "conv6_2_mbox_loc"
  param {
    lr_mult: 1
    decay_mult: 1
  }
  param {
    lr_mult: 2
    decay_mult: 0
  }
  convolution_param {
    num_output: 24
    pad: 1
    kernel_size: 3
    stride: 1
    weight_filler {
      type: "xavier"
    }
    bias_filler {
      type: "constant"
      value: 0
    }
  }
}
layer {
  name: "conv6_2_mbox_loc_perm"
  type: "Permute"
  bottom: "conv6_2_mbox_loc"
  top: "conv6_2_mbox_loc_perm"
  permute_param {
    order: 0
    order: 2
    order: 3
    order: 1
  }
}
layer {
  name: "conv6_2_mbox_loc_flat"
  type: "Flatten"
  bottom: "conv6_2_mbox_loc_perm"
  top: "conv6_2_mbox_loc_flat"
  flatten_param {
    axis: 1
  }
}
layer {
  name: "conv6_2_mbox_conf"
  type: "Convolution"
  bottom: "conv6_2"
  top: "conv6_2_mbox_conf"
  param {
    lr_mult: 1
    decay_mult: 1
  }
  param {
    lr_mult: 2
    decay_mult: 0
  }
  convolution_param {
    num_output: 132
    pad: 1
    kernel_size: 3
    stride: 1
    weight_filler {
      type: "xavier"
    }
    bias_filler {
      type: "constant"
      value: 0
    }
  }
}
layer {
  name: "conv6_2_mbox_conf_perm"
  type: "Permute"
  bottom: "conv6_2_mbox_conf"
  top: "conv6_2_mbox_conf_perm"
  permute_param {
    order: 0
    order: 2
    order: 3
    order: 1
  }
}
layer {
  name: "conv6_2_mbox_conf_flat"
  type: "Flatten"
  bottom: "conv6_2_mbox_conf_perm"
  top: "conv6_2_mbox_conf_flat"
  flatten_param {
    axis: 1
  }
}
layer {
  name: "conv6_2_mbox_priorbox"
  type: "PriorBox"
  bottom: "conv6_2"
  bottom: "data"
  top: "conv6_2_mbox_priorbox"
  prior_box_param {
    min_size: 111
    max_size: 162
    aspect_ratio: 2
    aspect_ratio: 3
    flip: true
    clip: false
    variance: 0.1
    variance: 0.1
    variance: 0.2
    variance: 0.2
    step: 32
    offset: 0.5
  }
}
layer {
  name: "conv7_2_mbox_loc"
  type: "Convolution"
  bottom: "conv7_2"
  top: "conv7_2_mbox_loc"
  param {
    lr_mult: 1
    decay_mult: 1
  }
  param {
    lr_mult: 2
    decay_mult: 0
  }
  convolution_param {
    num_output: 24
    pad: 1
    kernel_size: 3
    stride: 1
    weight_filler {
      type: "xavier"
    }
    bias_filler {
      type: "constant"
      value: 0
    }
  }
}
layer {
  name: "conv7_2_mbox_loc_perm"
  type: "Permute"
  bottom: "conv7_2_mbox_loc"
  top: "conv7_2_mbox_loc_perm"
  permute_param {
    order: 0
    order: 2
    order: 3
    order: 1
  }
}
layer {
  name: "conv7_2_mbox_loc_flat"
  type: "Flatten"
  bottom: "conv7_2_mbox_loc_perm"
  top: "conv7_2_mbox_loc_flat"
  flatten_param {
    axis: 1
  }
}
layer {
  name: "conv7_2_mbox_conf"
  type: "Convolution"
  bottom: "conv7_2"
  top: "conv7_2_mbox_conf"
  param {
    lr_mult: 1
    decay_mult: 1
  }
  param {
    lr_mult: 2
    decay_mult: 0
  }
  convolution_param {
    num_output: 132
    pad: 1
    kernel_size: 3
    stride: 1
    weight_filler {
      type: "xavier"
    }
    bias_filler {
      type: "constant"
      value: 0
    }
  }
}
layer {
  name: "conv7_2_mbox_conf_perm"
  type: "Permute"
  bottom: "conv7_2_mbox_conf"
  top: "conv7_2_mbox_conf_perm"
  permute_param {
    order: 0
    order: 2
    order: 3
    order: 1
  }
}
layer {
  name: "conv7_2_mbox_conf_flat"
  type: "Flatten"
  bottom: "conv7_2_mbox_conf_perm"
  top: "conv7_2_mbox_conf_flat"
  flatten_param {
    axis: 1
  }
}
layer {
  name: "conv7_2_mbox_priorbox"
  type: "PriorBox"
  bottom: "conv7_2"
  bottom: "data"
  top: "conv7_2_mbox_priorbox"
  prior_box_param {
    min_size: 162
    max_size: 213
    aspect_ratio: 2
    aspect_ratio: 3
    flip: true
    clip: false
    variance: 0.1
    variance: 0.1
    variance: 0.2
    variance: 0.2
    step: 64
    offset: 0.5
  }
}
layer {
  name: "conv8_2_mbox_loc"
  type: "Convolution"
  bottom: "conv8_2"
  top: "conv8_2_mbox_loc"
  param {
    lr_mult: 1
    decay_mult: 1
  }
  param {
    lr_mult: 2
    decay_mult: 0
  }
  convolution_param {
    num_output: 16
    pad: 1
    kernel_size: 3
    stride: 1
    weight_filler {
      type: "xavier"
    }
    bias_filler {
      type: "constant"
      value: 0
    }
  }
}
layer {
  name: "conv8_2_mbox_loc_perm"
  type: "Permute"
  bottom: "conv8_2_mbox_loc"
  top: "conv8_2_mbox_loc_perm"
  permute_param {
    order: 0
    order: 2
    order: 3
    order: 1
  }
}
layer {
  name: "conv8_2_mbox_loc_flat"
  type: "Flatten"
  bottom: "conv8_2_mbox_loc_perm"
  top: "conv8_2_mbox_loc_flat"
  flatten_param {
    axis: 1
  }
}
layer {
  name: "conv8_2_mbox_conf"
  type: "Convolution"
  bottom: "conv8_2"
  top: "conv8_2_mbox_conf"
  param {
    lr_mult: 1
    decay_mult: 1
  }
  param {
    lr_mult: 2
    decay_mult: 0
  }
  convolution_param {
    num_output: 88
    pad: 1
    kernel_size: 3
    stride: 1
    weight_filler {
      type: "xavier"
    }
    bias_filler {
      type: "constant"
      value: 0
    }
  }
}
layer {
  name: "conv8_2_mbox_conf_perm"
  type: "Permute"
  bottom: "conv8_2_mbox_conf"
  top: "conv8_2_mbox_conf_perm"
  permute_param {
    order: 0
    order: 2
    order: 3
    order: 1
  }
}
layer {
  name: "conv8_2_mbox_conf_flat"
  type: "Flatten"
  bottom: "conv8_2_mbox_conf_perm"
  top: "conv8_2_mbox_conf_flat"
  flatten_param {
    axis: 1
  }
}
layer {
  name: "conv8_2_mbox_priorbox"
  type: "PriorBox"
  bottom: "conv8_2"
  bottom: "data"
  top: "conv8_2_mbox_priorbox"
  prior_box_param {
    min_size: 213
    max_size: 264
    aspect_ratio: 2
    flip: true
    clip: false
    variance: 0.1
    variance: 0.1
    variance: 0.2
    variance: 0.2
    step: 100
    offset: 0.5
  }
}
layer {
  name: "conv9_2_mbox_loc"
  type: "Convolution"
  bottom: "conv9_2"
  top: "conv9_2_mbox_loc"
  param {
    lr_mult: 1
    decay_mult: 1
  }
  param {
    lr_mult: 2
    decay_mult: 0
  }
  convolution_param {
    num_output: 16
    pad: 1
    kernel_size: 3
    stride: 1
    weight_filler {
      type: "xavier"
    }
    bias_filler {
      type: "constant"
      value: 0
    }
  }
}
layer {
  name: "conv9_2_mbox_loc_perm"
  type: "Permute"
  bottom: "conv9_2_mbox_loc"
  top: "conv9_2_mbox_loc_perm"
  permute_param {
    order: 0
    order: 2
    order: 3
    order: 1
  }
}
layer {
  name: "conv9_2_mbox_loc_flat"
  type: "Flatten"
  bottom: "conv9_2_mbox_loc_perm"
  top: "conv9_2_mbox_loc_flat"
  flatten_param {
    axis: 1
  }
}
layer {
  name: "conv9_2_mbox_conf"
  type: "Convolution"
  bottom: "conv9_2"
  top: "conv9_2_mbox_conf"
  param {
    lr_mult: 1
    decay_mult: 1
  }
  param {
    lr_mult: 2
    decay_mult: 0
  }
  convolution_param {
    num_output: 88
    pad: 1
    kernel_size: 3
    stride: 1
    weight_filler {
      type: "xavier"
    }
    bias_filler {
      type: "constant"
      value: 0
    }
  }
}
layer {
  name: "conv9_2_mbox_conf_perm"
  type: "Permute"
  bottom: "conv9_2_mbox_conf"
  top: "conv9_2_mbox_conf_perm"
  permute_param {
    order: 0
    order: 2
    order: 3
    order: 1
  }
}
layer {
  name: "conv9_2_mbox_conf_flat"
  type: "Flatten"
  bottom: "conv9_2_mbox_conf_perm"
  top: "conv9_2_mbox_conf_flat"
  flatten_param {
    axis: 1
  }
}
layer {
  name: "conv9_2_mbox_priorbox"
  type: "PriorBox"
  bottom: "conv9_2"
  bottom: "data"
  top: "conv9_2_mbox_priorbox"
  prior_box_param {
    min_size: 264
    max_size: 315
    aspect_ratio: 2
    flip: true
    clip: false
    variance: 0.1
    variance: 0.1
    variance: 0.2
    variance: 0.2
    step: 300
    offset: 0.5
  }
}
layer {
  name: "mbox_loc"
  type: "Concat"
  bottom: "conv4_3_norm_mbox_loc_flat"
  bottom: "fc7_mbox_loc_flat"
  bottom: "conv6_2_mbox_loc_flat"
  bottom: "conv7_2_mbox_loc_flat"
  bottom: "conv8_2_mbox_loc_flat"
  bottom: "conv9_2_mbox_loc_flat"
  top: "mbox_loc"
  concat_param {
    axis: 1
  }
}
layer {
  name: "mbox_conf"
  type: "Concat"
  bottom: "conv4_3_norm_mbox_conf_flat"
  bottom: "fc7_mbox_conf_flat"
  bottom: "conv6_2_mbox_conf_flat"
  bottom: "conv7_2_mbox_conf_flat"
  bottom: "conv8_2_mbox_conf_flat"
  bottom: "conv9_2_mbox_conf_flat"
  top: "mbox_conf"
  concat_param {
    axis: 1
  }
}
layer {
  name: "mbox_priorbox"
  type: "Concat"
  bottom: "conv4_3_norm_mbox_priorbox"
  bottom: "fc7_mbox_priorbox"
  bottom: "conv6_2_mbox_priorbox"
  bottom: "conv7_2_mbox_priorbox"
  bottom: "conv8_2_mbox_priorbox"
  bottom: "conv9_2_mbox_priorbox"
  top: "mbox_priorbox"
  concat_param {
    axis: 2
  }
}
layer {
  name: "mbox_loss"
  type: "MultiBoxLoss"
  bottom: "mbox_loc"
  bottom: "mbox_conf"
  bottom: "mbox_priorbox"
  bottom: "label"
  top: "mbox_loss"
  include {
    phase: TRAIN
  }
  propagate_down: true
  propagate_down: true
  propagate_down: false
  propagate_down: false
  loss_param {
    normalization: VALID
  }
  multibox_loss_param {
    loc_loss_type: SMOOTH_L1
    conf_loss_type: SOFTMAX
    loc_weight: 1
    num_classes: 22
    share_location: true
    match_type: PER_PREDICTION
    overlap_threshold: 0.5
    use_prior_for_matching: true
    background_label_id: 0
    use_difficult_gt: true
    neg_pos_ratio: 3
    neg_overlap: 0.5
    code_type: CENTER_SIZE
    ignore_cross_boundary_bbox: false
    mining_type: MAX_NEGATIVE
  }
}
I0217 12:00:17.133198 23132 layer_factory.hpp:77] Creating layer data
I0217 12:00:17.133668 23132 net.cpp:100] Creating Layer data
I0217 12:00:17.133687 23132 net.cpp:408] data -> data
I0217 12:00:17.133728 23132 net.cpp:408] data -> label
I0217 12:00:17.135561 23149 db_lmdb.cpp:35] Opened lmdb examples/dbgr_trees/dbgr_trees_trainval_lmdb
I0217 12:00:17.159301 23132 annotated_data_layer.cpp:62] output data size: 32,4,300,300
I0217 12:00:17.256992 23132 net.cpp:150] Setting up data
I0217 12:00:17.257028 23132 net.cpp:157] Top shape: 32 4 300 300 (11520000)
I0217 12:00:17.257057 23132 net.cpp:157] Top shape: 1 1 3 8 (24)
I0217 12:00:17.257062 23132 net.cpp:165] Memory required for data: 46080096
I0217 12:00:17.257074 23132 layer_factory.hpp:77] Creating layer data_data_0_split
I0217 12:00:17.257097 23132 net.cpp:100] Creating Layer data_data_0_split
I0217 12:00:17.257105 23132 net.cpp:434] data_data_0_split <- data
I0217 12:00:17.257119 23132 net.cpp:408] data_data_0_split -> data_data_0_split_0
I0217 12:00:17.257138 23132 net.cpp:408] data_data_0_split -> data_data_0_split_1
I0217 12:00:17.257146 23132 net.cpp:408] data_data_0_split -> data_data_0_split_2
I0217 12:00:17.257153 23132 net.cpp:408] data_data_0_split -> data_data_0_split_3
I0217 12:00:17.257159 23132 net.cpp:408] data_data_0_split -> data_data_0_split_4
I0217 12:00:17.257164 23132 net.cpp:408] data_data_0_split -> data_data_0_split_5
I0217 12:00:17.257170 23132 net.cpp:408] data_data_0_split -> data_data_0_split_6
I0217 12:00:17.257271 23132 net.cpp:150] Setting up data_data_0_split
I0217 12:00:17.257279 23132 net.cpp:157] Top shape: 32 4 300 300 (11520000)
I0217 12:00:17.257284 23132 net.cpp:157] Top shape: 32 4 300 300 (11520000)
I0217 12:00:17.257288 23132 net.cpp:157] Top shape: 32 4 300 300 (11520000)
I0217 12:00:17.257292 23132 net.cpp:157] Top shape: 32 4 300 300 (11520000)
I0217 12:00:17.257297 23132 net.cpp:157] Top shape: 32 4 300 300 (11520000)
I0217 12:00:17.257300 23132 net.cpp:157] Top shape: 32 4 300 300 (11520000)
I0217 12:00:17.257305 23132 net.cpp:157] Top shape: 32 4 300 300 (11520000)
I0217 12:00:17.257308 23132 net.cpp:165] Memory required for data: 368640096
I0217 12:00:17.257313 23132 layer_factory.hpp:77] Creating layer conv1_1_rgbd
I0217 12:00:17.257333 23132 net.cpp:100] Creating Layer conv1_1_rgbd
I0217 12:00:17.257338 23132 net.cpp:434] conv1_1_rgbd <- data_data_0_split_0
I0217 12:00:17.257344 23132 net.cpp:408] conv1_1_rgbd -> conv1_1_rgbd
I0217 12:00:17.908993 23132 net.cpp:150] Setting up conv1_1_rgbd
I0217 12:00:17.909032 23132 net.cpp:157] Top shape: 32 64 300 300 (184320000)
I0217 12:00:17.909039 23132 net.cpp:165] Memory required for data: 1105920096
I0217 12:00:17.909062 23132 layer_factory.hpp:77] Creating layer relu1_1
I0217 12:00:17.909082 23132 net.cpp:100] Creating Layer relu1_1
I0217 12:00:17.909093 23132 net.cpp:434] relu1_1 <- conv1_1_rgbd
I0217 12:00:17.909108 23132 net.cpp:395] relu1_1 -> conv1_1_rgbd (in-place)
I0217 12:00:17.909509 23132 net.cpp:150] Setting up relu1_1
I0217 12:00:17.909531 23132 net.cpp:157] Top shape: 32 64 300 300 (184320000)
I0217 12:00:17.909540 23132 net.cpp:165] Memory required for data: 1843200096
I0217 12:00:17.909550 23132 layer_factory.hpp:77] Creating layer conv1_2
I0217 12:00:17.909580 23132 net.cpp:100] Creating Layer conv1_2
I0217 12:00:17.909595 23132 net.cpp:434] conv1_2 <- conv1_1_rgbd
I0217 12:00:17.909613 23132 net.cpp:408] conv1_2 -> conv1_2
I0217 12:00:17.911823 23132 net.cpp:150] Setting up conv1_2
I0217 12:00:17.911847 23132 net.cpp:157] Top shape: 32 64 300 300 (184320000)
I0217 12:00:17.911857 23132 net.cpp:165] Memory required for data: 2580480096
I0217 12:00:17.911878 23132 layer_factory.hpp:77] Creating layer relu1_2
I0217 12:00:17.911895 23132 net.cpp:100] Creating Layer relu1_2
I0217 12:00:17.911909 23132 net.cpp:434] relu1_2 <- conv1_2
I0217 12:00:17.911918 23132 net.cpp:395] relu1_2 -> conv1_2 (in-place)
I0217 12:00:17.912272 23132 net.cpp:150] Setting up relu1_2
I0217 12:00:17.912286 23132 net.cpp:157] Top shape: 32 64 300 300 (184320000)
I0217 12:00:17.912292 23132 net.cpp:165] Memory required for data: 3317760096
I0217 12:00:17.912297 23132 layer_factory.hpp:77] Creating layer pool1
I0217 12:00:17.912307 23132 net.cpp:100] Creating Layer pool1
I0217 12:00:17.912312 23132 net.cpp:434] pool1 <- conv1_2
I0217 12:00:17.912319 23132 net.cpp:408] pool1 -> pool1
I0217 12:00:17.912381 23132 net.cpp:150] Setting up pool1
I0217 12:00:17.912390 23132 net.cpp:157] Top shape: 32 64 150 150 (46080000)
I0217 12:00:17.912395 23132 net.cpp:165] Memory required for data: 3502080096
I0217 12:00:17.912420 23132 layer_factory.hpp:77] Creating layer conv2_1
I0217 12:00:17.912432 23132 net.cpp:100] Creating Layer conv2_1
I0217 12:00:17.912437 23132 net.cpp:434] conv2_1 <- pool1
I0217 12:00:17.912446 23132 net.cpp:408] conv2_1 -> conv2_1
I0217 12:00:17.914502 23132 net.cpp:150] Setting up conv2_1
I0217 12:00:17.914535 23132 net.cpp:157] Top shape: 32 128 150 150 (92160000)
I0217 12:00:17.914547 23132 net.cpp:165] Memory required for data: 3870720096
I0217 12:00:17.914567 23132 layer_factory.hpp:77] Creating layer relu2_1
I0217 12:00:17.914587 23132 net.cpp:100] Creating Layer relu2_1
I0217 12:00:17.914599 23132 net.cpp:434] relu2_1 <- conv2_1
I0217 12:00:17.914615 23132 net.cpp:395] relu2_1 -> conv2_1 (in-place)
I0217 12:00:17.914844 23132 net.cpp:150] Setting up relu2_1
I0217 12:00:17.914861 23132 net.cpp:157] Top shape: 32 128 150 150 (92160000)
I0217 12:00:17.914870 23132 net.cpp:165] Memory required for data: 4239360096
I0217 12:00:17.914880 23132 layer_factory.hpp:77] Creating layer conv2_2
I0217 12:00:17.914901 23132 net.cpp:100] Creating Layer conv2_2
I0217 12:00:17.914908 23132 net.cpp:434] conv2_2 <- conv2_1
I0217 12:00:17.914927 23132 net.cpp:408] conv2_2 -> conv2_2
I0217 12:00:17.918009 23132 net.cpp:150] Setting up conv2_2
I0217 12:00:17.918031 23132 net.cpp:157] Top shape: 32 128 150 150 (92160000)
I0217 12:00:17.918041 23132 net.cpp:165] Memory required for data: 4608000096
I0217 12:00:17.918062 23132 layer_factory.hpp:77] Creating layer relu2_2
I0217 12:00:17.918081 23132 net.cpp:100] Creating Layer relu2_2
I0217 12:00:17.918090 23132 net.cpp:434] relu2_2 <- conv2_2
I0217 12:00:17.918104 23132 net.cpp:395] relu2_2 -> conv2_2 (in-place)
I0217 12:00:17.918459 23132 net.cpp:150] Setting up relu2_2
I0217 12:00:17.918473 23132 net.cpp:157] Top shape: 32 128 150 150 (92160000)
I0217 12:00:17.918478 23132 net.cpp:165] Memory required for data: 4976640096
I0217 12:00:17.918483 23132 layer_factory.hpp:77] Creating layer pool2
I0217 12:00:17.918491 23132 net.cpp:100] Creating Layer pool2
I0217 12:00:17.918496 23132 net.cpp:434] pool2 <- conv2_2
I0217 12:00:17.918503 23132 net.cpp:408] pool2 -> pool2
I0217 12:00:17.918632 23132 net.cpp:150] Setting up pool2
I0217 12:00:17.918650 23132 net.cpp:157] Top shape: 32 128 75 75 (23040000)
I0217 12:00:17.918658 23132 net.cpp:165] Memory required for data: 5068800096
I0217 12:00:17.918668 23132 layer_factory.hpp:77] Creating layer conv3_1
I0217 12:00:17.918689 23132 net.cpp:100] Creating Layer conv3_1
I0217 12:00:17.918701 23132 net.cpp:434] conv3_1 <- pool2
I0217 12:00:17.918716 23132 net.cpp:408] conv3_1 -> conv3_1
I0217 12:00:17.923796 23132 net.cpp:150] Setting up conv3_1
I0217 12:00:17.923835 23132 net.cpp:157] Top shape: 32 256 75 75 (46080000)
I0217 12:00:17.923843 23132 net.cpp:165] Memory required for data: 5253120096
I0217 12:00:17.923868 23132 layer_factory.hpp:77] Creating layer relu3_1
I0217 12:00:17.923889 23132 net.cpp:100] Creating Layer relu3_1
I0217 12:00:17.923903 23132 net.cpp:434] relu3_1 <- conv3_1
I0217 12:00:17.923919 23132 net.cpp:395] relu3_1 -> conv3_1 (in-place)
I0217 12:00:17.924273 23132 net.cpp:150] Setting up relu3_1
I0217 12:00:17.924288 23132 net.cpp:157] Top shape: 32 256 75 75 (46080000)
I0217 12:00:17.924293 23132 net.cpp:165] Memory required for data: 5437440096
I0217 12:00:17.924298 23132 layer_factory.hpp:77] Creating layer conv3_2
I0217 12:00:17.924312 23132 net.cpp:100] Creating Layer conv3_2
I0217 12:00:17.924317 23132 net.cpp:434] conv3_2 <- conv3_1
I0217 12:00:17.924324 23132 net.cpp:408] conv3_2 -> conv3_2
I0217 12:00:17.931831 23132 net.cpp:150] Setting up conv3_2
I0217 12:00:17.931874 23132 net.cpp:157] Top shape: 32 256 75 75 (46080000)
I0217 12:00:17.931882 23132 net.cpp:165] Memory required for data: 5621760096
I0217 12:00:17.931898 23132 layer_factory.hpp:77] Creating layer relu3_2
I0217 12:00:17.931920 23132 net.cpp:100] Creating Layer relu3_2
I0217 12:00:17.931931 23132 net.cpp:434] relu3_2 <- conv3_2
I0217 12:00:17.931946 23132 net.cpp:395] relu3_2 -> conv3_2 (in-place)
I0217 12:00:17.932147 23132 net.cpp:150] Setting up relu3_2
I0217 12:00:17.932178 23132 net.cpp:157] Top shape: 32 256 75 75 (46080000)
I0217 12:00:17.932183 23132 net.cpp:165] Memory required for data: 5806080096
I0217 12:00:17.932188 23132 layer_factory.hpp:77] Creating layer conv3_3
I0217 12:00:17.932205 23132 net.cpp:100] Creating Layer conv3_3
I0217 12:00:17.932210 23132 net.cpp:434] conv3_3 <- conv3_2
I0217 12:00:17.932219 23132 net.cpp:408] conv3_3 -> conv3_3
I0217 12:00:17.939682 23132 net.cpp:150] Setting up conv3_3
I0217 12:00:17.939712 23132 net.cpp:157] Top shape: 32 256 75 75 (46080000)
I0217 12:00:17.939719 23132 net.cpp:165] Memory required for data: 5990400096
I0217 12:00:17.939733 23132 layer_factory.hpp:77] Creating layer relu3_3
I0217 12:00:17.939754 23132 net.cpp:100] Creating Layer relu3_3
I0217 12:00:17.939766 23132 net.cpp:434] relu3_3 <- conv3_3
I0217 12:00:17.939780 23132 net.cpp:395] relu3_3 -> conv3_3 (in-place)
I0217 12:00:17.940165 23132 net.cpp:150] Setting up relu3_3
I0217 12:00:17.940184 23132 net.cpp:157] Top shape: 32 256 75 75 (46080000)
I0217 12:00:17.940192 23132 net.cpp:165] Memory required for data: 6174720096
I0217 12:00:17.940201 23132 layer_factory.hpp:77] Creating layer pool3
I0217 12:00:17.940224 23132 net.cpp:100] Creating Layer pool3
I0217 12:00:17.940235 23132 net.cpp:434] pool3 <- conv3_3
I0217 12:00:17.940250 23132 net.cpp:408] pool3 -> pool3
I0217 12:00:17.940326 23132 net.cpp:150] Setting up pool3
I0217 12:00:17.940343 23132 net.cpp:157] Top shape: 32 256 38 38 (11829248)
I0217 12:00:17.940351 23132 net.cpp:165] Memory required for data: 6222037088
I0217 12:00:17.940361 23132 layer_factory.hpp:77] Creating layer conv4_1
I0217 12:00:17.940377 23132 net.cpp:100] Creating Layer conv4_1
I0217 12:00:17.940382 23132 net.cpp:434] conv4_1 <- pool3
I0217 12:00:17.940392 23132 net.cpp:408] conv4_1 -> conv4_1
I0217 12:00:17.953558 23132 net.cpp:150] Setting up conv4_1
I0217 12:00:17.953595 23132 net.cpp:157] Top shape: 32 512 38 38 (23658496)
I0217 12:00:17.953604 23132 net.cpp:165] Memory required for data: 6316671072
I0217 12:00:17.953619 23132 layer_factory.hpp:77] Creating layer relu4_1
I0217 12:00:17.953641 23132 net.cpp:100] Creating Layer relu4_1
I0217 12:00:17.953655 23132 net.cpp:434] relu4_1 <- conv4_1
I0217 12:00:17.953666 23132 net.cpp:395] relu4_1 -> conv4_1 (in-place)
I0217 12:00:17.954035 23132 net.cpp:150] Setting up relu4_1
I0217 12:00:17.954052 23132 net.cpp:157] Top shape: 32 512 38 38 (23658496)
I0217 12:00:17.954061 23132 net.cpp:165] Memory required for data: 6411305056
I0217 12:00:17.954071 23132 layer_factory.hpp:77] Creating layer conv4_2
I0217 12:00:17.954093 23132 net.cpp:100] Creating Layer conv4_2
I0217 12:00:17.954102 23132 net.cpp:434] conv4_2 <- conv4_1
I0217 12:00:17.954118 23132 net.cpp:408] conv4_2 -> conv4_2
I0217 12:00:17.983362 23132 net.cpp:150] Setting up conv4_2
I0217 12:00:17.983402 23132 net.cpp:157] Top shape: 32 512 38 38 (23658496)
I0217 12:00:17.983409 23132 net.cpp:165] Memory required for data: 6505939040
I0217 12:00:17.983431 23132 layer_factory.hpp:77] Creating layer relu4_2
I0217 12:00:17.983455 23132 net.cpp:100] Creating Layer relu4_2
I0217 12:00:17.983469 23132 net.cpp:434] relu4_2 <- conv4_2
I0217 12:00:17.983477 23132 net.cpp:395] relu4_2 -> conv4_2 (in-place)
I0217 12:00:17.983706 23132 net.cpp:150] Setting up relu4_2
I0217 12:00:17.983726 23132 net.cpp:157] Top shape: 32 512 38 38 (23658496)
I0217 12:00:17.983734 23132 net.cpp:165] Memory required for data: 6600573024
I0217 12:00:17.983743 23132 layer_factory.hpp:77] Creating layer conv4_3
I0217 12:00:17.983767 23132 net.cpp:100] Creating Layer conv4_3
I0217 12:00:17.983774 23132 net.cpp:434] conv4_3 <- conv4_2
I0217 12:00:17.983788 23132 net.cpp:408] conv4_3 -> conv4_3
I0217 12:00:18.005650 23132 net.cpp:150] Setting up conv4_3
I0217 12:00:18.005687 23132 net.cpp:157] Top shape: 32 512 38 38 (23658496)
I0217 12:00:18.005694 23132 net.cpp:165] Memory required for data: 6695207008
I0217 12:00:18.005708 23132 layer_factory.hpp:77] Creating layer relu4_3
I0217 12:00:18.005729 23132 net.cpp:100] Creating Layer relu4_3
I0217 12:00:18.005759 23132 net.cpp:434] relu4_3 <- conv4_3
I0217 12:00:18.005770 23132 net.cpp:395] relu4_3 -> conv4_3 (in-place)
I0217 12:00:18.006129 23132 net.cpp:150] Setting up relu4_3
I0217 12:00:18.006145 23132 net.cpp:157] Top shape: 32 512 38 38 (23658496)
I0217 12:00:18.006153 23132 net.cpp:165] Memory required for data: 6789840992
I0217 12:00:18.006160 23132 layer_factory.hpp:77] Creating layer conv4_3_relu4_3_0_split
I0217 12:00:18.006175 23132 net.cpp:100] Creating Layer conv4_3_relu4_3_0_split
I0217 12:00:18.006184 23132 net.cpp:434] conv4_3_relu4_3_0_split <- conv4_3
I0217 12:00:18.006192 23132 net.cpp:408] conv4_3_relu4_3_0_split -> conv4_3_relu4_3_0_split_0
I0217 12:00:18.006203 23132 net.cpp:408] conv4_3_relu4_3_0_split -> conv4_3_relu4_3_0_split_1
I0217 12:00:18.006255 23132 net.cpp:150] Setting up conv4_3_relu4_3_0_split
I0217 12:00:18.006268 23132 net.cpp:157] Top shape: 32 512 38 38 (23658496)
I0217 12:00:18.006276 23132 net.cpp:157] Top shape: 32 512 38 38 (23658496)
I0217 12:00:18.006283 23132 net.cpp:165] Memory required for data: 6979108960
I0217 12:00:18.006289 23132 layer_factory.hpp:77] Creating layer pool4
I0217 12:00:18.006304 23132 net.cpp:100] Creating Layer pool4
I0217 12:00:18.006314 23132 net.cpp:434] pool4 <- conv4_3_relu4_3_0_split_0
I0217 12:00:18.006323 23132 net.cpp:408] pool4 -> pool4
I0217 12:00:18.006378 23132 net.cpp:150] Setting up pool4
I0217 12:00:18.006391 23132 net.cpp:157] Top shape: 32 512 19 19 (5914624)
I0217 12:00:18.006397 23132 net.cpp:165] Memory required for data: 7002767456
I0217 12:00:18.006405 23132 layer_factory.hpp:77] Creating layer conv5_1
I0217 12:00:18.006424 23132 net.cpp:100] Creating Layer conv5_1
I0217 12:00:18.006430 23132 net.cpp:434] conv5_1 <- pool4
I0217 12:00:18.006438 23132 net.cpp:408] conv5_1 -> conv5_1
I0217 12:00:18.028113 23132 net.cpp:150] Setting up conv5_1
I0217 12:00:18.028153 23132 net.cpp:157] Top shape: 32 512 19 19 (5914624)
I0217 12:00:18.028161 23132 net.cpp:165] Memory required for data: 7026425952
I0217 12:00:18.028174 23132 layer_factory.hpp:77] Creating layer relu5_1
I0217 12:00:18.028189 23132 net.cpp:100] Creating Layer relu5_1
I0217 12:00:18.028201 23132 net.cpp:434] relu5_1 <- conv5_1
I0217 12:00:18.028216 23132 net.cpp:395] relu5_1 -> conv5_1 (in-place)
I0217 12:00:18.028563 23132 net.cpp:150] Setting up relu5_1
I0217 12:00:18.028580 23132 net.cpp:157] Top shape: 32 512 19 19 (5914624)
I0217 12:00:18.028587 23132 net.cpp:165] Memory required for data: 7050084448
I0217 12:00:18.028599 23132 layer_factory.hpp:77] Creating layer conv5_2
I0217 12:00:18.028622 23132 net.cpp:100] Creating Layer conv5_2
I0217 12:00:18.028630 23132 net.cpp:434] conv5_2 <- conv5_1
I0217 12:00:18.028642 23132 net.cpp:408] conv5_2 -> conv5_2
I0217 12:00:18.050143 23132 net.cpp:150] Setting up conv5_2
I0217 12:00:18.050184 23132 net.cpp:157] Top shape: 32 512 19 19 (5914624)
I0217 12:00:18.050191 23132 net.cpp:165] Memory required for data: 7073742944
I0217 12:00:18.050204 23132 layer_factory.hpp:77] Creating layer relu5_2
I0217 12:00:18.050222 23132 net.cpp:100] Creating Layer relu5_2
I0217 12:00:18.050237 23132 net.cpp:434] relu5_2 <- conv5_2
I0217 12:00:18.050252 23132 net.cpp:395] relu5_2 -> conv5_2 (in-place)
I0217 12:00:18.050468 23132 net.cpp:150] Setting up relu5_2
I0217 12:00:18.050484 23132 net.cpp:157] Top shape: 32 512 19 19 (5914624)
I0217 12:00:18.050490 23132 net.cpp:165] Memory required for data: 7097401440
I0217 12:00:18.050501 23132 layer_factory.hpp:77] Creating layer conv5_3
I0217 12:00:18.050528 23132 net.cpp:100] Creating Layer conv5_3
I0217 12:00:18.050536 23132 net.cpp:434] conv5_3 <- conv5_2
I0217 12:00:18.050549 23132 net.cpp:408] conv5_3 -> conv5_3
I0217 12:00:18.072077 23132 net.cpp:150] Setting up conv5_3
I0217 12:00:18.072118 23132 net.cpp:157] Top shape: 32 512 19 19 (5914624)
I0217 12:00:18.072125 23132 net.cpp:165] Memory required for data: 7121059936
I0217 12:00:18.072139 23132 layer_factory.hpp:77] Creating layer relu5_3
I0217 12:00:18.072162 23132 net.cpp:100] Creating Layer relu5_3
I0217 12:00:18.072175 23132 net.cpp:434] relu5_3 <- conv5_3
I0217 12:00:18.072202 23132 net.cpp:395] relu5_3 -> conv5_3 (in-place)
I0217 12:00:18.072572 23132 net.cpp:150] Setting up relu5_3
I0217 12:00:18.072589 23132 net.cpp:157] Top shape: 32 512 19 19 (5914624)
I0217 12:00:18.072597 23132 net.cpp:165] Memory required for data: 7144718432
I0217 12:00:18.072608 23132 layer_factory.hpp:77] Creating layer pool5
I0217 12:00:18.072624 23132 net.cpp:100] Creating Layer pool5
I0217 12:00:18.072633 23132 net.cpp:434] pool5 <- conv5_3
I0217 12:00:18.072646 23132 net.cpp:408] pool5 -> pool5
I0217 12:00:18.072708 23132 net.cpp:150] Setting up pool5
I0217 12:00:18.072724 23132 net.cpp:157] Top shape: 32 512 19 19 (5914624)
I0217 12:00:18.072731 23132 net.cpp:165] Memory required for data: 7168376928
I0217 12:00:18.072737 23132 layer_factory.hpp:77] Creating layer fc6
I0217 12:00:18.072757 23132 net.cpp:100] Creating Layer fc6
I0217 12:00:18.072760 23132 net.cpp:434] fc6 <- pool5
I0217 12:00:18.072772 23132 net.cpp:408] fc6 -> fc6
I0217 12:00:18.114112 23132 net.cpp:150] Setting up fc6
I0217 12:00:18.114153 23132 net.cpp:157] Top shape: 32 1024 19 19 (11829248)
I0217 12:00:18.114159 23132 net.cpp:165] Memory required for data: 7215693920
I0217 12:00:18.114173 23132 layer_factory.hpp:77] Creating layer relu6
I0217 12:00:18.114192 23132 net.cpp:100] Creating Layer relu6
I0217 12:00:18.114205 23132 net.cpp:434] relu6 <- fc6
I0217 12:00:18.114218 23132 net.cpp:395] relu6 -> fc6 (in-place)
I0217 12:00:18.114495 23132 net.cpp:150] Setting up relu6
I0217 12:00:18.114509 23132 net.cpp:157] Top shape: 32 1024 19 19 (11829248)
I0217 12:00:18.114516 23132 net.cpp:165] Memory required for data: 7263010912
I0217 12:00:18.114528 23132 layer_factory.hpp:77] Creating layer fc7
I0217 12:00:18.114549 23132 net.cpp:100] Creating Layer fc7
I0217 12:00:18.114558 23132 net.cpp:434] fc7 <- fc6
I0217 12:00:18.114573 23132 net.cpp:408] fc7 -> fc7
I0217 12:00:18.124850 23132 net.cpp:150] Setting up fc7
I0217 12:00:18.124884 23132 net.cpp:157] Top shape: 32 1024 19 19 (11829248)
I0217 12:00:18.124891 23132 net.cpp:165] Memory required for data: 7310327904
I0217 12:00:18.124904 23132 layer_factory.hpp:77] Creating layer relu7
I0217 12:00:18.124922 23132 net.cpp:100] Creating Layer relu7
I0217 12:00:18.124933 23132 net.cpp:434] relu7 <- fc7
I0217 12:00:18.124944 23132 net.cpp:395] relu7 -> fc7 (in-place)
I0217 12:00:18.125298 23132 net.cpp:150] Setting up relu7
I0217 12:00:18.125316 23132 net.cpp:157] Top shape: 32 1024 19 19 (11829248)
I0217 12:00:18.125324 23132 net.cpp:165] Memory required for data: 7357644896
I0217 12:00:18.125334 23132 layer_factory.hpp:77] Creating layer fc7_relu7_0_split
I0217 12:00:18.125346 23132 net.cpp:100] Creating Layer fc7_relu7_0_split
I0217 12:00:18.125355 23132 net.cpp:434] fc7_relu7_0_split <- fc7
I0217 12:00:18.125368 23132 net.cpp:408] fc7_relu7_0_split -> fc7_relu7_0_split_0
I0217 12:00:18.125383 23132 net.cpp:408] fc7_relu7_0_split -> fc7_relu7_0_split_1
I0217 12:00:18.125403 23132 net.cpp:408] fc7_relu7_0_split -> fc7_relu7_0_split_2
I0217 12:00:18.125416 23132 net.cpp:408] fc7_relu7_0_split -> fc7_relu7_0_split_3
I0217 12:00:18.125501 23132 net.cpp:150] Setting up fc7_relu7_0_split
I0217 12:00:18.125517 23132 net.cpp:157] Top shape: 32 1024 19 19 (11829248)
I0217 12:00:18.125527 23132 net.cpp:157] Top shape: 32 1024 19 19 (11829248)
I0217 12:00:18.125532 23132 net.cpp:157] Top shape: 32 1024 19 19 (11829248)
I0217 12:00:18.125536 23132 net.cpp:157] Top shape: 32 1024 19 19 (11829248)
I0217 12:00:18.125540 23132 net.cpp:165] Memory required for data: 7546912864
I0217 12:00:18.125543 23132 layer_factory.hpp:77] Creating layer conv6_1
I0217 12:00:18.125556 23132 net.cpp:100] Creating Layer conv6_1
I0217 12:00:18.125560 23132 net.cpp:434] conv6_1 <- fc7_relu7_0_split_0
I0217 12:00:18.125568 23132 net.cpp:408] conv6_1 -> conv6_1
I0217 12:00:18.129079 23132 net.cpp:150] Setting up conv6_1
I0217 12:00:18.129101 23132 net.cpp:157] Top shape: 32 256 19 19 (2957312)
I0217 12:00:18.129106 23132 net.cpp:165] Memory required for data: 7558742112
I0217 12:00:18.129137 23132 layer_factory.hpp:77] Creating layer conv6_1_relu
I0217 12:00:18.129154 23132 net.cpp:100] Creating Layer conv6_1_relu
I0217 12:00:18.129166 23132 net.cpp:434] conv6_1_relu <- conv6_1
I0217 12:00:18.129179 23132 net.cpp:395] conv6_1_relu -> conv6_1 (in-place)
I0217 12:00:18.129550 23132 net.cpp:150] Setting up conv6_1_relu
I0217 12:00:18.129570 23132 net.cpp:157] Top shape: 32 256 19 19 (2957312)
I0217 12:00:18.129577 23132 net.cpp:165] Memory required for data: 7570571360
I0217 12:00:18.129587 23132 layer_factory.hpp:77] Creating layer conv6_2
I0217 12:00:18.129602 23132 net.cpp:100] Creating Layer conv6_2
I0217 12:00:18.129607 23132 net.cpp:434] conv6_2 <- conv6_1
I0217 12:00:18.129614 23132 net.cpp:408] conv6_2 -> conv6_2
I0217 12:00:18.141041 23132 net.cpp:150] Setting up conv6_2
I0217 12:00:18.141075 23132 net.cpp:157] Top shape: 32 512 10 10 (1638400)
I0217 12:00:18.141080 23132 net.cpp:165] Memory required for data: 7577124960
I0217 12:00:18.141098 23132 layer_factory.hpp:77] Creating layer conv6_2_relu
I0217 12:00:18.141110 23132 net.cpp:100] Creating Layer conv6_2_relu
I0217 12:00:18.141121 23132 net.cpp:434] conv6_2_relu <- conv6_2
I0217 12:00:18.141134 23132 net.cpp:395] conv6_2_relu -> conv6_2 (in-place)
I0217 12:00:18.141353 23132 net.cpp:150] Setting up conv6_2_relu
I0217 12:00:18.141371 23132 net.cpp:157] Top shape: 32 512 10 10 (1638400)
I0217 12:00:18.141378 23132 net.cpp:165] Memory required for data: 7583678560
I0217 12:00:18.141388 23132 layer_factory.hpp:77] Creating layer conv6_2_conv6_2_relu_0_split
I0217 12:00:18.141400 23132 net.cpp:100] Creating Layer conv6_2_conv6_2_relu_0_split
I0217 12:00:18.141409 23132 net.cpp:434] conv6_2_conv6_2_relu_0_split <- conv6_2
I0217 12:00:18.141417 23132 net.cpp:408] conv6_2_conv6_2_relu_0_split -> conv6_2_conv6_2_relu_0_split_0
I0217 12:00:18.141425 23132 net.cpp:408] conv6_2_conv6_2_relu_0_split -> conv6_2_conv6_2_relu_0_split_1
I0217 12:00:18.141443 23132 net.cpp:408] conv6_2_conv6_2_relu_0_split -> conv6_2_conv6_2_relu_0_split_2
I0217 12:00:18.141454 23132 net.cpp:408] conv6_2_conv6_2_relu_0_split -> conv6_2_conv6_2_relu_0_split_3
I0217 12:00:18.141547 23132 net.cpp:150] Setting up conv6_2_conv6_2_relu_0_split
I0217 12:00:18.141561 23132 net.cpp:157] Top shape: 32 512 10 10 (1638400)
I0217 12:00:18.141569 23132 net.cpp:157] Top shape: 32 512 10 10 (1638400)
I0217 12:00:18.141579 23132 net.cpp:157] Top shape: 32 512 10 10 (1638400)
I0217 12:00:18.141584 23132 net.cpp:157] Top shape: 32 512 10 10 (1638400)
I0217 12:00:18.141587 23132 net.cpp:165] Memory required for data: 7609892960
I0217 12:00:18.141592 23132 layer_factory.hpp:77] Creating layer conv7_1
I0217 12:00:18.141609 23132 net.cpp:100] Creating Layer conv7_1
I0217 12:00:18.141618 23132 net.cpp:434] conv7_1 <- conv6_2_conv6_2_relu_0_split_0
I0217 12:00:18.141629 23132 net.cpp:408] conv7_1 -> conv7_1
I0217 12:00:18.143270 23132 net.cpp:150] Setting up conv7_1
I0217 12:00:18.143288 23132 net.cpp:157] Top shape: 32 128 10 10 (409600)
I0217 12:00:18.143296 23132 net.cpp:165] Memory required for data: 7611531360
I0217 12:00:18.143312 23132 layer_factory.hpp:77] Creating layer conv7_1_relu
I0217 12:00:18.143326 23132 net.cpp:100] Creating Layer conv7_1_relu
I0217 12:00:18.143337 23132 net.cpp:434] conv7_1_relu <- conv7_1
I0217 12:00:18.143347 23132 net.cpp:395] conv7_1_relu -> conv7_1 (in-place)
I0217 12:00:18.143682 23132 net.cpp:150] Setting up conv7_1_relu
I0217 12:00:18.143695 23132 net.cpp:157] Top shape: 32 128 10 10 (409600)
I0217 12:00:18.143699 23132 net.cpp:165] Memory required for data: 7613169760
I0217 12:00:18.143703 23132 layer_factory.hpp:77] Creating layer conv7_2
I0217 12:00:18.143715 23132 net.cpp:100] Creating Layer conv7_2
I0217 12:00:18.143719 23132 net.cpp:434] conv7_2 <- conv7_1
I0217 12:00:18.143728 23132 net.cpp:408] conv7_2 -> conv7_2
I0217 12:00:18.147347 23132 net.cpp:150] Setting up conv7_2
I0217 12:00:18.147366 23132 net.cpp:157] Top shape: 32 256 5 5 (204800)
I0217 12:00:18.147370 23132 net.cpp:165] Memory required for data: 7613988960
I0217 12:00:18.147377 23132 layer_factory.hpp:77] Creating layer conv7_2_relu
I0217 12:00:18.147403 23132 net.cpp:100] Creating Layer conv7_2_relu
I0217 12:00:18.147411 23132 net.cpp:434] conv7_2_relu <- conv7_2
I0217 12:00:18.147421 23132 net.cpp:395] conv7_2_relu -> conv7_2 (in-place)
I0217 12:00:18.147783 23132 net.cpp:150] Setting up conv7_2_relu
I0217 12:00:18.147799 23132 net.cpp:157] Top shape: 32 256 5 5 (204800)
I0217 12:00:18.147806 23132 net.cpp:165] Memory required for data: 7614808160
I0217 12:00:18.147814 23132 layer_factory.hpp:77] Creating layer conv7_2_conv7_2_relu_0_split
I0217 12:00:18.147827 23132 net.cpp:100] Creating Layer conv7_2_conv7_2_relu_0_split
I0217 12:00:18.147837 23132 net.cpp:434] conv7_2_conv7_2_relu_0_split <- conv7_2
I0217 12:00:18.147847 23132 net.cpp:408] conv7_2_conv7_2_relu_0_split -> conv7_2_conv7_2_relu_0_split_0
I0217 12:00:18.147855 23132 net.cpp:408] conv7_2_conv7_2_relu_0_split -> conv7_2_conv7_2_relu_0_split_1
I0217 12:00:18.147862 23132 net.cpp:408] conv7_2_conv7_2_relu_0_split -> conv7_2_conv7_2_relu_0_split_2
I0217 12:00:18.147868 23132 net.cpp:408] conv7_2_conv7_2_relu_0_split -> conv7_2_conv7_2_relu_0_split_3
I0217 12:00:18.147960 23132 net.cpp:150] Setting up conv7_2_conv7_2_relu_0_split
I0217 12:00:18.147970 23132 net.cpp:157] Top shape: 32 256 5 5 (204800)
I0217 12:00:18.147974 23132 net.cpp:157] Top shape: 32 256 5 5 (204800)
I0217 12:00:18.147979 23132 net.cpp:157] Top shape: 32 256 5 5 (204800)
I0217 12:00:18.147982 23132 net.cpp:157] Top shape: 32 256 5 5 (204800)
I0217 12:00:18.147985 23132 net.cpp:165] Memory required for data: 7618084960
I0217 12:00:18.147989 23132 layer_factory.hpp:77] Creating layer conv8_1
I0217 12:00:18.148002 23132 net.cpp:100] Creating Layer conv8_1
I0217 12:00:18.148007 23132 net.cpp:434] conv8_1 <- conv7_2_conv7_2_relu_0_split_0
I0217 12:00:18.148015 23132 net.cpp:408] conv8_1 -> conv8_1
I0217 12:00:18.149363 23132 net.cpp:150] Setting up conv8_1
I0217 12:00:18.149379 23132 net.cpp:157] Top shape: 32 128 5 5 (102400)
I0217 12:00:18.149387 23132 net.cpp:165] Memory required for data: 7618494560
I0217 12:00:18.149399 23132 layer_factory.hpp:77] Creating layer conv8_1_relu
I0217 12:00:18.149411 23132 net.cpp:100] Creating Layer conv8_1_relu
I0217 12:00:18.149422 23132 net.cpp:434] conv8_1_relu <- conv8_1
I0217 12:00:18.149433 23132 net.cpp:395] conv8_1_relu -> conv8_1 (in-place)
I0217 12:00:18.149637 23132 net.cpp:150] Setting up conv8_1_relu
I0217 12:00:18.149648 23132 net.cpp:157] Top shape: 32 128 5 5 (102400)
I0217 12:00:18.149652 23132 net.cpp:165] Memory required for data: 7618904160
I0217 12:00:18.149657 23132 layer_factory.hpp:77] Creating layer conv8_2
I0217 12:00:18.149667 23132 net.cpp:100] Creating Layer conv8_2
I0217 12:00:18.149672 23132 net.cpp:434] conv8_2 <- conv8_1
I0217 12:00:18.149680 23132 net.cpp:408] conv8_2 -> conv8_2
I0217 12:00:18.153465 23132 net.cpp:150] Setting up conv8_2
I0217 12:00:18.153484 23132 net.cpp:157] Top shape: 32 256 3 3 (73728)
I0217 12:00:18.153488 23132 net.cpp:165] Memory required for data: 7619199072
I0217 12:00:18.153496 23132 layer_factory.hpp:77] Creating layer conv8_2_relu
I0217 12:00:18.153506 23132 net.cpp:100] Creating Layer conv8_2_relu
I0217 12:00:18.153512 23132 net.cpp:434] conv8_2_relu <- conv8_2
I0217 12:00:18.153518 23132 net.cpp:395] conv8_2_relu -> conv8_2 (in-place)
I0217 12:00:18.153869 23132 net.cpp:150] Setting up conv8_2_relu
I0217 12:00:18.153884 23132 net.cpp:157] Top shape: 32 256 3 3 (73728)
I0217 12:00:18.153888 23132 net.cpp:165] Memory required for data: 7619493984
I0217 12:00:18.153892 23132 layer_factory.hpp:77] Creating layer conv8_2_conv8_2_relu_0_split
I0217 12:00:18.153900 23132 net.cpp:100] Creating Layer conv8_2_conv8_2_relu_0_split
I0217 12:00:18.153906 23132 net.cpp:434] conv8_2_conv8_2_relu_0_split <- conv8_2
I0217 12:00:18.153914 23132 net.cpp:408] conv8_2_conv8_2_relu_0_split -> conv8_2_conv8_2_relu_0_split_0
I0217 12:00:18.153924 23132 net.cpp:408] conv8_2_conv8_2_relu_0_split -> conv8_2_conv8_2_relu_0_split_1
I0217 12:00:18.153934 23132 net.cpp:408] conv8_2_conv8_2_relu_0_split -> conv8_2_conv8_2_relu_0_split_2
I0217 12:00:18.153955 23132 net.cpp:408] conv8_2_conv8_2_relu_0_split -> conv8_2_conv8_2_relu_0_split_3
I0217 12:00:18.154054 23132 net.cpp:150] Setting up conv8_2_conv8_2_relu_0_split
I0217 12:00:18.154065 23132 net.cpp:157] Top shape: 32 256 3 3 (73728)
I0217 12:00:18.154070 23132 net.cpp:157] Top shape: 32 256 3 3 (73728)
I0217 12:00:18.154078 23132 net.cpp:157] Top shape: 32 256 3 3 (73728)
I0217 12:00:18.154081 23132 net.cpp:157] Top shape: 32 256 3 3 (73728)
I0217 12:00:18.154084 23132 net.cpp:165] Memory required for data: 7620673632
I0217 12:00:18.154088 23132 layer_factory.hpp:77] Creating layer conv9_1
I0217 12:00:18.154103 23132 net.cpp:100] Creating Layer conv9_1
I0217 12:00:18.154114 23132 net.cpp:434] conv9_1 <- conv8_2_conv8_2_relu_0_split_0
I0217 12:00:18.154129 23132 net.cpp:408] conv9_1 -> conv9_1
I0217 12:00:18.155378 23132 net.cpp:150] Setting up conv9_1
I0217 12:00:18.155395 23132 net.cpp:157] Top shape: 32 128 3 3 (36864)
I0217 12:00:18.155398 23132 net.cpp:165] Memory required for data: 7620821088
I0217 12:00:18.155405 23132 layer_factory.hpp:77] Creating layer conv9_1_relu
I0217 12:00:18.155418 23132 net.cpp:100] Creating Layer conv9_1_relu
I0217 12:00:18.155427 23132 net.cpp:434] conv9_1_relu <- conv9_1
I0217 12:00:18.155438 23132 net.cpp:395] conv9_1_relu -> conv9_1 (in-place)
I0217 12:00:18.155786 23132 net.cpp:150] Setting up conv9_1_relu
I0217 12:00:18.155797 23132 net.cpp:157] Top shape: 32 128 3 3 (36864)
I0217 12:00:18.155802 23132 net.cpp:165] Memory required for data: 7620968544
I0217 12:00:18.155805 23132 layer_factory.hpp:77] Creating layer conv9_2
I0217 12:00:18.155817 23132 net.cpp:100] Creating Layer conv9_2
I0217 12:00:18.155822 23132 net.cpp:434] conv9_2 <- conv9_1
I0217 12:00:18.155830 23132 net.cpp:408] conv9_2 -> conv9_2
I0217 12:00:18.159657 23132 net.cpp:150] Setting up conv9_2
I0217 12:00:18.159677 23132 net.cpp:157] Top shape: 32 256 1 1 (8192)
I0217 12:00:18.159685 23132 net.cpp:165] Memory required for data: 7621001312
I0217 12:00:18.159698 23132 layer_factory.hpp:77] Creating layer conv9_2_relu
I0217 12:00:18.159708 23132 net.cpp:100] Creating Layer conv9_2_relu
I0217 12:00:18.159718 23132 net.cpp:434] conv9_2_relu <- conv9_2
I0217 12:00:18.159729 23132 net.cpp:395] conv9_2_relu -> conv9_2 (in-place)
I0217 12:00:18.159951 23132 net.cpp:150] Setting up conv9_2_relu
I0217 12:00:18.159967 23132 net.cpp:157] Top shape: 32 256 1 1 (8192)
I0217 12:00:18.159975 23132 net.cpp:165] Memory required for data: 7621034080
I0217 12:00:18.159981 23132 layer_factory.hpp:77] Creating layer conv9_2_conv9_2_relu_0_split
I0217 12:00:18.159994 23132 net.cpp:100] Creating Layer conv9_2_conv9_2_relu_0_split
I0217 12:00:18.160001 23132 net.cpp:434] conv9_2_conv9_2_relu_0_split <- conv9_2
I0217 12:00:18.160012 23132 net.cpp:408] conv9_2_conv9_2_relu_0_split -> conv9_2_conv9_2_relu_0_split_0
I0217 12:00:18.160025 23132 net.cpp:408] conv9_2_conv9_2_relu_0_split -> conv9_2_conv9_2_relu_0_split_1
I0217 12:00:18.160038 23132 net.cpp:408] conv9_2_conv9_2_relu_0_split -> conv9_2_conv9_2_relu_0_split_2
I0217 12:00:18.160117 23132 net.cpp:150] Setting up conv9_2_conv9_2_relu_0_split
I0217 12:00:18.160131 23132 net.cpp:157] Top shape: 32 256 1 1 (8192)
I0217 12:00:18.160140 23132 net.cpp:157] Top shape: 32 256 1 1 (8192)
I0217 12:00:18.160147 23132 net.cpp:157] Top shape: 32 256 1 1 (8192)
I0217 12:00:18.160154 23132 net.cpp:165] Memory required for data: 7621132384
I0217 12:00:18.160161 23132 layer_factory.hpp:77] Creating layer conv4_3_norm
I0217 12:00:18.160174 23132 net.cpp:100] Creating Layer conv4_3_norm
I0217 12:00:18.160182 23132 net.cpp:434] conv4_3_norm <- conv4_3_relu4_3_0_split_1
I0217 12:00:18.160193 23132 net.cpp:408] conv4_3_norm -> conv4_3_norm
I0217 12:00:18.160411 23132 net.cpp:150] Setting up conv4_3_norm
I0217 12:00:18.160425 23132 net.cpp:157] Top shape: 32 512 38 38 (23658496)
I0217 12:00:18.160431 23132 net.cpp:165] Memory required for data: 7715766368
I0217 12:00:18.160441 23132 layer_factory.hpp:77] Creating layer conv4_3_norm_conv4_3_norm_0_split
I0217 12:00:18.160475 23132 net.cpp:100] Creating Layer conv4_3_norm_conv4_3_norm_0_split
I0217 12:00:18.160482 23132 net.cpp:434] conv4_3_norm_conv4_3_norm_0_split <- conv4_3_norm
I0217 12:00:18.160488 23132 net.cpp:408] conv4_3_norm_conv4_3_norm_0_split -> conv4_3_norm_conv4_3_norm_0_split_0
I0217 12:00:18.160498 23132 net.cpp:408] conv4_3_norm_conv4_3_norm_0_split -> conv4_3_norm_conv4_3_norm_0_split_1
I0217 12:00:18.160509 23132 net.cpp:408] conv4_3_norm_conv4_3_norm_0_split -> conv4_3_norm_conv4_3_norm_0_split_2
I0217 12:00:18.160573 23132 net.cpp:150] Setting up conv4_3_norm_conv4_3_norm_0_split
I0217 12:00:18.160584 23132 net.cpp:157] Top shape: 32 512 38 38 (23658496)
I0217 12:00:18.160593 23132 net.cpp:157] Top shape: 32 512 38 38 (23658496)
I0217 12:00:18.160601 23132 net.cpp:157] Top shape: 32 512 38 38 (23658496)
I0217 12:00:18.160607 23132 net.cpp:165] Memory required for data: 7999668320
I0217 12:00:18.160614 23132 layer_factory.hpp:77] Creating layer conv4_3_norm_mbox_loc
I0217 12:00:18.160629 23132 net.cpp:100] Creating Layer conv4_3_norm_mbox_loc
I0217 12:00:18.160639 23132 net.cpp:434] conv4_3_norm_mbox_loc <- conv4_3_norm_conv4_3_norm_0_split_0
I0217 12:00:18.160653 23132 net.cpp:408] conv4_3_norm_mbox_loc -> conv4_3_norm_mbox_loc
I0217 12:00:18.162472 23132 net.cpp:150] Setting up conv4_3_norm_mbox_loc
I0217 12:00:18.162490 23132 net.cpp:157] Top shape: 32 16 38 38 (739328)
I0217 12:00:18.162497 23132 net.cpp:165] Memory required for data: 8002625632
I0217 12:00:18.162509 23132 layer_factory.hpp:77] Creating layer conv4_3_norm_mbox_loc_perm
I0217 12:00:18.162539 23132 net.cpp:100] Creating Layer conv4_3_norm_mbox_loc_perm
I0217 12:00:18.162551 23132 net.cpp:434] conv4_3_norm_mbox_loc_perm <- conv4_3_norm_mbox_loc
I0217 12:00:18.162564 23132 net.cpp:408] conv4_3_norm_mbox_loc_perm -> conv4_3_norm_mbox_loc_perm
I0217 12:00:18.162706 23132 net.cpp:150] Setting up conv4_3_norm_mbox_loc_perm
I0217 12:00:18.162716 23132 net.cpp:157] Top shape: 32 38 38 16 (739328)
I0217 12:00:18.162720 23132 net.cpp:165] Memory required for data: 8005582944
I0217 12:00:18.162724 23132 layer_factory.hpp:77] Creating layer conv4_3_norm_mbox_loc_flat
I0217 12:00:18.162734 23132 net.cpp:100] Creating Layer conv4_3_norm_mbox_loc_flat
I0217 12:00:18.162737 23132 net.cpp:434] conv4_3_norm_mbox_loc_flat <- conv4_3_norm_mbox_loc_perm
I0217 12:00:18.162744 23132 net.cpp:408] conv4_3_norm_mbox_loc_flat -> conv4_3_norm_mbox_loc_flat
I0217 12:00:18.162781 23132 net.cpp:150] Setting up conv4_3_norm_mbox_loc_flat
I0217 12:00:18.162788 23132 net.cpp:157] Top shape: 32 23104 (739328)
I0217 12:00:18.162792 23132 net.cpp:165] Memory required for data: 8008540256
I0217 12:00:18.162796 23132 layer_factory.hpp:77] Creating layer conv4_3_norm_mbox_conf
I0217 12:00:18.162813 23132 net.cpp:100] Creating Layer conv4_3_norm_mbox_conf
I0217 12:00:18.162817 23132 net.cpp:434] conv4_3_norm_mbox_conf <- conv4_3_norm_conv4_3_norm_0_split_1
I0217 12:00:18.162824 23132 net.cpp:408] conv4_3_norm_mbox_conf -> conv4_3_norm_mbox_conf
I0217 12:00:18.167547 23132 net.cpp:150] Setting up conv4_3_norm_mbox_conf
I0217 12:00:18.167567 23132 net.cpp:157] Top shape: 32 88 38 38 (4066304)
I0217 12:00:18.167572 23132 net.cpp:165] Memory required for data: 8024805472
I0217 12:00:18.167579 23132 layer_factory.hpp:77] Creating layer conv4_3_norm_mbox_conf_perm
I0217 12:00:18.167592 23132 net.cpp:100] Creating Layer conv4_3_norm_mbox_conf_perm
I0217 12:00:18.167600 23132 net.cpp:434] conv4_3_norm_mbox_conf_perm <- conv4_3_norm_mbox_conf
I0217 12:00:18.167614 23132 net.cpp:408] conv4_3_norm_mbox_conf_perm -> conv4_3_norm_mbox_conf_perm
I0217 12:00:18.167778 23132 net.cpp:150] Setting up conv4_3_norm_mbox_conf_perm
I0217 12:00:18.167793 23132 net.cpp:157] Top shape: 32 38 38 88 (4066304)
I0217 12:00:18.167800 23132 net.cpp:165] Memory required for data: 8041070688
I0217 12:00:18.167806 23132 layer_factory.hpp:77] Creating layer conv4_3_norm_mbox_conf_flat
I0217 12:00:18.167819 23132 net.cpp:100] Creating Layer conv4_3_norm_mbox_conf_flat
I0217 12:00:18.167826 23132 net.cpp:434] conv4_3_norm_mbox_conf_flat <- conv4_3_norm_mbox_conf_perm
I0217 12:00:18.167856 23132 net.cpp:408] conv4_3_norm_mbox_conf_flat -> conv4_3_norm_mbox_conf_flat
I0217 12:00:18.167906 23132 net.cpp:150] Setting up conv4_3_norm_mbox_conf_flat
I0217 12:00:18.167918 23132 net.cpp:157] Top shape: 32 127072 (4066304)
I0217 12:00:18.167925 23132 net.cpp:165] Memory required for data: 8057335904
I0217 12:00:18.167932 23132 layer_factory.hpp:77] Creating layer conv4_3_norm_mbox_priorbox
I0217 12:00:18.167958 23132 net.cpp:100] Creating Layer conv4_3_norm_mbox_priorbox
I0217 12:00:18.167966 23132 net.cpp:434] conv4_3_norm_mbox_priorbox <- conv4_3_norm_conv4_3_norm_0_split_2
I0217 12:00:18.167976 23132 net.cpp:434] conv4_3_norm_mbox_priorbox <- data_data_0_split_1
I0217 12:00:18.167990 23132 net.cpp:408] conv4_3_norm_mbox_priorbox -> conv4_3_norm_mbox_priorbox
I0217 12:00:18.168042 23132 net.cpp:150] Setting up conv4_3_norm_mbox_priorbox
I0217 12:00:18.168056 23132 net.cpp:157] Top shape: 1 2 23104 (46208)
I0217 12:00:18.168062 23132 net.cpp:165] Memory required for data: 8057520736
I0217 12:00:18.168069 23132 layer_factory.hpp:77] Creating layer fc7_mbox_loc
I0217 12:00:18.168088 23132 net.cpp:100] Creating Layer fc7_mbox_loc
I0217 12:00:18.168098 23132 net.cpp:434] fc7_mbox_loc <- fc7_relu7_0_split_1
I0217 12:00:18.168110 23132 net.cpp:408] fc7_mbox_loc -> fc7_mbox_loc
I0217 12:00:18.171365 23132 net.cpp:150] Setting up fc7_mbox_loc
I0217 12:00:18.171383 23132 net.cpp:157] Top shape: 32 24 19 19 (277248)
I0217 12:00:18.171391 23132 net.cpp:165] Memory required for data: 8058629728
I0217 12:00:18.171403 23132 layer_factory.hpp:77] Creating layer fc7_mbox_loc_perm
I0217 12:00:18.171416 23132 net.cpp:100] Creating Layer fc7_mbox_loc_perm
I0217 12:00:18.171423 23132 net.cpp:434] fc7_mbox_loc_perm <- fc7_mbox_loc
I0217 12:00:18.171437 23132 net.cpp:408] fc7_mbox_loc_perm -> fc7_mbox_loc_perm
I0217 12:00:18.171604 23132 net.cpp:150] Setting up fc7_mbox_loc_perm
I0217 12:00:18.171619 23132 net.cpp:157] Top shape: 32 19 19 24 (277248)
I0217 12:00:18.171627 23132 net.cpp:165] Memory required for data: 8059738720
I0217 12:00:18.171633 23132 layer_factory.hpp:77] Creating layer fc7_mbox_loc_flat
I0217 12:00:18.171646 23132 net.cpp:100] Creating Layer fc7_mbox_loc_flat
I0217 12:00:18.171654 23132 net.cpp:434] fc7_mbox_loc_flat <- fc7_mbox_loc_perm
I0217 12:00:18.171666 23132 net.cpp:408] fc7_mbox_loc_flat -> fc7_mbox_loc_flat
I0217 12:00:18.171712 23132 net.cpp:150] Setting up fc7_mbox_loc_flat
I0217 12:00:18.171727 23132 net.cpp:157] Top shape: 32 8664 (277248)
I0217 12:00:18.171735 23132 net.cpp:165] Memory required for data: 8060847712
I0217 12:00:18.171741 23132 layer_factory.hpp:77] Creating layer fc7_mbox_conf
I0217 12:00:18.171761 23132 net.cpp:100] Creating Layer fc7_mbox_conf
I0217 12:00:18.171774 23132 net.cpp:434] fc7_mbox_conf <- fc7_relu7_0_split_2
I0217 12:00:18.171785 23132 net.cpp:408] fc7_mbox_conf -> fc7_mbox_conf
I0217 12:00:18.183542 23132 net.cpp:150] Setting up fc7_mbox_conf
I0217 12:00:18.183579 23132 net.cpp:157] Top shape: 32 132 19 19 (1524864)
I0217 12:00:18.183584 23132 net.cpp:165] Memory required for data: 8066947168
I0217 12:00:18.183594 23132 layer_factory.hpp:77] Creating layer fc7_mbox_conf_perm
I0217 12:00:18.183607 23132 net.cpp:100] Creating Layer fc7_mbox_conf_perm
I0217 12:00:18.183615 23132 net.cpp:434] fc7_mbox_conf_perm <- fc7_mbox_conf
I0217 12:00:18.183629 23132 net.cpp:408] fc7_mbox_conf_perm -> fc7_mbox_conf_perm
I0217 12:00:18.183786 23132 net.cpp:150] Setting up fc7_mbox_conf_perm
I0217 12:00:18.183804 23132 net.cpp:157] Top shape: 32 19 19 132 (1524864)
I0217 12:00:18.183811 23132 net.cpp:165] Memory required for data: 8073046624
I0217 12:00:18.183817 23132 layer_factory.hpp:77] Creating layer fc7_mbox_conf_flat
I0217 12:00:18.183831 23132 net.cpp:100] Creating Layer fc7_mbox_conf_flat
I0217 12:00:18.183840 23132 net.cpp:434] fc7_mbox_conf_flat <- fc7_mbox_conf_perm
I0217 12:00:18.183851 23132 net.cpp:408] fc7_mbox_conf_flat -> fc7_mbox_conf_flat
I0217 12:00:18.183900 23132 net.cpp:150] Setting up fc7_mbox_conf_flat
I0217 12:00:18.183940 23132 net.cpp:157] Top shape: 32 47652 (1524864)
I0217 12:00:18.183954 23132 net.cpp:165] Memory required for data: 8079146080
I0217 12:00:18.183961 23132 layer_factory.hpp:77] Creating layer fc7_mbox_priorbox
I0217 12:00:18.183974 23132 net.cpp:100] Creating Layer fc7_mbox_priorbox
I0217 12:00:18.183982 23132 net.cpp:434] fc7_mbox_priorbox <- fc7_relu7_0_split_3
I0217 12:00:18.183992 23132 net.cpp:434] fc7_mbox_priorbox <- data_data_0_split_2
I0217 12:00:18.184005 23132 net.cpp:408] fc7_mbox_priorbox -> fc7_mbox_priorbox
I0217 12:00:18.184064 23132 net.cpp:150] Setting up fc7_mbox_priorbox
I0217 12:00:18.184082 23132 net.cpp:157] Top shape: 1 2 8664 (17328)
I0217 12:00:18.184088 23132 net.cpp:165] Memory required for data: 8079215392
I0217 12:00:18.184095 23132 layer_factory.hpp:77] Creating layer conv6_2_mbox_loc
I0217 12:00:18.184116 23132 net.cpp:100] Creating Layer conv6_2_mbox_loc
I0217 12:00:18.184125 23132 net.cpp:434] conv6_2_mbox_loc <- conv6_2_conv6_2_relu_0_split_1
I0217 12:00:18.184140 23132 net.cpp:408] conv6_2_mbox_loc -> conv6_2_mbox_loc
I0217 12:00:18.186751 23132 net.cpp:150] Setting up conv6_2_mbox_loc
I0217 12:00:18.186774 23132 net.cpp:157] Top shape: 32 24 10 10 (76800)
I0217 12:00:18.186781 23132 net.cpp:165] Memory required for data: 8079522592
I0217 12:00:18.186794 23132 layer_factory.hpp:77] Creating layer conv6_2_mbox_loc_perm
I0217 12:00:18.186808 23132 net.cpp:100] Creating Layer conv6_2_mbox_loc_perm
I0217 12:00:18.186816 23132 net.cpp:434] conv6_2_mbox_loc_perm <- conv6_2_mbox_loc
I0217 12:00:18.186830 23132 net.cpp:408] conv6_2_mbox_loc_perm -> conv6_2_mbox_loc_perm
I0217 12:00:18.187006 23132 net.cpp:150] Setting up conv6_2_mbox_loc_perm
I0217 12:00:18.187021 23132 net.cpp:157] Top shape: 32 10 10 24 (76800)
I0217 12:00:18.187028 23132 net.cpp:165] Memory required for data: 8079829792
I0217 12:00:18.187036 23132 layer_factory.hpp:77] Creating layer conv6_2_mbox_loc_flat
I0217 12:00:18.187049 23132 net.cpp:100] Creating Layer conv6_2_mbox_loc_flat
I0217 12:00:18.187057 23132 net.cpp:434] conv6_2_mbox_loc_flat <- conv6_2_mbox_loc_perm
I0217 12:00:18.187069 23132 net.cpp:408] conv6_2_mbox_loc_flat -> conv6_2_mbox_loc_flat
I0217 12:00:18.187113 23132 net.cpp:150] Setting up conv6_2_mbox_loc_flat
I0217 12:00:18.187129 23132 net.cpp:157] Top shape: 32 2400 (76800)
I0217 12:00:18.187135 23132 net.cpp:165] Memory required for data: 8080136992
I0217 12:00:18.187139 23132 layer_factory.hpp:77] Creating layer conv6_2_mbox_conf
I0217 12:00:18.187155 23132 net.cpp:100] Creating Layer conv6_2_mbox_conf
I0217 12:00:18.187160 23132 net.cpp:434] conv6_2_mbox_conf <- conv6_2_conv6_2_relu_0_split_2
I0217 12:00:18.187166 23132 net.cpp:408] conv6_2_mbox_conf -> conv6_2_mbox_conf
I0217 12:00:18.193891 23132 net.cpp:150] Setting up conv6_2_mbox_conf
I0217 12:00:18.193927 23132 net.cpp:157] Top shape: 32 132 10 10 (422400)
I0217 12:00:18.193930 23132 net.cpp:165] Memory required for data: 8081826592
I0217 12:00:18.193941 23132 layer_factory.hpp:77] Creating layer conv6_2_mbox_conf_perm
I0217 12:00:18.193953 23132 net.cpp:100] Creating Layer conv6_2_mbox_conf_perm
I0217 12:00:18.193965 23132 net.cpp:434] conv6_2_mbox_conf_perm <- conv6_2_mbox_conf
I0217 12:00:18.193980 23132 net.cpp:408] conv6_2_mbox_conf_perm -> conv6_2_mbox_conf_perm
I0217 12:00:18.194151 23132 net.cpp:150] Setting up conv6_2_mbox_conf_perm
I0217 12:00:18.194166 23132 net.cpp:157] Top shape: 32 10 10 132 (422400)
I0217 12:00:18.194174 23132 net.cpp:165] Memory required for data: 8083516192
I0217 12:00:18.194180 23132 layer_factory.hpp:77] Creating layer conv6_2_mbox_conf_flat
I0217 12:00:18.194195 23132 net.cpp:100] Creating Layer conv6_2_mbox_conf_flat
I0217 12:00:18.194203 23132 net.cpp:434] conv6_2_mbox_conf_flat <- conv6_2_mbox_conf_perm
I0217 12:00:18.194214 23132 net.cpp:408] conv6_2_mbox_conf_flat -> conv6_2_mbox_conf_flat
I0217 12:00:18.194264 23132 net.cpp:150] Setting up conv6_2_mbox_conf_flat
I0217 12:00:18.194278 23132 net.cpp:157] Top shape: 32 13200 (422400)
I0217 12:00:18.194284 23132 net.cpp:165] Memory required for data: 8085205792
I0217 12:00:18.194314 23132 layer_factory.hpp:77] Creating layer conv6_2_mbox_priorbox
I0217 12:00:18.194334 23132 net.cpp:100] Creating Layer conv6_2_mbox_priorbox
I0217 12:00:18.194344 23132 net.cpp:434] conv6_2_mbox_priorbox <- conv6_2_conv6_2_relu_0_split_3
I0217 12:00:18.194355 23132 net.cpp:434] conv6_2_mbox_priorbox <- data_data_0_split_3
I0217 12:00:18.194366 23132 net.cpp:408] conv6_2_mbox_priorbox -> conv6_2_mbox_priorbox
I0217 12:00:18.194425 23132 net.cpp:150] Setting up conv6_2_mbox_priorbox
I0217 12:00:18.194438 23132 net.cpp:157] Top shape: 1 2 2400 (4800)
I0217 12:00:18.194445 23132 net.cpp:165] Memory required for data: 8085224992
I0217 12:00:18.194452 23132 layer_factory.hpp:77] Creating layer conv7_2_mbox_loc
I0217 12:00:18.194471 23132 net.cpp:100] Creating Layer conv7_2_mbox_loc
I0217 12:00:18.194480 23132 net.cpp:434] conv7_2_mbox_loc <- conv7_2_conv7_2_relu_0_split_1
I0217 12:00:18.194495 23132 net.cpp:408] conv7_2_mbox_loc -> conv7_2_mbox_loc
I0217 12:00:18.196617 23132 net.cpp:150] Setting up conv7_2_mbox_loc
I0217 12:00:18.196636 23132 net.cpp:157] Top shape: 32 24 5 5 (19200)
I0217 12:00:18.196645 23132 net.cpp:165] Memory required for data: 8085301792
I0217 12:00:18.196656 23132 layer_factory.hpp:77] Creating layer conv7_2_mbox_loc_perm
I0217 12:00:18.196669 23132 net.cpp:100] Creating Layer conv7_2_mbox_loc_perm
I0217 12:00:18.196677 23132 net.cpp:434] conv7_2_mbox_loc_perm <- conv7_2_mbox_loc
I0217 12:00:18.196691 23132 net.cpp:408] conv7_2_mbox_loc_perm -> conv7_2_mbox_loc_perm
I0217 12:00:18.196871 23132 net.cpp:150] Setting up conv7_2_mbox_loc_perm
I0217 12:00:18.196887 23132 net.cpp:157] Top shape: 32 5 5 24 (19200)
I0217 12:00:18.196893 23132 net.cpp:165] Memory required for data: 8085378592
I0217 12:00:18.196899 23132 layer_factory.hpp:77] Creating layer conv7_2_mbox_loc_flat
I0217 12:00:18.196912 23132 net.cpp:100] Creating Layer conv7_2_mbox_loc_flat
I0217 12:00:18.196919 23132 net.cpp:434] conv7_2_mbox_loc_flat <- conv7_2_mbox_loc_perm
I0217 12:00:18.196931 23132 net.cpp:408] conv7_2_mbox_loc_flat -> conv7_2_mbox_loc_flat
I0217 12:00:18.196979 23132 net.cpp:150] Setting up conv7_2_mbox_loc_flat
I0217 12:00:18.196992 23132 net.cpp:157] Top shape: 32 600 (19200)
I0217 12:00:18.197000 23132 net.cpp:165] Memory required for data: 8085455392
I0217 12:00:18.197005 23132 layer_factory.hpp:77] Creating layer conv7_2_mbox_conf
I0217 12:00:18.197027 23132 net.cpp:100] Creating Layer conv7_2_mbox_conf
I0217 12:00:18.197036 23132 net.cpp:434] conv7_2_mbox_conf <- conv7_2_conv7_2_relu_0_split_2
I0217 12:00:18.197048 23132 net.cpp:408] conv7_2_mbox_conf -> conv7_2_mbox_conf
I0217 12:00:18.200973 23132 net.cpp:150] Setting up conv7_2_mbox_conf
I0217 12:00:18.200991 23132 net.cpp:157] Top shape: 32 132 5 5 (105600)
I0217 12:00:18.200999 23132 net.cpp:165] Memory required for data: 8085877792
I0217 12:00:18.201011 23132 layer_factory.hpp:77] Creating layer conv7_2_mbox_conf_perm
I0217 12:00:18.201025 23132 net.cpp:100] Creating Layer conv7_2_mbox_conf_perm
I0217 12:00:18.201032 23132 net.cpp:434] conv7_2_mbox_conf_perm <- conv7_2_mbox_conf
I0217 12:00:18.201046 23132 net.cpp:408] conv7_2_mbox_conf_perm -> conv7_2_mbox_conf_perm
I0217 12:00:18.201220 23132 net.cpp:150] Setting up conv7_2_mbox_conf_perm
I0217 12:00:18.201236 23132 net.cpp:157] Top shape: 32 5 5 132 (105600)
I0217 12:00:18.201243 23132 net.cpp:165] Memory required for data: 8086300192
I0217 12:00:18.201251 23132 layer_factory.hpp:77] Creating layer conv7_2_mbox_conf_flat
I0217 12:00:18.201261 23132 net.cpp:100] Creating Layer conv7_2_mbox_conf_flat
I0217 12:00:18.201268 23132 net.cpp:434] conv7_2_mbox_conf_flat <- conv7_2_mbox_conf_perm
I0217 12:00:18.201282 23132 net.cpp:408] conv7_2_mbox_conf_flat -> conv7_2_mbox_conf_flat
I0217 12:00:18.201328 23132 net.cpp:150] Setting up conv7_2_mbox_conf_flat
I0217 12:00:18.201342 23132 net.cpp:157] Top shape: 32 3300 (105600)
I0217 12:00:18.201349 23132 net.cpp:165] Memory required for data: 8086722592
I0217 12:00:18.201356 23132 layer_factory.hpp:77] Creating layer conv7_2_mbox_priorbox
I0217 12:00:18.201392 23132 net.cpp:100] Creating Layer conv7_2_mbox_priorbox
I0217 12:00:18.201402 23132 net.cpp:434] conv7_2_mbox_priorbox <- conv7_2_conv7_2_relu_0_split_3
I0217 12:00:18.201413 23132 net.cpp:434] conv7_2_mbox_priorbox <- data_data_0_split_4
I0217 12:00:18.201427 23132 net.cpp:408] conv7_2_mbox_priorbox -> conv7_2_mbox_priorbox
I0217 12:00:18.201475 23132 net.cpp:150] Setting up conv7_2_mbox_priorbox
I0217 12:00:18.201493 23132 net.cpp:157] Top shape: 1 2 600 (1200)
I0217 12:00:18.201496 23132 net.cpp:165] Memory required for data: 8086727392
I0217 12:00:18.201500 23132 layer_factory.hpp:77] Creating layer conv8_2_mbox_loc
I0217 12:00:18.201514 23132 net.cpp:100] Creating Layer conv8_2_mbox_loc
I0217 12:00:18.201522 23132 net.cpp:434] conv8_2_mbox_loc <- conv8_2_conv8_2_relu_0_split_1
I0217 12:00:18.201534 23132 net.cpp:408] conv8_2_mbox_loc -> conv8_2_mbox_loc
I0217 12:00:18.202877 23132 net.cpp:150] Setting up conv8_2_mbox_loc
I0217 12:00:18.202894 23132 net.cpp:157] Top shape: 32 16 3 3 (4608)
I0217 12:00:18.202898 23132 net.cpp:165] Memory required for data: 8086745824
I0217 12:00:18.202919 23132 layer_factory.hpp:77] Creating layer conv8_2_mbox_loc_perm
I0217 12:00:18.202932 23132 net.cpp:100] Creating Layer conv8_2_mbox_loc_perm
I0217 12:00:18.202939 23132 net.cpp:434] conv8_2_mbox_loc_perm <- conv8_2_mbox_loc
I0217 12:00:18.202946 23132 net.cpp:408] conv8_2_mbox_loc_perm -> conv8_2_mbox_loc_perm
I0217 12:00:18.203104 23132 net.cpp:150] Setting up conv8_2_mbox_loc_perm
I0217 12:00:18.203116 23132 net.cpp:157] Top shape: 32 3 3 16 (4608)
I0217 12:00:18.203120 23132 net.cpp:165] Memory required for data: 8086764256
I0217 12:00:18.203125 23132 layer_factory.hpp:77] Creating layer conv8_2_mbox_loc_flat
I0217 12:00:18.203132 23132 net.cpp:100] Creating Layer conv8_2_mbox_loc_flat
I0217 12:00:18.203138 23132 net.cpp:434] conv8_2_mbox_loc_flat <- conv8_2_mbox_loc_perm
I0217 12:00:18.203145 23132 net.cpp:408] conv8_2_mbox_loc_flat -> conv8_2_mbox_loc_flat
I0217 12:00:18.203177 23132 net.cpp:150] Setting up conv8_2_mbox_loc_flat
I0217 12:00:18.203186 23132 net.cpp:157] Top shape: 32 144 (4608)
I0217 12:00:18.203189 23132 net.cpp:165] Memory required for data: 8086782688
I0217 12:00:18.203193 23132 layer_factory.hpp:77] Creating layer conv8_2_mbox_conf
I0217 12:00:18.203205 23132 net.cpp:100] Creating Layer conv8_2_mbox_conf
I0217 12:00:18.203214 23132 net.cpp:434] conv8_2_mbox_conf <- conv8_2_conv8_2_relu_0_split_2
I0217 12:00:18.203230 23132 net.cpp:408] conv8_2_mbox_conf -> conv8_2_mbox_conf
I0217 12:00:18.206341 23132 net.cpp:150] Setting up conv8_2_mbox_conf
I0217 12:00:18.206357 23132 net.cpp:157] Top shape: 32 88 3 3 (25344)
I0217 12:00:18.206362 23132 net.cpp:165] Memory required for data: 8086884064
I0217 12:00:18.206369 23132 layer_factory.hpp:77] Creating layer conv8_2_mbox_conf_perm
I0217 12:00:18.206377 23132 net.cpp:100] Creating Layer conv8_2_mbox_conf_perm
I0217 12:00:18.206384 23132 net.cpp:434] conv8_2_mbox_conf_perm <- conv8_2_mbox_conf
I0217 12:00:18.206393 23132 net.cpp:408] conv8_2_mbox_conf_perm -> conv8_2_mbox_conf_perm
I0217 12:00:18.206562 23132 net.cpp:150] Setting up conv8_2_mbox_conf_perm
I0217 12:00:18.206575 23132 net.cpp:157] Top shape: 32 3 3 88 (25344)
I0217 12:00:18.206579 23132 net.cpp:165] Memory required for data: 8086985440
I0217 12:00:18.206583 23132 layer_factory.hpp:77] Creating layer conv8_2_mbox_conf_flat
I0217 12:00:18.206589 23132 net.cpp:100] Creating Layer conv8_2_mbox_conf_flat
I0217 12:00:18.206598 23132 net.cpp:434] conv8_2_mbox_conf_flat <- conv8_2_mbox_conf_perm
I0217 12:00:18.206607 23132 net.cpp:408] conv8_2_mbox_conf_flat -> conv8_2_mbox_conf_flat
I0217 12:00:18.206652 23132 net.cpp:150] Setting up conv8_2_mbox_conf_flat
I0217 12:00:18.206665 23132 net.cpp:157] Top shape: 32 792 (25344)
I0217 12:00:18.206670 23132 net.cpp:165] Memory required for data: 8087086816
I0217 12:00:18.206676 23132 layer_factory.hpp:77] Creating layer conv8_2_mbox_priorbox
I0217 12:00:18.206691 23132 net.cpp:100] Creating Layer conv8_2_mbox_priorbox
I0217 12:00:18.206718 23132 net.cpp:434] conv8_2_mbox_priorbox <- conv8_2_conv8_2_relu_0_split_3
I0217 12:00:18.206730 23132 net.cpp:434] conv8_2_mbox_priorbox <- data_data_0_split_5
I0217 12:00:18.206743 23132 net.cpp:408] conv8_2_mbox_priorbox -> conv8_2_mbox_priorbox
I0217 12:00:18.206792 23132 net.cpp:150] Setting up conv8_2_mbox_priorbox
I0217 12:00:18.206805 23132 net.cpp:157] Top shape: 1 2 144 (288)
I0217 12:00:18.206811 23132 net.cpp:165] Memory required for data: 8087087968
I0217 12:00:18.206818 23132 layer_factory.hpp:77] Creating layer conv9_2_mbox_loc
I0217 12:00:18.206835 23132 net.cpp:100] Creating Layer conv9_2_mbox_loc
I0217 12:00:18.206845 23132 net.cpp:434] conv9_2_mbox_loc <- conv9_2_conv9_2_relu_0_split_0
I0217 12:00:18.206858 23132 net.cpp:408] conv9_2_mbox_loc -> conv9_2_mbox_loc
I0217 12:00:18.208441 23132 net.cpp:150] Setting up conv9_2_mbox_loc
I0217 12:00:18.208459 23132 net.cpp:157] Top shape: 32 16 1 1 (512)
I0217 12:00:18.208467 23132 net.cpp:165] Memory required for data: 8087090016
I0217 12:00:18.208478 23132 layer_factory.hpp:77] Creating layer conv9_2_mbox_loc_perm
I0217 12:00:18.208493 23132 net.cpp:100] Creating Layer conv9_2_mbox_loc_perm
I0217 12:00:18.208503 23132 net.cpp:434] conv9_2_mbox_loc_perm <- conv9_2_mbox_loc
I0217 12:00:18.208513 23132 net.cpp:408] conv9_2_mbox_loc_perm -> conv9_2_mbox_loc_perm
I0217 12:00:18.208684 23132 net.cpp:150] Setting up conv9_2_mbox_loc_perm
I0217 12:00:18.208699 23132 net.cpp:157] Top shape: 32 1 1 16 (512)
I0217 12:00:18.208705 23132 net.cpp:165] Memory required for data: 8087092064
I0217 12:00:18.208712 23132 layer_factory.hpp:77] Creating layer conv9_2_mbox_loc_flat
I0217 12:00:18.208725 23132 net.cpp:100] Creating Layer conv9_2_mbox_loc_flat
I0217 12:00:18.208734 23132 net.cpp:434] conv9_2_mbox_loc_flat <- conv9_2_mbox_loc_perm
I0217 12:00:18.208744 23132 net.cpp:408] conv9_2_mbox_loc_flat -> conv9_2_mbox_loc_flat
I0217 12:00:18.208791 23132 net.cpp:150] Setting up conv9_2_mbox_loc_flat
I0217 12:00:18.208808 23132 net.cpp:157] Top shape: 32 16 (512)
I0217 12:00:18.208814 23132 net.cpp:165] Memory required for data: 8087094112
I0217 12:00:18.208818 23132 layer_factory.hpp:77] Creating layer conv9_2_mbox_conf
I0217 12:00:18.208829 23132 net.cpp:100] Creating Layer conv9_2_mbox_conf
I0217 12:00:18.208833 23132 net.cpp:434] conv9_2_mbox_conf <- conv9_2_conv9_2_relu_0_split_1
I0217 12:00:18.208842 23132 net.cpp:408] conv9_2_mbox_conf -> conv9_2_mbox_conf
I0217 12:00:18.211980 23132 net.cpp:150] Setting up conv9_2_mbox_conf
I0217 12:00:18.211998 23132 net.cpp:157] Top shape: 32 88 1 1 (2816)
I0217 12:00:18.212002 23132 net.cpp:165] Memory required for data: 8087105376
I0217 12:00:18.212010 23132 layer_factory.hpp:77] Creating layer conv9_2_mbox_conf_perm
I0217 12:00:18.212023 23132 net.cpp:100] Creating Layer conv9_2_mbox_conf_perm
I0217 12:00:18.212033 23132 net.cpp:434] conv9_2_mbox_conf_perm <- conv9_2_mbox_conf
I0217 12:00:18.212046 23132 net.cpp:408] conv9_2_mbox_conf_perm -> conv9_2_mbox_conf_perm
I0217 12:00:18.212213 23132 net.cpp:150] Setting up conv9_2_mbox_conf_perm
I0217 12:00:18.212229 23132 net.cpp:157] Top shape: 32 1 1 88 (2816)
I0217 12:00:18.212236 23132 net.cpp:165] Memory required for data: 8087116640
I0217 12:00:18.212244 23132 layer_factory.hpp:77] Creating layer conv9_2_mbox_conf_flat
I0217 12:00:18.212254 23132 net.cpp:100] Creating Layer conv9_2_mbox_conf_flat
I0217 12:00:18.212261 23132 net.cpp:434] conv9_2_mbox_conf_flat <- conv9_2_mbox_conf_perm
I0217 12:00:18.212271 23132 net.cpp:408] conv9_2_mbox_conf_flat -> conv9_2_mbox_conf_flat
I0217 12:00:18.212321 23132 net.cpp:150] Setting up conv9_2_mbox_conf_flat
I0217 12:00:18.212337 23132 net.cpp:157] Top shape: 32 88 (2816)
I0217 12:00:18.212344 23132 net.cpp:165] Memory required for data: 8087127904
I0217 12:00:18.212352 23132 layer_factory.hpp:77] Creating layer conv9_2_mbox_priorbox
I0217 12:00:18.212365 23132 net.cpp:100] Creating Layer conv9_2_mbox_priorbox
I0217 12:00:18.212374 23132 net.cpp:434] conv9_2_mbox_priorbox <- conv9_2_conv9_2_relu_0_split_2
I0217 12:00:18.212404 23132 net.cpp:434] conv9_2_mbox_priorbox <- data_data_0_split_6
I0217 12:00:18.212419 23132 net.cpp:408] conv9_2_mbox_priorbox -> conv9_2_mbox_priorbox
I0217 12:00:18.212471 23132 net.cpp:150] Setting up conv9_2_mbox_priorbox
I0217 12:00:18.212486 23132 net.cpp:157] Top shape: 1 2 16 (32)
I0217 12:00:18.212491 23132 net.cpp:165] Memory required for data: 8087128032
I0217 12:00:18.212497 23132 layer_factory.hpp:77] Creating layer mbox_loc
I0217 12:00:18.212513 23132 net.cpp:100] Creating Layer mbox_loc
I0217 12:00:18.212527 23132 net.cpp:434] mbox_loc <- conv4_3_norm_mbox_loc_flat
I0217 12:00:18.212537 23132 net.cpp:434] mbox_loc <- fc7_mbox_loc_flat
I0217 12:00:18.212544 23132 net.cpp:434] mbox_loc <- conv6_2_mbox_loc_flat
I0217 12:00:18.212550 23132 net.cpp:434] mbox_loc <- conv7_2_mbox_loc_flat
I0217 12:00:18.212554 23132 net.cpp:434] mbox_loc <- conv8_2_mbox_loc_flat
I0217 12:00:18.212559 23132 net.cpp:434] mbox_loc <- conv9_2_mbox_loc_flat
I0217 12:00:18.212565 23132 net.cpp:408] mbox_loc -> mbox_loc
I0217 12:00:18.212621 23132 net.cpp:150] Setting up mbox_loc
I0217 12:00:18.212630 23132 net.cpp:157] Top shape: 32 34928 (1117696)
I0217 12:00:18.212633 23132 net.cpp:165] Memory required for data: 8091598816
I0217 12:00:18.212636 23132 layer_factory.hpp:77] Creating layer mbox_conf
I0217 12:00:18.212643 23132 net.cpp:100] Creating Layer mbox_conf
I0217 12:00:18.212648 23132 net.cpp:434] mbox_conf <- conv4_3_norm_mbox_conf_flat
I0217 12:00:18.212653 23132 net.cpp:434] mbox_conf <- fc7_mbox_conf_flat
I0217 12:00:18.212658 23132 net.cpp:434] mbox_conf <- conv6_2_mbox_conf_flat
I0217 12:00:18.212663 23132 net.cpp:434] mbox_conf <- conv7_2_mbox_conf_flat
I0217 12:00:18.212667 23132 net.cpp:434] mbox_conf <- conv8_2_mbox_conf_flat
I0217 12:00:18.212672 23132 net.cpp:434] mbox_conf <- conv9_2_mbox_conf_flat
I0217 12:00:18.212677 23132 net.cpp:408] mbox_conf -> mbox_conf
I0217 12:00:18.212707 23132 net.cpp:150] Setting up mbox_conf
I0217 12:00:18.212713 23132 net.cpp:157] Top shape: 32 192104 (6147328)
I0217 12:00:18.212718 23132 net.cpp:165] Memory required for data: 8116188128
I0217 12:00:18.212720 23132 layer_factory.hpp:77] Creating layer mbox_priorbox
I0217 12:00:18.212728 23132 net.cpp:100] Creating Layer mbox_priorbox
I0217 12:00:18.212733 23132 net.cpp:434] mbox_priorbox <- conv4_3_norm_mbox_priorbox
I0217 12:00:18.212738 23132 net.cpp:434] mbox_priorbox <- fc7_mbox_priorbox
I0217 12:00:18.212743 23132 net.cpp:434] mbox_priorbox <- conv6_2_mbox_priorbox
I0217 12:00:18.212746 23132 net.cpp:434] mbox_priorbox <- conv7_2_mbox_priorbox
I0217 12:00:18.212750 23132 net.cpp:434] mbox_priorbox <- conv8_2_mbox_priorbox
I0217 12:00:18.212754 23132 net.cpp:434] mbox_priorbox <- conv9_2_mbox_priorbox
I0217 12:00:18.212759 23132 net.cpp:408] mbox_priorbox -> mbox_priorbox
I0217 12:00:18.212786 23132 net.cpp:150] Setting up mbox_priorbox
I0217 12:00:18.212795 23132 net.cpp:157] Top shape: 1 2 34928 (69856)
I0217 12:00:18.212798 23132 net.cpp:165] Memory required for data: 8116467552
I0217 12:00:18.212801 23132 layer_factory.hpp:77] Creating layer mbox_loss
I0217 12:00:18.212813 23132 net.cpp:100] Creating Layer mbox_loss
I0217 12:00:18.212818 23132 net.cpp:434] mbox_loss <- mbox_loc
I0217 12:00:18.212823 23132 net.cpp:434] mbox_loss <- mbox_conf
I0217 12:00:18.212828 23132 net.cpp:434] mbox_loss <- mbox_priorbox
…
  name: "data"
  type: "AnnotatedData"
  top: "data"
  top: "label"
  include {
    phase: TEST
  }
  transform_param {
    mean_value: 137
    mean_value: 84
    mean_value: 87
    mean_value: 84
    resize_param {
      prob: 1
      resize_mode: WARP
      height: 300
      width: 300
      interp_mode: LINEAR
    }
  }
  data_param {
    source: "examples/dbgr_trees/dbgr_trees_test_lmdb"
    batch_size: 1
    backend: LMDB
  }
  annotated_data_param {
    batch_sampler {
    }
    label_map_file: "data/dbgr_trees/labelmap_voc.prototxt"
  }
}
layer {
  name: "conv1_1_rgbd"
  type: "Convolution"
  bottom: "data"
  top: "conv1_1_rgbd"
  param {
    lr_mult: 1
    decay_mult: 1
  }
  param {
    lr_mult: 2
    decay_mult: 0
  }
  convolution_param {
    num_output: 64
    pad: 1
    kernel_size: 3
    weight_filler {
      type: "xavier"
    }
    bias_filler {
      type: "constant"
      value: 0
    }
  }
}
layer {
  name: "relu1_1"
  type: "ReLU"
  bottom: "conv1_1_rgbd"
  top: "conv1_1_rgbd"
}
layer {
  name: "conv1_2"
  type: "Convolution"
  bottom: "conv1_1_rgbd"
  top: "conv1_2"
  param {
    lr_mult: 1
    decay_mult: 1
  }
  param {
    lr_mult: 2
    decay_mult: 0
  }
  convolution_param {
    num_output: 64
    pad: 1
    kernel_size: 3
    weight_filler {
      type: "xavier"
    }
    bias_filler {
      type: "constant"
      value: 0
    }
  }
}
layer {
  name: "relu1_2"
  type: "ReLU"
  bottom: "conv1_2"
  top: "conv1_2"
}
layer {
  name: "pool1"
  type: "Pooling"
  bottom: "conv1_2"
  top: "pool1"
  pooling_param {
    pool: MAX
    kernel_size: 2
    stride: 2
  }
}
layer {
  name: "conv2_1"
  type: "Convolution"
  bottom: "pool1"
  top: "conv2_1"
  param {
    lr_mult: 1
    decay_mult: 1
  }
  param {
    lr_mult: 2
    decay_mult: 0
  }
  convolution_param {
    num_output: 128
    pad: 1
    kernel_size: 3
    weight_filler {
      type: "xavier"
    }
    bias_filler {
      type: "constant"
      value: 0
    }
  }
}
layer {
  name: "relu2_1"
  type: "ReLU"
  bottom: "conv2_1"
  top: "conv2_1"
}
layer {
  name: "conv2_2"
  type: "Convolution"
  bottom: "conv2_1"
  top: "conv2_2"
  param {
    lr_mult: 1
    decay_mult: 1
  }
  param {
    lr_mult: 2
    decay_mult: 0
  }
  convolution_param {
    num_output: 128
    pad: 1
    kernel_size: 3
    weight_filler {
      type: "xavier"
    }
    bias_filler {
      type: "constant"
      value: 0
    }
  }
}
layer {
  name: "relu2_2"
  type: "ReLU"
  bottom: "conv2_2"
  top: "conv2_2"
}
layer {
  name: "pool2"
  type: "Pooling"
  bottom: "conv2_2"
  top: "pool2"
  pooling_param {
    pool: MAX
    kernel_size: 2
    stride: 2
  }
}
layer {
  name: "conv3_1"
  type: "Convolution"
  bottom: "pool2"
  top: "conv3_1"
  param {
    lr_mult: 1
    decay_mult: 1
  }
  param {
    lr_mult: 2
    decay_mult: 0
  }
  convolution_param {
    num_output: 256
    pad: 1
    kernel_size: 3
    weight_filler {
      type: "xavier"
    }
    bias_filler {
      type: "constant"
      value: 0
    }
  }
}
layer {
  name: "relu3_1"
  type: "ReLU"
  bottom: "conv3_1"
  top: "conv3_1"
}
layer {
  name: "conv3_2"
  type: "Convolution"
  bottom: "conv3_1"
  top: "conv3_2"
  param {
    lr_mult: 1
    decay_mult: 1
  }
  param {
    lr_mult: 2
    decay_mult: 0
  }
  convolution_param {
    num_output: 256
    pad: 1
    kernel_size: 3
    weight_filler {
      type: "xavier"
    }
    bias_filler {
      type: "constant"
      value: 0
    }
  }
}
layer {
  name: "relu3_2"
  type: "ReLU"
  bottom: "conv3_2"
  top: "conv3_2"
}
layer {
  name: "conv3_3"
  type: "Convolution"
  bottom: "conv3_2"
  top: "conv3_3"
  param {
    lr_mult: 1
    decay_mult: 1
  }
  param {
    lr_mult: 2
    decay_mult: 0
  }
  convolution_param {
    num_output: 256
    pad: 1
    kernel_size: 3
    weight_filler {
      type: "xavier"
    }
    bias_filler {
      type: "constant"
      value: 0
    }
  }
}
layer {
  name: "relu3_3"
  type: "ReLU"
  bottom: "conv3_3"
  top: "conv3_3"
}
layer {
  name: "pool3"
  type: "Pooling"
  bottom: "conv3_3"
  top: "pool3"
  pooling_param {
    pool: MAX
    kernel_size: 2
    stride: 2
  }
}
layer {
  name: "conv4_1"
  type: "Convolution"
  bottom: "pool3"
  top: "conv4_1"
  param {
    lr_mult: 1
    decay_mult: 1
  }
  param {
    lr_mult: 2
    decay_mult: 0
  }
  convolution_param {
    num_output: 512
    pad: 1
    kernel_size: 3
    weight_filler {
      type: "xavier"
    }
    bias_filler {
      type: "constant"
      value: 0
    }
  }
}
layer {
  name: "relu4_1"
  type: "ReLU"
  bottom: "conv4_1"
  top: "conv4_1"
}
layer {
  name: "conv4_2"
  type: "Convolution"
  bottom: "conv4_1"
  top: "conv4_2"
  param {
    lr_mult: 1
    decay_mult: 1
  }
  param {
    lr_mult: 2
    decay_mult: 0
  }
  convolution_param {
    num_output: 512
    pad: 1
    kernel_size: 3
    weight_filler {
      type: "xavier"
    }
    bias_filler {
      type: "constant"
      value: 0
    }
  }
}
layer {
  name: "relu4_2"
  type: "ReLU"
  bottom: "conv4_2"
  top: "conv4_2"
}
layer {
  name: "conv4_3"
  type: "Convolution"
  bottom: "conv4_2"
  top: "conv4_3"
  param {
    lr_mult: 1
    decay_mult: 1
  }
  param {
    lr_mult: 2
    decay_mult: 0
  }
  convolution_param {
    num_output: 512
    pad: 1
    kernel_size: 3
    weight_filler {
      type: "xavier"
    }
    bias_filler {
      type: "constant"
      value: 0
    }
  }
}
layer {
  name: "relu4_3"
  type: "ReLU"
  bottom: "conv4_3"
  top: "conv4_3"
}
layer {
  name: "pool4"
  type: "Pooling"
  bottom: "conv4_3"
  top: "pool4"
  pooling_param {
    pool: MAX
    kernel_size: 2
    stride: 2
  }
}
layer {
  name: "conv5_1"
  type: "Convolution"
  bottom: "pool4"
  top: "conv5_1"
  param {
    lr_mult: 1
    decay_mult: 1
  }
  param {
    lr_mult: 2
    decay_mult: 0
  }
  convolution_param {
    num_output: 512
    pad: 1
    kernel_size: 3
    weight_filler {
      type: "xavier"
    }
    bias_filler {
      type: "constant"
      value: 0
    }
    dilation: 1
  }
}
layer {
  name: "relu5_1"
  type: "ReLU"
  bottom: "conv5_1"
  top: "conv5_1"
}
layer {
  name: "conv5_2"
  type: "Convolution"
  bottom: "conv5_1"
  top: "conv5_2"
  param {
    lr_mult: 1
    decay_mult: 1
  }
  param {
    lr_mult: 2
    decay_mult: 0
  }
  convolution_param {
    num_output: 512
    pad: 1
    kernel_size: 3
    weight_filler {
      type: "xavier"
    }
    bias_filler {
      type: "constant"
      value: 0
    }
    dilation: 1
  }
}
layer {
  name: "relu5_2"
  type: "ReLU"
  bottom: "conv5_2"
  top: "conv5_2"
}
layer {
  name: "conv5_3"
  type: "Convolution"
  bottom: "conv5_2"
  top: "conv5_3"
  param {
    lr_mult: 1
    decay_mult: 1
  }
  param {
    lr_mult: 2
    decay_mult: 0
  }
  convolution_param {
    num_output: 512
    pad: 1
    kernel_size: 3
    weight_filler {
      type: "xavier"
    }
    bias_filler {
      type: "constant"
      value: 0
    }
    dilation: 1
  }
}
layer {
  name: "relu5_3"
  type: "ReLU"
  bottom: "conv5_3"
  top: "conv5_3"
}
layer {
  name: "pool5"
  type: "Pooling"
  bottom: "conv5_3"
  top: "pool5"
  pooling_param {
    pool: MAX
    kernel_size: 3
    stride: 1
    pad: 1
  }
}
layer {
  name: "fc6"
  type: "Convolution"
  bottom: "pool5"
  top: "fc6"
  param {
    lr_mult: 1
    decay_mult: 1
  }
  param {
    lr_mult: 2
    decay_mult: 0
  }
  convolution_param {
    num_output: 1024
    pad: 6
    kernel_size: 3
    weight_filler {
      type: "xavier"
    }
    bias_filler {
      type: "constant"
      value: 0
    }
    dilation: 6
  }
}
layer {
  name: "relu6"
  type: "ReLU"
  bottom: "fc6"
  top: "fc6"
}
layer {
  name: "fc7"
  type: "Convolution"
  bottom: "fc6"
  top: "fc7"
  param {
    lr_mult: 1
    decay_mult: 1
  }
  param {
    lr_mult: 2
    decay_mult: 0
  }
  convolution_param {
    num_output: 1024
    kernel_size: 1
    weight_filler {
      type: "xavier"
    }
    bias_filler {
      type: "constant"
      value: 0
    }
  }
}
layer {
  name: "relu7"
  type: "ReLU"
  bottom: "fc7"
  top: "fc7"
}
layer {
  name: "conv6_1"
  type: "Convolution"
  bottom: "fc7"
  top: "conv6_1"
  param {
    lr_mult: 1
    decay_mult: 1
  }
  param {
    lr_mult: 2
    decay_mult: 0
  }
  convolution_param {
    num_output: 256
    pad: 0
    kernel_size: 1
    stride: 1
    weight_filler {
      type: "xavier"
    }
    bias_filler {
      type: "constant"
      value: 0
    }
  }
}
layer {
  name: "conv6_1_relu"
  type: "ReLU"
  bottom: "conv6_1"
  top: "conv6_1"
}
layer {
  name: "conv6_2"
  type: "Convolution"
  bottom: "conv6_1"
  top: "conv6_2"
  param {
    lr_mult: 1
    decay_mult: 1
  }
  param {
    lr_mult: 2
    decay_mult: 0
  }
  convolution_param {
    num_output: 512
    pad: 1
    kernel_size: 3
    stride: 2
    weight_filler {
      type: "xavier"
    }
    bias_filler {
      type: "constant"
      value: 0
    }
  }
}
layer {
  name: "conv6_2_relu"
  type: "ReLU"
  bottom: "conv6_2"
  top: "conv6_2"
}
layer {
  name: "conv7_1"
  type: "Convolution"
  bottom: "conv6_2"
  top: "conv7_1"
  param {
    lr_mult: 1
    decay_mult: 1
  }
  param {
    lr_mult: 2
    decay_mult: 0
  }
  convolution_param {
    num_output: 128
    pad: 0
    kernel_size: 1
    stride: 1
    weight_filler {
      type: "xavier"
    }
    bias_filler {
      type: "constant"
      value: 0
    }
  }
}
layer {
  name: "conv7_1_relu"
  type: "ReLU"
  bottom: "conv7_1"
  top: "conv7_1"
}
layer {
  name: "conv7_2"
  type: "Convolution"
  bottom: "conv7_1"
  top: "conv7_2"
  param {
    lr_mult: 1
    decay_mult: 1
  }
  param {
    lr_mult: 2
    decay_mult: 0
  }
  convolution_param {
    num_output: 256
    pad: 1
    kernel_size: 3
    stride: 2
    weight_filler {
      type: "xavier"
    }
    bias_filler {
      type: "constant"
      value: 0
    }
  }
}
layer {
  name: "conv7_2_relu"
  type: "ReLU"
  bottom: "conv7_2"
  top: "conv7_2"
}
layer {
  name: "conv8_1"
  type: "Convolution"
  bottom: "conv7_2"
  top: "conv8_1"
  param {
    lr_mult: 1
    decay_mult: 1
  }
  param {
    lr_mult: 2
    decay_mult: 0
  }
  convolution_param {
    num_output: 128
    pad: 0
    kernel_size: 1
    stride: 1
    weight_filler {
      type: "xavier"
    }
    bias_filler {
      type: "constant"
      value: 0
    }
  }
}
layer {
  name: "conv8_1_relu"
  type: "ReLU"
  bottom: "conv8_1"
  top: "conv8_1"
}
layer {
  name: "conv8_2"
  type: "Convolution"
  bottom: "conv8_1"
  top: "conv8_2"
  param {
    lr_mult: 1
    decay_mult: 1
  }
  param {
    lr_mult: 2
    decay_mult: 0
  }
  convolution_param {
    num_output: 256
    pad: 0
    kernel_size: 3
    stride: 1
    weight_filler {
      type: "xavier"
    }
    bias_filler {
      type: "constant"
      value: 0
    }
  }
}
layer {
  name: "conv8_2_relu"
  type: "ReLU"
  bottom: "conv8_2"
  top: "conv8_2"
}
layer {
  name: "conv9_1"
  type: "Convolution"
  bottom: "conv8_2"
  top: "conv9_1"
  param {
    lr_mult: 1
    decay_mult: 1
  }
  param {
    lr_mult: 2
    decay_mult: 0
  }
  convolution_param {
    num_output: 128
    pad: 0
    kernel_size: 1
    stride: 1
    weight_filler {
      type: "xavier"
    }
    bias_filler {
      type: "constant"
      value: 0
    }
  }
}
layer {
  name: "conv9_1_relu"
  type: "ReLU"
  bottom: "conv9_1"
  top: "conv9_1"
}
layer {
  name: "conv9_2"
  type: "Convolution"
  bottom: "conv9_1"
  top: "conv9_2"
  param {
    lr_mult: 1
    decay_mult: 1
  }
  param {
    lr_mult: 2
    decay_mult: 0
  }
  convolution_param {
    num_output: 256
    pad: 0
    kernel_size: 3
    stride: 1
    weight_filler {
      type: "xavier"
    }
    bias_filler {
      type: "constant"
      value: 0
    }
  }
}
layer {
  name: "conv9_2_relu"
  type: "ReLU"
  bottom: "conv9_2"
  top: "conv9_2"
}
layer {
  name: "conv4_3_norm"
  type: "Normalize"
  bottom: "conv4_3"
  top: "conv4_3_norm"
  norm_param {
    across_spatial: false
    scale_filler {
      type: "constant"
      value: 20
    }
    channel_shared: false
  }
}
layer {
  name: "conv4_3_norm_mbox_loc"
  type: "Convolution"
  bottom: "conv4_3_norm"
  top: "conv4_3_norm_mbox_loc"
  param {
    lr_mult: 1
    decay_mult: 1
  }
  param {
    lr_mult: 2
    decay_mult: 0
  }
  convolution_param {
    num_output: 16
    pad: 1
    kernel_size: 3
    stride: 1
    weight_filler {
      type: "xavier"
    }
    bias_filler {
      type: "constant"
      value: 0
    }
  }
}
layer {
  name: "conv4_3_norm_mbox_loc_perm"
  type: "Permute"
  bottom: "conv4_3_norm_mbox_loc"
  top: "conv4_3_norm_mbox_loc_perm"
  permute_param {
    order: 0
    order: 2
    order: 3
    order: 1
  }
}
layer {
  name: "conv4_3_norm_mbox_loc_flat"
  type: "Flatten"
  bottom: "conv4_3_norm_mbox_loc_perm"
  top: "conv4_3_norm_mbox_loc_flat"
  flatten_param {
    axis: 1
  }
}
layer {
  name: "conv4_3_norm_mbox_conf"
  type: "Convolution"
  bottom: "conv4_3_norm"
  top: "conv4_3_norm_mbox_conf"
  param {
    lr_mult: 1
    decay_mult: 1
  }
  param {
    lr_mult: 2
    decay_mult: 0
  }
  convolution_param {
    num_output: 88
    pad: 1
    kernel_size: 3
    stride: 1
    weight_filler {
      type: "xavier"
    }
    bias_filler {
      type: "constant"
      value: 0
    }
  }
}
layer {
  name: "conv4_3_norm_mbox_conf_perm"
  type: "Permute"
  bottom: "conv4_3_norm_mbox_conf"
  top: "conv4_3_norm_mbox_conf_perm"
  permute_param {
    order: 0
    order: 2
    order: 3
    order: 1
  }
}
layer {
  name: "conv4_3_norm_mbox_conf_flat"
  type: "Flatten"
  bottom: "conv4_3_norm_mbox_conf_perm"
  top: "conv4_3_norm_mbox_conf_flat"
  flatten_param {
    axis: 1
  }
}
layer {
  name: "conv4_3_norm_mbox_priorbox"
  type: "PriorBox"
  bottom: "conv4_3_norm"
  bottom: "data"
  top: "conv4_3_norm_mbox_priorbox"
  prior_box_param {
    min_size: 30
    max_size: 60
    aspect_ratio: 2
    flip: true
    clip: false
    variance: 0.1
    variance: 0.1
    variance: 0.2
    variance: 0.2
    step: 8
    offset: 0.5
  }
}
layer {
  name: "fc7_mbox_loc"
  type: "Convolution"
  bottom: "fc7"
  top: "fc7_mbox_loc"
  param {
    lr_mult: 1
    decay_mult: 1
  }
  param {
    lr_mult: 2
    decay_mult: 0
  }
  convolution_param {
    num_output: 24
    pad: 1
    kernel_size: 3
    stride: 1
    weight_filler {
      type: "xavier"
    }
    bias_filler {
      type: "constant"
      value: 0
    }
  }
}
layer {
  name: "fc7_mbox_loc_perm"
  type: "Permute"
  bottom: "fc7_mbox_loc"
  top: "fc7_mbox_loc_perm"
  permute_param {
    order: 0
    order: 2
    order: 3
    order: 1
  }
}
layer {
  name: "fc7_mbox_loc_flat"
  type: "Flatten"
  bottom: "fc7_mbox_loc_perm"
  top: "fc7_mbox_loc_flat"
  flatten_param {
    axis: 1
  }
}
layer {
  name: "fc7_mbox_conf"
  type: "Convolution"
  bottom: "fc7"
  top: "fc7_mbox_conf"
  param {
    lr_mult: 1
    decay_mult: 1
  }
  param {
    lr_mult: 2
    decay_mult: 0
  }
  convolution_param {
    num_output: 132
    pad: 1
    kernel_size: 3
    stride: 1
    weight_filler {
      type: "xavier"
    }
    bias_filler {
      type: "constant"
      value: 0
    }
  }
}
layer {
  name: "fc7_mbox_conf_perm"
  type: "Permute"
  bottom: "fc7_mbox_conf"
  top: "fc7_mbox_conf_perm"
  permute_param {
    order: 0
    order: 2
    order: 3
    order: 1
  }
}
layer {
  name: "fc7_mbox_conf_flat"
  type: "Flatten"
  bottom: "fc7_mbox_conf_perm"
  top: "fc7_mbox_conf_flat"
  flatten_param {
    axis: 1
  }
}
layer {
  name: "fc7_mbox_priorbox"
  type: "PriorBox"
  bottom: "fc7"
  bottom: "data"
  top: "fc7_mbox_priorbox"
  prior_box_param {
    min_size: 60
    max_size: 111
    aspect_ratio: 2
    aspect_ratio: 3
    flip: true
    clip: false
    variance: 0.1
    variance: 0.1
    variance: 0.2
    variance: 0.2
    step: 16
    offset: 0.5
  }
}
layer {
  name: "conv6_2_mbox_loc"
  type: "Convolution"
  bottom: "conv6_2"
  top: "conv6_2_mbox_loc"
  param {
    lr_mult: 1
    decay_mult: 1
  }
  param {
    lr_mult: 2
    decay_mult: 0
  }
  convolution_param {
    num_output: 24
    pad: 1
    kernel_size: 3
    stride: 1
    weight_filler {
      type: "xavier"
    }
    bias_filler {
      type: "constant"
      value: 0
    }
  }
}
layer {
  name: "conv6_2_mbox_loc_perm"
  type: "Permute"
  bottom: "conv6_2_mbox_loc"
  top: "conv6_2_mbox_loc_perm"
  permute_param {
    order: 0
    order: 2
    order: 3
    order: 1
  }
}
layer {
  name: "conv6_2_mbox_loc_flat"
  type: "Flatten"
  bottom: "conv6_2_mbox_loc_perm"
  top: "conv6_2_mbox_loc_flat"
  flatten_param {
    axis: 1
  }
}
layer {
  name: "conv6_2_mbox_conf"
  type: "Convolution"
  bottom: "conv6_2"
  top: "conv6_2_mbox_conf"
  param {
    lr_mult: 1
    decay_mult: 1
  }
  param {
    lr_mult: 2
    decay_mult: 0
  }
  convolution_param {
    num_output: 132
    pad: 1
    kernel_size: 3
    stride: 1
    weight_filler {
      type: "xavier"
    }
    bias_filler {
      type: "constant"
      value: 0
    }
  }
}
layer {
  name: "conv6_2_mbox_conf_perm"
  type: "Permute"
  bottom: "conv6_2_mbox_conf"
  top: "conv6_2_mbox_conf_perm"
  permute_param {
    order: 0
    order: 2
    order: 3
    order: 1
  }
}
layer {
  name: "conv6_2_mbox_conf_flat"
  type: "Flatten"
  bottom: "conv6_2_mbox_conf_perm"
  top: "conv6_2_mbox_conf_flat"
  flatten_param {
    axis: 1
  }
}
layer {
  name: "conv6_2_mbox_priorbox"
  type: "PriorBox"
  bottom: "conv6_2"
  bottom: "data"
  top: "conv6_2_mbox_priorbox"
  prior_box_param {
    min_size: 111
    max_size: 162
    aspect_ratio: 2
    aspect_ratio: 3
    flip: true
    clip: false
    variance: 0.1
    variance: 0.1
    variance: 0.2
    variance: 0.2
    step: 32
    offset: 0.5
  }
}
layer {
  name: "conv7_2_mbox_loc"
  type: "Convolution"
  bottom: "conv7_2"
  top: "conv7_2_mbox_loc"
  param {
    lr_mult: 1
    decay_mult: 1
  }
  param {
    lr_mult: 2
    decay_mult: 0
  }
  convolution_param {
    num_output: 24
    pad: 1
    kernel_size: 3
    stride: 1
    weight_filler {
      type: "xavier"
    }
    bias_filler {
      type: "constant"
      value: 0
    }
  }
}
layer {
  name: "conv7_2_mbox_loc_perm"
  type: "Permute"
  bottom: "conv7_2_mbox_loc"
  top: "conv7_2_mbox_loc_perm"
  permute_param {
    order: 0
    order: 2
    order: 3
    order: 1
  }
}
layer {
  name: "conv7_2_mbox_loc_flat"
  type: "Flatten"
  bottom: "conv7_2_mbox_loc_perm"
  top: "conv7_2_mbox_loc_flat"
  flatten_param {
    axis: 1
  }
}
layer {
  name: "conv7_2_mbox_conf"
  type: "Convolution"
  bottom: "conv7_2"
  top: "conv7_2_mbox_conf"
  param {
    lr_mult: 1
    decay_mult: 1
  }
  param {
    lr_mult: 2
    decay_mult: 0
  }
  convolution_param {
    num_output: 132
    pad: 1
    kernel_size: 3
    stride: 1
    weight_filler {
      type: "xavier"
    }
    bias_filler {
      type: "constant"
      value: 0
    }
  }
}
layer {
  name: "conv7_2_mbox_conf_perm"
  type: "Permute"
  bottom: "conv7_2_mbox_conf"
  top: "conv7_2_mbox_conf_perm"
  permute_param {
    order: 0
    order: 2
    order: 3
    order: 1
  }
}
layer {
  name: "conv7_2_mbox_conf_flat"
  type: "Flatten"
  bottom: "conv7_2_mbox_conf_perm"
  top: "conv7_2_mbox_conf_flat"
  flatten_param {
    axis: 1
  }
}
layer {
  name: "conv7_2_mbox_priorbox"
  type: "PriorBox"
  bottom: "conv7_2"
  bottom: "data"
  top: "conv7_2_mbox_priorbox"
  prior_box_param {
    min_size: 162
    max_size: 213
    aspect_ratio: 2
    aspect_ratio: 3
    flip: true
    clip: false
    variance: 0.1
    variance: 0.1
    variance: 0.2
    variance: 0.2
    step: 64
    offset: 0.5
  }
}
layer {
  name: "conv8_2_mbox_loc"
  type: "Convolution"
  bottom: "conv8_2"
  top: "conv8_2_mbox_loc"
  param {
    lr_mult: 1
    decay_mult: 1
  }
  param {
    lr_mult: 2
    decay_mult: 0
  }
  convolution_param {
    num_output: 16
    pad: 1
    kernel_size: 3
    stride: 1
    weight_filler {
      type: "xavier"
    }
    bias_filler {
      type: "constant"
      value: 0
    }
  }
}
layer {
  name: "conv8_2_mbox_loc_perm"
  type: "Permute"
  bottom: "conv8_2_mbox_loc"
  top: "conv8_2_mbox_loc_perm"
  permute_param {
    order: 0
    order: 2
    order: 3
    order: 1
  }
}
layer {
  name: "conv8_2_mbox_loc_flat"
  type: "Flatten"
  bottom: "conv8_2_mbox_loc_perm"
  top: "conv8_2_mbox_loc_flat"
  flatten_param {
    axis: 1
  }
}
layer {
  name: "conv8_2_mbox_conf"
  type: "Convolution"
  bottom: "conv8_2"
  top: "conv8_2_mbox_conf"
  param {
    lr_mult: 1
    decay_mult: 1
  }
  param {
    lr_mult: 2
    decay_mult: 0
  }
  convolution_param {
    num_output: 88
    pad: 1
    kernel_size: 3
    stride: 1
    weight_filler {
      type: "xavier"
    }
    bias_filler {
      type: "constant"
      value: 0
    }
  }
}
layer {
  name: "conv8_2_mbox_conf_perm"
  type: "Permute"
  bottom: "conv8_2_mbox_conf"
  top: "conv8_2_mbox_conf_perm"
  permute_param {
    order: 0
    order: 2
    order: 3
    order: 1
  }
}
layer {
  name: "conv8_2_mbox_conf_flat"
  type: "Flatten"
  bottom: "conv8_2_mbox_conf_perm"
  top: "conv8_2_mbox_conf_flat"
  flatten_param {
    axis: 1
  }
}
layer {
  name: "conv8_2_mbox_priorbox"
  type: "PriorBox"
  bottom: "conv8_2"
  bottom: "data"
  top: "conv8_2_mbox_priorbox"
  prior_box_param {
    min_size: 213
    max_size: 264
    aspect_ratio: 2
    flip: true
    clip: false
    variance: 0.1
    variance: 0.1
    variance: 0.2
    variance: 0.2
    step: 100
    offset: 0.5
  }
}
layer {
  name: "conv9_2_mbox_loc"
  type: "Convolution"
  bottom: "conv9_2"
  top: "conv9_2_mbox_loc"
  param {
    lr_mult: 1
    decay_mult: 1
  }
  param {
    lr_mult: 2
    decay_mult: 0
  }
  convolution_param {
    num_output: 16
    pad: 1
    kernel_size: 3
    stride: 1
    weight_filler {
      type: "xavier"
    }
    bias_filler {
      type: "constant"
      value: 0
    }
  }
}
layer {
  name: "conv9_2_mbox_loc_perm"
  type: "Permute"
  bottom: "conv9_2_mbox_loc"
  top: "conv9_2_mbox_loc_perm"
  permute_param {
    order: 0
    order: 2
    order: 3
    order: 1
  }
}
layer {
  name: "conv9_2_mbox_loc_flat"
  type: "Flatten"
  bottom: "conv9_2_mbox_loc_perm"
  top: "conv9_2_mbox_loc_flat"
  flatten_param {
    axis: 1
  }
}
layer {
  name: "conv9_2_mbox_conf"
  type: "Convolution"
  bottom: "conv9_2"
  top: "conv9_2_mbox_conf"
  param {
    lr_mult: 1
    decay_mult: 1
  }
  param {
    lr_mult: 2
    decay_mult: 0
  }
  convolution_param {
    num_output: 88
    pad: 1
    kernel_size: 3
    stride: 1
    weight_filler {
      type: "xavier"
    }
    bias_filler {
      type: "constant"
      value: 0
    }
  }
}
layer {
  name: "conv9_2_mbox_conf_perm"
  type: "Permute"
  bottom: "conv9_2_mbox_conf"
  top: "conv9_2_mbox_conf_perm"
  permute_param {
    order: 0
    order: 2
    order: 3
    order: 1
  }
}
layer {
  name: "conv9_2_mbox_conf_flat"
  type: "Flatten"
  bottom: "conv9_2_mbox_conf_perm"
  top: "conv9_2_mbox_conf_flat"
  flatten_param {
    axis: 1
  }
}
layer {
  name: "conv9_2_mbox_priorbox"
  type: "PriorBox"
  bottom: "conv9_2"
  bottom: "data"
  top: "conv9_2_mbox_priorbox"
  prior_box_param {
    min_size: 264
    max_size: 315
    aspect_ratio: 2
    flip: true
    clip: false
    variance: 0.1
    variance: 0.1
    variance: 0.2
    variance: 0.2
    step: 300
    offset: 0.5
  }
}
layer {
  name: "mbox_loc"
  type: "Concat"
  bottom: "conv4_3_norm_mbox_loc_flat"
  bottom: "fc7_mbox_loc_flat"
  bottom: "conv6_2_mbox_loc_flat"
  bottom: "conv7_2_mbox_loc_flat"
  bottom: "conv8_2_mbox_loc_flat"
  bottom: "conv9_2_mbox_loc_flat"
  top: "mbox_loc"
  concat_param {
    axis: 1
  }
}
layer {
  name: "mbox_conf"
  type: "Concat"
  bottom: "conv4_3_norm_mbox_conf_flat"
  bottom: "fc7_mbox_conf_flat"
  bottom: "conv6_2_mbox_conf_flat"
  bottom: "conv7_2_mbox_conf_flat"
  bottom: "conv8_2_mbox_conf_flat"
  bottom: "conv9_2_mbox_conf_flat"
  top: "mbox_conf"
  concat_param {
    axis: 1
  }
}
layer {
  name: "mbox_priorbox"
  type: "Concat"
  bottom: "conv4_3_norm_mbox_priorbox"
  bottom: "fc7_mbox_priorbox"
  bottom: "conv6_2_mbox_priorbox"
  bottom: "conv7_2_mbox_priorbox"
  bottom: "conv8_2_mbox_priorbox"
  bottom: "conv9_2_mbox_priorbox"
  top: "mbox_priorbox"
  concat_param {
    axis: 2
  }
}
layer {
  name: "mbox_conf_reshape"
  type: "Reshape"
  bottom: "mbox_conf"
  top: "mbox_conf_reshape"
  reshape_param {
    shape {
      dim: 0
      dim: -1
      dim: 22
    }
  }
}
layer {
  name: "mbox_conf_softmax"
  type: "Softmax"
  bottom: "mbox_conf_reshape"
  top: "mbox_conf_softmax"
  softmax_param {
    axis: 2
  }
}
layer {
  name: "mbox_conf_flatten"
  type: "Flatten"
  bottom: "mbox_conf_softmax"
  top: "mbox_conf_flatten"
  flatten_param {
    axis: 1
  }
}
layer {
  name: "detection_out"
  type: "DetectionOutput"
  bottom: "mbox_loc"
  bottom: "mbox_conf_flatten"
  bottom: "mbox_priorbox"
  top: "detection_out"
  include {
    phase: TEST
  }
  detection_output_param {
    num_classes: 22
    share_location: true
    background_label_id: 0
    nms_param {
      nms_threshold: 0.45
      top_k: 400
    }
    save_output_param {
      output_directory: "/home/dhall/data/VOCdevkit/results/dbgr_trees/SSD_dbgr_trees_300x300/Main"
      output_name_prefix: "comp4_det_test_"
      output_format: "VOC"
      label_map_file: "data/dbgr_trees/labelmap_voc.prototxt"
      name_size_file: "data/dbgr_trees/test_name_size.txt"
      num_test_image: 105
    }
    code_type: CENTER_SIZE
    keep_top_k: 200
    confidence_threshold: 0.01
  }
}
layer {
  name: "detection_eval"
  type: "DetectionEvaluate"
  bottom: "detection_out"
  bottom: "label"
  top: "detection_eval"
  include {
    phase: TEST
  }
  detection_evaluate_param {
    num_classes: 22
    background_label_id: 0
    overlap_threshold: 0.5
    evaluate_difficult_gt: false
    name_size_file: "data/dbgr_trees/test_name_size.txt"
  }
}
I0217 12:00:18.218344 23132 layer_factory.hpp:77] Creating layer data
I0217 12:00:18.218442 23132 net.cpp:100] Creating Layer data
I0217 12:00:18.218462 23132 net.cpp:408] data -> data
I0217 12:00:18.218483 23132 net.cpp:408] data -> label
I0217 12:00:18.219818 23153 db_lmdb.cpp:35] Opened lmdb examples/dbgr_trees/dbgr_trees_test_lmdb
I0217 12:00:18.233423 23132 annotated_data_layer.cpp:62] output data size: 1,4,300,300
I0217 12:00:18.236701 23132 net.cpp:150] Setting up data
I0217 12:00:18.236739 23132 net.cpp:157] Top shape: 1 4 300 300 (360000)
I0217 12:00:18.236752 23132 net.cpp:157] Top shape: 1 1 6 8 (48)
I0217 12:00:18.236757 23132 net.cpp:165] Memory required for data: 1440192
I0217 12:00:18.236768 23132 layer_factory.hpp:77] Creating layer data_data_0_split
I0217 12:00:18.236786 23132 net.cpp:100] Creating Layer data_data_0_split
I0217 12:00:18.236795 23132 net.cpp:434] data_data_0_split <- data
I0217 12:00:18.236807 23132 net.cpp:408] data_data_0_split -> data_data_0_split_0
I0217 12:00:18.236824 23132 net.cpp:408] data_data_0_split -> data_data_0_split_1
I0217 12:00:18.236835 23132 net.cpp:408] data_data_0_split -> data_data_0_split_2
I0217 12:00:18.236846 23132 net.cpp:408] data_data_0_split -> data_data_0_split_3
I0217 12:00:18.236855 23132 net.cpp:408] data_data_0_split -> data_data_0_split_4
I0217 12:00:18.236865 23132 net.cpp:408] data_data_0_split -> data_data_0_split_5
I0217 12:00:18.236872 23132 net.cpp:408] data_data_0_split -> data_data_0_split_6
I0217 12:00:18.237043 23132 net.cpp:150] Setting up data_data_0_split
I0217 12:00:18.237061 23132 net.cpp:157] Top shape: 1 4 300 300 (360000)
I0217 12:00:18.237069 23132 net.cpp:157] Top shape: 1 4 300 300 (360000)
I0217 12:00:18.237102 23132 net.cpp:157] Top shape: 1 4 300 300 (360000)
I0217 12:00:18.237109 23132 net.cpp:157] Top shape: 1 4 300 300 (360000)
I0217 12:00:18.237116 23132 net.cpp:157] Top shape: 1 4 300 300 (360000)
I0217 12:00:18.237125 23132 net.cpp:157] Top shape: 1 4 300 300 (360000)
I0217 12:00:18.237133 23132 net.cpp:157] Top shape: 1 4 300 300 (360000)
I0217 12:00:18.237139 23132 net.cpp:165] Memory required for data: 11520192
I0217 12:00:18.237145 23132 layer_factory.hpp:77] Creating layer conv1_1_rgbd
I0217 12:00:18.237167 23132 net.cpp:100] Creating Layer conv1_1_rgbd
I0217 12:00:18.237175 23132 net.cpp:434] conv1_1_rgbd <- data_data_0_split_0
I0217 12:00:18.237185 23132 net.cpp:408] conv1_1_rgbd -> conv1_1_rgbd
I0217 12:00:18.239132 23132 net.cpp:150] Setting up conv1_1_rgbd
I0217 12:00:18.239156 23132 net.cpp:157] Top shape: 1 64 300 300 (5760000)
I0217 12:00:18.239167 23132 net.cpp:165] Memory required for data: 34560192
I0217 12:00:18.239188 23132 layer_factory.hpp:77] Creating layer relu1_1
I0217 12:00:18.239202 23132 net.cpp:100] Creating Layer relu1_1
I0217 12:00:18.239212 23132 net.cpp:434] relu1_1 <- conv1_1_rgbd
I0217 12:00:18.239223 23132 net.cpp:395] relu1_1 -> conv1_1_rgbd (in-place)
I0217 12:00:18.239670 23132 net.cpp:150] Setting up relu1_1
I0217 12:00:18.239691 23132 net.cpp:157] Top shape: 1 64 300 300 (5760000)
I0217 12:00:18.239701 23132 net.cpp:165] Memory required for data: 57600192
I0217 12:00:18.239711 23132 layer_factory.hpp:77] Creating layer conv1_2
I0217 12:00:18.239729 23132 net.cpp:100] Creating Layer conv1_2
I0217 12:00:18.239738 23132 net.cpp:434] conv1_2 <- conv1_1_rgbd
I0217 12:00:18.239753 23132 net.cpp:408] conv1_2 -> conv1_2
I0217 12:00:18.242640 23132 net.cpp:150] Setting up conv1_2
I0217 12:00:18.242669 23132 net.cpp:157] Top shape: 1 64 300 300 (5760000)
I0217 12:00:18.242677 23132 net.cpp:165] Memory required for data: 80640192
I0217 12:00:18.242694 23132 layer_factory.hpp:77] Creating layer relu1_2
I0217 12:00:18.242709 23132 net.cpp:100] Creating Layer relu1_2
I0217 12:00:18.242718 23132 net.cpp:434] relu1_2 <- conv1_2
I0217 12:00:18.242730 23132 net.cpp:395] relu1_2 -> conv1_2 (in-place)
I0217 12:00:18.243008 23132 net.cpp:150] Setting up relu1_2
I0217 12:00:18.243028 23132 net.cpp:157] Top shape: 1 64 300 300 (5760000)
I0217 12:00:18.243038 23132 net.cpp:165] Memory required for data: 103680192
I0217 12:00:18.243046 23132 layer_factory.hpp:77] Creating layer pool1
I0217 12:00:18.243057 23132 net.cpp:100] Creating Layer pool1
I0217 12:00:18.243063 23132 net.cpp:434] pool1 <- conv1_2
I0217 12:00:18.243072 23132 net.cpp:408] pool1 -> pool1
I0217 12:00:18.243155 23132 net.cpp:150] Setting up pool1
I0217 12:00:18.243170 23132 net.cpp:157] Top shape: 1 64 150 150 (1440000)
I0217 12:00:18.243176 23132 net.cpp:165] Memory required for data: 109440192
I0217 12:00:18.243182 23132 layer_factory.hpp:77] Creating layer conv2_1
I0217 12:00:18.243198 23132 net.cpp:100] Creating Layer conv2_1
I0217 12:00:18.243208 23132 net.cpp:434] conv2_1 <- pool1
I0217 12:00:18.243218 23132 net.cpp:408] conv2_1 -> conv2_1
I0217 12:00:18.245751 23132 net.cpp:150] Setting up conv2_1
I0217 12:00:18.245779 23132 net.cpp:157] Top shape: 1 128 150 150 (2880000)
I0217 12:00:18.245789 23132 net.cpp:165] Memory required for data: 120960192
I0217 12:00:18.245805 23132 layer_factory.hpp:77] Creating layer relu2_1
I0217 12:00:18.245820 23132 net.cpp:100] Creating Layer relu2_1
I0217 12:00:18.245831 23132 net.cpp:434] relu2_1 <- conv2_1
I0217 12:00:18.245841 23132 net.cpp:395] relu2_1 -> conv2_1 (in-place)
I0217 12:00:18.246114 23132 net.cpp:150] Setting up relu2_1
I0217 12:00:18.246132 23132 net.cpp:157] Top shape: 1 128 150 150 (2880000)
I0217 12:00:18.246142 23132 net.cpp:165] Memory required for data: 132480192
I0217 12:00:18.246150 23132 layer_factory.hpp:77] Creating layer conv2_2
I0217 12:00:18.246165 23132 net.cpp:100] Creating Layer conv2_2
I0217 12:00:18.246171 23132 net.cpp:434] conv2_2 <- conv2_1
I0217 12:00:18.246186 23132 net.cpp:408] conv2_2 -> conv2_2
I0217 12:00:18.250093 23132 net.cpp:150] Setting up conv2_2
I0217 12:00:18.250159 23132 net.cpp:157] Top shape: 1 128 150 150 (2880000)
I0217 12:00:18.250167 23132 net.cpp:165] Memory required for data: 144000192
I0217 12:00:18.250180 23132 layer_factory.hpp:77] Creating layer relu2_2
I0217 12:00:18.250198 23132 net.cpp:100] Creating Layer relu2_2
I0217 12:00:18.250206 23132 net.cpp:434] relu2_2 <- conv2_2
I0217 12:00:18.250216 23132 net.cpp:395] relu2_2 -> conv2_2 (in-place)
I0217 12:00:18.250663 23132 net.cpp:150] Setting up relu2_2
I0217 12:00:18.250685 23132 net.cpp:157] Top shape: 1 128 150 150 (2880000)
I0217 12:00:18.250696 23132 net.cpp:165] Memory required for data: 155520192
I0217 12:00:18.250706 23132 layer_factory.hpp:77] Creating layer pool2
I0217 12:00:18.250717 23132 net.cpp:100] Creating Layer pool2
I0217 12:00:18.250723 23132 net.cpp:434] pool2 <- conv2_2
I0217 12:00:18.250733 23132 net.cpp:408] pool2 -> pool2
I0217 12:00:18.250819 23132 net.cpp:150] Setting up pool2
I0217 12:00:18.250836 23132 net.cpp:157] Top shape: 1 128 75 75 (720000)
I0217 12:00:18.250846 23132 net.cpp:165] Memory required for data: 158400192
I0217 12:00:18.250854 23132 layer_factory.hpp:77] Creating layer conv3_1
I0217 12:00:18.250869 23132 net.cpp:100] Creating Layer conv3_1
I0217 12:00:18.250879 23132 net.cpp:434] conv3_1 <- pool2
I0217 12:00:18.250890 23132 net.cpp:408] conv3_1 -> conv3_1
I0217 12:00:18.256402 23132 net.cpp:150] Setting up conv3_1
I0217 12:00:18.256428 23132 net.cpp:157] Top shape: 1 256 75 75 (1440000)
I0217 12:00:18.256434 23132 net.cpp:165] Memory required for data: 164160192
I0217 12:00:18.256458 23132 layer_factory.hpp:77] Creating layer relu3_1
I0217 12:00:18.256469 23132 net.cpp:100] Creating Layer relu3_1
I0217 12:00:18.256475 23132 net.cpp:434] relu3_1 <- conv3_1
I0217 12:00:18.256485 23132 net.cpp:395] relu3_1 -> conv3_1 (in-place)
I0217 12:00:18.256749 23132 net.cpp:150] Setting up relu3_1
I0217 12:00:18.256767 23132 net.cpp:157] Top shape: 1 256 75 75 (1440000)
I0217 12:00:18.256778 23132 net.cpp:165] Memory required for data: 169920192
I0217 12:00:18.256783 23132 layer_factory.hpp:77] Creating layer conv3_2
I0217 12:00:18.256799 23132 net.cpp:100] Creating Layer conv3_2
I0217 12:00:18.256805 23132 net.cpp:434] conv3_2 <- conv3_1
I0217 12:00:18.256817 23132 net.cpp:408] conv3_2 -> conv3_2
I0217 12:00:18.265945 23132 net.cpp:150] Setting up conv3_2
I0217 12:00:18.265997 23132 net.cpp:157] Top shape: 1 256 75 75 (1440000)
I0217 12:00:18.266005 23132 net.cpp:165] Memory required for data: 175680192
I0217 12:00:18.266021 23132 layer_factory.hpp:77] Creating layer relu3_2
I0217 12:00:18.266041 23132 net.cpp:100] Creating Layer relu3_2
I0217 12:00:18.266049 23132 net.cpp:434] relu3_2 <- conv3_2
I0217 12:00:18.266060 23132 net.cpp:395] relu3_2 -> conv3_2 (in-place)
I0217 12:00:18.266316 23132 net.cpp:150] Setting up relu3_2
I0217 12:00:18.266335 23132 net.cpp:157] Top shape: 1 256 75 75 (1440000)
I0217 12:00:18.266345 23132 net.cpp:165] Memory required for data: 181440192
I0217 12:00:18.266350 23132 layer_factory.hpp:77] Creating layer conv3_3
I0217 12:00:18.266373 23132 net.cpp:100] Creating Layer conv3_3
I0217 12:00:18.266383 23132 net.cpp:434] conv3_3 <- conv3_2
I0217 12:00:18.266396 23132 net.cpp:408] conv3_3 -> conv3_3
I0217 12:00:18.275722 23132 net.cpp:150] Setting up conv3_3
I0217 12:00:18.275777 23132 net.cpp:157] Top shape: 1 256 75 75 (1440000)
I0217 12:00:18.275786 23132 net.cpp:165] Memory required for data: 187200192
I0217 12:00:18.275802 23132 layer_factory.hpp:77] Creating layer relu3_3
I0217 12:00:18.275823 23132 net.cpp:100] Creating Layer relu3_3
I0217 12:00:18.275833 23132 net.cpp:434] relu3_3 <- conv3_3
I0217 12:00:18.275845 23132 net.cpp:395] relu3_3 -> conv3_3 (in-place)
I0217 12:00:18.276312 23132 net.cpp:150] Setting up relu3_3
I0217 12:00:18.276334 23132 net.cpp:157] Top shape: 1 256 75 75 (1440000)
I0217 12:00:18.276341 23132 net.cpp:165] Memory required for data: 192960192
I0217 12:00:18.276350 23132 layer_factory.hpp:77] Creating layer pool3
I0217 12:00:18.276363 23132 net.cpp:100] Creating Layer pool3
I0217 12:00:18.276370 23132 net.cpp:434] pool3 <- conv3_3
I0217 12:00:18.276410 23132 net.cpp:408] pool3 -> pool3
I0217 12:00:18.276515 23132 net.cpp:150] Setting up pool3
I0217 12:00:18.276531 23132 net.cpp:157] Top shape: 1 256 38 38 (369664)
I0217 12:00:18.276540 23132 net.cpp:165] Memory required for data: 194438848
I0217 12:00:18.276546 23132 layer_factory.hpp:77] Creating layer conv4_1
I0217 12:00:18.276564 23132 net.cpp:100] Creating Layer conv4_1
I0217 12:00:18.276572 23132 net.cpp:434] conv4_1 <- pool3
I0217 12:00:18.276587 23132 net.cpp:408] conv4_1 -> conv4_1
I0217 12:00:18.292590 23132 net.cpp:150] Setting up conv4_1
I0217 12:00:18.292637 23132 net.cpp:157] Top shape: 1 512 38 38 (739328)
I0217 12:00:18.292646 23132 net.cpp:165] Memory required for data: 197396160
I0217 12:00:18.292661 23132 layer_factory.hpp:77] Creating layer relu4_1
I0217 12:00:18.292680 23132 net.cpp:100] Creating Layer relu4_1
I0217 12:00:18.292688 23132 net.cpp:434] relu4_1 <- conv4_1
I0217 12:00:18.292699 23132 net.cpp:395] relu4_1 -> conv4_1 (in-place)
I0217 12:00:18.292968 23132 net.cpp:150] Setting up relu4_1
I0217 12:00:18.292987 23132 net.cpp:157] Top shape: 1 512 38 38 (739328)
I0217 12:00:18.292996 23132 net.cpp:165] Memory required for data: 200353472
I0217 12:00:18.293004 23132 layer_factory.hpp:77] Creating layer conv4_2
I0217 12:00:18.293020 23132 net.cpp:100] Creating Layer conv4_2
I0217 12:00:18.293026 23132 net.cpp:434] conv4_2 <- conv4_1
I0217 12:00:18.293038 23132 net.cpp:408] conv4_2 -> conv4_2
I0217 12:00:18.322901 23132 net.cpp:150] Setting up conv4_2
I0217 12:00:18.322950 23132 net.cpp:157] Top shape: 1 512 38 38 (739328)
I0217 12:00:18.322958 23132 net.cpp:165] Memory required for data: 203310784
I0217 12:00:18.322981 23132 layer_factory.hpp:77] Creating layer relu4_2
I0217 12:00:18.323001 23132 net.cpp:100] Creating Layer relu4_2
I0217 12:00:18.323010 23132 net.cpp:434] relu4_2 <- conv4_2
I0217 12:00:18.323022 23132 net.cpp:395] relu4_2 -> conv4_2 (in-place)
I0217 12:00:18.323292 23132 net.cpp:150] Setting up relu4_2
I0217 12:00:18.323310 23132 net.cpp:157] Top shape: 1 512 38 38 (739328)
I0217 12:00:18.323319 23132 net.cpp:165] Memory required for data: 206268096
I0217 12:00:18.323326 23132 layer_factory.hpp:77] Creating layer conv4_3
I0217 12:00:18.323343 23132 net.cpp:100] Creating Layer conv4_3
I0217 12:00:18.323350 23132 net.cpp:434] conv4_3 <- conv4_2
I0217 12:00:18.323364 23132 net.cpp:408] conv4_3 -> conv4_3
I0217 12:00:18.353241 23132 net.cpp:150] Setting up conv4_3
I0217 12:00:18.353286 23132 net.cpp:157] Top shape: 1 512 38 38 (739328)
I0217 12:00:18.353296 23132 net.cpp:165] Memory required for data: 209225408
I0217 12:00:18.353310 23132 layer_factory.hpp:77] Creating layer relu4_3
I0217 12:00:18.353329 23132 net.cpp:100] Creating Layer relu4_3
I0217 12:00:18.353338 23132 net.cpp:434] relu4_3 <- conv4_3
I0217 12:00:18.353350 23132 net.cpp:395] relu4_3 -> conv4_3 (in-place)
I0217 12:00:18.353808 23132 net.cpp:150] Setting up relu4_3
I0217 12:00:18.353832 23132 net.cpp:157] Top shape: 1 512 38 38 (739328)
I0217 12:00:18.353842 23132 net.cpp:165] Memory required for data: 212182720
I0217 12:00:18.353848 23132 layer_factory.hpp:77] Creating layer conv4_3_relu4_3_0_split
I0217 12:00:18.353858 23132 net.cpp:100] Creating Layer conv4_3_relu4_3_0_split
I0217 12:00:18.353865 23132 net.cpp:434] conv4_3_relu4_3_0_split <- conv4_3
I0217 12:00:18.353875 23132 net.cpp:408] conv4_3_relu4_3_0_split -> conv4_3_relu4_3_0_split_0
I0217 12:00:18.353893 23132 net.cpp:408] conv4_3_relu4_3_0_split -> conv4_3_relu4_3_0_split_1
I0217 12:00:18.353978 23132 net.cpp:150] Setting up conv4_3_relu4_3_0_split
I0217 12:00:18.353994 23132 net.cpp:157] Top shape: 1 512 38 38 (739328)
I0217 12:00:18.354003 23132 net.cpp:157] Top shape: 1 512 38 38 (739328)
I0217 12:00:18.354008 23132 net.cpp:165] Memory required for data: 218097344
I0217 12:00:18.354014 23132 layer_factory.hpp:77] Creating layer pool4
I0217 12:00:18.354025 23132 net.cpp:100] Creating Layer pool4
I0217 12:00:18.354034 23132 net.cpp:434] pool4 <- conv4_3_relu4_3_0_split_0
I0217 12:00:18.354044 23132 net.cpp:408] pool4 -> pool4
I0217 12:00:18.354152 23132 net.cpp:150] Setting up pool4
I0217 12:00:18.354168 23132 net.cpp:157] Top shape: 1 512 19 19 (184832)
I0217 12:00:18.354174 23132 net.cpp:165] Memory required for data: 218836672
I0217 12:00:18.354181 23132 layer_factory.hpp:77] Creating layer conv5_1
I0217 12:00:18.354200 23132 net.cpp:100] Creating Layer conv5_1
I0217 12:00:18.354210 23132 net.cpp:434] conv5_1 <- pool4
I0217 12:00:18.354221 23132 net.cpp:408] conv5_1 -> conv5_1
I0217 12:00:18.384471 23132 net.cpp:150] Setting up conv5_1
I0217 12:00:18.384516 23132 net.cpp:157] Top shape: 1 512 19 19 (184832)
I0217 12:00:18.384524 23132 net.cpp:165] Memory required for data: 219576000
I0217 12:00:18.384541 23132 layer_factory.hpp:77] Creating layer relu5_1
I0217 12:00:18.384560 23132 net.cpp:100] Creating Layer relu5_1
I0217 12:00:18.384569 23132 net.cpp:434] relu5_1 <- conv5_1
I0217 12:00:18.384583 23132 net.cpp:395] relu5_1 -> conv5_1 (in-place)
I0217 12:00:18.384865 23132 net.cpp:150] Setting up relu5_1
I0217 12:00:18.384881 23132 net.cpp:157] Top shape: 1 512 19 19 (184832)
I0217 12:00:18.384884 23132 net.cpp:165] Memory required for data: 220315328
I0217 12:00:18.384889 23132 layer_factory.hpp:77] Creating layer conv5_2
I0217 12:00:18.384907 23132 net.cpp:100] Creating Layer conv5_2
I0217 12:00:18.384913 23132 net.cpp:434] conv5_2 <- conv5_1
I0217 12:00:18.384925 23132 net.cpp:408] conv5_2 -> conv5_2
I0217 12:00:18.407021 23132 net.cpp:150] Setting up conv5_2
I0217 12:00:18.407059 23132 net.cpp:157] Top shape: 1 512 19 19 (184832)
I0217 12:00:18.407064 23132 net.cpp:165] Memory required for data: 221054656
I0217 12:00:18.407073 23132 layer_factory.hpp:77] Creating layer relu5_2
I0217 12:00:18.407086 23132 net.cpp:100] Creating Layer relu5_2
I0217 12:00:18.407093 23132 net.cpp:434] relu5_2 <- conv5_2
I0217 12:00:18.407100 23132 net.cpp:395] relu5_2 -> conv5_2 (in-place)
I0217 12:00:18.407382 23132 net.cpp:150] Setting up relu5_2
I0217 12:00:18.407397 23132 net.cpp:157] Top shape: 1 512 19 19 (184832)
I0217 12:00:18.407403 23132 net.cpp:165] Memory required for data: 221793984
I0217 12:00:18.407410 23132 layer_factory.hpp:77] Creating layer conv5_3
I0217 12:00:18.407433 23132 net.cpp:100] Creating Layer conv5_3
I0217 12:00:18.407441 23132 net.cpp:434] conv5_3 <- conv5_2
I0217 12:00:18.407455 23132 net.cpp:408] conv5_3 -> conv5_3
I0217 12:00:18.429637 23132 net.cpp:150] Setting up conv5_3
I0217 12:00:18.429673 23132 net.cpp:157] Top shape: 1 512 19 19 (184832)
I0217 12:00:18.429678 23132 net.cpp:165] Memory required for data: 222533312
I0217 12:00:18.429687 23132 layer_factory.hpp:77] Creating layer relu5_3
I0217 12:00:18.429703 23132 net.cpp:100] Creating Layer relu5_3
I0217 12:00:18.429710 23132 net.cpp:434] relu5_3 <- conv5_3
I0217 12:00:18.429718 23132 net.cpp:395] relu5_3 -> conv5_3 (in-place)
I0217 12:00:18.430150 23132 net.cpp:150] Setting up relu5_3
I0217 12:00:18.430166 23132 net.cpp:157] Top shape: 1 512 19 19 (184832)
I0217 12:00:18.430171 23132 net.cpp:165] Memory required for data: 223272640
I0217 12:00:18.430176 23132 layer_factory.hpp:77] Creating layer pool5
I0217 12:00:18.430183 23132 net.cpp:100] Creating Layer pool5
I0217 12:00:18.430187 23132 net.cpp:434] pool5 <- conv5_3
I0217 12:00:18.430198 23132 net.cpp:408] pool5 -> pool5
I0217 12:00:18.430286 23132 net.cpp:150] Setting up pool5
I0217 12:00:18.430299 23132 net.cpp:157] Top shape: 1 512 19 19 (184832)
I0217 12:00:18.430305 23132 net.cpp:165] Memory required for data: 224011968
I0217 12:00:18.430307 23132 layer_factory.hpp:77] Creating layer fc6
I0217 12:00:18.430327 23132 net.cpp:100] Creating Layer fc6
I0217 12:00:18.430335 23132 net.cpp:434] fc6 <- pool5
I0217 12:00:18.430344 23132 net.cpp:408] fc6 -> fc6
I0217 12:00:18.471942 23132 net.cpp:150] Setting up fc6
I0217 12:00:18.471974 23132 net.cpp:157] Top shape: 1 1024 19 19 (369664)
I0217 12:00:18.471979 23132 net.cpp:165] Memory required for data: 225490624
I0217 12:00:18.471988 23132 layer_factory.hpp:77] Creating layer relu6
I0217 12:00:18.472000 23132 net.cpp:100] Creating Layer relu6
I0217 12:00:18.472030 23132 net.cpp:434] relu6 <- fc6
I0217 12:00:18.472038 23132 net.cpp:395] relu6 -> fc6 (in-place)
I0217 12:00:18.472383 23132 net.cpp:150] Setting up relu6
I0217 12:00:18.472395 23132 net.cpp:157] Top shape: 1 1024 19 19 (369664)
I0217 12:00:18.472399 23132 net.cpp:165] Memory required for data: 226969280
I0217 12:00:18.472404 23132 layer_factory.hpp:77] Creating layer fc7
I0217 12:00:18.472419 23132 net.cpp:100] Creating Layer fc7
I0217 12:00:18.472426 23132 net.cpp:434] fc7 <- fc6
I0217 12:00:18.472441 23132 net.cpp:408] fc7 -> fc7
I0217 12:00:18.516633 23132 net.cpp:150] Setting up fc7
I0217 12:00:18.516674 23132 net.cpp:157] Top shape: 1 1024 19 19 (369664)
I0217 12:00:18.516679 23132 net.cpp:165] Memory required for data: 228447936
I0217 12:00:18.516691 23132 layer_factory.hpp:77] Creating layer relu7
I0217 12:00:18.516706 23132 net.cpp:100] Creating Layer relu7
I0217 12:00:18.516712 23132 net.cpp:434] relu7 <- fc7
I0217 12:00:18.516721 23132 net.cpp:395] relu7 -> fc7 (in-place)
I0217 12:00:18.517343 23132 net.cpp:150] Setting up relu7
I0217 12:00:18.517359 23132 net.cpp:157] Top shape: 1 1024 19 19 (369664)
I0217 12:00:18.517364 23132 net.cpp:165] Memory required for data: 229926592
I0217 12:00:18.517367 23132 layer_factory.hpp:77] Creating layer fc7_relu7_0_split
I0217 12:00:18.517379 23132 net.cpp:100] Creating Layer fc7_relu7_0_split
I0217 12:00:18.517383 23132 net.cpp:434] fc7_relu7_0_split <- fc7
I0217 12:00:18.517392 23132 net.cpp:408] fc7_relu7_0_split -> fc7_relu7_0_split_0
I0217 12:00:18.517408 23132 net.cpp:408] fc7_relu7_0_split -> fc7_relu7_0_split_1
I0217 12:00:18.517427 23132 net.cpp:408] fc7_relu7_0_split -> fc7_relu7_0_split_2
I0217 12:00:18.517439 23132 net.cpp:408] fc7_relu7_0_split -> fc7_relu7_0_split_3
I0217 12:00:18.517612 23132 net.cpp:150] Setting up fc7_relu7_0_split
I0217 12:00:18.517623 23132 net.cpp:157] Top shape: 1 1024 19 19 (369664)
I0217 12:00:18.517630 23132 net.cpp:157] Top shape: 1 1024 19 19 (369664)
I0217 12:00:18.517638 23132 net.cpp:157] Top shape: 1 1024 19 19 (369664)
I0217 12:00:18.517645 23132 net.cpp:157] Top shape: 1 1024 19 19 (369664)
I0217 12:00:18.517652 23132 net.cpp:165] Memory required for data: 235841216
I0217 12:00:18.517654 23132 layer_factory.hpp:77] Creating layer conv6_1
I0217 12:00:18.517669 23132 net.cpp:100] Creating Layer conv6_1
I0217 12:00:18.517676 23132 net.cpp:434] conv6_1 <- fc7_relu7_0_split_0
I0217 12:00:18.517690 23132 net.cpp:408] conv6_1 -> conv6_1
I0217 12:00:18.708632 23132 net.cpp:150] Setting up conv6_1
I0217 12:00:18.708684 23132 net.cpp:157] Top shape: 1 256 19 19 (92416)
I0217 12:00:18.708693 23132 net.cpp:165] Memory required for data: 236210880
I0217 12:00:18.708711 23132 layer_factory.hpp:77] Creating layer conv6_1_relu
I0217 12:00:18.708729 23132 net.cpp:100] Creating Layer conv6_1_relu
I0217 12:00:18.708739 23132 net.cpp:434] conv6_1_relu <- conv6_1
I0217 12:00:18.708761 23132 net.cpp:395] conv6_1_relu -> conv6_1 (in-place)
I0217 12:00:18.709578 23132 net.cpp:150] Setting up conv6_1_relu
I0217 12:00:18.709607 23132 net.cpp:157] Top shape: 1 256 19 19 (92416)
I0217 12:00:18.709616 23132 net.cpp:165] Memory required for data: 236580544
I0217 12:00:18.709625 23132 layer_factory.hpp:77] Creating layer conv6_2
I0217 12:00:18.709659 23132 net.cpp:100] Creating Layer conv6_2
I0217 12:00:18.709676 23132 net.cpp:434] conv6_2 <- conv6_1
I0217 12:00:18.709705 23132 net.cpp:408] conv6_2 -> conv6_2
I0217 12:00:18.794688 23132 net.cpp:150] Setting up conv6_2
I0217 12:00:18.794745 23132 net.cpp:157] Top shape: 1 512 10 10 (51200)
I0217 12:00:18.794755 23132 net.cpp:165] Memory required for data: 236785344
I0217 12:00:18.794785 23132 layer_factory.hpp:77] Creating layer conv6_2_relu
I0217 12:00:18.794811 23132 net.cpp:100] Creating Layer conv6_2_relu
I0217 12:00:18.794829 23132 net.cpp:434] conv6_2_relu <- conv6_2
I0217 12:00:18.794852 23132 net.cpp:395] conv6_2_relu -> conv6_2 (in-place)
I0217 12:00:18.796039 23132 net.cpp:150] Setting up conv6_2_relu
I0217 12:00:18.796077 23132 net.cpp:157] Top shape: 1 512 10 10 (51200)
I0217 12:00:18.796142 23132 net.cpp:165] Memory required for data: 236990144
I0217 12:00:18.796161 23132 layer_factory.hpp:77] Creating layer conv6_2_conv6_2_relu_0_split
I0217 12:00:18.796182 23132 net.cpp:100] Creating Layer conv6_2_conv6_2_relu_0_split
I0217 12:00:18.796197 23132 net.cpp:434] conv6_2_conv6_2_relu_0_split <- conv6_2
I0217 12:00:18.796224 23132 net.cpp:408] conv6_2_conv6_2_relu_0_split -> conv6_2_conv6_2_relu_0_split_0
I0217 12:00:18.796258 23132 net.cpp:408] conv6_2_conv6_2_relu_0_split -> conv6_2_conv6_2_relu_0_split_1
I0217 12:00:18.796288 23132 net.cpp:408] conv6_2_conv6_2_relu_0_split -> conv6_2_conv6_2_relu_0_split_2
I0217 12:00:18.796319 23132 net.cpp:408] conv6_2_conv6_2_relu_0_split -> conv6_2_conv6_2_relu_0_split_3
I0217 12:00:18.796550 23132 net.cpp:150] Setting up conv6_2_conv6_2_relu_0_split
I0217 12:00:18.796574 23132 net.cpp:157] Top shape: 1 512 10 10 (51200)
I0217 12:00:18.796592 23132 net.cpp:157] Top shape: 1 512 10 10 (51200)
I0217 12:00:18.796608 23132 net.cpp:157] Top shape: 1 512 10 10 (51200)
I0217 12:00:18.796624 23132 net.cpp:157] Top shape: 1 512 10 10 (51200)
I0217 12:00:18.796636 23132 net.cpp:165] Memory required for data: 237809344
I0217 12:00:18.796650 23132 layer_factory.hpp:77] Creating layer conv7_1
I0217 12:00:18.796685 23132 net.cpp:100] Creating Layer conv7_1
I0217 12:00:18.796705 23132 net.cpp:434] conv7_1 <- conv6_2_conv6_2_relu_0_split_0
I0217 12:00:18.796735 23132 net.cpp:408] conv7_1 -> conv7_1
I0217 12:00:18.800736 23132 net.cpp:150] Setting up conv7_1
I0217 12:00:18.800770 23132 net.cpp:157] Top shape: 1 128 10 10 (12800)
I0217 12:00:18.800783 23132 net.cpp:165] Memory required for data: 237860544
I0217 12:00:18.800806 23132 layer_factory.hpp:77] Creating layer conv7_1_relu
I0217 12:00:18.800828 23132 net.cpp:100] Creating Layer conv7_1_relu
I0217 12:00:18.800843 23132 net.cpp:434] conv7_1_relu <- conv7_1
I0217 12:00:18.800865 23132 net.cpp:395] conv7_1_relu -> conv7_1 (in-place)
I0217 12:00:18.801451 23132 net.cpp:150] Setting up conv7_1_relu
I0217 12:00:18.801481 23132 net.cpp:157] Top shape: 1 128 10 10 (12800)
I0217 12:00:18.801493 23132 net.cpp:165] Memory required for data: 237911744
I0217 12:00:18.801506 23132 layer_factory.hpp:77] Creating layer conv7_2
I0217 12:00:18.801537 23132 net.cpp:100] Creating Layer conv7_2
I0217 12:00:18.801553 23132 net.cpp:434] conv7_2 <- conv7_1
I0217 12:00:18.801578 23132 net.cpp:408] conv7_2 -> conv7_2
I0217 12:00:18.808264 23132 net.cpp:150] Setting up conv7_2
I0217 12:00:18.808298 23132 net.cpp:157] Top shape: 1 256 5 5 (6400)
I0217 12:00:18.808311 23132 net.cpp:165] Memory required for data: 237937344
I0217 12:00:18.808333 23132 layer_factory.hpp:77] Creating layer conv7_2_relu
I0217 12:00:18.808353 23132 net.cpp:100] Creating Layer conv7_2_relu
I0217 12:00:18.808367 23132 net.cpp:434] conv7_2_relu <- conv7_2
I0217 12:00:18.808390 23132 net.cpp:395] conv7_2_relu -> conv7_2 (in-place)
I0217 12:00:18.808977 23132 net.cpp:150] Setting up conv7_2_relu
I0217 12:00:18.809007 23132 net.cpp:157] Top shape: 1 256 5 5 (6400)
I0217 12:00:18.809020 23132 net.cpp:165] Memory required for data: 237962944
I0217 12:00:18.809032 23132 layer_factory.hpp:77] Creating layer conv7_2_conv7_2_relu_0_split
I0217 12:00:18.809056 23132 net.cpp:100] Creating Layer conv7_2_conv7_2_relu_0_split
I0217 12:00:18.809070 23132 net.cpp:434] conv7_2_conv7_2_relu_0_split <- conv7_2
I0217 12:00:18.809089 23132 net.cpp:408] conv7_2_conv7_2_relu_0_split -> conv7_2_conv7_2_relu_0_split_0
I0217 12:00:18.809113 23132 net.cpp:408] conv7_2_conv7_2_relu_0_split -> conv7_2_conv7_2_relu_0_split_1
I0217 12:00:18.809146 23132 net.cpp:408] conv7_2_conv7_2_relu_0_split -> conv7_2_conv7_2_relu_0_split_2
I0217 12:00:18.809176 23132 net.cpp:408] conv7_2_conv7_2_relu_0_split -> conv7_2_conv7_2_relu_0_split_3
I0217 12:00:18.809375 23132 net.cpp:150] Setting up conv7_2_conv7_2_relu_0_split
I0217 12:00:18.809401 23132 net.cpp:157] Top shape: 1 256 5 5 (6400)
I0217 12:00:18.809417 23132 net.cpp:157] Top shape: 1 256 5 5 (6400)
I0217 12:00:18.809432 23132 net.cpp:157] Top shape: 1 256 5 5 (6400)
I0217 12:00:18.809484 23132 net.cpp:157] Top shape: 1 256 5 5 (6400)
I0217 12:00:18.809497 23132 net.cpp:165] Memory required for data: 238065344
I0217 12:00:18.809510 23132 layer_factory.hpp:77] Creating layer conv8_1
I0217 12:00:18.809542 23132 net.cpp:100] Creating Layer conv8_1
I0217 12:00:18.809561 23132 net.cpp:434] conv8_1 <- conv7_2_conv7_2_relu_0_split_0
I0217 12:00:18.809588 23132 net.cpp:408] conv8_1 -> conv8_1
I0217 12:00:18.812144 23132 net.cpp:150] Setting up conv8_1
I0217 12:00:18.812175 23132 net.cpp:157] Top shape: 1 128 5 5 (3200)
I0217 12:00:18.812187 23132 net.cpp:165] Memory required for data: 238078144
I0217 12:00:18.812208 23132 layer_factory.hpp:77] Creating layer conv8_1_relu
I0217 12:00:18.812232 23132 net.cpp:100] Creating Layer conv8_1_relu
I0217 12:00:18.812245 23132 net.cpp:434] conv8_1_relu <- conv8_1
I0217 12:00:18.812265 23132 net.cpp:395] conv8_1_relu -> conv8_1 (in-place)
I0217 12:00:18.812613 23132 net.cpp:150] Setting up conv8_1_relu
I0217 12:00:18.812636 23132 net.cpp:157] Top shape: 1 128 5 5 (3200)
I0217 12:00:18.812647 23132 net.cpp:165] Memory required for data: 238090944
I0217 12:00:18.812659 23132 layer_factory.hpp:77] Creating layer conv8_2
I0217 12:00:18.812688 23132 net.cpp:100] Creating Layer conv8_2
I0217 12:00:18.812701 23132 net.cpp:434] conv8_2 <- conv8_1
I0217 12:00:18.812726 23132 net.cpp:408] conv8_2 -> conv8_2
I0217 12:00:18.819396 23132 net.cpp:150] Setting up conv8_2
I0217 12:00:18.819430 23132 net.cpp:157] Top shape: 1 256 3 3 (2304)
I0217 12:00:18.819442 23132 net.cpp:165] Memory required for data: 238100160
I0217 12:00:18.819463 23132 layer_factory.hpp:77] Creating layer conv8_2_relu
I0217 12:00:18.819481 23132 net.cpp:100] Creating Layer conv8_2_relu
I0217 12:00:18.819495 23132 net.cpp:434] conv8_2_relu <- conv8_2
I0217 12:00:18.819516 23132 net.cpp:395] conv8_2_relu -> conv8_2 (in-place)
I0217 12:00:18.820088 23132 net.cpp:150] Setting up conv8_2_relu
I0217 12:00:18.820116 23132 net.cpp:157] Top shape: 1 256 3 3 (2304)
I0217 12:00:18.820128 23132 net.cpp:165] Memory required for data: 238109376
I0217 12:00:18.820139 23132 layer_factory.hpp:77] Creating layer conv8_2_conv8_2_relu_0_split
I0217 12:00:18.820158 23132 net.cpp:100] Creating Layer conv8_2_conv8_2_relu_0_split
I0217 12:00:18.820169 23132 net.cpp:434] conv8_2_conv8_2_relu_0_split <- conv8_2
I0217 12:00:18.820191 23132 net.cpp:408] conv8_2_conv8_2_relu_0_split -> conv8_2_conv8_2_relu_0_split_0
I0217 12:00:18.820214 23132 net.cpp:408] conv8_2_conv8_2_relu_0_split -> conv8_2_conv8_2_relu_0_split_1
I0217 12:00:18.820245 23132 net.cpp:408] conv8_2_conv8_2_relu_0_split -> conv8_2_conv8_2_relu_0_split_2
I0217 12:00:18.820272 23132 net.cpp:408] conv8_2_conv8_2_relu_0_split -> conv8_2_conv8_2_relu_0_split_3
I0217 12:00:18.820467 23132 net.cpp:150] Setting up conv8_2_conv8_2_relu_0_split
I0217 12:00:18.820488 23132 net.cpp:157] Top shape: 1 256 3 3 (2304)
I0217 12:00:18.820503 23132 net.cpp:157] Top shape: 1 256 3 3 (2304)
I0217 12:00:18.820518 23132 net.cpp:157] Top shape: 1 256 3 3 (2304)
I0217 12:00:18.820531 23132 net.cpp:157] Top shape: 1 256 3 3 (2304)
I0217 12:00:18.820540 23132 net.cpp:165] Memory required for data: 238146240
I0217 12:00:18.820552 23132 layer_factory.hpp:77] Creating layer conv9_1
I0217 12:00:18.820581 23132 net.cpp:100] Creating Layer conv9_1
I0217 12:00:18.820602 23132 net.cpp:434] conv9_1 <- conv8_2_conv8_2_relu_0_split_0
I0217 12:00:18.820628 23132 net.cpp:408] conv9_1 -> conv9_1
I0217 12:00:18.822895 23132 net.cpp:150] Setting up conv9_1
I0217 12:00:18.822922 23132 net.cpp:157] Top shape: 1 128 3 3 (1152)
I0217 12:00:18.822934 23132 net.cpp:165] Memory required for data: 238150848
I0217 12:00:18.822952 23132 layer_factory.hpp:77] Creating layer conv9_1_relu
I0217 12:00:18.822970 23132 net.cpp:100] Creating Layer conv9_1_relu
I0217 12:00:18.822983 23132 net.cpp:434] conv9_1_relu <- conv9_1
I0217 12:00:18.823004 23132 net.cpp:395] conv9_1_relu -> conv9_1 (in-place)
I0217 12:00:18.823525 23132 net.cpp:150] Setting up conv9_1_relu
I0217 12:00:18.823550 23132 net.cpp:157] Top shape: 1 128 3 3 (1152)
I0217 12:00:18.823598 23132 net.cpp:165] Memory required for data: 238155456
I0217 12:00:18.823614 23132 layer_factory.hpp:77] Creating layer conv9_2
I0217 12:00:18.823642 23132 net.cpp:100] Creating Layer conv9_2
I0217 12:00:18.823659 23132 net.cpp:434] conv9_2 <- conv9_1
I0217 12:00:18.823685 23132 net.cpp:408] conv9_2 -> conv9_2
I0217 12:00:18.830109 23132 net.cpp:150] Setting up conv9_2
I0217 12:00:18.830150 23132 net.cpp:157] Top shape: 1 256 1 1 (256)
I0217 12:00:18.830162 23132 net.cpp:165] Memory required for data: 238156480
I0217 12:00:18.830181 23132 layer_factory.hpp:77] Creating layer conv9_2_relu
I0217 12:00:18.830207 23132 net.cpp:100] Creating Layer conv9_2_relu
I0217 12:00:18.830224 23132 net.cpp:434] conv9_2_relu <- conv9_2
I0217 12:00:18.830241 23132 net.cpp:395] conv9_2_relu -> conv9_2 (in-place)
I0217 12:00:18.830588 23132 net.cpp:150] Setting up conv9_2_relu
I0217 12:00:18.830611 23132 net.cpp:157] Top shape: 1 256 1 1 (256)
I0217 12:00:18.830622 23132 net.cpp:165] Memory required for data: 238157504
I0217 12:00:18.830633 23132 layer_factory.hpp:77] Creating layer conv9_2_conv9_2_relu_0_split
I0217 12:00:18.830651 23132 net.cpp:100] Creating Layer conv9_2_conv9_2_relu_0_split
I0217 12:00:18.830662 23132 net.cpp:434] conv9_2_conv9_2_relu_0_split <- conv9_2
I0217 12:00:18.830682 23132 net.cpp:408] conv9_2_conv9_2_relu_0_split -> conv9_2_conv9_2_relu_0_split_0
I0217 12:00:18.830704 23132 net.cpp:408] conv9_2_conv9_2_relu_0_split -> conv9_2_conv9_2_relu_0_split_1
I0217 12:00:18.830734 23132 net.cpp:408] conv9_2_conv9_2_relu_0_split -> conv9_2_conv9_2_relu_0_split_2
I0217 12:00:18.830883 23132 net.cpp:150] Setting up conv9_2_conv9_2_relu_0_split
I0217 12:00:18.830902 23132 net.cpp:157] Top shape: 1 256 1 1 (256)
I0217 12:00:18.830916 23132 net.cpp:157] Top shape: 1 256 1 1 (256)
I0217 12:00:18.830929 23132 net.cpp:157] Top shape: 1 256 1 1 (256)
I0217 12:00:18.830940 23132 net.cpp:165] Memory required for data: 238160576
I0217 12:00:18.830950 23132 layer_factory.hpp:77] Creating layer conv4_3_norm
I0217 12:00:18.830968 23132 net.cpp:100] Creating Layer conv4_3_norm
I0217 12:00:18.830981 23132 net.cpp:434] conv4_3_norm <- conv4_3_relu4_3_0_split_1
I0217 12:00:18.831001 23132 net.cpp:408] conv4_3_norm -> conv4_3_norm
I0217 12:00:18.831378 23132 net.cpp:150] Setting up conv4_3_norm
I0217 12:00:18.831399 23132 net.cpp:157] Top shape: 1 512 38 38 (739328)
I0217 12:00:18.831410 23132 net.cpp:165] Memory required for data: 241117888
I0217 12:00:18.831425 23132 layer_factory.hpp:77] Creating layer conv4_3_norm_conv4_3_norm_0_split
I0217 12:00:18.831440 23132 net.cpp:100] Creating Layer conv4_3_norm_conv4_3_norm_0_split
I0217 12:00:18.831452 23132 net.cpp:434] conv4_3_norm_conv4_3_norm_0_split <- conv4_3_norm
I0217 12:00:18.831470 23132 net.cpp:408] conv4_3_norm_conv4_3_norm_0_split -> conv4_3_norm_conv4_3_norm_0_split_0
I0217 12:00:18.831490 23132 net.cpp:408] conv4_3_norm_conv4_3_norm_0_split -> conv4_3_norm_conv4_3_norm_0_split_1
I0217 12:00:18.831516 23132 net.cpp:408] conv4_3_norm_conv4_3_norm_0_split -> conv4_3_norm_conv4_3_norm_0_split_2
I0217 12:00:18.831650 23132 net.cpp:150] Setting up conv4_3_norm_conv4_3_norm_0_split
I0217 12:00:18.831668 23132 net.cpp:157] Top shape: 1 512 38 38 (739328)
I0217 12:00:18.831682 23132 net.cpp:157] Top shape: 1 512 38 38 (739328)
I0217 12:00:18.831694 23132 net.cpp:157] Top shape: 1 512 38 38 (739328)
I0217 12:00:18.831704 23132 net.cpp:165] Memory required for data: 249989824
I0217 12:00:18.831715 23132 layer_factory.hpp:77] Creating layer conv4_3_norm_mbox_loc
I0217 12:00:18.831744 23132 net.cpp:100] Creating Layer conv4_3_norm_mbox_loc
I0217 12:00:18.831760 23132 net.cpp:434] conv4_3_norm_mbox_loc <- conv4_3_norm_conv4_3_norm_0_split_0
I0217 12:00:18.831779 23132 net.cpp:408] conv4_3_norm_mbox_loc -> conv4_3_norm_mbox_loc
I0217 12:00:18.834686 23132 net.cpp:150] Setting up conv4_3_norm_mbox_loc
I0217 12:00:18.834715 23132 net.cpp:157] Top shape: 1 16 38 38 (23104)
I0217 12:00:18.834728 23132 net.cpp:165] Memory required for data: 250082240
I0217 12:00:18.834775 23132 layer_factory.hpp:77] Creating layer conv4_3_norm_mbox_loc_perm
I0217 12:00:18.834810 23132 net.cpp:100] Creating Layer conv4_3_norm_mbox_loc_perm
I0217 12:00:18.834836 23132 net.cpp:434] conv4_3_norm_mbox_loc_perm <- conv4_3_norm_mbox_loc
I0217 12:00:18.834854 23132 net.cpp:408] conv4_3_norm_mbox_loc_perm -> conv4_3_norm_mbox_loc_perm
I0217 12:00:18.835098 23132 net.cpp:150] Setting up conv4_3_norm_mbox_loc_perm
I0217 12:00:18.835119 23132 net.cpp:157] Top shape: 1 38 38 16 (23104)
I0217 12:00:18.835129 23132 net.cpp:165] Memory required for data: 250174656
I0217 12:00:18.835139 23132 layer_factory.hpp:77] Creating layer conv4_3_norm_mbox_loc_flat
I0217 12:00:18.835155 23132 net.cpp:100] Creating Layer conv4_3_norm_mbox_loc_flat
I0217 12:00:18.835167 23132 net.cpp:434] conv4_3_norm_mbox_loc_flat <- conv4_3_norm_mbox_loc_perm
I0217 12:00:18.835186 23132 net.cpp:408] conv4_3_norm_mbox_loc_flat -> conv4_3_norm_mbox_loc_flat
I0217 12:00:18.835263 23132 net.cpp:150] Setting up conv4_3_norm_mbox_loc_flat
I0217 12:00:18.835285 23132 net.cpp:157] Top shape: 1 23104 (23104)
I0217 12:00:18.835295 23132 net.cpp:165] Memory required for data: 250267072
I0217 12:00:18.835305 23132 layer_factory.hpp:77] Creating layer conv4_3_norm_mbox_conf
I0217 12:00:18.835345 23132 net.cpp:100] Creating Layer conv4_3_norm_mbox_conf
I0217 12:00:18.835357 23132 net.cpp:434] conv4_3_norm_mbox_conf <- conv4_3_norm_conv4_3_norm_0_split_1
I0217 12:00:18.835376 23132 net.cpp:408] conv4_3_norm_mbox_conf -> conv4_3_norm_mbox_conf
I0217 12:00:18.842718 23132 net.cpp:150] Setting up conv4_3_norm_mbox_conf
I0217 12:00:18.842756 23132 net.cpp:157] Top shape: 1 88 38 38 (127072)
I0217 12:00:18.842767 23132 net.cpp:165] Memory required for data: 250775360
I0217 12:00:18.842785 23132 layer_factory.hpp:77] Creating layer conv4_3_norm_mbox_conf_perm
I0217 12:00:18.842803 23132 net.cpp:100] Creating Layer conv4_3_norm_mbox_conf_perm
I0217 12:00:18.842818 23132 net.cpp:434] conv4_3_norm_mbox_conf_perm <- conv4_3_norm_mbox_conf
I0217 12:00:18.842839 23132 net.cpp:408] conv4_3_norm_mbox_conf_perm -> conv4_3_norm_mbox_conf_perm
I0217 12:00:18.843083 23132 net.cpp:150] Setting up conv4_3_norm_mbox_conf_perm
I0217 12:00:18.843103 23132 net.cpp:157] Top shape: 1 38 38 88 (127072)
I0217 12:00:18.843114 23132 net.cpp:165] Memory required for data: 251283648
I0217 12:00:18.843124 23132 layer_factory.hpp:77] Creating layer conv4_3_norm_mbox_conf_flat
I0217 12:00:18.843142 23132 net.cpp:100] Creating Layer conv4_3_norm_mbox_conf_flat
I0217 12:00:18.843155 23132 net.cpp:434] conv4_3_norm_mbox_conf_flat <- conv4_3_norm_mbox_conf_perm
I0217 12:00:18.843173 23132 net.cpp:408] conv4_3_norm_mbox_conf_flat -> conv4_3_norm_mbox_conf_flat
I0217 12:00:18.843240 23132 net.cpp:150] Setting up conv4_3_norm_mbox_conf_flat
I0217 12:00:18.843256 23132 net.cpp:157] Top shape: 1 127072 (127072)
I0217 12:00:18.843266 23132 net.cpp:165] Memory required for data: 251791936
I0217 12:00:18.843276 23132 layer_factory.hpp:77] Creating layer conv4_3_norm_mbox_priorbox
I0217 12:00:18.843297 23132 net.cpp:100] Creating Layer conv4_3_norm_mbox_priorbox
I0217 12:00:18.843309 23132 net.cpp:434] conv4_3_norm_mbox_priorbox <- conv4_3_norm_conv4_3_norm_0_split_2
I0217 12:00:18.843324 23132 net.cpp:434] conv4_3_norm_mbox_priorbox <- data_data_0_split_1
I0217 12:00:18.843341 23132 net.cpp:408] conv4_3_norm_mbox_priorbox -> conv4_3_norm_mbox_priorbox
I0217 12:00:18.843423 23132 net.cpp:150] Setting up conv4_3_norm_mbox_priorbox
I0217 12:00:18.843441 23132 net.cpp:157] Top shape: 1 2 23104 (46208)
I0217 12:00:18.843451 23132 net.cpp:165] Memory required for data: 251976768
I0217 12:00:18.843461 23132 layer_factory.hpp:77] Creating layer fc7_mbox_loc
I0217 12:00:18.843492 23132 net.cpp:100] Creating Layer fc7_mbox_loc
I0217 12:00:18.843508 23132 net.cpp:434] fc7_mbox_loc <- fc7_relu7_0_split_1
I0217 12:00:18.843529 23132 net.cpp:408] fc7_mbox_loc -> fc7_mbox_loc
I0217 12:00:18.848510 23132 net.cpp:150] Setting up fc7_mbox_loc
I0217 12:00:18.848536 23132 net.cpp:157] Top shape: 1 24 19 19 (8664)
I0217 12:00:18.848582 23132 net.cpp:165] Memory required for data: 252011424
I0217 12:00:18.848604 23132 layer_factory.hpp:77] Creating layer fc7_mbox_loc_perm
I0217 12:00:18.848629 23132 net.cpp:100] Creating Layer fc7_mbox_loc_perm
I0217 12:00:18.848645 23132 net.cpp:434] fc7_mbox_loc_perm <- fc7_mbox_loc
I0217 12:00:18.848665 23132 net.cpp:408] fc7_mbox_loc_perm -> fc7_mbox_loc_perm
I0217 12:00:18.848904 23132 net.cpp:150] Setting up fc7_mbox_loc_perm
I0217 12:00:18.848923 23132 net.cpp:157] Top shape: 1 19 19 24 (8664)
I0217 12:00:18.848933 23132 net.cpp:165] Memory required for data: 252046080
I0217 12:00:18.848943 23132 layer_factory.hpp:77] Creating layer fc7_mbox_loc_flat
I0217 12:00:18.848958 23132 net.cpp:100] Creating Layer fc7_mbox_loc_flat
I0217 12:00:18.848968 23132 net.cpp:434] fc7_mbox_loc_flat <- fc7_mbox_loc_perm
I0217 12:00:18.848989 23132 net.cpp:408] fc7_mbox_loc_flat -> fc7_mbox_loc_flat
I0217 12:00:18.849061 23132 net.cpp:150] Setting up fc7_mbox_loc_flat
I0217 12:00:18.849077 23132 net.cpp:157] Top shape: 1 8664 (8664)
I0217 12:00:18.849086 23132 net.cpp:165] Memory required for data: 252080736
I0217 12:00:18.849095 23132 layer_factory.hpp:77] Creating layer fc7_mbox_conf
I0217 12:00:18.849123 23132 net.cpp:100] Creating Layer fc7_mbox_conf
I0217 12:00:18.849136 23132 net.cpp:434] fc7_mbox_conf <- fc7_relu7_0_split_2
I0217 12:00:18.849154 23132 net.cpp:408] fc7_mbox_conf -> fc7_mbox_conf
I0217 12:00:18.875594 23132 net.cpp:150] Setting up fc7_mbox_conf
I0217 12:00:18.875638 23132 net.cpp:157] Top shape: 1 132 19 19 (47652)
I0217 12:00:18.875648 23132 net.cpp:165] Memory required for data: 252271344
I0217 12:00:18.875665 23132 layer_factory.hpp:77] Creating layer fc7_mbox_conf_perm
I0217 12:00:18.875684 23132 net.cpp:100] Creating Layer fc7_mbox_conf_perm
I0217 12:00:18.875699 23132 net.cpp:434] fc7_mbox_conf_perm <- fc7_mbox_conf
I0217 12:00:18.875718 23132 net.cpp:408] fc7_mbox_conf_perm -> fc7_mbox_conf_perm
I0217 12:00:18.875946 23132 net.cpp:150] Setting up fc7_mbox_conf_perm
I0217 12:00:18.875962 23132 net.cpp:157] Top shape: 1 19 19 132 (47652)
I0217 12:00:18.875972 23132 net.cpp:165] Memory required for data: 252461952
I0217 12:00:18.875979 23132 layer_factory.hpp:77] Creating layer fc7_mbox_conf_flat
I0217 12:00:18.875998 23132 net.cpp:100] Creating Layer fc7_mbox_conf_flat
I0217 12:00:18.876008 23132 net.cpp:434] fc7_mbox_conf_flat <- fc7_mbox_conf_perm
I0217 12:00:18.876021 23132 net.cpp:408] fc7_mbox_conf_flat -> fc7_mbox_conf_flat
I0217 12:00:18.876088 23132 net.cpp:150] Setting up fc7_mbox_conf_flat
I0217 12:00:18.876103 23132 net.cpp:157] Top shape: 1 47652 (47652)
I0217 12:00:18.876112 23132 net.cpp:165] Memory required for data: 252652560
I0217 12:00:18.876121 23132 layer_factory.hpp:77] Creating layer fc7_mbox_priorbox
I0217 12:00:18.876139 23132 net.cpp:100] Creating Layer fc7_mbox_priorbox
I0217 12:00:18.876155 23132 net.cpp:434] fc7_mbox_priorbox <- fc7_relu7_0_split_3
I0217 12:00:18.876169 23132 net.cpp:434] fc7_mbox_priorbox <- data_data_0_split_2
I0217 12:00:18.876184 23132 net.cpp:408] fc7_mbox_priorbox -> fc7_mbox_priorbox
I0217 12:00:18.876257 23132 net.cpp:150] Setting up fc7_mbox_priorbox
I0217 12:00:18.876273 23132 net.cpp:157] Top shape: 1 2 8664 (17328)
I0217 12:00:18.876281 23132 net.cpp:165] Memory required for data: 252721872
I0217 12:00:18.876289 23132 layer_factory.hpp:77] Creating layer conv6_2_mbox_loc
I0217 12:00:18.876315 23132 net.cpp:100] Creating Layer conv6_2_mbox_loc
I0217 12:00:18.876328 23132 net.cpp:434] conv6_2_mbox_loc <- conv6_2_conv6_2_relu_0_split_1
I0217 12:00:18.876348 23132 net.cpp:408] conv6_2_mbox_loc -> conv6_2_mbox_loc
I0217 12:00:18.879676 23132 net.cpp:150] Setting up conv6_2_mbox_loc
I0217 12:00:18.879701 23132 net.cpp:157] Top shape: 1 24 10 10 (2400)
I0217 12:00:18.879710 23132 net.cpp:165] Memory required for data: 252731472
I0217 12:00:18.879727 23132 layer_factory.hpp:77] Creating layer conv6_2_mbox_loc_perm
I0217 12:00:18.879743 23132 net.cpp:100] Creating Layer conv6_2_mbox_loc_perm
I0217 12:00:18.879753 23132 net.cpp:434] conv6_2_mbox_loc_perm <- conv6_2_mbox_loc
I0217 12:00:18.879802 23132 net.cpp:408] conv6_2_mbox_loc_perm -> conv6_2_mbox_loc_perm
I0217 12:00:18.880022 23132 net.cpp:150] Setting up conv6_2_mbox_loc_perm
I0217 12:00:18.880038 23132 net.cpp:157] Top shape: 1 10 10 24 (2400)
I0217 12:00:18.880048 23132 net.cpp:165] Memory required for data: 252741072
I0217 12:00:18.880056 23132 layer_factory.hpp:77] Creating layer conv6_2_mbox_loc_flat
I0217 12:00:18.880074 23132 net.cpp:100] Creating Layer conv6_2_mbox_loc_flat
I0217 12:00:18.880084 23132 net.cpp:434] conv6_2_mbox_loc_flat <- conv6_2_mbox_loc_perm
I0217 12:00:18.880100 23132 net.cpp:408] conv6_2_mbox_loc_flat -> conv6_2_mbox_loc_flat
I0217 12:00:18.880159 23132 net.cpp:150] Setting up conv6_2_mbox_loc_flat
I0217 12:00:18.880174 23132 net.cpp:157] Top shape: 1 2400 (2400)
I0217 12:00:18.880182 23132 net.cpp:165] Memory required for data: 252750672
I0217 12:00:18.880190 23132 layer_factory.hpp:77] Creating layer conv6_2_mbox_conf
I0217 12:00:18.880218 23132 net.cpp:100] Creating Layer conv6_2_mbox_conf
I0217 12:00:18.880229 23132 net.cpp:434] conv6_2_mbox_conf <- conv6_2_conv6_2_relu_0_split_2
I0217 12:00:18.880245 23132 net.cpp:408] conv6_2_mbox_conf -> conv6_2_mbox_conf
I0217 12:00:18.888481 23132 net.cpp:150] Setting up conv6_2_mbox_conf
I0217 12:00:18.888510 23132 net.cpp:157] Top shape: 1 132 10 10 (13200)
I0217 12:00:18.888520 23132 net.cpp:165] Memory required for data: 252803472
I0217 12:00:18.888536 23132 layer_factory.hpp:77] Creating layer conv6_2_mbox_conf_perm
I0217 12:00:18.888552 23132 net.cpp:100] Creating Layer conv6_2_mbox_conf_perm
I0217 12:00:18.888562 23132 net.cpp:434] conv6_2_mbox_conf_perm <- conv6_2_mbox_conf
I0217 12:00:18.888576 23132 net.cpp:408] conv6_2_mbox_conf_perm -> conv6_2_mbox_conf_perm
I0217 12:00:18.888780 23132 net.cpp:150] Setting up conv6_2_mbox_conf_perm
I0217 12:00:18.888797 23132 net.cpp:157] Top shape: 1 10 10 132 (13200)
I0217 12:00:18.888805 23132 net.cpp:165] Memory required for data: 252856272
I0217 12:00:18.888813 23132 layer_factory.hpp:77] Creating layer conv6_2_mbox_conf_flat
I0217 12:00:18.888829 23132 net.cpp:100] Creating Layer conv6_2_mbox_conf_flat
I0217 12:00:18.888839 23132 net.cpp:434] conv6_2_mbox_conf_flat <- conv6_2_mbox_conf_perm
I0217 12:00:18.888852 23132 net.cpp:408] conv6_2_mbox_conf_flat -> conv6_2_mbox_conf_flat
I0217 12:00:18.888918 23132 net.cpp:150] Setting up conv6_2_mbox_conf_flat
I0217 12:00:18.888933 23132 net.cpp:157] Top shape: 1 13200 (13200)
I0217 12:00:18.888942 23132 net.cpp:165] Memory required for data: 252909072
I0217 12:00:18.888949 23132 layer_factory.hpp:77] Creating layer conv6_2_mbox_priorbox
I0217 12:00:18.888967 23132 net.cpp:100] Creating Layer conv6_2_mbox_priorbox
I0217 12:00:18.888983 23132 net.cpp:434] conv6_2_mbox_priorbox <- conv6_2_conv6_2_relu_0_split_3
I0217 12:00:18.888996 23132 net.cpp:434] conv6_2_mbox_priorbox <- data_data_0_split_3
I0217 12:00:18.889010 23132 net.cpp:408] conv6_2_mbox_priorbox -> conv6_2_mbox_priorbox
I0217 12:00:18.889078 23132 net.cpp:150] Setting up conv6_2_mbox_priorbox
I0217 12:00:18.889093 23132 net.cpp:157] Top shape: 1 2 2400 (4800)
I0217 12:00:18.889101 23132 net.cpp:165] Memory required for data: 252928272
I0217 12:00:18.889109 23132 layer_factory.hpp:77] Creating layer conv7_2_mbox_loc
I0217 12:00:18.889132 23132 net.cpp:100] Creating Layer conv7_2_mbox_loc
I0217 12:00:18.889143 23132 net.cpp:434] conv7_2_mbox_loc <- conv7_2_conv7_2_relu_0_split_1
I0217 12:00:18.889161 23132 net.cpp:408] conv7_2_mbox_loc -> conv7_2_mbox_loc
I0217 12:00:18.891394 23132 net.cpp:150] Setting up conv7_2_mbox_loc
I0217 12:00:18.891417 23132 net.cpp:157] Top shape: 1 24 5 5 (600)
I0217 12:00:18.891425 23132 net.cpp:165] Memory required for data: 252930672
I0217 12:00:18.891440 23132 layer_factory.hpp:77] Creating layer conv7_2_mbox_loc_perm
I0217 12:00:18.891458 23132 net.cpp:100] Creating Layer conv7_2_mbox_loc_perm
I0217 12:00:18.891469 23132 net.cpp:434] conv7_2_mbox_loc_perm <- conv7_2_mbox_loc
I0217 12:00:18.891482 23132 net.cpp:408] conv7_2_mbox_loc_perm -> conv7_2_mbox_loc_perm
I0217 12:00:18.891713 23132 net.cpp:150] Setting up conv7_2_mbox_loc_perm
I0217 12:00:18.891731 23132 net.cpp:157] Top shape: 1 5 5 24 (600)
I0217 12:00:18.891739 23132 net.cpp:165] Memory required for data: 252933072
I0217 12:00:18.891748 23132 layer_factory.hpp:77] Creating layer conv7_2_mbox_loc_flat
I0217 12:00:18.891762 23132 net.cpp:100] Creating Layer conv7_2_mbox_loc_flat
I0217 12:00:18.891770 23132 net.cpp:434] conv7_2_mbox_loc_flat <- conv7_2_mbox_loc_perm
I0217 12:00:18.891789 23132 net.cpp:408] conv7_2_mbox_loc_flat -> conv7_2_mbox_loc_flat
I0217 12:00:18.891849 23132 net.cpp:150] Setting up conv7_2_mbox_loc_flat
I0217 12:00:18.891863 23132 net.cpp:157] Top shape: 1 600 (600)
I0217 12:00:18.891871 23132 net.cpp:165] Memory required for data: 252935472
I0217 12:00:18.891880 23132 layer_factory.hpp:77] Creating layer conv7_2_mbox_conf
I0217 12:00:18.891902 23132 net.cpp:100] Creating Layer conv7_2_mbox_conf
I0217 12:00:18.891914 23132 net.cpp:434] conv7_2_mbox_conf <- conv7_2_conv7_2_relu_0_split_2
I0217 12:00:18.891929 23132 net.cpp:408] conv7_2_mbox_conf -> conv7_2_mbox_conf
I0217 12:00:18.896870 23132 net.cpp:150] Setting up conv7_2_mbox_conf
I0217 12:00:18.896901 23132 net.cpp:157] Top shape: 1 132 5 5 (3300)
I0217 12:00:18.896909 23132 net.cpp:165] Memory required for data: 252948672
I0217 12:00:18.896924 23132 layer_factory.hpp:77] Creating layer conv7_2_mbox_conf_perm
I0217 12:00:18.896941 23132 net.cpp:100] Creating Layer conv7_2_mbox_conf_perm
I0217 12:00:18.896953 23132 net.cpp:434] conv7_2_mbox_conf_perm <- conv7_2_mbox_conf
I0217 12:00:18.896970 23132 net.cpp:408] conv7_2_mbox_conf_perm -> conv7_2_mbox_conf_perm
I0217 12:00:18.897171 23132 net.cpp:150] Setting up conv7_2_mbox_conf_perm
I0217 12:00:18.897186 23132 net.cpp:157] Top shape: 1 5 5 132 (3300)
I0217 12:00:18.897197 23132 net.cpp:165] Memory required for data: 252961872
I0217 12:00:18.897204 23132 layer_factory.hpp:77] Creating layer conv7_2_mbox_conf_flat
I0217 12:00:18.897217 23132 net.cpp:100] Creating Layer conv7_2_mbox_conf_flat
I0217 12:00:18.897225 23132 net.cpp:434] conv7_2_mbox_conf_flat <- conv7_2_mbox_conf_perm
I0217 12:00:18.897238 23132 net.cpp:408] conv7_2_mbox_conf_flat -> conv7_2_mbox_conf_flat
I0217 12:00:18.897296 23132 net.cpp:150] Setting up conv7_2_mbox_conf_flat
I0217 12:00:18.897310 23132 net.cpp:157] Top shape: 1 3300 (3300)
I0217 12:00:18.897317 23132 net.cpp:165] Memory required for data: 252975072
I0217 12:00:18.897325 23132 layer_factory.hpp:77] Creating layer conv7_2_mbox_priorbox
I0217 12:00:18.897342 23132 net.cpp:100] Creating Layer conv7_2_mbox_priorbox
I0217 12:00:18.897351 23132 net.cpp:434] conv7_2_mbox_priorbox <- conv7_2_conv7_2_relu_0_split_3
I0217 12:00:18.897363 23132 net.cpp:434] conv7_2_mbox_priorbox <- data_data_0_split_4
I0217 12:00:18.897382 23132 net.cpp:408] conv7_2_mbox_priorbox -> conv7_2_mbox_priorbox
I0217 12:00:18.897449 23132 net.cpp:150] Setting up conv7_2_mbox_priorbox
I0217 12:00:18.897464 23132 net.cpp:157] Top shape: 1 2 600 (1200)
I0217 12:00:18.897471 23132 net.cpp:165] Memory required for data: 252979872
I0217 12:00:18.897478 23132 layer_factory.hpp:77] Creating layer conv8_2_mbox_loc
I0217 12:00:18.897500 23132 net.cpp:100] Creating Layer conv8_2_mbox_loc
I0217 12:00:18.897512 23132 net.cpp:434] conv8_2_mbox_loc <- conv8_2_conv8_2_relu_0_split_1
I0217 12:00:18.897531 23132 net.cpp:408] conv8_2_mbox_loc -> conv8_2_mbox_loc
I0217 12:00:18.899233 23132 net.cpp:150] Setting up conv8_2_mbox_loc
I0217 12:00:18.899260 23132 net.cpp:157] Top shape: 1 16 3 3 (144)
I0217 12:00:18.899271 23132 net.cpp:165] Memory required for data: 252980448
I0217 12:00:18.899305 23132 layer_factory.hpp:77] Creating layer conv8_2_mbox_loc_perm
I0217 12:00:18.899320 23132 net.cpp:100] Creating Layer conv8_2_mbox_loc_perm
I0217 12:00:18.899329 23132 net.cpp:434] conv8_2_mbox_loc_perm <- conv8_2_mbox_loc
I0217 12:00:18.899346 23132 net.cpp:408] conv8_2_mbox_loc_perm -> conv8_2_mbox_loc_perm
I0217 12:00:18.899551 23132 net.cpp:150] Setting up conv8_2_mbox_loc_perm
I0217 12:00:18.899583 23132 net.cpp:157] Top shape: 1 3 3 16 (144)
I0217 12:00:18.899593 23132 net.cpp:165] Memory required for data: 252981024
I0217 12:00:18.899601 23132 layer_factory.hpp:77] Creating layer conv8_2_mbox_loc_flat
I0217 12:00:18.899617 23132 net.cpp:100] Creating Layer conv8_2_mbox_loc_flat
I0217 12:00:18.899627 23132 net.cpp:434] conv8_2_mbox_loc_flat <- conv8_2_mbox_loc_perm
I0217 12:00:18.899639 23132 net.cpp:408] conv8_2_mbox_loc_flat -> conv8_2_mbox_loc_flat
I0217 12:00:18.899698 23132 net.cpp:150] Setting up conv8_2_mbox_loc_flat
I0217 12:00:18.899713 23132 net.cpp:157] Top shape: 1 144 (144)
I0217 12:00:18.899720 23132 net.cpp:165] Memory required for data: 252981600
I0217 12:00:18.899729 23132 layer_factory.hpp:77] Creating layer conv8_2_mbox_conf
I0217 12:00:18.899749 23132 net.cpp:100] Creating Layer conv8_2_mbox_conf
I0217 12:00:18.899760 23132 net.cpp:434] conv8_2_mbox_conf <- conv8_2_conv8_2_relu_0_split_2
I0217 12:00:18.899777 23132 net.cpp:408] conv8_2_mbox_conf -> conv8_2_mbox_conf
I0217 12:00:18.903589 23132 net.cpp:150] Setting up conv8_2_mbox_conf
I0217 12:00:18.903611 23132 net.cpp:157] Top shape: 1 88 3 3 (792)
I0217 12:00:18.903620 23132 net.cpp:165] Memory required for data: 252984768
I0217 12:00:18.903635 23132 layer_factory.hpp:77] Creating layer conv8_2_mbox_conf_perm
I0217 12:00:18.903650 23132 net.cpp:100] Creating Layer conv8_2_mbox_conf_perm
I0217 12:00:18.903661 23132 net.cpp:434] conv8_2_mbox_conf_perm <- conv8_2_mbox_conf
I0217 12:00:18.903674 23132 net.cpp:408] conv8_2_mbox_conf_perm -> conv8_2_mbox_conf_perm
I0217 12:00:18.903878 23132 net.cpp:150] Setting up conv8_2_mbox_conf_perm
I0217 12:00:18.903893 23132 net.cpp:157] Top shape: 1 3 3 88 (792)
I0217 12:00:18.903901 23132 net.cpp:165] Memory required for data: 252987936
I0217 12:00:18.903909 23132 layer_factory.hpp:77] Creating layer conv8_2_mbox_conf_flat
I0217 12:00:18.903920 23132 net.cpp:100] Creating Layer conv8_2_mbox_conf_flat
I0217 12:00:18.903929 23132 net.cpp:434] conv8_2_mbox_conf_flat <- conv8_2_mbox_conf_perm
I0217 12:00:18.903944 23132 net.cpp:408] conv8_2_mbox_conf_flat -> conv8_2_mbox_conf_flat
I0217 12:00:18.904000 23132 net.cpp:150] Setting up conv8_2_mbox_conf_flat
I0217 12:00:18.904016 23132 net.cpp:157] Top shape: 1 792 (792)
I0217 12:00:18.904024 23132 net.cpp:165] Memory required for data: 252991104
I0217 12:00:18.904032 23132 layer_factory.hpp:77] Creating layer conv8_2_mbox_priorbox
I0217 12:00:18.904045 23132 net.cpp:100] Creating Layer conv8_2_mbox_priorbox
I0217 12:00:18.904054 23132 net.cpp:434] conv8_2_mbox_priorbox <- conv8_2_conv8_2_relu_0_split_3
I0217 12:00:18.904065 23132 net.cpp:434] conv8_2_mbox_priorbox <- data_data_0_split_5
I0217 12:00:18.904078 23132 net.cpp:408] conv8_2_mbox_priorbox -> conv8_2_mbox_priorbox
I0217 12:00:18.904140 23132 net.cpp:150] Setting up conv8_2_mbox_priorbox
I0217 12:00:18.904155 23132 net.cpp:157] Top shape: 1 2 144 (288)
I0217 12:00:18.904162 23132 net.cpp:165] Memory required for data: 252992256
I0217 12:00:18.904170 23132 layer_factory.hpp:77] Creating layer conv9_2_mbox_loc
I0217 12:00:18.904196 23132 net.cpp:100] Creating Layer conv9_2_mbox_loc
I0217 12:00:18.904206 23132 net.cpp:434] conv9_2_mbox_loc <- conv9_2_conv9_2_relu_0_split_0
I0217 12:00:18.904223 23132 net.cpp:408] conv9_2_mbox_loc -> conv9_2_mbox_loc
I0217 12:00:18.906090 23132 net.cpp:150] Setting up conv9_2_mbox_loc
I0217 12:00:18.906111 23132 net.cpp:157] Top shape: 1 16 1 1 (16)
I0217 12:00:18.906119 23132 net.cpp:165] Memory required for data: 252992320
I0217 12:00:18.906134 23132 layer_factory.hpp:77] Creating layer conv9_2_mbox_loc_perm
I0217 12:00:18.906147 23132 net.cpp:100] Creating Layer conv9_2_mbox_loc_perm
I0217 12:00:18.906157 23132 net.cpp:434] conv9_2_mbox_loc_perm <- conv9_2_mbox_loc
I0217 12:00:18.906173 23132 net.cpp:408] conv9_2_mbox_loc_perm -> conv9_2_mbox_loc_perm
I0217 12:00:18.906374 23132 net.cpp:150] Setting up conv9_2_mbox_loc_perm
I0217 12:00:18.906390 23132 net.cpp:157] Top shape: 1 1 1 16 (16)
I0217 12:00:18.906399 23132 net.cpp:165] Memory required for data: 252992384
I0217 12:00:18.906426 23132 layer_factory.hpp:77] Creating layer conv9_2_mbox_loc_flat
I0217 12:00:18.906445 23132 net.cpp:100] Creating Layer conv9_2_mbox_loc_flat
I0217 12:00:18.906455 23132 net.cpp:434] conv9_2_mbox_loc_flat <- conv9_2_mbox_loc_perm
I0217 12:00:18.906471 23132 net.cpp:408] conv9_2_mbox_loc_flat -> conv9_2_mbox_loc_flat
I0217 12:00:18.906548 23132 net.cpp:150] Setting up conv9_2_mbox_loc_flat
I0217 12:00:18.906563 23132 net.cpp:157] Top shape: 1 16 (16)
I0217 12:00:18.906569 23132 net.cpp:165] Memory required for data: 252992448
I0217 12:00:18.906576 23132 layer_factory.hpp:77] Creating layer conv9_2_mbox_conf
I0217 12:00:18.906597 23132 net.cpp:100] Creating Layer conv9_2_mbox_conf
I0217 12:00:18.906610 23132 net.cpp:434] conv9_2_mbox_conf <- conv9_2_conv9_2_relu_0_split_1
I0217 12:00:18.906623 23132 net.cpp:408] conv9_2_mbox_conf -> conv9_2_mbox_conf
I0217 12:00:18.910305 23132 net.cpp:150] Setting up conv9_2_mbox_conf
I0217 12:00:18.910327 23132 net.cpp:157] Top shape: 1 88 1 1 (88)
I0217 12:00:18.910336 23132 net.cpp:165] Memory required for data: 252992800
I0217 12:00:18.910349 23132 layer_factory.hpp:77] Creating layer conv9_2_mbox_conf_perm
I0217 12:00:18.910365 23132 net.cpp:100] Creating Layer conv9_2_mbox_conf_perm
I0217 12:00:18.910382 23132 net.cpp:434] conv9_2_mbox_conf_perm <- conv9_2_mbox_conf
I0217 12:00:18.910395 23132 net.cpp:408] conv9_2_mbox_conf_perm -> conv9_2_mbox_conf_perm
I0217 12:00:18.910601 23132 net.cpp:150] Setting up conv9_2_mbox_conf_perm
I0217 12:00:18.910617 23132 net.cpp:157] Top shape: 1 1 1 88 (88)
I0217 12:00:18.910625 23132 net.cpp:165] Memory required for data: 252993152
I0217 12:00:18.910632 23132 layer_factory.hpp:77] Creating layer conv9_2_mbox_conf_flat
I0217 12:00:18.910646 23132 net.cpp:100] Creating Layer conv9_2_mbox_conf_flat
I0217 12:00:18.910655 23132 net.cpp:434] conv9_2_mbox_conf_flat <- conv9_2_mbox_conf_perm
I0217 12:00:18.910667 23132 net.cpp:408] conv9_2_mbox_conf_flat -> conv9_2_mbox_conf_flat
I0217 12:00:18.910724 23132 net.cpp:150] Setting up conv9_2_mbox_conf_flat
I0217 12:00:18.910738 23132 net.cpp:157] Top shape: 1 88 (88)
I0217 12:00:18.910745 23132 net.cpp:165] Memory required for data: 252993504
I0217 12:00:18.910753 23132 layer_factory.hpp:77] Creating layer conv9_2_mbox_priorbox
I0217 12:00:18.910766 23132 net.cpp:100] Creating Layer conv9_2_mbox_priorbox
I0217 12:00:18.910774 23132 net.cpp:434] conv9_2_mbox_priorbox <- conv9_2_conv9_2_relu_0_split_2
I0217 12:00:18.910785 23132 net.cpp:434] conv9_2_mbox_priorbox <- data_data_0_split_6
I0217 12:00:18.910800 23132 net.cpp:408] conv9_2_mbox_priorbox -> conv9_2_mbox_priorbox
I0217 12:00:18.910861 23132 net.cpp:150] Setting up conv9_2_mbox_priorbox
I0217 12:00:18.910874 23132 net.cpp:157] Top shape: 1 2 16 (32)
I0217 12:00:18.910881 23132 net.cpp:165] Memory required for data: 252993632
I0217 12:00:18.910888 23132 layer_factory.hpp:77] Creating layer mbox_loc
I0217 12:00:18.910907 23132 net.cpp:100] Creating Layer mbox_loc
I0217 12:00:18.910919 23132 net.cpp:434] mbox_loc <- conv4_3_norm_mbox_loc_flat
I0217 12:00:18.910931 23132 net.cpp:434] mbox_loc <- fc7_mbox_loc_flat
I0217 12:00:18.910943 23132 net.cpp:434] mbox_loc <- conv6_2_mbox_loc_flat
I0217 12:00:18.910953 23132 net.cpp:434] mbox_loc <- conv7_2_mbox_loc_flat
I0217 12:00:18.910964 23132 net.cpp:434] mbox_loc <- conv8_2_mbox_loc_flat
I0217 12:00:18.910974 23132 net.cpp:434] mbox_loc <- conv9_2_mbox_loc_flat
I0217 12:00:18.910992 23132 net.cpp:408] mbox_loc -> mbox_loc
I0217 12:00:18.911049 23132 net.cpp:150] Setting up mbox_loc
I0217 12:00:18.911062 23132 net.cpp:157] Top shape: 1 34928 (34928)
I0217 12:00:18.911069 23132 net.cpp:165] Memory required for data: 253133344
I0217 12:00:18.911077 23132 layer_factory.hpp:77] Creating layer mbox_conf
I0217 12:00:18.911100 23132 net.cpp:100] Creating Layer mbox_conf
I0217 12:00:18.911111 23132 net.cpp:434] mbox_conf <- conv4_3_norm_mbox_conf_flat
I0217 12:00:18.911123 23132 net.cpp:434] mbox_conf <- fc7_mbox_conf_flat
I0217 12:00:18.911133 23132 net.cpp:434] mbox_conf <- conv6_2_mbox_conf_flat
I0217 12:00:18.911160 23132 net.cpp:434] mbox_conf <- conv7_2_mbox_conf_flat
I0217 12:00:18.911175 23132 net.cpp:434] mbox_conf <- conv8_2_mbox_conf_flat
I0217 12:00:18.911185 23132 net.cpp:434] mbox_conf <- conv9_2_mbox_conf_flat
I0217 12:00:18.911196 23132 net.cpp:408] mbox_conf -> mbox_conf
I0217 12:00:18.911253 23132 net.cpp:150] Setting up mbox_conf
I0217 12:00:18.911267 23132 net.cpp:157] Top shape: 1 192104 (192104)
I0217 12:00:18.911274 23132 net.cpp:165] Memory required for data: 253901760
I0217 12:00:18.911281 23132 layer_factory.hpp:77] Creating layer mbox_priorbox
I0217 12:00:18.911293 23132 net.cpp:100] Creating Layer mbox_priorbox
I0217 12:00:18.911303 23132 net.cpp:434] mbox_priorbox <- conv4_3_norm_mbox_priorbox
I0217 12:00:18.911312 23132 net.cpp:434] mbox_priorbox <- fc7_mbox_priorbox
I0217 12:00:18.911322 23132 net.cpp:434] mbox_priorbox <- conv6_2_mbox_priorbox
I0217 12:00:18.911331 23132 net.cpp:434] mbox_priorbox <- conv7_2_mbox_priorbox
I0217 12:00:18.911340 23132 net.cpp:434] mbox_priorbox <- conv8_2_mbox_priorbox
I0217 12:00:18.911348 23132 net.cpp:434] mbox_priorbox <- conv9_2_mbox_priorbox
I0217 12:00:18.911362 23132 net.cpp:408] mbox_priorbox -> mbox_priorbox
I0217 12:00:18.911417 23132 net.cpp:150] Setting up mbox_priorbox
I0217 12:00:18.911430 23132 net.cpp:157] Top shape: 1 2 34928 (69856)
I0217 12:00:18.911437 23132 net.cpp:165] Memory required for data: 254181184
I0217 12:00:18.911444 23132 layer_factory.hpp:77] Creating layer mbox_conf_reshape
I0217 12:00:18.911468 23132 net.cpp:100] Creating Layer mbox_conf_reshape
I0217 12:00:18.911478 23132 net.cpp:434] mbox_conf_reshape <- mbox_conf
I0217 12:00:18.911491 23132 net.cpp:408] mbox_conf_reshape -> mbox_conf_reshape
I0217 12:00:18.911555 23132 net.cpp:150] Setting up mbox_conf_reshape
I0217 12:00:18.911571 23132 net.cpp:157] Top shape: 1 8732 22 (192104)
I0217 12:00:18.911578 23132 net.cpp:165] Memory required for data: 254949600
I0217 12:00:18.911586 23132 layer_factory.hpp:77] Creating layer mbox_conf_softmax
I0217 12:00:18.911598 23132 net.cpp:100] Creating Layer mbox_conf_softmax
I0217 12:00:18.911607 23132 net.cpp:434] mbox_conf_softmax <- mbox_conf_reshape
I0217 12:00:18.911617 23132 net.cpp:408] mbox_conf_softmax -> mbox_conf_softmax
I0217 12:00:18.911974 23132 net.cpp:150] Setting up mbox_conf_softmax
I0217 12:00:18.911991 23132 net.cpp:157] Top shape: 1 8732 22 (192104)
I0217 12:00:18.911998 23132 net.cpp:165] Memory required for data: 255718016
I0217 12:00:18.912006 23132 layer_factory.hpp:77] Creating layer mbox_conf_flatten
I0217 12:00:18.912019 23132 net.cpp:100] Creating Layer mbox_conf_flatten
I0217 12:00:18.912029 23132 net.cpp:434] mbox_conf_flatten <- mbox_conf_softmax
I0217 12:00:18.912039 23132 net.cpp:408] mbox_conf_flatten -> mbox_conf_flatten
I0217 12:00:18.912094 23132 net.cpp:150] Setting up mbox_conf_flatten
I0217 12:00:18.912108 23132 net.cpp:157] Top shape: 1 192104 (192104)
I0217 12:00:18.912116 23132 net.cpp:165] Memory required for data: 256486432
I0217 12:00:18.912122 23132 layer_factory.hpp:77] Creating layer detection_out
I0217 12:00:18.912151 23132 net.cpp:100] Creating Layer detection_out
I0217 12:00:18.912161 23132 net.cpp:434] detection_out <- mbox_loc
I0217 12:00:18.912171 23132 net.cpp:434] detection_out <- mbox_conf_flatten
I0217 12:00:18.912180 23132 net.cpp:434] detection_out <- mbox_priorbox
I0217 12:00:18.912195 23132 net.cpp:408] detection_out -> detection_out
I0217 12:00:18.934973 23132 net.cpp:150] Setting up detection_out
I0217 12:00:18.935005 23132 net.cpp:157] Top shape: 1 1 1 7 (7)
I0217 12:00:18.935014 23132 net.cpp:165] Memory required for data: 256486460
I0217 12:00:18.935021 23132 layer_factory.hpp:77] Creating layer detection_eval
I0217 12:00:18.935039 23132 net.cpp:100] Creating Layer detection_eval
I0217 12:00:18.935050 23132 net.cpp:434] detection_eval <- detection_out
I0217 12:00:18.935062 23132 net.cpp:434] detection_eval <- label
I0217 12:00:18.935075 23132 net.cpp:408] detection_eval -> detection_eval
I0217 12:00:18.935225 23132 net.cpp:150] Setting up detection_eval
I0217 12:00:18.935257 23132 net.cpp:157] Top shape: 1 1 22 5 (110)
I0217 12:00:18.935266 23132 net.cpp:165] Memory required for data: 256486900
I0217 12:00:18.935274 23132 net.cpp:228] detection_eval does not need backward computation.
I0217 12:00:18.935282 23132 net.cpp:228] detection_out does not need backward computation.
I0217 12:00:18.935292 23132 net.cpp:228] mbox_conf_flatten does not need backward computation.
I0217 12:00:18.935299 23132 net.cpp:228] mbox_conf_softmax does not need backward computation.
…
