…
      sampler {
        min_scale: 0.3
        max_scale: 1
        min_aspect_ratio: 0.5
        max_aspect_ratio: 2
      }
      sample_constraint {
        min_jaccard_overlap: 0.9
      }
      max_sample: 1
      max_trials: 50
    }
    batch_sampler {
      sampler {
        min_scale: 0.3
        max_scale: 1
        min_aspect_ratio: 0.5
        max_aspect_ratio: 2
      }
      sample_constraint {
        max_jaccard_overlap: 1
      }
      max_sample: 1
      max_trials: 50
    }
    label_map_file: "data/VOC0712/labelmap_voc.prototxt"
  }
}
layer {
  name: "conv1_1_rgbd"
  type: "Convolution"
  bottom: "data"
  top: "conv1_1_rgbd"
  param {
    lr_mult: 1
    decay_mult: 1
  }
  param {
    lr_mult: 2
    decay_mult: 0
  }
  convolution_param {
    num_output: 64
    pad: 1
    kernel_size: 3
    weight_filler {
      type: "xavier"
    }
    bias_filler {
      type: "constant"
      value: 0
    }
  }
}
layer {
  name: "relu1_1"
  type: "ReLU"
  bottom: "conv1_1_rgbd"
  top: "conv1_1_rgbd"
}
layer {
  name: "conv1_2"
  type: "Convolution"
  bottom: "conv1_1_rgbd"
  top: "conv1_2"
  param {
    lr_mult: 1
    decay_mult: 1
  }
  param {
    lr_mult: 2
    decay_mult: 0
  }
  convolution_param {
    num_output: 64
    pad: 1
    kernel_size: 3
    weight_filler {
      type: "xavier"
    }
    bias_filler {
      type: "constant"
      value: 0
    }
  }
}
layer {
  name: "relu1_2"
  type: "ReLU"
  bottom: "conv1_2"
  top: "conv1_2"
}
layer {
  name: "pool1"
  type: "Pooling"
  bottom: "conv1_2"
  top: "pool1"
  pooling_param {
    pool: MAX
    kernel_size: 2
    stride: 2
  }
}
layer {
  name: "conv2_1"
  type: "Convolution"
  bottom: "pool1"
  top: "conv2_1"
  param {
    lr_mult: 1
    decay_mult: 1
  }
  param {
    lr_mult: 2
    decay_mult: 0
  }
  convolution_param {
    num_output: 128
    pad: 1
    kernel_size: 3
    weight_filler {
      type: "xavier"
    }
    bias_filler {
      type: "constant"
      value: 0
    }
  }
}
layer {
  name: "relu2_1"
  type: "ReLU"
  bottom: "conv2_1"
  top: "conv2_1"
}
layer {
  name: "conv2_2"
  type: "Convolution"
  bottom: "conv2_1"
  top: "conv2_2"
  param {
    lr_mult: 1
    decay_mult: 1
  }
  param {
    lr_mult: 2
    decay_mult: 0
  }
  convolution_param {
    num_output: 128
    pad: 1
    kernel_size: 3
    weight_filler {
      type: "xavier"
    }
    bias_filler {
      type: "constant"
      value: 0
    }
  }
}
layer {
  name: "relu2_2"
  type: "ReLU"
  bottom: "conv2_2"
  top: "conv2_2"
}
layer {
  name: "pool2"
  type: "Pooling"
  bottom: "conv2_2"
  top: "pool2"
  pooling_param {
    pool: MAX
    kernel_size: 2
    stride: 2
  }
}
layer {
  name: "conv3_1"
  type: "Convolution"
  bottom: "pool2"
  top: "conv3_1"
  param {
    lr_mult: 1
    decay_mult: 1
  }
  param {
    lr_mult: 2
    decay_mult: 0
  }
  convolution_param {
    num_output: 256
    pad: 1
    kernel_size: 3
    weight_filler {
      type: "xavier"
    }
    bias_filler {
      type: "constant"
      value: 0
    }
  }
}
layer {
  name: "relu3_1"
  type: "ReLU"
  bottom: "conv3_1"
  top: "conv3_1"
}
layer {
  name: "conv3_2"
  type: "Convolution"
  bottom: "conv3_1"
  top: "conv3_2"
  param {
    lr_mult: 1
    decay_mult: 1
  }
  param {
    lr_mult: 2
    decay_mult: 0
  }
  convolution_param {
    num_output: 256
    pad: 1
    kernel_size: 3
    weight_filler {
      type: "xavier"
    }
    bias_filler {
      type: "constant"
      value: 0
    }
  }
}
layer {
  name: "relu3_2"
  type: "ReLU"
  bottom: "conv3_2"
  top: "conv3_2"
}
layer {
  name: "conv3_3"
  type: "Convolution"
  bottom: "conv3_2"
  top: "conv3_3"
  param {
    lr_mult: 1
    decay_mult: 1
  }
  param {
    lr_mult: 2
    decay_mult: 0
  }
  convolution_param {
    num_output: 256
    pad: 1
    kernel_size: 3
    weight_filler {
      type: "xavier"
    }
    bias_filler {
      type: "constant"
      value: 0
    }
  }
}
layer {
  name: "relu3_3"
  type: "ReLU"
  bottom: "conv3_3"
  top: "conv3_3"
}
layer {
  name: "pool3"
  type: "Pooling"
  bottom: "conv3_3"
  top: "pool3"
  pooling_param {
    pool: MAX
    kernel_size: 2
    stride: 2
  }
}
layer {
  name: "conv4_1"
  type: "Convolution"
  bottom: "pool3"
  top: "conv4_1"
  param {
    lr_mult: 1
    decay_mult: 1
  }
  param {
    lr_mult: 2
    decay_mult: 0
  }
  convolution_param {
    num_output: 512
    pad: 1
    kernel_size: 3
    weight_filler {
      type: "xavier"
    }
    bias_filler {
      type: "constant"
      value: 0
    }
  }
}
layer {
  name: "relu4_1"
  type: "ReLU"
  bottom: "conv4_1"
  top: "conv4_1"
}
layer {
  name: "conv4_2"
  type: "Convolution"
  bottom: "conv4_1"
  top: "conv4_2"
  param {
    lr_mult: 1
    decay_mult: 1
  }
  param {
    lr_mult: 2
    decay_mult: 0
  }
  convolution_param {
    num_output: 512
    pad: 1
    kernel_size: 3
    weight_filler {
      type: "xavier"
    }
    bias_filler {
      type: "constant"
      value: 0
    }
  }
}
layer {
  name: "relu4_2"
  type: "ReLU"
  bottom: "conv4_2"
  top: "conv4_2"
}
layer {
  name: "conv4_3"
  type: "Convolution"
  bottom: "conv4_2"
  top: "conv4_3"
  param {
    lr_mult: 1
    decay_mult: 1
  }
  param {
    lr_mult: 2
    decay_mult: 0
  }
  convolution_param {
    num_output: 512
    pad: 1
    kernel_size: 3
    weight_filler {
      type: "xavier"
    }
    bias_filler {
      type: "constant"
      value: 0
    }
  }
}
layer {
  name: "relu4_3"
  type: "ReLU"
  bottom: "conv4_3"
  top: "conv4_3"
}
layer {
  name: "pool4"
  type: "Pooling"
  bottom: "conv4_3"
  top: "pool4"
  pooling_param {
    pool: MAX
    kernel_size: 2
    stride: 2
  }
}
layer {
  name: "conv5_1"
  type: "Convolution"
  bottom: "pool4"
  top: "conv5_1"
  param {
    lr_mult: 1
    decay_mult: 1
  }
  param {
    lr_mult: 2
    decay_mult: 0
  }
  convolution_param {
    num_output: 512
    pad: 1
    kernel_size: 3
    weight_filler {
      type: "xavier"
    }
    bias_filler {
      type: "constant"
      value: 0
    }
    dilation: 1
  }
}
layer {
  name: "relu5_1"
  type: "ReLU"
  bottom: "conv5_1"
  top: "conv5_1"
}
layer {
  name: "conv5_2"
  type: "Convolution"
  bottom: "conv5_1"
  top: "conv5_2"
  param {
    lr_mult: 1
    decay_mult: 1
  }
  param {
    lr_mult: 2
    decay_mult: 0
  }
  convolution_param {
    num_output: 512
    pad: 1
    kernel_size: 3
    weight_filler {
      type: "xavier"
    }
    bias_filler {
      type: "constant"
      value: 0
    }
    dilation: 1
  }
}
layer {
  name: "relu5_2"
  type: "ReLU"
  bottom: "conv5_2"
  top: "conv5_2"
}
layer {
  name: "conv5_3"
  type: "Convolution"
  bottom: "conv5_2"
  top: "conv5_3"
  param {
    lr_mult: 1
    decay_mult: 1
  }
  param {
    lr_mult: 2
    decay_mult: 0
  }
  convolution_param {
    num_output: 512
    pad: 1
    kernel_size: 3
    weight_filler {
      type: "xavier"
    }
    bias_filler {
      type: "constant"
      value: 0
    }
    dilation: 1
  }
}
layer {
  name: "relu5_3"
  type: "ReLU"
  bottom: "conv5_3"
  top: "conv5_3"
}
layer {
  name: "pool5"
  type: "Pooling"
  bottom: "conv5_3"
  top: "pool5"
  pooling_param {
    pool: MAX
    kernel_size: 3
    stride: 1
    pad: 1
  }
}
layer {
  name: "fc6"
  type: "Convolution"
  bottom: "pool5"
  top: "fc6"
  param {
    lr_mult: 1
    decay_mult: 1
  }
  param {
    lr_mult: 2
    decay_mult: 0
  }
  convolution_param {
    num_output: 1024
    pad: 6
    kernel_size: 3
    weight_filler {
      type: "xavier"
    }
    bias_filler {
      type: "constant"
      value: 0
    }
    dilation: 6
  }
}
layer {
  name: "relu6"
  type: "ReLU"
  bottom: "fc6"
  top: "fc6"
}
layer {
  name: "fc7"
  type: "Convolution"
  bottom: "fc6"
  top: "fc7"
  param {
    lr_mult: 1
    decay_mult: 1
  }
  param {
    lr_mult: 2
    decay_mult: 0
  }
  convolution_param {
    num_output: 1024
    kernel_size: 1
    weight_filler {
      type: "xavier"
    }
    bias_filler {
      type: "constant"
      value: 0
    }
  }
}
layer {
  name: "relu7"
  type: "ReLU"
  bottom: "fc7"
  top: "fc7"
}
layer {
  name: "conv6_1"
  type: "Convolution"
  bottom: "fc7"
  top: "conv6_1"
  param {
    lr_mult: 1
    decay_mult: 1
  }
  param {
    lr_mult: 2
    decay_mult: 0
  }
  convolution_param {
    num_output: 256
    pad: 0
    kernel_size: 1
    stride: 1
    weight_filler {
      type: "xavier"
    }
    bias_filler {
      type: "constant"
      value: 0
    }
  }
}
layer {
  name: "conv6_1_relu"
  type: "ReLU"
  bottom: "conv6_1"
  top: "conv6_1"
}
layer {
  name: "conv6_2"
  type: "Convolution"
  bottom: "conv6_1"
  top: "conv6_2"
  param {
    lr_mult: 1
    decay_mult: 1
  }
  param {
    lr_mult: 2
    decay_mult: 0
  }
  convolution_param {
    num_output: 512
    pad: 1
    kernel_size: 3
    stride: 2
    weight_filler {
      type: "xavier"
    }
    bias_filler {
      type: "constant"
      value: 0
    }
  }
}
layer {
  name: "conv6_2_relu"
  type: "ReLU"
  bottom: "conv6_2"
  top: "conv6_2"
}
layer {
  name: "conv7_1"
  type: "Convolution"
  bottom: "conv6_2"
  top: "conv7_1"
  param {
    lr_mult: 1
    decay_mult: 1
  }
  param {
    lr_mult: 2
    decay_mult: 0
  }
  convolution_param {
    num_output: 128
    pad: 0
    kernel_size: 1
    stride: 1
    weight_filler {
      type: "xavier"
    }
    bias_filler {
      type: "constant"
      value: 0
    }
  }
}
layer {
  name: "conv7_1_relu"
  type: "ReLU"
  bottom: "conv7_1"
  top: "conv7_1"
}
layer {
  name: "conv7_2"
  type: "Convolution"
  bottom: "conv7_1"
  top: "conv7_2"
  param {
    lr_mult: 1
    decay_mult: 1
  }
  param {
    lr_mult: 2
    decay_mult: 0
  }
  convolution_param {
    num_output: 256
    pad: 1
    kernel_size: 3
    stride: 2
    weight_filler {
      type: "xavier"
    }
    bias_filler {
      type: "constant"
      value: 0
    }
  }
}
layer {
  name: "conv7_2_relu"
  type: "ReLU"
  bottom: "conv7_2"
  top: "conv7_2"
}
layer {
  name: "conv8_1"
  type: "Convolution"
  bottom: "conv7_2"
  top: "conv8_1"
  param {
    lr_mult: 1
    decay_mult: 1
  }
  param {
    lr_mult: 2
    decay_mult: 0
  }
  convolution_param {
    num_output: 128
    pad: 0
    kernel_size: 1
    stride: 1
    weight_filler {
      type: "xavier"
    }
    bias_filler {
      type: "constant"
      value: 0
    }
  }
}
layer {
  name: "conv8_1_relu"
  type: "ReLU"
  bottom: "conv8_1"
  top: "conv8_1"
}
layer {
  name: "conv8_2"
  type: "Convolution"
  bottom: "conv8_1"
  top: "conv8_2"
  param {
    lr_mult: 1
    decay_mult: 1
  }
  param {
    lr_mult: 2
    decay_mult: 0
  }
  convolution_param {
    num_output: 256
    pad: 0
    kernel_size: 3
    stride: 1
    weight_filler {
      type: "xavier"
    }
    bias_filler {
      type: "constant"
      value: 0
    }
  }
}
layer {
  name: "conv8_2_relu"
  type: "ReLU"
  bottom: "conv8_2"
  top: "conv8_2"
}
layer {
  name: "conv9_1"
  type: "Convolution"
  bottom: "conv8_2"
  top: "conv9_1"
  param {
    lr_mult: 1
    decay_mult: 1
  }
  param {
    lr_mult: 2
    decay_mult: 0
  }
  convolution_param {
    num_output: 128
    pad: 0
    kernel_size: 1
    stride: 1
    weight_filler {
      type: "xavier"
    }
    bias_filler {
      type: "constant"
      value: 0
    }
  }
}
layer {
  name: "conv9_1_relu"
  type: "ReLU"
  bottom: "conv9_1"
  top: "conv9_1"
}
layer {
  name: "conv9_2"
  type: "Convolution"
  bottom: "conv9_1"
  top: "conv9_2"
  param {
    lr_mult: 1
    decay_mult: 1
  }
  param {
    lr_mult: 2
    decay_mult: 0
  }
  convolution_param {
    num_output: 256
    pad: 0
    kernel_size: 3
    stride: 1
    weight_filler {
      type: "xavier"
    }
    bias_filler {
      type: "constant"
      value: 0
    }
  }
}
layer {
  name: "conv9_2_relu"
  type: "ReLU"
  bottom: "conv9_2"
  top: "conv9_2"
}
layer {
  name: "conv4_3_norm"
  type: "Normalize"
  bottom: "conv4_3"
  top: "conv4_3_norm"
  norm_param {
    across_spatial: false
    scale_filler {
      type: "constant"
      value: 20
    }
    channel_shared: false
  }
}
layer {
  name: "conv4_3_norm_mbox_loc"
  type: "Convolution"
  bottom: "conv4_3_norm"
  top: "conv4_3_norm_mbox_loc"
  param {
    lr_mult: 1
    decay_mult: 1
  }
  param {
    lr_mult: 2
    decay_mult: 0
  }
  convolution_param {
    num_output: 16
    pad: 1
    kernel_size: 3
    stride: 1
    weight_filler {
      type: "xavier"
    }
    bias_filler {
      type: "constant"
      value: 0
    }
  }
}
layer {
  name: "conv4_3_norm_mbox_loc_perm"
  type: "Permute"
  bottom: "conv4_3_norm_mbox_loc"
  top: "conv4_3_norm_mbox_loc_perm"
  permute_param {
    order: 0
    order: 2
    order: 3
    order: 1
  }
}
layer {
  name: "conv4_3_norm_mbox_loc_flat"
  type: "Flatten"
  bottom: "conv4_3_norm_mbox_loc_perm"
  top: "conv4_3_norm_mbox_loc_flat"
  flatten_param {
    axis: 1
  }
}
layer {
  name: "conv4_3_norm_mbox_conf"
  type: "Convolution"
  bottom: "conv4_3_norm"
  top: "conv4_3_norm_mbox_conf"
  param {
    lr_mult: 1
    decay_mult: 1
  }
  param {
    lr_mult: 2
    decay_mult: 0
  }
  convolution_param {
    num_output: 88
    pad: 1
    kernel_size: 3
    stride: 1
    weight_filler {
      type: "xavier"
    }
    bias_filler {
      type: "constant"
      value: 0
    }
  }
}
layer {
  name: "conv4_3_norm_mbox_conf_perm"
  type: "Permute"
  bottom: "conv4_3_norm_mbox_conf"
  top: "conv4_3_norm_mbox_conf_perm"
  permute_param {
    order: 0
    order: 2
    order: 3
    order: 1
  }
}
layer {
  name: "conv4_3_norm_mbox_conf_flat"
  type: "Flatten"
  bottom: "conv4_3_norm_mbox_conf_perm"
  top: "conv4_3_norm_mbox_conf_flat"
  flatten_param {
    axis: 1
  }
}
layer {
  name: "conv4_3_norm_mbox_priorbox"
  type: "PriorBox"
  bottom: "conv4_3_norm"
  bottom: "data"
  top: "conv4_3_norm_mbox_priorbox"
  prior_box_param {
    min_size: 30
    max_size: 60
    aspect_ratio: 2
    flip: true
    clip: false
    variance: 0.1
    variance: 0.1
    variance: 0.2
    variance: 0.2
    step: 8
    offset: 0.5
  }
}
layer {
  name: "fc7_mbox_loc"
  type: "Convolution"
  bottom: "fc7"
  top: "fc7_mbox_loc"
  param {
    lr_mult: 1
    decay_mult: 1
  }
  param {
    lr_mult: 2
    decay_mult: 0
  }
  convolution_param {
    num_output: 24
    pad: 1
    kernel_size: 3
    stride: 1
    weight_filler {
      type: "xavier"
    }
    bias_filler {
      type: "constant"
      value: 0
    }
  }
}
layer {
  name: "fc7_mbox_loc_perm"
  type: "Permute"
  bottom: "fc7_mbox_loc"
  top: "fc7_mbox_loc_perm"
  permute_param {
    order: 0
    order: 2
    order: 3
    order: 1
  }
}
layer {
  name: "fc7_mbox_loc_flat"
  type: "Flatten"
  bottom: "fc7_mbox_loc_perm"
  top: "fc7_mbox_loc_flat"
  flatten_param {
    axis: 1
  }
}
layer {
  name: "fc7_mbox_conf"
  type: "Convolution"
  bottom: "fc7"
  top: "fc7_mbox_conf"
  param {
    lr_mult: 1
    decay_mult: 1
  }
  param {
    lr_mult: 2
    decay_mult: 0
  }
  convolution_param {
    num_output: 132
    pad: 1
    kernel_size: 3
    stride: 1
    weight_filler {
      type: "xavier"
    }
    bias_filler {
      type: "constant"
      value: 0
    }
  }
}
layer {
  name: "fc7_mbox_conf_perm"
  type: "Permute"
  bottom: "fc7_mbox_conf"
  top: "fc7_mbox_conf_perm"
  permute_param {
    order: 0
    order: 2
    order: 3
    order: 1
  }
}
layer {
  name: "fc7_mbox_conf_flat"
  type: "Flatten"
  bottom: "fc7_mbox_conf_perm"
  top: "fc7_mbox_conf_flat"
  flatten_param {
    axis: 1
  }
}
layer {
  name: "fc7_mbox_priorbox"
  type: "PriorBox"
  bottom: "fc7"
  bottom: "data"
  top: "fc7_mbox_priorbox"
  prior_box_param {
    min_size: 60
    max_size: 111
    aspect_ratio: 2
    aspect_ratio: 3
    flip: true
    clip: false
    variance: 0.1
    variance: 0.1
    variance: 0.2
    variance: 0.2
    step: 16
    offset: 0.5
  }
}
layer {
  name: "conv6_2_mbox_loc"
  type: "Convolution"
  bottom: "conv6_2"
  top: "conv6_2_mbox_loc"
  param {
    lr_mult: 1
    decay_mult: 1
  }
  param {
    lr_mult: 2
    decay_mult: 0
  }
  convolution_param {
    num_output: 24
    pad: 1
    kernel_size: 3
    stride: 1
    weight_filler {
      type: "xavier"
    }
    bias_filler {
      type: "constant"
      value: 0
    }
  }
}
layer {
  name: "conv6_2_mbox_loc_perm"
  type: "Permute"
  bottom: "conv6_2_mbox_loc"
  top: "conv6_2_mbox_loc_perm"
  permute_param {
    order: 0
    order: 2
    order: 3
    order: 1
  }
}
layer {
  name: "conv6_2_mbox_loc_flat"
  type: "Flatten"
  bottom: "conv6_2_mbox_loc_perm"
  top: "conv6_2_mbox_loc_flat"
  flatten_param {
    axis: 1
  }
}
layer {
  name: "conv6_2_mbox_conf"
  type: "Convolution"
  bottom: "conv6_2"
  top: "conv6_2_mbox_conf"
  param {
    lr_mult: 1
    decay_mult: 1
  }
  param {
    lr_mult: 2
    decay_mult: 0
  }
  convolution_param {
    num_output: 132
    pad: 1
    kernel_size: 3
    stride: 1
    weight_filler {
      type: "xavier"
    }
    bias_filler {
      type: "constant"
      value: 0
    }
  }
}
layer {
  name: "conv6_2_mbox_conf_perm"
  type: "Permute"
  bottom: "conv6_2_mbox_conf"
  top: "conv6_2_mbox_conf_perm"
  permute_param {
    order: 0
    order: 2
    order: 3
    order: 1
  }
}
layer {
  name: "conv6_2_mbox_conf_flat"
  type: "Flatten"
  bottom: "conv6_2_mbox_conf_perm"
  top: "conv6_2_mbox_conf_flat"
  flatten_param {
    axis: 1
  }
}
layer {
  name: "conv6_2_mbox_priorbox"
  type: "PriorBox"
  bottom: "conv6_2"
  bottom: "data"
  top: "conv6_2_mbox_priorbox"
  prior_box_param {
    min_size: 111
    max_size: 162
    aspect_ratio: 2
    aspect_ratio: 3
    flip: true
    clip: false
    variance: 0.1
    variance: 0.1
    variance: 0.2
    variance: 0.2
    step: 32
    offset: 0.5
  }
}
layer {
  name: "conv7_2_mbox_loc"
  type: "Convolution"
  bottom: "conv7_2"
  top: "conv7_2_mbox_loc"
  param {
    lr_mult: 1
    decay_mult: 1
  }
  param {
    lr_mult: 2
    decay_mult: 0
  }
  convolution_param {
    num_output: 24
    pad: 1
    kernel_size: 3
    stride: 1
    weight_filler {
      type: "xavier"
    }
    bias_filler {
      type: "constant"
      value: 0
    }
  }
}
layer {
  name: "conv7_2_mbox_loc_perm"
  type: "Permute"
  bottom: "conv7_2_mbox_loc"
  top: "conv7_2_mbox_loc_perm"
  permute_param {
    order: 0
    order: 2
    order: 3
    order: 1
  }
}
layer {
  name: "conv7_2_mbox_loc_flat"
  type: "Flatten"
  bottom: "conv7_2_mbox_loc_perm"
  top: "conv7_2_mbox_loc_flat"
  flatten_param {
    axis: 1
  }
}
layer {
  name: "conv7_2_mbox_conf"
  type: "Convolution"
  bottom: "conv7_2"
  top: "conv7_2_mbox_conf"
  param {
    lr_mult: 1
    decay_mult: 1
  }
  param {
    lr_mult: 2
    decay_mult: 0
  }
  convolution_param {
    num_output: 132
    pad: 1
    kernel_size: 3
    stride: 1
    weight_filler {
      type: "xavier"
    }
    bias_filler {
      type: "constant"
      value: 0
    }
  }
}
layer {
  name: "conv7_2_mbox_conf_perm"
  type: "Permute"
  bottom: "conv7_2_mbox_conf"
  top: "conv7_2_mbox_conf_perm"
  permute_param {
    order: 0
    order: 2
    order: 3
    order: 1
  }
}
layer {
  name: "conv7_2_mbox_conf_flat"
  type: "Flatten"
  bottom: "conv7_2_mbox_conf_perm"
  top: "conv7_2_mbox_conf_flat"
  flatten_param {
    axis: 1
  }
}
layer {
  name: "conv7_2_mbox_priorbox"
  type: "PriorBox"
  bottom: "conv7_2"
  bottom: "data"
  top: "conv7_2_mbox_priorbox"
  prior_box_param {
    min_size: 162
    max_size: 213
    aspect_ratio: 2
    aspect_ratio: 3
    flip: true
    clip: false
    variance: 0.1
    variance: 0.1
    variance: 0.2
    variance: 0.2
    step: 64
    offset: 0.5
  }
}
layer {
  name: "conv8_2_mbox_loc"
  type: "Convolution"
  bottom: "conv8_2"
  top: "conv8_2_mbox_loc"
  param {
    lr_mult: 1
    decay_mult: 1
  }
  param {
    lr_mult: 2
    decay_mult: 0
  }
  convolution_param {
    num_output: 16
    pad: 1
    kernel_size: 3
    stride: 1
    weight_filler {
      type: "xavier"
    }
    bias_filler {
      type: "constant"
      value: 0
    }
  }
}
layer {
  name: "conv8_2_mbox_loc_perm"
  type: "Permute"
  bottom: "conv8_2_mbox_loc"
  top: "conv8_2_mbox_loc_perm"
  permute_param {
    order: 0
    order: 2
    order: 3
    order: 1
  }
}
layer {
  name: "conv8_2_mbox_loc_flat"
  type: "Flatten"
  bottom: "conv8_2_mbox_loc_perm"
  top: "conv8_2_mbox_loc_flat"
  flatten_param {
    axis: 1
  }
}
layer {
  name: "conv8_2_mbox_conf"
  type: "Convolution"
  bottom: "conv8_2"
  top: "conv8_2_mbox_conf"
  param {
    lr_mult: 1
    decay_mult: 1
  }
  param {
    lr_mult: 2
    decay_mult: 0
  }
  convolution_param {
    num_output: 88
    pad: 1
    kernel_size: 3
    stride: 1
    weight_filler {
      type: "xavier"
    }
    bias_filler {
      type: "constant"
      value: 0
    }
  }
}
layer {
  name: "conv8_2_mbox_conf_perm"
  type: "Permute"
  bottom: "conv8_2_mbox_conf"
  top: "conv8_2_mbox_conf_perm"
  permute_param {
    order: 0
    order: 2
    order: 3
    order: 1
  }
}
layer {
  name: "conv8_2_mbox_conf_flat"
  type: "Flatten"
  bottom: "conv8_2_mbox_conf_perm"
  top: "conv8_2_mbox_conf_flat"
  flatten_param {
    axis: 1
  }
}
layer {
  name: "conv8_2_mbox_priorbox"
  type: "PriorBox"
  bottom: "conv8_2"
  bottom: "data"
  top: "conv8_2_mbox_priorbox"
  prior_box_param {
    min_size: 213
    max_size: 264
    aspect_ratio: 2
    flip: true
    clip: false
    variance: 0.1
    variance: 0.1
    variance: 0.2
    variance: 0.2
    step: 100
    offset: 0.5
  }
}
layer {
  name: "conv9_2_mbox_loc"
  type: "Convolution"
  bottom: "conv9_2"
  top: "conv9_2_mbox_loc"
  param {
    lr_mult: 1
    decay_mult: 1
  }
  param {
    lr_mult: 2
    decay_mult: 0
  }
  convolution_param {
    num_output: 16
    pad: 1
    kernel_size: 3
    stride: 1
    weight_filler {
      type: "xavier"
    }
    bias_filler {
      type: "constant"
      value: 0
    }
  }
}
layer {
  name: "conv9_2_mbox_loc_perm"
  type: "Permute"
  bottom: "conv9_2_mbox_loc"
  top: "conv9_2_mbox_loc_perm"
  permute_param {
    order: 0
    order: 2
    order: 3
    order: 1
  }
}
layer {
  name: "conv9_2_mbox_loc_flat"
  type: "Flatten"
  bottom: "conv9_2_mbox_loc_perm"
  top: "conv9_2_mbox_loc_flat"
  flatten_param {
    axis: 1
  }
}
layer {
  name: "conv9_2_mbox_conf"
  type: "Convolution"
  bottom: "conv9_2"
  top: "conv9_2_mbox_conf"
  param {
    lr_mult: 1
    decay_mult: 1
  }
  param {
    lr_mult: 2
    decay_mult: 0
  }
  convolution_param {
    num_output: 88
    pad: 1
    kernel_size: 3
    stride: 1
    weight_filler {
      type: "xavier"
    }
    bias_filler {
      type: "constant"
      value: 0
    }
  }
}
layer {
  name: "conv9_2_mbox_conf_perm"
  type: "Permute"
  bottom: "conv9_2_mbox_conf"
  top: "conv9_2_mbox_conf_perm"
  permute_param {
    order: 0
    order: 2
    order: 3
    order: 1
  }
}
layer {
  name: "conv9_2_mbox_conf_flat"
  type: "Flatten"
  bottom: "conv9_2_mbox_conf_perm"
  top: "conv9_2_mbox_conf_flat"
  flatten_param {
    axis: 1
  }
}
layer {
  name: "conv9_2_mbox_priorbox"
  type: "PriorBox"
  bottom: "conv9_2"
  bottom: "data"
  top: "conv9_2_mbox_priorbox"
  prior_box_param {
    min_size: 264
    max_size: 315
    aspect_ratio: 2
    flip: true
    clip: false
    variance: 0.1
    variance: 0.1
    variance: 0.2
    variance: 0.2
    step: 300
    offset: 0.5
  }
}
layer {
  name: "mbox_loc"
  type: "Concat"
  bottom: "conv4_3_norm_mbox_loc_flat"
  bottom: "fc7_mbox_loc_flat"
  bottom: "conv6_2_mbox_loc_flat"
  bottom: "conv7_2_mbox_loc_flat"
  bottom: "conv8_2_mbox_loc_flat"
  bottom: "conv9_2_mbox_loc_flat"
  top: "mbox_loc"
  concat_param {
    axis: 1
  }
}
layer {
  name: "mbox_conf"
  type: "Concat"
  bottom: "conv4_3_norm_mbox_conf_flat"
  bottom: "fc7_mbox_conf_flat"
  bottom: "conv6_2_mbox_conf_flat"
  bottom: "conv7_2_mbox_conf_flat"
  bottom: "conv8_2_mbox_conf_flat"
  bottom: "conv9_2_mbox_conf_flat"
  top: "mbox_conf"
  concat_param {
    axis: 1
  }
}
layer {
  name: "mbox_priorbox"
  type: "Concat"
  bottom: "conv4_3_norm_mbox_priorbox"
  bottom: "fc7_mbox_priorbox"
  bottom: "conv6_2_mbox_priorbox"
  bottom: "conv7_2_mbox_priorbox"
  bottom: "conv8_2_mbox_priorbox"
  bottom: "conv9_2_mbox_priorbox"
  top: "mbox_priorbox"
  concat_param {
    axis: 2
  }
}
layer {
  name: "mbox_loss"
  type: "MultiBoxLoss"
  bottom: "mbox_loc"
  bottom: "mbox_conf"
  bottom: "mbox_priorbox"
  bottom: "label"
  top: "mbox_loss"
  include {
    phase: TRAIN
  }
  propagate_down: true
  propagate_down: true
  propagate_down: false
  propagate_down: false
  loss_param {
    normalization: VALID
  }
  multibox_loss_param {
    loc_loss_type: SMOOTH_L1
    conf_loss_type: SOFTMAX
    loc_weight: 1
    num_classes: 22
    share_location: true
    match_type: PER_PREDICTION
    overlap_threshold: 0.5
    use_prior_for_matching: true
    background_label_id: 0
    use_difficult_gt: true
    neg_pos_ratio: 3
    neg_overlap: 0.5
    code_type: CENTER_SIZE
    ignore_cross_boundary_bbox: false
    mining_type: MAX_NEGATIVE
  }
}
I0216 12:56:33.471346  4262 layer_factory.hpp:77] Creating layer data
I0216 12:56:33.472048  4262 net.cpp:100] Creating Layer data
I0216 12:56:33.472067  4262 net.cpp:408] data -> data
I0216 12:56:33.472106  4262 net.cpp:408] data -> label
I0216 12:56:33.473716  4278 db_lmdb.cpp:35] Opened lmdb examples/VOC0712/VOC0712_trainval_lmdb
I0216 12:56:33.495201  4262 annotated_data_layer.cpp:62] output data size: 32,4,300,300
I0216 12:56:33.560694  4262 net.cpp:150] Setting up data
I0216 12:56:33.560752  4262 net.cpp:157] Top shape: 32 4 300 300 (11520000)
I0216 12:56:33.560760  4262 net.cpp:157] Top shape: 1 1 2 8 (16)
I0216 12:56:33.560765  4262 net.cpp:165] Memory required for data: 46080064
I0216 12:56:33.560776  4262 layer_factory.hpp:77] Creating layer data_data_0_split
I0216 12:56:33.560796  4262 net.cpp:100] Creating Layer data_data_0_split
I0216 12:56:33.560802  4262 net.cpp:434] data_data_0_split <- data
I0216 12:56:33.560820  4262 net.cpp:408] data_data_0_split -> data_data_0_split_0
I0216 12:56:33.560832  4262 net.cpp:408] data_data_0_split -> data_data_0_split_1
I0216 12:56:33.560839  4262 net.cpp:408] data_data_0_split -> data_data_0_split_2
I0216 12:56:33.560847  4262 net.cpp:408] data_data_0_split -> data_data_0_split_3
I0216 12:56:33.560852  4262 net.cpp:408] data_data_0_split -> data_data_0_split_4
I0216 12:56:33.560858  4262 net.cpp:408] data_data_0_split -> data_data_0_split_5
I0216 12:56:33.560863  4262 net.cpp:408] data_data_0_split -> data_data_0_split_6
I0216 12:56:33.560987  4262 net.cpp:150] Setting up data_data_0_split
I0216 12:56:33.560998  4262 net.cpp:157] Top shape: 32 4 300 300 (11520000)
I0216 12:56:33.561003  4262 net.cpp:157] Top shape: 32 4 300 300 (11520000)
I0216 12:56:33.561007  4262 net.cpp:157] Top shape: 32 4 300 300 (11520000)
I0216 12:56:33.561012  4262 net.cpp:157] Top shape: 32 4 300 300 (11520000)
I0216 12:56:33.561015  4262 net.cpp:157] Top shape: 32 4 300 300 (11520000)
I0216 12:56:33.561019  4262 net.cpp:157] Top shape: 32 4 300 300 (11520000)
I0216 12:56:33.561025  4262 net.cpp:157] Top shape: 32 4 300 300 (11520000)
I0216 12:56:33.561028  4262 net.cpp:165] Memory required for data: 368640064
I0216 12:56:33.561033  4262 layer_factory.hpp:77] Creating layer conv1_1_rgbd
I0216 12:56:33.561051  4262 net.cpp:100] Creating Layer conv1_1_rgbd
I0216 12:56:33.561055  4262 net.cpp:434] conv1_1_rgbd <- data_data_0_split_0
I0216 12:56:33.561063  4262 net.cpp:408] conv1_1_rgbd -> conv1_1_rgbd
I0216 12:56:33.754539  4262 net.cpp:150] Setting up conv1_1_rgbd
I0216 12:56:33.754575  4262 net.cpp:157] Top shape: 32 64 300 300 (184320000)
I0216 12:56:33.754581  4262 net.cpp:165] Memory required for data: 1105920064
I0216 12:56:33.754602  4262 layer_factory.hpp:77] Creating layer relu1_1
I0216 12:56:33.754614  4262 net.cpp:100] Creating Layer relu1_1
I0216 12:56:33.754621  4262 net.cpp:434] relu1_1 <- conv1_1_rgbd
I0216 12:56:33.754627  4262 net.cpp:395] relu1_1 -> conv1_1_rgbd (in-place)
I0216 12:56:33.754936  4262 net.cpp:150] Setting up relu1_1
I0216 12:56:33.754951  4262 net.cpp:157] Top shape: 32 64 300 300 (184320000)
I0216 12:56:33.754956  4262 net.cpp:165] Memory required for data: 1843200064
I0216 12:56:33.754959  4262 layer_factory.hpp:77] Creating layer conv1_2
I0216 12:56:33.754974  4262 net.cpp:100] Creating Layer conv1_2
I0216 12:56:33.754979  4262 net.cpp:434] conv1_2 <- conv1_1_rgbd
I0216 12:56:33.754986  4262 net.cpp:408] conv1_2 -> conv1_2
I0216 12:56:33.756752  4262 net.cpp:150] Setting up conv1_2
I0216 12:56:33.756777  4262 net.cpp:157] Top shape: 32 64 300 300 (184320000)
I0216 12:56:33.756781  4262 net.cpp:165] Memory required for data: 2580480064
I0216 12:56:33.756793  4262 layer_factory.hpp:77] Creating layer relu1_2
I0216 12:56:33.756803  4262 net.cpp:100] Creating Layer relu1_2
I0216 12:56:33.756808  4262 net.cpp:434] relu1_2 <- conv1_2
I0216 12:56:33.756814  4262 net.cpp:395] relu1_2 -> conv1_2 (in-place)
I0216 12:56:33.757109  4262 net.cpp:150] Setting up relu1_2
I0216 12:56:33.757124  4262 net.cpp:157] Top shape: 32 64 300 300 (184320000)
I0216 12:56:33.757128  4262 net.cpp:165] Memory required for data: 3317760064
I0216 12:56:33.757133  4262 layer_factory.hpp:77] Creating layer pool1
I0216 12:56:33.757140  4262 net.cpp:100] Creating Layer pool1
I0216 12:56:33.757144  4262 net.cpp:434] pool1 <- conv1_2
I0216 12:56:33.757151  4262 net.cpp:408] pool1 -> pool1
I0216 12:56:33.757206  4262 net.cpp:150] Setting up pool1
I0216 12:56:33.757216  4262 net.cpp:157] Top shape: 32 64 150 150 (46080000)
I0216 12:56:33.757238  4262 net.cpp:165] Memory required for data: 3502080064
I0216 12:56:33.757242  4262 layer_factory.hpp:77] Creating layer conv2_1
I0216 12:56:33.757254  4262 net.cpp:100] Creating Layer conv2_1
I0216 12:56:33.757258  4262 net.cpp:434] conv2_1 <- pool1
I0216 12:56:33.757266  4262 net.cpp:408] conv2_1 -> conv2_1
I0216 12:56:33.758945  4262 net.cpp:150] Setting up conv2_1
I0216 12:56:33.758962  4262 net.cpp:157] Top shape: 32 128 150 150 (92160000)
I0216 12:56:33.758967  4262 net.cpp:165] Memory required for data: 3870720064
I0216 12:56:33.758977  4262 layer_factory.hpp:77] Creating layer relu2_1
I0216 12:56:33.758987  4262 net.cpp:100] Creating Layer relu2_1
I0216 12:56:33.758991  4262 net.cpp:434] relu2_1 <- conv2_1
I0216 12:56:33.758997  4262 net.cpp:395] relu2_1 -> conv2_1 (in-place)
I0216 12:56:33.759173  4262 net.cpp:150] Setting up relu2_1
I0216 12:56:33.759184  4262 net.cpp:157] Top shape: 32 128 150 150 (92160000)
I0216 12:56:33.759188  4262 net.cpp:165] Memory required for data: 4239360064
I0216 12:56:33.759192  4262 layer_factory.hpp:77] Creating layer conv2_2
I0216 12:56:33.759203  4262 net.cpp:100] Creating Layer conv2_2
I0216 12:56:33.759207  4262 net.cpp:434] conv2_2 <- conv2_1
I0216 12:56:33.759214  4262 net.cpp:408] conv2_2 -> conv2_2
I0216 12:56:33.761793  4262 net.cpp:150] Setting up conv2_2
I0216 12:56:33.761811  4262 net.cpp:157] Top shape: 32 128 150 150 (92160000)
I0216 12:56:33.761814  4262 net.cpp:165] Memory required for data: 4608000064
I0216 12:56:33.761821  4262 layer_factory.hpp:77] Creating layer relu2_2
I0216 12:56:33.761828  4262 net.cpp:100] Creating Layer relu2_2
I0216 12:56:33.761832  4262 net.cpp:434] relu2_2 <- conv2_2
I0216 12:56:33.761839  4262 net.cpp:395] relu2_2 -> conv2_2 (in-place)
I0216 12:56:33.762147  4262 net.cpp:150] Setting up relu2_2
I0216 12:56:33.762161  4262 net.cpp:157] Top shape: 32 128 150 150 (92160000)
I0216 12:56:33.762166  4262 net.cpp:165] Memory required for data: 4976640064
I0216 12:56:33.762169  4262 layer_factory.hpp:77] Creating layer pool2
I0216 12:56:33.762176  4262 net.cpp:100] Creating Layer pool2
I0216 12:56:33.762181  4262 net.cpp:434] pool2 <- conv2_2
I0216 12:56:33.762187  4262 net.cpp:408] pool2 -> pool2
I0216 12:56:33.762231  4262 net.cpp:150] Setting up pool2
I0216 12:56:33.762240  4262 net.cpp:157] Top shape: 32 128 75 75 (23040000)
I0216 12:56:33.762243  4262 net.cpp:165] Memory required for data: 5068800064
I0216 12:56:33.762250  4262 layer_factory.hpp:77] Creating layer conv3_1
I0216 12:56:33.762261  4262 net.cpp:100] Creating Layer conv3_1
I0216 12:56:33.762265  4262 net.cpp:434] conv3_1 <- pool2
I0216 12:56:33.762271  4262 net.cpp:408] conv3_1 -> conv3_1
I0216 12:56:33.766317  4262 net.cpp:150] Setting up conv3_1
I0216 12:56:33.766335  4262 net.cpp:157] Top shape: 32 256 75 75 (46080000)
I0216 12:56:33.766338  4262 net.cpp:165] Memory required for data: 5253120064
I0216 12:56:33.766350  4262 layer_factory.hpp:77] Creating layer relu3_1
I0216 12:56:33.766357  4262 net.cpp:100] Creating Layer relu3_1
I0216 12:56:33.766361  4262 net.cpp:434] relu3_1 <- conv3_1
I0216 12:56:33.766368  4262 net.cpp:395] relu3_1 -> conv3_1 (in-place)
I0216 12:56:33.766674  4262 net.cpp:150] Setting up relu3_1
I0216 12:56:33.766688  4262 net.cpp:157] Top shape: 32 256 75 75 (46080000)
I0216 12:56:33.766692  4262 net.cpp:165] Memory required for data: 5437440064
I0216 12:56:33.766696  4262 layer_factory.hpp:77] Creating layer conv3_2
I0216 12:56:33.766707  4262 net.cpp:100] Creating Layer conv3_2
I0216 12:56:33.766711  4262 net.cpp:434] conv3_2 <- conv3_1
I0216 12:56:33.766719  4262 net.cpp:408] conv3_2 -> conv3_2
I0216 12:56:33.772802  4262 net.cpp:150] Setting up conv3_2
I0216 12:56:33.772819  4262 net.cpp:157] Top shape: 32 256 75 75 (46080000)
I0216 12:56:33.772824  4262 net.cpp:165] Memory required for data: 5621760064
I0216 12:56:33.772830  4262 layer_factory.hpp:77] Creating layer relu3_2
I0216 12:56:33.772841  4262 net.cpp:100] Creating Layer relu3_2
I0216 12:56:33.772846  4262 net.cpp:434] relu3_2 <- conv3_2
I0216 12:56:33.772864  4262 net.cpp:395] relu3_2 -> conv3_2 (in-place)
I0216 12:56:33.773043  4262 net.cpp:150] Setting up relu3_2
I0216 12:56:33.773054  4262 net.cpp:157] Top shape: 32 256 75 75 (46080000)
I0216 12:56:33.773058  4262 net.cpp:165] Memory required for data: 5806080064
I0216 12:56:33.773061  4262 layer_factory.hpp:77] Creating layer conv3_3
I0216 12:56:33.773073  4262 net.cpp:100] Creating Layer conv3_3
I0216 12:56:33.773079  4262 net.cpp:434] conv3_3 <- conv3_2
I0216 12:56:33.773085  4262 net.cpp:408] conv3_3 -> conv3_3
I0216 12:56:33.779162  4262 net.cpp:150] Setting up conv3_3
I0216 12:56:33.779180  4262 net.cpp:157] Top shape: 32 256 75 75 (46080000)
I0216 12:56:33.779184  4262 net.cpp:165] Memory required for data: 5990400064
I0216 12:56:33.779191  4262 layer_factory.hpp:77] Creating layer relu3_3
I0216 12:56:33.779198  4262 net.cpp:100] Creating Layer relu3_3
I0216 12:56:33.779202  4262 net.cpp:434] relu3_3 <- conv3_3
I0216 12:56:33.779208  4262 net.cpp:395] relu3_3 -> conv3_3 (in-place)
I0216 12:56:33.779510  4262 net.cpp:150] Setting up relu3_3
I0216 12:56:33.779526  4262 net.cpp:157] Top shape: 32 256 75 75 (46080000)
I0216 12:56:33.779530  4262 net.cpp:165] Memory required for data: 6174720064
I0216 12:56:33.779534  4262 layer_factory.hpp:77] Creating layer pool3
I0216 12:56:33.779541  4262 net.cpp:100] Creating Layer pool3
I0216 12:56:33.779544  4262 net.cpp:434] pool3 <- conv3_3
I0216 12:56:33.779552  4262 net.cpp:408] pool3 -> pool3
I0216 12:56:33.779597  4262 net.cpp:150] Setting up pool3
I0216 12:56:33.779606  4262 net.cpp:157] Top shape: 32 256 38 38 (11829248)
I0216 12:56:33.779609  4262 net.cpp:165] Memory required for data: 6222037056
I0216 12:56:33.779613  4262 layer_factory.hpp:77] Creating layer conv4_1
I0216 12:56:33.779624  4262 net.cpp:100] Creating Layer conv4_1
I0216 12:56:33.779628  4262 net.cpp:434] conv4_1 <- pool3
I0216 12:56:33.779634  4262 net.cpp:408] conv4_1 -> conv4_1
I0216 12:56:33.791020  4262 net.cpp:150] Setting up conv4_1
I0216 12:56:33.791040  4262 net.cpp:157] Top shape: 32 512 38 38 (23658496)
I0216 12:56:33.791044  4262 net.cpp:165] Memory required for data: 6316671040
I0216 12:56:33.791052  4262 layer_factory.hpp:77] Creating layer relu4_1
I0216 12:56:33.791059  4262 net.cpp:100] Creating Layer relu4_1
I0216 12:56:33.791064  4262 net.cpp:434] relu4_1 <- conv4_1
I0216 12:56:33.791070  4262 net.cpp:395] relu4_1 -> conv4_1 (in-place)
I0216 12:56:33.791380  4262 net.cpp:150] Setting up relu4_1
I0216 12:56:33.791394  4262 net.cpp:157] Top shape: 32 512 38 38 (23658496)
I0216 12:56:33.791399  4262 net.cpp:165] Memory required for data: 6411305024
I0216 12:56:33.791402  4262 layer_factory.hpp:77] Creating layer conv4_2
I0216 12:56:33.791414  4262 net.cpp:100] Creating Layer conv4_2
I0216 12:56:33.791419  4262 net.cpp:434] conv4_2 <- conv4_1
I0216 12:56:33.791426  4262 net.cpp:408] conv4_2 -> conv4_2
I0216 12:56:33.812322  4262 net.cpp:150] Setting up conv4_2
I0216 12:56:33.812355  4262 net.cpp:157] Top shape: 32 512 38 38 (23658496)
I0216 12:56:33.812361  4262 net.cpp:165] Memory required for data: 6505939008
I0216 12:56:33.812376  4262 layer_factory.hpp:77] Creating layer relu4_2
I0216 12:56:33.812386  4262 net.cpp:100] Creating Layer relu4_2
I0216 12:56:33.812392  4262 net.cpp:434] relu4_2 <- conv4_2
I0216 12:56:33.812399  4262 net.cpp:395] relu4_2 -> conv4_2 (in-place)
I0216 12:56:33.812579  4262 net.cpp:150] Setting up relu4_2
I0216 12:56:33.812590  4262 net.cpp:157] Top shape: 32 512 38 38 (23658496)
I0216 12:56:33.812594  4262 net.cpp:165] Memory required for data: 6600572992
I0216 12:56:33.812597  4262 layer_factory.hpp:77] Creating layer conv4_3
I0216 12:56:33.812610  4262 net.cpp:100] Creating Layer conv4_3
I0216 12:56:33.812614  4262 net.cpp:434] conv4_3 <- conv4_2
I0216 12:56:33.812623  4262 net.cpp:408] conv4_3 -> conv4_3
I0216 12:56:33.833534  4262 net.cpp:150] Setting up conv4_3
I0216 12:56:33.833567  4262 net.cpp:157] Top shape: 32 512 38 38 (23658496)
I0216 12:56:33.833572  4262 net.cpp:165] Memory required for data: 6695206976
I0216 12:56:33.833603  4262 layer_factory.hpp:77] Creating layer relu4_3
I0216 12:56:33.833616  4262 net.cpp:100] Creating Layer relu4_3
I0216 12:56:33.833621  4262 net.cpp:434] relu4_3 <- conv4_3
I0216 12:56:33.833628  4262 net.cpp:395] relu4_3 -> conv4_3 (in-place)
I0216 12:56:33.833945  4262 net.cpp:150] Setting up relu4_3
I0216 12:56:33.833959  4262 net.cpp:157] Top shape: 32 512 38 38 (23658496)
I0216 12:56:33.833963  4262 net.cpp:165] Memory required for data: 6789840960
I0216 12:56:33.833967  4262 layer_factory.hpp:77] Creating layer conv4_3_relu4_3_0_split
I0216 12:56:33.833976  4262 net.cpp:100] Creating Layer conv4_3_relu4_3_0_split
I0216 12:56:33.833979  4262 net.cpp:434] conv4_3_relu4_3_0_split <- conv4_3
I0216 12:56:33.833986  4262 net.cpp:408] conv4_3_relu4_3_0_split -> conv4_3_relu4_3_0_split_0
I0216 12:56:33.833994  4262 net.cpp:408] conv4_3_relu4_3_0_split -> conv4_3_relu4_3_0_split_1
I0216 12:56:33.834038  4262 net.cpp:150] Setting up conv4_3_relu4_3_0_split
I0216 12:56:33.834048  4262 net.cpp:157] Top shape: 32 512 38 38 (23658496)
I0216 12:56:33.834053  4262 net.cpp:157] Top shape: 32 512 38 38 (23658496)
I0216 12:56:33.834055  4262 net.cpp:165] Memory required for data: 6979108928
I0216 12:56:33.834059  4262 layer_factory.hpp:77] Creating layer pool4
I0216 12:56:33.834066  4262 net.cpp:100] Creating Layer pool4
I0216 12:56:33.834070  4262 net.cpp:434] pool4 <- conv4_3_relu4_3_0_split_0
I0216 12:56:33.834075  4262 net.cpp:408] pool4 -> pool4
I0216 12:56:33.834115  4262 net.cpp:150] Setting up pool4
I0216 12:56:33.834120  4262 net.cpp:157] Top shape: 32 512 19 19 (5914624)
I0216 12:56:33.834123  4262 net.cpp:165] Memory required for data: 7002767424
I0216 12:56:33.834126  4262 layer_factory.hpp:77] Creating layer conv5_1
I0216 12:56:33.834139  4262 net.cpp:100] Creating Layer conv5_1
I0216 12:56:33.834143  4262 net.cpp:434] conv5_1 <- pool4
I0216 12:56:33.834151  4262 net.cpp:408] conv5_1 -> conv5_1
I0216 12:56:33.855051  4262 net.cpp:150] Setting up conv5_1
I0216 12:56:33.855084  4262 net.cpp:157] Top shape: 32 512 19 19 (5914624)
I0216 12:56:33.855089  4262 net.cpp:165] Memory required for data: 7026425920
I0216 12:56:33.855099  4262 layer_factory.hpp:77] Creating layer relu5_1
I0216 12:56:33.855111  4262 net.cpp:100] Creating Layer relu5_1
I0216 12:56:33.855116  4262 net.cpp:434] relu5_1 <- conv5_1
I0216 12:56:33.855124  4262 net.cpp:395] relu5_1 -> conv5_1 (in-place)
I0216 12:56:33.855430  4262 net.cpp:150] Setting up relu5_1
I0216 12:56:33.855444  4262 net.cpp:157] Top shape: 32 512 19 19 (5914624)
I0216 12:56:33.855448  4262 net.cpp:165] Memory required for data: 7050084416
I0216 12:56:33.855451  4262 layer_factory.hpp:77] Creating layer conv5_2
I0216 12:56:33.855464  4262 net.cpp:100] Creating Layer conv5_2
I0216 12:56:33.855469  4262 net.cpp:434] conv5_2 <- conv5_1
I0216 12:56:33.855476  4262 net.cpp:408] conv5_2 -> conv5_2
I0216 12:56:33.861573  4279 blocking_queue.cpp:50] Waiting for data
I0216 12:56:33.876502  4262 net.cpp:150] Setting up conv5_2
I0216 12:56:33.876524  4262 net.cpp:157] Top shape: 32 512 19 19 (5914624)
I0216 12:56:33.876529  4262 net.cpp:165] Memory required for data: 7073742912
I0216 12:56:33.876538  4262 layer_factory.hpp:77] Creating layer relu5_2
I0216 12:56:33.876549  4262 net.cpp:100] Creating Layer relu5_2
I0216 12:56:33.876554  4262 net.cpp:434] relu5_2 <- conv5_2
I0216 12:56:33.876561  4262 net.cpp:395] relu5_2 -> conv5_2 (in-place)
I0216 12:56:33.876737  4262 net.cpp:150] Setting up relu5_2
I0216 12:56:33.876749  4262 net.cpp:157] Top shape: 32 512 19 19 (5914624)
I0216 12:56:33.876752  4262 net.cpp:165] Memory required for data: 7097401408
I0216 12:56:33.876756  4262 layer_factory.hpp:77] Creating layer conv5_3
I0216 12:56:33.876767  4262 net.cpp:100] Creating Layer conv5_3
I0216 12:56:33.876772  4262 net.cpp:434] conv5_3 <- conv5_2
I0216 12:56:33.876781  4262 net.cpp:408] conv5_3 -> conv5_3
I0216 12:56:33.897547  4262 net.cpp:150] Setting up conv5_3
I0216 12:56:33.897568  4262 net.cpp:157] Top shape: 32 512 19 19 (5914624)
I0216 12:56:33.897573  4262 net.cpp:165] Memory required for data: 7121059904
I0216 12:56:33.897599  4262 layer_factory.hpp:77] Creating layer relu5_3
I0216 12:56:33.897615  4262 net.cpp:100] Creating Layer relu5_3
I0216 12:56:33.897620  4262 net.cpp:434] relu5_3 <- conv5_3
I0216 12:56:33.897626  4262 net.cpp:395] relu5_3 -> conv5_3 (in-place)
I0216 12:56:33.897938  4262 net.cpp:150] Setting up relu5_3
I0216 12:56:33.897953  4262 net.cpp:157] Top shape: 32 512 19 19 (5914624)
I0216 12:56:33.897958  4262 net.cpp:165] Memory required for data: 7144718400
I0216 12:56:33.897961  4262 layer_factory.hpp:77] Creating layer pool5
I0216 12:56:33.897969  4262 net.cpp:100] Creating Layer pool5
I0216 12:56:33.897974  4262 net.cpp:434] pool5 <- conv5_3
I0216 12:56:33.897979  4262 net.cpp:408] pool5 -> pool5
I0216 12:56:33.898027  4262 net.cpp:150] Setting up pool5
I0216 12:56:33.898036  4262 net.cpp:157] Top shape: 32 512 19 19 (5914624)
I0216 12:56:33.898039  4262 net.cpp:165] Memory required for data: 7168376896
I0216 12:56:33.898042  4262 layer_factory.hpp:77] Creating layer fc6
I0216 12:56:33.898056  4262 net.cpp:100] Creating Layer fc6
I0216 12:56:33.898059  4262 net.cpp:434] fc6 <- pool5
I0216 12:56:33.898066  4262 net.cpp:408] fc6 -> fc6
I0216 12:56:33.938446  4262 net.cpp:150] Setting up fc6
I0216 12:56:33.938482  4262 net.cpp:157] Top shape: 32 1024 19 19 (11829248)
I0216 12:56:33.938488  4262 net.cpp:165] Memory required for data: 7215693888
I0216 12:56:33.938496  4262 layer_factory.hpp:77] Creating layer relu6
I0216 12:56:33.938509  4262 net.cpp:100] Creating Layer relu6
I0216 12:56:33.938514  4262 net.cpp:434] relu6 <- fc6
I0216 12:56:33.938527  4262 net.cpp:395] relu6 -> fc6 (in-place)
I0216 12:56:33.938781  4262 net.cpp:150] Setting up relu6
I0216 12:56:33.938794  4262 net.cpp:157] Top shape: 32 1024 19 19 (11829248)
I0216 12:56:33.938798  4262 net.cpp:165] Memory required for data: 7263010880
I0216 12:56:33.938802  4262 layer_factory.hpp:77] Creating layer fc7
I0216 12:56:33.938815  4262 net.cpp:100] Creating Layer fc7
I0216 12:56:33.938820  4262 net.cpp:434] fc7 <- fc6
I0216 12:56:33.938827  4262 net.cpp:408] fc7 -> fc7
I0216 12:56:33.948843  4262 net.cpp:150] Setting up fc7
I0216 12:56:33.948863  4262 net.cpp:157] Top shape: 32 1024 19 19 (11829248)
I0216 12:56:33.948866  4262 net.cpp:165] Memory required for data: 7310327872
I0216 12:56:33.948874  4262 layer_factory.hpp:77] Creating layer relu7
I0216 12:56:33.948881  4262 net.cpp:100] Creating Layer relu7
I0216 12:56:33.948885  4262 net.cpp:434] relu7 <- fc7
I0216 12:56:33.948891  4262 net.cpp:395] relu7 -> fc7 (in-place)
I0216 12:56:33.949198  4262 net.cpp:150] Setting up relu7
I0216 12:56:33.949211  4262 net.cpp:157] Top shape: 32 1024 19 19 (11829248)
I0216 12:56:33.949215  4262 net.cpp:165] Memory required for data: 7357644864
I0216 12:56:33.949219  4262 layer_factory.hpp:77] Creating layer fc7_relu7_0_split
I0216 12:56:33.949226  4262 net.cpp:100] Creating Layer fc7_relu7_0_split
I0216 12:56:33.949230  4262 net.cpp:434] fc7_relu7_0_split <- fc7
I0216 12:56:33.949237  4262 net.cpp:408] fc7_relu7_0_split -> fc7_relu7_0_split_0
I0216 12:56:33.949245  4262 net.cpp:408] fc7_relu7_0_split -> fc7_relu7_0_split_1
I0216 12:56:33.949256  4262 net.cpp:408] fc7_relu7_0_split -> fc7_relu7_0_split_2
I0216 12:56:33.949264  4262 net.cpp:408] fc7_relu7_0_split -> fc7_relu7_0_split_3
I0216 12:56:33.949334  4262 net.cpp:150] Setting up fc7_relu7_0_split
I0216 12:56:33.949340  4262 net.cpp:157] Top shape: 32 1024 19 19 (11829248)
I0216 12:56:33.949345  4262 net.cpp:157] Top shape: 32 1024 19 19 (11829248)
I0216 12:56:33.949350  4262 net.cpp:157] Top shape: 32 1024 19 19 (11829248)
I0216 12:56:33.949354  4262 net.cpp:157] Top shape: 32 1024 19 19 (11829248)
I0216 12:56:33.949357  4262 net.cpp:165] Memory required for data: 7546912832
I0216 12:56:33.949360  4262 layer_factory.hpp:77] Creating layer conv6_1
I0216 12:56:33.949371  4262 net.cpp:100] Creating Layer conv6_1
I0216 12:56:33.949375  4262 net.cpp:434] conv6_1 <- fc7_relu7_0_split_0
I0216 12:56:33.949383  4262 net.cpp:408] conv6_1 -> conv6_1
I0216 12:56:33.952778  4262 net.cpp:150] Setting up conv6_1
I0216 12:56:33.952808  4262 net.cpp:157] Top shape: 32 256 19 19 (2957312)
I0216 12:56:33.952813  4262 net.cpp:165] Memory required for data: 7558742080
I0216 12:56:33.952821  4262 layer_factory.hpp:77] Creating layer conv6_1_relu
I0216 12:56:33.952829  4262 net.cpp:100] Creating Layer conv6_1_relu
I0216 12:56:33.952836  4262 net.cpp:434] conv6_1_relu <- conv6_1
I0216 12:56:33.952841  4262 net.cpp:395] conv6_1_relu -> conv6_1 (in-place)
I0216 12:56:33.953160  4262 net.cpp:150] Setting up conv6_1_relu
I0216 12:56:33.953173  4262 net.cpp:157] Top shape: 32 256 19 19 (2957312)
I0216 12:56:33.953177  4262 net.cpp:165] Memory required for data: 7570571328
I0216 12:56:33.953181  4262 layer_factory.hpp:77] Creating layer conv6_2
I0216 12:56:33.953193  4262 net.cpp:100] Creating Layer conv6_2
I0216 12:56:33.953198  4262 net.cpp:434] conv6_2 <- conv6_1
I0216 12:56:33.953204  4262 net.cpp:408] conv6_2 -> conv6_2
I0216 12:56:33.964169  4262 net.cpp:150] Setting up conv6_2
I0216 12:56:33.964186  4262 net.cpp:157] Top shape: 32 512 10 10 (1638400)
I0216 12:56:33.964191  4262 net.cpp:165] Memory required for data: 7577124928
I0216 12:56:33.964206  4262 layer_factory.hpp:77] Creating layer conv6_2_relu
I0216 12:56:33.964215  4262 net.cpp:100] Creating Layer conv6_2_relu
I0216 12:56:33.964218  4262 net.cpp:434] conv6_2_relu <- conv6_2
I0216 12:56:33.964226  4262 net.cpp:395] conv6_2_relu -> conv6_2 (in-place)
I0216 12:56:33.964399  4262 net.cpp:150] Setting up conv6_2_relu
I0216 12:56:33.964411  4262 net.cpp:157] Top shape: 32 512 10 10 (1638400)
I0216 12:56:33.964414  4262 net.cpp:165] Memory required for data: 7583678528
I0216 12:56:33.964417  4262 layer_factory.hpp:77] Creating layer conv6_2_conv6_2_relu_0_split
I0216 12:56:33.964426  4262 net.cpp:100] Creating Layer conv6_2_conv6_2_relu_0_split
I0216 12:56:33.964429  4262 net.cpp:434] conv6_2_conv6_2_relu_0_split <- conv6_2
I0216 12:56:33.964434  4262 net.cpp:408] conv6_2_conv6_2_relu_0_split -> conv6_2_conv6_2_relu_0_split_0
I0216 12:56:33.964442  4262 net.cpp:408] conv6_2_conv6_2_relu_0_split -> conv6_2_conv6_2_relu_0_split_1
I0216 12:56:33.964449  4262 net.cpp:408] conv6_2_conv6_2_relu_0_split -> conv6_2_conv6_2_relu_0_split_2
I0216 12:56:33.964455  4262 net.cpp:408] conv6_2_conv6_2_relu_0_split -> conv6_2_conv6_2_relu_0_split_3
I0216 12:56:33.964524  4262 net.cpp:150] Setting up conv6_2_conv6_2_relu_0_split
I0216 12:56:33.964532  4262 net.cpp:157] Top shape: 32 512 10 10 (1638400)
I0216 12:56:33.964537  4262 net.cpp:157] Top shape: 32 512 10 10 (1638400)
I0216 12:56:33.964540  4262 net.cpp:157] Top shape: 32 512 10 10 (1638400)
I0216 12:56:33.964545  4262 net.cpp:157] Top shape: 32 512 10 10 (1638400)
I0216 12:56:33.964548  4262 net.cpp:165] Memory required for data: 7609892928
I0216 12:56:33.964551  4262 layer_factory.hpp:77] Creating layer conv7_1
I0216 12:56:33.964562  4262 net.cpp:100] Creating Layer conv7_1
I0216 12:56:33.964566  4262 net.cpp:434] conv7_1 <- conv6_2_conv6_2_relu_0_split_0
I0216 12:56:33.964574  4262 net.cpp:408] conv7_1 -> conv7_1
I0216 12:56:33.966114  4262 net.cpp:150] Setting up conv7_1
I0216 12:56:33.966130  4262 net.cpp:157] Top shape: 32 128 10 10 (409600)
I0216 12:56:33.966135  4262 net.cpp:165] Memory required for data: 7611531328
I0216 12:56:33.966142  4262 layer_factory.hpp:77] Creating layer conv7_1_relu
I0216 12:56:33.966150  4262 net.cpp:100] Creating Layer conv7_1_relu
I0216 12:56:33.966154  4262 net.cpp:434] conv7_1_relu <- conv7_1
I0216 12:56:33.966162  4262 net.cpp:395] conv7_1_relu -> conv7_1 (in-place)
I0216 12:56:33.966466  4262 net.cpp:150] Setting up conv7_1_relu
I0216 12:56:33.966480  4262 net.cpp:157] Top shape: 32 128 10 10 (409600)
I0216 12:56:33.966485  4262 net.cpp:165] Memory required for data: 7613169728
I0216 12:56:33.966490  4262 layer_factory.hpp:77] Creating layer conv7_2
I0216 12:56:33.966500  4262 net.cpp:100] Creating Layer conv7_2
I0216 12:56:33.966505  4262 net.cpp:434] conv7_2 <- conv7_1
I0216 12:56:33.966516  4262 net.cpp:408] conv7_2 -> conv7_2
I0216 12:56:33.970041  4262 net.cpp:150] Setting up conv7_2
I0216 12:56:33.970069  4262 net.cpp:157] Top shape: 32 256 5 5 (204800)
I0216 12:56:33.970074  4262 net.cpp:165] Memory required for data: 7613988928
I0216 12:56:33.970082  4262 layer_factory.hpp:77] Creating layer conv7_2_relu
I0216 12:56:33.970089  4262 net.cpp:100] Creating Layer conv7_2_relu
I0216 12:56:33.970094  4262 net.cpp:434] conv7_2_relu <- conv7_2
I0216 12:56:33.970101  4262 net.cpp:395] conv7_2_relu -> conv7_2 (in-place)
I0216 12:56:33.970413  4262 net.cpp:150] Setting up conv7_2_relu
I0216 12:56:33.970427  4262 net.cpp:157] Top shape: 32 256 5 5 (204800)
I0216 12:56:33.970432  4262 net.cpp:165] Memory required for data: 7614808128
I0216 12:56:33.970435  4262 layer_factory.hpp:77] Creating layer conv7_2_conv7_2_relu_0_split
I0216 12:56:33.970443  4262 net.cpp:100] Creating Layer conv7_2_conv7_2_relu_0_split
I0216 12:56:33.970446  4262 net.cpp:434] conv7_2_conv7_2_relu_0_split <- conv7_2
I0216 12:56:33.970454  4262 net.cpp:408] conv7_2_conv7_2_relu_0_split -> conv7_2_conv7_2_relu_0_split_0
I0216 12:56:33.970461  4262 net.cpp:408] conv7_2_conv7_2_relu_0_split -> conv7_2_conv7_2_relu_0_split_1
I0216 12:56:33.970468  4262 net.cpp:408] conv7_2_conv7_2_relu_0_split -> conv7_2_conv7_2_relu_0_split_2
I0216 12:56:33.970474  4262 net.cpp:408] conv7_2_conv7_2_relu_0_split -> conv7_2_conv7_2_relu_0_split_3
I0216 12:56:33.970551  4262 net.cpp:150] Setting up conv7_2_conv7_2_relu_0_split
I0216 12:56:33.970561  4262 net.cpp:157] Top shape: 32 256 5 5 (204800)
I0216 12:56:33.970564  4262 net.cpp:157] Top shape: 32 256 5 5 (204800)
I0216 12:56:33.970568  4262 net.cpp:157] Top shape: 32 256 5 5 (204800)
I0216 12:56:33.970572  4262 net.cpp:157] Top shape: 32 256 5 5 (204800)
I0216 12:56:33.970577  4262 net.cpp:165] Memory required for data: 7618084928
I0216 12:56:33.970579  4262 layer_factory.hpp:77] Creating layer conv8_1
I0216 12:56:33.970590  4262 net.cpp:100] Creating Layer conv8_1
I0216 12:56:33.970595  4262 net.cpp:434] conv8_1 <- conv7_2_conv7_2_relu_0_split_0
I0216 12:56:33.970603  4262 net.cpp:408] conv8_1 -> conv8_1
I0216 12:56:33.971889  4262 net.cpp:150] Setting up conv8_1
I0216 12:56:33.971904  4262 net.cpp:157] Top shape: 32 128 5 5 (102400)
I0216 12:56:33.971909  4262 net.cpp:165] Memory required for data: 7618494528
I0216 12:56:33.971915  4262 layer_factory.hpp:77] Creating layer conv8_1_relu
I0216 12:56:33.971927  4262 net.cpp:100] Creating Layer conv8_1_relu
I0216 12:56:33.971932  4262 net.cpp:434] conv8_1_relu <- conv8_1
I0216 12:56:33.971937  4262 net.cpp:395] conv8_1_relu -> conv8_1 (in-place)
I0216 12:56:33.972110  4262 net.cpp:150] Setting up conv8_1_relu
I0216 12:56:33.972121  4262 net.cpp:157] Top shape: 32 128 5 5 (102400)
I0216 12:56:33.972126  4262 net.cpp:165] Memory required for data: 7618904128
I0216 12:56:33.972128  4262 layer_factory.hpp:77] Creating layer conv8_2
I0216 12:56:33.972139  4262 net.cpp:100] Creating Layer conv8_2
I0216 12:56:33.972144  4262 net.cpp:434] conv8_2 <- conv8_1
I0216 12:56:33.972151  4262 net.cpp:408] conv8_2 -> conv8_2
I0216 12:56:33.975816  4262 net.cpp:150] Setting up conv8_2
I0216 12:56:33.975832  4262 net.cpp:157] Top shape: 32 256 3 3 (73728)
I0216 12:56:33.975836  4262 net.cpp:165] Memory required for data: 7619199040
I0216 12:56:33.975843  4262 layer_factory.hpp:77] Creating layer conv8_2_relu
I0216 12:56:33.975852  4262 net.cpp:100] Creating Layer conv8_2_relu
I0216 12:56:33.975857  4262 net.cpp:434] conv8_2_relu <- conv8_2
I0216 12:56:33.975864  4262 net.cpp:395] conv8_2_relu -> conv8_2 (in-place)
I0216 12:56:33.976171  4262 net.cpp:150] Setting up conv8_2_relu
I0216 12:56:33.976186  4262 net.cpp:157] Top shape: 32 256 3 3 (73728)
I0216 12:56:33.976189  4262 net.cpp:165] Memory required for data: 7619493952
I0216 12:56:33.976194  4262 layer_factory.hpp:77] Creating layer conv8_2_conv8_2_relu_0_split
I0216 12:56:33.976200  4262 net.cpp:100] Creating Layer conv8_2_conv8_2_relu_0_split
I0216 12:56:33.976204  4262 net.cpp:434] conv8_2_conv8_2_relu_0_split <- conv8_2
I0216 12:56:33.976212  4262 net.cpp:408] conv8_2_conv8_2_relu_0_split -> conv8_2_conv8_2_relu_0_split_0
I0216 12:56:33.976233  4262 net.cpp:408] conv8_2_conv8_2_relu_0_split -> conv8_2_conv8_2_relu_0_split_1
I0216 12:56:33.976239  4262 net.cpp:408] conv8_2_conv8_2_relu_0_split -> conv8_2_conv8_2_relu_0_split_2
I0216 12:56:33.976245  4262 net.cpp:408] conv8_2_conv8_2_relu_0_split -> conv8_2_conv8_2_relu_0_split_3
I0216 12:56:33.976320  4262 net.cpp:150] Setting up conv8_2_conv8_2_relu_0_split
I0216 12:56:33.976331  4262 net.cpp:157] Top shape: 32 256 3 3 (73728)
I0216 12:56:33.976336  4262 net.cpp:157] Top shape: 32 256 3 3 (73728)
I0216 12:56:33.976341  4262 net.cpp:157] Top shape: 32 256 3 3 (73728)
I0216 12:56:33.976346  4262 net.cpp:157] Top shape: 32 256 3 3 (73728)
I0216 12:56:33.976348  4262 net.cpp:165] Memory required for data: 7620673600
I0216 12:56:33.976352  4262 layer_factory.hpp:77] Creating layer conv9_1
I0216 12:56:33.976362  4262 net.cpp:100] Creating Layer conv9_1
I0216 12:56:33.976367  4262 net.cpp:434] conv9_1 <- conv8_2_conv8_2_relu_0_split_0
I0216 12:56:33.976374  4262 net.cpp:408] conv9_1 -> conv9_1
I0216 12:56:33.977537  4262 net.cpp:150] Setting up conv9_1
I0216 12:56:33.977552  4262 net.cpp:157] Top shape: 32 128 3 3 (36864)
I0216 12:56:33.977557  4262 net.cpp:165] Memory required for data: 7620821056
I0216 12:56:33.977565  4262 layer_factory.hpp:77] Creating layer conv9_1_relu
I0216 12:56:33.977571  4262 net.cpp:100] Creating Layer conv9_1_relu
I0216 12:56:33.977576  4262 net.cpp:434] conv9_1_relu <- conv9_1
I0216 12:56:33.977581  4262 net.cpp:395] conv9_1_relu -> conv9_1 (in-place)
I0216 12:56:33.977891  4262 net.cpp:150] Setting up conv9_1_relu
I0216 12:56:33.977905  4262 net.cpp:157] Top shape: 32 128 3 3 (36864)
I0216 12:56:33.977910  4262 net.cpp:165] Memory required for data: 7620968512
I0216 12:56:33.977913  4262 layer_factory.hpp:77] Creating layer conv9_2
I0216 12:56:33.977924  4262 net.cpp:100] Creating Layer conv9_2
I0216 12:56:33.977929  4262 net.cpp:434] conv9_2 <- conv9_1
I0216 12:56:33.977938  4262 net.cpp:408] conv9_2 -> conv9_2
I0216 12:56:33.981601  4262 net.cpp:150] Setting up conv9_2
I0216 12:56:33.981617  4262 net.cpp:157] Top shape: 32 256 1 1 (8192)
I0216 12:56:33.981621  4262 net.cpp:165] Memory required for data: 7621001280
I0216 12:56:33.981631  4262 layer_factory.hpp:77] Creating layer conv9_2_relu
I0216 12:56:33.981637  4262 net.cpp:100] Creating Layer conv9_2_relu
I0216 12:56:33.981642  4262 net.cpp:434] conv9_2_relu <- conv9_2
I0216 12:56:33.981649  4262 net.cpp:395] conv9_2_relu -> conv9_2 (in-place)
I0216 12:56:33.981832  4262 net.cpp:150] Setting up conv9_2_relu
I0216 12:56:33.981842  4262 net.cpp:157] Top shape: 32 256 1 1 (8192)
I0216 12:56:33.981847  4262 net.cpp:165] Memory required for data: 7621034048
I0216 12:56:33.981850  4262 layer_factory.hpp:77] Creating layer conv9_2_conv9_2_relu_0_split
I0216 12:56:33.981858  4262 net.cpp:100] Creating Layer conv9_2_conv9_2_relu_0_split
I0216 12:56:33.981863  4262 net.cpp:434] conv9_2_conv9_2_relu_0_split <- conv9_2
I0216 12:56:33.981868  4262 net.cpp:408] conv9_2_conv9_2_relu_0_split -> conv9_2_conv9_2_relu_0_split_0
I0216 12:56:33.981875  4262 net.cpp:408] conv9_2_conv9_2_relu_0_split -> conv9_2_conv9_2_relu_0_split_1
I0216 12:56:33.981883  4262 net.cpp:408] conv9_2_conv9_2_relu_0_split -> conv9_2_conv9_2_relu_0_split_2
I0216 12:56:33.981941  4262 net.cpp:150] Setting up conv9_2_conv9_2_relu_0_split
I0216 12:56:33.981948  4262 net.cpp:157] Top shape: 32 256 1 1 (8192)
I0216 12:56:33.981953  4262 net.cpp:157] Top shape: 32 256 1 1 (8192)
I0216 12:56:33.981957  4262 net.cpp:157] Top shape: 32 256 1 1 (8192)
I0216 12:56:33.981961  4262 net.cpp:165] Memory required for data: 7621132352
I0216 12:56:33.981964  4262 layer_factory.hpp:77] Creating layer conv4_3_norm
I0216 12:56:33.981972  4262 net.cpp:100] Creating Layer conv4_3_norm
I0216 12:56:33.981977  4262 net.cpp:434] conv4_3_norm <- conv4_3_relu4_3_0_split_1
I0216 12:56:33.981982  4262 net.cpp:408] conv4_3_norm -> conv4_3_norm
I0216 12:56:33.982146  4262 net.cpp:150] Setting up conv4_3_norm
I0216 12:56:33.982156  4262 net.cpp:157] Top shape: 32 512 38 38 (23658496)
I0216 12:56:33.982170  4262 net.cpp:165] Memory required for data: 7715766336
I0216 12:56:33.982177  4262 layer_factory.hpp:77] Creating layer conv4_3_norm_conv4_3_norm_0_split
I0216 12:56:33.982183  4262 net.cpp:100] Creating Layer conv4_3_norm_conv4_3_norm_0_split
I0216 12:56:33.982187  4262 net.cpp:434] conv4_3_norm_conv4_3_norm_0_split <- conv4_3_norm
I0216 12:56:33.982194  4262 net.cpp:408] conv4_3_norm_conv4_3_norm_0_split -> conv4_3_norm_conv4_3_norm_0_split_0
I0216 12:56:33.982201  4262 net.cpp:408] conv4_3_norm_conv4_3_norm_0_split -> conv4_3_norm_conv4_3_norm_0_split_1
I0216 12:56:33.982208  4262 net.cpp:408] conv4_3_norm_conv4_3_norm_0_split -> conv4_3_norm_conv4_3_norm_0_split_2
I0216 12:56:33.982259  4262 net.cpp:150] Setting up conv4_3_norm_conv4_3_norm_0_split
I0216 12:56:33.982265  4262 net.cpp:157] Top shape: 32 512 38 38 (23658496)
I0216 12:56:33.982270  4262 net.cpp:157] Top shape: 32 512 38 38 (23658496)
I0216 12:56:33.982275  4262 net.cpp:157] Top shape: 32 512 38 38 (23658496)
I0216 12:56:33.982277  4262 net.cpp:165] Memory required for data: 7999668288
I0216 12:56:33.982281  4262 layer_factory.hpp:77] Creating layer conv4_3_norm_mbox_loc
I0216 12:56:33.982291  4262 net.cpp:100] Creating Layer conv4_3_norm_mbox_loc
I0216 12:56:33.982295  4262 net.cpp:434] conv4_3_norm_mbox_loc <- conv4_3_norm_conv4_3_norm_0_split_0
I0216 12:56:33.982301  4262 net.cpp:408] conv4_3_norm_mbox_loc -> conv4_3_norm_mbox_loc
I0216 12:56:33.984042  4262 net.cpp:150] Setting up conv4_3_norm_mbox_loc
I0216 12:56:33.984058  4262 net.cpp:157] Top shape: 32 16 38 38 (739328)
I0216 12:56:33.984062  4262 net.cpp:165] Memory required for data: 8002625600
I0216 12:56:33.984071  4262 layer_factory.hpp:77] Creating layer conv4_3_norm_mbox_loc_perm
I0216 12:56:33.984086  4262 net.cpp:100] Creating Layer conv4_3_norm_mbox_loc_perm
I0216 12:56:33.984091  4262 net.cpp:434] conv4_3_norm_mbox_loc_perm <- conv4_3_norm_mbox_loc
I0216 12:56:33.984097  4262 net.cpp:408] conv4_3_norm_mbox_loc_perm -> conv4_3_norm_mbox_loc_perm
I0216 12:56:33.984218  4262 net.cpp:150] Setting up conv4_3_norm_mbox_loc_perm
I0216 12:56:33.984228  4262 net.cpp:157] Top shape: 32 38 38 16 (739328)
I0216 12:56:33.984231  4262 net.cpp:165] Memory required for data: 8005582912
I0216 12:56:33.984236  4262 layer_factory.hpp:77] Creating layer conv4_3_norm_mbox_loc_flat
I0216 12:56:33.984242  4262 net.cpp:100] Creating Layer conv4_3_norm_mbox_loc_flat
I0216 12:56:33.984246  4262 net.cpp:434] conv4_3_norm_mbox_loc_flat <- conv4_3_norm_mbox_loc_perm
I0216 12:56:33.984253  4262 net.cpp:408] conv4_3_norm_mbox_loc_flat -> conv4_3_norm_mbox_loc_flat
I0216 12:56:33.984288  4262 net.cpp:150] Setting up conv4_3_norm_mbox_loc_flat
I0216 12:56:33.984297  4262 net.cpp:157] Top shape: 32 23104 (739328)
I0216 12:56:33.984300  4262 net.cpp:165] Memory required for data: 8008540224
I0216 12:56:33.984303  4262 layer_factory.hpp:77] Creating layer conv4_3_norm_mbox_conf
I0216 12:56:33.984320  4262 net.cpp:100] Creating Layer conv4_3_norm_mbox_conf
I0216 12:56:33.984325  4262 net.cpp:434] conv4_3_norm_mbox_conf <- conv4_3_norm_conv4_3_norm_0_split_1
I0216 12:56:33.984333  4262 net.cpp:408] conv4_3_norm_mbox_conf -> conv4_3_norm_mbox_conf
I0216 12:56:33.988926  4262 net.cpp:150] Setting up conv4_3_norm_mbox_conf
I0216 12:56:33.988943  4262 net.cpp:157] Top shape: 32 88 38 38 (4066304)
I0216 12:56:33.988947  4262 net.cpp:165] Memory required for data: 8024805440
I0216 12:56:33.988955  4262 layer_factory.hpp:77] Creating layer conv4_3_norm_mbox_conf_perm
I0216 12:56:33.988963  4262 net.cpp:100] Creating Layer conv4_3_norm_mbox_conf_perm
I0216 12:56:33.988968  4262 net.cpp:434] conv4_3_norm_mbox_conf_perm <- conv4_3_norm_mbox_conf
I0216 12:56:33.988975  4262 net.cpp:408] conv4_3_norm_mbox_conf_perm -> conv4_3_norm_mbox_conf_perm
I0216 12:56:33.989089  4262 net.cpp:150] Setting up conv4_3_norm_mbox_conf_perm
I0216 12:56:33.989099  4262 net.cpp:157] Top shape: 32 38 38 88 (4066304)
I0216 12:56:33.989102  4262 net.cpp:165] Memory required for data: 8041070656
I0216 12:56:33.989116  4262 layer_factory.hpp:77] Creating layer conv4_3_norm_mbox_conf_flat
I0216 12:56:33.989123  4262 net.cpp:100] Creating Layer conv4_3_norm_mbox_conf_flat
I0216 12:56:33.989128  4262 net.cpp:434] conv4_3_norm_mbox_conf_flat <- conv4_3_norm_mbox_conf_perm
I0216 12:56:33.989135  4262 net.cpp:408] conv4_3_norm_mbox_conf_flat -> conv4_3_norm_mbox_conf_flat
I0216 12:56:33.989163  4262 net.cpp:150] Setting up conv4_3_norm_mbox_conf_flat
I0216 12:56:33.989171  4262 net.cpp:157] Top shape: 32 127072 (4066304)
I0216 12:56:33.989174  4262 net.cpp:165] Memory required for data: 8057335872
I0216 12:56:33.989177  4262 layer_factory.hpp:77] Creating layer conv4_3_norm_mbox_priorbox
I0216 12:56:33.989189  4262 net.cpp:100] Creating Layer conv4_3_norm_mbox_priorbox
I0216 12:56:33.989193  4262 net.cpp:434] conv4_3_norm_mbox_priorbox <- conv4_3_norm_conv4_3_norm_0_split_2
I0216 12:56:33.989199  4262 net.cpp:434] conv4_3_norm_mbox_priorbox <- data_data_0_split_1
I0216 12:56:33.989207  4262 net.cpp:408] conv4_3_norm_mbox_priorbox -> conv4_3_norm_mbox_priorbox
I0216 12:56:33.989238  4262 net.cpp:150] Setting up conv4_3_norm_mbox_priorbox
I0216 12:56:33.989246  4262 net.cpp:157] Top shape: 1 2 23104 (46208)
I0216 12:56:33.989250  4262 net.cpp:165] Memory required for data: 8057520704
I0216 12:56:33.989253  4262 layer_factory.hpp:77] Creating layer fc7_mbox_loc
I0216 12:56:33.989264  4262 net.cpp:100] Creating Layer fc7_mbox_loc
I0216 12:56:33.989269  4262 net.cpp:434] fc7_mbox_loc <- fc7_relu7_0_split_1
I0216 12:56:33.989276  4262 net.cpp:408] fc7_mbox_loc -> fc7_mbox_loc
I0216 12:56:33.992409  4262 net.cpp:150] Setting up fc7_mbox_loc
I0216 12:56:33.992427  4262 net.cpp:157] Top shape: 32 24 19 19 (277248)
I0216 12:56:33.992431  4262 net.cpp:165] Memory required for data: 8058629696
I0216 12:56:33.992439  4262 layer_factory.hpp:77] Creating layer fc7_mbox_loc_perm
I0216 12:56:33.992447  4262 net.cpp:100] Creating Layer fc7_mbox_loc_perm
I0216 12:56:33.992451  4262 net.cpp:434] fc7_mbox_loc_perm <- fc7_mbox_loc
I0216 12:56:33.992460  4262 net.cpp:408] fc7_mbox_loc_perm -> fc7_mbox_loc_perm
I0216 12:56:33.992578  4262 net.cpp:150] Setting up fc7_mbox_loc_perm
I0216 12:56:33.992586  4262 net.cpp:157] Top shape: 32 19 19 24 (277248)
I0216 12:56:33.992589  4262 net.cpp:165] Memory required for data: 8059738688
I0216 12:56:33.992594  4262 layer_factory.hpp:77] Creating layer fc7_mbox_loc_flat
I0216 12:56:33.992599  4262 net.cpp:100] Creating Layer fc7_mbox_loc_flat
I0216 12:56:33.992604  4262 net.cpp:434] fc7_mbox_loc_flat <- fc7_mbox_loc_perm
I0216 12:56:33.992609  4262 net.cpp:408] fc7_mbox_loc_flat -> fc7_mbox_loc_flat
I0216 12:56:33.992635  4262 net.cpp:150] Setting up fc7_mbox_loc_flat
I0216 12:56:33.992641  4262 net.cpp:157] Top shape: 32 8664 (277248)
I0216 12:56:33.992645  4262 net.cpp:165] Memory required for data: 8060847680
I0216 12:56:33.992648  4262 layer_factory.hpp:77] Creating layer fc7_mbox_conf
I0216 12:56:33.992658  4262 net.cpp:100] Creating Layer fc7_mbox_conf
I0216 12:56:33.992662  4262 net.cpp:434] fc7_mbox_conf <- fc7_relu7_0_split_2
I0216 12:56:33.992671  4262 net.cpp:408] fc7_mbox_conf -> fc7_mbox_conf
I0216 12:56:34.003842  4262 net.cpp:150] Setting up fc7_mbox_conf
I0216 12:56:34.003860  4262 net.cpp:157] Top shape: 32 132 19 19 (1524864)
I0216 12:56:34.003865  4262 net.cpp:165] Memory required for data: 8066947136
I0216 12:56:34.003871  4262 layer_factory.hpp:77] Creating layer fc7_mbox_conf_perm
I0216 12:56:34.003881  4262 net.cpp:100] Creating Layer fc7_mbox_conf_perm
I0216 12:56:34.003886  4262 net.cpp:434] fc7_mbox_conf_perm <- fc7_mbox_conf
I0216 12:56:34.003895  4262 net.cpp:408] fc7_mbox_conf_perm -> fc7_mbox_conf_perm
I0216 12:56:34.004011  4262 net.cpp:150] Setting up fc7_mbox_conf_perm
I0216 12:56:34.004020  4262 net.cpp:157] Top shape: 32 19 19 132 (1524864)
I0216 12:56:34.004024  4262 net.cpp:165] Memory required for data: 8073046592
I0216 12:56:34.004027  4262 layer_factory.hpp:77] Creating layer fc7_mbox_conf_flat
I0216 12:56:34.004035  4262 net.cpp:100] Creating Layer fc7_mbox_conf_flat
I0216 12:56:34.004050  4262 net.cpp:434] fc7_mbox_conf_flat <- fc7_mbox_conf_perm
I0216 12:56:34.004057  4262 net.cpp:408] fc7_mbox_conf_flat -> fc7_mbox_conf_flat
I0216 12:56:34.004086  4262 net.cpp:150] Setting up fc7_mbox_conf_flat
I0216 12:56:34.004094  4262 net.cpp:157] Top shape: 32 47652 (1524864)
I0216 12:56:34.004098  4262 net.cpp:165] Memory required for data: 8079146048
I0216 12:56:34.004101  4262 layer_factory.hpp:77] Creating layer fc7_mbox_priorbox
I0216 12:56:34.004109  4262 net.cpp:100] Creating Layer fc7_mbox_priorbox
I0216 12:56:34.004114  4262 net.cpp:434] fc7_mbox_priorbox <- fc7_relu7_0_split_3
I0216 12:56:34.004119  4262 net.cpp:434] fc7_mbox_priorbox <- data_data_0_split_2
I0216 12:56:34.004124  4262 net.cpp:408] fc7_mbox_priorbox -> fc7_mbox_priorbox
I0216 12:56:34.004153  4262 net.cpp:150] Setting up fc7_mbox_priorbox
I0216 12:56:34.004161  4262 net.cpp:157] Top shape: 1 2 8664 (17328)
I0216 12:56:34.004165  4262 net.cpp:165] Memory required for data: 8079215360
I0216 12:56:34.004168  4262 layer_factory.hpp:77] Creating layer conv6_2_mbox_loc
I0216 12:56:34.004179  4262 net.cpp:100] Creating Layer conv6_2_mbox_loc
I0216 12:56:34.004184  4262 net.cpp:434] conv6_2_mbox_loc <- conv6_2_conv6_2_relu_0_split_1
I0216 12:56:34.004191  4262 net.cpp:408] conv6_2_mbox_loc -> conv6_2_mbox_loc
I0216 12:56:34.006525  4262 net.cpp:150] Setting up conv6_2_mbox_loc
I0216 12:56:34.006546  4262 net.cpp:157] Top shape: 32 24 10 10 (76800)
I0216 12:56:34.006551  4262 net.cpp:165] Memory required for data: 8079522560
I0216 12:56:34.006558  4262 layer_factory.hpp:77] Creating layer conv6_2_mbox_loc_perm
I0216 12:56:34.006566  4262 net.cpp:100] Creating Layer conv6_2_mbox_loc_perm
I0216 12:56:34.006570  4262 net.cpp:434] conv6_2_mbox_loc_perm <- conv6_2_mbox_loc
I0216 12:56:34.006577  4262 net.cpp:408] conv6_2_mbox_loc_perm -> conv6_2_mbox_loc_perm
I0216 12:56:34.006693  4262 net.cpp:150] Setting up conv6_2_mbox_loc_perm
I0216 12:56:34.006702  4262 net.cpp:157] Top shape: 32 10 10 24 (76800)
I0216 12:56:34.006706  4262 net.cpp:165] Memory required for data: 8079829760
I0216 12:56:34.006709  4262 layer_factory.hpp:77] Creating layer conv6_2_mbox_loc_flat
I0216 12:56:34.006716  4262 net.cpp:100] Creating Layer conv6_2_mbox_loc_flat
I0216 12:56:34.006721  4262 net.cpp:434] conv6_2_mbox_loc_flat <- conv6_2_mbox_loc_perm
I0216 12:56:34.006726  4262 net.cpp:408] conv6_2_mbox_loc_flat -> conv6_2_mbox_loc_flat
I0216 12:56:34.006752  4262 net.cpp:150] Setting up conv6_2_mbox_loc_flat
I0216 12:56:34.006757  4262 net.cpp:157] Top shape: 32 2400 (76800)
I0216 12:56:34.006762  4262 net.cpp:165] Memory required for data: 8080136960
I0216 12:56:34.006764  4262 layer_factory.hpp:77] Creating layer conv6_2_mbox_conf
I0216 12:56:34.006774  4262 net.cpp:100] Creating Layer conv6_2_mbox_conf
I0216 12:56:34.006778  4262 net.cpp:434] conv6_2_mbox_conf <- conv6_2_conv6_2_relu_0_split_2
I0216 12:56:34.006786  4262 net.cpp:408] conv6_2_mbox_conf -> conv6_2_mbox_conf
I0216 12:56:34.013065  4262 net.cpp:150] Setting up conv6_2_mbox_conf
I0216 12:56:34.013082  4262 net.cpp:157] Top shape: 32 132 10 10 (422400)
I0216 12:56:34.013087  4262 net.cpp:165] Memory required for data: 8081826560
I0216 12:56:34.013093  4262 layer_factory.hpp:77] Creating layer conv6_2_mbox_conf_perm
I0216 12:56:34.013103  4262 net.cpp:100] Creating Layer conv6_2_mbox_conf_perm
I0216 12:56:34.013106  4262 net.cpp:434] conv6_2_mbox_conf_perm <- conv6_2_mbox_conf
I0216 12:56:34.013114  4262 net.cpp:408] conv6_2_mbox_conf_perm -> conv6_2_mbox_conf_perm
I0216 12:56:34.013229  4262 net.cpp:150] Setting up conv6_2_mbox_conf_perm
I0216 12:56:34.013240  4262 net.cpp:157] Top shape: 32 10 10 132 (422400)
I0216 12:56:34.013243  4262 net.cpp:165] Memory required for data: 8083516160
I0216 12:56:34.013247  4262 layer_factory.hpp:77] Creating layer conv6_2_mbox_conf_flat
I0216 12:56:34.013253  4262 net.cpp:100] Creating Layer conv6_2_mbox_conf_flat
I0216 12:56:34.013257  4262 net.cpp:434] conv6_2_mbox_conf_flat <- conv6_2_mbox_conf_perm
I0216 12:56:34.013263  4262 net.cpp:408] conv6_2_mbox_conf_flat -> conv6_2_mbox_conf_flat
I0216 12:56:34.013304  4262 net.cpp:150] Setting up conv6_2_mbox_conf_flat
I0216 12:56:34.013311  4262 net.cpp:157] Top shape: 32 13200 (422400)
I0216 12:56:34.013319  4262 net.cpp:165] Memory required for data: 8085205760
I0216 12:56:34.013321  4262 layer_factory.hpp:77] Creating layer conv6_2_mbox_priorbox
I0216 12:56:34.013329  4262 net.cpp:100] Creating Layer conv6_2_mbox_priorbox
I0216 12:56:34.013334  4262 net.cpp:434] conv6_2_mbox_priorbox <- conv6_2_conv6_2_relu_0_split_3
I0216 12:56:34.013339  4262 net.cpp:434] conv6_2_mbox_priorbox <- data_data_0_split_3
I0216 12:56:34.013345  4262 net.cpp:408] conv6_2_mbox_priorbox -> conv6_2_mbox_priorbox
I0216 12:56:34.013378  4262 net.cpp:150] Setting up conv6_2_mbox_priorbox
I0216 12:56:34.013391  4262 net.cpp:157] Top shape: 1 2 2400 (4800)
I0216 12:56:34.013393  4262 net.cpp:165] Memory required for data: 8085224960
I0216 12:56:34.013397  4262 layer_factory.hpp:77] Creating layer conv7_2_mbox_loc
I0216 12:56:34.013407  4262 net.cpp:100] Creating Layer conv7_2_mbox_loc
I0216 12:56:34.013412  4262 net.cpp:434] conv7_2_mbox_loc <- conv7_2_conv7_2_relu_0_split_1
I0216 12:56:34.013422  4262 net.cpp:408] conv7_2_mbox_loc -> conv7_2_mbox_loc
I0216 12:56:34.015367  4262 net.cpp:150] Setting up conv7_2_mbox_loc
I0216 12:56:34.015383  4262 net.cpp:157] Top shape: 32 24 5 5 (19200)
I0216 12:56:34.015388  4262 net.cpp:165] Memory required for data: 8085301760
I0216 12:56:34.015394  4262 layer_factory.hpp:77] Creating layer conv7_2_mbox_loc_perm
I0216 12:56:34.015403  4262 net.cpp:100] Creating Layer conv7_2_mbox_loc_perm
I0216 12:56:34.015408  4262 net.cpp:434] conv7_2_mbox_loc_perm <- conv7_2_mbox_loc
I0216 12:56:34.015414  4262 net.cpp:408] conv7_2_mbox_loc_perm -> conv7_2_mbox_loc_perm
I0216 12:56:34.015529  4262 net.cpp:150] Setting up conv7_2_mbox_loc_perm
I0216 12:56:34.015538  4262 net.cpp:157] Top shape: 32 5 5 24 (19200)
I0216 12:56:34.015542  4262 net.cpp:165] Memory required for data: 8085378560
I0216 12:56:34.015545  4262 layer_factory.hpp:77] Creating layer conv7_2_mbox_loc_flat
I0216 12:56:34.015552  4262 net.cpp:100] Creating Layer conv7_2_mbox_loc_flat
I0216 12:56:34.015555  4262 net.cpp:434] conv7_2_mbox_loc_flat <- conv7_2_mbox_loc_perm
I0216 12:56:34.015563  4262 net.cpp:408] conv7_2_mbox_loc_flat -> conv7_2_mbox_loc_flat
I0216 12:56:34.015588  4262 net.cpp:150] Setting up conv7_2_mbox_loc_flat
I0216 12:56:34.015595  4262 net.cpp:157] Top shape: 32 600 (19200)
I0216 12:56:34.015599  4262 net.cpp:165] Memory required for data: 8085455360
I0216 12:56:34.015602  4262 layer_factory.hpp:77] Creating layer conv7_2_mbox_conf
I0216 12:56:34.015611  4262 net.cpp:100] Creating Layer conv7_2_mbox_conf
I0216 12:56:34.015616  4262 net.cpp:434] conv7_2_mbox_conf <- conv7_2_conv7_2_relu_0_split_2
I0216 12:56:34.015624  4262 net.cpp:408] conv7_2_mbox_conf -> conv7_2_mbox_conf
I0216 12:56:34.019423  4262 net.cpp:150] Setting up conv7_2_mbox_conf
I0216 12:56:34.019439  4262 net.cpp:157] Top shape: 32 132 5 5 (105600)
I0216 12:56:34.019444  4262 net.cpp:165] Memory required for data: 8085877760
I0216 12:56:34.019451  4262 layer_factory.hpp:77] Creating layer conv7_2_mbox_conf_perm
I0216 12:56:34.019461  4262 net.cpp:100] Creating Layer conv7_2_mbox_conf_perm
I0216 12:56:34.019465  4262 net.cpp:434] conv7_2_mbox_conf_perm <- conv7_2_mbox_conf
I0216 12:56:34.019472  4262 net.cpp:408] conv7_2_mbox_conf_perm -> conv7_2_mbox_conf_perm
I0216 12:56:34.019593  4262 net.cpp:150] Setting up conv7_2_mbox_conf_perm
I0216 12:56:34.019600  4262 net.cpp:157] Top shape: 32 5 5 132 (105600)
I0216 12:56:34.019604  4262 net.cpp:165] Memory required for data: 8086300160
I0216 12:56:34.019608  4262 layer_factory.hpp:77] Creating layer conv7_2_mbox_conf_flat
I0216 12:56:34.019614  4262 net.cpp:100] Creating Layer conv7_2_mbox_conf_flat
I0216 12:56:34.019618  4262 net.cpp:434] conv7_2_mbox_conf_flat <- conv7_2_mbox_conf_perm
I0216 12:56:34.019623  4262 net.cpp:408] conv7_2_mbox_conf_flat -> conv7_2_mbox_conf_flat
I0216 12:56:34.019651  4262 net.cpp:150] Setting up conv7_2_mbox_conf_flat
I0216 12:56:34.019672  4262 net.cpp:157] Top shape: 32 3300 (105600)
I0216 12:56:34.019678  4262 net.cpp:165] Memory required for data: 8086722560
I0216 12:56:34.019682  4262 layer_factory.hpp:77] Creating layer conv7_2_mbox_priorbox
I0216 12:56:34.019690  4262 net.cpp:100] Creating Layer conv7_2_mbox_priorbox
I0216 12:56:34.019693  4262 net.cpp:434] conv7_2_mbox_priorbox <- conv7_2_conv7_2_relu_0_split_3
I0216 12:56:34.019698  4262 net.cpp:434] conv7_2_mbox_priorbox <- data_data_0_split_4
I0216 12:56:34.019704  4262 net.cpp:408] conv7_2_mbox_priorbox -> conv7_2_mbox_priorbox
I0216 12:56:34.019737  4262 net.cpp:150] Setting up conv7_2_mbox_priorbox
I0216 12:56:34.019745  4262 net.cpp:157] Top shape: 1 2 600 (1200)
I0216 12:56:34.019748  4262 net.cpp:165] Memory required for data: 8086727360
I0216 12:56:34.019752  4262 layer_factory.hpp:77] Creating layer conv8_2_mbox_loc
I0216 12:56:34.019762  4262 net.cpp:100] Creating Layer conv8_2_mbox_loc
I0216 12:56:34.019768  4262 net.cpp:434] conv8_2_mbox_loc <- conv8_2_conv8_2_relu_0_split_1
I0216 12:56:34.019776  4262 net.cpp:408] conv8_2_mbox_loc -> conv8_2_mbox_loc
I0216 12:56:34.021067  4262 net.cpp:150] Setting up conv8_2_mbox_loc
I0216 12:56:34.021083  4262 net.cpp:157] Top shape: 32 16 3 3 (4608)
I0216 12:56:34.021091  4262 net.cpp:165] Memory required for data: 8086745792
I0216 12:56:34.021111  4262 layer_factory.hpp:77] Creating layer conv8_2_mbox_loc_perm
I0216 12:56:34.021121  4262 net.cpp:100] Creating Layer conv8_2_mbox_loc_perm
I0216 12:56:34.021126  4262 net.cpp:434] conv8_2_mbox_loc_perm <- conv8_2_mbox_loc
I0216 12:56:34.021132  4262 net.cpp:408] conv8_2_mbox_loc_perm -> conv8_2_mbox_loc_perm
I0216 12:56:34.021256  4262 net.cpp:150] Setting up conv8_2_mbox_loc_perm
I0216 12:56:34.021265  4262 net.cpp:157] Top shape: 32 3 3 16 (4608)
I0216 12:56:34.021270  4262 net.cpp:165] Memory required for data: 8086764224
I0216 12:56:34.021272  4262 layer_factory.hpp:77] Creating layer conv8_2_mbox_loc_flat
I0216 12:56:34.021278  4262 net.cpp:100] Creating Layer conv8_2_mbox_loc_flat
I0216 12:56:34.021283  4262 net.cpp:434] conv8_2_mbox_loc_flat <- conv8_2_mbox_loc_perm
I0216 12:56:34.021289  4262 net.cpp:408] conv8_2_mbox_loc_flat -> conv8_2_mbox_loc_flat
I0216 12:56:34.021317  4262 net.cpp:150] Setting up conv8_2_mbox_loc_flat
I0216 12:56:34.021325  4262 net.cpp:157] Top shape: 32 144 (4608)
I0216 12:56:34.021328  4262 net.cpp:165] Memory required for data: 8086782656
I0216 12:56:34.021332  4262 layer_factory.hpp:77] Creating layer conv8_2_mbox_conf
I0216 12:56:34.021342  4262 net.cpp:100] Creating Layer conv8_2_mbox_conf
I0216 12:56:34.021347  4262 net.cpp:434] conv8_2_mbox_conf <- conv8_2_conv8_2_relu_0_split_2
I0216 12:56:34.021355  4262 net.cpp:408] conv8_2_mbox_conf -> conv8_2_mbox_conf
I0216 12:56:34.024389  4262 net.cpp:150] Setting up conv8_2_mbox_conf
I0216 12:56:34.024405  4262 net.cpp:157] Top shape: 32 88 3 3 (25344)
I0216 12:56:34.024410  4262 net.cpp:165] Memory required for data: 8086884032
I0216 12:56:34.024416  4262 layer_factory.hpp:77] Creating layer conv8_2_mbox_conf_perm
I0216 12:56:34.024423  4262 net.cpp:100] Creating Layer conv8_2_mbox_conf_perm
I0216 12:56:34.024430  4262 net.cpp:434] conv8_2_mbox_conf_perm <- conv8_2_mbox_conf
I0216 12:56:34.024438  4262 net.cpp:408] conv8_2_mbox_conf_perm -> conv8_2_mbox_conf_perm
I0216 12:56:34.024561  4262 net.cpp:150] Setting up conv8_2_mbox_conf_perm
I0216 12:56:34.024569  4262 net.cpp:157] Top shape: 32 3 3 88 (25344)
I0216 12:56:34.024574  4262 net.cpp:165] Memory required for data: 8086985408
I0216 12:56:34.024577  4262 layer_factory.hpp:77] Creating layer conv8_2_mbox_conf_flat
I0216 12:56:34.024585  4262 net.cpp:100] Creating Layer conv8_2_mbox_conf_flat
I0216 12:56:34.024590  4262 net.cpp:434] conv8_2_mbox_conf_flat <- conv8_2_mbox_conf_perm
I0216 12:56:34.024595  4262 net.cpp:408] conv8_2_mbox_conf_flat -> conv8_2_mbox_conf_flat
I0216 12:56:34.024622  4262 net.cpp:150] Setting up conv8_2_mbox_conf_flat
I0216 12:56:34.024629  4262 net.cpp:157] Top shape: 32 792 (25344)
I0216 12:56:34.024632  4262 net.cpp:165] Memory required for data: 8087086784
I0216 12:56:34.024648  4262 layer_factory.hpp:77] Creating layer conv8_2_mbox_priorbox
I0216 12:56:34.024658  4262 net.cpp:100] Creating Layer conv8_2_mbox_priorbox
I0216 12:56:34.024664  4262 net.cpp:434] conv8_2_mbox_priorbox <- conv8_2_conv8_2_relu_0_split_3
I0216 12:56:34.024669  4262 net.cpp:434] conv8_2_mbox_priorbox <- data_data_0_split_5
I0216 12:56:34.024675  4262 net.cpp:408] conv8_2_mbox_priorbox -> conv8_2_mbox_priorbox
I0216 12:56:34.024709  4262 net.cpp:150] Setting up conv8_2_mbox_priorbox
I0216 12:56:34.024718  4262 net.cpp:157] Top shape: 1 2 144 (288)
I0216 12:56:34.024720  4262 net.cpp:165] Memory required for data: 8087087936
I0216 12:56:34.024724  4262 layer_factory.hpp:77] Creating layer conv9_2_mbox_loc
I0216 12:56:34.024735  4262 net.cpp:100] Creating Layer conv9_2_mbox_loc
I0216 12:56:34.024741  4262 net.cpp:434] conv9_2_mbox_loc <- conv9_2_conv9_2_relu_0_split_0
I0216 12:56:34.024749  4262 net.cpp:408] conv9_2_mbox_loc -> conv9_2_mbox_loc
I0216 12:56:34.026245  4262 net.cpp:150] Setting up conv9_2_mbox_loc
I0216 12:56:34.026262  4262 net.cpp:157] Top shape: 32 16 1 1 (512)
I0216 12:56:34.026267  4262 net.cpp:165] Memory required for data: 8087089984
I0216 12:56:34.026274  4262 layer_factory.hpp:77] Creating layer conv9_2_mbox_loc_perm
I0216 12:56:34.026284  4262 net.cpp:100] Creating Layer conv9_2_mbox_loc_perm
I0216 12:56:34.026290  4262 net.cpp:434] conv9_2_mbox_loc_perm <- conv9_2_mbox_loc
I0216 12:56:34.026298  4262 net.cpp:408] conv9_2_mbox_loc_perm -> conv9_2_mbox_loc_perm
I0216 12:56:34.026422  4262 net.cpp:150] Setting up conv9_2_mbox_loc_perm
I0216 12:56:34.026430  4262 net.cpp:157] Top shape: 32 1 1 16 (512)
I0216 12:56:34.026434  4262 net.cpp:165] Memory required for data: 8087092032
I0216 12:56:34.026437  4262 layer_factory.hpp:77] Creating layer conv9_2_mbox_loc_flat
I0216 12:56:34.026443  4262 net.cpp:100] Creating Layer conv9_2_mbox_loc_flat
I0216 12:56:34.026448  4262 net.cpp:434] conv9_2_mbox_loc_flat <- conv9_2_mbox_loc_perm
I0216 12:56:34.026454  4262 net.cpp:408] conv9_2_mbox_loc_flat -> conv9_2_mbox_loc_flat
I0216 12:56:34.026484  4262 net.cpp:150] Setting up conv9_2_mbox_loc_flat
I0216 12:56:34.026490  4262 net.cpp:157] Top shape: 32 16 (512)
I0216 12:56:34.026494  4262 net.cpp:165] Memory required for data: 8087094080
I0216 12:56:34.026496  4262 layer_factory.hpp:77] Creating layer conv9_2_mbox_conf
I0216 12:56:34.026509  4262 net.cpp:100] Creating Layer conv9_2_mbox_conf
I0216 12:56:34.026513  4262 net.cpp:434] conv9_2_mbox_conf <- conv9_2_conv9_2_relu_0_split_1
I0216 12:56:34.026526  4262 net.cpp:408] conv9_2_mbox_conf -> conv9_2_mbox_conf
I0216 12:56:34.029557  4262 net.cpp:150] Setting up conv9_2_mbox_conf
I0216 12:56:34.029573  4262 net.cpp:157] Top shape: 32 88 1 1 (2816)
I0216 12:56:34.029579  4262 net.cpp:165] Memory required for data: 8087105344
I0216 12:56:34.029587  4262 layer_factory.hpp:77] Creating layer conv9_2_mbox_conf_perm
I0216 12:56:34.029593  4262 net.cpp:100] Creating Layer conv9_2_mbox_conf_perm
I0216 12:56:34.029599  4262 net.cpp:434] conv9_2_mbox_conf_perm <- conv9_2_mbox_conf
I0216 12:56:34.029608  4262 net.cpp:408] conv9_2_mbox_conf_perm -> conv9_2_mbox_conf_perm
I0216 12:56:34.029732  4262 net.cpp:150] Setting up conv9_2_mbox_conf_perm
I0216 12:56:34.029741  4262 net.cpp:157] Top shape: 32 1 1 88 (2816)
I0216 12:56:34.029744  4262 net.cpp:165] Memory required for data: 8087116608
I0216 12:56:34.029748  4262 layer_factory.hpp:77] Creating layer conv9_2_mbox_conf_flat
I0216 12:56:34.029755  4262 net.cpp:100] Creating Layer conv9_2_mbox_conf_flat
I0216 12:56:34.029759  4262 net.cpp:434] conv9_2_mbox_conf_flat <- conv9_2_mbox_conf_perm
I0216 12:56:34.029765  4262 net.cpp:408] conv9_2_mbox_conf_flat -> conv9_2_mbox_conf_flat
I0216 12:56:34.029793  4262 net.cpp:150] Setting up conv9_2_mbox_conf_flat
I0216 12:56:34.029800  4262 net.cpp:157] Top shape: 32 88 (2816)
I0216 12:56:34.029804  4262 net.cpp:165] Memory required for data: 8087127872
I0216 12:56:34.029808  4262 layer_factory.hpp:77] Creating layer conv9_2_mbox_priorbox
I0216 12:56:34.029829  4262 net.cpp:100] Creating Layer conv9_2_mbox_priorbox
I0216 12:56:34.029834  4262 net.cpp:434] conv9_2_mbox_priorbox <- conv9_2_conv9_2_relu_0_split_2
I0216 12:56:34.029840  4262 net.cpp:434] conv9_2_mbox_priorbox <- data_data_0_split_6
I0216 12:56:34.029846  4262 net.cpp:408] conv9_2_mbox_priorbox -> conv9_2_mbox_priorbox
I0216 12:56:34.029880  4262 net.cpp:150] Setting up conv9_2_mbox_priorbox
I0216 12:56:34.029886  4262 net.cpp:157] Top shape: 1 2 16 (32)
I0216 12:56:34.029891  4262 net.cpp:165] Memory required for data: 8087128000
I0216 12:56:34.029893  4262 layer_factory.hpp:77] Creating layer mbox_loc
I0216 12:56:34.029907  4262 net.cpp:100] Creating Layer mbox_loc
I0216 12:56:34.029912  4262 net.cpp:434] mbox_loc <- conv4_3_norm_mbox_loc_flat
I0216 12:56:34.029918  4262 net.cpp:434] mbox_loc <- fc7_mbox_loc_flat
I0216 12:56:34.029923  4262 net.cpp:434] mbox_loc <- conv6_2_mbox_loc_flat
I0216 12:56:34.029927  4262 net.cpp:434] mbox_loc <- conv7_2_mbox_loc_flat
I0216 12:56:34.029932  4262 net.cpp:434] mbox_loc <- conv8_2_mbox_loc_flat
I0216 12:56:34.029937  4262 net.cpp:434] mbox_loc <- conv9_2_mbox_loc_flat
I0216 12:56:34.029943  4262 net.cpp:408] mbox_loc -> mbox_loc
I0216 12:56:34.029978  4262 net.cpp:150] Setting up mbox_loc
I0216 12:56:34.029985  4262 net.cpp:157] Top shape: 32 34928 (1117696)
I0216 12:56:34.029989  4262 net.cpp:165] Memory required for data: 8091598784
I0216 12:56:34.029992  4262 layer_factory.hpp:77] Creating layer mbox_conf
I0216 12:56:34.029999  4262 net.cpp:100] Creating Layer mbox_conf
I0216 12:56:34.030004  4262 net.cpp:434] mbox_conf <- conv4_3_norm_mbox_conf_flat
I0216 12:56:34.030009  4262 net.cpp:434] mbox_conf <- fc7_mbox_conf_flat
I0216 12:56:34.030012  4262 net.cpp:434] mbox_conf <- conv6_2_mbox_conf_flat
I0216 12:56:34.030017  4262 net.cpp:434] mbox_conf <- conv7_2_mbox_conf_flat
I0216 12:56:34.030021  4262 net.cpp:434] mbox_conf <- conv8_2_mbox_conf_flat
I0216 12:56:34.030026  4262 net.cpp:434] mbox_conf <- conv9_2_mbox_conf_flat
I0216 12:56:34.030032  4262 net.cpp:408] mbox_conf -> mbox_conf
I0216 12:56:34.030061  4262 net.cpp:150] Setting up mbox_conf
I0216 12:56:34.030067  4262 net.cpp:157] Top shape: 32 192104 (6147328)
I0216 12:56:34.030071  4262 net.cpp:165] Memory required for data: 8116188096
I0216 12:56:34.030074  4262 layer_factory.hpp:77] Creating layer mbox_priorbox
I0216 12:56:34.030081  4262 net.cpp:100] Creating Layer mbox_priorbox
I0216 12:56:34.030084  4262 net.cpp:434] mbox_priorbox <- conv4_3_norm_mbox_priorbox
I0216 12:56:34.030089  4262 net.cpp:434] mbox_priorbox <- fc7_mbox_priorbox
I0216 12:56:34.030094  4262 net.cpp:434] mbox_priorbox <- conv6_2_mbox_priorbox
I0216 12:56:34.030098  4262 net.cpp:434] mbox_priorbox <- conv7_2_mbox_priorbox
I0216 12:56:34.030102  4262 net.cpp:434] mbox_priorbox <- conv8_2_mbox_priorbox
I0216 12:56:34.030107  4262 net.cpp:434] mbox_priorbox <- conv9_2_mbox_priorbox
I0216 12:56:34.030112  4262 net.cpp:408] mbox_priorbox -> mbox_priorbox
I0216 12:56:34.030139  4262 net.cpp:150] Setting up mbox_priorbox
I0216 12:56:34.030146  4262 net.cpp:157] Top shape: 1 2 34928 (69856)
I0216 12:56:34.030149  4262 net.cpp:165] Memory required for data: 8116467520
I0216 12:56:34.030153  4262 layer_factory.hpp:77] Creating layer mbox_loss
I0216 12:56:34.030164  4262 net.cpp:100] Creating Layer mbox_loss
I0216 12:56:34.030169  4262 net.cpp:434] mbox_loss <- mbox_loc
I0216 12:56:34.030172  4262 net.cpp:434] mbox_loss <- mbox_conf
I0216 12:56:34.030176  4262 net.cpp:434] mbox_loss <- mbox_priorbox
…
layer {
  name: "data"
  type: "AnnotatedData"
  top: "data"
  top: "label"
  include {
    phase: TEST
  }
  transform_param {
    mean_value: 126
    mean_value: 100
    mean_value: 108
    mean_value: 113
    resize_param {
      prob: 1
      resize_mode: WARP
      height: 300
      width: 300
      interp_mode: LINEAR
    }
  }
  data_param {
    source: "examples/VOC0712/VOC0712_test_lmdb"
    batch_size: 1
    backend: LMDB
  }
  annotated_data_param {
    batch_sampler {
    }
    label_map_file: "data/VOC0712/labelmap_voc.prototxt"
  }
}
layer {
  name: "conv1_1_rgbd"
  type: "Convolution"
  bottom: "data"
  top: "conv1_1_rgbd"
  param {
    lr_mult: 1
    decay_mult: 1
  }
  param {
    lr_mult: 2
    decay_mult: 0
  }
  convolution_param {
    num_output: 64
    pad: 1
    kernel_size: 3
    weight_filler {
      type: "xavier"
    }
    bias_filler {
      type: "constant"
      value: 0
    }
  }
}
layer {
  name: "relu1_1"
  type: "ReLU"
  bottom: "conv1_1_rgbd"
  top: "conv1_1_rgbd"
}
layer {
  name: "conv1_2"
  type: "Convolution"
  bottom: "conv1_1_rgbd"
  top: "conv1_2"
  param {
    lr_mult: 1
    decay_mult: 1
  }
  param {
    lr_mult: 2
    decay_mult: 0
  }
  convolution_param {
    num_output: 64
    pad: 1
    kernel_size: 3
    weight_filler {
      type: "xavier"
    }
    bias_filler {
      type: "constant"
      value: 0
    }
  }
}
layer {
  name: "relu1_2"
  type: "ReLU"
  bottom: "conv1_2"
  top: "conv1_2"
}
layer {
  name: "pool1"
  type: "Pooling"
  bottom: "conv1_2"
  top: "pool1"
  pooling_param {
    pool: MAX
    kernel_size: 2
    stride: 2
  }
}
layer {
  name: "conv2_1"
  type: "Convolution"
  bottom: "pool1"
  top: "conv2_1"
  param {
    lr_mult: 1
    decay_mult: 1
  }
  param {
    lr_mult: 2
    decay_mult: 0
  }
  convolution_param {
    num_output: 128
    pad: 1
    kernel_size: 3
    weight_filler {
      type: "xavier"
    }
    bias_filler {
      type: "constant"
      value: 0
    }
  }
}
layer {
  name: "relu2_1"
  type: "ReLU"
  bottom: "conv2_1"
  top: "conv2_1"
}
layer {
  name: "conv2_2"
  type: "Convolution"
  bottom: "conv2_1"
  top: "conv2_2"
  param {
    lr_mult: 1
    decay_mult: 1
  }
  param {
    lr_mult: 2
    decay_mult: 0
  }
  convolution_param {
    num_output: 128
    pad: 1
    kernel_size: 3
    weight_filler {
      type: "xavier"
    }
    bias_filler {
      type: "constant"
      value: 0
    }
  }
}
layer {
  name: "relu2_2"
  type: "ReLU"
  bottom: "conv2_2"
  top: "conv2_2"
}
layer {
  name: "pool2"
  type: "Pooling"
  bottom: "conv2_2"
  top: "pool2"
  pooling_param {
    pool: MAX
    kernel_size: 2
    stride: 2
  }
}
layer {
  name: "conv3_1"
  type: "Convolution"
  bottom: "pool2"
  top: "conv3_1"
  param {
    lr_mult: 1
    decay_mult: 1
  }
  param {
    lr_mult: 2
    decay_mult: 0
  }
  convolution_param {
    num_output: 256
    pad: 1
    kernel_size: 3
    weight_filler {
      type: "xavier"
    }
    bias_filler {
      type: "constant"
      value: 0
    }
  }
}
layer {
  name: "relu3_1"
  type: "ReLU"
  bottom: "conv3_1"
  top: "conv3_1"
}
layer {
  name: "conv3_2"
  type: "Convolution"
  bottom: "conv3_1"
  top: "conv3_2"
  param {
    lr_mult: 1
    decay_mult: 1
  }
  param {
    lr_mult: 2
    decay_mult: 0
  }
  convolution_param {
    num_output: 256
    pad: 1
    kernel_size: 3
    weight_filler {
      type: "xavier"
    }
    bias_filler {
      type: "constant"
      value: 0
    }
  }
}
layer {
  name: "relu3_2"
  type: "ReLU"
  bottom: "conv3_2"
  top: "conv3_2"
}
layer {
  name: "conv3_3"
  type: "Convolution"
  bottom: "conv3_2"
  top: "conv3_3"
  param {
    lr_mult: 1
    decay_mult: 1
  }
  param {
    lr_mult: 2
    decay_mult: 0
  }
  convolution_param {
    num_output: 256
    pad: 1
    kernel_size: 3
    weight_filler {
      type: "xavier"
    }
    bias_filler {
      type: "constant"
      value: 0
    }
  }
}
layer {
  name: "relu3_3"
  type: "ReLU"
  bottom: "conv3_3"
  top: "conv3_3"
}
layer {
  name: "pool3"
  type: "Pooling"
  bottom: "conv3_3"
  top: "pool3"
  pooling_param {
    pool: MAX
    kernel_size: 2
    stride: 2
  }
}
layer {
  name: "conv4_1"
  type: "Convolution"
  bottom: "pool3"
  top: "conv4_1"
  param {
    lr_mult: 1
    decay_mult: 1
  }
  param {
    lr_mult: 2
    decay_mult: 0
  }
  convolution_param {
    num_output: 512
    pad: 1
    kernel_size: 3
    weight_filler {
      type: "xavier"
    }
    bias_filler {
      type: "constant"
      value: 0
    }
  }
}
layer {
  name: "relu4_1"
  type: "ReLU"
  bottom: "conv4_1"
  top: "conv4_1"
}
layer {
  name: "conv4_2"
  type: "Convolution"
  bottom: "conv4_1"
  top: "conv4_2"
  param {
    lr_mult: 1
    decay_mult: 1
  }
  param {
    lr_mult: 2
    decay_mult: 0
  }
  convolution_param {
    num_output: 512
    pad: 1
    kernel_size: 3
    weight_filler {
      type: "xavier"
    }
    bias_filler {
      type: "constant"
      value: 0
    }
  }
}
layer {
  name: "relu4_2"
  type: "ReLU"
  bottom: "conv4_2"
  top: "conv4_2"
}
layer {
  name: "conv4_3"
  type: "Convolution"
  bottom: "conv4_2"
  top: "conv4_3"
  param {
    lr_mult: 1
    decay_mult: 1
  }
  param {
    lr_mult: 2
    decay_mult: 0
  }
  convolution_param {
    num_output: 512
    pad: 1
    kernel_size: 3
    weight_filler {
      type: "xavier"
    }
    bias_filler {
      type: "constant"
      value: 0
    }
  }
}
layer {
  name: "relu4_3"
  type: "ReLU"
  bottom: "conv4_3"
  top: "conv4_3"
}
layer {
  name: "pool4"
  type: "Pooling"
  bottom: "conv4_3"
  top: "pool4"
  pooling_param {
    pool: MAX
    kernel_size: 2
    stride: 2
  }
}
layer {
  name: "conv5_1"
  type: "Convolution"
  bottom: "pool4"
  top: "conv5_1"
  param {
    lr_mult: 1
    decay_mult: 1
  }
  param {
    lr_mult: 2
    decay_mult: 0
  }
  convolution_param {
    num_output: 512
    pad: 1
    kernel_size: 3
    weight_filler {
      type: "xavier"
    }
    bias_filler {
      type: "constant"
      value: 0
    }
    dilation: 1
  }
}
layer {
  name: "relu5_1"
  type: "ReLU"
  bottom: "conv5_1"
  top: "conv5_1"
}
layer {
  name: "conv5_2"
  type: "Convolution"
  bottom: "conv5_1"
  top: "conv5_2"
  param {
    lr_mult: 1
    decay_mult: 1
  }
  param {
    lr_mult: 2
    decay_mult: 0
  }
  convolution_param {
    num_output: 512
    pad: 1
    kernel_size: 3
    weight_filler {
      type: "xavier"
    }
    bias_filler {
      type: "constant"
      value: 0
    }
    dilation: 1
  }
}
layer {
  name: "relu5_2"
  type: "ReLU"
  bottom: "conv5_2"
  top: "conv5_2"
}
layer {
  name: "conv5_3"
  type: "Convolution"
  bottom: "conv5_2"
  top: "conv5_3"
  param {
    lr_mult: 1
    decay_mult: 1
  }
  param {
    lr_mult: 2
    decay_mult: 0
  }
  convolution_param {
    num_output: 512
    pad: 1
    kernel_size: 3
    weight_filler {
      type: "xavier"
    }
    bias_filler {
      type: "constant"
      value: 0
    }
    dilation: 1
  }
}
layer {
  name: "relu5_3"
  type: "ReLU"
  bottom: "conv5_3"
  top: "conv5_3"
}
layer {
  name: "pool5"
  type: "Pooling"
  bottom: "conv5_3"
  top: "pool5"
  pooling_param {
    pool: MAX
    kernel_size: 3
    stride: 1
    pad: 1
  }
}
layer {
  name: "fc6"
  type: "Convolution"
  bottom: "pool5"
  top: "fc6"
  param {
    lr_mult: 1
    decay_mult: 1
  }
  param {
    lr_mult: 2
    decay_mult: 0
  }
  convolution_param {
    num_output: 1024
    pad: 6
    kernel_size: 3
    weight_filler {
      type: "xavier"
    }
    bias_filler {
      type: "constant"
      value: 0
    }
    dilation: 6
  }
}
layer {
  name: "relu6"
  type: "ReLU"
  bottom: "fc6"
  top: "fc6"
}
layer {
  name: "fc7"
  type: "Convolution"
  bottom: "fc6"
  top: "fc7"
  param {
    lr_mult: 1
    decay_mult: 1
  }
  param {
    lr_mult: 2
    decay_mult: 0
  }
  convolution_param {
    num_output: 1024
    kernel_size: 1
    weight_filler {
      type: "xavier"
    }
    bias_filler {
      type: "constant"
      value: 0
    }
  }
}
layer {
  name: "relu7"
  type: "ReLU"
  bottom: "fc7"
  top: "fc7"
}
layer {
  name: "conv6_1"
  type: "Convolution"
  bottom: "fc7"
  top: "conv6_1"
  param {
    lr_mult: 1
    decay_mult: 1
  }
  param {
    lr_mult: 2
    decay_mult: 0
  }
  convolution_param {
    num_output: 256
    pad: 0
    kernel_size: 1
    stride: 1
    weight_filler {
      type: "xavier"
    }
    bias_filler {
      type: "constant"
      value: 0
    }
  }
}
layer {
  name: "conv6_1_relu"
  type: "ReLU"
  bottom: "conv6_1"
  top: "conv6_1"
}
layer {
  name: "conv6_2"
  type: "Convolution"
  bottom: "conv6_1"
  top: "conv6_2"
  param {
    lr_mult: 1
    decay_mult: 1
  }
  param {
    lr_mult: 2
    decay_mult: 0
  }
  convolution_param {
    num_output: 512
    pad: 1
    kernel_size: 3
    stride: 2
    weight_filler {
      type: "xavier"
    }
    bias_filler {
      type: "constant"
      value: 0
    }
  }
}
layer {
  name: "conv6_2_relu"
  type: "ReLU"
  bottom: "conv6_2"
  top: "conv6_2"
}
layer {
  name: "conv7_1"
  type: "Convolution"
  bottom: "conv6_2"
  top: "conv7_1"
  param {
    lr_mult: 1
    decay_mult: 1
  }
  param {
    lr_mult: 2
    decay_mult: 0
  }
  convolution_param {
    num_output: 128
    pad: 0
    kernel_size: 1
    stride: 1
    weight_filler {
      type: "xavier"
    }
    bias_filler {
      type: "constant"
      value: 0
    }
  }
}
layer {
  name: "conv7_1_relu"
  type: "ReLU"
  bottom: "conv7_1"
  top: "conv7_1"
}
layer {
  name: "conv7_2"
  type: "Convolution"
  bottom: "conv7_1"
  top: "conv7_2"
  param {
    lr_mult: 1
    decay_mult: 1
  }
  param {
    lr_mult: 2
    decay_mult: 0
  }
  convolution_param {
    num_output: 256
    pad: 1
    kernel_size: 3
    stride: 2
    weight_filler {
      type: "xavier"
    }
    bias_filler {
      type: "constant"
      value: 0
    }
  }
}
layer {
  name: "conv7_2_relu"
  type: "ReLU"
  bottom: "conv7_2"
  top: "conv7_2"
}
layer {
  name: "conv8_1"
  type: "Convolution"
  bottom: "conv7_2"
  top: "conv8_1"
  param {
    lr_mult: 1
    decay_mult: 1
  }
  param {
    lr_mult: 2
    decay_mult: 0
  }
  convolution_param {
    num_output: 128
    pad: 0
    kernel_size: 1
    stride: 1
    weight_filler {
      type: "xavier"
    }
    bias_filler {
      type: "constant"
      value: 0
    }
  }
}
layer {
  name: "conv8_1_relu"
  type: "ReLU"
  bottom: "conv8_1"
  top: "conv8_1"
}
layer {
  name: "conv8_2"
  type: "Convolution"
  bottom: "conv8_1"
  top: "conv8_2"
  param {
    lr_mult: 1
    decay_mult: 1
  }
  param {
    lr_mult: 2
    decay_mult: 0
  }
  convolution_param {
    num_output: 256
    pad: 0
    kernel_size: 3
    stride: 1
    weight_filler {
      type: "xavier"
    }
    bias_filler {
      type: "constant"
      value: 0
    }
  }
}
layer {
  name: "conv8_2_relu"
  type: "ReLU"
  bottom: "conv8_2"
  top: "conv8_2"
}
layer {
  name: "conv9_1"
  type: "Convolution"
  bottom: "conv8_2"
  top: "conv9_1"
  param {
    lr_mult: 1
    decay_mult: 1
  }
  param {
    lr_mult: 2
    decay_mult: 0
  }
  convolution_param {
    num_output: 128
    pad: 0
    kernel_size: 1
    stride: 1
    weight_filler {
      type: "xavier"
    }
    bias_filler {
      type: "constant"
      value: 0
    }
  }
}
layer {
  name: "conv9_1_relu"
  type: "ReLU"
  bottom: "conv9_1"
  top: "conv9_1"
}
layer {
  name: "conv9_2"
  type: "Convolution"
  bottom: "conv9_1"
  top: "conv9_2"
  param {
    lr_mult: 1
    decay_mult: 1
  }
  param {
    lr_mult: 2
    decay_mult: 0
  }
  convolution_param {
    num_output: 256
    pad: 0
    kernel_size: 3
    stride: 1
    weight_filler {
      type: "xavier"
    }
    bias_filler {
      type: "constant"
      value: 0
    }
  }
}
layer {
  name: "conv9_2_relu"
  type: "ReLU"
  bottom: "conv9_2"
  top: "conv9_2"
}
layer {
  name: "conv4_3_norm"
  type: "Normalize"
  bottom: "conv4_3"
  top: "conv4_3_norm"
  norm_param {
    across_spatial: false
    scale_filler {
      type: "constant"
      value: 20
    }
    channel_shared: false
  }
}
layer {
  name: "conv4_3_norm_mbox_loc"
  type: "Convolution"
  bottom: "conv4_3_norm"
  top: "conv4_3_norm_mbox_loc"
  param {
    lr_mult: 1
    decay_mult: 1
  }
  param {
    lr_mult: 2
    decay_mult: 0
  }
  convolution_param {
    num_output: 16
    pad: 1
    kernel_size: 3
    stride: 1
    weight_filler {
      type: "xavier"
    }
    bias_filler {
      type: "constant"
      value: 0
    }
  }
}
layer {
  name: "conv4_3_norm_mbox_loc_perm"
  type: "Permute"
  bottom: "conv4_3_norm_mbox_loc"
  top: "conv4_3_norm_mbox_loc_perm"
  permute_param {
    order: 0
    order: 2
    order: 3
    order: 1
  }
}
layer {
  name: "conv4_3_norm_mbox_loc_flat"
  type: "Flatten"
  bottom: "conv4_3_norm_mbox_loc_perm"
  top: "conv4_3_norm_mbox_loc_flat"
  flatten_param {
    axis: 1
  }
}
layer {
  name: "conv4_3_norm_mbox_conf"
  type: "Convolution"
  bottom: "conv4_3_norm"
  top: "conv4_3_norm_mbox_conf"
  param {
    lr_mult: 1
    decay_mult: 1
  }
  param {
    lr_mult: 2
    decay_mult: 0
  }
  convolution_param {
    num_output: 88
    pad: 1
    kernel_size: 3
    stride: 1
    weight_filler {
      type: "xavier"
    }
    bias_filler {
      type: "constant"
      value: 0
    }
  }
}
layer {
  name: "conv4_3_norm_mbox_conf_perm"
  type: "Permute"
  bottom: "conv4_3_norm_mbox_conf"
  top: "conv4_3_norm_mbox_conf_perm"
  permute_param {
    order: 0
    order: 2
    order: 3
    order: 1
  }
}
layer {
  name: "conv4_3_norm_mbox_conf_flat"
  type: "Flatten"
  bottom: "conv4_3_norm_mbox_conf_perm"
  top: "conv4_3_norm_mbox_conf_flat"
  flatten_param {
    axis: 1
  }
}
layer {
  name: "conv4_3_norm_mbox_priorbox"
  type: "PriorBox"
  bottom: "conv4_3_norm"
  bottom: "data"
  top: "conv4_3_norm_mbox_priorbox"
  prior_box_param {
    min_size: 30
    max_size: 60
    aspect_ratio: 2
    flip: true
    clip: false
    variance: 0.1
    variance: 0.1
    variance: 0.2
    variance: 0.2
    step: 8
    offset: 0.5
  }
}
layer {
  name: "fc7_mbox_loc"
  type: "Convolution"
  bottom: "fc7"
  top: "fc7_mbox_loc"
  param {
    lr_mult: 1
    decay_mult: 1
  }
  param {
    lr_mult: 2
    decay_mult: 0
  }
  convolution_param {
    num_output: 24
    pad: 1
    kernel_size: 3
    stride: 1
    weight_filler {
      type: "xavier"
    }
    bias_filler {
      type: "constant"
      value: 0
    }
  }
}
layer {
  name: "fc7_mbox_loc_perm"
  type: "Permute"
  bottom: "fc7_mbox_loc"
  top: "fc7_mbox_loc_perm"
  permute_param {
    order: 0
    order: 2
    order: 3
    order: 1
  }
}
layer {
  name: "fc7_mbox_loc_flat"
  type: "Flatten"
  bottom: "fc7_mbox_loc_perm"
  top: "fc7_mbox_loc_flat"
  flatten_param {
    axis: 1
  }
}
layer {
  name: "fc7_mbox_conf"
  type: "Convolution"
  bottom: "fc7"
  top: "fc7_mbox_conf"
  param {
    lr_mult: 1
    decay_mult: 1
  }
  param {
    lr_mult: 2
    decay_mult: 0
  }
  convolution_param {
    num_output: 132
    pad: 1
    kernel_size: 3
    stride: 1
    weight_filler {
      type: "xavier"
    }
    bias_filler {
      type: "constant"
      value: 0
    }
  }
}
layer {
  name: "fc7_mbox_conf_perm"
  type: "Permute"
  bottom: "fc7_mbox_conf"
  top: "fc7_mbox_conf_perm"
  permute_param {
    order: 0
    order: 2
    order: 3
    order: 1
  }
}
layer {
  name: "fc7_mbox_conf_flat"
  type: "Flatten"
  bottom: "fc7_mbox_conf_perm"
  top: "fc7_mbox_conf_flat"
  flatten_param {
    axis: 1
  }
}
layer {
  name: "fc7_mbox_priorbox"
  type: "PriorBox"
  bottom: "fc7"
  bottom: "data"
  top: "fc7_mbox_priorbox"
  prior_box_param {
    min_size: 60
    max_size: 111
    aspect_ratio: 2
    aspect_ratio: 3
    flip: true
    clip: false
    variance: 0.1
    variance: 0.1
    variance: 0.2
    variance: 0.2
    step: 16
    offset: 0.5
  }
}
layer {
  name: "conv6_2_mbox_loc"
  type: "Convolution"
  bottom: "conv6_2"
  top: "conv6_2_mbox_loc"
  param {
    lr_mult: 1
    decay_mult: 1
  }
  param {
    lr_mult: 2
    decay_mult: 0
  }
  convolution_param {
    num_output: 24
    pad: 1
    kernel_size: 3
    stride: 1
    weight_filler {
      type: "xavier"
    }
    bias_filler {
      type: "constant"
      value: 0
    }
  }
}
layer {
  name: "conv6_2_mbox_loc_perm"
  type: "Permute"
  bottom: "conv6_2_mbox_loc"
  top: "conv6_2_mbox_loc_perm"
  permute_param {
    order: 0
    order: 2
    order: 3
    order: 1
  }
}
layer {
  name: "conv6_2_mbox_loc_flat"
  type: "Flatten"
  bottom: "conv6_2_mbox_loc_perm"
  top: "conv6_2_mbox_loc_flat"
  flatten_param {
    axis: 1
  }
}
layer {
  name: "conv6_2_mbox_conf"
  type: "Convolution"
  bottom: "conv6_2"
  top: "conv6_2_mbox_conf"
  param {
    lr_mult: 1
    decay_mult: 1
  }
  param {
    lr_mult: 2
    decay_mult: 0
  }
  convolution_param {
    num_output: 132
    pad: 1
    kernel_size: 3
    stride: 1
    weight_filler {
      type: "xavier"
    }
    bias_filler {
      type: "constant"
      value: 0
    }
  }
}
layer {
  name: "conv6_2_mbox_conf_perm"
  type: "Permute"
  bottom: "conv6_2_mbox_conf"
  top: "conv6_2_mbox_conf_perm"
  permute_param {
    order: 0
    order: 2
    order: 3
    order: 1
  }
}
layer {
  name: "conv6_2_mbox_conf_flat"
  type: "Flatten"
  bottom: "conv6_2_mbox_conf_perm"
  top: "conv6_2_mbox_conf_flat"
  flatten_param {
    axis: 1
  }
}
layer {
  name: "conv6_2_mbox_priorbox"
  type: "PriorBox"
  bottom: "conv6_2"
  bottom: "data"
  top: "conv6_2_mbox_priorbox"
  prior_box_param {
    min_size: 111
    max_size: 162
    aspect_ratio: 2
    aspect_ratio: 3
    flip: true
    clip: false
    variance: 0.1
    variance: 0.1
    variance: 0.2
    variance: 0.2
    step: 32
    offset: 0.5
  }
}
layer {
  name: "conv7_2_mbox_loc"
  type: "Convolution"
  bottom: "conv7_2"
  top: "conv7_2_mbox_loc"
  param {
    lr_mult: 1
    decay_mult: 1
  }
  param {
    lr_mult: 2
    decay_mult: 0
  }
  convolution_param {
    num_output: 24
    pad: 1
    kernel_size: 3
    stride: 1
    weight_filler {
      type: "xavier"
    }
    bias_filler {
      type: "constant"
      value: 0
    }
  }
}
layer {
  name: "conv7_2_mbox_loc_perm"
  type: "Permute"
  bottom: "conv7_2_mbox_loc"
  top: "conv7_2_mbox_loc_perm"
  permute_param {
    order: 0
    order: 2
    order: 3
    order: 1
  }
}
layer {
  name: "conv7_2_mbox_loc_flat"
  type: "Flatten"
  bottom: "conv7_2_mbox_loc_perm"
  top: "conv7_2_mbox_loc_flat"
  flatten_param {
    axis: 1
  }
}
layer {
  name: "conv7_2_mbox_conf"
  type: "Convolution"
  bottom: "conv7_2"
  top: "conv7_2_mbox_conf"
  param {
    lr_mult: 1
    decay_mult: 1
  }
  param {
    lr_mult: 2
    decay_mult: 0
  }
  convolution_param {
    num_output: 132
    pad: 1
    kernel_size: 3
    stride: 1
    weight_filler {
      type: "xavier"
    }
    bias_filler {
      type: "constant"
      value: 0
    }
  }
}
layer {
  name: "conv7_2_mbox_conf_perm"
  type: "Permute"
  bottom: "conv7_2_mbox_conf"
  top: "conv7_2_mbox_conf_perm"
  permute_param {
    order: 0
    order: 2
    order: 3
    order: 1
  }
}
layer {
  name: "conv7_2_mbox_conf_flat"
  type: "Flatten"
  bottom: "conv7_2_mbox_conf_perm"
  top: "conv7_2_mbox_conf_flat"
  flatten_param {
    axis: 1
  }
}
layer {
  name: "conv7_2_mbox_priorbox"
  type: "PriorBox"
  bottom: "conv7_2"
  bottom: "data"
  top: "conv7_2_mbox_priorbox"
  prior_box_param {
    min_size: 162
    max_size: 213
    aspect_ratio: 2
    aspect_ratio: 3
    flip: true
    clip: false
    variance: 0.1
    variance: 0.1
    variance: 0.2
    variance: 0.2
    step: 64
    offset: 0.5
  }
}
layer {
  name: "conv8_2_mbox_loc"
  type: "Convolution"
  bottom: "conv8_2"
  top: "conv8_2_mbox_loc"
  param {
    lr_mult: 1
    decay_mult: 1
  }
  param {
    lr_mult: 2
    decay_mult: 0
  }
  convolution_param {
    num_output: 16
    pad: 1
    kernel_size: 3
    stride: 1
    weight_filler {
      type: "xavier"
    }
    bias_filler {
      type: "constant"
      value: 0
    }
  }
}
layer {
  name: "conv8_2_mbox_loc_perm"
  type: "Permute"
  bottom: "conv8_2_mbox_loc"
  top: "conv8_2_mbox_loc_perm"
  permute_param {
    order: 0
    order: 2
    order: 3
    order: 1
  }
}
layer {
  name: "conv8_2_mbox_loc_flat"
  type: "Flatten"
  bottom: "conv8_2_mbox_loc_perm"
  top: "conv8_2_mbox_loc_flat"
  flatten_param {
    axis: 1
  }
}
layer {
  name: "conv8_2_mbox_conf"
  type: "Convolution"
  bottom: "conv8_2"
  top: "conv8_2_mbox_conf"
  param {
    lr_mult: 1
    decay_mult: 1
  }
  param {
    lr_mult: 2
    decay_mult: 0
  }
  convolution_param {
    num_output: 88
    pad: 1
    kernel_size: 3
    stride: 1
    weight_filler {
      type: "xavier"
    }
    bias_filler {
      type: "constant"
      value: 0
    }
  }
}
layer {
  name: "conv8_2_mbox_conf_perm"
  type: "Permute"
  bottom: "conv8_2_mbox_conf"
  top: "conv8_2_mbox_conf_perm"
  permute_param {
    order: 0
    order: 2
    order: 3
    order: 1
  }
}
layer {
  name: "conv8_2_mbox_conf_flat"
  type: "Flatten"
  bottom: "conv8_2_mbox_conf_perm"
  top: "conv8_2_mbox_conf_flat"
  flatten_param {
    axis: 1
  }
}
layer {
  name: "conv8_2_mbox_priorbox"
  type: "PriorBox"
  bottom: "conv8_2"
  bottom: "data"
  top: "conv8_2_mbox_priorbox"
  prior_box_param {
    min_size: 213
    max_size: 264
    aspect_ratio: 2
    flip: true
    clip: false
    variance: 0.1
    variance: 0.1
    variance: 0.2
    variance: 0.2
    step: 100
    offset: 0.5
  }
}
layer {
  name: "conv9_2_mbox_loc"
  type: "Convolution"
  bottom: "conv9_2"
  top: "conv9_2_mbox_loc"
  param {
    lr_mult: 1
    decay_mult: 1
  }
  param {
    lr_mult: 2
    decay_mult: 0
  }
  convolution_param {
    num_output: 16
    pad: 1
    kernel_size: 3
    stride: 1
    weight_filler {
      type: "xavier"
    }
    bias_filler {
      type: "constant"
      value: 0
    }
  }
}
layer {
  name: "conv9_2_mbox_loc_perm"
  type: "Permute"
  bottom: "conv9_2_mbox_loc"
  top: "conv9_2_mbox_loc_perm"
  permute_param {
    order: 0
    order: 2
    order: 3
    order: 1
  }
}
layer {
  name: "conv9_2_mbox_loc_flat"
  type: "Flatten"
  bottom: "conv9_2_mbox_loc_perm"
  top: "conv9_2_mbox_loc_flat"
  flatten_param {
    axis: 1
  }
}
layer {
  name: "conv9_2_mbox_conf"
  type: "Convolution"
  bottom: "conv9_2"
  top: "conv9_2_mbox_conf"
  param {
    lr_mult: 1
    decay_mult: 1
  }
  param {
    lr_mult: 2
    decay_mult: 0
  }
  convolution_param {
    num_output: 88
    pad: 1
    kernel_size: 3
    stride: 1
    weight_filler {
      type: "xavier"
    }
    bias_filler {
      type: "constant"
      value: 0
    }
  }
}
layer {
  name: "conv9_2_mbox_conf_perm"
  type: "Permute"
  bottom: "conv9_2_mbox_conf"
  top: "conv9_2_mbox_conf_perm"
  permute_param {
    order: 0
    order: 2
    order: 3
    order: 1
  }
}
layer {
  name: "conv9_2_mbox_conf_flat"
  type: "Flatten"
  bottom: "conv9_2_mbox_conf_perm"
  top: "conv9_2_mbox_conf_flat"
  flatten_param {
    axis: 1
  }
}
layer {
  name: "conv9_2_mbox_priorbox"
  type: "PriorBox"
  bottom: "conv9_2"
  bottom: "data"
  top: "conv9_2_mbox_priorbox"
  prior_box_param {
    min_size: 264
    max_size: 315
    aspect_ratio: 2
    flip: true
    clip: false
    variance: 0.1
    variance: 0.1
    variance: 0.2
    variance: 0.2
    step: 300
    offset: 0.5
  }
}
layer {
  name: "mbox_loc"
  type: "Concat"
  bottom: "conv4_3_norm_mbox_loc_flat"
  bottom: "fc7_mbox_loc_flat"
  bottom: "conv6_2_mbox_loc_flat"
  bottom: "conv7_2_mbox_loc_flat"
  bottom: "conv8_2_mbox_loc_flat"
  bottom: "conv9_2_mbox_loc_flat"
  top: "mbox_loc"
  concat_param {
    axis: 1
  }
}
layer {
  name: "mbox_conf"
  type: "Concat"
  bottom: "conv4_3_norm_mbox_conf_flat"
  bottom: "fc7_mbox_conf_flat"
  bottom: "conv6_2_mbox_conf_flat"
  bottom: "conv7_2_mbox_conf_flat"
  bottom: "conv8_2_mbox_conf_flat"
  bottom: "conv9_2_mbox_conf_flat"
  top: "mbox_conf"
  concat_param {
    axis: 1
  }
}
layer {
  name: "mbox_priorbox"
  type: "Concat"
  bottom: "conv4_3_norm_mbox_priorbox"
  bottom: "fc7_mbox_priorbox"
  bottom: "conv6_2_mbox_priorbox"
  bottom: "conv7_2_mbox_priorbox"
  bottom: "conv8_2_mbox_priorbox"
  bottom: "conv9_2_mbox_priorbox"
  top: "mbox_priorbox"
  concat_param {
    axis: 2
  }
}
layer {
  name: "mbox_conf_reshape"
  type: "Reshape"
  bottom: "mbox_conf"
  top: "mbox_conf_reshape"
  reshape_param {
    shape {
      dim: 0
      dim: -1
      dim: 22
    }
  }
}
layer {
  name: "mbox_conf_softmax"
  type: "Softmax"
  bottom: "mbox_conf_reshape"
  top: "mbox_conf_softmax"
  softmax_param {
    axis: 2
  }
}
layer {
  name: "mbox_conf_flatten"
  type: "Flatten"
  bottom: "mbox_conf_softmax"
  top: "mbox_conf_flatten"
  flatten_param {
    axis: 1
  }
}
layer {
  name: "detection_out"
  type: "DetectionOutput"
  bottom: "mbox_loc"
  bottom: "mbox_conf_flatten"
  bottom: "mbox_priorbox"
  top: "detection_out"
  include {
    phase: TEST
  }
  detection_output_param {
    num_classes: 22
    share_location: true
    background_label_id: 0
    nms_param {
      nms_threshold: 0.45
      top_k: 400
    }
    save_output_param {
      output_directory: "/home/dhall/data/VOCdevkit/results/VOC2007/SSD_RGBD_test_300x300/Main"
      output_name_prefix: "comp4_det_test_"
      output_format: "VOC"
      label_map_file: "data/VOC0712/labelmap_voc.prototxt"
      name_size_file: "data/VOC0712/test_name_size.txt"
      num_test_image: 2
    }
    code_type: CENTER_SIZE
    keep_top_k: 200
    confidence_threshold: 0.01
  }
}
layer {
  name: "detection_eval"
  type: "DetectionEvaluate"
  bottom: "detection_out"
  bottom: "label"
  top: "detection_eval"
  include {
    phase: TEST
  }
  detection_evaluate_param {
    num_classes: 22
    background_label_id: 0
    overlap_threshold: 0.5
    evaluate_difficult_gt: false
    name_size_file: "data/VOC0712/test_name_size.txt"
  }
}
I0216 12:56:34.034911  4262 layer_factory.hpp:77] Creating layer data
I0216 12:56:34.034967  4262 net.cpp:100] Creating Layer data
I0216 12:56:34.034977  4262 net.cpp:408] data -> data
I0216 12:56:34.034988  4262 net.cpp:408] data -> label
I0216 12:56:34.039611  4281 db_lmdb.cpp:35] Opened lmdb examples/VOC0712/VOC0712_test_lmdb
I0216 12:56:34.051651  4262 annotated_data_layer.cpp:62] output data size: 1,4,300,300
I0216 12:56:34.054602  4262 net.cpp:150] Setting up data
I0216 12:56:34.054621  4262 net.cpp:157] Top shape: 1 4 300 300 (360000)
I0216 12:56:34.054627  4262 net.cpp:157] Top shape: 1 1 6 8 (48)
I0216 12:56:34.054631  4262 net.cpp:165] Memory required for data: 1440192
I0216 12:56:34.054636  4262 layer_factory.hpp:77] Creating layer data_data_0_split
I0216 12:56:34.054648  4262 net.cpp:100] Creating Layer data_data_0_split
I0216 12:56:34.054652  4262 net.cpp:434] data_data_0_split <- data
I0216 12:56:34.054659  4262 net.cpp:408] data_data_0_split -> data_data_0_split_0
I0216 12:56:34.054669  4262 net.cpp:408] data_data_0_split -> data_data_0_split_1
I0216 12:56:34.054677  4262 net.cpp:408] data_data_0_split -> data_data_0_split_2
I0216 12:56:34.054683  4262 net.cpp:408] data_data_0_split -> data_data_0_split_3
I0216 12:56:34.054688  4262 net.cpp:408] data_data_0_split -> data_data_0_split_4
I0216 12:56:34.054694  4262 net.cpp:408] data_data_0_split -> data_data_0_split_5
I0216 12:56:34.054699  4262 net.cpp:408] data_data_0_split -> data_data_0_split_6
I0216 12:56:34.054927  4262 net.cpp:150] Setting up data_data_0_split
I0216 12:56:34.054955  4262 net.cpp:157] Top shape: 1 4 300 300 (360000)
I0216 12:56:34.054960  4262 net.cpp:157] Top shape: 1 4 300 300 (360000)
I0216 12:56:34.054965  4262 net.cpp:157] Top shape: 1 4 300 300 (360000)
I0216 12:56:34.054968  4262 net.cpp:157] Top shape: 1 4 300 300 (360000)
I0216 12:56:34.054972  4262 net.cpp:157] Top shape: 1 4 300 300 (360000)
I0216 12:56:34.054976  4262 net.cpp:157] Top shape: 1 4 300 300 (360000)
I0216 12:56:34.054981  4262 net.cpp:157] Top shape: 1 4 300 300 (360000)
I0216 12:56:34.054985  4262 net.cpp:165] Memory required for data: 11520192
I0216 12:56:34.054988  4262 layer_factory.hpp:77] Creating layer conv1_1_rgbd
I0216 12:56:34.055001  4262 net.cpp:100] Creating Layer conv1_1_rgbd
I0216 12:56:34.055006  4262 net.cpp:434] conv1_1_rgbd <- data_data_0_split_0
I0216 12:56:34.055011  4262 net.cpp:408] conv1_1_rgbd -> conv1_1_rgbd
I0216 12:56:34.056738  4262 net.cpp:150] Setting up conv1_1_rgbd
I0216 12:56:34.056756  4262 net.cpp:157] Top shape: 1 64 300 300 (5760000)
I0216 12:56:34.056759  4262 net.cpp:165] Memory required for data: 34560192
I0216 12:56:34.056771  4262 layer_factory.hpp:77] Creating layer relu1_1
I0216 12:56:34.056779  4262 net.cpp:100] Creating Layer relu1_1
I0216 12:56:34.056783  4262 net.cpp:434] relu1_1 <- conv1_1_rgbd
I0216 12:56:34.056787  4262 net.cpp:395] relu1_1 -> conv1_1_rgbd (in-place)
I0216 12:56:34.057199  4262 net.cpp:150] Setting up relu1_1
I0216 12:56:34.057212  4262 net.cpp:157] Top shape: 1 64 300 300 (5760000)
I0216 12:56:34.057217  4262 net.cpp:165] Memory required for data: 57600192
I0216 12:56:34.057221  4262 layer_factory.hpp:77] Creating layer conv1_2
I0216 12:56:34.057231  4262 net.cpp:100] Creating Layer conv1_2
I0216 12:56:34.057235  4262 net.cpp:434] conv1_2 <- conv1_1_rgbd
I0216 12:56:34.057242  4262 net.cpp:408] conv1_2 -> conv1_2
I0216 12:56:34.059253  4262 net.cpp:150] Setting up conv1_2
I0216 12:56:34.059269  4262 net.cpp:157] Top shape: 1 64 300 300 (5760000)
I0216 12:56:34.059274  4262 net.cpp:165] Memory required for data: 80640192
I0216 12:56:34.059284  4262 layer_factory.hpp:77] Creating layer relu1_2
I0216 12:56:34.059293  4262 net.cpp:100] Creating Layer relu1_2
I0216 12:56:34.059296  4262 net.cpp:434] relu1_2 <- conv1_2
I0216 12:56:34.059301  4262 net.cpp:395] relu1_2 -> conv1_2 (in-place)
I0216 12:56:34.059489  4262 net.cpp:150] Setting up relu1_2
I0216 12:56:34.059500  4262 net.cpp:157] Top shape: 1 64 300 300 (5760000)
I0216 12:56:34.059504  4262 net.cpp:165] Memory required for data: 103680192
I0216 12:56:34.059509  4262 layer_factory.hpp:77] Creating layer pool1
I0216 12:56:34.059515  4262 net.cpp:100] Creating Layer pool1
I0216 12:56:34.059520  4262 net.cpp:434] pool1 <- conv1_2
I0216 12:56:34.059525  4262 net.cpp:408] pool1 -> pool1
I0216 12:56:34.059579  4262 net.cpp:150] Setting up pool1
I0216 12:56:34.059586  4262 net.cpp:157] Top shape: 1 64 150 150 (1440000)
I0216 12:56:34.059589  4262 net.cpp:165] Memory required for data: 109440192
I0216 12:56:34.059592  4262 layer_factory.hpp:77] Creating layer conv2_1
I0216 12:56:34.059602  4262 net.cpp:100] Creating Layer conv2_1
I0216 12:56:34.059605  4262 net.cpp:434] conv2_1 <- pool1
I0216 12:56:34.059612  4262 net.cpp:408] conv2_1 -> conv2_1
I0216 12:56:34.061385  4262 net.cpp:150] Setting up conv2_1
I0216 12:56:34.061400  4262 net.cpp:157] Top shape: 1 128 150 150 (2880000)
I0216 12:56:34.061405  4262 net.cpp:165] Memory required for data: 120960192
I0216 12:56:34.061415  4262 layer_factory.hpp:77] Creating layer relu2_1
I0216 12:56:34.061424  4262 net.cpp:100] Creating Layer relu2_1
I0216 12:56:34.061427  4262 net.cpp:434] relu2_1 <- conv2_1
I0216 12:56:34.061432  4262 net.cpp:395] relu2_1 -> conv2_1 (in-place)
I0216 12:56:34.061620  4262 net.cpp:150] Setting up relu2_1
I0216 12:56:34.061631  4262 net.cpp:157] Top shape: 1 128 150 150 (2880000)
I0216 12:56:34.061635  4262 net.cpp:165] Memory required for data: 132480192
I0216 12:56:34.061640  4262 layer_factory.hpp:77] Creating layer conv2_2
I0216 12:56:34.061648  4262 net.cpp:100] Creating Layer conv2_2
I0216 12:56:34.061666  4262 net.cpp:434] conv2_2 <- conv2_1
I0216 12:56:34.061673  4262 net.cpp:408] conv2_2 -> conv2_2
I0216 12:56:34.064318  4262 net.cpp:150] Setting up conv2_2
I0216 12:56:34.064334  4262 net.cpp:157] Top shape: 1 128 150 150 (2880000)
I0216 12:56:34.064339  4262 net.cpp:165] Memory required for data: 144000192
I0216 12:56:34.064347  4262 layer_factory.hpp:77] Creating layer relu2_2
I0216 12:56:34.064354  4262 net.cpp:100] Creating Layer relu2_2
I0216 12:56:34.064358  4262 net.cpp:434] relu2_2 <- conv2_2
I0216 12:56:34.064363  4262 net.cpp:395] relu2_2 -> conv2_2 (in-place)
I0216 12:56:34.064682  4262 net.cpp:150] Setting up relu2_2
I0216 12:56:34.064697  4262 net.cpp:157] Top shape: 1 128 150 150 (2880000)
I0216 12:56:34.064700  4262 net.cpp:165] Memory required for data: 155520192
I0216 12:56:34.064704  4262 layer_factory.hpp:77] Creating layer pool2
I0216 12:56:34.064712  4262 net.cpp:100] Creating Layer pool2
I0216 12:56:34.064715  4262 net.cpp:434] pool2 <- conv2_2
I0216 12:56:34.064720  4262 net.cpp:408] pool2 -> pool2
I0216 12:56:34.064776  4262 net.cpp:150] Setting up pool2
I0216 12:56:34.064784  4262 net.cpp:157] Top shape: 1 128 75 75 (720000)
I0216 12:56:34.064786  4262 net.cpp:165] Memory required for data: 158400192
I0216 12:56:34.064790  4262 layer_factory.hpp:77] Creating layer conv3_1
I0216 12:56:34.064798  4262 net.cpp:100] Creating Layer conv3_1
I0216 12:56:34.064802  4262 net.cpp:434] conv3_1 <- pool2
I0216 12:56:34.064808  4262 net.cpp:408] conv3_1 -> conv3_1
I0216 12:56:34.068544  4262 net.cpp:150] Setting up conv3_1
I0216 12:56:34.068560  4262 net.cpp:157] Top shape: 1 256 75 75 (1440000)
I0216 12:56:34.068565  4262 net.cpp:165] Memory required for data: 164160192
I0216 12:56:34.068575  4262 layer_factory.hpp:77] Creating layer relu3_1
I0216 12:56:34.068583  4262 net.cpp:100] Creating Layer relu3_1
I0216 12:56:34.068586  4262 net.cpp:434] relu3_1 <- conv3_1
I0216 12:56:34.068591  4262 net.cpp:395] relu3_1 -> conv3_1 (in-place)
I0216 12:56:34.068773  4262 net.cpp:150] Setting up relu3_1
I0216 12:56:34.068783  4262 net.cpp:157] Top shape: 1 256 75 75 (1440000)
I0216 12:56:34.068788  4262 net.cpp:165] Memory required for data: 169920192
I0216 12:56:34.068791  4262 layer_factory.hpp:77] Creating layer conv3_2
I0216 12:56:34.068800  4262 net.cpp:100] Creating Layer conv3_2
I0216 12:56:34.068804  4262 net.cpp:434] conv3_2 <- conv3_1
I0216 12:56:34.068811  4262 net.cpp:408] conv3_2 -> conv3_2
I0216 12:56:34.074976  4262 net.cpp:150] Setting up conv3_2
I0216 12:56:34.074993  4262 net.cpp:157] Top shape: 1 256 75 75 (1440000)
I0216 12:56:34.074998  4262 net.cpp:165] Memory required for data: 175680192
I0216 12:56:34.075006  4262 layer_factory.hpp:77] Creating layer relu3_2
I0216 12:56:34.075012  4262 net.cpp:100] Creating Layer relu3_2
I0216 12:56:34.075016  4262 net.cpp:434] relu3_2 <- conv3_2
I0216 12:56:34.075022  4262 net.cpp:395] relu3_2 -> conv3_2 (in-place)
I0216 12:56:34.075196  4262 net.cpp:150] Setting up relu3_2
I0216 12:56:34.075206  4262 net.cpp:157] Top shape: 1 256 75 75 (1440000)
I0216 12:56:34.075211  4262 net.cpp:165] Memory required for data: 181440192
I0216 12:56:34.075213  4262 layer_factory.hpp:77] Creating layer conv3_3
I0216 12:56:34.075224  4262 net.cpp:100] Creating Layer conv3_3
I0216 12:56:34.075229  4262 net.cpp:434] conv3_3 <- conv3_2
I0216 12:56:34.075235  4262 net.cpp:408] conv3_3 -> conv3_3
I0216 12:56:34.081691  4262 net.cpp:150] Setting up conv3_3
I0216 12:56:34.081708  4262 net.cpp:157] Top shape: 1 256 75 75 (1440000)
I0216 12:56:34.081712  4262 net.cpp:165] Memory required for data: 187200192
I0216 12:56:34.081720  4262 layer_factory.hpp:77] Creating layer relu3_3
I0216 12:56:34.081727  4262 net.cpp:100] Creating Layer relu3_3
I0216 12:56:34.081732  4262 net.cpp:434] relu3_3 <- conv3_3
I0216 12:56:34.081737  4262 net.cpp:395] relu3_3 -> conv3_3 (in-place)
I0216 12:56:34.082070  4262 net.cpp:150] Setting up relu3_3
I0216 12:56:34.082084  4262 net.cpp:157] Top shape: 1 256 75 75 (1440000)
I0216 12:56:34.082088  4262 net.cpp:165] Memory required for data: 192960192
I0216 12:56:34.082106  4262 layer_factory.hpp:77] Creating layer pool3
I0216 12:56:34.082114  4262 net.cpp:100] Creating Layer pool3
I0216 12:56:34.082118  4262 net.cpp:434] pool3 <- conv3_3
I0216 12:56:34.082124  4262 net.cpp:408] pool3 -> pool3
I0216 12:56:34.082186  4262 net.cpp:150] Setting up pool3
I0216 12:56:34.082195  4262 net.cpp:157] Top shape: 1 256 38 38 (369664)
I0216 12:56:34.082200  4262 net.cpp:165] Memory required for data: 194438848
I0216 12:56:34.082202  4262 layer_factory.hpp:77] Creating layer conv4_1
I0216 12:56:34.082211  4262 net.cpp:100] Creating Layer conv4_1
I0216 12:56:34.082216  4262 net.cpp:434] conv4_1 <- pool3
I0216 12:56:34.082221  4262 net.cpp:408] conv4_1 -> conv4_1
I0216 12:56:34.093251  4262 net.cpp:150] Setting up conv4_1
I0216 12:56:34.093269  4262 net.cpp:157] Top shape: 1 512 38 38 (739328)
I0216 12:56:34.093273  4262 net.cpp:165] Memory required for data: 197396160
I0216 12:56:34.093281  4262 layer_factory.hpp:77] Creating layer relu4_1
I0216 12:56:34.093288  4262 net.cpp:100] Creating Layer relu4_1
I0216 12:56:34.093293  4262 net.cpp:434] relu4_1 <- conv4_1
I0216 12:56:34.093298  4262 net.cpp:395] relu4_1 -> conv4_1 (in-place)
I0216 12:56:34.093482  4262 net.cpp:150] Setting up relu4_1
I0216 12:56:34.093493  4262 net.cpp:157] Top shape: 1 512 38 38 (739328)
I0216 12:56:34.093497  4262 net.cpp:165] Memory required for data: 200353472
I0216 12:56:34.093502  4262 layer_factory.hpp:77] Creating layer conv4_2
I0216 12:56:34.093510  4262 net.cpp:100] Creating Layer conv4_2
I0216 12:56:34.093514  4262 net.cpp:434] conv4_2 <- conv4_1
I0216 12:56:34.093520  4262 net.cpp:408] conv4_2 -> conv4_2
I0216 12:56:34.114545  4262 net.cpp:150] Setting up conv4_2
I0216 12:56:34.114578  4262 net.cpp:157] Top shape: 1 512 38 38 (739328)
I0216 12:56:34.114583  4262 net.cpp:165] Memory required for data: 203310784
I0216 12:56:34.114596  4262 layer_factory.hpp:77] Creating layer relu4_2
I0216 12:56:34.114606  4262 net.cpp:100] Creating Layer relu4_2
I0216 12:56:34.114611  4262 net.cpp:434] relu4_2 <- conv4_2
I0216 12:56:34.114617  4262 net.cpp:395] relu4_2 -> conv4_2 (in-place)
I0216 12:56:34.114807  4262 net.cpp:150] Setting up relu4_2
I0216 12:56:34.114817  4262 net.cpp:157] Top shape: 1 512 38 38 (739328)
I0216 12:56:34.114821  4262 net.cpp:165] Memory required for data: 206268096
I0216 12:56:34.114825  4262 layer_factory.hpp:77] Creating layer conv4_3
I0216 12:56:34.114836  4262 net.cpp:100] Creating Layer conv4_3
I0216 12:56:34.114840  4262 net.cpp:434] conv4_3 <- conv4_2
I0216 12:56:34.114847  4262 net.cpp:408] conv4_3 -> conv4_3
I0216 12:56:34.135954  4262 net.cpp:150] Setting up conv4_3
I0216 12:56:34.135983  4262 net.cpp:157] Top shape: 1 512 38 38 (739328)
I0216 12:56:34.135988  4262 net.cpp:165] Memory required for data: 209225408
I0216 12:56:34.135998  4262 layer_factory.hpp:77] Creating layer relu4_3
I0216 12:56:34.136008  4262 net.cpp:100] Creating Layer relu4_3
I0216 12:56:34.136013  4262 net.cpp:434] relu4_3 <- conv4_3
I0216 12:56:34.136019  4262 net.cpp:395] relu4_3 -> conv4_3 (in-place)
I0216 12:56:34.136358  4262 net.cpp:150] Setting up relu4_3
I0216 12:56:34.136373  4262 net.cpp:157] Top shape: 1 512 38 38 (739328)
I0216 12:56:34.136376  4262 net.cpp:165] Memory required for data: 212182720
I0216 12:56:34.136379  4262 layer_factory.hpp:77] Creating layer conv4_3_relu4_3_0_split
I0216 12:56:34.136387  4262 net.cpp:100] Creating Layer conv4_3_relu4_3_0_split
I0216 12:56:34.136391  4262 net.cpp:434] conv4_3_relu4_3_0_split <- conv4_3
I0216 12:56:34.136399  4262 net.cpp:408] conv4_3_relu4_3_0_split -> conv4_3_relu4_3_0_split_0
I0216 12:56:34.136407  4262 net.cpp:408] conv4_3_relu4_3_0_split -> conv4_3_relu4_3_0_split_1
I0216 12:56:34.136466  4262 net.cpp:150] Setting up conv4_3_relu4_3_0_split
I0216 12:56:34.136473  4262 net.cpp:157] Top shape: 1 512 38 38 (739328)
I0216 12:56:34.136478  4262 net.cpp:157] Top shape: 1 512 38 38 (739328)
I0216 12:56:34.136482  4262 net.cpp:165] Memory required for data: 218097344
I0216 12:56:34.136485  4262 layer_factory.hpp:77] Creating layer pool4
I0216 12:56:34.136509  4262 net.cpp:100] Creating Layer pool4
I0216 12:56:34.136514  4262 net.cpp:434] pool4 <- conv4_3_relu4_3_0_split_0
I0216 12:56:34.136519  4262 net.cpp:408] pool4 -> pool4
I0216 12:56:34.136574  4262 net.cpp:150] Setting up pool4
I0216 12:56:34.136582  4262 net.cpp:157] Top shape: 1 512 19 19 (184832)
I0216 12:56:34.136586  4262 net.cpp:165] Memory required for data: 218836672
I0216 12:56:34.136590  4262 layer_factory.hpp:77] Creating layer conv5_1
I0216 12:56:34.136601  4262 net.cpp:100] Creating Layer conv5_1
I0216 12:56:34.136606  4262 net.cpp:434] conv5_1 <- pool4
I0216 12:56:34.136612  4262 net.cpp:408] conv5_1 -> conv5_1
I0216 12:56:34.157786  4262 net.cpp:150] Setting up conv5_1
I0216 12:56:34.157816  4262 net.cpp:157] Top shape: 1 512 19 19 (184832)
I0216 12:56:34.157820  4262 net.cpp:165] Memory required for data: 219576000
I0216 12:56:34.157830  4262 layer_factory.hpp:77] Creating layer relu5_1
I0216 12:56:34.157841  4262 net.cpp:100] Creating Layer relu5_1
I0216 12:56:34.157847  4262 net.cpp:434] relu5_1 <- conv5_1
I0216 12:56:34.157855  4262 net.cpp:395] relu5_1 -> conv5_1 (in-place)
I0216 12:56:34.158053  4262 net.cpp:150] Setting up relu5_1
I0216 12:56:34.158064  4262 net.cpp:157] Top shape: 1 512 19 19 (184832)
I0216 12:56:34.158068  4262 net.cpp:165] Memory required for data: 220315328
I0216 12:56:34.158072  4262 layer_factory.hpp:77] Creating layer conv5_2
I0216 12:56:34.158085  4262 net.cpp:100] Creating Layer conv5_2
I0216 12:56:34.158089  4262 net.cpp:434] conv5_2 <- conv5_1
I0216 12:56:34.158097  4262 net.cpp:408] conv5_2 -> conv5_2
I0216 12:56:34.179200  4262 net.cpp:150] Setting up conv5_2
I0216 12:56:34.179229  4262 net.cpp:157] Top shape: 1 512 19 19 (184832)
I0216 12:56:34.179234  4262 net.cpp:165] Memory required for data: 221054656
I0216 12:56:34.179242  4262 layer_factory.hpp:77] Creating layer relu5_2
I0216 12:56:34.179253  4262 net.cpp:100] Creating Layer relu5_2
I0216 12:56:34.179258  4262 net.cpp:434] relu5_2 <- conv5_2
I0216 12:56:34.179266  4262 net.cpp:395] relu5_2 -> conv5_2 (in-place)
I0216 12:56:34.179466  4262 net.cpp:150] Setting up relu5_2
I0216 12:56:34.179478  4262 net.cpp:157] Top shape: 1 512 19 19 (184832)
I0216 12:56:34.179482  4262 net.cpp:165] Memory required for data: 221793984
I0216 12:56:34.179486  4262 layer_factory.hpp:77] Creating layer conv5_3
I0216 12:56:34.179499  4262 net.cpp:100] Creating Layer conv5_3
I0216 12:56:34.179504  4262 net.cpp:434] conv5_3 <- conv5_2
I0216 12:56:34.179512  4262 net.cpp:408] conv5_3 -> conv5_3
I0216 12:56:34.200752  4262 net.cpp:150] Setting up conv5_3
I0216 12:56:34.200780  4262 net.cpp:157] Top shape: 1 512 19 19 (184832)
I0216 12:56:34.200784  4262 net.cpp:165] Memory required for data: 222533312
I0216 12:56:34.200793  4262 layer_factory.hpp:77] Creating layer relu5_3
I0216 12:56:34.200810  4262 net.cpp:100] Creating Layer relu5_3
I0216 12:56:34.200817  4262 net.cpp:434] relu5_3 <- conv5_3
I0216 12:56:34.200824  4262 net.cpp:395] relu5_3 -> conv5_3 (in-place)
I0216 12:56:34.201180  4262 net.cpp:150] Setting up relu5_3
I0216 12:56:34.201195  4262 net.cpp:157] Top shape: 1 512 19 19 (184832)
I0216 12:56:34.201198  4262 net.cpp:165] Memory required for data: 223272640
I0216 12:56:34.201202  4262 layer_factory.hpp:77] Creating layer pool5
I0216 12:56:34.201212  4262 net.cpp:100] Creating Layer pool5
I0216 12:56:34.201217  4262 net.cpp:434] pool5 <- conv5_3
I0216 12:56:34.201223  4262 net.cpp:408] pool5 -> pool5
I0216 12:56:34.201288  4262 net.cpp:150] Setting up pool5
I0216 12:56:34.201297  4262 net.cpp:157] Top shape: 1 512 19 19 (184832)
I0216 12:56:34.201300  4262 net.cpp:165] Memory required for data: 224011968
I0216 12:56:34.201303  4262 layer_factory.hpp:77] Creating layer fc6
I0216 12:56:34.201316  4262 net.cpp:100] Creating Layer fc6
I0216 12:56:34.201320  4262 net.cpp:434] fc6 <- pool5
I0216 12:56:34.201328  4262 net.cpp:408] fc6 -> fc6
I0216 12:56:34.242089  4262 net.cpp:150] Setting up fc6
I0216 12:56:34.242127  4262 net.cpp:157] Top shape: 1 1024 19 19 (369664)
I0216 12:56:34.242131  4262 net.cpp:165] Memory required for data: 225490624
I0216 12:56:34.242163  4262 layer_factory.hpp:77] Creating layer relu6
I0216 12:56:34.242175  4262 net.cpp:100] Creating Layer relu6
I0216 12:56:34.242182  4262 net.cpp:434] relu6 <- fc6
I0216 12:56:34.242190  4262 net.cpp:395] relu6 -> fc6 (in-place)
I0216 12:56:34.242449  4262 net.cpp:150] Setting up relu6
I0216 12:56:34.242460  4262 net.cpp:157] Top shape: 1 1024 19 19 (369664)
I0216 12:56:34.242463  4262 net.cpp:165] Memory required for data: 226969280
I0216 12:56:34.242467  4262 layer_factory.hpp:77] Creating layer fc7
I0216 12:56:34.242482  4262 net.cpp:100] Creating Layer fc7
I0216 12:56:34.242486  4262 net.cpp:434] fc7 <- fc6
I0216 12:56:34.242493  4262 net.cpp:408] fc7 -> fc7
I0216 12:56:34.252712  4262 net.cpp:150] Setting up fc7
I0216 12:56:34.252734  4262 net.cpp:157] Top shape: 1 1024 19 19 (369664)
I0216 12:56:34.252739  4262 net.cpp:165] Memory required for data: 228447936
I0216 12:56:34.252748  4262 layer_factory.hpp:77] Creating layer relu7
I0216 12:56:34.252756  4262 net.cpp:100] Creating Layer relu7
I0216 12:56:34.252760  4262 net.cpp:434] relu7 <- fc7
I0216 12:56:34.252768  4262 net.cpp:395] relu7 -> fc7 (in-place)
I0216 12:56:34.253108  4262 net.cpp:150] Setting up relu7
I0216 12:56:34.253123  4262 net.cpp:157] Top shape: 1 1024 19 19 (369664)
I0216 12:56:34.253126  4262 net.cpp:165] Memory required for data: 229926592
I0216 12:56:34.253130  4262 layer_factory.hpp:77] Creating layer fc7_relu7_0_split
I0216 12:56:34.253139  4262 net.cpp:100] Creating Layer fc7_relu7_0_split
I0216 12:56:34.253142  4262 net.cpp:434] fc7_relu7_0_split <- fc7
I0216 12:56:34.253150  4262 net.cpp:408] fc7_relu7_0_split -> fc7_relu7_0_split_0
I0216 12:56:34.253159  4262 net.cpp:408] fc7_relu7_0_split -> fc7_relu7_0_split_1
I0216 12:56:34.253170  4262 net.cpp:408] fc7_relu7_0_split -> fc7_relu7_0_split_2
I0216 12:56:34.253177  4262 net.cpp:408] fc7_relu7_0_split -> fc7_relu7_0_split_3
I0216 12:56:34.253270  4262 net.cpp:150] Setting up fc7_relu7_0_split
I0216 12:56:34.253278  4262 net.cpp:157] Top shape: 1 1024 19 19 (369664)
I0216 12:56:34.253284  4262 net.cpp:157] Top shape: 1 1024 19 19 (369664)
I0216 12:56:34.253288  4262 net.cpp:157] Top shape: 1 1024 19 19 (369664)
I0216 12:56:34.253293  4262 net.cpp:157] Top shape: 1 1024 19 19 (369664)
I0216 12:56:34.253295  4262 net.cpp:165] Memory required for data: 235841216
I0216 12:56:34.253299  4262 layer_factory.hpp:77] Creating layer conv6_1
I0216 12:56:34.253311  4262 net.cpp:100] Creating Layer conv6_1
I0216 12:56:34.253315  4262 net.cpp:434] conv6_1 <- fc7_relu7_0_split_0
I0216 12:56:34.253324  4262 net.cpp:408] conv6_1 -> conv6_1
I0216 12:56:34.256731  4262 net.cpp:150] Setting up conv6_1
I0216 12:56:34.256747  4262 net.cpp:157] Top shape: 1 256 19 19 (92416)
I0216 12:56:34.256752  4262 net.cpp:165] Memory required for data: 236210880
I0216 12:56:34.256759  4262 layer_factory.hpp:77] Creating layer conv6_1_relu
I0216 12:56:34.256767  4262 net.cpp:100] Creating Layer conv6_1_relu
I0216 12:56:34.256772  4262 net.cpp:434] conv6_1_relu <- conv6_1
I0216 12:56:34.256778  4262 net.cpp:395] conv6_1_relu -> conv6_1 (in-place)
I0216 12:56:34.257112  4262 net.cpp:150] Setting up conv6_1_relu
I0216 12:56:34.257128  4262 net.cpp:157] Top shape: 1 256 19 19 (92416)
I0216 12:56:34.257131  4262 net.cpp:165] Memory required for data: 236580544
I0216 12:56:34.257135  4262 layer_factory.hpp:77] Creating layer conv6_2
I0216 12:56:34.257146  4262 net.cpp:100] Creating Layer conv6_2
I0216 12:56:34.257150  4262 net.cpp:434] conv6_2 <- conv6_1
I0216 12:56:34.257158  4262 net.cpp:408] conv6_2 -> conv6_2
I0216 12:56:34.268316  4262 net.cpp:150] Setting up conv6_2
I0216 12:56:34.268337  4262 net.cpp:157] Top shape: 1 512 10 10 (51200)
I0216 12:56:34.268340  4262 net.cpp:165] Memory required for data: 236785344
I0216 12:56:34.268355  4262 layer_factory.hpp:77] Creating layer conv6_2_relu
I0216 12:56:34.268362  4262 net.cpp:100] Creating Layer conv6_2_relu
I0216 12:56:34.268368  4262 net.cpp:434] conv6_2_relu <- conv6_2
I0216 12:56:34.268374  4262 net.cpp:395] conv6_2_relu -> conv6_2 (in-place)
I0216 12:56:34.268586  4262 net.cpp:150] Setting up conv6_2_relu
I0216 12:56:34.268599  4262 net.cpp:157] Top shape: 1 512 10 10 (51200)
I0216 12:56:34.268604  4262 net.cpp:165] Memory required for data: 236990144
I0216 12:56:34.268607  4262 layer_factory.hpp:77] Creating layer conv6_2_conv6_2_relu_0_split
I0216 12:56:34.268615  4262 net.cpp:100] Creating Layer conv6_2_conv6_2_relu_0_split
I0216 12:56:34.268618  4262 net.cpp:434] conv6_2_conv6_2_relu_0_split <- conv6_2
I0216 12:56:34.268625  4262 net.cpp:408] conv6_2_conv6_2_relu_0_split -> conv6_2_conv6_2_relu_0_split_0
I0216 12:56:34.268631  4262 net.cpp:408] conv6_2_conv6_2_relu_0_split -> conv6_2_conv6_2_relu_0_split_1
I0216 12:56:34.268640  4262 net.cpp:408] conv6_2_conv6_2_relu_0_split -> conv6_2_conv6_2_relu_0_split_2
I0216 12:56:34.268646  4262 net.cpp:408] conv6_2_conv6_2_relu_0_split -> conv6_2_conv6_2_relu_0_split_3
I0216 12:56:34.268741  4262 net.cpp:150] Setting up conv6_2_conv6_2_relu_0_split
I0216 12:56:34.268749  4262 net.cpp:157] Top shape: 1 512 10 10 (51200)
I0216 12:56:34.268754  4262 net.cpp:157] Top shape: 1 512 10 10 (51200)
I0216 12:56:34.268759  4262 net.cpp:157] Top shape: 1 512 10 10 (51200)
I0216 12:56:34.268762  4262 net.cpp:157] Top shape: 1 512 10 10 (51200)
I0216 12:56:34.268765  4262 net.cpp:165] Memory required for data: 237809344
I0216 12:56:34.268769  4262 layer_factory.hpp:77] Creating layer conv7_1
I0216 12:56:34.268780  4262 net.cpp:100] Creating Layer conv7_1
I0216 12:56:34.268785  4262 net.cpp:434] conv7_1 <- conv6_2_conv6_2_relu_0_split_0
I0216 12:56:34.268791  4262 net.cpp:408] conv7_1 -> conv7_1
I0216 12:56:34.270930  4262 net.cpp:150] Setting up conv7_1
I0216 12:56:34.270944  4262 net.cpp:157] Top shape: 1 128 10 10 (12800)
I0216 12:56:34.270949  4262 net.cpp:165] Memory required for data: 237860544
I0216 12:56:34.270956  4262 layer_factory.hpp:77] Creating layer conv7_1_relu
I0216 12:56:34.270964  4262 net.cpp:100] Creating Layer conv7_1_relu
I0216 12:56:34.270969  4262 net.cpp:434] conv7_1_relu <- conv7_1
I0216 12:56:34.270975  4262 net.cpp:395] conv7_1_relu -> conv7_1 (in-place)
I0216 12:56:34.271316  4262 net.cpp:150] Setting up conv7_1_relu
I0216 12:56:34.271330  4262 net.cpp:157] Top shape: 1 128 10 10 (12800)
I0216 12:56:34.271334  4262 net.cpp:165] Memory required for data: 237911744
I0216 12:56:34.271338  4262 layer_factory.hpp:77] Creating layer conv7_2
I0216 12:56:34.271350  4262 net.cpp:100] Creating Layer conv7_2
I0216 12:56:34.271355  4262 net.cpp:434] conv7_2 <- conv7_1
I0216 12:56:34.271363  4262 net.cpp:408] conv7_2 -> conv7_2
I0216 12:56:34.275086  4262 net.cpp:150] Setting up conv7_2
I0216 12:56:34.275104  4262 net.cpp:157] Top shape: 1 256 5 5 (6400)
I0216 12:56:34.275107  4262 net.cpp:165] Memory required for data: 237937344
I0216 12:56:34.275115  4262 layer_factory.hpp:77] Creating layer conv7_2_relu
I0216 12:56:34.275122  4262 net.cpp:100] Creating Layer conv7_2_relu
I0216 12:56:34.275127  4262 net.cpp:434] conv7_2_relu <- conv7_2
I0216 12:56:34.275132  4262 net.cpp:395] conv7_2_relu -> conv7_2 (in-place)
I0216 12:56:34.275471  4262 net.cpp:150] Setting up conv7_2_relu
I0216 12:56:34.275485  4262 net.cpp:157] Top shape: 1 256 5 5 (6400)
I0216 12:56:34.275490  4262 net.cpp:165] Memory required for data: 237962944
I0216 12:56:34.275493  4262 layer_factory.hpp:77] Creating layer conv7_2_conv7_2_relu_0_split
I0216 12:56:34.275501  4262 net.cpp:100] Creating Layer conv7_2_conv7_2_relu_0_split
I0216 12:56:34.275506  4262 net.cpp:434] conv7_2_conv7_2_relu_0_split <- conv7_2
I0216 12:56:34.275511  4262 net.cpp:408] conv7_2_conv7_2_relu_0_split -> conv7_2_conv7_2_relu_0_split_0
I0216 12:56:34.275521  4262 net.cpp:408] conv7_2_conv7_2_relu_0_split -> conv7_2_conv7_2_relu_0_split_1
I0216 12:56:34.275527  4262 net.cpp:408] conv7_2_conv7_2_relu_0_split -> conv7_2_conv7_2_relu_0_split_2
I0216 12:56:34.275533  4262 net.cpp:408] conv7_2_conv7_2_relu_0_split -> conv7_2_conv7_2_relu_0_split_3
I0216 12:56:34.275629  4262 net.cpp:150] Setting up conv7_2_conv7_2_relu_0_split
I0216 12:56:34.275638  4262 net.cpp:157] Top shape: 1 256 5 5 (6400)
I0216 12:56:34.275655  4262 net.cpp:157] Top shape: 1 256 5 5 (6400)
I0216 12:56:34.275660  4262 net.cpp:157] Top shape: 1 256 5 5 (6400)
I0216 12:56:34.275663  4262 net.cpp:157] Top shape: 1 256 5 5 (6400)
I0216 12:56:34.275666  4262 net.cpp:165] Memory required for data: 238065344
I0216 12:56:34.275671  4262 layer_factory.hpp:77] Creating layer conv8_1
I0216 12:56:34.275684  4262 net.cpp:100] Creating Layer conv8_1
I0216 12:56:34.275688  4262 net.cpp:434] conv8_1 <- conv7_2_conv7_2_relu_0_split_0
I0216 12:56:34.275696  4262 net.cpp:408] conv8_1 -> conv8_1
I0216 12:56:34.277156  4262 net.cpp:150] Setting up conv8_1
I0216 12:56:34.277173  4262 net.cpp:157] Top shape: 1 128 5 5 (3200)
I0216 12:56:34.277176  4262 net.cpp:165] Memory required for data: 238078144
I0216 12:56:34.277184  4262 layer_factory.hpp:77] Creating layer conv8_1_relu
I0216 12:56:34.277190  4262 net.cpp:100] Creating Layer conv8_1_relu
I0216 12:56:34.277194  4262 net.cpp:434] conv8_1_relu <- conv8_1
I0216 12:56:34.277201  4262 net.cpp:395] conv8_1_relu -> conv8_1 (in-place)
I0216 12:56:34.277395  4262 net.cpp:150] Setting up conv8_1_relu
I0216 12:56:34.277407  4262 net.cpp:157] Top shape: 1 128 5 5 (3200)
I0216 12:56:34.277410  4262 net.cpp:165] Memory required for data: 238090944
I0216 12:56:34.277415  4262 layer_factory.hpp:77] Creating layer conv8_2
I0216 12:56:34.277426  4262 net.cpp:100] Creating Layer conv8_2
I0216 12:56:34.277431  4262 net.cpp:434] conv8_2 <- conv8_1
I0216 12:56:34.277436  4262 net.cpp:408] conv8_2 -> conv8_2
I0216 12:56:34.281442  4262 net.cpp:150] Setting up conv8_2
I0216 12:56:34.281460  4262 net.cpp:157] Top shape: 1 256 3 3 (2304)
I0216 12:56:34.281463  4262 net.cpp:165] Memory required for data: 238100160
I0216 12:56:34.281471  4262 layer_factory.hpp:77] Creating layer conv8_2_relu
I0216 12:56:34.281479  4262 net.cpp:100] Creating Layer conv8_2_relu
I0216 12:56:34.281483  4262 net.cpp:434] conv8_2_relu <- conv8_2
I0216 12:56:34.281489  4262 net.cpp:395] conv8_2_relu -> conv8_2 (in-place)
I0216 12:56:34.281843  4262 net.cpp:150] Setting up conv8_2_relu
I0216 12:56:34.281858  4262 net.cpp:157] Top shape: 1 256 3 3 (2304)
I0216 12:56:34.281862  4262 net.cpp:165] Memory required for data: 238109376
I0216 12:56:34.281867  4262 layer_factory.hpp:77] Creating layer conv8_2_conv8_2_relu_0_split
I0216 12:56:34.281873  4262 net.cpp:100] Creating Layer conv8_2_conv8_2_relu_0_split
I0216 12:56:34.281877  4262 net.cpp:434] conv8_2_conv8_2_relu_0_split <- conv8_2
I0216 12:56:34.281883  4262 net.cpp:408] conv8_2_conv8_2_relu_0_split -> conv8_2_conv8_2_relu_0_split_0
I0216 12:56:34.281891  4262 net.cpp:408] conv8_2_conv8_2_relu_0_split -> conv8_2_conv8_2_relu_0_split_1
I0216 12:56:34.281898  4262 net.cpp:408] conv8_2_conv8_2_relu_0_split -> conv8_2_conv8_2_relu_0_split_2
I0216 12:56:34.281905  4262 net.cpp:408] conv8_2_conv8_2_relu_0_split -> conv8_2_conv8_2_relu_0_split_3
I0216 12:56:34.282004  4262 net.cpp:150] Setting up conv8_2_conv8_2_relu_0_split
I0216 12:56:34.282013  4262 net.cpp:157] Top shape: 1 256 3 3 (2304)
I0216 12:56:34.282017  4262 net.cpp:157] Top shape: 1 256 3 3 (2304)
I0216 12:56:34.282021  4262 net.cpp:157] Top shape: 1 256 3 3 (2304)
I0216 12:56:34.282025  4262 net.cpp:157] Top shape: 1 256 3 3 (2304)
I0216 12:56:34.282028  4262 net.cpp:165] Memory required for data: 238146240
I0216 12:56:34.282032  4262 layer_factory.hpp:77] Creating layer conv9_1
I0216 12:56:34.282043  4262 net.cpp:100] Creating Layer conv9_1
I0216 12:56:34.282048  4262 net.cpp:434] conv9_1 <- conv8_2_conv8_2_relu_0_split_0
I0216 12:56:34.282055  4262 net.cpp:408] conv9_1 -> conv9_1
I0216 12:56:34.283408  4262 net.cpp:150] Setting up conv9_1
I0216 12:56:34.283424  4262 net.cpp:157] Top shape: 1 128 3 3 (1152)
I0216 12:56:34.283428  4262 net.cpp:165] Memory required for data: 238150848
I0216 12:56:34.283435  4262 layer_factory.hpp:77] Creating layer conv9_1_relu
I0216 12:56:34.283444  4262 net.cpp:100] Creating Layer conv9_1_relu
I0216 12:56:34.283449  4262 net.cpp:434] conv9_1_relu <- conv9_1
I0216 12:56:34.283466  4262 net.cpp:395] conv9_1_relu -> conv9_1 (in-place)
I0216 12:56:34.283805  4262 net.cpp:150] Setting up conv9_1_relu
I0216 12:56:34.283819  4262 net.cpp:157] Top shape: 1 128 3 3 (1152)
I0216 12:56:34.283823  4262 net.cpp:165] Memory required for data: 238155456
I0216 12:56:34.283828  4262 layer_factory.hpp:77] Creating layer conv9_2
I0216 12:56:34.283841  4262 net.cpp:100] Creating Layer conv9_2
I0216 12:56:34.283846  4262 net.cpp:434] conv9_2 <- conv9_1
I0216 12:56:34.283854  4262 net.cpp:408] conv9_2 -> conv9_2
I0216 12:56:34.287696  4262 net.cpp:150] Setting up conv9_2
I0216 12:56:34.287713  4262 net.cpp:157] Top shape: 1 256 1 1 (256)
I0216 12:56:34.287716  4262 net.cpp:165] Memory required for data: 238156480
I0216 12:56:34.287724  4262 layer_factory.hpp:77] Creating layer conv9_2_relu
I0216 12:56:34.287730  4262 net.cpp:100] Creating Layer conv9_2_relu
I0216 12:56:34.287735  4262 net.cpp:434] conv9_2_relu <- conv9_2
I0216 12:56:34.287742  4262 net.cpp:395] conv9_2_relu -> conv9_2 (in-place)
I0216 12:56:34.287937  4262 net.cpp:150] Setting up conv9_2_relu
I0216 12:56:34.287948  4262 net.cpp:157] Top shape: 1 256 1 1 (256)
I0216 12:56:34.287952  4262 net.cpp:165] Memory required for data: 238157504
I0216 12:56:34.287956  4262 layer_factory.hpp:77] Creating layer conv9_2_conv9_2_relu_0_split
I0216 12:56:34.287963  4262 net.cpp:100] Creating Layer conv9_2_conv9_2_relu_0_split
I0216 12:56:34.287967  4262 net.cpp:434] conv9_2_conv9_2_relu_0_split <- conv9_2
I0216 12:56:34.287973  4262 net.cpp:408] conv9_2_conv9_2_relu_0_split -> conv9_2_conv9_2_relu_0_split_0
I0216 12:56:34.287981  4262 net.cpp:408] conv9_2_conv9_2_relu_0_split -> conv9_2_conv9_2_relu_0_split_1
I0216 12:56:34.287987  4262 net.cpp:408] conv9_2_conv9_2_relu_0_split -> conv9_2_conv9_2_relu_0_split_2
I0216 12:56:34.288065  4262 net.cpp:150] Setting up conv9_2_conv9_2_relu_0_split
I0216 12:56:34.288074  4262 net.cpp:157] Top shape: 1 256 1 1 (256)
I0216 12:56:34.288079  4262 net.cpp:157] Top shape: 1 256 1 1 (256)
I0216 12:56:34.288082  4262 net.cpp:157] Top shape: 1 256 1 1 (256)
I0216 12:56:34.288085  4262 net.cpp:165] Memory required for data: 238160576
I0216 12:56:34.288089  4262 layer_factory.hpp:77] Creating layer conv4_3_norm
I0216 12:56:34.288097  4262 net.cpp:100] Creating Layer conv4_3_norm
I0216 12:56:34.288101  4262 net.cpp:434] conv4_3_norm <- conv4_3_relu4_3_0_split_1
I0216 12:56:34.288107  4262 net.cpp:408] conv4_3_norm -> conv4_3_norm
I0216 12:56:34.288327  4262 net.cpp:150] Setting up conv4_3_norm
I0216 12:56:34.288336  4262 net.cpp:157] Top shape: 1 512 38 38 (739328)
I0216 12:56:34.288339  4262 net.cpp:165] Memory required for data: 241117888
I0216 12:56:34.288345  4262 layer_factory.hpp:77] Creating layer conv4_3_norm_conv4_3_norm_0_split
I0216 12:56:34.288352  4262 net.cpp:100] Creating Layer conv4_3_norm_conv4_3_norm_0_split
I0216 12:56:34.288355  4262 net.cpp:434] conv4_3_norm_conv4_3_norm_0_split <- conv4_3_norm
I0216 12:56:34.288360  4262 net.cpp:408] conv4_3_norm_conv4_3_norm_0_split -> conv4_3_norm_conv4_3_norm_0_split_0
I0216 12:56:34.288367  4262 net.cpp:408] conv4_3_norm_conv4_3_norm_0_split -> conv4_3_norm_conv4_3_norm_0_split_1
I0216 12:56:34.288373  4262 net.cpp:408] conv4_3_norm_conv4_3_norm_0_split -> conv4_3_norm_conv4_3_norm_0_split_2
I0216 12:56:34.288444  4262 net.cpp:150] Setting up conv4_3_norm_conv4_3_norm_0_split
I0216 12:56:34.288451  4262 net.cpp:157] Top shape: 1 512 38 38 (739328)
I0216 12:56:34.288455  4262 net.cpp:157] Top shape: 1 512 38 38 (739328)
I0216 12:56:34.288460  4262 net.cpp:157] Top shape: 1 512 38 38 (739328)
I0216 12:56:34.288462  4262 net.cpp:165] Memory required for data: 249989824
I0216 12:56:34.288466  4262 layer_factory.hpp:77] Creating layer conv4_3_norm_mbox_loc
I0216 12:56:34.288475  4262 net.cpp:100] Creating Layer conv4_3_norm_mbox_loc
I0216 12:56:34.288480  4262 net.cpp:434] conv4_3_norm_mbox_loc <- conv4_3_norm_conv4_3_norm_0_split_0
I0216 12:56:34.288489  4262 net.cpp:408] conv4_3_norm_mbox_loc -> conv4_3_norm_mbox_loc
I0216 12:56:34.290283  4262 net.cpp:150] Setting up conv4_3_norm_mbox_loc
I0216 12:56:34.290312  4262 net.cpp:157] Top shape: 1 16 38 38 (23104)
I0216 12:56:34.290316  4262 net.cpp:165] Memory required for data: 250082240
I0216 12:56:34.290323  4262 layer_factory.hpp:77] Creating layer conv4_3_norm_mbox_loc_perm
I0216 12:56:34.290333  4262 net.cpp:100] Creating Layer conv4_3_norm_mbox_loc_perm
I0216 12:56:34.290336  4262 net.cpp:434] conv4_3_norm_mbox_loc_perm <- conv4_3_norm_mbox_loc
I0216 12:56:34.290343  4262 net.cpp:408] conv4_3_norm_mbox_loc_perm -> conv4_3_norm_mbox_loc_perm
I0216 12:56:34.290498  4262 net.cpp:150] Setting up conv4_3_norm_mbox_loc_perm
I0216 12:56:34.290508  4262 net.cpp:157] Top shape: 1 38 38 16 (23104)
I0216 12:56:34.290511  4262 net.cpp:165] Memory required for data: 250174656
I0216 12:56:34.290514  4262 layer_factory.hpp:77] Creating layer conv4_3_norm_mbox_loc_flat
I0216 12:56:34.290527  4262 net.cpp:100] Creating Layer conv4_3_norm_mbox_loc_flat
I0216 12:56:34.290532  4262 net.cpp:434] conv4_3_norm_mbox_loc_flat <- conv4_3_norm_mbox_loc_perm
I0216 12:56:34.290537  4262 net.cpp:408] conv4_3_norm_mbox_loc_flat -> conv4_3_norm_mbox_loc_flat
I0216 12:56:34.290580  4262 net.cpp:150] Setting up conv4_3_norm_mbox_loc_flat
I0216 12:56:34.290591  4262 net.cpp:157] Top shape: 1 23104 (23104)
I0216 12:56:34.290594  4262 net.cpp:165] Memory required for data: 250267072
I0216 12:56:34.290598  4262 layer_factory.hpp:77] Creating layer conv4_3_norm_mbox_conf
I0216 12:56:34.290616  4262 net.cpp:100] Creating Layer conv4_3_norm_mbox_conf
I0216 12:56:34.290621  4262 net.cpp:434] conv4_3_norm_mbox_conf <- conv4_3_norm_conv4_3_norm_0_split_1
I0216 12:56:34.290628  4262 net.cpp:408] conv4_3_norm_mbox_conf -> conv4_3_norm_mbox_conf
I0216 12:56:34.295404  4262 net.cpp:150] Setting up conv4_3_norm_mbox_conf
I0216 12:56:34.295421  4262 net.cpp:157] Top shape: 1 88 38 38 (127072)
I0216 12:56:34.295425  4262 net.cpp:165] Memory required for data: 250775360
I0216 12:56:34.295433  4262 layer_factory.hpp:77] Creating layer conv4_3_norm_mbox_conf_perm
I0216 12:56:34.295441  4262 net.cpp:100] Creating Layer conv4_3_norm_mbox_conf_perm
I0216 12:56:34.295446  4262 net.cpp:434] conv4_3_norm_mbox_conf_perm <- conv4_3_norm_mbox_conf
I0216 12:56:34.295454  4262 net.cpp:408] conv4_3_norm_mbox_conf_perm -> conv4_3_norm_mbox_conf_perm
I0216 12:56:34.295601  4262 net.cpp:150] Setting up conv4_3_norm_mbox_conf_perm
I0216 12:56:34.295610  4262 net.cpp:157] Top shape: 1 38 38 88 (127072)
I0216 12:56:34.295614  4262 net.cpp:165] Memory required for data: 251283648
I0216 12:56:34.295617  4262 layer_factory.hpp:77] Creating layer conv4_3_norm_mbox_conf_flat
I0216 12:56:34.295624  4262 net.cpp:100] Creating Layer conv4_3_norm_mbox_conf_flat
I0216 12:56:34.295627  4262 net.cpp:434] conv4_3_norm_mbox_conf_flat <- conv4_3_norm_mbox_conf_perm
I0216 12:56:34.295634  4262 net.cpp:408] conv4_3_norm_mbox_conf_flat -> conv4_3_norm_mbox_conf_flat
I0216 12:56:34.295670  4262 net.cpp:150] Setting up conv4_3_norm_mbox_conf_flat
I0216 12:56:34.295677  4262 net.cpp:157] Top shape: 1 127072 (127072)
I0216 12:56:34.295680  4262 net.cpp:165] Memory required for data: 251791936
I0216 12:56:34.295683  4262 layer_factory.hpp:77] Creating layer conv4_3_norm_mbox_priorbox
I0216 12:56:34.295691  4262 net.cpp:100] Creating Layer conv4_3_norm_mbox_priorbox
I0216 12:56:34.295696  4262 net.cpp:434] conv4_3_norm_mbox_priorbox <- conv4_3_norm_conv4_3_norm_0_split_2
I0216 12:56:34.295701  4262 net.cpp:434] conv4_3_norm_mbox_priorbox <- data_data_0_split_1
I0216 12:56:34.295707  4262 net.cpp:408] conv4_3_norm_mbox_priorbox -> conv4_3_norm_mbox_priorbox
I0216 12:56:34.295743  4262 net.cpp:150] Setting up conv4_3_norm_mbox_priorbox
I0216 12:56:34.295753  4262 net.cpp:157] Top shape: 1 2 23104 (46208)
I0216 12:56:34.295758  4262 net.cpp:165] Memory required for data: 251976768
I0216 12:56:34.295760  4262 layer_factory.hpp:77] Creating layer fc7_mbox_loc
I0216 12:56:34.295773  4262 net.cpp:100] Creating Layer fc7_mbox_loc
I0216 12:56:34.295778  4262 net.cpp:434] fc7_mbox_loc <- fc7_relu7_0_split_1
I0216 12:56:34.295784  4262 net.cpp:408] fc7_mbox_loc -> fc7_mbox_loc
I0216 12:56:34.299228  4262 net.cpp:150] Setting up fc7_mbox_loc
I0216 12:56:34.299244  4262 net.cpp:157] Top shape: 1 24 19 19 (8664)
I0216 12:56:34.299249  4262 net.cpp:165] Memory required for data: 252011424
I0216 12:56:34.299258  4262 layer_factory.hpp:77] Creating layer fc7_mbox_loc_perm
I0216 12:56:34.299265  4262 net.cpp:100] Creating Layer fc7_mbox_loc_perm
I0216 12:56:34.299270  4262 net.cpp:434] fc7_mbox_loc_perm <- fc7_mbox_loc
I0216 12:56:34.299276  4262 net.cpp:408] fc7_mbox_loc_perm -> fc7_mbox_loc_perm
I0216 12:56:34.299432  4262 net.cpp:150] Setting up fc7_mbox_loc_perm
I0216 12:56:34.299443  4262 net.cpp:157] Top shape: 1 19 19 24 (8664)
I0216 12:56:34.299446  4262 net.cpp:165] Memory required for data: 252046080
I0216 12:56:34.299449  4262 layer_factory.hpp:77] Creating layer fc7_mbox_loc_flat
I0216 12:56:34.299455  4262 net.cpp:100] Creating Layer fc7_mbox_loc_flat
I0216 12:56:34.299459  4262 net.cpp:434] fc7_mbox_loc_flat <- fc7_mbox_loc_perm
I0216 12:56:34.299466  4262 net.cpp:408] fc7_mbox_loc_flat -> fc7_mbox_loc_flat
I0216 12:56:34.299502  4262 net.cpp:150] Setting up fc7_mbox_loc_flat
I0216 12:56:34.299510  4262 net.cpp:157] Top shape: 1 8664 (8664)
I0216 12:56:34.299513  4262 net.cpp:165] Memory required for data: 252080736
I0216 12:56:34.299517  4262 layer_factory.hpp:77] Creating layer fc7_mbox_conf
I0216 12:56:34.299527  4262 net.cpp:100] Creating Layer fc7_mbox_conf
I0216 12:56:34.299531  4262 net.cpp:434] fc7_mbox_conf <- fc7_relu7_0_split_2
I0216 12:56:34.299540  4262 net.cpp:408] fc7_mbox_conf -> fc7_mbox_conf
I0216 12:56:34.310852  4262 net.cpp:150] Setting up fc7_mbox_conf
I0216 12:56:34.310868  4262 net.cpp:157] Top shape: 1 132 19 19 (47652)
I0216 12:56:34.310873  4262 net.cpp:165] Memory required for data: 252271344
I0216 12:56:34.310880  4262 layer_factory.hpp:77] Creating layer fc7_mbox_conf_perm
I0216 12:56:34.310889  4262 net.cpp:100] Creating Layer fc7_mbox_conf_perm
I0216 12:56:34.310894  4262 net.cpp:434] fc7_mbox_conf_perm <- fc7_mbox_conf
I0216 12:56:34.310900  4262 net.cpp:408] fc7_mbox_conf_perm -> fc7_mbox_conf_perm
I0216 12:56:34.311053  4262 net.cpp:150] Setting up fc7_mbox_conf_perm
I0216 12:56:34.311063  4262 net.cpp:157] Top shape: 1 19 19 132 (47652)
I0216 12:56:34.311066  4262 net.cpp:165] Memory required for data: 252461952
I0216 12:56:34.311070  4262 layer_factory.hpp:77] Creating layer fc7_mbox_conf_flat
I0216 12:56:34.311076  4262 net.cpp:100] Creating Layer fc7_mbox_conf_flat
I0216 12:56:34.311080  4262 net.cpp:434] fc7_mbox_conf_flat <- fc7_mbox_conf_perm
I0216 12:56:34.311087  4262 net.cpp:408] fc7_mbox_conf_flat -> fc7_mbox_conf_flat
I0216 12:56:34.311120  4262 net.cpp:150] Setting up fc7_mbox_conf_flat
I0216 12:56:34.311131  4262 net.cpp:157] Top shape: 1 47652 (47652)
I0216 12:56:34.311133  4262 net.cpp:165] Memory required for data: 252652560
I0216 12:56:34.311137  4262 layer_factory.hpp:77] Creating layer fc7_mbox_priorbox
I0216 12:56:34.311144  4262 net.cpp:100] Creating Layer fc7_mbox_priorbox
I0216 12:56:34.311148  4262 net.cpp:434] fc7_mbox_priorbox <- fc7_relu7_0_split_3
I0216 12:56:34.311154  4262 net.cpp:434] fc7_mbox_priorbox <- data_data_0_split_2
I0216 12:56:34.311161  4262 net.cpp:408] fc7_mbox_priorbox -> fc7_mbox_priorbox
I0216 12:56:34.311198  4262 net.cpp:150] Setting up fc7_mbox_priorbox
I0216 12:56:34.311208  4262 net.cpp:157] Top shape: 1 2 8664 (17328)
I0216 12:56:34.311211  4262 net.cpp:165] Memory required for data: 252721872
I0216 12:56:34.311214  4262 layer_factory.hpp:77] Creating layer conv6_2_mbox_loc
I0216 12:56:34.311224  4262 net.cpp:100] Creating Layer conv6_2_mbox_loc
I0216 12:56:34.311229  4262 net.cpp:434] conv6_2_mbox_loc <- conv6_2_conv6_2_relu_0_split_1
I0216 12:56:34.311236  4262 net.cpp:408] conv6_2_mbox_loc -> conv6_2_mbox_loc
I0216 12:56:34.313704  4262 net.cpp:150] Setting up conv6_2_mbox_loc
I0216 12:56:34.313719  4262 net.cpp:157] Top shape: 1 24 10 10 (2400)
I0216 12:56:34.313724  4262 net.cpp:165] Memory required for data: 252731472
I0216 12:56:34.313731  4262 layer_factory.hpp:77] Creating layer conv6_2_mbox_loc_perm
I0216 12:56:34.313751  4262 net.cpp:100] Creating Layer conv6_2_mbox_loc_perm
I0216 12:56:34.313757  4262 net.cpp:434] conv6_2_mbox_loc_perm <- conv6_2_mbox_loc
I0216 12:56:34.313763  4262 net.cpp:408] conv6_2_mbox_loc_perm -> conv6_2_mbox_loc_perm
I0216 12:56:34.313918  4262 net.cpp:150] Setting up conv6_2_mbox_loc_perm
I0216 12:56:34.313927  4262 net.cpp:157] Top shape: 1 10 10 24 (2400)
I0216 12:56:34.313930  4262 net.cpp:165] Memory required for data: 252741072
I0216 12:56:34.313935  4262 layer_factory.hpp:77] Creating layer conv6_2_mbox_loc_flat
I0216 12:56:34.313941  4262 net.cpp:100] Creating Layer conv6_2_mbox_loc_flat
I0216 12:56:34.313944  4262 net.cpp:434] conv6_2_mbox_loc_flat <- conv6_2_mbox_loc_perm
I0216 12:56:34.313951  4262 net.cpp:408] conv6_2_mbox_loc_flat -> conv6_2_mbox_loc_flat
I0216 12:56:34.313987  4262 net.cpp:150] Setting up conv6_2_mbox_loc_flat
I0216 12:56:34.313994  4262 net.cpp:157] Top shape: 1 2400 (2400)
I0216 12:56:34.313998  4262 net.cpp:165] Memory required for data: 252750672
I0216 12:56:34.314002  4262 layer_factory.hpp:77] Creating layer conv6_2_mbox_conf
I0216 12:56:34.314013  4262 net.cpp:100] Creating Layer conv6_2_mbox_conf
I0216 12:56:34.314016  4262 net.cpp:434] conv6_2_mbox_conf <- conv6_2_conv6_2_relu_0_split_2
I0216 12:56:34.314025  4262 net.cpp:408] conv6_2_mbox_conf -> conv6_2_mbox_conf
I0216 12:56:34.320530  4262 net.cpp:150] Setting up conv6_2_mbox_conf
I0216 12:56:34.320547  4262 net.cpp:157] Top shape: 1 132 10 10 (13200)
I0216 12:56:34.320552  4262 net.cpp:165] Memory required for data: 252803472
I0216 12:56:34.320559  4262 layer_factory.hpp:77] Creating layer conv6_2_mbox_conf_perm
I0216 12:56:34.320566  4262 net.cpp:100] Creating Layer conv6_2_mbox_conf_perm
I0216 12:56:34.320571  4262 net.cpp:434] conv6_2_mbox_conf_perm <- conv6_2_mbox_conf
I0216 12:56:34.320578  4262 net.cpp:408] conv6_2_mbox_conf_perm -> conv6_2_mbox_conf_perm
I0216 12:56:34.320734  4262 net.cpp:150] Setting up conv6_2_mbox_conf_perm
I0216 12:56:34.320742  4262 net.cpp:157] Top shape: 1 10 10 132 (13200)
I0216 12:56:34.320746  4262 net.cpp:165] Memory required for data: 252856272
I0216 12:56:34.320750  4262 layer_factory.hpp:77] Creating layer conv6_2_mbox_conf_flat
I0216 12:56:34.320756  4262 net.cpp:100] Creating Layer conv6_2_mbox_conf_flat
I0216 12:56:34.320760  4262 net.cpp:434] conv6_2_mbox_conf_flat <- conv6_2_mbox_conf_perm
I0216 12:56:34.320767  4262 net.cpp:408] conv6_2_mbox_conf_flat -> conv6_2_mbox_conf_flat
I0216 12:56:34.320802  4262 net.cpp:150] Setting up conv6_2_mbox_conf_flat
I0216 12:56:34.320811  4262 net.cpp:157] Top shape: 1 13200 (13200)
I0216 12:56:34.320816  4262 net.cpp:165] Memory required for data: 252909072
I0216 12:56:34.320818  4262 layer_factory.hpp:77] Creating layer conv6_2_mbox_priorbox
I0216 12:56:34.320825  4262 net.cpp:100] Creating Layer conv6_2_mbox_priorbox
I0216 12:56:34.320829  4262 net.cpp:434] conv6_2_mbox_priorbox <- conv6_2_conv6_2_relu_0_split_3
I0216 12:56:34.320835  4262 net.cpp:434] conv6_2_mbox_priorbox <- data_data_0_split_3
I0216 12:56:34.320842  4262 net.cpp:408] conv6_2_mbox_priorbox -> conv6_2_mbox_priorbox
I0216 12:56:34.320879  4262 net.cpp:150] Setting up conv6_2_mbox_priorbox
I0216 12:56:34.320888  4262 net.cpp:157] Top shape: 1 2 2400 (4800)
I0216 12:56:34.320891  4262 net.cpp:165] Memory required for data: 252928272
I0216 12:56:34.320895  4262 layer_factory.hpp:77] Creating layer conv7_2_mbox_loc
I0216 12:56:34.320906  4262 net.cpp:100] Creating Layer conv7_2_mbox_loc
I0216 12:56:34.320910  4262 net.cpp:434] conv7_2_mbox_loc <- conv7_2_conv7_2_relu_0_split_1
I0216 12:56:34.320916  4262 net.cpp:408] conv7_2_mbox_loc -> conv7_2_mbox_loc
I0216 12:56:34.322746  4262 net.cpp:150] Setting up conv7_2_mbox_loc
I0216 12:56:34.322763  4262 net.cpp:157] Top shape: 1 24 5 5 (600)
I0216 12:56:34.322768  4262 net.cpp:165] Memory required for data: 252930672
I0216 12:56:34.322775  4262 layer_factory.hpp:77] Creating layer conv7_2_mbox_loc_perm
I0216 12:56:34.322782  4262 net.cpp:100] Creating Layer conv7_2_mbox_loc_perm
I0216 12:56:34.322798  4262 net.cpp:434] conv7_2_mbox_loc_perm <- conv7_2_mbox_loc
I0216 12:56:34.322805  4262 net.cpp:408] conv7_2_mbox_loc_perm -> conv7_2_mbox_loc_perm
I0216 12:56:34.322965  4262 net.cpp:150] Setting up conv7_2_mbox_loc_perm
I0216 12:56:34.322974  4262 net.cpp:157] Top shape: 1 5 5 24 (600)
I0216 12:56:34.322978  4262 net.cpp:165] Memory required for data: 252933072
I0216 12:56:34.322983  4262 layer_factory.hpp:77] Creating layer conv7_2_mbox_loc_flat
I0216 12:56:34.322989  4262 net.cpp:100] Creating Layer conv7_2_mbox_loc_flat
I0216 12:56:34.322994  4262 net.cpp:434] conv7_2_mbox_loc_flat <- conv7_2_mbox_loc_perm
I0216 12:56:34.322999  4262 net.cpp:408] conv7_2_mbox_loc_flat -> conv7_2_mbox_loc_flat
I0216 12:56:34.323035  4262 net.cpp:150] Setting up conv7_2_mbox_loc_flat
I0216 12:56:34.323043  4262 net.cpp:157] Top shape: 1 600 (600)
I0216 12:56:34.323047  4262 net.cpp:165] Memory required for data: 252935472
I0216 12:56:34.323050  4262 layer_factory.hpp:77] Creating layer conv7_2_mbox_conf
I0216 12:56:34.323060  4262 net.cpp:100] Creating Layer conv7_2_mbox_conf
I0216 12:56:34.323065  4262 net.cpp:434] conv7_2_mbox_conf <- conv7_2_conv7_2_relu_0_split_2
I0216 12:56:34.323076  4262 net.cpp:408] conv7_2_mbox_conf -> conv7_2_mbox_conf
I0216 12:56:34.327080  4262 net.cpp:150] Setting up conv7_2_mbox_conf
I0216 12:56:34.327096  4262 net.cpp:157] Top shape: 1 132 5 5 (3300)
I0216 12:56:34.327101  4262 net.cpp:165] Memory required for data: 252948672
I0216 12:56:34.327108  4262 layer_factory.hpp:77] Creating layer conv7_2_mbox_conf_perm
I0216 12:56:34.327116  4262 net.cpp:100] Creating Layer conv7_2_mbox_conf_perm
I0216 12:56:34.327121  4262 net.cpp:434] conv7_2_mbox_conf_perm <- conv7_2_mbox_conf
I0216 12:56:34.327129  4262 net.cpp:408] conv7_2_mbox_conf_perm -> conv7_2_mbox_conf_perm
I0216 12:56:34.327288  4262 net.cpp:150] Setting up conv7_2_mbox_conf_perm
I0216 12:56:34.327298  4262 net.cpp:157] Top shape: 1 5 5 132 (3300)
I0216 12:56:34.327301  4262 net.cpp:165] Memory required for data: 252961872
I0216 12:56:34.327306  4262 layer_factory.hpp:77] Creating layer conv7_2_mbox_conf_flat
I0216 12:56:34.327312  4262 net.cpp:100] Creating Layer conv7_2_mbox_conf_flat
I0216 12:56:34.327317  4262 net.cpp:434] conv7_2_mbox_conf_flat <- conv7_2_mbox_conf_perm
I0216 12:56:34.327324  4262 net.cpp:408] conv7_2_mbox_conf_flat -> conv7_2_mbox_conf_flat
I0216 12:56:34.327359  4262 net.cpp:150] Setting up conv7_2_mbox_conf_flat
I0216 12:56:34.327368  4262 net.cpp:157] Top shape: 1 3300 (3300)
I0216 12:56:34.327370  4262 net.cpp:165] Memory required for data: 252975072
I0216 12:56:34.327374  4262 layer_factory.hpp:77] Creating layer conv7_2_mbox_priorbox
I0216 12:56:34.327383  4262 net.cpp:100] Creating Layer conv7_2_mbox_priorbox
I0216 12:56:34.327386  4262 net.cpp:434] conv7_2_mbox_priorbox <- conv7_2_conv7_2_relu_0_split_3
I0216 12:56:34.327391  4262 net.cpp:434] conv7_2_mbox_priorbox <- data_data_0_split_4
I0216 12:56:34.327399  4262 net.cpp:408] conv7_2_mbox_priorbox -> conv7_2_mbox_priorbox
I0216 12:56:34.327437  4262 net.cpp:150] Setting up conv7_2_mbox_priorbox
I0216 12:56:34.327445  4262 net.cpp:157] Top shape: 1 2 600 (1200)
I0216 12:56:34.327448  4262 net.cpp:165] Memory required for data: 252979872
I0216 12:56:34.327451  4262 layer_factory.hpp:77] Creating layer conv8_2_mbox_loc
I0216 12:56:34.327464  4262 net.cpp:100] Creating Layer conv8_2_mbox_loc
I0216 12:56:34.327471  4262 net.cpp:434] conv8_2_mbox_loc <- conv8_2_conv8_2_relu_0_split_1
I0216 12:56:34.327477  4262 net.cpp:408] conv8_2_mbox_loc -> conv8_2_mbox_loc
I0216 12:56:34.328903  4262 net.cpp:150] Setting up conv8_2_mbox_loc
I0216 12:56:34.328918  4262 net.cpp:157] Top shape: 1 16 3 3 (144)
I0216 12:56:34.328922  4262 net.cpp:165] Memory required for data: 252980448
I0216 12:56:34.328943  4262 layer_factory.hpp:77] Creating layer conv8_2_mbox_loc_perm
I0216 12:56:34.328953  4262 net.cpp:100] Creating Layer conv8_2_mbox_loc_perm
I0216 12:56:34.328956  4262 net.cpp:434] conv8_2_mbox_loc_perm <- conv8_2_mbox_loc
I0216 12:56:34.328977  4262 net.cpp:408] conv8_2_mbox_loc_perm -> conv8_2_mbox_loc_perm
I0216 12:56:34.329143  4262 net.cpp:150] Setting up conv8_2_mbox_loc_perm
I0216 12:56:34.329151  4262 net.cpp:157] Top shape: 1 3 3 16 (144)
I0216 12:56:34.329155  4262 net.cpp:165] Memory required for data: 252981024
I0216 12:56:34.329159  4262 layer_factory.hpp:77] Creating layer conv8_2_mbox_loc_flat
I0216 12:56:34.329166  4262 net.cpp:100] Creating Layer conv8_2_mbox_loc_flat
I0216 12:56:34.329170  4262 net.cpp:434] conv8_2_mbox_loc_flat <- conv8_2_mbox_loc_perm
I0216 12:56:34.329179  4262 net.cpp:408] conv8_2_mbox_loc_flat -> conv8_2_mbox_loc_flat
I0216 12:56:34.329216  4262 net.cpp:150] Setting up conv8_2_mbox_loc_flat
I0216 12:56:34.329222  4262 net.cpp:157] Top shape: 1 144 (144)
I0216 12:56:34.329226  4262 net.cpp:165] Memory required for data: 252981600
I0216 12:56:34.329231  4262 layer_factory.hpp:77] Creating layer conv8_2_mbox_conf
I0216 12:56:34.329241  4262 net.cpp:100] Creating Layer conv8_2_mbox_conf
I0216 12:56:34.329247  4262 net.cpp:434] conv8_2_mbox_conf <- conv8_2_conv8_2_relu_0_split_2
I0216 12:56:34.329254  4262 net.cpp:408] conv8_2_mbox_conf -> conv8_2_mbox_conf
I0216 12:56:34.332428  4262 net.cpp:150] Setting up conv8_2_mbox_conf
I0216 12:56:34.332444  4262 net.cpp:157] Top shape: 1 88 3 3 (792)
I0216 12:56:34.332448  4262 net.cpp:165] Memory required for data: 252984768
I0216 12:56:34.332456  4262 layer_factory.hpp:77] Creating layer conv8_2_mbox_conf_perm
I0216 12:56:34.332465  4262 net.cpp:100] Creating Layer conv8_2_mbox_conf_perm
I0216 12:56:34.332473  4262 net.cpp:434] conv8_2_mbox_conf_perm <- conv8_2_mbox_conf
I0216 12:56:34.332480  4262 net.cpp:408] conv8_2_mbox_conf_perm -> conv8_2_mbox_conf_perm
I0216 12:56:34.332638  4262 net.cpp:150] Setting up conv8_2_mbox_conf_perm
I0216 12:56:34.332648  4262 net.cpp:157] Top shape: 1 3 3 88 (792)
I0216 12:56:34.332650  4262 net.cpp:165] Memory required for data: 252987936
I0216 12:56:34.332654  4262 layer_factory.hpp:77] Creating layer conv8_2_mbox_conf_flat
I0216 12:56:34.332661  4262 net.cpp:100] Creating Layer conv8_2_mbox_conf_flat
I0216 12:56:34.332666  4262 net.cpp:434] conv8_2_mbox_conf_flat <- conv8_2_mbox_conf_perm
I0216 12:56:34.332671  4262 net.cpp:408] conv8_2_mbox_conf_flat -> conv8_2_mbox_conf_flat
I0216 12:56:34.332708  4262 net.cpp:150] Setting up conv8_2_mbox_conf_flat
I0216 12:56:34.332716  4262 net.cpp:157] Top shape: 1 792 (792)
I0216 12:56:34.332720  4262 net.cpp:165] Memory required for data: 252991104
I0216 12:56:34.332723  4262 layer_factory.hpp:77] Creating layer conv8_2_mbox_priorbox
I0216 12:56:34.332729  4262 net.cpp:100] Creating Layer conv8_2_mbox_priorbox
I0216 12:56:34.332734  4262 net.cpp:434] conv8_2_mbox_priorbox <- conv8_2_conv8_2_relu_0_split_3
I0216 12:56:34.332739  4262 net.cpp:434] conv8_2_mbox_priorbox <- data_data_0_split_5
I0216 12:56:34.332746  4262 net.cpp:408] conv8_2_mbox_priorbox -> conv8_2_mbox_priorbox
I0216 12:56:34.332785  4262 net.cpp:150] Setting up conv8_2_mbox_priorbox
I0216 12:56:34.332793  4262 net.cpp:157] Top shape: 1 2 144 (288)
I0216 12:56:34.332798  4262 net.cpp:165] Memory required for data: 252992256
I0216 12:56:34.332800  4262 layer_factory.hpp:77] Creating layer conv9_2_mbox_loc
I0216 12:56:34.332813  4262 net.cpp:100] Creating Layer conv9_2_mbox_loc
I0216 12:56:34.332818  4262 net.cpp:434] conv9_2_mbox_loc <- conv9_2_conv9_2_relu_0_split_0
I0216 12:56:34.332825  4262 net.cpp:408] conv9_2_mbox_loc -> conv9_2_mbox_loc
I0216 12:56:34.334375  4262 net.cpp:150] Setting up conv9_2_mbox_loc
I0216 12:56:34.334391  4262 net.cpp:157] Top shape: 1 16 1 1 (16)
I0216 12:56:34.334395  4262 net.cpp:165] Memory required for data: 252992320
I0216 12:56:34.334403  4262 layer_factory.hpp:77] Creating layer conv9_2_mbox_loc_perm
I0216 12:56:34.334411  4262 net.cpp:100] Creating Layer conv9_2_mbox_loc_perm
I0216 12:56:34.334417  4262 net.cpp:434] conv9_2_mbox_loc_perm <- conv9_2_mbox_loc
I0216 12:56:34.334424  4262 net.cpp:408] conv9_2_mbox_loc_perm -> conv9_2_mbox_loc_perm
I0216 12:56:34.334591  4262 net.cpp:150] Setting up conv9_2_mbox_loc_perm
I0216 12:56:34.334612  4262 net.cpp:157] Top shape: 1 1 1 16 (16)
I0216 12:56:34.334617  4262 net.cpp:165] Memory required for data: 252992384
I0216 12:56:34.334621  4262 layer_factory.hpp:77] Creating layer conv9_2_mbox_loc_flat
I0216 12:56:34.334627  4262 net.cpp:100] Creating Layer conv9_2_mbox_loc_flat
I0216 12:56:34.334632  4262 net.cpp:434] conv9_2_mbox_loc_flat <- conv9_2_mbox_loc_perm
I0216 12:56:34.334640  4262 net.cpp:408] conv9_2_mbox_loc_flat -> conv9_2_mbox_loc_flat
I0216 12:56:34.334678  4262 net.cpp:150] Setting up conv9_2_mbox_loc_flat
I0216 12:56:34.334686  4262 net.cpp:157] Top shape: 1 16 (16)
I0216 12:56:34.334691  4262 net.cpp:165] Memory required for data: 252992448
I0216 12:56:34.334693  4262 layer_factory.hpp:77] Creating layer conv9_2_mbox_conf
I0216 12:56:34.334705  4262 net.cpp:100] Creating Layer conv9_2_mbox_conf
I0216 12:56:34.334712  4262 net.cpp:434] conv9_2_mbox_conf <- conv9_2_conv9_2_relu_0_split_1
I0216 12:56:34.334719  4262 net.cpp:408] conv9_2_mbox_conf -> conv9_2_mbox_conf
I0216 12:56:34.337914  4262 net.cpp:150] Setting up conv9_2_mbox_conf
I0216 12:56:34.337931  4262 net.cpp:157] Top shape: 1 88 1 1 (88)
I0216 12:56:34.337935  4262 net.cpp:165] Memory required for data: 252992800
I0216 12:56:34.337942  4262 layer_factory.hpp:77] Creating layer conv9_2_mbox_conf_perm
I0216 12:56:34.337950  4262 net.cpp:100] Creating Layer conv9_2_mbox_conf_perm
I0216 12:56:34.337956  4262 net.cpp:434] conv9_2_mbox_conf_perm <- conv9_2_mbox_conf
I0216 12:56:34.337965  4262 net.cpp:408] conv9_2_mbox_conf_perm -> conv9_2_mbox_conf_perm
I0216 12:56:34.338124  4262 net.cpp:150] Setting up conv9_2_mbox_conf_perm
I0216 12:56:34.338134  4262 net.cpp:157] Top shape: 1 1 1 88 (88)
I0216 12:56:34.338136  4262 net.cpp:165] Memory required for data: 252993152
I0216 12:56:34.338140  4262 layer_factory.hpp:77] Creating layer conv9_2_mbox_conf_flat
I0216 12:56:34.338147  4262 net.cpp:100] Creating Layer conv9_2_mbox_conf_flat
I0216 12:56:34.338151  4262 net.cpp:434] conv9_2_mbox_conf_flat <- conv9_2_mbox_conf_perm
I0216 12:56:34.338157  4262 net.cpp:408] conv9_2_mbox_conf_flat -> conv9_2_mbox_conf_flat
I0216 12:56:34.338194  4262 net.cpp:150] Setting up conv9_2_mbox_conf_flat
I0216 12:56:34.338202  4262 net.cpp:157] Top shape: 1 88 (88)
I0216 12:56:34.338205  4262 net.cpp:165] Memory required for data: 252993504
I0216 12:56:34.338208  4262 layer_factory.hpp:77] Creating layer conv9_2_mbox_priorbox
I0216 12:56:34.338217  4262 net.cpp:100] Creating Layer conv9_2_mbox_priorbox
I0216 12:56:34.338223  4262 net.cpp:434] conv9_2_mbox_priorbox <- conv9_2_conv9_2_relu_0_split_2
I0216 12:56:34.338228  4262 net.cpp:434] conv9_2_mbox_priorbox <- data_data_0_split_6
I0216 12:56:34.338234  4262 net.cpp:408] conv9_2_mbox_priorbox -> conv9_2_mbox_priorbox
I0216 12:56:34.338274  4262 net.cpp:150] Setting up conv9_2_mbox_priorbox
I0216 12:56:34.338281  4262 net.cpp:157] Top shape: 1 2 16 (32)
I0216 12:56:34.338284  4262 net.cpp:165] Memory required for data: 252993632
I0216 12:56:34.338289  4262 layer_factory.hpp:77] Creating layer mbox_loc
I0216 12:56:34.338295  4262 net.cpp:100] Creating Layer mbox_loc
I0216 12:56:34.338300  4262 net.cpp:434] mbox_loc <- conv4_3_norm_mbox_loc_flat
I0216 12:56:34.338306  4262 net.cpp:434] mbox_loc <- fc7_mbox_loc_flat
I0216 12:56:34.338311  4262 net.cpp:434] mbox_loc <- conv6_2_mbox_loc_flat
I0216 12:56:34.338316  4262 net.cpp:434] mbox_loc <- conv7_2_mbox_loc_flat
I0216 12:56:34.338321  4262 net.cpp:434] mbox_loc <- conv8_2_mbox_loc_flat
I0216 12:56:34.338325  4262 net.cpp:434] mbox_loc <- conv9_2_mbox_loc_flat
I0216 12:56:34.338335  4262 net.cpp:408] mbox_loc -> mbox_loc
I0216 12:56:34.338377  4262 net.cpp:150] Setting up mbox_loc
I0216 12:56:34.338385  4262 net.cpp:157] Top shape: 1 34928 (34928)
I0216 12:56:34.338388  4262 net.cpp:165] Memory required for data: 253133344
I0216 12:56:34.338392  4262 layer_factory.hpp:77] Creating layer mbox_conf
I0216 12:56:34.338398  4262 net.cpp:100] Creating Layer mbox_conf
I0216 12:56:34.338403  4262 net.cpp:434] mbox_conf <- conv4_3_norm_mbox_conf_flat
I0216 12:56:34.338420  4262 net.cpp:434] mbox_conf <- fc7_mbox_conf_flat
I0216 12:56:34.338425  4262 net.cpp:434] mbox_conf <- conv6_2_mbox_conf_flat
I0216 12:56:34.338430  4262 net.cpp:434] mbox_conf <- conv7_2_mbox_conf_flat
I0216 12:56:34.338434  4262 net.cpp:434] mbox_conf <- conv8_2_mbox_conf_flat
I0216 12:56:34.338438  4262 net.cpp:434] mbox_conf <- conv9_2_mbox_conf_flat
I0216 12:56:34.338445  4262 net.cpp:408] mbox_conf -> mbox_conf
I0216 12:56:34.338484  4262 net.cpp:150] Setting up mbox_conf
I0216 12:56:34.338491  4262 net.cpp:157] Top shape: 1 192104 (192104)
I0216 12:56:34.338495  4262 net.cpp:165] Memory required for data: 253901760
I0216 12:56:34.338498  4262 layer_factory.hpp:77] Creating layer mbox_priorbox
I0216 12:56:34.338505  4262 net.cpp:100] Creating Layer mbox_priorbox
I0216 12:56:34.338510  4262 net.cpp:434] mbox_priorbox <- conv4_3_norm_mbox_priorbox
I0216 12:56:34.338515  4262 net.cpp:434] mbox_priorbox <- fc7_mbox_priorbox
I0216 12:56:34.338523  4262 net.cpp:434] mbox_priorbox <- conv6_2_mbox_priorbox
I0216 12:56:34.338529  4262 net.cpp:434] mbox_priorbox <- conv7_2_mbox_priorbox
I0216 12:56:34.338533  4262 net.cpp:434] mbox_priorbox <- conv8_2_mbox_priorbox
I0216 12:56:34.338537  4262 net.cpp:434] mbox_priorbox <- conv9_2_mbox_priorbox
I0216 12:56:34.338542  4262 net.cpp:408] mbox_priorbox -> mbox_priorbox
I0216 12:56:34.338579  4262 net.cpp:150] Setting up mbox_priorbox
I0216 12:56:34.338587  4262 net.cpp:157] Top shape: 1 2 34928 (69856)
I0216 12:56:34.338590  4262 net.cpp:165] Memory required for data: 254181184
I0216 12:56:34.338594  4262 layer_factory.hpp:77] Creating layer mbox_conf_reshape
I0216 12:56:34.338603  4262 net.cpp:100] Creating Layer mbox_conf_reshape
I0216 12:56:34.338606  4262 net.cpp:434] mbox_conf_reshape <- mbox_conf
I0216 12:56:34.338613  4262 net.cpp:408] mbox_conf_reshape -> mbox_conf_reshape
I0216 12:56:34.338657  4262 net.cpp:150] Setting up mbox_conf_reshape
I0216 12:56:34.338665  4262 net.cpp:157] Top shape: 1 8732 22 (192104)
I0216 12:56:34.338670  4262 net.cpp:165] Memory required for data: 254949600
I0216 12:56:34.338672  4262 layer_factory.hpp:77] Creating layer mbox_conf_softmax
I0216 12:56:34.338680  4262 net.cpp:100] Creating Layer mbox_conf_softmax
I0216 12:56:34.338683  4262 net.cpp:434] mbox_conf_softmax <- mbox_conf_reshape
I0216 12:56:34.338690  4262 net.cpp:408] mbox_conf_softmax -> mbox_conf_softmax
I0216 12:56:34.338985  4262 net.cpp:150] Setting up mbox_conf_softmax
I0216 12:56:34.338997  4262 net.cpp:157] Top shape: 1 8732 22 (192104)
I0216 12:56:34.339001  4262 net.cpp:165] Memory required for data: 255718016
I0216 12:56:34.339005  4262 layer_factory.hpp:77] Creating layer mbox_conf_flatten
I0216 12:56:34.339011  4262 net.cpp:100] Creating Layer mbox_conf_flatten
I0216 12:56:34.339015  4262 net.cpp:434] mbox_conf_flatten <- mbox_conf_softmax
I0216 12:56:34.339022  4262 net.cpp:408] mbox_conf_flatten -> mbox_conf_flatten
I0216 12:56:34.339058  4262 net.cpp:150] Setting up mbox_conf_flatten
I0216 12:56:34.339069  4262 net.cpp:157] Top shape: 1 192104 (192104)
I0216 12:56:34.339073  4262 net.cpp:165] Memory required for data: 256486432
I0216 12:56:34.339077  4262 layer_factory.hpp:77] Creating layer detection_out
I0216 12:56:34.339094  4262 net.cpp:100] Creating Layer detection_out
I0216 12:56:34.339099  4262 net.cpp:434] detection_out <- mbox_loc
I0216 12:56:34.339104  4262 net.cpp:434] detection_out <- mbox_conf_flatten
I0216 12:56:34.339109  4262 net.cpp:434] detection_out <- mbox_priorbox
I0216 12:56:34.339117  4262 net.cpp:408] detection_out -> detection_out
I0216 12:56:34.380429  4262 net.cpp:150] Setting up detection_out
I0216 12:56:34.380462  4262 net.cpp:157] Top shape: 1 1 1 7 (7)
I0216 12:56:34.380475  4262 net.cpp:165] Memory required for data: 256486460
I0216 12:56:34.380486  4262 layer_factory.hpp:77] Creating layer detection_eval
I0216 12:56:34.380506  4262 net.cpp:100] Creating Layer detection_eval
I0216 12:56:34.380517  4262 net.cpp:434] detection_eval <- detection_out
I0216 12:56:34.380529  4262 net.cpp:434] detection_eval <- label
I0216 12:56:34.380565  4262 net.cpp:408] detection_eval -> detection_eval
I0216 12:56:34.383018  4262 net.cpp:150] Setting up detection_eval
I0216 12:56:34.383040  4262 net.cpp:157] Top shape: 1 1 22 5 (110)
I0216 12:56:34.383050  4262 net.cpp:165] Memory required for data: 256486900
I0216 12:56:34.383061  4262 net.cpp:228] detection_eval does not need backward computation.
I0216 12:56:34.383071  4262 net.cpp:228] detection_out does not need backward computation.
I0216 12:56:34.383081  4262 net.cpp:228] mbox_conf_flatten does not need backward computation.
I0216 12:56:34.383091  4262 net.cpp:228] mbox_conf_softmax does not need backward computation.
…
