…
      sampler {
        min_scale: 0.3
        max_scale: 1
        min_aspect_ratio: 0.5
        max_aspect_ratio: 2
      }
      sample_constraint {
        min_jaccard_overlap: 0.9
      }
      max_sample: 1
      max_trials: 50
    }
    batch_sampler {
      sampler {
        min_scale: 0.3
        max_scale: 1
        min_aspect_ratio: 0.5
        max_aspect_ratio: 2
      }
      sample_constraint {
        max_jaccard_overlap: 1
      }
      max_sample: 1
      max_trials: 50
    }
    label_map_file: "data/VOC0712/labelmap_voc.prototxt"
  }
}
layer {
  name: "conv1_1_rgbd"
  type: "Convolution"
  bottom: "data"
  top: "conv1_1_rgbd"
  param {
    lr_mult: 1
    decay_mult: 1
  }
  param {
    lr_mult: 2
    decay_mult: 0
  }
  convolution_param {
    num_output: 64
    pad: 1
    kernel_size: 3
    weight_filler {
      type: "xavier"
    }
    bias_filler {
      type: "constant"
      value: 0
    }
  }
}
layer {
  name: "relu1_1"
  type: "ReLU"
  bottom: "conv1_1_rgbd"
  top: "conv1_1_rgbd"
}
layer {
  name: "conv1_2"
  type: "Convolution"
  bottom: "conv1_1_rgbd"
  top: "conv1_2"
  param {
    lr_mult: 1
    decay_mult: 1
  }
  param {
    lr_mult: 2
    decay_mult: 0
  }
  convolution_param {
    num_output: 64
    pad: 1
    kernel_size: 3
    weight_filler {
      type: "xavier"
    }
    bias_filler {
      type: "constant"
      value: 0
    }
  }
}
layer {
  name: "relu1_2"
  type: "ReLU"
  bottom: "conv1_2"
  top: "conv1_2"
}
layer {
  name: "pool1"
  type: "Pooling"
  bottom: "conv1_2"
  top: "pool1"
  pooling_param {
    pool: MAX
    kernel_size: 2
    stride: 2
  }
}
layer {
  name: "conv2_1"
  type: "Convolution"
  bottom: "pool1"
  top: "conv2_1"
  param {
    lr_mult: 1
    decay_mult: 1
  }
  param {
    lr_mult: 2
    decay_mult: 0
  }
  convolution_param {
    num_output: 128
    pad: 1
    kernel_size: 3
    weight_filler {
      type: "xavier"
    }
    bias_filler {
      type: "constant"
      value: 0
    }
  }
}
layer {
  name: "relu2_1"
  type: "ReLU"
  bottom: "conv2_1"
  top: "conv2_1"
}
layer {
  name: "conv2_2"
  type: "Convolution"
  bottom: "conv2_1"
  top: "conv2_2"
  param {
    lr_mult: 1
    decay_mult: 1
  }
  param {
    lr_mult: 2
    decay_mult: 0
  }
  convolution_param {
    num_output: 128
    pad: 1
    kernel_size: 3
    weight_filler {
      type: "xavier"
    }
    bias_filler {
      type: "constant"
      value: 0
    }
  }
}
layer {
  name: "relu2_2"
  type: "ReLU"
  bottom: "conv2_2"
  top: "conv2_2"
}
layer {
  name: "pool2"
  type: "Pooling"
  bottom: "conv2_2"
  top: "pool2"
  pooling_param {
    pool: MAX
    kernel_size: 2
    stride: 2
  }
}
layer {
  name: "conv3_1"
  type: "Convolution"
  bottom: "pool2"
  top: "conv3_1"
  param {
    lr_mult: 1
    decay_mult: 1
  }
  param {
    lr_mult: 2
    decay_mult: 0
  }
  convolution_param {
    num_output: 256
    pad: 1
    kernel_size: 3
    weight_filler {
      type: "xavier"
    }
    bias_filler {
      type: "constant"
      value: 0
    }
  }
}
layer {
  name: "relu3_1"
  type: "ReLU"
  bottom: "conv3_1"
  top: "conv3_1"
}
layer {
  name: "conv3_2"
  type: "Convolution"
  bottom: "conv3_1"
  top: "conv3_2"
  param {
    lr_mult: 1
    decay_mult: 1
  }
  param {
    lr_mult: 2
    decay_mult: 0
  }
  convolution_param {
    num_output: 256
    pad: 1
    kernel_size: 3
    weight_filler {
      type: "xavier"
    }
    bias_filler {
      type: "constant"
      value: 0
    }
  }
}
layer {
  name: "relu3_2"
  type: "ReLU"
  bottom: "conv3_2"
  top: "conv3_2"
}
layer {
  name: "conv3_3"
  type: "Convolution"
  bottom: "conv3_2"
  top: "conv3_3"
  param {
    lr_mult: 1
    decay_mult: 1
  }
  param {
    lr_mult: 2
    decay_mult: 0
  }
  convolution_param {
    num_output: 256
    pad: 1
    kernel_size: 3
    weight_filler {
      type: "xavier"
    }
    bias_filler {
      type: "constant"
      value: 0
    }
  }
}
layer {
  name: "relu3_3"
  type: "ReLU"
  bottom: "conv3_3"
  top: "conv3_3"
}
layer {
  name: "pool3"
  type: "Pooling"
  bottom: "conv3_3"
  top: "pool3"
  pooling_param {
    pool: MAX
    kernel_size: 2
    stride: 2
  }
}
layer {
  name: "conv4_1"
  type: "Convolution"
  bottom: "pool3"
  top: "conv4_1"
  param {
    lr_mult: 1
    decay_mult: 1
  }
  param {
    lr_mult: 2
    decay_mult: 0
  }
  convolution_param {
    num_output: 512
    pad: 1
    kernel_size: 3
    weight_filler {
      type: "xavier"
    }
    bias_filler {
      type: "constant"
      value: 0
    }
  }
}
layer {
  name: "relu4_1"
  type: "ReLU"
  bottom: "conv4_1"
  top: "conv4_1"
}
layer {
  name: "conv4_2"
  type: "Convolution"
  bottom: "conv4_1"
  top: "conv4_2"
  param {
    lr_mult: 1
    decay_mult: 1
  }
  param {
    lr_mult: 2
    decay_mult: 0
  }
  convolution_param {
    num_output: 512
    pad: 1
    kernel_size: 3
    weight_filler {
      type: "xavier"
    }
    bias_filler {
      type: "constant"
      value: 0
    }
  }
}
layer {
  name: "relu4_2"
  type: "ReLU"
  bottom: "conv4_2"
  top: "conv4_2"
}
layer {
  name: "conv4_3"
  type: "Convolution"
  bottom: "conv4_2"
  top: "conv4_3"
  param {
    lr_mult: 1
    decay_mult: 1
  }
  param {
    lr_mult: 2
    decay_mult: 0
  }
  convolution_param {
    num_output: 512
    pad: 1
    kernel_size: 3
    weight_filler {
      type: "xavier"
    }
    bias_filler {
      type: "constant"
      value: 0
    }
  }
}
layer {
  name: "relu4_3"
  type: "ReLU"
  bottom: "conv4_3"
  top: "conv4_3"
}
layer {
  name: "pool4"
  type: "Pooling"
  bottom: "conv4_3"
  top: "pool4"
  pooling_param {
    pool: MAX
    kernel_size: 2
    stride: 2
  }
}
layer {
  name: "conv5_1"
  type: "Convolution"
  bottom: "pool4"
  top: "conv5_1"
  param {
    lr_mult: 1
    decay_mult: 1
  }
  param {
    lr_mult: 2
    decay_mult: 0
  }
  convolution_param {
    num_output: 512
    pad: 1
    kernel_size: 3
    weight_filler {
      type: "xavier"
    }
    bias_filler {
      type: "constant"
      value: 0
    }
    dilation: 1
  }
}
layer {
  name: "relu5_1"
  type: "ReLU"
  bottom: "conv5_1"
  top: "conv5_1"
}
layer {
  name: "conv5_2"
  type: "Convolution"
  bottom: "conv5_1"
  top: "conv5_2"
  param {
    lr_mult: 1
    decay_mult: 1
  }
  param {
    lr_mult: 2
    decay_mult: 0
  }
  convolution_param {
    num_output: 512
    pad: 1
    kernel_size: 3
    weight_filler {
      type: "xavier"
    }
    bias_filler {
      type: "constant"
      value: 0
    }
    dilation: 1
  }
}
layer {
  name: "relu5_2"
  type: "ReLU"
  bottom: "conv5_2"
  top: "conv5_2"
}
layer {
  name: "conv5_3"
  type: "Convolution"
  bottom: "conv5_2"
  top: "conv5_3"
  param {
    lr_mult: 1
    decay_mult: 1
  }
  param {
    lr_mult: 2
    decay_mult: 0
  }
  convolution_param {
    num_output: 512
    pad: 1
    kernel_size: 3
    weight_filler {
      type: "xavier"
    }
    bias_filler {
      type: "constant"
      value: 0
    }
    dilation: 1
  }
}
layer {
  name: "relu5_3"
  type: "ReLU"
  bottom: "conv5_3"
  top: "conv5_3"
}
layer {
  name: "pool5"
  type: "Pooling"
  bottom: "conv5_3"
  top: "pool5"
  pooling_param {
    pool: MAX
    kernel_size: 3
    stride: 1
    pad: 1
  }
}
layer {
  name: "fc6"
  type: "Convolution"
  bottom: "pool5"
  top: "fc6"
  param {
    lr_mult: 1
    decay_mult: 1
  }
  param {
    lr_mult: 2
    decay_mult: 0
  }
  convolution_param {
    num_output: 1024
    pad: 6
    kernel_size: 3
    weight_filler {
      type: "xavier"
    }
    bias_filler {
      type: "constant"
      value: 0
    }
    dilation: 6
  }
}
layer {
  name: "relu6"
  type: "ReLU"
  bottom: "fc6"
  top: "fc6"
}
layer {
  name: "fc7"
  type: "Convolution"
  bottom: "fc6"
  top: "fc7"
  param {
    lr_mult: 1
    decay_mult: 1
  }
  param {
    lr_mult: 2
    decay_mult: 0
  }
  convolution_param {
    num_output: 1024
    kernel_size: 1
    weight_filler {
      type: "xavier"
    }
    bias_filler {
      type: "constant"
      value: 0
    }
  }
}
layer {
  name: "relu7"
  type: "ReLU"
  bottom: "fc7"
  top: "fc7"
}
layer {
  name: "conv6_1"
  type: "Convolution"
  bottom: "fc7"
  top: "conv6_1"
  param {
    lr_mult: 1
    decay_mult: 1
  }
  param {
    lr_mult: 2
    decay_mult: 0
  }
  convolution_param {
    num_output: 256
    pad: 0
    kernel_size: 1
    stride: 1
    weight_filler {
      type: "xavier"
    }
    bias_filler {
      type: "constant"
      value: 0
    }
  }
}
layer {
  name: "conv6_1_relu"
  type: "ReLU"
  bottom: "conv6_1"
  top: "conv6_1"
}
layer {
  name: "conv6_2"
  type: "Convolution"
  bottom: "conv6_1"
  top: "conv6_2"
  param {
    lr_mult: 1
    decay_mult: 1
  }
  param {
    lr_mult: 2
    decay_mult: 0
  }
  convolution_param {
    num_output: 512
    pad: 1
    kernel_size: 3
    stride: 2
    weight_filler {
      type: "xavier"
    }
    bias_filler {
      type: "constant"
      value: 0
    }
  }
}
layer {
  name: "conv6_2_relu"
  type: "ReLU"
  bottom: "conv6_2"
  top: "conv6_2"
}
layer {
  name: "conv7_1"
  type: "Convolution"
  bottom: "conv6_2"
  top: "conv7_1"
  param {
    lr_mult: 1
    decay_mult: 1
  }
  param {
    lr_mult: 2
    decay_mult: 0
  }
  convolution_param {
    num_output: 128
    pad: 0
    kernel_size: 1
    stride: 1
    weight_filler {
      type: "xavier"
    }
    bias_filler {
      type: "constant"
      value: 0
    }
  }
}
layer {
  name: "conv7_1_relu"
  type: "ReLU"
  bottom: "conv7_1"
  top: "conv7_1"
}
layer {
  name: "conv7_2"
  type: "Convolution"
  bottom: "conv7_1"
  top: "conv7_2"
  param {
    lr_mult: 1
    decay_mult: 1
  }
  param {
    lr_mult: 2
    decay_mult: 0
  }
  convolution_param {
    num_output: 256
    pad: 1
    kernel_size: 3
    stride: 2
    weight_filler {
      type: "xavier"
    }
    bias_filler {
      type: "constant"
      value: 0
    }
  }
}
layer {
  name: "conv7_2_relu"
  type: "ReLU"
  bottom: "conv7_2"
  top: "conv7_2"
}
layer {
  name: "conv8_1"
  type: "Convolution"
  bottom: "conv7_2"
  top: "conv8_1"
  param {
    lr_mult: 1
    decay_mult: 1
  }
  param {
    lr_mult: 2
    decay_mult: 0
  }
  convolution_param {
    num_output: 128
    pad: 0
    kernel_size: 1
    stride: 1
    weight_filler {
      type: "xavier"
    }
    bias_filler {
      type: "constant"
      value: 0
    }
  }
}
layer {
  name: "conv8_1_relu"
  type: "ReLU"
  bottom: "conv8_1"
  top: "conv8_1"
}
layer {
  name: "conv8_2"
  type: "Convolution"
  bottom: "conv8_1"
  top: "conv8_2"
  param {
    lr_mult: 1
    decay_mult: 1
  }
  param {
    lr_mult: 2
    decay_mult: 0
  }
  convolution_param {
    num_output: 256
    pad: 0
    kernel_size: 3
    stride: 1
    weight_filler {
      type: "xavier"
    }
    bias_filler {
      type: "constant"
      value: 0
    }
  }
}
layer {
  name: "conv8_2_relu"
  type: "ReLU"
  bottom: "conv8_2"
  top: "conv8_2"
}
layer {
  name: "conv9_1"
  type: "Convolution"
  bottom: "conv8_2"
  top: "conv9_1"
  param {
    lr_mult: 1
    decay_mult: 1
  }
  param {
    lr_mult: 2
    decay_mult: 0
  }
  convolution_param {
    num_output: 128
    pad: 0
    kernel_size: 1
    stride: 1
    weight_filler {
      type: "xavier"
    }
    bias_filler {
      type: "constant"
      value: 0
    }
  }
}
layer {
  name: "conv9_1_relu"
  type: "ReLU"
  bottom: "conv9_1"
  top: "conv9_1"
}
layer {
  name: "conv9_2"
  type: "Convolution"
  bottom: "conv9_1"
  top: "conv9_2"
  param {
    lr_mult: 1
    decay_mult: 1
  }
  param {
    lr_mult: 2
    decay_mult: 0
  }
  convolution_param {
    num_output: 256
    pad: 0
    kernel_size: 3
    stride: 1
    weight_filler {
      type: "xavier"
    }
    bias_filler {
      type: "constant"
      value: 0
    }
  }
}
layer {
  name: "conv9_2_relu"
  type: "ReLU"
  bottom: "conv9_2"
  top: "conv9_2"
}
layer {
  name: "conv4_3_norm"
  type: "Normalize"
  bottom: "conv4_3"
  top: "conv4_3_norm"
  norm_param {
    across_spatial: false
    scale_filler {
      type: "constant"
      value: 20
    }
    channel_shared: false
  }
}
layer {
  name: "conv4_3_norm_mbox_loc"
  type: "Convolution"
  bottom: "conv4_3_norm"
  top: "conv4_3_norm_mbox_loc"
  param {
    lr_mult: 1
    decay_mult: 1
  }
  param {
    lr_mult: 2
    decay_mult: 0
  }
  convolution_param {
    num_output: 16
    pad: 1
    kernel_size: 3
    stride: 1
    weight_filler {
      type: "xavier"
    }
    bias_filler {
      type: "constant"
      value: 0
    }
  }
}
layer {
  name: "conv4_3_norm_mbox_loc_perm"
  type: "Permute"
  bottom: "conv4_3_norm_mbox_loc"
  top: "conv4_3_norm_mbox_loc_perm"
  permute_param {
    order: 0
    order: 2
    order: 3
    order: 1
  }
}
layer {
  name: "conv4_3_norm_mbox_loc_flat"
  type: "Flatten"
  bottom: "conv4_3_norm_mbox_loc_perm"
  top: "conv4_3_norm_mbox_loc_flat"
  flatten_param {
    axis: 1
  }
}
layer {
  name: "conv4_3_norm_mbox_conf"
  type: "Convolution"
  bottom: "conv4_3_norm"
  top: "conv4_3_norm_mbox_conf"
  param {
    lr_mult: 1
    decay_mult: 1
  }
  param {
    lr_mult: 2
    decay_mult: 0
  }
  convolution_param {
    num_output: 88
    pad: 1
    kernel_size: 3
    stride: 1
    weight_filler {
      type: "xavier"
    }
    bias_filler {
      type: "constant"
      value: 0
    }
  }
}
layer {
  name: "conv4_3_norm_mbox_conf_perm"
  type: "Permute"
  bottom: "conv4_3_norm_mbox_conf"
  top: "conv4_3_norm_mbox_conf_perm"
  permute_param {
    order: 0
    order: 2
    order: 3
    order: 1
  }
}
layer {
  name: "conv4_3_norm_mbox_conf_flat"
  type: "Flatten"
  bottom: "conv4_3_norm_mbox_conf_perm"
  top: "conv4_3_norm_mbox_conf_flat"
  flatten_param {
    axis: 1
  }
}
layer {
  name: "conv4_3_norm_mbox_priorbox"
  type: "PriorBox"
  bottom: "conv4_3_norm"
  bottom: "data"
  top: "conv4_3_norm_mbox_priorbox"
  prior_box_param {
    min_size: 30
    max_size: 60
    aspect_ratio: 2
    flip: true
    clip: false
    variance: 0.1
    variance: 0.1
    variance: 0.2
    variance: 0.2
    step: 8
    offset: 0.5
  }
}
layer {
  name: "fc7_mbox_loc"
  type: "Convolution"
  bottom: "fc7"
  top: "fc7_mbox_loc"
  param {
    lr_mult: 1
    decay_mult: 1
  }
  param {
    lr_mult: 2
    decay_mult: 0
  }
  convolution_param {
    num_output: 24
    pad: 1
    kernel_size: 3
    stride: 1
    weight_filler {
      type: "xavier"
    }
    bias_filler {
      type: "constant"
      value: 0
    }
  }
}
layer {
  name: "fc7_mbox_loc_perm"
  type: "Permute"
  bottom: "fc7_mbox_loc"
  top: "fc7_mbox_loc_perm"
  permute_param {
    order: 0
    order: 2
    order: 3
    order: 1
  }
}
layer {
  name: "fc7_mbox_loc_flat"
  type: "Flatten"
  bottom: "fc7_mbox_loc_perm"
  top: "fc7_mbox_loc_flat"
  flatten_param {
    axis: 1
  }
}
layer {
  name: "fc7_mbox_conf"
  type: "Convolution"
  bottom: "fc7"
  top: "fc7_mbox_conf"
  param {
    lr_mult: 1
    decay_mult: 1
  }
  param {
    lr_mult: 2
    decay_mult: 0
  }
  convolution_param {
    num_output: 132
    pad: 1
    kernel_size: 3
    stride: 1
    weight_filler {
      type: "xavier"
    }
    bias_filler {
      type: "constant"
      value: 0
    }
  }
}
layer {
  name: "fc7_mbox_conf_perm"
  type: "Permute"
  bottom: "fc7_mbox_conf"
  top: "fc7_mbox_conf_perm"
  permute_param {
    order: 0
    order: 2
    order: 3
    order: 1
  }
}
layer {
  name: "fc7_mbox_conf_flat"
  type: "Flatten"
  bottom: "fc7_mbox_conf_perm"
  top: "fc7_mbox_conf_flat"
  flatten_param {
    axis: 1
  }
}
layer {
  name: "fc7_mbox_priorbox"
  type: "PriorBox"
  bottom: "fc7"
  bottom: "data"
  top: "fc7_mbox_priorbox"
  prior_box_param {
    min_size: 60
    max_size: 111
    aspect_ratio: 2
    aspect_ratio: 3
    flip: true
    clip: false
    variance: 0.1
    variance: 0.1
    variance: 0.2
    variance: 0.2
    step: 16
    offset: 0.5
  }
}
layer {
  name: "conv6_2_mbox_loc"
  type: "Convolution"
  bottom: "conv6_2"
  top: "conv6_2_mbox_loc"
  param {
    lr_mult: 1
    decay_mult: 1
  }
  param {
    lr_mult: 2
    decay_mult: 0
  }
  convolution_param {
    num_output: 24
    pad: 1
    kernel_size: 3
    stride: 1
    weight_filler {
      type: "xavier"
    }
    bias_filler {
      type: "constant"
      value: 0
    }
  }
}
layer {
  name: "conv6_2_mbox_loc_perm"
  type: "Permute"
  bottom: "conv6_2_mbox_loc"
  top: "conv6_2_mbox_loc_perm"
  permute_param {
    order: 0
    order: 2
    order: 3
    order: 1
  }
}
layer {
  name: "conv6_2_mbox_loc_flat"
  type: "Flatten"
  bottom: "conv6_2_mbox_loc_perm"
  top: "conv6_2_mbox_loc_flat"
  flatten_param {
    axis: 1
  }
}
layer {
  name: "conv6_2_mbox_conf"
  type: "Convolution"
  bottom: "conv6_2"
  top: "conv6_2_mbox_conf"
  param {
    lr_mult: 1
    decay_mult: 1
  }
  param {
    lr_mult: 2
    decay_mult: 0
  }
  convolution_param {
    num_output: 132
    pad: 1
    kernel_size: 3
    stride: 1
    weight_filler {
      type: "xavier"
    }
    bias_filler {
      type: "constant"
      value: 0
    }
  }
}
layer {
  name: "conv6_2_mbox_conf_perm"
  type: "Permute"
  bottom: "conv6_2_mbox_conf"
  top: "conv6_2_mbox_conf_perm"
  permute_param {
    order: 0
    order: 2
    order: 3
    order: 1
  }
}
layer {
  name: "conv6_2_mbox_conf_flat"
  type: "Flatten"
  bottom: "conv6_2_mbox_conf_perm"
  top: "conv6_2_mbox_conf_flat"
  flatten_param {
    axis: 1
  }
}
layer {
  name: "conv6_2_mbox_priorbox"
  type: "PriorBox"
  bottom: "conv6_2"
  bottom: "data"
  top: "conv6_2_mbox_priorbox"
  prior_box_param {
    min_size: 111
    max_size: 162
    aspect_ratio: 2
    aspect_ratio: 3
    flip: true
    clip: false
    variance: 0.1
    variance: 0.1
    variance: 0.2
    variance: 0.2
    step: 32
    offset: 0.5
  }
}
layer {
  name: "conv7_2_mbox_loc"
  type: "Convolution"
  bottom: "conv7_2"
  top: "conv7_2_mbox_loc"
  param {
    lr_mult: 1
    decay_mult: 1
  }
  param {
    lr_mult: 2
    decay_mult: 0
  }
  convolution_param {
    num_output: 24
    pad: 1
    kernel_size: 3
    stride: 1
    weight_filler {
      type: "xavier"
    }
    bias_filler {
      type: "constant"
      value: 0
    }
  }
}
layer {
  name: "conv7_2_mbox_loc_perm"
  type: "Permute"
  bottom: "conv7_2_mbox_loc"
  top: "conv7_2_mbox_loc_perm"
  permute_param {
    order: 0
    order: 2
    order: 3
    order: 1
  }
}
layer {
  name: "conv7_2_mbox_loc_flat"
  type: "Flatten"
  bottom: "conv7_2_mbox_loc_perm"
  top: "conv7_2_mbox_loc_flat"
  flatten_param {
    axis: 1
  }
}
layer {
  name: "conv7_2_mbox_conf"
  type: "Convolution"
  bottom: "conv7_2"
  top: "conv7_2_mbox_conf"
  param {
    lr_mult: 1
    decay_mult: 1
  }
  param {
    lr_mult: 2
    decay_mult: 0
  }
  convolution_param {
    num_output: 132
    pad: 1
    kernel_size: 3
    stride: 1
    weight_filler {
      type: "xavier"
    }
    bias_filler {
      type: "constant"
      value: 0
    }
  }
}
layer {
  name: "conv7_2_mbox_conf_perm"
  type: "Permute"
  bottom: "conv7_2_mbox_conf"
  top: "conv7_2_mbox_conf_perm"
  permute_param {
    order: 0
    order: 2
    order: 3
    order: 1
  }
}
layer {
  name: "conv7_2_mbox_conf_flat"
  type: "Flatten"
  bottom: "conv7_2_mbox_conf_perm"
  top: "conv7_2_mbox_conf_flat"
  flatten_param {
    axis: 1
  }
}
layer {
  name: "conv7_2_mbox_priorbox"
  type: "PriorBox"
  bottom: "conv7_2"
  bottom: "data"
  top: "conv7_2_mbox_priorbox"
  prior_box_param {
    min_size: 162
    max_size: 213
    aspect_ratio: 2
    aspect_ratio: 3
    flip: true
    clip: false
    variance: 0.1
    variance: 0.1
    variance: 0.2
    variance: 0.2
    step: 64
    offset: 0.5
  }
}
layer {
  name: "conv8_2_mbox_loc"
  type: "Convolution"
  bottom: "conv8_2"
  top: "conv8_2_mbox_loc"
  param {
    lr_mult: 1
    decay_mult: 1
  }
  param {
    lr_mult: 2
    decay_mult: 0
  }
  convolution_param {
    num_output: 16
    pad: 1
    kernel_size: 3
    stride: 1
    weight_filler {
      type: "xavier"
    }
    bias_filler {
      type: "constant"
      value: 0
    }
  }
}
layer {
  name: "conv8_2_mbox_loc_perm"
  type: "Permute"
  bottom: "conv8_2_mbox_loc"
  top: "conv8_2_mbox_loc_perm"
  permute_param {
    order: 0
    order: 2
    order: 3
    order: 1
  }
}
layer {
  name: "conv8_2_mbox_loc_flat"
  type: "Flatten"
  bottom: "conv8_2_mbox_loc_perm"
  top: "conv8_2_mbox_loc_flat"
  flatten_param {
    axis: 1
  }
}
layer {
  name: "conv8_2_mbox_conf"
  type: "Convolution"
  bottom: "conv8_2"
  top: "conv8_2_mbox_conf"
  param {
    lr_mult: 1
    decay_mult: 1
  }
  param {
    lr_mult: 2
    decay_mult: 0
  }
  convolution_param {
    num_output: 88
    pad: 1
    kernel_size: 3
    stride: 1
    weight_filler {
      type: "xavier"
    }
    bias_filler {
      type: "constant"
      value: 0
    }
  }
}
layer {
  name: "conv8_2_mbox_conf_perm"
  type: "Permute"
  bottom: "conv8_2_mbox_conf"
  top: "conv8_2_mbox_conf_perm"
  permute_param {
    order: 0
    order: 2
    order: 3
    order: 1
  }
}
layer {
  name: "conv8_2_mbox_conf_flat"
  type: "Flatten"
  bottom: "conv8_2_mbox_conf_perm"
  top: "conv8_2_mbox_conf_flat"
  flatten_param {
    axis: 1
  }
}
layer {
  name: "conv8_2_mbox_priorbox"
  type: "PriorBox"
  bottom: "conv8_2"
  bottom: "data"
  top: "conv8_2_mbox_priorbox"
  prior_box_param {
    min_size: 213
    max_size: 264
    aspect_ratio: 2
    flip: true
    clip: false
    variance: 0.1
    variance: 0.1
    variance: 0.2
    variance: 0.2
    step: 100
    offset: 0.5
  }
}
layer {
  name: "conv9_2_mbox_loc"
  type: "Convolution"
  bottom: "conv9_2"
  top: "conv9_2_mbox_loc"
  param {
    lr_mult: 1
    decay_mult: 1
  }
  param {
    lr_mult: 2
    decay_mult: 0
  }
  convolution_param {
    num_output: 16
    pad: 1
    kernel_size: 3
    stride: 1
    weight_filler {
      type: "xavier"
    }
    bias_filler {
      type: "constant"
      value: 0
    }
  }
}
layer {
  name: "conv9_2_mbox_loc_perm"
  type: "Permute"
  bottom: "conv9_2_mbox_loc"
  top: "conv9_2_mbox_loc_perm"
  permute_param {
    order: 0
    order: 2
    order: 3
    order: 1
  }
}
layer {
  name: "conv9_2_mbox_loc_flat"
  type: "Flatten"
  bottom: "conv9_2_mbox_loc_perm"
  top: "conv9_2_mbox_loc_flat"
  flatten_param {
    axis: 1
  }
}
layer {
  name: "conv9_2_mbox_conf"
  type: "Convolution"
  bottom: "conv9_2"
  top: "conv9_2_mbox_conf"
  param {
    lr_mult: 1
    decay_mult: 1
  }
  param {
    lr_mult: 2
    decay_mult: 0
  }
  convolution_param {
    num_output: 88
    pad: 1
    kernel_size: 3
    stride: 1
    weight_filler {
      type: "xavier"
    }
    bias_filler {
      type: "constant"
      value: 0
    }
  }
}
layer {
  name: "conv9_2_mbox_conf_perm"
  type: "Permute"
  bottom: "conv9_2_mbox_conf"
  top: "conv9_2_mbox_conf_perm"
  permute_param {
    order: 0
    order: 2
    order: 3
    order: 1
  }
}
layer {
  name: "conv9_2_mbox_conf_flat"
  type: "Flatten"
  bottom: "conv9_2_mbox_conf_perm"
  top: "conv9_2_mbox_conf_flat"
  flatten_param {
    axis: 1
  }
}
layer {
  name: "conv9_2_mbox_priorbox"
  type: "PriorBox"
  bottom: "conv9_2"
  bottom: "data"
  top: "conv9_2_mbox_priorbox"
  prior_box_param {
    min_size: 264
    max_size: 315
    aspect_ratio: 2
    flip: true
    clip: false
    variance: 0.1
    variance: 0.1
    variance: 0.2
    variance: 0.2
    step: 300
    offset: 0.5
  }
}
layer {
  name: "mbox_loc"
  type: "Concat"
  bottom: "conv4_3_norm_mbox_loc_flat"
  bottom: "fc7_mbox_loc_flat"
  bottom: "conv6_2_mbox_loc_flat"
  bottom: "conv7_2_mbox_loc_flat"
  bottom: "conv8_2_mbox_loc_flat"
  bottom: "conv9_2_mbox_loc_flat"
  top: "mbox_loc"
  concat_param {
    axis: 1
  }
}
layer {
  name: "mbox_conf"
  type: "Concat"
  bottom: "conv4_3_norm_mbox_conf_flat"
  bottom: "fc7_mbox_conf_flat"
  bottom: "conv6_2_mbox_conf_flat"
  bottom: "conv7_2_mbox_conf_flat"
  bottom: "conv8_2_mbox_conf_flat"
  bottom: "conv9_2_mbox_conf_flat"
  top: "mbox_conf"
  concat_param {
    axis: 1
  }
}
layer {
  name: "mbox_priorbox"
  type: "Concat"
  bottom: "conv4_3_norm_mbox_priorbox"
  bottom: "fc7_mbox_priorbox"
  bottom: "conv6_2_mbox_priorbox"
  bottom: "conv7_2_mbox_priorbox"
  bottom: "conv8_2_mbox_priorbox"
  bottom: "conv9_2_mbox_priorbox"
  top: "mbox_priorbox"
  concat_param {
    axis: 2
  }
}
layer {
  name: "mbox_loss"
  type: "MultiBoxLoss"
  bottom: "mbox_loc"
  bottom: "mbox_conf"
  bottom: "mbox_priorbox"
  bottom: "label"
  top: "mbox_loss"
  include {
    phase: TRAIN
  }
  propagate_down: true
  propagate_down: true
  propagate_down: false
  propagate_down: false
  loss_param {
    normalization: VALID
  }
  multibox_loss_param {
    loc_loss_type: SMOOTH_L1
    conf_loss_type: SOFTMAX
    loc_weight: 1
    num_classes: 22
    share_location: true
    match_type: PER_PREDICTION
    overlap_threshold: 0.5
    use_prior_for_matching: true
    background_label_id: 0
    use_difficult_gt: true
    neg_pos_ratio: 3
    neg_overlap: 0.5
    code_type: CENTER_SIZE
    ignore_cross_boundary_bbox: false
    mining_type: MAX_NEGATIVE
  }
}
I0213 22:13:30.655979 18604 layer_factory.hpp:77] Creating layer data
I0213 22:13:30.674578 18604 net.cpp:100] Creating Layer data
I0213 22:13:30.674633 18604 net.cpp:408] data -> data
I0213 22:13:30.674700 18604 net.cpp:408] data -> label
I0213 22:13:30.694890 18621 db_lmdb.cpp:35] Opened lmdb examples/VOC0712/VOC0712_trainval_lmdb
I0213 22:13:30.826499 18604 annotated_data_layer.cpp:62] output data size: 28,4,300,300
I0213 22:13:30.898602 18604 net.cpp:150] Setting up data
I0213 22:13:30.907531 18604 net.cpp:157] Top shape: 28 4 300 300 (10080000)
I0213 22:13:30.907565 18604 net.cpp:157] Top shape: 1 1 2 8 (16)
I0213 22:13:30.907573 18604 net.cpp:165] Memory required for data: 40320064
I0213 22:13:30.907591 18604 layer_factory.hpp:77] Creating layer data_data_0_split
I0213 22:13:30.913832 18604 net.cpp:100] Creating Layer data_data_0_split
I0213 22:13:30.913859 18604 net.cpp:434] data_data_0_split <- data
I0213 22:13:30.913888 18604 net.cpp:408] data_data_0_split -> data_data_0_split_0
I0213 22:13:30.913908 18604 net.cpp:408] data_data_0_split -> data_data_0_split_1
I0213 22:13:30.913918 18604 net.cpp:408] data_data_0_split -> data_data_0_split_2
I0213 22:13:30.913934 18604 net.cpp:408] data_data_0_split -> data_data_0_split_3
I0213 22:13:30.913944 18604 net.cpp:408] data_data_0_split -> data_data_0_split_4
I0213 22:13:30.913952 18604 net.cpp:408] data_data_0_split -> data_data_0_split_5
I0213 22:13:30.913964 18604 net.cpp:408] data_data_0_split -> data_data_0_split_6
I0213 22:13:30.914121 18604 net.cpp:150] Setting up data_data_0_split
I0213 22:13:30.914139 18604 net.cpp:157] Top shape: 28 4 300 300 (10080000)
I0213 22:13:30.914150 18604 net.cpp:157] Top shape: 28 4 300 300 (10080000)
I0213 22:13:30.914158 18604 net.cpp:157] Top shape: 28 4 300 300 (10080000)
I0213 22:13:30.914165 18604 net.cpp:157] Top shape: 28 4 300 300 (10080000)
I0213 22:13:30.914172 18604 net.cpp:157] Top shape: 28 4 300 300 (10080000)
I0213 22:13:30.914180 18604 net.cpp:157] Top shape: 28 4 300 300 (10080000)
I0213 22:13:30.914186 18604 net.cpp:157] Top shape: 28 4 300 300 (10080000)
I0213 22:13:30.914192 18604 net.cpp:165] Memory required for data: 322560064
I0213 22:13:30.914203 18604 layer_factory.hpp:77] Creating layer conv1_1_rgbd
I0213 22:13:30.914229 18604 net.cpp:100] Creating Layer conv1_1_rgbd
I0213 22:13:30.914239 18604 net.cpp:434] conv1_1_rgbd <- data_data_0_split_0
I0213 22:13:30.914252 18604 net.cpp:408] conv1_1_rgbd -> conv1_1_rgbd
I0213 22:13:31.150305 18622 blocking_queue.cpp:50] Waiting for data
I0213 22:13:33.800503 18604 net.cpp:150] Setting up conv1_1_rgbd
I0213 22:13:33.800539 18604 net.cpp:157] Top shape: 28 64 300 300 (161280000)
I0213 22:13:33.800544 18604 net.cpp:165] Memory required for data: 967680064
I0213 22:13:33.800565 18604 layer_factory.hpp:77] Creating layer relu1_1
I0213 22:13:33.800575 18604 net.cpp:100] Creating Layer relu1_1
I0213 22:13:33.800581 18604 net.cpp:434] relu1_1 <- conv1_1_rgbd
I0213 22:13:33.800587 18604 net.cpp:395] relu1_1 -> conv1_1_rgbd (in-place)
I0213 22:13:33.800909 18604 net.cpp:150] Setting up relu1_1
I0213 22:13:33.800923 18604 net.cpp:157] Top shape: 28 64 300 300 (161280000)
I0213 22:13:33.800927 18604 net.cpp:165] Memory required for data: 1612800064
I0213 22:13:33.800931 18604 layer_factory.hpp:77] Creating layer conv1_2
I0213 22:13:33.800946 18604 net.cpp:100] Creating Layer conv1_2
I0213 22:13:33.800951 18604 net.cpp:434] conv1_2 <- conv1_1_rgbd
I0213 22:13:33.800957 18604 net.cpp:408] conv1_2 -> conv1_2
I0213 22:13:33.802691 18604 net.cpp:150] Setting up conv1_2
I0213 22:13:33.802708 18604 net.cpp:157] Top shape: 28 64 300 300 (161280000)
I0213 22:13:33.802713 18604 net.cpp:165] Memory required for data: 2257920064
I0213 22:13:33.802723 18604 layer_factory.hpp:77] Creating layer relu1_2
I0213 22:13:33.802731 18604 net.cpp:100] Creating Layer relu1_2
I0213 22:13:33.802734 18604 net.cpp:434] relu1_2 <- conv1_2
I0213 22:13:33.802739 18604 net.cpp:395] relu1_2 -> conv1_2 (in-place)
I0213 22:13:33.803032 18604 net.cpp:150] Setting up relu1_2
I0213 22:13:33.803047 18604 net.cpp:157] Top shape: 28 64 300 300 (161280000)
I0213 22:13:33.803051 18604 net.cpp:165] Memory required for data: 2903040064
I0213 22:13:33.803056 18604 layer_factory.hpp:77] Creating layer pool1
I0213 22:13:33.803063 18604 net.cpp:100] Creating Layer pool1
I0213 22:13:33.803067 18604 net.cpp:434] pool1 <- conv1_2
I0213 22:13:33.803073 18604 net.cpp:408] pool1 -> pool1
I0213 22:13:33.803125 18604 net.cpp:150] Setting up pool1
I0213 22:13:33.803154 18604 net.cpp:157] Top shape: 28 64 150 150 (40320000)
I0213 22:13:33.803158 18604 net.cpp:165] Memory required for data: 3064320064
I0213 22:13:33.803163 18604 layer_factory.hpp:77] Creating layer conv2_1
I0213 22:13:33.803172 18604 net.cpp:100] Creating Layer conv2_1
I0213 22:13:33.803179 18604 net.cpp:434] conv2_1 <- pool1
I0213 22:13:33.803185 18604 net.cpp:408] conv2_1 -> conv2_1
I0213 22:13:33.804790 18604 net.cpp:150] Setting up conv2_1
I0213 22:13:33.804806 18604 net.cpp:157] Top shape: 28 128 150 150 (80640000)
I0213 22:13:33.804811 18604 net.cpp:165] Memory required for data: 3386880064
I0213 22:13:33.804821 18604 layer_factory.hpp:77] Creating layer relu2_1
I0213 22:13:33.804828 18604 net.cpp:100] Creating Layer relu2_1
I0213 22:13:33.804832 18604 net.cpp:434] relu2_1 <- conv2_1
I0213 22:13:33.804837 18604 net.cpp:395] relu2_1 -> conv2_1 (in-place)
I0213 22:13:33.805004 18604 net.cpp:150] Setting up relu2_1
I0213 22:13:33.805016 18604 net.cpp:157] Top shape: 28 128 150 150 (80640000)
I0213 22:13:33.805021 18604 net.cpp:165] Memory required for data: 3709440064
I0213 22:13:33.805024 18604 layer_factory.hpp:77] Creating layer conv2_2
I0213 22:13:33.805037 18604 net.cpp:100] Creating Layer conv2_2
I0213 22:13:33.805047 18604 net.cpp:434] conv2_2 <- conv2_1
I0213 22:13:33.805053 18604 net.cpp:408] conv2_2 -> conv2_2
I0213 22:13:33.807549 18604 net.cpp:150] Setting up conv2_2
I0213 22:13:33.807569 18604 net.cpp:157] Top shape: 28 128 150 150 (80640000)
I0213 22:13:33.807574 18604 net.cpp:165] Memory required for data: 4032000064
I0213 22:13:33.807581 18604 layer_factory.hpp:77] Creating layer relu2_2
I0213 22:13:33.807588 18604 net.cpp:100] Creating Layer relu2_2
I0213 22:13:33.807593 18604 net.cpp:434] relu2_2 <- conv2_2
I0213 22:13:33.807598 18604 net.cpp:395] relu2_2 -> conv2_2 (in-place)
I0213 22:13:33.807962 18604 net.cpp:150] Setting up relu2_2
I0213 22:13:33.808013 18604 net.cpp:157] Top shape: 28 128 150 150 (80640000)
I0213 22:13:33.808035 18604 net.cpp:165] Memory required for data: 4354560064
I0213 22:13:33.808055 18604 layer_factory.hpp:77] Creating layer pool2
I0213 22:13:33.808079 18604 net.cpp:100] Creating Layer pool2
I0213 22:13:33.808097 18604 net.cpp:434] pool2 <- conv2_2
I0213 22:13:33.808120 18604 net.cpp:408] pool2 -> pool2
I0213 22:13:33.808192 18604 net.cpp:150] Setting up pool2
I0213 22:13:33.808220 18604 net.cpp:157] Top shape: 28 128 75 75 (20160000)
I0213 22:13:33.808240 18604 net.cpp:165] Memory required for data: 4435200064
I0213 22:13:33.808259 18604 layer_factory.hpp:77] Creating layer conv3_1
I0213 22:13:33.808286 18604 net.cpp:100] Creating Layer conv3_1
I0213 22:13:33.808306 18604 net.cpp:434] conv3_1 <- pool2
I0213 22:13:33.808328 18604 net.cpp:408] conv3_1 -> conv3_1
I0213 22:13:33.813132 18604 net.cpp:150] Setting up conv3_1
I0213 22:13:33.813149 18604 net.cpp:157] Top shape: 28 256 75 75 (40320000)
I0213 22:13:33.813154 18604 net.cpp:165] Memory required for data: 4596480064
I0213 22:13:33.813165 18604 layer_factory.hpp:77] Creating layer relu3_1
I0213 22:13:33.813172 18604 net.cpp:100] Creating Layer relu3_1
I0213 22:13:33.813176 18604 net.cpp:434] relu3_1 <- conv3_1
I0213 22:13:33.813182 18604 net.cpp:395] relu3_1 -> conv3_1 (in-place)
I0213 22:13:33.813489 18604 net.cpp:150] Setting up relu3_1
I0213 22:13:33.813508 18604 net.cpp:157] Top shape: 28 256 75 75 (40320000)
I0213 22:13:33.813516 18604 net.cpp:165] Memory required for data: 4757760064
I0213 22:13:33.813547 18604 layer_factory.hpp:77] Creating layer conv3_2
I0213 22:13:33.813581 18604 net.cpp:100] Creating Layer conv3_2
I0213 22:13:33.813606 18604 net.cpp:434] conv3_2 <- conv3_1
I0213 22:13:33.813638 18604 net.cpp:408] conv3_2 -> conv3_2
I0213 22:13:33.819733 18604 net.cpp:150] Setting up conv3_2
I0213 22:13:33.819751 18604 net.cpp:157] Top shape: 28 256 75 75 (40320000)
I0213 22:13:33.819756 18604 net.cpp:165] Memory required for data: 4919040064
I0213 22:13:33.819763 18604 layer_factory.hpp:77] Creating layer relu3_2
I0213 22:13:33.819772 18604 net.cpp:100] Creating Layer relu3_2
I0213 22:13:33.819792 18604 net.cpp:434] relu3_2 <- conv3_2
I0213 22:13:33.819797 18604 net.cpp:395] relu3_2 -> conv3_2 (in-place)
I0213 22:13:33.820020 18604 net.cpp:150] Setting up relu3_2
I0213 22:13:33.820034 18604 net.cpp:157] Top shape: 28 256 75 75 (40320000)
I0213 22:13:33.820039 18604 net.cpp:165] Memory required for data: 5080320064
I0213 22:13:33.820042 18604 layer_factory.hpp:77] Creating layer conv3_3
I0213 22:13:33.820060 18604 net.cpp:100] Creating Layer conv3_3
I0213 22:13:33.820068 18604 net.cpp:434] conv3_3 <- conv3_2
I0213 22:13:33.820080 18604 net.cpp:408] conv3_3 -> conv3_3
I0213 22:13:33.826184 18604 net.cpp:150] Setting up conv3_3
I0213 22:13:33.826202 18604 net.cpp:157] Top shape: 28 256 75 75 (40320000)
I0213 22:13:33.826206 18604 net.cpp:165] Memory required for data: 5241600064
I0213 22:13:33.826213 18604 layer_factory.hpp:77] Creating layer relu3_3
I0213 22:13:33.826220 18604 net.cpp:100] Creating Layer relu3_3
I0213 22:13:33.826225 18604 net.cpp:434] relu3_3 <- conv3_3
I0213 22:13:33.826231 18604 net.cpp:395] relu3_3 -> conv3_3 (in-place)
I0213 22:13:33.826592 18604 net.cpp:150] Setting up relu3_3
I0213 22:13:33.826608 18604 net.cpp:157] Top shape: 28 256 75 75 (40320000)
I0213 22:13:33.826612 18604 net.cpp:165] Memory required for data: 5402880064
I0213 22:13:33.826617 18604 layer_factory.hpp:77] Creating layer pool3
I0213 22:13:33.826624 18604 net.cpp:100] Creating Layer pool3
I0213 22:13:33.826632 18604 net.cpp:434] pool3 <- conv3_3
I0213 22:13:33.826645 18604 net.cpp:408] pool3 -> pool3
I0213 22:13:33.826710 18604 net.cpp:150] Setting up pool3
I0213 22:13:33.826725 18604 net.cpp:157] Top shape: 28 256 38 38 (10350592)
I0213 22:13:33.826735 18604 net.cpp:165] Memory required for data: 5444282432
I0213 22:13:33.826742 18604 layer_factory.hpp:77] Creating layer conv4_1
I0213 22:13:33.826761 18604 net.cpp:100] Creating Layer conv4_1
I0213 22:13:33.826769 18604 net.cpp:434] conv4_1 <- pool3
I0213 22:13:33.826781 18604 net.cpp:408] conv4_1 -> conv4_1
I0213 22:13:33.839212 18604 net.cpp:150] Setting up conv4_1
I0213 22:13:33.839243 18604 net.cpp:157] Top shape: 28 512 38 38 (20701184)
I0213 22:13:33.839248 18604 net.cpp:165] Memory required for data: 5527087168
I0213 22:13:33.839257 18604 layer_factory.hpp:77] Creating layer relu4_1
I0213 22:13:33.839267 18604 net.cpp:100] Creating Layer relu4_1
I0213 22:13:33.839272 18604 net.cpp:434] relu4_1 <- conv4_1
I0213 22:13:33.839280 18604 net.cpp:395] relu4_1 -> conv4_1 (in-place)
I0213 22:13:33.839627 18604 net.cpp:150] Setting up relu4_1
I0213 22:13:33.839643 18604 net.cpp:157] Top shape: 28 512 38 38 (20701184)
I0213 22:13:33.839648 18604 net.cpp:165] Memory required for data: 5609891904
I0213 22:13:33.839651 18604 layer_factory.hpp:77] Creating layer conv4_2
I0213 22:13:33.839664 18604 net.cpp:100] Creating Layer conv4_2
I0213 22:13:33.839669 18604 net.cpp:434] conv4_2 <- conv4_1
I0213 22:13:33.839676 18604 net.cpp:408] conv4_2 -> conv4_2
I0213 22:13:33.861960 18604 net.cpp:150] Setting up conv4_2
I0213 22:13:33.861999 18604 net.cpp:157] Top shape: 28 512 38 38 (20701184)
I0213 22:13:33.862004 18604 net.cpp:165] Memory required for data: 5692696640
I0213 22:13:33.862021 18604 layer_factory.hpp:77] Creating layer relu4_2
I0213 22:13:33.862067 18604 net.cpp:100] Creating Layer relu4_2
I0213 22:13:33.862079 18604 net.cpp:434] relu4_2 <- conv4_2
I0213 22:13:33.862092 18604 net.cpp:395] relu4_2 -> conv4_2 (in-place)
I0213 22:13:33.862315 18604 net.cpp:150] Setting up relu4_2
I0213 22:13:33.862329 18604 net.cpp:157] Top shape: 28 512 38 38 (20701184)
I0213 22:13:33.862335 18604 net.cpp:165] Memory required for data: 5775501376
I0213 22:13:33.862341 18604 layer_factory.hpp:77] Creating layer conv4_3
I0213 22:13:33.862370 18604 net.cpp:100] Creating Layer conv4_3
I0213 22:13:33.862380 18604 net.cpp:434] conv4_3 <- conv4_2
I0213 22:13:33.862396 18604 net.cpp:408] conv4_3 -> conv4_3
I0213 22:13:33.885258 18604 net.cpp:150] Setting up conv4_3
I0213 22:13:33.885293 18604 net.cpp:157] Top shape: 28 512 38 38 (20701184)
I0213 22:13:33.885298 18604 net.cpp:165] Memory required for data: 5858306112
I0213 22:13:33.885327 18604 layer_factory.hpp:77] Creating layer relu4_3
I0213 22:13:33.885345 18604 net.cpp:100] Creating Layer relu4_3
I0213 22:13:33.885354 18604 net.cpp:434] relu4_3 <- conv4_3
I0213 22:13:33.885365 18604 net.cpp:395] relu4_3 -> conv4_3 (in-place)
I0213 22:13:33.885727 18604 net.cpp:150] Setting up relu4_3
I0213 22:13:33.885743 18604 net.cpp:157] Top shape: 28 512 38 38 (20701184)
I0213 22:13:33.885747 18604 net.cpp:165] Memory required for data: 5941110848
I0213 22:13:33.885751 18604 layer_factory.hpp:77] Creating layer conv4_3_relu4_3_0_split
I0213 22:13:33.885758 18604 net.cpp:100] Creating Layer conv4_3_relu4_3_0_split
I0213 22:13:33.885762 18604 net.cpp:434] conv4_3_relu4_3_0_split <- conv4_3
I0213 22:13:33.885771 18604 net.cpp:408] conv4_3_relu4_3_0_split -> conv4_3_relu4_3_0_split_0
I0213 22:13:33.885783 18604 net.cpp:408] conv4_3_relu4_3_0_split -> conv4_3_relu4_3_0_split_1
I0213 22:13:33.885848 18604 net.cpp:150] Setting up conv4_3_relu4_3_0_split
I0213 22:13:33.885864 18604 net.cpp:157] Top shape: 28 512 38 38 (20701184)
I0213 22:13:33.885874 18604 net.cpp:157] Top shape: 28 512 38 38 (20701184)
I0213 22:13:33.885879 18604 net.cpp:165] Memory required for data: 6106720320
I0213 22:13:33.885887 18604 layer_factory.hpp:77] Creating layer pool4
I0213 22:13:33.885900 18604 net.cpp:100] Creating Layer pool4
I0213 22:13:33.885907 18604 net.cpp:434] pool4 <- conv4_3_relu4_3_0_split_0
I0213 22:13:33.885917 18604 net.cpp:408] pool4 -> pool4
I0213 22:13:33.885980 18604 net.cpp:150] Setting up pool4
I0213 22:13:33.885994 18604 net.cpp:157] Top shape: 28 512 19 19 (5175296)
I0213 22:13:33.886003 18604 net.cpp:165] Memory required for data: 6127421504
I0213 22:13:33.886008 18604 layer_factory.hpp:77] Creating layer conv5_1
I0213 22:13:33.886029 18604 net.cpp:100] Creating Layer conv5_1
I0213 22:13:33.886039 18604 net.cpp:434] conv5_1 <- pool4
I0213 22:13:33.886049 18604 net.cpp:408] conv5_1 -> conv5_1
I0213 22:13:33.907891 18604 net.cpp:150] Setting up conv5_1
I0213 22:13:33.907923 18604 net.cpp:157] Top shape: 28 512 19 19 (5175296)
I0213 22:13:33.907928 18604 net.cpp:165] Memory required for data: 6148122688
I0213 22:13:33.907940 18604 layer_factory.hpp:77] Creating layer relu5_1
I0213 22:13:33.907951 18604 net.cpp:100] Creating Layer relu5_1
I0213 22:13:33.907958 18604 net.cpp:434] relu5_1 <- conv5_1
I0213 22:13:33.907964 18604 net.cpp:395] relu5_1 -> conv5_1 (in-place)
I0213 22:13:33.908305 18604 net.cpp:150] Setting up relu5_1
I0213 22:13:33.908323 18604 net.cpp:157] Top shape: 28 512 19 19 (5175296)
I0213 22:13:33.908330 18604 net.cpp:165] Memory required for data: 6168823872
I0213 22:13:33.908337 18604 layer_factory.hpp:77] Creating layer conv5_2
I0213 22:13:33.908356 18604 net.cpp:100] Creating Layer conv5_2
I0213 22:13:33.908365 18604 net.cpp:434] conv5_2 <- conv5_1
I0213 22:13:33.908375 18604 net.cpp:408] conv5_2 -> conv5_2
I0213 22:13:33.930548 18604 net.cpp:150] Setting up conv5_2
I0213 22:13:33.930583 18604 net.cpp:157] Top shape: 28 512 19 19 (5175296)
I0213 22:13:33.930588 18604 net.cpp:165] Memory required for data: 6189525056
I0213 22:13:33.930598 18604 layer_factory.hpp:77] Creating layer relu5_2
I0213 22:13:33.930611 18604 net.cpp:100] Creating Layer relu5_2
I0213 22:13:33.930618 18604 net.cpp:434] relu5_2 <- conv5_2
I0213 22:13:33.930625 18604 net.cpp:395] relu5_2 -> conv5_2 (in-place)
I0213 22:13:33.930856 18604 net.cpp:150] Setting up relu5_2
I0213 22:13:33.930871 18604 net.cpp:157] Top shape: 28 512 19 19 (5175296)
I0213 22:13:33.930874 18604 net.cpp:165] Memory required for data: 6210226240
I0213 22:13:33.930878 18604 layer_factory.hpp:77] Creating layer conv5_3
I0213 22:13:33.930893 18604 net.cpp:100] Creating Layer conv5_3
I0213 22:13:33.930902 18604 net.cpp:434] conv5_3 <- conv5_2
I0213 22:13:33.930918 18604 net.cpp:408] conv5_3 -> conv5_3
I0213 22:13:33.953680 18604 net.cpp:150] Setting up conv5_3
I0213 22:13:33.953773 18604 net.cpp:157] Top shape: 28 512 19 19 (5175296)
I0213 22:13:33.953809 18604 net.cpp:165] Memory required for data: 6230927424
I0213 22:13:33.953860 18604 layer_factory.hpp:77] Creating layer relu5_3
I0213 22:13:33.953904 18604 net.cpp:100] Creating Layer relu5_3
I0213 22:13:33.953933 18604 net.cpp:434] relu5_3 <- conv5_3
I0213 22:13:33.953964 18604 net.cpp:395] relu5_3 -> conv5_3 (in-place)
I0213 22:13:33.954403 18604 net.cpp:150] Setting up relu5_3
I0213 22:13:33.954447 18604 net.cpp:157] Top shape: 28 512 19 19 (5175296)
I0213 22:13:33.954474 18604 net.cpp:165] Memory required for data: 6251628608
I0213 22:13:33.954500 18604 layer_factory.hpp:77] Creating layer pool5
I0213 22:13:33.954530 18604 net.cpp:100] Creating Layer pool5
I0213 22:13:33.954556 18604 net.cpp:434] pool5 <- conv5_3
I0213 22:13:33.954591 18604 net.cpp:408] pool5 -> pool5
I0213 22:13:33.954681 18604 net.cpp:150] Setting up pool5
I0213 22:13:33.954715 18604 net.cpp:157] Top shape: 28 512 19 19 (5175296)
I0213 22:13:33.954741 18604 net.cpp:165] Memory required for data: 6272329792
I0213 22:13:33.954766 18604 layer_factory.hpp:77] Creating layer fc6
I0213 22:13:33.954807 18604 net.cpp:100] Creating Layer fc6
I0213 22:13:33.954834 18604 net.cpp:434] fc6 <- pool5
I0213 22:13:33.954864 18604 net.cpp:408] fc6 -> fc6
I0213 22:13:33.995918 18604 net.cpp:150] Setting up fc6
I0213 22:13:33.995956 18604 net.cpp:157] Top shape: 28 1024 19 19 (10350592)
I0213 22:13:33.995964 18604 net.cpp:165] Memory required for data: 6313732160
I0213 22:13:33.995977 18604 layer_factory.hpp:77] Creating layer relu6
I0213 22:13:33.995992 18604 net.cpp:100] Creating Layer relu6
I0213 22:13:33.996001 18604 net.cpp:434] relu6 <- fc6
I0213 22:13:33.996014 18604 net.cpp:395] relu6 -> fc6 (in-place)
I0213 22:13:33.996273 18604 net.cpp:150] Setting up relu6
I0213 22:13:33.996289 18604 net.cpp:157] Top shape: 28 1024 19 19 (10350592)
I0213 22:13:33.996295 18604 net.cpp:165] Memory required for data: 6355134528
I0213 22:13:33.996302 18604 layer_factory.hpp:77] Creating layer fc7
I0213 22:13:33.996323 18604 net.cpp:100] Creating Layer fc7
I0213 22:13:33.996333 18604 net.cpp:434] fc7 <- fc6
I0213 22:13:33.996347 18604 net.cpp:408] fc7 -> fc7
I0213 22:13:34.006364 18604 net.cpp:150] Setting up fc7
I0213 22:13:34.006389 18604 net.cpp:157] Top shape: 28 1024 19 19 (10350592)
I0213 22:13:34.006397 18604 net.cpp:165] Memory required for data: 6396536896
I0213 22:13:34.006408 18604 layer_factory.hpp:77] Creating layer relu7
I0213 22:13:34.006422 18604 net.cpp:100] Creating Layer relu7
I0213 22:13:34.006429 18604 net.cpp:434] relu7 <- fc7
I0213 22:13:34.006439 18604 net.cpp:395] relu7 -> fc7 (in-place)
I0213 22:13:34.006767 18604 net.cpp:150] Setting up relu7
I0213 22:13:34.006784 18604 net.cpp:157] Top shape: 28 1024 19 19 (10350592)
I0213 22:13:34.006791 18604 net.cpp:165] Memory required for data: 6437939264
I0213 22:13:34.006798 18604 layer_factory.hpp:77] Creating layer fc7_relu7_0_split
I0213 22:13:34.006810 18604 net.cpp:100] Creating Layer fc7_relu7_0_split
I0213 22:13:34.006817 18604 net.cpp:434] fc7_relu7_0_split <- fc7
I0213 22:13:34.006831 18604 net.cpp:408] fc7_relu7_0_split -> fc7_relu7_0_split_0
I0213 22:13:34.006845 18604 net.cpp:408] fc7_relu7_0_split -> fc7_relu7_0_split_1
I0213 22:13:34.006870 18604 net.cpp:408] fc7_relu7_0_split -> fc7_relu7_0_split_2
I0213 22:13:34.006883 18604 net.cpp:408] fc7_relu7_0_split -> fc7_relu7_0_split_3
I0213 22:13:34.006966 18604 net.cpp:150] Setting up fc7_relu7_0_split
I0213 22:13:34.006979 18604 net.cpp:157] Top shape: 28 1024 19 19 (10350592)
I0213 22:13:34.006989 18604 net.cpp:157] Top shape: 28 1024 19 19 (10350592)
I0213 22:13:34.006997 18604 net.cpp:157] Top shape: 28 1024 19 19 (10350592)
I0213 22:13:34.007005 18604 net.cpp:157] Top shape: 28 1024 19 19 (10350592)
I0213 22:13:34.007011 18604 net.cpp:165] Memory required for data: 6603548736
I0213 22:13:34.007017 18604 layer_factory.hpp:77] Creating layer conv6_1
I0213 22:13:34.007037 18604 net.cpp:100] Creating Layer conv6_1
I0213 22:13:34.007047 18604 net.cpp:434] conv6_1 <- fc7_relu7_0_split_0
I0213 22:13:34.007062 18604 net.cpp:408] conv6_1 -> conv6_1
I0213 22:13:34.010493 18604 net.cpp:150] Setting up conv6_1
I0213 22:13:34.010529 18604 net.cpp:157] Top shape: 28 256 19 19 (2587648)
I0213 22:13:34.010536 18604 net.cpp:165] Memory required for data: 6613899328
I0213 22:13:34.010548 18604 layer_factory.hpp:77] Creating layer conv6_1_relu
I0213 22:13:34.010562 18604 net.cpp:100] Creating Layer conv6_1_relu
I0213 22:13:34.010578 18604 net.cpp:434] conv6_1_relu <- conv6_1
I0213 22:13:34.010588 18604 net.cpp:395] conv6_1_relu -> conv6_1 (in-place)
I0213 22:13:34.010926 18604 net.cpp:150] Setting up conv6_1_relu
I0213 22:13:34.010942 18604 net.cpp:157] Top shape: 28 256 19 19 (2587648)
I0213 22:13:34.010949 18604 net.cpp:165] Memory required for data: 6624249920
I0213 22:13:34.010957 18604 layer_factory.hpp:77] Creating layer conv6_2
I0213 22:13:34.010977 18604 net.cpp:100] Creating Layer conv6_2
I0213 22:13:34.010987 18604 net.cpp:434] conv6_2 <- conv6_1
I0213 22:13:34.011000 18604 net.cpp:408] conv6_2 -> conv6_2
I0213 22:13:34.022061 18604 net.cpp:150] Setting up conv6_2
I0213 22:13:34.022092 18604 net.cpp:157] Top shape: 28 512 10 10 (1433600)
I0213 22:13:34.022099 18604 net.cpp:165] Memory required for data: 6629984320
I0213 22:13:34.022122 18604 layer_factory.hpp:77] Creating layer conv6_2_relu
I0213 22:13:34.022138 18604 net.cpp:100] Creating Layer conv6_2_relu
I0213 22:13:34.022148 18604 net.cpp:434] conv6_2_relu <- conv6_2
I0213 22:13:34.022166 18604 net.cpp:395] conv6_2_relu -> conv6_2 (in-place)
I0213 22:13:34.022367 18604 net.cpp:150] Setting up conv6_2_relu
I0213 22:13:34.022382 18604 net.cpp:157] Top shape: 28 512 10 10 (1433600)
I0213 22:13:34.022389 18604 net.cpp:165] Memory required for data: 6635718720
I0213 22:13:34.022397 18604 layer_factory.hpp:77] Creating layer conv6_2_conv6_2_relu_0_split
I0213 22:13:34.022409 18604 net.cpp:100] Creating Layer conv6_2_conv6_2_relu_0_split
I0213 22:13:34.022418 18604 net.cpp:434] conv6_2_conv6_2_relu_0_split <- conv6_2
I0213 22:13:34.022430 18604 net.cpp:408] conv6_2_conv6_2_relu_0_split -> conv6_2_conv6_2_relu_0_split_0
I0213 22:13:34.022450 18604 net.cpp:408] conv6_2_conv6_2_relu_0_split -> conv6_2_conv6_2_relu_0_split_1
I0213 22:13:34.022465 18604 net.cpp:408] conv6_2_conv6_2_relu_0_split -> conv6_2_conv6_2_relu_0_split_2
I0213 22:13:34.022480 18604 net.cpp:408] conv6_2_conv6_2_relu_0_split -> conv6_2_conv6_2_relu_0_split_3
I0213 22:13:34.022563 18604 net.cpp:150] Setting up conv6_2_conv6_2_relu_0_split
I0213 22:13:34.022577 18604 net.cpp:157] Top shape: 28 512 10 10 (1433600)
I0213 22:13:34.022584 18604 net.cpp:157] Top shape: 28 512 10 10 (1433600)
I0213 22:13:34.022593 18604 net.cpp:157] Top shape: 28 512 10 10 (1433600)
I0213 22:13:34.022600 18604 net.cpp:157] Top shape: 28 512 10 10 (1433600)
I0213 22:13:34.022606 18604 net.cpp:165] Memory required for data: 6658656320
I0213 22:13:34.022614 18604 layer_factory.hpp:77] Creating layer conv7_1
I0213 22:13:34.022632 18604 net.cpp:100] Creating Layer conv7_1
I0213 22:13:34.022642 18604 net.cpp:434] conv7_1 <- conv6_2_conv6_2_relu_0_split_0
I0213 22:13:34.022656 18604 net.cpp:408] conv7_1 -> conv7_1
I0213 22:13:34.024238 18604 net.cpp:150] Setting up conv7_1
I0213 22:13:34.024257 18604 net.cpp:157] Top shape: 28 128 10 10 (358400)
I0213 22:13:34.024265 18604 net.cpp:165] Memory required for data: 6660089920
I0213 22:13:34.024276 18604 layer_factory.hpp:77] Creating layer conv7_1_relu
I0213 22:13:34.024287 18604 net.cpp:100] Creating Layer conv7_1_relu
I0213 22:13:34.024294 18604 net.cpp:434] conv7_1_relu <- conv7_1
I0213 22:13:34.024308 18604 net.cpp:395] conv7_1_relu -> conv7_1 (in-place)
I0213 22:13:34.024633 18604 net.cpp:150] Setting up conv7_1_relu
I0213 22:13:34.024651 18604 net.cpp:157] Top shape: 28 128 10 10 (358400)
I0213 22:13:34.024657 18604 net.cpp:165] Memory required for data: 6661523520
I0213 22:13:34.024664 18604 layer_factory.hpp:77] Creating layer conv7_2
I0213 22:13:34.024682 18604 net.cpp:100] Creating Layer conv7_2
I0213 22:13:34.024689 18604 net.cpp:434] conv7_2 <- conv7_1
I0213 22:13:34.024703 18604 net.cpp:408] conv7_2 -> conv7_2
I0213 22:13:34.028276 18604 net.cpp:150] Setting up conv7_2
I0213 22:13:34.028308 18604 net.cpp:157] Top shape: 28 256 5 5 (179200)
I0213 22:13:34.028317 18604 net.cpp:165] Memory required for data: 6662240320
I0213 22:13:34.028329 18604 layer_factory.hpp:77] Creating layer conv7_2_relu
I0213 22:13:34.028342 18604 net.cpp:100] Creating Layer conv7_2_relu
I0213 22:13:34.028352 18604 net.cpp:434] conv7_2_relu <- conv7_2
I0213 22:13:34.028363 18604 net.cpp:395] conv7_2_relu -> conv7_2 (in-place)
I0213 22:13:34.028695 18604 net.cpp:150] Setting up conv7_2_relu
I0213 22:13:34.028712 18604 net.cpp:157] Top shape: 28 256 5 5 (179200)
I0213 22:13:34.028718 18604 net.cpp:165] Memory required for data: 6662957120
I0213 22:13:34.028726 18604 layer_factory.hpp:77] Creating layer conv7_2_conv7_2_relu_0_split
I0213 22:13:34.028736 18604 net.cpp:100] Creating Layer conv7_2_conv7_2_relu_0_split
I0213 22:13:34.028744 18604 net.cpp:434] conv7_2_conv7_2_relu_0_split <- conv7_2
I0213 22:13:34.028759 18604 net.cpp:408] conv7_2_conv7_2_relu_0_split -> conv7_2_conv7_2_relu_0_split_0
I0213 22:13:34.028779 18604 net.cpp:408] conv7_2_conv7_2_relu_0_split -> conv7_2_conv7_2_relu_0_split_1
I0213 22:13:34.028794 18604 net.cpp:408] conv7_2_conv7_2_relu_0_split -> conv7_2_conv7_2_relu_0_split_2
I0213 22:13:34.028806 18604 net.cpp:408] conv7_2_conv7_2_relu_0_split -> conv7_2_conv7_2_relu_0_split_3
I0213 22:13:34.028892 18604 net.cpp:150] Setting up conv7_2_conv7_2_relu_0_split
I0213 22:13:34.028904 18604 net.cpp:157] Top shape: 28 256 5 5 (179200)
I0213 22:13:34.028913 18604 net.cpp:157] Top shape: 28 256 5 5 (179200)
I0213 22:13:34.028920 18604 net.cpp:157] Top shape: 28 256 5 5 (179200)
I0213 22:13:34.028928 18604 net.cpp:157] Top shape: 28 256 5 5 (179200)
I0213 22:13:34.028934 18604 net.cpp:165] Memory required for data: 6665824320
I0213 22:13:34.028941 18604 layer_factory.hpp:77] Creating layer conv8_1
I0213 22:13:34.028959 18604 net.cpp:100] Creating Layer conv8_1
I0213 22:13:34.028967 18604 net.cpp:434] conv8_1 <- conv7_2_conv7_2_relu_0_split_0
I0213 22:13:34.028982 18604 net.cpp:408] conv8_1 -> conv8_1
I0213 22:13:34.030308 18604 net.cpp:150] Setting up conv8_1
I0213 22:13:34.030325 18604 net.cpp:157] Top shape: 28 128 5 5 (89600)
I0213 22:13:34.030333 18604 net.cpp:165] Memory required for data: 6666182720
I0213 22:13:34.030344 18604 layer_factory.hpp:77] Creating layer conv8_1_relu
I0213 22:13:34.030364 18604 net.cpp:100] Creating Layer conv8_1_relu
I0213 22:13:34.030374 18604 net.cpp:434] conv8_1_relu <- conv8_1
I0213 22:13:34.030383 18604 net.cpp:395] conv8_1_relu -> conv8_1 (in-place)
I0213 22:13:34.030572 18604 net.cpp:150] Setting up conv8_1_relu
I0213 22:13:34.030586 18604 net.cpp:157] Top shape: 28 128 5 5 (89600)
I0213 22:13:34.030593 18604 net.cpp:165] Memory required for data: 6666541120
I0213 22:13:34.030599 18604 layer_factory.hpp:77] Creating layer conv8_2
I0213 22:13:34.030617 18604 net.cpp:100] Creating Layer conv8_2
I0213 22:13:34.030625 18604 net.cpp:434] conv8_2 <- conv8_1
I0213 22:13:34.030638 18604 net.cpp:408] conv8_2 -> conv8_2
I0213 22:13:34.034333 18604 net.cpp:150] Setting up conv8_2
I0213 22:13:34.034361 18604 net.cpp:157] Top shape: 28 256 3 3 (64512)
I0213 22:13:34.034369 18604 net.cpp:165] Memory required for data: 6666799168
I0213 22:13:34.034381 18604 layer_factory.hpp:77] Creating layer conv8_2_relu
I0213 22:13:34.034394 18604 net.cpp:100] Creating Layer conv8_2_relu
I0213 22:13:34.034402 18604 net.cpp:434] conv8_2_relu <- conv8_2
I0213 22:13:34.034415 18604 net.cpp:395] conv8_2_relu -> conv8_2 (in-place)
I0213 22:13:34.034742 18604 net.cpp:150] Setting up conv8_2_relu
I0213 22:13:34.034759 18604 net.cpp:157] Top shape: 28 256 3 3 (64512)
I0213 22:13:34.034765 18604 net.cpp:165] Memory required for data: 6667057216
I0213 22:13:34.034772 18604 layer_factory.hpp:77] Creating layer conv8_2_conv8_2_relu_0_split
I0213 22:13:34.034783 18604 net.cpp:100] Creating Layer conv8_2_conv8_2_relu_0_split
I0213 22:13:34.034790 18604 net.cpp:434] conv8_2_conv8_2_relu_0_split <- conv8_2
I0213 22:13:34.034803 18604 net.cpp:408] conv8_2_conv8_2_relu_0_split -> conv8_2_conv8_2_relu_0_split_0
I0213 22:13:34.034832 18604 net.cpp:408] conv8_2_conv8_2_relu_0_split -> conv8_2_conv8_2_relu_0_split_1
I0213 22:13:34.034852 18604 net.cpp:408] conv8_2_conv8_2_relu_0_split -> conv8_2_conv8_2_relu_0_split_2
I0213 22:13:34.034867 18604 net.cpp:408] conv8_2_conv8_2_relu_0_split -> conv8_2_conv8_2_relu_0_split_3
I0213 22:13:34.034955 18604 net.cpp:150] Setting up conv8_2_conv8_2_relu_0_split
I0213 22:13:34.034967 18604 net.cpp:157] Top shape: 28 256 3 3 (64512)
I0213 22:13:34.034976 18604 net.cpp:157] Top shape: 28 256 3 3 (64512)
I0213 22:13:34.034984 18604 net.cpp:157] Top shape: 28 256 3 3 (64512)
I0213 22:13:34.034992 18604 net.cpp:157] Top shape: 28 256 3 3 (64512)
I0213 22:13:34.034998 18604 net.cpp:165] Memory required for data: 6668089408
I0213 22:13:34.035004 18604 layer_factory.hpp:77] Creating layer conv9_1
I0213 22:13:34.035022 18604 net.cpp:100] Creating Layer conv9_1
I0213 22:13:34.035032 18604 net.cpp:434] conv9_1 <- conv8_2_conv8_2_relu_0_split_0
I0213 22:13:34.035046 18604 net.cpp:408] conv9_1 -> conv9_1
I0213 22:13:34.036250 18604 net.cpp:150] Setting up conv9_1
I0213 22:13:34.036268 18604 net.cpp:157] Top shape: 28 128 3 3 (32256)
I0213 22:13:34.036275 18604 net.cpp:165] Memory required for data: 6668218432
I0213 22:13:34.036288 18604 layer_factory.hpp:77] Creating layer conv9_1_relu
I0213 22:13:34.036298 18604 net.cpp:100] Creating Layer conv9_1_relu
I0213 22:13:34.036306 18604 net.cpp:434] conv9_1_relu <- conv9_1
I0213 22:13:34.036319 18604 net.cpp:395] conv9_1_relu -> conv9_1 (in-place)
I0213 22:13:34.036648 18604 net.cpp:150] Setting up conv9_1_relu
I0213 22:13:34.036665 18604 net.cpp:157] Top shape: 28 128 3 3 (32256)
I0213 22:13:34.036672 18604 net.cpp:165] Memory required for data: 6668347456
I0213 22:13:34.036680 18604 layer_factory.hpp:77] Creating layer conv9_2
I0213 22:13:34.036697 18604 net.cpp:100] Creating Layer conv9_2
I0213 22:13:34.036708 18604 net.cpp:434] conv9_2 <- conv9_1
I0213 22:13:34.036725 18604 net.cpp:408] conv9_2 -> conv9_2
I0213 22:13:34.040437 18604 net.cpp:150] Setting up conv9_2
I0213 22:13:34.040458 18604 net.cpp:157] Top shape: 28 256 1 1 (7168)
I0213 22:13:34.040465 18604 net.cpp:165] Memory required for data: 6668376128
I0213 22:13:34.040477 18604 layer_factory.hpp:77] Creating layer conv9_2_relu
I0213 22:13:34.040488 18604 net.cpp:100] Creating Layer conv9_2_relu
I0213 22:13:34.040496 18604 net.cpp:434] conv9_2_relu <- conv9_2
I0213 22:13:34.040508 18604 net.cpp:395] conv9_2_relu -> conv9_2 (in-place)
I0213 22:13:34.040701 18604 net.cpp:150] Setting up conv9_2_relu
I0213 22:13:34.040716 18604 net.cpp:157] Top shape: 28 256 1 1 (7168)
I0213 22:13:34.040722 18604 net.cpp:165] Memory required for data: 6668404800
I0213 22:13:34.040729 18604 layer_factory.hpp:77] Creating layer conv9_2_conv9_2_relu_0_split
I0213 22:13:34.040741 18604 net.cpp:100] Creating Layer conv9_2_conv9_2_relu_0_split
I0213 22:13:34.040750 18604 net.cpp:434] conv9_2_conv9_2_relu_0_split <- conv9_2
I0213 22:13:34.040760 18604 net.cpp:408] conv9_2_conv9_2_relu_0_split -> conv9_2_conv9_2_relu_0_split_0
I0213 22:13:34.040772 18604 net.cpp:408] conv9_2_conv9_2_relu_0_split -> conv9_2_conv9_2_relu_0_split_1
I0213 22:13:34.040792 18604 net.cpp:408] conv9_2_conv9_2_relu_0_split -> conv9_2_conv9_2_relu_0_split_2
I0213 22:13:34.040868 18604 net.cpp:150] Setting up conv9_2_conv9_2_relu_0_split
I0213 22:13:34.040879 18604 net.cpp:157] Top shape: 28 256 1 1 (7168)
I0213 22:13:34.040887 18604 net.cpp:157] Top shape: 28 256 1 1 (7168)
I0213 22:13:34.040895 18604 net.cpp:157] Top shape: 28 256 1 1 (7168)
I0213 22:13:34.040901 18604 net.cpp:165] Memory required for data: 6668490816
I0213 22:13:34.040909 18604 layer_factory.hpp:77] Creating layer conv4_3_norm
I0213 22:13:34.040923 18604 net.cpp:100] Creating Layer conv4_3_norm
I0213 22:13:34.040931 18604 net.cpp:434] conv4_3_norm <- conv4_3_relu4_3_0_split_1
I0213 22:13:34.040941 18604 net.cpp:408] conv4_3_norm -> conv4_3_norm
I0213 22:13:34.041127 18604 net.cpp:150] Setting up conv4_3_norm
I0213 22:13:34.041141 18604 net.cpp:157] Top shape: 28 512 38 38 (20701184)
I0213 22:13:34.041163 18604 net.cpp:165] Memory required for data: 6751295552
I0213 22:13:34.041175 18604 layer_factory.hpp:77] Creating layer conv4_3_norm_conv4_3_norm_0_split
I0213 22:13:34.041193 18604 net.cpp:100] Creating Layer conv4_3_norm_conv4_3_norm_0_split
I0213 22:13:34.041201 18604 net.cpp:434] conv4_3_norm_conv4_3_norm_0_split <- conv4_3_norm
I0213 22:13:34.041211 18604 net.cpp:408] conv4_3_norm_conv4_3_norm_0_split -> conv4_3_norm_conv4_3_norm_0_split_0
I0213 22:13:34.041224 18604 net.cpp:408] conv4_3_norm_conv4_3_norm_0_split -> conv4_3_norm_conv4_3_norm_0_split_1
I0213 22:13:34.041239 18604 net.cpp:408] conv4_3_norm_conv4_3_norm_0_split -> conv4_3_norm_conv4_3_norm_0_split_2
I0213 22:13:34.041304 18604 net.cpp:150] Setting up conv4_3_norm_conv4_3_norm_0_split
I0213 22:13:34.041316 18604 net.cpp:157] Top shape: 28 512 38 38 (20701184)
I0213 22:13:34.041324 18604 net.cpp:157] Top shape: 28 512 38 38 (20701184)
I0213 22:13:34.041332 18604 net.cpp:157] Top shape: 28 512 38 38 (20701184)
I0213 22:13:34.041338 18604 net.cpp:165] Memory required for data: 6999709760
I0213 22:13:34.041345 18604 layer_factory.hpp:77] Creating layer conv4_3_norm_mbox_loc
I0213 22:13:34.041362 18604 net.cpp:100] Creating Layer conv4_3_norm_mbox_loc
I0213 22:13:34.041371 18604 net.cpp:434] conv4_3_norm_mbox_loc <- conv4_3_norm_conv4_3_norm_0_split_0
I0213 22:13:34.041383 18604 net.cpp:408] conv4_3_norm_mbox_loc -> conv4_3_norm_mbox_loc
I0213 22:13:34.043170 18604 net.cpp:150] Setting up conv4_3_norm_mbox_loc
I0213 22:13:34.043190 18604 net.cpp:157] Top shape: 28 16 38 38 (646912)
I0213 22:13:34.043200 18604 net.cpp:165] Memory required for data: 7002297408
I0213 22:13:34.043211 18604 layer_factory.hpp:77] Creating layer conv4_3_norm_mbox_loc_perm
I0213 22:13:34.060649 18604 net.cpp:100] Creating Layer conv4_3_norm_mbox_loc_perm
I0213 22:13:34.060672 18604 net.cpp:434] conv4_3_norm_mbox_loc_perm <- conv4_3_norm_mbox_loc
I0213 22:13:34.060684 18604 net.cpp:408] conv4_3_norm_mbox_loc_perm -> conv4_3_norm_mbox_loc_perm
I0213 22:13:34.060845 18604 net.cpp:150] Setting up conv4_3_norm_mbox_loc_perm
I0213 22:13:34.060860 18604 net.cpp:157] Top shape: 28 38 38 16 (646912)
I0213 22:13:34.060868 18604 net.cpp:165] Memory required for data: 7004885056
I0213 22:13:34.060874 18604 layer_factory.hpp:77] Creating layer conv4_3_norm_mbox_loc_flat
I0213 22:13:34.060885 18604 net.cpp:100] Creating Layer conv4_3_norm_mbox_loc_flat
I0213 22:13:34.060894 18604 net.cpp:434] conv4_3_norm_mbox_loc_flat <- conv4_3_norm_mbox_loc_perm
I0213 22:13:34.060906 18604 net.cpp:408] conv4_3_norm_mbox_loc_flat -> conv4_3_norm_mbox_loc_flat
I0213 22:13:34.060961 18604 net.cpp:150] Setting up conv4_3_norm_mbox_loc_flat
I0213 22:13:34.060976 18604 net.cpp:157] Top shape: 28 23104 (646912)
I0213 22:13:34.060983 18604 net.cpp:165] Memory required for data: 7007472704
I0213 22:13:34.060991 18604 layer_factory.hpp:77] Creating layer conv4_3_norm_mbox_conf
I0213 22:13:34.061018 18604 net.cpp:100] Creating Layer conv4_3_norm_mbox_conf
I0213 22:13:34.061027 18604 net.cpp:434] conv4_3_norm_mbox_conf <- conv4_3_norm_conv4_3_norm_0_split_1
I0213 22:13:34.061039 18604 net.cpp:408] conv4_3_norm_mbox_conf -> conv4_3_norm_mbox_conf
I0213 22:13:34.065773 18604 net.cpp:150] Setting up conv4_3_norm_mbox_conf
I0213 22:13:34.065793 18604 net.cpp:157] Top shape: 28 88 38 38 (3558016)
I0213 22:13:34.065801 18604 net.cpp:165] Memory required for data: 7021704768
I0213 22:13:34.065815 18604 layer_factory.hpp:77] Creating layer conv4_3_norm_mbox_conf_perm
I0213 22:13:34.065829 18604 net.cpp:100] Creating Layer conv4_3_norm_mbox_conf_perm
I0213 22:13:34.065838 18604 net.cpp:434] conv4_3_norm_mbox_conf_perm <- conv4_3_norm_mbox_conf
I0213 22:13:34.065850 18604 net.cpp:408] conv4_3_norm_mbox_conf_perm -> conv4_3_norm_mbox_conf_perm
I0213 22:13:34.065990 18604 net.cpp:150] Setting up conv4_3_norm_mbox_conf_perm
I0213 22:13:34.066004 18604 net.cpp:157] Top shape: 28 38 38 88 (3558016)
I0213 22:13:34.066011 18604 net.cpp:165] Memory required for data: 7035936832
I0213 22:13:34.066018 18604 layer_factory.hpp:77] Creating layer conv4_3_norm_mbox_conf_flat
I0213 22:13:34.066051 18604 net.cpp:100] Creating Layer conv4_3_norm_mbox_conf_flat
I0213 22:13:34.066062 18604 net.cpp:434] conv4_3_norm_mbox_conf_flat <- conv4_3_norm_mbox_conf_perm
I0213 22:13:34.066076 18604 net.cpp:408] conv4_3_norm_mbox_conf_flat -> conv4_3_norm_mbox_conf_flat
I0213 22:13:34.066118 18604 net.cpp:150] Setting up conv4_3_norm_mbox_conf_flat
I0213 22:13:34.066131 18604 net.cpp:157] Top shape: 28 127072 (3558016)
I0213 22:13:34.066138 18604 net.cpp:165] Memory required for data: 7050168896
I0213 22:13:34.066145 18604 layer_factory.hpp:77] Creating layer conv4_3_norm_mbox_priorbox
I0213 22:13:34.066161 18604 net.cpp:100] Creating Layer conv4_3_norm_mbox_priorbox
I0213 22:13:34.066171 18604 net.cpp:434] conv4_3_norm_mbox_priorbox <- conv4_3_norm_conv4_3_norm_0_split_2
I0213 22:13:34.066181 18604 net.cpp:434] conv4_3_norm_mbox_priorbox <- data_data_0_split_1
I0213 22:13:34.066195 18604 net.cpp:408] conv4_3_norm_mbox_priorbox -> conv4_3_norm_mbox_priorbox
I0213 22:13:34.066241 18604 net.cpp:150] Setting up conv4_3_norm_mbox_priorbox
I0213 22:13:34.066259 18604 net.cpp:157] Top shape: 1 2 23104 (46208)
I0213 22:13:34.066268 18604 net.cpp:165] Memory required for data: 7050353728
I0213 22:13:34.066275 18604 layer_factory.hpp:77] Creating layer fc7_mbox_loc
I0213 22:13:34.066293 18604 net.cpp:100] Creating Layer fc7_mbox_loc
I0213 22:13:34.066303 18604 net.cpp:434] fc7_mbox_loc <- fc7_relu7_0_split_1
I0213 22:13:34.066314 18604 net.cpp:408] fc7_mbox_loc -> fc7_mbox_loc
I0213 22:13:34.069509 18604 net.cpp:150] Setting up fc7_mbox_loc
I0213 22:13:34.069528 18604 net.cpp:157] Top shape: 28 24 19 19 (242592)
I0213 22:13:34.069536 18604 net.cpp:165] Memory required for data: 7051324096
I0213 22:13:34.069550 18604 layer_factory.hpp:77] Creating layer fc7_mbox_loc_perm
I0213 22:13:34.069563 18604 net.cpp:100] Creating Layer fc7_mbox_loc_perm
I0213 22:13:34.069576 18604 net.cpp:434] fc7_mbox_loc_perm <- fc7_mbox_loc
I0213 22:13:34.069587 18604 net.cpp:408] fc7_mbox_loc_perm -> fc7_mbox_loc_perm
I0213 22:13:34.069715 18604 net.cpp:150] Setting up fc7_mbox_loc_perm
I0213 22:13:34.069727 18604 net.cpp:157] Top shape: 28 19 19 24 (242592)
I0213 22:13:34.069735 18604 net.cpp:165] Memory required for data: 7052294464
I0213 22:13:34.069741 18604 layer_factory.hpp:77] Creating layer fc7_mbox_loc_flat
I0213 22:13:34.069751 18604 net.cpp:100] Creating Layer fc7_mbox_loc_flat
I0213 22:13:34.069758 18604 net.cpp:434] fc7_mbox_loc_flat <- fc7_mbox_loc_perm
I0213 22:13:34.069768 18604 net.cpp:408] fc7_mbox_loc_flat -> fc7_mbox_loc_flat
I0213 22:13:34.069808 18604 net.cpp:150] Setting up fc7_mbox_loc_flat
I0213 22:13:34.069820 18604 net.cpp:157] Top shape: 28 8664 (242592)
I0213 22:13:34.069828 18604 net.cpp:165] Memory required for data: 7053264832
I0213 22:13:34.069835 18604 layer_factory.hpp:77] Creating layer fc7_mbox_conf
I0213 22:13:34.069854 18604 net.cpp:100] Creating Layer fc7_mbox_conf
I0213 22:13:34.069864 18604 net.cpp:434] fc7_mbox_conf <- fc7_relu7_0_split_2
I0213 22:13:34.069875 18604 net.cpp:408] fc7_mbox_conf -> fc7_mbox_conf
I0213 22:13:34.081153 18604 net.cpp:150] Setting up fc7_mbox_conf
I0213 22:13:34.081181 18604 net.cpp:157] Top shape: 28 132 19 19 (1334256)
I0213 22:13:34.081187 18604 net.cpp:165] Memory required for data: 7058601856
I0213 22:13:34.081200 18604 layer_factory.hpp:77] Creating layer fc7_mbox_conf_perm
I0213 22:13:34.081217 18604 net.cpp:100] Creating Layer fc7_mbox_conf_perm
I0213 22:13:34.081226 18604 net.cpp:434] fc7_mbox_conf_perm <- fc7_mbox_conf
I0213 22:13:34.081241 18604 net.cpp:408] fc7_mbox_conf_perm -> fc7_mbox_conf_perm
I0213 22:13:34.081374 18604 net.cpp:150] Setting up fc7_mbox_conf_perm
I0213 22:13:34.081389 18604 net.cpp:157] Top shape: 28 19 19 132 (1334256)
I0213 22:13:34.081398 18604 net.cpp:165] Memory required for data: 7063938880
I0213 22:13:34.081403 18604 layer_factory.hpp:77] Creating layer fc7_mbox_conf_flat
I0213 22:13:34.081414 18604 net.cpp:100] Creating Layer fc7_mbox_conf_flat
I0213 22:13:34.081423 18604 net.cpp:434] fc7_mbox_conf_flat <- fc7_mbox_conf_perm
I0213 22:13:34.081454 18604 net.cpp:408] fc7_mbox_conf_flat -> fc7_mbox_conf_flat
I0213 22:13:34.081499 18604 net.cpp:150] Setting up fc7_mbox_conf_flat
I0213 22:13:34.081512 18604 net.cpp:157] Top shape: 28 47652 (1334256)
I0213 22:13:34.081518 18604 net.cpp:165] Memory required for data: 7069275904
I0213 22:13:34.081526 18604 layer_factory.hpp:77] Creating layer fc7_mbox_priorbox
I0213 22:13:34.081539 18604 net.cpp:100] Creating Layer fc7_mbox_priorbox
I0213 22:13:34.081550 18604 net.cpp:434] fc7_mbox_priorbox <- fc7_relu7_0_split_3
I0213 22:13:34.081560 18604 net.cpp:434] fc7_mbox_priorbox <- data_data_0_split_2
I0213 22:13:34.081571 18604 net.cpp:408] fc7_mbox_priorbox -> fc7_mbox_priorbox
I0213 22:13:34.081617 18604 net.cpp:150] Setting up fc7_mbox_priorbox
I0213 22:13:34.081630 18604 net.cpp:157] Top shape: 1 2 8664 (17328)
I0213 22:13:34.081636 18604 net.cpp:165] Memory required for data: 7069345216
I0213 22:13:34.081642 18604 layer_factory.hpp:77] Creating layer conv6_2_mbox_loc
I0213 22:13:34.081661 18604 net.cpp:100] Creating Layer conv6_2_mbox_loc
I0213 22:13:34.081671 18604 net.cpp:434] conv6_2_mbox_loc <- conv6_2_conv6_2_relu_0_split_1
I0213 22:13:34.081686 18604 net.cpp:408] conv6_2_mbox_loc -> conv6_2_mbox_loc
I0213 22:13:34.084089 18604 net.cpp:150] Setting up conv6_2_mbox_loc
I0213 22:13:34.084108 18604 net.cpp:157] Top shape: 28 24 10 10 (67200)
I0213 22:13:34.084116 18604 net.cpp:165] Memory required for data: 7069614016
I0213 22:13:34.084128 18604 layer_factory.hpp:77] Creating layer conv6_2_mbox_loc_perm
I0213 22:13:34.084141 18604 net.cpp:100] Creating Layer conv6_2_mbox_loc_perm
I0213 22:13:34.084151 18604 net.cpp:434] conv6_2_mbox_loc_perm <- conv6_2_mbox_loc
I0213 22:13:34.084162 18604 net.cpp:408] conv6_2_mbox_loc_perm -> conv6_2_mbox_loc_perm
I0213 22:13:34.084292 18604 net.cpp:150] Setting up conv6_2_mbox_loc_perm
I0213 22:13:34.084305 18604 net.cpp:157] Top shape: 28 10 10 24 (67200)
I0213 22:13:34.084311 18604 net.cpp:165] Memory required for data: 7069882816
I0213 22:13:34.084317 18604 layer_factory.hpp:77] Creating layer conv6_2_mbox_loc_flat
I0213 22:13:34.084327 18604 net.cpp:100] Creating Layer conv6_2_mbox_loc_flat
I0213 22:13:34.084336 18604 net.cpp:434] conv6_2_mbox_loc_flat <- conv6_2_mbox_loc_perm
I0213 22:13:34.084344 18604 net.cpp:408] conv6_2_mbox_loc_flat -> conv6_2_mbox_loc_flat
I0213 22:13:34.084384 18604 net.cpp:150] Setting up conv6_2_mbox_loc_flat
I0213 22:13:34.084396 18604 net.cpp:157] Top shape: 28 2400 (67200)
I0213 22:13:34.084404 18604 net.cpp:165] Memory required for data: 7070151616
I0213 22:13:34.084410 18604 layer_factory.hpp:77] Creating layer conv6_2_mbox_conf
I0213 22:13:34.084427 18604 net.cpp:100] Creating Layer conv6_2_mbox_conf
I0213 22:13:34.084437 18604 net.cpp:434] conv6_2_mbox_conf <- conv6_2_conv6_2_relu_0_split_2
I0213 22:13:34.084450 18604 net.cpp:408] conv6_2_mbox_conf -> conv6_2_mbox_conf
I0213 22:13:34.090791 18604 net.cpp:150] Setting up conv6_2_mbox_conf
I0213 22:13:34.090811 18604 net.cpp:157] Top shape: 28 132 10 10 (369600)
I0213 22:13:34.090819 18604 net.cpp:165] Memory required for data: 7071630016
I0213 22:13:34.090831 18604 layer_factory.hpp:77] Creating layer conv6_2_mbox_conf_perm
I0213 22:13:34.090842 18604 net.cpp:100] Creating Layer conv6_2_mbox_conf_perm
I0213 22:13:34.090852 18604 net.cpp:434] conv6_2_mbox_conf_perm <- conv6_2_mbox_conf
I0213 22:13:34.090864 18604 net.cpp:408] conv6_2_mbox_conf_perm -> conv6_2_mbox_conf_perm
I0213 22:13:34.091001 18604 net.cpp:150] Setting up conv6_2_mbox_conf_perm
I0213 22:13:34.091014 18604 net.cpp:157] Top shape: 28 10 10 132 (369600)
I0213 22:13:34.091022 18604 net.cpp:165] Memory required for data: 7073108416
I0213 22:13:34.091027 18604 layer_factory.hpp:77] Creating layer conv6_2_mbox_conf_flat
I0213 22:13:34.091037 18604 net.cpp:100] Creating Layer conv6_2_mbox_conf_flat
I0213 22:13:34.091044 18604 net.cpp:434] conv6_2_mbox_conf_flat <- conv6_2_mbox_conf_perm
I0213 22:13:34.091054 18604 net.cpp:408] conv6_2_mbox_conf_flat -> conv6_2_mbox_conf_flat
I0213 22:13:34.091111 18604 net.cpp:150] Setting up conv6_2_mbox_conf_flat
I0213 22:13:34.091123 18604 net.cpp:157] Top shape: 28 13200 (369600)
I0213 22:13:34.091130 18604 net.cpp:165] Memory required for data: 7074586816
I0213 22:13:34.091136 18604 layer_factory.hpp:77] Creating layer conv6_2_mbox_priorbox
I0213 22:13:34.091150 18604 net.cpp:100] Creating Layer conv6_2_mbox_priorbox
I0213 22:13:34.091157 18604 net.cpp:434] conv6_2_mbox_priorbox <- conv6_2_conv6_2_relu_0_split_3
I0213 22:13:34.091167 18604 net.cpp:434] conv6_2_mbox_priorbox <- data_data_0_split_3
I0213 22:13:34.091178 18604 net.cpp:408] conv6_2_mbox_priorbox -> conv6_2_mbox_priorbox
I0213 22:13:34.091222 18604 net.cpp:150] Setting up conv6_2_mbox_priorbox
I0213 22:13:34.091233 18604 net.cpp:157] Top shape: 1 2 2400 (4800)
I0213 22:13:34.091239 18604 net.cpp:165] Memory required for data: 7074606016
I0213 22:13:34.091246 18604 layer_factory.hpp:77] Creating layer conv7_2_mbox_loc
I0213 22:13:34.091264 18604 net.cpp:100] Creating Layer conv7_2_mbox_loc
I0213 22:13:34.091272 18604 net.cpp:434] conv7_2_mbox_loc <- conv7_2_conv7_2_relu_0_split_1
I0213 22:13:34.091289 18604 net.cpp:408] conv7_2_mbox_loc -> conv7_2_mbox_loc
I0213 22:13:34.093271 18604 net.cpp:150] Setting up conv7_2_mbox_loc
I0213 22:13:34.093288 18604 net.cpp:157] Top shape: 28 24 5 5 (16800)
I0213 22:13:34.093297 18604 net.cpp:165] Memory required for data: 7074673216
I0213 22:13:34.093308 18604 layer_factory.hpp:77] Creating layer conv7_2_mbox_loc_perm
I0213 22:13:34.093322 18604 net.cpp:100] Creating Layer conv7_2_mbox_loc_perm
I0213 22:13:34.093330 18604 net.cpp:434] conv7_2_mbox_loc_perm <- conv7_2_mbox_loc
I0213 22:13:34.093343 18604 net.cpp:408] conv7_2_mbox_loc_perm -> conv7_2_mbox_loc_perm
I0213 22:13:34.093479 18604 net.cpp:150] Setting up conv7_2_mbox_loc_perm
I0213 22:13:34.093492 18604 net.cpp:157] Top shape: 28 5 5 24 (16800)
I0213 22:13:34.093499 18604 net.cpp:165] Memory required for data: 7074740416
I0213 22:13:34.093505 18604 layer_factory.hpp:77] Creating layer conv7_2_mbox_loc_flat
I0213 22:13:34.093515 18604 net.cpp:100] Creating Layer conv7_2_mbox_loc_flat
I0213 22:13:34.093523 18604 net.cpp:434] conv7_2_mbox_loc_flat <- conv7_2_mbox_loc_perm
I0213 22:13:34.093535 18604 net.cpp:408] conv7_2_mbox_loc_flat -> conv7_2_mbox_loc_flat
I0213 22:13:34.093574 18604 net.cpp:150] Setting up conv7_2_mbox_loc_flat
I0213 22:13:34.093586 18604 net.cpp:157] Top shape: 28 600 (16800)
I0213 22:13:34.093593 18604 net.cpp:165] Memory required for data: 7074807616
I0213 22:13:34.093600 18604 layer_factory.hpp:77] Creating layer conv7_2_mbox_conf
I0213 22:13:34.093616 18604 net.cpp:100] Creating Layer conv7_2_mbox_conf
I0213 22:13:34.093626 18604 net.cpp:434] conv7_2_mbox_conf <- conv7_2_conv7_2_relu_0_split_2
I0213 22:13:34.093641 18604 net.cpp:408] conv7_2_mbox_conf -> conv7_2_mbox_conf
I0213 22:13:34.097475 18604 net.cpp:150] Setting up conv7_2_mbox_conf
I0213 22:13:34.097493 18604 net.cpp:157] Top shape: 28 132 5 5 (92400)
I0213 22:13:34.097501 18604 net.cpp:165] Memory required for data: 7075177216
I0213 22:13:34.097513 18604 layer_factory.hpp:77] Creating layer conv7_2_mbox_conf_perm
I0213 22:13:34.097535 18604 net.cpp:100] Creating Layer conv7_2_mbox_conf_perm
I0213 22:13:34.097544 18604 net.cpp:434] conv7_2_mbox_conf_perm <- conv7_2_mbox_conf
I0213 22:13:34.097555 18604 net.cpp:408] conv7_2_mbox_conf_perm -> conv7_2_mbox_conf_perm
I0213 22:13:34.097697 18604 net.cpp:150] Setting up conv7_2_mbox_conf_perm
I0213 22:13:34.097710 18604 net.cpp:157] Top shape: 28 5 5 132 (92400)
I0213 22:13:34.097718 18604 net.cpp:165] Memory required for data: 7075546816
I0213 22:13:34.097723 18604 layer_factory.hpp:77] Creating layer conv7_2_mbox_conf_flat
I0213 22:13:34.097733 18604 net.cpp:100] Creating Layer conv7_2_mbox_conf_flat
I0213 22:13:34.097741 18604 net.cpp:434] conv7_2_mbox_conf_flat <- conv7_2_mbox_conf_perm
I0213 22:13:34.097754 18604 net.cpp:408] conv7_2_mbox_conf_flat -> conv7_2_mbox_conf_flat
I0213 22:13:34.097793 18604 net.cpp:150] Setting up conv7_2_mbox_conf_flat
I0213 22:13:34.097820 18604 net.cpp:157] Top shape: 28 3300 (92400)
I0213 22:13:34.097828 18604 net.cpp:165] Memory required for data: 7075916416
I0213 22:13:34.097834 18604 layer_factory.hpp:77] Creating layer conv7_2_mbox_priorbox
I0213 22:13:34.097846 18604 net.cpp:100] Creating Layer conv7_2_mbox_priorbox
I0213 22:13:34.097854 18604 net.cpp:434] conv7_2_mbox_priorbox <- conv7_2_conv7_2_relu_0_split_3
I0213 22:13:34.097863 18604 net.cpp:434] conv7_2_mbox_priorbox <- data_data_0_split_4
I0213 22:13:34.097877 18604 net.cpp:408] conv7_2_mbox_priorbox -> conv7_2_mbox_priorbox
I0213 22:13:34.097923 18604 net.cpp:150] Setting up conv7_2_mbox_priorbox
I0213 22:13:34.097936 18604 net.cpp:157] Top shape: 1 2 600 (1200)
I0213 22:13:34.097944 18604 net.cpp:165] Memory required for data: 7075921216
I0213 22:13:34.097950 18604 layer_factory.hpp:77] Creating layer conv8_2_mbox_loc
I0213 22:13:34.097967 18604 net.cpp:100] Creating Layer conv8_2_mbox_loc
I0213 22:13:34.097976 18604 net.cpp:434] conv8_2_mbox_loc <- conv8_2_conv8_2_relu_0_split_1
I0213 22:13:34.097990 18604 net.cpp:408] conv8_2_mbox_loc -> conv8_2_mbox_loc
I0213 22:13:34.099342 18604 net.cpp:150] Setting up conv8_2_mbox_loc
I0213 22:13:34.099360 18604 net.cpp:157] Top shape: 28 16 3 3 (4032)
I0213 22:13:34.099369 18604 net.cpp:165] Memory required for data: 7075937344
I0213 22:13:34.099398 18604 layer_factory.hpp:77] Creating layer conv8_2_mbox_loc_perm
I0213 22:13:34.099411 18604 net.cpp:100] Creating Layer conv8_2_mbox_loc_perm
I0213 22:13:34.099419 18604 net.cpp:434] conv8_2_mbox_loc_perm <- conv8_2_mbox_loc
I0213 22:13:34.099431 18604 net.cpp:408] conv8_2_mbox_loc_perm -> conv8_2_mbox_loc_perm
I0213 22:13:34.099566 18604 net.cpp:150] Setting up conv8_2_mbox_loc_perm
I0213 22:13:34.099578 18604 net.cpp:157] Top shape: 28 3 3 16 (4032)
I0213 22:13:34.099586 18604 net.cpp:165] Memory required for data: 7075953472
I0213 22:13:34.099592 18604 layer_factory.hpp:77] Creating layer conv8_2_mbox_loc_flat
I0213 22:13:34.099604 18604 net.cpp:100] Creating Layer conv8_2_mbox_loc_flat
I0213 22:13:34.099612 18604 net.cpp:434] conv8_2_mbox_loc_flat <- conv8_2_mbox_loc_perm
I0213 22:13:34.099623 18604 net.cpp:408] conv8_2_mbox_loc_flat -> conv8_2_mbox_loc_flat
I0213 22:13:34.099663 18604 net.cpp:150] Setting up conv8_2_mbox_loc_flat
I0213 22:13:34.099674 18604 net.cpp:157] Top shape: 28 144 (4032)
I0213 22:13:34.099681 18604 net.cpp:165] Memory required for data: 7075969600
I0213 22:13:34.099687 18604 layer_factory.hpp:77] Creating layer conv8_2_mbox_conf
I0213 22:13:34.099704 18604 net.cpp:100] Creating Layer conv8_2_mbox_conf
I0213 22:13:34.099714 18604 net.cpp:434] conv8_2_mbox_conf <- conv8_2_conv8_2_relu_0_split_2
I0213 22:13:34.099727 18604 net.cpp:408] conv8_2_mbox_conf -> conv8_2_mbox_conf
I0213 22:13:34.102800 18604 net.cpp:150] Setting up conv8_2_mbox_conf
I0213 22:13:34.102819 18604 net.cpp:157] Top shape: 28 88 3 3 (22176)
I0213 22:13:34.102828 18604 net.cpp:165] Memory required for data: 7076058304
I0213 22:13:34.102839 18604 layer_factory.hpp:77] Creating layer conv8_2_mbox_conf_perm
I0213 22:13:34.102850 18604 net.cpp:100] Creating Layer conv8_2_mbox_conf_perm
I0213 22:13:34.102859 18604 net.cpp:434] conv8_2_mbox_conf_perm <- conv8_2_mbox_conf
I0213 22:13:34.102872 18604 net.cpp:408] conv8_2_mbox_conf_perm -> conv8_2_mbox_conf_perm
I0213 22:13:34.103008 18604 net.cpp:150] Setting up conv8_2_mbox_conf_perm
I0213 22:13:34.103022 18604 net.cpp:157] Top shape: 28 3 3 88 (22176)
I0213 22:13:34.103029 18604 net.cpp:165] Memory required for data: 7076147008
I0213 22:13:34.103036 18604 layer_factory.hpp:77] Creating layer conv8_2_mbox_conf_flat
I0213 22:13:34.103046 18604 net.cpp:100] Creating Layer conv8_2_mbox_conf_flat
I0213 22:13:34.103054 18604 net.cpp:434] conv8_2_mbox_conf_flat <- conv8_2_mbox_conf_perm
I0213 22:13:34.103066 18604 net.cpp:408] conv8_2_mbox_conf_flat -> conv8_2_mbox_conf_flat
I0213 22:13:34.103106 18604 net.cpp:150] Setting up conv8_2_mbox_conf_flat
I0213 22:13:34.103117 18604 net.cpp:157] Top shape: 28 792 (22176)
I0213 22:13:34.103124 18604 net.cpp:165] Memory required for data: 7076235712
I0213 22:13:34.103145 18604 layer_factory.hpp:77] Creating layer conv8_2_mbox_priorbox
I0213 22:13:34.103162 18604 net.cpp:100] Creating Layer conv8_2_mbox_priorbox
I0213 22:13:34.103170 18604 net.cpp:434] conv8_2_mbox_priorbox <- conv8_2_conv8_2_relu_0_split_3
I0213 22:13:34.103180 18604 net.cpp:434] conv8_2_mbox_priorbox <- data_data_0_split_5
I0213 22:13:34.103193 18604 net.cpp:408] conv8_2_mbox_priorbox -> conv8_2_mbox_priorbox
I0213 22:13:34.103237 18604 net.cpp:150] Setting up conv8_2_mbox_priorbox
I0213 22:13:34.103250 18604 net.cpp:157] Top shape: 1 2 144 (288)
I0213 22:13:34.103255 18604 net.cpp:165] Memory required for data: 7076236864
I0213 22:13:34.103262 18604 layer_factory.hpp:77] Creating layer conv9_2_mbox_loc
I0213 22:13:34.103281 18604 net.cpp:100] Creating Layer conv9_2_mbox_loc
I0213 22:13:34.103291 18604 net.cpp:434] conv9_2_mbox_loc <- conv9_2_conv9_2_relu_0_split_0
I0213 22:13:34.103304 18604 net.cpp:408] conv9_2_mbox_loc -> conv9_2_mbox_loc
I0213 22:13:34.104852 18604 net.cpp:150] Setting up conv9_2_mbox_loc
I0213 22:13:34.104871 18604 net.cpp:157] Top shape: 28 16 1 1 (448)
I0213 22:13:34.104881 18604 net.cpp:165] Memory required for data: 7076238656
I0213 22:13:34.104893 18604 layer_factory.hpp:77] Creating layer conv9_2_mbox_loc_perm
I0213 22:13:34.104904 18604 net.cpp:100] Creating Layer conv9_2_mbox_loc_perm
I0213 22:13:34.104915 18604 net.cpp:434] conv9_2_mbox_loc_perm <- conv9_2_mbox_loc
I0213 22:13:34.104926 18604 net.cpp:408] conv9_2_mbox_loc_perm -> conv9_2_mbox_loc_perm
I0213 22:13:34.105068 18604 net.cpp:150] Setting up conv9_2_mbox_loc_perm
I0213 22:13:34.105082 18604 net.cpp:157] Top shape: 28 1 1 16 (448)
I0213 22:13:34.105088 18604 net.cpp:165] Memory required for data: 7076240448
I0213 22:13:34.105095 18604 layer_factory.hpp:77] Creating layer conv9_2_mbox_loc_flat
I0213 22:13:34.105105 18604 net.cpp:100] Creating Layer conv9_2_mbox_loc_flat
I0213 22:13:34.105113 18604 net.cpp:434] conv9_2_mbox_loc_flat <- conv9_2_mbox_loc_perm
I0213 22:13:34.105125 18604 net.cpp:408] conv9_2_mbox_loc_flat -> conv9_2_mbox_loc_flat
I0213 22:13:34.105165 18604 net.cpp:150] Setting up conv9_2_mbox_loc_flat
I0213 22:13:34.105177 18604 net.cpp:157] Top shape: 28 16 (448)
I0213 22:13:34.105183 18604 net.cpp:165] Memory required for data: 7076242240
I0213 22:13:34.105190 18604 layer_factory.hpp:77] Creating layer conv9_2_mbox_conf
I0213 22:13:34.105207 18604 net.cpp:100] Creating Layer conv9_2_mbox_conf
I0213 22:13:34.105218 18604 net.cpp:434] conv9_2_mbox_conf <- conv9_2_conv9_2_relu_0_split_1
I0213 22:13:34.105232 18604 net.cpp:408] conv9_2_mbox_conf -> conv9_2_mbox_conf
I0213 22:13:34.108306 18604 net.cpp:150] Setting up conv9_2_mbox_conf
I0213 22:13:34.108325 18604 net.cpp:157] Top shape: 28 88 1 1 (2464)
I0213 22:13:34.108333 18604 net.cpp:165] Memory required for data: 7076252096
I0213 22:13:34.108345 18604 layer_factory.hpp:77] Creating layer conv9_2_mbox_conf_perm
I0213 22:13:34.108356 18604 net.cpp:100] Creating Layer conv9_2_mbox_conf_perm
I0213 22:13:34.108366 18604 net.cpp:434] conv9_2_mbox_conf_perm <- conv9_2_mbox_conf
I0213 22:13:34.108378 18604 net.cpp:408] conv9_2_mbox_conf_perm -> conv9_2_mbox_conf_perm
I0213 22:13:34.108517 18604 net.cpp:150] Setting up conv9_2_mbox_conf_perm
I0213 22:13:34.108530 18604 net.cpp:157] Top shape: 28 1 1 88 (2464)
I0213 22:13:34.108536 18604 net.cpp:165] Memory required for data: 7076261952
I0213 22:13:34.108543 18604 layer_factory.hpp:77] Creating layer conv9_2_mbox_conf_flat
I0213 22:13:34.108556 18604 net.cpp:100] Creating Layer conv9_2_mbox_conf_flat
I0213 22:13:34.108563 18604 net.cpp:434] conv9_2_mbox_conf_flat <- conv9_2_mbox_conf_perm
I0213 22:13:34.108575 18604 net.cpp:408] conv9_2_mbox_conf_flat -> conv9_2_mbox_conf_flat
I0213 22:13:34.108616 18604 net.cpp:150] Setting up conv9_2_mbox_conf_flat
I0213 22:13:34.108628 18604 net.cpp:157] Top shape: 28 88 (2464)
I0213 22:13:34.108634 18604 net.cpp:165] Memory required for data: 7076271808
I0213 22:13:34.108640 18604 layer_factory.hpp:77] Creating layer conv9_2_mbox_priorbox
I0213 22:13:34.108667 18604 net.cpp:100] Creating Layer conv9_2_mbox_priorbox
I0213 22:13:34.108677 18604 net.cpp:434] conv9_2_mbox_priorbox <- conv9_2_conv9_2_relu_0_split_2
I0213 22:13:34.108686 18604 net.cpp:434] conv9_2_mbox_priorbox <- data_data_0_split_6
I0213 22:13:34.108700 18604 net.cpp:408] conv9_2_mbox_priorbox -> conv9_2_mbox_priorbox
I0213 22:13:34.108743 18604 net.cpp:150] Setting up conv9_2_mbox_priorbox
I0213 22:13:34.108755 18604 net.cpp:157] Top shape: 1 2 16 (32)
I0213 22:13:34.108762 18604 net.cpp:165] Memory required for data: 7076271936
I0213 22:13:34.108768 18604 layer_factory.hpp:77] Creating layer mbox_loc
I0213 22:13:34.108783 18604 net.cpp:100] Creating Layer mbox_loc
I0213 22:13:34.108793 18604 net.cpp:434] mbox_loc <- conv4_3_norm_mbox_loc_flat
I0213 22:13:34.108804 18604 net.cpp:434] mbox_loc <- fc7_mbox_loc_flat
I0213 22:13:34.108822 18604 net.cpp:434] mbox_loc <- conv6_2_mbox_loc_flat
I0213 22:13:34.108830 18604 net.cpp:434] mbox_loc <- conv7_2_mbox_loc_flat
I0213 22:13:34.108839 18604 net.cpp:434] mbox_loc <- conv8_2_mbox_loc_flat
I0213 22:13:34.108846 18604 net.cpp:434] mbox_loc <- conv9_2_mbox_loc_flat
I0213 22:13:34.108856 18604 net.cpp:408] mbox_loc -> mbox_loc
I0213 22:13:34.108909 18604 net.cpp:150] Setting up mbox_loc
I0213 22:13:34.108922 18604 net.cpp:157] Top shape: 28 34928 (977984)
I0213 22:13:34.108928 18604 net.cpp:165] Memory required for data: 7080183872
I0213 22:13:34.108934 18604 layer_factory.hpp:77] Creating layer mbox_conf
I0213 22:13:34.108945 18604 net.cpp:100] Creating Layer mbox_conf
I0213 22:13:34.108953 18604 net.cpp:434] mbox_conf <- conv4_3_norm_mbox_conf_flat
I0213 22:13:34.108963 18604 net.cpp:434] mbox_conf <- fc7_mbox_conf_flat
I0213 22:13:34.108970 18604 net.cpp:434] mbox_conf <- conv6_2_mbox_conf_flat
I0213 22:13:34.108979 18604 net.cpp:434] mbox_conf <- conv7_2_mbox_conf_flat
I0213 22:13:34.108986 18604 net.cpp:434] mbox_conf <- conv8_2_mbox_conf_flat
I0213 22:13:34.108994 18604 net.cpp:434] mbox_conf <- conv9_2_mbox_conf_flat
I0213 22:13:34.109006 18604 net.cpp:408] mbox_conf -> mbox_conf
I0213 22:13:34.109046 18604 net.cpp:150] Setting up mbox_conf
I0213 22:13:34.109058 18604 net.cpp:157] Top shape: 28 192104 (5378912)
I0213 22:13:34.109064 18604 net.cpp:165] Memory required for data: 7101699520
I0213 22:13:34.109071 18604 layer_factory.hpp:77] Creating layer mbox_priorbox
I0213 22:13:34.109081 18604 net.cpp:100] Creating Layer mbox_priorbox
I0213 22:13:34.109089 18604 net.cpp:434] mbox_priorbox <- conv4_3_norm_mbox_priorbox
I0213 22:13:34.109098 18604 net.cpp:434] mbox_priorbox <- fc7_mbox_priorbox
I0213 22:13:34.109107 18604 net.cpp:434] mbox_priorbox <- conv6_2_mbox_priorbox
I0213 22:13:34.109114 18604 net.cpp:434] mbox_priorbox <- conv7_2_mbox_priorbox
I0213 22:13:34.109122 18604 net.cpp:434] mbox_priorbox <- conv8_2_mbox_priorbox
I0213 22:13:34.109128 18604 net.cpp:434] mbox_priorbox <- conv9_2_mbox_priorbox
I0213 22:13:34.109138 18604 net.cpp:408] mbox_priorbox -> mbox_priorbox
I0213 22:13:34.109179 18604 net.cpp:150] Setting up mbox_priorbox
I0213 22:13:34.109189 18604 net.cpp:157] Top shape: 1 2 34928 (69856)
I0213 22:13:34.109195 18604 net.cpp:165] Memory required for data: 7101978944
I0213 22:13:34.109202 18604 layer_factory.hpp:77] Creating layer mbox_loss
I0213 22:13:34.109217 18604 net.cpp:100] Creating Layer mbox_loss
I0213 22:13:34.109225 18604 net.cpp:434] mbox_loss <- mbox_loc
I0213 22:13:34.109233 18604 net.cpp:434] mbox_loss <- mbox_conf
I0213 22:13:34.109241 18604 net.cpp:434] mbox_loss <- mbox_priorbox
…
layer {
  name: "data"
  type: "AnnotatedData"
  top: "data"
  top: "label"
  include {
    phase: TEST
  }
  transform_param {
    mean_value: 126
    mean_value: 100
    mean_value: 108
    mean_value: 113
    resize_param {
      prob: 1
      resize_mode: WARP
      height: 300
      width: 300
      interp_mode: LINEAR
    }
  }
  data_param {
    source: "examples/VOC0712/VOC0712_test_lmdb"
    batch_size: 13
    backend: LMDB
  }
  annotated_data_param {
    batch_sampler {
    }
    label_map_file: "data/VOC0712/labelmap_voc.prototxt"
  }
}
layer {
  name: "conv1_1_rgbd"
  type: "Convolution"
  bottom: "data"
  top: "conv1_1_rgbd"
  param {
    lr_mult: 1
    decay_mult: 1
  }
  param {
    lr_mult: 2
    decay_mult: 0
  }
  convolution_param {
    num_output: 64
    pad: 1
    kernel_size: 3
    weight_filler {
      type: "xavier"
    }
    bias_filler {
      type: "constant"
      value: 0
    }
  }
}
layer {
  name: "relu1_1"
  type: "ReLU"
  bottom: "conv1_1_rgbd"
  top: "conv1_1_rgbd"
}
layer {
  name: "conv1_2"
  type: "Convolution"
  bottom: "conv1_1_rgbd"
  top: "conv1_2"
  param {
    lr_mult: 1
    decay_mult: 1
  }
  param {
    lr_mult: 2
    decay_mult: 0
  }
  convolution_param {
    num_output: 64
    pad: 1
    kernel_size: 3
    weight_filler {
      type: "xavier"
    }
    bias_filler {
      type: "constant"
      value: 0
    }
  }
}
layer {
  name: "relu1_2"
  type: "ReLU"
  bottom: "conv1_2"
  top: "conv1_2"
}
layer {
  name: "pool1"
  type: "Pooling"
  bottom: "conv1_2"
  top: "pool1"
  pooling_param {
    pool: MAX
    kernel_size: 2
    stride: 2
  }
}
layer {
  name: "conv2_1"
  type: "Convolution"
  bottom: "pool1"
  top: "conv2_1"
  param {
    lr_mult: 1
    decay_mult: 1
  }
  param {
    lr_mult: 2
    decay_mult: 0
  }
  convolution_param {
    num_output: 128
    pad: 1
    kernel_size: 3
    weight_filler {
      type: "xavier"
    }
    bias_filler {
      type: "constant"
      value: 0
    }
  }
}
layer {
  name: "relu2_1"
  type: "ReLU"
  bottom: "conv2_1"
  top: "conv2_1"
}
layer {
  name: "conv2_2"
  type: "Convolution"
  bottom: "conv2_1"
  top: "conv2_2"
  param {
    lr_mult: 1
    decay_mult: 1
  }
  param {
    lr_mult: 2
    decay_mult: 0
  }
  convolution_param {
    num_output: 128
    pad: 1
    kernel_size: 3
    weight_filler {
      type: "xavier"
    }
    bias_filler {
      type: "constant"
      value: 0
    }
  }
}
layer {
  name: "relu2_2"
  type: "ReLU"
  bottom: "conv2_2"
  top: "conv2_2"
}
layer {
  name: "pool2"
  type: "Pooling"
  bottom: "conv2_2"
  top: "pool2"
  pooling_param {
    pool: MAX
    kernel_size: 2
    stride: 2
  }
}
layer {
  name: "conv3_1"
  type: "Convolution"
  bottom: "pool2"
  top: "conv3_1"
  param {
    lr_mult: 1
    decay_mult: 1
  }
  param {
    lr_mult: 2
    decay_mult: 0
  }
  convolution_param {
    num_output: 256
    pad: 1
    kernel_size: 3
    weight_filler {
      type: "xavier"
    }
    bias_filler {
      type: "constant"
      value: 0
    }
  }
}
layer {
  name: "relu3_1"
  type: "ReLU"
  bottom: "conv3_1"
  top: "conv3_1"
}
layer {
  name: "conv3_2"
  type: "Convolution"
  bottom: "conv3_1"
  top: "conv3_2"
  param {
    lr_mult: 1
    decay_mult: 1
  }
  param {
    lr_mult: 2
    decay_mult: 0
  }
  convolution_param {
    num_output: 256
    pad: 1
    kernel_size: 3
    weight_filler {
      type: "xavier"
    }
    bias_filler {
      type: "constant"
      value: 0
    }
  }
}
layer {
  name: "relu3_2"
  type: "ReLU"
  bottom: "conv3_2"
  top: "conv3_2"
}
layer {
  name: "conv3_3"
  type: "Convolution"
  bottom: "conv3_2"
  top: "conv3_3"
  param {
    lr_mult: 1
    decay_mult: 1
  }
  param {
    lr_mult: 2
    decay_mult: 0
  }
  convolution_param {
    num_output: 256
    pad: 1
    kernel_size: 3
    weight_filler {
      type: "xavier"
    }
    bias_filler {
      type: "constant"
      value: 0
    }
  }
}
layer {
  name: "relu3_3"
  type: "ReLU"
  bottom: "conv3_3"
  top: "conv3_3"
}
layer {
  name: "pool3"
  type: "Pooling"
  bottom: "conv3_3"
  top: "pool3"
  pooling_param {
    pool: MAX
    kernel_size: 2
    stride: 2
  }
}
layer {
  name: "conv4_1"
  type: "Convolution"
  bottom: "pool3"
  top: "conv4_1"
  param {
    lr_mult: 1
    decay_mult: 1
  }
  param {
    lr_mult: 2
    decay_mult: 0
  }
  convolution_param {
    num_output: 512
    pad: 1
    kernel_size: 3
    weight_filler {
      type: "xavier"
    }
    bias_filler {
      type: "constant"
      value: 0
    }
  }
}
layer {
  name: "relu4_1"
  type: "ReLU"
  bottom: "conv4_1"
  top: "conv4_1"
}
layer {
  name: "conv4_2"
  type: "Convolution"
  bottom: "conv4_1"
  top: "conv4_2"
  param {
    lr_mult: 1
    decay_mult: 1
  }
  param {
    lr_mult: 2
    decay_mult: 0
  }
  convolution_param {
    num_output: 512
    pad: 1
    kernel_size: 3
    weight_filler {
      type: "xavier"
    }
    bias_filler {
      type: "constant"
      value: 0
    }
  }
}
layer {
  name: "relu4_2"
  type: "ReLU"
  bottom: "conv4_2"
  top: "conv4_2"
}
layer {
  name: "conv4_3"
  type: "Convolution"
  bottom: "conv4_2"
  top: "conv4_3"
  param {
    lr_mult: 1
    decay_mult: 1
  }
  param {
    lr_mult: 2
    decay_mult: 0
  }
  convolution_param {
    num_output: 512
    pad: 1
    kernel_size: 3
    weight_filler {
      type: "xavier"
    }
    bias_filler {
      type: "constant"
      value: 0
    }
  }
}
layer {
  name: "relu4_3"
  type: "ReLU"
  bottom: "conv4_3"
  top: "conv4_3"
}
layer {
  name: "pool4"
  type: "Pooling"
  bottom: "conv4_3"
  top: "pool4"
  pooling_param {
    pool: MAX
    kernel_size: 2
    stride: 2
  }
}
layer {
  name: "conv5_1"
  type: "Convolution"
  bottom: "pool4"
  top: "conv5_1"
  param {
    lr_mult: 1
    decay_mult: 1
  }
  param {
    lr_mult: 2
    decay_mult: 0
  }
  convolution_param {
    num_output: 512
    pad: 1
    kernel_size: 3
    weight_filler {
      type: "xavier"
    }
    bias_filler {
      type: "constant"
      value: 0
    }
    dilation: 1
  }
}
layer {
  name: "relu5_1"
  type: "ReLU"
  bottom: "conv5_1"
  top: "conv5_1"
}
layer {
  name: "conv5_2"
  type: "Convolution"
  bottom: "conv5_1"
  top: "conv5_2"
  param {
    lr_mult: 1
    decay_mult: 1
  }
  param {
    lr_mult: 2
    decay_mult: 0
  }
  convolution_param {
    num_output: 512
    pad: 1
    kernel_size: 3
    weight_filler {
      type: "xavier"
    }
    bias_filler {
      type: "constant"
      value: 0
    }
    dilation: 1
  }
}
layer {
  name: "relu5_2"
  type: "ReLU"
  bottom: "conv5_2"
  top: "conv5_2"
}
layer {
  name: "conv5_3"
  type: "Convolution"
  bottom: "conv5_2"
  top: "conv5_3"
  param {
    lr_mult: 1
    decay_mult: 1
  }
  param {
    lr_mult: 2
    decay_mult: 0
  }
  convolution_param {
    num_output: 512
    pad: 1
    kernel_size: 3
    weight_filler {
      type: "xavier"
    }
    bias_filler {
      type: "constant"
      value: 0
    }
    dilation: 1
  }
}
layer {
  name: "relu5_3"
  type: "ReLU"
  bottom: "conv5_3"
  top: "conv5_3"
}
layer {
  name: "pool5"
  type: "Pooling"
  bottom: "conv5_3"
  top: "pool5"
  pooling_param {
    pool: MAX
    kernel_size: 3
    stride: 1
    pad: 1
  }
}
layer {
  name: "fc6"
  type: "Convolution"
  bottom: "pool5"
  top: "fc6"
  param {
    lr_mult: 1
    decay_mult: 1
  }
  param {
    lr_mult: 2
    decay_mult: 0
  }
  convolution_param {
    num_output: 1024
    pad: 6
    kernel_size: 3
    weight_filler {
      type: "xavier"
    }
    bias_filler {
      type: "constant"
      value: 0
    }
    dilation: 6
  }
}
layer {
  name: "relu6"
  type: "ReLU"
  bottom: "fc6"
  top: "fc6"
}
layer {
  name: "fc7"
  type: "Convolution"
  bottom: "fc6"
  top: "fc7"
  param {
    lr_mult: 1
    decay_mult: 1
  }
  param {
    lr_mult: 2
    decay_mult: 0
  }
  convolution_param {
    num_output: 1024
    kernel_size: 1
    weight_filler {
      type: "xavier"
    }
    bias_filler {
      type: "constant"
      value: 0
    }
  }
}
layer {
  name: "relu7"
  type: "ReLU"
  bottom: "fc7"
  top: "fc7"
}
layer {
  name: "conv6_1"
  type: "Convolution"
  bottom: "fc7"
  top: "conv6_1"
  param {
    lr_mult: 1
    decay_mult: 1
  }
  param {
    lr_mult: 2
    decay_mult: 0
  }
  convolution_param {
    num_output: 256
    pad: 0
    kernel_size: 1
    stride: 1
    weight_filler {
      type: "xavier"
    }
    bias_filler {
      type: "constant"
      value: 0
    }
  }
}
layer {
  name: "conv6_1_relu"
  type: "ReLU"
  bottom: "conv6_1"
  top: "conv6_1"
}
layer {
  name: "conv6_2"
  type: "Convolution"
  bottom: "conv6_1"
  top: "conv6_2"
  param {
    lr_mult: 1
    decay_mult: 1
  }
  param {
    lr_mult: 2
    decay_mult: 0
  }
  convolution_param {
    num_output: 512
    pad: 1
    kernel_size: 3
    stride: 2
    weight_filler {
      type: "xavier"
    }
    bias_filler {
      type: "constant"
      value: 0
    }
  }
}
layer {
  name: "conv6_2_relu"
  type: "ReLU"
  bottom: "conv6_2"
  top: "conv6_2"
}
layer {
  name: "conv7_1"
  type: "Convolution"
  bottom: "conv6_2"
  top: "conv7_1"
  param {
    lr_mult: 1
    decay_mult: 1
  }
  param {
    lr_mult: 2
    decay_mult: 0
  }
  convolution_param {
    num_output: 128
    pad: 0
    kernel_size: 1
    stride: 1
    weight_filler {
      type: "xavier"
    }
    bias_filler {
      type: "constant"
      value: 0
    }
  }
}
layer {
  name: "conv7_1_relu"
  type: "ReLU"
  bottom: "conv7_1"
  top: "conv7_1"
}
layer {
  name: "conv7_2"
  type: "Convolution"
  bottom: "conv7_1"
  top: "conv7_2"
  param {
    lr_mult: 1
    decay_mult: 1
  }
  param {
    lr_mult: 2
    decay_mult: 0
  }
  convolution_param {
    num_output: 256
    pad: 1
    kernel_size: 3
    stride: 2
    weight_filler {
      type: "xavier"
    }
    bias_filler {
      type: "constant"
      value: 0
    }
  }
}
layer {
  name: "conv7_2_relu"
  type: "ReLU"
  bottom: "conv7_2"
  top: "conv7_2"
}
layer {
  name: "conv8_1"
  type: "Convolution"
  bottom: "conv7_2"
  top: "conv8_1"
  param {
    lr_mult: 1
    decay_mult: 1
  }
  param {
    lr_mult: 2
    decay_mult: 0
  }
  convolution_param {
    num_output: 128
    pad: 0
    kernel_size: 1
    stride: 1
    weight_filler {
      type: "xavier"
    }
    bias_filler {
      type: "constant"
      value: 0
    }
  }
}
layer {
  name: "conv8_1_relu"
  type: "ReLU"
  bottom: "conv8_1"
  top: "conv8_1"
}
layer {
  name: "conv8_2"
  type: "Convolution"
  bottom: "conv8_1"
  top: "conv8_2"
  param {
    lr_mult: 1
    decay_mult: 1
  }
  param {
    lr_mult: 2
    decay_mult: 0
  }
  convolution_param {
    num_output: 256
    pad: 0
    kernel_size: 3
    stride: 1
    weight_filler {
      type: "xavier"
    }
    bias_filler {
      type: "constant"
      value: 0
    }
  }
}
layer {
  name: "conv8_2_relu"
  type: "ReLU"
  bottom: "conv8_2"
  top: "conv8_2"
}
layer {
  name: "conv9_1"
  type: "Convolution"
  bottom: "conv8_2"
  top: "conv9_1"
  param {
    lr_mult: 1
    decay_mult: 1
  }
  param {
    lr_mult: 2
    decay_mult: 0
  }
  convolution_param {
    num_output: 128
    pad: 0
    kernel_size: 1
    stride: 1
    weight_filler {
      type: "xavier"
    }
    bias_filler {
      type: "constant"
      value: 0
    }
  }
}
layer {
  name: "conv9_1_relu"
  type: "ReLU"
  bottom: "conv9_1"
  top: "conv9_1"
}
layer {
  name: "conv9_2"
  type: "Convolution"
  bottom: "conv9_1"
  top: "conv9_2"
  param {
    lr_mult: 1
    decay_mult: 1
  }
  param {
    lr_mult: 2
    decay_mult: 0
  }
  convolution_param {
    num_output: 256
    pad: 0
    kernel_size: 3
    stride: 1
    weight_filler {
      type: "xavier"
    }
    bias_filler {
      type: "constant"
      value: 0
    }
  }
}
layer {
  name: "conv9_2_relu"
  type: "ReLU"
  bottom: "conv9_2"
  top: "conv9_2"
}
layer {
  name: "conv4_3_norm"
  type: "Normalize"
  bottom: "conv4_3"
  top: "conv4_3_norm"
  norm_param {
    across_spatial: false
    scale_filler {
      type: "constant"
      value: 20
    }
    channel_shared: false
  }
}
layer {
  name: "conv4_3_norm_mbox_loc"
  type: "Convolution"
  bottom: "conv4_3_norm"
  top: "conv4_3_norm_mbox_loc"
  param {
    lr_mult: 1
    decay_mult: 1
  }
  param {
    lr_mult: 2
    decay_mult: 0
  }
  convolution_param {
    num_output: 16
    pad: 1
    kernel_size: 3
    stride: 1
    weight_filler {
      type: "xavier"
    }
    bias_filler {
      type: "constant"
      value: 0
    }
  }
}
layer {
  name: "conv4_3_norm_mbox_loc_perm"
  type: "Permute"
  bottom: "conv4_3_norm_mbox_loc"
  top: "conv4_3_norm_mbox_loc_perm"
  permute_param {
    order: 0
    order: 2
    order: 3
    order: 1
  }
}
layer {
  name: "conv4_3_norm_mbox_loc_flat"
  type: "Flatten"
  bottom: "conv4_3_norm_mbox_loc_perm"
  top: "conv4_3_norm_mbox_loc_flat"
  flatten_param {
    axis: 1
  }
}
layer {
  name: "conv4_3_norm_mbox_conf"
  type: "Convolution"
  bottom: "conv4_3_norm"
  top: "conv4_3_norm_mbox_conf"
  param {
    lr_mult: 1
    decay_mult: 1
  }
  param {
    lr_mult: 2
    decay_mult: 0
  }
  convolution_param {
    num_output: 88
    pad: 1
    kernel_size: 3
    stride: 1
    weight_filler {
      type: "xavier"
    }
    bias_filler {
      type: "constant"
      value: 0
    }
  }
}
layer {
  name: "conv4_3_norm_mbox_conf_perm"
  type: "Permute"
  bottom: "conv4_3_norm_mbox_conf"
  top: "conv4_3_norm_mbox_conf_perm"
  permute_param {
    order: 0
    order: 2
    order: 3
    order: 1
  }
}
layer {
  name: "conv4_3_norm_mbox_conf_flat"
  type: "Flatten"
  bottom: "conv4_3_norm_mbox_conf_perm"
  top: "conv4_3_norm_mbox_conf_flat"
  flatten_param {
    axis: 1
  }
}
layer {
  name: "conv4_3_norm_mbox_priorbox"
  type: "PriorBox"
  bottom: "conv4_3_norm"
  bottom: "data"
  top: "conv4_3_norm_mbox_priorbox"
  prior_box_param {
    min_size: 30
    max_size: 60
    aspect_ratio: 2
    flip: true
    clip: false
    variance: 0.1
    variance: 0.1
    variance: 0.2
    variance: 0.2
    step: 8
    offset: 0.5
  }
}
layer {
  name: "fc7_mbox_loc"
  type: "Convolution"
  bottom: "fc7"
  top: "fc7_mbox_loc"
  param {
    lr_mult: 1
    decay_mult: 1
  }
  param {
    lr_mult: 2
    decay_mult: 0
  }
  convolution_param {
    num_output: 24
    pad: 1
    kernel_size: 3
    stride: 1
    weight_filler {
      type: "xavier"
    }
    bias_filler {
      type: "constant"
      value: 0
    }
  }
}
layer {
  name: "fc7_mbox_loc_perm"
  type: "Permute"
  bottom: "fc7_mbox_loc"
  top: "fc7_mbox_loc_perm"
  permute_param {
    order: 0
    order: 2
    order: 3
    order: 1
  }
}
layer {
  name: "fc7_mbox_loc_flat"
  type: "Flatten"
  bottom: "fc7_mbox_loc_perm"
  top: "fc7_mbox_loc_flat"
  flatten_param {
    axis: 1
  }
}
layer {
  name: "fc7_mbox_conf"
  type: "Convolution"
  bottom: "fc7"
  top: "fc7_mbox_conf"
  param {
    lr_mult: 1
    decay_mult: 1
  }
  param {
    lr_mult: 2
    decay_mult: 0
  }
  convolution_param {
    num_output: 132
    pad: 1
    kernel_size: 3
    stride: 1
    weight_filler {
      type: "xavier"
    }
    bias_filler {
      type: "constant"
      value: 0
    }
  }
}
layer {
  name: "fc7_mbox_conf_perm"
  type: "Permute"
  bottom: "fc7_mbox_conf"
  top: "fc7_mbox_conf_perm"
  permute_param {
    order: 0
    order: 2
    order: 3
    order: 1
  }
}
layer {
  name: "fc7_mbox_conf_flat"
  type: "Flatten"
  bottom: "fc7_mbox_conf_perm"
  top: "fc7_mbox_conf_flat"
  flatten_param {
    axis: 1
  }
}
layer {
  name: "fc7_mbox_priorbox"
  type: "PriorBox"
  bottom: "fc7"
  bottom: "data"
  top: "fc7_mbox_priorbox"
  prior_box_param {
    min_size: 60
    max_size: 111
    aspect_ratio: 2
    aspect_ratio: 3
    flip: true
    clip: false
    variance: 0.1
    variance: 0.1
    variance: 0.2
    variance: 0.2
    step: 16
    offset: 0.5
  }
}
layer {
  name: "conv6_2_mbox_loc"
  type: "Convolution"
  bottom: "conv6_2"
  top: "conv6_2_mbox_loc"
  param {
    lr_mult: 1
    decay_mult: 1
  }
  param {
    lr_mult: 2
    decay_mult: 0
  }
  convolution_param {
    num_output: 24
    pad: 1
    kernel_size: 3
    stride: 1
    weight_filler {
      type: "xavier"
    }
    bias_filler {
      type: "constant"
      value: 0
    }
  }
}
layer {
  name: "conv6_2_mbox_loc_perm"
  type: "Permute"
  bottom: "conv6_2_mbox_loc"
  top: "conv6_2_mbox_loc_perm"
  permute_param {
    order: 0
    order: 2
    order: 3
    order: 1
  }
}
layer {
  name: "conv6_2_mbox_loc_flat"
  type: "Flatten"
  bottom: "conv6_2_mbox_loc_perm"
  top: "conv6_2_mbox_loc_flat"
  flatten_param {
    axis: 1
  }
}
layer {
  name: "conv6_2_mbox_conf"
  type: "Convolution"
  bottom: "conv6_2"
  top: "conv6_2_mbox_conf"
  param {
    lr_mult: 1
    decay_mult: 1
  }
  param {
    lr_mult: 2
    decay_mult: 0
  }
  convolution_param {
    num_output: 132
    pad: 1
    kernel_size: 3
    stride: 1
    weight_filler {
      type: "xavier"
    }
    bias_filler {
      type: "constant"
      value: 0
    }
  }
}
layer {
  name: "conv6_2_mbox_conf_perm"
  type: "Permute"
  bottom: "conv6_2_mbox_conf"
  top: "conv6_2_mbox_conf_perm"
  permute_param {
    order: 0
    order: 2
    order: 3
    order: 1
  }
}
layer {
  name: "conv6_2_mbox_conf_flat"
  type: "Flatten"
  bottom: "conv6_2_mbox_conf_perm"
  top: "conv6_2_mbox_conf_flat"
  flatten_param {
    axis: 1
  }
}
layer {
  name: "conv6_2_mbox_priorbox"
  type: "PriorBox"
  bottom: "conv6_2"
  bottom: "data"
  top: "conv6_2_mbox_priorbox"
  prior_box_param {
    min_size: 111
    max_size: 162
    aspect_ratio: 2
    aspect_ratio: 3
    flip: true
    clip: false
    variance: 0.1
    variance: 0.1
    variance: 0.2
    variance: 0.2
    step: 32
    offset: 0.5
  }
}
layer {
  name: "conv7_2_mbox_loc"
  type: "Convolution"
  bottom: "conv7_2"
  top: "conv7_2_mbox_loc"
  param {
    lr_mult: 1
    decay_mult: 1
  }
  param {
    lr_mult: 2
    decay_mult: 0
  }
  convolution_param {
    num_output: 24
    pad: 1
    kernel_size: 3
    stride: 1
    weight_filler {
      type: "xavier"
    }
    bias_filler {
      type: "constant"
      value: 0
    }
  }
}
layer {
  name: "conv7_2_mbox_loc_perm"
  type: "Permute"
  bottom: "conv7_2_mbox_loc"
  top: "conv7_2_mbox_loc_perm"
  permute_param {
    order: 0
    order: 2
    order: 3
    order: 1
  }
}
layer {
  name: "conv7_2_mbox_loc_flat"
  type: "Flatten"
  bottom: "conv7_2_mbox_loc_perm"
  top: "conv7_2_mbox_loc_flat"
  flatten_param {
    axis: 1
  }
}
layer {
  name: "conv7_2_mbox_conf"
  type: "Convolution"
  bottom: "conv7_2"
  top: "conv7_2_mbox_conf"
  param {
    lr_mult: 1
    decay_mult: 1
  }
  param {
    lr_mult: 2
    decay_mult: 0
  }
  convolution_param {
    num_output: 132
    pad: 1
    kernel_size: 3
    stride: 1
    weight_filler {
      type: "xavier"
    }
    bias_filler {
      type: "constant"
      value: 0
    }
  }
}
layer {
  name: "conv7_2_mbox_conf_perm"
  type: "Permute"
  bottom: "conv7_2_mbox_conf"
  top: "conv7_2_mbox_conf_perm"
  permute_param {
    order: 0
    order: 2
    order: 3
    order: 1
  }
}
layer {
  name: "conv7_2_mbox_conf_flat"
  type: "Flatten"
  bottom: "conv7_2_mbox_conf_perm"
  top: "conv7_2_mbox_conf_flat"
  flatten_param {
    axis: 1
  }
}
layer {
  name: "conv7_2_mbox_priorbox"
  type: "PriorBox"
  bottom: "conv7_2"
  bottom: "data"
  top: "conv7_2_mbox_priorbox"
  prior_box_param {
    min_size: 162
    max_size: 213
    aspect_ratio: 2
    aspect_ratio: 3
    flip: true
    clip: false
    variance: 0.1
    variance: 0.1
    variance: 0.2
    variance: 0.2
    step: 64
    offset: 0.5
  }
}
layer {
  name: "conv8_2_mbox_loc"
  type: "Convolution"
  bottom: "conv8_2"
  top: "conv8_2_mbox_loc"
  param {
    lr_mult: 1
    decay_mult: 1
  }
  param {
    lr_mult: 2
    decay_mult: 0
  }
  convolution_param {
    num_output: 16
    pad: 1
    kernel_size: 3
    stride: 1
    weight_filler {
      type: "xavier"
    }
    bias_filler {
      type: "constant"
      value: 0
    }
  }
}
layer {
  name: "conv8_2_mbox_loc_perm"
  type: "Permute"
  bottom: "conv8_2_mbox_loc"
  top: "conv8_2_mbox_loc_perm"
  permute_param {
    order: 0
    order: 2
    order: 3
    order: 1
  }
}
layer {
  name: "conv8_2_mbox_loc_flat"
  type: "Flatten"
  bottom: "conv8_2_mbox_loc_perm"
  top: "conv8_2_mbox_loc_flat"
  flatten_param {
    axis: 1
  }
}
layer {
  name: "conv8_2_mbox_conf"
  type: "Convolution"
  bottom: "conv8_2"
  top: "conv8_2_mbox_conf"
  param {
    lr_mult: 1
    decay_mult: 1
  }
  param {
    lr_mult: 2
    decay_mult: 0
  }
  convolution_param {
    num_output: 88
    pad: 1
    kernel_size: 3
    stride: 1
    weight_filler {
      type: "xavier"
    }
    bias_filler {
      type: "constant"
      value: 0
    }
  }
}
layer {
  name: "conv8_2_mbox_conf_perm"
  type: "Permute"
  bottom: "conv8_2_mbox_conf"
  top: "conv8_2_mbox_conf_perm"
  permute_param {
    order: 0
    order: 2
    order: 3
    order: 1
  }
}
layer {
  name: "conv8_2_mbox_conf_flat"
  type: "Flatten"
  bottom: "conv8_2_mbox_conf_perm"
  top: "conv8_2_mbox_conf_flat"
  flatten_param {
    axis: 1
  }
}
layer {
  name: "conv8_2_mbox_priorbox"
  type: "PriorBox"
  bottom: "conv8_2"
  bottom: "data"
  top: "conv8_2_mbox_priorbox"
  prior_box_param {
    min_size: 213
    max_size: 264
    aspect_ratio: 2
    flip: true
    clip: false
    variance: 0.1
    variance: 0.1
    variance: 0.2
    variance: 0.2
    step: 100
    offset: 0.5
  }
}
layer {
  name: "conv9_2_mbox_loc"
  type: "Convolution"
  bottom: "conv9_2"
  top: "conv9_2_mbox_loc"
  param {
    lr_mult: 1
    decay_mult: 1
  }
  param {
    lr_mult: 2
    decay_mult: 0
  }
  convolution_param {
    num_output: 16
    pad: 1
    kernel_size: 3
    stride: 1
    weight_filler {
      type: "xavier"
    }
    bias_filler {
      type: "constant"
      value: 0
    }
  }
}
layer {
  name: "conv9_2_mbox_loc_perm"
  type: "Permute"
  bottom: "conv9_2_mbox_loc"
  top: "conv9_2_mbox_loc_perm"
  permute_param {
    order: 0
    order: 2
    order: 3
    order: 1
  }
}
layer {
  name: "conv9_2_mbox_loc_flat"
  type: "Flatten"
  bottom: "conv9_2_mbox_loc_perm"
  top: "conv9_2_mbox_loc_flat"
  flatten_param {
    axis: 1
  }
}
layer {
  name: "conv9_2_mbox_conf"
  type: "Convolution"
  bottom: "conv9_2"
  top: "conv9_2_mbox_conf"
  param {
    lr_mult: 1
    decay_mult: 1
  }
  param {
    lr_mult: 2
    decay_mult: 0
  }
  convolution_param {
    num_output: 88
    pad: 1
    kernel_size: 3
    stride: 1
    weight_filler {
      type: "xavier"
    }
    bias_filler {
      type: "constant"
      value: 0
    }
  }
}
layer {
  name: "conv9_2_mbox_conf_perm"
  type: "Permute"
  bottom: "conv9_2_mbox_conf"
  top: "conv9_2_mbox_conf_perm"
  permute_param {
    order: 0
    order: 2
    order: 3
    order: 1
  }
}
layer {
  name: "conv9_2_mbox_conf_flat"
  type: "Flatten"
  bottom: "conv9_2_mbox_conf_perm"
  top: "conv9_2_mbox_conf_flat"
  flatten_param {
    axis: 1
  }
}
layer {
  name: "conv9_2_mbox_priorbox"
  type: "PriorBox"
  bottom: "conv9_2"
  bottom: "data"
  top: "conv9_2_mbox_priorbox"
  prior_box_param {
    min_size: 264
    max_size: 315
    aspect_ratio: 2
    flip: true
    clip: false
    variance: 0.1
    variance: 0.1
    variance: 0.2
    variance: 0.2
    step: 300
    offset: 0.5
  }
}
layer {
  name: "mbox_loc"
  type: "Concat"
  bottom: "conv4_3_norm_mbox_loc_flat"
  bottom: "fc7_mbox_loc_flat"
  bottom: "conv6_2_mbox_loc_flat"
  bottom: "conv7_2_mbox_loc_flat"
  bottom: "conv8_2_mbox_loc_flat"
  bottom: "conv9_2_mbox_loc_flat"
  top: "mbox_loc"
  concat_param {
    axis: 1
  }
}
layer {
  name: "mbox_conf"
  type: "Concat"
  bottom: "conv4_3_norm_mbox_conf_flat"
  bottom: "fc7_mbox_conf_flat"
  bottom: "conv6_2_mbox_conf_flat"
  bottom: "conv7_2_mbox_conf_flat"
  bottom: "conv8_2_mbox_conf_flat"
  bottom: "conv9_2_mbox_conf_flat"
  top: "mbox_conf"
  concat_param {
    axis: 1
  }
}
layer {
  name: "mbox_priorbox"
  type: "Concat"
  bottom: "conv4_3_norm_mbox_priorbox"
  bottom: "fc7_mbox_priorbox"
  bottom: "conv6_2_mbox_priorbox"
  bottom: "conv7_2_mbox_priorbox"
  bottom: "conv8_2_mbox_priorbox"
  bottom: "conv9_2_mbox_priorbox"
  top: "mbox_priorbox"
  concat_param {
    axis: 2
  }
}
layer {
  name: "mbox_conf_reshape"
  type: "Reshape"
  bottom: "mbox_conf"
  top: "mbox_conf_reshape"
  reshape_param {
    shape {
      dim: 0
      dim: -1
      dim: 22
    }
  }
}
layer {
  name: "mbox_conf_softmax"
  type: "Softmax"
  bottom: "mbox_conf_reshape"
  top: "mbox_conf_softmax"
  softmax_param {
    axis: 2
  }
}
layer {
  name: "mbox_conf_flatten"
  type: "Flatten"
  bottom: "mbox_conf_softmax"
  top: "mbox_conf_flatten"
  flatten_param {
    axis: 1
  }
}
layer {
  name: "detection_out"
  type: "DetectionOutput"
  bottom: "mbox_loc"
  bottom: "mbox_conf_flatten"
  bottom: "mbox_priorbox"
  top: "detection_out"
  include {
    phase: TEST
  }
  detection_output_param {
    num_classes: 22
    share_location: true
    background_label_id: 0
    nms_param {
      nms_threshold: 0.45
      top_k: 400
    }
    save_output_param {
      output_directory: "/home/dhall/data/VOCdevkit/results/VOC2007/SSD_RGBD_test_300x300/Main"
      output_name_prefix: "comp4_det_test_"
      output_format: "VOC"
      label_map_file: "data/VOC0712/labelmap_voc.prototxt"
      name_size_file: "data/VOC0712/test_name_size.txt"
      num_test_image: 2
    }
    code_type: CENTER_SIZE
    keep_top_k: 200
    confidence_threshold: 0.01
  }
}
layer {
  name: "detection_eval"
  type: "DetectionEvaluate"
  bottom: "detection_out"
  bottom: "label"
  top: "detection_eval"
  include {
    phase: TEST
  }
  detection_evaluate_param {
    num_classes: 22
    background_label_id: 0
    overlap_threshold: 0.5
    evaluate_difficult_gt: false
    name_size_file: "data/VOC0712/test_name_size.txt"
  }
}
I0213 22:13:34.128895 18604 layer_factory.hpp:77] Creating layer data
I0213 22:13:34.128981 18604 net.cpp:100] Creating Layer data
I0213 22:13:34.128996 18604 net.cpp:408] data -> data
I0213 22:13:34.129014 18604 net.cpp:408] data -> label
I0213 22:13:34.153136 18623 db_lmdb.cpp:35] Opened lmdb examples/VOC0712/VOC0712_test_lmdb
I0213 22:13:34.208720 18604 annotated_data_layer.cpp:62] output data size: 13,4,300,300
I0213 22:13:34.239948 18604 net.cpp:150] Setting up data
I0213 22:13:34.239995 18604 net.cpp:157] Top shape: 13 4 300 300 (4680000)
I0213 22:13:34.240007 18604 net.cpp:157] Top shape: 1 1 6 8 (48)
I0213 22:13:34.240015 18604 net.cpp:165] Memory required for data: 18720192
I0213 22:13:34.240026 18604 layer_factory.hpp:77] Creating layer data_data_0_split
I0213 22:13:34.240048 18604 net.cpp:100] Creating Layer data_data_0_split
I0213 22:13:34.240058 18604 net.cpp:434] data_data_0_split <- data
I0213 22:13:34.240073 18604 net.cpp:408] data_data_0_split -> data_data_0_split_0
I0213 22:13:34.240097 18604 net.cpp:408] data_data_0_split -> data_data_0_split_1
I0213 22:13:34.240118 18604 net.cpp:408] data_data_0_split -> data_data_0_split_2
I0213 22:13:34.240139 18604 net.cpp:408] data_data_0_split -> data_data_0_split_3
I0213 22:13:34.240164 18604 net.cpp:408] data_data_0_split -> data_data_0_split_4
I0213 22:13:34.240177 18604 net.cpp:408] data_data_0_split -> data_data_0_split_5
I0213 22:13:34.240191 18604 net.cpp:408] data_data_0_split -> data_data_0_split_6
I0213 22:13:34.240347 18604 net.cpp:150] Setting up data_data_0_split
I0213 22:13:34.240378 18604 net.cpp:157] Top shape: 13 4 300 300 (4680000)
I0213 22:13:34.240388 18604 net.cpp:157] Top shape: 13 4 300 300 (4680000)
I0213 22:13:34.240396 18604 net.cpp:157] Top shape: 13 4 300 300 (4680000)
I0213 22:13:34.240404 18604 net.cpp:157] Top shape: 13 4 300 300 (4680000)
I0213 22:13:34.240411 18604 net.cpp:157] Top shape: 13 4 300 300 (4680000)
I0213 22:13:34.240419 18604 net.cpp:157] Top shape: 13 4 300 300 (4680000)
I0213 22:13:34.240427 18604 net.cpp:157] Top shape: 13 4 300 300 (4680000)
I0213 22:13:34.240434 18604 net.cpp:165] Memory required for data: 149760192
I0213 22:13:34.240440 18604 layer_factory.hpp:77] Creating layer conv1_1_rgbd
I0213 22:13:34.240461 18604 net.cpp:100] Creating Layer conv1_1_rgbd
I0213 22:13:34.240470 18604 net.cpp:434] conv1_1_rgbd <- data_data_0_split_0
I0213 22:13:34.240481 18604 net.cpp:408] conv1_1_rgbd -> conv1_1_rgbd
I0213 22:13:34.242141 18604 net.cpp:150] Setting up conv1_1_rgbd
I0213 22:13:34.242158 18604 net.cpp:157] Top shape: 13 64 300 300 (74880000)
I0213 22:13:34.242166 18604 net.cpp:165] Memory required for data: 449280192
I0213 22:13:34.242184 18604 layer_factory.hpp:77] Creating layer relu1_1
I0213 22:13:34.242197 18604 net.cpp:100] Creating Layer relu1_1
I0213 22:13:34.242208 18604 net.cpp:434] relu1_1 <- conv1_1_rgbd
I0213 22:13:34.242218 18604 net.cpp:395] relu1_1 -> conv1_1_rgbd (in-place)
I0213 22:13:34.242573 18604 net.cpp:150] Setting up relu1_1
I0213 22:13:34.242590 18604 net.cpp:157] Top shape: 13 64 300 300 (74880000)
I0213 22:13:34.242597 18604 net.cpp:165] Memory required for data: 748800192
I0213 22:13:34.242604 18604 layer_factory.hpp:77] Creating layer conv1_2
I0213 22:13:34.242621 18604 net.cpp:100] Creating Layer conv1_2
I0213 22:13:34.242630 18604 net.cpp:434] conv1_2 <- conv1_1_rgbd
I0213 22:13:34.242641 18604 net.cpp:408] conv1_2 -> conv1_2
I0213 22:13:34.244690 18604 net.cpp:150] Setting up conv1_2
I0213 22:13:34.244709 18604 net.cpp:157] Top shape: 13 64 300 300 (74880000)
I0213 22:13:34.244716 18604 net.cpp:165] Memory required for data: 1048320192
I0213 22:13:34.244734 18604 layer_factory.hpp:77] Creating layer relu1_2
I0213 22:13:34.244745 18604 net.cpp:100] Creating Layer relu1_2
I0213 22:13:34.244752 18604 net.cpp:434] relu1_2 <- conv1_2
I0213 22:13:34.244762 18604 net.cpp:395] relu1_2 -> conv1_2 (in-place)
I0213 22:13:34.244976 18604 net.cpp:150] Setting up relu1_2
I0213 22:13:34.244989 18604 net.cpp:157] Top shape: 13 64 300 300 (74880000)
I0213 22:13:34.244997 18604 net.cpp:165] Memory required for data: 1347840192
I0213 22:13:34.245003 18604 layer_factory.hpp:77] Creating layer pool1
I0213 22:13:34.245014 18604 net.cpp:100] Creating Layer pool1
I0213 22:13:34.245021 18604 net.cpp:434] pool1 <- conv1_2
I0213 22:13:34.245031 18604 net.cpp:408] pool1 -> pool1
I0213 22:13:34.245098 18604 net.cpp:150] Setting up pool1
I0213 22:13:34.245110 18604 net.cpp:157] Top shape: 13 64 150 150 (18720000)
I0213 22:13:34.245117 18604 net.cpp:165] Memory required for data: 1422720192
I0213 22:13:34.245123 18604 layer_factory.hpp:77] Creating layer conv2_1
I0213 22:13:34.245138 18604 net.cpp:100] Creating Layer conv2_1
I0213 22:13:34.245146 18604 net.cpp:434] conv2_1 <- pool1
I0213 22:13:34.245157 18604 net.cpp:408] conv2_1 -> conv2_1
I0213 22:13:34.246999 18604 net.cpp:150] Setting up conv2_1
I0213 22:13:34.247018 18604 net.cpp:157] Top shape: 13 128 150 150 (37440000)
I0213 22:13:34.247025 18604 net.cpp:165] Memory required for data: 1572480192
I0213 22:13:34.247042 18604 layer_factory.hpp:77] Creating layer relu2_1
I0213 22:13:34.247056 18604 net.cpp:100] Creating Layer relu2_1
I0213 22:13:34.247069 18604 net.cpp:434] relu2_1 <- conv2_1
I0213 22:13:34.247079 18604 net.cpp:395] relu2_1 -> conv2_1 (in-place)
I0213 22:13:34.247290 18604 net.cpp:150] Setting up relu2_1
I0213 22:13:34.247304 18604 net.cpp:157] Top shape: 13 128 150 150 (37440000)
I0213 22:13:34.247311 18604 net.cpp:165] Memory required for data: 1722240192
I0213 22:13:34.247318 18604 layer_factory.hpp:77] Creating layer conv2_2
I0213 22:13:34.247333 18604 net.cpp:100] Creating Layer conv2_2
I0213 22:13:34.247355 18604 net.cpp:434] conv2_2 <- conv2_1
I0213 22:13:34.247370 18604 net.cpp:408] conv2_2 -> conv2_2
I0213 22:13:34.250043 18604 net.cpp:150] Setting up conv2_2
I0213 22:13:34.250062 18604 net.cpp:157] Top shape: 13 128 150 150 (37440000)
I0213 22:13:34.250069 18604 net.cpp:165] Memory required for data: 1872000192
I0213 22:13:34.250082 18604 layer_factory.hpp:77] Creating layer relu2_2
I0213 22:13:34.250093 18604 net.cpp:100] Creating Layer relu2_2
I0213 22:13:34.250100 18604 net.cpp:434] relu2_2 <- conv2_2
I0213 22:13:34.250110 18604 net.cpp:395] relu2_2 -> conv2_2 (in-place)
I0213 22:13:34.250454 18604 net.cpp:150] Setting up relu2_2
I0213 22:13:34.250471 18604 net.cpp:157] Top shape: 13 128 150 150 (37440000)
I0213 22:13:34.250478 18604 net.cpp:165] Memory required for data: 2021760192
I0213 22:13:34.250485 18604 layer_factory.hpp:77] Creating layer pool2
I0213 22:13:34.250496 18604 net.cpp:100] Creating Layer pool2
I0213 22:13:34.250504 18604 net.cpp:434] pool2 <- conv2_2
I0213 22:13:34.250514 18604 net.cpp:408] pool2 -> pool2
I0213 22:13:34.250582 18604 net.cpp:150] Setting up pool2
I0213 22:13:34.250596 18604 net.cpp:157] Top shape: 13 128 75 75 (9360000)
I0213 22:13:34.250602 18604 net.cpp:165] Memory required for data: 2059200192
I0213 22:13:34.250607 18604 layer_factory.hpp:77] Creating layer conv3_1
I0213 22:13:34.250622 18604 net.cpp:100] Creating Layer conv3_1
I0213 22:13:34.250629 18604 net.cpp:434] conv3_1 <- pool2
I0213 22:13:34.250641 18604 net.cpp:408] conv3_1 -> conv3_1
I0213 22:13:34.254438 18604 net.cpp:150] Setting up conv3_1
I0213 22:13:34.254458 18604 net.cpp:157] Top shape: 13 256 75 75 (18720000)
I0213 22:13:34.254465 18604 net.cpp:165] Memory required for data: 2134080192
I0213 22:13:34.254482 18604 layer_factory.hpp:77] Creating layer relu3_1
I0213 22:13:34.254494 18604 net.cpp:100] Creating Layer relu3_1
I0213 22:13:34.254503 18604 net.cpp:434] relu3_1 <- conv3_1
I0213 22:13:34.254511 18604 net.cpp:395] relu3_1 -> conv3_1 (in-place)
I0213 22:13:34.254717 18604 net.cpp:150] Setting up relu3_1
I0213 22:13:34.254732 18604 net.cpp:157] Top shape: 13 256 75 75 (18720000)
I0213 22:13:34.254739 18604 net.cpp:165] Memory required for data: 2208960192
I0213 22:13:34.254745 18604 layer_factory.hpp:77] Creating layer conv3_2
I0213 22:13:34.254760 18604 net.cpp:100] Creating Layer conv3_2
I0213 22:13:34.254767 18604 net.cpp:434] conv3_2 <- conv3_1
I0213 22:13:34.254779 18604 net.cpp:408] conv3_2 -> conv3_2
I0213 22:13:34.261067 18604 net.cpp:150] Setting up conv3_2
I0213 22:13:34.261091 18604 net.cpp:157] Top shape: 13 256 75 75 (18720000)
I0213 22:13:34.261098 18604 net.cpp:165] Memory required for data: 2283840192
I0213 22:13:34.261111 18604 layer_factory.hpp:77] Creating layer relu3_2
I0213 22:13:34.261121 18604 net.cpp:100] Creating Layer relu3_2
I0213 22:13:34.261129 18604 net.cpp:434] relu3_2 <- conv3_2
I0213 22:13:34.261139 18604 net.cpp:395] relu3_2 -> conv3_2 (in-place)
I0213 22:13:34.261332 18604 net.cpp:150] Setting up relu3_2
I0213 22:13:34.261348 18604 net.cpp:157] Top shape: 13 256 75 75 (18720000)
I0213 22:13:34.261353 18604 net.cpp:165] Memory required for data: 2358720192
I0213 22:13:34.261360 18604 layer_factory.hpp:77] Creating layer conv3_3
I0213 22:13:34.261379 18604 net.cpp:100] Creating Layer conv3_3
I0213 22:13:34.261391 18604 net.cpp:434] conv3_3 <- conv3_2
I0213 22:13:34.261404 18604 net.cpp:408] conv3_3 -> conv3_3
I0213 22:13:34.268132 18604 net.cpp:150] Setting up conv3_3
I0213 22:13:34.268174 18604 net.cpp:157] Top shape: 13 256 75 75 (18720000)
I0213 22:13:34.268182 18604 net.cpp:165] Memory required for data: 2433600192
I0213 22:13:34.268196 18604 layer_factory.hpp:77] Creating layer relu3_3
I0213 22:13:34.268211 18604 net.cpp:100] Creating Layer relu3_3
I0213 22:13:34.268220 18604 net.cpp:434] relu3_3 <- conv3_3
I0213 22:13:34.268234 18604 net.cpp:395] relu3_3 -> conv3_3 (in-place)
I0213 22:13:34.268615 18604 net.cpp:150] Setting up relu3_3
I0213 22:13:34.268635 18604 net.cpp:157] Top shape: 13 256 75 75 (18720000)
I0213 22:13:34.268642 18604 net.cpp:165] Memory required for data: 2508480192
I0213 22:13:34.268681 18604 layer_factory.hpp:77] Creating layer pool3
I0213 22:13:34.268702 18604 net.cpp:100] Creating Layer pool3
I0213 22:13:34.268712 18604 net.cpp:434] pool3 <- conv3_3
I0213 22:13:34.268723 18604 net.cpp:408] pool3 -> pool3
I0213 22:13:34.268808 18604 net.cpp:150] Setting up pool3
I0213 22:13:34.268821 18604 net.cpp:157] Top shape: 13 256 38 38 (4805632)
I0213 22:13:34.268827 18604 net.cpp:165] Memory required for data: 2527702720
I0213 22:13:34.268834 18604 layer_factory.hpp:77] Creating layer conv4_1
I0213 22:13:34.268853 18604 net.cpp:100] Creating Layer conv4_1
I0213 22:13:34.268862 18604 net.cpp:434] conv4_1 <- pool3
I0213 22:13:34.268874 18604 net.cpp:408] conv4_1 -> conv4_1
I0213 22:13:34.280406 18604 net.cpp:150] Setting up conv4_1
I0213 22:13:34.280442 18604 net.cpp:157] Top shape: 13 512 38 38 (9611264)
I0213 22:13:34.280448 18604 net.cpp:165] Memory required for data: 2566147776
I0213 22:13:34.280463 18604 layer_factory.hpp:77] Creating layer relu4_1
I0213 22:13:34.280478 18604 net.cpp:100] Creating Layer relu4_1
I0213 22:13:34.280485 18604 net.cpp:434] relu4_1 <- conv4_1
I0213 22:13:34.280498 18604 net.cpp:395] relu4_1 -> conv4_1 (in-place)
I0213 22:13:34.280706 18604 net.cpp:150] Setting up relu4_1
I0213 22:13:34.280721 18604 net.cpp:157] Top shape: 13 512 38 38 (9611264)
I0213 22:13:34.280728 18604 net.cpp:165] Memory required for data: 2604592832
I0213 22:13:34.280735 18604 layer_factory.hpp:77] Creating layer conv4_2
I0213 22:13:34.280753 18604 net.cpp:100] Creating Layer conv4_2
I0213 22:13:34.280766 18604 net.cpp:434] conv4_2 <- conv4_1
I0213 22:13:34.280779 18604 net.cpp:408] conv4_2 -> conv4_2
I0213 22:13:34.302076 18604 net.cpp:150] Setting up conv4_2
I0213 22:13:34.302114 18604 net.cpp:157] Top shape: 13 512 38 38 (9611264)
I0213 22:13:34.302119 18604 net.cpp:165] Memory required for data: 2643037888
I0213 22:13:34.302140 18604 layer_factory.hpp:77] Creating layer relu4_2
I0213 22:13:34.302156 18604 net.cpp:100] Creating Layer relu4_2
I0213 22:13:34.302165 18604 net.cpp:434] relu4_2 <- conv4_2
I0213 22:13:34.302177 18604 net.cpp:395] relu4_2 -> conv4_2 (in-place)
I0213 22:13:34.302400 18604 net.cpp:150] Setting up relu4_2
I0213 22:13:34.302415 18604 net.cpp:157] Top shape: 13 512 38 38 (9611264)
I0213 22:13:34.302423 18604 net.cpp:165] Memory required for data: 2681482944
I0213 22:13:34.302429 18604 layer_factory.hpp:77] Creating layer conv4_3
I0213 22:13:34.302446 18604 net.cpp:100] Creating Layer conv4_3
I0213 22:13:34.302453 18604 net.cpp:434] conv4_3 <- conv4_2
I0213 22:13:34.302465 18604 net.cpp:408] conv4_3 -> conv4_3
I0213 22:13:34.323914 18604 net.cpp:150] Setting up conv4_3
I0213 22:13:34.323949 18604 net.cpp:157] Top shape: 13 512 38 38 (9611264)
I0213 22:13:34.323956 18604 net.cpp:165] Memory required for data: 2719928000
I0213 22:13:34.323968 18604 layer_factory.hpp:77] Creating layer relu4_3
I0213 22:13:34.323983 18604 net.cpp:100] Creating Layer relu4_3
I0213 22:13:34.323992 18604 net.cpp:434] relu4_3 <- conv4_3
I0213 22:13:34.324003 18604 net.cpp:395] relu4_3 -> conv4_3 (in-place)
I0213 22:13:34.324365 18604 net.cpp:150] Setting up relu4_3
I0213 22:13:34.324383 18604 net.cpp:157] Top shape: 13 512 38 38 (9611264)
I0213 22:13:34.324390 18604 net.cpp:165] Memory required for data: 2758373056
I0213 22:13:34.324398 18604 layer_factory.hpp:77] Creating layer conv4_3_relu4_3_0_split
I0213 22:13:34.324409 18604 net.cpp:100] Creating Layer conv4_3_relu4_3_0_split
I0213 22:13:34.324415 18604 net.cpp:434] conv4_3_relu4_3_0_split <- conv4_3
I0213 22:13:34.324429 18604 net.cpp:408] conv4_3_relu4_3_0_split -> conv4_3_relu4_3_0_split_0
I0213 22:13:34.324443 18604 net.cpp:408] conv4_3_relu4_3_0_split -> conv4_3_relu4_3_0_split_1
I0213 22:13:34.324517 18604 net.cpp:150] Setting up conv4_3_relu4_3_0_split
I0213 22:13:34.324530 18604 net.cpp:157] Top shape: 13 512 38 38 (9611264)
I0213 22:13:34.324538 18604 net.cpp:157] Top shape: 13 512 38 38 (9611264)
I0213 22:13:34.324544 18604 net.cpp:165] Memory required for data: 2835263168
I0213 22:13:34.324573 18604 layer_factory.hpp:77] Creating layer pool4
I0213 22:13:34.324589 18604 net.cpp:100] Creating Layer pool4
I0213 22:13:34.324597 18604 net.cpp:434] pool4 <- conv4_3_relu4_3_0_split_0
I0213 22:13:34.324609 18604 net.cpp:408] pool4 -> pool4
I0213 22:13:34.324677 18604 net.cpp:150] Setting up pool4
I0213 22:13:34.324689 18604 net.cpp:157] Top shape: 13 512 19 19 (2402816)
I0213 22:13:34.324695 18604 net.cpp:165] Memory required for data: 2844874432
I0213 22:13:34.324702 18604 layer_factory.hpp:77] Creating layer conv5_1
I0213 22:13:34.324723 18604 net.cpp:100] Creating Layer conv5_1
I0213 22:13:34.324731 18604 net.cpp:434] conv5_1 <- pool4
I0213 22:13:34.324743 18604 net.cpp:408] conv5_1 -> conv5_1
I0213 22:13:34.346093 18604 net.cpp:150] Setting up conv5_1
I0213 22:13:34.346132 18604 net.cpp:157] Top shape: 13 512 19 19 (2402816)
I0213 22:13:34.346138 18604 net.cpp:165] Memory required for data: 2854485696
I0213 22:13:34.346153 18604 layer_factory.hpp:77] Creating layer relu5_1
I0213 22:13:34.346170 18604 net.cpp:100] Creating Layer relu5_1
I0213 22:13:34.346180 18604 net.cpp:434] relu5_1 <- conv5_1
I0213 22:13:34.346192 18604 net.cpp:395] relu5_1 -> conv5_1 (in-place)
I0213 22:13:34.346421 18604 net.cpp:150] Setting up relu5_1
I0213 22:13:34.346436 18604 net.cpp:157] Top shape: 13 512 19 19 (2402816)
I0213 22:13:34.346443 18604 net.cpp:165] Memory required for data: 2864096960
I0213 22:13:34.346449 18604 layer_factory.hpp:77] Creating layer conv5_2
I0213 22:13:34.346470 18604 net.cpp:100] Creating Layer conv5_2
I0213 22:13:34.346482 18604 net.cpp:434] conv5_2 <- conv5_1
I0213 22:13:34.346496 18604 net.cpp:408] conv5_2 -> conv5_2
I0213 22:13:34.367835 18604 net.cpp:150] Setting up conv5_2
I0213 22:13:34.367874 18604 net.cpp:157] Top shape: 13 512 19 19 (2402816)
I0213 22:13:34.367882 18604 net.cpp:165] Memory required for data: 2873708224
I0213 22:13:34.367897 18604 layer_factory.hpp:77] Creating layer relu5_2
I0213 22:13:34.367910 18604 net.cpp:100] Creating Layer relu5_2
I0213 22:13:34.367920 18604 net.cpp:434] relu5_2 <- conv5_2
I0213 22:13:34.367934 18604 net.cpp:395] relu5_2 -> conv5_2 (in-place)
I0213 22:13:34.368157 18604 net.cpp:150] Setting up relu5_2
I0213 22:13:34.368171 18604 net.cpp:157] Top shape: 13 512 19 19 (2402816)
I0213 22:13:34.368178 18604 net.cpp:165] Memory required for data: 2883319488
I0213 22:13:34.368185 18604 layer_factory.hpp:77] Creating layer conv5_3
I0213 22:13:34.368206 18604 net.cpp:100] Creating Layer conv5_3
I0213 22:13:34.368216 18604 net.cpp:434] conv5_3 <- conv5_2
I0213 22:13:34.368228 18604 net.cpp:408] conv5_3 -> conv5_3
I0213 22:13:34.389566 18604 net.cpp:150] Setting up conv5_3
I0213 22:13:34.389600 18604 net.cpp:157] Top shape: 13 512 19 19 (2402816)
I0213 22:13:34.389606 18604 net.cpp:165] Memory required for data: 2892930752
I0213 22:13:34.389619 18604 layer_factory.hpp:77] Creating layer relu5_3
I0213 22:13:34.389641 18604 net.cpp:100] Creating Layer relu5_3
I0213 22:13:34.389650 18604 net.cpp:434] relu5_3 <- conv5_3
I0213 22:13:34.389664 18604 net.cpp:395] relu5_3 -> conv5_3 (in-place)
I0213 22:13:34.390033 18604 net.cpp:150] Setting up relu5_3
I0213 22:13:34.390049 18604 net.cpp:157] Top shape: 13 512 19 19 (2402816)
I0213 22:13:34.390056 18604 net.cpp:165] Memory required for data: 2902542016
I0213 22:13:34.390064 18604 layer_factory.hpp:77] Creating layer pool5
I0213 22:13:34.390077 18604 net.cpp:100] Creating Layer pool5
I0213 22:13:34.390084 18604 net.cpp:434] pool5 <- conv5_3
I0213 22:13:34.390095 18604 net.cpp:408] pool5 -> pool5
I0213 22:13:34.390172 18604 net.cpp:150] Setting up pool5
I0213 22:13:34.390187 18604 net.cpp:157] Top shape: 13 512 19 19 (2402816)
I0213 22:13:34.390192 18604 net.cpp:165] Memory required for data: 2912153280
I0213 22:13:34.390198 18604 layer_factory.hpp:77] Creating layer fc6
I0213 22:13:34.390218 18604 net.cpp:100] Creating Layer fc6
I0213 22:13:34.390228 18604 net.cpp:434] fc6 <- pool5
I0213 22:13:34.390244 18604 net.cpp:408] fc6 -> fc6
I0213 22:13:34.430918 18604 net.cpp:150] Setting up fc6
I0213 22:13:34.430955 18604 net.cpp:157] Top shape: 13 1024 19 19 (4805632)
I0213 22:13:34.430994 18604 net.cpp:165] Memory required for data: 2931375808
I0213 22:13:34.431011 18604 layer_factory.hpp:77] Creating layer relu6
I0213 22:13:34.431030 18604 net.cpp:100] Creating Layer relu6
I0213 22:13:34.431041 18604 net.cpp:434] relu6 <- fc6
I0213 22:13:34.431056 18604 net.cpp:395] relu6 -> fc6 (in-place)
I0213 22:13:34.431339 18604 net.cpp:150] Setting up relu6
I0213 22:13:34.431354 18604 net.cpp:157] Top shape: 13 1024 19 19 (4805632)
I0213 22:13:34.431360 18604 net.cpp:165] Memory required for data: 2950598336
I0213 22:13:34.431367 18604 layer_factory.hpp:77] Creating layer fc7
I0213 22:13:34.431387 18604 net.cpp:100] Creating Layer fc7
I0213 22:13:34.431398 18604 net.cpp:434] fc7 <- fc6
I0213 22:13:34.431412 18604 net.cpp:408] fc7 -> fc7
I0213 22:13:34.441859 18604 net.cpp:150] Setting up fc7
I0213 22:13:34.441895 18604 net.cpp:157] Top shape: 13 1024 19 19 (4805632)
I0213 22:13:34.441902 18604 net.cpp:165] Memory required for data: 2969820864
I0213 22:13:34.441917 18604 layer_factory.hpp:77] Creating layer relu7
I0213 22:13:34.441934 18604 net.cpp:100] Creating Layer relu7
I0213 22:13:34.441944 18604 net.cpp:434] relu7 <- fc7
I0213 22:13:34.441956 18604 net.cpp:395] relu7 -> fc7 (in-place)
I0213 22:13:34.442317 18604 net.cpp:150] Setting up relu7
I0213 22:13:34.442338 18604 net.cpp:157] Top shape: 13 1024 19 19 (4805632)
I0213 22:13:34.442355 18604 net.cpp:165] Memory required for data: 2989043392
I0213 22:13:34.442363 18604 layer_factory.hpp:77] Creating layer fc7_relu7_0_split
I0213 22:13:34.442375 18604 net.cpp:100] Creating Layer fc7_relu7_0_split
I0213 22:13:34.442383 18604 net.cpp:434] fc7_relu7_0_split <- fc7
I0213 22:13:34.442394 18604 net.cpp:408] fc7_relu7_0_split -> fc7_relu7_0_split_0
I0213 22:13:34.442407 18604 net.cpp:408] fc7_relu7_0_split -> fc7_relu7_0_split_1
I0213 22:13:34.442431 18604 net.cpp:408] fc7_relu7_0_split -> fc7_relu7_0_split_2
I0213 22:13:34.442445 18604 net.cpp:408] fc7_relu7_0_split -> fc7_relu7_0_split_3
I0213 22:13:34.442555 18604 net.cpp:150] Setting up fc7_relu7_0_split
I0213 22:13:34.442569 18604 net.cpp:157] Top shape: 13 1024 19 19 (4805632)
I0213 22:13:34.442577 18604 net.cpp:157] Top shape: 13 1024 19 19 (4805632)
I0213 22:13:34.442585 18604 net.cpp:157] Top shape: 13 1024 19 19 (4805632)
I0213 22:13:34.442594 18604 net.cpp:157] Top shape: 13 1024 19 19 (4805632)
I0213 22:13:34.442600 18604 net.cpp:165] Memory required for data: 3065933504
I0213 22:13:34.442605 18604 layer_factory.hpp:77] Creating layer conv6_1
I0213 22:13:34.442627 18604 net.cpp:100] Creating Layer conv6_1
I0213 22:13:34.442636 18604 net.cpp:434] conv6_1 <- fc7_relu7_0_split_0
I0213 22:13:34.442649 18604 net.cpp:408] conv6_1 -> conv6_1
I0213 22:13:34.446122 18604 net.cpp:150] Setting up conv6_1
I0213 22:13:34.446141 18604 net.cpp:157] Top shape: 13 256 19 19 (1201408)
I0213 22:13:34.446148 18604 net.cpp:165] Memory required for data: 3070739136
I0213 22:13:34.446161 18604 layer_factory.hpp:77] Creating layer conv6_1_relu
I0213 22:13:34.446173 18604 net.cpp:100] Creating Layer conv6_1_relu
I0213 22:13:34.446180 18604 net.cpp:434] conv6_1_relu <- conv6_1
I0213 22:13:34.446193 18604 net.cpp:395] conv6_1_relu -> conv6_1 (in-place)
I0213 22:13:34.446562 18604 net.cpp:150] Setting up conv6_1_relu
I0213 22:13:34.446578 18604 net.cpp:157] Top shape: 13 256 19 19 (1201408)
I0213 22:13:34.446585 18604 net.cpp:165] Memory required for data: 3075544768
I0213 22:13:34.446593 18604 layer_factory.hpp:77] Creating layer conv6_2
I0213 22:13:34.446611 18604 net.cpp:100] Creating Layer conv6_2
I0213 22:13:34.446619 18604 net.cpp:434] conv6_2 <- conv6_1
I0213 22:13:34.446633 18604 net.cpp:408] conv6_2 -> conv6_2
I0213 22:13:34.458029 18604 net.cpp:150] Setting up conv6_2
I0213 22:13:34.458061 18604 net.cpp:157] Top shape: 13 512 10 10 (665600)
I0213 22:13:34.458067 18604 net.cpp:165] Memory required for data: 3078207168
I0213 22:13:34.458094 18604 layer_factory.hpp:77] Creating layer conv6_2_relu
I0213 22:13:34.458111 18604 net.cpp:100] Creating Layer conv6_2_relu
I0213 22:13:34.458142 18604 net.cpp:434] conv6_2_relu <- conv6_2
I0213 22:13:34.458159 18604 net.cpp:395] conv6_2_relu -> conv6_2 (in-place)
I0213 22:13:34.458398 18604 net.cpp:150] Setting up conv6_2_relu
I0213 22:13:34.458413 18604 net.cpp:157] Top shape: 13 512 10 10 (665600)
I0213 22:13:34.458420 18604 net.cpp:165] Memory required for data: 3080869568
I0213 22:13:34.458427 18604 layer_factory.hpp:77] Creating layer conv6_2_conv6_2_relu_0_split
I0213 22:13:34.458437 18604 net.cpp:100] Creating Layer conv6_2_conv6_2_relu_0_split
I0213 22:13:34.458447 18604 net.cpp:434] conv6_2_conv6_2_relu_0_split <- conv6_2
I0213 22:13:34.458458 18604 net.cpp:408] conv6_2_conv6_2_relu_0_split -> conv6_2_conv6_2_relu_0_split_0
I0213 22:13:34.458472 18604 net.cpp:408] conv6_2_conv6_2_relu_0_split -> conv6_2_conv6_2_relu_0_split_1
I0213 22:13:34.458487 18604 net.cpp:408] conv6_2_conv6_2_relu_0_split -> conv6_2_conv6_2_relu_0_split_2
I0213 22:13:34.458501 18604 net.cpp:408] conv6_2_conv6_2_relu_0_split -> conv6_2_conv6_2_relu_0_split_3
I0213 22:13:34.458612 18604 net.cpp:150] Setting up conv6_2_conv6_2_relu_0_split
I0213 22:13:34.458624 18604 net.cpp:157] Top shape: 13 512 10 10 (665600)
I0213 22:13:34.458633 18604 net.cpp:157] Top shape: 13 512 10 10 (665600)
I0213 22:13:34.458640 18604 net.cpp:157] Top shape: 13 512 10 10 (665600)
I0213 22:13:34.458648 18604 net.cpp:157] Top shape: 13 512 10 10 (665600)
I0213 22:13:34.458654 18604 net.cpp:165] Memory required for data: 3091519168
I0213 22:13:34.458660 18604 layer_factory.hpp:77] Creating layer conv7_1
I0213 22:13:34.458681 18604 net.cpp:100] Creating Layer conv7_1
I0213 22:13:34.458689 18604 net.cpp:434] conv7_1 <- conv6_2_conv6_2_relu_0_split_0
I0213 22:13:34.458704 18604 net.cpp:408] conv7_1 -> conv7_1
I0213 22:13:34.460916 18604 net.cpp:150] Setting up conv7_1
I0213 22:13:34.460934 18604 net.cpp:157] Top shape: 13 128 10 10 (166400)
I0213 22:13:34.460942 18604 net.cpp:165] Memory required for data: 3092184768
I0213 22:13:34.460954 18604 layer_factory.hpp:77] Creating layer conv7_1_relu
I0213 22:13:34.460968 18604 net.cpp:100] Creating Layer conv7_1_relu
I0213 22:13:34.460976 18604 net.cpp:434] conv7_1_relu <- conv7_1
I0213 22:13:34.460988 18604 net.cpp:395] conv7_1_relu -> conv7_1 (in-place)
I0213 22:13:34.461356 18604 net.cpp:150] Setting up conv7_1_relu
I0213 22:13:34.461374 18604 net.cpp:157] Top shape: 13 128 10 10 (166400)
I0213 22:13:34.461380 18604 net.cpp:165] Memory required for data: 3092850368
I0213 22:13:34.461386 18604 layer_factory.hpp:77] Creating layer conv7_2
I0213 22:13:34.461405 18604 net.cpp:100] Creating Layer conv7_2
I0213 22:13:34.461413 18604 net.cpp:434] conv7_2 <- conv7_1
I0213 22:13:34.461427 18604 net.cpp:408] conv7_2 -> conv7_2
I0213 22:13:34.465196 18604 net.cpp:150] Setting up conv7_2
I0213 22:13:34.465216 18604 net.cpp:157] Top shape: 13 256 5 5 (83200)
I0213 22:13:34.465224 18604 net.cpp:165] Memory required for data: 3093183168
I0213 22:13:34.465235 18604 layer_factory.hpp:77] Creating layer conv7_2_relu
I0213 22:13:34.465247 18604 net.cpp:100] Creating Layer conv7_2_relu
I0213 22:13:34.465255 18604 net.cpp:434] conv7_2_relu <- conv7_2
I0213 22:13:34.465267 18604 net.cpp:395] conv7_2_relu -> conv7_2 (in-place)
I0213 22:13:34.465628 18604 net.cpp:150] Setting up conv7_2_relu
I0213 22:13:34.465646 18604 net.cpp:157] Top shape: 13 256 5 5 (83200)
I0213 22:13:34.465652 18604 net.cpp:165] Memory required for data: 3093515968
I0213 22:13:34.465659 18604 layer_factory.hpp:77] Creating layer conv7_2_conv7_2_relu_0_split
I0213 22:13:34.465670 18604 net.cpp:100] Creating Layer conv7_2_conv7_2_relu_0_split
I0213 22:13:34.465677 18604 net.cpp:434] conv7_2_conv7_2_relu_0_split <- conv7_2
I0213 22:13:34.465690 18604 net.cpp:408] conv7_2_conv7_2_relu_0_split -> conv7_2_conv7_2_relu_0_split_0
I0213 22:13:34.465711 18604 net.cpp:408] conv7_2_conv7_2_relu_0_split -> conv7_2_conv7_2_relu_0_split_1
I0213 22:13:34.465726 18604 net.cpp:408] conv7_2_conv7_2_relu_0_split -> conv7_2_conv7_2_relu_0_split_2
I0213 22:13:34.465740 18604 net.cpp:408] conv7_2_conv7_2_relu_0_split -> conv7_2_conv7_2_relu_0_split_3
I0213 22:13:34.465876 18604 net.cpp:150] Setting up conv7_2_conv7_2_relu_0_split
I0213 22:13:34.465890 18604 net.cpp:157] Top shape: 13 256 5 5 (83200)
I0213 22:13:34.465898 18604 net.cpp:157] Top shape: 13 256 5 5 (83200)
I0213 22:13:34.465906 18604 net.cpp:157] Top shape: 13 256 5 5 (83200)
I0213 22:13:34.465914 18604 net.cpp:157] Top shape: 13 256 5 5 (83200)
I0213 22:13:34.465920 18604 net.cpp:165] Memory required for data: 3094847168
I0213 22:13:34.465927 18604 layer_factory.hpp:77] Creating layer conv8_1
I0213 22:13:34.465945 18604 net.cpp:100] Creating Layer conv8_1
I0213 22:13:34.465955 18604 net.cpp:434] conv8_1 <- conv7_2_conv7_2_relu_0_split_0
I0213 22:13:34.465970 18604 net.cpp:408] conv8_1 -> conv8_1
I0213 22:13:34.467481 18604 net.cpp:150] Setting up conv8_1
I0213 22:13:34.467501 18604 net.cpp:157] Top shape: 13 128 5 5 (41600)
I0213 22:13:34.467509 18604 net.cpp:165] Memory required for data: 3095013568
I0213 22:13:34.467521 18604 layer_factory.hpp:77] Creating layer conv8_1_relu
I0213 22:13:34.467532 18604 net.cpp:100] Creating Layer conv8_1_relu
I0213 22:13:34.467540 18604 net.cpp:434] conv8_1_relu <- conv8_1
I0213 22:13:34.467550 18604 net.cpp:395] conv8_1_relu -> conv8_1 (in-place)
I0213 22:13:34.467762 18604 net.cpp:150] Setting up conv8_1_relu
I0213 22:13:34.467777 18604 net.cpp:157] Top shape: 13 128 5 5 (41600)
I0213 22:13:34.467783 18604 net.cpp:165] Memory required for data: 3095179968
I0213 22:13:34.467790 18604 layer_factory.hpp:77] Creating layer conv8_2
I0213 22:13:34.467808 18604 net.cpp:100] Creating Layer conv8_2
I0213 22:13:34.467816 18604 net.cpp:434] conv8_2 <- conv8_1
I0213 22:13:34.467830 18604 net.cpp:408] conv8_2 -> conv8_2
I0213 22:13:34.471766 18604 net.cpp:150] Setting up conv8_2
I0213 22:13:34.471791 18604 net.cpp:157] Top shape: 13 256 3 3 (29952)
I0213 22:13:34.471798 18604 net.cpp:165] Memory required for data: 3095299776
I0213 22:13:34.471810 18604 layer_factory.hpp:77] Creating layer conv8_2_relu
I0213 22:13:34.471822 18604 net.cpp:100] Creating Layer conv8_2_relu
I0213 22:13:34.471830 18604 net.cpp:434] conv8_2_relu <- conv8_2
I0213 22:13:34.471843 18604 net.cpp:395] conv8_2_relu -> conv8_2 (in-place)
I0213 22:13:34.472208 18604 net.cpp:150] Setting up conv8_2_relu
I0213 22:13:34.472224 18604 net.cpp:157] Top shape: 13 256 3 3 (29952)
I0213 22:13:34.472231 18604 net.cpp:165] Memory required for data: 3095419584
I0213 22:13:34.472237 18604 layer_factory.hpp:77] Creating layer conv8_2_conv8_2_relu_0_split
I0213 22:13:34.472249 18604 net.cpp:100] Creating Layer conv8_2_conv8_2_relu_0_split
I0213 22:13:34.472256 18604 net.cpp:434] conv8_2_conv8_2_relu_0_split <- conv8_2
I0213 22:13:34.472270 18604 net.cpp:408] conv8_2_conv8_2_relu_0_split -> conv8_2_conv8_2_relu_0_split_0
I0213 22:13:34.472283 18604 net.cpp:408] conv8_2_conv8_2_relu_0_split -> conv8_2_conv8_2_relu_0_split_1
I0213 22:13:34.472299 18604 net.cpp:408] conv8_2_conv8_2_relu_0_split -> conv8_2_conv8_2_relu_0_split_2
I0213 22:13:34.472316 18604 net.cpp:408] conv8_2_conv8_2_relu_0_split -> conv8_2_conv8_2_relu_0_split_3
I0213 22:13:34.472432 18604 net.cpp:150] Setting up conv8_2_conv8_2_relu_0_split
I0213 22:13:34.472445 18604 net.cpp:157] Top shape: 13 256 3 3 (29952)
I0213 22:13:34.472453 18604 net.cpp:157] Top shape: 13 256 3 3 (29952)
I0213 22:13:34.472461 18604 net.cpp:157] Top shape: 13 256 3 3 (29952)
I0213 22:13:34.472468 18604 net.cpp:157] Top shape: 13 256 3 3 (29952)
I0213 22:13:34.472475 18604 net.cpp:165] Memory required for data: 3095898816
I0213 22:13:34.472481 18604 layer_factory.hpp:77] Creating layer conv9_1
I0213 22:13:34.472501 18604 net.cpp:100] Creating Layer conv9_1
I0213 22:13:34.472509 18604 net.cpp:434] conv9_1 <- conv8_2_conv8_2_relu_0_split_0
I0213 22:13:34.472523 18604 net.cpp:408] conv9_1 -> conv9_1
I0213 22:13:34.473908 18604 net.cpp:150] Setting up conv9_1
I0213 22:13:34.473927 18604 net.cpp:157] Top shape: 13 128 3 3 (14976)
I0213 22:13:34.473933 18604 net.cpp:165] Memory required for data: 3095958720
I0213 22:13:34.473945 18604 layer_factory.hpp:77] Creating layer conv9_1_relu
I0213 22:13:34.473975 18604 net.cpp:100] Creating Layer conv9_1_relu
I0213 22:13:34.473986 18604 net.cpp:434] conv9_1_relu <- conv9_1
I0213 22:13:34.473999 18604 net.cpp:395] conv9_1_relu -> conv9_1 (in-place)
I0213 22:13:34.474364 18604 net.cpp:150] Setting up conv9_1_relu
I0213 22:13:34.474381 18604 net.cpp:157] Top shape: 13 128 3 3 (14976)
I0213 22:13:34.474388 18604 net.cpp:165] Memory required for data: 3096018624
I0213 22:13:34.474395 18604 layer_factory.hpp:77] Creating layer conv9_2
I0213 22:13:34.474414 18604 net.cpp:100] Creating Layer conv9_2
I0213 22:13:34.474426 18604 net.cpp:434] conv9_2 <- conv9_1
I0213 22:13:34.474439 18604 net.cpp:408] conv9_2 -> conv9_2
I0213 22:13:34.478510 18604 net.cpp:150] Setting up conv9_2
I0213 22:13:34.478530 18604 net.cpp:157] Top shape: 13 256 1 1 (3328)
I0213 22:13:34.478538 18604 net.cpp:165] Memory required for data: 3096031936
I0213 22:13:34.478549 18604 layer_factory.hpp:77] Creating layer conv9_2_relu
I0213 22:13:34.478564 18604 net.cpp:100] Creating Layer conv9_2_relu
I0213 22:13:34.478571 18604 net.cpp:434] conv9_2_relu <- conv9_2
I0213 22:13:34.478581 18604 net.cpp:395] conv9_2_relu -> conv9_2 (in-place)
I0213 22:13:34.478799 18604 net.cpp:150] Setting up conv9_2_relu
I0213 22:13:34.478813 18604 net.cpp:157] Top shape: 13 256 1 1 (3328)
I0213 22:13:34.478821 18604 net.cpp:165] Memory required for data: 3096045248
I0213 22:13:34.478827 18604 layer_factory.hpp:77] Creating layer conv9_2_conv9_2_relu_0_split
I0213 22:13:34.478840 18604 net.cpp:100] Creating Layer conv9_2_conv9_2_relu_0_split
I0213 22:13:34.478847 18604 net.cpp:434] conv9_2_conv9_2_relu_0_split <- conv9_2
I0213 22:13:34.478859 18604 net.cpp:408] conv9_2_conv9_2_relu_0_split -> conv9_2_conv9_2_relu_0_split_0
I0213 22:13:34.478873 18604 net.cpp:408] conv9_2_conv9_2_relu_0_split -> conv9_2_conv9_2_relu_0_split_1
I0213 22:13:34.478889 18604 net.cpp:408] conv9_2_conv9_2_relu_0_split -> conv9_2_conv9_2_relu_0_split_2
I0213 22:13:34.478984 18604 net.cpp:150] Setting up conv9_2_conv9_2_relu_0_split
I0213 22:13:34.478996 18604 net.cpp:157] Top shape: 13 256 1 1 (3328)
I0213 22:13:34.479004 18604 net.cpp:157] Top shape: 13 256 1 1 (3328)
I0213 22:13:34.479012 18604 net.cpp:157] Top shape: 13 256 1 1 (3328)
I0213 22:13:34.479018 18604 net.cpp:165] Memory required for data: 3096085184
I0213 22:13:34.479025 18604 layer_factory.hpp:77] Creating layer conv4_3_norm
I0213 22:13:34.479039 18604 net.cpp:100] Creating Layer conv4_3_norm
I0213 22:13:34.479049 18604 net.cpp:434] conv4_3_norm <- conv4_3_relu4_3_0_split_1
I0213 22:13:34.479063 18604 net.cpp:408] conv4_3_norm -> conv4_3_norm
I0213 22:13:34.479308 18604 net.cpp:150] Setting up conv4_3_norm
I0213 22:13:34.479321 18604 net.cpp:157] Top shape: 13 512 38 38 (9611264)
I0213 22:13:34.479327 18604 net.cpp:165] Memory required for data: 3134530240
I0213 22:13:34.479336 18604 layer_factory.hpp:77] Creating layer conv4_3_norm_conv4_3_norm_0_split
I0213 22:13:34.479349 18604 net.cpp:100] Creating Layer conv4_3_norm_conv4_3_norm_0_split
I0213 22:13:34.479357 18604 net.cpp:434] conv4_3_norm_conv4_3_norm_0_split <- conv4_3_norm
I0213 22:13:34.479367 18604 net.cpp:408] conv4_3_norm_conv4_3_norm_0_split -> conv4_3_norm_conv4_3_norm_0_split_0
I0213 22:13:34.479379 18604 net.cpp:408] conv4_3_norm_conv4_3_norm_0_split -> conv4_3_norm_conv4_3_norm_0_split_1
I0213 22:13:34.479393 18604 net.cpp:408] conv4_3_norm_conv4_3_norm_0_split -> conv4_3_norm_conv4_3_norm_0_split_2
I0213 22:13:34.479475 18604 net.cpp:150] Setting up conv4_3_norm_conv4_3_norm_0_split
I0213 22:13:34.479486 18604 net.cpp:157] Top shape: 13 512 38 38 (9611264)
I0213 22:13:34.479496 18604 net.cpp:157] Top shape: 13 512 38 38 (9611264)
I0213 22:13:34.479503 18604 net.cpp:157] Top shape: 13 512 38 38 (9611264)
I0213 22:13:34.479509 18604 net.cpp:165] Memory required for data: 3249865408
I0213 22:13:34.479516 18604 layer_factory.hpp:77] Creating layer conv4_3_norm_mbox_loc
I0213 22:13:34.479532 18604 net.cpp:100] Creating Layer conv4_3_norm_mbox_loc
I0213 22:13:34.479542 18604 net.cpp:434] conv4_3_norm_mbox_loc <- conv4_3_norm_conv4_3_norm_0_split_0
I0213 22:13:34.479570 18604 net.cpp:408] conv4_3_norm_mbox_loc -> conv4_3_norm_mbox_loc
I0213 22:13:34.481403 18604 net.cpp:150] Setting up conv4_3_norm_mbox_loc
I0213 22:13:34.481422 18604 net.cpp:157] Top shape: 13 16 38 38 (300352)
I0213 22:13:34.481429 18604 net.cpp:165] Memory required for data: 3251066816
I0213 22:13:34.481441 18604 layer_factory.hpp:77] Creating layer conv4_3_norm_mbox_loc_perm
I0213 22:13:34.481456 18604 net.cpp:100] Creating Layer conv4_3_norm_mbox_loc_perm
I0213 22:13:34.481468 18604 net.cpp:434] conv4_3_norm_mbox_loc_perm <- conv4_3_norm_mbox_loc
I0213 22:13:34.481482 18604 net.cpp:408] conv4_3_norm_mbox_loc_perm -> conv4_3_norm_mbox_loc_perm
I0213 22:13:34.481645 18604 net.cpp:150] Setting up conv4_3_norm_mbox_loc_perm
I0213 22:13:34.481660 18604 net.cpp:157] Top shape: 13 38 38 16 (300352)
I0213 22:13:34.481667 18604 net.cpp:165] Memory required for data: 3252268224
I0213 22:13:34.481673 18604 layer_factory.hpp:77] Creating layer conv4_3_norm_mbox_loc_flat
I0213 22:13:34.481685 18604 net.cpp:100] Creating Layer conv4_3_norm_mbox_loc_flat
I0213 22:13:34.481693 18604 net.cpp:434] conv4_3_norm_mbox_loc_flat <- conv4_3_norm_mbox_loc_perm
I0213 22:13:34.481703 18604 net.cpp:408] conv4_3_norm_mbox_loc_flat -> conv4_3_norm_mbox_loc_flat
I0213 22:13:34.481758 18604 net.cpp:150] Setting up conv4_3_norm_mbox_loc_flat
I0213 22:13:34.481770 18604 net.cpp:157] Top shape: 13 23104 (300352)
I0213 22:13:34.481777 18604 net.cpp:165] Memory required for data: 3253469632
I0213 22:13:34.481783 18604 layer_factory.hpp:77] Creating layer conv4_3_norm_mbox_conf
I0213 22:13:34.481809 18604 net.cpp:100] Creating Layer conv4_3_norm_mbox_conf
I0213 22:13:34.481817 18604 net.cpp:434] conv4_3_norm_mbox_conf <- conv4_3_norm_conv4_3_norm_0_split_1
I0213 22:13:34.481829 18604 net.cpp:408] conv4_3_norm_mbox_conf -> conv4_3_norm_mbox_conf
I0213 22:13:34.486663 18604 net.cpp:150] Setting up conv4_3_norm_mbox_conf
I0213 22:13:34.486685 18604 net.cpp:157] Top shape: 13 88 38 38 (1651936)
I0213 22:13:34.486691 18604 net.cpp:165] Memory required for data: 3260077376
I0213 22:13:34.486703 18604 layer_factory.hpp:77] Creating layer conv4_3_norm_mbox_conf_perm
I0213 22:13:34.486718 18604 net.cpp:100] Creating Layer conv4_3_norm_mbox_conf_perm
I0213 22:13:34.486727 18604 net.cpp:434] conv4_3_norm_mbox_conf_perm <- conv4_3_norm_mbox_conf
I0213 22:13:34.486738 18604 net.cpp:408] conv4_3_norm_mbox_conf_perm -> conv4_3_norm_mbox_conf_perm
I0213 22:13:34.486901 18604 net.cpp:150] Setting up conv4_3_norm_mbox_conf_perm
I0213 22:13:34.486915 18604 net.cpp:157] Top shape: 13 38 38 88 (1651936)
I0213 22:13:34.486922 18604 net.cpp:165] Memory required for data: 3266685120
I0213 22:13:34.486928 18604 layer_factory.hpp:77] Creating layer conv4_3_norm_mbox_conf_flat
I0213 22:13:34.486941 18604 net.cpp:100] Creating Layer conv4_3_norm_mbox_conf_flat
I0213 22:13:34.486949 18604 net.cpp:434] conv4_3_norm_mbox_conf_flat <- conv4_3_norm_mbox_conf_perm
I0213 22:13:34.486960 18604 net.cpp:408] conv4_3_norm_mbox_conf_flat -> conv4_3_norm_mbox_conf_flat
I0213 22:13:34.487005 18604 net.cpp:150] Setting up conv4_3_norm_mbox_conf_flat
I0213 22:13:34.487020 18604 net.cpp:157] Top shape: 13 127072 (1651936)
I0213 22:13:34.487027 18604 net.cpp:165] Memory required for data: 3273292864
I0213 22:13:34.487033 18604 layer_factory.hpp:77] Creating layer conv4_3_norm_mbox_priorbox
I0213 22:13:34.487046 18604 net.cpp:100] Creating Layer conv4_3_norm_mbox_priorbox
I0213 22:13:34.487053 18604 net.cpp:434] conv4_3_norm_mbox_priorbox <- conv4_3_norm_conv4_3_norm_0_split_2
I0213 22:13:34.487063 18604 net.cpp:434] conv4_3_norm_mbox_priorbox <- data_data_0_split_1
I0213 22:13:34.487082 18604 net.cpp:408] conv4_3_norm_mbox_priorbox -> conv4_3_norm_mbox_priorbox
I0213 22:13:34.487133 18604 net.cpp:150] Setting up conv4_3_norm_mbox_priorbox
I0213 22:13:34.487145 18604 net.cpp:157] Top shape: 1 2 23104 (46208)
I0213 22:13:34.487151 18604 net.cpp:165] Memory required for data: 3273477696
I0213 22:13:34.487159 18604 layer_factory.hpp:77] Creating layer fc7_mbox_loc
I0213 22:13:34.487193 18604 net.cpp:100] Creating Layer fc7_mbox_loc
I0213 22:13:34.487203 18604 net.cpp:434] fc7_mbox_loc <- fc7_relu7_0_split_1
I0213 22:13:34.487215 18604 net.cpp:408] fc7_mbox_loc -> fc7_mbox_loc
I0213 22:13:34.490563 18604 net.cpp:150] Setting up fc7_mbox_loc
I0213 22:13:34.490582 18604 net.cpp:157] Top shape: 13 24 19 19 (112632)
I0213 22:13:34.490589 18604 net.cpp:165] Memory required for data: 3273928224
I0213 22:13:34.490602 18604 layer_factory.hpp:77] Creating layer fc7_mbox_loc_perm
I0213 22:13:34.490613 18604 net.cpp:100] Creating Layer fc7_mbox_loc_perm
I0213 22:13:34.490622 18604 net.cpp:434] fc7_mbox_loc_perm <- fc7_mbox_loc
I0213 22:13:34.490638 18604 net.cpp:408] fc7_mbox_loc_perm -> fc7_mbox_loc_perm
I0213 22:13:34.490810 18604 net.cpp:150] Setting up fc7_mbox_loc_perm
I0213 22:13:34.490823 18604 net.cpp:157] Top shape: 13 19 19 24 (112632)
I0213 22:13:34.490830 18604 net.cpp:165] Memory required for data: 3274378752
I0213 22:13:34.490836 18604 layer_factory.hpp:77] Creating layer fc7_mbox_loc_flat
I0213 22:13:34.490846 18604 net.cpp:100] Creating Layer fc7_mbox_loc_flat
I0213 22:13:34.490854 18604 net.cpp:434] fc7_mbox_loc_flat <- fc7_mbox_loc_perm
I0213 22:13:34.490865 18604 net.cpp:408] fc7_mbox_loc_flat -> fc7_mbox_loc_flat
I0213 22:13:34.490912 18604 net.cpp:150] Setting up fc7_mbox_loc_flat
I0213 22:13:34.490924 18604 net.cpp:157] Top shape: 13 8664 (112632)
I0213 22:13:34.490931 18604 net.cpp:165] Memory required for data: 3274829280
I0213 22:13:34.490937 18604 layer_factory.hpp:77] Creating layer fc7_mbox_conf
I0213 22:13:34.490957 18604 net.cpp:100] Creating Layer fc7_mbox_conf
I0213 22:13:34.490967 18604 net.cpp:434] fc7_mbox_conf <- fc7_relu7_0_split_2
I0213 22:13:34.490980 18604 net.cpp:408] fc7_mbox_conf -> fc7_mbox_conf
I0213 22:13:34.502535 18604 net.cpp:150] Setting up fc7_mbox_conf
I0213 22:13:34.502568 18604 net.cpp:157] Top shape: 13 132 19 19 (619476)
I0213 22:13:34.502574 18604 net.cpp:165] Memory required for data: 3277307184
I0213 22:13:34.502588 18604 layer_factory.hpp:77] Creating layer fc7_mbox_conf_perm
I0213 22:13:34.502601 18604 net.cpp:100] Creating Layer fc7_mbox_conf_perm
I0213 22:13:34.502610 18604 net.cpp:434] fc7_mbox_conf_perm <- fc7_mbox_conf
I0213 22:13:34.502626 18604 net.cpp:408] fc7_mbox_conf_perm -> fc7_mbox_conf_perm
I0213 22:13:34.502797 18604 net.cpp:150] Setting up fc7_mbox_conf_perm
I0213 22:13:34.502810 18604 net.cpp:157] Top shape: 13 19 19 132 (619476)
I0213 22:13:34.502817 18604 net.cpp:165] Memory required for data: 3279785088
I0213 22:13:34.502825 18604 layer_factory.hpp:77] Creating layer fc7_mbox_conf_flat
I0213 22:13:34.502837 18604 net.cpp:100] Creating Layer fc7_mbox_conf_flat
I0213 22:13:34.502846 18604 net.cpp:434] fc7_mbox_conf_flat <- fc7_mbox_conf_perm
I0213 22:13:34.502856 18604 net.cpp:408] fc7_mbox_conf_flat -> fc7_mbox_conf_flat
I0213 22:13:34.502903 18604 net.cpp:150] Setting up fc7_mbox_conf_flat
I0213 22:13:34.502915 18604 net.cpp:157] Top shape: 13 47652 (619476)
I0213 22:13:34.502921 18604 net.cpp:165] Memory required for data: 3282262992
I0213 22:13:34.502928 18604 layer_factory.hpp:77] Creating layer fc7_mbox_priorbox
I0213 22:13:34.502943 18604 net.cpp:100] Creating Layer fc7_mbox_priorbox
I0213 22:13:34.502955 18604 net.cpp:434] fc7_mbox_priorbox <- fc7_relu7_0_split_3
I0213 22:13:34.502966 18604 net.cpp:434] fc7_mbox_priorbox <- data_data_0_split_2
I0213 22:13:34.502980 18604 net.cpp:408] fc7_mbox_priorbox -> fc7_mbox_priorbox
I0213 22:13:34.503037 18604 net.cpp:150] Setting up fc7_mbox_priorbox
I0213 22:13:34.503051 18604 net.cpp:157] Top shape: 1 2 8664 (17328)
I0213 22:13:34.503057 18604 net.cpp:165] Memory required for data: 3282332304
I0213 22:13:34.503062 18604 layer_factory.hpp:77] Creating layer conv6_2_mbox_loc
I0213 22:13:34.503083 18604 net.cpp:100] Creating Layer conv6_2_mbox_loc
I0213 22:13:34.503093 18604 net.cpp:434] conv6_2_mbox_loc <- conv6_2_conv6_2_relu_0_split_1
I0213 22:13:34.503106 18604 net.cpp:408] conv6_2_mbox_loc -> conv6_2_mbox_loc
I0213 22:13:34.505679 18604 net.cpp:150] Setting up conv6_2_mbox_loc
I0213 22:13:34.505698 18604 net.cpp:157] Top shape: 13 24 10 10 (31200)
I0213 22:13:34.505705 18604 net.cpp:165] Memory required for data: 3282457104
I0213 22:13:34.505717 18604 layer_factory.hpp:77] Creating layer conv6_2_mbox_loc_perm
I0213 22:13:34.505730 18604 net.cpp:100] Creating Layer conv6_2_mbox_loc_perm
I0213 22:13:34.505738 18604 net.cpp:434] conv6_2_mbox_loc_perm <- conv6_2_mbox_loc
I0213 22:13:34.505753 18604 net.cpp:408] conv6_2_mbox_loc_perm -> conv6_2_mbox_loc_perm
I0213 22:13:34.505928 18604 net.cpp:150] Setting up conv6_2_mbox_loc_perm
I0213 22:13:34.505941 18604 net.cpp:157] Top shape: 13 10 10 24 (31200)
I0213 22:13:34.505947 18604 net.cpp:165] Memory required for data: 3282581904
I0213 22:13:34.505954 18604 layer_factory.hpp:77] Creating layer conv6_2_mbox_loc_flat
I0213 22:13:34.505966 18604 net.cpp:100] Creating Layer conv6_2_mbox_loc_flat
I0213 22:13:34.505975 18604 net.cpp:434] conv6_2_mbox_loc_flat <- conv6_2_mbox_loc_perm
I0213 22:13:34.505986 18604 net.cpp:408] conv6_2_mbox_loc_flat -> conv6_2_mbox_loc_flat
I0213 22:13:34.506032 18604 net.cpp:150] Setting up conv6_2_mbox_loc_flat
I0213 22:13:34.506044 18604 net.cpp:157] Top shape: 13 2400 (31200)
I0213 22:13:34.506050 18604 net.cpp:165] Memory required for data: 3282706704
I0213 22:13:34.506057 18604 layer_factory.hpp:77] Creating layer conv6_2_mbox_conf
I0213 22:13:34.506077 18604 net.cpp:100] Creating Layer conv6_2_mbox_conf
I0213 22:13:34.506086 18604 net.cpp:434] conv6_2_mbox_conf <- conv6_2_conv6_2_relu_0_split_2
I0213 22:13:34.506099 18604 net.cpp:408] conv6_2_mbox_conf -> conv6_2_mbox_conf
I0213 22:13:34.512620 18604 net.cpp:150] Setting up conv6_2_mbox_conf
I0213 22:13:34.512641 18604 net.cpp:157] Top shape: 13 132 10 10 (171600)
I0213 22:13:34.512648 18604 net.cpp:165] Memory required for data: 3283393104
I0213 22:13:34.512661 18604 layer_factory.hpp:77] Creating layer conv6_2_mbox_conf_perm
I0213 22:13:34.512673 18604 net.cpp:100] Creating Layer conv6_2_mbox_conf_perm
I0213 22:13:34.512681 18604 net.cpp:434] conv6_2_mbox_conf_perm <- conv6_2_mbox_conf
I0213 22:13:34.512692 18604 net.cpp:408] conv6_2_mbox_conf_perm -> conv6_2_mbox_conf_perm
I0213 22:13:34.512866 18604 net.cpp:150] Setting up conv6_2_mbox_conf_perm
I0213 22:13:34.512879 18604 net.cpp:157] Top shape: 13 10 10 132 (171600)
I0213 22:13:34.512887 18604 net.cpp:165] Memory required for data: 3284079504
I0213 22:13:34.512893 18604 layer_factory.hpp:77] Creating layer conv6_2_mbox_conf_flat
I0213 22:13:34.512903 18604 net.cpp:100] Creating Layer conv6_2_mbox_conf_flat
I0213 22:13:34.512910 18604 net.cpp:434] conv6_2_mbox_conf_flat <- conv6_2_mbox_conf_perm
I0213 22:13:34.512923 18604 net.cpp:408] conv6_2_mbox_conf_flat -> conv6_2_mbox_conf_flat
I0213 22:13:34.512975 18604 net.cpp:150] Setting up conv6_2_mbox_conf_flat
I0213 22:13:34.512987 18604 net.cpp:157] Top shape: 13 13200 (171600)
I0213 22:13:34.512994 18604 net.cpp:165] Memory required for data: 3284765904
I0213 22:13:34.513000 18604 layer_factory.hpp:77] Creating layer conv6_2_mbox_priorbox
I0213 22:13:34.513013 18604 net.cpp:100] Creating Layer conv6_2_mbox_priorbox
I0213 22:13:34.513022 18604 net.cpp:434] conv6_2_mbox_priorbox <- conv6_2_conv6_2_relu_0_split_3
I0213 22:13:34.513031 18604 net.cpp:434] conv6_2_mbox_priorbox <- data_data_0_split_3
I0213 22:13:34.513044 18604 net.cpp:408] conv6_2_mbox_priorbox -> conv6_2_mbox_priorbox
I0213 22:13:34.513097 18604 net.cpp:150] Setting up conv6_2_mbox_priorbox
I0213 22:13:34.513108 18604 net.cpp:157] Top shape: 1 2 2400 (4800)
I0213 22:13:34.513115 18604 net.cpp:165] Memory required for data: 3284785104
I0213 22:13:34.513121 18604 layer_factory.hpp:77] Creating layer conv7_2_mbox_loc
I0213 22:13:34.513140 18604 net.cpp:100] Creating Layer conv7_2_mbox_loc
I0213 22:13:34.513150 18604 net.cpp:434] conv7_2_mbox_loc <- conv7_2_conv7_2_relu_0_split_1
I0213 22:13:34.513164 18604 net.cpp:408] conv7_2_mbox_loc -> conv7_2_mbox_loc
I0213 22:13:34.514904 18604 net.cpp:150] Setting up conv7_2_mbox_loc
I0213 22:13:34.514935 18604 net.cpp:157] Top shape: 13 24 5 5 (7800)
I0213 22:13:34.514943 18604 net.cpp:165] Memory required for data: 3284816304
I0213 22:13:34.514955 18604 layer_factory.hpp:77] Creating layer conv7_2_mbox_loc_perm
I0213 22:13:34.514969 18604 net.cpp:100] Creating Layer conv7_2_mbox_loc_perm
I0213 22:13:34.514983 18604 net.cpp:434] conv7_2_mbox_loc_perm <- conv7_2_mbox_loc
I0213 22:13:34.514996 18604 net.cpp:408] conv7_2_mbox_loc_perm -> conv7_2_mbox_loc_perm
I0213 22:13:34.515168 18604 net.cpp:150] Setting up conv7_2_mbox_loc_perm
I0213 22:13:34.515182 18604 net.cpp:157] Top shape: 13 5 5 24 (7800)
I0213 22:13:34.515188 18604 net.cpp:165] Memory required for data: 3284847504
I0213 22:13:34.515195 18604 layer_factory.hpp:77] Creating layer conv7_2_mbox_loc_flat
I0213 22:13:34.515205 18604 net.cpp:100] Creating Layer conv7_2_mbox_loc_flat
I0213 22:13:34.515213 18604 net.cpp:434] conv7_2_mbox_loc_flat <- conv7_2_mbox_loc_perm
I0213 22:13:34.515224 18604 net.cpp:408] conv7_2_mbox_loc_flat -> conv7_2_mbox_loc_flat
I0213 22:13:34.515274 18604 net.cpp:150] Setting up conv7_2_mbox_loc_flat
I0213 22:13:34.515285 18604 net.cpp:157] Top shape: 13 600 (7800)
I0213 22:13:34.515291 18604 net.cpp:165] Memory required for data: 3284878704
I0213 22:13:34.515297 18604 layer_factory.hpp:77] Creating layer conv7_2_mbox_conf
I0213 22:13:34.515314 18604 net.cpp:100] Creating Layer conv7_2_mbox_conf
I0213 22:13:34.515324 18604 net.cpp:434] conv7_2_mbox_conf <- conv7_2_conv7_2_relu_0_split_2
I0213 22:13:34.515338 18604 net.cpp:408] conv7_2_mbox_conf -> conv7_2_mbox_conf
I0213 22:13:34.519392 18604 net.cpp:150] Setting up conv7_2_mbox_conf
I0213 22:13:34.519418 18604 net.cpp:157] Top shape: 13 132 5 5 (42900)
I0213 22:13:34.519424 18604 net.cpp:165] Memory required for data: 3285050304
I0213 22:13:34.519438 18604 layer_factory.hpp:77] Creating layer conv7_2_mbox_conf_perm
I0213 22:13:34.519449 18604 net.cpp:100] Creating Layer conv7_2_mbox_conf_perm
I0213 22:13:34.519459 18604 net.cpp:434] conv7_2_mbox_conf_perm <- conv7_2_mbox_conf
I0213 22:13:34.519472 18604 net.cpp:408] conv7_2_mbox_conf_perm -> conv7_2_mbox_conf_perm
I0213 22:13:34.519644 18604 net.cpp:150] Setting up conv7_2_mbox_conf_perm
I0213 22:13:34.519657 18604 net.cpp:157] Top shape: 13 5 5 132 (42900)
I0213 22:13:34.519665 18604 net.cpp:165] Memory required for data: 3285221904
I0213 22:13:34.519671 18604 layer_factory.hpp:77] Creating layer conv7_2_mbox_conf_flat
I0213 22:13:34.519683 18604 net.cpp:100] Creating Layer conv7_2_mbox_conf_flat
I0213 22:13:34.519691 18604 net.cpp:434] conv7_2_mbox_conf_flat <- conv7_2_mbox_conf_perm
I0213 22:13:34.519701 18604 net.cpp:408] conv7_2_mbox_conf_flat -> conv7_2_mbox_conf_flat
I0213 22:13:34.519752 18604 net.cpp:150] Setting up conv7_2_mbox_conf_flat
I0213 22:13:34.519763 18604 net.cpp:157] Top shape: 13 3300 (42900)
I0213 22:13:34.519770 18604 net.cpp:165] Memory required for data: 3285393504
I0213 22:13:34.519776 18604 layer_factory.hpp:77] Creating layer conv7_2_mbox_priorbox
I0213 22:13:34.519790 18604 net.cpp:100] Creating Layer conv7_2_mbox_priorbox
I0213 22:13:34.519798 18604 net.cpp:434] conv7_2_mbox_priorbox <- conv7_2_conv7_2_relu_0_split_3
I0213 22:13:34.519807 18604 net.cpp:434] conv7_2_mbox_priorbox <- data_data_0_split_4
I0213 22:13:34.519819 18604 net.cpp:408] conv7_2_mbox_priorbox -> conv7_2_mbox_priorbox
I0213 22:13:34.519877 18604 net.cpp:150] Setting up conv7_2_mbox_priorbox
I0213 22:13:34.519891 18604 net.cpp:157] Top shape: 1 2 600 (1200)
I0213 22:13:34.519896 18604 net.cpp:165] Memory required for data: 3285398304
I0213 22:13:34.519902 18604 layer_factory.hpp:77] Creating layer conv8_2_mbox_loc
I0213 22:13:34.519922 18604 net.cpp:100] Creating Layer conv8_2_mbox_loc
I0213 22:13:34.519932 18604 net.cpp:434] conv8_2_mbox_loc <- conv8_2_conv8_2_relu_0_split_1
I0213 22:13:34.519946 18604 net.cpp:408] conv8_2_mbox_loc -> conv8_2_mbox_loc
I0213 22:13:34.521565 18604 net.cpp:150] Setting up conv8_2_mbox_loc
I0213 22:13:34.521589 18604 net.cpp:157] Top shape: 13 16 3 3 (1872)
I0213 22:13:34.521596 18604 net.cpp:165] Memory required for data: 3285405792
I0213 22:13:34.521651 18604 layer_factory.hpp:77] Creating layer conv8_2_mbox_loc_perm
I0213 22:13:34.521664 18604 net.cpp:100] Creating Layer conv8_2_mbox_loc_perm
I0213 22:13:34.521672 18604 net.cpp:434] conv8_2_mbox_loc_perm <- conv8_2_mbox_loc
I0213 22:13:34.521687 18604 net.cpp:408] conv8_2_mbox_loc_perm -> conv8_2_mbox_loc_perm
I0213 22:13:34.521859 18604 net.cpp:150] Setting up conv8_2_mbox_loc_perm
I0213 22:13:34.521873 18604 net.cpp:157] Top shape: 13 3 3 16 (1872)
I0213 22:13:34.521879 18604 net.cpp:165] Memory required for data: 3285413280
I0213 22:13:34.521886 18604 layer_factory.hpp:77] Creating layer conv8_2_mbox_loc_flat
I0213 22:13:34.521899 18604 net.cpp:100] Creating Layer conv8_2_mbox_loc_flat
I0213 22:13:34.521908 18604 net.cpp:434] conv8_2_mbox_loc_flat <- conv8_2_mbox_loc_perm
I0213 22:13:34.521920 18604 net.cpp:408] conv8_2_mbox_loc_flat -> conv8_2_mbox_loc_flat
I0213 22:13:34.521975 18604 net.cpp:150] Setting up conv8_2_mbox_loc_flat
I0213 22:13:34.521987 18604 net.cpp:157] Top shape: 13 144 (1872)
I0213 22:13:34.521993 18604 net.cpp:165] Memory required for data: 3285420768
I0213 22:13:34.522001 18604 layer_factory.hpp:77] Creating layer conv8_2_mbox_conf
I0213 22:13:34.522017 18604 net.cpp:100] Creating Layer conv8_2_mbox_conf
I0213 22:13:34.522028 18604 net.cpp:434] conv8_2_mbox_conf <- conv8_2_conv8_2_relu_0_split_2
I0213 22:13:34.522044 18604 net.cpp:408] conv8_2_mbox_conf -> conv8_2_mbox_conf
I0213 22:13:34.525310 18604 net.cpp:150] Setting up conv8_2_mbox_conf
I0213 22:13:34.525331 18604 net.cpp:157] Top shape: 13 88 3 3 (10296)
I0213 22:13:34.525337 18604 net.cpp:165] Memory required for data: 3285461952
I0213 22:13:34.525349 18604 layer_factory.hpp:77] Creating layer conv8_2_mbox_conf_perm
I0213 22:13:34.525363 18604 net.cpp:100] Creating Layer conv8_2_mbox_conf_perm
I0213 22:13:34.525372 18604 net.cpp:434] conv8_2_mbox_conf_perm <- conv8_2_mbox_conf
I0213 22:13:34.525384 18604 net.cpp:408] conv8_2_mbox_conf_perm -> conv8_2_mbox_conf_perm
I0213 22:13:34.525562 18604 net.cpp:150] Setting up conv8_2_mbox_conf_perm
I0213 22:13:34.525574 18604 net.cpp:157] Top shape: 13 3 3 88 (10296)
I0213 22:13:34.525581 18604 net.cpp:165] Memory required for data: 3285503136
I0213 22:13:34.525588 18604 layer_factory.hpp:77] Creating layer conv8_2_mbox_conf_flat
I0213 22:13:34.525598 18604 net.cpp:100] Creating Layer conv8_2_mbox_conf_flat
I0213 22:13:34.525605 18604 net.cpp:434] conv8_2_mbox_conf_flat <- conv8_2_mbox_conf_perm
I0213 22:13:34.525619 18604 net.cpp:408] conv8_2_mbox_conf_flat -> conv8_2_mbox_conf_flat
I0213 22:13:34.525665 18604 net.cpp:150] Setting up conv8_2_mbox_conf_flat
I0213 22:13:34.525679 18604 net.cpp:157] Top shape: 13 792 (10296)
I0213 22:13:34.525686 18604 net.cpp:165] Memory required for data: 3285544320
I0213 22:13:34.525693 18604 layer_factory.hpp:77] Creating layer conv8_2_mbox_priorbox
I0213 22:13:34.525704 18604 net.cpp:100] Creating Layer conv8_2_mbox_priorbox
I0213 22:13:34.525712 18604 net.cpp:434] conv8_2_mbox_priorbox <- conv8_2_conv8_2_relu_0_split_3
I0213 22:13:34.525722 18604 net.cpp:434] conv8_2_mbox_priorbox <- data_data_0_split_5
I0213 22:13:34.525733 18604 net.cpp:408] conv8_2_mbox_priorbox -> conv8_2_mbox_priorbox
I0213 22:13:34.525787 18604 net.cpp:150] Setting up conv8_2_mbox_priorbox
I0213 22:13:34.525799 18604 net.cpp:157] Top shape: 1 2 144 (288)
I0213 22:13:34.525805 18604 net.cpp:165] Memory required for data: 3285545472
I0213 22:13:34.525812 18604 layer_factory.hpp:77] Creating layer conv9_2_mbox_loc
I0213 22:13:34.525830 18604 net.cpp:100] Creating Layer conv9_2_mbox_loc
I0213 22:13:34.525840 18604 net.cpp:434] conv9_2_mbox_loc <- conv9_2_conv9_2_relu_0_split_0
I0213 22:13:34.525853 18604 net.cpp:408] conv9_2_mbox_loc -> conv9_2_mbox_loc
I0213 22:13:34.527467 18604 net.cpp:150] Setting up conv9_2_mbox_loc
I0213 22:13:34.527487 18604 net.cpp:157] Top shape: 13 16 1 1 (208)
I0213 22:13:34.527493 18604 net.cpp:165] Memory required for data: 3285546304
I0213 22:13:34.527505 18604 layer_factory.hpp:77] Creating layer conv9_2_mbox_loc_perm
I0213 22:13:34.527536 18604 net.cpp:100] Creating Layer conv9_2_mbox_loc_perm
I0213 22:13:34.527549 18604 net.cpp:434] conv9_2_mbox_loc_perm <- conv9_2_mbox_loc
I0213 22:13:34.527565 18604 net.cpp:408] conv9_2_mbox_loc_perm -> conv9_2_mbox_loc_perm
I0213 22:13:34.527735 18604 net.cpp:150] Setting up conv9_2_mbox_loc_perm
I0213 22:13:34.527748 18604 net.cpp:157] Top shape: 13 1 1 16 (208)
I0213 22:13:34.527755 18604 net.cpp:165] Memory required for data: 3285547136
I0213 22:13:34.527762 18604 layer_factory.hpp:77] Creating layer conv9_2_mbox_loc_flat
I0213 22:13:34.527775 18604 net.cpp:100] Creating Layer conv9_2_mbox_loc_flat
I0213 22:13:34.527782 18604 net.cpp:434] conv9_2_mbox_loc_flat <- conv9_2_mbox_loc_perm
I0213 22:13:34.527796 18604 net.cpp:408] conv9_2_mbox_loc_flat -> conv9_2_mbox_loc_flat
I0213 22:13:34.527844 18604 net.cpp:150] Setting up conv9_2_mbox_loc_flat
I0213 22:13:34.527856 18604 net.cpp:157] Top shape: 13 16 (208)
I0213 22:13:34.527863 18604 net.cpp:165] Memory required for data: 3285547968
I0213 22:13:34.527868 18604 layer_factory.hpp:77] Creating layer conv9_2_mbox_conf
I0213 22:13:34.527887 18604 net.cpp:100] Creating Layer conv9_2_mbox_conf
I0213 22:13:34.527896 18604 net.cpp:434] conv9_2_mbox_conf <- conv9_2_conv9_2_relu_0_split_1
I0213 22:13:34.527909 18604 net.cpp:408] conv9_2_mbox_conf -> conv9_2_mbox_conf
I0213 22:13:34.531165 18604 net.cpp:150] Setting up conv9_2_mbox_conf
I0213 22:13:34.531188 18604 net.cpp:157] Top shape: 13 88 1 1 (1144)
I0213 22:13:34.531194 18604 net.cpp:165] Memory required for data: 3285552544
I0213 22:13:34.531206 18604 layer_factory.hpp:77] Creating layer conv9_2_mbox_conf_perm
I0213 22:13:34.531221 18604 net.cpp:100] Creating Layer conv9_2_mbox_conf_perm
I0213 22:13:34.531230 18604 net.cpp:434] conv9_2_mbox_conf_perm <- conv9_2_mbox_conf
I0213 22:13:34.531242 18604 net.cpp:408] conv9_2_mbox_conf_perm -> conv9_2_mbox_conf_perm
I0213 22:13:34.531412 18604 net.cpp:150] Setting up conv9_2_mbox_conf_perm
I0213 22:13:34.531426 18604 net.cpp:157] Top shape: 13 1 1 88 (1144)
I0213 22:13:34.531432 18604 net.cpp:165] Memory required for data: 3285557120
I0213 22:13:34.531440 18604 layer_factory.hpp:77] Creating layer conv9_2_mbox_conf_flat
I0213 22:13:34.531451 18604 net.cpp:100] Creating Layer conv9_2_mbox_conf_flat
I0213 22:13:34.531460 18604 net.cpp:434] conv9_2_mbox_conf_flat <- conv9_2_mbox_conf_perm
I0213 22:13:34.531471 18604 net.cpp:408] conv9_2_mbox_conf_flat -> conv9_2_mbox_conf_flat
I0213 22:13:34.531517 18604 net.cpp:150] Setting up conv9_2_mbox_conf_flat
I0213 22:13:34.531532 18604 net.cpp:157] Top shape: 13 88 (1144)
I0213 22:13:34.531538 18604 net.cpp:165] Memory required for data: 3285561696
I0213 22:13:34.531545 18604 layer_factory.hpp:77] Creating layer conv9_2_mbox_priorbox
I0213 22:13:34.531558 18604 net.cpp:100] Creating Layer conv9_2_mbox_priorbox
I0213 22:13:34.531565 18604 net.cpp:434] conv9_2_mbox_priorbox <- conv9_2_conv9_2_relu_0_split_2
I0213 22:13:34.531574 18604 net.cpp:434] conv9_2_mbox_priorbox <- data_data_0_split_6
I0213 22:13:34.531589 18604 net.cpp:408] conv9_2_mbox_priorbox -> conv9_2_mbox_priorbox
I0213 22:13:34.531639 18604 net.cpp:150] Setting up conv9_2_mbox_priorbox
I0213 22:13:34.531651 18604 net.cpp:157] Top shape: 1 2 16 (32)
I0213 22:13:34.531657 18604 net.cpp:165] Memory required for data: 3285561824
I0213 22:13:34.531664 18604 layer_factory.hpp:77] Creating layer mbox_loc
I0213 22:13:34.531680 18604 net.cpp:100] Creating Layer mbox_loc
I0213 22:13:34.531692 18604 net.cpp:434] mbox_loc <- conv4_3_norm_mbox_loc_flat
I0213 22:13:34.531702 18604 net.cpp:434] mbox_loc <- fc7_mbox_loc_flat
I0213 22:13:34.531714 18604 net.cpp:434] mbox_loc <- conv6_2_mbox_loc_flat
I0213 22:13:34.531725 18604 net.cpp:434] mbox_loc <- conv7_2_mbox_loc_flat
I0213 22:13:34.531733 18604 net.cpp:434] mbox_loc <- conv8_2_mbox_loc_flat
I0213 22:13:34.531741 18604 net.cpp:434] mbox_loc <- conv9_2_mbox_loc_flat
I0213 22:13:34.531754 18604 net.cpp:408] mbox_loc -> mbox_loc
I0213 22:13:34.531806 18604 net.cpp:150] Setting up mbox_loc
I0213 22:13:34.531831 18604 net.cpp:157] Top shape: 13 34928 (454064)
I0213 22:13:34.531838 18604 net.cpp:165] Memory required for data: 3287378080
I0213 22:13:34.531844 18604 layer_factory.hpp:77] Creating layer mbox_conf
I0213 22:13:34.531862 18604 net.cpp:100] Creating Layer mbox_conf
I0213 22:13:34.531872 18604 net.cpp:434] mbox_conf <- conv4_3_norm_mbox_conf_flat
I0213 22:13:34.531882 18604 net.cpp:434] mbox_conf <- fc7_mbox_conf_flat
I0213 22:13:34.531889 18604 net.cpp:434] mbox_conf <- conv6_2_mbox_conf_flat
I0213 22:13:34.531898 18604 net.cpp:434] mbox_conf <- conv7_2_mbox_conf_flat
I0213 22:13:34.531906 18604 net.cpp:434] mbox_conf <- conv8_2_mbox_conf_flat
I0213 22:13:34.531914 18604 net.cpp:434] mbox_conf <- conv9_2_mbox_conf_flat
I0213 22:13:34.531924 18604 net.cpp:408] mbox_conf -> mbox_conf
I0213 22:13:34.531973 18604 net.cpp:150] Setting up mbox_conf
I0213 22:13:34.531985 18604 net.cpp:157] Top shape: 13 192104 (2497352)
I0213 22:13:34.531992 18604 net.cpp:165] Memory required for data: 3297367488
I0213 22:13:34.531998 18604 layer_factory.hpp:77] Creating layer mbox_priorbox
I0213 22:13:34.532009 18604 net.cpp:100] Creating Layer mbox_priorbox
I0213 22:13:34.532016 18604 net.cpp:434] mbox_priorbox <- conv4_3_norm_mbox_priorbox
I0213 22:13:34.532025 18604 net.cpp:434] mbox_priorbox <- fc7_mbox_priorbox
I0213 22:13:34.532034 18604 net.cpp:434] mbox_priorbox <- conv6_2_mbox_priorbox
I0213 22:13:34.532042 18604 net.cpp:434] mbox_priorbox <- conv7_2_mbox_priorbox
I0213 22:13:34.532049 18604 net.cpp:434] mbox_priorbox <- conv8_2_mbox_priorbox
I0213 22:13:34.532058 18604 net.cpp:434] mbox_priorbox <- conv9_2_mbox_priorbox
I0213 22:13:34.532078 18604 net.cpp:408] mbox_priorbox -> mbox_priorbox
I0213 22:13:34.532126 18604 net.cpp:150] Setting up mbox_priorbox
I0213 22:13:34.532138 18604 net.cpp:157] Top shape: 1 2 34928 (69856)
I0213 22:13:34.532145 18604 net.cpp:165] Memory required for data: 3297646912
I0213 22:13:34.532150 18604 layer_factory.hpp:77] Creating layer mbox_conf_reshape
I0213 22:13:34.532172 18604 net.cpp:100] Creating Layer mbox_conf_reshape
I0213 22:13:34.532179 18604 net.cpp:434] mbox_conf_reshape <- mbox_conf
I0213 22:13:34.532196 18604 net.cpp:408] mbox_conf_reshape -> mbox_conf_reshape
I0213 22:13:34.532253 18604 net.cpp:150] Setting up mbox_conf_reshape
I0213 22:13:34.532268 18604 net.cpp:157] Top shape: 13 8732 22 (2497352)
I0213 22:13:34.532274 18604 net.cpp:165] Memory required for data: 3307636320
I0213 22:13:34.532280 18604 layer_factory.hpp:77] Creating layer mbox_conf_softmax
I0213 22:13:34.532292 18604 net.cpp:100] Creating Layer mbox_conf_softmax
I0213 22:13:34.532299 18604 net.cpp:434] mbox_conf_softmax <- mbox_conf_reshape
I0213 22:13:34.532310 18604 net.cpp:408] mbox_conf_softmax -> mbox_conf_softmax
I0213 22:13:34.532622 18604 net.cpp:150] Setting up mbox_conf_softmax
I0213 22:13:34.532637 18604 net.cpp:157] Top shape: 13 8732 22 (2497352)
I0213 22:13:34.532644 18604 net.cpp:165] Memory required for data: 3317625728
I0213 22:13:34.532651 18604 layer_factory.hpp:77] Creating layer mbox_conf_flatten
I0213 22:13:34.532663 18604 net.cpp:100] Creating Layer mbox_conf_flatten
I0213 22:13:34.532671 18604 net.cpp:434] mbox_conf_flatten <- mbox_conf_softmax
I0213 22:13:34.532682 18604 net.cpp:408] mbox_conf_flatten -> mbox_conf_flatten
I0213 22:13:34.532732 18604 net.cpp:150] Setting up mbox_conf_flatten
I0213 22:13:34.532744 18604 net.cpp:157] Top shape: 13 192104 (2497352)
I0213 22:13:34.532750 18604 net.cpp:165] Memory required for data: 3327615136
I0213 22:13:34.532757 18604 layer_factory.hpp:77] Creating layer detection_out
I0213 22:13:34.533560 18604 net.cpp:100] Creating Layer detection_out
I0213 22:13:34.533581 18604 net.cpp:434] detection_out <- mbox_loc
I0213 22:13:34.533591 18604 net.cpp:434] detection_out <- mbox_conf_flatten
I0213 22:13:34.533601 18604 net.cpp:434] detection_out <- mbox_priorbox
I0213 22:13:34.533614 18604 net.cpp:408] detection_out -> detection_out
I0213 22:13:34.619138 18604 net.cpp:150] Setting up detection_out
I0213 22:13:34.619176 18604 net.cpp:157] Top shape: 1 1 1 7 (7)
I0213 22:13:34.619206 18604 net.cpp:165] Memory required for data: 3327615164
I0213 22:13:34.619215 18604 layer_factory.hpp:77] Creating layer detection_eval
I0213 22:13:34.619240 18604 net.cpp:100] Creating Layer detection_eval
I0213 22:13:34.619253 18604 net.cpp:434] detection_eval <- detection_out
I0213 22:13:34.619264 18604 net.cpp:434] detection_eval <- label
I0213 22:13:34.619274 18604 net.cpp:408] detection_eval -> detection_eval
I0213 22:13:34.621625 18604 net.cpp:150] Setting up detection_eval
I0213 22:13:34.621645 18604 net.cpp:157] Top shape: 1 1 22 5 (110)
I0213 22:13:34.621652 18604 net.cpp:165] Memory required for data: 3327615604
I0213 22:13:34.621659 18604 net.cpp:228] detection_eval does not need backward computation.
I0213 22:13:34.621666 18604 net.cpp:228] detection_out does not need backward computation.
I0213 22:13:34.621673 18604 net.cpp:228] mbox_conf_flatten does not need backward computation.
I0213 22:13:34.621680 18604 net.cpp:228] mbox_conf_softmax does not need backward computation.
…
