…
      sampler {
        min_scale: 0.3
        max_scale: 1
        min_aspect_ratio: 0.5
        max_aspect_ratio: 2
      }
      sample_constraint {
        min_jaccard_overlap: 0.9
      }
      max_sample: 1
      max_trials: 50
    }
    batch_sampler {
      sampler {
        min_scale: 0.3
        max_scale: 1
        min_aspect_ratio: 0.5
        max_aspect_ratio: 2
      }
      sample_constraint {
        max_jaccard_overlap: 1
      }
      max_sample: 1
      max_trials: 50
    }
    label_map_file: "data/VOC0712/labelmap_voc.prototxt"
  }
}
layer {
  name: "conv1_1_rgbd"
  type: "Convolution"
  bottom: "data"
  top: "conv1_1_rgbd"
  param {
    lr_mult: 1
    decay_mult: 1
  }
  param {
    lr_mult: 2
    decay_mult: 0
  }
  convolution_param {
    num_output: 64
    pad: 1
    kernel_size: 3
    weight_filler {
      type: "xavier"
    }
    bias_filler {
      type: "constant"
      value: 0
    }
  }
}
layer {
  name: "relu1_1"
  type: "ReLU"
  bottom: "conv1_1_rgbd"
  top: "conv1_1_rgbd"
}
layer {
  name: "conv1_2"
  type: "Convolution"
  bottom: "conv1_1_rgbd"
  top: "conv1_2"
  param {
    lr_mult: 1
    decay_mult: 1
  }
  param {
    lr_mult: 2
    decay_mult: 0
  }
  convolution_param {
    num_output: 64
    pad: 1
    kernel_size: 3
    weight_filler {
      type: "xavier"
    }
    bias_filler {
      type: "constant"
      value: 0
    }
  }
}
layer {
  name: "relu1_2"
  type: "ReLU"
  bottom: "conv1_2"
  top: "conv1_2"
}
layer {
  name: "pool1"
  type: "Pooling"
  bottom: "conv1_2"
  top: "pool1"
  pooling_param {
    pool: MAX
    kernel_size: 2
    stride: 2
  }
}
layer {
  name: "conv2_1"
  type: "Convolution"
  bottom: "pool1"
  top: "conv2_1"
  param {
    lr_mult: 1
    decay_mult: 1
  }
  param {
    lr_mult: 2
    decay_mult: 0
  }
  convolution_param {
    num_output: 128
    pad: 1
    kernel_size: 3
    weight_filler {
      type: "xavier"
    }
    bias_filler {
      type: "constant"
      value: 0
    }
  }
}
layer {
  name: "relu2_1"
  type: "ReLU"
  bottom: "conv2_1"
  top: "conv2_1"
}
layer {
  name: "conv2_2"
  type: "Convolution"
  bottom: "conv2_1"
  top: "conv2_2"
  param {
    lr_mult: 1
    decay_mult: 1
  }
  param {
    lr_mult: 2
    decay_mult: 0
  }
  convolution_param {
    num_output: 128
    pad: 1
    kernel_size: 3
    weight_filler {
      type: "xavier"
    }
    bias_filler {
      type: "constant"
      value: 0
    }
  }
}
layer {
  name: "relu2_2"
  type: "ReLU"
  bottom: "conv2_2"
  top: "conv2_2"
}
layer {
  name: "pool2"
  type: "Pooling"
  bottom: "conv2_2"
  top: "pool2"
  pooling_param {
    pool: MAX
    kernel_size: 2
    stride: 2
  }
}
layer {
  name: "conv3_1"
  type: "Convolution"
  bottom: "pool2"
  top: "conv3_1"
  param {
    lr_mult: 1
    decay_mult: 1
  }
  param {
    lr_mult: 2
    decay_mult: 0
  }
  convolution_param {
    num_output: 256
    pad: 1
    kernel_size: 3
    weight_filler {
      type: "xavier"
    }
    bias_filler {
      type: "constant"
      value: 0
    }
  }
}
layer {
  name: "relu3_1"
  type: "ReLU"
  bottom: "conv3_1"
  top: "conv3_1"
}
layer {
  name: "conv3_2"
  type: "Convolution"
  bottom: "conv3_1"
  top: "conv3_2"
  param {
    lr_mult: 1
    decay_mult: 1
  }
  param {
    lr_mult: 2
    decay_mult: 0
  }
  convolution_param {
    num_output: 256
    pad: 1
    kernel_size: 3
    weight_filler {
      type: "xavier"
    }
    bias_filler {
      type: "constant"
      value: 0
    }
  }
}
layer {
  name: "relu3_2"
  type: "ReLU"
  bottom: "conv3_2"
  top: "conv3_2"
}
layer {
  name: "conv3_3"
  type: "Convolution"
  bottom: "conv3_2"
  top: "conv3_3"
  param {
    lr_mult: 1
    decay_mult: 1
  }
  param {
    lr_mult: 2
    decay_mult: 0
  }
  convolution_param {
    num_output: 256
    pad: 1
    kernel_size: 3
    weight_filler {
      type: "xavier"
    }
    bias_filler {
      type: "constant"
      value: 0
    }
  }
}
layer {
  name: "relu3_3"
  type: "ReLU"
  bottom: "conv3_3"
  top: "conv3_3"
}
layer {
  name: "pool3"
  type: "Pooling"
  bottom: "conv3_3"
  top: "pool3"
  pooling_param {
    pool: MAX
    kernel_size: 2
    stride: 2
  }
}
layer {
  name: "conv4_1"
  type: "Convolution"
  bottom: "pool3"
  top: "conv4_1"
  param {
    lr_mult: 1
    decay_mult: 1
  }
  param {
    lr_mult: 2
    decay_mult: 0
  }
  convolution_param {
    num_output: 512
    pad: 1
    kernel_size: 3
    weight_filler {
      type: "xavier"
    }
    bias_filler {
      type: "constant"
      value: 0
    }
  }
}
layer {
  name: "relu4_1"
  type: "ReLU"
  bottom: "conv4_1"
  top: "conv4_1"
}
layer {
  name: "conv4_2"
  type: "Convolution"
  bottom: "conv4_1"
  top: "conv4_2"
  param {
    lr_mult: 1
    decay_mult: 1
  }
  param {
    lr_mult: 2
    decay_mult: 0
  }
  convolution_param {
    num_output: 512
    pad: 1
    kernel_size: 3
    weight_filler {
      type: "xavier"
    }
    bias_filler {
      type: "constant"
      value: 0
    }
  }
}
layer {
  name: "relu4_2"
  type: "ReLU"
  bottom: "conv4_2"
  top: "conv4_2"
}
layer {
  name: "conv4_3"
  type: "Convolution"
  bottom: "conv4_2"
  top: "conv4_3"
  param {
    lr_mult: 1
    decay_mult: 1
  }
  param {
    lr_mult: 2
    decay_mult: 0
  }
  convolution_param {
    num_output: 512
    pad: 1
    kernel_size: 3
    weight_filler {
      type: "xavier"
    }
    bias_filler {
      type: "constant"
      value: 0
    }
  }
}
layer {
  name: "relu4_3"
  type: "ReLU"
  bottom: "conv4_3"
  top: "conv4_3"
}
layer {
  name: "pool4"
  type: "Pooling"
  bottom: "conv4_3"
  top: "pool4"
  pooling_param {
    pool: MAX
    kernel_size: 2
    stride: 2
  }
}
layer {
  name: "conv5_1"
  type: "Convolution"
  bottom: "pool4"
  top: "conv5_1"
  param {
    lr_mult: 1
    decay_mult: 1
  }
  param {
    lr_mult: 2
    decay_mult: 0
  }
  convolution_param {
    num_output: 512
    pad: 1
    kernel_size: 3
    weight_filler {
      type: "xavier"
    }
    bias_filler {
      type: "constant"
      value: 0
    }
    dilation: 1
  }
}
layer {
  name: "relu5_1"
  type: "ReLU"
  bottom: "conv5_1"
  top: "conv5_1"
}
layer {
  name: "conv5_2"
  type: "Convolution"
  bottom: "conv5_1"
  top: "conv5_2"
  param {
    lr_mult: 1
    decay_mult: 1
  }
  param {
    lr_mult: 2
    decay_mult: 0
  }
  convolution_param {
    num_output: 512
    pad: 1
    kernel_size: 3
    weight_filler {
      type: "xavier"
    }
    bias_filler {
      type: "constant"
      value: 0
    }
    dilation: 1
  }
}
layer {
  name: "relu5_2"
  type: "ReLU"
  bottom: "conv5_2"
  top: "conv5_2"
}
layer {
  name: "conv5_3"
  type: "Convolution"
  bottom: "conv5_2"
  top: "conv5_3"
  param {
    lr_mult: 1
    decay_mult: 1
  }
  param {
    lr_mult: 2
    decay_mult: 0
  }
  convolution_param {
    num_output: 512
    pad: 1
    kernel_size: 3
    weight_filler {
      type: "xavier"
    }
    bias_filler {
      type: "constant"
      value: 0
    }
    dilation: 1
  }
}
layer {
  name: "relu5_3"
  type: "ReLU"
  bottom: "conv5_3"
  top: "conv5_3"
}
layer {
  name: "pool5"
  type: "Pooling"
  bottom: "conv5_3"
  top: "pool5"
  pooling_param {
    pool: MAX
    kernel_size: 3
    stride: 1
    pad: 1
  }
}
layer {
  name: "fc6"
  type: "Convolution"
  bottom: "pool5"
  top: "fc6"
  param {
    lr_mult: 1
    decay_mult: 1
  }
  param {
    lr_mult: 2
    decay_mult: 0
  }
  convolution_param {
    num_output: 1024
    pad: 6
    kernel_size: 3
    weight_filler {
      type: "xavier"
    }
    bias_filler {
      type: "constant"
      value: 0
    }
    dilation: 6
  }
}
layer {
  name: "relu6"
  type: "ReLU"
  bottom: "fc6"
  top: "fc6"
}
layer {
  name: "fc7"
  type: "Convolution"
  bottom: "fc6"
  top: "fc7"
  param {
    lr_mult: 1
    decay_mult: 1
  }
  param {
    lr_mult: 2
    decay_mult: 0
  }
  convolution_param {
    num_output: 1024
    kernel_size: 1
    weight_filler {
      type: "xavier"
    }
    bias_filler {
      type: "constant"
      value: 0
    }
  }
}
layer {
  name: "relu7"
  type: "ReLU"
  bottom: "fc7"
  top: "fc7"
}
layer {
  name: "conv6_1"
  type: "Convolution"
  bottom: "fc7"
  top: "conv6_1"
  param {
    lr_mult: 1
    decay_mult: 1
  }
  param {
    lr_mult: 2
    decay_mult: 0
  }
  convolution_param {
    num_output: 256
    pad: 0
    kernel_size: 1
    stride: 1
    weight_filler {
      type: "xavier"
    }
    bias_filler {
      type: "constant"
      value: 0
    }
  }
}
layer {
  name: "conv6_1_relu"
  type: "ReLU"
  bottom: "conv6_1"
  top: "conv6_1"
}
layer {
  name: "conv6_2"
  type: "Convolution"
  bottom: "conv6_1"
  top: "conv6_2"
  param {
    lr_mult: 1
    decay_mult: 1
  }
  param {
    lr_mult: 2
    decay_mult: 0
  }
  convolution_param {
    num_output: 512
    pad: 1
    kernel_size: 3
    stride: 2
    weight_filler {
      type: "xavier"
    }
    bias_filler {
      type: "constant"
      value: 0
    }
  }
}
layer {
  name: "conv6_2_relu"
  type: "ReLU"
  bottom: "conv6_2"
  top: "conv6_2"
}
layer {
  name: "conv7_1"
  type: "Convolution"
  bottom: "conv6_2"
  top: "conv7_1"
  param {
    lr_mult: 1
    decay_mult: 1
  }
  param {
    lr_mult: 2
    decay_mult: 0
  }
  convolution_param {
    num_output: 128
    pad: 0
    kernel_size: 1
    stride: 1
    weight_filler {
      type: "xavier"
    }
    bias_filler {
      type: "constant"
      value: 0
    }
  }
}
layer {
  name: "conv7_1_relu"
  type: "ReLU"
  bottom: "conv7_1"
  top: "conv7_1"
}
layer {
  name: "conv7_2"
  type: "Convolution"
  bottom: "conv7_1"
  top: "conv7_2"
  param {
    lr_mult: 1
    decay_mult: 1
  }
  param {
    lr_mult: 2
    decay_mult: 0
  }
  convolution_param {
    num_output: 256
    pad: 1
    kernel_size: 3
    stride: 2
    weight_filler {
      type: "xavier"
    }
    bias_filler {
      type: "constant"
      value: 0
    }
  }
}
layer {
  name: "conv7_2_relu"
  type: "ReLU"
  bottom: "conv7_2"
  top: "conv7_2"
}
layer {
  name: "conv8_1"
  type: "Convolution"
  bottom: "conv7_2"
  top: "conv8_1"
  param {
    lr_mult: 1
    decay_mult: 1
  }
  param {
    lr_mult: 2
    decay_mult: 0
  }
  convolution_param {
    num_output: 128
    pad: 0
    kernel_size: 1
    stride: 1
    weight_filler {
      type: "xavier"
    }
    bias_filler {
      type: "constant"
      value: 0
    }
  }
}
layer {
  name: "conv8_1_relu"
  type: "ReLU"
  bottom: "conv8_1"
  top: "conv8_1"
}
layer {
  name: "conv8_2"
  type: "Convolution"
  bottom: "conv8_1"
  top: "conv8_2"
  param {
    lr_mult: 1
    decay_mult: 1
  }
  param {
    lr_mult: 2
    decay_mult: 0
  }
  convolution_param {
    num_output: 256
    pad: 0
    kernel_size: 3
    stride: 1
    weight_filler {
      type: "xavier"
    }
    bias_filler {
      type: "constant"
      value: 0
    }
  }
}
layer {
  name: "conv8_2_relu"
  type: "ReLU"
  bottom: "conv8_2"
  top: "conv8_2"
}
layer {
  name: "conv9_1"
  type: "Convolution"
  bottom: "conv8_2"
  top: "conv9_1"
  param {
    lr_mult: 1
    decay_mult: 1
  }
  param {
    lr_mult: 2
    decay_mult: 0
  }
  convolution_param {
    num_output: 128
    pad: 0
    kernel_size: 1
    stride: 1
    weight_filler {
      type: "xavier"
    }
    bias_filler {
      type: "constant"
      value: 0
    }
  }
}
layer {
  name: "conv9_1_relu"
  type: "ReLU"
  bottom: "conv9_1"
  top: "conv9_1"
}
layer {
  name: "conv9_2"
  type: "Convolution"
  bottom: "conv9_1"
  top: "conv9_2"
  param {
    lr_mult: 1
    decay_mult: 1
  }
  param {
    lr_mult: 2
    decay_mult: 0
  }
  convolution_param {
    num_output: 256
    pad: 0
    kernel_size: 3
    stride: 1
    weight_filler {
      type: "xavier"
    }
    bias_filler {
      type: "constant"
      value: 0
    }
  }
}
layer {
  name: "conv9_2_relu"
  type: "ReLU"
  bottom: "conv9_2"
  top: "conv9_2"
}
layer {
  name: "conv4_3_norm"
  type: "Normalize"
  bottom: "conv4_3"
  top: "conv4_3_norm"
  norm_param {
    across_spatial: false
    scale_filler {
      type: "constant"
      value: 20
    }
    channel_shared: false
  }
}
layer {
  name: "conv4_3_norm_mbox_loc"
  type: "Convolution"
  bottom: "conv4_3_norm"
  top: "conv4_3_norm_mbox_loc"
  param {
    lr_mult: 1
    decay_mult: 1
  }
  param {
    lr_mult: 2
    decay_mult: 0
  }
  convolution_param {
    num_output: 16
    pad: 1
    kernel_size: 3
    stride: 1
    weight_filler {
      type: "xavier"
    }
    bias_filler {
      type: "constant"
      value: 0
    }
  }
}
layer {
  name: "conv4_3_norm_mbox_loc_perm"
  type: "Permute"
  bottom: "conv4_3_norm_mbox_loc"
  top: "conv4_3_norm_mbox_loc_perm"
  permute_param {
    order: 0
    order: 2
    order: 3
    order: 1
  }
}
layer {
  name: "conv4_3_norm_mbox_loc_flat"
  type: "Flatten"
  bottom: "conv4_3_norm_mbox_loc_perm"
  top: "conv4_3_norm_mbox_loc_flat"
  flatten_param {
    axis: 1
  }
}
layer {
  name: "conv4_3_norm_mbox_conf"
  type: "Convolution"
  bottom: "conv4_3_norm"
  top: "conv4_3_norm_mbox_conf"
  param {
    lr_mult: 1
    decay_mult: 1
  }
  param {
    lr_mult: 2
    decay_mult: 0
  }
  convolution_param {
    num_output: 88
    pad: 1
    kernel_size: 3
    stride: 1
    weight_filler {
      type: "xavier"
    }
    bias_filler {
      type: "constant"
      value: 0
    }
  }
}
layer {
  name: "conv4_3_norm_mbox_conf_perm"
  type: "Permute"
  bottom: "conv4_3_norm_mbox_conf"
  top: "conv4_3_norm_mbox_conf_perm"
  permute_param {
    order: 0
    order: 2
    order: 3
    order: 1
  }
}
layer {
  name: "conv4_3_norm_mbox_conf_flat"
  type: "Flatten"
  bottom: "conv4_3_norm_mbox_conf_perm"
  top: "conv4_3_norm_mbox_conf_flat"
  flatten_param {
    axis: 1
  }
}
layer {
  name: "conv4_3_norm_mbox_priorbox"
  type: "PriorBox"
  bottom: "conv4_3_norm"
  bottom: "data"
  top: "conv4_3_norm_mbox_priorbox"
  prior_box_param {
    min_size: 30
    max_size: 60
    aspect_ratio: 2
    flip: true
    clip: false
    variance: 0.1
    variance: 0.1
    variance: 0.2
    variance: 0.2
    step: 8
    offset: 0.5
  }
}
layer {
  name: "fc7_mbox_loc"
  type: "Convolution"
  bottom: "fc7"
  top: "fc7_mbox_loc"
  param {
    lr_mult: 1
    decay_mult: 1
  }
  param {
    lr_mult: 2
    decay_mult: 0
  }
  convolution_param {
    num_output: 24
    pad: 1
    kernel_size: 3
    stride: 1
    weight_filler {
      type: "xavier"
    }
    bias_filler {
      type: "constant"
      value: 0
    }
  }
}
layer {
  name: "fc7_mbox_loc_perm"
  type: "Permute"
  bottom: "fc7_mbox_loc"
  top: "fc7_mbox_loc_perm"
  permute_param {
    order: 0
    order: 2
    order: 3
    order: 1
  }
}
layer {
  name: "fc7_mbox_loc_flat"
  type: "Flatten"
  bottom: "fc7_mbox_loc_perm"
  top: "fc7_mbox_loc_flat"
  flatten_param {
    axis: 1
  }
}
layer {
  name: "fc7_mbox_conf"
  type: "Convolution"
  bottom: "fc7"
  top: "fc7_mbox_conf"
  param {
    lr_mult: 1
    decay_mult: 1
  }
  param {
    lr_mult: 2
    decay_mult: 0
  }
  convolution_param {
    num_output: 132
    pad: 1
    kernel_size: 3
    stride: 1
    weight_filler {
      type: "xavier"
    }
    bias_filler {
      type: "constant"
      value: 0
    }
  }
}
layer {
  name: "fc7_mbox_conf_perm"
  type: "Permute"
  bottom: "fc7_mbox_conf"
  top: "fc7_mbox_conf_perm"
  permute_param {
    order: 0
    order: 2
    order: 3
    order: 1
  }
}
layer {
  name: "fc7_mbox_conf_flat"
  type: "Flatten"
  bottom: "fc7_mbox_conf_perm"
  top: "fc7_mbox_conf_flat"
  flatten_param {
    axis: 1
  }
}
layer {
  name: "fc7_mbox_priorbox"
  type: "PriorBox"
  bottom: "fc7"
  bottom: "data"
  top: "fc7_mbox_priorbox"
  prior_box_param {
    min_size: 60
    max_size: 111
    aspect_ratio: 2
    aspect_ratio: 3
    flip: true
    clip: false
    variance: 0.1
    variance: 0.1
    variance: 0.2
    variance: 0.2
    step: 16
    offset: 0.5
  }
}
layer {
  name: "conv6_2_mbox_loc"
  type: "Convolution"
  bottom: "conv6_2"
  top: "conv6_2_mbox_loc"
  param {
    lr_mult: 1
    decay_mult: 1
  }
  param {
    lr_mult: 2
    decay_mult: 0
  }
  convolution_param {
    num_output: 24
    pad: 1
    kernel_size: 3
    stride: 1
    weight_filler {
      type: "xavier"
    }
    bias_filler {
      type: "constant"
      value: 0
    }
  }
}
layer {
  name: "conv6_2_mbox_loc_perm"
  type: "Permute"
  bottom: "conv6_2_mbox_loc"
  top: "conv6_2_mbox_loc_perm"
  permute_param {
    order: 0
    order: 2
    order: 3
    order: 1
  }
}
layer {
  name: "conv6_2_mbox_loc_flat"
  type: "Flatten"
  bottom: "conv6_2_mbox_loc_perm"
  top: "conv6_2_mbox_loc_flat"
  flatten_param {
    axis: 1
  }
}
layer {
  name: "conv6_2_mbox_conf"
  type: "Convolution"
  bottom: "conv6_2"
  top: "conv6_2_mbox_conf"
  param {
    lr_mult: 1
    decay_mult: 1
  }
  param {
    lr_mult: 2
    decay_mult: 0
  }
  convolution_param {
    num_output: 132
    pad: 1
    kernel_size: 3
    stride: 1
    weight_filler {
      type: "xavier"
    }
    bias_filler {
      type: "constant"
      value: 0
    }
  }
}
layer {
  name: "conv6_2_mbox_conf_perm"
  type: "Permute"
  bottom: "conv6_2_mbox_conf"
  top: "conv6_2_mbox_conf_perm"
  permute_param {
    order: 0
    order: 2
    order: 3
    order: 1
  }
}
layer {
  name: "conv6_2_mbox_conf_flat"
  type: "Flatten"
  bottom: "conv6_2_mbox_conf_perm"
  top: "conv6_2_mbox_conf_flat"
  flatten_param {
    axis: 1
  }
}
layer {
  name: "conv6_2_mbox_priorbox"
  type: "PriorBox"
  bottom: "conv6_2"
  bottom: "data"
  top: "conv6_2_mbox_priorbox"
  prior_box_param {
    min_size: 111
    max_size: 162
    aspect_ratio: 2
    aspect_ratio: 3
    flip: true
    clip: false
    variance: 0.1
    variance: 0.1
    variance: 0.2
    variance: 0.2
    step: 32
    offset: 0.5
  }
}
layer {
  name: "conv7_2_mbox_loc"
  type: "Convolution"
  bottom: "conv7_2"
  top: "conv7_2_mbox_loc"
  param {
    lr_mult: 1
    decay_mult: 1
  }
  param {
    lr_mult: 2
    decay_mult: 0
  }
  convolution_param {
    num_output: 24
    pad: 1
    kernel_size: 3
    stride: 1
    weight_filler {
      type: "xavier"
    }
    bias_filler {
      type: "constant"
      value: 0
    }
  }
}
layer {
  name: "conv7_2_mbox_loc_perm"
  type: "Permute"
  bottom: "conv7_2_mbox_loc"
  top: "conv7_2_mbox_loc_perm"
  permute_param {
    order: 0
    order: 2
    order: 3
    order: 1
  }
}
layer {
  name: "conv7_2_mbox_loc_flat"
  type: "Flatten"
  bottom: "conv7_2_mbox_loc_perm"
  top: "conv7_2_mbox_loc_flat"
  flatten_param {
    axis: 1
  }
}
layer {
  name: "conv7_2_mbox_conf"
  type: "Convolution"
  bottom: "conv7_2"
  top: "conv7_2_mbox_conf"
  param {
    lr_mult: 1
    decay_mult: 1
  }
  param {
    lr_mult: 2
    decay_mult: 0
  }
  convolution_param {
    num_output: 132
    pad: 1
    kernel_size: 3
    stride: 1
    weight_filler {
      type: "xavier"
    }
    bias_filler {
      type: "constant"
      value: 0
    }
  }
}
layer {
  name: "conv7_2_mbox_conf_perm"
  type: "Permute"
  bottom: "conv7_2_mbox_conf"
  top: "conv7_2_mbox_conf_perm"
  permute_param {
    order: 0
    order: 2
    order: 3
    order: 1
  }
}
layer {
  name: "conv7_2_mbox_conf_flat"
  type: "Flatten"
  bottom: "conv7_2_mbox_conf_perm"
  top: "conv7_2_mbox_conf_flat"
  flatten_param {
    axis: 1
  }
}
layer {
  name: "conv7_2_mbox_priorbox"
  type: "PriorBox"
  bottom: "conv7_2"
  bottom: "data"
  top: "conv7_2_mbox_priorbox"
  prior_box_param {
    min_size: 162
    max_size: 213
    aspect_ratio: 2
    aspect_ratio: 3
    flip: true
    clip: false
    variance: 0.1
    variance: 0.1
    variance: 0.2
    variance: 0.2
    step: 64
    offset: 0.5
  }
}
layer {
  name: "conv8_2_mbox_loc"
  type: "Convolution"
  bottom: "conv8_2"
  top: "conv8_2_mbox_loc"
  param {
    lr_mult: 1
    decay_mult: 1
  }
  param {
    lr_mult: 2
    decay_mult: 0
  }
  convolution_param {
    num_output: 16
    pad: 1
    kernel_size: 3
    stride: 1
    weight_filler {
      type: "xavier"
    }
    bias_filler {
      type: "constant"
      value: 0
    }
  }
}
layer {
  name: "conv8_2_mbox_loc_perm"
  type: "Permute"
  bottom: "conv8_2_mbox_loc"
  top: "conv8_2_mbox_loc_perm"
  permute_param {
    order: 0
    order: 2
    order: 3
    order: 1
  }
}
layer {
  name: "conv8_2_mbox_loc_flat"
  type: "Flatten"
  bottom: "conv8_2_mbox_loc_perm"
  top: "conv8_2_mbox_loc_flat"
  flatten_param {
    axis: 1
  }
}
layer {
  name: "conv8_2_mbox_conf"
  type: "Convolution"
  bottom: "conv8_2"
  top: "conv8_2_mbox_conf"
  param {
    lr_mult: 1
    decay_mult: 1
  }
  param {
    lr_mult: 2
    decay_mult: 0
  }
  convolution_param {
    num_output: 88
    pad: 1
    kernel_size: 3
    stride: 1
    weight_filler {
      type: "xavier"
    }
    bias_filler {
      type: "constant"
      value: 0
    }
  }
}
layer {
  name: "conv8_2_mbox_conf_perm"
  type: "Permute"
  bottom: "conv8_2_mbox_conf"
  top: "conv8_2_mbox_conf_perm"
  permute_param {
    order: 0
    order: 2
    order: 3
    order: 1
  }
}
layer {
  name: "conv8_2_mbox_conf_flat"
  type: "Flatten"
  bottom: "conv8_2_mbox_conf_perm"
  top: "conv8_2_mbox_conf_flat"
  flatten_param {
    axis: 1
  }
}
layer {
  name: "conv8_2_mbox_priorbox"
  type: "PriorBox"
  bottom: "conv8_2"
  bottom: "data"
  top: "conv8_2_mbox_priorbox"
  prior_box_param {
    min_size: 213
    max_size: 264
    aspect_ratio: 2
    flip: true
    clip: false
    variance: 0.1
    variance: 0.1
    variance: 0.2
    variance: 0.2
    step: 100
    offset: 0.5
  }
}
layer {
  name: "conv9_2_mbox_loc"
  type: "Convolution"
  bottom: "conv9_2"
  top: "conv9_2_mbox_loc"
  param {
    lr_mult: 1
    decay_mult: 1
  }
  param {
    lr_mult: 2
    decay_mult: 0
  }
  convolution_param {
    num_output: 16
    pad: 1
    kernel_size: 3
    stride: 1
    weight_filler {
      type: "xavier"
    }
    bias_filler {
      type: "constant"
      value: 0
    }
  }
}
layer {
  name: "conv9_2_mbox_loc_perm"
  type: "Permute"
  bottom: "conv9_2_mbox_loc"
  top: "conv9_2_mbox_loc_perm"
  permute_param {
    order: 0
    order: 2
    order: 3
    order: 1
  }
}
layer {
  name: "conv9_2_mbox_loc_flat"
  type: "Flatten"
  bottom: "conv9_2_mbox_loc_perm"
  top: "conv9_2_mbox_loc_flat"
  flatten_param {
    axis: 1
  }
}
layer {
  name: "conv9_2_mbox_conf"
  type: "Convolution"
  bottom: "conv9_2"
  top: "conv9_2_mbox_conf"
  param {
    lr_mult: 1
    decay_mult: 1
  }
  param {
    lr_mult: 2
    decay_mult: 0
  }
  convolution_param {
    num_output: 88
    pad: 1
    kernel_size: 3
    stride: 1
    weight_filler {
      type: "xavier"
    }
    bias_filler {
      type: "constant"
      value: 0
    }
  }
}
layer {
  name: "conv9_2_mbox_conf_perm"
  type: "Permute"
  bottom: "conv9_2_mbox_conf"
  top: "conv9_2_mbox_conf_perm"
  permute_param {
    order: 0
    order: 2
    order: 3
    order: 1
  }
}
layer {
  name: "conv9_2_mbox_conf_flat"
  type: "Flatten"
  bottom: "conv9_2_mbox_conf_perm"
  top: "conv9_2_mbox_conf_flat"
  flatten_param {
    axis: 1
  }
}
layer {
  name: "conv9_2_mbox_priorbox"
  type: "PriorBox"
  bottom: "conv9_2"
  bottom: "data"
  top: "conv9_2_mbox_priorbox"
  prior_box_param {
    min_size: 264
    max_size: 315
    aspect_ratio: 2
    flip: true
    clip: false
    variance: 0.1
    variance: 0.1
    variance: 0.2
    variance: 0.2
    step: 300
    offset: 0.5
  }
}
layer {
  name: "mbox_loc"
  type: "Concat"
  bottom: "conv4_3_norm_mbox_loc_flat"
  bottom: "fc7_mbox_loc_flat"
  bottom: "conv6_2_mbox_loc_flat"
  bottom: "conv7_2_mbox_loc_flat"
  bottom: "conv8_2_mbox_loc_flat"
  bottom: "conv9_2_mbox_loc_flat"
  top: "mbox_loc"
  concat_param {
    axis: 1
  }
}
layer {
  name: "mbox_conf"
  type: "Concat"
  bottom: "conv4_3_norm_mbox_conf_flat"
  bottom: "fc7_mbox_conf_flat"
  bottom: "conv6_2_mbox_conf_flat"
  bottom: "conv7_2_mbox_conf_flat"
  bottom: "conv8_2_mbox_conf_flat"
  bottom: "conv9_2_mbox_conf_flat"
  top: "mbox_conf"
  concat_param {
    axis: 1
  }
}
layer {
  name: "mbox_priorbox"
  type: "Concat"
  bottom: "conv4_3_norm_mbox_priorbox"
  bottom: "fc7_mbox_priorbox"
  bottom: "conv6_2_mbox_priorbox"
  bottom: "conv7_2_mbox_priorbox"
  bottom: "conv8_2_mbox_priorbox"
  bottom: "conv9_2_mbox_priorbox"
  top: "mbox_priorbox"
  concat_param {
    axis: 2
  }
}
layer {
  name: "mbox_loss"
  type: "MultiBoxLoss"
  bottom: "mbox_loc"
  bottom: "mbox_conf"
  bottom: "mbox_priorbox"
  bottom: "label"
  top: "mbox_loss"
  include {
    phase: TRAIN
  }
  propagate_down: true
  propagate_down: true
  propagate_down: false
  propagate_down: false
  loss_param {
    normalization: VALID
  }
  multibox_loss_param {
    loc_loss_type: SMOOTH_L1
    conf_loss_type: SOFTMAX
    loc_weight: 1
    num_classes: 22
    share_location: true
    match_type: PER_PREDICTION
    overlap_threshold: 0.5
    use_prior_for_matching: true
    background_label_id: 0
    use_difficult_gt: true
    neg_pos_ratio: 3
    neg_overlap: 0.5
    code_type: CENTER_SIZE
    ignore_cross_boundary_bbox: false
    mining_type: MAX_NEGATIVE
  }
}
I0209 22:43:51.600986  6526 layer_factory.hpp:77] Creating layer data
I0209 22:43:51.601784  6526 net.cpp:100] Creating Layer data
I0209 22:43:51.601843  6526 net.cpp:408] data -> data
I0209 22:43:51.601902  6526 net.cpp:408] data -> label
I0209 22:43:51.603042  6545 db_lmdb.cpp:35] Opened lmdb examples/VOC0712/VOC0712_trainval_lmdb
I0209 22:43:51.638038  6526 annotated_data_layer.cpp:62] output data size: 40,4,300,300
I0209 22:43:51.742213  6526 net.cpp:150] Setting up data
I0209 22:43:51.742282  6526 net.cpp:157] Top shape: 40 4 300 300 (14400000)
I0209 22:43:51.742293  6526 net.cpp:157] Top shape: 1 1 2 8 (16)
I0209 22:43:51.742298  6526 net.cpp:165] Memory required for data: 57600064
I0209 22:43:51.742311  6526 layer_factory.hpp:77] Creating layer data_data_0_split
I0209 22:43:51.742331  6526 net.cpp:100] Creating Layer data_data_0_split
I0209 22:43:51.742341  6526 net.cpp:434] data_data_0_split <- data
I0209 22:43:51.742367  6526 net.cpp:408] data_data_0_split -> data_data_0_split_0
I0209 22:43:51.742384  6526 net.cpp:408] data_data_0_split -> data_data_0_split_1
I0209 22:43:51.742394  6526 net.cpp:408] data_data_0_split -> data_data_0_split_2
I0209 22:43:51.742403  6526 net.cpp:408] data_data_0_split -> data_data_0_split_3
I0209 22:43:51.742410  6526 net.cpp:408] data_data_0_split -> data_data_0_split_4
I0209 22:43:51.742421  6526 net.cpp:408] data_data_0_split -> data_data_0_split_5
I0209 22:43:51.742429  6526 net.cpp:408] data_data_0_split -> data_data_0_split_6
I0209 22:43:51.742558  6526 net.cpp:150] Setting up data_data_0_split
I0209 22:43:51.742570  6526 net.cpp:157] Top shape: 40 4 300 300 (14400000)
I0209 22:43:51.742576  6526 net.cpp:157] Top shape: 40 4 300 300 (14400000)
I0209 22:43:51.742581  6526 net.cpp:157] Top shape: 40 4 300 300 (14400000)
I0209 22:43:51.742586  6526 net.cpp:157] Top shape: 40 4 300 300 (14400000)
I0209 22:43:51.742591  6526 net.cpp:157] Top shape: 40 4 300 300 (14400000)
I0209 22:43:51.742596  6526 net.cpp:157] Top shape: 40 4 300 300 (14400000)
I0209 22:43:51.742602  6526 net.cpp:157] Top shape: 40 4 300 300 (14400000)
I0209 22:43:51.742606  6526 net.cpp:165] Memory required for data: 460800064
I0209 22:43:51.742610  6526 layer_factory.hpp:77] Creating layer conv1_1_rgbd
I0209 22:43:51.742631  6526 net.cpp:100] Creating Layer conv1_1_rgbd
I0209 22:43:51.742637  6526 net.cpp:434] conv1_1_rgbd <- data_data_0_split_0
I0209 22:43:51.742646  6526 net.cpp:408] conv1_1_rgbd -> conv1_1_rgbd
I0209 22:43:51.915196  6526 net.cpp:150] Setting up conv1_1_rgbd
I0209 22:43:51.915231  6526 net.cpp:157] Top shape: 40 64 300 300 (230400000)
I0209 22:43:51.915236  6526 net.cpp:165] Memory required for data: 1382400064
I0209 22:43:51.915256  6526 layer_factory.hpp:77] Creating layer relu1_1
I0209 22:43:51.915269  6526 net.cpp:100] Creating Layer relu1_1
I0209 22:43:51.915276  6526 net.cpp:434] relu1_1 <- conv1_1_rgbd
I0209 22:43:51.915282  6526 net.cpp:395] relu1_1 -> conv1_1_rgbd (in-place)
I0209 22:43:51.915596  6526 net.cpp:150] Setting up relu1_1
I0209 22:43:51.915611  6526 net.cpp:157] Top shape: 40 64 300 300 (230400000)
I0209 22:43:51.915616  6526 net.cpp:165] Memory required for data: 2304000064
I0209 22:43:51.915619  6526 layer_factory.hpp:77] Creating layer conv1_2
I0209 22:43:51.915634  6526 net.cpp:100] Creating Layer conv1_2
I0209 22:43:51.915638  6526 net.cpp:434] conv1_2 <- conv1_1_rgbd
I0209 22:43:51.915645  6526 net.cpp:408] conv1_2 -> conv1_2
I0209 22:43:51.917340  6526 net.cpp:150] Setting up conv1_2
I0209 22:43:51.917356  6526 net.cpp:157] Top shape: 40 64 300 300 (230400000)
I0209 22:43:51.917361  6526 net.cpp:165] Memory required for data: 3225600064
I0209 22:43:51.917371  6526 layer_factory.hpp:77] Creating layer relu1_2
I0209 22:43:51.917377  6526 net.cpp:100] Creating Layer relu1_2
I0209 22:43:51.917382  6526 net.cpp:434] relu1_2 <- conv1_2
I0209 22:43:51.917387  6526 net.cpp:395] relu1_2 -> conv1_2 (in-place)
I0209 22:43:51.917667  6526 net.cpp:150] Setting up relu1_2
I0209 22:43:51.917681  6526 net.cpp:157] Top shape: 40 64 300 300 (230400000)
I0209 22:43:51.917685  6526 net.cpp:165] Memory required for data: 4147200064
I0209 22:43:51.917690  6526 layer_factory.hpp:77] Creating layer pool1
I0209 22:43:51.917698  6526 net.cpp:100] Creating Layer pool1
I0209 22:43:51.917702  6526 net.cpp:434] pool1 <- conv1_2
I0209 22:43:51.917708  6526 net.cpp:408] pool1 -> pool1
I0209 22:43:51.917758  6526 net.cpp:150] Setting up pool1
I0209 22:43:51.917770  6526 net.cpp:157] Top shape: 40 64 150 150 (57600000)
I0209 22:43:51.917790  6526 net.cpp:165] Memory required for data: 4377600064
I0209 22:43:51.917794  6526 layer_factory.hpp:77] Creating layer conv2_1
I0209 22:43:51.917804  6526 net.cpp:100] Creating Layer conv2_1
I0209 22:43:51.917809  6526 net.cpp:434] conv2_1 <- pool1
I0209 22:43:51.917814  6526 net.cpp:408] conv2_1 -> conv2_1
I0209 22:43:51.919412  6526 net.cpp:150] Setting up conv2_1
I0209 22:43:51.919428  6526 net.cpp:157] Top shape: 40 128 150 150 (115200000)
I0209 22:43:51.919432  6526 net.cpp:165] Memory required for data: 4838400064
I0209 22:43:51.919442  6526 layer_factory.hpp:77] Creating layer relu2_1
I0209 22:43:51.919450  6526 net.cpp:100] Creating Layer relu2_1
I0209 22:43:51.919455  6526 net.cpp:434] relu2_1 <- conv2_1
I0209 22:43:51.919461  6526 net.cpp:395] relu2_1 -> conv2_1 (in-place)
I0209 22:43:51.919622  6526 net.cpp:150] Setting up relu2_1
I0209 22:43:51.919633  6526 net.cpp:157] Top shape: 40 128 150 150 (115200000)
I0209 22:43:51.919637  6526 net.cpp:165] Memory required for data: 5299200064
I0209 22:43:51.919641  6526 layer_factory.hpp:77] Creating layer conv2_2
I0209 22:43:51.919651  6526 net.cpp:100] Creating Layer conv2_2
I0209 22:43:51.919656  6526 net.cpp:434] conv2_2 <- conv2_1
I0209 22:43:51.919661  6526 net.cpp:408] conv2_2 -> conv2_2
I0209 22:43:51.922113  6526 net.cpp:150] Setting up conv2_2
I0209 22:43:51.922129  6526 net.cpp:157] Top shape: 40 128 150 150 (115200000)
I0209 22:43:51.922133  6526 net.cpp:165] Memory required for data: 5760000064
I0209 22:43:51.922140  6526 layer_factory.hpp:77] Creating layer relu2_2
I0209 22:43:51.922147  6526 net.cpp:100] Creating Layer relu2_2
I0209 22:43:51.922152  6526 net.cpp:434] relu2_2 <- conv2_2
I0209 22:43:51.922158  6526 net.cpp:395] relu2_2 -> conv2_2 (in-place)
I0209 22:43:51.922454  6526 net.cpp:150] Setting up relu2_2
I0209 22:43:51.922468  6526 net.cpp:157] Top shape: 40 128 150 150 (115200000)
I0209 22:43:51.922472  6526 net.cpp:165] Memory required for data: 6220800064
I0209 22:43:51.922477  6526 layer_factory.hpp:77] Creating layer pool2
I0209 22:43:51.922483  6526 net.cpp:100] Creating Layer pool2
I0209 22:43:51.922487  6526 net.cpp:434] pool2 <- conv2_2
I0209 22:43:51.922493  6526 net.cpp:408] pool2 -> pool2
I0209 22:43:51.922536  6526 net.cpp:150] Setting up pool2
I0209 22:43:51.922543  6526 net.cpp:157] Top shape: 40 128 75 75 (28800000)
I0209 22:43:51.922545  6526 net.cpp:165] Memory required for data: 6336000064
I0209 22:43:51.922549  6526 layer_factory.hpp:77] Creating layer conv3_1
I0209 22:43:51.922559  6526 net.cpp:100] Creating Layer conv3_1
I0209 22:43:51.922562  6526 net.cpp:434] conv3_1 <- pool2
I0209 22:43:51.922569  6526 net.cpp:408] conv3_1 -> conv3_1
I0209 22:43:51.926512  6526 net.cpp:150] Setting up conv3_1
I0209 22:43:51.926529  6526 net.cpp:157] Top shape: 40 256 75 75 (57600000)
I0209 22:43:51.926533  6526 net.cpp:165] Memory required for data: 6566400064
I0209 22:43:51.926544  6526 layer_factory.hpp:77] Creating layer relu3_1
I0209 22:43:51.926551  6526 net.cpp:100] Creating Layer relu3_1
I0209 22:43:51.926555  6526 net.cpp:434] relu3_1 <- conv3_1
I0209 22:43:51.926560  6526 net.cpp:395] relu3_1 -> conv3_1 (in-place)
I0209 22:43:51.926844  6526 net.cpp:150] Setting up relu3_1
I0209 22:43:51.926858  6526 net.cpp:157] Top shape: 40 256 75 75 (57600000)
I0209 22:43:51.926862  6526 net.cpp:165] Memory required for data: 6796800064
I0209 22:43:51.926867  6526 layer_factory.hpp:77] Creating layer conv3_2
I0209 22:43:51.926877  6526 net.cpp:100] Creating Layer conv3_2
I0209 22:43:51.926882  6526 net.cpp:434] conv3_2 <- conv3_1
I0209 22:43:51.926887  6526 net.cpp:408] conv3_2 -> conv3_2
I0209 22:43:51.932842  6526 net.cpp:150] Setting up conv3_2
I0209 22:43:51.932858  6526 net.cpp:157] Top shape: 40 256 75 75 (57600000)
I0209 22:43:51.932863  6526 net.cpp:165] Memory required for data: 7027200064
I0209 22:43:51.932870  6526 layer_factory.hpp:77] Creating layer relu3_2
I0209 22:43:51.932878  6526 net.cpp:100] Creating Layer relu3_2
I0209 22:43:51.932883  6526 net.cpp:434] relu3_2 <- conv3_2
I0209 22:43:51.932900  6526 net.cpp:395] relu3_2 -> conv3_2 (in-place)
I0209 22:43:51.933064  6526 net.cpp:150] Setting up relu3_2
I0209 22:43:51.933075  6526 net.cpp:157] Top shape: 40 256 75 75 (57600000)
I0209 22:43:51.933079  6526 net.cpp:165] Memory required for data: 7257600064
I0209 22:43:51.933084  6526 layer_factory.hpp:77] Creating layer conv3_3
I0209 22:43:51.933094  6526 net.cpp:100] Creating Layer conv3_3
I0209 22:43:51.933099  6526 net.cpp:434] conv3_3 <- conv3_2
I0209 22:43:51.933104  6526 net.cpp:408] conv3_3 -> conv3_3
I0209 22:43:51.939064  6526 net.cpp:150] Setting up conv3_3
I0209 22:43:51.939081  6526 net.cpp:157] Top shape: 40 256 75 75 (57600000)
I0209 22:43:51.939085  6526 net.cpp:165] Memory required for data: 7488000064
I0209 22:43:51.939092  6526 layer_factory.hpp:77] Creating layer relu3_3
I0209 22:43:51.939100  6526 net.cpp:100] Creating Layer relu3_3
I0209 22:43:51.939105  6526 net.cpp:434] relu3_3 <- conv3_3
I0209 22:43:51.939110  6526 net.cpp:395] relu3_3 -> conv3_3 (in-place)
I0209 22:43:51.939401  6526 net.cpp:150] Setting up relu3_3
I0209 22:43:51.939415  6526 net.cpp:157] Top shape: 40 256 75 75 (57600000)
I0209 22:43:51.939419  6526 net.cpp:165] Memory required for data: 7718400064
I0209 22:43:51.939424  6526 layer_factory.hpp:77] Creating layer pool3
I0209 22:43:51.939430  6526 net.cpp:100] Creating Layer pool3
I0209 22:43:51.939435  6526 net.cpp:434] pool3 <- conv3_3
I0209 22:43:51.939440  6526 net.cpp:408] pool3 -> pool3
I0209 22:43:51.939483  6526 net.cpp:150] Setting up pool3
I0209 22:43:51.939489  6526 net.cpp:157] Top shape: 40 256 38 38 (14786560)
I0209 22:43:51.939492  6526 net.cpp:165] Memory required for data: 7777546304
I0209 22:43:51.939496  6526 layer_factory.hpp:77] Creating layer conv4_1
I0209 22:43:51.939505  6526 net.cpp:100] Creating Layer conv4_1
I0209 22:43:51.939509  6526 net.cpp:434] conv4_1 <- pool3
I0209 22:43:51.939515  6526 net.cpp:408] conv4_1 -> conv4_1
I0209 22:43:51.950738  6526 net.cpp:150] Setting up conv4_1
I0209 22:43:51.950760  6526 net.cpp:157] Top shape: 40 512 38 38 (29573120)
I0209 22:43:51.950765  6526 net.cpp:165] Memory required for data: 7895838784
I0209 22:43:51.950773  6526 layer_factory.hpp:77] Creating layer relu4_1
I0209 22:43:51.950780  6526 net.cpp:100] Creating Layer relu4_1
I0209 22:43:51.950785  6526 net.cpp:434] relu4_1 <- conv4_1
I0209 22:43:51.950791  6526 net.cpp:395] relu4_1 -> conv4_1 (in-place)
I0209 22:43:51.951086  6526 net.cpp:150] Setting up relu4_1
I0209 22:43:51.951100  6526 net.cpp:157] Top shape: 40 512 38 38 (29573120)
I0209 22:43:51.951104  6526 net.cpp:165] Memory required for data: 8014131264
I0209 22:43:51.951108  6526 layer_factory.hpp:77] Creating layer conv4_2
I0209 22:43:51.951119  6526 net.cpp:100] Creating Layer conv4_2
I0209 22:43:51.951123  6526 net.cpp:434] conv4_2 <- conv4_1
I0209 22:43:51.951130  6526 net.cpp:408] conv4_2 -> conv4_2
I0209 22:43:51.971910  6526 net.cpp:150] Setting up conv4_2
I0209 22:43:51.971947  6526 net.cpp:157] Top shape: 40 512 38 38 (29573120)
I0209 22:43:51.971952  6526 net.cpp:165] Memory required for data: 8132423744
I0209 22:43:51.971967  6526 layer_factory.hpp:77] Creating layer relu4_2
I0209 22:43:51.971978  6526 net.cpp:100] Creating Layer relu4_2
I0209 22:43:51.971984  6526 net.cpp:434] relu4_2 <- conv4_2
I0209 22:43:51.971992  6526 net.cpp:395] relu4_2 -> conv4_2 (in-place)
I0209 22:43:51.972163  6526 net.cpp:150] Setting up relu4_2
I0209 22:43:51.972174  6526 net.cpp:157] Top shape: 40 512 38 38 (29573120)
I0209 22:43:51.972178  6526 net.cpp:165] Memory required for data: 8250716224
I0209 22:43:51.972182  6526 layer_factory.hpp:77] Creating layer conv4_3
I0209 22:43:51.972199  6526 net.cpp:100] Creating Layer conv4_3
I0209 22:43:51.972203  6526 net.cpp:434] conv4_3 <- conv4_2
I0209 22:43:51.972209  6526 net.cpp:408] conv4_3 -> conv4_3
I0209 22:43:51.992910  6526 net.cpp:150] Setting up conv4_3
I0209 22:43:51.992940  6526 net.cpp:157] Top shape: 40 512 38 38 (29573120)
I0209 22:43:51.992945  6526 net.cpp:165] Memory required for data: 8369008704
I0209 22:43:51.992974  6526 layer_factory.hpp:77] Creating layer relu4_3
I0209 22:43:51.992985  6526 net.cpp:100] Creating Layer relu4_3
I0209 22:43:51.992990  6526 net.cpp:434] relu4_3 <- conv4_3
I0209 22:43:51.992996  6526 net.cpp:395] relu4_3 -> conv4_3 (in-place)
I0209 22:43:51.993316  6526 net.cpp:150] Setting up relu4_3
I0209 22:43:51.993330  6526 net.cpp:157] Top shape: 40 512 38 38 (29573120)
I0209 22:43:51.993335  6526 net.cpp:165] Memory required for data: 8487301184
I0209 22:43:51.993338  6526 layer_factory.hpp:77] Creating layer conv4_3_relu4_3_0_split
I0209 22:43:51.993345  6526 net.cpp:100] Creating Layer conv4_3_relu4_3_0_split
I0209 22:43:51.993350  6526 net.cpp:434] conv4_3_relu4_3_0_split <- conv4_3
I0209 22:43:51.993357  6526 net.cpp:408] conv4_3_relu4_3_0_split -> conv4_3_relu4_3_0_split_0
I0209 22:43:51.993366  6526 net.cpp:408] conv4_3_relu4_3_0_split -> conv4_3_relu4_3_0_split_1
I0209 22:43:51.993410  6526 net.cpp:150] Setting up conv4_3_relu4_3_0_split
I0209 22:43:51.993417  6526 net.cpp:157] Top shape: 40 512 38 38 (29573120)
I0209 22:43:51.993420  6526 net.cpp:157] Top shape: 40 512 38 38 (29573120)
I0209 22:43:51.993424  6526 net.cpp:165] Memory required for data: 8723886144
I0209 22:43:51.993427  6526 layer_factory.hpp:77] Creating layer pool4
I0209 22:43:51.993437  6526 net.cpp:100] Creating Layer pool4
I0209 22:43:51.993440  6526 net.cpp:434] pool4 <- conv4_3_relu4_3_0_split_0
I0209 22:43:51.993446  6526 net.cpp:408] pool4 -> pool4
I0209 22:43:51.993484  6526 net.cpp:150] Setting up pool4
I0209 22:43:51.993490  6526 net.cpp:157] Top shape: 40 512 19 19 (7393280)
I0209 22:43:51.993494  6526 net.cpp:165] Memory required for data: 8753459264
I0209 22:43:51.993497  6526 layer_factory.hpp:77] Creating layer conv5_1
I0209 22:43:51.993510  6526 net.cpp:100] Creating Layer conv5_1
I0209 22:43:51.993515  6526 net.cpp:434] conv5_1 <- pool4
I0209 22:43:51.993520  6526 net.cpp:408] conv5_1 -> conv5_1
I0209 22:43:52.014194  6526 net.cpp:150] Setting up conv5_1
I0209 22:43:52.014223  6526 net.cpp:157] Top shape: 40 512 19 19 (7393280)
I0209 22:43:52.014228  6526 net.cpp:165] Memory required for data: 8783032384
I0209 22:43:52.014237  6526 layer_factory.hpp:77] Creating layer relu5_1
I0209 22:43:52.014248  6526 net.cpp:100] Creating Layer relu5_1
I0209 22:43:52.014253  6526 net.cpp:434] relu5_1 <- conv5_1
I0209 22:43:52.014261  6526 net.cpp:395] relu5_1 -> conv5_1 (in-place)
I0209 22:43:52.014565  6526 net.cpp:150] Setting up relu5_1
I0209 22:43:52.014580  6526 net.cpp:157] Top shape: 40 512 19 19 (7393280)
I0209 22:43:52.014583  6526 net.cpp:165] Memory required for data: 8812605504
I0209 22:43:52.014587  6526 layer_factory.hpp:77] Creating layer conv5_2
I0209 22:43:52.014601  6526 net.cpp:100] Creating Layer conv5_2
I0209 22:43:52.014606  6526 net.cpp:434] conv5_2 <- conv5_1
I0209 22:43:52.014613  6526 net.cpp:408] conv5_2 -> conv5_2
I0209 22:43:52.035370  6526 net.cpp:150] Setting up conv5_2
I0209 22:43:52.035406  6526 net.cpp:157] Top shape: 40 512 19 19 (7393280)
I0209 22:43:52.035410  6526 net.cpp:165] Memory required for data: 8842178624
I0209 22:43:52.035420  6526 layer_factory.hpp:77] Creating layer relu5_2
I0209 22:43:52.035430  6526 net.cpp:100] Creating Layer relu5_2
I0209 22:43:52.035435  6526 net.cpp:434] relu5_2 <- conv5_2
I0209 22:43:52.035442  6526 net.cpp:395] relu5_2 -> conv5_2 (in-place)
I0209 22:43:52.035617  6526 net.cpp:150] Setting up relu5_2
I0209 22:43:52.035634  6526 net.cpp:157] Top shape: 40 512 19 19 (7393280)
I0209 22:43:52.035637  6526 net.cpp:165] Memory required for data: 8871751744
I0209 22:43:52.035641  6526 layer_factory.hpp:77] Creating layer conv5_3
I0209 22:43:52.035655  6526 net.cpp:100] Creating Layer conv5_3
I0209 22:43:52.035658  6526 net.cpp:434] conv5_3 <- conv5_2
I0209 22:43:52.035666  6526 net.cpp:408] conv5_3 -> conv5_3
I0209 22:43:52.056407  6526 net.cpp:150] Setting up conv5_3
I0209 22:43:52.056438  6526 net.cpp:157] Top shape: 40 512 19 19 (7393280)
I0209 22:43:52.056443  6526 net.cpp:165] Memory required for data: 8901324864
I0209 22:43:52.056452  6526 layer_factory.hpp:77] Creating layer relu5_3
I0209 22:43:52.056488  6526 net.cpp:100] Creating Layer relu5_3
I0209 22:43:52.056494  6526 net.cpp:434] relu5_3 <- conv5_3
I0209 22:43:52.056501  6526 net.cpp:395] relu5_3 -> conv5_3 (in-place)
I0209 22:43:52.056815  6526 net.cpp:150] Setting up relu5_3
I0209 22:43:52.056830  6526 net.cpp:157] Top shape: 40 512 19 19 (7393280)
I0209 22:43:52.056834  6526 net.cpp:165] Memory required for data: 8930897984
I0209 22:43:52.056838  6526 layer_factory.hpp:77] Creating layer pool5
I0209 22:43:52.056845  6526 net.cpp:100] Creating Layer pool5
I0209 22:43:52.056849  6526 net.cpp:434] pool5 <- conv5_3
I0209 22:43:52.056857  6526 net.cpp:408] pool5 -> pool5
I0209 22:43:52.056906  6526 net.cpp:150] Setting up pool5
I0209 22:43:52.056913  6526 net.cpp:157] Top shape: 40 512 19 19 (7393280)
I0209 22:43:52.056916  6526 net.cpp:165] Memory required for data: 8960471104
I0209 22:43:52.056921  6526 layer_factory.hpp:77] Creating layer fc6
I0209 22:43:52.056932  6526 net.cpp:100] Creating Layer fc6
I0209 22:43:52.056936  6526 net.cpp:434] fc6 <- pool5
I0209 22:43:52.056942  6526 net.cpp:408] fc6 -> fc6
I0209 22:43:52.096995  6526 net.cpp:150] Setting up fc6
I0209 22:43:52.097031  6526 net.cpp:157] Top shape: 40 1024 19 19 (14786560)
I0209 22:43:52.097035  6526 net.cpp:165] Memory required for data: 9019617344
I0209 22:43:52.097045  6526 layer_factory.hpp:77] Creating layer relu6
I0209 22:43:52.097059  6526 net.cpp:100] Creating Layer relu6
I0209 22:43:52.097065  6526 net.cpp:434] relu6 <- fc6
I0209 22:43:52.097074  6526 net.cpp:395] relu6 -> fc6 (in-place)
I0209 22:43:52.097316  6526 net.cpp:150] Setting up relu6
I0209 22:43:52.097328  6526 net.cpp:157] Top shape: 40 1024 19 19 (14786560)
I0209 22:43:52.097332  6526 net.cpp:165] Memory required for data: 9078763584
I0209 22:43:52.097337  6526 layer_factory.hpp:77] Creating layer fc7
I0209 22:43:52.097348  6526 net.cpp:100] Creating Layer fc7
I0209 22:43:52.097352  6526 net.cpp:434] fc7 <- fc6
I0209 22:43:52.097360  6526 net.cpp:408] fc7 -> fc7
I0209 22:43:52.107266  6526 net.cpp:150] Setting up fc7
I0209 22:43:52.107283  6526 net.cpp:157] Top shape: 40 1024 19 19 (14786560)
I0209 22:43:52.107287  6526 net.cpp:165] Memory required for data: 9137909824
I0209 22:43:52.107295  6526 layer_factory.hpp:77] Creating layer relu7
I0209 22:43:52.107301  6526 net.cpp:100] Creating Layer relu7
I0209 22:43:52.107306  6526 net.cpp:434] relu7 <- fc7
I0209 22:43:52.107312  6526 net.cpp:395] relu7 -> fc7 (in-place)
I0209 22:43:52.107620  6526 net.cpp:150] Setting up relu7
I0209 22:43:52.107635  6526 net.cpp:157] Top shape: 40 1024 19 19 (14786560)
I0209 22:43:52.107637  6526 net.cpp:165] Memory required for data: 9197056064
I0209 22:43:52.107641  6526 layer_factory.hpp:77] Creating layer fc7_relu7_0_split
I0209 22:43:52.107651  6526 net.cpp:100] Creating Layer fc7_relu7_0_split
I0209 22:43:52.107656  6526 net.cpp:434] fc7_relu7_0_split <- fc7
I0209 22:43:52.107661  6526 net.cpp:408] fc7_relu7_0_split -> fc7_relu7_0_split_0
I0209 22:43:52.107669  6526 net.cpp:408] fc7_relu7_0_split -> fc7_relu7_0_split_1
I0209 22:43:52.107681  6526 net.cpp:408] fc7_relu7_0_split -> fc7_relu7_0_split_2
I0209 22:43:52.107687  6526 net.cpp:408] fc7_relu7_0_split -> fc7_relu7_0_split_3
I0209 22:43:52.107760  6526 net.cpp:150] Setting up fc7_relu7_0_split
I0209 22:43:52.107769  6526 net.cpp:157] Top shape: 40 1024 19 19 (14786560)
I0209 22:43:52.107774  6526 net.cpp:157] Top shape: 40 1024 19 19 (14786560)
I0209 22:43:52.107777  6526 net.cpp:157] Top shape: 40 1024 19 19 (14786560)
I0209 22:43:52.107781  6526 net.cpp:157] Top shape: 40 1024 19 19 (14786560)
I0209 22:43:52.107785  6526 net.cpp:165] Memory required for data: 9433641024
I0209 22:43:52.107789  6526 layer_factory.hpp:77] Creating layer conv6_1
I0209 22:43:52.107800  6526 net.cpp:100] Creating Layer conv6_1
I0209 22:43:52.107805  6526 net.cpp:434] conv6_1 <- fc7_relu7_0_split_0
I0209 22:43:52.107811  6526 net.cpp:408] conv6_1 -> conv6_1
I0209 22:43:52.112165  6526 net.cpp:150] Setting up conv6_1
I0209 22:43:52.112186  6526 net.cpp:157] Top shape: 40 256 19 19 (3696640)
I0209 22:43:52.112207  6526 net.cpp:165] Memory required for data: 9448427584
I0209 22:43:52.112215  6526 layer_factory.hpp:77] Creating layer conv6_1_relu
I0209 22:43:52.112223  6526 net.cpp:100] Creating Layer conv6_1_relu
I0209 22:43:52.112227  6526 net.cpp:434] conv6_1_relu <- conv6_1
I0209 22:43:52.112233  6526 net.cpp:395] conv6_1_relu -> conv6_1 (in-place)
I0209 22:43:52.112560  6526 net.cpp:150] Setting up conv6_1_relu
I0209 22:43:52.112574  6526 net.cpp:157] Top shape: 40 256 19 19 (3696640)
I0209 22:43:52.112578  6526 net.cpp:165] Memory required for data: 9463214144
I0209 22:43:52.112583  6526 layer_factory.hpp:77] Creating layer conv6_2
I0209 22:43:52.112594  6526 net.cpp:100] Creating Layer conv6_2
I0209 22:43:52.112599  6526 net.cpp:434] conv6_2 <- conv6_1
I0209 22:43:52.112607  6526 net.cpp:408] conv6_2 -> conv6_2
I0209 22:43:52.114398  6546 blocking_queue.cpp:50] Waiting for data
I0209 22:43:52.123522  6526 net.cpp:150] Setting up conv6_2
I0209 22:43:52.123538  6526 net.cpp:157] Top shape: 40 512 10 10 (2048000)
I0209 22:43:52.123543  6526 net.cpp:165] Memory required for data: 9471406144
I0209 22:43:52.123556  6526 layer_factory.hpp:77] Creating layer conv6_2_relu
I0209 22:43:52.123569  6526 net.cpp:100] Creating Layer conv6_2_relu
I0209 22:43:52.123574  6526 net.cpp:434] conv6_2_relu <- conv6_2
I0209 22:43:52.123579  6526 net.cpp:395] conv6_2_relu -> conv6_2 (in-place)
I0209 22:43:52.123755  6526 net.cpp:150] Setting up conv6_2_relu
I0209 22:43:52.123766  6526 net.cpp:157] Top shape: 40 512 10 10 (2048000)
I0209 22:43:52.123770  6526 net.cpp:165] Memory required for data: 9479598144
I0209 22:43:52.123775  6526 layer_factory.hpp:77] Creating layer conv6_2_conv6_2_relu_0_split
I0209 22:43:52.123780  6526 net.cpp:100] Creating Layer conv6_2_conv6_2_relu_0_split
I0209 22:43:52.123785  6526 net.cpp:434] conv6_2_conv6_2_relu_0_split <- conv6_2
I0209 22:43:52.123791  6526 net.cpp:408] conv6_2_conv6_2_relu_0_split -> conv6_2_conv6_2_relu_0_split_0
I0209 22:43:52.123800  6526 net.cpp:408] conv6_2_conv6_2_relu_0_split -> conv6_2_conv6_2_relu_0_split_1
I0209 22:43:52.123806  6526 net.cpp:408] conv6_2_conv6_2_relu_0_split -> conv6_2_conv6_2_relu_0_split_2
I0209 22:43:52.123812  6526 net.cpp:408] conv6_2_conv6_2_relu_0_split -> conv6_2_conv6_2_relu_0_split_3
I0209 22:43:52.123884  6526 net.cpp:150] Setting up conv6_2_conv6_2_relu_0_split
I0209 22:43:52.123893  6526 net.cpp:157] Top shape: 40 512 10 10 (2048000)
I0209 22:43:52.123896  6526 net.cpp:157] Top shape: 40 512 10 10 (2048000)
I0209 22:43:52.123900  6526 net.cpp:157] Top shape: 40 512 10 10 (2048000)
I0209 22:43:52.123904  6526 net.cpp:157] Top shape: 40 512 10 10 (2048000)
I0209 22:43:52.123908  6526 net.cpp:165] Memory required for data: 9512366144
I0209 22:43:52.123911  6526 layer_factory.hpp:77] Creating layer conv7_1
I0209 22:43:52.123924  6526 net.cpp:100] Creating Layer conv7_1
I0209 22:43:52.123927  6526 net.cpp:434] conv7_1 <- conv6_2_conv6_2_relu_0_split_0
I0209 22:43:52.123934  6526 net.cpp:408] conv7_1 -> conv7_1
I0209 22:43:52.125491  6526 net.cpp:150] Setting up conv7_1
I0209 22:43:52.125506  6526 net.cpp:157] Top shape: 40 128 10 10 (512000)
I0209 22:43:52.125511  6526 net.cpp:165] Memory required for data: 9514414144
I0209 22:43:52.125517  6526 layer_factory.hpp:77] Creating layer conv7_1_relu
I0209 22:43:52.125526  6526 net.cpp:100] Creating Layer conv7_1_relu
I0209 22:43:52.125531  6526 net.cpp:434] conv7_1_relu <- conv7_1
I0209 22:43:52.125536  6526 net.cpp:395] conv7_1_relu -> conv7_1 (in-place)
I0209 22:43:52.125846  6526 net.cpp:150] Setting up conv7_1_relu
I0209 22:43:52.125860  6526 net.cpp:157] Top shape: 40 128 10 10 (512000)
I0209 22:43:52.125864  6526 net.cpp:165] Memory required for data: 9516462144
I0209 22:43:52.125869  6526 layer_factory.hpp:77] Creating layer conv7_2
I0209 22:43:52.125879  6526 net.cpp:100] Creating Layer conv7_2
I0209 22:43:52.125883  6526 net.cpp:434] conv7_2 <- conv7_1
I0209 22:43:52.125891  6526 net.cpp:408] conv7_2 -> conv7_2
I0209 22:43:52.129421  6526 net.cpp:150] Setting up conv7_2
I0209 22:43:52.129448  6526 net.cpp:157] Top shape: 40 256 5 5 (256000)
I0209 22:43:52.129453  6526 net.cpp:165] Memory required for data: 9517486144
I0209 22:43:52.129461  6526 layer_factory.hpp:77] Creating layer conv7_2_relu
I0209 22:43:52.129467  6526 net.cpp:100] Creating Layer conv7_2_relu
I0209 22:43:52.129472  6526 net.cpp:434] conv7_2_relu <- conv7_2
I0209 22:43:52.129479  6526 net.cpp:395] conv7_2_relu -> conv7_2 (in-place)
I0209 22:43:52.129803  6526 net.cpp:150] Setting up conv7_2_relu
I0209 22:43:52.129817  6526 net.cpp:157] Top shape: 40 256 5 5 (256000)
I0209 22:43:52.129822  6526 net.cpp:165] Memory required for data: 9518510144
I0209 22:43:52.129825  6526 layer_factory.hpp:77] Creating layer conv7_2_conv7_2_relu_0_split
I0209 22:43:52.129832  6526 net.cpp:100] Creating Layer conv7_2_conv7_2_relu_0_split
I0209 22:43:52.129837  6526 net.cpp:434] conv7_2_conv7_2_relu_0_split <- conv7_2
I0209 22:43:52.129843  6526 net.cpp:408] conv7_2_conv7_2_relu_0_split -> conv7_2_conv7_2_relu_0_split_0
I0209 22:43:52.129851  6526 net.cpp:408] conv7_2_conv7_2_relu_0_split -> conv7_2_conv7_2_relu_0_split_1
I0209 22:43:52.129858  6526 net.cpp:408] conv7_2_conv7_2_relu_0_split -> conv7_2_conv7_2_relu_0_split_2
I0209 22:43:52.129864  6526 net.cpp:408] conv7_2_conv7_2_relu_0_split -> conv7_2_conv7_2_relu_0_split_3
I0209 22:43:52.129938  6526 net.cpp:150] Setting up conv7_2_conv7_2_relu_0_split
I0209 22:43:52.129951  6526 net.cpp:157] Top shape: 40 256 5 5 (256000)
I0209 22:43:52.129956  6526 net.cpp:157] Top shape: 40 256 5 5 (256000)
I0209 22:43:52.129959  6526 net.cpp:157] Top shape: 40 256 5 5 (256000)
I0209 22:43:52.129963  6526 net.cpp:157] Top shape: 40 256 5 5 (256000)
I0209 22:43:52.129966  6526 net.cpp:165] Memory required for data: 9522606144
I0209 22:43:52.129969  6526 layer_factory.hpp:77] Creating layer conv8_1
I0209 22:43:52.129979  6526 net.cpp:100] Creating Layer conv8_1
I0209 22:43:52.129984  6526 net.cpp:434] conv8_1 <- conv7_2_conv7_2_relu_0_split_0
I0209 22:43:52.129992  6526 net.cpp:408] conv8_1 -> conv8_1
I0209 22:43:52.131304  6526 net.cpp:150] Setting up conv8_1
I0209 22:43:52.131321  6526 net.cpp:157] Top shape: 40 128 5 5 (128000)
I0209 22:43:52.131325  6526 net.cpp:165] Memory required for data: 9523118144
I0209 22:43:52.131332  6526 layer_factory.hpp:77] Creating layer conv8_1_relu
I0209 22:43:52.131340  6526 net.cpp:100] Creating Layer conv8_1_relu
I0209 22:43:52.131343  6526 net.cpp:434] conv8_1_relu <- conv8_1
I0209 22:43:52.131350  6526 net.cpp:395] conv8_1_relu -> conv8_1 (in-place)
I0209 22:43:52.131526  6526 net.cpp:150] Setting up conv8_1_relu
I0209 22:43:52.131537  6526 net.cpp:157] Top shape: 40 128 5 5 (128000)
I0209 22:43:52.131541  6526 net.cpp:165] Memory required for data: 9523630144
I0209 22:43:52.131546  6526 layer_factory.hpp:77] Creating layer conv8_2
I0209 22:43:52.131556  6526 net.cpp:100] Creating Layer conv8_2
I0209 22:43:52.131561  6526 net.cpp:434] conv8_2 <- conv8_1
I0209 22:43:52.131568  6526 net.cpp:408] conv8_2 -> conv8_2
I0209 22:43:52.135222  6526 net.cpp:150] Setting up conv8_2
I0209 22:43:52.135238  6526 net.cpp:157] Top shape: 40 256 3 3 (92160)
I0209 22:43:52.135242  6526 net.cpp:165] Memory required for data: 9523998784
I0209 22:43:52.135249  6526 layer_factory.hpp:77] Creating layer conv8_2_relu
I0209 22:43:52.135257  6526 net.cpp:100] Creating Layer conv8_2_relu
I0209 22:43:52.135262  6526 net.cpp:434] conv8_2_relu <- conv8_2
I0209 22:43:52.135268  6526 net.cpp:395] conv8_2_relu -> conv8_2 (in-place)
I0209 22:43:52.135586  6526 net.cpp:150] Setting up conv8_2_relu
I0209 22:43:52.135601  6526 net.cpp:157] Top shape: 40 256 3 3 (92160)
I0209 22:43:52.135604  6526 net.cpp:165] Memory required for data: 9524367424
I0209 22:43:52.135608  6526 layer_factory.hpp:77] Creating layer conv8_2_conv8_2_relu_0_split
I0209 22:43:52.135615  6526 net.cpp:100] Creating Layer conv8_2_conv8_2_relu_0_split
I0209 22:43:52.135619  6526 net.cpp:434] conv8_2_conv8_2_relu_0_split <- conv8_2
I0209 22:43:52.135627  6526 net.cpp:408] conv8_2_conv8_2_relu_0_split -> conv8_2_conv8_2_relu_0_split_0
I0209 22:43:52.135646  6526 net.cpp:408] conv8_2_conv8_2_relu_0_split -> conv8_2_conv8_2_relu_0_split_1
I0209 22:43:52.135653  6526 net.cpp:408] conv8_2_conv8_2_relu_0_split -> conv8_2_conv8_2_relu_0_split_2
I0209 22:43:52.135661  6526 net.cpp:408] conv8_2_conv8_2_relu_0_split -> conv8_2_conv8_2_relu_0_split_3
I0209 22:43:52.135736  6526 net.cpp:150] Setting up conv8_2_conv8_2_relu_0_split
I0209 22:43:52.135746  6526 net.cpp:157] Top shape: 40 256 3 3 (92160)
I0209 22:43:52.135751  6526 net.cpp:157] Top shape: 40 256 3 3 (92160)
I0209 22:43:52.135754  6526 net.cpp:157] Top shape: 40 256 3 3 (92160)
I0209 22:43:52.135758  6526 net.cpp:157] Top shape: 40 256 3 3 (92160)
I0209 22:43:52.135761  6526 net.cpp:165] Memory required for data: 9525841984
I0209 22:43:52.135764  6526 layer_factory.hpp:77] Creating layer conv9_1
I0209 22:43:52.135776  6526 net.cpp:100] Creating Layer conv9_1
I0209 22:43:52.135779  6526 net.cpp:434] conv9_1 <- conv8_2_conv8_2_relu_0_split_0
I0209 22:43:52.135788  6526 net.cpp:408] conv9_1 -> conv9_1
I0209 22:43:52.136971  6526 net.cpp:150] Setting up conv9_1
I0209 22:43:52.136986  6526 net.cpp:157] Top shape: 40 128 3 3 (46080)
I0209 22:43:52.136991  6526 net.cpp:165] Memory required for data: 9526026304
I0209 22:43:52.136997  6526 layer_factory.hpp:77] Creating layer conv9_1_relu
I0209 22:43:52.137003  6526 net.cpp:100] Creating Layer conv9_1_relu
I0209 22:43:52.137009  6526 net.cpp:434] conv9_1_relu <- conv9_1
I0209 22:43:52.137015  6526 net.cpp:395] conv9_1_relu -> conv9_1 (in-place)
I0209 22:43:52.137336  6526 net.cpp:150] Setting up conv9_1_relu
I0209 22:43:52.137349  6526 net.cpp:157] Top shape: 40 128 3 3 (46080)
I0209 22:43:52.137353  6526 net.cpp:165] Memory required for data: 9526210624
I0209 22:43:52.137357  6526 layer_factory.hpp:77] Creating layer conv9_2
I0209 22:43:52.137368  6526 net.cpp:100] Creating Layer conv9_2
I0209 22:43:52.137372  6526 net.cpp:434] conv9_2 <- conv9_1
I0209 22:43:52.137382  6526 net.cpp:408] conv9_2 -> conv9_2
I0209 22:43:52.141046  6526 net.cpp:150] Setting up conv9_2
I0209 22:43:52.141062  6526 net.cpp:157] Top shape: 40 256 1 1 (10240)
I0209 22:43:52.141065  6526 net.cpp:165] Memory required for data: 9526251584
I0209 22:43:52.141072  6526 layer_factory.hpp:77] Creating layer conv9_2_relu
I0209 22:43:52.141079  6526 net.cpp:100] Creating Layer conv9_2_relu
I0209 22:43:52.141084  6526 net.cpp:434] conv9_2_relu <- conv9_2
I0209 22:43:52.141091  6526 net.cpp:395] conv9_2_relu -> conv9_2 (in-place)
I0209 22:43:52.141270  6526 net.cpp:150] Setting up conv9_2_relu
I0209 22:43:52.141288  6526 net.cpp:157] Top shape: 40 256 1 1 (10240)
I0209 22:43:52.141291  6526 net.cpp:165] Memory required for data: 9526292544
I0209 22:43:52.141295  6526 layer_factory.hpp:77] Creating layer conv9_2_conv9_2_relu_0_split
I0209 22:43:52.141301  6526 net.cpp:100] Creating Layer conv9_2_conv9_2_relu_0_split
I0209 22:43:52.141305  6526 net.cpp:434] conv9_2_conv9_2_relu_0_split <- conv9_2
I0209 22:43:52.141311  6526 net.cpp:408] conv9_2_conv9_2_relu_0_split -> conv9_2_conv9_2_relu_0_split_0
I0209 22:43:52.141320  6526 net.cpp:408] conv9_2_conv9_2_relu_0_split -> conv9_2_conv9_2_relu_0_split_1
I0209 22:43:52.141327  6526 net.cpp:408] conv9_2_conv9_2_relu_0_split -> conv9_2_conv9_2_relu_0_split_2
I0209 22:43:52.141386  6526 net.cpp:150] Setting up conv9_2_conv9_2_relu_0_split
I0209 22:43:52.141396  6526 net.cpp:157] Top shape: 40 256 1 1 (10240)
I0209 22:43:52.141399  6526 net.cpp:157] Top shape: 40 256 1 1 (10240)
I0209 22:43:52.141403  6526 net.cpp:157] Top shape: 40 256 1 1 (10240)
I0209 22:43:52.141407  6526 net.cpp:165] Memory required for data: 9526415424
I0209 22:43:52.141410  6526 layer_factory.hpp:77] Creating layer conv4_3_norm
I0209 22:43:52.141418  6526 net.cpp:100] Creating Layer conv4_3_norm
I0209 22:43:52.141423  6526 net.cpp:434] conv4_3_norm <- conv4_3_relu4_3_0_split_1
I0209 22:43:52.141429  6526 net.cpp:408] conv4_3_norm -> conv4_3_norm
I0209 22:43:52.141595  6526 net.cpp:150] Setting up conv4_3_norm
I0209 22:43:52.141604  6526 net.cpp:157] Top shape: 40 512 38 38 (29573120)
I0209 22:43:52.141618  6526 net.cpp:165] Memory required for data: 9644707904
I0209 22:43:52.141625  6526 layer_factory.hpp:77] Creating layer conv4_3_norm_conv4_3_norm_0_split
I0209 22:43:52.141630  6526 net.cpp:100] Creating Layer conv4_3_norm_conv4_3_norm_0_split
I0209 22:43:52.141634  6526 net.cpp:434] conv4_3_norm_conv4_3_norm_0_split <- conv4_3_norm
I0209 22:43:52.141640  6526 net.cpp:408] conv4_3_norm_conv4_3_norm_0_split -> conv4_3_norm_conv4_3_norm_0_split_0
I0209 22:43:52.141646  6526 net.cpp:408] conv4_3_norm_conv4_3_norm_0_split -> conv4_3_norm_conv4_3_norm_0_split_1
I0209 22:43:52.141654  6526 net.cpp:408] conv4_3_norm_conv4_3_norm_0_split -> conv4_3_norm_conv4_3_norm_0_split_2
I0209 22:43:52.141707  6526 net.cpp:150] Setting up conv4_3_norm_conv4_3_norm_0_split
I0209 22:43:52.141716  6526 net.cpp:157] Top shape: 40 512 38 38 (29573120)
I0209 22:43:52.141719  6526 net.cpp:157] Top shape: 40 512 38 38 (29573120)
I0209 22:43:52.141723  6526 net.cpp:157] Top shape: 40 512 38 38 (29573120)
I0209 22:43:52.141726  6526 net.cpp:165] Memory required for data: 9999585344
I0209 22:43:52.141731  6526 layer_factory.hpp:77] Creating layer conv4_3_norm_mbox_loc
I0209 22:43:52.141739  6526 net.cpp:100] Creating Layer conv4_3_norm_mbox_loc
I0209 22:43:52.141743  6526 net.cpp:434] conv4_3_norm_mbox_loc <- conv4_3_norm_conv4_3_norm_0_split_0
I0209 22:43:52.141751  6526 net.cpp:408] conv4_3_norm_mbox_loc -> conv4_3_norm_mbox_loc
I0209 22:43:52.143513  6526 net.cpp:150] Setting up conv4_3_norm_mbox_loc
I0209 22:43:52.143530  6526 net.cpp:157] Top shape: 40 16 38 38 (924160)
I0209 22:43:52.143534  6526 net.cpp:165] Memory required for data: 10003281984
I0209 22:43:52.143542  6526 layer_factory.hpp:77] Creating layer conv4_3_norm_mbox_loc_perm
I0209 22:43:52.143556  6526 net.cpp:100] Creating Layer conv4_3_norm_mbox_loc_perm
I0209 22:43:52.143561  6526 net.cpp:434] conv4_3_norm_mbox_loc_perm <- conv4_3_norm_mbox_loc
I0209 22:43:52.143568  6526 net.cpp:408] conv4_3_norm_mbox_loc_perm -> conv4_3_norm_mbox_loc_perm
I0209 22:43:52.143689  6526 net.cpp:150] Setting up conv4_3_norm_mbox_loc_perm
I0209 22:43:52.143700  6526 net.cpp:157] Top shape: 40 38 38 16 (924160)
I0209 22:43:52.143704  6526 net.cpp:165] Memory required for data: 10006978624
I0209 22:43:52.143707  6526 layer_factory.hpp:77] Creating layer conv4_3_norm_mbox_loc_flat
I0209 22:43:52.143714  6526 net.cpp:100] Creating Layer conv4_3_norm_mbox_loc_flat
I0209 22:43:52.143718  6526 net.cpp:434] conv4_3_norm_mbox_loc_flat <- conv4_3_norm_mbox_loc_perm
I0209 22:43:52.143723  6526 net.cpp:408] conv4_3_norm_mbox_loc_flat -> conv4_3_norm_mbox_loc_flat
I0209 22:43:52.143760  6526 net.cpp:150] Setting up conv4_3_norm_mbox_loc_flat
I0209 22:43:52.143769  6526 net.cpp:157] Top shape: 40 23104 (924160)
I0209 22:43:52.143774  6526 net.cpp:165] Memory required for data: 10010675264
I0209 22:43:52.143776  6526 layer_factory.hpp:77] Creating layer conv4_3_norm_mbox_conf
I0209 22:43:52.143793  6526 net.cpp:100] Creating Layer conv4_3_norm_mbox_conf
I0209 22:43:52.143798  6526 net.cpp:434] conv4_3_norm_mbox_conf <- conv4_3_norm_conv4_3_norm_0_split_1
I0209 22:43:52.143805  6526 net.cpp:408] conv4_3_norm_mbox_conf -> conv4_3_norm_mbox_conf
I0209 22:43:52.148367  6526 net.cpp:150] Setting up conv4_3_norm_mbox_conf
I0209 22:43:52.148383  6526 net.cpp:157] Top shape: 40 88 38 38 (5082880)
I0209 22:43:52.148388  6526 net.cpp:165] Memory required for data: 10031006784
I0209 22:43:52.148396  6526 layer_factory.hpp:77] Creating layer conv4_3_norm_mbox_conf_perm
I0209 22:43:52.148406  6526 net.cpp:100] Creating Layer conv4_3_norm_mbox_conf_perm
I0209 22:43:52.148411  6526 net.cpp:434] conv4_3_norm_mbox_conf_perm <- conv4_3_norm_mbox_conf
I0209 22:43:52.148416  6526 net.cpp:408] conv4_3_norm_mbox_conf_perm -> conv4_3_norm_mbox_conf_perm
I0209 22:43:52.148535  6526 net.cpp:150] Setting up conv4_3_norm_mbox_conf_perm
I0209 22:43:52.148545  6526 net.cpp:157] Top shape: 40 38 38 88 (5082880)
I0209 22:43:52.148547  6526 net.cpp:165] Memory required for data: 10051338304
I0209 22:43:52.148562  6526 layer_factory.hpp:77] Creating layer conv4_3_norm_mbox_conf_flat
I0209 22:43:52.148571  6526 net.cpp:100] Creating Layer conv4_3_norm_mbox_conf_flat
I0209 22:43:52.148576  6526 net.cpp:434] conv4_3_norm_mbox_conf_flat <- conv4_3_norm_mbox_conf_perm
I0209 22:43:52.148581  6526 net.cpp:408] conv4_3_norm_mbox_conf_flat -> conv4_3_norm_mbox_conf_flat
I0209 22:43:52.148612  6526 net.cpp:150] Setting up conv4_3_norm_mbox_conf_flat
I0209 22:43:52.148618  6526 net.cpp:157] Top shape: 40 127072 (5082880)
I0209 22:43:52.148622  6526 net.cpp:165] Memory required for data: 10071669824
I0209 22:43:52.148625  6526 layer_factory.hpp:77] Creating layer conv4_3_norm_mbox_priorbox
I0209 22:43:52.148636  6526 net.cpp:100] Creating Layer conv4_3_norm_mbox_priorbox
I0209 22:43:52.148640  6526 net.cpp:434] conv4_3_norm_mbox_priorbox <- conv4_3_norm_conv4_3_norm_0_split_2
I0209 22:43:52.148646  6526 net.cpp:434] conv4_3_norm_mbox_priorbox <- data_data_0_split_1
I0209 22:43:52.148654  6526 net.cpp:408] conv4_3_norm_mbox_priorbox -> conv4_3_norm_mbox_priorbox
I0209 22:43:52.148686  6526 net.cpp:150] Setting up conv4_3_norm_mbox_priorbox
I0209 22:43:52.148694  6526 net.cpp:157] Top shape: 1 2 23104 (46208)
I0209 22:43:52.148697  6526 net.cpp:165] Memory required for data: 10071854656
I0209 22:43:52.148701  6526 layer_factory.hpp:77] Creating layer fc7_mbox_loc
I0209 22:43:52.148713  6526 net.cpp:100] Creating Layer fc7_mbox_loc
I0209 22:43:52.148717  6526 net.cpp:434] fc7_mbox_loc <- fc7_relu7_0_split_1
I0209 22:43:52.148725  6526 net.cpp:408] fc7_mbox_loc -> fc7_mbox_loc
I0209 22:43:52.151841  6526 net.cpp:150] Setting up fc7_mbox_loc
I0209 22:43:52.151857  6526 net.cpp:157] Top shape: 40 24 19 19 (346560)
I0209 22:43:52.151861  6526 net.cpp:165] Memory required for data: 10073240896
I0209 22:43:52.151868  6526 layer_factory.hpp:77] Creating layer fc7_mbox_loc_perm
I0209 22:43:52.151877  6526 net.cpp:100] Creating Layer fc7_mbox_loc_perm
I0209 22:43:52.151882  6526 net.cpp:434] fc7_mbox_loc_perm <- fc7_mbox_loc
I0209 22:43:52.151888  6526 net.cpp:408] fc7_mbox_loc_perm -> fc7_mbox_loc_perm
I0209 22:43:52.152007  6526 net.cpp:150] Setting up fc7_mbox_loc_perm
I0209 22:43:52.152016  6526 net.cpp:157] Top shape: 40 19 19 24 (346560)
I0209 22:43:52.152020  6526 net.cpp:165] Memory required for data: 10074627136
I0209 22:43:52.152024  6526 layer_factory.hpp:77] Creating layer fc7_mbox_loc_flat
I0209 22:43:52.152029  6526 net.cpp:100] Creating Layer fc7_mbox_loc_flat
I0209 22:43:52.152034  6526 net.cpp:434] fc7_mbox_loc_flat <- fc7_mbox_loc_perm
I0209 22:43:52.152040  6526 net.cpp:408] fc7_mbox_loc_flat -> fc7_mbox_loc_flat
I0209 22:43:52.152066  6526 net.cpp:150] Setting up fc7_mbox_loc_flat
I0209 22:43:52.152073  6526 net.cpp:157] Top shape: 40 8664 (346560)
I0209 22:43:52.152076  6526 net.cpp:165] Memory required for data: 10076013376
I0209 22:43:52.152081  6526 layer_factory.hpp:77] Creating layer fc7_mbox_conf
I0209 22:43:52.152092  6526 net.cpp:100] Creating Layer fc7_mbox_conf
I0209 22:43:52.152096  6526 net.cpp:434] fc7_mbox_conf <- fc7_relu7_0_split_2
I0209 22:43:52.152103  6526 net.cpp:408] fc7_mbox_conf -> fc7_mbox_conf
I0209 22:43:52.163193  6526 net.cpp:150] Setting up fc7_mbox_conf
I0209 22:43:52.163211  6526 net.cpp:157] Top shape: 40 132 19 19 (1906080)
I0209 22:43:52.163215  6526 net.cpp:165] Memory required for data: 10083637696
I0209 22:43:52.163223  6526 layer_factory.hpp:77] Creating layer fc7_mbox_conf_perm
I0209 22:43:52.163229  6526 net.cpp:100] Creating Layer fc7_mbox_conf_perm
I0209 22:43:52.163234  6526 net.cpp:434] fc7_mbox_conf_perm <- fc7_mbox_conf
I0209 22:43:52.163244  6526 net.cpp:408] fc7_mbox_conf_perm -> fc7_mbox_conf_perm
I0209 22:43:52.163362  6526 net.cpp:150] Setting up fc7_mbox_conf_perm
I0209 22:43:52.163372  6526 net.cpp:157] Top shape: 40 19 19 132 (1906080)
I0209 22:43:52.163375  6526 net.cpp:165] Memory required for data: 10091262016
I0209 22:43:52.163378  6526 layer_factory.hpp:77] Creating layer fc7_mbox_conf_flat
I0209 22:43:52.163386  6526 net.cpp:100] Creating Layer fc7_mbox_conf_flat
I0209 22:43:52.163401  6526 net.cpp:434] fc7_mbox_conf_flat <- fc7_mbox_conf_perm
I0209 22:43:52.163414  6526 net.cpp:408] fc7_mbox_conf_flat -> fc7_mbox_conf_flat
I0209 22:43:52.163444  6526 net.cpp:150] Setting up fc7_mbox_conf_flat
I0209 22:43:52.163452  6526 net.cpp:157] Top shape: 40 47652 (1906080)
I0209 22:43:52.163455  6526 net.cpp:165] Memory required for data: 10098886336
I0209 22:43:52.163460  6526 layer_factory.hpp:77] Creating layer fc7_mbox_priorbox
I0209 22:43:52.163467  6526 net.cpp:100] Creating Layer fc7_mbox_priorbox
I0209 22:43:52.163471  6526 net.cpp:434] fc7_mbox_priorbox <- fc7_relu7_0_split_3
I0209 22:43:52.163476  6526 net.cpp:434] fc7_mbox_priorbox <- data_data_0_split_2
I0209 22:43:52.163482  6526 net.cpp:408] fc7_mbox_priorbox -> fc7_mbox_priorbox
I0209 22:43:52.163512  6526 net.cpp:150] Setting up fc7_mbox_priorbox
I0209 22:43:52.163518  6526 net.cpp:157] Top shape: 1 2 8664 (17328)
I0209 22:43:52.163522  6526 net.cpp:165] Memory required for data: 10098955648
I0209 22:43:52.163525  6526 layer_factory.hpp:77] Creating layer conv6_2_mbox_loc
I0209 22:43:52.163537  6526 net.cpp:100] Creating Layer conv6_2_mbox_loc
I0209 22:43:52.163542  6526 net.cpp:434] conv6_2_mbox_loc <- conv6_2_conv6_2_relu_0_split_1
I0209 22:43:52.163548  6526 net.cpp:408] conv6_2_mbox_loc -> conv6_2_mbox_loc
I0209 22:43:52.165863  6526 net.cpp:150] Setting up conv6_2_mbox_loc
I0209 22:43:52.165879  6526 net.cpp:157] Top shape: 40 24 10 10 (96000)
I0209 22:43:52.165884  6526 net.cpp:165] Memory required for data: 10099339648
I0209 22:43:52.165890  6526 layer_factory.hpp:77] Creating layer conv6_2_mbox_loc_perm
I0209 22:43:52.165900  6526 net.cpp:100] Creating Layer conv6_2_mbox_loc_perm
I0209 22:43:52.165905  6526 net.cpp:434] conv6_2_mbox_loc_perm <- conv6_2_mbox_loc
I0209 22:43:52.165911  6526 net.cpp:408] conv6_2_mbox_loc_perm -> conv6_2_mbox_loc_perm
I0209 22:43:52.166031  6526 net.cpp:150] Setting up conv6_2_mbox_loc_perm
I0209 22:43:52.166040  6526 net.cpp:157] Top shape: 40 10 10 24 (96000)
I0209 22:43:52.166050  6526 net.cpp:165] Memory required for data: 10099723648
I0209 22:43:52.166054  6526 layer_factory.hpp:77] Creating layer conv6_2_mbox_loc_flat
I0209 22:43:52.166060  6526 net.cpp:100] Creating Layer conv6_2_mbox_loc_flat
I0209 22:43:52.166064  6526 net.cpp:434] conv6_2_mbox_loc_flat <- conv6_2_mbox_loc_perm
I0209 22:43:52.166071  6526 net.cpp:408] conv6_2_mbox_loc_flat -> conv6_2_mbox_loc_flat
I0209 22:43:52.166097  6526 net.cpp:150] Setting up conv6_2_mbox_loc_flat
I0209 22:43:52.166103  6526 net.cpp:157] Top shape: 40 2400 (96000)
I0209 22:43:52.166106  6526 net.cpp:165] Memory required for data: 10100107648
I0209 22:43:52.166110  6526 layer_factory.hpp:77] Creating layer conv6_2_mbox_conf
I0209 22:43:52.166122  6526 net.cpp:100] Creating Layer conv6_2_mbox_conf
I0209 22:43:52.166126  6526 net.cpp:434] conv6_2_mbox_conf <- conv6_2_conv6_2_relu_0_split_2
I0209 22:43:52.166133  6526 net.cpp:408] conv6_2_mbox_conf -> conv6_2_mbox_conf
I0209 22:43:52.172387  6526 net.cpp:150] Setting up conv6_2_mbox_conf
I0209 22:43:52.172405  6526 net.cpp:157] Top shape: 40 132 10 10 (528000)
I0209 22:43:52.172408  6526 net.cpp:165] Memory required for data: 10102219648
I0209 22:43:52.172415  6526 layer_factory.hpp:77] Creating layer conv6_2_mbox_conf_perm
I0209 22:43:52.172422  6526 net.cpp:100] Creating Layer conv6_2_mbox_conf_perm
I0209 22:43:52.172426  6526 net.cpp:434] conv6_2_mbox_conf_perm <- conv6_2_mbox_conf
I0209 22:43:52.172436  6526 net.cpp:408] conv6_2_mbox_conf_perm -> conv6_2_mbox_conf_perm
I0209 22:43:52.172557  6526 net.cpp:150] Setting up conv6_2_mbox_conf_perm
I0209 22:43:52.172566  6526 net.cpp:157] Top shape: 40 10 10 132 (528000)
I0209 22:43:52.172569  6526 net.cpp:165] Memory required for data: 10104331648
I0209 22:43:52.172574  6526 layer_factory.hpp:77] Creating layer conv6_2_mbox_conf_flat
I0209 22:43:52.172580  6526 net.cpp:100] Creating Layer conv6_2_mbox_conf_flat
I0209 22:43:52.172583  6526 net.cpp:434] conv6_2_mbox_conf_flat <- conv6_2_mbox_conf_perm
I0209 22:43:52.172590  6526 net.cpp:408] conv6_2_mbox_conf_flat -> conv6_2_mbox_conf_flat
I0209 22:43:52.172631  6526 net.cpp:150] Setting up conv6_2_mbox_conf_flat
I0209 22:43:52.172637  6526 net.cpp:157] Top shape: 40 13200 (528000)
I0209 22:43:52.172641  6526 net.cpp:165] Memory required for data: 10106443648
I0209 22:43:52.172644  6526 layer_factory.hpp:77] Creating layer conv6_2_mbox_priorbox
I0209 22:43:52.172652  6526 net.cpp:100] Creating Layer conv6_2_mbox_priorbox
I0209 22:43:52.172657  6526 net.cpp:434] conv6_2_mbox_priorbox <- conv6_2_conv6_2_relu_0_split_3
I0209 22:43:52.172662  6526 net.cpp:434] conv6_2_mbox_priorbox <- data_data_0_split_3
I0209 22:43:52.172669  6526 net.cpp:408] conv6_2_mbox_priorbox -> conv6_2_mbox_priorbox
I0209 22:43:52.172698  6526 net.cpp:150] Setting up conv6_2_mbox_priorbox
I0209 22:43:52.172704  6526 net.cpp:157] Top shape: 1 2 2400 (4800)
I0209 22:43:52.172708  6526 net.cpp:165] Memory required for data: 10106462848
I0209 22:43:52.172711  6526 layer_factory.hpp:77] Creating layer conv7_2_mbox_loc
I0209 22:43:52.172722  6526 net.cpp:100] Creating Layer conv7_2_mbox_loc
I0209 22:43:52.172727  6526 net.cpp:434] conv7_2_mbox_loc <- conv7_2_conv7_2_relu_0_split_1
I0209 22:43:52.172734  6526 net.cpp:408] conv7_2_mbox_loc -> conv7_2_mbox_loc
I0209 22:43:52.174676  6526 net.cpp:150] Setting up conv7_2_mbox_loc
I0209 22:43:52.174692  6526 net.cpp:157] Top shape: 40 24 5 5 (24000)
I0209 22:43:52.174696  6526 net.cpp:165] Memory required for data: 10106558848
I0209 22:43:52.174703  6526 layer_factory.hpp:77] Creating layer conv7_2_mbox_loc_perm
I0209 22:43:52.174712  6526 net.cpp:100] Creating Layer conv7_2_mbox_loc_perm
I0209 22:43:52.174717  6526 net.cpp:434] conv7_2_mbox_loc_perm <- conv7_2_mbox_loc
I0209 22:43:52.174723  6526 net.cpp:408] conv7_2_mbox_loc_perm -> conv7_2_mbox_loc_perm
I0209 22:43:52.174842  6526 net.cpp:150] Setting up conv7_2_mbox_loc_perm
I0209 22:43:52.174851  6526 net.cpp:157] Top shape: 40 5 5 24 (24000)
I0209 22:43:52.174855  6526 net.cpp:165] Memory required for data: 10106654848
I0209 22:43:52.174859  6526 layer_factory.hpp:77] Creating layer conv7_2_mbox_loc_flat
I0209 22:43:52.174865  6526 net.cpp:100] Creating Layer conv7_2_mbox_loc_flat
I0209 22:43:52.174870  6526 net.cpp:434] conv7_2_mbox_loc_flat <- conv7_2_mbox_loc_perm
I0209 22:43:52.174875  6526 net.cpp:408] conv7_2_mbox_loc_flat -> conv7_2_mbox_loc_flat
I0209 22:43:52.174903  6526 net.cpp:150] Setting up conv7_2_mbox_loc_flat
I0209 22:43:52.174911  6526 net.cpp:157] Top shape: 40 600 (24000)
I0209 22:43:52.174914  6526 net.cpp:165] Memory required for data: 10106750848
I0209 22:43:52.174918  6526 layer_factory.hpp:77] Creating layer conv7_2_mbox_conf
I0209 22:43:52.174928  6526 net.cpp:100] Creating Layer conv7_2_mbox_conf
I0209 22:43:52.174932  6526 net.cpp:434] conv7_2_mbox_conf <- conv7_2_conv7_2_relu_0_split_2
I0209 22:43:52.174940  6526 net.cpp:408] conv7_2_mbox_conf -> conv7_2_mbox_conf
I0209 22:43:52.178738  6526 net.cpp:150] Setting up conv7_2_mbox_conf
I0209 22:43:52.178755  6526 net.cpp:157] Top shape: 40 132 5 5 (132000)
I0209 22:43:52.178760  6526 net.cpp:165] Memory required for data: 10107278848
I0209 22:43:52.178766  6526 layer_factory.hpp:77] Creating layer conv7_2_mbox_conf_perm
I0209 22:43:52.178774  6526 net.cpp:100] Creating Layer conv7_2_mbox_conf_perm
I0209 22:43:52.178779  6526 net.cpp:434] conv7_2_mbox_conf_perm <- conv7_2_mbox_conf
I0209 22:43:52.178786  6526 net.cpp:408] conv7_2_mbox_conf_perm -> conv7_2_mbox_conf_perm
I0209 22:43:52.178910  6526 net.cpp:150] Setting up conv7_2_mbox_conf_perm
I0209 22:43:52.178918  6526 net.cpp:157] Top shape: 40 5 5 132 (132000)
I0209 22:43:52.178922  6526 net.cpp:165] Memory required for data: 10107806848
I0209 22:43:52.178925  6526 layer_factory.hpp:77] Creating layer conv7_2_mbox_conf_flat
I0209 22:43:52.178931  6526 net.cpp:100] Creating Layer conv7_2_mbox_conf_flat
I0209 22:43:52.178936  6526 net.cpp:434] conv7_2_mbox_conf_flat <- conv7_2_mbox_conf_perm
I0209 22:43:52.178942  6526 net.cpp:408] conv7_2_mbox_conf_flat -> conv7_2_mbox_conf_flat
I0209 22:43:52.178970  6526 net.cpp:150] Setting up conv7_2_mbox_conf_flat
I0209 22:43:52.178987  6526 net.cpp:157] Top shape: 40 3300 (132000)
I0209 22:43:52.178992  6526 net.cpp:165] Memory required for data: 10108334848
I0209 22:43:52.178994  6526 layer_factory.hpp:77] Creating layer conv7_2_mbox_priorbox
I0209 22:43:52.179004  6526 net.cpp:100] Creating Layer conv7_2_mbox_priorbox
I0209 22:43:52.179008  6526 net.cpp:434] conv7_2_mbox_priorbox <- conv7_2_conv7_2_relu_0_split_3
I0209 22:43:52.179013  6526 net.cpp:434] conv7_2_mbox_priorbox <- data_data_0_split_4
I0209 22:43:52.179021  6526 net.cpp:408] conv7_2_mbox_priorbox -> conv7_2_mbox_priorbox
I0209 22:43:52.179052  6526 net.cpp:150] Setting up conv7_2_mbox_priorbox
I0209 22:43:52.179064  6526 net.cpp:157] Top shape: 1 2 600 (1200)
I0209 22:43:52.179067  6526 net.cpp:165] Memory required for data: 10108339648
I0209 22:43:52.179070  6526 layer_factory.hpp:77] Creating layer conv8_2_mbox_loc
I0209 22:43:52.179081  6526 net.cpp:100] Creating Layer conv8_2_mbox_loc
I0209 22:43:52.179086  6526 net.cpp:434] conv8_2_mbox_loc <- conv8_2_conv8_2_relu_0_split_1
I0209 22:43:52.179093  6526 net.cpp:408] conv8_2_mbox_loc -> conv8_2_mbox_loc
I0209 22:43:52.180389  6526 net.cpp:150] Setting up conv8_2_mbox_loc
I0209 22:43:52.180407  6526 net.cpp:157] Top shape: 40 16 3 3 (5760)
I0209 22:43:52.180410  6526 net.cpp:165] Memory required for data: 10108362688
I0209 22:43:52.180429  6526 layer_factory.hpp:77] Creating layer conv8_2_mbox_loc_perm
I0209 22:43:52.180438  6526 net.cpp:100] Creating Layer conv8_2_mbox_loc_perm
I0209 22:43:52.180441  6526 net.cpp:434] conv8_2_mbox_loc_perm <- conv8_2_mbox_loc
I0209 22:43:52.180447  6526 net.cpp:408] conv8_2_mbox_loc_perm -> conv8_2_mbox_loc_perm
I0209 22:43:52.180570  6526 net.cpp:150] Setting up conv8_2_mbox_loc_perm
I0209 22:43:52.180582  6526 net.cpp:157] Top shape: 40 3 3 16 (5760)
I0209 22:43:52.180584  6526 net.cpp:165] Memory required for data: 10108385728
I0209 22:43:52.180588  6526 layer_factory.hpp:77] Creating layer conv8_2_mbox_loc_flat
I0209 22:43:52.180594  6526 net.cpp:100] Creating Layer conv8_2_mbox_loc_flat
I0209 22:43:52.180598  6526 net.cpp:434] conv8_2_mbox_loc_flat <- conv8_2_mbox_loc_perm
I0209 22:43:52.180604  6526 net.cpp:408] conv8_2_mbox_loc_flat -> conv8_2_mbox_loc_flat
I0209 22:43:52.180634  6526 net.cpp:150] Setting up conv8_2_mbox_loc_flat
I0209 22:43:52.180639  6526 net.cpp:157] Top shape: 40 144 (5760)
I0209 22:43:52.180642  6526 net.cpp:165] Memory required for data: 10108408768
I0209 22:43:52.180646  6526 layer_factory.hpp:77] Creating layer conv8_2_mbox_conf
I0209 22:43:52.180656  6526 net.cpp:100] Creating Layer conv8_2_mbox_conf
I0209 22:43:52.180660  6526 net.cpp:434] conv8_2_mbox_conf <- conv8_2_conv8_2_relu_0_split_2
I0209 22:43:52.180670  6526 net.cpp:408] conv8_2_mbox_conf -> conv8_2_mbox_conf
I0209 22:43:52.183686  6526 net.cpp:150] Setting up conv8_2_mbox_conf
I0209 22:43:52.183702  6526 net.cpp:157] Top shape: 40 88 3 3 (31680)
I0209 22:43:52.183706  6526 net.cpp:165] Memory required for data: 10108535488
I0209 22:43:52.183713  6526 layer_factory.hpp:77] Creating layer conv8_2_mbox_conf_perm
I0209 22:43:52.183722  6526 net.cpp:100] Creating Layer conv8_2_mbox_conf_perm
I0209 22:43:52.183734  6526 net.cpp:434] conv8_2_mbox_conf_perm <- conv8_2_mbox_conf
I0209 22:43:52.183740  6526 net.cpp:408] conv8_2_mbox_conf_perm -> conv8_2_mbox_conf_perm
I0209 22:43:52.183864  6526 net.cpp:150] Setting up conv8_2_mbox_conf_perm
I0209 22:43:52.183873  6526 net.cpp:157] Top shape: 40 3 3 88 (31680)
I0209 22:43:52.183877  6526 net.cpp:165] Memory required for data: 10108662208
I0209 22:43:52.183881  6526 layer_factory.hpp:77] Creating layer conv8_2_mbox_conf_flat
I0209 22:43:52.183887  6526 net.cpp:100] Creating Layer conv8_2_mbox_conf_flat
I0209 22:43:52.183892  6526 net.cpp:434] conv8_2_mbox_conf_flat <- conv8_2_mbox_conf_perm
I0209 22:43:52.183898  6526 net.cpp:408] conv8_2_mbox_conf_flat -> conv8_2_mbox_conf_flat
I0209 22:43:52.183926  6526 net.cpp:150] Setting up conv8_2_mbox_conf_flat
I0209 22:43:52.183933  6526 net.cpp:157] Top shape: 40 792 (31680)
I0209 22:43:52.183948  6526 net.cpp:165] Memory required for data: 10108788928
I0209 22:43:52.183951  6526 layer_factory.hpp:77] Creating layer conv8_2_mbox_priorbox
I0209 22:43:52.183959  6526 net.cpp:100] Creating Layer conv8_2_mbox_priorbox
I0209 22:43:52.183962  6526 net.cpp:434] conv8_2_mbox_priorbox <- conv8_2_conv8_2_relu_0_split_3
I0209 22:43:52.183967  6526 net.cpp:434] conv8_2_mbox_priorbox <- data_data_0_split_5
I0209 22:43:52.183975  6526 net.cpp:408] conv8_2_mbox_priorbox -> conv8_2_mbox_priorbox
I0209 22:43:52.184007  6526 net.cpp:150] Setting up conv8_2_mbox_priorbox
I0209 22:43:52.184021  6526 net.cpp:157] Top shape: 1 2 144 (288)
I0209 22:43:52.184025  6526 net.cpp:165] Memory required for data: 10108790080
I0209 22:43:52.184028  6526 layer_factory.hpp:77] Creating layer conv9_2_mbox_loc
I0209 22:43:52.184039  6526 net.cpp:100] Creating Layer conv9_2_mbox_loc
I0209 22:43:52.184044  6526 net.cpp:434] conv9_2_mbox_loc <- conv9_2_conv9_2_relu_0_split_0
I0209 22:43:52.184051  6526 net.cpp:408] conv9_2_mbox_loc -> conv9_2_mbox_loc
I0209 22:43:52.185561  6526 net.cpp:150] Setting up conv9_2_mbox_loc
I0209 22:43:52.185577  6526 net.cpp:157] Top shape: 40 16 1 1 (640)
I0209 22:43:52.185581  6526 net.cpp:165] Memory required for data: 10108792640
I0209 22:43:52.185588  6526 layer_factory.hpp:77] Creating layer conv9_2_mbox_loc_perm
I0209 22:43:52.185597  6526 net.cpp:100] Creating Layer conv9_2_mbox_loc_perm
I0209 22:43:52.185602  6526 net.cpp:434] conv9_2_mbox_loc_perm <- conv9_2_mbox_loc
I0209 22:43:52.185609  6526 net.cpp:408] conv9_2_mbox_loc_perm -> conv9_2_mbox_loc_perm
I0209 22:43:52.185732  6526 net.cpp:150] Setting up conv9_2_mbox_loc_perm
I0209 22:43:52.185742  6526 net.cpp:157] Top shape: 40 1 1 16 (640)
I0209 22:43:52.185746  6526 net.cpp:165] Memory required for data: 10108795200
I0209 22:43:52.185750  6526 layer_factory.hpp:77] Creating layer conv9_2_mbox_loc_flat
I0209 22:43:52.185756  6526 net.cpp:100] Creating Layer conv9_2_mbox_loc_flat
I0209 22:43:52.185760  6526 net.cpp:434] conv9_2_mbox_loc_flat <- conv9_2_mbox_loc_perm
I0209 22:43:52.185765  6526 net.cpp:408] conv9_2_mbox_loc_flat -> conv9_2_mbox_loc_flat
I0209 22:43:52.185796  6526 net.cpp:150] Setting up conv9_2_mbox_loc_flat
I0209 22:43:52.185804  6526 net.cpp:157] Top shape: 40 16 (640)
I0209 22:43:52.185807  6526 net.cpp:165] Memory required for data: 10108797760
I0209 22:43:52.185811  6526 layer_factory.hpp:77] Creating layer conv9_2_mbox_conf
I0209 22:43:52.185822  6526 net.cpp:100] Creating Layer conv9_2_mbox_conf
I0209 22:43:52.185827  6526 net.cpp:434] conv9_2_mbox_conf <- conv9_2_conv9_2_relu_0_split_1
I0209 22:43:52.185835  6526 net.cpp:408] conv9_2_mbox_conf -> conv9_2_mbox_conf
I0209 22:43:52.188843  6526 net.cpp:150] Setting up conv9_2_mbox_conf
I0209 22:43:52.188860  6526 net.cpp:157] Top shape: 40 88 1 1 (3520)
I0209 22:43:52.188864  6526 net.cpp:165] Memory required for data: 10108811840
I0209 22:43:52.188871  6526 layer_factory.hpp:77] Creating layer conv9_2_mbox_conf_perm
I0209 22:43:52.188879  6526 net.cpp:100] Creating Layer conv9_2_mbox_conf_perm
I0209 22:43:52.188885  6526 net.cpp:434] conv9_2_mbox_conf_perm <- conv9_2_mbox_conf
I0209 22:43:52.188892  6526 net.cpp:408] conv9_2_mbox_conf_perm -> conv9_2_mbox_conf_perm
I0209 22:43:52.189021  6526 net.cpp:150] Setting up conv9_2_mbox_conf_perm
I0209 22:43:52.189030  6526 net.cpp:157] Top shape: 40 1 1 88 (3520)
I0209 22:43:52.189034  6526 net.cpp:165] Memory required for data: 10108825920
I0209 22:43:52.189038  6526 layer_factory.hpp:77] Creating layer conv9_2_mbox_conf_flat
I0209 22:43:52.189043  6526 net.cpp:100] Creating Layer conv9_2_mbox_conf_flat
I0209 22:43:52.189048  6526 net.cpp:434] conv9_2_mbox_conf_flat <- conv9_2_mbox_conf_perm
I0209 22:43:52.189054  6526 net.cpp:408] conv9_2_mbox_conf_flat -> conv9_2_mbox_conf_flat
I0209 22:43:52.189082  6526 net.cpp:150] Setting up conv9_2_mbox_conf_flat
I0209 22:43:52.189090  6526 net.cpp:157] Top shape: 40 88 (3520)
I0209 22:43:52.189093  6526 net.cpp:165] Memory required for data: 10108840000
I0209 22:43:52.189096  6526 layer_factory.hpp:77] Creating layer conv9_2_mbox_priorbox
I0209 22:43:52.189113  6526 net.cpp:100] Creating Layer conv9_2_mbox_priorbox
I0209 22:43:52.189118  6526 net.cpp:434] conv9_2_mbox_priorbox <- conv9_2_conv9_2_relu_0_split_2
I0209 22:43:52.189123  6526 net.cpp:434] conv9_2_mbox_priorbox <- data_data_0_split_6
I0209 22:43:52.189131  6526 net.cpp:408] conv9_2_mbox_priorbox -> conv9_2_mbox_priorbox
I0209 22:43:52.189163  6526 net.cpp:150] Setting up conv9_2_mbox_priorbox
I0209 22:43:52.189179  6526 net.cpp:157] Top shape: 1 2 16 (32)
I0209 22:43:52.189183  6526 net.cpp:165] Memory required for data: 10108840128
I0209 22:43:52.189187  6526 layer_factory.hpp:77] Creating layer mbox_loc
I0209 22:43:52.189200  6526 net.cpp:100] Creating Layer mbox_loc
I0209 22:43:52.189205  6526 net.cpp:434] mbox_loc <- conv4_3_norm_mbox_loc_flat
I0209 22:43:52.189210  6526 net.cpp:434] mbox_loc <- fc7_mbox_loc_flat
I0209 22:43:52.189215  6526 net.cpp:434] mbox_loc <- conv6_2_mbox_loc_flat
I0209 22:43:52.189220  6526 net.cpp:434] mbox_loc <- conv7_2_mbox_loc_flat
I0209 22:43:52.189224  6526 net.cpp:434] mbox_loc <- conv8_2_mbox_loc_flat
I0209 22:43:52.189229  6526 net.cpp:434] mbox_loc <- conv9_2_mbox_loc_flat
I0209 22:43:52.189234  6526 net.cpp:408] mbox_loc -> mbox_loc
I0209 22:43:52.189270  6526 net.cpp:150] Setting up mbox_loc
I0209 22:43:52.189276  6526 net.cpp:157] Top shape: 40 34928 (1397120)
I0209 22:43:52.189280  6526 net.cpp:165] Memory required for data: 10114428608
I0209 22:43:52.189282  6526 layer_factory.hpp:77] Creating layer mbox_conf
I0209 22:43:52.189291  6526 net.cpp:100] Creating Layer mbox_conf
I0209 22:43:52.189296  6526 net.cpp:434] mbox_conf <- conv4_3_norm_mbox_conf_flat
I0209 22:43:52.189301  6526 net.cpp:434] mbox_conf <- fc7_mbox_conf_flat
I0209 22:43:52.189306  6526 net.cpp:434] mbox_conf <- conv6_2_mbox_conf_flat
I0209 22:43:52.189309  6526 net.cpp:434] mbox_conf <- conv7_2_mbox_conf_flat
I0209 22:43:52.189313  6526 net.cpp:434] mbox_conf <- conv8_2_mbox_conf_flat
I0209 22:43:52.189318  6526 net.cpp:434] mbox_conf <- conv9_2_mbox_conf_flat
I0209 22:43:52.189323  6526 net.cpp:408] mbox_conf -> mbox_conf
I0209 22:43:52.189353  6526 net.cpp:150] Setting up mbox_conf
I0209 22:43:52.189359  6526 net.cpp:157] Top shape: 40 192104 (7684160)
I0209 22:43:52.189363  6526 net.cpp:165] Memory required for data: 10145165248
I0209 22:43:52.189366  6526 layer_factory.hpp:77] Creating layer mbox_priorbox
I0209 22:43:52.189373  6526 net.cpp:100] Creating Layer mbox_priorbox
I0209 22:43:52.189376  6526 net.cpp:434] mbox_priorbox <- conv4_3_norm_mbox_priorbox
I0209 22:43:52.189381  6526 net.cpp:434] mbox_priorbox <- fc7_mbox_priorbox
I0209 22:43:52.189385  6526 net.cpp:434] mbox_priorbox <- conv6_2_mbox_priorbox
I0209 22:43:52.189389  6526 net.cpp:434] mbox_priorbox <- conv7_2_mbox_priorbox
I0209 22:43:52.189393  6526 net.cpp:434] mbox_priorbox <- conv8_2_mbox_priorbox
I0209 22:43:52.189398  6526 net.cpp:434] mbox_priorbox <- conv9_2_mbox_priorbox
I0209 22:43:52.189402  6526 net.cpp:408] mbox_priorbox -> mbox_priorbox
I0209 22:43:52.189429  6526 net.cpp:150] Setting up mbox_priorbox
I0209 22:43:52.189435  6526 net.cpp:157] Top shape: 1 2 34928 (69856)
I0209 22:43:52.189437  6526 net.cpp:165] Memory required for data: 10145444672
I0209 22:43:52.189441  6526 layer_factory.hpp:77] Creating layer mbox_loss
I0209 22:43:52.189453  6526 net.cpp:100] Creating Layer mbox_loss
I0209 22:43:52.189457  6526 net.cpp:434] mbox_loss <- mbox_loc
I0209 22:43:52.189461  6526 net.cpp:434] mbox_loss <- mbox_conf
I0209 22:43:52.189465  6526 net.cpp:434] mbox_loss <- mbox_priorbox
…
layer {
  name: "data"
  type: "AnnotatedData"
  top: "data"
  top: "label"
  include {
    phase: TEST
  }
  transform_param {
    mean_value: 126
    mean_value: 100
    mean_value: 108
    mean_value: 113
    resize_param {
      prob: 1
      resize_mode: WARP
      height: 300
      width: 300
      interp_mode: LINEAR
    }
  }
  data_param {
    source: "examples/VOC0712/VOC0712_test_lmdb"
    batch_size: 40
    backend: LMDB
  }
  annotated_data_param {
    batch_sampler {
    }
    label_map_file: "data/VOC0712/labelmap_voc.prototxt"
  }
}
layer {
  name: "conv1_1_rgbd"
  type: "Convolution"
  bottom: "data"
  top: "conv1_1_rgbd"
  param {
    lr_mult: 1
    decay_mult: 1
  }
  param {
    lr_mult: 2
    decay_mult: 0
  }
  convolution_param {
    num_output: 64
    pad: 1
    kernel_size: 3
    weight_filler {
      type: "xavier"
    }
    bias_filler {
      type: "constant"
      value: 0
    }
  }
}
layer {
  name: "relu1_1"
  type: "ReLU"
  bottom: "conv1_1_rgbd"
  top: "conv1_1_rgbd"
}
layer {
  name: "conv1_2"
  type: "Convolution"
  bottom: "conv1_1_rgbd"
  top: "conv1_2"
  param {
    lr_mult: 1
    decay_mult: 1
  }
  param {
    lr_mult: 2
    decay_mult: 0
  }
  convolution_param {
    num_output: 64
    pad: 1
    kernel_size: 3
    weight_filler {
      type: "xavier"
    }
    bias_filler {
      type: "constant"
      value: 0
    }
  }
}
layer {
  name: "relu1_2"
  type: "ReLU"
  bottom: "conv1_2"
  top: "conv1_2"
}
layer {
  name: "pool1"
  type: "Pooling"
  bottom: "conv1_2"
  top: "pool1"
  pooling_param {
    pool: MAX
    kernel_size: 2
    stride: 2
  }
}
layer {
  name: "conv2_1"
  type: "Convolution"
  bottom: "pool1"
  top: "conv2_1"
  param {
    lr_mult: 1
    decay_mult: 1
  }
  param {
    lr_mult: 2
    decay_mult: 0
  }
  convolution_param {
    num_output: 128
    pad: 1
    kernel_size: 3
    weight_filler {
      type: "xavier"
    }
    bias_filler {
      type: "constant"
      value: 0
    }
  }
}
layer {
  name: "relu2_1"
  type: "ReLU"
  bottom: "conv2_1"
  top: "conv2_1"
}
layer {
  name: "conv2_2"
  type: "Convolution"
  bottom: "conv2_1"
  top: "conv2_2"
  param {
    lr_mult: 1
    decay_mult: 1
  }
  param {
    lr_mult: 2
    decay_mult: 0
  }
  convolution_param {
    num_output: 128
    pad: 1
    kernel_size: 3
    weight_filler {
      type: "xavier"
    }
    bias_filler {
      type: "constant"
      value: 0
    }
  }
}
layer {
  name: "relu2_2"
  type: "ReLU"
  bottom: "conv2_2"
  top: "conv2_2"
}
layer {
  name: "pool2"
  type: "Pooling"
  bottom: "conv2_2"
  top: "pool2"
  pooling_param {
    pool: MAX
    kernel_size: 2
    stride: 2
  }
}
layer {
  name: "conv3_1"
  type: "Convolution"
  bottom: "pool2"
  top: "conv3_1"
  param {
    lr_mult: 1
    decay_mult: 1
  }
  param {
    lr_mult: 2
    decay_mult: 0
  }
  convolution_param {
    num_output: 256
    pad: 1
    kernel_size: 3
    weight_filler {
      type: "xavier"
    }
    bias_filler {
      type: "constant"
      value: 0
    }
  }
}
layer {
  name: "relu3_1"
  type: "ReLU"
  bottom: "conv3_1"
  top: "conv3_1"
}
layer {
  name: "conv3_2"
  type: "Convolution"
  bottom: "conv3_1"
  top: "conv3_2"
  param {
    lr_mult: 1
    decay_mult: 1
  }
  param {
    lr_mult: 2
    decay_mult: 0
  }
  convolution_param {
    num_output: 256
    pad: 1
    kernel_size: 3
    weight_filler {
      type: "xavier"
    }
    bias_filler {
      type: "constant"
      value: 0
    }
  }
}
layer {
  name: "relu3_2"
  type: "ReLU"
  bottom: "conv3_2"
  top: "conv3_2"
}
layer {
  name: "conv3_3"
  type: "Convolution"
  bottom: "conv3_2"
  top: "conv3_3"
  param {
    lr_mult: 1
    decay_mult: 1
  }
  param {
    lr_mult: 2
    decay_mult: 0
  }
  convolution_param {
    num_output: 256
    pad: 1
    kernel_size: 3
    weight_filler {
      type: "xavier"
    }
    bias_filler {
      type: "constant"
      value: 0
    }
  }
}
layer {
  name: "relu3_3"
  type: "ReLU"
  bottom: "conv3_3"
  top: "conv3_3"
}
layer {
  name: "pool3"
  type: "Pooling"
  bottom: "conv3_3"
  top: "pool3"
  pooling_param {
    pool: MAX
    kernel_size: 2
    stride: 2
  }
}
layer {
  name: "conv4_1"
  type: "Convolution"
  bottom: "pool3"
  top: "conv4_1"
  param {
    lr_mult: 1
    decay_mult: 1
  }
  param {
    lr_mult: 2
    decay_mult: 0
  }
  convolution_param {
    num_output: 512
    pad: 1
    kernel_size: 3
    weight_filler {
      type: "xavier"
    }
    bias_filler {
      type: "constant"
      value: 0
    }
  }
}
layer {
  name: "relu4_1"
  type: "ReLU"
  bottom: "conv4_1"
  top: "conv4_1"
}
layer {
  name: "conv4_2"
  type: "Convolution"
  bottom: "conv4_1"
  top: "conv4_2"
  param {
    lr_mult: 1
    decay_mult: 1
  }
  param {
    lr_mult: 2
    decay_mult: 0
  }
  convolution_param {
    num_output: 512
    pad: 1
    kernel_size: 3
    weight_filler {
      type: "xavier"
    }
    bias_filler {
      type: "constant"
      value: 0
    }
  }
}
layer {
  name: "relu4_2"
  type: "ReLU"
  bottom: "conv4_2"
  top: "conv4_2"
}
layer {
  name: "conv4_3"
  type: "Convolution"
  bottom: "conv4_2"
  top: "conv4_3"
  param {
    lr_mult: 1
    decay_mult: 1
  }
  param {
    lr_mult: 2
    decay_mult: 0
  }
  convolution_param {
    num_output: 512
    pad: 1
    kernel_size: 3
    weight_filler {
      type: "xavier"
    }
    bias_filler {
      type: "constant"
      value: 0
    }
  }
}
layer {
  name: "relu4_3"
  type: "ReLU"
  bottom: "conv4_3"
  top: "conv4_3"
}
layer {
  name: "pool4"
  type: "Pooling"
  bottom: "conv4_3"
  top: "pool4"
  pooling_param {
    pool: MAX
    kernel_size: 2
    stride: 2
  }
}
layer {
  name: "conv5_1"
  type: "Convolution"
  bottom: "pool4"
  top: "conv5_1"
  param {
    lr_mult: 1
    decay_mult: 1
  }
  param {
    lr_mult: 2
    decay_mult: 0
  }
  convolution_param {
    num_output: 512
    pad: 1
    kernel_size: 3
    weight_filler {
      type: "xavier"
    }
    bias_filler {
      type: "constant"
      value: 0
    }
    dilation: 1
  }
}
layer {
  name: "relu5_1"
  type: "ReLU"
  bottom: "conv5_1"
  top: "conv5_1"
}
layer {
  name: "conv5_2"
  type: "Convolution"
  bottom: "conv5_1"
  top: "conv5_2"
  param {
    lr_mult: 1
    decay_mult: 1
  }
  param {
    lr_mult: 2
    decay_mult: 0
  }
  convolution_param {
    num_output: 512
    pad: 1
    kernel_size: 3
    weight_filler {
      type: "xavier"
    }
    bias_filler {
      type: "constant"
      value: 0
    }
    dilation: 1
  }
}
layer {
  name: "relu5_2"
  type: "ReLU"
  bottom: "conv5_2"
  top: "conv5_2"
}
layer {
  name: "conv5_3"
  type: "Convolution"
  bottom: "conv5_2"
  top: "conv5_3"
  param {
    lr_mult: 1
    decay_mult: 1
  }
  param {
    lr_mult: 2
    decay_mult: 0
  }
  convolution_param {
    num_output: 512
    pad: 1
    kernel_size: 3
    weight_filler {
      type: "xavier"
    }
    bias_filler {
      type: "constant"
      value: 0
    }
    dilation: 1
  }
}
layer {
  name: "relu5_3"
  type: "ReLU"
  bottom: "conv5_3"
  top: "conv5_3"
}
layer {
  name: "pool5"
  type: "Pooling"
  bottom: "conv5_3"
  top: "pool5"
  pooling_param {
    pool: MAX
    kernel_size: 3
    stride: 1
    pad: 1
  }
}
layer {
  name: "fc6"
  type: "Convolution"
  bottom: "pool5"
  top: "fc6"
  param {
    lr_mult: 1
    decay_mult: 1
  }
  param {
    lr_mult: 2
    decay_mult: 0
  }
  convolution_param {
    num_output: 1024
    pad: 6
    kernel_size: 3
    weight_filler {
      type: "xavier"
    }
    bias_filler {
      type: "constant"
      value: 0
    }
    dilation: 6
  }
}
layer {
  name: "relu6"
  type: "ReLU"
  bottom: "fc6"
  top: "fc6"
}
layer {
  name: "fc7"
  type: "Convolution"
  bottom: "fc6"
  top: "fc7"
  param {
    lr_mult: 1
    decay_mult: 1
  }
  param {
    lr_mult: 2
    decay_mult: 0
  }
  convolution_param {
    num_output: 1024
    kernel_size: 1
    weight_filler {
      type: "xavier"
    }
    bias_filler {
      type: "constant"
      value: 0
    }
  }
}
layer {
  name: "relu7"
  type: "ReLU"
  bottom: "fc7"
  top: "fc7"
}
layer {
  name: "conv6_1"
  type: "Convolution"
  bottom: "fc7"
  top: "conv6_1"
  param {
    lr_mult: 1
    decay_mult: 1
  }
  param {
    lr_mult: 2
    decay_mult: 0
  }
  convolution_param {
    num_output: 256
    pad: 0
    kernel_size: 1
    stride: 1
    weight_filler {
      type: "xavier"
    }
    bias_filler {
      type: "constant"
      value: 0
    }
  }
}
layer {
  name: "conv6_1_relu"
  type: "ReLU"
  bottom: "conv6_1"
  top: "conv6_1"
}
layer {
  name: "conv6_2"
  type: "Convolution"
  bottom: "conv6_1"
  top: "conv6_2"
  param {
    lr_mult: 1
    decay_mult: 1
  }
  param {
    lr_mult: 2
    decay_mult: 0
  }
  convolution_param {
    num_output: 512
    pad: 1
    kernel_size: 3
    stride: 2
    weight_filler {
      type: "xavier"
    }
    bias_filler {
      type: "constant"
      value: 0
    }
  }
}
layer {
  name: "conv6_2_relu"
  type: "ReLU"
  bottom: "conv6_2"
  top: "conv6_2"
}
layer {
  name: "conv7_1"
  type: "Convolution"
  bottom: "conv6_2"
  top: "conv7_1"
  param {
    lr_mult: 1
    decay_mult: 1
  }
  param {
    lr_mult: 2
    decay_mult: 0
  }
  convolution_param {
    num_output: 128
    pad: 0
    kernel_size: 1
    stride: 1
    weight_filler {
      type: "xavier"
    }
    bias_filler {
      type: "constant"
      value: 0
    }
  }
}
layer {
  name: "conv7_1_relu"
  type: "ReLU"
  bottom: "conv7_1"
  top: "conv7_1"
}
layer {
  name: "conv7_2"
  type: "Convolution"
  bottom: "conv7_1"
  top: "conv7_2"
  param {
    lr_mult: 1
    decay_mult: 1
  }
  param {
    lr_mult: 2
    decay_mult: 0
  }
  convolution_param {
    num_output: 256
    pad: 1
    kernel_size: 3
    stride: 2
    weight_filler {
      type: "xavier"
    }
    bias_filler {
      type: "constant"
      value: 0
    }
  }
}
layer {
  name: "conv7_2_relu"
  type: "ReLU"
  bottom: "conv7_2"
  top: "conv7_2"
}
layer {
  name: "conv8_1"
  type: "Convolution"
  bottom: "conv7_2"
  top: "conv8_1"
  param {
    lr_mult: 1
    decay_mult: 1
  }
  param {
    lr_mult: 2
    decay_mult: 0
  }
  convolution_param {
    num_output: 128
    pad: 0
    kernel_size: 1
    stride: 1
    weight_filler {
      type: "xavier"
    }
    bias_filler {
      type: "constant"
      value: 0
    }
  }
}
layer {
  name: "conv8_1_relu"
  type: "ReLU"
  bottom: "conv8_1"
  top: "conv8_1"
}
layer {
  name: "conv8_2"
  type: "Convolution"
  bottom: "conv8_1"
  top: "conv8_2"
  param {
    lr_mult: 1
    decay_mult: 1
  }
  param {
    lr_mult: 2
    decay_mult: 0
  }
  convolution_param {
    num_output: 256
    pad: 0
    kernel_size: 3
    stride: 1
    weight_filler {
      type: "xavier"
    }
    bias_filler {
      type: "constant"
      value: 0
    }
  }
}
layer {
  name: "conv8_2_relu"
  type: "ReLU"
  bottom: "conv8_2"
  top: "conv8_2"
}
layer {
  name: "conv9_1"
  type: "Convolution"
  bottom: "conv8_2"
  top: "conv9_1"
  param {
    lr_mult: 1
    decay_mult: 1
  }
  param {
    lr_mult: 2
    decay_mult: 0
  }
  convolution_param {
    num_output: 128
    pad: 0
    kernel_size: 1
    stride: 1
    weight_filler {
      type: "xavier"
    }
    bias_filler {
      type: "constant"
      value: 0
    }
  }
}
layer {
  name: "conv9_1_relu"
  type: "ReLU"
  bottom: "conv9_1"
  top: "conv9_1"
}
layer {
  name: "conv9_2"
  type: "Convolution"
  bottom: "conv9_1"
  top: "conv9_2"
  param {
    lr_mult: 1
    decay_mult: 1
  }
  param {
    lr_mult: 2
    decay_mult: 0
  }
  convolution_param {
    num_output: 256
    pad: 0
    kernel_size: 3
    stride: 1
    weight_filler {
      type: "xavier"
    }
    bias_filler {
      type: "constant"
      value: 0
    }
  }
}
layer {
  name: "conv9_2_relu"
  type: "ReLU"
  bottom: "conv9_2"
  top: "conv9_2"
}
layer {
  name: "conv4_3_norm"
  type: "Normalize"
  bottom: "conv4_3"
  top: "conv4_3_norm"
  norm_param {
    across_spatial: false
    scale_filler {
      type: "constant"
      value: 20
    }
    channel_shared: false
  }
}
layer {
  name: "conv4_3_norm_mbox_loc"
  type: "Convolution"
  bottom: "conv4_3_norm"
  top: "conv4_3_norm_mbox_loc"
  param {
    lr_mult: 1
    decay_mult: 1
  }
  param {
    lr_mult: 2
    decay_mult: 0
  }
  convolution_param {
    num_output: 16
    pad: 1
    kernel_size: 3
    stride: 1
    weight_filler {
      type: "xavier"
    }
    bias_filler {
      type: "constant"
      value: 0
    }
  }
}
layer {
  name: "conv4_3_norm_mbox_loc_perm"
  type: "Permute"
  bottom: "conv4_3_norm_mbox_loc"
  top: "conv4_3_norm_mbox_loc_perm"
  permute_param {
    order: 0
    order: 2
    order: 3
    order: 1
  }
}
layer {
  name: "conv4_3_norm_mbox_loc_flat"
  type: "Flatten"
  bottom: "conv4_3_norm_mbox_loc_perm"
  top: "conv4_3_norm_mbox_loc_flat"
  flatten_param {
    axis: 1
  }
}
layer {
  name: "conv4_3_norm_mbox_conf"
  type: "Convolution"
  bottom: "conv4_3_norm"
  top: "conv4_3_norm_mbox_conf"
  param {
    lr_mult: 1
    decay_mult: 1
  }
  param {
    lr_mult: 2
    decay_mult: 0
  }
  convolution_param {
    num_output: 88
    pad: 1
    kernel_size: 3
    stride: 1
    weight_filler {
      type: "xavier"
    }
    bias_filler {
      type: "constant"
      value: 0
    }
  }
}
layer {
  name: "conv4_3_norm_mbox_conf_perm"
  type: "Permute"
  bottom: "conv4_3_norm_mbox_conf"
  top: "conv4_3_norm_mbox_conf_perm"
  permute_param {
    order: 0
    order: 2
    order: 3
    order: 1
  }
}
layer {
  name: "conv4_3_norm_mbox_conf_flat"
  type: "Flatten"
  bottom: "conv4_3_norm_mbox_conf_perm"
  top: "conv4_3_norm_mbox_conf_flat"
  flatten_param {
    axis: 1
  }
}
layer {
  name: "conv4_3_norm_mbox_priorbox"
  type: "PriorBox"
  bottom: "conv4_3_norm"
  bottom: "data"
  top: "conv4_3_norm_mbox_priorbox"
  prior_box_param {
    min_size: 30
    max_size: 60
    aspect_ratio: 2
    flip: true
    clip: false
    variance: 0.1
    variance: 0.1
    variance: 0.2
    variance: 0.2
    step: 8
    offset: 0.5
  }
}
layer {
  name: "fc7_mbox_loc"
  type: "Convolution"
  bottom: "fc7"
  top: "fc7_mbox_loc"
  param {
    lr_mult: 1
    decay_mult: 1
  }
  param {
    lr_mult: 2
    decay_mult: 0
  }
  convolution_param {
    num_output: 24
    pad: 1
    kernel_size: 3
    stride: 1
    weight_filler {
      type: "xavier"
    }
    bias_filler {
      type: "constant"
      value: 0
    }
  }
}
layer {
  name: "fc7_mbox_loc_perm"
  type: "Permute"
  bottom: "fc7_mbox_loc"
  top: "fc7_mbox_loc_perm"
  permute_param {
    order: 0
    order: 2
    order: 3
    order: 1
  }
}
layer {
  name: "fc7_mbox_loc_flat"
  type: "Flatten"
  bottom: "fc7_mbox_loc_perm"
  top: "fc7_mbox_loc_flat"
  flatten_param {
    axis: 1
  }
}
layer {
  name: "fc7_mbox_conf"
  type: "Convolution"
  bottom: "fc7"
  top: "fc7_mbox_conf"
  param {
    lr_mult: 1
    decay_mult: 1
  }
  param {
    lr_mult: 2
    decay_mult: 0
  }
  convolution_param {
    num_output: 132
    pad: 1
    kernel_size: 3
    stride: 1
    weight_filler {
      type: "xavier"
    }
    bias_filler {
      type: "constant"
      value: 0
    }
  }
}
layer {
  name: "fc7_mbox_conf_perm"
  type: "Permute"
  bottom: "fc7_mbox_conf"
  top: "fc7_mbox_conf_perm"
  permute_param {
    order: 0
    order: 2
    order: 3
    order: 1
  }
}
layer {
  name: "fc7_mbox_conf_flat"
  type: "Flatten"
  bottom: "fc7_mbox_conf_perm"
  top: "fc7_mbox_conf_flat"
  flatten_param {
    axis: 1
  }
}
layer {
  name: "fc7_mbox_priorbox"
  type: "PriorBox"
  bottom: "fc7"
  bottom: "data"
  top: "fc7_mbox_priorbox"
  prior_box_param {
    min_size: 60
    max_size: 111
    aspect_ratio: 2
    aspect_ratio: 3
    flip: true
    clip: false
    variance: 0.1
    variance: 0.1
    variance: 0.2
    variance: 0.2
    step: 16
    offset: 0.5
  }
}
layer {
  name: "conv6_2_mbox_loc"
  type: "Convolution"
  bottom: "conv6_2"
  top: "conv6_2_mbox_loc"
  param {
    lr_mult: 1
    decay_mult: 1
  }
  param {
    lr_mult: 2
    decay_mult: 0
  }
  convolution_param {
    num_output: 24
    pad: 1
    kernel_size: 3
    stride: 1
    weight_filler {
      type: "xavier"
    }
    bias_filler {
      type: "constant"
      value: 0
    }
  }
}
layer {
  name: "conv6_2_mbox_loc_perm"
  type: "Permute"
  bottom: "conv6_2_mbox_loc"
  top: "conv6_2_mbox_loc_perm"
  permute_param {
    order: 0
    order: 2
    order: 3
    order: 1
  }
}
layer {
  name: "conv6_2_mbox_loc_flat"
  type: "Flatten"
  bottom: "conv6_2_mbox_loc_perm"
  top: "conv6_2_mbox_loc_flat"
  flatten_param {
    axis: 1
  }
}
layer {
  name: "conv6_2_mbox_conf"
  type: "Convolution"
  bottom: "conv6_2"
  top: "conv6_2_mbox_conf"
  param {
    lr_mult: 1
    decay_mult: 1
  }
  param {
    lr_mult: 2
    decay_mult: 0
  }
  convolution_param {
    num_output: 132
    pad: 1
    kernel_size: 3
    stride: 1
    weight_filler {
      type: "xavier"
    }
    bias_filler {
      type: "constant"
      value: 0
    }
  }
}
layer {
  name: "conv6_2_mbox_conf_perm"
  type: "Permute"
  bottom: "conv6_2_mbox_conf"
  top: "conv6_2_mbox_conf_perm"
  permute_param {
    order: 0
    order: 2
    order: 3
    order: 1
  }
}
layer {
  name: "conv6_2_mbox_conf_flat"
  type: "Flatten"
  bottom: "conv6_2_mbox_conf_perm"
  top: "conv6_2_mbox_conf_flat"
  flatten_param {
    axis: 1
  }
}
layer {
  name: "conv6_2_mbox_priorbox"
  type: "PriorBox"
  bottom: "conv6_2"
  bottom: "data"
  top: "conv6_2_mbox_priorbox"
  prior_box_param {
    min_size: 111
    max_size: 162
    aspect_ratio: 2
    aspect_ratio: 3
    flip: true
    clip: false
    variance: 0.1
    variance: 0.1
    variance: 0.2
    variance: 0.2
    step: 32
    offset: 0.5
  }
}
layer {
  name: "conv7_2_mbox_loc"
  type: "Convolution"
  bottom: "conv7_2"
  top: "conv7_2_mbox_loc"
  param {
    lr_mult: 1
    decay_mult: 1
  }
  param {
    lr_mult: 2
    decay_mult: 0
  }
  convolution_param {
    num_output: 24
    pad: 1
    kernel_size: 3
    stride: 1
    weight_filler {
      type: "xavier"
    }
    bias_filler {
      type: "constant"
      value: 0
    }
  }
}
layer {
  name: "conv7_2_mbox_loc_perm"
  type: "Permute"
  bottom: "conv7_2_mbox_loc"
  top: "conv7_2_mbox_loc_perm"
  permute_param {
    order: 0
    order: 2
    order: 3
    order: 1
  }
}
layer {
  name: "conv7_2_mbox_loc_flat"
  type: "Flatten"
  bottom: "conv7_2_mbox_loc_perm"
  top: "conv7_2_mbox_loc_flat"
  flatten_param {
    axis: 1
  }
}
layer {
  name: "conv7_2_mbox_conf"
  type: "Convolution"
  bottom: "conv7_2"
  top: "conv7_2_mbox_conf"
  param {
    lr_mult: 1
    decay_mult: 1
  }
  param {
    lr_mult: 2
    decay_mult: 0
  }
  convolution_param {
    num_output: 132
    pad: 1
    kernel_size: 3
    stride: 1
    weight_filler {
      type: "xavier"
    }
    bias_filler {
      type: "constant"
      value: 0
    }
  }
}
layer {
  name: "conv7_2_mbox_conf_perm"
  type: "Permute"
  bottom: "conv7_2_mbox_conf"
  top: "conv7_2_mbox_conf_perm"
  permute_param {
    order: 0
    order: 2
    order: 3
    order: 1
  }
}
layer {
  name: "conv7_2_mbox_conf_flat"
  type: "Flatten"
  bottom: "conv7_2_mbox_conf_perm"
  top: "conv7_2_mbox_conf_flat"
  flatten_param {
    axis: 1
  }
}
layer {
  name: "conv7_2_mbox_priorbox"
  type: "PriorBox"
  bottom: "conv7_2"
  bottom: "data"
  top: "conv7_2_mbox_priorbox"
  prior_box_param {
    min_size: 162
    max_size: 213
    aspect_ratio: 2
    aspect_ratio: 3
    flip: true
    clip: false
    variance: 0.1
    variance: 0.1
    variance: 0.2
    variance: 0.2
    step: 64
    offset: 0.5
  }
}
layer {
  name: "conv8_2_mbox_loc"
  type: "Convolution"
  bottom: "conv8_2"
  top: "conv8_2_mbox_loc"
  param {
    lr_mult: 1
    decay_mult: 1
  }
  param {
    lr_mult: 2
    decay_mult: 0
  }
  convolution_param {
    num_output: 16
    pad: 1
    kernel_size: 3
    stride: 1
    weight_filler {
      type: "xavier"
    }
    bias_filler {
      type: "constant"
      value: 0
    }
  }
}
layer {
  name: "conv8_2_mbox_loc_perm"
  type: "Permute"
  bottom: "conv8_2_mbox_loc"
  top: "conv8_2_mbox_loc_perm"
  permute_param {
    order: 0
    order: 2
    order: 3
    order: 1
  }
}
layer {
  name: "conv8_2_mbox_loc_flat"
  type: "Flatten"
  bottom: "conv8_2_mbox_loc_perm"
  top: "conv8_2_mbox_loc_flat"
  flatten_param {
    axis: 1
  }
}
layer {
  name: "conv8_2_mbox_conf"
  type: "Convolution"
  bottom: "conv8_2"
  top: "conv8_2_mbox_conf"
  param {
    lr_mult: 1
    decay_mult: 1
  }
  param {
    lr_mult: 2
    decay_mult: 0
  }
  convolution_param {
    num_output: 88
    pad: 1
    kernel_size: 3
    stride: 1
    weight_filler {
      type: "xavier"
    }
    bias_filler {
      type: "constant"
      value: 0
    }
  }
}
layer {
  name: "conv8_2_mbox_conf_perm"
  type: "Permute"
  bottom: "conv8_2_mbox_conf"
  top: "conv8_2_mbox_conf_perm"
  permute_param {
    order: 0
    order: 2
    order: 3
    order: 1
  }
}
layer {
  name: "conv8_2_mbox_conf_flat"
  type: "Flatten"
  bottom: "conv8_2_mbox_conf_perm"
  top: "conv8_2_mbox_conf_flat"
  flatten_param {
    axis: 1
  }
}
layer {
  name: "conv8_2_mbox_priorbox"
  type: "PriorBox"
  bottom: "conv8_2"
  bottom: "data"
  top: "conv8_2_mbox_priorbox"
  prior_box_param {
    min_size: 213
    max_size: 264
    aspect_ratio: 2
    flip: true
    clip: false
    variance: 0.1
    variance: 0.1
    variance: 0.2
    variance: 0.2
    step: 100
    offset: 0.5
  }
}
layer {
  name: "conv9_2_mbox_loc"
  type: "Convolution"
  bottom: "conv9_2"
  top: "conv9_2_mbox_loc"
  param {
    lr_mult: 1
    decay_mult: 1
  }
  param {
    lr_mult: 2
    decay_mult: 0
  }
  convolution_param {
    num_output: 16
    pad: 1
    kernel_size: 3
    stride: 1
    weight_filler {
      type: "xavier"
    }
    bias_filler {
      type: "constant"
      value: 0
    }
  }
}
layer {
  name: "conv9_2_mbox_loc_perm"
  type: "Permute"
  bottom: "conv9_2_mbox_loc"
  top: "conv9_2_mbox_loc_perm"
  permute_param {
    order: 0
    order: 2
    order: 3
    order: 1
  }
}
layer {
  name: "conv9_2_mbox_loc_flat"
  type: "Flatten"
  bottom: "conv9_2_mbox_loc_perm"
  top: "conv9_2_mbox_loc_flat"
  flatten_param {
    axis: 1
  }
}
layer {
  name: "conv9_2_mbox_conf"
  type: "Convolution"
  bottom: "conv9_2"
  top: "conv9_2_mbox_conf"
  param {
    lr_mult: 1
    decay_mult: 1
  }
  param {
    lr_mult: 2
    decay_mult: 0
  }
  convolution_param {
    num_output: 88
    pad: 1
    kernel_size: 3
    stride: 1
    weight_filler {
      type: "xavier"
    }
    bias_filler {
      type: "constant"
      value: 0
    }
  }
}
layer {
  name: "conv9_2_mbox_conf_perm"
  type: "Permute"
  bottom: "conv9_2_mbox_conf"
  top: "conv9_2_mbox_conf_perm"
  permute_param {
    order: 0
    order: 2
    order: 3
    order: 1
  }
}
layer {
  name: "conv9_2_mbox_conf_flat"
  type: "Flatten"
  bottom: "conv9_2_mbox_conf_perm"
  top: "conv9_2_mbox_conf_flat"
  flatten_param {
    axis: 1
  }
}
layer {
  name: "conv9_2_mbox_priorbox"
  type: "PriorBox"
  bottom: "conv9_2"
  bottom: "data"
  top: "conv9_2_mbox_priorbox"
  prior_box_param {
    min_size: 264
    max_size: 315
    aspect_ratio: 2
    flip: true
    clip: false
    variance: 0.1
    variance: 0.1
    variance: 0.2
    variance: 0.2
    step: 300
    offset: 0.5
  }
}
layer {
  name: "mbox_loc"
  type: "Concat"
  bottom: "conv4_3_norm_mbox_loc_flat"
  bottom: "fc7_mbox_loc_flat"
  bottom: "conv6_2_mbox_loc_flat"
  bottom: "conv7_2_mbox_loc_flat"
  bottom: "conv8_2_mbox_loc_flat"
  bottom: "conv9_2_mbox_loc_flat"
  top: "mbox_loc"
  concat_param {
    axis: 1
  }
}
layer {
  name: "mbox_conf"
  type: "Concat"
  bottom: "conv4_3_norm_mbox_conf_flat"
  bottom: "fc7_mbox_conf_flat"
  bottom: "conv6_2_mbox_conf_flat"
  bottom: "conv7_2_mbox_conf_flat"
  bottom: "conv8_2_mbox_conf_flat"
  bottom: "conv9_2_mbox_conf_flat"
  top: "mbox_conf"
  concat_param {
    axis: 1
  }
}
layer {
  name: "mbox_priorbox"
  type: "Concat"
  bottom: "conv4_3_norm_mbox_priorbox"
  bottom: "fc7_mbox_priorbox"
  bottom: "conv6_2_mbox_priorbox"
  bottom: "conv7_2_mbox_priorbox"
  bottom: "conv8_2_mbox_priorbox"
  bottom: "conv9_2_mbox_priorbox"
  top: "mbox_priorbox"
  concat_param {
    axis: 2
  }
}
layer {
  name: "mbox_conf_reshape"
  type: "Reshape"
  bottom: "mbox_conf"
  top: "mbox_conf_reshape"
  reshape_param {
    shape {
      dim: 0
      dim: -1
      dim: 22
    }
  }
}
layer {
  name: "mbox_conf_softmax"
  type: "Softmax"
  bottom: "mbox_conf_reshape"
  top: "mbox_conf_softmax"
  softmax_param {
    axis: 2
  }
}
layer {
  name: "mbox_conf_flatten"
  type: "Flatten"
  bottom: "mbox_conf_softmax"
  top: "mbox_conf_flatten"
  flatten_param {
    axis: 1
  }
}
layer {
  name: "detection_out"
  type: "DetectionOutput"
  bottom: "mbox_loc"
  bottom: "mbox_conf_flatten"
  bottom: "mbox_priorbox"
  top: "detection_out"
  include {
    phase: TEST
  }
  detection_output_param {
    num_classes: 22
    share_location: true
    background_label_id: 0
    nms_param {
      nms_threshold: 0.45
      top_k: 400
    }
    save_output_param {
      output_directory: "/home/dhall/data/VOCdevkit/results/VOC2007/SSD_RGBD_test_300x300/Main"
      output_name_prefix: "comp4_det_test_"
      output_format: "VOC"
      label_map_file: "data/VOC0712/labelmap_voc.prototxt"
      name_size_file: "data/VOC0712/test_name_size.txt"
      num_test_image: 2
    }
    code_type: CENTER_SIZE
    keep_top_k: 200
    confidence_threshold: 0.01
  }
}
layer {
  name: "detection_eval"
  type: "DetectionEvaluate"
  bottom: "detection_out"
  bottom: "label"
  top: "detection_eval"
  include {
    phase: TEST
  }
  detection_evaluate_param {
    num_classes: 22
    background_label_id: 0
    overlap_threshold: 0.5
    evaluate_difficult_gt: false
    name_size_file: "data/VOC0712/test_name_size.txt"
  }
}
I0209 22:43:52.194185  6526 layer_factory.hpp:77] Creating layer data
I0209 22:43:52.194268  6526 net.cpp:100] Creating Layer data
I0209 22:43:52.194278  6526 net.cpp:408] data -> data
I0209 22:43:52.194290  6526 net.cpp:408] data -> label
I0209 22:43:52.196172  6547 db_lmdb.cpp:35] Opened lmdb examples/VOC0712/VOC0712_test_lmdb
I0209 22:43:52.208945  6526 annotated_data_layer.cpp:62] output data size: 40,4,300,300
I0209 22:43:52.287010  6526 net.cpp:150] Setting up data
I0209 22:43:52.287050  6526 net.cpp:157] Top shape: 40 4 300 300 (14400000)
I0209 22:43:52.287057  6526 net.cpp:157] Top shape: 1 1 6 8 (48)
I0209 22:43:52.287060  6526 net.cpp:165] Memory required for data: 57600192
I0209 22:43:52.287067  6526 layer_factory.hpp:77] Creating layer data_data_0_split
I0209 22:43:52.287081  6526 net.cpp:100] Creating Layer data_data_0_split
I0209 22:43:52.287086  6526 net.cpp:434] data_data_0_split <- data
I0209 22:43:52.287094  6526 net.cpp:408] data_data_0_split -> data_data_0_split_0
I0209 22:43:52.287106  6526 net.cpp:408] data_data_0_split -> data_data_0_split_1
I0209 22:43:52.287113  6526 net.cpp:408] data_data_0_split -> data_data_0_split_2
I0209 22:43:52.287120  6526 net.cpp:408] data_data_0_split -> data_data_0_split_3
I0209 22:43:52.287127  6526 net.cpp:408] data_data_0_split -> data_data_0_split_4
I0209 22:43:52.287132  6526 net.cpp:408] data_data_0_split -> data_data_0_split_5
I0209 22:43:52.287137  6526 net.cpp:408] data_data_0_split -> data_data_0_split_6
I0209 22:43:52.287327  6526 net.cpp:150] Setting up data_data_0_split
I0209 22:43:52.287336  6526 net.cpp:157] Top shape: 40 4 300 300 (14400000)
I0209 22:43:52.287341  6526 net.cpp:157] Top shape: 40 4 300 300 (14400000)
I0209 22:43:52.287345  6526 net.cpp:157] Top shape: 40 4 300 300 (14400000)
I0209 22:43:52.287349  6526 net.cpp:157] Top shape: 40 4 300 300 (14400000)
I0209 22:43:52.287353  6526 net.cpp:157] Top shape: 40 4 300 300 (14400000)
I0209 22:43:52.287358  6526 net.cpp:157] Top shape: 40 4 300 300 (14400000)
I0209 22:43:52.287362  6526 net.cpp:157] Top shape: 40 4 300 300 (14400000)
I0209 22:43:52.287365  6526 net.cpp:165] Memory required for data: 460800192
I0209 22:43:52.287369  6526 layer_factory.hpp:77] Creating layer conv1_1_rgbd
I0209 22:43:52.287382  6526 net.cpp:100] Creating Layer conv1_1_rgbd
I0209 22:43:52.287386  6526 net.cpp:434] conv1_1_rgbd <- data_data_0_split_0
I0209 22:43:52.287394  6526 net.cpp:408] conv1_1_rgbd -> conv1_1_rgbd
I0209 22:43:52.289091  6526 net.cpp:150] Setting up conv1_1_rgbd
I0209 22:43:52.289108  6526 net.cpp:157] Top shape: 40 64 300 300 (230400000)
I0209 22:43:52.289113  6526 net.cpp:165] Memory required for data: 1382400192
I0209 22:43:52.289124  6526 layer_factory.hpp:77] Creating layer relu1_1
I0209 22:43:52.289132  6526 net.cpp:100] Creating Layer relu1_1
I0209 22:43:52.289136  6526 net.cpp:434] relu1_1 <- conv1_1_rgbd
I0209 22:43:52.289141  6526 net.cpp:395] relu1_1 -> conv1_1_rgbd (in-place)
I0209 22:43:52.289559  6526 net.cpp:150] Setting up relu1_1
I0209 22:43:52.289573  6526 net.cpp:157] Top shape: 40 64 300 300 (230400000)
I0209 22:43:52.289577  6526 net.cpp:165] Memory required for data: 2304000192
I0209 22:43:52.289582  6526 layer_factory.hpp:77] Creating layer conv1_2
I0209 22:43:52.289592  6526 net.cpp:100] Creating Layer conv1_2
I0209 22:43:52.289597  6526 net.cpp:434] conv1_2 <- conv1_1_rgbd
I0209 22:43:52.289603  6526 net.cpp:408] conv1_2 -> conv1_2
I0209 22:43:52.291631  6526 net.cpp:150] Setting up conv1_2
I0209 22:43:52.291648  6526 net.cpp:157] Top shape: 40 64 300 300 (230400000)
I0209 22:43:52.291653  6526 net.cpp:165] Memory required for data: 3225600192
I0209 22:43:52.291663  6526 layer_factory.hpp:77] Creating layer relu1_2
I0209 22:43:52.291671  6526 net.cpp:100] Creating Layer relu1_2
I0209 22:43:52.291676  6526 net.cpp:434] relu1_2 <- conv1_2
I0209 22:43:52.291682  6526 net.cpp:395] relu1_2 -> conv1_2 (in-place)
I0209 22:43:52.291873  6526 net.cpp:150] Setting up relu1_2
I0209 22:43:52.291884  6526 net.cpp:157] Top shape: 40 64 300 300 (230400000)
I0209 22:43:52.291888  6526 net.cpp:165] Memory required for data: 4147200192
I0209 22:43:52.291893  6526 layer_factory.hpp:77] Creating layer pool1
I0209 22:43:52.291899  6526 net.cpp:100] Creating Layer pool1
I0209 22:43:52.291903  6526 net.cpp:434] pool1 <- conv1_2
I0209 22:43:52.291908  6526 net.cpp:408] pool1 -> pool1
I0209 22:43:52.291965  6526 net.cpp:150] Setting up pool1
I0209 22:43:52.291972  6526 net.cpp:157] Top shape: 40 64 150 150 (57600000)
I0209 22:43:52.291976  6526 net.cpp:165] Memory required for data: 4377600192
I0209 22:43:52.291980  6526 layer_factory.hpp:77] Creating layer conv2_1
I0209 22:43:52.291992  6526 net.cpp:100] Creating Layer conv2_1
I0209 22:43:52.291996  6526 net.cpp:434] conv2_1 <- pool1
I0209 22:43:52.292002  6526 net.cpp:408] conv2_1 -> conv2_1
I0209 22:43:52.293787  6526 net.cpp:150] Setting up conv2_1
I0209 22:43:52.293803  6526 net.cpp:157] Top shape: 40 128 150 150 (115200000)
I0209 22:43:52.293807  6526 net.cpp:165] Memory required for data: 4838400192
I0209 22:43:52.293818  6526 layer_factory.hpp:77] Creating layer relu2_1
I0209 22:43:52.293828  6526 net.cpp:100] Creating Layer relu2_1
I0209 22:43:52.293831  6526 net.cpp:434] relu2_1 <- conv2_1
I0209 22:43:52.293836  6526 net.cpp:395] relu2_1 -> conv2_1 (in-place)
I0209 22:43:52.294024  6526 net.cpp:150] Setting up relu2_1
I0209 22:43:52.294035  6526 net.cpp:157] Top shape: 40 128 150 150 (115200000)
I0209 22:43:52.294039  6526 net.cpp:165] Memory required for data: 5299200192
I0209 22:43:52.294044  6526 layer_factory.hpp:77] Creating layer conv2_2
I0209 22:43:52.294075  6526 net.cpp:100] Creating Layer conv2_2
I0209 22:43:52.294080  6526 net.cpp:434] conv2_2 <- conv2_1
I0209 22:43:52.294086  6526 net.cpp:408] conv2_2 -> conv2_2
I0209 22:43:52.296936  6526 net.cpp:150] Setting up conv2_2
I0209 22:43:52.296954  6526 net.cpp:157] Top shape: 40 128 150 150 (115200000)
I0209 22:43:52.296959  6526 net.cpp:165] Memory required for data: 5760000192
I0209 22:43:52.296967  6526 layer_factory.hpp:77] Creating layer relu2_2
I0209 22:43:52.296974  6526 net.cpp:100] Creating Layer relu2_2
I0209 22:43:52.296978  6526 net.cpp:434] relu2_2 <- conv2_2
I0209 22:43:52.296984  6526 net.cpp:395] relu2_2 -> conv2_2 (in-place)
I0209 22:43:52.297303  6526 net.cpp:150] Setting up relu2_2
I0209 22:43:52.297317  6526 net.cpp:157] Top shape: 40 128 150 150 (115200000)
I0209 22:43:52.297322  6526 net.cpp:165] Memory required for data: 6220800192
I0209 22:43:52.297325  6526 layer_factory.hpp:77] Creating layer pool2
I0209 22:43:52.297333  6526 net.cpp:100] Creating Layer pool2
I0209 22:43:52.297338  6526 net.cpp:434] pool2 <- conv2_2
I0209 22:43:52.297343  6526 net.cpp:408] pool2 -> pool2
I0209 22:43:52.297400  6526 net.cpp:150] Setting up pool2
I0209 22:43:52.297408  6526 net.cpp:157] Top shape: 40 128 75 75 (28800000)
I0209 22:43:52.297412  6526 net.cpp:165] Memory required for data: 6336000192
I0209 22:43:52.297415  6526 layer_factory.hpp:77] Creating layer conv3_1
I0209 22:43:52.297425  6526 net.cpp:100] Creating Layer conv3_1
I0209 22:43:52.297430  6526 net.cpp:434] conv3_1 <- pool2
I0209 22:43:52.297435  6526 net.cpp:408] conv3_1 -> conv3_1
I0209 22:43:52.301214  6526 net.cpp:150] Setting up conv3_1
I0209 22:43:52.301237  6526 net.cpp:157] Top shape: 40 256 75 75 (57600000)
I0209 22:43:52.301241  6526 net.cpp:165] Memory required for data: 6566400192
I0209 22:43:52.301254  6526 layer_factory.hpp:77] Creating layer relu3_1
I0209 22:43:52.301262  6526 net.cpp:100] Creating Layer relu3_1
I0209 22:43:52.301266  6526 net.cpp:434] relu3_1 <- conv3_1
I0209 22:43:52.301271  6526 net.cpp:395] relu3_1 -> conv3_1 (in-place)
I0209 22:43:52.301451  6526 net.cpp:150] Setting up relu3_1
I0209 22:43:52.301462  6526 net.cpp:157] Top shape: 40 256 75 75 (57600000)
I0209 22:43:52.301465  6526 net.cpp:165] Memory required for data: 6796800192
I0209 22:43:52.301470  6526 layer_factory.hpp:77] Creating layer conv3_2
I0209 22:43:52.301479  6526 net.cpp:100] Creating Layer conv3_2
I0209 22:43:52.301483  6526 net.cpp:434] conv3_2 <- conv3_1
I0209 22:43:52.301489  6526 net.cpp:408] conv3_2 -> conv3_2
I0209 22:43:52.307875  6526 net.cpp:150] Setting up conv3_2
I0209 22:43:52.307909  6526 net.cpp:157] Top shape: 40 256 75 75 (57600000)
I0209 22:43:52.307914  6526 net.cpp:165] Memory required for data: 7027200192
I0209 22:43:52.307922  6526 layer_factory.hpp:77] Creating layer relu3_2
I0209 22:43:52.307931  6526 net.cpp:100] Creating Layer relu3_2
I0209 22:43:52.307937  6526 net.cpp:434] relu3_2 <- conv3_2
I0209 22:43:52.307943  6526 net.cpp:395] relu3_2 -> conv3_2 (in-place)
I0209 22:43:52.308118  6526 net.cpp:150] Setting up relu3_2
I0209 22:43:52.308130  6526 net.cpp:157] Top shape: 40 256 75 75 (57600000)
I0209 22:43:52.308133  6526 net.cpp:165] Memory required for data: 7257600192
I0209 22:43:52.308137  6526 layer_factory.hpp:77] Creating layer conv3_3
I0209 22:43:52.308151  6526 net.cpp:100] Creating Layer conv3_3
I0209 22:43:52.308156  6526 net.cpp:434] conv3_3 <- conv3_2
I0209 22:43:52.308162  6526 net.cpp:408] conv3_3 -> conv3_3
I0209 22:43:52.319398  6526 net.cpp:150] Setting up conv3_3
I0209 22:43:52.319429  6526 net.cpp:157] Top shape: 40 256 75 75 (57600000)
I0209 22:43:52.319433  6526 net.cpp:165] Memory required for data: 7488000192
I0209 22:43:52.319442  6526 layer_factory.hpp:77] Creating layer relu3_3
I0209 22:43:52.319453  6526 net.cpp:100] Creating Layer relu3_3
I0209 22:43:52.319459  6526 net.cpp:434] relu3_3 <- conv3_3
I0209 22:43:52.319466  6526 net.cpp:395] relu3_3 -> conv3_3 (in-place)
I0209 22:43:52.319828  6526 net.cpp:150] Setting up relu3_3
I0209 22:43:52.319841  6526 net.cpp:157] Top shape: 40 256 75 75 (57600000)
I0209 22:43:52.319862  6526 net.cpp:165] Memory required for data: 7718400192
I0209 22:43:52.319867  6526 layer_factory.hpp:77] Creating layer pool3
I0209 22:43:52.319875  6526 net.cpp:100] Creating Layer pool3
I0209 22:43:52.319880  6526 net.cpp:434] pool3 <- conv3_3
I0209 22:43:52.319885  6526 net.cpp:408] pool3 -> pool3
I0209 22:43:52.319946  6526 net.cpp:150] Setting up pool3
I0209 22:43:52.319954  6526 net.cpp:157] Top shape: 40 256 38 38 (14786560)
I0209 22:43:52.319958  6526 net.cpp:165] Memory required for data: 7777546432
I0209 22:43:52.319962  6526 layer_factory.hpp:77] Creating layer conv4_1
I0209 22:43:52.319972  6526 net.cpp:100] Creating Layer conv4_1
I0209 22:43:52.319977  6526 net.cpp:434] conv4_1 <- pool3
I0209 22:43:52.319983  6526 net.cpp:408] conv4_1 -> conv4_1
I0209 22:43:52.330956  6526 net.cpp:150] Setting up conv4_1
I0209 22:43:52.330973  6526 net.cpp:157] Top shape: 40 512 38 38 (29573120)
I0209 22:43:52.330977  6526 net.cpp:165] Memory required for data: 7895838912
I0209 22:43:52.330984  6526 layer_factory.hpp:77] Creating layer relu4_1
I0209 22:43:52.330992  6526 net.cpp:100] Creating Layer relu4_1
I0209 22:43:52.330996  6526 net.cpp:434] relu4_1 <- conv4_1
I0209 22:43:52.331002  6526 net.cpp:395] relu4_1 -> conv4_1 (in-place)
I0209 22:43:52.331184  6526 net.cpp:150] Setting up relu4_1
I0209 22:43:52.331195  6526 net.cpp:157] Top shape: 40 512 38 38 (29573120)
I0209 22:43:52.331199  6526 net.cpp:165] Memory required for data: 8014131392
I0209 22:43:52.331203  6526 layer_factory.hpp:77] Creating layer conv4_2
I0209 22:43:52.331212  6526 net.cpp:100] Creating Layer conv4_2
I0209 22:43:52.331215  6526 net.cpp:434] conv4_2 <- conv4_1
I0209 22:43:52.331223  6526 net.cpp:408] conv4_2 -> conv4_2
I0209 22:43:52.352015  6526 net.cpp:150] Setting up conv4_2
I0209 22:43:52.352043  6526 net.cpp:157] Top shape: 40 512 38 38 (29573120)
I0209 22:43:52.352048  6526 net.cpp:165] Memory required for data: 8132423872
I0209 22:43:52.352061  6526 layer_factory.hpp:77] Creating layer relu4_2
I0209 22:43:52.352072  6526 net.cpp:100] Creating Layer relu4_2
I0209 22:43:52.352077  6526 net.cpp:434] relu4_2 <- conv4_2
I0209 22:43:52.352083  6526 net.cpp:395] relu4_2 -> conv4_2 (in-place)
I0209 22:43:52.352274  6526 net.cpp:150] Setting up relu4_2
I0209 22:43:52.352285  6526 net.cpp:157] Top shape: 40 512 38 38 (29573120)
I0209 22:43:52.352289  6526 net.cpp:165] Memory required for data: 8250716352
I0209 22:43:52.352293  6526 layer_factory.hpp:77] Creating layer conv4_3
I0209 22:43:52.352304  6526 net.cpp:100] Creating Layer conv4_3
I0209 22:43:52.352308  6526 net.cpp:434] conv4_3 <- conv4_2
I0209 22:43:52.352315  6526 net.cpp:408] conv4_3 -> conv4_3
I0209 22:43:52.373164  6526 net.cpp:150] Setting up conv4_3
I0209 22:43:52.373194  6526 net.cpp:157] Top shape: 40 512 38 38 (29573120)
I0209 22:43:52.373198  6526 net.cpp:165] Memory required for data: 8369008832
I0209 22:43:52.373208  6526 layer_factory.hpp:77] Creating layer relu4_3
I0209 22:43:52.373217  6526 net.cpp:100] Creating Layer relu4_3
I0209 22:43:52.373222  6526 net.cpp:434] relu4_3 <- conv4_3
I0209 22:43:52.373229  6526 net.cpp:395] relu4_3 -> conv4_3 (in-place)
I0209 22:43:52.373566  6526 net.cpp:150] Setting up relu4_3
I0209 22:43:52.373580  6526 net.cpp:157] Top shape: 40 512 38 38 (29573120)
I0209 22:43:52.373584  6526 net.cpp:165] Memory required for data: 8487301312
I0209 22:43:52.373589  6526 layer_factory.hpp:77] Creating layer conv4_3_relu4_3_0_split
I0209 22:43:52.373595  6526 net.cpp:100] Creating Layer conv4_3_relu4_3_0_split
I0209 22:43:52.373600  6526 net.cpp:434] conv4_3_relu4_3_0_split <- conv4_3
I0209 22:43:52.373605  6526 net.cpp:408] conv4_3_relu4_3_0_split -> conv4_3_relu4_3_0_split_0
I0209 22:43:52.373613  6526 net.cpp:408] conv4_3_relu4_3_0_split -> conv4_3_relu4_3_0_split_1
I0209 22:43:52.373672  6526 net.cpp:150] Setting up conv4_3_relu4_3_0_split
I0209 22:43:52.373682  6526 net.cpp:157] Top shape: 40 512 38 38 (29573120)
I0209 22:43:52.373687  6526 net.cpp:157] Top shape: 40 512 38 38 (29573120)
I0209 22:43:52.373706  6526 net.cpp:165] Memory required for data: 8723886272
I0209 22:43:52.373710  6526 layer_factory.hpp:77] Creating layer pool4
I0209 22:43:52.373718  6526 net.cpp:100] Creating Layer pool4
I0209 22:43:52.373723  6526 net.cpp:434] pool4 <- conv4_3_relu4_3_0_split_0
I0209 22:43:52.373729  6526 net.cpp:408] pool4 -> pool4
I0209 22:43:52.373785  6526 net.cpp:150] Setting up pool4
I0209 22:43:52.373791  6526 net.cpp:157] Top shape: 40 512 19 19 (7393280)
I0209 22:43:52.373795  6526 net.cpp:165] Memory required for data: 8753459392
I0209 22:43:52.373798  6526 layer_factory.hpp:77] Creating layer conv5_1
I0209 22:43:52.373808  6526 net.cpp:100] Creating Layer conv5_1
I0209 22:43:52.373812  6526 net.cpp:434] conv5_1 <- pool4
I0209 22:43:52.373821  6526 net.cpp:408] conv5_1 -> conv5_1
I0209 22:43:52.394855  6526 net.cpp:150] Setting up conv5_1
I0209 22:43:52.394883  6526 net.cpp:157] Top shape: 40 512 19 19 (7393280)
I0209 22:43:52.394887  6526 net.cpp:165] Memory required for data: 8783032512
I0209 22:43:52.394896  6526 layer_factory.hpp:77] Creating layer relu5_1
I0209 22:43:52.394904  6526 net.cpp:100] Creating Layer relu5_1
I0209 22:43:52.394911  6526 net.cpp:434] relu5_1 <- conv5_1
I0209 22:43:52.394918  6526 net.cpp:395] relu5_1 -> conv5_1 (in-place)
I0209 22:43:52.395114  6526 net.cpp:150] Setting up relu5_1
I0209 22:43:52.395126  6526 net.cpp:157] Top shape: 40 512 19 19 (7393280)
I0209 22:43:52.395130  6526 net.cpp:165] Memory required for data: 8812605632
I0209 22:43:52.395133  6526 layer_factory.hpp:77] Creating layer conv5_2
I0209 22:43:52.395146  6526 net.cpp:100] Creating Layer conv5_2
I0209 22:43:52.395150  6526 net.cpp:434] conv5_2 <- conv5_1
I0209 22:43:52.395157  6526 net.cpp:408] conv5_2 -> conv5_2
I0209 22:43:52.416147  6526 net.cpp:150] Setting up conv5_2
I0209 22:43:52.416175  6526 net.cpp:157] Top shape: 40 512 19 19 (7393280)
I0209 22:43:52.416179  6526 net.cpp:165] Memory required for data: 8842178752
I0209 22:43:52.416188  6526 layer_factory.hpp:77] Creating layer relu5_2
I0209 22:43:52.416198  6526 net.cpp:100] Creating Layer relu5_2
I0209 22:43:52.416204  6526 net.cpp:434] relu5_2 <- conv5_2
I0209 22:43:52.416211  6526 net.cpp:395] relu5_2 -> conv5_2 (in-place)
I0209 22:43:52.416415  6526 net.cpp:150] Setting up relu5_2
I0209 22:43:52.416426  6526 net.cpp:157] Top shape: 40 512 19 19 (7393280)
I0209 22:43:52.416430  6526 net.cpp:165] Memory required for data: 8871751872
I0209 22:43:52.416435  6526 layer_factory.hpp:77] Creating layer conv5_3
I0209 22:43:52.416446  6526 net.cpp:100] Creating Layer conv5_3
I0209 22:43:52.416450  6526 net.cpp:434] conv5_3 <- conv5_2
I0209 22:43:52.416458  6526 net.cpp:408] conv5_3 -> conv5_3
I0209 22:43:52.437407  6526 net.cpp:150] Setting up conv5_3
I0209 22:43:52.437435  6526 net.cpp:157] Top shape: 40 512 19 19 (7393280)
I0209 22:43:52.437440  6526 net.cpp:165] Memory required for data: 8901324992
I0209 22:43:52.437449  6526 layer_factory.hpp:77] Creating layer relu5_3
I0209 22:43:52.437464  6526 net.cpp:100] Creating Layer relu5_3
I0209 22:43:52.437470  6526 net.cpp:434] relu5_3 <- conv5_3
I0209 22:43:52.437477  6526 net.cpp:395] relu5_3 -> conv5_3 (in-place)
I0209 22:43:52.437821  6526 net.cpp:150] Setting up relu5_3
I0209 22:43:52.437835  6526 net.cpp:157] Top shape: 40 512 19 19 (7393280)
I0209 22:43:52.437839  6526 net.cpp:165] Memory required for data: 8930898112
I0209 22:43:52.437844  6526 layer_factory.hpp:77] Creating layer pool5
I0209 22:43:52.437851  6526 net.cpp:100] Creating Layer pool5
I0209 22:43:52.437855  6526 net.cpp:434] pool5 <- conv5_3
I0209 22:43:52.437863  6526 net.cpp:408] pool5 -> pool5
I0209 22:43:52.437927  6526 net.cpp:150] Setting up pool5
I0209 22:43:52.437935  6526 net.cpp:157] Top shape: 40 512 19 19 (7393280)
I0209 22:43:52.437939  6526 net.cpp:165] Memory required for data: 8960471232
I0209 22:43:52.437942  6526 layer_factory.hpp:77] Creating layer fc6
I0209 22:43:52.437957  6526 net.cpp:100] Creating Layer fc6
I0209 22:43:52.437960  6526 net.cpp:434] fc6 <- pool5
I0209 22:43:52.437966  6526 net.cpp:408] fc6 -> fc6
I0209 22:43:52.478314  6526 net.cpp:150] Setting up fc6
I0209 22:43:52.478344  6526 net.cpp:157] Top shape: 40 1024 19 19 (14786560)
I0209 22:43:52.478353  6526 net.cpp:165] Memory required for data: 9019617472
I0209 22:43:52.478363  6526 layer_factory.hpp:77] Creating layer relu6
I0209 22:43:52.478374  6526 net.cpp:100] Creating Layer relu6
I0209 22:43:52.478380  6526 net.cpp:434] relu6 <- fc6
I0209 22:43:52.478387  6526 net.cpp:395] relu6 -> fc6 (in-place)
I0209 22:43:52.478648  6526 net.cpp:150] Setting up relu6
I0209 22:43:52.478660  6526 net.cpp:157] Top shape: 40 1024 19 19 (14786560)
I0209 22:43:52.478664  6526 net.cpp:165] Memory required for data: 9078763712
I0209 22:43:52.478668  6526 layer_factory.hpp:77] Creating layer fc7
I0209 22:43:52.478682  6526 net.cpp:100] Creating Layer fc7
I0209 22:43:52.478687  6526 net.cpp:434] fc7 <- fc6
I0209 22:43:52.478693  6526 net.cpp:408] fc7 -> fc7
I0209 22:43:52.488917  6526 net.cpp:150] Setting up fc7
I0209 22:43:52.488934  6526 net.cpp:157] Top shape: 40 1024 19 19 (14786560)
I0209 22:43:52.488939  6526 net.cpp:165] Memory required for data: 9137909952
I0209 22:43:52.488945  6526 layer_factory.hpp:77] Creating layer relu7
I0209 22:43:52.488955  6526 net.cpp:100] Creating Layer relu7
I0209 22:43:52.488958  6526 net.cpp:434] relu7 <- fc7
I0209 22:43:52.488965  6526 net.cpp:395] relu7 -> fc7 (in-place)
I0209 22:43:52.489306  6526 net.cpp:150] Setting up relu7
I0209 22:43:52.489321  6526 net.cpp:157] Top shape: 40 1024 19 19 (14786560)
I0209 22:43:52.489326  6526 net.cpp:165] Memory required for data: 9197056192
I0209 22:43:52.489329  6526 layer_factory.hpp:77] Creating layer fc7_relu7_0_split
I0209 22:43:52.489336  6526 net.cpp:100] Creating Layer fc7_relu7_0_split
I0209 22:43:52.489341  6526 net.cpp:434] fc7_relu7_0_split <- fc7
I0209 22:43:52.489348  6526 net.cpp:408] fc7_relu7_0_split -> fc7_relu7_0_split_0
I0209 22:43:52.489356  6526 net.cpp:408] fc7_relu7_0_split -> fc7_relu7_0_split_1
I0209 22:43:52.489367  6526 net.cpp:408] fc7_relu7_0_split -> fc7_relu7_0_split_2
I0209 22:43:52.489373  6526 net.cpp:408] fc7_relu7_0_split -> fc7_relu7_0_split_3
I0209 22:43:52.489469  6526 net.cpp:150] Setting up fc7_relu7_0_split
I0209 22:43:52.489477  6526 net.cpp:157] Top shape: 40 1024 19 19 (14786560)
I0209 22:43:52.489482  6526 net.cpp:157] Top shape: 40 1024 19 19 (14786560)
I0209 22:43:52.489486  6526 net.cpp:157] Top shape: 40 1024 19 19 (14786560)
I0209 22:43:52.489490  6526 net.cpp:157] Top shape: 40 1024 19 19 (14786560)
I0209 22:43:52.489493  6526 net.cpp:165] Memory required for data: 9433641152
I0209 22:43:52.489497  6526 layer_factory.hpp:77] Creating layer conv6_1
I0209 22:43:52.489508  6526 net.cpp:100] Creating Layer conv6_1
I0209 22:43:52.489512  6526 net.cpp:434] conv6_1 <- fc7_relu7_0_split_0
I0209 22:43:52.489521  6526 net.cpp:408] conv6_1 -> conv6_1
I0209 22:43:52.492919  6526 net.cpp:150] Setting up conv6_1
I0209 22:43:52.492936  6526 net.cpp:157] Top shape: 40 256 19 19 (3696640)
I0209 22:43:52.492940  6526 net.cpp:165] Memory required for data: 9448427712
I0209 22:43:52.492947  6526 layer_factory.hpp:77] Creating layer conv6_1_relu
I0209 22:43:52.492955  6526 net.cpp:100] Creating Layer conv6_1_relu
I0209 22:43:52.492960  6526 net.cpp:434] conv6_1_relu <- conv6_1
I0209 22:43:52.492965  6526 net.cpp:395] conv6_1_relu -> conv6_1 (in-place)
I0209 22:43:52.493304  6526 net.cpp:150] Setting up conv6_1_relu
I0209 22:43:52.493319  6526 net.cpp:157] Top shape: 40 256 19 19 (3696640)
I0209 22:43:52.493322  6526 net.cpp:165] Memory required for data: 9463214272
I0209 22:43:52.493326  6526 layer_factory.hpp:77] Creating layer conv6_2
I0209 22:43:52.493338  6526 net.cpp:100] Creating Layer conv6_2
I0209 22:43:52.493343  6526 net.cpp:434] conv6_2 <- conv6_1
I0209 22:43:52.493350  6526 net.cpp:408] conv6_2 -> conv6_2
I0209 22:43:52.504415  6526 net.cpp:150] Setting up conv6_2
I0209 22:43:52.504433  6526 net.cpp:157] Top shape: 40 512 10 10 (2048000)
I0209 22:43:52.504438  6526 net.cpp:165] Memory required for data: 9471406272
I0209 22:43:52.504451  6526 layer_factory.hpp:77] Creating layer conv6_2_relu
I0209 22:43:52.504477  6526 net.cpp:100] Creating Layer conv6_2_relu
I0209 22:43:52.504482  6526 net.cpp:434] conv6_2_relu <- conv6_2
I0209 22:43:52.504488  6526 net.cpp:395] conv6_2_relu -> conv6_2 (in-place)
I0209 22:43:52.504686  6526 net.cpp:150] Setting up conv6_2_relu
I0209 22:43:52.504698  6526 net.cpp:157] Top shape: 40 512 10 10 (2048000)
I0209 22:43:52.504703  6526 net.cpp:165] Memory required for data: 9479598272
I0209 22:43:52.504706  6526 layer_factory.hpp:77] Creating layer conv6_2_conv6_2_relu_0_split
I0209 22:43:52.504714  6526 net.cpp:100] Creating Layer conv6_2_conv6_2_relu_0_split
I0209 22:43:52.504719  6526 net.cpp:434] conv6_2_conv6_2_relu_0_split <- conv6_2
I0209 22:43:52.504724  6526 net.cpp:408] conv6_2_conv6_2_relu_0_split -> conv6_2_conv6_2_relu_0_split_0
I0209 22:43:52.504732  6526 net.cpp:408] conv6_2_conv6_2_relu_0_split -> conv6_2_conv6_2_relu_0_split_1
I0209 22:43:52.504739  6526 net.cpp:408] conv6_2_conv6_2_relu_0_split -> conv6_2_conv6_2_relu_0_split_2
I0209 22:43:52.504745  6526 net.cpp:408] conv6_2_conv6_2_relu_0_split -> conv6_2_conv6_2_relu_0_split_3
I0209 22:43:52.504840  6526 net.cpp:150] Setting up conv6_2_conv6_2_relu_0_split
I0209 22:43:52.504849  6526 net.cpp:157] Top shape: 40 512 10 10 (2048000)
I0209 22:43:52.504854  6526 net.cpp:157] Top shape: 40 512 10 10 (2048000)
I0209 22:43:52.504858  6526 net.cpp:157] Top shape: 40 512 10 10 (2048000)
I0209 22:43:52.504861  6526 net.cpp:157] Top shape: 40 512 10 10 (2048000)
I0209 22:43:52.504865  6526 net.cpp:165] Memory required for data: 9512366272
I0209 22:43:52.504868  6526 layer_factory.hpp:77] Creating layer conv7_1
I0209 22:43:52.504879  6526 net.cpp:100] Creating Layer conv7_1
I0209 22:43:52.504884  6526 net.cpp:434] conv7_1 <- conv6_2_conv6_2_relu_0_split_0
I0209 22:43:52.504891  6526 net.cpp:408] conv7_1 -> conv7_1
I0209 22:43:52.507014  6526 net.cpp:150] Setting up conv7_1
I0209 22:43:52.507030  6526 net.cpp:157] Top shape: 40 128 10 10 (512000)
I0209 22:43:52.507035  6526 net.cpp:165] Memory required for data: 9514414272
I0209 22:43:52.507041  6526 layer_factory.hpp:77] Creating layer conv7_1_relu
I0209 22:43:52.507048  6526 net.cpp:100] Creating Layer conv7_1_relu
I0209 22:43:52.507052  6526 net.cpp:434] conv7_1_relu <- conv7_1
I0209 22:43:52.507061  6526 net.cpp:395] conv7_1_relu -> conv7_1 (in-place)
I0209 22:43:52.507400  6526 net.cpp:150] Setting up conv7_1_relu
I0209 22:43:52.507414  6526 net.cpp:157] Top shape: 40 128 10 10 (512000)
I0209 22:43:52.507418  6526 net.cpp:165] Memory required for data: 9516462272
I0209 22:43:52.507422  6526 layer_factory.hpp:77] Creating layer conv7_2
I0209 22:43:52.507433  6526 net.cpp:100] Creating Layer conv7_2
I0209 22:43:52.507438  6526 net.cpp:434] conv7_2 <- conv7_1
I0209 22:43:52.507446  6526 net.cpp:408] conv7_2 -> conv7_2
I0209 22:43:52.511162  6526 net.cpp:150] Setting up conv7_2
I0209 22:43:52.511178  6526 net.cpp:157] Top shape: 40 256 5 5 (256000)
I0209 22:43:52.511183  6526 net.cpp:165] Memory required for data: 9517486272
I0209 22:43:52.511191  6526 layer_factory.hpp:77] Creating layer conv7_2_relu
I0209 22:43:52.511200  6526 net.cpp:100] Creating Layer conv7_2_relu
I0209 22:43:52.511205  6526 net.cpp:434] conv7_2_relu <- conv7_2
I0209 22:43:52.511211  6526 net.cpp:395] conv7_2_relu -> conv7_2 (in-place)
I0209 22:43:52.511562  6526 net.cpp:150] Setting up conv7_2_relu
I0209 22:43:52.511579  6526 net.cpp:157] Top shape: 40 256 5 5 (256000)
I0209 22:43:52.511582  6526 net.cpp:165] Memory required for data: 9518510272
I0209 22:43:52.511586  6526 layer_factory.hpp:77] Creating layer conv7_2_conv7_2_relu_0_split
I0209 22:43:52.511592  6526 net.cpp:100] Creating Layer conv7_2_conv7_2_relu_0_split
I0209 22:43:52.511596  6526 net.cpp:434] conv7_2_conv7_2_relu_0_split <- conv7_2
I0209 22:43:52.511602  6526 net.cpp:408] conv7_2_conv7_2_relu_0_split -> conv7_2_conv7_2_relu_0_split_0
I0209 22:43:52.511610  6526 net.cpp:408] conv7_2_conv7_2_relu_0_split -> conv7_2_conv7_2_relu_0_split_1
I0209 22:43:52.511618  6526 net.cpp:408] conv7_2_conv7_2_relu_0_split -> conv7_2_conv7_2_relu_0_split_2
I0209 22:43:52.511636  6526 net.cpp:408] conv7_2_conv7_2_relu_0_split -> conv7_2_conv7_2_relu_0_split_3
I0209 22:43:52.511739  6526 net.cpp:150] Setting up conv7_2_conv7_2_relu_0_split
I0209 22:43:52.511747  6526 net.cpp:157] Top shape: 40 256 5 5 (256000)
I0209 22:43:52.511752  6526 net.cpp:157] Top shape: 40 256 5 5 (256000)
I0209 22:43:52.511756  6526 net.cpp:157] Top shape: 40 256 5 5 (256000)
I0209 22:43:52.511760  6526 net.cpp:157] Top shape: 40 256 5 5 (256000)
I0209 22:43:52.511764  6526 net.cpp:165] Memory required for data: 9522606272
I0209 22:43:52.511767  6526 layer_factory.hpp:77] Creating layer conv8_1
I0209 22:43:52.511780  6526 net.cpp:100] Creating Layer conv8_1
I0209 22:43:52.511783  6526 net.cpp:434] conv8_1 <- conv7_2_conv7_2_relu_0_split_0
I0209 22:43:52.511790  6526 net.cpp:408] conv8_1 -> conv8_1
I0209 22:43:52.513262  6526 net.cpp:150] Setting up conv8_1
I0209 22:43:52.513276  6526 net.cpp:157] Top shape: 40 128 5 5 (128000)
I0209 22:43:52.513280  6526 net.cpp:165] Memory required for data: 9523118272
I0209 22:43:52.513288  6526 layer_factory.hpp:77] Creating layer conv8_1_relu
I0209 22:43:52.513294  6526 net.cpp:100] Creating Layer conv8_1_relu
I0209 22:43:52.513298  6526 net.cpp:434] conv8_1_relu <- conv8_1
I0209 22:43:52.513306  6526 net.cpp:395] conv8_1_relu -> conv8_1 (in-place)
I0209 22:43:52.513500  6526 net.cpp:150] Setting up conv8_1_relu
I0209 22:43:52.513512  6526 net.cpp:157] Top shape: 40 128 5 5 (128000)
I0209 22:43:52.513516  6526 net.cpp:165] Memory required for data: 9523630272
I0209 22:43:52.513520  6526 layer_factory.hpp:77] Creating layer conv8_2
I0209 22:43:52.513531  6526 net.cpp:100] Creating Layer conv8_2
I0209 22:43:52.513536  6526 net.cpp:434] conv8_2 <- conv8_1
I0209 22:43:52.513543  6526 net.cpp:408] conv8_2 -> conv8_2
I0209 22:43:52.517371  6526 net.cpp:150] Setting up conv8_2
I0209 22:43:52.517387  6526 net.cpp:157] Top shape: 40 256 3 3 (92160)
I0209 22:43:52.517392  6526 net.cpp:165] Memory required for data: 9523998912
I0209 22:43:52.517400  6526 layer_factory.hpp:77] Creating layer conv8_2_relu
I0209 22:43:52.517408  6526 net.cpp:100] Creating Layer conv8_2_relu
I0209 22:43:52.517412  6526 net.cpp:434] conv8_2_relu <- conv8_2
I0209 22:43:52.517418  6526 net.cpp:395] conv8_2_relu -> conv8_2 (in-place)
I0209 22:43:52.517760  6526 net.cpp:150] Setting up conv8_2_relu
I0209 22:43:52.517776  6526 net.cpp:157] Top shape: 40 256 3 3 (92160)
I0209 22:43:52.517779  6526 net.cpp:165] Memory required for data: 9524367552
I0209 22:43:52.517784  6526 layer_factory.hpp:77] Creating layer conv8_2_conv8_2_relu_0_split
I0209 22:43:52.517791  6526 net.cpp:100] Creating Layer conv8_2_conv8_2_relu_0_split
I0209 22:43:52.517794  6526 net.cpp:434] conv8_2_conv8_2_relu_0_split <- conv8_2
I0209 22:43:52.517801  6526 net.cpp:408] conv8_2_conv8_2_relu_0_split -> conv8_2_conv8_2_relu_0_split_0
I0209 22:43:52.517808  6526 net.cpp:408] conv8_2_conv8_2_relu_0_split -> conv8_2_conv8_2_relu_0_split_1
I0209 22:43:52.517817  6526 net.cpp:408] conv8_2_conv8_2_relu_0_split -> conv8_2_conv8_2_relu_0_split_2
I0209 22:43:52.517822  6526 net.cpp:408] conv8_2_conv8_2_relu_0_split -> conv8_2_conv8_2_relu_0_split_3
I0209 22:43:52.517923  6526 net.cpp:150] Setting up conv8_2_conv8_2_relu_0_split
I0209 22:43:52.517932  6526 net.cpp:157] Top shape: 40 256 3 3 (92160)
I0209 22:43:52.517937  6526 net.cpp:157] Top shape: 40 256 3 3 (92160)
I0209 22:43:52.517941  6526 net.cpp:157] Top shape: 40 256 3 3 (92160)
I0209 22:43:52.517946  6526 net.cpp:157] Top shape: 40 256 3 3 (92160)
I0209 22:43:52.517948  6526 net.cpp:165] Memory required for data: 9525842112
I0209 22:43:52.517952  6526 layer_factory.hpp:77] Creating layer conv9_1
I0209 22:43:52.517963  6526 net.cpp:100] Creating Layer conv9_1
I0209 22:43:52.517968  6526 net.cpp:434] conv9_1 <- conv8_2_conv8_2_relu_0_split_0
I0209 22:43:52.517974  6526 net.cpp:408] conv9_1 -> conv9_1
I0209 22:43:52.519331  6526 net.cpp:150] Setting up conv9_1
I0209 22:43:52.519347  6526 net.cpp:157] Top shape: 40 128 3 3 (46080)
I0209 22:43:52.519362  6526 net.cpp:165] Memory required for data: 9526026432
I0209 22:43:52.519371  6526 layer_factory.hpp:77] Creating layer conv9_1_relu
I0209 22:43:52.519379  6526 net.cpp:100] Creating Layer conv9_1_relu
I0209 22:43:52.519383  6526 net.cpp:434] conv9_1_relu <- conv9_1
I0209 22:43:52.519389  6526 net.cpp:395] conv9_1_relu -> conv9_1 (in-place)
I0209 22:43:52.519737  6526 net.cpp:150] Setting up conv9_1_relu
I0209 22:43:52.519752  6526 net.cpp:157] Top shape: 40 128 3 3 (46080)
I0209 22:43:52.519755  6526 net.cpp:165] Memory required for data: 9526210752
I0209 22:43:52.519759  6526 layer_factory.hpp:77] Creating layer conv9_2
I0209 22:43:52.519771  6526 net.cpp:100] Creating Layer conv9_2
I0209 22:43:52.519776  6526 net.cpp:434] conv9_2 <- conv9_1
I0209 22:43:52.519783  6526 net.cpp:408] conv9_2 -> conv9_2
I0209 22:43:52.523768  6526 net.cpp:150] Setting up conv9_2
I0209 22:43:52.523784  6526 net.cpp:157] Top shape: 40 256 1 1 (10240)
I0209 22:43:52.523789  6526 net.cpp:165] Memory required for data: 9526251712
I0209 22:43:52.523795  6526 layer_factory.hpp:77] Creating layer conv9_2_relu
I0209 22:43:52.523803  6526 net.cpp:100] Creating Layer conv9_2_relu
I0209 22:43:52.523808  6526 net.cpp:434] conv9_2_relu <- conv9_2
I0209 22:43:52.523814  6526 net.cpp:395] conv9_2_relu -> conv9_2 (in-place)
I0209 22:43:52.524013  6526 net.cpp:150] Setting up conv9_2_relu
I0209 22:43:52.524024  6526 net.cpp:157] Top shape: 40 256 1 1 (10240)
I0209 22:43:52.524027  6526 net.cpp:165] Memory required for data: 9526292672
I0209 22:43:52.524031  6526 layer_factory.hpp:77] Creating layer conv9_2_conv9_2_relu_0_split
I0209 22:43:52.524037  6526 net.cpp:100] Creating Layer conv9_2_conv9_2_relu_0_split
I0209 22:43:52.524041  6526 net.cpp:434] conv9_2_conv9_2_relu_0_split <- conv9_2
I0209 22:43:52.524049  6526 net.cpp:408] conv9_2_conv9_2_relu_0_split -> conv9_2_conv9_2_relu_0_split_0
I0209 22:43:52.524055  6526 net.cpp:408] conv9_2_conv9_2_relu_0_split -> conv9_2_conv9_2_relu_0_split_1
I0209 22:43:52.524062  6526 net.cpp:408] conv9_2_conv9_2_relu_0_split -> conv9_2_conv9_2_relu_0_split_2
I0209 22:43:52.524142  6526 net.cpp:150] Setting up conv9_2_conv9_2_relu_0_split
I0209 22:43:52.524152  6526 net.cpp:157] Top shape: 40 256 1 1 (10240)
I0209 22:43:52.524155  6526 net.cpp:157] Top shape: 40 256 1 1 (10240)
I0209 22:43:52.524159  6526 net.cpp:157] Top shape: 40 256 1 1 (10240)
I0209 22:43:52.524163  6526 net.cpp:165] Memory required for data: 9526415552
I0209 22:43:52.524168  6526 layer_factory.hpp:77] Creating layer conv4_3_norm
I0209 22:43:52.524174  6526 net.cpp:100] Creating Layer conv4_3_norm
I0209 22:43:52.524178  6526 net.cpp:434] conv4_3_norm <- conv4_3_relu4_3_0_split_1
I0209 22:43:52.524186  6526 net.cpp:408] conv4_3_norm -> conv4_3_norm
I0209 22:43:52.524412  6526 net.cpp:150] Setting up conv4_3_norm
I0209 22:43:52.524421  6526 net.cpp:157] Top shape: 40 512 38 38 (29573120)
I0209 22:43:52.524425  6526 net.cpp:165] Memory required for data: 9644708032
I0209 22:43:52.524430  6526 layer_factory.hpp:77] Creating layer conv4_3_norm_conv4_3_norm_0_split
I0209 22:43:52.524436  6526 net.cpp:100] Creating Layer conv4_3_norm_conv4_3_norm_0_split
I0209 22:43:52.524441  6526 net.cpp:434] conv4_3_norm_conv4_3_norm_0_split <- conv4_3_norm
I0209 22:43:52.524446  6526 net.cpp:408] conv4_3_norm_conv4_3_norm_0_split -> conv4_3_norm_conv4_3_norm_0_split_0
I0209 22:43:52.524453  6526 net.cpp:408] conv4_3_norm_conv4_3_norm_0_split -> conv4_3_norm_conv4_3_norm_0_split_1
I0209 22:43:52.524459  6526 net.cpp:408] conv4_3_norm_conv4_3_norm_0_split -> conv4_3_norm_conv4_3_norm_0_split_2
I0209 22:43:52.524526  6526 net.cpp:150] Setting up conv4_3_norm_conv4_3_norm_0_split
I0209 22:43:52.524534  6526 net.cpp:157] Top shape: 40 512 38 38 (29573120)
I0209 22:43:52.524538  6526 net.cpp:157] Top shape: 40 512 38 38 (29573120)
I0209 22:43:52.524543  6526 net.cpp:157] Top shape: 40 512 38 38 (29573120)
I0209 22:43:52.524545  6526 net.cpp:165] Memory required for data: 9999585472
I0209 22:43:52.524549  6526 layer_factory.hpp:77] Creating layer conv4_3_norm_mbox_loc
I0209 22:43:52.524569  6526 net.cpp:100] Creating Layer conv4_3_norm_mbox_loc
I0209 22:43:52.524575  6526 net.cpp:434] conv4_3_norm_mbox_loc <- conv4_3_norm_conv4_3_norm_0_split_0
I0209 22:43:52.524581  6526 net.cpp:408] conv4_3_norm_mbox_loc -> conv4_3_norm_mbox_loc
I0209 22:43:52.526396  6526 net.cpp:150] Setting up conv4_3_norm_mbox_loc
I0209 22:43:52.526412  6526 net.cpp:157] Top shape: 40 16 38 38 (924160)
I0209 22:43:52.526415  6526 net.cpp:165] Memory required for data: 10003282112
I0209 22:43:52.526422  6526 layer_factory.hpp:77] Creating layer conv4_3_norm_mbox_loc_perm
I0209 22:43:52.526430  6526 net.cpp:100] Creating Layer conv4_3_norm_mbox_loc_perm
I0209 22:43:52.526434  6526 net.cpp:434] conv4_3_norm_mbox_loc_perm <- conv4_3_norm_mbox_loc
I0209 22:43:52.526443  6526 net.cpp:408] conv4_3_norm_mbox_loc_perm -> conv4_3_norm_mbox_loc_perm
I0209 22:43:52.526597  6526 net.cpp:150] Setting up conv4_3_norm_mbox_loc_perm
I0209 22:43:52.526605  6526 net.cpp:157] Top shape: 40 38 38 16 (924160)
I0209 22:43:52.526608  6526 net.cpp:165] Memory required for data: 10006978752
I0209 22:43:52.526612  6526 layer_factory.hpp:77] Creating layer conv4_3_norm_mbox_loc_flat
I0209 22:43:52.526620  6526 net.cpp:100] Creating Layer conv4_3_norm_mbox_loc_flat
I0209 22:43:52.526624  6526 net.cpp:434] conv4_3_norm_mbox_loc_flat <- conv4_3_norm_mbox_loc_perm
I0209 22:43:52.526631  6526 net.cpp:408] conv4_3_norm_mbox_loc_flat -> conv4_3_norm_mbox_loc_flat
I0209 22:43:52.526672  6526 net.cpp:150] Setting up conv4_3_norm_mbox_loc_flat
I0209 22:43:52.526681  6526 net.cpp:157] Top shape: 40 23104 (924160)
I0209 22:43:52.526684  6526 net.cpp:165] Memory required for data: 10010675392
I0209 22:43:52.526688  6526 layer_factory.hpp:77] Creating layer conv4_3_norm_mbox_conf
I0209 22:43:52.526705  6526 net.cpp:100] Creating Layer conv4_3_norm_mbox_conf
I0209 22:43:52.526710  6526 net.cpp:434] conv4_3_norm_mbox_conf <- conv4_3_norm_conv4_3_norm_0_split_1
I0209 22:43:52.526715  6526 net.cpp:408] conv4_3_norm_mbox_conf -> conv4_3_norm_mbox_conf
I0209 22:43:52.531448  6526 net.cpp:150] Setting up conv4_3_norm_mbox_conf
I0209 22:43:52.531466  6526 net.cpp:157] Top shape: 40 88 38 38 (5082880)
I0209 22:43:52.531469  6526 net.cpp:165] Memory required for data: 10031006912
I0209 22:43:52.531477  6526 layer_factory.hpp:77] Creating layer conv4_3_norm_mbox_conf_perm
I0209 22:43:52.531484  6526 net.cpp:100] Creating Layer conv4_3_norm_mbox_conf_perm
I0209 22:43:52.531489  6526 net.cpp:434] conv4_3_norm_mbox_conf_perm <- conv4_3_norm_mbox_conf
I0209 22:43:52.531497  6526 net.cpp:408] conv4_3_norm_mbox_conf_perm -> conv4_3_norm_mbox_conf_perm
I0209 22:43:52.531652  6526 net.cpp:150] Setting up conv4_3_norm_mbox_conf_perm
I0209 22:43:52.531661  6526 net.cpp:157] Top shape: 40 38 38 88 (5082880)
I0209 22:43:52.531666  6526 net.cpp:165] Memory required for data: 10051338432
I0209 22:43:52.531669  6526 layer_factory.hpp:77] Creating layer conv4_3_norm_mbox_conf_flat
I0209 22:43:52.531677  6526 net.cpp:100] Creating Layer conv4_3_norm_mbox_conf_flat
I0209 22:43:52.531680  6526 net.cpp:434] conv4_3_norm_mbox_conf_flat <- conv4_3_norm_mbox_conf_perm
I0209 22:43:52.531687  6526 net.cpp:408] conv4_3_norm_mbox_conf_flat -> conv4_3_norm_mbox_conf_flat
I0209 22:43:52.531723  6526 net.cpp:150] Setting up conv4_3_norm_mbox_conf_flat
I0209 22:43:52.531729  6526 net.cpp:157] Top shape: 40 127072 (5082880)
I0209 22:43:52.531733  6526 net.cpp:165] Memory required for data: 10071669952
I0209 22:43:52.531735  6526 layer_factory.hpp:77] Creating layer conv4_3_norm_mbox_priorbox
I0209 22:43:52.531744  6526 net.cpp:100] Creating Layer conv4_3_norm_mbox_priorbox
I0209 22:43:52.531749  6526 net.cpp:434] conv4_3_norm_mbox_priorbox <- conv4_3_norm_conv4_3_norm_0_split_2
I0209 22:43:52.531754  6526 net.cpp:434] conv4_3_norm_mbox_priorbox <- data_data_0_split_1
I0209 22:43:52.531759  6526 net.cpp:408] conv4_3_norm_mbox_priorbox -> conv4_3_norm_mbox_priorbox
I0209 22:43:52.531798  6526 net.cpp:150] Setting up conv4_3_norm_mbox_priorbox
I0209 22:43:52.531805  6526 net.cpp:157] Top shape: 1 2 23104 (46208)
I0209 22:43:52.531819  6526 net.cpp:165] Memory required for data: 10071854784
I0209 22:43:52.531823  6526 layer_factory.hpp:77] Creating layer fc7_mbox_loc
I0209 22:43:52.531834  6526 net.cpp:100] Creating Layer fc7_mbox_loc
I0209 22:43:52.531839  6526 net.cpp:434] fc7_mbox_loc <- fc7_relu7_0_split_1
I0209 22:43:52.531847  6526 net.cpp:408] fc7_mbox_loc -> fc7_mbox_loc
I0209 22:43:52.535135  6526 net.cpp:150] Setting up fc7_mbox_loc
I0209 22:43:52.535151  6526 net.cpp:157] Top shape: 40 24 19 19 (346560)
I0209 22:43:52.535156  6526 net.cpp:165] Memory required for data: 10073241024
I0209 22:43:52.535163  6526 layer_factory.hpp:77] Creating layer fc7_mbox_loc_perm
I0209 22:43:52.535171  6526 net.cpp:100] Creating Layer fc7_mbox_loc_perm
I0209 22:43:52.535176  6526 net.cpp:434] fc7_mbox_loc_perm <- fc7_mbox_loc
I0209 22:43:52.535181  6526 net.cpp:408] fc7_mbox_loc_perm -> fc7_mbox_loc_perm
I0209 22:43:52.535334  6526 net.cpp:150] Setting up fc7_mbox_loc_perm
I0209 22:43:52.535343  6526 net.cpp:157] Top shape: 40 19 19 24 (346560)
I0209 22:43:52.535347  6526 net.cpp:165] Memory required for data: 10074627264
I0209 22:43:52.535351  6526 layer_factory.hpp:77] Creating layer fc7_mbox_loc_flat
I0209 22:43:52.535358  6526 net.cpp:100] Creating Layer fc7_mbox_loc_flat
I0209 22:43:52.535362  6526 net.cpp:434] fc7_mbox_loc_flat <- fc7_mbox_loc_perm
I0209 22:43:52.535367  6526 net.cpp:408] fc7_mbox_loc_flat -> fc7_mbox_loc_flat
I0209 22:43:52.535403  6526 net.cpp:150] Setting up fc7_mbox_loc_flat
I0209 22:43:52.535410  6526 net.cpp:157] Top shape: 40 8664 (346560)
I0209 22:43:52.535413  6526 net.cpp:165] Memory required for data: 10076013504
I0209 22:43:52.535416  6526 layer_factory.hpp:77] Creating layer fc7_mbox_conf
I0209 22:43:52.535426  6526 net.cpp:100] Creating Layer fc7_mbox_conf
I0209 22:43:52.535431  6526 net.cpp:434] fc7_mbox_conf <- fc7_relu7_0_split_2
I0209 22:43:52.535439  6526 net.cpp:408] fc7_mbox_conf -> fc7_mbox_conf
I0209 22:43:52.546777  6526 net.cpp:150] Setting up fc7_mbox_conf
I0209 22:43:52.546799  6526 net.cpp:157] Top shape: 40 132 19 19 (1906080)
I0209 22:43:52.546804  6526 net.cpp:165] Memory required for data: 10083637824
I0209 22:43:52.546811  6526 layer_factory.hpp:77] Creating layer fc7_mbox_conf_perm
I0209 22:43:52.546820  6526 net.cpp:100] Creating Layer fc7_mbox_conf_perm
I0209 22:43:52.546826  6526 net.cpp:434] fc7_mbox_conf_perm <- fc7_mbox_conf
I0209 22:43:52.546833  6526 net.cpp:408] fc7_mbox_conf_perm -> fc7_mbox_conf_perm
I0209 22:43:52.546991  6526 net.cpp:150] Setting up fc7_mbox_conf_perm
I0209 22:43:52.547000  6526 net.cpp:157] Top shape: 40 19 19 132 (1906080)
I0209 22:43:52.547004  6526 net.cpp:165] Memory required for data: 10091262144
I0209 22:43:52.547008  6526 layer_factory.hpp:77] Creating layer fc7_mbox_conf_flat
I0209 22:43:52.547014  6526 net.cpp:100] Creating Layer fc7_mbox_conf_flat
I0209 22:43:52.547019  6526 net.cpp:434] fc7_mbox_conf_flat <- fc7_mbox_conf_perm
I0209 22:43:52.547025  6526 net.cpp:408] fc7_mbox_conf_flat -> fc7_mbox_conf_flat
I0209 22:43:52.547062  6526 net.cpp:150] Setting up fc7_mbox_conf_flat
I0209 22:43:52.547068  6526 net.cpp:157] Top shape: 40 47652 (1906080)
I0209 22:43:52.547072  6526 net.cpp:165] Memory required for data: 10098886464
I0209 22:43:52.547075  6526 layer_factory.hpp:77] Creating layer fc7_mbox_priorbox
I0209 22:43:52.547082  6526 net.cpp:100] Creating Layer fc7_mbox_priorbox
I0209 22:43:52.547087  6526 net.cpp:434] fc7_mbox_priorbox <- fc7_relu7_0_split_3
I0209 22:43:52.547092  6526 net.cpp:434] fc7_mbox_priorbox <- data_data_0_split_2
I0209 22:43:52.547099  6526 net.cpp:408] fc7_mbox_priorbox -> fc7_mbox_priorbox
I0209 22:43:52.547138  6526 net.cpp:150] Setting up fc7_mbox_priorbox
I0209 22:43:52.547147  6526 net.cpp:157] Top shape: 1 2 8664 (17328)
I0209 22:43:52.547149  6526 net.cpp:165] Memory required for data: 10098955776
I0209 22:43:52.547153  6526 layer_factory.hpp:77] Creating layer conv6_2_mbox_loc
I0209 22:43:52.547165  6526 net.cpp:100] Creating Layer conv6_2_mbox_loc
I0209 22:43:52.547170  6526 net.cpp:434] conv6_2_mbox_loc <- conv6_2_conv6_2_relu_0_split_1
I0209 22:43:52.547190  6526 net.cpp:408] conv6_2_mbox_loc -> conv6_2_mbox_loc
I0209 22:43:52.549696  6526 net.cpp:150] Setting up conv6_2_mbox_loc
I0209 22:43:52.549713  6526 net.cpp:157] Top shape: 40 24 10 10 (96000)
I0209 22:43:52.549718  6526 net.cpp:165] Memory required for data: 10099339776
I0209 22:43:52.549726  6526 layer_factory.hpp:77] Creating layer conv6_2_mbox_loc_perm
I0209 22:43:52.549732  6526 net.cpp:100] Creating Layer conv6_2_mbox_loc_perm
I0209 22:43:52.549736  6526 net.cpp:434] conv6_2_mbox_loc_perm <- conv6_2_mbox_loc
I0209 22:43:52.549743  6526 net.cpp:408] conv6_2_mbox_loc_perm -> conv6_2_mbox_loc_perm
I0209 22:43:52.549896  6526 net.cpp:150] Setting up conv6_2_mbox_loc_perm
I0209 22:43:52.549906  6526 net.cpp:157] Top shape: 40 10 10 24 (96000)
I0209 22:43:52.549908  6526 net.cpp:165] Memory required for data: 10099723776
I0209 22:43:52.549912  6526 layer_factory.hpp:77] Creating layer conv6_2_mbox_loc_flat
I0209 22:43:52.549919  6526 net.cpp:100] Creating Layer conv6_2_mbox_loc_flat
I0209 22:43:52.549924  6526 net.cpp:434] conv6_2_mbox_loc_flat <- conv6_2_mbox_loc_perm
I0209 22:43:52.549929  6526 net.cpp:408] conv6_2_mbox_loc_flat -> conv6_2_mbox_loc_flat
I0209 22:43:52.549965  6526 net.cpp:150] Setting up conv6_2_mbox_loc_flat
I0209 22:43:52.549973  6526 net.cpp:157] Top shape: 40 2400 (96000)
I0209 22:43:52.549975  6526 net.cpp:165] Memory required for data: 10100107776
I0209 22:43:52.549979  6526 layer_factory.hpp:77] Creating layer conv6_2_mbox_conf
I0209 22:43:52.549989  6526 net.cpp:100] Creating Layer conv6_2_mbox_conf
I0209 22:43:52.549994  6526 net.cpp:434] conv6_2_mbox_conf <- conv6_2_conv6_2_relu_0_split_2
I0209 22:43:52.550001  6526 net.cpp:408] conv6_2_mbox_conf -> conv6_2_mbox_conf
I0209 22:43:52.556470  6526 net.cpp:150] Setting up conv6_2_mbox_conf
I0209 22:43:52.556488  6526 net.cpp:157] Top shape: 40 132 10 10 (528000)
I0209 22:43:52.556491  6526 net.cpp:165] Memory required for data: 10102219776
I0209 22:43:52.556499  6526 layer_factory.hpp:77] Creating layer conv6_2_mbox_conf_perm
I0209 22:43:52.556506  6526 net.cpp:100] Creating Layer conv6_2_mbox_conf_perm
I0209 22:43:52.556510  6526 net.cpp:434] conv6_2_mbox_conf_perm <- conv6_2_mbox_conf
I0209 22:43:52.556517  6526 net.cpp:408] conv6_2_mbox_conf_perm -> conv6_2_mbox_conf_perm
I0209 22:43:52.556675  6526 net.cpp:150] Setting up conv6_2_mbox_conf_perm
I0209 22:43:52.556685  6526 net.cpp:157] Top shape: 40 10 10 132 (528000)
I0209 22:43:52.556689  6526 net.cpp:165] Memory required for data: 10104331776
I0209 22:43:52.556692  6526 layer_factory.hpp:77] Creating layer conv6_2_mbox_conf_flat
I0209 22:43:52.556699  6526 net.cpp:100] Creating Layer conv6_2_mbox_conf_flat
I0209 22:43:52.556702  6526 net.cpp:434] conv6_2_mbox_conf_flat <- conv6_2_mbox_conf_perm
I0209 22:43:52.556710  6526 net.cpp:408] conv6_2_mbox_conf_flat -> conv6_2_mbox_conf_flat
I0209 22:43:52.556746  6526 net.cpp:150] Setting up conv6_2_mbox_conf_flat
I0209 22:43:52.556753  6526 net.cpp:157] Top shape: 40 13200 (528000)
I0209 22:43:52.556756  6526 net.cpp:165] Memory required for data: 10106443776
I0209 22:43:52.556761  6526 layer_factory.hpp:77] Creating layer conv6_2_mbox_priorbox
I0209 22:43:52.556766  6526 net.cpp:100] Creating Layer conv6_2_mbox_priorbox
I0209 22:43:52.556771  6526 net.cpp:434] conv6_2_mbox_priorbox <- conv6_2_conv6_2_relu_0_split_3
I0209 22:43:52.556776  6526 net.cpp:434] conv6_2_mbox_priorbox <- data_data_0_split_3
I0209 22:43:52.556783  6526 net.cpp:408] conv6_2_mbox_priorbox -> conv6_2_mbox_priorbox
I0209 22:43:52.556823  6526 net.cpp:150] Setting up conv6_2_mbox_priorbox
I0209 22:43:52.556829  6526 net.cpp:157] Top shape: 1 2 2400 (4800)
I0209 22:43:52.556833  6526 net.cpp:165] Memory required for data: 10106462976
I0209 22:43:52.556835  6526 layer_factory.hpp:77] Creating layer conv7_2_mbox_loc
I0209 22:43:52.556846  6526 net.cpp:100] Creating Layer conv7_2_mbox_loc
I0209 22:43:52.556850  6526 net.cpp:434] conv7_2_mbox_loc <- conv7_2_conv7_2_relu_0_split_1
I0209 22:43:52.556870  6526 net.cpp:408] conv7_2_mbox_loc -> conv7_2_mbox_loc
I0209 22:43:52.558563  6526 net.cpp:150] Setting up conv7_2_mbox_loc
I0209 22:43:52.558579  6526 net.cpp:157] Top shape: 40 24 5 5 (24000)
I0209 22:43:52.558584  6526 net.cpp:165] Memory required for data: 10106558976
I0209 22:43:52.558591  6526 layer_factory.hpp:77] Creating layer conv7_2_mbox_loc_perm
I0209 22:43:52.558599  6526 net.cpp:100] Creating Layer conv7_2_mbox_loc_perm
I0209 22:43:52.558604  6526 net.cpp:434] conv7_2_mbox_loc_perm <- conv7_2_mbox_loc
I0209 22:43:52.558611  6526 net.cpp:408] conv7_2_mbox_loc_perm -> conv7_2_mbox_loc_perm
I0209 22:43:52.558768  6526 net.cpp:150] Setting up conv7_2_mbox_loc_perm
I0209 22:43:52.558779  6526 net.cpp:157] Top shape: 40 5 5 24 (24000)
I0209 22:43:52.558781  6526 net.cpp:165] Memory required for data: 10106654976
I0209 22:43:52.558785  6526 layer_factory.hpp:77] Creating layer conv7_2_mbox_loc_flat
I0209 22:43:52.558791  6526 net.cpp:100] Creating Layer conv7_2_mbox_loc_flat
I0209 22:43:52.558795  6526 net.cpp:434] conv7_2_mbox_loc_flat <- conv7_2_mbox_loc_perm
I0209 22:43:52.558800  6526 net.cpp:408] conv7_2_mbox_loc_flat -> conv7_2_mbox_loc_flat
I0209 22:43:52.558837  6526 net.cpp:150] Setting up conv7_2_mbox_loc_flat
I0209 22:43:52.558843  6526 net.cpp:157] Top shape: 40 600 (24000)
I0209 22:43:52.558847  6526 net.cpp:165] Memory required for data: 10106750976
I0209 22:43:52.558851  6526 layer_factory.hpp:77] Creating layer conv7_2_mbox_conf
I0209 22:43:52.558862  6526 net.cpp:100] Creating Layer conv7_2_mbox_conf
I0209 22:43:52.558867  6526 net.cpp:434] conv7_2_mbox_conf <- conv7_2_conv7_2_relu_0_split_2
I0209 22:43:52.558874  6526 net.cpp:408] conv7_2_mbox_conf -> conv7_2_mbox_conf
I0209 22:43:52.562815  6526 net.cpp:150] Setting up conv7_2_mbox_conf
I0209 22:43:52.562832  6526 net.cpp:157] Top shape: 40 132 5 5 (132000)
I0209 22:43:52.562836  6526 net.cpp:165] Memory required for data: 10107278976
I0209 22:43:52.562844  6526 layer_factory.hpp:77] Creating layer conv7_2_mbox_conf_perm
I0209 22:43:52.562852  6526 net.cpp:100] Creating Layer conv7_2_mbox_conf_perm
I0209 22:43:52.562856  6526 net.cpp:434] conv7_2_mbox_conf_perm <- conv7_2_mbox_conf
I0209 22:43:52.562863  6526 net.cpp:408] conv7_2_mbox_conf_perm -> conv7_2_mbox_conf_perm
I0209 22:43:52.563019  6526 net.cpp:150] Setting up conv7_2_mbox_conf_perm
I0209 22:43:52.563030  6526 net.cpp:157] Top shape: 40 5 5 132 (132000)
I0209 22:43:52.563033  6526 net.cpp:165] Memory required for data: 10107806976
I0209 22:43:52.563036  6526 layer_factory.hpp:77] Creating layer conv7_2_mbox_conf_flat
I0209 22:43:52.563042  6526 net.cpp:100] Creating Layer conv7_2_mbox_conf_flat
I0209 22:43:52.563046  6526 net.cpp:434] conv7_2_mbox_conf_flat <- conv7_2_mbox_conf_perm
I0209 22:43:52.563053  6526 net.cpp:408] conv7_2_mbox_conf_flat -> conv7_2_mbox_conf_flat
I0209 22:43:52.563089  6526 net.cpp:150] Setting up conv7_2_mbox_conf_flat
I0209 22:43:52.563097  6526 net.cpp:157] Top shape: 40 3300 (132000)
I0209 22:43:52.563100  6526 net.cpp:165] Memory required for data: 10108334976
I0209 22:43:52.563103  6526 layer_factory.hpp:77] Creating layer conv7_2_mbox_priorbox
I0209 22:43:52.563110  6526 net.cpp:100] Creating Layer conv7_2_mbox_priorbox
I0209 22:43:52.563114  6526 net.cpp:434] conv7_2_mbox_priorbox <- conv7_2_conv7_2_relu_0_split_3
I0209 22:43:52.563119  6526 net.cpp:434] conv7_2_mbox_priorbox <- data_data_0_split_4
I0209 22:43:52.563127  6526 net.cpp:408] conv7_2_mbox_priorbox -> conv7_2_mbox_priorbox
I0209 22:43:52.563163  6526 net.cpp:150] Setting up conv7_2_mbox_priorbox
I0209 22:43:52.563171  6526 net.cpp:157] Top shape: 1 2 600 (1200)
I0209 22:43:52.563174  6526 net.cpp:165] Memory required for data: 10108339776
I0209 22:43:52.563179  6526 layer_factory.hpp:77] Creating layer conv8_2_mbox_loc
I0209 22:43:52.563189  6526 net.cpp:100] Creating Layer conv8_2_mbox_loc
I0209 22:43:52.563194  6526 net.cpp:434] conv8_2_mbox_loc <- conv8_2_conv8_2_relu_0_split_1
I0209 22:43:52.563200  6526 net.cpp:408] conv8_2_mbox_loc -> conv8_2_mbox_loc
I0209 22:43:52.564757  6526 net.cpp:150] Setting up conv8_2_mbox_loc
I0209 22:43:52.564784  6526 net.cpp:157] Top shape: 40 16 3 3 (5760)
I0209 22:43:52.564788  6526 net.cpp:165] Memory required for data: 10108362816
I0209 22:43:52.564808  6526 layer_factory.hpp:77] Creating layer conv8_2_mbox_loc_perm
I0209 22:43:52.564815  6526 net.cpp:100] Creating Layer conv8_2_mbox_loc_perm
I0209 22:43:52.564821  6526 net.cpp:434] conv8_2_mbox_loc_perm <- conv8_2_mbox_loc
I0209 22:43:52.564828  6526 net.cpp:408] conv8_2_mbox_loc_perm -> conv8_2_mbox_loc_perm
I0209 22:43:52.564990  6526 net.cpp:150] Setting up conv8_2_mbox_loc_perm
I0209 22:43:52.565001  6526 net.cpp:157] Top shape: 40 3 3 16 (5760)
I0209 22:43:52.565004  6526 net.cpp:165] Memory required for data: 10108385856
I0209 22:43:52.565008  6526 layer_factory.hpp:77] Creating layer conv8_2_mbox_loc_flat
I0209 22:43:52.565016  6526 net.cpp:100] Creating Layer conv8_2_mbox_loc_flat
I0209 22:43:52.565021  6526 net.cpp:434] conv8_2_mbox_loc_flat <- conv8_2_mbox_loc_perm
I0209 22:43:52.565026  6526 net.cpp:408] conv8_2_mbox_loc_flat -> conv8_2_mbox_loc_flat
I0209 22:43:52.565063  6526 net.cpp:150] Setting up conv8_2_mbox_loc_flat
I0209 22:43:52.565070  6526 net.cpp:157] Top shape: 40 144 (5760)
I0209 22:43:52.565073  6526 net.cpp:165] Memory required for data: 10108408896
I0209 22:43:52.565078  6526 layer_factory.hpp:77] Creating layer conv8_2_mbox_conf
I0209 22:43:52.565088  6526 net.cpp:100] Creating Layer conv8_2_mbox_conf
I0209 22:43:52.565091  6526 net.cpp:434] conv8_2_mbox_conf <- conv8_2_conv8_2_relu_0_split_2
I0209 22:43:52.565099  6526 net.cpp:408] conv8_2_mbox_conf -> conv8_2_mbox_conf
I0209 22:43:52.568264  6526 net.cpp:150] Setting up conv8_2_mbox_conf
I0209 22:43:52.568281  6526 net.cpp:157] Top shape: 40 88 3 3 (31680)
I0209 22:43:52.568285  6526 net.cpp:165] Memory required for data: 10108535616
I0209 22:43:52.568292  6526 layer_factory.hpp:77] Creating layer conv8_2_mbox_conf_perm
I0209 22:43:52.568301  6526 net.cpp:100] Creating Layer conv8_2_mbox_conf_perm
I0209 22:43:52.568306  6526 net.cpp:434] conv8_2_mbox_conf_perm <- conv8_2_mbox_conf
I0209 22:43:52.568312  6526 net.cpp:408] conv8_2_mbox_conf_perm -> conv8_2_mbox_conf_perm
I0209 22:43:52.568470  6526 net.cpp:150] Setting up conv8_2_mbox_conf_perm
I0209 22:43:52.568480  6526 net.cpp:157] Top shape: 40 3 3 88 (31680)
I0209 22:43:52.568483  6526 net.cpp:165] Memory required for data: 10108662336
I0209 22:43:52.568487  6526 layer_factory.hpp:77] Creating layer conv8_2_mbox_conf_flat
I0209 22:43:52.568493  6526 net.cpp:100] Creating Layer conv8_2_mbox_conf_flat
I0209 22:43:52.568497  6526 net.cpp:434] conv8_2_mbox_conf_flat <- conv8_2_mbox_conf_perm
I0209 22:43:52.568505  6526 net.cpp:408] conv8_2_mbox_conf_flat -> conv8_2_mbox_conf_flat
I0209 22:43:52.568541  6526 net.cpp:150] Setting up conv8_2_mbox_conf_flat
I0209 22:43:52.568547  6526 net.cpp:157] Top shape: 40 792 (31680)
I0209 22:43:52.568550  6526 net.cpp:165] Memory required for data: 10108789056
I0209 22:43:52.568553  6526 layer_factory.hpp:77] Creating layer conv8_2_mbox_priorbox
I0209 22:43:52.568562  6526 net.cpp:100] Creating Layer conv8_2_mbox_priorbox
I0209 22:43:52.568567  6526 net.cpp:434] conv8_2_mbox_priorbox <- conv8_2_conv8_2_relu_0_split_3
I0209 22:43:52.568572  6526 net.cpp:434] conv8_2_mbox_priorbox <- data_data_0_split_5
I0209 22:43:52.568579  6526 net.cpp:408] conv8_2_mbox_priorbox -> conv8_2_mbox_priorbox
I0209 22:43:52.568615  6526 net.cpp:150] Setting up conv8_2_mbox_priorbox
I0209 22:43:52.568622  6526 net.cpp:157] Top shape: 1 2 144 (288)
I0209 22:43:52.568625  6526 net.cpp:165] Memory required for data: 10108790208
I0209 22:43:52.568629  6526 layer_factory.hpp:77] Creating layer conv9_2_mbox_loc
I0209 22:43:52.568642  6526 net.cpp:100] Creating Layer conv9_2_mbox_loc
I0209 22:43:52.568647  6526 net.cpp:434] conv9_2_mbox_loc <- conv9_2_conv9_2_relu_0_split_0
I0209 22:43:52.568653  6526 net.cpp:408] conv9_2_mbox_loc -> conv9_2_mbox_loc
I0209 22:43:52.570207  6526 net.cpp:150] Setting up conv9_2_mbox_loc
I0209 22:43:52.570224  6526 net.cpp:157] Top shape: 40 16 1 1 (640)
I0209 22:43:52.570237  6526 net.cpp:165] Memory required for data: 10108792768
I0209 22:43:52.570245  6526 layer_factory.hpp:77] Creating layer conv9_2_mbox_loc_perm
I0209 22:43:52.570255  6526 net.cpp:100] Creating Layer conv9_2_mbox_loc_perm
I0209 22:43:52.570260  6526 net.cpp:434] conv9_2_mbox_loc_perm <- conv9_2_mbox_loc
I0209 22:43:52.570266  6526 net.cpp:408] conv9_2_mbox_loc_perm -> conv9_2_mbox_loc_perm
I0209 22:43:52.570432  6526 net.cpp:150] Setting up conv9_2_mbox_loc_perm
I0209 22:43:52.570442  6526 net.cpp:157] Top shape: 40 1 1 16 (640)
I0209 22:43:52.570446  6526 net.cpp:165] Memory required for data: 10108795328
I0209 22:43:52.570449  6526 layer_factory.hpp:77] Creating layer conv9_2_mbox_loc_flat
I0209 22:43:52.570456  6526 net.cpp:100] Creating Layer conv9_2_mbox_loc_flat
I0209 22:43:52.570461  6526 net.cpp:434] conv9_2_mbox_loc_flat <- conv9_2_mbox_loc_perm
I0209 22:43:52.570466  6526 net.cpp:408] conv9_2_mbox_loc_flat -> conv9_2_mbox_loc_flat
I0209 22:43:52.570502  6526 net.cpp:150] Setting up conv9_2_mbox_loc_flat
I0209 22:43:52.570510  6526 net.cpp:157] Top shape: 40 16 (640)
I0209 22:43:52.570513  6526 net.cpp:165] Memory required for data: 10108797888
I0209 22:43:52.570518  6526 layer_factory.hpp:77] Creating layer conv9_2_mbox_conf
I0209 22:43:52.570528  6526 net.cpp:100] Creating Layer conv9_2_mbox_conf
I0209 22:43:52.570533  6526 net.cpp:434] conv9_2_mbox_conf <- conv9_2_conv9_2_relu_0_split_1
I0209 22:43:52.570539  6526 net.cpp:408] conv9_2_mbox_conf -> conv9_2_mbox_conf
I0209 22:43:52.573727  6526 net.cpp:150] Setting up conv9_2_mbox_conf
I0209 22:43:52.573743  6526 net.cpp:157] Top shape: 40 88 1 1 (3520)
I0209 22:43:52.573750  6526 net.cpp:165] Memory required for data: 10108811968
I0209 22:43:52.573756  6526 layer_factory.hpp:77] Creating layer conv9_2_mbox_conf_perm
I0209 22:43:52.573763  6526 net.cpp:100] Creating Layer conv9_2_mbox_conf_perm
I0209 22:43:52.573767  6526 net.cpp:434] conv9_2_mbox_conf_perm <- conv9_2_mbox_conf
I0209 22:43:52.573774  6526 net.cpp:408] conv9_2_mbox_conf_perm -> conv9_2_mbox_conf_perm
I0209 22:43:52.573933  6526 net.cpp:150] Setting up conv9_2_mbox_conf_perm
I0209 22:43:52.573942  6526 net.cpp:157] Top shape: 40 1 1 88 (3520)
I0209 22:43:52.573946  6526 net.cpp:165] Memory required for data: 10108826048
I0209 22:43:52.573949  6526 layer_factory.hpp:77] Creating layer conv9_2_mbox_conf_flat
I0209 22:43:52.573956  6526 net.cpp:100] Creating Layer conv9_2_mbox_conf_flat
I0209 22:43:52.573961  6526 net.cpp:434] conv9_2_mbox_conf_flat <- conv9_2_mbox_conf_perm
I0209 22:43:52.573966  6526 net.cpp:408] conv9_2_mbox_conf_flat -> conv9_2_mbox_conf_flat
I0209 22:43:52.574004  6526 net.cpp:150] Setting up conv9_2_mbox_conf_flat
I0209 22:43:52.574010  6526 net.cpp:157] Top shape: 40 88 (3520)
I0209 22:43:52.574013  6526 net.cpp:165] Memory required for data: 10108840128
I0209 22:43:52.574018  6526 layer_factory.hpp:77] Creating layer conv9_2_mbox_priorbox
I0209 22:43:52.574023  6526 net.cpp:100] Creating Layer conv9_2_mbox_priorbox
I0209 22:43:52.574028  6526 net.cpp:434] conv9_2_mbox_priorbox <- conv9_2_conv9_2_relu_0_split_2
I0209 22:43:52.574033  6526 net.cpp:434] conv9_2_mbox_priorbox <- data_data_0_split_6
I0209 22:43:52.574040  6526 net.cpp:408] conv9_2_mbox_priorbox -> conv9_2_mbox_priorbox
I0209 22:43:52.574079  6526 net.cpp:150] Setting up conv9_2_mbox_priorbox
I0209 22:43:52.574086  6526 net.cpp:157] Top shape: 1 2 16 (32)
I0209 22:43:52.574090  6526 net.cpp:165] Memory required for data: 10108840256
I0209 22:43:52.574093  6526 layer_factory.hpp:77] Creating layer mbox_loc
I0209 22:43:52.574100  6526 net.cpp:100] Creating Layer mbox_loc
I0209 22:43:52.574105  6526 net.cpp:434] mbox_loc <- conv4_3_norm_mbox_loc_flat
I0209 22:43:52.574111  6526 net.cpp:434] mbox_loc <- fc7_mbox_loc_flat
I0209 22:43:52.574116  6526 net.cpp:434] mbox_loc <- conv6_2_mbox_loc_flat
I0209 22:43:52.574121  6526 net.cpp:434] mbox_loc <- conv7_2_mbox_loc_flat
I0209 22:43:52.574126  6526 net.cpp:434] mbox_loc <- conv8_2_mbox_loc_flat
I0209 22:43:52.574131  6526 net.cpp:434] mbox_loc <- conv9_2_mbox_loc_flat
I0209 22:43:52.574152  6526 net.cpp:408] mbox_loc -> mbox_loc
I0209 22:43:52.574193  6526 net.cpp:150] Setting up mbox_loc
I0209 22:43:52.574201  6526 net.cpp:157] Top shape: 40 34928 (1397120)
I0209 22:43:52.574205  6526 net.cpp:165] Memory required for data: 10114428736
I0209 22:43:52.574208  6526 layer_factory.hpp:77] Creating layer mbox_conf
I0209 22:43:52.574215  6526 net.cpp:100] Creating Layer mbox_conf
I0209 22:43:52.574220  6526 net.cpp:434] mbox_conf <- conv4_3_norm_mbox_conf_flat
I0209 22:43:52.574225  6526 net.cpp:434] mbox_conf <- fc7_mbox_conf_flat
I0209 22:43:52.574230  6526 net.cpp:434] mbox_conf <- conv6_2_mbox_conf_flat
I0209 22:43:52.574235  6526 net.cpp:434] mbox_conf <- conv7_2_mbox_conf_flat
I0209 22:43:52.574239  6526 net.cpp:434] mbox_conf <- conv8_2_mbox_conf_flat
I0209 22:43:52.574244  6526 net.cpp:434] mbox_conf <- conv9_2_mbox_conf_flat
I0209 22:43:52.574249  6526 net.cpp:408] mbox_conf -> mbox_conf
I0209 22:43:52.574286  6526 net.cpp:150] Setting up mbox_conf
I0209 22:43:52.574292  6526 net.cpp:157] Top shape: 40 192104 (7684160)
I0209 22:43:52.574296  6526 net.cpp:165] Memory required for data: 10145165376
I0209 22:43:52.574300  6526 layer_factory.hpp:77] Creating layer mbox_priorbox
I0209 22:43:52.574306  6526 net.cpp:100] Creating Layer mbox_priorbox
I0209 22:43:52.574309  6526 net.cpp:434] mbox_priorbox <- conv4_3_norm_mbox_priorbox
I0209 22:43:52.574314  6526 net.cpp:434] mbox_priorbox <- fc7_mbox_priorbox
I0209 22:43:52.574318  6526 net.cpp:434] mbox_priorbox <- conv6_2_mbox_priorbox
I0209 22:43:52.574322  6526 net.cpp:434] mbox_priorbox <- conv7_2_mbox_priorbox
I0209 22:43:52.574326  6526 net.cpp:434] mbox_priorbox <- conv8_2_mbox_priorbox
I0209 22:43:52.574331  6526 net.cpp:434] mbox_priorbox <- conv9_2_mbox_priorbox
I0209 22:43:52.574335  6526 net.cpp:408] mbox_priorbox -> mbox_priorbox
I0209 22:43:52.574379  6526 net.cpp:150] Setting up mbox_priorbox
I0209 22:43:52.574388  6526 net.cpp:157] Top shape: 1 2 34928 (69856)
I0209 22:43:52.574390  6526 net.cpp:165] Memory required for data: 10145444800
I0209 22:43:52.574393  6526 layer_factory.hpp:77] Creating layer mbox_conf_reshape
I0209 22:43:52.574409  6526 net.cpp:100] Creating Layer mbox_conf_reshape
I0209 22:43:52.574412  6526 net.cpp:434] mbox_conf_reshape <- mbox_conf
I0209 22:43:52.574419  6526 net.cpp:408] mbox_conf_reshape -> mbox_conf_reshape
I0209 22:43:52.574463  6526 net.cpp:150] Setting up mbox_conf_reshape
I0209 22:43:52.574470  6526 net.cpp:157] Top shape: 40 8732 22 (7684160)
I0209 22:43:52.574473  6526 net.cpp:165] Memory required for data: 10176181440
I0209 22:43:52.574477  6526 layer_factory.hpp:77] Creating layer mbox_conf_softmax
I0209 22:43:52.574486  6526 net.cpp:100] Creating Layer mbox_conf_softmax
I0209 22:43:52.574491  6526 net.cpp:434] mbox_conf_softmax <- mbox_conf_reshape
I0209 22:43:52.574496  6526 net.cpp:408] mbox_conf_softmax -> mbox_conf_softmax
I0209 22:43:52.574793  6526 net.cpp:150] Setting up mbox_conf_softmax
I0209 22:43:52.574805  6526 net.cpp:157] Top shape: 40 8732 22 (7684160)
I0209 22:43:52.574810  6526 net.cpp:165] Memory required for data: 10206918080
I0209 22:43:52.574813  6526 layer_factory.hpp:77] Creating layer mbox_conf_flatten
I0209 22:43:52.574820  6526 net.cpp:100] Creating Layer mbox_conf_flatten
I0209 22:43:52.574823  6526 net.cpp:434] mbox_conf_flatten <- mbox_conf_softmax
I0209 22:43:52.574829  6526 net.cpp:408] mbox_conf_flatten -> mbox_conf_flatten
I0209 22:43:52.574868  6526 net.cpp:150] Setting up mbox_conf_flatten
I0209 22:43:52.574877  6526 net.cpp:157] Top shape: 40 192104 (7684160)
I0209 22:43:52.574880  6526 net.cpp:165] Memory required for data: 10237654720
I0209 22:43:52.574883  6526 layer_factory.hpp:77] Creating layer detection_out
I0209 22:43:52.574903  6526 net.cpp:100] Creating Layer detection_out
I0209 22:43:52.574908  6526 net.cpp:434] detection_out <- mbox_loc
I0209 22:43:52.574913  6526 net.cpp:434] detection_out <- mbox_conf_flatten
I0209 22:43:52.574918  6526 net.cpp:434] detection_out <- mbox_priorbox
I0209 22:43:52.574934  6526 net.cpp:408] detection_out -> detection_out
I0209 22:43:52.577890  6526 net.cpp:150] Setting up detection_out
I0209 22:43:52.577906  6526 net.cpp:157] Top shape: 1 1 1 7 (7)
I0209 22:43:52.577910  6526 net.cpp:165] Memory required for data: 10237654748
I0209 22:43:52.577914  6526 layer_factory.hpp:77] Creating layer detection_eval
I0209 22:43:52.577922  6526 net.cpp:100] Creating Layer detection_eval
I0209 22:43:52.577927  6526 net.cpp:434] detection_eval <- detection_out
I0209 22:43:52.577932  6526 net.cpp:434] detection_eval <- label
I0209 22:43:52.577939  6526 net.cpp:408] detection_eval -> detection_eval
I0209 22:43:52.579072  6526 net.cpp:150] Setting up detection_eval
I0209 22:43:52.579084  6526 net.cpp:157] Top shape: 1 1 22 5 (110)
I0209 22:43:52.579088  6526 net.cpp:165] Memory required for data: 10237655188
I0209 22:43:52.579092  6526 net.cpp:228] detection_eval does not need backward computation.
I0209 22:43:52.579097  6526 net.cpp:228] detection_out does not need backward computation.
I0209 22:43:52.579102  6526 net.cpp:228] mbox_conf_flatten does not need backward computation.
I0209 22:43:52.579105  6526 net.cpp:228] mbox_conf_softmax does not need backward computation.
…
