…
      sampler {
        min_scale: 0.3
        max_scale: 1
        min_aspect_ratio: 0.5
        max_aspect_ratio: 2
      }
      sample_constraint {
        min_jaccard_overlap: 0.9
      }
      max_sample: 1
      max_trials: 50
    }
    batch_sampler {
      sampler {
        min_scale: 0.3
        max_scale: 1
        min_aspect_ratio: 0.5
        max_aspect_ratio: 2
      }
      sample_constraint {
        max_jaccard_overlap: 1
      }
      max_sample: 1
      max_trials: 50
    }
    label_map_file: "data/VOC0712/labelmap_voc.prototxt"
  }
}
layer {
  name: "conv1_1_rgbd"
  type: "Convolution"
  bottom: "data"
  top: "conv1_1_rgbd"
  param {
    lr_mult: 1
    decay_mult: 1
  }
  param {
    lr_mult: 2
    decay_mult: 0
  }
  convolution_param {
    num_output: 64
    pad: 1
    kernel_size: 3
    weight_filler {
      type: "xavier"
    }
    bias_filler {
      type: "constant"
      value: 0
    }
  }
}
layer {
  name: "relu1_1"
  type: "ReLU"
  bottom: "conv1_1_rgbd"
  top: "conv1_1_rgbd"
}
layer {
  name: "conv1_2"
  type: "Convolution"
  bottom: "conv1_1_rgbd"
  top: "conv1_2"
  param {
    lr_mult: 1
    decay_mult: 1
  }
  param {
    lr_mult: 2
    decay_mult: 0
  }
  convolution_param {
    num_output: 64
    pad: 1
    kernel_size: 3
    weight_filler {
      type: "xavier"
    }
    bias_filler {
      type: "constant"
      value: 0
    }
  }
}
layer {
  name: "relu1_2"
  type: "ReLU"
  bottom: "conv1_2"
  top: "conv1_2"
}
layer {
  name: "pool1"
  type: "Pooling"
  bottom: "conv1_2"
  top: "pool1"
  pooling_param {
    pool: MAX
    kernel_size: 2
    stride: 2
  }
}
layer {
  name: "conv2_1"
  type: "Convolution"
  bottom: "pool1"
  top: "conv2_1"
  param {
    lr_mult: 1
    decay_mult: 1
  }
  param {
    lr_mult: 2
    decay_mult: 0
  }
  convolution_param {
    num_output: 128
    pad: 1
    kernel_size: 3
    weight_filler {
      type: "xavier"
    }
    bias_filler {
      type: "constant"
      value: 0
    }
  }
}
layer {
  name: "relu2_1"
  type: "ReLU"
  bottom: "conv2_1"
  top: "conv2_1"
}
layer {
  name: "conv2_2"
  type: "Convolution"
  bottom: "conv2_1"
  top: "conv2_2"
  param {
    lr_mult: 1
    decay_mult: 1
  }
  param {
    lr_mult: 2
    decay_mult: 0
  }
  convolution_param {
    num_output: 128
    pad: 1
    kernel_size: 3
    weight_filler {
      type: "xavier"
    }
    bias_filler {
      type: "constant"
      value: 0
    }
  }
}
layer {
  name: "relu2_2"
  type: "ReLU"
  bottom: "conv2_2"
  top: "conv2_2"
}
layer {
  name: "pool2"
  type: "Pooling"
  bottom: "conv2_2"
  top: "pool2"
  pooling_param {
    pool: MAX
    kernel_size: 2
    stride: 2
  }
}
layer {
  name: "conv3_1"
  type: "Convolution"
  bottom: "pool2"
  top: "conv3_1"
  param {
    lr_mult: 1
    decay_mult: 1
  }
  param {
    lr_mult: 2
    decay_mult: 0
  }
  convolution_param {
    num_output: 256
    pad: 1
    kernel_size: 3
    weight_filler {
      type: "xavier"
    }
    bias_filler {
      type: "constant"
      value: 0
    }
  }
}
layer {
  name: "relu3_1"
  type: "ReLU"
  bottom: "conv3_1"
  top: "conv3_1"
}
layer {
  name: "conv3_2"
  type: "Convolution"
  bottom: "conv3_1"
  top: "conv3_2"
  param {
    lr_mult: 1
    decay_mult: 1
  }
  param {
    lr_mult: 2
    decay_mult: 0
  }
  convolution_param {
    num_output: 256
    pad: 1
    kernel_size: 3
    weight_filler {
      type: "xavier"
    }
    bias_filler {
      type: "constant"
      value: 0
    }
  }
}
layer {
  name: "relu3_2"
  type: "ReLU"
  bottom: "conv3_2"
  top: "conv3_2"
}
layer {
  name: "conv3_3"
  type: "Convolution"
  bottom: "conv3_2"
  top: "conv3_3"
  param {
    lr_mult: 1
    decay_mult: 1
  }
  param {
    lr_mult: 2
    decay_mult: 0
  }
  convolution_param {
    num_output: 256
    pad: 1
    kernel_size: 3
    weight_filler {
      type: "xavier"
    }
    bias_filler {
      type: "constant"
      value: 0
    }
  }
}
layer {
  name: "relu3_3"
  type: "ReLU"
  bottom: "conv3_3"
  top: "conv3_3"
}
layer {
  name: "pool3"
  type: "Pooling"
  bottom: "conv3_3"
  top: "pool3"
  pooling_param {
    pool: MAX
    kernel_size: 2
    stride: 2
  }
}
layer {
  name: "conv4_1"
  type: "Convolution"
  bottom: "pool3"
  top: "conv4_1"
  param {
    lr_mult: 1
    decay_mult: 1
  }
  param {
    lr_mult: 2
    decay_mult: 0
  }
  convolution_param {
    num_output: 512
    pad: 1
    kernel_size: 3
    weight_filler {
      type: "xavier"
    }
    bias_filler {
      type: "constant"
      value: 0
    }
  }
}
layer {
  name: "relu4_1"
  type: "ReLU"
  bottom: "conv4_1"
  top: "conv4_1"
}
layer {
  name: "conv4_2"
  type: "Convolution"
  bottom: "conv4_1"
  top: "conv4_2"
  param {
    lr_mult: 1
    decay_mult: 1
  }
  param {
    lr_mult: 2
    decay_mult: 0
  }
  convolution_param {
    num_output: 512
    pad: 1
    kernel_size: 3
    weight_filler {
      type: "xavier"
    }
    bias_filler {
      type: "constant"
      value: 0
    }
  }
}
layer {
  name: "relu4_2"
  type: "ReLU"
  bottom: "conv4_2"
  top: "conv4_2"
}
layer {
  name: "conv4_3"
  type: "Convolution"
  bottom: "conv4_2"
  top: "conv4_3"
  param {
    lr_mult: 1
    decay_mult: 1
  }
  param {
    lr_mult: 2
    decay_mult: 0
  }
  convolution_param {
    num_output: 512
    pad: 1
    kernel_size: 3
    weight_filler {
      type: "xavier"
    }
    bias_filler {
      type: "constant"
      value: 0
    }
  }
}
layer {
  name: "relu4_3"
  type: "ReLU"
  bottom: "conv4_3"
  top: "conv4_3"
}
layer {
  name: "pool4"
  type: "Pooling"
  bottom: "conv4_3"
  top: "pool4"
  pooling_param {
    pool: MAX
    kernel_size: 2
    stride: 2
  }
}
layer {
  name: "conv5_1"
  type: "Convolution"
  bottom: "pool4"
  top: "conv5_1"
  param {
    lr_mult: 1
    decay_mult: 1
  }
  param {
    lr_mult: 2
    decay_mult: 0
  }
  convolution_param {
    num_output: 512
    pad: 1
    kernel_size: 3
    weight_filler {
      type: "xavier"
    }
    bias_filler {
      type: "constant"
      value: 0
    }
    dilation: 1
  }
}
layer {
  name: "relu5_1"
  type: "ReLU"
  bottom: "conv5_1"
  top: "conv5_1"
}
layer {
  name: "conv5_2"
  type: "Convolution"
  bottom: "conv5_1"
  top: "conv5_2"
  param {
    lr_mult: 1
    decay_mult: 1
  }
  param {
    lr_mult: 2
    decay_mult: 0
  }
  convolution_param {
    num_output: 512
    pad: 1
    kernel_size: 3
    weight_filler {
      type: "xavier"
    }
    bias_filler {
      type: "constant"
      value: 0
    }
    dilation: 1
  }
}
layer {
  name: "relu5_2"
  type: "ReLU"
  bottom: "conv5_2"
  top: "conv5_2"
}
layer {
  name: "conv5_3"
  type: "Convolution"
  bottom: "conv5_2"
  top: "conv5_3"
  param {
    lr_mult: 1
    decay_mult: 1
  }
  param {
    lr_mult: 2
    decay_mult: 0
  }
  convolution_param {
    num_output: 512
    pad: 1
    kernel_size: 3
    weight_filler {
      type: "xavier"
    }
    bias_filler {
      type: "constant"
      value: 0
    }
    dilation: 1
  }
}
layer {
  name: "relu5_3"
  type: "ReLU"
  bottom: "conv5_3"
  top: "conv5_3"
}
layer {
  name: "pool5"
  type: "Pooling"
  bottom: "conv5_3"
  top: "pool5"
  pooling_param {
    pool: MAX
    kernel_size: 3
    stride: 1
    pad: 1
  }
}
layer {
  name: "fc6"
  type: "Convolution"
  bottom: "pool5"
  top: "fc6"
  param {
    lr_mult: 1
    decay_mult: 1
  }
  param {
    lr_mult: 2
    decay_mult: 0
  }
  convolution_param {
    num_output: 1024
    pad: 6
    kernel_size: 3
    weight_filler {
      type: "xavier"
    }
    bias_filler {
      type: "constant"
      value: 0
    }
    dilation: 6
  }
}
layer {
  name: "relu6"
  type: "ReLU"
  bottom: "fc6"
  top: "fc6"
}
layer {
  name: "fc7"
  type: "Convolution"
  bottom: "fc6"
  top: "fc7"
  param {
    lr_mult: 1
    decay_mult: 1
  }
  param {
    lr_mult: 2
    decay_mult: 0
  }
  convolution_param {
    num_output: 1024
    kernel_size: 1
    weight_filler {
      type: "xavier"
    }
    bias_filler {
      type: "constant"
      value: 0
    }
  }
}
layer {
  name: "relu7"
  type: "ReLU"
  bottom: "fc7"
  top: "fc7"
}
layer {
  name: "conv6_1"
  type: "Convolution"
  bottom: "fc7"
  top: "conv6_1"
  param {
    lr_mult: 1
    decay_mult: 1
  }
  param {
    lr_mult: 2
    decay_mult: 0
  }
  convolution_param {
    num_output: 256
    pad: 0
    kernel_size: 1
    stride: 1
    weight_filler {
      type: "xavier"
    }
    bias_filler {
      type: "constant"
      value: 0
    }
  }
}
layer {
  name: "conv6_1_relu"
  type: "ReLU"
  bottom: "conv6_1"
  top: "conv6_1"
}
layer {
  name: "conv6_2"
  type: "Convolution"
  bottom: "conv6_1"
  top: "conv6_2"
  param {
    lr_mult: 1
    decay_mult: 1
  }
  param {
    lr_mult: 2
    decay_mult: 0
  }
  convolution_param {
    num_output: 512
    pad: 1
    kernel_size: 3
    stride: 2
    weight_filler {
      type: "xavier"
    }
    bias_filler {
      type: "constant"
      value: 0
    }
  }
}
layer {
  name: "conv6_2_relu"
  type: "ReLU"
  bottom: "conv6_2"
  top: "conv6_2"
}
layer {
  name: "conv7_1"
  type: "Convolution"
  bottom: "conv6_2"
  top: "conv7_1"
  param {
    lr_mult: 1
    decay_mult: 1
  }
  param {
    lr_mult: 2
    decay_mult: 0
  }
  convolution_param {
    num_output: 128
    pad: 0
    kernel_size: 1
    stride: 1
    weight_filler {
      type: "xavier"
    }
    bias_filler {
      type: "constant"
      value: 0
    }
  }
}
layer {
  name: "conv7_1_relu"
  type: "ReLU"
  bottom: "conv7_1"
  top: "conv7_1"
}
layer {
  name: "conv7_2"
  type: "Convolution"
  bottom: "conv7_1"
  top: "conv7_2"
  param {
    lr_mult: 1
    decay_mult: 1
  }
  param {
    lr_mult: 2
    decay_mult: 0
  }
  convolution_param {
    num_output: 256
    pad: 1
    kernel_size: 3
    stride: 2
    weight_filler {
      type: "xavier"
    }
    bias_filler {
      type: "constant"
      value: 0
    }
  }
}
layer {
  name: "conv7_2_relu"
  type: "ReLU"
  bottom: "conv7_2"
  top: "conv7_2"
}
layer {
  name: "conv8_1"
  type: "Convolution"
  bottom: "conv7_2"
  top: "conv8_1"
  param {
    lr_mult: 1
    decay_mult: 1
  }
  param {
    lr_mult: 2
    decay_mult: 0
  }
  convolution_param {
    num_output: 128
    pad: 0
    kernel_size: 1
    stride: 1
    weight_filler {
      type: "xavier"
    }
    bias_filler {
      type: "constant"
      value: 0
    }
  }
}
layer {
  name: "conv8_1_relu"
  type: "ReLU"
  bottom: "conv8_1"
  top: "conv8_1"
}
layer {
  name: "conv8_2"
  type: "Convolution"
  bottom: "conv8_1"
  top: "conv8_2"
  param {
    lr_mult: 1
    decay_mult: 1
  }
  param {
    lr_mult: 2
    decay_mult: 0
  }
  convolution_param {
    num_output: 256
    pad: 0
    kernel_size: 3
    stride: 1
    weight_filler {
      type: "xavier"
    }
    bias_filler {
      type: "constant"
      value: 0
    }
  }
}
layer {
  name: "conv8_2_relu"
  type: "ReLU"
  bottom: "conv8_2"
  top: "conv8_2"
}
layer {
  name: "conv9_1"
  type: "Convolution"
  bottom: "conv8_2"
  top: "conv9_1"
  param {
    lr_mult: 1
    decay_mult: 1
  }
  param {
    lr_mult: 2
    decay_mult: 0
  }
  convolution_param {
    num_output: 128
    pad: 0
    kernel_size: 1
    stride: 1
    weight_filler {
      type: "xavier"
    }
    bias_filler {
      type: "constant"
      value: 0
    }
  }
}
layer {
  name: "conv9_1_relu"
  type: "ReLU"
  bottom: "conv9_1"
  top: "conv9_1"
}
layer {
  name: "conv9_2"
  type: "Convolution"
  bottom: "conv9_1"
  top: "conv9_2"
  param {
    lr_mult: 1
    decay_mult: 1
  }
  param {
    lr_mult: 2
    decay_mult: 0
  }
  convolution_param {
    num_output: 256
    pad: 0
    kernel_size: 3
    stride: 1
    weight_filler {
      type: "xavier"
    }
    bias_filler {
      type: "constant"
      value: 0
    }
  }
}
layer {
  name: "conv9_2_relu"
  type: "ReLU"
  bottom: "conv9_2"
  top: "conv9_2"
}
layer {
  name: "conv4_3_norm"
  type: "Normalize"
  bottom: "conv4_3"
  top: "conv4_3_norm"
  norm_param {
    across_spatial: false
    scale_filler {
      type: "constant"
      value: 20
    }
    channel_shared: false
  }
}
layer {
  name: "conv4_3_norm_mbox_loc"
  type: "Convolution"
  bottom: "conv4_3_norm"
  top: "conv4_3_norm_mbox_loc"
  param {
    lr_mult: 1
    decay_mult: 1
  }
  param {
    lr_mult: 2
    decay_mult: 0
  }
  convolution_param {
    num_output: 16
    pad: 1
    kernel_size: 3
    stride: 1
    weight_filler {
      type: "xavier"
    }
    bias_filler {
      type: "constant"
      value: 0
    }
  }
}
layer {
  name: "conv4_3_norm_mbox_loc_perm"
  type: "Permute"
  bottom: "conv4_3_norm_mbox_loc"
  top: "conv4_3_norm_mbox_loc_perm"
  permute_param {
    order: 0
    order: 2
    order: 3
    order: 1
  }
}
layer {
  name: "conv4_3_norm_mbox_loc_flat"
  type: "Flatten"
  bottom: "conv4_3_norm_mbox_loc_perm"
  top: "conv4_3_norm_mbox_loc_flat"
  flatten_param {
    axis: 1
  }
}
layer {
  name: "conv4_3_norm_mbox_conf"
  type: "Convolution"
  bottom: "conv4_3_norm"
  top: "conv4_3_norm_mbox_conf"
  param {
    lr_mult: 1
    decay_mult: 1
  }
  param {
    lr_mult: 2
    decay_mult: 0
  }
  convolution_param {
    num_output: 88
    pad: 1
    kernel_size: 3
    stride: 1
    weight_filler {
      type: "xavier"
    }
    bias_filler {
      type: "constant"
      value: 0
    }
  }
}
layer {
  name: "conv4_3_norm_mbox_conf_perm"
  type: "Permute"
  bottom: "conv4_3_norm_mbox_conf"
  top: "conv4_3_norm_mbox_conf_perm"
  permute_param {
    order: 0
    order: 2
    order: 3
    order: 1
  }
}
layer {
  name: "conv4_3_norm_mbox_conf_flat"
  type: "Flatten"
  bottom: "conv4_3_norm_mbox_conf_perm"
  top: "conv4_3_norm_mbox_conf_flat"
  flatten_param {
    axis: 1
  }
}
layer {
  name: "conv4_3_norm_mbox_priorbox"
  type: "PriorBox"
  bottom: "conv4_3_norm"
  bottom: "data"
  top: "conv4_3_norm_mbox_priorbox"
  prior_box_param {
    min_size: 30
    max_size: 60
    aspect_ratio: 2
    flip: true
    clip: false
    variance: 0.1
    variance: 0.1
    variance: 0.2
    variance: 0.2
    step: 8
    offset: 0.5
  }
}
layer {
  name: "fc7_mbox_loc"
  type: "Convolution"
  bottom: "fc7"
  top: "fc7_mbox_loc"
  param {
    lr_mult: 1
    decay_mult: 1
  }
  param {
    lr_mult: 2
    decay_mult: 0
  }
  convolution_param {
    num_output: 24
    pad: 1
    kernel_size: 3
    stride: 1
    weight_filler {
      type: "xavier"
    }
    bias_filler {
      type: "constant"
      value: 0
    }
  }
}
layer {
  name: "fc7_mbox_loc_perm"
  type: "Permute"
  bottom: "fc7_mbox_loc"
  top: "fc7_mbox_loc_perm"
  permute_param {
    order: 0
    order: 2
    order: 3
    order: 1
  }
}
layer {
  name: "fc7_mbox_loc_flat"
  type: "Flatten"
  bottom: "fc7_mbox_loc_perm"
  top: "fc7_mbox_loc_flat"
  flatten_param {
    axis: 1
  }
}
layer {
  name: "fc7_mbox_conf"
  type: "Convolution"
  bottom: "fc7"
  top: "fc7_mbox_conf"
  param {
    lr_mult: 1
    decay_mult: 1
  }
  param {
    lr_mult: 2
    decay_mult: 0
  }
  convolution_param {
    num_output: 132
    pad: 1
    kernel_size: 3
    stride: 1
    weight_filler {
      type: "xavier"
    }
    bias_filler {
      type: "constant"
      value: 0
    }
  }
}
layer {
  name: "fc7_mbox_conf_perm"
  type: "Permute"
  bottom: "fc7_mbox_conf"
  top: "fc7_mbox_conf_perm"
  permute_param {
    order: 0
    order: 2
    order: 3
    order: 1
  }
}
layer {
  name: "fc7_mbox_conf_flat"
  type: "Flatten"
  bottom: "fc7_mbox_conf_perm"
  top: "fc7_mbox_conf_flat"
  flatten_param {
    axis: 1
  }
}
layer {
  name: "fc7_mbox_priorbox"
  type: "PriorBox"
  bottom: "fc7"
  bottom: "data"
  top: "fc7_mbox_priorbox"
  prior_box_param {
    min_size: 60
    max_size: 111
    aspect_ratio: 2
    aspect_ratio: 3
    flip: true
    clip: false
    variance: 0.1
    variance: 0.1
    variance: 0.2
    variance: 0.2
    step: 16
    offset: 0.5
  }
}
layer {
  name: "conv6_2_mbox_loc"
  type: "Convolution"
  bottom: "conv6_2"
  top: "conv6_2_mbox_loc"
  param {
    lr_mult: 1
    decay_mult: 1
  }
  param {
    lr_mult: 2
    decay_mult: 0
  }
  convolution_param {
    num_output: 24
    pad: 1
    kernel_size: 3
    stride: 1
    weight_filler {
      type: "xavier"
    }
    bias_filler {
      type: "constant"
      value: 0
    }
  }
}
layer {
  name: "conv6_2_mbox_loc_perm"
  type: "Permute"
  bottom: "conv6_2_mbox_loc"
  top: "conv6_2_mbox_loc_perm"
  permute_param {
    order: 0
    order: 2
    order: 3
    order: 1
  }
}
layer {
  name: "conv6_2_mbox_loc_flat"
  type: "Flatten"
  bottom: "conv6_2_mbox_loc_perm"
  top: "conv6_2_mbox_loc_flat"
  flatten_param {
    axis: 1
  }
}
layer {
  name: "conv6_2_mbox_conf"
  type: "Convolution"
  bottom: "conv6_2"
  top: "conv6_2_mbox_conf"
  param {
    lr_mult: 1
    decay_mult: 1
  }
  param {
    lr_mult: 2
    decay_mult: 0
  }
  convolution_param {
    num_output: 132
    pad: 1
    kernel_size: 3
    stride: 1
    weight_filler {
      type: "xavier"
    }
    bias_filler {
      type: "constant"
      value: 0
    }
  }
}
layer {
  name: "conv6_2_mbox_conf_perm"
  type: "Permute"
  bottom: "conv6_2_mbox_conf"
  top: "conv6_2_mbox_conf_perm"
  permute_param {
    order: 0
    order: 2
    order: 3
    order: 1
  }
}
layer {
  name: "conv6_2_mbox_conf_flat"
  type: "Flatten"
  bottom: "conv6_2_mbox_conf_perm"
  top: "conv6_2_mbox_conf_flat"
  flatten_param {
    axis: 1
  }
}
layer {
  name: "conv6_2_mbox_priorbox"
  type: "PriorBox"
  bottom: "conv6_2"
  bottom: "data"
  top: "conv6_2_mbox_priorbox"
  prior_box_param {
    min_size: 111
    max_size: 162
    aspect_ratio: 2
    aspect_ratio: 3
    flip: true
    clip: false
    variance: 0.1
    variance: 0.1
    variance: 0.2
    variance: 0.2
    step: 32
    offset: 0.5
  }
}
layer {
  name: "conv7_2_mbox_loc"
  type: "Convolution"
  bottom: "conv7_2"
  top: "conv7_2_mbox_loc"
  param {
    lr_mult: 1
    decay_mult: 1
  }
  param {
    lr_mult: 2
    decay_mult: 0
  }
  convolution_param {
    num_output: 24
    pad: 1
    kernel_size: 3
    stride: 1
    weight_filler {
      type: "xavier"
    }
    bias_filler {
      type: "constant"
      value: 0
    }
  }
}
layer {
  name: "conv7_2_mbox_loc_perm"
  type: "Permute"
  bottom: "conv7_2_mbox_loc"
  top: "conv7_2_mbox_loc_perm"
  permute_param {
    order: 0
    order: 2
    order: 3
    order: 1
  }
}
layer {
  name: "conv7_2_mbox_loc_flat"
  type: "Flatten"
  bottom: "conv7_2_mbox_loc_perm"
  top: "conv7_2_mbox_loc_flat"
  flatten_param {
    axis: 1
  }
}
layer {
  name: "conv7_2_mbox_conf"
  type: "Convolution"
  bottom: "conv7_2"
  top: "conv7_2_mbox_conf"
  param {
    lr_mult: 1
    decay_mult: 1
  }
  param {
    lr_mult: 2
    decay_mult: 0
  }
  convolution_param {
    num_output: 132
    pad: 1
    kernel_size: 3
    stride: 1
    weight_filler {
      type: "xavier"
    }
    bias_filler {
      type: "constant"
      value: 0
    }
  }
}
layer {
  name: "conv7_2_mbox_conf_perm"
  type: "Permute"
  bottom: "conv7_2_mbox_conf"
  top: "conv7_2_mbox_conf_perm"
  permute_param {
    order: 0
    order: 2
    order: 3
    order: 1
  }
}
layer {
  name: "conv7_2_mbox_conf_flat"
  type: "Flatten"
  bottom: "conv7_2_mbox_conf_perm"
  top: "conv7_2_mbox_conf_flat"
  flatten_param {
    axis: 1
  }
}
layer {
  name: "conv7_2_mbox_priorbox"
  type: "PriorBox"
  bottom: "conv7_2"
  bottom: "data"
  top: "conv7_2_mbox_priorbox"
  prior_box_param {
    min_size: 162
    max_size: 213
    aspect_ratio: 2
    aspect_ratio: 3
    flip: true
    clip: false
    variance: 0.1
    variance: 0.1
    variance: 0.2
    variance: 0.2
    step: 64
    offset: 0.5
  }
}
layer {
  name: "conv8_2_mbox_loc"
  type: "Convolution"
  bottom: "conv8_2"
  top: "conv8_2_mbox_loc"
  param {
    lr_mult: 1
    decay_mult: 1
  }
  param {
    lr_mult: 2
    decay_mult: 0
  }
  convolution_param {
    num_output: 16
    pad: 1
    kernel_size: 3
    stride: 1
    weight_filler {
      type: "xavier"
    }
    bias_filler {
      type: "constant"
      value: 0
    }
  }
}
layer {
  name: "conv8_2_mbox_loc_perm"
  type: "Permute"
  bottom: "conv8_2_mbox_loc"
  top: "conv8_2_mbox_loc_perm"
  permute_param {
    order: 0
    order: 2
    order: 3
    order: 1
  }
}
layer {
  name: "conv8_2_mbox_loc_flat"
  type: "Flatten"
  bottom: "conv8_2_mbox_loc_perm"
  top: "conv8_2_mbox_loc_flat"
  flatten_param {
    axis: 1
  }
}
layer {
  name: "conv8_2_mbox_conf"
  type: "Convolution"
  bottom: "conv8_2"
  top: "conv8_2_mbox_conf"
  param {
    lr_mult: 1
    decay_mult: 1
  }
  param {
    lr_mult: 2
    decay_mult: 0
  }
  convolution_param {
    num_output: 88
    pad: 1
    kernel_size: 3
    stride: 1
    weight_filler {
      type: "xavier"
    }
    bias_filler {
      type: "constant"
      value: 0
    }
  }
}
layer {
  name: "conv8_2_mbox_conf_perm"
  type: "Permute"
  bottom: "conv8_2_mbox_conf"
  top: "conv8_2_mbox_conf_perm"
  permute_param {
    order: 0
    order: 2
    order: 3
    order: 1
  }
}
layer {
  name: "conv8_2_mbox_conf_flat"
  type: "Flatten"
  bottom: "conv8_2_mbox_conf_perm"
  top: "conv8_2_mbox_conf_flat"
  flatten_param {
    axis: 1
  }
}
layer {
  name: "conv8_2_mbox_priorbox"
  type: "PriorBox"
  bottom: "conv8_2"
  bottom: "data"
  top: "conv8_2_mbox_priorbox"
  prior_box_param {
    min_size: 213
    max_size: 264
    aspect_ratio: 2
    flip: true
    clip: false
    variance: 0.1
    variance: 0.1
    variance: 0.2
    variance: 0.2
    step: 100
    offset: 0.5
  }
}
layer {
  name: "conv9_2_mbox_loc"
  type: "Convolution"
  bottom: "conv9_2"
  top: "conv9_2_mbox_loc"
  param {
    lr_mult: 1
    decay_mult: 1
  }
  param {
    lr_mult: 2
    decay_mult: 0
  }
  convolution_param {
    num_output: 16
    pad: 1
    kernel_size: 3
    stride: 1
    weight_filler {
      type: "xavier"
    }
    bias_filler {
      type: "constant"
      value: 0
    }
  }
}
layer {
  name: "conv9_2_mbox_loc_perm"
  type: "Permute"
  bottom: "conv9_2_mbox_loc"
  top: "conv9_2_mbox_loc_perm"
  permute_param {
    order: 0
    order: 2
    order: 3
    order: 1
  }
}
layer {
  name: "conv9_2_mbox_loc_flat"
  type: "Flatten"
  bottom: "conv9_2_mbox_loc_perm"
  top: "conv9_2_mbox_loc_flat"
  flatten_param {
    axis: 1
  }
}
layer {
  name: "conv9_2_mbox_conf"
  type: "Convolution"
  bottom: "conv9_2"
  top: "conv9_2_mbox_conf"
  param {
    lr_mult: 1
    decay_mult: 1
  }
  param {
    lr_mult: 2
    decay_mult: 0
  }
  convolution_param {
    num_output: 88
    pad: 1
    kernel_size: 3
    stride: 1
    weight_filler {
      type: "xavier"
    }
    bias_filler {
      type: "constant"
      value: 0
    }
  }
}
layer {
  name: "conv9_2_mbox_conf_perm"
  type: "Permute"
  bottom: "conv9_2_mbox_conf"
  top: "conv9_2_mbox_conf_perm"
  permute_param {
    order: 0
    order: 2
    order: 3
    order: 1
  }
}
layer {
  name: "conv9_2_mbox_conf_flat"
  type: "Flatten"
  bottom: "conv9_2_mbox_conf_perm"
  top: "conv9_2_mbox_conf_flat"
  flatten_param {
    axis: 1
  }
}
layer {
  name: "conv9_2_mbox_priorbox"
  type: "PriorBox"
  bottom: "conv9_2"
  bottom: "data"
  top: "conv9_2_mbox_priorbox"
  prior_box_param {
    min_size: 264
    max_size: 315
    aspect_ratio: 2
    flip: true
    clip: false
    variance: 0.1
    variance: 0.1
    variance: 0.2
    variance: 0.2
    step: 300
    offset: 0.5
  }
}
layer {
  name: "mbox_loc"
  type: "Concat"
  bottom: "conv4_3_norm_mbox_loc_flat"
  bottom: "fc7_mbox_loc_flat"
  bottom: "conv6_2_mbox_loc_flat"
  bottom: "conv7_2_mbox_loc_flat"
  bottom: "conv8_2_mbox_loc_flat"
  bottom: "conv9_2_mbox_loc_flat"
  top: "mbox_loc"
  concat_param {
    axis: 1
  }
}
layer {
  name: "mbox_conf"
  type: "Concat"
  bottom: "conv4_3_norm_mbox_conf_flat"
  bottom: "fc7_mbox_conf_flat"
  bottom: "conv6_2_mbox_conf_flat"
  bottom: "conv7_2_mbox_conf_flat"
  bottom: "conv8_2_mbox_conf_flat"
  bottom: "conv9_2_mbox_conf_flat"
  top: "mbox_conf"
  concat_param {
    axis: 1
  }
}
layer {
  name: "mbox_priorbox"
  type: "Concat"
  bottom: "conv4_3_norm_mbox_priorbox"
  bottom: "fc7_mbox_priorbox"
  bottom: "conv6_2_mbox_priorbox"
  bottom: "conv7_2_mbox_priorbox"
  bottom: "conv8_2_mbox_priorbox"
  bottom: "conv9_2_mbox_priorbox"
  top: "mbox_priorbox"
  concat_param {
    axis: 2
  }
}
layer {
  name: "mbox_loss"
  type: "MultiBoxLoss"
  bottom: "mbox_loc"
  bottom: "mbox_conf"
  bottom: "mbox_priorbox"
  bottom: "label"
  top: "mbox_loss"
  include {
    phase: TRAIN
  }
  propagate_down: true
  propagate_down: true
  propagate_down: false
  propagate_down: false
  loss_param {
    normalization: VALID
  }
  multibox_loss_param {
    loc_loss_type: SMOOTH_L1
    conf_loss_type: SOFTMAX
    loc_weight: 1
    num_classes: 22
    share_location: true
    match_type: PER_PREDICTION
    overlap_threshold: 0.5
    use_prior_for_matching: true
    background_label_id: 0
    use_difficult_gt: true
    neg_pos_ratio: 3
    neg_overlap: 0.5
    code_type: CENTER_SIZE
    ignore_cross_boundary_bbox: false
    mining_type: MAX_NEGATIVE
  }
}
I0210 11:55:05.327479 16866 layer_factory.hpp:77] Creating layer data
I0210 11:55:05.327931 16866 net.cpp:100] Creating Layer data
I0210 11:55:05.327949 16866 net.cpp:408] data -> data
I0210 11:55:05.328018 16866 net.cpp:408] data -> label
I0210 11:55:05.329222 16882 db_lmdb.cpp:35] Opened lmdb examples/VOC0712/VOC0712_trainval_lmdb
I0210 11:55:05.350822 16866 annotated_data_layer.cpp:62] output data size: 32,4,300,300
I0210 11:55:05.413043 16866 net.cpp:150] Setting up data
I0210 11:55:05.413090 16866 net.cpp:157] Top shape: 32 4 300 300 (11520000)
I0210 11:55:05.413097 16866 net.cpp:157] Top shape: 1 1 2 8 (16)
I0210 11:55:05.413102 16866 net.cpp:165] Memory required for data: 46080064
I0210 11:55:05.413115 16866 layer_factory.hpp:77] Creating layer data_data_0_split
I0210 11:55:05.413136 16866 net.cpp:100] Creating Layer data_data_0_split
I0210 11:55:05.413143 16866 net.cpp:434] data_data_0_split <- data
I0210 11:55:05.413157 16866 net.cpp:408] data_data_0_split -> data_data_0_split_0
I0210 11:55:05.413169 16866 net.cpp:408] data_data_0_split -> data_data_0_split_1
I0210 11:55:05.413177 16866 net.cpp:408] data_data_0_split -> data_data_0_split_2
I0210 11:55:05.413182 16866 net.cpp:408] data_data_0_split -> data_data_0_split_3
I0210 11:55:05.413188 16866 net.cpp:408] data_data_0_split -> data_data_0_split_4
I0210 11:55:05.413195 16866 net.cpp:408] data_data_0_split -> data_data_0_split_5
I0210 11:55:05.413200 16866 net.cpp:408] data_data_0_split -> data_data_0_split_6
I0210 11:55:05.413296 16866 net.cpp:150] Setting up data_data_0_split
I0210 11:55:05.413305 16866 net.cpp:157] Top shape: 32 4 300 300 (11520000)
I0210 11:55:05.413311 16866 net.cpp:157] Top shape: 32 4 300 300 (11520000)
I0210 11:55:05.413314 16866 net.cpp:157] Top shape: 32 4 300 300 (11520000)
I0210 11:55:05.413318 16866 net.cpp:157] Top shape: 32 4 300 300 (11520000)
I0210 11:55:05.413323 16866 net.cpp:157] Top shape: 32 4 300 300 (11520000)
I0210 11:55:05.413327 16866 net.cpp:157] Top shape: 32 4 300 300 (11520000)
I0210 11:55:05.413331 16866 net.cpp:157] Top shape: 32 4 300 300 (11520000)
I0210 11:55:05.413334 16866 net.cpp:165] Memory required for data: 368640064
I0210 11:55:05.413338 16866 layer_factory.hpp:77] Creating layer conv1_1_rgbd
I0210 11:55:05.413358 16866 net.cpp:100] Creating Layer conv1_1_rgbd
I0210 11:55:05.413362 16866 net.cpp:434] conv1_1_rgbd <- data_data_0_split_0
I0210 11:55:05.413369 16866 net.cpp:408] conv1_1_rgbd -> conv1_1_rgbd
I0210 11:55:05.579143 16866 net.cpp:150] Setting up conv1_1_rgbd
I0210 11:55:05.579177 16866 net.cpp:157] Top shape: 32 64 300 300 (184320000)
I0210 11:55:05.579182 16866 net.cpp:165] Memory required for data: 1105920064
I0210 11:55:05.579202 16866 layer_factory.hpp:77] Creating layer relu1_1
I0210 11:55:05.579213 16866 net.cpp:100] Creating Layer relu1_1
I0210 11:55:05.579219 16866 net.cpp:434] relu1_1 <- conv1_1_rgbd
I0210 11:55:05.579226 16866 net.cpp:395] relu1_1 -> conv1_1_rgbd (in-place)
I0210 11:55:05.579545 16866 net.cpp:150] Setting up relu1_1
I0210 11:55:05.579560 16866 net.cpp:157] Top shape: 32 64 300 300 (184320000)
I0210 11:55:05.579566 16866 net.cpp:165] Memory required for data: 1843200064
I0210 11:55:05.579569 16866 layer_factory.hpp:77] Creating layer conv1_2
I0210 11:55:05.579584 16866 net.cpp:100] Creating Layer conv1_2
I0210 11:55:05.579589 16866 net.cpp:434] conv1_2 <- conv1_1_rgbd
I0210 11:55:05.579596 16866 net.cpp:408] conv1_2 -> conv1_2
I0210 11:55:05.581300 16866 net.cpp:150] Setting up conv1_2
I0210 11:55:05.581316 16866 net.cpp:157] Top shape: 32 64 300 300 (184320000)
I0210 11:55:05.581321 16866 net.cpp:165] Memory required for data: 2580480064
I0210 11:55:05.581331 16866 layer_factory.hpp:77] Creating layer relu1_2
I0210 11:55:05.581338 16866 net.cpp:100] Creating Layer relu1_2
I0210 11:55:05.581343 16866 net.cpp:434] relu1_2 <- conv1_2
I0210 11:55:05.581349 16866 net.cpp:395] relu1_2 -> conv1_2 (in-place)
I0210 11:55:05.581632 16866 net.cpp:150] Setting up relu1_2
I0210 11:55:05.581647 16866 net.cpp:157] Top shape: 32 64 300 300 (184320000)
I0210 11:55:05.581651 16866 net.cpp:165] Memory required for data: 3317760064
I0210 11:55:05.581655 16866 layer_factory.hpp:77] Creating layer pool1
I0210 11:55:05.581663 16866 net.cpp:100] Creating Layer pool1
I0210 11:55:05.581668 16866 net.cpp:434] pool1 <- conv1_2
I0210 11:55:05.581674 16866 net.cpp:408] pool1 -> pool1
I0210 11:55:05.581732 16866 net.cpp:150] Setting up pool1
I0210 11:55:05.581743 16866 net.cpp:157] Top shape: 32 64 150 150 (46080000)
I0210 11:55:05.581764 16866 net.cpp:165] Memory required for data: 3502080064
I0210 11:55:05.581770 16866 layer_factory.hpp:77] Creating layer conv2_1
I0210 11:55:05.581781 16866 net.cpp:100] Creating Layer conv2_1
I0210 11:55:05.581785 16866 net.cpp:434] conv2_1 <- pool1
I0210 11:55:05.581796 16866 net.cpp:408] conv2_1 -> conv2_1
I0210 11:55:05.583417 16866 net.cpp:150] Setting up conv2_1
I0210 11:55:05.583434 16866 net.cpp:157] Top shape: 32 128 150 150 (92160000)
I0210 11:55:05.583439 16866 net.cpp:165] Memory required for data: 3870720064
I0210 11:55:05.583449 16866 layer_factory.hpp:77] Creating layer relu2_1
I0210 11:55:05.583457 16866 net.cpp:100] Creating Layer relu2_1
I0210 11:55:05.583461 16866 net.cpp:434] relu2_1 <- conv2_1
I0210 11:55:05.583467 16866 net.cpp:395] relu2_1 -> conv2_1 (in-place)
I0210 11:55:05.583636 16866 net.cpp:150] Setting up relu2_1
I0210 11:55:05.583648 16866 net.cpp:157] Top shape: 32 128 150 150 (92160000)
I0210 11:55:05.583652 16866 net.cpp:165] Memory required for data: 4239360064
I0210 11:55:05.583657 16866 layer_factory.hpp:77] Creating layer conv2_2
I0210 11:55:05.583667 16866 net.cpp:100] Creating Layer conv2_2
I0210 11:55:05.583670 16866 net.cpp:434] conv2_2 <- conv2_1
I0210 11:55:05.583676 16866 net.cpp:408] conv2_2 -> conv2_2
I0210 11:55:05.586405 16866 net.cpp:150] Setting up conv2_2
I0210 11:55:05.586422 16866 net.cpp:157] Top shape: 32 128 150 150 (92160000)
I0210 11:55:05.586427 16866 net.cpp:165] Memory required for data: 4608000064
I0210 11:55:05.586434 16866 layer_factory.hpp:77] Creating layer relu2_2
I0210 11:55:05.586441 16866 net.cpp:100] Creating Layer relu2_2
I0210 11:55:05.586447 16866 net.cpp:434] relu2_2 <- conv2_2
I0210 11:55:05.586452 16866 net.cpp:395] relu2_2 -> conv2_2 (in-place)
I0210 11:55:05.586745 16866 net.cpp:150] Setting up relu2_2
I0210 11:55:05.586760 16866 net.cpp:157] Top shape: 32 128 150 150 (92160000)
I0210 11:55:05.586763 16866 net.cpp:165] Memory required for data: 4976640064
I0210 11:55:05.586768 16866 layer_factory.hpp:77] Creating layer pool2
I0210 11:55:05.586776 16866 net.cpp:100] Creating Layer pool2
I0210 11:55:05.586781 16866 net.cpp:434] pool2 <- conv2_2
I0210 11:55:05.586786 16866 net.cpp:408] pool2 -> pool2
I0210 11:55:05.586828 16866 net.cpp:150] Setting up pool2
I0210 11:55:05.586836 16866 net.cpp:157] Top shape: 32 128 75 75 (23040000)
I0210 11:55:05.586840 16866 net.cpp:165] Memory required for data: 5068800064
I0210 11:55:05.586843 16866 layer_factory.hpp:77] Creating layer conv3_1
I0210 11:55:05.586853 16866 net.cpp:100] Creating Layer conv3_1
I0210 11:55:05.586858 16866 net.cpp:434] conv3_1 <- pool2
I0210 11:55:05.586863 16866 net.cpp:408] conv3_1 -> conv3_1
I0210 11:55:05.590823 16866 net.cpp:150] Setting up conv3_1
I0210 11:55:05.590840 16866 net.cpp:157] Top shape: 32 256 75 75 (46080000)
I0210 11:55:05.590845 16866 net.cpp:165] Memory required for data: 5253120064
I0210 11:55:05.590855 16866 layer_factory.hpp:77] Creating layer relu3_1
I0210 11:55:05.590864 16866 net.cpp:100] Creating Layer relu3_1
I0210 11:55:05.590868 16866 net.cpp:434] relu3_1 <- conv3_1
I0210 11:55:05.590873 16866 net.cpp:395] relu3_1 -> conv3_1 (in-place)
I0210 11:55:05.591181 16866 net.cpp:150] Setting up relu3_1
I0210 11:55:05.591195 16866 net.cpp:157] Top shape: 32 256 75 75 (46080000)
I0210 11:55:05.591199 16866 net.cpp:165] Memory required for data: 5437440064
I0210 11:55:05.591203 16866 layer_factory.hpp:77] Creating layer conv3_2
I0210 11:55:05.591215 16866 net.cpp:100] Creating Layer conv3_2
I0210 11:55:05.591219 16866 net.cpp:434] conv3_2 <- conv3_1
I0210 11:55:05.591228 16866 net.cpp:408] conv3_2 -> conv3_2
I0210 11:55:05.597262 16866 net.cpp:150] Setting up conv3_2
I0210 11:55:05.597280 16866 net.cpp:157] Top shape: 32 256 75 75 (46080000)
I0210 11:55:05.597285 16866 net.cpp:165] Memory required for data: 5621760064
I0210 11:55:05.597291 16866 layer_factory.hpp:77] Creating layer relu3_2
I0210 11:55:05.597299 16866 net.cpp:100] Creating Layer relu3_2
I0210 11:55:05.597304 16866 net.cpp:434] relu3_2 <- conv3_2
I0210 11:55:05.597324 16866 net.cpp:395] relu3_2 -> conv3_2 (in-place)
I0210 11:55:05.597496 16866 net.cpp:150] Setting up relu3_2
I0210 11:55:05.597508 16866 net.cpp:157] Top shape: 32 256 75 75 (46080000)
I0210 11:55:05.597512 16866 net.cpp:165] Memory required for data: 5806080064
I0210 11:55:05.597517 16866 layer_factory.hpp:77] Creating layer conv3_3
I0210 11:55:05.597529 16866 net.cpp:100] Creating Layer conv3_3
I0210 11:55:05.597534 16866 net.cpp:434] conv3_3 <- conv3_2
I0210 11:55:05.597540 16866 net.cpp:408] conv3_3 -> conv3_3
I0210 11:55:05.603559 16866 net.cpp:150] Setting up conv3_3
I0210 11:55:05.603575 16866 net.cpp:157] Top shape: 32 256 75 75 (46080000)
I0210 11:55:05.603580 16866 net.cpp:165] Memory required for data: 5990400064
I0210 11:55:05.603587 16866 layer_factory.hpp:77] Creating layer relu3_3
I0210 11:55:05.603593 16866 net.cpp:100] Creating Layer relu3_3
I0210 11:55:05.603597 16866 net.cpp:434] relu3_3 <- conv3_3
I0210 11:55:05.603605 16866 net.cpp:395] relu3_3 -> conv3_3 (in-place)
I0210 11:55:05.603916 16866 net.cpp:150] Setting up relu3_3
I0210 11:55:05.603930 16866 net.cpp:157] Top shape: 32 256 75 75 (46080000)
I0210 11:55:05.603935 16866 net.cpp:165] Memory required for data: 6174720064
I0210 11:55:05.603938 16866 layer_factory.hpp:77] Creating layer pool3
I0210 11:55:05.603945 16866 net.cpp:100] Creating Layer pool3
I0210 11:55:05.603950 16866 net.cpp:434] pool3 <- conv3_3
I0210 11:55:05.603957 16866 net.cpp:408] pool3 -> pool3
I0210 11:55:05.604004 16866 net.cpp:150] Setting up pool3
I0210 11:55:05.604012 16866 net.cpp:157] Top shape: 32 256 38 38 (11829248)
I0210 11:55:05.604014 16866 net.cpp:165] Memory required for data: 6222037056
I0210 11:55:05.604018 16866 layer_factory.hpp:77] Creating layer conv4_1
I0210 11:55:05.604032 16866 net.cpp:100] Creating Layer conv4_1
I0210 11:55:05.604035 16866 net.cpp:434] conv4_1 <- pool3
I0210 11:55:05.604043 16866 net.cpp:408] conv4_1 -> conv4_1
I0210 11:55:05.607445 16883 blocking_queue.cpp:50] Waiting for data
I0210 11:55:05.615450 16866 net.cpp:150] Setting up conv4_1
I0210 11:55:05.615468 16866 net.cpp:157] Top shape: 32 512 38 38 (23658496)
I0210 11:55:05.615473 16866 net.cpp:165] Memory required for data: 6316671040
I0210 11:55:05.615481 16866 layer_factory.hpp:77] Creating layer relu4_1
I0210 11:55:05.615489 16866 net.cpp:100] Creating Layer relu4_1
I0210 11:55:05.615494 16866 net.cpp:434] relu4_1 <- conv4_1
I0210 11:55:05.615502 16866 net.cpp:395] relu4_1 -> conv4_1 (in-place)
I0210 11:55:05.615828 16866 net.cpp:150] Setting up relu4_1
I0210 11:55:05.615844 16866 net.cpp:157] Top shape: 32 512 38 38 (23658496)
I0210 11:55:05.615847 16866 net.cpp:165] Memory required for data: 6411305024
I0210 11:55:05.615851 16866 layer_factory.hpp:77] Creating layer conv4_2
I0210 11:55:05.615865 16866 net.cpp:100] Creating Layer conv4_2
I0210 11:55:05.615869 16866 net.cpp:434] conv4_2 <- conv4_1
I0210 11:55:05.615876 16866 net.cpp:408] conv4_2 -> conv4_2
I0210 11:55:05.636404 16866 net.cpp:150] Setting up conv4_2
I0210 11:55:05.636428 16866 net.cpp:157] Top shape: 32 512 38 38 (23658496)
I0210 11:55:05.636433 16866 net.cpp:165] Memory required for data: 6505939008
I0210 11:55:05.636446 16866 layer_factory.hpp:77] Creating layer relu4_2
I0210 11:55:05.636456 16866 net.cpp:100] Creating Layer relu4_2
I0210 11:55:05.636461 16866 net.cpp:434] relu4_2 <- conv4_2
I0210 11:55:05.636467 16866 net.cpp:395] relu4_2 -> conv4_2 (in-place)
I0210 11:55:05.636649 16866 net.cpp:150] Setting up relu4_2
I0210 11:55:05.636667 16866 net.cpp:157] Top shape: 32 512 38 38 (23658496)
I0210 11:55:05.636680 16866 net.cpp:165] Memory required for data: 6600572992
I0210 11:55:05.636687 16866 layer_factory.hpp:77] Creating layer conv4_3
I0210 11:55:05.636703 16866 net.cpp:100] Creating Layer conv4_3
I0210 11:55:05.636708 16866 net.cpp:434] conv4_3 <- conv4_2
I0210 11:55:05.636715 16866 net.cpp:408] conv4_3 -> conv4_3
I0210 11:55:05.657269 16866 net.cpp:150] Setting up conv4_3
I0210 11:55:05.657294 16866 net.cpp:157] Top shape: 32 512 38 38 (23658496)
I0210 11:55:05.657299 16866 net.cpp:165] Memory required for data: 6695206976
I0210 11:55:05.657326 16866 layer_factory.hpp:77] Creating layer relu4_3
I0210 11:55:05.657336 16866 net.cpp:100] Creating Layer relu4_3
I0210 11:55:05.657341 16866 net.cpp:434] relu4_3 <- conv4_3
I0210 11:55:05.657348 16866 net.cpp:395] relu4_3 -> conv4_3 (in-place)
I0210 11:55:05.657676 16866 net.cpp:150] Setting up relu4_3
I0210 11:55:05.657691 16866 net.cpp:157] Top shape: 32 512 38 38 (23658496)
I0210 11:55:05.657696 16866 net.cpp:165] Memory required for data: 6789840960
I0210 11:55:05.657699 16866 layer_factory.hpp:77] Creating layer conv4_3_relu4_3_0_split
I0210 11:55:05.657706 16866 net.cpp:100] Creating Layer conv4_3_relu4_3_0_split
I0210 11:55:05.657711 16866 net.cpp:434] conv4_3_relu4_3_0_split <- conv4_3
I0210 11:55:05.657717 16866 net.cpp:408] conv4_3_relu4_3_0_split -> conv4_3_relu4_3_0_split_0
I0210 11:55:05.657726 16866 net.cpp:408] conv4_3_relu4_3_0_split -> conv4_3_relu4_3_0_split_1
I0210 11:55:05.657771 16866 net.cpp:150] Setting up conv4_3_relu4_3_0_split
I0210 11:55:05.657779 16866 net.cpp:157] Top shape: 32 512 38 38 (23658496)
I0210 11:55:05.657784 16866 net.cpp:157] Top shape: 32 512 38 38 (23658496)
I0210 11:55:05.657788 16866 net.cpp:165] Memory required for data: 6979108928
I0210 11:55:05.657791 16866 layer_factory.hpp:77] Creating layer pool4
I0210 11:55:05.657799 16866 net.cpp:100] Creating Layer pool4
I0210 11:55:05.657802 16866 net.cpp:434] pool4 <- conv4_3_relu4_3_0_split_0
I0210 11:55:05.657816 16866 net.cpp:408] pool4 -> pool4
I0210 11:55:05.657855 16866 net.cpp:150] Setting up pool4
I0210 11:55:05.657865 16866 net.cpp:157] Top shape: 32 512 19 19 (5914624)
I0210 11:55:05.657867 16866 net.cpp:165] Memory required for data: 7002767424
I0210 11:55:05.657871 16866 layer_factory.hpp:77] Creating layer conv5_1
I0210 11:55:05.657883 16866 net.cpp:100] Creating Layer conv5_1
I0210 11:55:05.657887 16866 net.cpp:434] conv5_1 <- pool4
I0210 11:55:05.657893 16866 net.cpp:408] conv5_1 -> conv5_1
I0210 11:55:05.678491 16866 net.cpp:150] Setting up conv5_1
I0210 11:55:05.678517 16866 net.cpp:157] Top shape: 32 512 19 19 (5914624)
I0210 11:55:05.678522 16866 net.cpp:165] Memory required for data: 7026425920
I0210 11:55:05.678532 16866 layer_factory.hpp:77] Creating layer relu5_1
I0210 11:55:05.678540 16866 net.cpp:100] Creating Layer relu5_1
I0210 11:55:05.678545 16866 net.cpp:434] relu5_1 <- conv5_1
I0210 11:55:05.678551 16866 net.cpp:395] relu5_1 -> conv5_1 (in-place)
I0210 11:55:05.678871 16866 net.cpp:150] Setting up relu5_1
I0210 11:55:05.678889 16866 net.cpp:157] Top shape: 32 512 19 19 (5914624)
I0210 11:55:05.678892 16866 net.cpp:165] Memory required for data: 7050084416
I0210 11:55:05.678896 16866 layer_factory.hpp:77] Creating layer conv5_2
I0210 11:55:05.678908 16866 net.cpp:100] Creating Layer conv5_2
I0210 11:55:05.678912 16866 net.cpp:434] conv5_2 <- conv5_1
I0210 11:55:05.678920 16866 net.cpp:408] conv5_2 -> conv5_2
I0210 11:55:05.699646 16866 net.cpp:150] Setting up conv5_2
I0210 11:55:05.699671 16866 net.cpp:157] Top shape: 32 512 19 19 (5914624)
I0210 11:55:05.699676 16866 net.cpp:165] Memory required for data: 7073742912
I0210 11:55:05.699684 16866 layer_factory.hpp:77] Creating layer relu5_2
I0210 11:55:05.699693 16866 net.cpp:100] Creating Layer relu5_2
I0210 11:55:05.699698 16866 net.cpp:434] relu5_2 <- conv5_2
I0210 11:55:05.699704 16866 net.cpp:395] relu5_2 -> conv5_2 (in-place)
I0210 11:55:05.699883 16866 net.cpp:150] Setting up relu5_2
I0210 11:55:05.699899 16866 net.cpp:157] Top shape: 32 512 19 19 (5914624)
I0210 11:55:05.699906 16866 net.cpp:165] Memory required for data: 7097401408
I0210 11:55:05.699913 16866 layer_factory.hpp:77] Creating layer conv5_3
I0210 11:55:05.699930 16866 net.cpp:100] Creating Layer conv5_3
I0210 11:55:05.699939 16866 net.cpp:434] conv5_3 <- conv5_2
I0210 11:55:05.699947 16866 net.cpp:408] conv5_3 -> conv5_3
I0210 11:55:05.720693 16866 net.cpp:150] Setting up conv5_3
I0210 11:55:05.720718 16866 net.cpp:157] Top shape: 32 512 19 19 (5914624)
I0210 11:55:05.720723 16866 net.cpp:165] Memory required for data: 7121059904
I0210 11:55:05.720751 16866 layer_factory.hpp:77] Creating layer relu5_3
I0210 11:55:05.720765 16866 net.cpp:100] Creating Layer relu5_3
I0210 11:55:05.720770 16866 net.cpp:434] relu5_3 <- conv5_3
I0210 11:55:05.720778 16866 net.cpp:395] relu5_3 -> conv5_3 (in-place)
I0210 11:55:05.721112 16866 net.cpp:150] Setting up relu5_3
I0210 11:55:05.721128 16866 net.cpp:157] Top shape: 32 512 19 19 (5914624)
I0210 11:55:05.721132 16866 net.cpp:165] Memory required for data: 7144718400
I0210 11:55:05.721137 16866 layer_factory.hpp:77] Creating layer pool5
I0210 11:55:05.721144 16866 net.cpp:100] Creating Layer pool5
I0210 11:55:05.721148 16866 net.cpp:434] pool5 <- conv5_3
I0210 11:55:05.721156 16866 net.cpp:408] pool5 -> pool5
I0210 11:55:05.721205 16866 net.cpp:150] Setting up pool5
I0210 11:55:05.721215 16866 net.cpp:157] Top shape: 32 512 19 19 (5914624)
I0210 11:55:05.721218 16866 net.cpp:165] Memory required for data: 7168376896
I0210 11:55:05.721222 16866 layer_factory.hpp:77] Creating layer fc6
I0210 11:55:05.721235 16866 net.cpp:100] Creating Layer fc6
I0210 11:55:05.721241 16866 net.cpp:434] fc6 <- pool5
I0210 11:55:05.721247 16866 net.cpp:408] fc6 -> fc6
I0210 11:55:05.761317 16866 net.cpp:150] Setting up fc6
I0210 11:55:05.761355 16866 net.cpp:157] Top shape: 32 1024 19 19 (11829248)
I0210 11:55:05.761360 16866 net.cpp:165] Memory required for data: 7215693888
I0210 11:55:05.761369 16866 layer_factory.hpp:77] Creating layer relu6
I0210 11:55:05.761380 16866 net.cpp:100] Creating Layer relu6
I0210 11:55:05.761387 16866 net.cpp:434] relu6 <- fc6
I0210 11:55:05.761394 16866 net.cpp:395] relu6 -> fc6 (in-place)
I0210 11:55:05.761656 16866 net.cpp:150] Setting up relu6
I0210 11:55:05.761670 16866 net.cpp:157] Top shape: 32 1024 19 19 (11829248)
I0210 11:55:05.761674 16866 net.cpp:165] Memory required for data: 7263010880
I0210 11:55:05.761678 16866 layer_factory.hpp:77] Creating layer fc7
I0210 11:55:05.761692 16866 net.cpp:100] Creating Layer fc7
I0210 11:55:05.761696 16866 net.cpp:434] fc7 <- fc6
I0210 11:55:05.761704 16866 net.cpp:408] fc7 -> fc7
I0210 11:55:05.771631 16866 net.cpp:150] Setting up fc7
I0210 11:55:05.771648 16866 net.cpp:157] Top shape: 32 1024 19 19 (11829248)
I0210 11:55:05.771652 16866 net.cpp:165] Memory required for data: 7310327872
I0210 11:55:05.771661 16866 layer_factory.hpp:77] Creating layer relu7
I0210 11:55:05.771667 16866 net.cpp:100] Creating Layer relu7
I0210 11:55:05.771672 16866 net.cpp:434] relu7 <- fc7
I0210 11:55:05.771685 16866 net.cpp:395] relu7 -> fc7 (in-place)
I0210 11:55:05.772011 16866 net.cpp:150] Setting up relu7
I0210 11:55:05.772027 16866 net.cpp:157] Top shape: 32 1024 19 19 (11829248)
I0210 11:55:05.772030 16866 net.cpp:165] Memory required for data: 7357644864
I0210 11:55:05.772035 16866 layer_factory.hpp:77] Creating layer fc7_relu7_0_split
I0210 11:55:05.772043 16866 net.cpp:100] Creating Layer fc7_relu7_0_split
I0210 11:55:05.772047 16866 net.cpp:434] fc7_relu7_0_split <- fc7
I0210 11:55:05.772054 16866 net.cpp:408] fc7_relu7_0_split -> fc7_relu7_0_split_0
I0210 11:55:05.772063 16866 net.cpp:408] fc7_relu7_0_split -> fc7_relu7_0_split_1
I0210 11:55:05.772073 16866 net.cpp:408] fc7_relu7_0_split -> fc7_relu7_0_split_2
I0210 11:55:05.772080 16866 net.cpp:408] fc7_relu7_0_split -> fc7_relu7_0_split_3
I0210 11:55:05.772150 16866 net.cpp:150] Setting up fc7_relu7_0_split
I0210 11:55:05.772158 16866 net.cpp:157] Top shape: 32 1024 19 19 (11829248)
I0210 11:55:05.772166 16866 net.cpp:157] Top shape: 32 1024 19 19 (11829248)
I0210 11:55:05.772169 16866 net.cpp:157] Top shape: 32 1024 19 19 (11829248)
I0210 11:55:05.772173 16866 net.cpp:157] Top shape: 32 1024 19 19 (11829248)
I0210 11:55:05.772176 16866 net.cpp:165] Memory required for data: 7546912832
I0210 11:55:05.772181 16866 layer_factory.hpp:77] Creating layer conv6_1
I0210 11:55:05.772191 16866 net.cpp:100] Creating Layer conv6_1
I0210 11:55:05.772194 16866 net.cpp:434] conv6_1 <- fc7_relu7_0_split_0
I0210 11:55:05.772202 16866 net.cpp:408] conv6_1 -> conv6_1
I0210 11:55:05.775600 16866 net.cpp:150] Setting up conv6_1
I0210 11:55:05.775630 16866 net.cpp:157] Top shape: 32 256 19 19 (2957312)
I0210 11:55:05.775635 16866 net.cpp:165] Memory required for data: 7558742080
I0210 11:55:05.775643 16866 layer_factory.hpp:77] Creating layer conv6_1_relu
I0210 11:55:05.775651 16866 net.cpp:100] Creating Layer conv6_1_relu
I0210 11:55:05.775656 16866 net.cpp:434] conv6_1_relu <- conv6_1
I0210 11:55:05.775661 16866 net.cpp:395] conv6_1_relu -> conv6_1 (in-place)
I0210 11:55:05.775998 16866 net.cpp:150] Setting up conv6_1_relu
I0210 11:55:05.776015 16866 net.cpp:157] Top shape: 32 256 19 19 (2957312)
I0210 11:55:05.776018 16866 net.cpp:165] Memory required for data: 7570571328
I0210 11:55:05.776022 16866 layer_factory.hpp:77] Creating layer conv6_2
I0210 11:55:05.776034 16866 net.cpp:100] Creating Layer conv6_2
I0210 11:55:05.776039 16866 net.cpp:434] conv6_2 <- conv6_1
I0210 11:55:05.776046 16866 net.cpp:408] conv6_2 -> conv6_2
I0210 11:55:05.786926 16866 net.cpp:150] Setting up conv6_2
I0210 11:55:05.786943 16866 net.cpp:157] Top shape: 32 512 10 10 (1638400)
I0210 11:55:05.786948 16866 net.cpp:165] Memory required for data: 7577124928
I0210 11:55:05.786962 16866 layer_factory.hpp:77] Creating layer conv6_2_relu
I0210 11:55:05.786972 16866 net.cpp:100] Creating Layer conv6_2_relu
I0210 11:55:05.786976 16866 net.cpp:434] conv6_2_relu <- conv6_2
I0210 11:55:05.786983 16866 net.cpp:395] conv6_2_relu -> conv6_2 (in-place)
I0210 11:55:05.787160 16866 net.cpp:150] Setting up conv6_2_relu
I0210 11:55:05.787178 16866 net.cpp:157] Top shape: 32 512 10 10 (1638400)
I0210 11:55:05.787184 16866 net.cpp:165] Memory required for data: 7583678528
I0210 11:55:05.787191 16866 layer_factory.hpp:77] Creating layer conv6_2_conv6_2_relu_0_split
I0210 11:55:05.787202 16866 net.cpp:100] Creating Layer conv6_2_conv6_2_relu_0_split
I0210 11:55:05.787207 16866 net.cpp:434] conv6_2_conv6_2_relu_0_split <- conv6_2
I0210 11:55:05.787214 16866 net.cpp:408] conv6_2_conv6_2_relu_0_split -> conv6_2_conv6_2_relu_0_split_0
I0210 11:55:05.787222 16866 net.cpp:408] conv6_2_conv6_2_relu_0_split -> conv6_2_conv6_2_relu_0_split_1
I0210 11:55:05.787230 16866 net.cpp:408] conv6_2_conv6_2_relu_0_split -> conv6_2_conv6_2_relu_0_split_2
I0210 11:55:05.787235 16866 net.cpp:408] conv6_2_conv6_2_relu_0_split -> conv6_2_conv6_2_relu_0_split_3
I0210 11:55:05.787307 16866 net.cpp:150] Setting up conv6_2_conv6_2_relu_0_split
I0210 11:55:05.787317 16866 net.cpp:157] Top shape: 32 512 10 10 (1638400)
I0210 11:55:05.787322 16866 net.cpp:157] Top shape: 32 512 10 10 (1638400)
I0210 11:55:05.787325 16866 net.cpp:157] Top shape: 32 512 10 10 (1638400)
I0210 11:55:05.787329 16866 net.cpp:157] Top shape: 32 512 10 10 (1638400)
I0210 11:55:05.787333 16866 net.cpp:165] Memory required for data: 7609892928
I0210 11:55:05.787336 16866 layer_factory.hpp:77] Creating layer conv7_1
I0210 11:55:05.787346 16866 net.cpp:100] Creating Layer conv7_1
I0210 11:55:05.787351 16866 net.cpp:434] conv7_1 <- conv6_2_conv6_2_relu_0_split_0
I0210 11:55:05.787358 16866 net.cpp:408] conv7_1 -> conv7_1
I0210 11:55:05.788928 16866 net.cpp:150] Setting up conv7_1
I0210 11:55:05.788944 16866 net.cpp:157] Top shape: 32 128 10 10 (409600)
I0210 11:55:05.788949 16866 net.cpp:165] Memory required for data: 7611531328
I0210 11:55:05.788956 16866 layer_factory.hpp:77] Creating layer conv7_1_relu
I0210 11:55:05.788962 16866 net.cpp:100] Creating Layer conv7_1_relu
I0210 11:55:05.788967 16866 net.cpp:434] conv7_1_relu <- conv7_1
I0210 11:55:05.788975 16866 net.cpp:395] conv7_1_relu -> conv7_1 (in-place)
I0210 11:55:05.789302 16866 net.cpp:150] Setting up conv7_1_relu
I0210 11:55:05.789319 16866 net.cpp:157] Top shape: 32 128 10 10 (409600)
I0210 11:55:05.789322 16866 net.cpp:165] Memory required for data: 7613169728
I0210 11:55:05.789326 16866 layer_factory.hpp:77] Creating layer conv7_2
I0210 11:55:05.789340 16866 net.cpp:100] Creating Layer conv7_2
I0210 11:55:05.789345 16866 net.cpp:434] conv7_2 <- conv7_1
I0210 11:55:05.789352 16866 net.cpp:408] conv7_2 -> conv7_2
I0210 11:55:05.792986 16866 net.cpp:150] Setting up conv7_2
I0210 11:55:05.793025 16866 net.cpp:157] Top shape: 32 256 5 5 (204800)
I0210 11:55:05.793032 16866 net.cpp:165] Memory required for data: 7613988928
I0210 11:55:05.793045 16866 layer_factory.hpp:77] Creating layer conv7_2_relu
I0210 11:55:05.793054 16866 net.cpp:100] Creating Layer conv7_2_relu
I0210 11:55:05.793062 16866 net.cpp:434] conv7_2_relu <- conv7_2
I0210 11:55:05.793074 16866 net.cpp:395] conv7_2_relu -> conv7_2 (in-place)
I0210 11:55:05.793431 16866 net.cpp:150] Setting up conv7_2_relu
I0210 11:55:05.793445 16866 net.cpp:157] Top shape: 32 256 5 5 (204800)
I0210 11:55:05.793449 16866 net.cpp:165] Memory required for data: 7614808128
I0210 11:55:05.793454 16866 layer_factory.hpp:77] Creating layer conv7_2_conv7_2_relu_0_split
I0210 11:55:05.793462 16866 net.cpp:100] Creating Layer conv7_2_conv7_2_relu_0_split
I0210 11:55:05.793467 16866 net.cpp:434] conv7_2_conv7_2_relu_0_split <- conv7_2
I0210 11:55:05.793473 16866 net.cpp:408] conv7_2_conv7_2_relu_0_split -> conv7_2_conv7_2_relu_0_split_0
I0210 11:55:05.793480 16866 net.cpp:408] conv7_2_conv7_2_relu_0_split -> conv7_2_conv7_2_relu_0_split_1
I0210 11:55:05.793488 16866 net.cpp:408] conv7_2_conv7_2_relu_0_split -> conv7_2_conv7_2_relu_0_split_2
I0210 11:55:05.793493 16866 net.cpp:408] conv7_2_conv7_2_relu_0_split -> conv7_2_conv7_2_relu_0_split_3
I0210 11:55:05.793567 16866 net.cpp:150] Setting up conv7_2_conv7_2_relu_0_split
I0210 11:55:05.793575 16866 net.cpp:157] Top shape: 32 256 5 5 (204800)
I0210 11:55:05.793578 16866 net.cpp:157] Top shape: 32 256 5 5 (204800)
I0210 11:55:05.793582 16866 net.cpp:157] Top shape: 32 256 5 5 (204800)
I0210 11:55:05.793587 16866 net.cpp:157] Top shape: 32 256 5 5 (204800)
I0210 11:55:05.793591 16866 net.cpp:165] Memory required for data: 7618084928
I0210 11:55:05.793594 16866 layer_factory.hpp:77] Creating layer conv8_1
I0210 11:55:05.793604 16866 net.cpp:100] Creating Layer conv8_1
I0210 11:55:05.793609 16866 net.cpp:434] conv8_1 <- conv7_2_conv7_2_relu_0_split_0
I0210 11:55:05.793617 16866 net.cpp:408] conv8_1 -> conv8_1
I0210 11:55:05.794926 16866 net.cpp:150] Setting up conv8_1
I0210 11:55:05.794942 16866 net.cpp:157] Top shape: 32 128 5 5 (102400)
I0210 11:55:05.794946 16866 net.cpp:165] Memory required for data: 7618494528
I0210 11:55:05.794953 16866 layer_factory.hpp:77] Creating layer conv8_1_relu
I0210 11:55:05.794961 16866 net.cpp:100] Creating Layer conv8_1_relu
I0210 11:55:05.794966 16866 net.cpp:434] conv8_1_relu <- conv8_1
I0210 11:55:05.794973 16866 net.cpp:395] conv8_1_relu -> conv8_1 (in-place)
I0210 11:55:05.795150 16866 net.cpp:150] Setting up conv8_1_relu
I0210 11:55:05.795161 16866 net.cpp:157] Top shape: 32 128 5 5 (102400)
I0210 11:55:05.795164 16866 net.cpp:165] Memory required for data: 7618904128
I0210 11:55:05.795168 16866 layer_factory.hpp:77] Creating layer conv8_2
I0210 11:55:05.795179 16866 net.cpp:100] Creating Layer conv8_2
I0210 11:55:05.795183 16866 net.cpp:434] conv8_2 <- conv8_1
I0210 11:55:05.795191 16866 net.cpp:408] conv8_2 -> conv8_2
I0210 11:55:05.798844 16866 net.cpp:150] Setting up conv8_2
I0210 11:55:05.798861 16866 net.cpp:157] Top shape: 32 256 3 3 (73728)
I0210 11:55:05.798864 16866 net.cpp:165] Memory required for data: 7619199040
I0210 11:55:05.798871 16866 layer_factory.hpp:77] Creating layer conv8_2_relu
I0210 11:55:05.798879 16866 net.cpp:100] Creating Layer conv8_2_relu
I0210 11:55:05.798884 16866 net.cpp:434] conv8_2_relu <- conv8_2
I0210 11:55:05.798890 16866 net.cpp:395] conv8_2_relu -> conv8_2 (in-place)
I0210 11:55:05.799204 16866 net.cpp:150] Setting up conv8_2_relu
I0210 11:55:05.799218 16866 net.cpp:157] Top shape: 32 256 3 3 (73728)
I0210 11:55:05.799222 16866 net.cpp:165] Memory required for data: 7619493952
I0210 11:55:05.799226 16866 layer_factory.hpp:77] Creating layer conv8_2_conv8_2_relu_0_split
I0210 11:55:05.799234 16866 net.cpp:100] Creating Layer conv8_2_conv8_2_relu_0_split
I0210 11:55:05.799238 16866 net.cpp:434] conv8_2_conv8_2_relu_0_split <- conv8_2
I0210 11:55:05.799244 16866 net.cpp:408] conv8_2_conv8_2_relu_0_split -> conv8_2_conv8_2_relu_0_split_0
I0210 11:55:05.799263 16866 net.cpp:408] conv8_2_conv8_2_relu_0_split -> conv8_2_conv8_2_relu_0_split_1
I0210 11:55:05.799270 16866 net.cpp:408] conv8_2_conv8_2_relu_0_split -> conv8_2_conv8_2_relu_0_split_2
I0210 11:55:05.799276 16866 net.cpp:408] conv8_2_conv8_2_relu_0_split -> conv8_2_conv8_2_relu_0_split_3
I0210 11:55:05.799351 16866 net.cpp:150] Setting up conv8_2_conv8_2_relu_0_split
I0210 11:55:05.799360 16866 net.cpp:157] Top shape: 32 256 3 3 (73728)
I0210 11:55:05.799365 16866 net.cpp:157] Top shape: 32 256 3 3 (73728)
I0210 11:55:05.799368 16866 net.cpp:157] Top shape: 32 256 3 3 (73728)
I0210 11:55:05.799372 16866 net.cpp:157] Top shape: 32 256 3 3 (73728)
I0210 11:55:05.799376 16866 net.cpp:165] Memory required for data: 7620673600
I0210 11:55:05.799379 16866 layer_factory.hpp:77] Creating layer conv9_1
I0210 11:55:05.799391 16866 net.cpp:100] Creating Layer conv9_1
I0210 11:55:05.799397 16866 net.cpp:434] conv9_1 <- conv8_2_conv8_2_relu_0_split_0
I0210 11:55:05.799406 16866 net.cpp:408] conv9_1 -> conv9_1
I0210 11:55:05.800588 16866 net.cpp:150] Setting up conv9_1
I0210 11:55:05.800604 16866 net.cpp:157] Top shape: 32 128 3 3 (36864)
I0210 11:55:05.800608 16866 net.cpp:165] Memory required for data: 7620821056
I0210 11:55:05.800616 16866 layer_factory.hpp:77] Creating layer conv9_1_relu
I0210 11:55:05.800621 16866 net.cpp:100] Creating Layer conv9_1_relu
I0210 11:55:05.800626 16866 net.cpp:434] conv9_1_relu <- conv9_1
I0210 11:55:05.800633 16866 net.cpp:395] conv9_1_relu -> conv9_1 (in-place)
I0210 11:55:05.800951 16866 net.cpp:150] Setting up conv9_1_relu
I0210 11:55:05.800964 16866 net.cpp:157] Top shape: 32 128 3 3 (36864)
I0210 11:55:05.800968 16866 net.cpp:165] Memory required for data: 7620968512
I0210 11:55:05.800972 16866 layer_factory.hpp:77] Creating layer conv9_2
I0210 11:55:05.800986 16866 net.cpp:100] Creating Layer conv9_2
I0210 11:55:05.800989 16866 net.cpp:434] conv9_2 <- conv9_1
I0210 11:55:05.800997 16866 net.cpp:408] conv9_2 -> conv9_2
I0210 11:55:05.804651 16866 net.cpp:150] Setting up conv9_2
I0210 11:55:05.804666 16866 net.cpp:157] Top shape: 32 256 1 1 (8192)
I0210 11:55:05.804671 16866 net.cpp:165] Memory required for data: 7621001280
I0210 11:55:05.804677 16866 layer_factory.hpp:77] Creating layer conv9_2_relu
I0210 11:55:05.804687 16866 net.cpp:100] Creating Layer conv9_2_relu
I0210 11:55:05.804692 16866 net.cpp:434] conv9_2_relu <- conv9_2
I0210 11:55:05.804697 16866 net.cpp:395] conv9_2_relu -> conv9_2 (in-place)
I0210 11:55:05.804877 16866 net.cpp:150] Setting up conv9_2_relu
I0210 11:55:05.804888 16866 net.cpp:157] Top shape: 32 256 1 1 (8192)
I0210 11:55:05.804893 16866 net.cpp:165] Memory required for data: 7621034048
I0210 11:55:05.804896 16866 layer_factory.hpp:77] Creating layer conv9_2_conv9_2_relu_0_split
I0210 11:55:05.804904 16866 net.cpp:100] Creating Layer conv9_2_conv9_2_relu_0_split
I0210 11:55:05.804908 16866 net.cpp:434] conv9_2_conv9_2_relu_0_split <- conv9_2
I0210 11:55:05.804915 16866 net.cpp:408] conv9_2_conv9_2_relu_0_split -> conv9_2_conv9_2_relu_0_split_0
I0210 11:55:05.804922 16866 net.cpp:408] conv9_2_conv9_2_relu_0_split -> conv9_2_conv9_2_relu_0_split_1
I0210 11:55:05.804930 16866 net.cpp:408] conv9_2_conv9_2_relu_0_split -> conv9_2_conv9_2_relu_0_split_2
I0210 11:55:05.804989 16866 net.cpp:150] Setting up conv9_2_conv9_2_relu_0_split
I0210 11:55:05.804996 16866 net.cpp:157] Top shape: 32 256 1 1 (8192)
I0210 11:55:05.805001 16866 net.cpp:157] Top shape: 32 256 1 1 (8192)
I0210 11:55:05.805006 16866 net.cpp:157] Top shape: 32 256 1 1 (8192)
I0210 11:55:05.805008 16866 net.cpp:165] Memory required for data: 7621132352
I0210 11:55:05.805012 16866 layer_factory.hpp:77] Creating layer conv4_3_norm
I0210 11:55:05.805027 16866 net.cpp:100] Creating Layer conv4_3_norm
I0210 11:55:05.805033 16866 net.cpp:434] conv4_3_norm <- conv4_3_relu4_3_0_split_1
I0210 11:55:05.805040 16866 net.cpp:408] conv4_3_norm -> conv4_3_norm
I0210 11:55:05.805204 16866 net.cpp:150] Setting up conv4_3_norm
I0210 11:55:05.805212 16866 net.cpp:157] Top shape: 32 512 38 38 (23658496)
I0210 11:55:05.805227 16866 net.cpp:165] Memory required for data: 7715766336
I0210 11:55:05.805234 16866 layer_factory.hpp:77] Creating layer conv4_3_norm_conv4_3_norm_0_split
I0210 11:55:05.805241 16866 net.cpp:100] Creating Layer conv4_3_norm_conv4_3_norm_0_split
I0210 11:55:05.805245 16866 net.cpp:434] conv4_3_norm_conv4_3_norm_0_split <- conv4_3_norm
I0210 11:55:05.805251 16866 net.cpp:408] conv4_3_norm_conv4_3_norm_0_split -> conv4_3_norm_conv4_3_norm_0_split_0
I0210 11:55:05.805258 16866 net.cpp:408] conv4_3_norm_conv4_3_norm_0_split -> conv4_3_norm_conv4_3_norm_0_split_1
I0210 11:55:05.805264 16866 net.cpp:408] conv4_3_norm_conv4_3_norm_0_split -> conv4_3_norm_conv4_3_norm_0_split_2
I0210 11:55:05.805315 16866 net.cpp:150] Setting up conv4_3_norm_conv4_3_norm_0_split
I0210 11:55:05.805322 16866 net.cpp:157] Top shape: 32 512 38 38 (23658496)
I0210 11:55:05.805327 16866 net.cpp:157] Top shape: 32 512 38 38 (23658496)
I0210 11:55:05.805331 16866 net.cpp:157] Top shape: 32 512 38 38 (23658496)
I0210 11:55:05.805335 16866 net.cpp:165] Memory required for data: 7999668288
I0210 11:55:05.805340 16866 layer_factory.hpp:77] Creating layer conv4_3_norm_mbox_loc
I0210 11:55:05.805349 16866 net.cpp:100] Creating Layer conv4_3_norm_mbox_loc
I0210 11:55:05.805356 16866 net.cpp:434] conv4_3_norm_mbox_loc <- conv4_3_norm_conv4_3_norm_0_split_0
I0210 11:55:05.805361 16866 net.cpp:408] conv4_3_norm_mbox_loc -> conv4_3_norm_mbox_loc
I0210 11:55:05.807121 16866 net.cpp:150] Setting up conv4_3_norm_mbox_loc
I0210 11:55:05.807137 16866 net.cpp:157] Top shape: 32 16 38 38 (739328)
I0210 11:55:05.807142 16866 net.cpp:165] Memory required for data: 8002625600
I0210 11:55:05.807149 16866 layer_factory.hpp:77] Creating layer conv4_3_norm_mbox_loc_perm
I0210 11:55:05.807160 16866 net.cpp:100] Creating Layer conv4_3_norm_mbox_loc_perm
I0210 11:55:05.807166 16866 net.cpp:434] conv4_3_norm_mbox_loc_perm <- conv4_3_norm_mbox_loc
I0210 11:55:05.807174 16866 net.cpp:408] conv4_3_norm_mbox_loc_perm -> conv4_3_norm_mbox_loc_perm
I0210 11:55:05.807294 16866 net.cpp:150] Setting up conv4_3_norm_mbox_loc_perm
I0210 11:55:05.807303 16866 net.cpp:157] Top shape: 32 38 38 16 (739328)
I0210 11:55:05.807307 16866 net.cpp:165] Memory required for data: 8005582912
I0210 11:55:05.807310 16866 layer_factory.hpp:77] Creating layer conv4_3_norm_mbox_loc_flat
I0210 11:55:05.807324 16866 net.cpp:100] Creating Layer conv4_3_norm_mbox_loc_flat
I0210 11:55:05.807330 16866 net.cpp:434] conv4_3_norm_mbox_loc_flat <- conv4_3_norm_mbox_loc_perm
I0210 11:55:05.807335 16866 net.cpp:408] conv4_3_norm_mbox_loc_flat -> conv4_3_norm_mbox_loc_flat
I0210 11:55:05.807371 16866 net.cpp:150] Setting up conv4_3_norm_mbox_loc_flat
I0210 11:55:05.807380 16866 net.cpp:157] Top shape: 32 23104 (739328)
I0210 11:55:05.807384 16866 net.cpp:165] Memory required for data: 8008540224
I0210 11:55:05.807387 16866 layer_factory.hpp:77] Creating layer conv4_3_norm_mbox_conf
I0210 11:55:05.807404 16866 net.cpp:100] Creating Layer conv4_3_norm_mbox_conf
I0210 11:55:05.807410 16866 net.cpp:434] conv4_3_norm_mbox_conf <- conv4_3_norm_conv4_3_norm_0_split_1
I0210 11:55:05.807417 16866 net.cpp:408] conv4_3_norm_mbox_conf -> conv4_3_norm_mbox_conf
I0210 11:55:05.811975 16866 net.cpp:150] Setting up conv4_3_norm_mbox_conf
I0210 11:55:05.811992 16866 net.cpp:157] Top shape: 32 88 38 38 (4066304)
I0210 11:55:05.811996 16866 net.cpp:165] Memory required for data: 8024805440
I0210 11:55:05.812005 16866 layer_factory.hpp:77] Creating layer conv4_3_norm_mbox_conf_perm
I0210 11:55:05.812016 16866 net.cpp:100] Creating Layer conv4_3_norm_mbox_conf_perm
I0210 11:55:05.812021 16866 net.cpp:434] conv4_3_norm_mbox_conf_perm <- conv4_3_norm_mbox_conf
I0210 11:55:05.812028 16866 net.cpp:408] conv4_3_norm_mbox_conf_perm -> conv4_3_norm_mbox_conf_perm
I0210 11:55:05.812144 16866 net.cpp:150] Setting up conv4_3_norm_mbox_conf_perm
I0210 11:55:05.812152 16866 net.cpp:157] Top shape: 32 38 38 88 (4066304)
I0210 11:55:05.812156 16866 net.cpp:165] Memory required for data: 8041070656
I0210 11:55:05.812160 16866 layer_factory.hpp:77] Creating layer conv4_3_norm_mbox_conf_flat
I0210 11:55:05.812177 16866 net.cpp:100] Creating Layer conv4_3_norm_mbox_conf_flat
I0210 11:55:05.812185 16866 net.cpp:434] conv4_3_norm_mbox_conf_flat <- conv4_3_norm_mbox_conf_perm
I0210 11:55:05.812191 16866 net.cpp:408] conv4_3_norm_mbox_conf_flat -> conv4_3_norm_mbox_conf_flat
I0210 11:55:05.812222 16866 net.cpp:150] Setting up conv4_3_norm_mbox_conf_flat
I0210 11:55:05.812228 16866 net.cpp:157] Top shape: 32 127072 (4066304)
I0210 11:55:05.812232 16866 net.cpp:165] Memory required for data: 8057335872
I0210 11:55:05.812235 16866 layer_factory.hpp:77] Creating layer conv4_3_norm_mbox_priorbox
I0210 11:55:05.812243 16866 net.cpp:100] Creating Layer conv4_3_norm_mbox_priorbox
I0210 11:55:05.812247 16866 net.cpp:434] conv4_3_norm_mbox_priorbox <- conv4_3_norm_conv4_3_norm_0_split_2
I0210 11:55:05.812252 16866 net.cpp:434] conv4_3_norm_mbox_priorbox <- data_data_0_split_1
I0210 11:55:05.812260 16866 net.cpp:408] conv4_3_norm_mbox_priorbox -> conv4_3_norm_mbox_priorbox
I0210 11:55:05.812294 16866 net.cpp:150] Setting up conv4_3_norm_mbox_priorbox
I0210 11:55:05.812300 16866 net.cpp:157] Top shape: 1 2 23104 (46208)
I0210 11:55:05.812304 16866 net.cpp:165] Memory required for data: 8057520704
I0210 11:55:05.812307 16866 layer_factory.hpp:77] Creating layer fc7_mbox_loc
I0210 11:55:05.812319 16866 net.cpp:100] Creating Layer fc7_mbox_loc
I0210 11:55:05.812324 16866 net.cpp:434] fc7_mbox_loc <- fc7_relu7_0_split_1
I0210 11:55:05.812332 16866 net.cpp:408] fc7_mbox_loc -> fc7_mbox_loc
I0210 11:55:05.815448 16866 net.cpp:150] Setting up fc7_mbox_loc
I0210 11:55:05.815464 16866 net.cpp:157] Top shape: 32 24 19 19 (277248)
I0210 11:55:05.815469 16866 net.cpp:165] Memory required for data: 8058629696
I0210 11:55:05.815475 16866 layer_factory.hpp:77] Creating layer fc7_mbox_loc_perm
I0210 11:55:05.815486 16866 net.cpp:100] Creating Layer fc7_mbox_loc_perm
I0210 11:55:05.815492 16866 net.cpp:434] fc7_mbox_loc_perm <- fc7_mbox_loc
I0210 11:55:05.815498 16866 net.cpp:408] fc7_mbox_loc_perm -> fc7_mbox_loc_perm
I0210 11:55:05.815614 16866 net.cpp:150] Setting up fc7_mbox_loc_perm
I0210 11:55:05.815623 16866 net.cpp:157] Top shape: 32 19 19 24 (277248)
I0210 11:55:05.815625 16866 net.cpp:165] Memory required for data: 8059738688
I0210 11:55:05.815629 16866 layer_factory.hpp:77] Creating layer fc7_mbox_loc_flat
I0210 11:55:05.815635 16866 net.cpp:100] Creating Layer fc7_mbox_loc_flat
I0210 11:55:05.815639 16866 net.cpp:434] fc7_mbox_loc_flat <- fc7_mbox_loc_perm
I0210 11:55:05.815646 16866 net.cpp:408] fc7_mbox_loc_flat -> fc7_mbox_loc_flat
I0210 11:55:05.815672 16866 net.cpp:150] Setting up fc7_mbox_loc_flat
I0210 11:55:05.815680 16866 net.cpp:157] Top shape: 32 8664 (277248)
I0210 11:55:05.815685 16866 net.cpp:165] Memory required for data: 8060847680
I0210 11:55:05.815687 16866 layer_factory.hpp:77] Creating layer fc7_mbox_conf
I0210 11:55:05.815697 16866 net.cpp:100] Creating Layer fc7_mbox_conf
I0210 11:55:05.815702 16866 net.cpp:434] fc7_mbox_conf <- fc7_relu7_0_split_2
I0210 11:55:05.815712 16866 net.cpp:408] fc7_mbox_conf -> fc7_mbox_conf
I0210 11:55:05.826771 16866 net.cpp:150] Setting up fc7_mbox_conf
I0210 11:55:05.826792 16866 net.cpp:157] Top shape: 32 132 19 19 (1524864)
I0210 11:55:05.826795 16866 net.cpp:165] Memory required for data: 8066947136
I0210 11:55:05.826802 16866 layer_factory.hpp:77] Creating layer fc7_mbox_conf_perm
I0210 11:55:05.826810 16866 net.cpp:100] Creating Layer fc7_mbox_conf_perm
I0210 11:55:05.826817 16866 net.cpp:434] fc7_mbox_conf_perm <- fc7_mbox_conf
I0210 11:55:05.826824 16866 net.cpp:408] fc7_mbox_conf_perm -> fc7_mbox_conf_perm
I0210 11:55:05.826941 16866 net.cpp:150] Setting up fc7_mbox_conf_perm
I0210 11:55:05.826949 16866 net.cpp:157] Top shape: 32 19 19 132 (1524864)
I0210 11:55:05.826953 16866 net.cpp:165] Memory required for data: 8073046592
I0210 11:55:05.826956 16866 layer_factory.hpp:77] Creating layer fc7_mbox_conf_flat
I0210 11:55:05.826962 16866 net.cpp:100] Creating Layer fc7_mbox_conf_flat
I0210 11:55:05.826967 16866 net.cpp:434] fc7_mbox_conf_flat <- fc7_mbox_conf_perm
I0210 11:55:05.826983 16866 net.cpp:408] fc7_mbox_conf_flat -> fc7_mbox_conf_flat
I0210 11:55:05.827014 16866 net.cpp:150] Setting up fc7_mbox_conf_flat
I0210 11:55:05.827020 16866 net.cpp:157] Top shape: 32 47652 (1524864)
I0210 11:55:05.827024 16866 net.cpp:165] Memory required for data: 8079146048
I0210 11:55:05.827028 16866 layer_factory.hpp:77] Creating layer fc7_mbox_priorbox
I0210 11:55:05.827035 16866 net.cpp:100] Creating Layer fc7_mbox_priorbox
I0210 11:55:05.827039 16866 net.cpp:434] fc7_mbox_priorbox <- fc7_relu7_0_split_3
I0210 11:55:05.827044 16866 net.cpp:434] fc7_mbox_priorbox <- data_data_0_split_2
I0210 11:55:05.827050 16866 net.cpp:408] fc7_mbox_priorbox -> fc7_mbox_priorbox
I0210 11:55:05.827078 16866 net.cpp:150] Setting up fc7_mbox_priorbox
I0210 11:55:05.827085 16866 net.cpp:157] Top shape: 1 2 8664 (17328)
I0210 11:55:05.827088 16866 net.cpp:165] Memory required for data: 8079215360
I0210 11:55:05.827091 16866 layer_factory.hpp:77] Creating layer conv6_2_mbox_loc
I0210 11:55:05.827101 16866 net.cpp:100] Creating Layer conv6_2_mbox_loc
I0210 11:55:05.827106 16866 net.cpp:434] conv6_2_mbox_loc <- conv6_2_conv6_2_relu_0_split_1
I0210 11:55:05.827113 16866 net.cpp:408] conv6_2_mbox_loc -> conv6_2_mbox_loc
I0210 11:55:05.829416 16866 net.cpp:150] Setting up conv6_2_mbox_loc
I0210 11:55:05.829432 16866 net.cpp:157] Top shape: 32 24 10 10 (76800)
I0210 11:55:05.829437 16866 net.cpp:165] Memory required for data: 8079522560
I0210 11:55:05.829443 16866 layer_factory.hpp:77] Creating layer conv6_2_mbox_loc_perm
I0210 11:55:05.829452 16866 net.cpp:100] Creating Layer conv6_2_mbox_loc_perm
I0210 11:55:05.829457 16866 net.cpp:434] conv6_2_mbox_loc_perm <- conv6_2_mbox_loc
I0210 11:55:05.829463 16866 net.cpp:408] conv6_2_mbox_loc_perm -> conv6_2_mbox_loc_perm
I0210 11:55:05.829579 16866 net.cpp:150] Setting up conv6_2_mbox_loc_perm
I0210 11:55:05.829588 16866 net.cpp:157] Top shape: 32 10 10 24 (76800)
I0210 11:55:05.829592 16866 net.cpp:165] Memory required for data: 8079829760
I0210 11:55:05.829596 16866 layer_factory.hpp:77] Creating layer conv6_2_mbox_loc_flat
I0210 11:55:05.829602 16866 net.cpp:100] Creating Layer conv6_2_mbox_loc_flat
I0210 11:55:05.829605 16866 net.cpp:434] conv6_2_mbox_loc_flat <- conv6_2_mbox_loc_perm
I0210 11:55:05.829612 16866 net.cpp:408] conv6_2_mbox_loc_flat -> conv6_2_mbox_loc_flat
I0210 11:55:05.829638 16866 net.cpp:150] Setting up conv6_2_mbox_loc_flat
I0210 11:55:05.829645 16866 net.cpp:157] Top shape: 32 2400 (76800)
I0210 11:55:05.829649 16866 net.cpp:165] Memory required for data: 8080136960
I0210 11:55:05.829653 16866 layer_factory.hpp:77] Creating layer conv6_2_mbox_conf
I0210 11:55:05.829663 16866 net.cpp:100] Creating Layer conv6_2_mbox_conf
I0210 11:55:05.829668 16866 net.cpp:434] conv6_2_mbox_conf <- conv6_2_conv6_2_relu_0_split_2
I0210 11:55:05.829674 16866 net.cpp:408] conv6_2_mbox_conf -> conv6_2_mbox_conf
I0210 11:55:05.835912 16866 net.cpp:150] Setting up conv6_2_mbox_conf
I0210 11:55:05.835929 16866 net.cpp:157] Top shape: 32 132 10 10 (422400)
I0210 11:55:05.835934 16866 net.cpp:165] Memory required for data: 8081826560
I0210 11:55:05.835942 16866 layer_factory.hpp:77] Creating layer conv6_2_mbox_conf_perm
I0210 11:55:05.835950 16866 net.cpp:100] Creating Layer conv6_2_mbox_conf_perm
I0210 11:55:05.835955 16866 net.cpp:434] conv6_2_mbox_conf_perm <- conv6_2_mbox_conf
I0210 11:55:05.835961 16866 net.cpp:408] conv6_2_mbox_conf_perm -> conv6_2_mbox_conf_perm
I0210 11:55:05.836078 16866 net.cpp:150] Setting up conv6_2_mbox_conf_perm
I0210 11:55:05.836088 16866 net.cpp:157] Top shape: 32 10 10 132 (422400)
I0210 11:55:05.836091 16866 net.cpp:165] Memory required for data: 8083516160
I0210 11:55:05.836096 16866 layer_factory.hpp:77] Creating layer conv6_2_mbox_conf_flat
I0210 11:55:05.836102 16866 net.cpp:100] Creating Layer conv6_2_mbox_conf_flat
I0210 11:55:05.836105 16866 net.cpp:434] conv6_2_mbox_conf_flat <- conv6_2_mbox_conf_perm
I0210 11:55:05.836113 16866 net.cpp:408] conv6_2_mbox_conf_flat -> conv6_2_mbox_conf_flat
I0210 11:55:05.836153 16866 net.cpp:150] Setting up conv6_2_mbox_conf_flat
I0210 11:55:05.836160 16866 net.cpp:157] Top shape: 32 13200 (422400)
I0210 11:55:05.836164 16866 net.cpp:165] Memory required for data: 8085205760
I0210 11:55:05.836168 16866 layer_factory.hpp:77] Creating layer conv6_2_mbox_priorbox
I0210 11:55:05.836174 16866 net.cpp:100] Creating Layer conv6_2_mbox_priorbox
I0210 11:55:05.836179 16866 net.cpp:434] conv6_2_mbox_priorbox <- conv6_2_conv6_2_relu_0_split_3
I0210 11:55:05.836184 16866 net.cpp:434] conv6_2_mbox_priorbox <- data_data_0_split_3
I0210 11:55:05.836190 16866 net.cpp:408] conv6_2_mbox_priorbox -> conv6_2_mbox_priorbox
I0210 11:55:05.836218 16866 net.cpp:150] Setting up conv6_2_mbox_priorbox
I0210 11:55:05.836225 16866 net.cpp:157] Top shape: 1 2 2400 (4800)
I0210 11:55:05.836228 16866 net.cpp:165] Memory required for data: 8085224960
I0210 11:55:05.836231 16866 layer_factory.hpp:77] Creating layer conv7_2_mbox_loc
I0210 11:55:05.836243 16866 net.cpp:100] Creating Layer conv7_2_mbox_loc
I0210 11:55:05.836247 16866 net.cpp:434] conv7_2_mbox_loc <- conv7_2_conv7_2_relu_0_split_1
I0210 11:55:05.836253 16866 net.cpp:408] conv7_2_mbox_loc -> conv7_2_mbox_loc
I0210 11:55:05.838186 16866 net.cpp:150] Setting up conv7_2_mbox_loc
I0210 11:55:05.838202 16866 net.cpp:157] Top shape: 32 24 5 5 (19200)
I0210 11:55:05.838207 16866 net.cpp:165] Memory required for data: 8085301760
I0210 11:55:05.838213 16866 layer_factory.hpp:77] Creating layer conv7_2_mbox_loc_perm
I0210 11:55:05.838222 16866 net.cpp:100] Creating Layer conv7_2_mbox_loc_perm
I0210 11:55:05.838227 16866 net.cpp:434] conv7_2_mbox_loc_perm <- conv7_2_mbox_loc
I0210 11:55:05.838233 16866 net.cpp:408] conv7_2_mbox_loc_perm -> conv7_2_mbox_loc_perm
I0210 11:55:05.838357 16866 net.cpp:150] Setting up conv7_2_mbox_loc_perm
I0210 11:55:05.838367 16866 net.cpp:157] Top shape: 32 5 5 24 (19200)
I0210 11:55:05.838371 16866 net.cpp:165] Memory required for data: 8085378560
I0210 11:55:05.838374 16866 layer_factory.hpp:77] Creating layer conv7_2_mbox_loc_flat
I0210 11:55:05.838380 16866 net.cpp:100] Creating Layer conv7_2_mbox_loc_flat
I0210 11:55:05.838385 16866 net.cpp:434] conv7_2_mbox_loc_flat <- conv7_2_mbox_loc_perm
I0210 11:55:05.838392 16866 net.cpp:408] conv7_2_mbox_loc_flat -> conv7_2_mbox_loc_flat
I0210 11:55:05.838420 16866 net.cpp:150] Setting up conv7_2_mbox_loc_flat
I0210 11:55:05.838426 16866 net.cpp:157] Top shape: 32 600 (19200)
I0210 11:55:05.838429 16866 net.cpp:165] Memory required for data: 8085455360
I0210 11:55:05.838433 16866 layer_factory.hpp:77] Creating layer conv7_2_mbox_conf
I0210 11:55:05.838443 16866 net.cpp:100] Creating Layer conv7_2_mbox_conf
I0210 11:55:05.838448 16866 net.cpp:434] conv7_2_mbox_conf <- conv7_2_conv7_2_relu_0_split_2
I0210 11:55:05.838455 16866 net.cpp:408] conv7_2_mbox_conf -> conv7_2_mbox_conf
I0210 11:55:05.842226 16866 net.cpp:150] Setting up conv7_2_mbox_conf
I0210 11:55:05.842242 16866 net.cpp:157] Top shape: 32 132 5 5 (105600)
I0210 11:55:05.842247 16866 net.cpp:165] Memory required for data: 8085877760
I0210 11:55:05.842253 16866 layer_factory.hpp:77] Creating layer conv7_2_mbox_conf_perm
I0210 11:55:05.842262 16866 net.cpp:100] Creating Layer conv7_2_mbox_conf_perm
I0210 11:55:05.842267 16866 net.cpp:434] conv7_2_mbox_conf_perm <- conv7_2_mbox_conf
I0210 11:55:05.842274 16866 net.cpp:408] conv7_2_mbox_conf_perm -> conv7_2_mbox_conf_perm
I0210 11:55:05.842401 16866 net.cpp:150] Setting up conv7_2_mbox_conf_perm
I0210 11:55:05.842411 16866 net.cpp:157] Top shape: 32 5 5 132 (105600)
I0210 11:55:05.842414 16866 net.cpp:165] Memory required for data: 8086300160
I0210 11:55:05.842418 16866 layer_factory.hpp:77] Creating layer conv7_2_mbox_conf_flat
I0210 11:55:05.842424 16866 net.cpp:100] Creating Layer conv7_2_mbox_conf_flat
I0210 11:55:05.842428 16866 net.cpp:434] conv7_2_mbox_conf_flat <- conv7_2_mbox_conf_perm
I0210 11:55:05.842435 16866 net.cpp:408] conv7_2_mbox_conf_flat -> conv7_2_mbox_conf_flat
I0210 11:55:05.842464 16866 net.cpp:150] Setting up conv7_2_mbox_conf_flat
I0210 11:55:05.842480 16866 net.cpp:157] Top shape: 32 3300 (105600)
I0210 11:55:05.842484 16866 net.cpp:165] Memory required for data: 8086722560
I0210 11:55:05.842489 16866 layer_factory.hpp:77] Creating layer conv7_2_mbox_priorbox
I0210 11:55:05.842495 16866 net.cpp:100] Creating Layer conv7_2_mbox_priorbox
I0210 11:55:05.842499 16866 net.cpp:434] conv7_2_mbox_priorbox <- conv7_2_conv7_2_relu_0_split_3
I0210 11:55:05.842504 16866 net.cpp:434] conv7_2_mbox_priorbox <- data_data_0_split_4
I0210 11:55:05.842512 16866 net.cpp:408] conv7_2_mbox_priorbox -> conv7_2_mbox_priorbox
I0210 11:55:05.842543 16866 net.cpp:150] Setting up conv7_2_mbox_priorbox
I0210 11:55:05.842555 16866 net.cpp:157] Top shape: 1 2 600 (1200)
I0210 11:55:05.842558 16866 net.cpp:165] Memory required for data: 8086727360
I0210 11:55:05.842562 16866 layer_factory.hpp:77] Creating layer conv8_2_mbox_loc
I0210 11:55:05.842572 16866 net.cpp:100] Creating Layer conv8_2_mbox_loc
I0210 11:55:05.842577 16866 net.cpp:434] conv8_2_mbox_loc <- conv8_2_conv8_2_relu_0_split_1
I0210 11:55:05.842584 16866 net.cpp:408] conv8_2_mbox_loc -> conv8_2_mbox_loc
I0210 11:55:05.843870 16866 net.cpp:150] Setting up conv8_2_mbox_loc
I0210 11:55:05.843886 16866 net.cpp:157] Top shape: 32 16 3 3 (4608)
I0210 11:55:05.843891 16866 net.cpp:165] Memory required for data: 8086745792
I0210 11:55:05.843909 16866 layer_factory.hpp:77] Creating layer conv8_2_mbox_loc_perm
I0210 11:55:05.843917 16866 net.cpp:100] Creating Layer conv8_2_mbox_loc_perm
I0210 11:55:05.843922 16866 net.cpp:434] conv8_2_mbox_loc_perm <- conv8_2_mbox_loc
I0210 11:55:05.843928 16866 net.cpp:408] conv8_2_mbox_loc_perm -> conv8_2_mbox_loc_perm
I0210 11:55:05.844049 16866 net.cpp:150] Setting up conv8_2_mbox_loc_perm
I0210 11:55:05.844058 16866 net.cpp:157] Top shape: 32 3 3 16 (4608)
I0210 11:55:05.844063 16866 net.cpp:165] Memory required for data: 8086764224
I0210 11:55:05.844065 16866 layer_factory.hpp:77] Creating layer conv8_2_mbox_loc_flat
I0210 11:55:05.844074 16866 net.cpp:100] Creating Layer conv8_2_mbox_loc_flat
I0210 11:55:05.844079 16866 net.cpp:434] conv8_2_mbox_loc_flat <- conv8_2_mbox_loc_perm
I0210 11:55:05.844084 16866 net.cpp:408] conv8_2_mbox_loc_flat -> conv8_2_mbox_loc_flat
I0210 11:55:05.844112 16866 net.cpp:150] Setting up conv8_2_mbox_loc_flat
I0210 11:55:05.844120 16866 net.cpp:157] Top shape: 32 144 (4608)
I0210 11:55:05.844125 16866 net.cpp:165] Memory required for data: 8086782656
I0210 11:55:05.844128 16866 layer_factory.hpp:77] Creating layer conv8_2_mbox_conf
I0210 11:55:05.844137 16866 net.cpp:100] Creating Layer conv8_2_mbox_conf
I0210 11:55:05.844142 16866 net.cpp:434] conv8_2_mbox_conf <- conv8_2_conv8_2_relu_0_split_2
I0210 11:55:05.844149 16866 net.cpp:408] conv8_2_mbox_conf -> conv8_2_mbox_conf
I0210 11:55:05.847160 16866 net.cpp:150] Setting up conv8_2_mbox_conf
I0210 11:55:05.847177 16866 net.cpp:157] Top shape: 32 88 3 3 (25344)
I0210 11:55:05.847182 16866 net.cpp:165] Memory required for data: 8086884032
I0210 11:55:05.847188 16866 layer_factory.hpp:77] Creating layer conv8_2_mbox_conf_perm
I0210 11:55:05.847198 16866 net.cpp:100] Creating Layer conv8_2_mbox_conf_perm
I0210 11:55:05.847203 16866 net.cpp:434] conv8_2_mbox_conf_perm <- conv8_2_mbox_conf
I0210 11:55:05.847209 16866 net.cpp:408] conv8_2_mbox_conf_perm -> conv8_2_mbox_conf_perm
I0210 11:55:05.847332 16866 net.cpp:150] Setting up conv8_2_mbox_conf_perm
I0210 11:55:05.847342 16866 net.cpp:157] Top shape: 32 3 3 88 (25344)
I0210 11:55:05.847345 16866 net.cpp:165] Memory required for data: 8086985408
I0210 11:55:05.847348 16866 layer_factory.hpp:77] Creating layer conv8_2_mbox_conf_flat
I0210 11:55:05.847355 16866 net.cpp:100] Creating Layer conv8_2_mbox_conf_flat
I0210 11:55:05.847359 16866 net.cpp:434] conv8_2_mbox_conf_flat <- conv8_2_mbox_conf_perm
I0210 11:55:05.847367 16866 net.cpp:408] conv8_2_mbox_conf_flat -> conv8_2_mbox_conf_flat
I0210 11:55:05.847393 16866 net.cpp:150] Setting up conv8_2_mbox_conf_flat
I0210 11:55:05.847400 16866 net.cpp:157] Top shape: 32 792 (25344)
I0210 11:55:05.847404 16866 net.cpp:165] Memory required for data: 8087086784
I0210 11:55:05.847419 16866 layer_factory.hpp:77] Creating layer conv8_2_mbox_priorbox
I0210 11:55:05.847427 16866 net.cpp:100] Creating Layer conv8_2_mbox_priorbox
I0210 11:55:05.847432 16866 net.cpp:434] conv8_2_mbox_priorbox <- conv8_2_conv8_2_relu_0_split_3
I0210 11:55:05.847437 16866 net.cpp:434] conv8_2_mbox_priorbox <- data_data_0_split_5
I0210 11:55:05.847445 16866 net.cpp:408] conv8_2_mbox_priorbox -> conv8_2_mbox_priorbox
I0210 11:55:05.847477 16866 net.cpp:150] Setting up conv8_2_mbox_priorbox
I0210 11:55:05.847486 16866 net.cpp:157] Top shape: 1 2 144 (288)
I0210 11:55:05.847488 16866 net.cpp:165] Memory required for data: 8087087936
I0210 11:55:05.847492 16866 layer_factory.hpp:77] Creating layer conv9_2_mbox_loc
I0210 11:55:05.847503 16866 net.cpp:100] Creating Layer conv9_2_mbox_loc
I0210 11:55:05.847508 16866 net.cpp:434] conv9_2_mbox_loc <- conv9_2_conv9_2_relu_0_split_0
I0210 11:55:05.847514 16866 net.cpp:408] conv9_2_mbox_loc -> conv9_2_mbox_loc
I0210 11:55:05.849015 16866 net.cpp:150] Setting up conv9_2_mbox_loc
I0210 11:55:05.849033 16866 net.cpp:157] Top shape: 32 16 1 1 (512)
I0210 11:55:05.849037 16866 net.cpp:165] Memory required for data: 8087089984
I0210 11:55:05.849045 16866 layer_factory.hpp:77] Creating layer conv9_2_mbox_loc_perm
I0210 11:55:05.849052 16866 net.cpp:100] Creating Layer conv9_2_mbox_loc_perm
I0210 11:55:05.849056 16866 net.cpp:434] conv9_2_mbox_loc_perm <- conv9_2_mbox_loc
I0210 11:55:05.849063 16866 net.cpp:408] conv9_2_mbox_loc_perm -> conv9_2_mbox_loc_perm
I0210 11:55:05.849184 16866 net.cpp:150] Setting up conv9_2_mbox_loc_perm
I0210 11:55:05.849194 16866 net.cpp:157] Top shape: 32 1 1 16 (512)
I0210 11:55:05.849197 16866 net.cpp:165] Memory required for data: 8087092032
I0210 11:55:05.849201 16866 layer_factory.hpp:77] Creating layer conv9_2_mbox_loc_flat
I0210 11:55:05.849208 16866 net.cpp:100] Creating Layer conv9_2_mbox_loc_flat
I0210 11:55:05.849213 16866 net.cpp:434] conv9_2_mbox_loc_flat <- conv9_2_mbox_loc_perm
I0210 11:55:05.849218 16866 net.cpp:408] conv9_2_mbox_loc_flat -> conv9_2_mbox_loc_flat
I0210 11:55:05.849247 16866 net.cpp:150] Setting up conv9_2_mbox_loc_flat
I0210 11:55:05.849256 16866 net.cpp:157] Top shape: 32 16 (512)
I0210 11:55:05.849259 16866 net.cpp:165] Memory required for data: 8087094080
I0210 11:55:05.849262 16866 layer_factory.hpp:77] Creating layer conv9_2_mbox_conf
I0210 11:55:05.849275 16866 net.cpp:100] Creating Layer conv9_2_mbox_conf
I0210 11:55:05.849280 16866 net.cpp:434] conv9_2_mbox_conf <- conv9_2_conv9_2_relu_0_split_1
I0210 11:55:05.849287 16866 net.cpp:408] conv9_2_mbox_conf -> conv9_2_mbox_conf
I0210 11:55:05.852293 16866 net.cpp:150] Setting up conv9_2_mbox_conf
I0210 11:55:05.852309 16866 net.cpp:157] Top shape: 32 88 1 1 (2816)
I0210 11:55:05.852314 16866 net.cpp:165] Memory required for data: 8087105344
I0210 11:55:05.852321 16866 layer_factory.hpp:77] Creating layer conv9_2_mbox_conf_perm
I0210 11:55:05.852329 16866 net.cpp:100] Creating Layer conv9_2_mbox_conf_perm
I0210 11:55:05.852334 16866 net.cpp:434] conv9_2_mbox_conf_perm <- conv9_2_mbox_conf
I0210 11:55:05.852341 16866 net.cpp:408] conv9_2_mbox_conf_perm -> conv9_2_mbox_conf_perm
I0210 11:55:05.852464 16866 net.cpp:150] Setting up conv9_2_mbox_conf_perm
I0210 11:55:05.852474 16866 net.cpp:157] Top shape: 32 1 1 88 (2816)
I0210 11:55:05.852478 16866 net.cpp:165] Memory required for data: 8087116608
I0210 11:55:05.852481 16866 layer_factory.hpp:77] Creating layer conv9_2_mbox_conf_flat
I0210 11:55:05.852488 16866 net.cpp:100] Creating Layer conv9_2_mbox_conf_flat
I0210 11:55:05.852493 16866 net.cpp:434] conv9_2_mbox_conf_flat <- conv9_2_mbox_conf_perm
I0210 11:55:05.852499 16866 net.cpp:408] conv9_2_mbox_conf_flat -> conv9_2_mbox_conf_flat
I0210 11:55:05.852526 16866 net.cpp:150] Setting up conv9_2_mbox_conf_flat
I0210 11:55:05.852535 16866 net.cpp:157] Top shape: 32 88 (2816)
I0210 11:55:05.852537 16866 net.cpp:165] Memory required for data: 8087127872
I0210 11:55:05.852541 16866 layer_factory.hpp:77] Creating layer conv9_2_mbox_priorbox
I0210 11:55:05.852560 16866 net.cpp:100] Creating Layer conv9_2_mbox_priorbox
I0210 11:55:05.852566 16866 net.cpp:434] conv9_2_mbox_priorbox <- conv9_2_conv9_2_relu_0_split_2
I0210 11:55:05.852571 16866 net.cpp:434] conv9_2_mbox_priorbox <- data_data_0_split_6
I0210 11:55:05.852577 16866 net.cpp:408] conv9_2_mbox_priorbox -> conv9_2_mbox_priorbox
I0210 11:55:05.852608 16866 net.cpp:150] Setting up conv9_2_mbox_priorbox
I0210 11:55:05.852617 16866 net.cpp:157] Top shape: 1 2 16 (32)
I0210 11:55:05.852620 16866 net.cpp:165] Memory required for data: 8087128000
I0210 11:55:05.852623 16866 layer_factory.hpp:77] Creating layer mbox_loc
I0210 11:55:05.852638 16866 net.cpp:100] Creating Layer mbox_loc
I0210 11:55:05.852643 16866 net.cpp:434] mbox_loc <- conv4_3_norm_mbox_loc_flat
I0210 11:55:05.852649 16866 net.cpp:434] mbox_loc <- fc7_mbox_loc_flat
I0210 11:55:05.852654 16866 net.cpp:434] mbox_loc <- conv6_2_mbox_loc_flat
I0210 11:55:05.852659 16866 net.cpp:434] mbox_loc <- conv7_2_mbox_loc_flat
I0210 11:55:05.852663 16866 net.cpp:434] mbox_loc <- conv8_2_mbox_loc_flat
I0210 11:55:05.852669 16866 net.cpp:434] mbox_loc <- conv9_2_mbox_loc_flat
I0210 11:55:05.852674 16866 net.cpp:408] mbox_loc -> mbox_loc
I0210 11:55:05.852710 16866 net.cpp:150] Setting up mbox_loc
I0210 11:55:05.852717 16866 net.cpp:157] Top shape: 32 34928 (1117696)
I0210 11:55:05.852720 16866 net.cpp:165] Memory required for data: 8091598784
I0210 11:55:05.852725 16866 layer_factory.hpp:77] Creating layer mbox_conf
I0210 11:55:05.852730 16866 net.cpp:100] Creating Layer mbox_conf
I0210 11:55:05.852735 16866 net.cpp:434] mbox_conf <- conv4_3_norm_mbox_conf_flat
I0210 11:55:05.852740 16866 net.cpp:434] mbox_conf <- fc7_mbox_conf_flat
I0210 11:55:05.852744 16866 net.cpp:434] mbox_conf <- conv6_2_mbox_conf_flat
I0210 11:55:05.852749 16866 net.cpp:434] mbox_conf <- conv7_2_mbox_conf_flat
I0210 11:55:05.852753 16866 net.cpp:434] mbox_conf <- conv8_2_mbox_conf_flat
I0210 11:55:05.852757 16866 net.cpp:434] mbox_conf <- conv9_2_mbox_conf_flat
I0210 11:55:05.852763 16866 net.cpp:408] mbox_conf -> mbox_conf
I0210 11:55:05.852792 16866 net.cpp:150] Setting up mbox_conf
I0210 11:55:05.852798 16866 net.cpp:157] Top shape: 32 192104 (6147328)
I0210 11:55:05.852802 16866 net.cpp:165] Memory required for data: 8116188096
I0210 11:55:05.852804 16866 layer_factory.hpp:77] Creating layer mbox_priorbox
I0210 11:55:05.852810 16866 net.cpp:100] Creating Layer mbox_priorbox
I0210 11:55:05.852814 16866 net.cpp:434] mbox_priorbox <- conv4_3_norm_mbox_priorbox
I0210 11:55:05.852819 16866 net.cpp:434] mbox_priorbox <- fc7_mbox_priorbox
I0210 11:55:05.852823 16866 net.cpp:434] mbox_priorbox <- conv6_2_mbox_priorbox
I0210 11:55:05.852828 16866 net.cpp:434] mbox_priorbox <- conv7_2_mbox_priorbox
I0210 11:55:05.852831 16866 net.cpp:434] mbox_priorbox <- conv8_2_mbox_priorbox
I0210 11:55:05.852835 16866 net.cpp:434] mbox_priorbox <- conv9_2_mbox_priorbox
I0210 11:55:05.852843 16866 net.cpp:408] mbox_priorbox -> mbox_priorbox
I0210 11:55:05.852869 16866 net.cpp:150] Setting up mbox_priorbox
I0210 11:55:05.852874 16866 net.cpp:157] Top shape: 1 2 34928 (69856)
I0210 11:55:05.852877 16866 net.cpp:165] Memory required for data: 8116467520
I0210 11:55:05.852880 16866 layer_factory.hpp:77] Creating layer mbox_loss
I0210 11:55:05.852890 16866 net.cpp:100] Creating Layer mbox_loss
I0210 11:55:05.852895 16866 net.cpp:434] mbox_loss <- mbox_loc
I0210 11:55:05.852898 16866 net.cpp:434] mbox_loss <- mbox_conf
I0210 11:55:05.852903 16866 net.cpp:434] mbox_loss <- mbox_priorbox
…
layer {
  name: "data"
  type: "AnnotatedData"
  top: "data"
  top: "label"
  include {
    phase: TEST
  }
  transform_param {
    mean_value: 126
    mean_value: 100
    mean_value: 108
    mean_value: 113
    resize_param {
      prob: 1
      resize_mode: WARP
      height: 300
      width: 300
      interp_mode: LINEAR
    }
  }
  data_param {
    source: "examples/VOC0712/VOC0712_test_lmdb"
    batch_size: 13
    backend: LMDB
  }
  annotated_data_param {
    batch_sampler {
    }
    label_map_file: "data/VOC0712/labelmap_voc.prototxt"
  }
}
layer {
  name: "conv1_1_rgbd"
  type: "Convolution"
  bottom: "data"
  top: "conv1_1_rgbd"
  param {
    lr_mult: 1
    decay_mult: 1
  }
  param {
    lr_mult: 2
    decay_mult: 0
  }
  convolution_param {
    num_output: 64
    pad: 1
    kernel_size: 3
    weight_filler {
      type: "xavier"
    }
    bias_filler {
      type: "constant"
      value: 0
    }
  }
}
layer {
  name: "relu1_1"
  type: "ReLU"
  bottom: "conv1_1_rgbd"
  top: "conv1_1_rgbd"
}
layer {
  name: "conv1_2"
  type: "Convolution"
  bottom: "conv1_1_rgbd"
  top: "conv1_2"
  param {
    lr_mult: 1
    decay_mult: 1
  }
  param {
    lr_mult: 2
    decay_mult: 0
  }
  convolution_param {
    num_output: 64
    pad: 1
    kernel_size: 3
    weight_filler {
      type: "xavier"
    }
    bias_filler {
      type: "constant"
      value: 0
    }
  }
}
layer {
  name: "relu1_2"
  type: "ReLU"
  bottom: "conv1_2"
  top: "conv1_2"
}
layer {
  name: "pool1"
  type: "Pooling"
  bottom: "conv1_2"
  top: "pool1"
  pooling_param {
    pool: MAX
    kernel_size: 2
    stride: 2
  }
}
layer {
  name: "conv2_1"
  type: "Convolution"
  bottom: "pool1"
  top: "conv2_1"
  param {
    lr_mult: 1
    decay_mult: 1
  }
  param {
    lr_mult: 2
    decay_mult: 0
  }
  convolution_param {
    num_output: 128
    pad: 1
    kernel_size: 3
    weight_filler {
      type: "xavier"
    }
    bias_filler {
      type: "constant"
      value: 0
    }
  }
}
layer {
  name: "relu2_1"
  type: "ReLU"
  bottom: "conv2_1"
  top: "conv2_1"
}
layer {
  name: "conv2_2"
  type: "Convolution"
  bottom: "conv2_1"
  top: "conv2_2"
  param {
    lr_mult: 1
    decay_mult: 1
  }
  param {
    lr_mult: 2
    decay_mult: 0
  }
  convolution_param {
    num_output: 128
    pad: 1
    kernel_size: 3
    weight_filler {
      type: "xavier"
    }
    bias_filler {
      type: "constant"
      value: 0
    }
  }
}
layer {
  name: "relu2_2"
  type: "ReLU"
  bottom: "conv2_2"
  top: "conv2_2"
}
layer {
  name: "pool2"
  type: "Pooling"
  bottom: "conv2_2"
  top: "pool2"
  pooling_param {
    pool: MAX
    kernel_size: 2
    stride: 2
  }
}
layer {
  name: "conv3_1"
  type: "Convolution"
  bottom: "pool2"
  top: "conv3_1"
  param {
    lr_mult: 1
    decay_mult: 1
  }
  param {
    lr_mult: 2
    decay_mult: 0
  }
  convolution_param {
    num_output: 256
    pad: 1
    kernel_size: 3
    weight_filler {
      type: "xavier"
    }
    bias_filler {
      type: "constant"
      value: 0
    }
  }
}
layer {
  name: "relu3_1"
  type: "ReLU"
  bottom: "conv3_1"
  top: "conv3_1"
}
layer {
  name: "conv3_2"
  type: "Convolution"
  bottom: "conv3_1"
  top: "conv3_2"
  param {
    lr_mult: 1
    decay_mult: 1
  }
  param {
    lr_mult: 2
    decay_mult: 0
  }
  convolution_param {
    num_output: 256
    pad: 1
    kernel_size: 3
    weight_filler {
      type: "xavier"
    }
    bias_filler {
      type: "constant"
      value: 0
    }
  }
}
layer {
  name: "relu3_2"
  type: "ReLU"
  bottom: "conv3_2"
  top: "conv3_2"
}
layer {
  name: "conv3_3"
  type: "Convolution"
  bottom: "conv3_2"
  top: "conv3_3"
  param {
    lr_mult: 1
    decay_mult: 1
  }
  param {
    lr_mult: 2
    decay_mult: 0
  }
  convolution_param {
    num_output: 256
    pad: 1
    kernel_size: 3
    weight_filler {
      type: "xavier"
    }
    bias_filler {
      type: "constant"
      value: 0
    }
  }
}
layer {
  name: "relu3_3"
  type: "ReLU"
  bottom: "conv3_3"
  top: "conv3_3"
}
layer {
  name: "pool3"
  type: "Pooling"
  bottom: "conv3_3"
  top: "pool3"
  pooling_param {
    pool: MAX
    kernel_size: 2
    stride: 2
  }
}
layer {
  name: "conv4_1"
  type: "Convolution"
  bottom: "pool3"
  top: "conv4_1"
  param {
    lr_mult: 1
    decay_mult: 1
  }
  param {
    lr_mult: 2
    decay_mult: 0
  }
  convolution_param {
    num_output: 512
    pad: 1
    kernel_size: 3
    weight_filler {
      type: "xavier"
    }
    bias_filler {
      type: "constant"
      value: 0
    }
  }
}
layer {
  name: "relu4_1"
  type: "ReLU"
  bottom: "conv4_1"
  top: "conv4_1"
}
layer {
  name: "conv4_2"
  type: "Convolution"
  bottom: "conv4_1"
  top: "conv4_2"
  param {
    lr_mult: 1
    decay_mult: 1
  }
  param {
    lr_mult: 2
    decay_mult: 0
  }
  convolution_param {
    num_output: 512
    pad: 1
    kernel_size: 3
    weight_filler {
      type: "xavier"
    }
    bias_filler {
      type: "constant"
      value: 0
    }
  }
}
layer {
  name: "relu4_2"
  type: "ReLU"
  bottom: "conv4_2"
  top: "conv4_2"
}
layer {
  name: "conv4_3"
  type: "Convolution"
  bottom: "conv4_2"
  top: "conv4_3"
  param {
    lr_mult: 1
    decay_mult: 1
  }
  param {
    lr_mult: 2
    decay_mult: 0
  }
  convolution_param {
    num_output: 512
    pad: 1
    kernel_size: 3
    weight_filler {
      type: "xavier"
    }
    bias_filler {
      type: "constant"
      value: 0
    }
  }
}
layer {
  name: "relu4_3"
  type: "ReLU"
  bottom: "conv4_3"
  top: "conv4_3"
}
layer {
  name: "pool4"
  type: "Pooling"
  bottom: "conv4_3"
  top: "pool4"
  pooling_param {
    pool: MAX
    kernel_size: 2
    stride: 2
  }
}
layer {
  name: "conv5_1"
  type: "Convolution"
  bottom: "pool4"
  top: "conv5_1"
  param {
    lr_mult: 1
    decay_mult: 1
  }
  param {
    lr_mult: 2
    decay_mult: 0
  }
  convolution_param {
    num_output: 512
    pad: 1
    kernel_size: 3
    weight_filler {
      type: "xavier"
    }
    bias_filler {
      type: "constant"
      value: 0
    }
    dilation: 1
  }
}
layer {
  name: "relu5_1"
  type: "ReLU"
  bottom: "conv5_1"
  top: "conv5_1"
}
layer {
  name: "conv5_2"
  type: "Convolution"
  bottom: "conv5_1"
  top: "conv5_2"
  param {
    lr_mult: 1
    decay_mult: 1
  }
  param {
    lr_mult: 2
    decay_mult: 0
  }
  convolution_param {
    num_output: 512
    pad: 1
    kernel_size: 3
    weight_filler {
      type: "xavier"
    }
    bias_filler {
      type: "constant"
      value: 0
    }
    dilation: 1
  }
}
layer {
  name: "relu5_2"
  type: "ReLU"
  bottom: "conv5_2"
  top: "conv5_2"
}
layer {
  name: "conv5_3"
  type: "Convolution"
  bottom: "conv5_2"
  top: "conv5_3"
  param {
    lr_mult: 1
    decay_mult: 1
  }
  param {
    lr_mult: 2
    decay_mult: 0
  }
  convolution_param {
    num_output: 512
    pad: 1
    kernel_size: 3
    weight_filler {
      type: "xavier"
    }
    bias_filler {
      type: "constant"
      value: 0
    }
    dilation: 1
  }
}
layer {
  name: "relu5_3"
  type: "ReLU"
  bottom: "conv5_3"
  top: "conv5_3"
}
layer {
  name: "pool5"
  type: "Pooling"
  bottom: "conv5_3"
  top: "pool5"
  pooling_param {
    pool: MAX
    kernel_size: 3
    stride: 1
    pad: 1
  }
}
layer {
  name: "fc6"
  type: "Convolution"
  bottom: "pool5"
  top: "fc6"
  param {
    lr_mult: 1
    decay_mult: 1
  }
  param {
    lr_mult: 2
    decay_mult: 0
  }
  convolution_param {
    num_output: 1024
    pad: 6
    kernel_size: 3
    weight_filler {
      type: "xavier"
    }
    bias_filler {
      type: "constant"
      value: 0
    }
    dilation: 6
  }
}
layer {
  name: "relu6"
  type: "ReLU"
  bottom: "fc6"
  top: "fc6"
}
layer {
  name: "fc7"
  type: "Convolution"
  bottom: "fc6"
  top: "fc7"
  param {
    lr_mult: 1
    decay_mult: 1
  }
  param {
    lr_mult: 2
    decay_mult: 0
  }
  convolution_param {
    num_output: 1024
    kernel_size: 1
    weight_filler {
      type: "xavier"
    }
    bias_filler {
      type: "constant"
      value: 0
    }
  }
}
layer {
  name: "relu7"
  type: "ReLU"
  bottom: "fc7"
  top: "fc7"
}
layer {
  name: "conv6_1"
  type: "Convolution"
  bottom: "fc7"
  top: "conv6_1"
  param {
    lr_mult: 1
    decay_mult: 1
  }
  param {
    lr_mult: 2
    decay_mult: 0
  }
  convolution_param {
    num_output: 256
    pad: 0
    kernel_size: 1
    stride: 1
    weight_filler {
      type: "xavier"
    }
    bias_filler {
      type: "constant"
      value: 0
    }
  }
}
layer {
  name: "conv6_1_relu"
  type: "ReLU"
  bottom: "conv6_1"
  top: "conv6_1"
}
layer {
  name: "conv6_2"
  type: "Convolution"
  bottom: "conv6_1"
  top: "conv6_2"
  param {
    lr_mult: 1
    decay_mult: 1
  }
  param {
    lr_mult: 2
    decay_mult: 0
  }
  convolution_param {
    num_output: 512
    pad: 1
    kernel_size: 3
    stride: 2
    weight_filler {
      type: "xavier"
    }
    bias_filler {
      type: "constant"
      value: 0
    }
  }
}
layer {
  name: "conv6_2_relu"
  type: "ReLU"
  bottom: "conv6_2"
  top: "conv6_2"
}
layer {
  name: "conv7_1"
  type: "Convolution"
  bottom: "conv6_2"
  top: "conv7_1"
  param {
    lr_mult: 1
    decay_mult: 1
  }
  param {
    lr_mult: 2
    decay_mult: 0
  }
  convolution_param {
    num_output: 128
    pad: 0
    kernel_size: 1
    stride: 1
    weight_filler {
      type: "xavier"
    }
    bias_filler {
      type: "constant"
      value: 0
    }
  }
}
layer {
  name: "conv7_1_relu"
  type: "ReLU"
  bottom: "conv7_1"
  top: "conv7_1"
}
layer {
  name: "conv7_2"
  type: "Convolution"
  bottom: "conv7_1"
  top: "conv7_2"
  param {
    lr_mult: 1
    decay_mult: 1
  }
  param {
    lr_mult: 2
    decay_mult: 0
  }
  convolution_param {
    num_output: 256
    pad: 1
    kernel_size: 3
    stride: 2
    weight_filler {
      type: "xavier"
    }
    bias_filler {
      type: "constant"
      value: 0
    }
  }
}
layer {
  name: "conv7_2_relu"
  type: "ReLU"
  bottom: "conv7_2"
  top: "conv7_2"
}
layer {
  name: "conv8_1"
  type: "Convolution"
  bottom: "conv7_2"
  top: "conv8_1"
  param {
    lr_mult: 1
    decay_mult: 1
  }
  param {
    lr_mult: 2
    decay_mult: 0
  }
  convolution_param {
    num_output: 128
    pad: 0
    kernel_size: 1
    stride: 1
    weight_filler {
      type: "xavier"
    }
    bias_filler {
      type: "constant"
      value: 0
    }
  }
}
layer {
  name: "conv8_1_relu"
  type: "ReLU"
  bottom: "conv8_1"
  top: "conv8_1"
}
layer {
  name: "conv8_2"
  type: "Convolution"
  bottom: "conv8_1"
  top: "conv8_2"
  param {
    lr_mult: 1
    decay_mult: 1
  }
  param {
    lr_mult: 2
    decay_mult: 0
  }
  convolution_param {
    num_output: 256
    pad: 0
    kernel_size: 3
    stride: 1
    weight_filler {
      type: "xavier"
    }
    bias_filler {
      type: "constant"
      value: 0
    }
  }
}
layer {
  name: "conv8_2_relu"
  type: "ReLU"
  bottom: "conv8_2"
  top: "conv8_2"
}
layer {
  name: "conv9_1"
  type: "Convolution"
  bottom: "conv8_2"
  top: "conv9_1"
  param {
    lr_mult: 1
    decay_mult: 1
  }
  param {
    lr_mult: 2
    decay_mult: 0
  }
  convolution_param {
    num_output: 128
    pad: 0
    kernel_size: 1
    stride: 1
    weight_filler {
      type: "xavier"
    }
    bias_filler {
      type: "constant"
      value: 0
    }
  }
}
layer {
  name: "conv9_1_relu"
  type: "ReLU"
  bottom: "conv9_1"
  top: "conv9_1"
}
layer {
  name: "conv9_2"
  type: "Convolution"
  bottom: "conv9_1"
  top: "conv9_2"
  param {
    lr_mult: 1
    decay_mult: 1
  }
  param {
    lr_mult: 2
    decay_mult: 0
  }
  convolution_param {
    num_output: 256
    pad: 0
    kernel_size: 3
    stride: 1
    weight_filler {
      type: "xavier"
    }
    bias_filler {
      type: "constant"
      value: 0
    }
  }
}
layer {
  name: "conv9_2_relu"
  type: "ReLU"
  bottom: "conv9_2"
  top: "conv9_2"
}
layer {
  name: "conv4_3_norm"
  type: "Normalize"
  bottom: "conv4_3"
  top: "conv4_3_norm"
  norm_param {
    across_spatial: false
    scale_filler {
      type: "constant"
      value: 20
    }
    channel_shared: false
  }
}
layer {
  name: "conv4_3_norm_mbox_loc"
  type: "Convolution"
  bottom: "conv4_3_norm"
  top: "conv4_3_norm_mbox_loc"
  param {
    lr_mult: 1
    decay_mult: 1
  }
  param {
    lr_mult: 2
    decay_mult: 0
  }
  convolution_param {
    num_output: 16
    pad: 1
    kernel_size: 3
    stride: 1
    weight_filler {
      type: "xavier"
    }
    bias_filler {
      type: "constant"
      value: 0
    }
  }
}
layer {
  name: "conv4_3_norm_mbox_loc_perm"
  type: "Permute"
  bottom: "conv4_3_norm_mbox_loc"
  top: "conv4_3_norm_mbox_loc_perm"
  permute_param {
    order: 0
    order: 2
    order: 3
    order: 1
  }
}
layer {
  name: "conv4_3_norm_mbox_loc_flat"
  type: "Flatten"
  bottom: "conv4_3_norm_mbox_loc_perm"
  top: "conv4_3_norm_mbox_loc_flat"
  flatten_param {
    axis: 1
  }
}
layer {
  name: "conv4_3_norm_mbox_conf"
  type: "Convolution"
  bottom: "conv4_3_norm"
  top: "conv4_3_norm_mbox_conf"
  param {
    lr_mult: 1
    decay_mult: 1
  }
  param {
    lr_mult: 2
    decay_mult: 0
  }
  convolution_param {
    num_output: 88
    pad: 1
    kernel_size: 3
    stride: 1
    weight_filler {
      type: "xavier"
    }
    bias_filler {
      type: "constant"
      value: 0
    }
  }
}
layer {
  name: "conv4_3_norm_mbox_conf_perm"
  type: "Permute"
  bottom: "conv4_3_norm_mbox_conf"
  top: "conv4_3_norm_mbox_conf_perm"
  permute_param {
    order: 0
    order: 2
    order: 3
    order: 1
  }
}
layer {
  name: "conv4_3_norm_mbox_conf_flat"
  type: "Flatten"
  bottom: "conv4_3_norm_mbox_conf_perm"
  top: "conv4_3_norm_mbox_conf_flat"
  flatten_param {
    axis: 1
  }
}
layer {
  name: "conv4_3_norm_mbox_priorbox"
  type: "PriorBox"
  bottom: "conv4_3_norm"
  bottom: "data"
  top: "conv4_3_norm_mbox_priorbox"
  prior_box_param {
    min_size: 30
    max_size: 60
    aspect_ratio: 2
    flip: true
    clip: false
    variance: 0.1
    variance: 0.1
    variance: 0.2
    variance: 0.2
    step: 8
    offset: 0.5
  }
}
layer {
  name: "fc7_mbox_loc"
  type: "Convolution"
  bottom: "fc7"
  top: "fc7_mbox_loc"
  param {
    lr_mult: 1
    decay_mult: 1
  }
  param {
    lr_mult: 2
    decay_mult: 0
  }
  convolution_param {
    num_output: 24
    pad: 1
    kernel_size: 3
    stride: 1
    weight_filler {
      type: "xavier"
    }
    bias_filler {
      type: "constant"
      value: 0
    }
  }
}
layer {
  name: "fc7_mbox_loc_perm"
  type: "Permute"
  bottom: "fc7_mbox_loc"
  top: "fc7_mbox_loc_perm"
  permute_param {
    order: 0
    order: 2
    order: 3
    order: 1
  }
}
layer {
  name: "fc7_mbox_loc_flat"
  type: "Flatten"
  bottom: "fc7_mbox_loc_perm"
  top: "fc7_mbox_loc_flat"
  flatten_param {
    axis: 1
  }
}
layer {
  name: "fc7_mbox_conf"
  type: "Convolution"
  bottom: "fc7"
  top: "fc7_mbox_conf"
  param {
    lr_mult: 1
    decay_mult: 1
  }
  param {
    lr_mult: 2
    decay_mult: 0
  }
  convolution_param {
    num_output: 132
    pad: 1
    kernel_size: 3
    stride: 1
    weight_filler {
      type: "xavier"
    }
    bias_filler {
      type: "constant"
      value: 0
    }
  }
}
layer {
  name: "fc7_mbox_conf_perm"
  type: "Permute"
  bottom: "fc7_mbox_conf"
  top: "fc7_mbox_conf_perm"
  permute_param {
    order: 0
    order: 2
    order: 3
    order: 1
  }
}
layer {
  name: "fc7_mbox_conf_flat"
  type: "Flatten"
  bottom: "fc7_mbox_conf_perm"
  top: "fc7_mbox_conf_flat"
  flatten_param {
    axis: 1
  }
}
layer {
  name: "fc7_mbox_priorbox"
  type: "PriorBox"
  bottom: "fc7"
  bottom: "data"
  top: "fc7_mbox_priorbox"
  prior_box_param {
    min_size: 60
    max_size: 111
    aspect_ratio: 2
    aspect_ratio: 3
    flip: true
    clip: false
    variance: 0.1
    variance: 0.1
    variance: 0.2
    variance: 0.2
    step: 16
    offset: 0.5
  }
}
layer {
  name: "conv6_2_mbox_loc"
  type: "Convolution"
  bottom: "conv6_2"
  top: "conv6_2_mbox_loc"
  param {
    lr_mult: 1
    decay_mult: 1
  }
  param {
    lr_mult: 2
    decay_mult: 0
  }
  convolution_param {
    num_output: 24
    pad: 1
    kernel_size: 3
    stride: 1
    weight_filler {
      type: "xavier"
    }
    bias_filler {
      type: "constant"
      value: 0
    }
  }
}
layer {
  name: "conv6_2_mbox_loc_perm"
  type: "Permute"
  bottom: "conv6_2_mbox_loc"
  top: "conv6_2_mbox_loc_perm"
  permute_param {
    order: 0
    order: 2
    order: 3
    order: 1
  }
}
layer {
  name: "conv6_2_mbox_loc_flat"
  type: "Flatten"
  bottom: "conv6_2_mbox_loc_perm"
  top: "conv6_2_mbox_loc_flat"
  flatten_param {
    axis: 1
  }
}
layer {
  name: "conv6_2_mbox_conf"
  type: "Convolution"
  bottom: "conv6_2"
  top: "conv6_2_mbox_conf"
  param {
    lr_mult: 1
    decay_mult: 1
  }
  param {
    lr_mult: 2
    decay_mult: 0
  }
  convolution_param {
    num_output: 132
    pad: 1
    kernel_size: 3
    stride: 1
    weight_filler {
      type: "xavier"
    }
    bias_filler {
      type: "constant"
      value: 0
    }
  }
}
layer {
  name: "conv6_2_mbox_conf_perm"
  type: "Permute"
  bottom: "conv6_2_mbox_conf"
  top: "conv6_2_mbox_conf_perm"
  permute_param {
    order: 0
    order: 2
    order: 3
    order: 1
  }
}
layer {
  name: "conv6_2_mbox_conf_flat"
  type: "Flatten"
  bottom: "conv6_2_mbox_conf_perm"
  top: "conv6_2_mbox_conf_flat"
  flatten_param {
    axis: 1
  }
}
layer {
  name: "conv6_2_mbox_priorbox"
  type: "PriorBox"
  bottom: "conv6_2"
  bottom: "data"
  top: "conv6_2_mbox_priorbox"
  prior_box_param {
    min_size: 111
    max_size: 162
    aspect_ratio: 2
    aspect_ratio: 3
    flip: true
    clip: false
    variance: 0.1
    variance: 0.1
    variance: 0.2
    variance: 0.2
    step: 32
    offset: 0.5
  }
}
layer {
  name: "conv7_2_mbox_loc"
  type: "Convolution"
  bottom: "conv7_2"
  top: "conv7_2_mbox_loc"
  param {
    lr_mult: 1
    decay_mult: 1
  }
  param {
    lr_mult: 2
    decay_mult: 0
  }
  convolution_param {
    num_output: 24
    pad: 1
    kernel_size: 3
    stride: 1
    weight_filler {
      type: "xavier"
    }
    bias_filler {
      type: "constant"
      value: 0
    }
  }
}
layer {
  name: "conv7_2_mbox_loc_perm"
  type: "Permute"
  bottom: "conv7_2_mbox_loc"
  top: "conv7_2_mbox_loc_perm"
  permute_param {
    order: 0
    order: 2
    order: 3
    order: 1
  }
}
layer {
  name: "conv7_2_mbox_loc_flat"
  type: "Flatten"
  bottom: "conv7_2_mbox_loc_perm"
  top: "conv7_2_mbox_loc_flat"
  flatten_param {
    axis: 1
  }
}
layer {
  name: "conv7_2_mbox_conf"
  type: "Convolution"
  bottom: "conv7_2"
  top: "conv7_2_mbox_conf"
  param {
    lr_mult: 1
    decay_mult: 1
  }
  param {
    lr_mult: 2
    decay_mult: 0
  }
  convolution_param {
    num_output: 132
    pad: 1
    kernel_size: 3
    stride: 1
    weight_filler {
      type: "xavier"
    }
    bias_filler {
      type: "constant"
      value: 0
    }
  }
}
layer {
  name: "conv7_2_mbox_conf_perm"
  type: "Permute"
  bottom: "conv7_2_mbox_conf"
  top: "conv7_2_mbox_conf_perm"
  permute_param {
    order: 0
    order: 2
    order: 3
    order: 1
  }
}
layer {
  name: "conv7_2_mbox_conf_flat"
  type: "Flatten"
  bottom: "conv7_2_mbox_conf_perm"
  top: "conv7_2_mbox_conf_flat"
  flatten_param {
    axis: 1
  }
}
layer {
  name: "conv7_2_mbox_priorbox"
  type: "PriorBox"
  bottom: "conv7_2"
  bottom: "data"
  top: "conv7_2_mbox_priorbox"
  prior_box_param {
    min_size: 162
    max_size: 213
    aspect_ratio: 2
    aspect_ratio: 3
    flip: true
    clip: false
    variance: 0.1
    variance: 0.1
    variance: 0.2
    variance: 0.2
    step: 64
    offset: 0.5
  }
}
layer {
  name: "conv8_2_mbox_loc"
  type: "Convolution"
  bottom: "conv8_2"
  top: "conv8_2_mbox_loc"
  param {
    lr_mult: 1
    decay_mult: 1
  }
  param {
    lr_mult: 2
    decay_mult: 0
  }
  convolution_param {
    num_output: 16
    pad: 1
    kernel_size: 3
    stride: 1
    weight_filler {
      type: "xavier"
    }
    bias_filler {
      type: "constant"
      value: 0
    }
  }
}
layer {
  name: "conv8_2_mbox_loc_perm"
  type: "Permute"
  bottom: "conv8_2_mbox_loc"
  top: "conv8_2_mbox_loc_perm"
  permute_param {
    order: 0
    order: 2
    order: 3
    order: 1
  }
}
layer {
  name: "conv8_2_mbox_loc_flat"
  type: "Flatten"
  bottom: "conv8_2_mbox_loc_perm"
  top: "conv8_2_mbox_loc_flat"
  flatten_param {
    axis: 1
  }
}
layer {
  name: "conv8_2_mbox_conf"
  type: "Convolution"
  bottom: "conv8_2"
  top: "conv8_2_mbox_conf"
  param {
    lr_mult: 1
    decay_mult: 1
  }
  param {
    lr_mult: 2
    decay_mult: 0
  }
  convolution_param {
    num_output: 88
    pad: 1
    kernel_size: 3
    stride: 1
    weight_filler {
      type: "xavier"
    }
    bias_filler {
      type: "constant"
      value: 0
    }
  }
}
layer {
  name: "conv8_2_mbox_conf_perm"
  type: "Permute"
  bottom: "conv8_2_mbox_conf"
  top: "conv8_2_mbox_conf_perm"
  permute_param {
    order: 0
    order: 2
    order: 3
    order: 1
  }
}
layer {
  name: "conv8_2_mbox_conf_flat"
  type: "Flatten"
  bottom: "conv8_2_mbox_conf_perm"
  top: "conv8_2_mbox_conf_flat"
  flatten_param {
    axis: 1
  }
}
layer {
  name: "conv8_2_mbox_priorbox"
  type: "PriorBox"
  bottom: "conv8_2"
  bottom: "data"
  top: "conv8_2_mbox_priorbox"
  prior_box_param {
    min_size: 213
    max_size: 264
    aspect_ratio: 2
    flip: true
    clip: false
    variance: 0.1
    variance: 0.1
    variance: 0.2
    variance: 0.2
    step: 100
    offset: 0.5
  }
}
layer {
  name: "conv9_2_mbox_loc"
  type: "Convolution"
  bottom: "conv9_2"
  top: "conv9_2_mbox_loc"
  param {
    lr_mult: 1
    decay_mult: 1
  }
  param {
    lr_mult: 2
    decay_mult: 0
  }
  convolution_param {
    num_output: 16
    pad: 1
    kernel_size: 3
    stride: 1
    weight_filler {
      type: "xavier"
    }
    bias_filler {
      type: "constant"
      value: 0
    }
  }
}
layer {
  name: "conv9_2_mbox_loc_perm"
  type: "Permute"
  bottom: "conv9_2_mbox_loc"
  top: "conv9_2_mbox_loc_perm"
  permute_param {
    order: 0
    order: 2
    order: 3
    order: 1
  }
}
layer {
  name: "conv9_2_mbox_loc_flat"
  type: "Flatten"
  bottom: "conv9_2_mbox_loc_perm"
  top: "conv9_2_mbox_loc_flat"
  flatten_param {
    axis: 1
  }
}
layer {
  name: "conv9_2_mbox_conf"
  type: "Convolution"
  bottom: "conv9_2"
  top: "conv9_2_mbox_conf"
  param {
    lr_mult: 1
    decay_mult: 1
  }
  param {
    lr_mult: 2
    decay_mult: 0
  }
  convolution_param {
    num_output: 88
    pad: 1
    kernel_size: 3
    stride: 1
    weight_filler {
      type: "xavier"
    }
    bias_filler {
      type: "constant"
      value: 0
    }
  }
}
layer {
  name: "conv9_2_mbox_conf_perm"
  type: "Permute"
  bottom: "conv9_2_mbox_conf"
  top: "conv9_2_mbox_conf_perm"
  permute_param {
    order: 0
    order: 2
    order: 3
    order: 1
  }
}
layer {
  name: "conv9_2_mbox_conf_flat"
  type: "Flatten"
  bottom: "conv9_2_mbox_conf_perm"
  top: "conv9_2_mbox_conf_flat"
  flatten_param {
    axis: 1
  }
}
layer {
  name: "conv9_2_mbox_priorbox"
  type: "PriorBox"
  bottom: "conv9_2"
  bottom: "data"
  top: "conv9_2_mbox_priorbox"
  prior_box_param {
    min_size: 264
    max_size: 315
    aspect_ratio: 2
    flip: true
    clip: false
    variance: 0.1
    variance: 0.1
    variance: 0.2
    variance: 0.2
    step: 300
    offset: 0.5
  }
}
layer {
  name: "mbox_loc"
  type: "Concat"
  bottom: "conv4_3_norm_mbox_loc_flat"
  bottom: "fc7_mbox_loc_flat"
  bottom: "conv6_2_mbox_loc_flat"
  bottom: "conv7_2_mbox_loc_flat"
  bottom: "conv8_2_mbox_loc_flat"
  bottom: "conv9_2_mbox_loc_flat"
  top: "mbox_loc"
  concat_param {
    axis: 1
  }
}
layer {
  name: "mbox_conf"
  type: "Concat"
  bottom: "conv4_3_norm_mbox_conf_flat"
  bottom: "fc7_mbox_conf_flat"
  bottom: "conv6_2_mbox_conf_flat"
  bottom: "conv7_2_mbox_conf_flat"
  bottom: "conv8_2_mbox_conf_flat"
  bottom: "conv9_2_mbox_conf_flat"
  top: "mbox_conf"
  concat_param {
    axis: 1
  }
}
layer {
  name: "mbox_priorbox"
  type: "Concat"
  bottom: "conv4_3_norm_mbox_priorbox"
  bottom: "fc7_mbox_priorbox"
  bottom: "conv6_2_mbox_priorbox"
  bottom: "conv7_2_mbox_priorbox"
  bottom: "conv8_2_mbox_priorbox"
  bottom: "conv9_2_mbox_priorbox"
  top: "mbox_priorbox"
  concat_param {
    axis: 2
  }
}
layer {
  name: "mbox_conf_reshape"
  type: "Reshape"
  bottom: "mbox_conf"
  top: "mbox_conf_reshape"
  reshape_param {
    shape {
      dim: 0
      dim: -1
      dim: 22
    }
  }
}
layer {
  name: "mbox_conf_softmax"
  type: "Softmax"
  bottom: "mbox_conf_reshape"
  top: "mbox_conf_softmax"
  softmax_param {
    axis: 2
  }
}
layer {
  name: "mbox_conf_flatten"
  type: "Flatten"
  bottom: "mbox_conf_softmax"
  top: "mbox_conf_flatten"
  flatten_param {
    axis: 1
  }
}
layer {
  name: "detection_out"
  type: "DetectionOutput"
  bottom: "mbox_loc"
  bottom: "mbox_conf_flatten"
  bottom: "mbox_priorbox"
  top: "detection_out"
  include {
    phase: TEST
  }
  detection_output_param {
    num_classes: 22
    share_location: true
    background_label_id: 0
    nms_param {
      nms_threshold: 0.45
      top_k: 400
    }
    save_output_param {
      output_directory: "/home/dhall/data/VOCdevkit/results/VOC2007/SSD_RGBD_test_300x300/Main"
      output_name_prefix: "comp4_det_test_"
      output_format: "VOC"
      label_map_file: "data/VOC0712/labelmap_voc.prototxt"
      name_size_file: "data/VOC0712/test_name_size.txt"
      num_test_image: 2
    }
    code_type: CENTER_SIZE
    keep_top_k: 200
    confidence_threshold: 0.01
  }
}
layer {
  name: "detection_eval"
  type: "DetectionEvaluate"
  bottom: "detection_out"
  bottom: "label"
  top: "detection_eval"
  include {
    phase: TEST
  }
  detection_evaluate_param {
    num_classes: 22
    background_label_id: 0
    overlap_threshold: 0.5
    evaluate_difficult_gt: false
    name_size_file: "data/VOC0712/test_name_size.txt"
  }
}
I0210 11:55:05.857465 16866 layer_factory.hpp:77] Creating layer data
I0210 11:55:05.857529 16866 net.cpp:100] Creating Layer data
I0210 11:55:05.857539 16866 net.cpp:408] data -> data
I0210 11:55:05.857549 16866 net.cpp:408] data -> label
I0210 11:55:05.859268 16884 db_lmdb.cpp:35] Opened lmdb examples/VOC0712/VOC0712_test_lmdb
I0210 11:55:05.871909 16866 annotated_data_layer.cpp:62] output data size: 13,4,300,300
I0210 11:55:05.897852 16866 net.cpp:150] Setting up data
I0210 11:55:05.897889 16866 net.cpp:157] Top shape: 13 4 300 300 (4680000)
I0210 11:55:05.897896 16866 net.cpp:157] Top shape: 1 1 6 8 (48)
I0210 11:55:05.897899 16866 net.cpp:165] Memory required for data: 18720192
I0210 11:55:05.897907 16866 layer_factory.hpp:77] Creating layer data_data_0_split
I0210 11:55:05.897920 16866 net.cpp:100] Creating Layer data_data_0_split
I0210 11:55:05.897925 16866 net.cpp:434] data_data_0_split <- data
I0210 11:55:05.897934 16866 net.cpp:408] data_data_0_split -> data_data_0_split_0
I0210 11:55:05.897945 16866 net.cpp:408] data_data_0_split -> data_data_0_split_1
I0210 11:55:05.897953 16866 net.cpp:408] data_data_0_split -> data_data_0_split_2
I0210 11:55:05.897958 16866 net.cpp:408] data_data_0_split -> data_data_0_split_3
I0210 11:55:05.897964 16866 net.cpp:408] data_data_0_split -> data_data_0_split_4
I0210 11:55:05.897970 16866 net.cpp:408] data_data_0_split -> data_data_0_split_5
I0210 11:55:05.897975 16866 net.cpp:408] data_data_0_split -> data_data_0_split_6
I0210 11:55:05.898178 16866 net.cpp:150] Setting up data_data_0_split
I0210 11:55:05.898205 16866 net.cpp:157] Top shape: 13 4 300 300 (4680000)
I0210 11:55:05.898211 16866 net.cpp:157] Top shape: 13 4 300 300 (4680000)
I0210 11:55:05.898216 16866 net.cpp:157] Top shape: 13 4 300 300 (4680000)
I0210 11:55:05.898219 16866 net.cpp:157] Top shape: 13 4 300 300 (4680000)
I0210 11:55:05.898223 16866 net.cpp:157] Top shape: 13 4 300 300 (4680000)
I0210 11:55:05.898227 16866 net.cpp:157] Top shape: 13 4 300 300 (4680000)
I0210 11:55:05.898232 16866 net.cpp:157] Top shape: 13 4 300 300 (4680000)
I0210 11:55:05.898236 16866 net.cpp:165] Memory required for data: 149760192
I0210 11:55:05.898239 16866 layer_factory.hpp:77] Creating layer conv1_1_rgbd
I0210 11:55:05.898254 16866 net.cpp:100] Creating Layer conv1_1_rgbd
I0210 11:55:05.898257 16866 net.cpp:434] conv1_1_rgbd <- data_data_0_split_0
I0210 11:55:05.898264 16866 net.cpp:408] conv1_1_rgbd -> conv1_1_rgbd
I0210 11:55:05.899991 16866 net.cpp:150] Setting up conv1_1_rgbd
I0210 11:55:05.900007 16866 net.cpp:157] Top shape: 13 64 300 300 (74880000)
I0210 11:55:05.900012 16866 net.cpp:165] Memory required for data: 449280192
I0210 11:55:05.900024 16866 layer_factory.hpp:77] Creating layer relu1_1
I0210 11:55:05.900032 16866 net.cpp:100] Creating Layer relu1_1
I0210 11:55:05.900037 16866 net.cpp:434] relu1_1 <- conv1_1_rgbd
I0210 11:55:05.900041 16866 net.cpp:395] relu1_1 -> conv1_1_rgbd (in-place)
I0210 11:55:05.900374 16866 net.cpp:150] Setting up relu1_1
I0210 11:55:05.900388 16866 net.cpp:157] Top shape: 13 64 300 300 (74880000)
I0210 11:55:05.900393 16866 net.cpp:165] Memory required for data: 748800192
I0210 11:55:05.900396 16866 layer_factory.hpp:77] Creating layer conv1_2
I0210 11:55:05.900408 16866 net.cpp:100] Creating Layer conv1_2
I0210 11:55:05.900413 16866 net.cpp:434] conv1_2 <- conv1_1_rgbd
I0210 11:55:05.900419 16866 net.cpp:408] conv1_2 -> conv1_2
I0210 11:55:05.902462 16866 net.cpp:150] Setting up conv1_2
I0210 11:55:05.902482 16866 net.cpp:157] Top shape: 13 64 300 300 (74880000)
I0210 11:55:05.902487 16866 net.cpp:165] Memory required for data: 1048320192
I0210 11:55:05.902498 16866 layer_factory.hpp:77] Creating layer relu1_2
I0210 11:55:05.902504 16866 net.cpp:100] Creating Layer relu1_2
I0210 11:55:05.902508 16866 net.cpp:434] relu1_2 <- conv1_2
I0210 11:55:05.902513 16866 net.cpp:395] relu1_2 -> conv1_2 (in-place)
I0210 11:55:05.902707 16866 net.cpp:150] Setting up relu1_2
I0210 11:55:05.902719 16866 net.cpp:157] Top shape: 13 64 300 300 (74880000)
I0210 11:55:05.902722 16866 net.cpp:165] Memory required for data: 1347840192
I0210 11:55:05.902726 16866 layer_factory.hpp:77] Creating layer pool1
I0210 11:55:05.902734 16866 net.cpp:100] Creating Layer pool1
I0210 11:55:05.902737 16866 net.cpp:434] pool1 <- conv1_2
I0210 11:55:05.902742 16866 net.cpp:408] pool1 -> pool1
I0210 11:55:05.902798 16866 net.cpp:150] Setting up pool1
I0210 11:55:05.902806 16866 net.cpp:157] Top shape: 13 64 150 150 (18720000)
I0210 11:55:05.902808 16866 net.cpp:165] Memory required for data: 1422720192
I0210 11:55:05.902812 16866 layer_factory.hpp:77] Creating layer conv2_1
I0210 11:55:05.902822 16866 net.cpp:100] Creating Layer conv2_1
I0210 11:55:05.902827 16866 net.cpp:434] conv2_1 <- pool1
I0210 11:55:05.902832 16866 net.cpp:408] conv2_1 -> conv2_1
I0210 11:55:05.904637 16866 net.cpp:150] Setting up conv2_1
I0210 11:55:05.904654 16866 net.cpp:157] Top shape: 13 128 150 150 (37440000)
I0210 11:55:05.904659 16866 net.cpp:165] Memory required for data: 1572480192
I0210 11:55:05.904669 16866 layer_factory.hpp:77] Creating layer relu2_1
I0210 11:55:05.904677 16866 net.cpp:100] Creating Layer relu2_1
I0210 11:55:05.904681 16866 net.cpp:434] relu2_1 <- conv2_1
I0210 11:55:05.904686 16866 net.cpp:395] relu2_1 -> conv2_1 (in-place)
I0210 11:55:05.904880 16866 net.cpp:150] Setting up relu2_1
I0210 11:55:05.904891 16866 net.cpp:157] Top shape: 13 128 150 150 (37440000)
I0210 11:55:05.904896 16866 net.cpp:165] Memory required for data: 1722240192
I0210 11:55:05.904898 16866 layer_factory.hpp:77] Creating layer conv2_2
I0210 11:55:05.904908 16866 net.cpp:100] Creating Layer conv2_2
I0210 11:55:05.904927 16866 net.cpp:434] conv2_2 <- conv2_1
I0210 11:55:05.904934 16866 net.cpp:408] conv2_2 -> conv2_2
I0210 11:55:05.907635 16866 net.cpp:150] Setting up conv2_2
I0210 11:55:05.907654 16866 net.cpp:157] Top shape: 13 128 150 150 (37440000)
I0210 11:55:05.907658 16866 net.cpp:165] Memory required for data: 1872000192
I0210 11:55:05.907665 16866 layer_factory.hpp:77] Creating layer relu2_2
I0210 11:55:05.907672 16866 net.cpp:100] Creating Layer relu2_2
I0210 11:55:05.907676 16866 net.cpp:434] relu2_2 <- conv2_2
I0210 11:55:05.907682 16866 net.cpp:395] relu2_2 -> conv2_2 (in-place)
I0210 11:55:05.908008 16866 net.cpp:150] Setting up relu2_2
I0210 11:55:05.908023 16866 net.cpp:157] Top shape: 13 128 150 150 (37440000)
I0210 11:55:05.908027 16866 net.cpp:165] Memory required for data: 2021760192
I0210 11:55:05.908031 16866 layer_factory.hpp:77] Creating layer pool2
I0210 11:55:05.908038 16866 net.cpp:100] Creating Layer pool2
I0210 11:55:05.908042 16866 net.cpp:434] pool2 <- conv2_2
I0210 11:55:05.908047 16866 net.cpp:408] pool2 -> pool2
I0210 11:55:05.908104 16866 net.cpp:150] Setting up pool2
I0210 11:55:05.908112 16866 net.cpp:157] Top shape: 13 128 75 75 (9360000)
I0210 11:55:05.908114 16866 net.cpp:165] Memory required for data: 2059200192
I0210 11:55:05.908118 16866 layer_factory.hpp:77] Creating layer conv3_1
I0210 11:55:05.908126 16866 net.cpp:100] Creating Layer conv3_1
I0210 11:55:05.908130 16866 net.cpp:434] conv3_1 <- pool2
I0210 11:55:05.908136 16866 net.cpp:408] conv3_1 -> conv3_1
I0210 11:55:05.911883 16866 net.cpp:150] Setting up conv3_1
I0210 11:55:05.911900 16866 net.cpp:157] Top shape: 13 256 75 75 (18720000)
I0210 11:55:05.911906 16866 net.cpp:165] Memory required for data: 2134080192
I0210 11:55:05.911916 16866 layer_factory.hpp:77] Creating layer relu3_1
I0210 11:55:05.911922 16866 net.cpp:100] Creating Layer relu3_1
I0210 11:55:05.911926 16866 net.cpp:434] relu3_1 <- conv3_1
I0210 11:55:05.911931 16866 net.cpp:395] relu3_1 -> conv3_1 (in-place)
I0210 11:55:05.912116 16866 net.cpp:150] Setting up relu3_1
I0210 11:55:05.912127 16866 net.cpp:157] Top shape: 13 256 75 75 (18720000)
I0210 11:55:05.912130 16866 net.cpp:165] Memory required for data: 2208960192
I0210 11:55:05.912134 16866 layer_factory.hpp:77] Creating layer conv3_2
I0210 11:55:05.912144 16866 net.cpp:100] Creating Layer conv3_2
I0210 11:55:05.912147 16866 net.cpp:434] conv3_2 <- conv3_1
I0210 11:55:05.912154 16866 net.cpp:408] conv3_2 -> conv3_2
I0210 11:55:05.918293 16866 net.cpp:150] Setting up conv3_2
I0210 11:55:05.918311 16866 net.cpp:157] Top shape: 13 256 75 75 (18720000)
I0210 11:55:05.918316 16866 net.cpp:165] Memory required for data: 2283840192
I0210 11:55:05.918323 16866 layer_factory.hpp:77] Creating layer relu3_2
I0210 11:55:05.918330 16866 net.cpp:100] Creating Layer relu3_2
I0210 11:55:05.918334 16866 net.cpp:434] relu3_2 <- conv3_2
I0210 11:55:05.918339 16866 net.cpp:395] relu3_2 -> conv3_2 (in-place)
I0210 11:55:05.918522 16866 net.cpp:150] Setting up relu3_2
I0210 11:55:05.918534 16866 net.cpp:157] Top shape: 13 256 75 75 (18720000)
I0210 11:55:05.918539 16866 net.cpp:165] Memory required for data: 2358720192
I0210 11:55:05.918542 16866 layer_factory.hpp:77] Creating layer conv3_3
I0210 11:55:05.918553 16866 net.cpp:100] Creating Layer conv3_3
I0210 11:55:05.918557 16866 net.cpp:434] conv3_3 <- conv3_2
I0210 11:55:05.918563 16866 net.cpp:408] conv3_3 -> conv3_3
I0210 11:55:05.924834 16866 net.cpp:150] Setting up conv3_3
I0210 11:55:05.924851 16866 net.cpp:157] Top shape: 13 256 75 75 (18720000)
I0210 11:55:05.924856 16866 net.cpp:165] Memory required for data: 2433600192
I0210 11:55:05.924863 16866 layer_factory.hpp:77] Creating layer relu3_3
I0210 11:55:05.924870 16866 net.cpp:100] Creating Layer relu3_3
I0210 11:55:05.924875 16866 net.cpp:434] relu3_3 <- conv3_3
I0210 11:55:05.924880 16866 net.cpp:395] relu3_3 -> conv3_3 (in-place)
I0210 11:55:05.926673 16866 net.cpp:150] Setting up relu3_3
I0210 11:55:05.926697 16866 net.cpp:157] Top shape: 13 256 75 75 (18720000)
I0210 11:55:05.926702 16866 net.cpp:165] Memory required for data: 2508480192
I0210 11:55:05.926720 16866 layer_factory.hpp:77] Creating layer pool3
I0210 11:55:05.926729 16866 net.cpp:100] Creating Layer pool3
I0210 11:55:05.926733 16866 net.cpp:434] pool3 <- conv3_3
I0210 11:55:05.926739 16866 net.cpp:408] pool3 -> pool3
I0210 11:55:05.926802 16866 net.cpp:150] Setting up pool3
I0210 11:55:05.926815 16866 net.cpp:157] Top shape: 13 256 38 38 (4805632)
I0210 11:55:05.926818 16866 net.cpp:165] Memory required for data: 2527702720
I0210 11:55:05.926822 16866 layer_factory.hpp:77] Creating layer conv4_1
I0210 11:55:05.926832 16866 net.cpp:100] Creating Layer conv4_1
I0210 11:55:05.926836 16866 net.cpp:434] conv4_1 <- pool3
I0210 11:55:05.926842 16866 net.cpp:408] conv4_1 -> conv4_1
I0210 11:55:05.937757 16866 net.cpp:150] Setting up conv4_1
I0210 11:55:05.937773 16866 net.cpp:157] Top shape: 13 512 38 38 (9611264)
I0210 11:55:05.937779 16866 net.cpp:165] Memory required for data: 2566147776
I0210 11:55:05.937786 16866 layer_factory.hpp:77] Creating layer relu4_1
I0210 11:55:05.937793 16866 net.cpp:100] Creating Layer relu4_1
I0210 11:55:05.937798 16866 net.cpp:434] relu4_1 <- conv4_1
I0210 11:55:05.937803 16866 net.cpp:395] relu4_1 -> conv4_1 (in-place)
I0210 11:55:05.937993 16866 net.cpp:150] Setting up relu4_1
I0210 11:55:05.938004 16866 net.cpp:157] Top shape: 13 512 38 38 (9611264)
I0210 11:55:05.938007 16866 net.cpp:165] Memory required for data: 2604592832
I0210 11:55:05.938011 16866 layer_factory.hpp:77] Creating layer conv4_2
I0210 11:55:05.938020 16866 net.cpp:100] Creating Layer conv4_2
I0210 11:55:05.938024 16866 net.cpp:434] conv4_2 <- conv4_1
I0210 11:55:05.938031 16866 net.cpp:408] conv4_2 -> conv4_2
I0210 11:55:05.958863 16866 net.cpp:150] Setting up conv4_2
I0210 11:55:05.958890 16866 net.cpp:157] Top shape: 13 512 38 38 (9611264)
I0210 11:55:05.958895 16866 net.cpp:165] Memory required for data: 2643037888
I0210 11:55:05.958909 16866 layer_factory.hpp:77] Creating layer relu4_2
I0210 11:55:05.958920 16866 net.cpp:100] Creating Layer relu4_2
I0210 11:55:05.958925 16866 net.cpp:434] relu4_2 <- conv4_2
I0210 11:55:05.958932 16866 net.cpp:395] relu4_2 -> conv4_2 (in-place)
I0210 11:55:05.959123 16866 net.cpp:150] Setting up relu4_2
I0210 11:55:05.959134 16866 net.cpp:157] Top shape: 13 512 38 38 (9611264)
I0210 11:55:05.959138 16866 net.cpp:165] Memory required for data: 2681482944
I0210 11:55:05.959142 16866 layer_factory.hpp:77] Creating layer conv4_3
I0210 11:55:05.959153 16866 net.cpp:100] Creating Layer conv4_3
I0210 11:55:05.959157 16866 net.cpp:434] conv4_3 <- conv4_2
I0210 11:55:05.959163 16866 net.cpp:408] conv4_3 -> conv4_3
I0210 11:55:05.980072 16866 net.cpp:150] Setting up conv4_3
I0210 11:55:05.980101 16866 net.cpp:157] Top shape: 13 512 38 38 (9611264)
I0210 11:55:05.980106 16866 net.cpp:165] Memory required for data: 2719928000
I0210 11:55:05.980115 16866 layer_factory.hpp:77] Creating layer relu4_3
I0210 11:55:05.980125 16866 net.cpp:100] Creating Layer relu4_3
I0210 11:55:05.980130 16866 net.cpp:434] relu4_3 <- conv4_3
I0210 11:55:05.980137 16866 net.cpp:395] relu4_3 -> conv4_3 (in-place)
I0210 11:55:05.980474 16866 net.cpp:150] Setting up relu4_3
I0210 11:55:05.980489 16866 net.cpp:157] Top shape: 13 512 38 38 (9611264)
I0210 11:55:05.980494 16866 net.cpp:165] Memory required for data: 2758373056
I0210 11:55:05.980497 16866 layer_factory.hpp:77] Creating layer conv4_3_relu4_3_0_split
I0210 11:55:05.980505 16866 net.cpp:100] Creating Layer conv4_3_relu4_3_0_split
I0210 11:55:05.980509 16866 net.cpp:434] conv4_3_relu4_3_0_split <- conv4_3
I0210 11:55:05.980516 16866 net.cpp:408] conv4_3_relu4_3_0_split -> conv4_3_relu4_3_0_split_0
I0210 11:55:05.980525 16866 net.cpp:408] conv4_3_relu4_3_0_split -> conv4_3_relu4_3_0_split_1
I0210 11:55:05.980581 16866 net.cpp:150] Setting up conv4_3_relu4_3_0_split
I0210 11:55:05.980589 16866 net.cpp:157] Top shape: 13 512 38 38 (9611264)
I0210 11:55:05.980594 16866 net.cpp:157] Top shape: 13 512 38 38 (9611264)
I0210 11:55:05.980597 16866 net.cpp:165] Memory required for data: 2835263168
I0210 11:55:05.980618 16866 layer_factory.hpp:77] Creating layer pool4
I0210 11:55:05.980625 16866 net.cpp:100] Creating Layer pool4
I0210 11:55:05.980629 16866 net.cpp:434] pool4 <- conv4_3_relu4_3_0_split_0
I0210 11:55:05.980635 16866 net.cpp:408] pool4 -> pool4
I0210 11:55:05.980689 16866 net.cpp:150] Setting up pool4
I0210 11:55:05.980696 16866 net.cpp:157] Top shape: 13 512 19 19 (2402816)
I0210 11:55:05.980700 16866 net.cpp:165] Memory required for data: 2844874432
I0210 11:55:05.980703 16866 layer_factory.hpp:77] Creating layer conv5_1
I0210 11:55:05.980715 16866 net.cpp:100] Creating Layer conv5_1
I0210 11:55:05.980720 16866 net.cpp:434] conv5_1 <- pool4
I0210 11:55:05.980726 16866 net.cpp:408] conv5_1 -> conv5_1
I0210 11:55:06.001708 16866 net.cpp:150] Setting up conv5_1
I0210 11:55:06.001739 16866 net.cpp:157] Top shape: 13 512 19 19 (2402816)
I0210 11:55:06.001744 16866 net.cpp:165] Memory required for data: 2854485696
I0210 11:55:06.001754 16866 layer_factory.hpp:77] Creating layer relu5_1
I0210 11:55:06.001765 16866 net.cpp:100] Creating Layer relu5_1
I0210 11:55:06.001771 16866 net.cpp:434] relu5_1 <- conv5_1
I0210 11:55:06.001778 16866 net.cpp:395] relu5_1 -> conv5_1 (in-place)
I0210 11:55:06.001971 16866 net.cpp:150] Setting up relu5_1
I0210 11:55:06.001982 16866 net.cpp:157] Top shape: 13 512 19 19 (2402816)
I0210 11:55:06.001986 16866 net.cpp:165] Memory required for data: 2864096960
I0210 11:55:06.001991 16866 layer_factory.hpp:77] Creating layer conv5_2
I0210 11:55:06.002002 16866 net.cpp:100] Creating Layer conv5_2
I0210 11:55:06.002007 16866 net.cpp:434] conv5_2 <- conv5_1
I0210 11:55:06.002013 16866 net.cpp:408] conv5_2 -> conv5_2
I0210 11:55:06.022967 16866 net.cpp:150] Setting up conv5_2
I0210 11:55:06.022996 16866 net.cpp:157] Top shape: 13 512 19 19 (2402816)
I0210 11:55:06.023001 16866 net.cpp:165] Memory required for data: 2873708224
I0210 11:55:06.023010 16866 layer_factory.hpp:77] Creating layer relu5_2
I0210 11:55:06.023020 16866 net.cpp:100] Creating Layer relu5_2
I0210 11:55:06.023026 16866 net.cpp:434] relu5_2 <- conv5_2
I0210 11:55:06.023035 16866 net.cpp:395] relu5_2 -> conv5_2 (in-place)
I0210 11:55:06.023231 16866 net.cpp:150] Setting up relu5_2
I0210 11:55:06.023243 16866 net.cpp:157] Top shape: 13 512 19 19 (2402816)
I0210 11:55:06.023247 16866 net.cpp:165] Memory required for data: 2883319488
I0210 11:55:06.023250 16866 layer_factory.hpp:77] Creating layer conv5_3
I0210 11:55:06.023264 16866 net.cpp:100] Creating Layer conv5_3
I0210 11:55:06.023268 16866 net.cpp:434] conv5_3 <- conv5_2
I0210 11:55:06.023275 16866 net.cpp:408] conv5_3 -> conv5_3
I0210 11:55:06.044152 16866 net.cpp:150] Setting up conv5_3
I0210 11:55:06.044185 16866 net.cpp:157] Top shape: 13 512 19 19 (2402816)
I0210 11:55:06.044190 16866 net.cpp:165] Memory required for data: 2892930752
I0210 11:55:06.044198 16866 layer_factory.hpp:77] Creating layer relu5_3
I0210 11:55:06.044212 16866 net.cpp:100] Creating Layer relu5_3
I0210 11:55:06.044217 16866 net.cpp:434] relu5_3 <- conv5_3
I0210 11:55:06.044226 16866 net.cpp:395] relu5_3 -> conv5_3 (in-place)
I0210 11:55:06.044569 16866 net.cpp:150] Setting up relu5_3
I0210 11:55:06.044584 16866 net.cpp:157] Top shape: 13 512 19 19 (2402816)
I0210 11:55:06.044589 16866 net.cpp:165] Memory required for data: 2902542016
I0210 11:55:06.044594 16866 layer_factory.hpp:77] Creating layer pool5
I0210 11:55:06.044602 16866 net.cpp:100] Creating Layer pool5
I0210 11:55:06.044606 16866 net.cpp:434] pool5 <- conv5_3
I0210 11:55:06.044613 16866 net.cpp:408] pool5 -> pool5
I0210 11:55:06.044677 16866 net.cpp:150] Setting up pool5
I0210 11:55:06.044687 16866 net.cpp:157] Top shape: 13 512 19 19 (2402816)
I0210 11:55:06.044689 16866 net.cpp:165] Memory required for data: 2912153280
I0210 11:55:06.044693 16866 layer_factory.hpp:77] Creating layer fc6
I0210 11:55:06.044704 16866 net.cpp:100] Creating Layer fc6
I0210 11:55:06.044709 16866 net.cpp:434] fc6 <- pool5
I0210 11:55:06.044716 16866 net.cpp:408] fc6 -> fc6
I0210 11:55:06.085031 16866 net.cpp:150] Setting up fc6
I0210 11:55:06.085083 16866 net.cpp:157] Top shape: 13 1024 19 19 (4805632)
I0210 11:55:06.085088 16866 net.cpp:165] Memory required for data: 2931375808
I0210 11:55:06.085098 16866 layer_factory.hpp:77] Creating layer relu6
I0210 11:55:06.085108 16866 net.cpp:100] Creating Layer relu6
I0210 11:55:06.085114 16866 net.cpp:434] relu6 <- fc6
I0210 11:55:06.085124 16866 net.cpp:395] relu6 -> fc6 (in-place)
I0210 11:55:06.085381 16866 net.cpp:150] Setting up relu6
I0210 11:55:06.085391 16866 net.cpp:157] Top shape: 13 1024 19 19 (4805632)
I0210 11:55:06.085396 16866 net.cpp:165] Memory required for data: 2950598336
I0210 11:55:06.085398 16866 layer_factory.hpp:77] Creating layer fc7
I0210 11:55:06.085412 16866 net.cpp:100] Creating Layer fc7
I0210 11:55:06.085415 16866 net.cpp:434] fc7 <- fc6
I0210 11:55:06.085429 16866 net.cpp:408] fc7 -> fc7
I0210 11:55:06.095671 16866 net.cpp:150] Setting up fc7
I0210 11:55:06.095690 16866 net.cpp:157] Top shape: 13 1024 19 19 (4805632)
I0210 11:55:06.095695 16866 net.cpp:165] Memory required for data: 2969820864
I0210 11:55:06.095702 16866 layer_factory.hpp:77] Creating layer relu7
I0210 11:55:06.095711 16866 net.cpp:100] Creating Layer relu7
I0210 11:55:06.095716 16866 net.cpp:434] relu7 <- fc7
I0210 11:55:06.095722 16866 net.cpp:395] relu7 -> fc7 (in-place)
I0210 11:55:06.096065 16866 net.cpp:150] Setting up relu7
I0210 11:55:06.096081 16866 net.cpp:157] Top shape: 13 1024 19 19 (4805632)
I0210 11:55:06.096086 16866 net.cpp:165] Memory required for data: 2989043392
I0210 11:55:06.096089 16866 layer_factory.hpp:77] Creating layer fc7_relu7_0_split
I0210 11:55:06.096098 16866 net.cpp:100] Creating Layer fc7_relu7_0_split
I0210 11:55:06.096102 16866 net.cpp:434] fc7_relu7_0_split <- fc7
I0210 11:55:06.096108 16866 net.cpp:408] fc7_relu7_0_split -> fc7_relu7_0_split_0
I0210 11:55:06.096115 16866 net.cpp:408] fc7_relu7_0_split -> fc7_relu7_0_split_1
I0210 11:55:06.096127 16866 net.cpp:408] fc7_relu7_0_split -> fc7_relu7_0_split_2
I0210 11:55:06.096134 16866 net.cpp:408] fc7_relu7_0_split -> fc7_relu7_0_split_3
I0210 11:55:06.096230 16866 net.cpp:150] Setting up fc7_relu7_0_split
I0210 11:55:06.096240 16866 net.cpp:157] Top shape: 13 1024 19 19 (4805632)
I0210 11:55:06.096246 16866 net.cpp:157] Top shape: 13 1024 19 19 (4805632)
I0210 11:55:06.096251 16866 net.cpp:157] Top shape: 13 1024 19 19 (4805632)
I0210 11:55:06.096254 16866 net.cpp:157] Top shape: 13 1024 19 19 (4805632)
I0210 11:55:06.096258 16866 net.cpp:165] Memory required for data: 3065933504
I0210 11:55:06.096261 16866 layer_factory.hpp:77] Creating layer conv6_1
I0210 11:55:06.096272 16866 net.cpp:100] Creating Layer conv6_1
I0210 11:55:06.096277 16866 net.cpp:434] conv6_1 <- fc7_relu7_0_split_0
I0210 11:55:06.096284 16866 net.cpp:408] conv6_1 -> conv6_1
I0210 11:55:06.099694 16866 net.cpp:150] Setting up conv6_1
I0210 11:55:06.099711 16866 net.cpp:157] Top shape: 13 256 19 19 (1201408)
I0210 11:55:06.099715 16866 net.cpp:165] Memory required for data: 3070739136
I0210 11:55:06.099723 16866 layer_factory.hpp:77] Creating layer conv6_1_relu
I0210 11:55:06.099730 16866 net.cpp:100] Creating Layer conv6_1_relu
I0210 11:55:06.099735 16866 net.cpp:434] conv6_1_relu <- conv6_1
I0210 11:55:06.099741 16866 net.cpp:395] conv6_1_relu -> conv6_1 (in-place)
I0210 11:55:06.100097 16866 net.cpp:150] Setting up conv6_1_relu
I0210 11:55:06.100112 16866 net.cpp:157] Top shape: 13 256 19 19 (1201408)
I0210 11:55:06.100116 16866 net.cpp:165] Memory required for data: 3075544768
I0210 11:55:06.100121 16866 layer_factory.hpp:77] Creating layer conv6_2
I0210 11:55:06.100132 16866 net.cpp:100] Creating Layer conv6_2
I0210 11:55:06.100136 16866 net.cpp:434] conv6_2 <- conv6_1
I0210 11:55:06.100144 16866 net.cpp:408] conv6_2 -> conv6_2
I0210 11:55:06.111174 16866 net.cpp:150] Setting up conv6_2
I0210 11:55:06.111196 16866 net.cpp:157] Top shape: 13 512 10 10 (665600)
I0210 11:55:06.111201 16866 net.cpp:165] Memory required for data: 3078207168
I0210 11:55:06.111215 16866 layer_factory.hpp:77] Creating layer conv6_2_relu
I0210 11:55:06.111223 16866 net.cpp:100] Creating Layer conv6_2_relu
I0210 11:55:06.111243 16866 net.cpp:434] conv6_2_relu <- conv6_2
I0210 11:55:06.111249 16866 net.cpp:395] conv6_2_relu -> conv6_2 (in-place)
I0210 11:55:06.111449 16866 net.cpp:150] Setting up conv6_2_relu
I0210 11:55:06.111461 16866 net.cpp:157] Top shape: 13 512 10 10 (665600)
I0210 11:55:06.111465 16866 net.cpp:165] Memory required for data: 3080869568
I0210 11:55:06.111469 16866 layer_factory.hpp:77] Creating layer conv6_2_conv6_2_relu_0_split
I0210 11:55:06.111484 16866 net.cpp:100] Creating Layer conv6_2_conv6_2_relu_0_split
I0210 11:55:06.111487 16866 net.cpp:434] conv6_2_conv6_2_relu_0_split <- conv6_2
I0210 11:55:06.111493 16866 net.cpp:408] conv6_2_conv6_2_relu_0_split -> conv6_2_conv6_2_relu_0_split_0
I0210 11:55:06.111500 16866 net.cpp:408] conv6_2_conv6_2_relu_0_split -> conv6_2_conv6_2_relu_0_split_1
I0210 11:55:06.111506 16866 net.cpp:408] conv6_2_conv6_2_relu_0_split -> conv6_2_conv6_2_relu_0_split_2
I0210 11:55:06.111512 16866 net.cpp:408] conv6_2_conv6_2_relu_0_split -> conv6_2_conv6_2_relu_0_split_3
I0210 11:55:06.111608 16866 net.cpp:150] Setting up conv6_2_conv6_2_relu_0_split
I0210 11:55:06.111616 16866 net.cpp:157] Top shape: 13 512 10 10 (665600)
I0210 11:55:06.111621 16866 net.cpp:157] Top shape: 13 512 10 10 (665600)
I0210 11:55:06.111625 16866 net.cpp:157] Top shape: 13 512 10 10 (665600)
I0210 11:55:06.111629 16866 net.cpp:157] Top shape: 13 512 10 10 (665600)
I0210 11:55:06.111632 16866 net.cpp:165] Memory required for data: 3091519168
I0210 11:55:06.111636 16866 layer_factory.hpp:77] Creating layer conv7_1
I0210 11:55:06.111647 16866 net.cpp:100] Creating Layer conv7_1
I0210 11:55:06.111652 16866 net.cpp:434] conv7_1 <- conv6_2_conv6_2_relu_0_split_0
I0210 11:55:06.111660 16866 net.cpp:408] conv7_1 -> conv7_1
I0210 11:55:06.113782 16866 net.cpp:150] Setting up conv7_1
I0210 11:55:06.113800 16866 net.cpp:157] Top shape: 13 128 10 10 (166400)
I0210 11:55:06.113803 16866 net.cpp:165] Memory required for data: 3092184768
I0210 11:55:06.113811 16866 layer_factory.hpp:77] Creating layer conv7_1_relu
I0210 11:55:06.113818 16866 net.cpp:100] Creating Layer conv7_1_relu
I0210 11:55:06.113822 16866 net.cpp:434] conv7_1_relu <- conv7_1
I0210 11:55:06.113831 16866 net.cpp:395] conv7_1_relu -> conv7_1 (in-place)
I0210 11:55:06.114171 16866 net.cpp:150] Setting up conv7_1_relu
I0210 11:55:06.114187 16866 net.cpp:157] Top shape: 13 128 10 10 (166400)
I0210 11:55:06.114190 16866 net.cpp:165] Memory required for data: 3092850368
I0210 11:55:06.114194 16866 layer_factory.hpp:77] Creating layer conv7_2
I0210 11:55:06.114205 16866 net.cpp:100] Creating Layer conv7_2
I0210 11:55:06.114210 16866 net.cpp:434] conv7_2 <- conv7_1
I0210 11:55:06.114217 16866 net.cpp:408] conv7_2 -> conv7_2
I0210 11:55:06.117923 16866 net.cpp:150] Setting up conv7_2
I0210 11:55:06.117938 16866 net.cpp:157] Top shape: 13 256 5 5 (83200)
I0210 11:55:06.117944 16866 net.cpp:165] Memory required for data: 3093183168
I0210 11:55:06.117950 16866 layer_factory.hpp:77] Creating layer conv7_2_relu
I0210 11:55:06.117957 16866 net.cpp:100] Creating Layer conv7_2_relu
I0210 11:55:06.117962 16866 net.cpp:434] conv7_2_relu <- conv7_2
I0210 11:55:06.117969 16866 net.cpp:395] conv7_2_relu -> conv7_2 (in-place)
I0210 11:55:06.118315 16866 net.cpp:150] Setting up conv7_2_relu
I0210 11:55:06.118330 16866 net.cpp:157] Top shape: 13 256 5 5 (83200)
I0210 11:55:06.118335 16866 net.cpp:165] Memory required for data: 3093515968
I0210 11:55:06.118338 16866 layer_factory.hpp:77] Creating layer conv7_2_conv7_2_relu_0_split
I0210 11:55:06.118345 16866 net.cpp:100] Creating Layer conv7_2_conv7_2_relu_0_split
I0210 11:55:06.118353 16866 net.cpp:434] conv7_2_conv7_2_relu_0_split <- conv7_2
I0210 11:55:06.118361 16866 net.cpp:408] conv7_2_conv7_2_relu_0_split -> conv7_2_conv7_2_relu_0_split_0
I0210 11:55:06.118369 16866 net.cpp:408] conv7_2_conv7_2_relu_0_split -> conv7_2_conv7_2_relu_0_split_1
I0210 11:55:06.118376 16866 net.cpp:408] conv7_2_conv7_2_relu_0_split -> conv7_2_conv7_2_relu_0_split_2
I0210 11:55:06.118383 16866 net.cpp:408] conv7_2_conv7_2_relu_0_split -> conv7_2_conv7_2_relu_0_split_3
I0210 11:55:06.118492 16866 net.cpp:150] Setting up conv7_2_conv7_2_relu_0_split
I0210 11:55:06.118502 16866 net.cpp:157] Top shape: 13 256 5 5 (83200)
I0210 11:55:06.118507 16866 net.cpp:157] Top shape: 13 256 5 5 (83200)
I0210 11:55:06.118511 16866 net.cpp:157] Top shape: 13 256 5 5 (83200)
I0210 11:55:06.118515 16866 net.cpp:157] Top shape: 13 256 5 5 (83200)
I0210 11:55:06.118518 16866 net.cpp:165] Memory required for data: 3094847168
I0210 11:55:06.118522 16866 layer_factory.hpp:77] Creating layer conv8_1
I0210 11:55:06.118532 16866 net.cpp:100] Creating Layer conv8_1
I0210 11:55:06.118542 16866 net.cpp:434] conv8_1 <- conv7_2_conv7_2_relu_0_split_0
I0210 11:55:06.118551 16866 net.cpp:408] conv8_1 -> conv8_1
I0210 11:55:06.120033 16866 net.cpp:150] Setting up conv8_1
I0210 11:55:06.120049 16866 net.cpp:157] Top shape: 13 128 5 5 (41600)
I0210 11:55:06.120054 16866 net.cpp:165] Memory required for data: 3095013568
I0210 11:55:06.120060 16866 layer_factory.hpp:77] Creating layer conv8_1_relu
I0210 11:55:06.120067 16866 net.cpp:100] Creating Layer conv8_1_relu
I0210 11:55:06.120071 16866 net.cpp:434] conv8_1_relu <- conv8_1
I0210 11:55:06.120077 16866 net.cpp:395] conv8_1_relu -> conv8_1 (in-place)
I0210 11:55:06.120273 16866 net.cpp:150] Setting up conv8_1_relu
I0210 11:55:06.120285 16866 net.cpp:157] Top shape: 13 128 5 5 (41600)
I0210 11:55:06.120288 16866 net.cpp:165] Memory required for data: 3095179968
I0210 11:55:06.120292 16866 layer_factory.hpp:77] Creating layer conv8_2
I0210 11:55:06.120303 16866 net.cpp:100] Creating Layer conv8_2
I0210 11:55:06.120307 16866 net.cpp:434] conv8_2 <- conv8_1
I0210 11:55:06.120314 16866 net.cpp:408] conv8_2 -> conv8_2
I0210 11:55:06.124138 16866 net.cpp:150] Setting up conv8_2
I0210 11:55:06.124155 16866 net.cpp:157] Top shape: 13 256 3 3 (29952)
I0210 11:55:06.124160 16866 net.cpp:165] Memory required for data: 3095299776
I0210 11:55:06.124166 16866 layer_factory.hpp:77] Creating layer conv8_2_relu
I0210 11:55:06.124173 16866 net.cpp:100] Creating Layer conv8_2_relu
I0210 11:55:06.124178 16866 net.cpp:434] conv8_2_relu <- conv8_2
I0210 11:55:06.124186 16866 net.cpp:395] conv8_2_relu -> conv8_2 (in-place)
I0210 11:55:06.124528 16866 net.cpp:150] Setting up conv8_2_relu
I0210 11:55:06.124543 16866 net.cpp:157] Top shape: 13 256 3 3 (29952)
I0210 11:55:06.124547 16866 net.cpp:165] Memory required for data: 3095419584
I0210 11:55:06.124552 16866 layer_factory.hpp:77] Creating layer conv8_2_conv8_2_relu_0_split
I0210 11:55:06.124558 16866 net.cpp:100] Creating Layer conv8_2_conv8_2_relu_0_split
I0210 11:55:06.124562 16866 net.cpp:434] conv8_2_conv8_2_relu_0_split <- conv8_2
I0210 11:55:06.124569 16866 net.cpp:408] conv8_2_conv8_2_relu_0_split -> conv8_2_conv8_2_relu_0_split_0
I0210 11:55:06.124577 16866 net.cpp:408] conv8_2_conv8_2_relu_0_split -> conv8_2_conv8_2_relu_0_split_1
I0210 11:55:06.124584 16866 net.cpp:408] conv8_2_conv8_2_relu_0_split -> conv8_2_conv8_2_relu_0_split_2
I0210 11:55:06.124591 16866 net.cpp:408] conv8_2_conv8_2_relu_0_split -> conv8_2_conv8_2_relu_0_split_3
I0210 11:55:06.124689 16866 net.cpp:150] Setting up conv8_2_conv8_2_relu_0_split
I0210 11:55:06.124697 16866 net.cpp:157] Top shape: 13 256 3 3 (29952)
I0210 11:55:06.124702 16866 net.cpp:157] Top shape: 13 256 3 3 (29952)
I0210 11:55:06.124706 16866 net.cpp:157] Top shape: 13 256 3 3 (29952)
I0210 11:55:06.124711 16866 net.cpp:157] Top shape: 13 256 3 3 (29952)
I0210 11:55:06.124713 16866 net.cpp:165] Memory required for data: 3095898816
I0210 11:55:06.124717 16866 layer_factory.hpp:77] Creating layer conv9_1
I0210 11:55:06.124727 16866 net.cpp:100] Creating Layer conv9_1
I0210 11:55:06.124732 16866 net.cpp:434] conv9_1 <- conv8_2_conv8_2_relu_0_split_0
I0210 11:55:06.124740 16866 net.cpp:408] conv9_1 -> conv9_1
I0210 11:55:06.126067 16866 net.cpp:150] Setting up conv9_1
I0210 11:55:06.126083 16866 net.cpp:157] Top shape: 13 128 3 3 (14976)
I0210 11:55:06.126087 16866 net.cpp:165] Memory required for data: 3095958720
I0210 11:55:06.126094 16866 layer_factory.hpp:77] Creating layer conv9_1_relu
I0210 11:55:06.126114 16866 net.cpp:100] Creating Layer conv9_1_relu
I0210 11:55:06.126119 16866 net.cpp:434] conv9_1_relu <- conv9_1
I0210 11:55:06.126126 16866 net.cpp:395] conv9_1_relu -> conv9_1 (in-place)
I0210 11:55:06.126473 16866 net.cpp:150] Setting up conv9_1_relu
I0210 11:55:06.126489 16866 net.cpp:157] Top shape: 13 128 3 3 (14976)
I0210 11:55:06.126493 16866 net.cpp:165] Memory required for data: 3096018624
I0210 11:55:06.126497 16866 layer_factory.hpp:77] Creating layer conv9_2
I0210 11:55:06.126509 16866 net.cpp:100] Creating Layer conv9_2
I0210 11:55:06.126514 16866 net.cpp:434] conv9_2 <- conv9_1
I0210 11:55:06.126523 16866 net.cpp:408] conv9_2 -> conv9_2
I0210 11:55:06.130501 16866 net.cpp:150] Setting up conv9_2
I0210 11:55:06.130517 16866 net.cpp:157] Top shape: 13 256 1 1 (3328)
I0210 11:55:06.130522 16866 net.cpp:165] Memory required for data: 3096031936
I0210 11:55:06.130529 16866 layer_factory.hpp:77] Creating layer conv9_2_relu
I0210 11:55:06.130538 16866 net.cpp:100] Creating Layer conv9_2_relu
I0210 11:55:06.130543 16866 net.cpp:434] conv9_2_relu <- conv9_2
I0210 11:55:06.130548 16866 net.cpp:395] conv9_2_relu -> conv9_2 (in-place)
I0210 11:55:06.130748 16866 net.cpp:150] Setting up conv9_2_relu
I0210 11:55:06.130760 16866 net.cpp:157] Top shape: 13 256 1 1 (3328)
I0210 11:55:06.130764 16866 net.cpp:165] Memory required for data: 3096045248
I0210 11:55:06.130769 16866 layer_factory.hpp:77] Creating layer conv9_2_conv9_2_relu_0_split
I0210 11:55:06.130775 16866 net.cpp:100] Creating Layer conv9_2_conv9_2_relu_0_split
I0210 11:55:06.130779 16866 net.cpp:434] conv9_2_conv9_2_relu_0_split <- conv9_2
I0210 11:55:06.130786 16866 net.cpp:408] conv9_2_conv9_2_relu_0_split -> conv9_2_conv9_2_relu_0_split_0
I0210 11:55:06.130794 16866 net.cpp:408] conv9_2_conv9_2_relu_0_split -> conv9_2_conv9_2_relu_0_split_1
I0210 11:55:06.130800 16866 net.cpp:408] conv9_2_conv9_2_relu_0_split -> conv9_2_conv9_2_relu_0_split_2
I0210 11:55:06.130878 16866 net.cpp:150] Setting up conv9_2_conv9_2_relu_0_split
I0210 11:55:06.130887 16866 net.cpp:157] Top shape: 13 256 1 1 (3328)
I0210 11:55:06.130892 16866 net.cpp:157] Top shape: 13 256 1 1 (3328)
I0210 11:55:06.130895 16866 net.cpp:157] Top shape: 13 256 1 1 (3328)
I0210 11:55:06.130898 16866 net.cpp:165] Memory required for data: 3096085184
I0210 11:55:06.130902 16866 layer_factory.hpp:77] Creating layer conv4_3_norm
I0210 11:55:06.130910 16866 net.cpp:100] Creating Layer conv4_3_norm
I0210 11:55:06.130914 16866 net.cpp:434] conv4_3_norm <- conv4_3_relu4_3_0_split_1
I0210 11:55:06.130923 16866 net.cpp:408] conv4_3_norm -> conv4_3_norm
I0210 11:55:06.131145 16866 net.cpp:150] Setting up conv4_3_norm
I0210 11:55:06.131155 16866 net.cpp:157] Top shape: 13 512 38 38 (9611264)
I0210 11:55:06.131158 16866 net.cpp:165] Memory required for data: 3134530240
I0210 11:55:06.131165 16866 layer_factory.hpp:77] Creating layer conv4_3_norm_conv4_3_norm_0_split
I0210 11:55:06.131171 16866 net.cpp:100] Creating Layer conv4_3_norm_conv4_3_norm_0_split
I0210 11:55:06.131175 16866 net.cpp:434] conv4_3_norm_conv4_3_norm_0_split <- conv4_3_norm
I0210 11:55:06.131181 16866 net.cpp:408] conv4_3_norm_conv4_3_norm_0_split -> conv4_3_norm_conv4_3_norm_0_split_0
I0210 11:55:06.131186 16866 net.cpp:408] conv4_3_norm_conv4_3_norm_0_split -> conv4_3_norm_conv4_3_norm_0_split_1
I0210 11:55:06.131193 16866 net.cpp:408] conv4_3_norm_conv4_3_norm_0_split -> conv4_3_norm_conv4_3_norm_0_split_2
I0210 11:55:06.131258 16866 net.cpp:150] Setting up conv4_3_norm_conv4_3_norm_0_split
I0210 11:55:06.131266 16866 net.cpp:157] Top shape: 13 512 38 38 (9611264)
I0210 11:55:06.131270 16866 net.cpp:157] Top shape: 13 512 38 38 (9611264)
I0210 11:55:06.131274 16866 net.cpp:157] Top shape: 13 512 38 38 (9611264)
I0210 11:55:06.131278 16866 net.cpp:165] Memory required for data: 3249865408
I0210 11:55:06.131281 16866 layer_factory.hpp:77] Creating layer conv4_3_norm_mbox_loc
I0210 11:55:06.131292 16866 net.cpp:100] Creating Layer conv4_3_norm_mbox_loc
I0210 11:55:06.131296 16866 net.cpp:434] conv4_3_norm_mbox_loc <- conv4_3_norm_conv4_3_norm_0_split_0
I0210 11:55:06.131314 16866 net.cpp:408] conv4_3_norm_mbox_loc -> conv4_3_norm_mbox_loc
I0210 11:55:06.133108 16866 net.cpp:150] Setting up conv4_3_norm_mbox_loc
I0210 11:55:06.133124 16866 net.cpp:157] Top shape: 13 16 38 38 (300352)
I0210 11:55:06.133129 16866 net.cpp:165] Memory required for data: 3251066816
I0210 11:55:06.133136 16866 layer_factory.hpp:77] Creating layer conv4_3_norm_mbox_loc_perm
I0210 11:55:06.133147 16866 net.cpp:100] Creating Layer conv4_3_norm_mbox_loc_perm
I0210 11:55:06.133152 16866 net.cpp:434] conv4_3_norm_mbox_loc_perm <- conv4_3_norm_mbox_loc
I0210 11:55:06.133158 16866 net.cpp:408] conv4_3_norm_mbox_loc_perm -> conv4_3_norm_mbox_loc_perm
I0210 11:55:06.133306 16866 net.cpp:150] Setting up conv4_3_norm_mbox_loc_perm
I0210 11:55:06.133316 16866 net.cpp:157] Top shape: 13 38 38 16 (300352)
I0210 11:55:06.133319 16866 net.cpp:165] Memory required for data: 3252268224
I0210 11:55:06.133323 16866 layer_factory.hpp:77] Creating layer conv4_3_norm_mbox_loc_flat
I0210 11:55:06.133330 16866 net.cpp:100] Creating Layer conv4_3_norm_mbox_loc_flat
I0210 11:55:06.133335 16866 net.cpp:434] conv4_3_norm_mbox_loc_flat <- conv4_3_norm_mbox_loc_perm
I0210 11:55:06.133340 16866 net.cpp:408] conv4_3_norm_mbox_loc_flat -> conv4_3_norm_mbox_loc_flat
I0210 11:55:06.133383 16866 net.cpp:150] Setting up conv4_3_norm_mbox_loc_flat
I0210 11:55:06.133393 16866 net.cpp:157] Top shape: 13 23104 (300352)
I0210 11:55:06.133395 16866 net.cpp:165] Memory required for data: 3253469632
I0210 11:55:06.133399 16866 layer_factory.hpp:77] Creating layer conv4_3_norm_mbox_conf
I0210 11:55:06.133415 16866 net.cpp:100] Creating Layer conv4_3_norm_mbox_conf
I0210 11:55:06.133420 16866 net.cpp:434] conv4_3_norm_mbox_conf <- conv4_3_norm_conv4_3_norm_0_split_1
I0210 11:55:06.133429 16866 net.cpp:408] conv4_3_norm_mbox_conf -> conv4_3_norm_mbox_conf
I0210 11:55:06.138144 16866 net.cpp:150] Setting up conv4_3_norm_mbox_conf
I0210 11:55:06.138160 16866 net.cpp:157] Top shape: 13 88 38 38 (1651936)
I0210 11:55:06.138164 16866 net.cpp:165] Memory required for data: 3260077376
I0210 11:55:06.138172 16866 layer_factory.hpp:77] Creating layer conv4_3_norm_mbox_conf_perm
I0210 11:55:06.138181 16866 net.cpp:100] Creating Layer conv4_3_norm_mbox_conf_perm
I0210 11:55:06.138186 16866 net.cpp:434] conv4_3_norm_mbox_conf_perm <- conv4_3_norm_mbox_conf
I0210 11:55:06.138192 16866 net.cpp:408] conv4_3_norm_mbox_conf_perm -> conv4_3_norm_mbox_conf_perm
I0210 11:55:06.138339 16866 net.cpp:150] Setting up conv4_3_norm_mbox_conf_perm
I0210 11:55:06.138353 16866 net.cpp:157] Top shape: 13 38 38 88 (1651936)
I0210 11:55:06.138357 16866 net.cpp:165] Memory required for data: 3266685120
I0210 11:55:06.138361 16866 layer_factory.hpp:77] Creating layer conv4_3_norm_mbox_conf_flat
I0210 11:55:06.138370 16866 net.cpp:100] Creating Layer conv4_3_norm_mbox_conf_flat
I0210 11:55:06.138373 16866 net.cpp:434] conv4_3_norm_mbox_conf_flat <- conv4_3_norm_mbox_conf_perm
I0210 11:55:06.138378 16866 net.cpp:408] conv4_3_norm_mbox_conf_flat -> conv4_3_norm_mbox_conf_flat
I0210 11:55:06.138416 16866 net.cpp:150] Setting up conv4_3_norm_mbox_conf_flat
I0210 11:55:06.138423 16866 net.cpp:157] Top shape: 13 127072 (1651936)
I0210 11:55:06.138427 16866 net.cpp:165] Memory required for data: 3273292864
I0210 11:55:06.138430 16866 layer_factory.hpp:77] Creating layer conv4_3_norm_mbox_priorbox
I0210 11:55:06.138438 16866 net.cpp:100] Creating Layer conv4_3_norm_mbox_priorbox
I0210 11:55:06.138442 16866 net.cpp:434] conv4_3_norm_mbox_priorbox <- conv4_3_norm_conv4_3_norm_0_split_2
I0210 11:55:06.138448 16866 net.cpp:434] conv4_3_norm_mbox_priorbox <- data_data_0_split_1
I0210 11:55:06.138455 16866 net.cpp:408] conv4_3_norm_mbox_priorbox -> conv4_3_norm_mbox_priorbox
I0210 11:55:06.138492 16866 net.cpp:150] Setting up conv4_3_norm_mbox_priorbox
I0210 11:55:06.138500 16866 net.cpp:157] Top shape: 1 2 23104 (46208)
I0210 11:55:06.138504 16866 net.cpp:165] Memory required for data: 3273477696
I0210 11:55:06.138519 16866 layer_factory.hpp:77] Creating layer fc7_mbox_loc
I0210 11:55:06.138535 16866 net.cpp:100] Creating Layer fc7_mbox_loc
I0210 11:55:06.138540 16866 net.cpp:434] fc7_mbox_loc <- fc7_relu7_0_split_1
I0210 11:55:06.138545 16866 net.cpp:408] fc7_mbox_loc -> fc7_mbox_loc
I0210 11:55:06.141847 16866 net.cpp:150] Setting up fc7_mbox_loc
I0210 11:55:06.141865 16866 net.cpp:157] Top shape: 13 24 19 19 (112632)
I0210 11:55:06.141868 16866 net.cpp:165] Memory required for data: 3273928224
I0210 11:55:06.141876 16866 layer_factory.hpp:77] Creating layer fc7_mbox_loc_perm
I0210 11:55:06.141887 16866 net.cpp:100] Creating Layer fc7_mbox_loc_perm
I0210 11:55:06.141892 16866 net.cpp:434] fc7_mbox_loc_perm <- fc7_mbox_loc
I0210 11:55:06.141899 16866 net.cpp:408] fc7_mbox_loc_perm -> fc7_mbox_loc_perm
I0210 11:55:06.142048 16866 net.cpp:150] Setting up fc7_mbox_loc_perm
I0210 11:55:06.142057 16866 net.cpp:157] Top shape: 13 19 19 24 (112632)
I0210 11:55:06.142061 16866 net.cpp:165] Memory required for data: 3274378752
I0210 11:55:06.142066 16866 layer_factory.hpp:77] Creating layer fc7_mbox_loc_flat
I0210 11:55:06.142071 16866 net.cpp:100] Creating Layer fc7_mbox_loc_flat
I0210 11:55:06.142076 16866 net.cpp:434] fc7_mbox_loc_flat <- fc7_mbox_loc_perm
I0210 11:55:06.142081 16866 net.cpp:408] fc7_mbox_loc_flat -> fc7_mbox_loc_flat
I0210 11:55:06.142115 16866 net.cpp:150] Setting up fc7_mbox_loc_flat
I0210 11:55:06.142125 16866 net.cpp:157] Top shape: 13 8664 (112632)
I0210 11:55:06.142128 16866 net.cpp:165] Memory required for data: 3274829280
I0210 11:55:06.142132 16866 layer_factory.hpp:77] Creating layer fc7_mbox_conf
I0210 11:55:06.142144 16866 net.cpp:100] Creating Layer fc7_mbox_conf
I0210 11:55:06.142148 16866 net.cpp:434] fc7_mbox_conf <- fc7_relu7_0_split_2
I0210 11:55:06.142155 16866 net.cpp:408] fc7_mbox_conf -> fc7_mbox_conf
I0210 11:55:06.153496 16866 net.cpp:150] Setting up fc7_mbox_conf
I0210 11:55:06.153522 16866 net.cpp:157] Top shape: 13 132 19 19 (619476)
I0210 11:55:06.153527 16866 net.cpp:165] Memory required for data: 3277307184
I0210 11:55:06.153534 16866 layer_factory.hpp:77] Creating layer fc7_mbox_conf_perm
I0210 11:55:06.153543 16866 net.cpp:100] Creating Layer fc7_mbox_conf_perm
I0210 11:55:06.153549 16866 net.cpp:434] fc7_mbox_conf_perm <- fc7_mbox_conf
I0210 11:55:06.153558 16866 net.cpp:408] fc7_mbox_conf_perm -> fc7_mbox_conf_perm
I0210 11:55:06.153715 16866 net.cpp:150] Setting up fc7_mbox_conf_perm
I0210 11:55:06.153724 16866 net.cpp:157] Top shape: 13 19 19 132 (619476)
I0210 11:55:06.153728 16866 net.cpp:165] Memory required for data: 3279785088
I0210 11:55:06.153733 16866 layer_factory.hpp:77] Creating layer fc7_mbox_conf_flat
I0210 11:55:06.153740 16866 net.cpp:100] Creating Layer fc7_mbox_conf_flat
I0210 11:55:06.153744 16866 net.cpp:434] fc7_mbox_conf_flat <- fc7_mbox_conf_perm
I0210 11:55:06.153751 16866 net.cpp:408] fc7_mbox_conf_flat -> fc7_mbox_conf_flat
I0210 11:55:06.153784 16866 net.cpp:150] Setting up fc7_mbox_conf_flat
I0210 11:55:06.153795 16866 net.cpp:157] Top shape: 13 47652 (619476)
I0210 11:55:06.153797 16866 net.cpp:165] Memory required for data: 3282262992
I0210 11:55:06.153801 16866 layer_factory.hpp:77] Creating layer fc7_mbox_priorbox
I0210 11:55:06.153810 16866 net.cpp:100] Creating Layer fc7_mbox_priorbox
I0210 11:55:06.153815 16866 net.cpp:434] fc7_mbox_priorbox <- fc7_relu7_0_split_3
I0210 11:55:06.153820 16866 net.cpp:434] fc7_mbox_priorbox <- data_data_0_split_2
I0210 11:55:06.153825 16866 net.cpp:408] fc7_mbox_priorbox -> fc7_mbox_priorbox
I0210 11:55:06.153865 16866 net.cpp:150] Setting up fc7_mbox_priorbox
I0210 11:55:06.153873 16866 net.cpp:157] Top shape: 1 2 8664 (17328)
I0210 11:55:06.153877 16866 net.cpp:165] Memory required for data: 3282332304
I0210 11:55:06.153880 16866 layer_factory.hpp:77] Creating layer conv6_2_mbox_loc
I0210 11:55:06.153892 16866 net.cpp:100] Creating Layer conv6_2_mbox_loc
I0210 11:55:06.153898 16866 net.cpp:434] conv6_2_mbox_loc <- conv6_2_conv6_2_relu_0_split_1
I0210 11:55:06.153905 16866 net.cpp:408] conv6_2_mbox_loc -> conv6_2_mbox_loc
I0210 11:55:06.156415 16866 net.cpp:150] Setting up conv6_2_mbox_loc
I0210 11:55:06.156432 16866 net.cpp:157] Top shape: 13 24 10 10 (31200)
I0210 11:55:06.156437 16866 net.cpp:165] Memory required for data: 3282457104
I0210 11:55:06.156445 16866 layer_factory.hpp:77] Creating layer conv6_2_mbox_loc_perm
I0210 11:55:06.156451 16866 net.cpp:100] Creating Layer conv6_2_mbox_loc_perm
I0210 11:55:06.156456 16866 net.cpp:434] conv6_2_mbox_loc_perm <- conv6_2_mbox_loc
I0210 11:55:06.156464 16866 net.cpp:408] conv6_2_mbox_loc_perm -> conv6_2_mbox_loc_perm
I0210 11:55:06.156615 16866 net.cpp:150] Setting up conv6_2_mbox_loc_perm
I0210 11:55:06.156625 16866 net.cpp:157] Top shape: 13 10 10 24 (31200)
I0210 11:55:06.156630 16866 net.cpp:165] Memory required for data: 3282581904
I0210 11:55:06.156633 16866 layer_factory.hpp:77] Creating layer conv6_2_mbox_loc_flat
I0210 11:55:06.156639 16866 net.cpp:100] Creating Layer conv6_2_mbox_loc_flat
I0210 11:55:06.156643 16866 net.cpp:434] conv6_2_mbox_loc_flat <- conv6_2_mbox_loc_perm
I0210 11:55:06.156651 16866 net.cpp:408] conv6_2_mbox_loc_flat -> conv6_2_mbox_loc_flat
I0210 11:55:06.156684 16866 net.cpp:150] Setting up conv6_2_mbox_loc_flat
I0210 11:55:06.156692 16866 net.cpp:157] Top shape: 13 2400 (31200)
I0210 11:55:06.156695 16866 net.cpp:165] Memory required for data: 3282706704
I0210 11:55:06.156699 16866 layer_factory.hpp:77] Creating layer conv6_2_mbox_conf
I0210 11:55:06.156711 16866 net.cpp:100] Creating Layer conv6_2_mbox_conf
I0210 11:55:06.156715 16866 net.cpp:434] conv6_2_mbox_conf <- conv6_2_conv6_2_relu_0_split_2
I0210 11:55:06.156723 16866 net.cpp:408] conv6_2_mbox_conf -> conv6_2_mbox_conf
I0210 11:55:06.163214 16866 net.cpp:150] Setting up conv6_2_mbox_conf
I0210 11:55:06.163233 16866 net.cpp:157] Top shape: 13 132 10 10 (171600)
I0210 11:55:06.163236 16866 net.cpp:165] Memory required for data: 3283393104
I0210 11:55:06.163244 16866 layer_factory.hpp:77] Creating layer conv6_2_mbox_conf_perm
I0210 11:55:06.163252 16866 net.cpp:100] Creating Layer conv6_2_mbox_conf_perm
I0210 11:55:06.163256 16866 net.cpp:434] conv6_2_mbox_conf_perm <- conv6_2_mbox_conf
I0210 11:55:06.163264 16866 net.cpp:408] conv6_2_mbox_conf_perm -> conv6_2_mbox_conf_perm
I0210 11:55:06.163417 16866 net.cpp:150] Setting up conv6_2_mbox_conf_perm
I0210 11:55:06.163427 16866 net.cpp:157] Top shape: 13 10 10 132 (171600)
I0210 11:55:06.163431 16866 net.cpp:165] Memory required for data: 3284079504
I0210 11:55:06.163434 16866 layer_factory.hpp:77] Creating layer conv6_2_mbox_conf_flat
I0210 11:55:06.163441 16866 net.cpp:100] Creating Layer conv6_2_mbox_conf_flat
I0210 11:55:06.163445 16866 net.cpp:434] conv6_2_mbox_conf_flat <- conv6_2_mbox_conf_perm
I0210 11:55:06.163452 16866 net.cpp:408] conv6_2_mbox_conf_flat -> conv6_2_mbox_conf_flat
I0210 11:55:06.163487 16866 net.cpp:150] Setting up conv6_2_mbox_conf_flat
I0210 11:55:06.163496 16866 net.cpp:157] Top shape: 13 13200 (171600)
I0210 11:55:06.163499 16866 net.cpp:165] Memory required for data: 3284765904
I0210 11:55:06.163502 16866 layer_factory.hpp:77] Creating layer conv6_2_mbox_priorbox
I0210 11:55:06.163511 16866 net.cpp:100] Creating Layer conv6_2_mbox_priorbox
I0210 11:55:06.163516 16866 net.cpp:434] conv6_2_mbox_priorbox <- conv6_2_conv6_2_relu_0_split_3
I0210 11:55:06.163521 16866 net.cpp:434] conv6_2_mbox_priorbox <- data_data_0_split_3
I0210 11:55:06.163527 16866 net.cpp:408] conv6_2_mbox_priorbox -> conv6_2_mbox_priorbox
I0210 11:55:06.163564 16866 net.cpp:150] Setting up conv6_2_mbox_priorbox
I0210 11:55:06.163573 16866 net.cpp:157] Top shape: 1 2 2400 (4800)
I0210 11:55:06.163576 16866 net.cpp:165] Memory required for data: 3284785104
I0210 11:55:06.163579 16866 layer_factory.hpp:77] Creating layer conv7_2_mbox_loc
I0210 11:55:06.163594 16866 net.cpp:100] Creating Layer conv7_2_mbox_loc
I0210 11:55:06.163597 16866 net.cpp:434] conv7_2_mbox_loc <- conv7_2_conv7_2_relu_0_split_1
I0210 11:55:06.163604 16866 net.cpp:408] conv7_2_mbox_loc -> conv7_2_mbox_loc
I0210 11:55:06.165299 16866 net.cpp:150] Setting up conv7_2_mbox_loc
I0210 11:55:06.165325 16866 net.cpp:157] Top shape: 13 24 5 5 (7800)
I0210 11:55:06.165331 16866 net.cpp:165] Memory required for data: 3284816304
I0210 11:55:06.165338 16866 layer_factory.hpp:77] Creating layer conv7_2_mbox_loc_perm
I0210 11:55:06.165347 16866 net.cpp:100] Creating Layer conv7_2_mbox_loc_perm
I0210 11:55:06.165352 16866 net.cpp:434] conv7_2_mbox_loc_perm <- conv7_2_mbox_loc
I0210 11:55:06.165359 16866 net.cpp:408] conv7_2_mbox_loc_perm -> conv7_2_mbox_loc_perm
I0210 11:55:06.165515 16866 net.cpp:150] Setting up conv7_2_mbox_loc_perm
I0210 11:55:06.165524 16866 net.cpp:157] Top shape: 13 5 5 24 (7800)
I0210 11:55:06.165532 16866 net.cpp:165] Memory required for data: 3284847504
I0210 11:55:06.165536 16866 layer_factory.hpp:77] Creating layer conv7_2_mbox_loc_flat
I0210 11:55:06.165542 16866 net.cpp:100] Creating Layer conv7_2_mbox_loc_flat
I0210 11:55:06.165546 16866 net.cpp:434] conv7_2_mbox_loc_flat <- conv7_2_mbox_loc_perm
I0210 11:55:06.165554 16866 net.cpp:408] conv7_2_mbox_loc_flat -> conv7_2_mbox_loc_flat
I0210 11:55:06.165590 16866 net.cpp:150] Setting up conv7_2_mbox_loc_flat
I0210 11:55:06.165598 16866 net.cpp:157] Top shape: 13 600 (7800)
I0210 11:55:06.165602 16866 net.cpp:165] Memory required for data: 3284878704
I0210 11:55:06.165606 16866 layer_factory.hpp:77] Creating layer conv7_2_mbox_conf
I0210 11:55:06.165616 16866 net.cpp:100] Creating Layer conv7_2_mbox_conf
I0210 11:55:06.165621 16866 net.cpp:434] conv7_2_mbox_conf <- conv7_2_conv7_2_relu_0_split_2
I0210 11:55:06.165628 16866 net.cpp:408] conv7_2_mbox_conf -> conv7_2_mbox_conf
I0210 11:55:06.169580 16866 net.cpp:150] Setting up conv7_2_mbox_conf
I0210 11:55:06.169597 16866 net.cpp:157] Top shape: 13 132 5 5 (42900)
I0210 11:55:06.169601 16866 net.cpp:165] Memory required for data: 3285050304
I0210 11:55:06.169608 16866 layer_factory.hpp:77] Creating layer conv7_2_mbox_conf_perm
I0210 11:55:06.169616 16866 net.cpp:100] Creating Layer conv7_2_mbox_conf_perm
I0210 11:55:06.169621 16866 net.cpp:434] conv7_2_mbox_conf_perm <- conv7_2_mbox_conf
I0210 11:55:06.169631 16866 net.cpp:408] conv7_2_mbox_conf_perm -> conv7_2_mbox_conf_perm
I0210 11:55:06.169786 16866 net.cpp:150] Setting up conv7_2_mbox_conf_perm
I0210 11:55:06.169795 16866 net.cpp:157] Top shape: 13 5 5 132 (42900)
I0210 11:55:06.169800 16866 net.cpp:165] Memory required for data: 3285221904
I0210 11:55:06.169803 16866 layer_factory.hpp:77] Creating layer conv7_2_mbox_conf_flat
I0210 11:55:06.169811 16866 net.cpp:100] Creating Layer conv7_2_mbox_conf_flat
I0210 11:55:06.169814 16866 net.cpp:434] conv7_2_mbox_conf_flat <- conv7_2_mbox_conf_perm
I0210 11:55:06.169821 16866 net.cpp:408] conv7_2_mbox_conf_flat -> conv7_2_mbox_conf_flat
I0210 11:55:06.169857 16866 net.cpp:150] Setting up conv7_2_mbox_conf_flat
I0210 11:55:06.169864 16866 net.cpp:157] Top shape: 13 3300 (42900)
I0210 11:55:06.169867 16866 net.cpp:165] Memory required for data: 3285393504
I0210 11:55:06.169872 16866 layer_factory.hpp:77] Creating layer conv7_2_mbox_priorbox
I0210 11:55:06.169879 16866 net.cpp:100] Creating Layer conv7_2_mbox_priorbox
I0210 11:55:06.169883 16866 net.cpp:434] conv7_2_mbox_priorbox <- conv7_2_conv7_2_relu_0_split_3
I0210 11:55:06.169889 16866 net.cpp:434] conv7_2_mbox_priorbox <- data_data_0_split_4
I0210 11:55:06.169895 16866 net.cpp:408] conv7_2_mbox_priorbox -> conv7_2_mbox_priorbox
I0210 11:55:06.169934 16866 net.cpp:150] Setting up conv7_2_mbox_priorbox
I0210 11:55:06.169941 16866 net.cpp:157] Top shape: 1 2 600 (1200)
I0210 11:55:06.169945 16866 net.cpp:165] Memory required for data: 3285398304
I0210 11:55:06.169948 16866 layer_factory.hpp:77] Creating layer conv8_2_mbox_loc
I0210 11:55:06.169960 16866 net.cpp:100] Creating Layer conv8_2_mbox_loc
I0210 11:55:06.169965 16866 net.cpp:434] conv8_2_mbox_loc <- conv8_2_conv8_2_relu_0_split_1
I0210 11:55:06.169972 16866 net.cpp:408] conv8_2_mbox_loc -> conv8_2_mbox_loc
I0210 11:55:06.171562 16866 net.cpp:150] Setting up conv8_2_mbox_loc
I0210 11:55:06.171579 16866 net.cpp:157] Top shape: 13 16 3 3 (1872)
I0210 11:55:06.171583 16866 net.cpp:165] Memory required for data: 3285405792
I0210 11:55:06.171614 16866 layer_factory.hpp:77] Creating layer conv8_2_mbox_loc_perm
I0210 11:55:06.171627 16866 net.cpp:100] Creating Layer conv8_2_mbox_loc_perm
I0210 11:55:06.171633 16866 net.cpp:434] conv8_2_mbox_loc_perm <- conv8_2_mbox_loc
I0210 11:55:06.171639 16866 net.cpp:408] conv8_2_mbox_loc_perm -> conv8_2_mbox_loc_perm
I0210 11:55:06.171798 16866 net.cpp:150] Setting up conv8_2_mbox_loc_perm
I0210 11:55:06.171809 16866 net.cpp:157] Top shape: 13 3 3 16 (1872)
I0210 11:55:06.171813 16866 net.cpp:165] Memory required for data: 3285413280
I0210 11:55:06.171816 16866 layer_factory.hpp:77] Creating layer conv8_2_mbox_loc_flat
I0210 11:55:06.171823 16866 net.cpp:100] Creating Layer conv8_2_mbox_loc_flat
I0210 11:55:06.171826 16866 net.cpp:434] conv8_2_mbox_loc_flat <- conv8_2_mbox_loc_perm
I0210 11:55:06.171833 16866 net.cpp:408] conv8_2_mbox_loc_flat -> conv8_2_mbox_loc_flat
I0210 11:55:06.171869 16866 net.cpp:150] Setting up conv8_2_mbox_loc_flat
I0210 11:55:06.171877 16866 net.cpp:157] Top shape: 13 144 (1872)
I0210 11:55:06.171881 16866 net.cpp:165] Memory required for data: 3285420768
I0210 11:55:06.171885 16866 layer_factory.hpp:77] Creating layer conv8_2_mbox_conf
I0210 11:55:06.171895 16866 net.cpp:100] Creating Layer conv8_2_mbox_conf
I0210 11:55:06.171900 16866 net.cpp:434] conv8_2_mbox_conf <- conv8_2_conv8_2_relu_0_split_2
I0210 11:55:06.171907 16866 net.cpp:408] conv8_2_mbox_conf -> conv8_2_mbox_conf
I0210 11:55:06.175072 16866 net.cpp:150] Setting up conv8_2_mbox_conf
I0210 11:55:06.175088 16866 net.cpp:157] Top shape: 13 88 3 3 (10296)
I0210 11:55:06.175093 16866 net.cpp:165] Memory required for data: 3285461952
I0210 11:55:06.175101 16866 layer_factory.hpp:77] Creating layer conv8_2_mbox_conf_perm
I0210 11:55:06.175112 16866 net.cpp:100] Creating Layer conv8_2_mbox_conf_perm
I0210 11:55:06.175117 16866 net.cpp:434] conv8_2_mbox_conf_perm <- conv8_2_mbox_conf
I0210 11:55:06.175123 16866 net.cpp:408] conv8_2_mbox_conf_perm -> conv8_2_mbox_conf_perm
I0210 11:55:06.175278 16866 net.cpp:150] Setting up conv8_2_mbox_conf_perm
I0210 11:55:06.175288 16866 net.cpp:157] Top shape: 13 3 3 88 (10296)
I0210 11:55:06.175292 16866 net.cpp:165] Memory required for data: 3285503136
I0210 11:55:06.175295 16866 layer_factory.hpp:77] Creating layer conv8_2_mbox_conf_flat
I0210 11:55:06.175302 16866 net.cpp:100] Creating Layer conv8_2_mbox_conf_flat
I0210 11:55:06.175305 16866 net.cpp:434] conv8_2_mbox_conf_flat <- conv8_2_mbox_conf_perm
I0210 11:55:06.175312 16866 net.cpp:408] conv8_2_mbox_conf_flat -> conv8_2_mbox_conf_flat
I0210 11:55:06.175348 16866 net.cpp:150] Setting up conv8_2_mbox_conf_flat
I0210 11:55:06.175359 16866 net.cpp:157] Top shape: 13 792 (10296)
I0210 11:55:06.175362 16866 net.cpp:165] Memory required for data: 3285544320
I0210 11:55:06.175366 16866 layer_factory.hpp:77] Creating layer conv8_2_mbox_priorbox
I0210 11:55:06.175374 16866 net.cpp:100] Creating Layer conv8_2_mbox_priorbox
I0210 11:55:06.175377 16866 net.cpp:434] conv8_2_mbox_priorbox <- conv8_2_conv8_2_relu_0_split_3
I0210 11:55:06.175386 16866 net.cpp:434] conv8_2_mbox_priorbox <- data_data_0_split_5
I0210 11:55:06.175393 16866 net.cpp:408] conv8_2_mbox_priorbox -> conv8_2_mbox_priorbox
I0210 11:55:06.175431 16866 net.cpp:150] Setting up conv8_2_mbox_priorbox
I0210 11:55:06.175441 16866 net.cpp:157] Top shape: 1 2 144 (288)
I0210 11:55:06.175444 16866 net.cpp:165] Memory required for data: 3285545472
I0210 11:55:06.175448 16866 layer_factory.hpp:77] Creating layer conv9_2_mbox_loc
I0210 11:55:06.175459 16866 net.cpp:100] Creating Layer conv9_2_mbox_loc
I0210 11:55:06.175464 16866 net.cpp:434] conv9_2_mbox_loc <- conv9_2_conv9_2_relu_0_split_0
I0210 11:55:06.175470 16866 net.cpp:408] conv9_2_mbox_loc -> conv9_2_mbox_loc
I0210 11:55:06.177031 16866 net.cpp:150] Setting up conv9_2_mbox_loc
I0210 11:55:06.177047 16866 net.cpp:157] Top shape: 13 16 1 1 (208)
I0210 11:55:06.177050 16866 net.cpp:165] Memory required for data: 3285546304
I0210 11:55:06.177057 16866 layer_factory.hpp:77] Creating layer conv9_2_mbox_loc_perm
I0210 11:55:06.177075 16866 net.cpp:100] Creating Layer conv9_2_mbox_loc_perm
I0210 11:55:06.177080 16866 net.cpp:434] conv9_2_mbox_loc_perm <- conv9_2_mbox_loc
I0210 11:55:06.177088 16866 net.cpp:408] conv9_2_mbox_loc_perm -> conv9_2_mbox_loc_perm
I0210 11:55:06.177245 16866 net.cpp:150] Setting up conv9_2_mbox_loc_perm
I0210 11:55:06.177254 16866 net.cpp:157] Top shape: 13 1 1 16 (208)
I0210 11:55:06.177258 16866 net.cpp:165] Memory required for data: 3285547136
I0210 11:55:06.177261 16866 layer_factory.hpp:77] Creating layer conv9_2_mbox_loc_flat
I0210 11:55:06.177268 16866 net.cpp:100] Creating Layer conv9_2_mbox_loc_flat
I0210 11:55:06.177273 16866 net.cpp:434] conv9_2_mbox_loc_flat <- conv9_2_mbox_loc_perm
I0210 11:55:06.177279 16866 net.cpp:408] conv9_2_mbox_loc_flat -> conv9_2_mbox_loc_flat
I0210 11:55:06.177315 16866 net.cpp:150] Setting up conv9_2_mbox_loc_flat
I0210 11:55:06.177323 16866 net.cpp:157] Top shape: 13 16 (208)
I0210 11:55:06.177326 16866 net.cpp:165] Memory required for data: 3285547968
I0210 11:55:06.177330 16866 layer_factory.hpp:77] Creating layer conv9_2_mbox_conf
I0210 11:55:06.177341 16866 net.cpp:100] Creating Layer conv9_2_mbox_conf
I0210 11:55:06.177345 16866 net.cpp:434] conv9_2_mbox_conf <- conv9_2_conv9_2_relu_0_split_1
I0210 11:55:06.177352 16866 net.cpp:408] conv9_2_mbox_conf -> conv9_2_mbox_conf
I0210 11:55:06.180550 16866 net.cpp:150] Setting up conv9_2_mbox_conf
I0210 11:55:06.180567 16866 net.cpp:157] Top shape: 13 88 1 1 (1144)
I0210 11:55:06.180572 16866 net.cpp:165] Memory required for data: 3285552544
I0210 11:55:06.180578 16866 layer_factory.hpp:77] Creating layer conv9_2_mbox_conf_perm
I0210 11:55:06.180588 16866 net.cpp:100] Creating Layer conv9_2_mbox_conf_perm
I0210 11:55:06.180593 16866 net.cpp:434] conv9_2_mbox_conf_perm <- conv9_2_mbox_conf
I0210 11:55:06.180600 16866 net.cpp:408] conv9_2_mbox_conf_perm -> conv9_2_mbox_conf_perm
I0210 11:55:06.180755 16866 net.cpp:150] Setting up conv9_2_mbox_conf_perm
I0210 11:55:06.180765 16866 net.cpp:157] Top shape: 13 1 1 88 (1144)
I0210 11:55:06.180768 16866 net.cpp:165] Memory required for data: 3285557120
I0210 11:55:06.180773 16866 layer_factory.hpp:77] Creating layer conv9_2_mbox_conf_flat
I0210 11:55:06.180779 16866 net.cpp:100] Creating Layer conv9_2_mbox_conf_flat
I0210 11:55:06.180784 16866 net.cpp:434] conv9_2_mbox_conf_flat <- conv9_2_mbox_conf_perm
I0210 11:55:06.180790 16866 net.cpp:408] conv9_2_mbox_conf_flat -> conv9_2_mbox_conf_flat
I0210 11:55:06.180827 16866 net.cpp:150] Setting up conv9_2_mbox_conf_flat
I0210 11:55:06.180835 16866 net.cpp:157] Top shape: 13 88 (1144)
I0210 11:55:06.180840 16866 net.cpp:165] Memory required for data: 3285561696
I0210 11:55:06.180842 16866 layer_factory.hpp:77] Creating layer conv9_2_mbox_priorbox
I0210 11:55:06.180850 16866 net.cpp:100] Creating Layer conv9_2_mbox_priorbox
I0210 11:55:06.180855 16866 net.cpp:434] conv9_2_mbox_priorbox <- conv9_2_conv9_2_relu_0_split_2
I0210 11:55:06.180860 16866 net.cpp:434] conv9_2_mbox_priorbox <- data_data_0_split_6
I0210 11:55:06.180866 16866 net.cpp:408] conv9_2_mbox_priorbox -> conv9_2_mbox_priorbox
I0210 11:55:06.180905 16866 net.cpp:150] Setting up conv9_2_mbox_priorbox
I0210 11:55:06.180914 16866 net.cpp:157] Top shape: 1 2 16 (32)
I0210 11:55:06.180917 16866 net.cpp:165] Memory required for data: 3285561824
I0210 11:55:06.180922 16866 layer_factory.hpp:77] Creating layer mbox_loc
I0210 11:55:06.180928 16866 net.cpp:100] Creating Layer mbox_loc
I0210 11:55:06.180934 16866 net.cpp:434] mbox_loc <- conv4_3_norm_mbox_loc_flat
I0210 11:55:06.180939 16866 net.cpp:434] mbox_loc <- fc7_mbox_loc_flat
I0210 11:55:06.180944 16866 net.cpp:434] mbox_loc <- conv6_2_mbox_loc_flat
I0210 11:55:06.180949 16866 net.cpp:434] mbox_loc <- conv7_2_mbox_loc_flat
I0210 11:55:06.180954 16866 net.cpp:434] mbox_loc <- conv8_2_mbox_loc_flat
I0210 11:55:06.180959 16866 net.cpp:434] mbox_loc <- conv9_2_mbox_loc_flat
I0210 11:55:06.180965 16866 net.cpp:408] mbox_loc -> mbox_loc
I0210 11:55:06.181004 16866 net.cpp:150] Setting up mbox_loc
I0210 11:55:06.181022 16866 net.cpp:157] Top shape: 13 34928 (454064)
I0210 11:55:06.181026 16866 net.cpp:165] Memory required for data: 3287378080
I0210 11:55:06.181030 16866 layer_factory.hpp:77] Creating layer mbox_conf
I0210 11:55:06.181041 16866 net.cpp:100] Creating Layer mbox_conf
I0210 11:55:06.181046 16866 net.cpp:434] mbox_conf <- conv4_3_norm_mbox_conf_flat
I0210 11:55:06.181052 16866 net.cpp:434] mbox_conf <- fc7_mbox_conf_flat
I0210 11:55:06.181057 16866 net.cpp:434] mbox_conf <- conv6_2_mbox_conf_flat
I0210 11:55:06.181061 16866 net.cpp:434] mbox_conf <- conv7_2_mbox_conf_flat
I0210 11:55:06.181066 16866 net.cpp:434] mbox_conf <- conv8_2_mbox_conf_flat
I0210 11:55:06.181071 16866 net.cpp:434] mbox_conf <- conv9_2_mbox_conf_flat
I0210 11:55:06.181076 16866 net.cpp:408] mbox_conf -> mbox_conf
I0210 11:55:06.181113 16866 net.cpp:150] Setting up mbox_conf
I0210 11:55:06.181121 16866 net.cpp:157] Top shape: 13 192104 (2497352)
I0210 11:55:06.181125 16866 net.cpp:165] Memory required for data: 3297367488
I0210 11:55:06.181128 16866 layer_factory.hpp:77] Creating layer mbox_priorbox
I0210 11:55:06.181135 16866 net.cpp:100] Creating Layer mbox_priorbox
I0210 11:55:06.181139 16866 net.cpp:434] mbox_priorbox <- conv4_3_norm_mbox_priorbox
I0210 11:55:06.181144 16866 net.cpp:434] mbox_priorbox <- fc7_mbox_priorbox
I0210 11:55:06.181149 16866 net.cpp:434] mbox_priorbox <- conv6_2_mbox_priorbox
I0210 11:55:06.181154 16866 net.cpp:434] mbox_priorbox <- conv7_2_mbox_priorbox
I0210 11:55:06.181157 16866 net.cpp:434] mbox_priorbox <- conv8_2_mbox_priorbox
I0210 11:55:06.181164 16866 net.cpp:434] mbox_priorbox <- conv9_2_mbox_priorbox
I0210 11:55:06.181169 16866 net.cpp:408] mbox_priorbox -> mbox_priorbox
I0210 11:55:06.181203 16866 net.cpp:150] Setting up mbox_priorbox
I0210 11:55:06.181211 16866 net.cpp:157] Top shape: 1 2 34928 (69856)
I0210 11:55:06.181215 16866 net.cpp:165] Memory required for data: 3297646912
I0210 11:55:06.181218 16866 layer_factory.hpp:77] Creating layer mbox_conf_reshape
I0210 11:55:06.181226 16866 net.cpp:100] Creating Layer mbox_conf_reshape
I0210 11:55:06.181231 16866 net.cpp:434] mbox_conf_reshape <- mbox_conf
I0210 11:55:06.181237 16866 net.cpp:408] mbox_conf_reshape -> mbox_conf_reshape
I0210 11:55:06.181289 16866 net.cpp:150] Setting up mbox_conf_reshape
I0210 11:55:06.181298 16866 net.cpp:157] Top shape: 13 8732 22 (2497352)
I0210 11:55:06.181303 16866 net.cpp:165] Memory required for data: 3307636320
I0210 11:55:06.181306 16866 layer_factory.hpp:77] Creating layer mbox_conf_softmax
I0210 11:55:06.181313 16866 net.cpp:100] Creating Layer mbox_conf_softmax
I0210 11:55:06.181318 16866 net.cpp:434] mbox_conf_softmax <- mbox_conf_reshape
I0210 11:55:06.181324 16866 net.cpp:408] mbox_conf_softmax -> mbox_conf_softmax
I0210 11:55:06.181620 16866 net.cpp:150] Setting up mbox_conf_softmax
I0210 11:55:06.181632 16866 net.cpp:157] Top shape: 13 8732 22 (2497352)
I0210 11:55:06.181637 16866 net.cpp:165] Memory required for data: 3317625728
I0210 11:55:06.181640 16866 layer_factory.hpp:77] Creating layer mbox_conf_flatten
I0210 11:55:06.181648 16866 net.cpp:100] Creating Layer mbox_conf_flatten
I0210 11:55:06.181651 16866 net.cpp:434] mbox_conf_flatten <- mbox_conf_softmax
I0210 11:55:06.181658 16866 net.cpp:408] mbox_conf_flatten -> mbox_conf_flatten
I0210 11:55:06.181695 16866 net.cpp:150] Setting up mbox_conf_flatten
I0210 11:55:06.181704 16866 net.cpp:157] Top shape: 13 192104 (2497352)
I0210 11:55:06.181707 16866 net.cpp:165] Memory required for data: 3327615136
I0210 11:55:06.181710 16866 layer_factory.hpp:77] Creating layer detection_out
I0210 11:55:06.181730 16866 net.cpp:100] Creating Layer detection_out
I0210 11:55:06.181736 16866 net.cpp:434] detection_out <- mbox_loc
I0210 11:55:06.181741 16866 net.cpp:434] detection_out <- mbox_conf_flatten
I0210 11:55:06.181746 16866 net.cpp:434] detection_out <- mbox_priorbox
I0210 11:55:06.181753 16866 net.cpp:408] detection_out -> detection_out
I0210 11:55:06.184705 16866 net.cpp:150] Setting up detection_out
I0210 11:55:06.184721 16866 net.cpp:157] Top shape: 1 1 1 7 (7)
I0210 11:55:06.184736 16866 net.cpp:165] Memory required for data: 3327615164
I0210 11:55:06.184741 16866 layer_factory.hpp:77] Creating layer detection_eval
I0210 11:55:06.184748 16866 net.cpp:100] Creating Layer detection_eval
I0210 11:55:06.184753 16866 net.cpp:434] detection_eval <- detection_out
I0210 11:55:06.184759 16866 net.cpp:434] detection_eval <- label
I0210 11:55:06.184765 16866 net.cpp:408] detection_eval -> detection_eval
I0210 11:55:06.185894 16866 net.cpp:150] Setting up detection_eval
I0210 11:55:06.185905 16866 net.cpp:157] Top shape: 1 1 22 5 (110)
I0210 11:55:06.185909 16866 net.cpp:165] Memory required for data: 3327615604
I0210 11:55:06.185914 16866 net.cpp:228] detection_eval does not need backward computation.
I0210 11:55:06.185919 16866 net.cpp:228] detection_out does not need backward computation.
I0210 11:55:06.185922 16866 net.cpp:228] mbox_conf_flatten does not need backward computation.
I0210 11:55:06.185926 16866 net.cpp:228] mbox_conf_softmax does not need backward computation.
…
