…
      sampler {
        min_scale: 0.3
        max_scale: 1
        min_aspect_ratio: 0.5
        max_aspect_ratio: 2
      }
      sample_constraint {
        min_jaccard_overlap: 0.9
      }
      max_sample: 1
      max_trials: 50
    }
    batch_sampler {
      sampler {
        min_scale: 0.3
        max_scale: 1
        min_aspect_ratio: 0.5
        max_aspect_ratio: 2
      }
      sample_constraint {
        max_jaccard_overlap: 1
      }
      max_sample: 1
      max_trials: 50
    }
    label_map_file: "data/VOC0712/labelmap_voc.prototxt"
  }
}
layer {
  name: "conv1_1_rgbd"
  type: "Convolution"
  bottom: "data"
  top: "conv1_1_rgbd"
  param {
    lr_mult: 1
    decay_mult: 1
  }
  param {
    lr_mult: 2
    decay_mult: 0
  }
  convolution_param {
    num_output: 64
    pad: 1
    kernel_size: 3
    weight_filler {
      type: "xavier"
    }
    bias_filler {
      type: "constant"
      value: 0
    }
  }
}
layer {
  name: "relu1_1"
  type: "ReLU"
  bottom: "conv1_1_rgbd"
  top: "conv1_1_rgbd"
}
layer {
  name: "conv1_2"
  type: "Convolution"
  bottom: "conv1_1_rgbd"
  top: "conv1_2"
  param {
    lr_mult: 1
    decay_mult: 1
  }
  param {
    lr_mult: 2
    decay_mult: 0
  }
  convolution_param {
    num_output: 64
    pad: 1
    kernel_size: 3
    weight_filler {
      type: "xavier"
    }
    bias_filler {
      type: "constant"
      value: 0
    }
  }
}
layer {
  name: "relu1_2"
  type: "ReLU"
  bottom: "conv1_2"
  top: "conv1_2"
}
layer {
  name: "pool1"
  type: "Pooling"
  bottom: "conv1_2"
  top: "pool1"
  pooling_param {
    pool: MAX
    kernel_size: 2
    stride: 2
  }
}
layer {
  name: "conv2_1"
  type: "Convolution"
  bottom: "pool1"
  top: "conv2_1"
  param {
    lr_mult: 1
    decay_mult: 1
  }
  param {
    lr_mult: 2
    decay_mult: 0
  }
  convolution_param {
    num_output: 128
    pad: 1
    kernel_size: 3
    weight_filler {
      type: "xavier"
    }
    bias_filler {
      type: "constant"
      value: 0
    }
  }
}
layer {
  name: "relu2_1"
  type: "ReLU"
  bottom: "conv2_1"
  top: "conv2_1"
}
layer {
  name: "conv2_2"
  type: "Convolution"
  bottom: "conv2_1"
  top: "conv2_2"
  param {
    lr_mult: 1
    decay_mult: 1
  }
  param {
    lr_mult: 2
    decay_mult: 0
  }
  convolution_param {
    num_output: 128
    pad: 1
    kernel_size: 3
    weight_filler {
      type: "xavier"
    }
    bias_filler {
      type: "constant"
      value: 0
    }
  }
}
layer {
  name: "relu2_2"
  type: "ReLU"
  bottom: "conv2_2"
  top: "conv2_2"
}
layer {
  name: "pool2"
  type: "Pooling"
  bottom: "conv2_2"
  top: "pool2"
  pooling_param {
    pool: MAX
    kernel_size: 2
    stride: 2
  }
}
layer {
  name: "conv3_1"
  type: "Convolution"
  bottom: "pool2"
  top: "conv3_1"
  param {
    lr_mult: 1
    decay_mult: 1
  }
  param {
    lr_mult: 2
    decay_mult: 0
  }
  convolution_param {
    num_output: 256
    pad: 1
    kernel_size: 3
    weight_filler {
      type: "xavier"
    }
    bias_filler {
      type: "constant"
      value: 0
    }
  }
}
layer {
  name: "relu3_1"
  type: "ReLU"
  bottom: "conv3_1"
  top: "conv3_1"
}
layer {
  name: "conv3_2"
  type: "Convolution"
  bottom: "conv3_1"
  top: "conv3_2"
  param {
    lr_mult: 1
    decay_mult: 1
  }
  param {
    lr_mult: 2
    decay_mult: 0
  }
  convolution_param {
    num_output: 256
    pad: 1
    kernel_size: 3
    weight_filler {
      type: "xavier"
    }
    bias_filler {
      type: "constant"
      value: 0
    }
  }
}
layer {
  name: "relu3_2"
  type: "ReLU"
  bottom: "conv3_2"
  top: "conv3_2"
}
layer {
  name: "conv3_3"
  type: "Convolution"
  bottom: "conv3_2"
  top: "conv3_3"
  param {
    lr_mult: 1
    decay_mult: 1
  }
  param {
    lr_mult: 2
    decay_mult: 0
  }
  convolution_param {
    num_output: 256
    pad: 1
    kernel_size: 3
    weight_filler {
      type: "xavier"
    }
    bias_filler {
      type: "constant"
      value: 0
    }
  }
}
layer {
  name: "relu3_3"
  type: "ReLU"
  bottom: "conv3_3"
  top: "conv3_3"
}
layer {
  name: "pool3"
  type: "Pooling"
  bottom: "conv3_3"
  top: "pool3"
  pooling_param {
    pool: MAX
    kernel_size: 2
    stride: 2
  }
}
layer {
  name: "conv4_1"
  type: "Convolution"
  bottom: "pool3"
  top: "conv4_1"
  param {
    lr_mult: 1
    decay_mult: 1
  }
  param {
    lr_mult: 2
    decay_mult: 0
  }
  convolution_param {
    num_output: 512
    pad: 1
    kernel_size: 3
    weight_filler {
      type: "xavier"
    }
    bias_filler {
      type: "constant"
      value: 0
    }
  }
}
layer {
  name: "relu4_1"
  type: "ReLU"
  bottom: "conv4_1"
  top: "conv4_1"
}
layer {
  name: "conv4_2"
  type: "Convolution"
  bottom: "conv4_1"
  top: "conv4_2"
  param {
    lr_mult: 1
    decay_mult: 1
  }
  param {
    lr_mult: 2
    decay_mult: 0
  }
  convolution_param {
    num_output: 512
    pad: 1
    kernel_size: 3
    weight_filler {
      type: "xavier"
    }
    bias_filler {
      type: "constant"
      value: 0
    }
  }
}
layer {
  name: "relu4_2"
  type: "ReLU"
  bottom: "conv4_2"
  top: "conv4_2"
}
layer {
  name: "conv4_3"
  type: "Convolution"
  bottom: "conv4_2"
  top: "conv4_3"
  param {
    lr_mult: 1
    decay_mult: 1
  }
  param {
    lr_mult: 2
    decay_mult: 0
  }
  convolution_param {
    num_output: 512
    pad: 1
    kernel_size: 3
    weight_filler {
      type: "xavier"
    }
    bias_filler {
      type: "constant"
      value: 0
    }
  }
}
layer {
  name: "relu4_3"
  type: "ReLU"
  bottom: "conv4_3"
  top: "conv4_3"
}
layer {
  name: "pool4"
  type: "Pooling"
  bottom: "conv4_3"
  top: "pool4"
  pooling_param {
    pool: MAX
    kernel_size: 2
    stride: 2
  }
}
layer {
  name: "conv5_1"
  type: "Convolution"
  bottom: "pool4"
  top: "conv5_1"
  param {
    lr_mult: 1
    decay_mult: 1
  }
  param {
    lr_mult: 2
    decay_mult: 0
  }
  convolution_param {
    num_output: 512
    pad: 1
    kernel_size: 3
    weight_filler {
      type: "xavier"
    }
    bias_filler {
      type: "constant"
      value: 0
    }
    dilation: 1
  }
}
layer {
  name: "relu5_1"
  type: "ReLU"
  bottom: "conv5_1"
  top: "conv5_1"
}
layer {
  name: "conv5_2"
  type: "Convolution"
  bottom: "conv5_1"
  top: "conv5_2"
  param {
    lr_mult: 1
    decay_mult: 1
  }
  param {
    lr_mult: 2
    decay_mult: 0
  }
  convolution_param {
    num_output: 512
    pad: 1
    kernel_size: 3
    weight_filler {
      type: "xavier"
    }
    bias_filler {
      type: "constant"
      value: 0
    }
    dilation: 1
  }
}
layer {
  name: "relu5_2"
  type: "ReLU"
  bottom: "conv5_2"
  top: "conv5_2"
}
layer {
  name: "conv5_3"
  type: "Convolution"
  bottom: "conv5_2"
  top: "conv5_3"
  param {
    lr_mult: 1
    decay_mult: 1
  }
  param {
    lr_mult: 2
    decay_mult: 0
  }
  convolution_param {
    num_output: 512
    pad: 1
    kernel_size: 3
    weight_filler {
      type: "xavier"
    }
    bias_filler {
      type: "constant"
      value: 0
    }
    dilation: 1
  }
}
layer {
  name: "relu5_3"
  type: "ReLU"
  bottom: "conv5_3"
  top: "conv5_3"
}
layer {
  name: "pool5"
  type: "Pooling"
  bottom: "conv5_3"
  top: "pool5"
  pooling_param {
    pool: MAX
    kernel_size: 3
    stride: 1
    pad: 1
  }
}
layer {
  name: "fc6"
  type: "Convolution"
  bottom: "pool5"
  top: "fc6"
  param {
    lr_mult: 1
    decay_mult: 1
  }
  param {
    lr_mult: 2
    decay_mult: 0
  }
  convolution_param {
    num_output: 1024
    pad: 6
    kernel_size: 3
    weight_filler {
      type: "xavier"
    }
    bias_filler {
      type: "constant"
      value: 0
    }
    dilation: 6
  }
}
layer {
  name: "relu6"
  type: "ReLU"
  bottom: "fc6"
  top: "fc6"
}
layer {
  name: "fc7"
  type: "Convolution"
  bottom: "fc6"
  top: "fc7"
  param {
    lr_mult: 1
    decay_mult: 1
  }
  param {
    lr_mult: 2
    decay_mult: 0
  }
  convolution_param {
    num_output: 1024
    kernel_size: 1
    weight_filler {
      type: "xavier"
    }
    bias_filler {
      type: "constant"
      value: 0
    }
  }
}
layer {
  name: "relu7"
  type: "ReLU"
  bottom: "fc7"
  top: "fc7"
}
layer {
  name: "conv6_1"
  type: "Convolution"
  bottom: "fc7"
  top: "conv6_1"
  param {
    lr_mult: 1
    decay_mult: 1
  }
  param {
    lr_mult: 2
    decay_mult: 0
  }
  convolution_param {
    num_output: 256
    pad: 0
    kernel_size: 1
    stride: 1
    weight_filler {
      type: "xavier"
    }
    bias_filler {
      type: "constant"
      value: 0
    }
  }
}
layer {
  name: "conv6_1_relu"
  type: "ReLU"
  bottom: "conv6_1"
  top: "conv6_1"
}
layer {
  name: "conv6_2"
  type: "Convolution"
  bottom: "conv6_1"
  top: "conv6_2"
  param {
    lr_mult: 1
    decay_mult: 1
  }
  param {
    lr_mult: 2
    decay_mult: 0
  }
  convolution_param {
    num_output: 512
    pad: 1
    kernel_size: 3
    stride: 2
    weight_filler {
      type: "xavier"
    }
    bias_filler {
      type: "constant"
      value: 0
    }
  }
}
layer {
  name: "conv6_2_relu"
  type: "ReLU"
  bottom: "conv6_2"
  top: "conv6_2"
}
layer {
  name: "conv7_1"
  type: "Convolution"
  bottom: "conv6_2"
  top: "conv7_1"
  param {
    lr_mult: 1
    decay_mult: 1
  }
  param {
    lr_mult: 2
    decay_mult: 0
  }
  convolution_param {
    num_output: 128
    pad: 0
    kernel_size: 1
    stride: 1
    weight_filler {
      type: "xavier"
    }
    bias_filler {
      type: "constant"
      value: 0
    }
  }
}
layer {
  name: "conv7_1_relu"
  type: "ReLU"
  bottom: "conv7_1"
  top: "conv7_1"
}
layer {
  name: "conv7_2"
  type: "Convolution"
  bottom: "conv7_1"
  top: "conv7_2"
  param {
    lr_mult: 1
    decay_mult: 1
  }
  param {
    lr_mult: 2
    decay_mult: 0
  }
  convolution_param {
    num_output: 256
    pad: 1
    kernel_size: 3
    stride: 2
    weight_filler {
      type: "xavier"
    }
    bias_filler {
      type: "constant"
      value: 0
    }
  }
}
layer {
  name: "conv7_2_relu"
  type: "ReLU"
  bottom: "conv7_2"
  top: "conv7_2"
}
layer {
  name: "conv8_1"
  type: "Convolution"
  bottom: "conv7_2"
  top: "conv8_1"
  param {
    lr_mult: 1
    decay_mult: 1
  }
  param {
    lr_mult: 2
    decay_mult: 0
  }
  convolution_param {
    num_output: 128
    pad: 0
    kernel_size: 1
    stride: 1
    weight_filler {
      type: "xavier"
    }
    bias_filler {
      type: "constant"
      value: 0
    }
  }
}
layer {
  name: "conv8_1_relu"
  type: "ReLU"
  bottom: "conv8_1"
  top: "conv8_1"
}
layer {
  name: "conv8_2"
  type: "Convolution"
  bottom: "conv8_1"
  top: "conv8_2"
  param {
    lr_mult: 1
    decay_mult: 1
  }
  param {
    lr_mult: 2
    decay_mult: 0
  }
  convolution_param {
    num_output: 256
    pad: 0
    kernel_size: 3
    stride: 1
    weight_filler {
      type: "xavier"
    }
    bias_filler {
      type: "constant"
      value: 0
    }
  }
}
layer {
  name: "conv8_2_relu"
  type: "ReLU"
  bottom: "conv8_2"
  top: "conv8_2"
}
layer {
  name: "conv9_1"
  type: "Convolution"
  bottom: "conv8_2"
  top: "conv9_1"
  param {
    lr_mult: 1
    decay_mult: 1
  }
  param {
    lr_mult: 2
    decay_mult: 0
  }
  convolution_param {
    num_output: 128
    pad: 0
    kernel_size: 1
    stride: 1
    weight_filler {
      type: "xavier"
    }
    bias_filler {
      type: "constant"
      value: 0
    }
  }
}
layer {
  name: "conv9_1_relu"
  type: "ReLU"
  bottom: "conv9_1"
  top: "conv9_1"
}
layer {
  name: "conv9_2"
  type: "Convolution"
  bottom: "conv9_1"
  top: "conv9_2"
  param {
    lr_mult: 1
    decay_mult: 1
  }
  param {
    lr_mult: 2
    decay_mult: 0
  }
  convolution_param {
    num_output: 256
    pad: 0
    kernel_size: 3
    stride: 1
    weight_filler {
      type: "xavier"
    }
    bias_filler {
      type: "constant"
      value: 0
    }
  }
}
layer {
  name: "conv9_2_relu"
  type: "ReLU"
  bottom: "conv9_2"
  top: "conv9_2"
}
layer {
  name: "conv4_3_norm"
  type: "Normalize"
  bottom: "conv4_3"
  top: "conv4_3_norm"
  norm_param {
    across_spatial: false
    scale_filler {
      type: "constant"
      value: 20
    }
    channel_shared: false
  }
}
layer {
  name: "conv4_3_norm_mbox_loc"
  type: "Convolution"
  bottom: "conv4_3_norm"
  top: "conv4_3_norm_mbox_loc"
  param {
    lr_mult: 1
    decay_mult: 1
  }
  param {
    lr_mult: 2
    decay_mult: 0
  }
  convolution_param {
    num_output: 16
    pad: 1
    kernel_size: 3
    stride: 1
    weight_filler {
      type: "xavier"
    }
    bias_filler {
      type: "constant"
      value: 0
    }
  }
}
layer {
  name: "conv4_3_norm_mbox_loc_perm"
  type: "Permute"
  bottom: "conv4_3_norm_mbox_loc"
  top: "conv4_3_norm_mbox_loc_perm"
  permute_param {
    order: 0
    order: 2
    order: 3
    order: 1
  }
}
layer {
  name: "conv4_3_norm_mbox_loc_flat"
  type: "Flatten"
  bottom: "conv4_3_norm_mbox_loc_perm"
  top: "conv4_3_norm_mbox_loc_flat"
  flatten_param {
    axis: 1
  }
}
layer {
  name: "conv4_3_norm_mbox_conf"
  type: "Convolution"
  bottom: "conv4_3_norm"
  top: "conv4_3_norm_mbox_conf"
  param {
    lr_mult: 1
    decay_mult: 1
  }
  param {
    lr_mult: 2
    decay_mult: 0
  }
  convolution_param {
    num_output: 88
    pad: 1
    kernel_size: 3
    stride: 1
    weight_filler {
      type: "xavier"
    }
    bias_filler {
      type: "constant"
      value: 0
    }
  }
}
layer {
  name: "conv4_3_norm_mbox_conf_perm"
  type: "Permute"
  bottom: "conv4_3_norm_mbox_conf"
  top: "conv4_3_norm_mbox_conf_perm"
  permute_param {
    order: 0
    order: 2
    order: 3
    order: 1
  }
}
layer {
  name: "conv4_3_norm_mbox_conf_flat"
  type: "Flatten"
  bottom: "conv4_3_norm_mbox_conf_perm"
  top: "conv4_3_norm_mbox_conf_flat"
  flatten_param {
    axis: 1
  }
}
layer {
  name: "conv4_3_norm_mbox_priorbox"
  type: "PriorBox"
  bottom: "conv4_3_norm"
  bottom: "data"
  top: "conv4_3_norm_mbox_priorbox"
  prior_box_param {
    min_size: 30
    max_size: 60
    aspect_ratio: 2
    flip: true
    clip: false
    variance: 0.1
    variance: 0.1
    variance: 0.2
    variance: 0.2
    step: 8
    offset: 0.5
  }
}
layer {
  name: "fc7_mbox_loc"
  type: "Convolution"
  bottom: "fc7"
  top: "fc7_mbox_loc"
  param {
    lr_mult: 1
    decay_mult: 1
  }
  param {
    lr_mult: 2
    decay_mult: 0
  }
  convolution_param {
    num_output: 24
    pad: 1
    kernel_size: 3
    stride: 1
    weight_filler {
      type: "xavier"
    }
    bias_filler {
      type: "constant"
      value: 0
    }
  }
}
layer {
  name: "fc7_mbox_loc_perm"
  type: "Permute"
  bottom: "fc7_mbox_loc"
  top: "fc7_mbox_loc_perm"
  permute_param {
    order: 0
    order: 2
    order: 3
    order: 1
  }
}
layer {
  name: "fc7_mbox_loc_flat"
  type: "Flatten"
  bottom: "fc7_mbox_loc_perm"
  top: "fc7_mbox_loc_flat"
  flatten_param {
    axis: 1
  }
}
layer {
  name: "fc7_mbox_conf"
  type: "Convolution"
  bottom: "fc7"
  top: "fc7_mbox_conf"
  param {
    lr_mult: 1
    decay_mult: 1
  }
  param {
    lr_mult: 2
    decay_mult: 0
  }
  convolution_param {
    num_output: 132
    pad: 1
    kernel_size: 3
    stride: 1
    weight_filler {
      type: "xavier"
    }
    bias_filler {
      type: "constant"
      value: 0
    }
  }
}
layer {
  name: "fc7_mbox_conf_perm"
  type: "Permute"
  bottom: "fc7_mbox_conf"
  top: "fc7_mbox_conf_perm"
  permute_param {
    order: 0
    order: 2
    order: 3
    order: 1
  }
}
layer {
  name: "fc7_mbox_conf_flat"
  type: "Flatten"
  bottom: "fc7_mbox_conf_perm"
  top: "fc7_mbox_conf_flat"
  flatten_param {
    axis: 1
  }
}
layer {
  name: "fc7_mbox_priorbox"
  type: "PriorBox"
  bottom: "fc7"
  bottom: "data"
  top: "fc7_mbox_priorbox"
  prior_box_param {
    min_size: 60
    max_size: 111
    aspect_ratio: 2
    aspect_ratio: 3
    flip: true
    clip: false
    variance: 0.1
    variance: 0.1
    variance: 0.2
    variance: 0.2
    step: 16
    offset: 0.5
  }
}
layer {
  name: "conv6_2_mbox_loc"
  type: "Convolution"
  bottom: "conv6_2"
  top: "conv6_2_mbox_loc"
  param {
    lr_mult: 1
    decay_mult: 1
  }
  param {
    lr_mult: 2
    decay_mult: 0
  }
  convolution_param {
    num_output: 24
    pad: 1
    kernel_size: 3
    stride: 1
    weight_filler {
      type: "xavier"
    }
    bias_filler {
      type: "constant"
      value: 0
    }
  }
}
layer {
  name: "conv6_2_mbox_loc_perm"
  type: "Permute"
  bottom: "conv6_2_mbox_loc"
  top: "conv6_2_mbox_loc_perm"
  permute_param {
    order: 0
    order: 2
    order: 3
    order: 1
  }
}
layer {
  name: "conv6_2_mbox_loc_flat"
  type: "Flatten"
  bottom: "conv6_2_mbox_loc_perm"
  top: "conv6_2_mbox_loc_flat"
  flatten_param {
    axis: 1
  }
}
layer {
  name: "conv6_2_mbox_conf"
  type: "Convolution"
  bottom: "conv6_2"
  top: "conv6_2_mbox_conf"
  param {
    lr_mult: 1
    decay_mult: 1
  }
  param {
    lr_mult: 2
    decay_mult: 0
  }
  convolution_param {
    num_output: 132
    pad: 1
    kernel_size: 3
    stride: 1
    weight_filler {
      type: "xavier"
    }
    bias_filler {
      type: "constant"
      value: 0
    }
  }
}
layer {
  name: "conv6_2_mbox_conf_perm"
  type: "Permute"
  bottom: "conv6_2_mbox_conf"
  top: "conv6_2_mbox_conf_perm"
  permute_param {
    order: 0
    order: 2
    order: 3
    order: 1
  }
}
layer {
  name: "conv6_2_mbox_conf_flat"
  type: "Flatten"
  bottom: "conv6_2_mbox_conf_perm"
  top: "conv6_2_mbox_conf_flat"
  flatten_param {
    axis: 1
  }
}
layer {
  name: "conv6_2_mbox_priorbox"
  type: "PriorBox"
  bottom: "conv6_2"
  bottom: "data"
  top: "conv6_2_mbox_priorbox"
  prior_box_param {
    min_size: 111
    max_size: 162
    aspect_ratio: 2
    aspect_ratio: 3
    flip: true
    clip: false
    variance: 0.1
    variance: 0.1
    variance: 0.2
    variance: 0.2
    step: 32
    offset: 0.5
  }
}
layer {
  name: "conv7_2_mbox_loc"
  type: "Convolution"
  bottom: "conv7_2"
  top: "conv7_2_mbox_loc"
  param {
    lr_mult: 1
    decay_mult: 1
  }
  param {
    lr_mult: 2
    decay_mult: 0
  }
  convolution_param {
    num_output: 24
    pad: 1
    kernel_size: 3
    stride: 1
    weight_filler {
      type: "xavier"
    }
    bias_filler {
      type: "constant"
      value: 0
    }
  }
}
layer {
  name: "conv7_2_mbox_loc_perm"
  type: "Permute"
  bottom: "conv7_2_mbox_loc"
  top: "conv7_2_mbox_loc_perm"
  permute_param {
    order: 0
    order: 2
    order: 3
    order: 1
  }
}
layer {
  name: "conv7_2_mbox_loc_flat"
  type: "Flatten"
  bottom: "conv7_2_mbox_loc_perm"
  top: "conv7_2_mbox_loc_flat"
  flatten_param {
    axis: 1
  }
}
layer {
  name: "conv7_2_mbox_conf"
  type: "Convolution"
  bottom: "conv7_2"
  top: "conv7_2_mbox_conf"
  param {
    lr_mult: 1
    decay_mult: 1
  }
  param {
    lr_mult: 2
    decay_mult: 0
  }
  convolution_param {
    num_output: 132
    pad: 1
    kernel_size: 3
    stride: 1
    weight_filler {
      type: "xavier"
    }
    bias_filler {
      type: "constant"
      value: 0
    }
  }
}
layer {
  name: "conv7_2_mbox_conf_perm"
  type: "Permute"
  bottom: "conv7_2_mbox_conf"
  top: "conv7_2_mbox_conf_perm"
  permute_param {
    order: 0
    order: 2
    order: 3
    order: 1
  }
}
layer {
  name: "conv7_2_mbox_conf_flat"
  type: "Flatten"
  bottom: "conv7_2_mbox_conf_perm"
  top: "conv7_2_mbox_conf_flat"
  flatten_param {
    axis: 1
  }
}
layer {
  name: "conv7_2_mbox_priorbox"
  type: "PriorBox"
  bottom: "conv7_2"
  bottom: "data"
  top: "conv7_2_mbox_priorbox"
  prior_box_param {
    min_size: 162
    max_size: 213
    aspect_ratio: 2
    aspect_ratio: 3
    flip: true
    clip: false
    variance: 0.1
    variance: 0.1
    variance: 0.2
    variance: 0.2
    step: 64
    offset: 0.5
  }
}
layer {
  name: "conv8_2_mbox_loc"
  type: "Convolution"
  bottom: "conv8_2"
  top: "conv8_2_mbox_loc"
  param {
    lr_mult: 1
    decay_mult: 1
  }
  param {
    lr_mult: 2
    decay_mult: 0
  }
  convolution_param {
    num_output: 16
    pad: 1
    kernel_size: 3
    stride: 1
    weight_filler {
      type: "xavier"
    }
    bias_filler {
      type: "constant"
      value: 0
    }
  }
}
layer {
  name: "conv8_2_mbox_loc_perm"
  type: "Permute"
  bottom: "conv8_2_mbox_loc"
  top: "conv8_2_mbox_loc_perm"
  permute_param {
    order: 0
    order: 2
    order: 3
    order: 1
  }
}
layer {
  name: "conv8_2_mbox_loc_flat"
  type: "Flatten"
  bottom: "conv8_2_mbox_loc_perm"
  top: "conv8_2_mbox_loc_flat"
  flatten_param {
    axis: 1
  }
}
layer {
  name: "conv8_2_mbox_conf"
  type: "Convolution"
  bottom: "conv8_2"
  top: "conv8_2_mbox_conf"
  param {
    lr_mult: 1
    decay_mult: 1
  }
  param {
    lr_mult: 2
    decay_mult: 0
  }
  convolution_param {
    num_output: 88
    pad: 1
    kernel_size: 3
    stride: 1
    weight_filler {
      type: "xavier"
    }
    bias_filler {
      type: "constant"
      value: 0
    }
  }
}
layer {
  name: "conv8_2_mbox_conf_perm"
  type: "Permute"
  bottom: "conv8_2_mbox_conf"
  top: "conv8_2_mbox_conf_perm"
  permute_param {
    order: 0
    order: 2
    order: 3
    order: 1
  }
}
layer {
  name: "conv8_2_mbox_conf_flat"
  type: "Flatten"
  bottom: "conv8_2_mbox_conf_perm"
  top: "conv8_2_mbox_conf_flat"
  flatten_param {
    axis: 1
  }
}
layer {
  name: "conv8_2_mbox_priorbox"
  type: "PriorBox"
  bottom: "conv8_2"
  bottom: "data"
  top: "conv8_2_mbox_priorbox"
  prior_box_param {
    min_size: 213
    max_size: 264
    aspect_ratio: 2
    flip: true
    clip: false
    variance: 0.1
    variance: 0.1
    variance: 0.2
    variance: 0.2
    step: 100
    offset: 0.5
  }
}
layer {
  name: "conv9_2_mbox_loc"
  type: "Convolution"
  bottom: "conv9_2"
  top: "conv9_2_mbox_loc"
  param {
    lr_mult: 1
    decay_mult: 1
  }
  param {
    lr_mult: 2
    decay_mult: 0
  }
  convolution_param {
    num_output: 16
    pad: 1
    kernel_size: 3
    stride: 1
    weight_filler {
      type: "xavier"
    }
    bias_filler {
      type: "constant"
      value: 0
    }
  }
}
layer {
  name: "conv9_2_mbox_loc_perm"
  type: "Permute"
  bottom: "conv9_2_mbox_loc"
  top: "conv9_2_mbox_loc_perm"
  permute_param {
    order: 0
    order: 2
    order: 3
    order: 1
  }
}
layer {
  name: "conv9_2_mbox_loc_flat"
  type: "Flatten"
  bottom: "conv9_2_mbox_loc_perm"
  top: "conv9_2_mbox_loc_flat"
  flatten_param {
    axis: 1
  }
}
layer {
  name: "conv9_2_mbox_conf"
  type: "Convolution"
  bottom: "conv9_2"
  top: "conv9_2_mbox_conf"
  param {
    lr_mult: 1
    decay_mult: 1
  }
  param {
    lr_mult: 2
    decay_mult: 0
  }
  convolution_param {
    num_output: 88
    pad: 1
    kernel_size: 3
    stride: 1
    weight_filler {
      type: "xavier"
    }
    bias_filler {
      type: "constant"
      value: 0
    }
  }
}
layer {
  name: "conv9_2_mbox_conf_perm"
  type: "Permute"
  bottom: "conv9_2_mbox_conf"
  top: "conv9_2_mbox_conf_perm"
  permute_param {
    order: 0
    order: 2
    order: 3
    order: 1
  }
}
layer {
  name: "conv9_2_mbox_conf_flat"
  type: "Flatten"
  bottom: "conv9_2_mbox_conf_perm"
  top: "conv9_2_mbox_conf_flat"
  flatten_param {
    axis: 1
  }
}
layer {
  name: "conv9_2_mbox_priorbox"
  type: "PriorBox"
  bottom: "conv9_2"
  bottom: "data"
  top: "conv9_2_mbox_priorbox"
  prior_box_param {
    min_size: 264
    max_size: 315
    aspect_ratio: 2
    flip: true
    clip: false
    variance: 0.1
    variance: 0.1
    variance: 0.2
    variance: 0.2
    step: 300
    offset: 0.5
  }
}
layer {
  name: "mbox_loc"
  type: "Concat"
  bottom: "conv4_3_norm_mbox_loc_flat"
  bottom: "fc7_mbox_loc_flat"
  bottom: "conv6_2_mbox_loc_flat"
  bottom: "conv7_2_mbox_loc_flat"
  bottom: "conv8_2_mbox_loc_flat"
  bottom: "conv9_2_mbox_loc_flat"
  top: "mbox_loc"
  concat_param {
    axis: 1
  }
}
layer {
  name: "mbox_conf"
  type: "Concat"
  bottom: "conv4_3_norm_mbox_conf_flat"
  bottom: "fc7_mbox_conf_flat"
  bottom: "conv6_2_mbox_conf_flat"
  bottom: "conv7_2_mbox_conf_flat"
  bottom: "conv8_2_mbox_conf_flat"
  bottom: "conv9_2_mbox_conf_flat"
  top: "mbox_conf"
  concat_param {
    axis: 1
  }
}
layer {
  name: "mbox_priorbox"
  type: "Concat"
  bottom: "conv4_3_norm_mbox_priorbox"
  bottom: "fc7_mbox_priorbox"
  bottom: "conv6_2_mbox_priorbox"
  bottom: "conv7_2_mbox_priorbox"
  bottom: "conv8_2_mbox_priorbox"
  bottom: "conv9_2_mbox_priorbox"
  top: "mbox_priorbox"
  concat_param {
    axis: 2
  }
}
layer {
  name: "mbox_loss"
  type: "MultiBoxLoss"
  bottom: "mbox_loc"
  bottom: "mbox_conf"
  bottom: "mbox_priorbox"
  bottom: "label"
  top: "mbox_loss"
  include {
    phase: TRAIN
  }
  propagate_down: true
  propagate_down: true
  propagate_down: false
  propagate_down: false
  loss_param {
    normalization: VALID
  }
  multibox_loss_param {
    loc_loss_type: SMOOTH_L1
    conf_loss_type: SOFTMAX
    loc_weight: 1
    num_classes: 22
    share_location: true
    match_type: PER_PREDICTION
    overlap_threshold: 0.5
    use_prior_for_matching: true
    background_label_id: 0
    use_difficult_gt: true
    neg_pos_ratio: 3
    neg_overlap: 0.5
    code_type: CENTER_SIZE
    ignore_cross_boundary_bbox: false
    mining_type: MAX_NEGATIVE
  }
}
I0213 12:44:22.016855  7113 layer_factory.hpp:77] Creating layer data
I0213 12:44:22.017526  7113 net.cpp:100] Creating Layer data
I0213 12:44:22.017552  7113 net.cpp:408] data -> data
I0213 12:44:22.017629  7113 net.cpp:408] data -> label
I0213 12:44:22.019182  7129 db_lmdb.cpp:35] Opened lmdb examples/VOC0712/VOC0712_trainval_lmdb
I0213 12:44:22.038985  7113 annotated_data_layer.cpp:62] output data size: 28,4,300,300
I0213 12:44:22.098156  7113 net.cpp:150] Setting up data
I0213 12:44:22.098194  7113 net.cpp:157] Top shape: 28 4 300 300 (10080000)
I0213 12:44:22.098201  7113 net.cpp:157] Top shape: 1 1 2 8 (16)
I0213 12:44:22.098206  7113 net.cpp:165] Memory required for data: 40320064
I0213 12:44:22.098217  7113 layer_factory.hpp:77] Creating layer data_data_0_split
I0213 12:44:22.098239  7113 net.cpp:100] Creating Layer data_data_0_split
I0213 12:44:22.098245  7113 net.cpp:434] data_data_0_split <- data
I0213 12:44:22.098259  7113 net.cpp:408] data_data_0_split -> data_data_0_split_0
I0213 12:44:22.098279  7113 net.cpp:408] data_data_0_split -> data_data_0_split_1
I0213 12:44:22.098285  7113 net.cpp:408] data_data_0_split -> data_data_0_split_2
I0213 12:44:22.098292  7113 net.cpp:408] data_data_0_split -> data_data_0_split_3
I0213 12:44:22.098297  7113 net.cpp:408] data_data_0_split -> data_data_0_split_4
I0213 12:44:22.098302  7113 net.cpp:408] data_data_0_split -> data_data_0_split_5
I0213 12:44:22.098307  7113 net.cpp:408] data_data_0_split -> data_data_0_split_6
I0213 12:44:22.098433  7113 net.cpp:150] Setting up data_data_0_split
I0213 12:44:22.098445  7113 net.cpp:157] Top shape: 28 4 300 300 (10080000)
I0213 12:44:22.098450  7113 net.cpp:157] Top shape: 28 4 300 300 (10080000)
I0213 12:44:22.098455  7113 net.cpp:157] Top shape: 28 4 300 300 (10080000)
I0213 12:44:22.098460  7113 net.cpp:157] Top shape: 28 4 300 300 (10080000)
I0213 12:44:22.098464  7113 net.cpp:157] Top shape: 28 4 300 300 (10080000)
I0213 12:44:22.098469  7113 net.cpp:157] Top shape: 28 4 300 300 (10080000)
I0213 12:44:22.098472  7113 net.cpp:157] Top shape: 28 4 300 300 (10080000)
I0213 12:44:22.098476  7113 net.cpp:165] Memory required for data: 322560064
I0213 12:44:22.098480  7113 layer_factory.hpp:77] Creating layer conv1_1_rgbd
I0213 12:44:22.098498  7113 net.cpp:100] Creating Layer conv1_1_rgbd
I0213 12:44:22.098505  7113 net.cpp:434] conv1_1_rgbd <- data_data_0_split_0
I0213 12:44:22.098510  7113 net.cpp:408] conv1_1_rgbd -> conv1_1_rgbd
I0213 12:44:22.285048  7113 net.cpp:150] Setting up conv1_1_rgbd
I0213 12:44:22.285090  7113 net.cpp:157] Top shape: 28 64 300 300 (161280000)
I0213 12:44:22.285099  7113 net.cpp:165] Memory required for data: 967680064
I0213 12:44:22.285125  7113 layer_factory.hpp:77] Creating layer relu1_1
I0213 12:44:22.285142  7113 net.cpp:100] Creating Layer relu1_1
I0213 12:44:22.285151  7113 net.cpp:434] relu1_1 <- conv1_1_rgbd
I0213 12:44:22.285161  7113 net.cpp:395] relu1_1 -> conv1_1_rgbd (in-place)
I0213 12:44:22.285581  7113 net.cpp:150] Setting up relu1_1
I0213 12:44:22.285601  7113 net.cpp:157] Top shape: 28 64 300 300 (161280000)
I0213 12:44:22.285609  7113 net.cpp:165] Memory required for data: 1612800064
I0213 12:44:22.285615  7113 layer_factory.hpp:77] Creating layer conv1_2
I0213 12:44:22.285635  7113 net.cpp:100] Creating Layer conv1_2
I0213 12:44:22.285643  7113 net.cpp:434] conv1_2 <- conv1_1_rgbd
I0213 12:44:22.285653  7113 net.cpp:408] conv1_2 -> conv1_2
I0213 12:44:22.288049  7113 net.cpp:150] Setting up conv1_2
I0213 12:44:22.288071  7113 net.cpp:157] Top shape: 28 64 300 300 (161280000)
I0213 12:44:22.288079  7113 net.cpp:165] Memory required for data: 2257920064
I0213 12:44:22.288094  7113 layer_factory.hpp:77] Creating layer relu1_2
I0213 12:44:22.288105  7113 net.cpp:100] Creating Layer relu1_2
I0213 12:44:22.288111  7113 net.cpp:434] relu1_2 <- conv1_2
I0213 12:44:22.288120  7113 net.cpp:395] relu1_2 -> conv1_2 (in-place)
I0213 12:44:22.288501  7113 net.cpp:150] Setting up relu1_2
I0213 12:44:22.288522  7113 net.cpp:157] Top shape: 28 64 300 300 (161280000)
I0213 12:44:22.288528  7113 net.cpp:165] Memory required for data: 2903040064
I0213 12:44:22.288534  7113 layer_factory.hpp:77] Creating layer pool1
I0213 12:44:22.288547  7113 net.cpp:100] Creating Layer pool1
I0213 12:44:22.288553  7113 net.cpp:434] pool1 <- conv1_2
I0213 12:44:22.288563  7113 net.cpp:408] pool1 -> pool1
I0213 12:44:22.288631  7113 net.cpp:150] Setting up pool1
I0213 12:44:22.288645  7113 net.cpp:157] Top shape: 28 64 150 150 (40320000)
I0213 12:44:22.288677  7113 net.cpp:165] Memory required for data: 3064320064
I0213 12:44:22.288684  7113 layer_factory.hpp:77] Creating layer conv2_1
I0213 12:44:22.288698  7113 net.cpp:100] Creating Layer conv2_1
I0213 12:44:22.288705  7113 net.cpp:434] conv2_1 <- pool1
I0213 12:44:22.288715  7113 net.cpp:408] conv2_1 -> conv2_1
I0213 12:44:22.290956  7113 net.cpp:150] Setting up conv2_1
I0213 12:44:22.290977  7113 net.cpp:157] Top shape: 28 128 150 150 (80640000)
I0213 12:44:22.290983  7113 net.cpp:165] Memory required for data: 3386880064
I0213 12:44:22.290998  7113 layer_factory.hpp:77] Creating layer relu2_1
I0213 12:44:22.291010  7113 net.cpp:100] Creating Layer relu2_1
I0213 12:44:22.291018  7113 net.cpp:434] relu2_1 <- conv2_1
I0213 12:44:22.291025  7113 net.cpp:395] relu2_1 -> conv2_1 (in-place)
I0213 12:44:22.291290  7113 net.cpp:150] Setting up relu2_1
I0213 12:44:22.291307  7113 net.cpp:157] Top shape: 28 128 150 150 (80640000)
I0213 12:44:22.291314  7113 net.cpp:165] Memory required for data: 3709440064
I0213 12:44:22.291321  7113 layer_factory.hpp:77] Creating layer conv2_2
I0213 12:44:22.291335  7113 net.cpp:100] Creating Layer conv2_2
I0213 12:44:22.291342  7113 net.cpp:434] conv2_2 <- conv2_1
I0213 12:44:22.291352  7113 net.cpp:408] conv2_2 -> conv2_2
I0213 12:44:22.294860  7113 net.cpp:150] Setting up conv2_2
I0213 12:44:22.294883  7113 net.cpp:157] Top shape: 28 128 150 150 (80640000)
I0213 12:44:22.294889  7113 net.cpp:165] Memory required for data: 4032000064
I0213 12:44:22.294900  7113 layer_factory.hpp:77] Creating layer relu2_2
I0213 12:44:22.294911  7113 net.cpp:100] Creating Layer relu2_2
I0213 12:44:22.294919  7113 net.cpp:434] relu2_2 <- conv2_2
I0213 12:44:22.294927  7113 net.cpp:395] relu2_2 -> conv2_2 (in-place)
I0213 12:44:22.295315  7113 net.cpp:150] Setting up relu2_2
I0213 12:44:22.295334  7113 net.cpp:157] Top shape: 28 128 150 150 (80640000)
I0213 12:44:22.295341  7113 net.cpp:165] Memory required for data: 4354560064
I0213 12:44:22.295347  7113 layer_factory.hpp:77] Creating layer pool2
I0213 12:44:22.295358  7113 net.cpp:100] Creating Layer pool2
I0213 12:44:22.295372  7113 net.cpp:434] pool2 <- conv2_2
I0213 12:44:22.295380  7113 net.cpp:408] pool2 -> pool2
I0213 12:44:22.295439  7113 net.cpp:150] Setting up pool2
I0213 12:44:22.295451  7113 net.cpp:157] Top shape: 28 128 75 75 (20160000)
I0213 12:44:22.295459  7113 net.cpp:165] Memory required for data: 4435200064
I0213 12:44:22.295469  7113 layer_factory.hpp:77] Creating layer conv3_1
I0213 12:44:22.295481  7113 net.cpp:100] Creating Layer conv3_1
I0213 12:44:22.295488  7113 net.cpp:434] conv3_1 <- pool2
I0213 12:44:22.295497  7113 net.cpp:408] conv3_1 -> conv3_1
I0213 12:44:22.300837  7113 net.cpp:150] Setting up conv3_1
I0213 12:44:22.300868  7113 net.cpp:157] Top shape: 28 256 75 75 (40320000)
I0213 12:44:22.300875  7113 net.cpp:165] Memory required for data: 4596480064
I0213 12:44:22.300897  7113 layer_factory.hpp:77] Creating layer relu3_1
I0213 12:44:22.300938  7113 net.cpp:100] Creating Layer relu3_1
I0213 12:44:22.300966  7113 net.cpp:434] relu3_1 <- conv3_1
I0213 12:44:22.300993  7113 net.cpp:395] relu3_1 -> conv3_1 (in-place)
I0213 12:44:22.301347  7113 net.cpp:150] Setting up relu3_1
I0213 12:44:22.301364  7113 net.cpp:157] Top shape: 28 256 75 75 (40320000)
I0213 12:44:22.301372  7113 net.cpp:165] Memory required for data: 4757760064
I0213 12:44:22.301378  7113 layer_factory.hpp:77] Creating layer conv3_2
I0213 12:44:22.301400  7113 net.cpp:100] Creating Layer conv3_2
I0213 12:44:22.301409  7113 net.cpp:434] conv3_2 <- conv3_1
I0213 12:44:22.301421  7113 net.cpp:408] conv3_2 -> conv3_2
I0213 12:44:22.307864  7113 net.cpp:150] Setting up conv3_2
I0213 12:44:22.307886  7113 net.cpp:157] Top shape: 28 256 75 75 (40320000)
I0213 12:44:22.307894  7113 net.cpp:165] Memory required for data: 4919040064
I0213 12:44:22.307906  7113 layer_factory.hpp:77] Creating layer relu3_2
I0213 12:44:22.307940  7113 net.cpp:100] Creating Layer relu3_2
I0213 12:44:22.307950  7113 net.cpp:434] relu3_2 <- conv3_2
I0213 12:44:22.307981  7113 net.cpp:395] relu3_2 -> conv3_2 (in-place)
I0213 12:44:22.308189  7113 net.cpp:150] Setting up relu3_2
I0213 12:44:22.308205  7113 net.cpp:157] Top shape: 28 256 75 75 (40320000)
I0213 12:44:22.308212  7113 net.cpp:165] Memory required for data: 5080320064
I0213 12:44:22.308223  7113 layer_factory.hpp:77] Creating layer conv3_3
I0213 12:44:22.308241  7113 net.cpp:100] Creating Layer conv3_3
I0213 12:44:22.308245  7113 net.cpp:434] conv3_3 <- conv3_2
I0213 12:44:22.308254  7113 net.cpp:408] conv3_3 -> conv3_3
I0213 12:44:22.314390  7113 net.cpp:150] Setting up conv3_3
I0213 12:44:22.314409  7113 net.cpp:157] Top shape: 28 256 75 75 (40320000)
I0213 12:44:22.314412  7113 net.cpp:165] Memory required for data: 5241600064
I0213 12:44:22.314420  7113 layer_factory.hpp:77] Creating layer relu3_3
I0213 12:44:22.314427  7113 net.cpp:100] Creating Layer relu3_3
I0213 12:44:22.314431  7113 net.cpp:434] relu3_3 <- conv3_3
I0213 12:44:22.314438  7113 net.cpp:395] relu3_3 -> conv3_3 (in-place)
I0213 12:44:22.314759  7113 net.cpp:150] Setting up relu3_3
I0213 12:44:22.314774  7113 net.cpp:157] Top shape: 28 256 75 75 (40320000)
I0213 12:44:22.314779  7113 net.cpp:165] Memory required for data: 5402880064
I0213 12:44:22.314782  7113 layer_factory.hpp:77] Creating layer pool3
I0213 12:44:22.314792  7113 net.cpp:100] Creating Layer pool3
I0213 12:44:22.314798  7113 net.cpp:434] pool3 <- conv3_3
I0213 12:44:22.314805  7113 net.cpp:408] pool3 -> pool3
I0213 12:44:22.314858  7113 net.cpp:150] Setting up pool3
I0213 12:44:22.314867  7113 net.cpp:157] Top shape: 28 256 38 38 (10350592)
I0213 12:44:22.314870  7113 net.cpp:165] Memory required for data: 5444282432
I0213 12:44:22.314874  7113 layer_factory.hpp:77] Creating layer conv4_1
I0213 12:44:22.314884  7113 net.cpp:100] Creating Layer conv4_1
I0213 12:44:22.314888  7113 net.cpp:434] conv4_1 <- pool3
I0213 12:44:22.314895  7113 net.cpp:408] conv4_1 -> conv4_1
I0213 12:44:22.331532  7113 net.cpp:150] Setting up conv4_1
I0213 12:44:22.331575  7113 net.cpp:157] Top shape: 28 512 38 38 (20701184)
I0213 12:44:22.331583  7113 net.cpp:165] Memory required for data: 5527087168
I0213 12:44:22.331598  7113 layer_factory.hpp:77] Creating layer relu4_1
I0213 12:44:22.331615  7113 net.cpp:100] Creating Layer relu4_1
I0213 12:44:22.331624  7113 net.cpp:434] relu4_1 <- conv4_1
I0213 12:44:22.331635  7113 net.cpp:395] relu4_1 -> conv4_1 (in-place)
I0213 12:44:22.332051  7113 net.cpp:150] Setting up relu4_1
I0213 12:44:22.332073  7113 net.cpp:157] Top shape: 28 512 38 38 (20701184)
I0213 12:44:22.332083  7113 net.cpp:165] Memory required for data: 5609891904
I0213 12:44:22.332089  7113 layer_factory.hpp:77] Creating layer conv4_2
I0213 12:44:22.332108  7113 net.cpp:100] Creating Layer conv4_2
I0213 12:44:22.332120  7113 net.cpp:434] conv4_2 <- conv4_1
I0213 12:44:22.332134  7113 net.cpp:408] conv4_2 -> conv4_2
I0213 12:44:22.354764  7113 net.cpp:150] Setting up conv4_2
I0213 12:44:22.354797  7113 net.cpp:157] Top shape: 28 512 38 38 (20701184)
I0213 12:44:22.354804  7113 net.cpp:165] Memory required for data: 5692696640
I0213 12:44:22.354817  7113 layer_factory.hpp:77] Creating layer relu4_2
I0213 12:44:22.354830  7113 net.cpp:100] Creating Layer relu4_2
I0213 12:44:22.354835  7113 net.cpp:434] relu4_2 <- conv4_2
I0213 12:44:22.354845  7113 net.cpp:395] relu4_2 -> conv4_2 (in-place)
I0213 12:44:22.355022  7113 net.cpp:150] Setting up relu4_2
I0213 12:44:22.355034  7113 net.cpp:157] Top shape: 28 512 38 38 (20701184)
I0213 12:44:22.355038  7113 net.cpp:165] Memory required for data: 5775501376
I0213 12:44:22.355041  7113 layer_factory.hpp:77] Creating layer conv4_3
I0213 12:44:22.355053  7113 net.cpp:100] Creating Layer conv4_3
I0213 12:44:22.355060  7113 net.cpp:434] conv4_3 <- conv4_2
I0213 12:44:22.355068  7113 net.cpp:408] conv4_3 -> conv4_3
I0213 12:44:22.377727  7113 net.cpp:150] Setting up conv4_3
I0213 12:44:22.377759  7113 net.cpp:157] Top shape: 28 512 38 38 (20701184)
I0213 12:44:22.377764  7113 net.cpp:165] Memory required for data: 5858306112
I0213 12:44:22.377774  7113 layer_factory.hpp:77] Creating layer relu4_3
I0213 12:44:22.377805  7113 net.cpp:100] Creating Layer relu4_3
I0213 12:44:22.377817  7113 net.cpp:434] relu4_3 <- conv4_3
I0213 12:44:22.377825  7113 net.cpp:395] relu4_3 -> conv4_3 (in-place)
I0213 12:44:22.378142  7113 net.cpp:150] Setting up relu4_3
I0213 12:44:22.378157  7113 net.cpp:157] Top shape: 28 512 38 38 (20701184)
I0213 12:44:22.378162  7113 net.cpp:165] Memory required for data: 5941110848
I0213 12:44:22.378167  7113 layer_factory.hpp:77] Creating layer conv4_3_relu4_3_0_split
I0213 12:44:22.378175  7113 net.cpp:100] Creating Layer conv4_3_relu4_3_0_split
I0213 12:44:22.378182  7113 net.cpp:434] conv4_3_relu4_3_0_split <- conv4_3
I0213 12:44:22.378190  7113 net.cpp:408] conv4_3_relu4_3_0_split -> conv4_3_relu4_3_0_split_0
I0213 12:44:22.378197  7113 net.cpp:408] conv4_3_relu4_3_0_split -> conv4_3_relu4_3_0_split_1
I0213 12:44:22.378243  7113 net.cpp:150] Setting up conv4_3_relu4_3_0_split
I0213 12:44:22.378252  7113 net.cpp:157] Top shape: 28 512 38 38 (20701184)
I0213 12:44:22.378257  7113 net.cpp:157] Top shape: 28 512 38 38 (20701184)
I0213 12:44:22.378260  7113 net.cpp:165] Memory required for data: 6106720320
I0213 12:44:22.378263  7113 layer_factory.hpp:77] Creating layer pool4
I0213 12:44:22.378270  7113 net.cpp:100] Creating Layer pool4
I0213 12:44:22.378274  7113 net.cpp:434] pool4 <- conv4_3_relu4_3_0_split_0
I0213 12:44:22.378281  7113 net.cpp:408] pool4 -> pool4
I0213 12:44:22.378321  7113 net.cpp:150] Setting up pool4
I0213 12:44:22.378329  7113 net.cpp:157] Top shape: 28 512 19 19 (5175296)
I0213 12:44:22.378332  7113 net.cpp:165] Memory required for data: 6127421504
I0213 12:44:22.378335  7113 layer_factory.hpp:77] Creating layer conv5_1
I0213 12:44:22.378351  7113 net.cpp:100] Creating Layer conv5_1
I0213 12:44:22.378358  7113 net.cpp:434] conv5_1 <- pool4
I0213 12:44:22.378366  7113 net.cpp:408] conv5_1 -> conv5_1
I0213 12:44:22.405896  7113 net.cpp:150] Setting up conv5_1
I0213 12:44:22.405941  7113 net.cpp:157] Top shape: 28 512 19 19 (5175296)
I0213 12:44:22.405948  7113 net.cpp:165] Memory required for data: 6148122688
I0213 12:44:22.405964  7113 layer_factory.hpp:77] Creating layer relu5_1
I0213 12:44:22.405979  7113 net.cpp:100] Creating Layer relu5_1
I0213 12:44:22.405987  7113 net.cpp:434] relu5_1 <- conv5_1
I0213 12:44:22.406008  7113 net.cpp:395] relu5_1 -> conv5_1 (in-place)
I0213 12:44:22.406430  7113 net.cpp:150] Setting up relu5_1
I0213 12:44:22.406450  7113 net.cpp:157] Top shape: 28 512 19 19 (5175296)
I0213 12:44:22.406456  7113 net.cpp:165] Memory required for data: 6168823872
I0213 12:44:22.406463  7113 layer_factory.hpp:77] Creating layer conv5_2
I0213 12:44:22.406491  7113 net.cpp:100] Creating Layer conv5_2
I0213 12:44:22.406498  7113 net.cpp:434] conv5_2 <- conv5_1
I0213 12:44:22.406510  7113 net.cpp:408] conv5_2 -> conv5_2
I0213 12:44:22.429918  7113 net.cpp:150] Setting up conv5_2
I0213 12:44:22.429962  7113 net.cpp:157] Top shape: 28 512 19 19 (5175296)
I0213 12:44:22.429970  7113 net.cpp:165] Memory required for data: 6189525056
I0213 12:44:22.429985  7113 layer_factory.hpp:77] Creating layer relu5_2
I0213 12:44:22.429999  7113 net.cpp:100] Creating Layer relu5_2
I0213 12:44:22.430007  7113 net.cpp:434] relu5_2 <- conv5_2
I0213 12:44:22.430022  7113 net.cpp:395] relu5_2 -> conv5_2 (in-place)
I0213 12:44:22.430279  7113 net.cpp:150] Setting up relu5_2
I0213 12:44:22.430295  7113 net.cpp:157] Top shape: 28 512 19 19 (5175296)
I0213 12:44:22.430305  7113 net.cpp:165] Memory required for data: 6210226240
I0213 12:44:22.430310  7113 layer_factory.hpp:77] Creating layer conv5_3
I0213 12:44:22.430330  7113 net.cpp:100] Creating Layer conv5_3
I0213 12:44:22.430337  7113 net.cpp:434] conv5_3 <- conv5_2
I0213 12:44:22.430354  7113 net.cpp:408] conv5_3 -> conv5_3
I0213 12:44:22.457025  7113 net.cpp:150] Setting up conv5_3
I0213 12:44:22.457059  7113 net.cpp:157] Top shape: 28 512 19 19 (5175296)
I0213 12:44:22.457064  7113 net.cpp:165] Memory required for data: 6230927424
I0213 12:44:22.457073  7113 layer_factory.hpp:77] Creating layer relu5_3
I0213 12:44:22.457109  7113 net.cpp:100] Creating Layer relu5_3
I0213 12:44:22.457116  7113 net.cpp:434] relu5_3 <- conv5_3
I0213 12:44:22.457125  7113 net.cpp:395] relu5_3 -> conv5_3 (in-place)
I0213 12:44:22.457445  7113 net.cpp:150] Setting up relu5_3
I0213 12:44:22.457460  7113 net.cpp:157] Top shape: 28 512 19 19 (5175296)
I0213 12:44:22.457464  7113 net.cpp:165] Memory required for data: 6251628608
I0213 12:44:22.457468  7113 layer_factory.hpp:77] Creating layer pool5
I0213 12:44:22.457478  7113 net.cpp:100] Creating Layer pool5
I0213 12:44:22.457484  7113 net.cpp:434] pool5 <- conv5_3
I0213 12:44:22.457490  7113 net.cpp:408] pool5 -> pool5
I0213 12:44:22.457540  7113 net.cpp:150] Setting up pool5
I0213 12:44:22.457548  7113 net.cpp:157] Top shape: 28 512 19 19 (5175296)
I0213 12:44:22.457552  7113 net.cpp:165] Memory required for data: 6272329792
I0213 12:44:22.457556  7113 layer_factory.hpp:77] Creating layer fc6
I0213 12:44:22.457567  7113 net.cpp:100] Creating Layer fc6
I0213 12:44:22.457573  7113 net.cpp:434] fc6 <- pool5
I0213 12:44:22.457581  7113 net.cpp:408] fc6 -> fc6
I0213 12:44:22.504935  7113 net.cpp:150] Setting up fc6
I0213 12:44:22.504979  7113 net.cpp:157] Top shape: 28 1024 19 19 (10350592)
I0213 12:44:22.504987  7113 net.cpp:165] Memory required for data: 6313732160
I0213 12:44:22.505002  7113 layer_factory.hpp:77] Creating layer relu6
I0213 12:44:22.505017  7113 net.cpp:100] Creating Layer relu6
I0213 12:44:22.505025  7113 net.cpp:434] relu6 <- fc6
I0213 12:44:22.505038  7113 net.cpp:395] relu6 -> fc6 (in-place)
I0213 12:44:22.505374  7113 net.cpp:150] Setting up relu6
I0213 12:44:22.505393  7113 net.cpp:157] Top shape: 28 1024 19 19 (10350592)
I0213 12:44:22.505399  7113 net.cpp:165] Memory required for data: 6355134528
I0213 12:44:22.505405  7113 layer_factory.hpp:77] Creating layer fc7
I0213 12:44:22.505424  7113 net.cpp:100] Creating Layer fc7
I0213 12:44:22.505430  7113 net.cpp:434] fc7 <- fc6
I0213 12:44:22.505441  7113 net.cpp:408] fc7 -> fc7
I0213 12:44:22.515641  7130 blocking_queue.cpp:50] Waiting for data
I0213 12:44:22.519372  7113 net.cpp:150] Setting up fc7
I0213 12:44:22.519407  7113 net.cpp:157] Top shape: 28 1024 19 19 (10350592)
I0213 12:44:22.519414  7113 net.cpp:165] Memory required for data: 6396536896
I0213 12:44:22.519428  7113 layer_factory.hpp:77] Creating layer relu7
I0213 12:44:22.519450  7113 net.cpp:100] Creating Layer relu7
I0213 12:44:22.519462  7113 net.cpp:434] relu7 <- fc7
I0213 12:44:22.519474  7113 net.cpp:395] relu7 -> fc7 (in-place)
I0213 12:44:22.519913  7113 net.cpp:150] Setting up relu7
I0213 12:44:22.519934  7113 net.cpp:157] Top shape: 28 1024 19 19 (10350592)
I0213 12:44:22.519942  7113 net.cpp:165] Memory required for data: 6437939264
I0213 12:44:22.519948  7113 layer_factory.hpp:77] Creating layer fc7_relu7_0_split
I0213 12:44:22.519960  7113 net.cpp:100] Creating Layer fc7_relu7_0_split
I0213 12:44:22.519968  7113 net.cpp:434] fc7_relu7_0_split <- fc7
I0213 12:44:22.519978  7113 net.cpp:408] fc7_relu7_0_split -> fc7_relu7_0_split_0
I0213 12:44:22.519994  7113 net.cpp:408] fc7_relu7_0_split -> fc7_relu7_0_split_1
I0213 12:44:22.520011  7113 net.cpp:408] fc7_relu7_0_split -> fc7_relu7_0_split_2
I0213 12:44:22.520021  7113 net.cpp:408] fc7_relu7_0_split -> fc7_relu7_0_split_3
I0213 12:44:22.520124  7113 net.cpp:150] Setting up fc7_relu7_0_split
I0213 12:44:22.520139  7113 net.cpp:157] Top shape: 28 1024 19 19 (10350592)
I0213 12:44:22.520151  7113 net.cpp:157] Top shape: 28 1024 19 19 (10350592)
I0213 12:44:22.520159  7113 net.cpp:157] Top shape: 28 1024 19 19 (10350592)
I0213 12:44:22.520166  7113 net.cpp:157] Top shape: 28 1024 19 19 (10350592)
I0213 12:44:22.520174  7113 net.cpp:165] Memory required for data: 6603548736
I0213 12:44:22.520180  7113 layer_factory.hpp:77] Creating layer conv6_1
I0213 12:44:22.520200  7113 net.cpp:100] Creating Layer conv6_1
I0213 12:44:22.520206  7113 net.cpp:434] conv6_1 <- fc7_relu7_0_split_0
I0213 12:44:22.520220  7113 net.cpp:408] conv6_1 -> conv6_1
I0213 12:44:22.524993  7113 net.cpp:150] Setting up conv6_1
I0213 12:44:22.525034  7113 net.cpp:157] Top shape: 28 256 19 19 (2587648)
I0213 12:44:22.525043  7113 net.cpp:165] Memory required for data: 6613899328
I0213 12:44:22.525054  7113 layer_factory.hpp:77] Creating layer conv6_1_relu
I0213 12:44:22.525065  7113 net.cpp:100] Creating Layer conv6_1_relu
I0213 12:44:22.525073  7113 net.cpp:434] conv6_1_relu <- conv6_1
I0213 12:44:22.525084  7113 net.cpp:395] conv6_1_relu -> conv6_1 (in-place)
I0213 12:44:22.525522  7113 net.cpp:150] Setting up conv6_1_relu
I0213 12:44:22.525542  7113 net.cpp:157] Top shape: 28 256 19 19 (2587648)
I0213 12:44:22.525549  7113 net.cpp:165] Memory required for data: 6624249920
I0213 12:44:22.525557  7113 layer_factory.hpp:77] Creating layer conv6_2
I0213 12:44:22.525573  7113 net.cpp:100] Creating Layer conv6_2
I0213 12:44:22.525580  7113 net.cpp:434] conv6_2 <- conv6_1
I0213 12:44:22.525593  7113 net.cpp:408] conv6_2 -> conv6_2
I0213 12:44:22.538717  7113 net.cpp:150] Setting up conv6_2
I0213 12:44:22.538745  7113 net.cpp:157] Top shape: 28 512 10 10 (1433600)
I0213 12:44:22.538750  7113 net.cpp:165] Memory required for data: 6629984320
I0213 12:44:22.538769  7113 layer_factory.hpp:77] Creating layer conv6_2_relu
I0213 12:44:22.538779  7113 net.cpp:100] Creating Layer conv6_2_relu
I0213 12:44:22.538785  7113 net.cpp:434] conv6_2_relu <- conv6_2
I0213 12:44:22.538792  7113 net.cpp:395] conv6_2_relu -> conv6_2 (in-place)
I0213 12:44:22.538976  7113 net.cpp:150] Setting up conv6_2_relu
I0213 12:44:22.538987  7113 net.cpp:157] Top shape: 28 512 10 10 (1433600)
I0213 12:44:22.538995  7113 net.cpp:165] Memory required for data: 6635718720
I0213 12:44:22.538998  7113 layer_factory.hpp:77] Creating layer conv6_2_conv6_2_relu_0_split
I0213 12:44:22.539006  7113 net.cpp:100] Creating Layer conv6_2_conv6_2_relu_0_split
I0213 12:44:22.539011  7113 net.cpp:434] conv6_2_conv6_2_relu_0_split <- conv6_2
I0213 12:44:22.539016  7113 net.cpp:408] conv6_2_conv6_2_relu_0_split -> conv6_2_conv6_2_relu_0_split_0
I0213 12:44:22.539023  7113 net.cpp:408] conv6_2_conv6_2_relu_0_split -> conv6_2_conv6_2_relu_0_split_1
I0213 12:44:22.539029  7113 net.cpp:408] conv6_2_conv6_2_relu_0_split -> conv6_2_conv6_2_relu_0_split_2
I0213 12:44:22.539036  7113 net.cpp:408] conv6_2_conv6_2_relu_0_split -> conv6_2_conv6_2_relu_0_split_3
I0213 12:44:22.539109  7113 net.cpp:150] Setting up conv6_2_conv6_2_relu_0_split
I0213 12:44:22.539118  7113 net.cpp:157] Top shape: 28 512 10 10 (1433600)
I0213 12:44:22.539122  7113 net.cpp:157] Top shape: 28 512 10 10 (1433600)
I0213 12:44:22.539126  7113 net.cpp:157] Top shape: 28 512 10 10 (1433600)
I0213 12:44:22.539130  7113 net.cpp:157] Top shape: 28 512 10 10 (1433600)
I0213 12:44:22.539134  7113 net.cpp:165] Memory required for data: 6658656320
I0213 12:44:22.539136  7113 layer_factory.hpp:77] Creating layer conv7_1
I0213 12:44:22.539149  7113 net.cpp:100] Creating Layer conv7_1
I0213 12:44:22.539153  7113 net.cpp:434] conv7_1 <- conv6_2_conv6_2_relu_0_split_0
I0213 12:44:22.539161  7113 net.cpp:408] conv7_1 -> conv7_1
I0213 12:44:22.540724  7113 net.cpp:150] Setting up conv7_1
I0213 12:44:22.540740  7113 net.cpp:157] Top shape: 28 128 10 10 (358400)
I0213 12:44:22.540745  7113 net.cpp:165] Memory required for data: 6660089920
I0213 12:44:22.540751  7113 layer_factory.hpp:77] Creating layer conv7_1_relu
I0213 12:44:22.540760  7113 net.cpp:100] Creating Layer conv7_1_relu
I0213 12:44:22.540765  7113 net.cpp:434] conv7_1_relu <- conv7_1
I0213 12:44:22.540769  7113 net.cpp:395] conv7_1_relu -> conv7_1 (in-place)
I0213 12:44:22.541077  7113 net.cpp:150] Setting up conv7_1_relu
I0213 12:44:22.541091  7113 net.cpp:157] Top shape: 28 128 10 10 (358400)
I0213 12:44:22.541095  7113 net.cpp:165] Memory required for data: 6661523520
I0213 12:44:22.541100  7113 layer_factory.hpp:77] Creating layer conv7_2
I0213 12:44:22.541111  7113 net.cpp:100] Creating Layer conv7_2
I0213 12:44:22.541116  7113 net.cpp:434] conv7_2 <- conv7_1
I0213 12:44:22.541122  7113 net.cpp:408] conv7_2 -> conv7_2
I0213 12:44:22.544720  7113 net.cpp:150] Setting up conv7_2
I0213 12:44:22.544754  7113 net.cpp:157] Top shape: 28 256 5 5 (179200)
I0213 12:44:22.544759  7113 net.cpp:165] Memory required for data: 6662240320
I0213 12:44:22.544766  7113 layer_factory.hpp:77] Creating layer conv7_2_relu
I0213 12:44:22.544775  7113 net.cpp:100] Creating Layer conv7_2_relu
I0213 12:44:22.544780  7113 net.cpp:434] conv7_2_relu <- conv7_2
I0213 12:44:22.544785  7113 net.cpp:395] conv7_2_relu -> conv7_2 (in-place)
I0213 12:44:22.545102  7113 net.cpp:150] Setting up conv7_2_relu
I0213 12:44:22.545119  7113 net.cpp:157] Top shape: 28 256 5 5 (179200)
I0213 12:44:22.545121  7113 net.cpp:165] Memory required for data: 6662957120
I0213 12:44:22.545125  7113 layer_factory.hpp:77] Creating layer conv7_2_conv7_2_relu_0_split
I0213 12:44:22.545132  7113 net.cpp:100] Creating Layer conv7_2_conv7_2_relu_0_split
I0213 12:44:22.545136  7113 net.cpp:434] conv7_2_conv7_2_relu_0_split <- conv7_2
I0213 12:44:22.545142  7113 net.cpp:408] conv7_2_conv7_2_relu_0_split -> conv7_2_conv7_2_relu_0_split_0
I0213 12:44:22.545150  7113 net.cpp:408] conv7_2_conv7_2_relu_0_split -> conv7_2_conv7_2_relu_0_split_1
I0213 12:44:22.545157  7113 net.cpp:408] conv7_2_conv7_2_relu_0_split -> conv7_2_conv7_2_relu_0_split_2
I0213 12:44:22.545163  7113 net.cpp:408] conv7_2_conv7_2_relu_0_split -> conv7_2_conv7_2_relu_0_split_3
I0213 12:44:22.545236  7113 net.cpp:150] Setting up conv7_2_conv7_2_relu_0_split
I0213 12:44:22.545244  7113 net.cpp:157] Top shape: 28 256 5 5 (179200)
I0213 12:44:22.545248  7113 net.cpp:157] Top shape: 28 256 5 5 (179200)
I0213 12:44:22.545253  7113 net.cpp:157] Top shape: 28 256 5 5 (179200)
I0213 12:44:22.545256  7113 net.cpp:157] Top shape: 28 256 5 5 (179200)
I0213 12:44:22.545259  7113 net.cpp:165] Memory required for data: 6665824320
I0213 12:44:22.545264  7113 layer_factory.hpp:77] Creating layer conv8_1
I0213 12:44:22.545274  7113 net.cpp:100] Creating Layer conv8_1
I0213 12:44:22.545280  7113 net.cpp:434] conv8_1 <- conv7_2_conv7_2_relu_0_split_0
I0213 12:44:22.545287  7113 net.cpp:408] conv8_1 -> conv8_1
I0213 12:44:22.546593  7113 net.cpp:150] Setting up conv8_1
I0213 12:44:22.546609  7113 net.cpp:157] Top shape: 28 128 5 5 (89600)
I0213 12:44:22.546613  7113 net.cpp:165] Memory required for data: 6666182720
I0213 12:44:22.546620  7113 layer_factory.hpp:77] Creating layer conv8_1_relu
I0213 12:44:22.546627  7113 net.cpp:100] Creating Layer conv8_1_relu
I0213 12:44:22.546632  7113 net.cpp:434] conv8_1_relu <- conv8_1
I0213 12:44:22.546639  7113 net.cpp:395] conv8_1_relu -> conv8_1 (in-place)
I0213 12:44:22.546820  7113 net.cpp:150] Setting up conv8_1_relu
I0213 12:44:22.546831  7113 net.cpp:157] Top shape: 28 128 5 5 (89600)
I0213 12:44:22.546835  7113 net.cpp:165] Memory required for data: 6666541120
I0213 12:44:22.546839  7113 layer_factory.hpp:77] Creating layer conv8_2
I0213 12:44:22.546850  7113 net.cpp:100] Creating Layer conv8_2
I0213 12:44:22.546855  7113 net.cpp:434] conv8_2 <- conv8_1
I0213 12:44:22.546861  7113 net.cpp:408] conv8_2 -> conv8_2
I0213 12:44:22.550575  7113 net.cpp:150] Setting up conv8_2
I0213 12:44:22.550592  7113 net.cpp:157] Top shape: 28 256 3 3 (64512)
I0213 12:44:22.550596  7113 net.cpp:165] Memory required for data: 6666799168
I0213 12:44:22.550603  7113 layer_factory.hpp:77] Creating layer conv8_2_relu
I0213 12:44:22.550611  7113 net.cpp:100] Creating Layer conv8_2_relu
I0213 12:44:22.550616  7113 net.cpp:434] conv8_2_relu <- conv8_2
I0213 12:44:22.550622  7113 net.cpp:395] conv8_2_relu -> conv8_2 (in-place)
I0213 12:44:22.550935  7113 net.cpp:150] Setting up conv8_2_relu
I0213 12:44:22.550951  7113 net.cpp:157] Top shape: 28 256 3 3 (64512)
I0213 12:44:22.550954  7113 net.cpp:165] Memory required for data: 6667057216
I0213 12:44:22.550958  7113 layer_factory.hpp:77] Creating layer conv8_2_conv8_2_relu_0_split
I0213 12:44:22.550966  7113 net.cpp:100] Creating Layer conv8_2_conv8_2_relu_0_split
I0213 12:44:22.550969  7113 net.cpp:434] conv8_2_conv8_2_relu_0_split <- conv8_2
I0213 12:44:22.550976  7113 net.cpp:408] conv8_2_conv8_2_relu_0_split -> conv8_2_conv8_2_relu_0_split_0
I0213 12:44:22.550997  7113 net.cpp:408] conv8_2_conv8_2_relu_0_split -> conv8_2_conv8_2_relu_0_split_1
I0213 12:44:22.551005  7113 net.cpp:408] conv8_2_conv8_2_relu_0_split -> conv8_2_conv8_2_relu_0_split_2
I0213 12:44:22.551012  7113 net.cpp:408] conv8_2_conv8_2_relu_0_split -> conv8_2_conv8_2_relu_0_split_3
I0213 12:44:22.551090  7113 net.cpp:150] Setting up conv8_2_conv8_2_relu_0_split
I0213 12:44:22.551098  7113 net.cpp:157] Top shape: 28 256 3 3 (64512)
I0213 12:44:22.551102  7113 net.cpp:157] Top shape: 28 256 3 3 (64512)
I0213 12:44:22.551106  7113 net.cpp:157] Top shape: 28 256 3 3 (64512)
I0213 12:44:22.551110  7113 net.cpp:157] Top shape: 28 256 3 3 (64512)
I0213 12:44:22.551113  7113 net.cpp:165] Memory required for data: 6668089408
I0213 12:44:22.551117  7113 layer_factory.hpp:77] Creating layer conv9_1
I0213 12:44:22.551128  7113 net.cpp:100] Creating Layer conv9_1
I0213 12:44:22.551134  7113 net.cpp:434] conv9_1 <- conv8_2_conv8_2_relu_0_split_0
I0213 12:44:22.551141  7113 net.cpp:408] conv9_1 -> conv9_1
I0213 12:44:22.552471  7113 net.cpp:150] Setting up conv9_1
I0213 12:44:22.552489  7113 net.cpp:157] Top shape: 28 128 3 3 (32256)
I0213 12:44:22.552492  7113 net.cpp:165] Memory required for data: 6668218432
I0213 12:44:22.552500  7113 layer_factory.hpp:77] Creating layer conv9_1_relu
I0213 12:44:22.552507  7113 net.cpp:100] Creating Layer conv9_1_relu
I0213 12:44:22.552511  7113 net.cpp:434] conv9_1_relu <- conv9_1
I0213 12:44:22.552517  7113 net.cpp:395] conv9_1_relu -> conv9_1 (in-place)
I0213 12:44:22.552834  7113 net.cpp:150] Setting up conv9_1_relu
I0213 12:44:22.552848  7113 net.cpp:157] Top shape: 28 128 3 3 (32256)
I0213 12:44:22.552853  7113 net.cpp:165] Memory required for data: 6668347456
I0213 12:44:22.552856  7113 layer_factory.hpp:77] Creating layer conv9_2
I0213 12:44:22.552870  7113 net.cpp:100] Creating Layer conv9_2
I0213 12:44:22.552875  7113 net.cpp:434] conv9_2 <- conv9_1
I0213 12:44:22.552881  7113 net.cpp:408] conv9_2 -> conv9_2
I0213 12:44:22.556592  7113 net.cpp:150] Setting up conv9_2
I0213 12:44:22.556609  7113 net.cpp:157] Top shape: 28 256 1 1 (7168)
I0213 12:44:22.556614  7113 net.cpp:165] Memory required for data: 6668376128
I0213 12:44:22.556622  7113 layer_factory.hpp:77] Creating layer conv9_2_relu
I0213 12:44:22.556628  7113 net.cpp:100] Creating Layer conv9_2_relu
I0213 12:44:22.556633  7113 net.cpp:434] conv9_2_relu <- conv9_2
I0213 12:44:22.556638  7113 net.cpp:395] conv9_2_relu -> conv9_2 (in-place)
I0213 12:44:22.556823  7113 net.cpp:150] Setting up conv9_2_relu
I0213 12:44:22.556833  7113 net.cpp:157] Top shape: 28 256 1 1 (7168)
I0213 12:44:22.556838  7113 net.cpp:165] Memory required for data: 6668404800
I0213 12:44:22.556841  7113 layer_factory.hpp:77] Creating layer conv9_2_conv9_2_relu_0_split
I0213 12:44:22.556848  7113 net.cpp:100] Creating Layer conv9_2_conv9_2_relu_0_split
I0213 12:44:22.556851  7113 net.cpp:434] conv9_2_conv9_2_relu_0_split <- conv9_2
I0213 12:44:22.556859  7113 net.cpp:408] conv9_2_conv9_2_relu_0_split -> conv9_2_conv9_2_relu_0_split_0
I0213 12:44:22.556866  7113 net.cpp:408] conv9_2_conv9_2_relu_0_split -> conv9_2_conv9_2_relu_0_split_1
I0213 12:44:22.556872  7113 net.cpp:408] conv9_2_conv9_2_relu_0_split -> conv9_2_conv9_2_relu_0_split_2
I0213 12:44:22.556931  7113 net.cpp:150] Setting up conv9_2_conv9_2_relu_0_split
I0213 12:44:22.556938  7113 net.cpp:157] Top shape: 28 256 1 1 (7168)
I0213 12:44:22.556943  7113 net.cpp:157] Top shape: 28 256 1 1 (7168)
I0213 12:44:22.556947  7113 net.cpp:157] Top shape: 28 256 1 1 (7168)
I0213 12:44:22.556951  7113 net.cpp:165] Memory required for data: 6668490816
I0213 12:44:22.556953  7113 layer_factory.hpp:77] Creating layer conv4_3_norm
I0213 12:44:22.556969  7113 net.cpp:100] Creating Layer conv4_3_norm
I0213 12:44:22.556975  7113 net.cpp:434] conv4_3_norm <- conv4_3_relu4_3_0_split_1
I0213 12:44:22.556982  7113 net.cpp:408] conv4_3_norm -> conv4_3_norm
I0213 12:44:22.557150  7113 net.cpp:150] Setting up conv4_3_norm
I0213 12:44:22.557158  7113 net.cpp:157] Top shape: 28 512 38 38 (20701184)
I0213 12:44:22.557174  7113 net.cpp:165] Memory required for data: 6751295552
I0213 12:44:22.557180  7113 layer_factory.hpp:77] Creating layer conv4_3_norm_conv4_3_norm_0_split
I0213 12:44:22.557188  7113 net.cpp:100] Creating Layer conv4_3_norm_conv4_3_norm_0_split
I0213 12:44:22.557190  7113 net.cpp:434] conv4_3_norm_conv4_3_norm_0_split <- conv4_3_norm
I0213 12:44:22.557196  7113 net.cpp:408] conv4_3_norm_conv4_3_norm_0_split -> conv4_3_norm_conv4_3_norm_0_split_0
I0213 12:44:22.557202  7113 net.cpp:408] conv4_3_norm_conv4_3_norm_0_split -> conv4_3_norm_conv4_3_norm_0_split_1
I0213 12:44:22.557209  7113 net.cpp:408] conv4_3_norm_conv4_3_norm_0_split -> conv4_3_norm_conv4_3_norm_0_split_2
I0213 12:44:22.557260  7113 net.cpp:150] Setting up conv4_3_norm_conv4_3_norm_0_split
I0213 12:44:22.557267  7113 net.cpp:157] Top shape: 28 512 38 38 (20701184)
I0213 12:44:22.557271  7113 net.cpp:157] Top shape: 28 512 38 38 (20701184)
I0213 12:44:22.557276  7113 net.cpp:157] Top shape: 28 512 38 38 (20701184)
I0213 12:44:22.557278  7113 net.cpp:165] Memory required for data: 6999709760
I0213 12:44:22.557282  7113 layer_factory.hpp:77] Creating layer conv4_3_norm_mbox_loc
I0213 12:44:22.557292  7113 net.cpp:100] Creating Layer conv4_3_norm_mbox_loc
I0213 12:44:22.557296  7113 net.cpp:434] conv4_3_norm_mbox_loc <- conv4_3_norm_conv4_3_norm_0_split_0
I0213 12:44:22.557302  7113 net.cpp:408] conv4_3_norm_mbox_loc -> conv4_3_norm_mbox_loc
I0213 12:44:22.559069  7113 net.cpp:150] Setting up conv4_3_norm_mbox_loc
I0213 12:44:22.559085  7113 net.cpp:157] Top shape: 28 16 38 38 (646912)
I0213 12:44:22.559089  7113 net.cpp:165] Memory required for data: 7002297408
I0213 12:44:22.559097  7113 layer_factory.hpp:77] Creating layer conv4_3_norm_mbox_loc_perm
I0213 12:44:22.559104  7113 net.cpp:100] Creating Layer conv4_3_norm_mbox_loc_perm
I0213 12:44:22.559108  7113 net.cpp:434] conv4_3_norm_mbox_loc_perm <- conv4_3_norm_mbox_loc
I0213 12:44:22.559116  7113 net.cpp:408] conv4_3_norm_mbox_loc_perm -> conv4_3_norm_mbox_loc_perm
I0213 12:44:22.559237  7113 net.cpp:150] Setting up conv4_3_norm_mbox_loc_perm
I0213 12:44:22.559247  7113 net.cpp:157] Top shape: 28 38 38 16 (646912)
I0213 12:44:22.559250  7113 net.cpp:165] Memory required for data: 7004885056
I0213 12:44:22.559254  7113 layer_factory.hpp:77] Creating layer conv4_3_norm_mbox_loc_flat
I0213 12:44:22.559262  7113 net.cpp:100] Creating Layer conv4_3_norm_mbox_loc_flat
I0213 12:44:22.559265  7113 net.cpp:434] conv4_3_norm_mbox_loc_flat <- conv4_3_norm_mbox_loc_perm
I0213 12:44:22.559273  7113 net.cpp:408] conv4_3_norm_mbox_loc_flat -> conv4_3_norm_mbox_loc_flat
I0213 12:44:22.559307  7113 net.cpp:150] Setting up conv4_3_norm_mbox_loc_flat
I0213 12:44:22.559317  7113 net.cpp:157] Top shape: 28 23104 (646912)
I0213 12:44:22.559320  7113 net.cpp:165] Memory required for data: 7007472704
I0213 12:44:22.559324  7113 layer_factory.hpp:77] Creating layer conv4_3_norm_mbox_conf
I0213 12:44:22.559341  7113 net.cpp:100] Creating Layer conv4_3_norm_mbox_conf
I0213 12:44:22.559345  7113 net.cpp:434] conv4_3_norm_mbox_conf <- conv4_3_norm_conv4_3_norm_0_split_1
I0213 12:44:22.559351  7113 net.cpp:408] conv4_3_norm_mbox_conf -> conv4_3_norm_mbox_conf
I0213 12:44:22.564010  7113 net.cpp:150] Setting up conv4_3_norm_mbox_conf
I0213 12:44:22.564028  7113 net.cpp:157] Top shape: 28 88 38 38 (3558016)
I0213 12:44:22.564033  7113 net.cpp:165] Memory required for data: 7021704768
I0213 12:44:22.564040  7113 layer_factory.hpp:77] Creating layer conv4_3_norm_mbox_conf_perm
I0213 12:44:22.564049  7113 net.cpp:100] Creating Layer conv4_3_norm_mbox_conf_perm
I0213 12:44:22.564054  7113 net.cpp:434] conv4_3_norm_mbox_conf_perm <- conv4_3_norm_mbox_conf
I0213 12:44:22.564061  7113 net.cpp:408] conv4_3_norm_mbox_conf_perm -> conv4_3_norm_mbox_conf_perm
I0213 12:44:22.564179  7113 net.cpp:150] Setting up conv4_3_norm_mbox_conf_perm
I0213 12:44:22.564189  7113 net.cpp:157] Top shape: 28 38 38 88 (3558016)
I0213 12:44:22.564193  7113 net.cpp:165] Memory required for data: 7035936832
I0213 12:44:22.564196  7113 layer_factory.hpp:77] Creating layer conv4_3_norm_mbox_conf_flat
I0213 12:44:22.564220  7113 net.cpp:100] Creating Layer conv4_3_norm_mbox_conf_flat
I0213 12:44:22.564226  7113 net.cpp:434] conv4_3_norm_mbox_conf_flat <- conv4_3_norm_mbox_conf_perm
I0213 12:44:22.564232  7113 net.cpp:408] conv4_3_norm_mbox_conf_flat -> conv4_3_norm_mbox_conf_flat
I0213 12:44:22.564262  7113 net.cpp:150] Setting up conv4_3_norm_mbox_conf_flat
I0213 12:44:22.564270  7113 net.cpp:157] Top shape: 28 127072 (3558016)
I0213 12:44:22.564273  7113 net.cpp:165] Memory required for data: 7050168896
I0213 12:44:22.564276  7113 layer_factory.hpp:77] Creating layer conv4_3_norm_mbox_priorbox
I0213 12:44:22.564291  7113 net.cpp:100] Creating Layer conv4_3_norm_mbox_priorbox
I0213 12:44:22.564296  7113 net.cpp:434] conv4_3_norm_mbox_priorbox <- conv4_3_norm_conv4_3_norm_0_split_2
I0213 12:44:22.564301  7113 net.cpp:434] conv4_3_norm_mbox_priorbox <- data_data_0_split_1
I0213 12:44:22.564306  7113 net.cpp:408] conv4_3_norm_mbox_priorbox -> conv4_3_norm_mbox_priorbox
I0213 12:44:22.564340  7113 net.cpp:150] Setting up conv4_3_norm_mbox_priorbox
I0213 12:44:22.564347  7113 net.cpp:157] Top shape: 1 2 23104 (46208)
I0213 12:44:22.564352  7113 net.cpp:165] Memory required for data: 7050353728
I0213 12:44:22.564354  7113 layer_factory.hpp:77] Creating layer fc7_mbox_loc
I0213 12:44:22.564369  7113 net.cpp:100] Creating Layer fc7_mbox_loc
I0213 12:44:22.564374  7113 net.cpp:434] fc7_mbox_loc <- fc7_relu7_0_split_1
I0213 12:44:22.564383  7113 net.cpp:408] fc7_mbox_loc -> fc7_mbox_loc
I0213 12:44:22.567559  7113 net.cpp:150] Setting up fc7_mbox_loc
I0213 12:44:22.567576  7113 net.cpp:157] Top shape: 28 24 19 19 (242592)
I0213 12:44:22.567580  7113 net.cpp:165] Memory required for data: 7051324096
I0213 12:44:22.567587  7113 layer_factory.hpp:77] Creating layer fc7_mbox_loc_perm
I0213 12:44:22.567595  7113 net.cpp:100] Creating Layer fc7_mbox_loc_perm
I0213 12:44:22.567600  7113 net.cpp:434] fc7_mbox_loc_perm <- fc7_mbox_loc
I0213 12:44:22.567606  7113 net.cpp:408] fc7_mbox_loc_perm -> fc7_mbox_loc_perm
I0213 12:44:22.567724  7113 net.cpp:150] Setting up fc7_mbox_loc_perm
I0213 12:44:22.567734  7113 net.cpp:157] Top shape: 28 19 19 24 (242592)
I0213 12:44:22.567737  7113 net.cpp:165] Memory required for data: 7052294464
I0213 12:44:22.567740  7113 layer_factory.hpp:77] Creating layer fc7_mbox_loc_flat
I0213 12:44:22.567749  7113 net.cpp:100] Creating Layer fc7_mbox_loc_flat
I0213 12:44:22.567752  7113 net.cpp:434] fc7_mbox_loc_flat <- fc7_mbox_loc_perm
I0213 12:44:22.567757  7113 net.cpp:408] fc7_mbox_loc_flat -> fc7_mbox_loc_flat
I0213 12:44:22.567785  7113 net.cpp:150] Setting up fc7_mbox_loc_flat
I0213 12:44:22.567792  7113 net.cpp:157] Top shape: 28 8664 (242592)
I0213 12:44:22.567795  7113 net.cpp:165] Memory required for data: 7053264832
I0213 12:44:22.567800  7113 layer_factory.hpp:77] Creating layer fc7_mbox_conf
I0213 12:44:22.567809  7113 net.cpp:100] Creating Layer fc7_mbox_conf
I0213 12:44:22.567813  7113 net.cpp:434] fc7_mbox_conf <- fc7_relu7_0_split_2
I0213 12:44:22.567822  7113 net.cpp:408] fc7_mbox_conf -> fc7_mbox_conf
I0213 12:44:22.579182  7113 net.cpp:150] Setting up fc7_mbox_conf
I0213 12:44:22.579210  7113 net.cpp:157] Top shape: 28 132 19 19 (1334256)
I0213 12:44:22.579213  7113 net.cpp:165] Memory required for data: 7058601856
I0213 12:44:22.579222  7113 layer_factory.hpp:77] Creating layer fc7_mbox_conf_perm
I0213 12:44:22.579232  7113 net.cpp:100] Creating Layer fc7_mbox_conf_perm
I0213 12:44:22.579238  7113 net.cpp:434] fc7_mbox_conf_perm <- fc7_mbox_conf
I0213 12:44:22.579246  7113 net.cpp:408] fc7_mbox_conf_perm -> fc7_mbox_conf_perm
I0213 12:44:22.579367  7113 net.cpp:150] Setting up fc7_mbox_conf_perm
I0213 12:44:22.579376  7113 net.cpp:157] Top shape: 28 19 19 132 (1334256)
I0213 12:44:22.579380  7113 net.cpp:165] Memory required for data: 7063938880
I0213 12:44:22.579383  7113 layer_factory.hpp:77] Creating layer fc7_mbox_conf_flat
I0213 12:44:22.579391  7113 net.cpp:100] Creating Layer fc7_mbox_conf_flat
I0213 12:44:22.579394  7113 net.cpp:434] fc7_mbox_conf_flat <- fc7_mbox_conf_perm
I0213 12:44:22.579417  7113 net.cpp:408] fc7_mbox_conf_flat -> fc7_mbox_conf_flat
I0213 12:44:22.579449  7113 net.cpp:150] Setting up fc7_mbox_conf_flat
I0213 12:44:22.579463  7113 net.cpp:157] Top shape: 28 47652 (1334256)
I0213 12:44:22.579465  7113 net.cpp:165] Memory required for data: 7069275904
I0213 12:44:22.579469  7113 layer_factory.hpp:77] Creating layer fc7_mbox_priorbox
I0213 12:44:22.579478  7113 net.cpp:100] Creating Layer fc7_mbox_priorbox
I0213 12:44:22.579481  7113 net.cpp:434] fc7_mbox_priorbox <- fc7_relu7_0_split_3
I0213 12:44:22.579486  7113 net.cpp:434] fc7_mbox_priorbox <- data_data_0_split_2
I0213 12:44:22.579493  7113 net.cpp:408] fc7_mbox_priorbox -> fc7_mbox_priorbox
I0213 12:44:22.579524  7113 net.cpp:150] Setting up fc7_mbox_priorbox
I0213 12:44:22.579530  7113 net.cpp:157] Top shape: 1 2 8664 (17328)
I0213 12:44:22.579535  7113 net.cpp:165] Memory required for data: 7069345216
I0213 12:44:22.579537  7113 layer_factory.hpp:77] Creating layer conv6_2_mbox_loc
I0213 12:44:22.579550  7113 net.cpp:100] Creating Layer conv6_2_mbox_loc
I0213 12:44:22.579553  7113 net.cpp:434] conv6_2_mbox_loc <- conv6_2_conv6_2_relu_0_split_1
I0213 12:44:22.579710  7113 net.cpp:408] conv6_2_mbox_loc -> conv6_2_mbox_loc
I0213 12:44:22.582118  7113 net.cpp:150] Setting up conv6_2_mbox_loc
I0213 12:44:22.582136  7113 net.cpp:157] Top shape: 28 24 10 10 (67200)
I0213 12:44:22.582140  7113 net.cpp:165] Memory required for data: 7069614016
I0213 12:44:22.582147  7113 layer_factory.hpp:77] Creating layer conv6_2_mbox_loc_perm
I0213 12:44:22.582154  7113 net.cpp:100] Creating Layer conv6_2_mbox_loc_perm
I0213 12:44:22.582159  7113 net.cpp:434] conv6_2_mbox_loc_perm <- conv6_2_mbox_loc
I0213 12:44:22.582165  7113 net.cpp:408] conv6_2_mbox_loc_perm -> conv6_2_mbox_loc_perm
I0213 12:44:22.582281  7113 net.cpp:150] Setting up conv6_2_mbox_loc_perm
I0213 12:44:22.582291  7113 net.cpp:157] Top shape: 28 10 10 24 (67200)
I0213 12:44:22.582294  7113 net.cpp:165] Memory required for data: 7069882816
I0213 12:44:22.582298  7113 layer_factory.hpp:77] Creating layer conv6_2_mbox_loc_flat
I0213 12:44:22.582305  7113 net.cpp:100] Creating Layer conv6_2_mbox_loc_flat
I0213 12:44:22.582309  7113 net.cpp:434] conv6_2_mbox_loc_flat <- conv6_2_mbox_loc_perm
I0213 12:44:22.582314  7113 net.cpp:408] conv6_2_mbox_loc_flat -> conv6_2_mbox_loc_flat
I0213 12:44:22.582342  7113 net.cpp:150] Setting up conv6_2_mbox_loc_flat
I0213 12:44:22.582355  7113 net.cpp:157] Top shape: 28 2400 (67200)
I0213 12:44:22.582358  7113 net.cpp:165] Memory required for data: 7070151616
I0213 12:44:22.582362  7113 layer_factory.hpp:77] Creating layer conv6_2_mbox_conf
I0213 12:44:22.582372  7113 net.cpp:100] Creating Layer conv6_2_mbox_conf
I0213 12:44:22.582381  7113 net.cpp:434] conv6_2_mbox_conf <- conv6_2_conv6_2_relu_0_split_2
I0213 12:44:22.582387  7113 net.cpp:408] conv6_2_mbox_conf -> conv6_2_mbox_conf
I0213 12:44:22.588752  7113 net.cpp:150] Setting up conv6_2_mbox_conf
I0213 12:44:22.588770  7113 net.cpp:157] Top shape: 28 132 10 10 (369600)
I0213 12:44:22.588774  7113 net.cpp:165] Memory required for data: 7071630016
I0213 12:44:22.588781  7113 layer_factory.hpp:77] Creating layer conv6_2_mbox_conf_perm
I0213 12:44:22.588791  7113 net.cpp:100] Creating Layer conv6_2_mbox_conf_perm
I0213 12:44:22.588796  7113 net.cpp:434] conv6_2_mbox_conf_perm <- conv6_2_mbox_conf
I0213 12:44:22.588802  7113 net.cpp:408] conv6_2_mbox_conf_perm -> conv6_2_mbox_conf_perm
I0213 12:44:22.588925  7113 net.cpp:150] Setting up conv6_2_mbox_conf_perm
I0213 12:44:22.588934  7113 net.cpp:157] Top shape: 28 10 10 132 (369600)
I0213 12:44:22.588937  7113 net.cpp:165] Memory required for data: 7073108416
I0213 12:44:22.588942  7113 layer_factory.hpp:77] Creating layer conv6_2_mbox_conf_flat
I0213 12:44:22.588948  7113 net.cpp:100] Creating Layer conv6_2_mbox_conf_flat
I0213 12:44:22.588951  7113 net.cpp:434] conv6_2_mbox_conf_flat <- conv6_2_mbox_conf_perm
I0213 12:44:22.588958  7113 net.cpp:408] conv6_2_mbox_conf_flat -> conv6_2_mbox_conf_flat
I0213 12:44:22.589005  7113 net.cpp:150] Setting up conv6_2_mbox_conf_flat
I0213 12:44:22.589013  7113 net.cpp:157] Top shape: 28 13200 (369600)
I0213 12:44:22.589016  7113 net.cpp:165] Memory required for data: 7074586816
I0213 12:44:22.589020  7113 layer_factory.hpp:77] Creating layer conv6_2_mbox_priorbox
I0213 12:44:22.589028  7113 net.cpp:100] Creating Layer conv6_2_mbox_priorbox
I0213 12:44:22.589032  7113 net.cpp:434] conv6_2_mbox_priorbox <- conv6_2_conv6_2_relu_0_split_3
I0213 12:44:22.589037  7113 net.cpp:434] conv6_2_mbox_priorbox <- data_data_0_split_3
I0213 12:44:22.589045  7113 net.cpp:408] conv6_2_mbox_priorbox -> conv6_2_mbox_priorbox
I0213 12:44:22.589078  7113 net.cpp:150] Setting up conv6_2_mbox_priorbox
I0213 12:44:22.589087  7113 net.cpp:157] Top shape: 1 2 2400 (4800)
I0213 12:44:22.589089  7113 net.cpp:165] Memory required for data: 7074606016
I0213 12:44:22.589093  7113 layer_factory.hpp:77] Creating layer conv7_2_mbox_loc
I0213 12:44:22.589103  7113 net.cpp:100] Creating Layer conv7_2_mbox_loc
I0213 12:44:22.589109  7113 net.cpp:434] conv7_2_mbox_loc <- conv7_2_conv7_2_relu_0_split_1
I0213 12:44:22.589117  7113 net.cpp:408] conv7_2_mbox_loc -> conv7_2_mbox_loc
I0213 12:44:22.591112  7113 net.cpp:150] Setting up conv7_2_mbox_loc
I0213 12:44:22.591128  7113 net.cpp:157] Top shape: 28 24 5 5 (16800)
I0213 12:44:22.591133  7113 net.cpp:165] Memory required for data: 7074673216
I0213 12:44:22.591140  7113 layer_factory.hpp:77] Creating layer conv7_2_mbox_loc_perm
I0213 12:44:22.591147  7113 net.cpp:100] Creating Layer conv7_2_mbox_loc_perm
I0213 12:44:22.591152  7113 net.cpp:434] conv7_2_mbox_loc_perm <- conv7_2_mbox_loc
I0213 12:44:22.591159  7113 net.cpp:408] conv7_2_mbox_loc_perm -> conv7_2_mbox_loc_perm
I0213 12:44:22.591279  7113 net.cpp:150] Setting up conv7_2_mbox_loc_perm
I0213 12:44:22.591287  7113 net.cpp:157] Top shape: 28 5 5 24 (16800)
I0213 12:44:22.591291  7113 net.cpp:165] Memory required for data: 7074740416
I0213 12:44:22.591295  7113 layer_factory.hpp:77] Creating layer conv7_2_mbox_loc_flat
I0213 12:44:22.591302  7113 net.cpp:100] Creating Layer conv7_2_mbox_loc_flat
I0213 12:44:22.591306  7113 net.cpp:434] conv7_2_mbox_loc_flat <- conv7_2_mbox_loc_perm
I0213 12:44:22.591311  7113 net.cpp:408] conv7_2_mbox_loc_flat -> conv7_2_mbox_loc_flat
I0213 12:44:22.591342  7113 net.cpp:150] Setting up conv7_2_mbox_loc_flat
I0213 12:44:22.591349  7113 net.cpp:157] Top shape: 28 600 (16800)
I0213 12:44:22.591353  7113 net.cpp:165] Memory required for data: 7074807616
I0213 12:44:22.591356  7113 layer_factory.hpp:77] Creating layer conv7_2_mbox_conf
I0213 12:44:22.591367  7113 net.cpp:100] Creating Layer conv7_2_mbox_conf
I0213 12:44:22.591372  7113 net.cpp:434] conv7_2_mbox_conf <- conv7_2_conv7_2_relu_0_split_2
I0213 12:44:22.591382  7113 net.cpp:408] conv7_2_mbox_conf -> conv7_2_mbox_conf
I0213 12:44:22.595226  7113 net.cpp:150] Setting up conv7_2_mbox_conf
I0213 12:44:22.595242  7113 net.cpp:157] Top shape: 28 132 5 5 (92400)
I0213 12:44:22.595247  7113 net.cpp:165] Memory required for data: 7075177216
I0213 12:44:22.595254  7113 layer_factory.hpp:77] Creating layer conv7_2_mbox_conf_perm
I0213 12:44:22.595263  7113 net.cpp:100] Creating Layer conv7_2_mbox_conf_perm
I0213 12:44:22.595266  7113 net.cpp:434] conv7_2_mbox_conf_perm <- conv7_2_mbox_conf
I0213 12:44:22.595273  7113 net.cpp:408] conv7_2_mbox_conf_perm -> conv7_2_mbox_conf_perm
I0213 12:44:22.595396  7113 net.cpp:150] Setting up conv7_2_mbox_conf_perm
I0213 12:44:22.595404  7113 net.cpp:157] Top shape: 28 5 5 132 (92400)
I0213 12:44:22.595408  7113 net.cpp:165] Memory required for data: 7075546816
I0213 12:44:22.595412  7113 layer_factory.hpp:77] Creating layer conv7_2_mbox_conf_flat
I0213 12:44:22.595418  7113 net.cpp:100] Creating Layer conv7_2_mbox_conf_flat
I0213 12:44:22.595423  7113 net.cpp:434] conv7_2_mbox_conf_flat <- conv7_2_mbox_conf_perm
I0213 12:44:22.595428  7113 net.cpp:408] conv7_2_mbox_conf_flat -> conv7_2_mbox_conf_flat
I0213 12:44:22.595456  7113 net.cpp:150] Setting up conv7_2_mbox_conf_flat
I0213 12:44:22.595476  7113 net.cpp:157] Top shape: 28 3300 (92400)
I0213 12:44:22.595480  7113 net.cpp:165] Memory required for data: 7075916416
I0213 12:44:22.595484  7113 layer_factory.hpp:77] Creating layer conv7_2_mbox_priorbox
I0213 12:44:22.595491  7113 net.cpp:100] Creating Layer conv7_2_mbox_priorbox
I0213 12:44:22.595495  7113 net.cpp:434] conv7_2_mbox_priorbox <- conv7_2_conv7_2_relu_0_split_3
I0213 12:44:22.595502  7113 net.cpp:434] conv7_2_mbox_priorbox <- data_data_0_split_4
I0213 12:44:22.595508  7113 net.cpp:408] conv7_2_mbox_priorbox -> conv7_2_mbox_priorbox
I0213 12:44:22.595543  7113 net.cpp:150] Setting up conv7_2_mbox_priorbox
I0213 12:44:22.595551  7113 net.cpp:157] Top shape: 1 2 600 (1200)
I0213 12:44:22.595554  7113 net.cpp:165] Memory required for data: 7075921216
I0213 12:44:22.595558  7113 layer_factory.hpp:77] Creating layer conv8_2_mbox_loc
I0213 12:44:22.595568  7113 net.cpp:100] Creating Layer conv8_2_mbox_loc
I0213 12:44:22.595573  7113 net.cpp:434] conv8_2_mbox_loc <- conv8_2_conv8_2_relu_0_split_1
I0213 12:44:22.595582  7113 net.cpp:408] conv8_2_mbox_loc -> conv8_2_mbox_loc
I0213 12:44:22.596884  7113 net.cpp:150] Setting up conv8_2_mbox_loc
I0213 12:44:22.596899  7113 net.cpp:157] Top shape: 28 16 3 3 (4032)
I0213 12:44:22.596904  7113 net.cpp:165] Memory required for data: 7075937344
I0213 12:44:22.596923  7113 layer_factory.hpp:77] Creating layer conv8_2_mbox_loc_perm
I0213 12:44:22.596930  7113 net.cpp:100] Creating Layer conv8_2_mbox_loc_perm
I0213 12:44:22.596935  7113 net.cpp:434] conv8_2_mbox_loc_perm <- conv8_2_mbox_loc
I0213 12:44:22.596941  7113 net.cpp:408] conv8_2_mbox_loc_perm -> conv8_2_mbox_loc_perm
I0213 12:44:22.597064  7113 net.cpp:150] Setting up conv8_2_mbox_loc_perm
I0213 12:44:22.597074  7113 net.cpp:157] Top shape: 28 3 3 16 (4032)
I0213 12:44:22.597077  7113 net.cpp:165] Memory required for data: 7075953472
I0213 12:44:22.597080  7113 layer_factory.hpp:77] Creating layer conv8_2_mbox_loc_flat
I0213 12:44:22.597087  7113 net.cpp:100] Creating Layer conv8_2_mbox_loc_flat
I0213 12:44:22.597091  7113 net.cpp:434] conv8_2_mbox_loc_flat <- conv8_2_mbox_loc_perm
I0213 12:44:22.597097  7113 net.cpp:408] conv8_2_mbox_loc_flat -> conv8_2_mbox_loc_flat
I0213 12:44:22.597126  7113 net.cpp:150] Setting up conv8_2_mbox_loc_flat
I0213 12:44:22.597132  7113 net.cpp:157] Top shape: 28 144 (4032)
I0213 12:44:22.597136  7113 net.cpp:165] Memory required for data: 7075969600
I0213 12:44:22.597139  7113 layer_factory.hpp:77] Creating layer conv8_2_mbox_conf
I0213 12:44:22.597153  7113 net.cpp:100] Creating Layer conv8_2_mbox_conf
I0213 12:44:22.597158  7113 net.cpp:434] conv8_2_mbox_conf <- conv8_2_conv8_2_relu_0_split_2
I0213 12:44:22.597165  7113 net.cpp:408] conv8_2_mbox_conf -> conv8_2_mbox_conf
I0213 12:44:22.600234  7113 net.cpp:150] Setting up conv8_2_mbox_conf
I0213 12:44:22.600251  7113 net.cpp:157] Top shape: 28 88 3 3 (22176)
I0213 12:44:22.600255  7113 net.cpp:165] Memory required for data: 7076058304
I0213 12:44:22.600262  7113 layer_factory.hpp:77] Creating layer conv8_2_mbox_conf_perm
I0213 12:44:22.600275  7113 net.cpp:100] Creating Layer conv8_2_mbox_conf_perm
I0213 12:44:22.600280  7113 net.cpp:434] conv8_2_mbox_conf_perm <- conv8_2_mbox_conf
I0213 12:44:22.600287  7113 net.cpp:408] conv8_2_mbox_conf_perm -> conv8_2_mbox_conf_perm
I0213 12:44:22.600407  7113 net.cpp:150] Setting up conv8_2_mbox_conf_perm
I0213 12:44:22.600416  7113 net.cpp:157] Top shape: 28 3 3 88 (22176)
I0213 12:44:22.600419  7113 net.cpp:165] Memory required for data: 7076147008
I0213 12:44:22.600424  7113 layer_factory.hpp:77] Creating layer conv8_2_mbox_conf_flat
I0213 12:44:22.600430  7113 net.cpp:100] Creating Layer conv8_2_mbox_conf_flat
I0213 12:44:22.600435  7113 net.cpp:434] conv8_2_mbox_conf_flat <- conv8_2_mbox_conf_perm
I0213 12:44:22.600440  7113 net.cpp:408] conv8_2_mbox_conf_flat -> conv8_2_mbox_conf_flat
I0213 12:44:22.600469  7113 net.cpp:150] Setting up conv8_2_mbox_conf_flat
I0213 12:44:22.600476  7113 net.cpp:157] Top shape: 28 792 (22176)
I0213 12:44:22.600479  7113 net.cpp:165] Memory required for data: 7076235712
I0213 12:44:22.600497  7113 layer_factory.hpp:77] Creating layer conv8_2_mbox_priorbox
I0213 12:44:22.600505  7113 net.cpp:100] Creating Layer conv8_2_mbox_priorbox
I0213 12:44:22.600512  7113 net.cpp:434] conv8_2_mbox_priorbox <- conv8_2_conv8_2_relu_0_split_3
I0213 12:44:22.600517  7113 net.cpp:434] conv8_2_mbox_priorbox <- data_data_0_split_5
I0213 12:44:22.600523  7113 net.cpp:408] conv8_2_mbox_priorbox -> conv8_2_mbox_priorbox
I0213 12:44:22.600556  7113 net.cpp:150] Setting up conv8_2_mbox_priorbox
I0213 12:44:22.600564  7113 net.cpp:157] Top shape: 1 2 144 (288)
I0213 12:44:22.600567  7113 net.cpp:165] Memory required for data: 7076236864
I0213 12:44:22.600571  7113 layer_factory.hpp:77] Creating layer conv9_2_mbox_loc
I0213 12:44:22.600581  7113 net.cpp:100] Creating Layer conv9_2_mbox_loc
I0213 12:44:22.600587  7113 net.cpp:434] conv9_2_mbox_loc <- conv9_2_conv9_2_relu_0_split_0
I0213 12:44:22.600595  7113 net.cpp:408] conv9_2_mbox_loc -> conv9_2_mbox_loc
I0213 12:44:22.602109  7113 net.cpp:150] Setting up conv9_2_mbox_loc
I0213 12:44:22.602125  7113 net.cpp:157] Top shape: 28 16 1 1 (448)
I0213 12:44:22.602129  7113 net.cpp:165] Memory required for data: 7076238656
I0213 12:44:22.602136  7113 layer_factory.hpp:77] Creating layer conv9_2_mbox_loc_perm
I0213 12:44:22.602144  7113 net.cpp:100] Creating Layer conv9_2_mbox_loc_perm
I0213 12:44:22.602149  7113 net.cpp:434] conv9_2_mbox_loc_perm <- conv9_2_mbox_loc
I0213 12:44:22.602156  7113 net.cpp:408] conv9_2_mbox_loc_perm -> conv9_2_mbox_loc_perm
I0213 12:44:22.602283  7113 net.cpp:150] Setting up conv9_2_mbox_loc_perm
I0213 12:44:22.602290  7113 net.cpp:157] Top shape: 28 1 1 16 (448)
I0213 12:44:22.602294  7113 net.cpp:165] Memory required for data: 7076240448
I0213 12:44:22.602298  7113 layer_factory.hpp:77] Creating layer conv9_2_mbox_loc_flat
I0213 12:44:22.602303  7113 net.cpp:100] Creating Layer conv9_2_mbox_loc_flat
I0213 12:44:22.602308  7113 net.cpp:434] conv9_2_mbox_loc_flat <- conv9_2_mbox_loc_perm
I0213 12:44:22.602314  7113 net.cpp:408] conv9_2_mbox_loc_flat -> conv9_2_mbox_loc_flat
I0213 12:44:22.602344  7113 net.cpp:150] Setting up conv9_2_mbox_loc_flat
I0213 12:44:22.602356  7113 net.cpp:157] Top shape: 28 16 (448)
I0213 12:44:22.602360  7113 net.cpp:165] Memory required for data: 7076242240
I0213 12:44:22.602363  7113 layer_factory.hpp:77] Creating layer conv9_2_mbox_conf
I0213 12:44:22.602375  7113 net.cpp:100] Creating Layer conv9_2_mbox_conf
I0213 12:44:22.602380  7113 net.cpp:434] conv9_2_mbox_conf <- conv9_2_conv9_2_relu_0_split_1
I0213 12:44:22.602386  7113 net.cpp:408] conv9_2_mbox_conf -> conv9_2_mbox_conf
I0213 12:44:22.605450  7113 net.cpp:150] Setting up conv9_2_mbox_conf
I0213 12:44:22.605466  7113 net.cpp:157] Top shape: 28 88 1 1 (2464)
I0213 12:44:22.605470  7113 net.cpp:165] Memory required for data: 7076252096
I0213 12:44:22.605479  7113 layer_factory.hpp:77] Creating layer conv9_2_mbox_conf_perm
I0213 12:44:22.605490  7113 net.cpp:100] Creating Layer conv9_2_mbox_conf_perm
I0213 12:44:22.605496  7113 net.cpp:434] conv9_2_mbox_conf_perm <- conv9_2_mbox_conf
I0213 12:44:22.605504  7113 net.cpp:408] conv9_2_mbox_conf_perm -> conv9_2_mbox_conf_perm
I0213 12:44:22.605628  7113 net.cpp:150] Setting up conv9_2_mbox_conf_perm
I0213 12:44:22.605638  7113 net.cpp:157] Top shape: 28 1 1 88 (2464)
I0213 12:44:22.605640  7113 net.cpp:165] Memory required for data: 7076261952
I0213 12:44:22.605644  7113 layer_factory.hpp:77] Creating layer conv9_2_mbox_conf_flat
I0213 12:44:22.605651  7113 net.cpp:100] Creating Layer conv9_2_mbox_conf_flat
I0213 12:44:22.605656  7113 net.cpp:434] conv9_2_mbox_conf_flat <- conv9_2_mbox_conf_perm
I0213 12:44:22.605661  7113 net.cpp:408] conv9_2_mbox_conf_flat -> conv9_2_mbox_conf_flat
I0213 12:44:22.605690  7113 net.cpp:150] Setting up conv9_2_mbox_conf_flat
I0213 12:44:22.605697  7113 net.cpp:157] Top shape: 28 88 (2464)
I0213 12:44:22.605700  7113 net.cpp:165] Memory required for data: 7076271808
I0213 12:44:22.605705  7113 layer_factory.hpp:77] Creating layer conv9_2_mbox_priorbox
I0213 12:44:22.605723  7113 net.cpp:100] Creating Layer conv9_2_mbox_priorbox
I0213 12:44:22.605729  7113 net.cpp:434] conv9_2_mbox_priorbox <- conv9_2_conv9_2_relu_0_split_2
I0213 12:44:22.605739  7113 net.cpp:434] conv9_2_mbox_priorbox <- data_data_0_split_6
I0213 12:44:22.605746  7113 net.cpp:408] conv9_2_mbox_priorbox -> conv9_2_mbox_priorbox
I0213 12:44:22.605780  7113 net.cpp:150] Setting up conv9_2_mbox_priorbox
I0213 12:44:22.605788  7113 net.cpp:157] Top shape: 1 2 16 (32)
I0213 12:44:22.605792  7113 net.cpp:165] Memory required for data: 7076271936
I0213 12:44:22.605794  7113 layer_factory.hpp:77] Creating layer mbox_loc
I0213 12:44:22.605803  7113 net.cpp:100] Creating Layer mbox_loc
I0213 12:44:22.605806  7113 net.cpp:434] mbox_loc <- conv4_3_norm_mbox_loc_flat
I0213 12:44:22.605813  7113 net.cpp:434] mbox_loc <- fc7_mbox_loc_flat
I0213 12:44:22.605818  7113 net.cpp:434] mbox_loc <- conv6_2_mbox_loc_flat
I0213 12:44:22.605823  7113 net.cpp:434] mbox_loc <- conv7_2_mbox_loc_flat
I0213 12:44:22.605826  7113 net.cpp:434] mbox_loc <- conv8_2_mbox_loc_flat
I0213 12:44:22.605831  7113 net.cpp:434] mbox_loc <- conv9_2_mbox_loc_flat
I0213 12:44:22.605839  7113 net.cpp:408] mbox_loc -> mbox_loc
I0213 12:44:22.605880  7113 net.cpp:150] Setting up mbox_loc
I0213 12:44:22.605887  7113 net.cpp:157] Top shape: 28 34928 (977984)
I0213 12:44:22.605891  7113 net.cpp:165] Memory required for data: 7080183872
I0213 12:44:22.605895  7113 layer_factory.hpp:77] Creating layer mbox_conf
I0213 12:44:22.605902  7113 net.cpp:100] Creating Layer mbox_conf
I0213 12:44:22.605906  7113 net.cpp:434] mbox_conf <- conv4_3_norm_mbox_conf_flat
I0213 12:44:22.605911  7113 net.cpp:434] mbox_conf <- fc7_mbox_conf_flat
I0213 12:44:22.605916  7113 net.cpp:434] mbox_conf <- conv6_2_mbox_conf_flat
I0213 12:44:22.605921  7113 net.cpp:434] mbox_conf <- conv7_2_mbox_conf_flat
I0213 12:44:22.605924  7113 net.cpp:434] mbox_conf <- conv8_2_mbox_conf_flat
I0213 12:44:22.605929  7113 net.cpp:434] mbox_conf <- conv9_2_mbox_conf_flat
I0213 12:44:22.605934  7113 net.cpp:408] mbox_conf -> mbox_conf
I0213 12:44:22.605962  7113 net.cpp:150] Setting up mbox_conf
I0213 12:44:22.605970  7113 net.cpp:157] Top shape: 28 192104 (5378912)
I0213 12:44:22.605973  7113 net.cpp:165] Memory required for data: 7101699520
I0213 12:44:22.605976  7113 layer_factory.hpp:77] Creating layer mbox_priorbox
I0213 12:44:22.605983  7113 net.cpp:100] Creating Layer mbox_priorbox
I0213 12:44:22.605986  7113 net.cpp:434] mbox_priorbox <- conv4_3_norm_mbox_priorbox
I0213 12:44:22.605991  7113 net.cpp:434] mbox_priorbox <- fc7_mbox_priorbox
I0213 12:44:22.605995  7113 net.cpp:434] mbox_priorbox <- conv6_2_mbox_priorbox
I0213 12:44:22.605999  7113 net.cpp:434] mbox_priorbox <- conv7_2_mbox_priorbox
I0213 12:44:22.606003  7113 net.cpp:434] mbox_priorbox <- conv8_2_mbox_priorbox
I0213 12:44:22.606009  7113 net.cpp:434] mbox_priorbox <- conv9_2_mbox_priorbox
I0213 12:44:22.606014  7113 net.cpp:408] mbox_priorbox -> mbox_priorbox
I0213 12:44:22.606041  7113 net.cpp:150] Setting up mbox_priorbox
I0213 12:44:22.606048  7113 net.cpp:157] Top shape: 1 2 34928 (69856)
I0213 12:44:22.606052  7113 net.cpp:165] Memory required for data: 7101978944
I0213 12:44:22.606055  7113 layer_factory.hpp:77] Creating layer mbox_loss
I0213 12:44:22.606067  7113 net.cpp:100] Creating Layer mbox_loss
I0213 12:44:22.606072  7113 net.cpp:434] mbox_loss <- mbox_loc
I0213 12:44:22.606076  7113 net.cpp:434] mbox_loss <- mbox_conf
I0213 12:44:22.606081  7113 net.cpp:434] mbox_loss <- mbox_priorbox
…
layer {
  name: "data"
  type: "AnnotatedData"
  top: "data"
  top: "label"
  include {
    phase: TEST
  }
  transform_param {
    mean_value: 126
    mean_value: 100
    mean_value: 108
    mean_value: 113
    resize_param {
      prob: 1
      resize_mode: WARP
      height: 300
      width: 300
      interp_mode: LINEAR
    }
  }
  data_param {
    source: "examples/VOC0712/VOC0712_test_lmdb"
    batch_size: 13
    backend: LMDB
  }
  annotated_data_param {
    batch_sampler {
    }
    label_map_file: "data/VOC0712/labelmap_voc.prototxt"
  }
}
layer {
  name: "conv1_1_rgbd"
  type: "Convolution"
  bottom: "data"
  top: "conv1_1_rgbd"
  param {
    lr_mult: 1
    decay_mult: 1
  }
  param {
    lr_mult: 2
    decay_mult: 0
  }
  convolution_param {
    num_output: 64
    pad: 1
    kernel_size: 3
    weight_filler {
      type: "xavier"
    }
    bias_filler {
      type: "constant"
      value: 0
    }
  }
}
layer {
  name: "relu1_1"
  type: "ReLU"
  bottom: "conv1_1_rgbd"
  top: "conv1_1_rgbd"
}
layer {
  name: "conv1_2"
  type: "Convolution"
  bottom: "conv1_1_rgbd"
  top: "conv1_2"
  param {
    lr_mult: 1
    decay_mult: 1
  }
  param {
    lr_mult: 2
    decay_mult: 0
  }
  convolution_param {
    num_output: 64
    pad: 1
    kernel_size: 3
    weight_filler {
      type: "xavier"
    }
    bias_filler {
      type: "constant"
      value: 0
    }
  }
}
layer {
  name: "relu1_2"
  type: "ReLU"
  bottom: "conv1_2"
  top: "conv1_2"
}
layer {
  name: "pool1"
  type: "Pooling"
  bottom: "conv1_2"
  top: "pool1"
  pooling_param {
    pool: MAX
    kernel_size: 2
    stride: 2
  }
}
layer {
  name: "conv2_1"
  type: "Convolution"
  bottom: "pool1"
  top: "conv2_1"
  param {
    lr_mult: 1
    decay_mult: 1
  }
  param {
    lr_mult: 2
    decay_mult: 0
  }
  convolution_param {
    num_output: 128
    pad: 1
    kernel_size: 3
    weight_filler {
      type: "xavier"
    }
    bias_filler {
      type: "constant"
      value: 0
    }
  }
}
layer {
  name: "relu2_1"
  type: "ReLU"
  bottom: "conv2_1"
  top: "conv2_1"
}
layer {
  name: "conv2_2"
  type: "Convolution"
  bottom: "conv2_1"
  top: "conv2_2"
  param {
    lr_mult: 1
    decay_mult: 1
  }
  param {
    lr_mult: 2
    decay_mult: 0
  }
  convolution_param {
    num_output: 128
    pad: 1
    kernel_size: 3
    weight_filler {
      type: "xavier"
    }
    bias_filler {
      type: "constant"
      value: 0
    }
  }
}
layer {
  name: "relu2_2"
  type: "ReLU"
  bottom: "conv2_2"
  top: "conv2_2"
}
layer {
  name: "pool2"
  type: "Pooling"
  bottom: "conv2_2"
  top: "pool2"
  pooling_param {
    pool: MAX
    kernel_size: 2
    stride: 2
  }
}
layer {
  name: "conv3_1"
  type: "Convolution"
  bottom: "pool2"
  top: "conv3_1"
  param {
    lr_mult: 1
    decay_mult: 1
  }
  param {
    lr_mult: 2
    decay_mult: 0
  }
  convolution_param {
    num_output: 256
    pad: 1
    kernel_size: 3
    weight_filler {
      type: "xavier"
    }
    bias_filler {
      type: "constant"
      value: 0
    }
  }
}
layer {
  name: "relu3_1"
  type: "ReLU"
  bottom: "conv3_1"
  top: "conv3_1"
}
layer {
  name: "conv3_2"
  type: "Convolution"
  bottom: "conv3_1"
  top: "conv3_2"
  param {
    lr_mult: 1
    decay_mult: 1
  }
  param {
    lr_mult: 2
    decay_mult: 0
  }
  convolution_param {
    num_output: 256
    pad: 1
    kernel_size: 3
    weight_filler {
      type: "xavier"
    }
    bias_filler {
      type: "constant"
      value: 0
    }
  }
}
layer {
  name: "relu3_2"
  type: "ReLU"
  bottom: "conv3_2"
  top: "conv3_2"
}
layer {
  name: "conv3_3"
  type: "Convolution"
  bottom: "conv3_2"
  top: "conv3_3"
  param {
    lr_mult: 1
    decay_mult: 1
  }
  param {
    lr_mult: 2
    decay_mult: 0
  }
  convolution_param {
    num_output: 256
    pad: 1
    kernel_size: 3
    weight_filler {
      type: "xavier"
    }
    bias_filler {
      type: "constant"
      value: 0
    }
  }
}
layer {
  name: "relu3_3"
  type: "ReLU"
  bottom: "conv3_3"
  top: "conv3_3"
}
layer {
  name: "pool3"
  type: "Pooling"
  bottom: "conv3_3"
  top: "pool3"
  pooling_param {
    pool: MAX
    kernel_size: 2
    stride: 2
  }
}
layer {
  name: "conv4_1"
  type: "Convolution"
  bottom: "pool3"
  top: "conv4_1"
  param {
    lr_mult: 1
    decay_mult: 1
  }
  param {
    lr_mult: 2
    decay_mult: 0
  }
  convolution_param {
    num_output: 512
    pad: 1
    kernel_size: 3
    weight_filler {
      type: "xavier"
    }
    bias_filler {
      type: "constant"
      value: 0
    }
  }
}
layer {
  name: "relu4_1"
  type: "ReLU"
  bottom: "conv4_1"
  top: "conv4_1"
}
layer {
  name: "conv4_2"
  type: "Convolution"
  bottom: "conv4_1"
  top: "conv4_2"
  param {
    lr_mult: 1
    decay_mult: 1
  }
  param {
    lr_mult: 2
    decay_mult: 0
  }
  convolution_param {
    num_output: 512
    pad: 1
    kernel_size: 3
    weight_filler {
      type: "xavier"
    }
    bias_filler {
      type: "constant"
      value: 0
    }
  }
}
layer {
  name: "relu4_2"
  type: "ReLU"
  bottom: "conv4_2"
  top: "conv4_2"
}
layer {
  name: "conv4_3"
  type: "Convolution"
  bottom: "conv4_2"
  top: "conv4_3"
  param {
    lr_mult: 1
    decay_mult: 1
  }
  param {
    lr_mult: 2
    decay_mult: 0
  }
  convolution_param {
    num_output: 512
    pad: 1
    kernel_size: 3
    weight_filler {
      type: "xavier"
    }
    bias_filler {
      type: "constant"
      value: 0
    }
  }
}
layer {
  name: "relu4_3"
  type: "ReLU"
  bottom: "conv4_3"
  top: "conv4_3"
}
layer {
  name: "pool4"
  type: "Pooling"
  bottom: "conv4_3"
  top: "pool4"
  pooling_param {
    pool: MAX
    kernel_size: 2
    stride: 2
  }
}
layer {
  name: "conv5_1"
  type: "Convolution"
  bottom: "pool4"
  top: "conv5_1"
  param {
    lr_mult: 1
    decay_mult: 1
  }
  param {
    lr_mult: 2
    decay_mult: 0
  }
  convolution_param {
    num_output: 512
    pad: 1
    kernel_size: 3
    weight_filler {
      type: "xavier"
    }
    bias_filler {
      type: "constant"
      value: 0
    }
    dilation: 1
  }
}
layer {
  name: "relu5_1"
  type: "ReLU"
  bottom: "conv5_1"
  top: "conv5_1"
}
layer {
  name: "conv5_2"
  type: "Convolution"
  bottom: "conv5_1"
  top: "conv5_2"
  param {
    lr_mult: 1
    decay_mult: 1
  }
  param {
    lr_mult: 2
    decay_mult: 0
  }
  convolution_param {
    num_output: 512
    pad: 1
    kernel_size: 3
    weight_filler {
      type: "xavier"
    }
    bias_filler {
      type: "constant"
      value: 0
    }
    dilation: 1
  }
}
layer {
  name: "relu5_2"
  type: "ReLU"
  bottom: "conv5_2"
  top: "conv5_2"
}
layer {
  name: "conv5_3"
  type: "Convolution"
  bottom: "conv5_2"
  top: "conv5_3"
  param {
    lr_mult: 1
    decay_mult: 1
  }
  param {
    lr_mult: 2
    decay_mult: 0
  }
  convolution_param {
    num_output: 512
    pad: 1
    kernel_size: 3
    weight_filler {
      type: "xavier"
    }
    bias_filler {
      type: "constant"
      value: 0
    }
    dilation: 1
  }
}
layer {
  name: "relu5_3"
  type: "ReLU"
  bottom: "conv5_3"
  top: "conv5_3"
}
layer {
  name: "pool5"
  type: "Pooling"
  bottom: "conv5_3"
  top: "pool5"
  pooling_param {
    pool: MAX
    kernel_size: 3
    stride: 1
    pad: 1
  }
}
layer {
  name: "fc6"
  type: "Convolution"
  bottom: "pool5"
  top: "fc6"
  param {
    lr_mult: 1
    decay_mult: 1
  }
  param {
    lr_mult: 2
    decay_mult: 0
  }
  convolution_param {
    num_output: 1024
    pad: 6
    kernel_size: 3
    weight_filler {
      type: "xavier"
    }
    bias_filler {
      type: "constant"
      value: 0
    }
    dilation: 6
  }
}
layer {
  name: "relu6"
  type: "ReLU"
  bottom: "fc6"
  top: "fc6"
}
layer {
  name: "fc7"
  type: "Convolution"
  bottom: "fc6"
  top: "fc7"
  param {
    lr_mult: 1
    decay_mult: 1
  }
  param {
    lr_mult: 2
    decay_mult: 0
  }
  convolution_param {
    num_output: 1024
    kernel_size: 1
    weight_filler {
      type: "xavier"
    }
    bias_filler {
      type: "constant"
      value: 0
    }
  }
}
layer {
  name: "relu7"
  type: "ReLU"
  bottom: "fc7"
  top: "fc7"
}
layer {
  name: "conv6_1"
  type: "Convolution"
  bottom: "fc7"
  top: "conv6_1"
  param {
    lr_mult: 1
    decay_mult: 1
  }
  param {
    lr_mult: 2
    decay_mult: 0
  }
  convolution_param {
    num_output: 256
    pad: 0
    kernel_size: 1
    stride: 1
    weight_filler {
      type: "xavier"
    }
    bias_filler {
      type: "constant"
      value: 0
    }
  }
}
layer {
  name: "conv6_1_relu"
  type: "ReLU"
  bottom: "conv6_1"
  top: "conv6_1"
}
layer {
  name: "conv6_2"
  type: "Convolution"
  bottom: "conv6_1"
  top: "conv6_2"
  param {
    lr_mult: 1
    decay_mult: 1
  }
  param {
    lr_mult: 2
    decay_mult: 0
  }
  convolution_param {
    num_output: 512
    pad: 1
    kernel_size: 3
    stride: 2
    weight_filler {
      type: "xavier"
    }
    bias_filler {
      type: "constant"
      value: 0
    }
  }
}
layer {
  name: "conv6_2_relu"
  type: "ReLU"
  bottom: "conv6_2"
  top: "conv6_2"
}
layer {
  name: "conv7_1"
  type: "Convolution"
  bottom: "conv6_2"
  top: "conv7_1"
  param {
    lr_mult: 1
    decay_mult: 1
  }
  param {
    lr_mult: 2
    decay_mult: 0
  }
  convolution_param {
    num_output: 128
    pad: 0
    kernel_size: 1
    stride: 1
    weight_filler {
      type: "xavier"
    }
    bias_filler {
      type: "constant"
      value: 0
    }
  }
}
layer {
  name: "conv7_1_relu"
  type: "ReLU"
  bottom: "conv7_1"
  top: "conv7_1"
}
layer {
  name: "conv7_2"
  type: "Convolution"
  bottom: "conv7_1"
  top: "conv7_2"
  param {
    lr_mult: 1
    decay_mult: 1
  }
  param {
    lr_mult: 2
    decay_mult: 0
  }
  convolution_param {
    num_output: 256
    pad: 1
    kernel_size: 3
    stride: 2
    weight_filler {
      type: "xavier"
    }
    bias_filler {
      type: "constant"
      value: 0
    }
  }
}
layer {
  name: "conv7_2_relu"
  type: "ReLU"
  bottom: "conv7_2"
  top: "conv7_2"
}
layer {
  name: "conv8_1"
  type: "Convolution"
  bottom: "conv7_2"
  top: "conv8_1"
  param {
    lr_mult: 1
    decay_mult: 1
  }
  param {
    lr_mult: 2
    decay_mult: 0
  }
  convolution_param {
    num_output: 128
    pad: 0
    kernel_size: 1
    stride: 1
    weight_filler {
      type: "xavier"
    }
    bias_filler {
      type: "constant"
      value: 0
    }
  }
}
layer {
  name: "conv8_1_relu"
  type: "ReLU"
  bottom: "conv8_1"
  top: "conv8_1"
}
layer {
  name: "conv8_2"
  type: "Convolution"
  bottom: "conv8_1"
  top: "conv8_2"
  param {
    lr_mult: 1
    decay_mult: 1
  }
  param {
    lr_mult: 2
    decay_mult: 0
  }
  convolution_param {
    num_output: 256
    pad: 0
    kernel_size: 3
    stride: 1
    weight_filler {
      type: "xavier"
    }
    bias_filler {
      type: "constant"
      value: 0
    }
  }
}
layer {
  name: "conv8_2_relu"
  type: "ReLU"
  bottom: "conv8_2"
  top: "conv8_2"
}
layer {
  name: "conv9_1"
  type: "Convolution"
  bottom: "conv8_2"
  top: "conv9_1"
  param {
    lr_mult: 1
    decay_mult: 1
  }
  param {
    lr_mult: 2
    decay_mult: 0
  }
  convolution_param {
    num_output: 128
    pad: 0
    kernel_size: 1
    stride: 1
    weight_filler {
      type: "xavier"
    }
    bias_filler {
      type: "constant"
      value: 0
    }
  }
}
layer {
  name: "conv9_1_relu"
  type: "ReLU"
  bottom: "conv9_1"
  top: "conv9_1"
}
layer {
  name: "conv9_2"
  type: "Convolution"
  bottom: "conv9_1"
  top: "conv9_2"
  param {
    lr_mult: 1
    decay_mult: 1
  }
  param {
    lr_mult: 2
    decay_mult: 0
  }
  convolution_param {
    num_output: 256
    pad: 0
    kernel_size: 3
    stride: 1
    weight_filler {
      type: "xavier"
    }
    bias_filler {
      type: "constant"
      value: 0
    }
  }
}
layer {
  name: "conv9_2_relu"
  type: "ReLU"
  bottom: "conv9_2"
  top: "conv9_2"
}
layer {
  name: "conv4_3_norm"
  type: "Normalize"
  bottom: "conv4_3"
  top: "conv4_3_norm"
  norm_param {
    across_spatial: false
    scale_filler {
      type: "constant"
      value: 20
    }
    channel_shared: false
  }
}
layer {
  name: "conv4_3_norm_mbox_loc"
  type: "Convolution"
  bottom: "conv4_3_norm"
  top: "conv4_3_norm_mbox_loc"
  param {
    lr_mult: 1
    decay_mult: 1
  }
  param {
    lr_mult: 2
    decay_mult: 0
  }
  convolution_param {
    num_output: 16
    pad: 1
    kernel_size: 3
    stride: 1
    weight_filler {
      type: "xavier"
    }
    bias_filler {
      type: "constant"
      value: 0
    }
  }
}
layer {
  name: "conv4_3_norm_mbox_loc_perm"
  type: "Permute"
  bottom: "conv4_3_norm_mbox_loc"
  top: "conv4_3_norm_mbox_loc_perm"
  permute_param {
    order: 0
    order: 2
    order: 3
    order: 1
  }
}
layer {
  name: "conv4_3_norm_mbox_loc_flat"
  type: "Flatten"
  bottom: "conv4_3_norm_mbox_loc_perm"
  top: "conv4_3_norm_mbox_loc_flat"
  flatten_param {
    axis: 1
  }
}
layer {
  name: "conv4_3_norm_mbox_conf"
  type: "Convolution"
  bottom: "conv4_3_norm"
  top: "conv4_3_norm_mbox_conf"
  param {
    lr_mult: 1
    decay_mult: 1
  }
  param {
    lr_mult: 2
    decay_mult: 0
  }
  convolution_param {
    num_output: 88
    pad: 1
    kernel_size: 3
    stride: 1
    weight_filler {
      type: "xavier"
    }
    bias_filler {
      type: "constant"
      value: 0
    }
  }
}
layer {
  name: "conv4_3_norm_mbox_conf_perm"
  type: "Permute"
  bottom: "conv4_3_norm_mbox_conf"
  top: "conv4_3_norm_mbox_conf_perm"
  permute_param {
    order: 0
    order: 2
    order: 3
    order: 1
  }
}
layer {
  name: "conv4_3_norm_mbox_conf_flat"
  type: "Flatten"
  bottom: "conv4_3_norm_mbox_conf_perm"
  top: "conv4_3_norm_mbox_conf_flat"
  flatten_param {
    axis: 1
  }
}
layer {
  name: "conv4_3_norm_mbox_priorbox"
  type: "PriorBox"
  bottom: "conv4_3_norm"
  bottom: "data"
  top: "conv4_3_norm_mbox_priorbox"
  prior_box_param {
    min_size: 30
    max_size: 60
    aspect_ratio: 2
    flip: true
    clip: false
    variance: 0.1
    variance: 0.1
    variance: 0.2
    variance: 0.2
    step: 8
    offset: 0.5
  }
}
layer {
  name: "fc7_mbox_loc"
  type: "Convolution"
  bottom: "fc7"
  top: "fc7_mbox_loc"
  param {
    lr_mult: 1
    decay_mult: 1
  }
  param {
    lr_mult: 2
    decay_mult: 0
  }
  convolution_param {
    num_output: 24
    pad: 1
    kernel_size: 3
    stride: 1
    weight_filler {
      type: "xavier"
    }
    bias_filler {
      type: "constant"
      value: 0
    }
  }
}
layer {
  name: "fc7_mbox_loc_perm"
  type: "Permute"
  bottom: "fc7_mbox_loc"
  top: "fc7_mbox_loc_perm"
  permute_param {
    order: 0
    order: 2
    order: 3
    order: 1
  }
}
layer {
  name: "fc7_mbox_loc_flat"
  type: "Flatten"
  bottom: "fc7_mbox_loc_perm"
  top: "fc7_mbox_loc_flat"
  flatten_param {
    axis: 1
  }
}
layer {
  name: "fc7_mbox_conf"
  type: "Convolution"
  bottom: "fc7"
  top: "fc7_mbox_conf"
  param {
    lr_mult: 1
    decay_mult: 1
  }
  param {
    lr_mult: 2
    decay_mult: 0
  }
  convolution_param {
    num_output: 132
    pad: 1
    kernel_size: 3
    stride: 1
    weight_filler {
      type: "xavier"
    }
    bias_filler {
      type: "constant"
      value: 0
    }
  }
}
layer {
  name: "fc7_mbox_conf_perm"
  type: "Permute"
  bottom: "fc7_mbox_conf"
  top: "fc7_mbox_conf_perm"
  permute_param {
    order: 0
    order: 2
    order: 3
    order: 1
  }
}
layer {
  name: "fc7_mbox_conf_flat"
  type: "Flatten"
  bottom: "fc7_mbox_conf_perm"
  top: "fc7_mbox_conf_flat"
  flatten_param {
    axis: 1
  }
}
layer {
  name: "fc7_mbox_priorbox"
  type: "PriorBox"
  bottom: "fc7"
  bottom: "data"
  top: "fc7_mbox_priorbox"
  prior_box_param {
    min_size: 60
    max_size: 111
    aspect_ratio: 2
    aspect_ratio: 3
    flip: true
    clip: false
    variance: 0.1
    variance: 0.1
    variance: 0.2
    variance: 0.2
    step: 16
    offset: 0.5
  }
}
layer {
  name: "conv6_2_mbox_loc"
  type: "Convolution"
  bottom: "conv6_2"
  top: "conv6_2_mbox_loc"
  param {
    lr_mult: 1
    decay_mult: 1
  }
  param {
    lr_mult: 2
    decay_mult: 0
  }
  convolution_param {
    num_output: 24
    pad: 1
    kernel_size: 3
    stride: 1
    weight_filler {
      type: "xavier"
    }
    bias_filler {
      type: "constant"
      value: 0
    }
  }
}
layer {
  name: "conv6_2_mbox_loc_perm"
  type: "Permute"
  bottom: "conv6_2_mbox_loc"
  top: "conv6_2_mbox_loc_perm"
  permute_param {
    order: 0
    order: 2
    order: 3
    order: 1
  }
}
layer {
  name: "conv6_2_mbox_loc_flat"
  type: "Flatten"
  bottom: "conv6_2_mbox_loc_perm"
  top: "conv6_2_mbox_loc_flat"
  flatten_param {
    axis: 1
  }
}
layer {
  name: "conv6_2_mbox_conf"
  type: "Convolution"
  bottom: "conv6_2"
  top: "conv6_2_mbox_conf"
  param {
    lr_mult: 1
    decay_mult: 1
  }
  param {
    lr_mult: 2
    decay_mult: 0
  }
  convolution_param {
    num_output: 132
    pad: 1
    kernel_size: 3
    stride: 1
    weight_filler {
      type: "xavier"
    }
    bias_filler {
      type: "constant"
      value: 0
    }
  }
}
layer {
  name: "conv6_2_mbox_conf_perm"
  type: "Permute"
  bottom: "conv6_2_mbox_conf"
  top: "conv6_2_mbox_conf_perm"
  permute_param {
    order: 0
    order: 2
    order: 3
    order: 1
  }
}
layer {
  name: "conv6_2_mbox_conf_flat"
  type: "Flatten"
  bottom: "conv6_2_mbox_conf_perm"
  top: "conv6_2_mbox_conf_flat"
  flatten_param {
    axis: 1
  }
}
layer {
  name: "conv6_2_mbox_priorbox"
  type: "PriorBox"
  bottom: "conv6_2"
  bottom: "data"
  top: "conv6_2_mbox_priorbox"
  prior_box_param {
    min_size: 111
    max_size: 162
    aspect_ratio: 2
    aspect_ratio: 3
    flip: true
    clip: false
    variance: 0.1
    variance: 0.1
    variance: 0.2
    variance: 0.2
    step: 32
    offset: 0.5
  }
}
layer {
  name: "conv7_2_mbox_loc"
  type: "Convolution"
  bottom: "conv7_2"
  top: "conv7_2_mbox_loc"
  param {
    lr_mult: 1
    decay_mult: 1
  }
  param {
    lr_mult: 2
    decay_mult: 0
  }
  convolution_param {
    num_output: 24
    pad: 1
    kernel_size: 3
    stride: 1
    weight_filler {
      type: "xavier"
    }
    bias_filler {
      type: "constant"
      value: 0
    }
  }
}
layer {
  name: "conv7_2_mbox_loc_perm"
  type: "Permute"
  bottom: "conv7_2_mbox_loc"
  top: "conv7_2_mbox_loc_perm"
  permute_param {
    order: 0
    order: 2
    order: 3
    order: 1
  }
}
layer {
  name: "conv7_2_mbox_loc_flat"
  type: "Flatten"
  bottom: "conv7_2_mbox_loc_perm"
  top: "conv7_2_mbox_loc_flat"
  flatten_param {
    axis: 1
  }
}
layer {
  name: "conv7_2_mbox_conf"
  type: "Convolution"
  bottom: "conv7_2"
  top: "conv7_2_mbox_conf"
  param {
    lr_mult: 1
    decay_mult: 1
  }
  param {
    lr_mult: 2
    decay_mult: 0
  }
  convolution_param {
    num_output: 132
    pad: 1
    kernel_size: 3
    stride: 1
    weight_filler {
      type: "xavier"
    }
    bias_filler {
      type: "constant"
      value: 0
    }
  }
}
layer {
  name: "conv7_2_mbox_conf_perm"
  type: "Permute"
  bottom: "conv7_2_mbox_conf"
  top: "conv7_2_mbox_conf_perm"
  permute_param {
    order: 0
    order: 2
    order: 3
    order: 1
  }
}
layer {
  name: "conv7_2_mbox_conf_flat"
  type: "Flatten"
  bottom: "conv7_2_mbox_conf_perm"
  top: "conv7_2_mbox_conf_flat"
  flatten_param {
    axis: 1
  }
}
layer {
  name: "conv7_2_mbox_priorbox"
  type: "PriorBox"
  bottom: "conv7_2"
  bottom: "data"
  top: "conv7_2_mbox_priorbox"
  prior_box_param {
    min_size: 162
    max_size: 213
    aspect_ratio: 2
    aspect_ratio: 3
    flip: true
    clip: false
    variance: 0.1
    variance: 0.1
    variance: 0.2
    variance: 0.2
    step: 64
    offset: 0.5
  }
}
layer {
  name: "conv8_2_mbox_loc"
  type: "Convolution"
  bottom: "conv8_2"
  top: "conv8_2_mbox_loc"
  param {
    lr_mult: 1
    decay_mult: 1
  }
  param {
    lr_mult: 2
    decay_mult: 0
  }
  convolution_param {
    num_output: 16
    pad: 1
    kernel_size: 3
    stride: 1
    weight_filler {
      type: "xavier"
    }
    bias_filler {
      type: "constant"
      value: 0
    }
  }
}
layer {
  name: "conv8_2_mbox_loc_perm"
  type: "Permute"
  bottom: "conv8_2_mbox_loc"
  top: "conv8_2_mbox_loc_perm"
  permute_param {
    order: 0
    order: 2
    order: 3
    order: 1
  }
}
layer {
  name: "conv8_2_mbox_loc_flat"
  type: "Flatten"
  bottom: "conv8_2_mbox_loc_perm"
  top: "conv8_2_mbox_loc_flat"
  flatten_param {
    axis: 1
  }
}
layer {
  name: "conv8_2_mbox_conf"
  type: "Convolution"
  bottom: "conv8_2"
  top: "conv8_2_mbox_conf"
  param {
    lr_mult: 1
    decay_mult: 1
  }
  param {
    lr_mult: 2
    decay_mult: 0
  }
  convolution_param {
    num_output: 88
    pad: 1
    kernel_size: 3
    stride: 1
    weight_filler {
      type: "xavier"
    }
    bias_filler {
      type: "constant"
      value: 0
    }
  }
}
layer {
  name: "conv8_2_mbox_conf_perm"
  type: "Permute"
  bottom: "conv8_2_mbox_conf"
  top: "conv8_2_mbox_conf_perm"
  permute_param {
    order: 0
    order: 2
    order: 3
    order: 1
  }
}
layer {
  name: "conv8_2_mbox_conf_flat"
  type: "Flatten"
  bottom: "conv8_2_mbox_conf_perm"
  top: "conv8_2_mbox_conf_flat"
  flatten_param {
    axis: 1
  }
}
layer {
  name: "conv8_2_mbox_priorbox"
  type: "PriorBox"
  bottom: "conv8_2"
  bottom: "data"
  top: "conv8_2_mbox_priorbox"
  prior_box_param {
    min_size: 213
    max_size: 264
    aspect_ratio: 2
    flip: true
    clip: false
    variance: 0.1
    variance: 0.1
    variance: 0.2
    variance: 0.2
    step: 100
    offset: 0.5
  }
}
layer {
  name: "conv9_2_mbox_loc"
  type: "Convolution"
  bottom: "conv9_2"
  top: "conv9_2_mbox_loc"
  param {
    lr_mult: 1
    decay_mult: 1
  }
  param {
    lr_mult: 2
    decay_mult: 0
  }
  convolution_param {
    num_output: 16
    pad: 1
    kernel_size: 3
    stride: 1
    weight_filler {
      type: "xavier"
    }
    bias_filler {
      type: "constant"
      value: 0
    }
  }
}
layer {
  name: "conv9_2_mbox_loc_perm"
  type: "Permute"
  bottom: "conv9_2_mbox_loc"
  top: "conv9_2_mbox_loc_perm"
  permute_param {
    order: 0
    order: 2
    order: 3
    order: 1
  }
}
layer {
  name: "conv9_2_mbox_loc_flat"
  type: "Flatten"
  bottom: "conv9_2_mbox_loc_perm"
  top: "conv9_2_mbox_loc_flat"
  flatten_param {
    axis: 1
  }
}
layer {
  name: "conv9_2_mbox_conf"
  type: "Convolution"
  bottom: "conv9_2"
  top: "conv9_2_mbox_conf"
  param {
    lr_mult: 1
    decay_mult: 1
  }
  param {
    lr_mult: 2
    decay_mult: 0
  }
  convolution_param {
    num_output: 88
    pad: 1
    kernel_size: 3
    stride: 1
    weight_filler {
      type: "xavier"
    }
    bias_filler {
      type: "constant"
      value: 0
    }
  }
}
layer {
  name: "conv9_2_mbox_conf_perm"
  type: "Permute"
  bottom: "conv9_2_mbox_conf"
  top: "conv9_2_mbox_conf_perm"
  permute_param {
    order: 0
    order: 2
    order: 3
    order: 1
  }
}
layer {
  name: "conv9_2_mbox_conf_flat"
  type: "Flatten"
  bottom: "conv9_2_mbox_conf_perm"
  top: "conv9_2_mbox_conf_flat"
  flatten_param {
    axis: 1
  }
}
layer {
  name: "conv9_2_mbox_priorbox"
  type: "PriorBox"
  bottom: "conv9_2"
  bottom: "data"
  top: "conv9_2_mbox_priorbox"
  prior_box_param {
    min_size: 264
    max_size: 315
    aspect_ratio: 2
    flip: true
    clip: false
    variance: 0.1
    variance: 0.1
    variance: 0.2
    variance: 0.2
    step: 300
    offset: 0.5
  }
}
layer {
  name: "mbox_loc"
  type: "Concat"
  bottom: "conv4_3_norm_mbox_loc_flat"
  bottom: "fc7_mbox_loc_flat"
  bottom: "conv6_2_mbox_loc_flat"
  bottom: "conv7_2_mbox_loc_flat"
  bottom: "conv8_2_mbox_loc_flat"
  bottom: "conv9_2_mbox_loc_flat"
  top: "mbox_loc"
  concat_param {
    axis: 1
  }
}
layer {
  name: "mbox_conf"
  type: "Concat"
  bottom: "conv4_3_norm_mbox_conf_flat"
  bottom: "fc7_mbox_conf_flat"
  bottom: "conv6_2_mbox_conf_flat"
  bottom: "conv7_2_mbox_conf_flat"
  bottom: "conv8_2_mbox_conf_flat"
  bottom: "conv9_2_mbox_conf_flat"
  top: "mbox_conf"
  concat_param {
    axis: 1
  }
}
layer {
  name: "mbox_priorbox"
  type: "Concat"
  bottom: "conv4_3_norm_mbox_priorbox"
  bottom: "fc7_mbox_priorbox"
  bottom: "conv6_2_mbox_priorbox"
  bottom: "conv7_2_mbox_priorbox"
  bottom: "conv8_2_mbox_priorbox"
  bottom: "conv9_2_mbox_priorbox"
  top: "mbox_priorbox"
  concat_param {
    axis: 2
  }
}
layer {
  name: "mbox_conf_reshape"
  type: "Reshape"
  bottom: "mbox_conf"
  top: "mbox_conf_reshape"
  reshape_param {
    shape {
      dim: 0
      dim: -1
      dim: 22
    }
  }
}
layer {
  name: "mbox_conf_softmax"
  type: "Softmax"
  bottom: "mbox_conf_reshape"
  top: "mbox_conf_softmax"
  softmax_param {
    axis: 2
  }
}
layer {
  name: "mbox_conf_flatten"
  type: "Flatten"
  bottom: "mbox_conf_softmax"
  top: "mbox_conf_flatten"
  flatten_param {
    axis: 1
  }
}
layer {
  name: "detection_out"
  type: "DetectionOutput"
  bottom: "mbox_loc"
  bottom: "mbox_conf_flatten"
  bottom: "mbox_priorbox"
  top: "detection_out"
  include {
    phase: TEST
  }
  detection_output_param {
    num_classes: 22
    share_location: true
    background_label_id: 0
    nms_param {
      nms_threshold: 0.45
      top_k: 400
    }
    save_output_param {
      output_directory: "/home/dhall/data/VOCdevkit/results/VOC2007/SSD_RGBD_test_300x300/Main"
      output_name_prefix: "comp4_det_test_"
      output_format: "VOC"
      label_map_file: "data/VOC0712/labelmap_voc.prototxt"
      name_size_file: "data/VOC0712/test_name_size.txt"
      num_test_image: 2
    }
    code_type: CENTER_SIZE
    keep_top_k: 200
    confidence_threshold: 0.01
  }
}
layer {
  name: "detection_eval"
  type: "DetectionEvaluate"
  bottom: "detection_out"
  bottom: "label"
  top: "detection_eval"
  include {
    phase: TEST
  }
  detection_evaluate_param {
    num_classes: 22
    background_label_id: 0
    overlap_threshold: 0.5
    evaluate_difficult_gt: false
    name_size_file: "data/VOC0712/test_name_size.txt"
  }
}
I0213 12:44:22.610673  7113 layer_factory.hpp:77] Creating layer data
I0213 12:44:22.610738  7113 net.cpp:100] Creating Layer data
I0213 12:44:22.610749  7113 net.cpp:408] data -> data
I0213 12:44:22.610759  7113 net.cpp:408] data -> label
I0213 12:44:22.613073  7131 db_lmdb.cpp:35] Opened lmdb examples/VOC0712/VOC0712_test_lmdb
I0213 12:44:22.626392  7113 annotated_data_layer.cpp:62] output data size: 13,4,300,300
I0213 12:44:22.659950  7113 net.cpp:150] Setting up data
I0213 12:44:22.659998  7113 net.cpp:157] Top shape: 13 4 300 300 (4680000)
I0213 12:44:22.660008  7113 net.cpp:157] Top shape: 1 1 6 8 (48)
I0213 12:44:22.660014  7113 net.cpp:165] Memory required for data: 18720192
I0213 12:44:22.660024  7113 layer_factory.hpp:77] Creating layer data_data_0_split
I0213 12:44:22.660043  7113 net.cpp:100] Creating Layer data_data_0_split
I0213 12:44:22.660053  7113 net.cpp:434] data_data_0_split <- data
I0213 12:44:22.660064  7113 net.cpp:408] data_data_0_split -> data_data_0_split_0
I0213 12:44:22.660080  7113 net.cpp:408] data_data_0_split -> data_data_0_split_1
I0213 12:44:22.660090  7113 net.cpp:408] data_data_0_split -> data_data_0_split_2
I0213 12:44:22.660102  7113 net.cpp:408] data_data_0_split -> data_data_0_split_3
I0213 12:44:22.660115  7113 net.cpp:408] data_data_0_split -> data_data_0_split_4
I0213 12:44:22.660127  7113 net.cpp:408] data_data_0_split -> data_data_0_split_5
I0213 12:44:22.660136  7113 net.cpp:408] data_data_0_split -> data_data_0_split_6
I0213 12:44:22.660356  7113 net.cpp:150] Setting up data_data_0_split
I0213 12:44:22.660392  7113 net.cpp:157] Top shape: 13 4 300 300 (4680000)
I0213 12:44:22.660400  7113 net.cpp:157] Top shape: 13 4 300 300 (4680000)
I0213 12:44:22.660408  7113 net.cpp:157] Top shape: 13 4 300 300 (4680000)
I0213 12:44:22.660415  7113 net.cpp:157] Top shape: 13 4 300 300 (4680000)
I0213 12:44:22.660423  7113 net.cpp:157] Top shape: 13 4 300 300 (4680000)
I0213 12:44:22.660429  7113 net.cpp:157] Top shape: 13 4 300 300 (4680000)
I0213 12:44:22.660439  7113 net.cpp:157] Top shape: 13 4 300 300 (4680000)
I0213 12:44:22.660444  7113 net.cpp:165] Memory required for data: 149760192
I0213 12:44:22.660451  7113 layer_factory.hpp:77] Creating layer conv1_1_rgbd
I0213 12:44:22.660470  7113 net.cpp:100] Creating Layer conv1_1_rgbd
I0213 12:44:22.660477  7113 net.cpp:434] conv1_1_rgbd <- data_data_0_split_0
I0213 12:44:22.660487  7113 net.cpp:408] conv1_1_rgbd -> conv1_1_rgbd
I0213 12:44:22.662488  7113 net.cpp:150] Setting up conv1_1_rgbd
I0213 12:44:22.662511  7113 net.cpp:157] Top shape: 13 64 300 300 (74880000)
I0213 12:44:22.662518  7113 net.cpp:165] Memory required for data: 449280192
I0213 12:44:22.662539  7113 layer_factory.hpp:77] Creating layer relu1_1
I0213 12:44:22.662550  7113 net.cpp:100] Creating Layer relu1_1
I0213 12:44:22.662559  7113 net.cpp:434] relu1_1 <- conv1_1_rgbd
I0213 12:44:22.662569  7113 net.cpp:395] relu1_1 -> conv1_1_rgbd (in-place)
I0213 12:44:22.662993  7113 net.cpp:150] Setting up relu1_1
I0213 12:44:22.663012  7113 net.cpp:157] Top shape: 13 64 300 300 (74880000)
I0213 12:44:22.663018  7113 net.cpp:165] Memory required for data: 748800192
I0213 12:44:22.663024  7113 layer_factory.hpp:77] Creating layer conv1_2
I0213 12:44:22.663039  7113 net.cpp:100] Creating Layer conv1_2
I0213 12:44:22.663046  7113 net.cpp:434] conv1_2 <- conv1_1_rgbd
I0213 12:44:22.663056  7113 net.cpp:408] conv1_2 -> conv1_2
I0213 12:44:22.665838  7113 net.cpp:150] Setting up conv1_2
I0213 12:44:22.665863  7113 net.cpp:157] Top shape: 13 64 300 300 (74880000)
I0213 12:44:22.665869  7113 net.cpp:165] Memory required for data: 1048320192
I0213 12:44:22.665885  7113 layer_factory.hpp:77] Creating layer relu1_2
I0213 12:44:22.665896  7113 net.cpp:100] Creating Layer relu1_2
I0213 12:44:22.665904  7113 net.cpp:434] relu1_2 <- conv1_2
I0213 12:44:22.665912  7113 net.cpp:395] relu1_2 -> conv1_2 (in-place)
I0213 12:44:22.666196  7113 net.cpp:150] Setting up relu1_2
I0213 12:44:22.666215  7113 net.cpp:157] Top shape: 13 64 300 300 (74880000)
I0213 12:44:22.666223  7113 net.cpp:165] Memory required for data: 1347840192
I0213 12:44:22.666229  7113 layer_factory.hpp:77] Creating layer pool1
I0213 12:44:22.666244  7113 net.cpp:100] Creating Layer pool1
I0213 12:44:22.666250  7113 net.cpp:434] pool1 <- conv1_2
I0213 12:44:22.666259  7113 net.cpp:408] pool1 -> pool1
I0213 12:44:22.666390  7113 net.cpp:150] Setting up pool1
I0213 12:44:22.666409  7113 net.cpp:157] Top shape: 13 64 150 150 (18720000)
I0213 12:44:22.666414  7113 net.cpp:165] Memory required for data: 1422720192
I0213 12:44:22.666421  7113 layer_factory.hpp:77] Creating layer conv2_1
I0213 12:44:22.666436  7113 net.cpp:100] Creating Layer conv2_1
I0213 12:44:22.666445  7113 net.cpp:434] conv2_1 <- pool1
I0213 12:44:22.666456  7113 net.cpp:408] conv2_1 -> conv2_1
I0213 12:44:22.668977  7113 net.cpp:150] Setting up conv2_1
I0213 12:44:22.668999  7113 net.cpp:157] Top shape: 13 128 150 150 (37440000)
I0213 12:44:22.669006  7113 net.cpp:165] Memory required for data: 1572480192
I0213 12:44:22.669023  7113 layer_factory.hpp:77] Creating layer relu2_1
I0213 12:44:22.669034  7113 net.cpp:100] Creating Layer relu2_1
I0213 12:44:22.669041  7113 net.cpp:434] relu2_1 <- conv2_1
I0213 12:44:22.669052  7113 net.cpp:395] relu2_1 -> conv2_1 (in-place)
I0213 12:44:22.669327  7113 net.cpp:150] Setting up relu2_1
I0213 12:44:22.669343  7113 net.cpp:157] Top shape: 13 128 150 150 (37440000)
I0213 12:44:22.669349  7113 net.cpp:165] Memory required for data: 1722240192
I0213 12:44:22.669355  7113 layer_factory.hpp:77] Creating layer conv2_2
I0213 12:44:22.669373  7113 net.cpp:100] Creating Layer conv2_2
I0213 12:44:22.669399  7113 net.cpp:434] conv2_2 <- conv2_1
I0213 12:44:22.669410  7113 net.cpp:408] conv2_2 -> conv2_2
I0213 12:44:22.673132  7113 net.cpp:150] Setting up conv2_2
I0213 12:44:22.673154  7113 net.cpp:157] Top shape: 13 128 150 150 (37440000)
I0213 12:44:22.673161  7113 net.cpp:165] Memory required for data: 1872000192
I0213 12:44:22.673172  7113 layer_factory.hpp:77] Creating layer relu2_2
I0213 12:44:22.673182  7113 net.cpp:100] Creating Layer relu2_2
I0213 12:44:22.673189  7113 net.cpp:434] relu2_2 <- conv2_2
I0213 12:44:22.673198  7113 net.cpp:395] relu2_2 -> conv2_2 (in-place)
I0213 12:44:22.673638  7113 net.cpp:150] Setting up relu2_2
I0213 12:44:22.673657  7113 net.cpp:157] Top shape: 13 128 150 150 (37440000)
I0213 12:44:22.673665  7113 net.cpp:165] Memory required for data: 2021760192
I0213 12:44:22.673671  7113 layer_factory.hpp:77] Creating layer pool2
I0213 12:44:22.673681  7113 net.cpp:100] Creating Layer pool2
I0213 12:44:22.673687  7113 net.cpp:434] pool2 <- conv2_2
I0213 12:44:22.673696  7113 net.cpp:408] pool2 -> pool2
I0213 12:44:22.673773  7113 net.cpp:150] Setting up pool2
I0213 12:44:22.673785  7113 net.cpp:157] Top shape: 13 128 75 75 (9360000)
I0213 12:44:22.673791  7113 net.cpp:165] Memory required for data: 2059200192
I0213 12:44:22.673799  7113 layer_factory.hpp:77] Creating layer conv3_1
I0213 12:44:22.673811  7113 net.cpp:100] Creating Layer conv3_1
I0213 12:44:22.673817  7113 net.cpp:434] conv3_1 <- pool2
I0213 12:44:22.673827  7113 net.cpp:408] conv3_1 -> conv3_1
I0213 12:44:22.681210  7113 net.cpp:150] Setting up conv3_1
I0213 12:44:22.681234  7113 net.cpp:157] Top shape: 13 256 75 75 (18720000)
I0213 12:44:22.681241  7113 net.cpp:165] Memory required for data: 2134080192
I0213 12:44:22.681257  7113 layer_factory.hpp:77] Creating layer relu3_1
I0213 12:44:22.681268  7113 net.cpp:100] Creating Layer relu3_1
I0213 12:44:22.681275  7113 net.cpp:434] relu3_1 <- conv3_1
I0213 12:44:22.681283  7113 net.cpp:395] relu3_1 -> conv3_1 (in-place)
I0213 12:44:22.682600  7113 net.cpp:150] Setting up relu3_1
I0213 12:44:22.682629  7113 net.cpp:157] Top shape: 13 256 75 75 (18720000)
I0213 12:44:22.682637  7113 net.cpp:165] Memory required for data: 2208960192
I0213 12:44:22.682644  7113 layer_factory.hpp:77] Creating layer conv3_2
I0213 12:44:22.682660  7113 net.cpp:100] Creating Layer conv3_2
I0213 12:44:22.682667  7113 net.cpp:434] conv3_2 <- conv3_1
I0213 12:44:22.682677  7113 net.cpp:408] conv3_2 -> conv3_2
I0213 12:44:22.694527  7113 net.cpp:150] Setting up conv3_2
I0213 12:44:22.694562  7113 net.cpp:157] Top shape: 13 256 75 75 (18720000)
I0213 12:44:22.694571  7113 net.cpp:165] Memory required for data: 2283840192
I0213 12:44:22.694586  7113 layer_factory.hpp:77] Creating layer relu3_2
I0213 12:44:22.694602  7113 net.cpp:100] Creating Layer relu3_2
I0213 12:44:22.694609  7113 net.cpp:434] relu3_2 <- conv3_2
I0213 12:44:22.694622  7113 net.cpp:395] relu3_2 -> conv3_2 (in-place)
I0213 12:44:22.694986  7113 net.cpp:150] Setting up relu3_2
I0213 12:44:22.695008  7113 net.cpp:157] Top shape: 13 256 75 75 (18720000)
I0213 12:44:22.695016  7113 net.cpp:165] Memory required for data: 2358720192
I0213 12:44:22.695024  7113 layer_factory.hpp:77] Creating layer conv3_3
I0213 12:44:22.695045  7113 net.cpp:100] Creating Layer conv3_3
I0213 12:44:22.695053  7113 net.cpp:434] conv3_3 <- conv3_2
I0213 12:44:22.695067  7113 net.cpp:408] conv3_3 -> conv3_3
I0213 12:44:22.707492  7113 net.cpp:150] Setting up conv3_3
I0213 12:44:22.707525  7113 net.cpp:157] Top shape: 13 256 75 75 (18720000)
I0213 12:44:22.707532  7113 net.cpp:165] Memory required for data: 2433600192
I0213 12:44:22.707546  7113 layer_factory.hpp:77] Creating layer relu3_3
I0213 12:44:22.707558  7113 net.cpp:100] Creating Layer relu3_3
I0213 12:44:22.707566  7113 net.cpp:434] relu3_3 <- conv3_3
I0213 12:44:22.707577  7113 net.cpp:395] relu3_3 -> conv3_3 (in-place)
I0213 12:44:22.708139  7113 net.cpp:150] Setting up relu3_3
I0213 12:44:22.708166  7113 net.cpp:157] Top shape: 13 256 75 75 (18720000)
I0213 12:44:22.708174  7113 net.cpp:165] Memory required for data: 2508480192
I0213 12:44:22.708210  7113 layer_factory.hpp:77] Creating layer pool3
I0213 12:44:22.708225  7113 net.cpp:100] Creating Layer pool3
I0213 12:44:22.708233  7113 net.cpp:434] pool3 <- conv3_3
I0213 12:44:22.708245  7113 net.cpp:408] pool3 -> pool3
I0213 12:44:22.708353  7113 net.cpp:150] Setting up pool3
I0213 12:44:22.708369  7113 net.cpp:157] Top shape: 13 256 38 38 (4805632)
I0213 12:44:22.708376  7113 net.cpp:165] Memory required for data: 2527702720
I0213 12:44:22.708384  7113 layer_factory.hpp:77] Creating layer conv4_1
I0213 12:44:22.708400  7113 net.cpp:100] Creating Layer conv4_1
I0213 12:44:22.708407  7113 net.cpp:434] conv4_1 <- pool3
I0213 12:44:22.708418  7113 net.cpp:408] conv4_1 -> conv4_1
I0213 12:44:22.728235  7113 net.cpp:150] Setting up conv4_1
I0213 12:44:22.728266  7113 net.cpp:157] Top shape: 13 512 38 38 (9611264)
I0213 12:44:22.728272  7113 net.cpp:165] Memory required for data: 2566147776
I0213 12:44:22.728284  7113 layer_factory.hpp:77] Creating layer relu4_1
I0213 12:44:22.728296  7113 net.cpp:100] Creating Layer relu4_1
I0213 12:44:22.728303  7113 net.cpp:434] relu4_1 <- conv4_1
I0213 12:44:22.728313  7113 net.cpp:395] relu4_1 -> conv4_1 (in-place)
I0213 12:44:22.728626  7113 net.cpp:150] Setting up relu4_1
I0213 12:44:22.728643  7113 net.cpp:157] Top shape: 13 512 38 38 (9611264)
I0213 12:44:22.728649  7113 net.cpp:165] Memory required for data: 2604592832
I0213 12:44:22.728655  7113 layer_factory.hpp:77] Creating layer conv4_2
I0213 12:44:22.728670  7113 net.cpp:100] Creating Layer conv4_2
I0213 12:44:22.728677  7113 net.cpp:434] conv4_2 <- conv4_1
I0213 12:44:22.728688  7113 net.cpp:408] conv4_2 -> conv4_2
I0213 12:44:22.761739  7113 net.cpp:150] Setting up conv4_2
I0213 12:44:22.761781  7113 net.cpp:157] Top shape: 13 512 38 38 (9611264)
I0213 12:44:22.761788  7113 net.cpp:165] Memory required for data: 2643037888
I0213 12:44:22.761808  7113 layer_factory.hpp:77] Creating layer relu4_2
I0213 12:44:22.761822  7113 net.cpp:100] Creating Layer relu4_2
I0213 12:44:22.761831  7113 net.cpp:434] relu4_2 <- conv4_2
I0213 12:44:22.761840  7113 net.cpp:395] relu4_2 -> conv4_2 (in-place)
I0213 12:44:22.762106  7113 net.cpp:150] Setting up relu4_2
I0213 12:44:22.762128  7113 net.cpp:157] Top shape: 13 512 38 38 (9611264)
I0213 12:44:22.762133  7113 net.cpp:165] Memory required for data: 2681482944
I0213 12:44:22.762140  7113 layer_factory.hpp:77] Creating layer conv4_3
I0213 12:44:22.762154  7113 net.cpp:100] Creating Layer conv4_3
I0213 12:44:22.762159  7113 net.cpp:434] conv4_3 <- conv4_2
I0213 12:44:22.762168  7113 net.cpp:408] conv4_3 -> conv4_3
I0213 12:44:22.791640  7113 net.cpp:150] Setting up conv4_3
I0213 12:44:22.791678  7113 net.cpp:157] Top shape: 13 512 38 38 (9611264)
I0213 12:44:22.791684  7113 net.cpp:165] Memory required for data: 2719928000
I0213 12:44:22.791697  7113 layer_factory.hpp:77] Creating layer relu4_3
I0213 12:44:22.791708  7113 net.cpp:100] Creating Layer relu4_3
I0213 12:44:22.791715  7113 net.cpp:434] relu4_3 <- conv4_3
I0213 12:44:22.791725  7113 net.cpp:395] relu4_3 -> conv4_3 (in-place)
I0213 12:44:22.792140  7113 net.cpp:150] Setting up relu4_3
I0213 12:44:22.792158  7113 net.cpp:157] Top shape: 13 512 38 38 (9611264)
I0213 12:44:22.792163  7113 net.cpp:165] Memory required for data: 2758373056
I0213 12:44:22.792168  7113 layer_factory.hpp:77] Creating layer conv4_3_relu4_3_0_split
I0213 12:44:22.792176  7113 net.cpp:100] Creating Layer conv4_3_relu4_3_0_split
I0213 12:44:22.792181  7113 net.cpp:434] conv4_3_relu4_3_0_split <- conv4_3
I0213 12:44:22.792191  7113 net.cpp:408] conv4_3_relu4_3_0_split -> conv4_3_relu4_3_0_split_0
I0213 12:44:22.792201  7113 net.cpp:408] conv4_3_relu4_3_0_split -> conv4_3_relu4_3_0_split_1
I0213 12:44:22.792273  7113 net.cpp:150] Setting up conv4_3_relu4_3_0_split
I0213 12:44:22.792284  7113 net.cpp:157] Top shape: 13 512 38 38 (9611264)
I0213 12:44:22.792289  7113 net.cpp:157] Top shape: 13 512 38 38 (9611264)
I0213 12:44:22.792294  7113 net.cpp:165] Memory required for data: 2835263168
I0213 12:44:22.792317  7113 layer_factory.hpp:77] Creating layer pool4
I0213 12:44:22.792327  7113 net.cpp:100] Creating Layer pool4
I0213 12:44:22.792332  7113 net.cpp:434] pool4 <- conv4_3_relu4_3_0_split_0
I0213 12:44:22.792340  7113 net.cpp:408] pool4 -> pool4
I0213 12:44:22.792407  7113 net.cpp:150] Setting up pool4
I0213 12:44:22.792418  7113 net.cpp:157] Top shape: 13 512 19 19 (2402816)
I0213 12:44:22.792421  7113 net.cpp:165] Memory required for data: 2844874432
I0213 12:44:22.792425  7113 layer_factory.hpp:77] Creating layer conv5_1
I0213 12:44:22.792443  7113 net.cpp:100] Creating Layer conv5_1
I0213 12:44:22.792448  7113 net.cpp:434] conv5_1 <- pool4
I0213 12:44:22.792455  7113 net.cpp:408] conv5_1 -> conv5_1
I0213 12:44:22.818161  7113 net.cpp:150] Setting up conv5_1
I0213 12:44:22.818193  7113 net.cpp:157] Top shape: 13 512 19 19 (2402816)
I0213 12:44:22.818199  7113 net.cpp:165] Memory required for data: 2854485696
I0213 12:44:22.818209  7113 layer_factory.hpp:77] Creating layer relu5_1
I0213 12:44:22.818224  7113 net.cpp:100] Creating Layer relu5_1
I0213 12:44:22.818231  7113 net.cpp:434] relu5_1 <- conv5_1
I0213 12:44:22.818238  7113 net.cpp:395] relu5_1 -> conv5_1 (in-place)
I0213 12:44:22.818475  7113 net.cpp:150] Setting up relu5_1
I0213 12:44:22.818490  7113 net.cpp:157] Top shape: 13 512 19 19 (2402816)
I0213 12:44:22.818495  7113 net.cpp:165] Memory required for data: 2864096960
I0213 12:44:22.818498  7113 layer_factory.hpp:77] Creating layer conv5_2
I0213 12:44:22.818513  7113 net.cpp:100] Creating Layer conv5_2
I0213 12:44:22.818518  7113 net.cpp:434] conv5_2 <- conv5_1
I0213 12:44:22.818537  7113 net.cpp:408] conv5_2 -> conv5_2
I0213 12:44:22.842734  7113 net.cpp:150] Setting up conv5_2
I0213 12:44:22.842777  7113 net.cpp:157] Top shape: 13 512 19 19 (2402816)
I0213 12:44:22.842783  7113 net.cpp:165] Memory required for data: 2873708224
I0213 12:44:22.842797  7113 layer_factory.hpp:77] Creating layer relu5_2
I0213 12:44:22.842811  7113 net.cpp:100] Creating Layer relu5_2
I0213 12:44:22.842851  7113 net.cpp:434] relu5_2 <- conv5_2
I0213 12:44:22.842869  7113 net.cpp:395] relu5_2 -> conv5_2 (in-place)
I0213 12:44:22.843139  7113 net.cpp:150] Setting up relu5_2
I0213 12:44:22.843155  7113 net.cpp:157] Top shape: 13 512 19 19 (2402816)
I0213 12:44:22.843168  7113 net.cpp:165] Memory required for data: 2883319488
I0213 12:44:22.843173  7113 layer_factory.hpp:77] Creating layer conv5_3
I0213 12:44:22.843192  7113 net.cpp:100] Creating Layer conv5_3
I0213 12:44:22.843200  7113 net.cpp:434] conv5_3 <- conv5_2
I0213 12:44:22.843210  7113 net.cpp:408] conv5_3 -> conv5_3
I0213 12:44:22.865214  7113 net.cpp:150] Setting up conv5_3
I0213 12:44:22.865247  7113 net.cpp:157] Top shape: 13 512 19 19 (2402816)
I0213 12:44:22.865252  7113 net.cpp:165] Memory required for data: 2892930752
I0213 12:44:22.865259  7113 layer_factory.hpp:77] Creating layer relu5_3
I0213 12:44:22.865274  7113 net.cpp:100] Creating Layer relu5_3
I0213 12:44:22.865281  7113 net.cpp:434] relu5_3 <- conv5_3
I0213 12:44:22.865289  7113 net.cpp:395] relu5_3 -> conv5_3 (in-place)
I0213 12:44:22.865635  7113 net.cpp:150] Setting up relu5_3
I0213 12:44:22.865650  7113 net.cpp:157] Top shape: 13 512 19 19 (2402816)
I0213 12:44:22.865654  7113 net.cpp:165] Memory required for data: 2902542016
I0213 12:44:22.865658  7113 layer_factory.hpp:77] Creating layer pool5
I0213 12:44:22.865667  7113 net.cpp:100] Creating Layer pool5
I0213 12:44:22.865675  7113 net.cpp:434] pool5 <- conv5_3
I0213 12:44:22.865681  7113 net.cpp:408] pool5 -> pool5
I0213 12:44:22.865746  7113 net.cpp:150] Setting up pool5
I0213 12:44:22.865756  7113 net.cpp:157] Top shape: 13 512 19 19 (2402816)
I0213 12:44:22.865758  7113 net.cpp:165] Memory required for data: 2912153280
I0213 12:44:22.865762  7113 layer_factory.hpp:77] Creating layer fc6
I0213 12:44:22.865774  7113 net.cpp:100] Creating Layer fc6
I0213 12:44:22.865780  7113 net.cpp:434] fc6 <- pool5
I0213 12:44:22.865787  7113 net.cpp:408] fc6 -> fc6
I0213 12:44:22.907537  7113 net.cpp:150] Setting up fc6
I0213 12:44:22.907572  7113 net.cpp:157] Top shape: 13 1024 19 19 (4805632)
I0213 12:44:22.907598  7113 net.cpp:165] Memory required for data: 2931375808
I0213 12:44:22.907608  7113 layer_factory.hpp:77] Creating layer relu6
I0213 12:44:22.907619  7113 net.cpp:100] Creating Layer relu6
I0213 12:44:22.907626  7113 net.cpp:434] relu6 <- fc6
I0213 12:44:22.907635  7113 net.cpp:395] relu6 -> fc6 (in-place)
I0213 12:44:22.907974  7113 net.cpp:150] Setting up relu6
I0213 12:44:22.907991  7113 net.cpp:157] Top shape: 13 1024 19 19 (4805632)
I0213 12:44:22.907996  7113 net.cpp:165] Memory required for data: 2950598336
I0213 12:44:22.908002  7113 layer_factory.hpp:77] Creating layer fc7
I0213 12:44:22.908020  7113 net.cpp:100] Creating Layer fc7
I0213 12:44:22.908030  7113 net.cpp:434] fc7 <- fc6
I0213 12:44:22.908041  7113 net.cpp:408] fc7 -> fc7
I0213 12:44:22.919534  7113 net.cpp:150] Setting up fc7
I0213 12:44:22.919559  7113 net.cpp:157] Top shape: 13 1024 19 19 (4805632)
I0213 12:44:22.919564  7113 net.cpp:165] Memory required for data: 2969820864
I0213 12:44:22.919571  7113 layer_factory.hpp:77] Creating layer relu7
I0213 12:44:22.919584  7113 net.cpp:100] Creating Layer relu7
I0213 12:44:22.919589  7113 net.cpp:434] relu7 <- fc7
I0213 12:44:22.919595  7113 net.cpp:395] relu7 -> fc7 (in-place)
I0213 12:44:22.919934  7113 net.cpp:150] Setting up relu7
I0213 12:44:22.919951  7113 net.cpp:157] Top shape: 13 1024 19 19 (4805632)
I0213 12:44:22.919955  7113 net.cpp:165] Memory required for data: 2989043392
I0213 12:44:22.919960  7113 layer_factory.hpp:77] Creating layer fc7_relu7_0_split
I0213 12:44:22.919966  7113 net.cpp:100] Creating Layer fc7_relu7_0_split
I0213 12:44:22.919970  7113 net.cpp:434] fc7_relu7_0_split <- fc7
I0213 12:44:22.919976  7113 net.cpp:408] fc7_relu7_0_split -> fc7_relu7_0_split_0
I0213 12:44:22.919984  7113 net.cpp:408] fc7_relu7_0_split -> fc7_relu7_0_split_1
I0213 12:44:22.919996  7113 net.cpp:408] fc7_relu7_0_split -> fc7_relu7_0_split_2
I0213 12:44:22.920004  7113 net.cpp:408] fc7_relu7_0_split -> fc7_relu7_0_split_3
I0213 12:44:22.920099  7113 net.cpp:150] Setting up fc7_relu7_0_split
I0213 12:44:22.920109  7113 net.cpp:157] Top shape: 13 1024 19 19 (4805632)
I0213 12:44:22.920114  7113 net.cpp:157] Top shape: 13 1024 19 19 (4805632)
I0213 12:44:22.920119  7113 net.cpp:157] Top shape: 13 1024 19 19 (4805632)
I0213 12:44:22.920123  7113 net.cpp:157] Top shape: 13 1024 19 19 (4805632)
I0213 12:44:22.920126  7113 net.cpp:165] Memory required for data: 3065933504
I0213 12:44:22.920130  7113 layer_factory.hpp:77] Creating layer conv6_1
I0213 12:44:22.920142  7113 net.cpp:100] Creating Layer conv6_1
I0213 12:44:22.920148  7113 net.cpp:434] conv6_1 <- fc7_relu7_0_split_0
I0213 12:44:22.920157  7113 net.cpp:408] conv6_1 -> conv6_1
I0213 12:44:22.923614  7113 net.cpp:150] Setting up conv6_1
I0213 12:44:22.923630  7113 net.cpp:157] Top shape: 13 256 19 19 (1201408)
I0213 12:44:22.923635  7113 net.cpp:165] Memory required for data: 3070739136
I0213 12:44:22.923641  7113 layer_factory.hpp:77] Creating layer conv6_1_relu
I0213 12:44:22.923648  7113 net.cpp:100] Creating Layer conv6_1_relu
I0213 12:44:22.923652  7113 net.cpp:434] conv6_1_relu <- conv6_1
I0213 12:44:22.923660  7113 net.cpp:395] conv6_1_relu -> conv6_1 (in-place)
I0213 12:44:22.924000  7113 net.cpp:150] Setting up conv6_1_relu
I0213 12:44:22.924015  7113 net.cpp:157] Top shape: 13 256 19 19 (1201408)
I0213 12:44:22.924018  7113 net.cpp:165] Memory required for data: 3075544768
I0213 12:44:22.924022  7113 layer_factory.hpp:77] Creating layer conv6_2
I0213 12:44:22.924036  7113 net.cpp:100] Creating Layer conv6_2
I0213 12:44:22.924039  7113 net.cpp:434] conv6_2 <- conv6_1
I0213 12:44:22.924046  7113 net.cpp:408] conv6_2 -> conv6_2
I0213 12:44:22.935401  7113 net.cpp:150] Setting up conv6_2
I0213 12:44:22.935425  7113 net.cpp:157] Top shape: 13 512 10 10 (665600)
I0213 12:44:22.935431  7113 net.cpp:165] Memory required for data: 3078207168
I0213 12:44:22.935447  7113 layer_factory.hpp:77] Creating layer conv6_2_relu
I0213 12:44:22.935456  7113 net.cpp:100] Creating Layer conv6_2_relu
I0213 12:44:22.935484  7113 net.cpp:434] conv6_2_relu <- conv6_2
I0213 12:44:22.935492  7113 net.cpp:395] conv6_2_relu -> conv6_2 (in-place)
I0213 12:44:22.935694  7113 net.cpp:150] Setting up conv6_2_relu
I0213 12:44:22.935706  7113 net.cpp:157] Top shape: 13 512 10 10 (665600)
I0213 12:44:22.935710  7113 net.cpp:165] Memory required for data: 3080869568
I0213 12:44:22.935714  7113 layer_factory.hpp:77] Creating layer conv6_2_conv6_2_relu_0_split
I0213 12:44:22.935724  7113 net.cpp:100] Creating Layer conv6_2_conv6_2_relu_0_split
I0213 12:44:22.935730  7113 net.cpp:434] conv6_2_conv6_2_relu_0_split <- conv6_2
I0213 12:44:22.935736  7113 net.cpp:408] conv6_2_conv6_2_relu_0_split -> conv6_2_conv6_2_relu_0_split_0
I0213 12:44:22.935745  7113 net.cpp:408] conv6_2_conv6_2_relu_0_split -> conv6_2_conv6_2_relu_0_split_1
I0213 12:44:22.935750  7113 net.cpp:408] conv6_2_conv6_2_relu_0_split -> conv6_2_conv6_2_relu_0_split_2
I0213 12:44:22.935755  7113 net.cpp:408] conv6_2_conv6_2_relu_0_split -> conv6_2_conv6_2_relu_0_split_3
I0213 12:44:22.935850  7113 net.cpp:150] Setting up conv6_2_conv6_2_relu_0_split
I0213 12:44:22.935859  7113 net.cpp:157] Top shape: 13 512 10 10 (665600)
I0213 12:44:22.935864  7113 net.cpp:157] Top shape: 13 512 10 10 (665600)
I0213 12:44:22.935868  7113 net.cpp:157] Top shape: 13 512 10 10 (665600)
I0213 12:44:22.935873  7113 net.cpp:157] Top shape: 13 512 10 10 (665600)
I0213 12:44:22.935875  7113 net.cpp:165] Memory required for data: 3091519168
I0213 12:44:22.935878  7113 layer_factory.hpp:77] Creating layer conv7_1
I0213 12:44:22.935890  7113 net.cpp:100] Creating Layer conv7_1
I0213 12:44:22.935896  7113 net.cpp:434] conv7_1 <- conv6_2_conv6_2_relu_0_split_0
I0213 12:44:22.935907  7113 net.cpp:408] conv7_1 -> conv7_1
I0213 12:44:22.938096  7113 net.cpp:150] Setting up conv7_1
I0213 12:44:22.938110  7113 net.cpp:157] Top shape: 13 128 10 10 (166400)
I0213 12:44:22.938115  7113 net.cpp:165] Memory required for data: 3092184768
I0213 12:44:22.938122  7113 layer_factory.hpp:77] Creating layer conv7_1_relu
I0213 12:44:22.938129  7113 net.cpp:100] Creating Layer conv7_1_relu
I0213 12:44:22.938134  7113 net.cpp:434] conv7_1_relu <- conv7_1
I0213 12:44:22.938146  7113 net.cpp:395] conv7_1_relu -> conv7_1 (in-place)
I0213 12:44:22.938494  7113 net.cpp:150] Setting up conv7_1_relu
I0213 12:44:22.938509  7113 net.cpp:157] Top shape: 13 128 10 10 (166400)
I0213 12:44:22.938513  7113 net.cpp:165] Memory required for data: 3092850368
I0213 12:44:22.938518  7113 layer_factory.hpp:77] Creating layer conv7_2
I0213 12:44:22.938529  7113 net.cpp:100] Creating Layer conv7_2
I0213 12:44:22.938534  7113 net.cpp:434] conv7_2 <- conv7_1
I0213 12:44:22.938542  7113 net.cpp:408] conv7_2 -> conv7_2
I0213 12:44:22.942818  7113 net.cpp:150] Setting up conv7_2
I0213 12:44:22.942840  7113 net.cpp:157] Top shape: 13 256 5 5 (83200)
I0213 12:44:22.942844  7113 net.cpp:165] Memory required for data: 3093183168
I0213 12:44:22.942852  7113 layer_factory.hpp:77] Creating layer conv7_2_relu
I0213 12:44:22.942860  7113 net.cpp:100] Creating Layer conv7_2_relu
I0213 12:44:22.942864  7113 net.cpp:434] conv7_2_relu <- conv7_2
I0213 12:44:22.942872  7113 net.cpp:395] conv7_2_relu -> conv7_2 (in-place)
I0213 12:44:22.943220  7113 net.cpp:150] Setting up conv7_2_relu
I0213 12:44:22.943236  7113 net.cpp:157] Top shape: 13 256 5 5 (83200)
I0213 12:44:22.943240  7113 net.cpp:165] Memory required for data: 3093515968
I0213 12:44:22.943244  7113 layer_factory.hpp:77] Creating layer conv7_2_conv7_2_relu_0_split
I0213 12:44:22.943251  7113 net.cpp:100] Creating Layer conv7_2_conv7_2_relu_0_split
I0213 12:44:22.943255  7113 net.cpp:434] conv7_2_conv7_2_relu_0_split <- conv7_2
I0213 12:44:22.943264  7113 net.cpp:408] conv7_2_conv7_2_relu_0_split -> conv7_2_conv7_2_relu_0_split_0
I0213 12:44:22.943270  7113 net.cpp:408] conv7_2_conv7_2_relu_0_split -> conv7_2_conv7_2_relu_0_split_1
I0213 12:44:22.943277  7113 net.cpp:408] conv7_2_conv7_2_relu_0_split -> conv7_2_conv7_2_relu_0_split_2
I0213 12:44:22.943284  7113 net.cpp:408] conv7_2_conv7_2_relu_0_split -> conv7_2_conv7_2_relu_0_split_3
I0213 12:44:22.943400  7113 net.cpp:150] Setting up conv7_2_conv7_2_relu_0_split
I0213 12:44:22.943411  7113 net.cpp:157] Top shape: 13 256 5 5 (83200)
I0213 12:44:22.943415  7113 net.cpp:157] Top shape: 13 256 5 5 (83200)
I0213 12:44:22.943419  7113 net.cpp:157] Top shape: 13 256 5 5 (83200)
I0213 12:44:22.943423  7113 net.cpp:157] Top shape: 13 256 5 5 (83200)
I0213 12:44:22.943426  7113 net.cpp:165] Memory required for data: 3094847168
I0213 12:44:22.943430  7113 layer_factory.hpp:77] Creating layer conv8_1
I0213 12:44:22.943442  7113 net.cpp:100] Creating Layer conv8_1
I0213 12:44:22.943449  7113 net.cpp:434] conv8_1 <- conv7_2_conv7_2_relu_0_split_0
I0213 12:44:22.943457  7113 net.cpp:408] conv8_1 -> conv8_1
I0213 12:44:22.945024  7113 net.cpp:150] Setting up conv8_1
I0213 12:44:22.945046  7113 net.cpp:157] Top shape: 13 128 5 5 (41600)
I0213 12:44:22.945052  7113 net.cpp:165] Memory required for data: 3095013568
I0213 12:44:22.945063  7113 layer_factory.hpp:77] Creating layer conv8_1_relu
I0213 12:44:22.945075  7113 net.cpp:100] Creating Layer conv8_1_relu
I0213 12:44:22.945081  7113 net.cpp:434] conv8_1_relu <- conv8_1
I0213 12:44:22.945089  7113 net.cpp:395] conv8_1_relu -> conv8_1 (in-place)
I0213 12:44:22.945341  7113 net.cpp:150] Setting up conv8_1_relu
I0213 12:44:22.945358  7113 net.cpp:157] Top shape: 13 128 5 5 (41600)
I0213 12:44:22.945363  7113 net.cpp:165] Memory required for data: 3095179968
I0213 12:44:22.945369  7113 layer_factory.hpp:77] Creating layer conv8_2
I0213 12:44:22.945387  7113 net.cpp:100] Creating Layer conv8_2
I0213 12:44:22.945395  7113 net.cpp:434] conv8_2 <- conv8_1
I0213 12:44:22.945406  7113 net.cpp:408] conv8_2 -> conv8_2
I0213 12:44:22.949599  7113 net.cpp:150] Setting up conv8_2
I0213 12:44:22.949615  7113 net.cpp:157] Top shape: 13 256 3 3 (29952)
I0213 12:44:22.949620  7113 net.cpp:165] Memory required for data: 3095299776
I0213 12:44:22.949627  7113 layer_factory.hpp:77] Creating layer conv8_2_relu
I0213 12:44:22.949635  7113 net.cpp:100] Creating Layer conv8_2_relu
I0213 12:44:22.949641  7113 net.cpp:434] conv8_2_relu <- conv8_2
I0213 12:44:22.949650  7113 net.cpp:395] conv8_2_relu -> conv8_2 (in-place)
I0213 12:44:22.949995  7113 net.cpp:150] Setting up conv8_2_relu
I0213 12:44:22.950009  7113 net.cpp:157] Top shape: 13 256 3 3 (29952)
I0213 12:44:22.950013  7113 net.cpp:165] Memory required for data: 3095419584
I0213 12:44:22.950017  7113 layer_factory.hpp:77] Creating layer conv8_2_conv8_2_relu_0_split
I0213 12:44:22.950026  7113 net.cpp:100] Creating Layer conv8_2_conv8_2_relu_0_split
I0213 12:44:22.950031  7113 net.cpp:434] conv8_2_conv8_2_relu_0_split <- conv8_2
I0213 12:44:22.950037  7113 net.cpp:408] conv8_2_conv8_2_relu_0_split -> conv8_2_conv8_2_relu_0_split_0
I0213 12:44:22.950044  7113 net.cpp:408] conv8_2_conv8_2_relu_0_split -> conv8_2_conv8_2_relu_0_split_1
I0213 12:44:22.950053  7113 net.cpp:408] conv8_2_conv8_2_relu_0_split -> conv8_2_conv8_2_relu_0_split_2
I0213 12:44:22.950060  7113 net.cpp:408] conv8_2_conv8_2_relu_0_split -> conv8_2_conv8_2_relu_0_split_3
I0213 12:44:22.950160  7113 net.cpp:150] Setting up conv8_2_conv8_2_relu_0_split
I0213 12:44:22.950167  7113 net.cpp:157] Top shape: 13 256 3 3 (29952)
I0213 12:44:22.950172  7113 net.cpp:157] Top shape: 13 256 3 3 (29952)
I0213 12:44:22.950176  7113 net.cpp:157] Top shape: 13 256 3 3 (29952)
I0213 12:44:22.950181  7113 net.cpp:157] Top shape: 13 256 3 3 (29952)
I0213 12:44:22.950183  7113 net.cpp:165] Memory required for data: 3095898816
I0213 12:44:22.950187  7113 layer_factory.hpp:77] Creating layer conv9_1
I0213 12:44:22.950197  7113 net.cpp:100] Creating Layer conv9_1
I0213 12:44:22.950204  7113 net.cpp:434] conv9_1 <- conv8_2_conv8_2_relu_0_split_0
I0213 12:44:22.950212  7113 net.cpp:408] conv9_1 -> conv9_1
I0213 12:44:22.951583  7113 net.cpp:150] Setting up conv9_1
I0213 12:44:22.951599  7113 net.cpp:157] Top shape: 13 128 3 3 (14976)
I0213 12:44:22.951603  7113 net.cpp:165] Memory required for data: 3095958720
I0213 12:44:22.951611  7113 layer_factory.hpp:77] Creating layer conv9_1_relu
I0213 12:44:22.951630  7113 net.cpp:100] Creating Layer conv9_1_relu
I0213 12:44:22.951635  7113 net.cpp:434] conv9_1_relu <- conv9_1
I0213 12:44:22.951642  7113 net.cpp:395] conv9_1_relu -> conv9_1 (in-place)
I0213 12:44:22.951982  7113 net.cpp:150] Setting up conv9_1_relu
I0213 12:44:22.951995  7113 net.cpp:157] Top shape: 13 128 3 3 (14976)
I0213 12:44:22.951999  7113 net.cpp:165] Memory required for data: 3096018624
I0213 12:44:22.952003  7113 layer_factory.hpp:77] Creating layer conv9_2
I0213 12:44:22.952015  7113 net.cpp:100] Creating Layer conv9_2
I0213 12:44:22.952023  7113 net.cpp:434] conv9_2 <- conv9_1
I0213 12:44:22.952030  7113 net.cpp:408] conv9_2 -> conv9_2
I0213 12:44:22.956068  7113 net.cpp:150] Setting up conv9_2
I0213 12:44:22.956084  7113 net.cpp:157] Top shape: 13 256 1 1 (3328)
I0213 12:44:22.956089  7113 net.cpp:165] Memory required for data: 3096031936
I0213 12:44:22.956095  7113 layer_factory.hpp:77] Creating layer conv9_2_relu
I0213 12:44:22.956104  7113 net.cpp:100] Creating Layer conv9_2_relu
I0213 12:44:22.956107  7113 net.cpp:434] conv9_2_relu <- conv9_2
I0213 12:44:22.956113  7113 net.cpp:395] conv9_2_relu -> conv9_2 (in-place)
I0213 12:44:22.956316  7113 net.cpp:150] Setting up conv9_2_relu
I0213 12:44:22.956328  7113 net.cpp:157] Top shape: 13 256 1 1 (3328)
I0213 12:44:22.956332  7113 net.cpp:165] Memory required for data: 3096045248
I0213 12:44:22.956336  7113 layer_factory.hpp:77] Creating layer conv9_2_conv9_2_relu_0_split
I0213 12:44:22.956343  7113 net.cpp:100] Creating Layer conv9_2_conv9_2_relu_0_split
I0213 12:44:22.956347  7113 net.cpp:434] conv9_2_conv9_2_relu_0_split <- conv9_2
I0213 12:44:22.956354  7113 net.cpp:408] conv9_2_conv9_2_relu_0_split -> conv9_2_conv9_2_relu_0_split_0
I0213 12:44:22.956362  7113 net.cpp:408] conv9_2_conv9_2_relu_0_split -> conv9_2_conv9_2_relu_0_split_1
I0213 12:44:22.956370  7113 net.cpp:408] conv9_2_conv9_2_relu_0_split -> conv9_2_conv9_2_relu_0_split_2
I0213 12:44:22.956450  7113 net.cpp:150] Setting up conv9_2_conv9_2_relu_0_split
I0213 12:44:22.956459  7113 net.cpp:157] Top shape: 13 256 1 1 (3328)
I0213 12:44:22.956463  7113 net.cpp:157] Top shape: 13 256 1 1 (3328)
I0213 12:44:22.956467  7113 net.cpp:157] Top shape: 13 256 1 1 (3328)
I0213 12:44:22.956470  7113 net.cpp:165] Memory required for data: 3096085184
I0213 12:44:22.956475  7113 layer_factory.hpp:77] Creating layer conv4_3_norm
I0213 12:44:22.956483  7113 net.cpp:100] Creating Layer conv4_3_norm
I0213 12:44:22.956488  7113 net.cpp:434] conv4_3_norm <- conv4_3_relu4_3_0_split_1
I0213 12:44:22.956495  7113 net.cpp:408] conv4_3_norm -> conv4_3_norm
I0213 12:44:22.956717  7113 net.cpp:150] Setting up conv4_3_norm
I0213 12:44:22.956727  7113 net.cpp:157] Top shape: 13 512 38 38 (9611264)
I0213 12:44:22.956729  7113 net.cpp:165] Memory required for data: 3134530240
I0213 12:44:22.956735  7113 layer_factory.hpp:77] Creating layer conv4_3_norm_conv4_3_norm_0_split
I0213 12:44:22.956743  7113 net.cpp:100] Creating Layer conv4_3_norm_conv4_3_norm_0_split
I0213 12:44:22.956746  7113 net.cpp:434] conv4_3_norm_conv4_3_norm_0_split <- conv4_3_norm
I0213 12:44:22.956751  7113 net.cpp:408] conv4_3_norm_conv4_3_norm_0_split -> conv4_3_norm_conv4_3_norm_0_split_0
I0213 12:44:22.956758  7113 net.cpp:408] conv4_3_norm_conv4_3_norm_0_split -> conv4_3_norm_conv4_3_norm_0_split_1
I0213 12:44:22.956765  7113 net.cpp:408] conv4_3_norm_conv4_3_norm_0_split -> conv4_3_norm_conv4_3_norm_0_split_2
I0213 12:44:22.956832  7113 net.cpp:150] Setting up conv4_3_norm_conv4_3_norm_0_split
I0213 12:44:22.956840  7113 net.cpp:157] Top shape: 13 512 38 38 (9611264)
I0213 12:44:22.956845  7113 net.cpp:157] Top shape: 13 512 38 38 (9611264)
I0213 12:44:22.956850  7113 net.cpp:157] Top shape: 13 512 38 38 (9611264)
I0213 12:44:22.956852  7113 net.cpp:165] Memory required for data: 3249865408
I0213 12:44:22.956856  7113 layer_factory.hpp:77] Creating layer conv4_3_norm_mbox_loc
I0213 12:44:22.956866  7113 net.cpp:100] Creating Layer conv4_3_norm_mbox_loc
I0213 12:44:22.956871  7113 net.cpp:434] conv4_3_norm_mbox_loc <- conv4_3_norm_conv4_3_norm_0_split_0
I0213 12:44:22.956889  7113 net.cpp:408] conv4_3_norm_mbox_loc -> conv4_3_norm_mbox_loc
I0213 12:44:22.958698  7113 net.cpp:150] Setting up conv4_3_norm_mbox_loc
I0213 12:44:22.958714  7113 net.cpp:157] Top shape: 13 16 38 38 (300352)
I0213 12:44:22.958719  7113 net.cpp:165] Memory required for data: 3251066816
I0213 12:44:22.958725  7113 layer_factory.hpp:77] Creating layer conv4_3_norm_mbox_loc_perm
I0213 12:44:22.958734  7113 net.cpp:100] Creating Layer conv4_3_norm_mbox_loc_perm
I0213 12:44:22.958740  7113 net.cpp:434] conv4_3_norm_mbox_loc_perm <- conv4_3_norm_mbox_loc
I0213 12:44:22.958747  7113 net.cpp:408] conv4_3_norm_mbox_loc_perm -> conv4_3_norm_mbox_loc_perm
I0213 12:44:22.958897  7113 net.cpp:150] Setting up conv4_3_norm_mbox_loc_perm
I0213 12:44:22.958909  7113 net.cpp:157] Top shape: 13 38 38 16 (300352)
I0213 12:44:22.958911  7113 net.cpp:165] Memory required for data: 3252268224
I0213 12:44:22.958915  7113 layer_factory.hpp:77] Creating layer conv4_3_norm_mbox_loc_flat
I0213 12:44:22.958923  7113 net.cpp:100] Creating Layer conv4_3_norm_mbox_loc_flat
I0213 12:44:22.958927  7113 net.cpp:434] conv4_3_norm_mbox_loc_flat <- conv4_3_norm_mbox_loc_perm
I0213 12:44:22.958932  7113 net.cpp:408] conv4_3_norm_mbox_loc_flat -> conv4_3_norm_mbox_loc_flat
I0213 12:44:22.958977  7113 net.cpp:150] Setting up conv4_3_norm_mbox_loc_flat
I0213 12:44:22.958986  7113 net.cpp:157] Top shape: 13 23104 (300352)
I0213 12:44:22.958989  7113 net.cpp:165] Memory required for data: 3253469632
I0213 12:44:22.958992  7113 layer_factory.hpp:77] Creating layer conv4_3_norm_mbox_conf
I0213 12:44:22.959009  7113 net.cpp:100] Creating Layer conv4_3_norm_mbox_conf
I0213 12:44:22.959015  7113 net.cpp:434] conv4_3_norm_mbox_conf <- conv4_3_norm_conv4_3_norm_0_split_1
I0213 12:44:22.959023  7113 net.cpp:408] conv4_3_norm_mbox_conf -> conv4_3_norm_mbox_conf
I0213 12:44:22.964257  7113 net.cpp:150] Setting up conv4_3_norm_mbox_conf
I0213 12:44:22.964288  7113 net.cpp:157] Top shape: 13 88 38 38 (1651936)
I0213 12:44:22.964295  7113 net.cpp:165] Memory required for data: 3260077376
I0213 12:44:22.964308  7113 layer_factory.hpp:77] Creating layer conv4_3_norm_mbox_conf_perm
I0213 12:44:22.964319  7113 net.cpp:100] Creating Layer conv4_3_norm_mbox_conf_perm
I0213 12:44:22.964328  7113 net.cpp:434] conv4_3_norm_mbox_conf_perm <- conv4_3_norm_mbox_conf
I0213 12:44:22.964337  7113 net.cpp:408] conv4_3_norm_mbox_conf_perm -> conv4_3_norm_mbox_conf_perm
I0213 12:44:22.964539  7113 net.cpp:150] Setting up conv4_3_norm_mbox_conf_perm
I0213 12:44:22.964552  7113 net.cpp:157] Top shape: 13 38 38 88 (1651936)
I0213 12:44:22.964558  7113 net.cpp:165] Memory required for data: 3266685120
I0213 12:44:22.964565  7113 layer_factory.hpp:77] Creating layer conv4_3_norm_mbox_conf_flat
I0213 12:44:22.964576  7113 net.cpp:100] Creating Layer conv4_3_norm_mbox_conf_flat
I0213 12:44:22.964583  7113 net.cpp:434] conv4_3_norm_mbox_conf_flat <- conv4_3_norm_mbox_conf_perm
I0213 12:44:22.964591  7113 net.cpp:408] conv4_3_norm_mbox_conf_flat -> conv4_3_norm_mbox_conf_flat
I0213 12:44:22.964637  7113 net.cpp:150] Setting up conv4_3_norm_mbox_conf_flat
I0213 12:44:22.964648  7113 net.cpp:157] Top shape: 13 127072 (1651936)
I0213 12:44:22.964653  7113 net.cpp:165] Memory required for data: 3273292864
I0213 12:44:22.964659  7113 layer_factory.hpp:77] Creating layer conv4_3_norm_mbox_priorbox
I0213 12:44:22.964670  7113 net.cpp:100] Creating Layer conv4_3_norm_mbox_priorbox
I0213 12:44:22.964676  7113 net.cpp:434] conv4_3_norm_mbox_priorbox <- conv4_3_norm_conv4_3_norm_0_split_2
I0213 12:44:22.964684  7113 net.cpp:434] conv4_3_norm_mbox_priorbox <- data_data_0_split_1
I0213 12:44:22.964695  7113 net.cpp:408] conv4_3_norm_mbox_priorbox -> conv4_3_norm_mbox_priorbox
I0213 12:44:22.964748  7113 net.cpp:150] Setting up conv4_3_norm_mbox_priorbox
I0213 12:44:22.964761  7113 net.cpp:157] Top shape: 1 2 23104 (46208)
I0213 12:44:22.964766  7113 net.cpp:165] Memory required for data: 3273477696
I0213 12:44:22.964771  7113 layer_factory.hpp:77] Creating layer fc7_mbox_loc
I0213 12:44:22.964805  7113 net.cpp:100] Creating Layer fc7_mbox_loc
I0213 12:44:22.964815  7113 net.cpp:434] fc7_mbox_loc <- fc7_relu7_0_split_1
I0213 12:44:22.964823  7113 net.cpp:408] fc7_mbox_loc -> fc7_mbox_loc
I0213 12:44:22.968577  7113 net.cpp:150] Setting up fc7_mbox_loc
I0213 12:44:22.968626  7113 net.cpp:157] Top shape: 13 24 19 19 (112632)
I0213 12:44:22.968648  7113 net.cpp:165] Memory required for data: 3273928224
I0213 12:44:22.968672  7113 layer_factory.hpp:77] Creating layer fc7_mbox_loc_perm
I0213 12:44:22.968701  7113 net.cpp:100] Creating Layer fc7_mbox_loc_perm
I0213 12:44:22.968724  7113 net.cpp:434] fc7_mbox_loc_perm <- fc7_mbox_loc
I0213 12:44:22.968737  7113 net.cpp:408] fc7_mbox_loc_perm -> fc7_mbox_loc_perm
I0213 12:44:22.968906  7113 net.cpp:150] Setting up fc7_mbox_loc_perm
I0213 12:44:22.968920  7113 net.cpp:157] Top shape: 13 19 19 24 (112632)
I0213 12:44:22.968926  7113 net.cpp:165] Memory required for data: 3274378752
I0213 12:44:22.968936  7113 layer_factory.hpp:77] Creating layer fc7_mbox_loc_flat
I0213 12:44:22.968947  7113 net.cpp:100] Creating Layer fc7_mbox_loc_flat
I0213 12:44:22.968955  7113 net.cpp:434] fc7_mbox_loc_flat <- fc7_mbox_loc_perm
I0213 12:44:22.968966  7113 net.cpp:408] fc7_mbox_loc_flat -> fc7_mbox_loc_flat
I0213 12:44:22.969022  7113 net.cpp:150] Setting up fc7_mbox_loc_flat
I0213 12:44:22.969038  7113 net.cpp:157] Top shape: 13 8664 (112632)
I0213 12:44:22.969043  7113 net.cpp:165] Memory required for data: 3274829280
I0213 12:44:22.969049  7113 layer_factory.hpp:77] Creating layer fc7_mbox_conf
I0213 12:44:22.969069  7113 net.cpp:100] Creating Layer fc7_mbox_conf
I0213 12:44:22.969076  7113 net.cpp:434] fc7_mbox_conf <- fc7_relu7_0_split_2
I0213 12:44:22.969087  7113 net.cpp:408] fc7_mbox_conf -> fc7_mbox_conf
I0213 12:44:22.980613  7113 net.cpp:150] Setting up fc7_mbox_conf
I0213 12:44:22.980635  7113 net.cpp:157] Top shape: 13 132 19 19 (619476)
I0213 12:44:22.980643  7113 net.cpp:165] Memory required for data: 3277307184
I0213 12:44:22.980655  7113 layer_factory.hpp:77] Creating layer fc7_mbox_conf_perm
I0213 12:44:22.980670  7113 net.cpp:100] Creating Layer fc7_mbox_conf_perm
I0213 12:44:22.980676  7113 net.cpp:434] fc7_mbox_conf_perm <- fc7_mbox_conf
I0213 12:44:22.980684  7113 net.cpp:408] fc7_mbox_conf_perm -> fc7_mbox_conf_perm
I0213 12:44:22.980842  7113 net.cpp:150] Setting up fc7_mbox_conf_perm
I0213 12:44:22.980852  7113 net.cpp:157] Top shape: 13 19 19 132 (619476)
I0213 12:44:22.980855  7113 net.cpp:165] Memory required for data: 3279785088
I0213 12:44:22.980859  7113 layer_factory.hpp:77] Creating layer fc7_mbox_conf_flat
I0213 12:44:22.980867  7113 net.cpp:100] Creating Layer fc7_mbox_conf_flat
I0213 12:44:22.980871  7113 net.cpp:434] fc7_mbox_conf_flat <- fc7_mbox_conf_perm
I0213 12:44:22.980877  7113 net.cpp:408] fc7_mbox_conf_flat -> fc7_mbox_conf_flat
I0213 12:44:22.980916  7113 net.cpp:150] Setting up fc7_mbox_conf_flat
I0213 12:44:22.980923  7113 net.cpp:157] Top shape: 13 47652 (619476)
I0213 12:44:22.980926  7113 net.cpp:165] Memory required for data: 3282262992
I0213 12:44:22.980931  7113 layer_factory.hpp:77] Creating layer fc7_mbox_priorbox
I0213 12:44:22.980939  7113 net.cpp:100] Creating Layer fc7_mbox_priorbox
I0213 12:44:22.980943  7113 net.cpp:434] fc7_mbox_priorbox <- fc7_relu7_0_split_3
I0213 12:44:22.980949  7113 net.cpp:434] fc7_mbox_priorbox <- data_data_0_split_2
I0213 12:44:22.980958  7113 net.cpp:408] fc7_mbox_priorbox -> fc7_mbox_priorbox
I0213 12:44:22.980998  7113 net.cpp:150] Setting up fc7_mbox_priorbox
I0213 12:44:22.981006  7113 net.cpp:157] Top shape: 1 2 8664 (17328)
I0213 12:44:22.981009  7113 net.cpp:165] Memory required for data: 3282332304
I0213 12:44:22.981014  7113 layer_factory.hpp:77] Creating layer conv6_2_mbox_loc
I0213 12:44:22.981024  7113 net.cpp:100] Creating Layer conv6_2_mbox_loc
I0213 12:44:22.981032  7113 net.cpp:434] conv6_2_mbox_loc <- conv6_2_conv6_2_relu_0_split_1
I0213 12:44:22.981040  7113 net.cpp:408] conv6_2_mbox_loc -> conv6_2_mbox_loc
I0213 12:44:22.983582  7113 net.cpp:150] Setting up conv6_2_mbox_loc
I0213 12:44:22.983598  7113 net.cpp:157] Top shape: 13 24 10 10 (31200)
I0213 12:44:22.983603  7113 net.cpp:165] Memory required for data: 3282457104
I0213 12:44:22.983610  7113 layer_factory.hpp:77] Creating layer conv6_2_mbox_loc_perm
I0213 12:44:22.983618  7113 net.cpp:100] Creating Layer conv6_2_mbox_loc_perm
I0213 12:44:22.983623  7113 net.cpp:434] conv6_2_mbox_loc_perm <- conv6_2_mbox_loc
I0213 12:44:22.983630  7113 net.cpp:408] conv6_2_mbox_loc_perm -> conv6_2_mbox_loc_perm
I0213 12:44:22.983783  7113 net.cpp:150] Setting up conv6_2_mbox_loc_perm
I0213 12:44:22.983793  7113 net.cpp:157] Top shape: 13 10 10 24 (31200)
I0213 12:44:22.983798  7113 net.cpp:165] Memory required for data: 3282581904
I0213 12:44:22.983801  7113 layer_factory.hpp:77] Creating layer conv6_2_mbox_loc_flat
I0213 12:44:22.983808  7113 net.cpp:100] Creating Layer conv6_2_mbox_loc_flat
I0213 12:44:22.983814  7113 net.cpp:434] conv6_2_mbox_loc_flat <- conv6_2_mbox_loc_perm
I0213 12:44:22.983824  7113 net.cpp:408] conv6_2_mbox_loc_flat -> conv6_2_mbox_loc_flat
I0213 12:44:22.983860  7113 net.cpp:150] Setting up conv6_2_mbox_loc_flat
I0213 12:44:22.983865  7113 net.cpp:157] Top shape: 13 2400 (31200)
I0213 12:44:22.983870  7113 net.cpp:165] Memory required for data: 3282706704
I0213 12:44:22.983872  7113 layer_factory.hpp:77] Creating layer conv6_2_mbox_conf
I0213 12:44:22.983886  7113 net.cpp:100] Creating Layer conv6_2_mbox_conf
I0213 12:44:22.983892  7113 net.cpp:434] conv6_2_mbox_conf <- conv6_2_conv6_2_relu_0_split_2
I0213 12:44:22.983899  7113 net.cpp:408] conv6_2_mbox_conf -> conv6_2_mbox_conf
I0213 12:44:22.990896  7113 net.cpp:150] Setting up conv6_2_mbox_conf
I0213 12:44:22.990934  7113 net.cpp:157] Top shape: 13 132 10 10 (171600)
I0213 12:44:22.990942  7113 net.cpp:165] Memory required for data: 3283393104
I0213 12:44:22.990953  7113 layer_factory.hpp:77] Creating layer conv6_2_mbox_conf_perm
I0213 12:44:22.990967  7113 net.cpp:100] Creating Layer conv6_2_mbox_conf_perm
I0213 12:44:22.990975  7113 net.cpp:434] conv6_2_mbox_conf_perm <- conv6_2_mbox_conf
I0213 12:44:22.990991  7113 net.cpp:408] conv6_2_mbox_conf_perm -> conv6_2_mbox_conf_perm
I0213 12:44:22.991199  7113 net.cpp:150] Setting up conv6_2_mbox_conf_perm
I0213 12:44:22.991212  7113 net.cpp:157] Top shape: 13 10 10 132 (171600)
I0213 12:44:22.991219  7113 net.cpp:165] Memory required for data: 3284079504
I0213 12:44:22.991225  7113 layer_factory.hpp:77] Creating layer conv6_2_mbox_conf_flat
I0213 12:44:22.991235  7113 net.cpp:100] Creating Layer conv6_2_mbox_conf_flat
I0213 12:44:22.991243  7113 net.cpp:434] conv6_2_mbox_conf_flat <- conv6_2_mbox_conf_perm
I0213 12:44:22.991255  7113 net.cpp:408] conv6_2_mbox_conf_flat -> conv6_2_mbox_conf_flat
I0213 12:44:22.991299  7113 net.cpp:150] Setting up conv6_2_mbox_conf_flat
I0213 12:44:22.991308  7113 net.cpp:157] Top shape: 13 13200 (171600)
I0213 12:44:22.991313  7113 net.cpp:165] Memory required for data: 3284765904
I0213 12:44:22.991319  7113 layer_factory.hpp:77] Creating layer conv6_2_mbox_priorbox
I0213 12:44:22.991331  7113 net.cpp:100] Creating Layer conv6_2_mbox_priorbox
I0213 12:44:22.991338  7113 net.cpp:434] conv6_2_mbox_priorbox <- conv6_2_conv6_2_relu_0_split_3
I0213 12:44:22.991346  7113 net.cpp:434] conv6_2_mbox_priorbox <- data_data_0_split_3
I0213 12:44:22.991356  7113 net.cpp:408] conv6_2_mbox_priorbox -> conv6_2_mbox_priorbox
I0213 12:44:22.991407  7113 net.cpp:150] Setting up conv6_2_mbox_priorbox
I0213 12:44:22.991416  7113 net.cpp:157] Top shape: 1 2 2400 (4800)
I0213 12:44:22.991421  7113 net.cpp:165] Memory required for data: 3284785104
I0213 12:44:22.991426  7113 layer_factory.hpp:77] Creating layer conv7_2_mbox_loc
I0213 12:44:22.991446  7113 net.cpp:100] Creating Layer conv7_2_mbox_loc
I0213 12:44:22.991451  7113 net.cpp:434] conv7_2_mbox_loc <- conv7_2_conv7_2_relu_0_split_1
I0213 12:44:22.991461  7113 net.cpp:408] conv7_2_mbox_loc -> conv7_2_mbox_loc
I0213 12:44:22.993300  7113 net.cpp:150] Setting up conv7_2_mbox_loc
I0213 12:44:22.993330  7113 net.cpp:157] Top shape: 13 24 5 5 (7800)
I0213 12:44:22.993335  7113 net.cpp:165] Memory required for data: 3284816304
I0213 12:44:22.993343  7113 layer_factory.hpp:77] Creating layer conv7_2_mbox_loc_perm
I0213 12:44:22.993350  7113 net.cpp:100] Creating Layer conv7_2_mbox_loc_perm
I0213 12:44:22.993355  7113 net.cpp:434] conv7_2_mbox_loc_perm <- conv7_2_mbox_loc
I0213 12:44:22.993361  7113 net.cpp:408] conv7_2_mbox_loc_perm -> conv7_2_mbox_loc_perm
I0213 12:44:22.993520  7113 net.cpp:150] Setting up conv7_2_mbox_loc_perm
I0213 12:44:22.993526  7113 net.cpp:157] Top shape: 13 5 5 24 (7800)
I0213 12:44:22.993530  7113 net.cpp:165] Memory required for data: 3284847504
I0213 12:44:22.993533  7113 layer_factory.hpp:77] Creating layer conv7_2_mbox_loc_flat
I0213 12:44:22.993541  7113 net.cpp:100] Creating Layer conv7_2_mbox_loc_flat
I0213 12:44:22.993544  7113 net.cpp:434] conv7_2_mbox_loc_flat <- conv7_2_mbox_loc_perm
I0213 12:44:22.993551  7113 net.cpp:408] conv7_2_mbox_loc_flat -> conv7_2_mbox_loc_flat
I0213 12:44:22.993587  7113 net.cpp:150] Setting up conv7_2_mbox_loc_flat
I0213 12:44:22.993593  7113 net.cpp:157] Top shape: 13 600 (7800)
I0213 12:44:22.993597  7113 net.cpp:165] Memory required for data: 3284878704
I0213 12:44:22.993599  7113 layer_factory.hpp:77] Creating layer conv7_2_mbox_conf
I0213 12:44:22.993610  7113 net.cpp:100] Creating Layer conv7_2_mbox_conf
I0213 12:44:22.993614  7113 net.cpp:434] conv7_2_mbox_conf <- conv7_2_conv7_2_relu_0_split_2
I0213 12:44:22.993621  7113 net.cpp:408] conv7_2_mbox_conf -> conv7_2_mbox_conf
I0213 12:44:22.998085  7113 net.cpp:150] Setting up conv7_2_mbox_conf
I0213 12:44:22.998101  7113 net.cpp:157] Top shape: 13 132 5 5 (42900)
I0213 12:44:22.998106  7113 net.cpp:165] Memory required for data: 3285050304
I0213 12:44:22.998113  7113 layer_factory.hpp:77] Creating layer conv7_2_mbox_conf_perm
I0213 12:44:22.998121  7113 net.cpp:100] Creating Layer conv7_2_mbox_conf_perm
I0213 12:44:22.998126  7113 net.cpp:434] conv7_2_mbox_conf_perm <- conv7_2_mbox_conf
I0213 12:44:22.998133  7113 net.cpp:408] conv7_2_mbox_conf_perm -> conv7_2_mbox_conf_perm
I0213 12:44:22.998296  7113 net.cpp:150] Setting up conv7_2_mbox_conf_perm
I0213 12:44:22.998304  7113 net.cpp:157] Top shape: 13 5 5 132 (42900)
I0213 12:44:22.998308  7113 net.cpp:165] Memory required for data: 3285221904
I0213 12:44:22.998312  7113 layer_factory.hpp:77] Creating layer conv7_2_mbox_conf_flat
I0213 12:44:22.998319  7113 net.cpp:100] Creating Layer conv7_2_mbox_conf_flat
I0213 12:44:22.998325  7113 net.cpp:434] conv7_2_mbox_conf_flat <- conv7_2_mbox_conf_perm
I0213 12:44:22.998332  7113 net.cpp:408] conv7_2_mbox_conf_flat -> conv7_2_mbox_conf_flat
I0213 12:44:22.998374  7113 net.cpp:150] Setting up conv7_2_mbox_conf_flat
I0213 12:44:22.998383  7113 net.cpp:157] Top shape: 13 3300 (42900)
I0213 12:44:22.998386  7113 net.cpp:165] Memory required for data: 3285393504
I0213 12:44:22.998389  7113 layer_factory.hpp:77] Creating layer conv7_2_mbox_priorbox
I0213 12:44:22.998399  7113 net.cpp:100] Creating Layer conv7_2_mbox_priorbox
I0213 12:44:22.998405  7113 net.cpp:434] conv7_2_mbox_priorbox <- conv7_2_conv7_2_relu_0_split_3
I0213 12:44:22.998411  7113 net.cpp:434] conv7_2_mbox_priorbox <- data_data_0_split_4
I0213 12:44:22.998416  7113 net.cpp:408] conv7_2_mbox_priorbox -> conv7_2_mbox_priorbox
I0213 12:44:22.998457  7113 net.cpp:150] Setting up conv7_2_mbox_priorbox
I0213 12:44:22.998466  7113 net.cpp:157] Top shape: 1 2 600 (1200)
I0213 12:44:22.998471  7113 net.cpp:165] Memory required for data: 3285398304
I0213 12:44:22.998474  7113 layer_factory.hpp:77] Creating layer conv8_2_mbox_loc
I0213 12:44:22.998486  7113 net.cpp:100] Creating Layer conv8_2_mbox_loc
I0213 12:44:22.998492  7113 net.cpp:434] conv8_2_mbox_loc <- conv8_2_conv8_2_relu_0_split_1
I0213 12:44:22.998499  7113 net.cpp:408] conv8_2_mbox_loc -> conv8_2_mbox_loc
I0213 12:44:23.000085  7113 net.cpp:150] Setting up conv8_2_mbox_loc
I0213 12:44:23.000102  7113 net.cpp:157] Top shape: 13 16 3 3 (1872)
I0213 12:44:23.000107  7113 net.cpp:165] Memory required for data: 3285405792
I0213 12:44:23.000139  7113 layer_factory.hpp:77] Creating layer conv8_2_mbox_loc_perm
I0213 12:44:23.000149  7113 net.cpp:100] Creating Layer conv8_2_mbox_loc_perm
I0213 12:44:23.000154  7113 net.cpp:434] conv8_2_mbox_loc_perm <- conv8_2_mbox_loc
I0213 12:44:23.000160  7113 net.cpp:408] conv8_2_mbox_loc_perm -> conv8_2_mbox_loc_perm
I0213 12:44:23.000320  7113 net.cpp:150] Setting up conv8_2_mbox_loc_perm
I0213 12:44:23.000331  7113 net.cpp:157] Top shape: 13 3 3 16 (1872)
I0213 12:44:23.000335  7113 net.cpp:165] Memory required for data: 3285413280
I0213 12:44:23.000339  7113 layer_factory.hpp:77] Creating layer conv8_2_mbox_loc_flat
I0213 12:44:23.000345  7113 net.cpp:100] Creating Layer conv8_2_mbox_loc_flat
I0213 12:44:23.000352  7113 net.cpp:434] conv8_2_mbox_loc_flat <- conv8_2_mbox_loc_perm
I0213 12:44:23.000357  7113 net.cpp:408] conv8_2_mbox_loc_flat -> conv8_2_mbox_loc_flat
I0213 12:44:23.000396  7113 net.cpp:150] Setting up conv8_2_mbox_loc_flat
I0213 12:44:23.000406  7113 net.cpp:157] Top shape: 13 144 (1872)
I0213 12:44:23.000411  7113 net.cpp:165] Memory required for data: 3285420768
I0213 12:44:23.000414  7113 layer_factory.hpp:77] Creating layer conv8_2_mbox_conf
I0213 12:44:23.000424  7113 net.cpp:100] Creating Layer conv8_2_mbox_conf
I0213 12:44:23.000430  7113 net.cpp:434] conv8_2_mbox_conf <- conv8_2_conv8_2_relu_0_split_2
I0213 12:44:23.000438  7113 net.cpp:408] conv8_2_mbox_conf -> conv8_2_mbox_conf
I0213 12:44:23.003674  7113 net.cpp:150] Setting up conv8_2_mbox_conf
I0213 12:44:23.003691  7113 net.cpp:157] Top shape: 13 88 3 3 (10296)
I0213 12:44:23.003696  7113 net.cpp:165] Memory required for data: 3285461952
I0213 12:44:23.003703  7113 layer_factory.hpp:77] Creating layer conv8_2_mbox_conf_perm
I0213 12:44:23.003712  7113 net.cpp:100] Creating Layer conv8_2_mbox_conf_perm
I0213 12:44:23.003717  7113 net.cpp:434] conv8_2_mbox_conf_perm <- conv8_2_mbox_conf
I0213 12:44:23.003723  7113 net.cpp:408] conv8_2_mbox_conf_perm -> conv8_2_mbox_conf_perm
I0213 12:44:23.003885  7113 net.cpp:150] Setting up conv8_2_mbox_conf_perm
I0213 12:44:23.003895  7113 net.cpp:157] Top shape: 13 3 3 88 (10296)
I0213 12:44:23.003900  7113 net.cpp:165] Memory required for data: 3285503136
I0213 12:44:23.003902  7113 layer_factory.hpp:77] Creating layer conv8_2_mbox_conf_flat
I0213 12:44:23.003908  7113 net.cpp:100] Creating Layer conv8_2_mbox_conf_flat
I0213 12:44:23.003913  7113 net.cpp:434] conv8_2_mbox_conf_flat <- conv8_2_mbox_conf_perm
I0213 12:44:23.003919  7113 net.cpp:408] conv8_2_mbox_conf_flat -> conv8_2_mbox_conf_flat
I0213 12:44:23.003958  7113 net.cpp:150] Setting up conv8_2_mbox_conf_flat
I0213 12:44:23.003969  7113 net.cpp:157] Top shape: 13 792 (10296)
I0213 12:44:23.003973  7113 net.cpp:165] Memory required for data: 3285544320
I0213 12:44:23.003976  7113 layer_factory.hpp:77] Creating layer conv8_2_mbox_priorbox
I0213 12:44:23.003983  7113 net.cpp:100] Creating Layer conv8_2_mbox_priorbox
I0213 12:44:23.003988  7113 net.cpp:434] conv8_2_mbox_priorbox <- conv8_2_conv8_2_relu_0_split_3
I0213 12:44:23.003993  7113 net.cpp:434] conv8_2_mbox_priorbox <- data_data_0_split_5
I0213 12:44:23.004000  7113 net.cpp:408] conv8_2_mbox_priorbox -> conv8_2_mbox_priorbox
I0213 12:44:23.004040  7113 net.cpp:150] Setting up conv8_2_mbox_priorbox
I0213 12:44:23.004050  7113 net.cpp:157] Top shape: 1 2 144 (288)
I0213 12:44:23.004055  7113 net.cpp:165] Memory required for data: 3285545472
I0213 12:44:23.004057  7113 layer_factory.hpp:77] Creating layer conv9_2_mbox_loc
I0213 12:44:23.004068  7113 net.cpp:100] Creating Layer conv9_2_mbox_loc
I0213 12:44:23.004076  7113 net.cpp:434] conv9_2_mbox_loc <- conv9_2_conv9_2_relu_0_split_0
I0213 12:44:23.004081  7113 net.cpp:408] conv9_2_mbox_loc -> conv9_2_mbox_loc
I0213 12:44:23.005648  7113 net.cpp:150] Setting up conv9_2_mbox_loc
I0213 12:44:23.005664  7113 net.cpp:157] Top shape: 13 16 1 1 (208)
I0213 12:44:23.005668  7113 net.cpp:165] Memory required for data: 3285546304
I0213 12:44:23.005676  7113 layer_factory.hpp:77] Creating layer conv9_2_mbox_loc_perm
I0213 12:44:23.005697  7113 net.cpp:100] Creating Layer conv9_2_mbox_loc_perm
I0213 12:44:23.005702  7113 net.cpp:434] conv9_2_mbox_loc_perm <- conv9_2_mbox_loc
I0213 12:44:23.005710  7113 net.cpp:408] conv9_2_mbox_loc_perm -> conv9_2_mbox_loc_perm
I0213 12:44:23.005869  7113 net.cpp:150] Setting up conv9_2_mbox_loc_perm
I0213 12:44:23.005879  7113 net.cpp:157] Top shape: 13 1 1 16 (208)
I0213 12:44:23.005882  7113 net.cpp:165] Memory required for data: 3285547136
I0213 12:44:23.005887  7113 layer_factory.hpp:77] Creating layer conv9_2_mbox_loc_flat
I0213 12:44:23.005892  7113 net.cpp:100] Creating Layer conv9_2_mbox_loc_flat
I0213 12:44:23.005897  7113 net.cpp:434] conv9_2_mbox_loc_flat <- conv9_2_mbox_loc_perm
I0213 12:44:23.005904  7113 net.cpp:408] conv9_2_mbox_loc_flat -> conv9_2_mbox_loc_flat
I0213 12:44:23.005944  7113 net.cpp:150] Setting up conv9_2_mbox_loc_flat
I0213 12:44:23.005951  7113 net.cpp:157] Top shape: 13 16 (208)
I0213 12:44:23.005955  7113 net.cpp:165] Memory required for data: 3285547968
I0213 12:44:23.005959  7113 layer_factory.hpp:77] Creating layer conv9_2_mbox_conf
I0213 12:44:23.005970  7113 net.cpp:100] Creating Layer conv9_2_mbox_conf
I0213 12:44:23.005976  7113 net.cpp:434] conv9_2_mbox_conf <- conv9_2_conv9_2_relu_0_split_1
I0213 12:44:23.005982  7113 net.cpp:408] conv9_2_mbox_conf -> conv9_2_mbox_conf
I0213 12:44:23.009246  7113 net.cpp:150] Setting up conv9_2_mbox_conf
I0213 12:44:23.009264  7113 net.cpp:157] Top shape: 13 88 1 1 (1144)
I0213 12:44:23.009269  7113 net.cpp:165] Memory required for data: 3285552544
I0213 12:44:23.009276  7113 layer_factory.hpp:77] Creating layer conv9_2_mbox_conf_perm
I0213 12:44:23.009285  7113 net.cpp:100] Creating Layer conv9_2_mbox_conf_perm
I0213 12:44:23.009292  7113 net.cpp:434] conv9_2_mbox_conf_perm <- conv9_2_mbox_conf
I0213 12:44:23.009299  7113 net.cpp:408] conv9_2_mbox_conf_perm -> conv9_2_mbox_conf_perm
I0213 12:44:23.009459  7113 net.cpp:150] Setting up conv9_2_mbox_conf_perm
I0213 12:44:23.009469  7113 net.cpp:157] Top shape: 13 1 1 88 (1144)
I0213 12:44:23.009471  7113 net.cpp:165] Memory required for data: 3285557120
I0213 12:44:23.009475  7113 layer_factory.hpp:77] Creating layer conv9_2_mbox_conf_flat
I0213 12:44:23.009483  7113 net.cpp:100] Creating Layer conv9_2_mbox_conf_flat
I0213 12:44:23.009490  7113 net.cpp:434] conv9_2_mbox_conf_flat <- conv9_2_mbox_conf_perm
I0213 12:44:23.009495  7113 net.cpp:408] conv9_2_mbox_conf_flat -> conv9_2_mbox_conf_flat
I0213 12:44:23.009533  7113 net.cpp:150] Setting up conv9_2_mbox_conf_flat
I0213 12:44:23.009541  7113 net.cpp:157] Top shape: 13 88 (1144)
I0213 12:44:23.009546  7113 net.cpp:165] Memory required for data: 3285561696
I0213 12:44:23.009548  7113 layer_factory.hpp:77] Creating layer conv9_2_mbox_priorbox
I0213 12:44:23.009555  7113 net.cpp:100] Creating Layer conv9_2_mbox_priorbox
I0213 12:44:23.009560  7113 net.cpp:434] conv9_2_mbox_priorbox <- conv9_2_conv9_2_relu_0_split_2
I0213 12:44:23.009572  7113 net.cpp:434] conv9_2_mbox_priorbox <- data_data_0_split_6
I0213 12:44:23.009579  7113 net.cpp:408] conv9_2_mbox_priorbox -> conv9_2_mbox_priorbox
I0213 12:44:23.009624  7113 net.cpp:150] Setting up conv9_2_mbox_priorbox
I0213 12:44:23.009632  7113 net.cpp:157] Top shape: 1 2 16 (32)
I0213 12:44:23.009635  7113 net.cpp:165] Memory required for data: 3285561824
I0213 12:44:23.009640  7113 layer_factory.hpp:77] Creating layer mbox_loc
I0213 12:44:23.009647  7113 net.cpp:100] Creating Layer mbox_loc
I0213 12:44:23.009659  7113 net.cpp:434] mbox_loc <- conv4_3_norm_mbox_loc_flat
I0213 12:44:23.009665  7113 net.cpp:434] mbox_loc <- fc7_mbox_loc_flat
I0213 12:44:23.009670  7113 net.cpp:434] mbox_loc <- conv6_2_mbox_loc_flat
I0213 12:44:23.009675  7113 net.cpp:434] mbox_loc <- conv7_2_mbox_loc_flat
I0213 12:44:23.009680  7113 net.cpp:434] mbox_loc <- conv8_2_mbox_loc_flat
I0213 12:44:23.009685  7113 net.cpp:434] mbox_loc <- conv9_2_mbox_loc_flat
I0213 12:44:23.009692  7113 net.cpp:408] mbox_loc -> mbox_loc
I0213 12:44:23.009732  7113 net.cpp:150] Setting up mbox_loc
I0213 12:44:23.009754  7113 net.cpp:157] Top shape: 13 34928 (454064)
I0213 12:44:23.009758  7113 net.cpp:165] Memory required for data: 3287378080
I0213 12:44:23.009763  7113 layer_factory.hpp:77] Creating layer mbox_conf
I0213 12:44:23.009773  7113 net.cpp:100] Creating Layer mbox_conf
I0213 12:44:23.009780  7113 net.cpp:434] mbox_conf <- conv4_3_norm_mbox_conf_flat
I0213 12:44:23.009786  7113 net.cpp:434] mbox_conf <- fc7_mbox_conf_flat
I0213 12:44:23.009791  7113 net.cpp:434] mbox_conf <- conv6_2_mbox_conf_flat
I0213 12:44:23.009796  7113 net.cpp:434] mbox_conf <- conv7_2_mbox_conf_flat
I0213 12:44:23.009804  7113 net.cpp:434] mbox_conf <- conv8_2_mbox_conf_flat
I0213 12:44:23.009809  7113 net.cpp:434] mbox_conf <- conv9_2_mbox_conf_flat
I0213 12:44:23.009814  7113 net.cpp:408] mbox_conf -> mbox_conf
I0213 12:44:23.009852  7113 net.cpp:150] Setting up mbox_conf
I0213 12:44:23.009860  7113 net.cpp:157] Top shape: 13 192104 (2497352)
I0213 12:44:23.009863  7113 net.cpp:165] Memory required for data: 3297367488
I0213 12:44:23.009867  7113 layer_factory.hpp:77] Creating layer mbox_priorbox
I0213 12:44:23.009873  7113 net.cpp:100] Creating Layer mbox_priorbox
I0213 12:44:23.009879  7113 net.cpp:434] mbox_priorbox <- conv4_3_norm_mbox_priorbox
I0213 12:44:23.009886  7113 net.cpp:434] mbox_priorbox <- fc7_mbox_priorbox
I0213 12:44:23.009889  7113 net.cpp:434] mbox_priorbox <- conv6_2_mbox_priorbox
I0213 12:44:23.009893  7113 net.cpp:434] mbox_priorbox <- conv7_2_mbox_priorbox
I0213 12:44:23.009898  7113 net.cpp:434] mbox_priorbox <- conv8_2_mbox_priorbox
I0213 12:44:23.009904  7113 net.cpp:434] mbox_priorbox <- conv9_2_mbox_priorbox
I0213 12:44:23.009912  7113 net.cpp:408] mbox_priorbox -> mbox_priorbox
I0213 12:44:23.009946  7113 net.cpp:150] Setting up mbox_priorbox
I0213 12:44:23.009954  7113 net.cpp:157] Top shape: 1 2 34928 (69856)
I0213 12:44:23.009958  7113 net.cpp:165] Memory required for data: 3297646912
I0213 12:44:23.009961  7113 layer_factory.hpp:77] Creating layer mbox_conf_reshape
I0213 12:44:23.009976  7113 net.cpp:100] Creating Layer mbox_conf_reshape
I0213 12:44:23.009981  7113 net.cpp:434] mbox_conf_reshape <- mbox_conf
I0213 12:44:23.009989  7113 net.cpp:408] mbox_conf_reshape -> mbox_conf_reshape
I0213 12:44:23.010035  7113 net.cpp:150] Setting up mbox_conf_reshape
I0213 12:44:23.010046  7113 net.cpp:157] Top shape: 13 8732 22 (2497352)
I0213 12:44:23.010048  7113 net.cpp:165] Memory required for data: 3307636320
I0213 12:44:23.010052  7113 layer_factory.hpp:77] Creating layer mbox_conf_softmax
I0213 12:44:23.010058  7113 net.cpp:100] Creating Layer mbox_conf_softmax
I0213 12:44:23.010064  7113 net.cpp:434] mbox_conf_softmax <- mbox_conf_reshape
I0213 12:44:23.010071  7113 net.cpp:408] mbox_conf_softmax -> mbox_conf_softmax
I0213 12:44:23.010378  7113 net.cpp:150] Setting up mbox_conf_softmax
I0213 12:44:23.010390  7113 net.cpp:157] Top shape: 13 8732 22 (2497352)
I0213 12:44:23.010395  7113 net.cpp:165] Memory required for data: 3317625728
I0213 12:44:23.010398  7113 layer_factory.hpp:77] Creating layer mbox_conf_flatten
I0213 12:44:23.010406  7113 net.cpp:100] Creating Layer mbox_conf_flatten
I0213 12:44:23.010412  7113 net.cpp:434] mbox_conf_flatten <- mbox_conf_softmax
I0213 12:44:23.010419  7113 net.cpp:408] mbox_conf_flatten -> mbox_conf_flatten
I0213 12:44:23.010457  7113 net.cpp:150] Setting up mbox_conf_flatten
I0213 12:44:23.010465  7113 net.cpp:157] Top shape: 13 192104 (2497352)
I0213 12:44:23.010468  7113 net.cpp:165] Memory required for data: 3327615136
I0213 12:44:23.010473  7113 layer_factory.hpp:77] Creating layer detection_out
I0213 12:44:23.010490  7113 net.cpp:100] Creating Layer detection_out
I0213 12:44:23.010496  7113 net.cpp:434] detection_out <- mbox_loc
I0213 12:44:23.010501  7113 net.cpp:434] detection_out <- mbox_conf_flatten
I0213 12:44:23.010505  7113 net.cpp:434] detection_out <- mbox_priorbox
I0213 12:44:23.010512  7113 net.cpp:408] detection_out -> detection_out
I0213 12:44:23.013495  7113 net.cpp:150] Setting up detection_out
I0213 12:44:23.013512  7113 net.cpp:157] Top shape: 1 1 1 7 (7)
I0213 12:44:23.013531  7113 net.cpp:165] Memory required for data: 3327615164
I0213 12:44:23.013536  7113 layer_factory.hpp:77] Creating layer detection_eval
I0213 12:44:23.013545  7113 net.cpp:100] Creating Layer detection_eval
I0213 12:44:23.013550  7113 net.cpp:434] detection_eval <- detection_out
I0213 12:44:23.013555  7113 net.cpp:434] detection_eval <- label
I0213 12:44:23.013561  7113 net.cpp:408] detection_eval -> detection_eval
I0213 12:44:23.014704  7113 net.cpp:150] Setting up detection_eval
I0213 12:44:23.014716  7113 net.cpp:157] Top shape: 1 1 22 5 (110)
I0213 12:44:23.014719  7113 net.cpp:165] Memory required for data: 3327615604
I0213 12:44:23.014724  7113 net.cpp:228] detection_eval does not need backward computation.
I0213 12:44:23.014729  7113 net.cpp:228] detection_out does not need backward computation.
I0213 12:44:23.014734  7113 net.cpp:228] mbox_conf_flatten does not need backward computation.
I0213 12:44:23.014737  7113 net.cpp:228] mbox_conf_softmax does not need backward computation.
…
