…
      sampler {
        min_scale: 0.3
        max_scale: 1
        min_aspect_ratio: 0.5
        max_aspect_ratio: 2
      }
      sample_constraint {
        min_jaccard_overlap: 0.9
      }
      max_sample: 1
      max_trials: 50
    }
    batch_sampler {
      sampler {
        min_scale: 0.3
        max_scale: 1
        min_aspect_ratio: 0.5
        max_aspect_ratio: 2
      }
      sample_constraint {
        max_jaccard_overlap: 1
      }
      max_sample: 1
      max_trials: 50
    }
    label_map_file: "data/VOC0712/labelmap_voc.prototxt"
  }
}
layer {
  name: "conv1_1"
  type: "Convolution"
  bottom: "data"
  top: "conv1_1"
  param {
    lr_mult: 1
    decay_mult: 1
  }
  param {
    lr_mult: 2
    decay_mult: 0
  }
  convolution_param {
    num_output: 64
    pad: 1
    kernel_size: 3
    weight_filler {
      type: "xavier"
    }
    bias_filler {
      type: "constant"
      value: 0
    }
  }
}
layer {
  name: "relu1_1"
  type: "ReLU"
  bottom: "conv1_1"
  top: "conv1_1"
}
layer {
  name: "conv1_2"
  type: "Convolution"
  bottom: "conv1_1"
  top: "conv1_2"
  param {
    lr_mult: 1
    decay_mult: 1
  }
  param {
    lr_mult: 2
    decay_mult: 0
  }
  convolution_param {
    num_output: 64
    pad: 1
    kernel_size: 3
    weight_filler {
      type: "xavier"
    }
    bias_filler {
      type: "constant"
      value: 0
    }
  }
}
layer {
  name: "relu1_2"
  type: "ReLU"
  bottom: "conv1_2"
  top: "conv1_2"
}
layer {
  name: "pool1"
  type: "Pooling"
  bottom: "conv1_2"
  top: "pool1"
  pooling_param {
    pool: MAX
    kernel_size: 2
    stride: 2
  }
}
layer {
  name: "conv2_1"
  type: "Convolution"
  bottom: "pool1"
  top: "conv2_1"
  param {
    lr_mult: 1
    decay_mult: 1
  }
  param {
    lr_mult: 2
    decay_mult: 0
  }
  convolution_param {
    num_output: 128
    pad: 1
    kernel_size: 3
    weight_filler {
      type: "xavier"
    }
    bias_filler {
      type: "constant"
      value: 0
    }
  }
}
layer {
  name: "relu2_1"
  type: "ReLU"
  bottom: "conv2_1"
  top: "conv2_1"
}
layer {
  name: "conv2_2"
  type: "Convolution"
  bottom: "conv2_1"
  top: "conv2_2"
  param {
    lr_mult: 1
    decay_mult: 1
  }
  param {
    lr_mult: 2
    decay_mult: 0
  }
  convolution_param {
    num_output: 128
    pad: 1
    kernel_size: 3
    weight_filler {
      type: "xavier"
    }
    bias_filler {
      type: "constant"
      value: 0
    }
  }
}
layer {
  name: "relu2_2"
  type: "ReLU"
  bottom: "conv2_2"
  top: "conv2_2"
}
layer {
  name: "pool2"
  type: "Pooling"
  bottom: "conv2_2"
  top: "pool2"
  pooling_param {
    pool: MAX
    kernel_size: 2
    stride: 2
  }
}
layer {
  name: "conv3_1"
  type: "Convolution"
  bottom: "pool2"
  top: "conv3_1"
  param {
    lr_mult: 1
    decay_mult: 1
  }
  param {
    lr_mult: 2
    decay_mult: 0
  }
  convolution_param {
    num_output: 256
    pad: 1
    kernel_size: 3
    weight_filler {
      type: "xavier"
    }
    bias_filler {
      type: "constant"
      value: 0
    }
  }
}
layer {
  name: "relu3_1"
  type: "ReLU"
  bottom: "conv3_1"
  top: "conv3_1"
}
layer {
  name: "conv3_2"
  type: "Convolution"
  bottom: "conv3_1"
  top: "conv3_2"
  param {
    lr_mult: 1
    decay_mult: 1
  }
  param {
    lr_mult: 2
    decay_mult: 0
  }
  convolution_param {
    num_output: 256
    pad: 1
    kernel_size: 3
    weight_filler {
      type: "xavier"
    }
    bias_filler {
      type: "constant"
      value: 0
    }
  }
}
layer {
  name: "relu3_2"
  type: "ReLU"
  bottom: "conv3_2"
  top: "conv3_2"
}
layer {
  name: "conv3_3"
  type: "Convolution"
  bottom: "conv3_2"
  top: "conv3_3"
  param {
    lr_mult: 1
    decay_mult: 1
  }
  param {
    lr_mult: 2
    decay_mult: 0
  }
  convolution_param {
    num_output: 256
    pad: 1
    kernel_size: 3
    weight_filler {
      type: "xavier"
    }
    bias_filler {
      type: "constant"
      value: 0
    }
  }
}
layer {
  name: "relu3_3"
  type: "ReLU"
  bottom: "conv3_3"
  top: "conv3_3"
}
layer {
  name: "pool3"
  type: "Pooling"
  bottom: "conv3_3"
  top: "pool3"
  pooling_param {
    pool: MAX
    kernel_size: 2
    stride: 2
  }
}
layer {
  name: "conv4_1"
  type: "Convolution"
  bottom: "pool3"
  top: "conv4_1"
  param {
    lr_mult: 1
    decay_mult: 1
  }
  param {
    lr_mult: 2
    decay_mult: 0
  }
  convolution_param {
    num_output: 512
    pad: 1
    kernel_size: 3
    weight_filler {
      type: "xavier"
    }
    bias_filler {
      type: "constant"
      value: 0
    }
  }
}
layer {
  name: "relu4_1"
  type: "ReLU"
  bottom: "conv4_1"
  top: "conv4_1"
}
layer {
  name: "conv4_2"
  type: "Convolution"
  bottom: "conv4_1"
  top: "conv4_2"
  param {
    lr_mult: 1
    decay_mult: 1
  }
  param {
    lr_mult: 2
    decay_mult: 0
  }
  convolution_param {
    num_output: 512
    pad: 1
    kernel_size: 3
    weight_filler {
      type: "xavier"
    }
    bias_filler {
      type: "constant"
      value: 0
    }
  }
}
layer {
  name: "relu4_2"
  type: "ReLU"
  bottom: "conv4_2"
  top: "conv4_2"
}
layer {
  name: "conv4_3"
  type: "Convolution"
  bottom: "conv4_2"
  top: "conv4_3"
  param {
    lr_mult: 1
    decay_mult: 1
  }
  param {
    lr_mult: 2
    decay_mult: 0
  }
  convolution_param {
    num_output: 512
    pad: 1
    kernel_size: 3
    weight_filler {
      type: "xavier"
    }
    bias_filler {
      type: "constant"
      value: 0
    }
  }
}
layer {
  name: "relu4_3"
  type: "ReLU"
  bottom: "conv4_3"
  top: "conv4_3"
}
layer {
  name: "pool4"
  type: "Pooling"
  bottom: "conv4_3"
  top: "pool4"
  pooling_param {
    pool: MAX
    kernel_size: 2
    stride: 2
  }
}
layer {
  name: "conv5_1"
  type: "Convolution"
  bottom: "pool4"
  top: "conv5_1"
  param {
    lr_mult: 1
    decay_mult: 1
  }
  param {
    lr_mult: 2
    decay_mult: 0
  }
  convolution_param {
    num_output: 512
    pad: 1
    kernel_size: 3
    weight_filler {
      type: "xavier"
    }
    bias_filler {
      type: "constant"
      value: 0
    }
    dilation: 1
  }
}
layer {
  name: "relu5_1"
  type: "ReLU"
  bottom: "conv5_1"
  top: "conv5_1"
}
layer {
  name: "conv5_2"
  type: "Convolution"
  bottom: "conv5_1"
  top: "conv5_2"
  param {
    lr_mult: 1
    decay_mult: 1
  }
  param {
    lr_mult: 2
    decay_mult: 0
  }
  convolution_param {
    num_output: 512
    pad: 1
    kernel_size: 3
    weight_filler {
      type: "xavier"
    }
    bias_filler {
      type: "constant"
      value: 0
    }
    dilation: 1
  }
}
layer {
  name: "relu5_2"
  type: "ReLU"
  bottom: "conv5_2"
  top: "conv5_2"
}
layer {
  name: "conv5_3"
  type: "Convolution"
  bottom: "conv5_2"
  top: "conv5_3"
  param {
    lr_mult: 1
    decay_mult: 1
  }
  param {
    lr_mult: 2
    decay_mult: 0
  }
  convolution_param {
    num_output: 512
    pad: 1
    kernel_size: 3
    weight_filler {
      type: "xavier"
    }
    bias_filler {
      type: "constant"
      value: 0
    }
    dilation: 1
  }
}
layer {
  name: "relu5_3"
  type: "ReLU"
  bottom: "conv5_3"
  top: "conv5_3"
}
layer {
  name: "pool5"
  type: "Pooling"
  bottom: "conv5_3"
  top: "pool5"
  pooling_param {
    pool: MAX
    kernel_size: 3
    stride: 1
    pad: 1
  }
}
layer {
  name: "fc6"
  type: "Convolution"
  bottom: "pool5"
  top: "fc6"
  param {
    lr_mult: 1
    decay_mult: 1
  }
  param {
    lr_mult: 2
    decay_mult: 0
  }
  convolution_param {
    num_output: 1024
    pad: 6
    kernel_size: 3
    weight_filler {
      type: "xavier"
    }
    bias_filler {
      type: "constant"
      value: 0
    }
    dilation: 6
  }
}
layer {
  name: "relu6"
  type: "ReLU"
  bottom: "fc6"
  top: "fc6"
}
layer {
  name: "fc7"
  type: "Convolution"
  bottom: "fc6"
  top: "fc7"
  param {
    lr_mult: 1
    decay_mult: 1
  }
  param {
    lr_mult: 2
    decay_mult: 0
  }
  convolution_param {
    num_output: 1024
    kernel_size: 1
    weight_filler {
      type: "xavier"
    }
    bias_filler {
      type: "constant"
      value: 0
    }
  }
}
layer {
  name: "relu7"
  type: "ReLU"
  bottom: "fc7"
  top: "fc7"
}
layer {
  name: "conv6_1"
  type: "Convolution"
  bottom: "fc7"
  top: "conv6_1"
  param {
    lr_mult: 1
    decay_mult: 1
  }
  param {
    lr_mult: 2
    decay_mult: 0
  }
  convolution_param {
    num_output: 256
    pad: 0
    kernel_size: 1
    stride: 1
    weight_filler {
      type: "xavier"
    }
    bias_filler {
      type: "constant"
      value: 0
    }
  }
}
layer {
  name: "conv6_1_relu"
  type: "ReLU"
  bottom: "conv6_1"
  top: "conv6_1"
}
layer {
  name: "conv6_2"
  type: "Convolution"
  bottom: "conv6_1"
  top: "conv6_2"
  param {
    lr_mult: 1
    decay_mult: 1
  }
  param {
    lr_mult: 2
    decay_mult: 0
  }
  convolution_param {
    num_output: 512
    pad: 1
    kernel_size: 3
    stride: 2
    weight_filler {
      type: "xavier"
    }
    bias_filler {
      type: "constant"
      value: 0
    }
  }
}
layer {
  name: "conv6_2_relu"
  type: "ReLU"
  bottom: "conv6_2"
  top: "conv6_2"
}
layer {
  name: "conv7_1"
  type: "Convolution"
  bottom: "conv6_2"
  top: "conv7_1"
  param {
    lr_mult: 1
    decay_mult: 1
  }
  param {
    lr_mult: 2
    decay_mult: 0
  }
  convolution_param {
    num_output: 128
    pad: 0
    kernel_size: 1
    stride: 1
    weight_filler {
      type: "xavier"
    }
    bias_filler {
      type: "constant"
      value: 0
    }
  }
}
layer {
  name: "conv7_1_relu"
  type: "ReLU"
  bottom: "conv7_1"
  top: "conv7_1"
}
layer {
  name: "conv7_2"
  type: "Convolution"
  bottom: "conv7_1"
  top: "conv7_2"
  param {
    lr_mult: 1
    decay_mult: 1
  }
  param {
    lr_mult: 2
    decay_mult: 0
  }
  convolution_param {
    num_output: 256
    pad: 1
    kernel_size: 3
    stride: 2
    weight_filler {
      type: "xavier"
    }
    bias_filler {
      type: "constant"
      value: 0
    }
  }
}
layer {
  name: "conv7_2_relu"
  type: "ReLU"
  bottom: "conv7_2"
  top: "conv7_2"
}
layer {
  name: "conv8_1"
  type: "Convolution"
  bottom: "conv7_2"
  top: "conv8_1"
  param {
    lr_mult: 1
    decay_mult: 1
  }
  param {
    lr_mult: 2
    decay_mult: 0
  }
  convolution_param {
    num_output: 128
    pad: 0
    kernel_size: 1
    stride: 1
    weight_filler {
      type: "xavier"
    }
    bias_filler {
      type: "constant"
      value: 0
    }
  }
}
layer {
  name: "conv8_1_relu"
  type: "ReLU"
  bottom: "conv8_1"
  top: "conv8_1"
}
layer {
  name: "conv8_2"
  type: "Convolution"
  bottom: "conv8_1"
  top: "conv8_2"
  param {
    lr_mult: 1
    decay_mult: 1
  }
  param {
    lr_mult: 2
    decay_mult: 0
  }
  convolution_param {
    num_output: 256
    pad: 0
    kernel_size: 3
    stride: 1
    weight_filler {
      type: "xavier"
    }
    bias_filler {
      type: "constant"
      value: 0
    }
  }
}
layer {
  name: "conv8_2_relu"
  type: "ReLU"
  bottom: "conv8_2"
  top: "conv8_2"
}
layer {
  name: "conv9_1"
  type: "Convolution"
  bottom: "conv8_2"
  top: "conv9_1"
  param {
    lr_mult: 1
    decay_mult: 1
  }
  param {
    lr_mult: 2
    decay_mult: 0
  }
  convolution_param {
    num_output: 128
    pad: 0
    kernel_size: 1
    stride: 1
    weight_filler {
      type: "xavier"
    }
    bias_filler {
      type: "constant"
      value: 0
    }
  }
}
layer {
  name: "conv9_1_relu"
  type: "ReLU"
  bottom: "conv9_1"
  top: "conv9_1"
}
layer {
  name: "conv9_2"
  type: "Convolution"
  bottom: "conv9_1"
  top: "conv9_2"
  param {
    lr_mult: 1
    decay_mult: 1
  }
  param {
    lr_mult: 2
    decay_mult: 0
  }
  convolution_param {
    num_output: 256
    pad: 0
    kernel_size: 3
    stride: 1
    weight_filler {
      type: "xavier"
    }
    bias_filler {
      type: "constant"
      value: 0
    }
  }
}
layer {
  name: "conv9_2_relu"
  type: "ReLU"
  bottom: "conv9_2"
  top: "conv9_2"
}
layer {
  name: "conv4_3_norm"
  type: "Normalize"
  bottom: "conv4_3"
  top: "conv4_3_norm"
  norm_param {
    across_spatial: false
    scale_filler {
      type: "constant"
      value: 20
    }
    channel_shared: false
  }
}
layer {
  name: "conv4_3_norm_mbox_loc"
  type: "Convolution"
  bottom: "conv4_3_norm"
  top: "conv4_3_norm_mbox_loc"
  param {
    lr_mult: 1
    decay_mult: 1
  }
  param {
    lr_mult: 2
    decay_mult: 0
  }
  convolution_param {
    num_output: 16
    pad: 1
    kernel_size: 3
    stride: 1
    weight_filler {
      type: "xavier"
    }
    bias_filler {
      type: "constant"
      value: 0
    }
  }
}
layer {
  name: "conv4_3_norm_mbox_loc_perm"
  type: "Permute"
  bottom: "conv4_3_norm_mbox_loc"
  top: "conv4_3_norm_mbox_loc_perm"
  permute_param {
    order: 0
    order: 2
    order: 3
    order: 1
  }
}
layer {
  name: "conv4_3_norm_mbox_loc_flat"
  type: "Flatten"
  bottom: "conv4_3_norm_mbox_loc_perm"
  top: "conv4_3_norm_mbox_loc_flat"
  flatten_param {
    axis: 1
  }
}
layer {
  name: "conv4_3_norm_mbox_conf"
  type: "Convolution"
  bottom: "conv4_3_norm"
  top: "conv4_3_norm_mbox_conf"
  param {
    lr_mult: 1
    decay_mult: 1
  }
  param {
    lr_mult: 2
    decay_mult: 0
  }
  convolution_param {
    num_output: 88
    pad: 1
    kernel_size: 3
    stride: 1
    weight_filler {
      type: "xavier"
    }
    bias_filler {
      type: "constant"
      value: 0
    }
  }
}
layer {
  name: "conv4_3_norm_mbox_conf_perm"
  type: "Permute"
  bottom: "conv4_3_norm_mbox_conf"
  top: "conv4_3_norm_mbox_conf_perm"
  permute_param {
    order: 0
    order: 2
    order: 3
    order: 1
  }
}
layer {
  name: "conv4_3_norm_mbox_conf_flat"
  type: "Flatten"
  bottom: "conv4_3_norm_mbox_conf_perm"
  top: "conv4_3_norm_mbox_conf_flat"
  flatten_param {
    axis: 1
  }
}
layer {
  name: "conv4_3_norm_mbox_priorbox"
  type: "PriorBox"
  bottom: "conv4_3_norm"
  bottom: "data"
  top: "conv4_3_norm_mbox_priorbox"
  prior_box_param {
    min_size: 30
    max_size: 60
    aspect_ratio: 2
    flip: true
    clip: false
    variance: 0.1
    variance: 0.1
    variance: 0.2
    variance: 0.2
    step: 8
    offset: 0.5
  }
}
layer {
  name: "fc7_mbox_loc"
  type: "Convolution"
  bottom: "fc7"
  top: "fc7_mbox_loc"
  param {
    lr_mult: 1
    decay_mult: 1
  }
  param {
    lr_mult: 2
    decay_mult: 0
  }
  convolution_param {
    num_output: 24
    pad: 1
    kernel_size: 3
    stride: 1
    weight_filler {
      type: "xavier"
    }
    bias_filler {
      type: "constant"
      value: 0
    }
  }
}
layer {
  name: "fc7_mbox_loc_perm"
  type: "Permute"
  bottom: "fc7_mbox_loc"
  top: "fc7_mbox_loc_perm"
  permute_param {
    order: 0
    order: 2
    order: 3
    order: 1
  }
}
layer {
  name: "fc7_mbox_loc_flat"
  type: "Flatten"
  bottom: "fc7_mbox_loc_perm"
  top: "fc7_mbox_loc_flat"
  flatten_param {
    axis: 1
  }
}
layer {
  name: "fc7_mbox_conf"
  type: "Convolution"
  bottom: "fc7"
  top: "fc7_mbox_conf"
  param {
    lr_mult: 1
    decay_mult: 1
  }
  param {
    lr_mult: 2
    decay_mult: 0
  }
  convolution_param {
    num_output: 132
    pad: 1
    kernel_size: 3
    stride: 1
    weight_filler {
      type: "xavier"
    }
    bias_filler {
      type: "constant"
      value: 0
    }
  }
}
layer {
  name: "fc7_mbox_conf_perm"
  type: "Permute"
  bottom: "fc7_mbox_conf"
  top: "fc7_mbox_conf_perm"
  permute_param {
    order: 0
    order: 2
    order: 3
    order: 1
  }
}
layer {
  name: "fc7_mbox_conf_flat"
  type: "Flatten"
  bottom: "fc7_mbox_conf_perm"
  top: "fc7_mbox_conf_flat"
  flatten_param {
    axis: 1
  }
}
layer {
  name: "fc7_mbox_priorbox"
  type: "PriorBox"
  bottom: "fc7"
  bottom: "data"
  top: "fc7_mbox_priorbox"
  prior_box_param {
    min_size: 60
    max_size: 111
    aspect_ratio: 2
    aspect_ratio: 3
    flip: true
    clip: false
    variance: 0.1
    variance: 0.1
    variance: 0.2
    variance: 0.2
    step: 16
    offset: 0.5
  }
}
layer {
  name: "conv6_2_mbox_loc"
  type: "Convolution"
  bottom: "conv6_2"
  top: "conv6_2_mbox_loc"
  param {
    lr_mult: 1
    decay_mult: 1
  }
  param {
    lr_mult: 2
    decay_mult: 0
  }
  convolution_param {
    num_output: 24
    pad: 1
    kernel_size: 3
    stride: 1
    weight_filler {
      type: "xavier"
    }
    bias_filler {
      type: "constant"
      value: 0
    }
  }
}
layer {
  name: "conv6_2_mbox_loc_perm"
  type: "Permute"
  bottom: "conv6_2_mbox_loc"
  top: "conv6_2_mbox_loc_perm"
  permute_param {
    order: 0
    order: 2
    order: 3
    order: 1
  }
}
layer {
  name: "conv6_2_mbox_loc_flat"
  type: "Flatten"
  bottom: "conv6_2_mbox_loc_perm"
  top: "conv6_2_mbox_loc_flat"
  flatten_param {
    axis: 1
  }
}
layer {
  name: "conv6_2_mbox_conf"
  type: "Convolution"
  bottom: "conv6_2"
  top: "conv6_2_mbox_conf"
  param {
    lr_mult: 1
    decay_mult: 1
  }
  param {
    lr_mult: 2
    decay_mult: 0
  }
  convolution_param {
    num_output: 132
    pad: 1
    kernel_size: 3
    stride: 1
    weight_filler {
      type: "xavier"
    }
    bias_filler {
      type: "constant"
      value: 0
    }
  }
}
layer {
  name: "conv6_2_mbox_conf_perm"
  type: "Permute"
  bottom: "conv6_2_mbox_conf"
  top: "conv6_2_mbox_conf_perm"
  permute_param {
    order: 0
    order: 2
    order: 3
    order: 1
  }
}
layer {
  name: "conv6_2_mbox_conf_flat"
  type: "Flatten"
  bottom: "conv6_2_mbox_conf_perm"
  top: "conv6_2_mbox_conf_flat"
  flatten_param {
    axis: 1
  }
}
layer {
  name: "conv6_2_mbox_priorbox"
  type: "PriorBox"
  bottom: "conv6_2"
  bottom: "data"
  top: "conv6_2_mbox_priorbox"
  prior_box_param {
    min_size: 111
    max_size: 162
    aspect_ratio: 2
    aspect_ratio: 3
    flip: true
    clip: false
    variance: 0.1
    variance: 0.1
    variance: 0.2
    variance: 0.2
    step: 32
    offset: 0.5
  }
}
layer {
  name: "conv7_2_mbox_loc"
  type: "Convolution"
  bottom: "conv7_2"
  top: "conv7_2_mbox_loc"
  param {
    lr_mult: 1
    decay_mult: 1
  }
  param {
    lr_mult: 2
    decay_mult: 0
  }
  convolution_param {
    num_output: 24
    pad: 1
    kernel_size: 3
    stride: 1
    weight_filler {
      type: "xavier"
    }
    bias_filler {
      type: "constant"
      value: 0
    }
  }
}
layer {
  name: "conv7_2_mbox_loc_perm"
  type: "Permute"
  bottom: "conv7_2_mbox_loc"
  top: "conv7_2_mbox_loc_perm"
  permute_param {
    order: 0
    order: 2
    order: 3
    order: 1
  }
}
layer {
  name: "conv7_2_mbox_loc_flat"
  type: "Flatten"
  bottom: "conv7_2_mbox_loc_perm"
  top: "conv7_2_mbox_loc_flat"
  flatten_param {
    axis: 1
  }
}
layer {
  name: "conv7_2_mbox_conf"
  type: "Convolution"
  bottom: "conv7_2"
  top: "conv7_2_mbox_conf"
  param {
    lr_mult: 1
    decay_mult: 1
  }
  param {
    lr_mult: 2
    decay_mult: 0
  }
  convolution_param {
    num_output: 132
    pad: 1
    kernel_size: 3
    stride: 1
    weight_filler {
      type: "xavier"
    }
    bias_filler {
      type: "constant"
      value: 0
    }
  }
}
layer {
  name: "conv7_2_mbox_conf_perm"
  type: "Permute"
  bottom: "conv7_2_mbox_conf"
  top: "conv7_2_mbox_conf_perm"
  permute_param {
    order: 0
    order: 2
    order: 3
    order: 1
  }
}
layer {
  name: "conv7_2_mbox_conf_flat"
  type: "Flatten"
  bottom: "conv7_2_mbox_conf_perm"
  top: "conv7_2_mbox_conf_flat"
  flatten_param {
    axis: 1
  }
}
layer {
  name: "conv7_2_mbox_priorbox"
  type: "PriorBox"
  bottom: "conv7_2"
  bottom: "data"
  top: "conv7_2_mbox_priorbox"
  prior_box_param {
    min_size: 162
    max_size: 213
    aspect_ratio: 2
    aspect_ratio: 3
    flip: true
    clip: false
    variance: 0.1
    variance: 0.1
    variance: 0.2
    variance: 0.2
    step: 64
    offset: 0.5
  }
}
layer {
  name: "conv8_2_mbox_loc"
  type: "Convolution"
  bottom: "conv8_2"
  top: "conv8_2_mbox_loc"
  param {
    lr_mult: 1
    decay_mult: 1
  }
  param {
    lr_mult: 2
    decay_mult: 0
  }
  convolution_param {
    num_output: 16
    pad: 1
    kernel_size: 3
    stride: 1
    weight_filler {
      type: "xavier"
    }
    bias_filler {
      type: "constant"
      value: 0
    }
  }
}
layer {
  name: "conv8_2_mbox_loc_perm"
  type: "Permute"
  bottom: "conv8_2_mbox_loc"
  top: "conv8_2_mbox_loc_perm"
  permute_param {
    order: 0
    order: 2
    order: 3
    order: 1
  }
}
layer {
  name: "conv8_2_mbox_loc_flat"
  type: "Flatten"
  bottom: "conv8_2_mbox_loc_perm"
  top: "conv8_2_mbox_loc_flat"
  flatten_param {
    axis: 1
  }
}
layer {
  name: "conv8_2_mbox_conf"
  type: "Convolution"
  bottom: "conv8_2"
  top: "conv8_2_mbox_conf"
  param {
    lr_mult: 1
    decay_mult: 1
  }
  param {
    lr_mult: 2
    decay_mult: 0
  }
  convolution_param {
    num_output: 88
    pad: 1
    kernel_size: 3
    stride: 1
    weight_filler {
      type: "xavier"
    }
    bias_filler {
      type: "constant"
      value: 0
    }
  }
}
layer {
  name: "conv8_2_mbox_conf_perm"
  type: "Permute"
  bottom: "conv8_2_mbox_conf"
  top: "conv8_2_mbox_conf_perm"
  permute_param {
    order: 0
    order: 2
    order: 3
    order: 1
  }
}
layer {
  name: "conv8_2_mbox_conf_flat"
  type: "Flatten"
  bottom: "conv8_2_mbox_conf_perm"
  top: "conv8_2_mbox_conf_flat"
  flatten_param {
    axis: 1
  }
}
layer {
  name: "conv8_2_mbox_priorbox"
  type: "PriorBox"
  bottom: "conv8_2"
  bottom: "data"
  top: "conv8_2_mbox_priorbox"
  prior_box_param {
    min_size: 213
    max_size: 264
    aspect_ratio: 2
    flip: true
    clip: false
    variance: 0.1
    variance: 0.1
    variance: 0.2
    variance: 0.2
    step: 100
    offset: 0.5
  }
}
layer {
  name: "conv9_2_mbox_loc"
  type: "Convolution"
  bottom: "conv9_2"
  top: "conv9_2_mbox_loc"
  param {
    lr_mult: 1
    decay_mult: 1
  }
  param {
    lr_mult: 2
    decay_mult: 0
  }
  convolution_param {
    num_output: 16
    pad: 1
    kernel_size: 3
    stride: 1
    weight_filler {
      type: "xavier"
    }
    bias_filler {
      type: "constant"
      value: 0
    }
  }
}
layer {
  name: "conv9_2_mbox_loc_perm"
  type: "Permute"
  bottom: "conv9_2_mbox_loc"
  top: "conv9_2_mbox_loc_perm"
  permute_param {
    order: 0
    order: 2
    order: 3
    order: 1
  }
}
layer {
  name: "conv9_2_mbox_loc_flat"
  type: "Flatten"
  bottom: "conv9_2_mbox_loc_perm"
  top: "conv9_2_mbox_loc_flat"
  flatten_param {
    axis: 1
  }
}
layer {
  name: "conv9_2_mbox_conf"
  type: "Convolution"
  bottom: "conv9_2"
  top: "conv9_2_mbox_conf"
  param {
    lr_mult: 1
    decay_mult: 1
  }
  param {
    lr_mult: 2
    decay_mult: 0
  }
  convolution_param {
    num_output: 88
    pad: 1
    kernel_size: 3
    stride: 1
    weight_filler {
      type: "xavier"
    }
    bias_filler {
      type: "constant"
      value: 0
    }
  }
}
layer {
  name: "conv9_2_mbox_conf_perm"
  type: "Permute"
  bottom: "conv9_2_mbox_conf"
  top: "conv9_2_mbox_conf_perm"
  permute_param {
    order: 0
    order: 2
    order: 3
    order: 1
  }
}
layer {
  name: "conv9_2_mbox_conf_flat"
  type: "Flatten"
  bottom: "conv9_2_mbox_conf_perm"
  top: "conv9_2_mbox_conf_flat"
  flatten_param {
    axis: 1
  }
}
layer {
  name: "conv9_2_mbox_priorbox"
  type: "PriorBox"
  bottom: "conv9_2"
  bottom: "data"
  top: "conv9_2_mbox_priorbox"
  prior_box_param {
    min_size: 264
    max_size: 315
    aspect_ratio: 2
    flip: true
    clip: false
    variance: 0.1
    variance: 0.1
    variance: 0.2
    variance: 0.2
    step: 300
    offset: 0.5
  }
}
layer {
  name: "mbox_loc"
  type: "Concat"
  bottom: "conv4_3_norm_mbox_loc_flat"
  bottom: "fc7_mbox_loc_flat"
  bottom: "conv6_2_mbox_loc_flat"
  bottom: "conv7_2_mbox_loc_flat"
  bottom: "conv8_2_mbox_loc_flat"
  bottom: "conv9_2_mbox_loc_flat"
  top: "mbox_loc"
  concat_param {
    axis: 1
  }
}
layer {
  name: "mbox_conf"
  type: "Concat"
  bottom: "conv4_3_norm_mbox_conf_flat"
  bottom: "fc7_mbox_conf_flat"
  bottom: "conv6_2_mbox_conf_flat"
  bottom: "conv7_2_mbox_conf_flat"
  bottom: "conv8_2_mbox_conf_flat"
  bottom: "conv9_2_mbox_conf_flat"
  top: "mbox_conf"
  concat_param {
    axis: 1
  }
}
layer {
  name: "mbox_priorbox"
  type: "Concat"
  bottom: "conv4_3_norm_mbox_priorbox"
  bottom: "fc7_mbox_priorbox"
  bottom: "conv6_2_mbox_priorbox"
  bottom: "conv7_2_mbox_priorbox"
  bottom: "conv8_2_mbox_priorbox"
  bottom: "conv9_2_mbox_priorbox"
  top: "mbox_priorbox"
  concat_param {
    axis: 2
  }
}
layer {
  name: "mbox_loss"
  type: "MultiBoxLoss"
  bottom: "mbox_loc"
  bottom: "mbox_conf"
  bottom: "mbox_priorbox"
  bottom: "label"
  top: "mbox_loss"
  include {
    phase: TRAIN
  }
  propagate_down: true
  propagate_down: true
  propagate_down: false
  propagate_down: false
  loss_param {
    normalization: VALID
  }
  multibox_loss_param {
    loc_loss_type: SMOOTH_L1
    conf_loss_type: SOFTMAX
    loc_weight: 1
    num_classes: 22
    share_location: true
    match_type: PER_PREDICTION
    overlap_threshold: 0.5
    use_prior_for_matching: true
    background_label_id: 0
    use_difficult_gt: true
    neg_pos_ratio: 3
    neg_overlap: 0.5
    code_type: CENTER_SIZE
    ignore_cross_boundary_bbox: false
    mining_type: MAX_NEGATIVE
  }
}
I0121 11:36:30.688421 28306 layer_factory.hpp:77] Creating layer data
I0121 11:36:30.688864 28306 net.cpp:100] Creating Layer data
I0121 11:36:30.688884 28306 net.cpp:408] data -> data
I0121 11:36:30.688925 28306 net.cpp:408] data -> label
I0121 11:36:30.690452 28324 db_lmdb.cpp:35] Opened lmdb examples/VOC0712/VOC0712_trainval_lmdb
I0121 11:36:30.755820 28306 annotated_data_layer.cpp:62] output data size: 1,3,300,300
I0121 11:36:30.766896 28306 net.cpp:150] Setting up data
I0121 11:36:30.766927 28306 net.cpp:157] Top shape: 1 3 300 300 (270000)
I0121 11:36:30.766933 28306 net.cpp:157] Top shape: 1 1 1 8 (8)
I0121 11:36:30.766937 28306 net.cpp:165] Memory required for data: 1080032
I0121 11:36:30.766970 28306 layer_factory.hpp:77] Creating layer data_data_0_split
I0121 11:36:30.766993 28306 net.cpp:100] Creating Layer data_data_0_split
I0121 11:36:30.767032 28306 net.cpp:434] data_data_0_split <- data
I0121 11:36:30.767081 28306 net.cpp:408] data_data_0_split -> data_data_0_split_0
I0121 11:36:30.767104 28306 net.cpp:408] data_data_0_split -> data_data_0_split_1
I0121 11:36:30.767139 28306 net.cpp:408] data_data_0_split -> data_data_0_split_2
I0121 11:36:30.767159 28306 net.cpp:408] data_data_0_split -> data_data_0_split_3
I0121 11:36:30.767191 28306 net.cpp:408] data_data_0_split -> data_data_0_split_4
I0121 11:36:30.767206 28306 net.cpp:408] data_data_0_split -> data_data_0_split_5
I0121 11:36:30.767236 28306 net.cpp:408] data_data_0_split -> data_data_0_split_6
I0121 11:36:30.767346 28306 net.cpp:150] Setting up data_data_0_split
I0121 11:36:30.767361 28306 net.cpp:157] Top shape: 1 3 300 300 (270000)
I0121 11:36:30.767370 28306 net.cpp:157] Top shape: 1 3 300 300 (270000)
I0121 11:36:30.767400 28306 net.cpp:157] Top shape: 1 3 300 300 (270000)
I0121 11:36:30.767411 28306 net.cpp:157] Top shape: 1 3 300 300 (270000)
I0121 11:36:30.767419 28306 net.cpp:157] Top shape: 1 3 300 300 (270000)
I0121 11:36:30.767446 28306 net.cpp:157] Top shape: 1 3 300 300 (270000)
I0121 11:36:30.767457 28306 net.cpp:157] Top shape: 1 3 300 300 (270000)
I0121 11:36:30.767462 28306 net.cpp:165] Memory required for data: 8640032
I0121 11:36:30.767487 28306 layer_factory.hpp:77] Creating layer conv1_1
I0121 11:36:30.767519 28306 net.cpp:100] Creating Layer conv1_1
I0121 11:36:30.767530 28306 net.cpp:434] conv1_1 <- data_data_0_split_0
I0121 11:36:30.767544 28306 net.cpp:408] conv1_1 -> conv1_1
I0121 11:36:31.007536 28306 net.cpp:150] Setting up conv1_1
I0121 11:36:31.007570 28306 net.cpp:157] Top shape: 1 64 300 300 (5760000)
I0121 11:36:31.007576 28306 net.cpp:165] Memory required for data: 31680032
I0121 11:36:31.007603 28306 layer_factory.hpp:77] Creating layer relu1_1
I0121 11:36:31.007647 28306 net.cpp:100] Creating Layer relu1_1
I0121 11:36:31.007686 28306 net.cpp:434] relu1_1 <- conv1_1
I0121 11:36:31.007705 28306 net.cpp:395] relu1_1 -> conv1_1 (in-place)
I0121 11:36:31.008074 28306 net.cpp:150] Setting up relu1_1
I0121 11:36:31.008090 28306 net.cpp:157] Top shape: 1 64 300 300 (5760000)
I0121 11:36:31.008097 28306 net.cpp:165] Memory required for data: 54720032
I0121 11:36:31.008105 28306 layer_factory.hpp:77] Creating layer conv1_2
I0121 11:36:31.008148 28306 net.cpp:100] Creating Layer conv1_2
I0121 11:36:31.008159 28306 net.cpp:434] conv1_2 <- conv1_1
I0121 11:36:31.008174 28306 net.cpp:408] conv1_2 -> conv1_2
I0121 11:36:31.011639 28306 net.cpp:150] Setting up conv1_2
I0121 11:36:31.011662 28306 net.cpp:157] Top shape: 1 64 300 300 (5760000)
I0121 11:36:31.011670 28306 net.cpp:165] Memory required for data: 77760032
I0121 11:36:31.011713 28306 layer_factory.hpp:77] Creating layer relu1_2
I0121 11:36:31.011730 28306 net.cpp:100] Creating Layer relu1_2
I0121 11:36:31.011741 28306 net.cpp:434] relu1_2 <- conv1_2
I0121 11:36:31.011754 28306 net.cpp:395] relu1_2 -> conv1_2 (in-place)
I0121 11:36:31.012506 28306 net.cpp:150] Setting up relu1_2
I0121 11:36:31.012522 28306 net.cpp:157] Top shape: 1 64 300 300 (5760000)
I0121 11:36:31.012529 28306 net.cpp:165] Memory required for data: 100800032
I0121 11:36:31.012537 28306 layer_factory.hpp:77] Creating layer pool1
I0121 11:36:31.012550 28306 net.cpp:100] Creating Layer pool1
I0121 11:36:31.012558 28306 net.cpp:434] pool1 <- conv1_2
I0121 11:36:31.012572 28306 net.cpp:408] pool1 -> pool1
I0121 11:36:31.012645 28306 net.cpp:150] Setting up pool1
I0121 11:36:31.012658 28306 net.cpp:157] Top shape: 1 64 150 150 (1440000)
I0121 11:36:31.012665 28306 net.cpp:165] Memory required for data: 106560032
I0121 11:36:31.012675 28306 layer_factory.hpp:77] Creating layer conv2_1
I0121 11:36:31.012693 28306 net.cpp:100] Creating Layer conv2_1
I0121 11:36:31.012704 28306 net.cpp:434] conv2_1 <- pool1
I0121 11:36:31.012719 28306 net.cpp:408] conv2_1 -> conv2_1
I0121 11:36:31.016163 28306 net.cpp:150] Setting up conv2_1
I0121 11:36:31.016182 28306 net.cpp:157] Top shape: 1 128 150 150 (2880000)
I0121 11:36:31.016191 28306 net.cpp:165] Memory required for data: 118080032
I0121 11:36:31.016206 28306 layer_factory.hpp:77] Creating layer relu2_1
I0121 11:36:31.016224 28306 net.cpp:100] Creating Layer relu2_1
I0121 11:36:31.016232 28306 net.cpp:434] relu2_1 <- conv2_1
I0121 11:36:31.016242 28306 net.cpp:395] relu2_1 -> conv2_1 (in-place)
I0121 11:36:31.017071 28306 net.cpp:150] Setting up relu2_1
I0121 11:36:31.017086 28306 net.cpp:157] Top shape: 1 128 150 150 (2880000)
I0121 11:36:31.017093 28306 net.cpp:165] Memory required for data: 129600032
I0121 11:36:31.017104 28306 layer_factory.hpp:77] Creating layer conv2_2
I0121 11:36:31.017123 28306 net.cpp:100] Creating Layer conv2_2
I0121 11:36:31.017132 28306 net.cpp:434] conv2_2 <- conv2_1
I0121 11:36:31.017144 28306 net.cpp:408] conv2_2 -> conv2_2
I0121 11:36:31.020651 28306 net.cpp:150] Setting up conv2_2
I0121 11:36:31.020670 28306 net.cpp:157] Top shape: 1 128 150 150 (2880000)
I0121 11:36:31.020678 28306 net.cpp:165] Memory required for data: 141120032
I0121 11:36:31.020689 28306 layer_factory.hpp:77] Creating layer relu2_2
I0121 11:36:31.020702 28306 net.cpp:100] Creating Layer relu2_2
I0121 11:36:31.020710 28306 net.cpp:434] relu2_2 <- conv2_2
I0121 11:36:31.020722 28306 net.cpp:395] relu2_2 -> conv2_2 (in-place)
I0121 11:36:31.021718 28306 net.cpp:150] Setting up relu2_2
I0121 11:36:31.021734 28306 net.cpp:157] Top shape: 1 128 150 150 (2880000)
I0121 11:36:31.021740 28306 net.cpp:165] Memory required for data: 152640032
I0121 11:36:31.021747 28306 layer_factory.hpp:77] Creating layer pool2
I0121 11:36:31.021761 28306 net.cpp:100] Creating Layer pool2
I0121 11:36:31.021770 28306 net.cpp:434] pool2 <- conv2_2
I0121 11:36:31.021781 28306 net.cpp:408] pool2 -> pool2
I0121 11:36:31.021847 28306 net.cpp:150] Setting up pool2
I0121 11:36:31.021859 28306 net.cpp:157] Top shape: 1 128 75 75 (720000)
I0121 11:36:31.021865 28306 net.cpp:165] Memory required for data: 155520032
I0121 11:36:31.021874 28306 layer_factory.hpp:77] Creating layer conv3_1
I0121 11:36:31.021893 28306 net.cpp:100] Creating Layer conv3_1
I0121 11:36:31.021903 28306 net.cpp:434] conv3_1 <- pool2
I0121 11:36:31.021917 28306 net.cpp:408] conv3_1 -> conv3_1
I0121 11:36:31.026902 28306 net.cpp:150] Setting up conv3_1
I0121 11:36:31.026921 28306 net.cpp:157] Top shape: 1 256 75 75 (1440000)
I0121 11:36:31.026928 28306 net.cpp:165] Memory required for data: 161280032
I0121 11:36:31.026949 28306 layer_factory.hpp:77] Creating layer relu3_1
I0121 11:36:31.026963 28306 net.cpp:100] Creating Layer relu3_1
I0121 11:36:31.026991 28306 net.cpp:434] relu3_1 <- conv3_1
I0121 11:36:31.027005 28306 net.cpp:395] relu3_1 -> conv3_1 (in-place)
I0121 11:36:31.027398 28306 net.cpp:150] Setting up relu3_1
I0121 11:36:31.027415 28306 net.cpp:157] Top shape: 1 256 75 75 (1440000)
I0121 11:36:31.027421 28306 net.cpp:165] Memory required for data: 167040032
I0121 11:36:31.027428 28306 layer_factory.hpp:77] Creating layer conv3_2
I0121 11:36:31.027449 28306 net.cpp:100] Creating Layer conv3_2
I0121 11:36:31.027456 28306 net.cpp:434] conv3_2 <- conv3_1
I0121 11:36:31.027463 28306 net.cpp:408] conv3_2 -> conv3_2
I0121 11:36:31.035200 28306 net.cpp:150] Setting up conv3_2
I0121 11:36:31.035218 28306 net.cpp:157] Top shape: 1 256 75 75 (1440000)
I0121 11:36:31.035223 28306 net.cpp:165] Memory required for data: 172800032
I0121 11:36:31.035229 28306 layer_factory.hpp:77] Creating layer relu3_2
I0121 11:36:31.035238 28306 net.cpp:100] Creating Layer relu3_2
I0121 11:36:31.035243 28306 net.cpp:434] relu3_2 <- conv3_2
I0121 11:36:31.035249 28306 net.cpp:395] relu3_2 -> conv3_2 (in-place)
I0121 11:36:31.036222 28306 net.cpp:150] Setting up relu3_2
I0121 11:36:31.036233 28306 net.cpp:157] Top shape: 1 256 75 75 (1440000)
I0121 11:36:31.036237 28306 net.cpp:165] Memory required for data: 178560032
I0121 11:36:31.036242 28306 layer_factory.hpp:77] Creating layer conv3_3
I0121 11:36:31.036257 28306 net.cpp:100] Creating Layer conv3_3
I0121 11:36:31.036278 28306 net.cpp:434] conv3_3 <- conv3_2
I0121 11:36:31.036286 28306 net.cpp:408] conv3_3 -> conv3_3
I0121 11:36:31.044023 28306 net.cpp:150] Setting up conv3_3
I0121 11:36:31.044050 28306 net.cpp:157] Top shape: 1 256 75 75 (1440000)
I0121 11:36:31.044055 28306 net.cpp:165] Memory required for data: 184320032
I0121 11:36:31.044064 28306 layer_factory.hpp:77] Creating layer relu3_3
I0121 11:36:31.044075 28306 net.cpp:100] Creating Layer relu3_3
I0121 11:36:31.044080 28306 net.cpp:434] relu3_3 <- conv3_3
I0121 11:36:31.044085 28306 net.cpp:395] relu3_3 -> conv3_3 (in-place)
I0121 11:36:31.045037 28306 net.cpp:150] Setting up relu3_3
I0121 11:36:31.045050 28306 net.cpp:157] Top shape: 1 256 75 75 (1440000)
I0121 11:36:31.045054 28306 net.cpp:165] Memory required for data: 190080032
I0121 11:36:31.045058 28306 layer_factory.hpp:77] Creating layer pool3
I0121 11:36:31.045066 28306 net.cpp:100] Creating Layer pool3
I0121 11:36:31.045070 28306 net.cpp:434] pool3 <- conv3_3
I0121 11:36:31.045078 28306 net.cpp:408] pool3 -> pool3
I0121 11:36:31.045130 28306 net.cpp:150] Setting up pool3
I0121 11:36:31.045138 28306 net.cpp:157] Top shape: 1 256 38 38 (369664)
I0121 11:36:31.045141 28306 net.cpp:165] Memory required for data: 191558688
I0121 11:36:31.045147 28306 layer_factory.hpp:77] Creating layer conv4_1
I0121 11:36:31.045161 28306 net.cpp:100] Creating Layer conv4_1
I0121 11:36:31.045164 28306 net.cpp:434] conv4_1 <- pool3
I0121 11:36:31.045171 28306 net.cpp:408] conv4_1 -> conv4_1
I0121 11:36:31.058079 28306 net.cpp:150] Setting up conv4_1
I0121 11:36:31.058109 28306 net.cpp:157] Top shape: 1 512 38 38 (739328)
I0121 11:36:31.058112 28306 net.cpp:165] Memory required for data: 194516000
I0121 11:36:31.058121 28306 layer_factory.hpp:77] Creating layer relu4_1
I0121 11:36:31.058131 28306 net.cpp:100] Creating Layer relu4_1
I0121 11:36:31.058136 28306 net.cpp:434] relu4_1 <- conv4_1
I0121 11:36:31.058145 28306 net.cpp:395] relu4_1 -> conv4_1 (in-place)
I0121 11:36:31.059136 28306 net.cpp:150] Setting up relu4_1
I0121 11:36:31.059150 28306 net.cpp:157] Top shape: 1 512 38 38 (739328)
I0121 11:36:31.059154 28306 net.cpp:165] Memory required for data: 197473312
I0121 11:36:31.059159 28306 layer_factory.hpp:77] Creating layer conv4_2
I0121 11:36:31.059172 28306 net.cpp:100] Creating Layer conv4_2
I0121 11:36:31.059177 28306 net.cpp:434] conv4_2 <- conv4_1
I0121 11:36:31.059185 28306 net.cpp:408] conv4_2 -> conv4_2
I0121 11:36:31.081670 28306 net.cpp:150] Setting up conv4_2
I0121 11:36:31.081707 28306 net.cpp:157] Top shape: 1 512 38 38 (739328)
I0121 11:36:31.081710 28306 net.cpp:165] Memory required for data: 200430624
I0121 11:36:31.081725 28306 layer_factory.hpp:77] Creating layer relu4_2
I0121 11:36:31.081737 28306 net.cpp:100] Creating Layer relu4_2
I0121 11:36:31.081743 28306 net.cpp:434] relu4_2 <- conv4_2
I0121 11:36:31.081754 28306 net.cpp:395] relu4_2 -> conv4_2 (in-place)
I0121 11:36:31.082682 28306 net.cpp:150] Setting up relu4_2
I0121 11:36:31.082695 28306 net.cpp:157] Top shape: 1 512 38 38 (739328)
I0121 11:36:31.082698 28306 net.cpp:165] Memory required for data: 203387936
I0121 11:36:31.082702 28306 layer_factory.hpp:77] Creating layer conv4_3
I0121 11:36:31.082715 28306 net.cpp:100] Creating Layer conv4_3
I0121 11:36:31.082720 28306 net.cpp:434] conv4_3 <- conv4_2
I0121 11:36:31.082727 28306 net.cpp:408] conv4_3 -> conv4_3
I0121 11:36:31.105202 28306 net.cpp:150] Setting up conv4_3
I0121 11:36:31.105233 28306 net.cpp:157] Top shape: 1 512 38 38 (739328)
I0121 11:36:31.105238 28306 net.cpp:165] Memory required for data: 206345248
I0121 11:36:31.105249 28306 layer_factory.hpp:77] Creating layer relu4_3
I0121 11:36:31.105259 28306 net.cpp:100] Creating Layer relu4_3
I0121 11:36:31.105265 28306 net.cpp:434] relu4_3 <- conv4_3
I0121 11:36:31.105273 28306 net.cpp:395] relu4_3 -> conv4_3 (in-place)
I0121 11:36:31.106329 28306 net.cpp:150] Setting up relu4_3
I0121 11:36:31.106344 28306 net.cpp:157] Top shape: 1 512 38 38 (739328)
I0121 11:36:31.106348 28306 net.cpp:165] Memory required for data: 209302560
I0121 11:36:31.106369 28306 layer_factory.hpp:77] Creating layer conv4_3_relu4_3_0_split
I0121 11:36:31.106379 28306 net.cpp:100] Creating Layer conv4_3_relu4_3_0_split
I0121 11:36:31.106384 28306 net.cpp:434] conv4_3_relu4_3_0_split <- conv4_3
I0121 11:36:31.106389 28306 net.cpp:408] conv4_3_relu4_3_0_split -> conv4_3_relu4_3_0_split_0
I0121 11:36:31.106397 28306 net.cpp:408] conv4_3_relu4_3_0_split -> conv4_3_relu4_3_0_split_1
I0121 11:36:31.106444 28306 net.cpp:150] Setting up conv4_3_relu4_3_0_split
I0121 11:36:31.106463 28306 net.cpp:157] Top shape: 1 512 38 38 (739328)
I0121 11:36:31.106468 28306 net.cpp:157] Top shape: 1 512 38 38 (739328)
I0121 11:36:31.106472 28306 net.cpp:165] Memory required for data: 215217184
I0121 11:36:31.106474 28306 layer_factory.hpp:77] Creating layer pool4
I0121 11:36:31.106482 28306 net.cpp:100] Creating Layer pool4
I0121 11:36:31.106487 28306 net.cpp:434] pool4 <- conv4_3_relu4_3_0_split_0
I0121 11:36:31.106492 28306 net.cpp:408] pool4 -> pool4
I0121 11:36:31.106531 28306 net.cpp:150] Setting up pool4
I0121 11:36:31.106537 28306 net.cpp:157] Top shape: 1 512 19 19 (184832)
I0121 11:36:31.106540 28306 net.cpp:165] Memory required for data: 215956512
I0121 11:36:31.106544 28306 layer_factory.hpp:77] Creating layer conv5_1
I0121 11:36:31.106559 28306 net.cpp:100] Creating Layer conv5_1
I0121 11:36:31.106562 28306 net.cpp:434] conv5_1 <- pool4
I0121 11:36:31.106569 28306 net.cpp:408] conv5_1 -> conv5_1
I0121 11:36:31.131502 28306 net.cpp:150] Setting up conv5_1
I0121 11:36:31.131538 28306 net.cpp:157] Top shape: 1 512 19 19 (184832)
I0121 11:36:31.131543 28306 net.cpp:165] Memory required for data: 216695840
I0121 11:36:31.131553 28306 layer_factory.hpp:77] Creating layer relu5_1
I0121 11:36:31.131567 28306 net.cpp:100] Creating Layer relu5_1
I0121 11:36:31.131575 28306 net.cpp:434] relu5_1 <- conv5_1
I0121 11:36:31.131588 28306 net.cpp:395] relu5_1 -> conv5_1 (in-place)
I0121 11:36:31.132534 28306 net.cpp:150] Setting up relu5_1
I0121 11:36:31.132552 28306 net.cpp:157] Top shape: 1 512 19 19 (184832)
I0121 11:36:31.132556 28306 net.cpp:165] Memory required for data: 217435168
I0121 11:36:31.132561 28306 layer_factory.hpp:77] Creating layer conv5_2
I0121 11:36:31.132582 28306 net.cpp:100] Creating Layer conv5_2
I0121 11:36:31.132594 28306 net.cpp:434] conv5_2 <- conv5_1
I0121 11:36:31.132616 28306 net.cpp:408] conv5_2 -> conv5_2
I0121 11:36:31.156193 28306 net.cpp:150] Setting up conv5_2
I0121 11:36:31.156226 28306 net.cpp:157] Top shape: 1 512 19 19 (184832)
I0121 11:36:31.156231 28306 net.cpp:165] Memory required for data: 218174496
I0121 11:36:31.156241 28306 layer_factory.hpp:77] Creating layer relu5_2
I0121 11:36:31.156253 28306 net.cpp:100] Creating Layer relu5_2
I0121 11:36:31.156260 28306 net.cpp:434] relu5_2 <- conv5_2
I0121 11:36:31.156273 28306 net.cpp:395] relu5_2 -> conv5_2 (in-place)
I0121 11:36:31.157212 28306 net.cpp:150] Setting up relu5_2
I0121 11:36:31.157228 28306 net.cpp:157] Top shape: 1 512 19 19 (184832)
I0121 11:36:31.157232 28306 net.cpp:165] Memory required for data: 218913824
I0121 11:36:31.157236 28306 layer_factory.hpp:77] Creating layer conv5_3
I0121 11:36:31.157250 28306 net.cpp:100] Creating Layer conv5_3
I0121 11:36:31.157258 28306 net.cpp:434] conv5_3 <- conv5_2
I0121 11:36:31.157269 28306 net.cpp:408] conv5_3 -> conv5_3
I0121 11:36:31.179726 28306 net.cpp:150] Setting up conv5_3
I0121 11:36:31.179756 28306 net.cpp:157] Top shape: 1 512 19 19 (184832)
I0121 11:36:31.179761 28306 net.cpp:165] Memory required for data: 219653152
I0121 11:36:31.179770 28306 layer_factory.hpp:77] Creating layer relu5_3
I0121 11:36:31.179790 28306 net.cpp:100] Creating Layer relu5_3
I0121 11:36:31.179798 28306 net.cpp:434] relu5_3 <- conv5_3
I0121 11:36:31.179808 28306 net.cpp:395] relu5_3 -> conv5_3 (in-place)
I0121 11:36:31.180846 28306 net.cpp:150] Setting up relu5_3
I0121 11:36:31.180861 28306 net.cpp:157] Top shape: 1 512 19 19 (184832)
I0121 11:36:31.180866 28306 net.cpp:165] Memory required for data: 220392480
I0121 11:36:31.180889 28306 layer_factory.hpp:77] Creating layer pool5
I0121 11:36:31.180904 28306 net.cpp:100] Creating Layer pool5
I0121 11:36:31.180912 28306 net.cpp:434] pool5 <- conv5_3
I0121 11:36:31.180923 28306 net.cpp:408] pool5 -> pool5
I0121 11:36:31.180989 28306 net.cpp:150] Setting up pool5
I0121 11:36:31.180999 28306 net.cpp:157] Top shape: 1 512 19 19 (184832)
I0121 11:36:31.181005 28306 net.cpp:165] Memory required for data: 221131808
I0121 11:36:31.181010 28306 layer_factory.hpp:77] Creating layer fc6
I0121 11:36:31.181030 28306 net.cpp:100] Creating Layer fc6
I0121 11:36:31.181038 28306 net.cpp:434] fc6 <- pool5
I0121 11:36:31.181049 28306 net.cpp:408] fc6 -> fc6
I0121 11:36:31.223095 28306 net.cpp:150] Setting up fc6
I0121 11:36:31.223129 28306 net.cpp:157] Top shape: 1 1024 19 19 (369664)
I0121 11:36:31.223134 28306 net.cpp:165] Memory required for data: 222610464
I0121 11:36:31.223143 28306 layer_factory.hpp:77] Creating layer relu6
I0121 11:36:31.223155 28306 net.cpp:100] Creating Layer relu6
I0121 11:36:31.223162 28306 net.cpp:434] relu6 <- fc6
I0121 11:36:31.223176 28306 net.cpp:395] relu6 -> fc6 (in-place)
I0121 11:36:31.223655 28306 net.cpp:150] Setting up relu6
I0121 11:36:31.223671 28306 net.cpp:157] Top shape: 1 1024 19 19 (369664)
I0121 11:36:31.223676 28306 net.cpp:165] Memory required for data: 224089120
I0121 11:36:31.223680 28306 layer_factory.hpp:77] Creating layer fc7
I0121 11:36:31.223693 28306 net.cpp:100] Creating Layer fc7
I0121 11:36:31.223698 28306 net.cpp:434] fc7 <- fc6
I0121 11:36:31.223711 28306 net.cpp:408] fc7 -> fc7
I0121 11:36:31.235211 28306 net.cpp:150] Setting up fc7
I0121 11:36:31.235230 28306 net.cpp:157] Top shape: 1 1024 19 19 (369664)
I0121 11:36:31.235235 28306 net.cpp:165] Memory required for data: 225567776
I0121 11:36:31.235242 28306 layer_factory.hpp:77] Creating layer relu7
I0121 11:36:31.235250 28306 net.cpp:100] Creating Layer relu7
I0121 11:36:31.235255 28306 net.cpp:434] relu7 <- fc7
I0121 11:36:31.235265 28306 net.cpp:395] relu7 -> fc7 (in-place)
I0121 11:36:31.236115 28306 net.cpp:150] Setting up relu7
I0121 11:36:31.236130 28306 net.cpp:157] Top shape: 1 1024 19 19 (369664)
I0121 11:36:31.236135 28306 net.cpp:165] Memory required for data: 227046432
I0121 11:36:31.236138 28306 layer_factory.hpp:77] Creating layer fc7_relu7_0_split
I0121 11:36:31.236147 28306 net.cpp:100] Creating Layer fc7_relu7_0_split
I0121 11:36:31.236151 28306 net.cpp:434] fc7_relu7_0_split <- fc7
I0121 11:36:31.236160 28306 net.cpp:408] fc7_relu7_0_split -> fc7_relu7_0_split_0
I0121 11:36:31.236171 28306 net.cpp:408] fc7_relu7_0_split -> fc7_relu7_0_split_1
I0121 11:36:31.236192 28306 net.cpp:408] fc7_relu7_0_split -> fc7_relu7_0_split_2
I0121 11:36:31.236208 28306 net.cpp:408] fc7_relu7_0_split -> fc7_relu7_0_split_3
I0121 11:36:31.236297 28306 net.cpp:150] Setting up fc7_relu7_0_split
I0121 11:36:31.236307 28306 net.cpp:157] Top shape: 1 1024 19 19 (369664)
I0121 11:36:31.236315 28306 net.cpp:157] Top shape: 1 1024 19 19 (369664)
I0121 11:36:31.236325 28306 net.cpp:157] Top shape: 1 1024 19 19 (369664)
I0121 11:36:31.236335 28306 net.cpp:157] Top shape: 1 1024 19 19 (369664)
I0121 11:36:31.236343 28306 net.cpp:165] Memory required for data: 232961056
I0121 11:36:31.236351 28306 layer_factory.hpp:77] Creating layer conv6_1
I0121 11:36:31.236371 28306 net.cpp:100] Creating Layer conv6_1
I0121 11:36:31.236379 28306 net.cpp:434] conv6_1 <- fc7_relu7_0_split_0
I0121 11:36:31.236390 28306 net.cpp:408] conv6_1 -> conv6_1
I0121 11:36:31.241777 28306 net.cpp:150] Setting up conv6_1
I0121 11:36:31.241796 28306 net.cpp:157] Top shape: 1 256 19 19 (92416)
I0121 11:36:31.241802 28306 net.cpp:165] Memory required for data: 233330720
I0121 11:36:31.241817 28306 layer_factory.hpp:77] Creating layer conv6_1_relu
I0121 11:36:31.241830 28306 net.cpp:100] Creating Layer conv6_1_relu
I0121 11:36:31.241840 28306 net.cpp:434] conv6_1_relu <- conv6_1
I0121 11:36:31.241853 28306 net.cpp:395] conv6_1_relu -> conv6_1 (in-place)
I0121 11:36:31.242844 28306 net.cpp:150] Setting up conv6_1_relu
I0121 11:36:31.242864 28306 net.cpp:157] Top shape: 1 256 19 19 (92416)
I0121 11:36:31.242893 28306 net.cpp:165] Memory required for data: 233700384
I0121 11:36:31.242904 28306 layer_factory.hpp:77] Creating layer conv6_2
I0121 11:36:31.242921 28306 net.cpp:100] Creating Layer conv6_2
I0121 11:36:31.242935 28306 net.cpp:434] conv6_2 <- conv6_1
I0121 11:36:31.242949 28306 net.cpp:408] conv6_2 -> conv6_2
I0121 11:36:31.254930 28306 net.cpp:150] Setting up conv6_2
I0121 11:36:31.254964 28306 net.cpp:157] Top shape: 1 512 10 10 (51200)
I0121 11:36:31.254971 28306 net.cpp:165] Memory required for data: 233905184
I0121 11:36:31.254997 28306 layer_factory.hpp:77] Creating layer conv6_2_relu
I0121 11:36:31.255012 28306 net.cpp:100] Creating Layer conv6_2_relu
I0121 11:36:31.255023 28306 net.cpp:434] conv6_2_relu <- conv6_2
I0121 11:36:31.255031 28306 net.cpp:395] conv6_2_relu -> conv6_2 (in-place)
I0121 11:36:31.255890 28306 net.cpp:150] Setting up conv6_2_relu
I0121 11:36:31.255906 28306 net.cpp:157] Top shape: 1 512 10 10 (51200)
I0121 11:36:31.255910 28306 net.cpp:165] Memory required for data: 234109984
I0121 11:36:31.255914 28306 layer_factory.hpp:77] Creating layer conv6_2_conv6_2_relu_0_split
I0121 11:36:31.255923 28306 net.cpp:100] Creating Layer conv6_2_conv6_2_relu_0_split
I0121 11:36:31.255928 28306 net.cpp:434] conv6_2_conv6_2_relu_0_split <- conv6_2
I0121 11:36:31.255934 28306 net.cpp:408] conv6_2_conv6_2_relu_0_split -> conv6_2_conv6_2_relu_0_split_0
I0121 11:36:31.255942 28306 net.cpp:408] conv6_2_conv6_2_relu_0_split -> conv6_2_conv6_2_relu_0_split_1
I0121 11:36:31.255949 28306 net.cpp:408] conv6_2_conv6_2_relu_0_split -> conv6_2_conv6_2_relu_0_split_2
I0121 11:36:31.255955 28306 net.cpp:408] conv6_2_conv6_2_relu_0_split -> conv6_2_conv6_2_relu_0_split_3
I0121 11:36:31.256029 28306 net.cpp:150] Setting up conv6_2_conv6_2_relu_0_split
I0121 11:36:31.256038 28306 net.cpp:157] Top shape: 1 512 10 10 (51200)
I0121 11:36:31.256042 28306 net.cpp:157] Top shape: 1 512 10 10 (51200)
I0121 11:36:31.256047 28306 net.cpp:157] Top shape: 1 512 10 10 (51200)
I0121 11:36:31.256050 28306 net.cpp:157] Top shape: 1 512 10 10 (51200)
I0121 11:36:31.256054 28306 net.cpp:165] Memory required for data: 234929184
I0121 11:36:31.256057 28306 layer_factory.hpp:77] Creating layer conv7_1
I0121 11:36:31.256070 28306 net.cpp:100] Creating Layer conv7_1
I0121 11:36:31.256078 28306 net.cpp:434] conv7_1 <- conv6_2_conv6_2_relu_0_split_0
I0121 11:36:31.256085 28306 net.cpp:408] conv7_1 -> conv7_1
I0121 11:36:31.259443 28306 net.cpp:150] Setting up conv7_1
I0121 11:36:31.259459 28306 net.cpp:157] Top shape: 1 128 10 10 (12800)
I0121 11:36:31.259464 28306 net.cpp:165] Memory required for data: 234980384
I0121 11:36:31.259470 28306 layer_factory.hpp:77] Creating layer conv7_1_relu
I0121 11:36:31.259479 28306 net.cpp:100] Creating Layer conv7_1_relu
I0121 11:36:31.259485 28306 net.cpp:434] conv7_1_relu <- conv7_1
I0121 11:36:31.259491 28306 net.cpp:395] conv7_1_relu -> conv7_1 (in-place)
I0121 11:36:31.260789 28306 net.cpp:150] Setting up conv7_1_relu
I0121 11:36:31.260803 28306 net.cpp:157] Top shape: 1 128 10 10 (12800)
I0121 11:36:31.260807 28306 net.cpp:165] Memory required for data: 235031584
I0121 11:36:31.260812 28306 layer_factory.hpp:77] Creating layer conv7_2
I0121 11:36:31.260824 28306 net.cpp:100] Creating Layer conv7_2
I0121 11:36:31.260828 28306 net.cpp:434] conv7_2 <- conv7_1
I0121 11:36:31.260835 28306 net.cpp:408] conv7_2 -> conv7_2
I0121 11:36:31.265519 28306 net.cpp:150] Setting up conv7_2
I0121 11:36:31.265542 28306 net.cpp:157] Top shape: 1 256 5 5 (6400)
I0121 11:36:31.265548 28306 net.cpp:165] Memory required for data: 235057184
I0121 11:36:31.265559 28306 layer_factory.hpp:77] Creating layer conv7_2_relu
I0121 11:36:31.265571 28306 net.cpp:100] Creating Layer conv7_2_relu
I0121 11:36:31.265578 28306 net.cpp:434] conv7_2_relu <- conv7_2
I0121 11:36:31.265588 28306 net.cpp:395] conv7_2_relu -> conv7_2 (in-place)
I0121 11:36:31.266592 28306 net.cpp:150] Setting up conv7_2_relu
I0121 11:36:31.266614 28306 net.cpp:157] Top shape: 1 256 5 5 (6400)
I0121 11:36:31.266641 28306 net.cpp:165] Memory required for data: 235082784
I0121 11:36:31.266651 28306 layer_factory.hpp:77] Creating layer conv7_2_conv7_2_relu_0_split
I0121 11:36:31.266661 28306 net.cpp:100] Creating Layer conv7_2_conv7_2_relu_0_split
I0121 11:36:31.266674 28306 net.cpp:434] conv7_2_conv7_2_relu_0_split <- conv7_2
I0121 11:36:31.266685 28306 net.cpp:408] conv7_2_conv7_2_relu_0_split -> conv7_2_conv7_2_relu_0_split_0
I0121 11:36:31.266700 28306 net.cpp:408] conv7_2_conv7_2_relu_0_split -> conv7_2_conv7_2_relu_0_split_1
I0121 11:36:31.266716 28306 net.cpp:408] conv7_2_conv7_2_relu_0_split -> conv7_2_conv7_2_relu_0_split_2
I0121 11:36:31.266731 28306 net.cpp:408] conv7_2_conv7_2_relu_0_split -> conv7_2_conv7_2_relu_0_split_3
I0121 11:36:31.266821 28306 net.cpp:150] Setting up conv7_2_conv7_2_relu_0_split
I0121 11:36:31.266832 28306 net.cpp:157] Top shape: 1 256 5 5 (6400)
I0121 11:36:31.266837 28306 net.cpp:157] Top shape: 1 256 5 5 (6400)
I0121 11:36:31.266841 28306 net.cpp:157] Top shape: 1 256 5 5 (6400)
I0121 11:36:31.266845 28306 net.cpp:157] Top shape: 1 256 5 5 (6400)
I0121 11:36:31.266849 28306 net.cpp:165] Memory required for data: 235185184
I0121 11:36:31.266852 28306 layer_factory.hpp:77] Creating layer conv8_1
I0121 11:36:31.266863 28306 net.cpp:100] Creating Layer conv8_1
I0121 11:36:31.266870 28306 net.cpp:434] conv8_1 <- conv7_2_conv7_2_relu_0_split_0
I0121 11:36:31.266877 28306 net.cpp:408] conv8_1 -> conv8_1
I0121 11:36:31.270344 28306 net.cpp:150] Setting up conv8_1
I0121 11:36:31.270360 28306 net.cpp:157] Top shape: 1 128 5 5 (3200)
I0121 11:36:31.270365 28306 net.cpp:165] Memory required for data: 235197984
I0121 11:36:31.270372 28306 layer_factory.hpp:77] Creating layer conv8_1_relu
I0121 11:36:31.270378 28306 net.cpp:100] Creating Layer conv8_1_relu
I0121 11:36:31.270385 28306 net.cpp:434] conv8_1_relu <- conv8_1
I0121 11:36:31.270390 28306 net.cpp:395] conv8_1_relu -> conv8_1 (in-place)
I0121 11:36:31.271576 28306 net.cpp:150] Setting up conv8_1_relu
I0121 11:36:31.271594 28306 net.cpp:157] Top shape: 1 128 5 5 (3200)
I0121 11:36:31.271600 28306 net.cpp:165] Memory required for data: 235210784
I0121 11:36:31.271607 28306 layer_factory.hpp:77] Creating layer conv8_2
I0121 11:36:31.271625 28306 net.cpp:100] Creating Layer conv8_2
I0121 11:36:31.271632 28306 net.cpp:434] conv8_2 <- conv8_1
I0121 11:36:31.271643 28306 net.cpp:408] conv8_2 -> conv8_2
I0121 11:36:31.277526 28306 net.cpp:150] Setting up conv8_2
I0121 11:36:31.277544 28306 net.cpp:157] Top shape: 1 256 3 3 (2304)
I0121 11:36:31.277547 28306 net.cpp:165] Memory required for data: 235220000
I0121 11:36:31.277554 28306 layer_factory.hpp:77] Creating layer conv8_2_relu
I0121 11:36:31.277564 28306 net.cpp:100] Creating Layer conv8_2_relu
I0121 11:36:31.277568 28306 net.cpp:434] conv8_2_relu <- conv8_2
I0121 11:36:31.277575 28306 net.cpp:395] conv8_2_relu -> conv8_2 (in-place)
I0121 11:36:31.278713 28306 net.cpp:150] Setting up conv8_2_relu
I0121 11:36:31.278729 28306 net.cpp:157] Top shape: 1 256 3 3 (2304)
I0121 11:36:31.278733 28306 net.cpp:165] Memory required for data: 235229216
I0121 11:36:31.278738 28306 layer_factory.hpp:77] Creating layer conv8_2_conv8_2_relu_0_split
I0121 11:36:31.278744 28306 net.cpp:100] Creating Layer conv8_2_conv8_2_relu_0_split
I0121 11:36:31.278749 28306 net.cpp:434] conv8_2_conv8_2_relu_0_split <- conv8_2
I0121 11:36:31.278755 28306 net.cpp:408] conv8_2_conv8_2_relu_0_split -> conv8_2_conv8_2_relu_0_split_0
I0121 11:36:31.278764 28306 net.cpp:408] conv8_2_conv8_2_relu_0_split -> conv8_2_conv8_2_relu_0_split_1
I0121 11:36:31.278771 28306 net.cpp:408] conv8_2_conv8_2_relu_0_split -> conv8_2_conv8_2_relu_0_split_2
I0121 11:36:31.278779 28306 net.cpp:408] conv8_2_conv8_2_relu_0_split -> conv8_2_conv8_2_relu_0_split_3
I0121 11:36:31.278853 28306 net.cpp:150] Setting up conv8_2_conv8_2_relu_0_split
I0121 11:36:31.278862 28306 net.cpp:157] Top shape: 1 256 3 3 (2304)
I0121 11:36:31.278867 28306 net.cpp:157] Top shape: 1 256 3 3 (2304)
I0121 11:36:31.278872 28306 net.cpp:157] Top shape: 1 256 3 3 (2304)
I0121 11:36:31.278888 28306 net.cpp:157] Top shape: 1 256 3 3 (2304)
I0121 11:36:31.278893 28306 net.cpp:165] Memory required for data: 235266080
I0121 11:36:31.278898 28306 layer_factory.hpp:77] Creating layer conv9_1
I0121 11:36:31.278909 28306 net.cpp:100] Creating Layer conv9_1
I0121 11:36:31.278914 28306 net.cpp:434] conv9_1 <- conv8_2_conv8_2_relu_0_split_0
I0121 11:36:31.278921 28306 net.cpp:408] conv9_1 -> conv9_1
I0121 11:36:31.282505 28306 net.cpp:150] Setting up conv9_1
I0121 11:36:31.282521 28306 net.cpp:157] Top shape: 1 128 3 3 (1152)
I0121 11:36:31.282526 28306 net.cpp:165] Memory required for data: 235270688
I0121 11:36:31.282532 28306 layer_factory.hpp:77] Creating layer conv9_1_relu
I0121 11:36:31.282538 28306 net.cpp:100] Creating Layer conv9_1_relu
I0121 11:36:31.282543 28306 net.cpp:434] conv9_1_relu <- conv9_1
I0121 11:36:31.282552 28306 net.cpp:395] conv9_1_relu -> conv9_1 (in-place)
I0121 11:36:31.283690 28306 net.cpp:150] Setting up conv9_1_relu
I0121 11:36:31.283704 28306 net.cpp:157] Top shape: 1 128 3 3 (1152)
I0121 11:36:31.283709 28306 net.cpp:165] Memory required for data: 235275296
I0121 11:36:31.283712 28306 layer_factory.hpp:77] Creating layer conv9_2
I0121 11:36:31.283723 28306 net.cpp:100] Creating Layer conv9_2
I0121 11:36:31.283728 28306 net.cpp:434] conv9_2 <- conv9_1
I0121 11:36:31.283737 28306 net.cpp:408] conv9_2 -> conv9_2
I0121 11:36:31.288539 28306 net.cpp:150] Setting up conv9_2
I0121 11:36:31.288561 28306 net.cpp:157] Top shape: 1 256 1 1 (256)
I0121 11:36:31.288568 28306 net.cpp:165] Memory required for data: 235276320
I0121 11:36:31.288579 28306 layer_factory.hpp:77] Creating layer conv9_2_relu
I0121 11:36:31.288590 28306 net.cpp:100] Creating Layer conv9_2_relu
I0121 11:36:31.288597 28306 net.cpp:434] conv9_2_relu <- conv9_2
I0121 11:36:31.288609 28306 net.cpp:395] conv9_2_relu -> conv9_2 (in-place)
I0121 11:36:31.289541 28306 net.cpp:150] Setting up conv9_2_relu
I0121 11:36:31.289557 28306 net.cpp:157] Top shape: 1 256 1 1 (256)
I0121 11:36:31.289561 28306 net.cpp:165] Memory required for data: 235277344
I0121 11:36:31.289566 28306 layer_factory.hpp:77] Creating layer conv9_2_conv9_2_relu_0_split
I0121 11:36:31.289572 28306 net.cpp:100] Creating Layer conv9_2_conv9_2_relu_0_split
I0121 11:36:31.289577 28306 net.cpp:434] conv9_2_conv9_2_relu_0_split <- conv9_2
I0121 11:36:31.289582 28306 net.cpp:408] conv9_2_conv9_2_relu_0_split -> conv9_2_conv9_2_relu_0_split_0
I0121 11:36:31.289590 28306 net.cpp:408] conv9_2_conv9_2_relu_0_split -> conv9_2_conv9_2_relu_0_split_1
I0121 11:36:31.289598 28306 net.cpp:408] conv9_2_conv9_2_relu_0_split -> conv9_2_conv9_2_relu_0_split_2
I0121 11:36:31.289661 28306 net.cpp:150] Setting up conv9_2_conv9_2_relu_0_split
I0121 11:36:31.289670 28306 net.cpp:157] Top shape: 1 256 1 1 (256)
I0121 11:36:31.289675 28306 net.cpp:157] Top shape: 1 256 1 1 (256)
I0121 11:36:31.289680 28306 net.cpp:157] Top shape: 1 256 1 1 (256)
I0121 11:36:31.289682 28306 net.cpp:165] Memory required for data: 235280416
I0121 11:36:31.289686 28306 layer_factory.hpp:77] Creating layer conv4_3_norm
I0121 11:36:31.289695 28306 net.cpp:100] Creating Layer conv4_3_norm
I0121 11:36:31.289700 28306 net.cpp:434] conv4_3_norm <- conv4_3_relu4_3_0_split_1
I0121 11:36:31.289705 28306 net.cpp:408] conv4_3_norm -> conv4_3_norm
I0121 11:36:31.289875 28306 net.cpp:150] Setting up conv4_3_norm
I0121 11:36:31.289883 28306 net.cpp:157] Top shape: 1 512 38 38 (739328)
I0121 11:36:31.289887 28306 net.cpp:165] Memory required for data: 238237728
I0121 11:36:31.289893 28306 layer_factory.hpp:77] Creating layer conv4_3_norm_conv4_3_norm_0_split
I0121 11:36:31.289899 28306 net.cpp:100] Creating Layer conv4_3_norm_conv4_3_norm_0_split
I0121 11:36:31.289903 28306 net.cpp:434] conv4_3_norm_conv4_3_norm_0_split <- conv4_3_norm
I0121 11:36:31.289908 28306 net.cpp:408] conv4_3_norm_conv4_3_norm_0_split -> conv4_3_norm_conv4_3_norm_0_split_0
I0121 11:36:31.289916 28306 net.cpp:408] conv4_3_norm_conv4_3_norm_0_split -> conv4_3_norm_conv4_3_norm_0_split_1
I0121 11:36:31.289922 28306 net.cpp:408] conv4_3_norm_conv4_3_norm_0_split -> conv4_3_norm_conv4_3_norm_0_split_2
I0121 11:36:31.289989 28306 net.cpp:150] Setting up conv4_3_norm_conv4_3_norm_0_split
I0121 11:36:31.289999 28306 net.cpp:157] Top shape: 1 512 38 38 (739328)
I0121 11:36:31.290004 28306 net.cpp:157] Top shape: 1 512 38 38 (739328)
I0121 11:36:31.290007 28306 net.cpp:157] Top shape: 1 512 38 38 (739328)
I0121 11:36:31.290010 28306 net.cpp:165] Memory required for data: 247109664
I0121 11:36:31.290014 28306 layer_factory.hpp:77] Creating layer conv4_3_norm_mbox_loc
I0121 11:36:31.290024 28306 net.cpp:100] Creating Layer conv4_3_norm_mbox_loc
I0121 11:36:31.290027 28306 net.cpp:434] conv4_3_norm_mbox_loc <- conv4_3_norm_conv4_3_norm_0_split_0
I0121 11:36:31.290035 28306 net.cpp:408] conv4_3_norm_mbox_loc -> conv4_3_norm_mbox_loc
I0121 11:36:31.293632 28306 net.cpp:150] Setting up conv4_3_norm_mbox_loc
I0121 11:36:31.293648 28306 net.cpp:157] Top shape: 1 16 38 38 (23104)
I0121 11:36:31.293653 28306 net.cpp:165] Memory required for data: 247202080
I0121 11:36:31.293660 28306 layer_factory.hpp:77] Creating layer conv4_3_norm_mbox_loc_perm
I0121 11:36:31.293669 28306 net.cpp:100] Creating Layer conv4_3_norm_mbox_loc_perm
I0121 11:36:31.293674 28306 net.cpp:434] conv4_3_norm_mbox_loc_perm <- conv4_3_norm_mbox_loc
I0121 11:36:31.293681 28306 net.cpp:408] conv4_3_norm_mbox_loc_perm -> conv4_3_norm_mbox_loc_perm
I0121 11:36:31.293802 28306 net.cpp:150] Setting up conv4_3_norm_mbox_loc_perm
I0121 11:36:31.293808 28306 net.cpp:157] Top shape: 1 38 38 16 (23104)
I0121 11:36:31.293812 28306 net.cpp:165] Memory required for data: 247294496
I0121 11:36:31.293817 28306 layer_factory.hpp:77] Creating layer conv4_3_norm_mbox_loc_flat
I0121 11:36:31.293829 28306 net.cpp:100] Creating Layer conv4_3_norm_mbox_loc_flat
I0121 11:36:31.293833 28306 net.cpp:434] conv4_3_norm_mbox_loc_flat <- conv4_3_norm_mbox_loc_perm
I0121 11:36:31.293840 28306 net.cpp:408] conv4_3_norm_mbox_loc_flat -> conv4_3_norm_mbox_loc_flat
I0121 11:36:31.293877 28306 net.cpp:150] Setting up conv4_3_norm_mbox_loc_flat
I0121 11:36:31.293885 28306 net.cpp:157] Top shape: 1 23104 (23104)
I0121 11:36:31.293889 28306 net.cpp:165] Memory required for data: 247386912
I0121 11:36:31.293892 28306 layer_factory.hpp:77] Creating layer conv4_3_norm_mbox_conf
I0121 11:36:31.293910 28306 net.cpp:100] Creating Layer conv4_3_norm_mbox_conf
I0121 11:36:31.293913 28306 net.cpp:434] conv4_3_norm_mbox_conf <- conv4_3_norm_conv4_3_norm_0_split_1
I0121 11:36:31.293920 28306 net.cpp:408] conv4_3_norm_mbox_conf -> conv4_3_norm_mbox_conf
I0121 11:36:31.301306 28306 net.cpp:150] Setting up conv4_3_norm_mbox_conf
I0121 11:36:31.301337 28306 net.cpp:157] Top shape: 1 88 38 38 (127072)
I0121 11:36:31.301342 28306 net.cpp:165] Memory required for data: 247895200
I0121 11:36:31.301352 28306 layer_factory.hpp:77] Creating layer conv4_3_norm_mbox_conf_perm
I0121 11:36:31.301362 28306 net.cpp:100] Creating Layer conv4_3_norm_mbox_conf_perm
I0121 11:36:31.301367 28306 net.cpp:434] conv4_3_norm_mbox_conf_perm <- conv4_3_norm_mbox_conf
I0121 11:36:31.301378 28306 net.cpp:408] conv4_3_norm_mbox_conf_perm -> conv4_3_norm_mbox_conf_perm
I0121 11:36:31.301517 28306 net.cpp:150] Setting up conv4_3_norm_mbox_conf_perm
I0121 11:36:31.301532 28306 net.cpp:157] Top shape: 1 38 38 88 (127072)
I0121 11:36:31.301537 28306 net.cpp:165] Memory required for data: 248403488
I0121 11:36:31.301544 28306 layer_factory.hpp:77] Creating layer conv4_3_norm_mbox_conf_flat
I0121 11:36:31.301558 28306 net.cpp:100] Creating Layer conv4_3_norm_mbox_conf_flat
I0121 11:36:31.301564 28306 net.cpp:434] conv4_3_norm_mbox_conf_flat <- conv4_3_norm_mbox_conf_perm
I0121 11:36:31.301571 28306 net.cpp:408] conv4_3_norm_mbox_conf_flat -> conv4_3_norm_mbox_conf_flat
I0121 11:36:31.301604 28306 net.cpp:150] Setting up conv4_3_norm_mbox_conf_flat
I0121 11:36:31.301612 28306 net.cpp:157] Top shape: 1 127072 (127072)
I0121 11:36:31.301615 28306 net.cpp:165] Memory required for data: 248911776
I0121 11:36:31.301620 28306 layer_factory.hpp:77] Creating layer conv4_3_norm_mbox_priorbox
I0121 11:36:31.301646 28306 net.cpp:100] Creating Layer conv4_3_norm_mbox_priorbox
I0121 11:36:31.301652 28306 net.cpp:434] conv4_3_norm_mbox_priorbox <- conv4_3_norm_conv4_3_norm_0_split_2
I0121 11:36:31.301658 28306 net.cpp:434] conv4_3_norm_mbox_priorbox <- data_data_0_split_1
I0121 11:36:31.301668 28306 net.cpp:408] conv4_3_norm_mbox_priorbox -> conv4_3_norm_mbox_priorbox
I0121 11:36:31.301708 28306 net.cpp:150] Setting up conv4_3_norm_mbox_priorbox
I0121 11:36:31.301717 28306 net.cpp:157] Top shape: 1 2 23104 (46208)
I0121 11:36:31.301720 28306 net.cpp:165] Memory required for data: 249096608
I0121 11:36:31.301724 28306 layer_factory.hpp:77] Creating layer fc7_mbox_loc
I0121 11:36:31.301738 28306 net.cpp:100] Creating Layer fc7_mbox_loc
I0121 11:36:31.301743 28306 net.cpp:434] fc7_mbox_loc <- fc7_relu7_0_split_1
I0121 11:36:31.301750 28306 net.cpp:408] fc7_mbox_loc -> fc7_mbox_loc
I0121 11:36:31.306043 28306 net.cpp:150] Setting up fc7_mbox_loc
I0121 11:36:31.306062 28306 net.cpp:157] Top shape: 1 24 19 19 (8664)
I0121 11:36:31.306066 28306 net.cpp:165] Memory required for data: 249131264
I0121 11:36:31.306074 28306 layer_factory.hpp:77] Creating layer fc7_mbox_loc_perm
I0121 11:36:31.306082 28306 net.cpp:100] Creating Layer fc7_mbox_loc_perm
I0121 11:36:31.306087 28306 net.cpp:434] fc7_mbox_loc_perm <- fc7_mbox_loc
I0121 11:36:31.306092 28306 net.cpp:408] fc7_mbox_loc_perm -> fc7_mbox_loc_perm
I0121 11:36:31.306208 28306 net.cpp:150] Setting up fc7_mbox_loc_perm
I0121 11:36:31.306217 28306 net.cpp:157] Top shape: 1 19 19 24 (8664)
I0121 11:36:31.306221 28306 net.cpp:165] Memory required for data: 249165920
I0121 11:36:31.306224 28306 layer_factory.hpp:77] Creating layer fc7_mbox_loc_flat
I0121 11:36:31.306232 28306 net.cpp:100] Creating Layer fc7_mbox_loc_flat
I0121 11:36:31.306236 28306 net.cpp:434] fc7_mbox_loc_flat <- fc7_mbox_loc_perm
I0121 11:36:31.306241 28306 net.cpp:408] fc7_mbox_loc_flat -> fc7_mbox_loc_flat
I0121 11:36:31.306269 28306 net.cpp:150] Setting up fc7_mbox_loc_flat
I0121 11:36:31.306275 28306 net.cpp:157] Top shape: 1 8664 (8664)
I0121 11:36:31.306279 28306 net.cpp:165] Memory required for data: 249200576
I0121 11:36:31.306282 28306 layer_factory.hpp:77] Creating layer fc7_mbox_conf
I0121 11:36:31.306298 28306 net.cpp:100] Creating Layer fc7_mbox_conf
I0121 11:36:31.306303 28306 net.cpp:434] fc7_mbox_conf <- fc7_relu7_0_split_2
I0121 11:36:31.306311 28306 net.cpp:408] fc7_mbox_conf -> fc7_mbox_conf
I0121 11:36:31.319084 28306 net.cpp:150] Setting up fc7_mbox_conf
I0121 11:36:31.319106 28306 net.cpp:157] Top shape: 1 132 19 19 (47652)
I0121 11:36:31.319110 28306 net.cpp:165] Memory required for data: 249391184
I0121 11:36:31.319118 28306 layer_factory.hpp:77] Creating layer fc7_mbox_conf_perm
I0121 11:36:31.319128 28306 net.cpp:100] Creating Layer fc7_mbox_conf_perm
I0121 11:36:31.319134 28306 net.cpp:434] fc7_mbox_conf_perm <- fc7_mbox_conf
I0121 11:36:31.319141 28306 net.cpp:408] fc7_mbox_conf_perm -> fc7_mbox_conf_perm
I0121 11:36:31.319260 28306 net.cpp:150] Setting up fc7_mbox_conf_perm
I0121 11:36:31.319269 28306 net.cpp:157] Top shape: 1 19 19 132 (47652)
I0121 11:36:31.319273 28306 net.cpp:165] Memory required for data: 249581792
I0121 11:36:31.319278 28306 layer_factory.hpp:77] Creating layer fc7_mbox_conf_flat
I0121 11:36:31.319283 28306 net.cpp:100] Creating Layer fc7_mbox_conf_flat
I0121 11:36:31.319288 28306 net.cpp:434] fc7_mbox_conf_flat <- fc7_mbox_conf_perm
I0121 11:36:31.319294 28306 net.cpp:408] fc7_mbox_conf_flat -> fc7_mbox_conf_flat
I0121 11:36:31.319322 28306 net.cpp:150] Setting up fc7_mbox_conf_flat
I0121 11:36:31.319330 28306 net.cpp:157] Top shape: 1 47652 (47652)
I0121 11:36:31.319334 28306 net.cpp:165] Memory required for data: 249772400
I0121 11:36:31.319337 28306 layer_factory.hpp:77] Creating layer fc7_mbox_priorbox
I0121 11:36:31.319345 28306 net.cpp:100] Creating Layer fc7_mbox_priorbox
I0121 11:36:31.319350 28306 net.cpp:434] fc7_mbox_priorbox <- fc7_relu7_0_split_3
I0121 11:36:31.319355 28306 net.cpp:434] fc7_mbox_priorbox <- data_data_0_split_2
I0121 11:36:31.319362 28306 net.cpp:408] fc7_mbox_priorbox -> fc7_mbox_priorbox
I0121 11:36:31.319411 28306 net.cpp:150] Setting up fc7_mbox_priorbox
I0121 11:36:31.319423 28306 net.cpp:157] Top shape: 1 2 8664 (17328)
I0121 11:36:31.319427 28306 net.cpp:165] Memory required for data: 249841712
I0121 11:36:31.319430 28306 layer_factory.hpp:77] Creating layer conv6_2_mbox_loc
I0121 11:36:31.319442 28306 net.cpp:100] Creating Layer conv6_2_mbox_loc
I0121 11:36:31.319448 28306 net.cpp:434] conv6_2_mbox_loc <- conv6_2_conv6_2_relu_0_split_1
I0121 11:36:31.319455 28306 net.cpp:408] conv6_2_mbox_loc -> conv6_2_mbox_loc
I0121 11:36:31.323843 28306 net.cpp:150] Setting up conv6_2_mbox_loc
I0121 11:36:31.323860 28306 net.cpp:157] Top shape: 1 24 10 10 (2400)
I0121 11:36:31.323864 28306 net.cpp:165] Memory required for data: 249851312
I0121 11:36:31.323873 28306 layer_factory.hpp:77] Creating layer conv6_2_mbox_loc_perm
I0121 11:36:31.323881 28306 net.cpp:100] Creating Layer conv6_2_mbox_loc_perm
I0121 11:36:31.323889 28306 net.cpp:434] conv6_2_mbox_loc_perm <- conv6_2_mbox_loc
I0121 11:36:31.323894 28306 net.cpp:408] conv6_2_mbox_loc_perm -> conv6_2_mbox_loc_perm
I0121 11:36:31.324018 28306 net.cpp:150] Setting up conv6_2_mbox_loc_perm
I0121 11:36:31.324026 28306 net.cpp:157] Top shape: 1 10 10 24 (2400)
I0121 11:36:31.324030 28306 net.cpp:165] Memory required for data: 249860912
I0121 11:36:31.324033 28306 layer_factory.hpp:77] Creating layer conv6_2_mbox_loc_flat
I0121 11:36:31.324040 28306 net.cpp:100] Creating Layer conv6_2_mbox_loc_flat
I0121 11:36:31.324044 28306 net.cpp:434] conv6_2_mbox_loc_flat <- conv6_2_mbox_loc_perm
I0121 11:36:31.324050 28306 net.cpp:408] conv6_2_mbox_loc_flat -> conv6_2_mbox_loc_flat
I0121 11:36:31.324079 28306 net.cpp:150] Setting up conv6_2_mbox_loc_flat
I0121 11:36:31.324086 28306 net.cpp:157] Top shape: 1 2400 (2400)
I0121 11:36:31.324090 28306 net.cpp:165] Memory required for data: 249870512
I0121 11:36:31.324093 28306 layer_factory.hpp:77] Creating layer conv6_2_mbox_conf
I0121 11:36:31.324105 28306 net.cpp:100] Creating Layer conv6_2_mbox_conf
I0121 11:36:31.324111 28306 net.cpp:434] conv6_2_mbox_conf <- conv6_2_conv6_2_relu_0_split_2
I0121 11:36:31.324120 28306 net.cpp:408] conv6_2_mbox_conf -> conv6_2_mbox_conf
I0121 11:36:31.331841 28306 net.cpp:150] Setting up conv6_2_mbox_conf
I0121 11:36:31.331859 28306 net.cpp:157] Top shape: 1 132 10 10 (13200)
I0121 11:36:31.331863 28306 net.cpp:165] Memory required for data: 249923312
I0121 11:36:31.331871 28306 layer_factory.hpp:77] Creating layer conv6_2_mbox_conf_perm
I0121 11:36:31.331879 28306 net.cpp:100] Creating Layer conv6_2_mbox_conf_perm
I0121 11:36:31.331887 28306 net.cpp:434] conv6_2_mbox_conf_perm <- conv6_2_mbox_conf
I0121 11:36:31.331893 28306 net.cpp:408] conv6_2_mbox_conf_perm -> conv6_2_mbox_conf_perm
I0121 11:36:31.332010 28306 net.cpp:150] Setting up conv6_2_mbox_conf_perm
I0121 11:36:31.332020 28306 net.cpp:157] Top shape: 1 10 10 132 (13200)
I0121 11:36:31.332027 28306 net.cpp:165] Memory required for data: 249976112
I0121 11:36:31.332031 28306 layer_factory.hpp:77] Creating layer conv6_2_mbox_conf_flat
I0121 11:36:31.332037 28306 net.cpp:100] Creating Layer conv6_2_mbox_conf_flat
I0121 11:36:31.332041 28306 net.cpp:434] conv6_2_mbox_conf_flat <- conv6_2_mbox_conf_perm
I0121 11:36:31.332048 28306 net.cpp:408] conv6_2_mbox_conf_flat -> conv6_2_mbox_conf_flat
I0121 11:36:31.332077 28306 net.cpp:150] Setting up conv6_2_mbox_conf_flat
I0121 11:36:31.332085 28306 net.cpp:157] Top shape: 1 13200 (13200)
I0121 11:36:31.332088 28306 net.cpp:165] Memory required for data: 250028912
I0121 11:36:31.332093 28306 layer_factory.hpp:77] Creating layer conv6_2_mbox_priorbox
I0121 11:36:31.332099 28306 net.cpp:100] Creating Layer conv6_2_mbox_priorbox
I0121 11:36:31.332103 28306 net.cpp:434] conv6_2_mbox_priorbox <- conv6_2_conv6_2_relu_0_split_3
I0121 11:36:31.332109 28306 net.cpp:434] conv6_2_mbox_priorbox <- data_data_0_split_3
I0121 11:36:31.332116 28306 net.cpp:408] conv6_2_mbox_priorbox -> conv6_2_mbox_priorbox
I0121 11:36:31.332146 28306 net.cpp:150] Setting up conv6_2_mbox_priorbox
I0121 11:36:31.332170 28306 net.cpp:157] Top shape: 1 2 2400 (4800)
I0121 11:36:31.332175 28306 net.cpp:165] Memory required for data: 250048112
I0121 11:36:31.332178 28306 layer_factory.hpp:77] Creating layer conv7_2_mbox_loc
I0121 11:36:31.332190 28306 net.cpp:100] Creating Layer conv7_2_mbox_loc
I0121 11:36:31.332196 28306 net.cpp:434] conv7_2_mbox_loc <- conv7_2_conv7_2_relu_0_split_1
I0121 11:36:31.332204 28306 net.cpp:408] conv7_2_mbox_loc -> conv7_2_mbox_loc
I0121 11:36:31.335602 28306 net.cpp:150] Setting up conv7_2_mbox_loc
I0121 11:36:31.335618 28306 net.cpp:157] Top shape: 1 24 5 5 (600)
I0121 11:36:31.335623 28306 net.cpp:165] Memory required for data: 250050512
I0121 11:36:31.335629 28306 layer_factory.hpp:77] Creating layer conv7_2_mbox_loc_perm
I0121 11:36:31.335636 28306 net.cpp:100] Creating Layer conv7_2_mbox_loc_perm
I0121 11:36:31.335640 28306 net.cpp:434] conv7_2_mbox_loc_perm <- conv7_2_mbox_loc
I0121 11:36:31.335649 28306 net.cpp:408] conv7_2_mbox_loc_perm -> conv7_2_mbox_loc_perm
I0121 11:36:31.335777 28306 net.cpp:150] Setting up conv7_2_mbox_loc_perm
I0121 11:36:31.335785 28306 net.cpp:157] Top shape: 1 5 5 24 (600)
I0121 11:36:31.335789 28306 net.cpp:165] Memory required for data: 250052912
I0121 11:36:31.335793 28306 layer_factory.hpp:77] Creating layer conv7_2_mbox_loc_flat
I0121 11:36:31.335801 28306 net.cpp:100] Creating Layer conv7_2_mbox_loc_flat
I0121 11:36:31.335806 28306 net.cpp:434] conv7_2_mbox_loc_flat <- conv7_2_mbox_loc_perm
I0121 11:36:31.335811 28306 net.cpp:408] conv7_2_mbox_loc_flat -> conv7_2_mbox_loc_flat
I0121 11:36:31.335840 28306 net.cpp:150] Setting up conv7_2_mbox_loc_flat
I0121 11:36:31.335849 28306 net.cpp:157] Top shape: 1 600 (600)
I0121 11:36:31.335851 28306 net.cpp:165] Memory required for data: 250055312
I0121 11:36:31.335855 28306 layer_factory.hpp:77] Creating layer conv7_2_mbox_conf
I0121 11:36:31.335868 28306 net.cpp:100] Creating Layer conv7_2_mbox_conf
I0121 11:36:31.335880 28306 net.cpp:434] conv7_2_mbox_conf <- conv7_2_conv7_2_relu_0_split_2
I0121 11:36:31.335891 28306 net.cpp:408] conv7_2_mbox_conf -> conv7_2_mbox_conf
I0121 11:36:31.341428 28306 net.cpp:150] Setting up conv7_2_mbox_conf
I0121 11:36:31.341445 28306 net.cpp:157] Top shape: 1 132 5 5 (3300)
I0121 11:36:31.341450 28306 net.cpp:165] Memory required for data: 250068512
I0121 11:36:31.341457 28306 layer_factory.hpp:77] Creating layer conv7_2_mbox_conf_perm
I0121 11:36:31.341464 28306 net.cpp:100] Creating Layer conv7_2_mbox_conf_perm
I0121 11:36:31.341472 28306 net.cpp:434] conv7_2_mbox_conf_perm <- conv7_2_mbox_conf
I0121 11:36:31.341480 28306 net.cpp:408] conv7_2_mbox_conf_perm -> conv7_2_mbox_conf_perm
I0121 11:36:31.341604 28306 net.cpp:150] Setting up conv7_2_mbox_conf_perm
I0121 11:36:31.341614 28306 net.cpp:157] Top shape: 1 5 5 132 (3300)
I0121 11:36:31.341616 28306 net.cpp:165] Memory required for data: 250081712
I0121 11:36:31.341620 28306 layer_factory.hpp:77] Creating layer conv7_2_mbox_conf_flat
I0121 11:36:31.341627 28306 net.cpp:100] Creating Layer conv7_2_mbox_conf_flat
I0121 11:36:31.341632 28306 net.cpp:434] conv7_2_mbox_conf_flat <- conv7_2_mbox_conf_perm
I0121 11:36:31.341637 28306 net.cpp:408] conv7_2_mbox_conf_flat -> conv7_2_mbox_conf_flat
I0121 11:36:31.341666 28306 net.cpp:150] Setting up conv7_2_mbox_conf_flat
I0121 11:36:31.341675 28306 net.cpp:157] Top shape: 1 3300 (3300)
I0121 11:36:31.341678 28306 net.cpp:165] Memory required for data: 250094912
I0121 11:36:31.341681 28306 layer_factory.hpp:77] Creating layer conv7_2_mbox_priorbox
I0121 11:36:31.341691 28306 net.cpp:100] Creating Layer conv7_2_mbox_priorbox
I0121 11:36:31.341696 28306 net.cpp:434] conv7_2_mbox_priorbox <- conv7_2_conv7_2_relu_0_split_3
I0121 11:36:31.341701 28306 net.cpp:434] conv7_2_mbox_priorbox <- data_data_0_split_4
I0121 11:36:31.341706 28306 net.cpp:408] conv7_2_mbox_priorbox -> conv7_2_mbox_priorbox
I0121 11:36:31.341738 28306 net.cpp:150] Setting up conv7_2_mbox_priorbox
I0121 11:36:31.341747 28306 net.cpp:157] Top shape: 1 2 600 (1200)
I0121 11:36:31.341750 28306 net.cpp:165] Memory required for data: 250099712
I0121 11:36:31.341765 28306 layer_factory.hpp:77] Creating layer conv8_2_mbox_loc
I0121 11:36:31.341778 28306 net.cpp:100] Creating Layer conv8_2_mbox_loc
I0121 11:36:31.341784 28306 net.cpp:434] conv8_2_mbox_loc <- conv8_2_conv8_2_relu_0_split_1
I0121 11:36:31.341792 28306 net.cpp:408] conv8_2_mbox_loc -> conv8_2_mbox_loc
I0121 11:36:31.345284 28306 net.cpp:150] Setting up conv8_2_mbox_loc
I0121 11:36:31.345300 28306 net.cpp:157] Top shape: 1 16 3 3 (144)
I0121 11:36:31.345304 28306 net.cpp:165] Memory required for data: 250100288
I0121 11:36:31.345324 28306 layer_factory.hpp:77] Creating layer conv8_2_mbox_loc_perm
I0121 11:36:31.345331 28306 net.cpp:100] Creating Layer conv8_2_mbox_loc_perm
I0121 11:36:31.345336 28306 net.cpp:434] conv8_2_mbox_loc_perm <- conv8_2_mbox_loc
I0121 11:36:31.345342 28306 net.cpp:408] conv8_2_mbox_loc_perm -> conv8_2_mbox_loc_perm
I0121 11:36:31.345465 28306 net.cpp:150] Setting up conv8_2_mbox_loc_perm
I0121 11:36:31.345475 28306 net.cpp:157] Top shape: 1 3 3 16 (144)
I0121 11:36:31.345479 28306 net.cpp:165] Memory required for data: 250100864
I0121 11:36:31.345482 28306 layer_factory.hpp:77] Creating layer conv8_2_mbox_loc_flat
I0121 11:36:31.345489 28306 net.cpp:100] Creating Layer conv8_2_mbox_loc_flat
I0121 11:36:31.345494 28306 net.cpp:434] conv8_2_mbox_loc_flat <- conv8_2_mbox_loc_perm
I0121 11:36:31.345500 28306 net.cpp:408] conv8_2_mbox_loc_flat -> conv8_2_mbox_loc_flat
I0121 11:36:31.345527 28306 net.cpp:150] Setting up conv8_2_mbox_loc_flat
I0121 11:36:31.345537 28306 net.cpp:157] Top shape: 1 144 (144)
I0121 11:36:31.345541 28306 net.cpp:165] Memory required for data: 250101440
I0121 11:36:31.345544 28306 layer_factory.hpp:77] Creating layer conv8_2_mbox_conf
I0121 11:36:31.345554 28306 net.cpp:100] Creating Layer conv8_2_mbox_conf
I0121 11:36:31.345561 28306 net.cpp:434] conv8_2_mbox_conf <- conv8_2_conv8_2_relu_0_split_2
I0121 11:36:31.345567 28306 net.cpp:408] conv8_2_mbox_conf -> conv8_2_mbox_conf
I0121 11:36:31.349953 28306 net.cpp:150] Setting up conv8_2_mbox_conf
I0121 11:36:31.349970 28306 net.cpp:157] Top shape: 1 88 3 3 (792)
I0121 11:36:31.349974 28306 net.cpp:165] Memory required for data: 250104608
I0121 11:36:31.349982 28306 layer_factory.hpp:77] Creating layer conv8_2_mbox_conf_perm
I0121 11:36:31.349992 28306 net.cpp:100] Creating Layer conv8_2_mbox_conf_perm
I0121 11:36:31.349997 28306 net.cpp:434] conv8_2_mbox_conf_perm <- conv8_2_mbox_conf
I0121 11:36:31.350003 28306 net.cpp:408] conv8_2_mbox_conf_perm -> conv8_2_mbox_conf_perm
I0121 11:36:31.350124 28306 net.cpp:150] Setting up conv8_2_mbox_conf_perm
I0121 11:36:31.350134 28306 net.cpp:157] Top shape: 1 3 3 88 (792)
I0121 11:36:31.350137 28306 net.cpp:165] Memory required for data: 250107776
I0121 11:36:31.350142 28306 layer_factory.hpp:77] Creating layer conv8_2_mbox_conf_flat
I0121 11:36:31.350147 28306 net.cpp:100] Creating Layer conv8_2_mbox_conf_flat
I0121 11:36:31.350152 28306 net.cpp:434] conv8_2_mbox_conf_flat <- conv8_2_mbox_conf_perm
I0121 11:36:31.350158 28306 net.cpp:408] conv8_2_mbox_conf_flat -> conv8_2_mbox_conf_flat
I0121 11:36:31.350188 28306 net.cpp:150] Setting up conv8_2_mbox_conf_flat
I0121 11:36:31.350193 28306 net.cpp:157] Top shape: 1 792 (792)
I0121 11:36:31.350196 28306 net.cpp:165] Memory required for data: 250110944
I0121 11:36:31.350200 28306 layer_factory.hpp:77] Creating layer conv8_2_mbox_priorbox
I0121 11:36:31.350206 28306 net.cpp:100] Creating Layer conv8_2_mbox_priorbox
I0121 11:36:31.350210 28306 net.cpp:434] conv8_2_mbox_priorbox <- conv8_2_conv8_2_relu_0_split_3
I0121 11:36:31.350216 28306 net.cpp:434] conv8_2_mbox_priorbox <- data_data_0_split_5
I0121 11:36:31.350224 28306 net.cpp:408] conv8_2_mbox_priorbox -> conv8_2_mbox_priorbox
I0121 11:36:31.350255 28306 net.cpp:150] Setting up conv8_2_mbox_priorbox
I0121 11:36:31.350261 28306 net.cpp:157] Top shape: 1 2 144 (288)
I0121 11:36:31.350265 28306 net.cpp:165] Memory required for data: 250112096
I0121 11:36:31.350268 28306 layer_factory.hpp:77] Creating layer conv9_2_mbox_loc
I0121 11:36:31.350291 28306 net.cpp:100] Creating Layer conv9_2_mbox_loc
I0121 11:36:31.350303 28306 net.cpp:434] conv9_2_mbox_loc <- conv9_2_conv9_2_relu_0_split_0
I0121 11:36:31.350312 28306 net.cpp:408] conv9_2_mbox_loc -> conv9_2_mbox_loc
I0121 11:36:31.353639 28306 net.cpp:150] Setting up conv9_2_mbox_loc
I0121 11:36:31.353657 28306 net.cpp:157] Top shape: 1 16 1 1 (16)
I0121 11:36:31.353660 28306 net.cpp:165] Memory required for data: 250112160
I0121 11:36:31.353667 28306 layer_factory.hpp:77] Creating layer conv9_2_mbox_loc_perm
I0121 11:36:31.353675 28306 net.cpp:100] Creating Layer conv9_2_mbox_loc_perm
I0121 11:36:31.353679 28306 net.cpp:434] conv9_2_mbox_loc_perm <- conv9_2_mbox_loc
I0121 11:36:31.353687 28306 net.cpp:408] conv9_2_mbox_loc_perm -> conv9_2_mbox_loc_perm
I0121 11:36:31.353808 28306 net.cpp:150] Setting up conv9_2_mbox_loc_perm
I0121 11:36:31.353817 28306 net.cpp:157] Top shape: 1 1 1 16 (16)
I0121 11:36:31.353821 28306 net.cpp:165] Memory required for data: 250112224
I0121 11:36:31.353824 28306 layer_factory.hpp:77] Creating layer conv9_2_mbox_loc_flat
I0121 11:36:31.353832 28306 net.cpp:100] Creating Layer conv9_2_mbox_loc_flat
I0121 11:36:31.353837 28306 net.cpp:434] conv9_2_mbox_loc_flat <- conv9_2_mbox_loc_perm
I0121 11:36:31.353842 28306 net.cpp:408] conv9_2_mbox_loc_flat -> conv9_2_mbox_loc_flat
I0121 11:36:31.353868 28306 net.cpp:150] Setting up conv9_2_mbox_loc_flat
I0121 11:36:31.353878 28306 net.cpp:157] Top shape: 1 16 (16)
I0121 11:36:31.353880 28306 net.cpp:165] Memory required for data: 250112288
I0121 11:36:31.353884 28306 layer_factory.hpp:77] Creating layer conv9_2_mbox_conf
I0121 11:36:31.353894 28306 net.cpp:100] Creating Layer conv9_2_mbox_conf
I0121 11:36:31.353899 28306 net.cpp:434] conv9_2_mbox_conf <- conv9_2_conv9_2_relu_0_split_1
I0121 11:36:31.353906 28306 net.cpp:408] conv9_2_mbox_conf -> conv9_2_mbox_conf
I0121 11:36:31.358467 28306 net.cpp:150] Setting up conv9_2_mbox_conf
I0121 11:36:31.358484 28306 net.cpp:157] Top shape: 1 88 1 1 (88)
I0121 11:36:31.358489 28306 net.cpp:165] Memory required for data: 250112640
I0121 11:36:31.358496 28306 layer_factory.hpp:77] Creating layer conv9_2_mbox_conf_perm
I0121 11:36:31.358505 28306 net.cpp:100] Creating Layer conv9_2_mbox_conf_perm
I0121 11:36:31.358510 28306 net.cpp:434] conv9_2_mbox_conf_perm <- conv9_2_mbox_conf
I0121 11:36:31.358518 28306 net.cpp:408] conv9_2_mbox_conf_perm -> conv9_2_mbox_conf_perm
I0121 11:36:31.358640 28306 net.cpp:150] Setting up conv9_2_mbox_conf_perm
I0121 11:36:31.358651 28306 net.cpp:157] Top shape: 1 1 1 88 (88)
I0121 11:36:31.358654 28306 net.cpp:165] Memory required for data: 250112992
I0121 11:36:31.358659 28306 layer_factory.hpp:77] Creating layer conv9_2_mbox_conf_flat
I0121 11:36:31.358664 28306 net.cpp:100] Creating Layer conv9_2_mbox_conf_flat
I0121 11:36:31.358669 28306 net.cpp:434] conv9_2_mbox_conf_flat <- conv9_2_mbox_conf_perm
I0121 11:36:31.358675 28306 net.cpp:408] conv9_2_mbox_conf_flat -> conv9_2_mbox_conf_flat
I0121 11:36:31.358703 28306 net.cpp:150] Setting up conv9_2_mbox_conf_flat
I0121 11:36:31.358711 28306 net.cpp:157] Top shape: 1 88 (88)
I0121 11:36:31.358713 28306 net.cpp:165] Memory required for data: 250113344
I0121 11:36:31.358717 28306 layer_factory.hpp:77] Creating layer conv9_2_mbox_priorbox
I0121 11:36:31.358724 28306 net.cpp:100] Creating Layer conv9_2_mbox_priorbox
I0121 11:36:31.358728 28306 net.cpp:434] conv9_2_mbox_priorbox <- conv9_2_conv9_2_relu_0_split_2
I0121 11:36:31.358733 28306 net.cpp:434] conv9_2_mbox_priorbox <- data_data_0_split_6
I0121 11:36:31.358739 28306 net.cpp:408] conv9_2_mbox_priorbox -> conv9_2_mbox_priorbox
I0121 11:36:31.358770 28306 net.cpp:150] Setting up conv9_2_mbox_priorbox
I0121 11:36:31.358777 28306 net.cpp:157] Top shape: 1 2 16 (32)
I0121 11:36:31.358780 28306 net.cpp:165] Memory required for data: 250113472
I0121 11:36:31.358783 28306 layer_factory.hpp:77] Creating layer mbox_loc
I0121 11:36:31.358798 28306 net.cpp:100] Creating Layer mbox_loc
I0121 11:36:31.358809 28306 net.cpp:434] mbox_loc <- conv4_3_norm_mbox_loc_flat
I0121 11:36:31.358826 28306 net.cpp:434] mbox_loc <- fc7_mbox_loc_flat
I0121 11:36:31.358834 28306 net.cpp:434] mbox_loc <- conv6_2_mbox_loc_flat
I0121 11:36:31.358837 28306 net.cpp:434] mbox_loc <- conv7_2_mbox_loc_flat
I0121 11:36:31.358842 28306 net.cpp:434] mbox_loc <- conv8_2_mbox_loc_flat
I0121 11:36:31.358846 28306 net.cpp:434] mbox_loc <- conv9_2_mbox_loc_flat
I0121 11:36:31.358852 28306 net.cpp:408] mbox_loc -> mbox_loc
I0121 11:36:31.358889 28306 net.cpp:150] Setting up mbox_loc
I0121 11:36:31.358896 28306 net.cpp:157] Top shape: 1 34928 (34928)
I0121 11:36:31.358901 28306 net.cpp:165] Memory required for data: 250253184
I0121 11:36:31.358903 28306 layer_factory.hpp:77] Creating layer mbox_conf
I0121 11:36:31.358911 28306 net.cpp:100] Creating Layer mbox_conf
I0121 11:36:31.358914 28306 net.cpp:434] mbox_conf <- conv4_3_norm_mbox_conf_flat
I0121 11:36:31.358919 28306 net.cpp:434] mbox_conf <- fc7_mbox_conf_flat
I0121 11:36:31.358924 28306 net.cpp:434] mbox_conf <- conv6_2_mbox_conf_flat
I0121 11:36:31.358929 28306 net.cpp:434] mbox_conf <- conv7_2_mbox_conf_flat
I0121 11:36:31.358933 28306 net.cpp:434] mbox_conf <- conv8_2_mbox_conf_flat
I0121 11:36:31.358937 28306 net.cpp:434] mbox_conf <- conv9_2_mbox_conf_flat
I0121 11:36:31.358942 28306 net.cpp:408] mbox_conf -> mbox_conf
I0121 11:36:31.358970 28306 net.cpp:150] Setting up mbox_conf
I0121 11:36:31.358976 28306 net.cpp:157] Top shape: 1 192104 (192104)
I0121 11:36:31.358979 28306 net.cpp:165] Memory required for data: 251021600
I0121 11:36:31.358983 28306 layer_factory.hpp:77] Creating layer mbox_priorbox
I0121 11:36:31.358990 28306 net.cpp:100] Creating Layer mbox_priorbox
I0121 11:36:31.358994 28306 net.cpp:434] mbox_priorbox <- conv4_3_norm_mbox_priorbox
I0121 11:36:31.358999 28306 net.cpp:434] mbox_priorbox <- fc7_mbox_priorbox
I0121 11:36:31.359004 28306 net.cpp:434] mbox_priorbox <- conv6_2_mbox_priorbox
I0121 11:36:31.359007 28306 net.cpp:434] mbox_priorbox <- conv7_2_mbox_priorbox
I0121 11:36:31.359011 28306 net.cpp:434] mbox_priorbox <- conv8_2_mbox_priorbox
I0121 11:36:31.359015 28306 net.cpp:434] mbox_priorbox <- conv9_2_mbox_priorbox
I0121 11:36:31.359020 28306 net.cpp:408] mbox_priorbox -> mbox_priorbox
I0121 11:36:31.359046 28306 net.cpp:150] Setting up mbox_priorbox
I0121 11:36:31.359053 28306 net.cpp:157] Top shape: 1 2 34928 (69856)
I0121 11:36:31.359056 28306 net.cpp:165] Memory required for data: 251301024
I0121 11:36:31.359060 28306 layer_factory.hpp:77] Creating layer mbox_loss
I0121 11:36:31.359071 28306 net.cpp:100] Creating Layer mbox_loss
I0121 11:36:31.359076 28306 net.cpp:434] mbox_loss <- mbox_loc
I0121 11:36:31.359081 28306 net.cpp:434] mbox_loss <- mbox_conf
I0121 11:36:31.359086 28306 net.cpp:434] mbox_loss <- mbox_priorbox
…
state {
  phase: TEST
}
layer {
  name: "data"
  type: "AnnotatedData"
  top: "data"
  top: "label"
  include {
    phase: TEST
  }
  transform_param {
    mean_value: 104
    mean_value: 117
    mean_value: 123
    resize_param {
      prob: 1
      resize_mode: WARP
      height: 300
      width: 300
      interp_mode: LINEAR
    }
  }
  data_param {
    source: "examples/VOC0712/VOC0712_test_lmdb"
    batch_size: 8
    backend: LMDB
  }
  annotated_data_param {
    batch_sampler {
    }
    label_map_file: "data/VOC0712/labelmap_voc.prototxt"
  }
}
layer {
  name: "conv1_1"
  type: "Convolution"
  bottom: "data"
  top: "conv1_1"
  param {
    lr_mult: 1
    decay_mult: 1
  }
  param {
    lr_mult: 2
    decay_mult: 0
  }
  convolution_param {
    num_output: 64
    pad: 1
    kernel_size: 3
    weight_filler {
      type: "xavier"
    }
    bias_filler {
      type: "constant"
      value: 0
    }
  }
}
layer {
  name: "relu1_1"
  type: "ReLU"
  bottom: "conv1_1"
  top: "conv1_1"
}
layer {
  name: "conv1_2"
  type: "Convolution"
  bottom: "conv1_1"
  top: "conv1_2"
  param {
    lr_mult: 1
    decay_mult: 1
  }
  param {
    lr_mult: 2
    decay_mult: 0
  }
  convolution_param {
    num_output: 64
    pad: 1
    kernel_size: 3
    weight_filler {
      type: "xavier"
    }
    bias_filler {
      type: "constant"
      value: 0
    }
  }
}
layer {
  name: "relu1_2"
  type: "ReLU"
  bottom: "conv1_2"
  top: "conv1_2"
}
layer {
  name: "pool1"
  type: "Pooling"
  bottom: "conv1_2"
  top: "pool1"
  pooling_param {
    pool: MAX
    kernel_size: 2
    stride: 2
  }
}
layer {
  name: "conv2_1"
  type: "Convolution"
  bottom: "pool1"
  top: "conv2_1"
  param {
    lr_mult: 1
    decay_mult: 1
  }
  param {
    lr_mult: 2
    decay_mult: 0
  }
  convolution_param {
    num_output: 128
    pad: 1
    kernel_size: 3
    weight_filler {
      type: "xavier"
    }
    bias_filler {
      type: "constant"
      value: 0
    }
  }
}
layer {
  name: "relu2_1"
  type: "ReLU"
  bottom: "conv2_1"
  top: "conv2_1"
}
layer {
  name: "conv2_2"
  type: "Convolution"
  bottom: "conv2_1"
  top: "conv2_2"
  param {
    lr_mult: 1
    decay_mult: 1
  }
  param {
    lr_mult: 2
    decay_mult: 0
  }
  convolution_param {
    num_output: 128
    pad: 1
    kernel_size: 3
    weight_filler {
      type: "xavier"
    }
    bias_filler {
      type: "constant"
      value: 0
    }
  }
}
layer {
  name: "relu2_2"
  type: "ReLU"
  bottom: "conv2_2"
  top: "conv2_2"
}
layer {
  name: "pool2"
  type: "Pooling"
  bottom: "conv2_2"
  top: "pool2"
  pooling_param {
    pool: MAX
    kernel_size: 2
    stride: 2
  }
}
layer {
  name: "conv3_1"
  type: "Convolution"
  bottom: "pool2"
  top: "conv3_1"
  param {
    lr_mult: 1
    decay_mult: 1
  }
  param {
    lr_mult: 2
    decay_mult: 0
  }
  convolution_param {
    num_output: 256
    pad: 1
    kernel_size: 3
    weight_filler {
      type: "xavier"
    }
    bias_filler {
      type: "constant"
      value: 0
    }
  }
}
layer {
  name: "relu3_1"
  type: "ReLU"
  bottom: "conv3_1"
  top: "conv3_1"
}
layer {
  name: "conv3_2"
  type: "Convolution"
  bottom: "conv3_1"
  top: "conv3_2"
  param {
    lr_mult: 1
    decay_mult: 1
  }
  param {
    lr_mult: 2
    decay_mult: 0
  }
  convolution_param {
    num_output: 256
    pad: 1
    kernel_size: 3
    weight_filler {
      type: "xavier"
    }
    bias_filler {
      type: "constant"
      value: 0
    }
  }
}
layer {
  name: "relu3_2"
  type: "ReLU"
  bottom: "conv3_2"
  top: "conv3_2"
}
layer {
  name: "conv3_3"
  type: "Convolution"
  bottom: "conv3_2"
  top: "conv3_3"
  param {
    lr_mult: 1
    decay_mult: 1
  }
  param {
    lr_mult: 2
    decay_mult: 0
  }
  convolution_param {
    num_output: 256
    pad: 1
    kernel_size: 3
    weight_filler {
      type: "xavier"
    }
    bias_filler {
      type: "constant"
      value: 0
    }
  }
}
layer {
  name: "relu3_3"
  type: "ReLU"
  bottom: "conv3_3"
  top: "conv3_3"
}
layer {
  name: "pool3"
  type: "Pooling"
  bottom: "conv3_3"
  top: "pool3"
  pooling_param {
    pool: MAX
    kernel_size: 2
    stride: 2
  }
}
layer {
  name: "conv4_1"
  type: "Convolution"
  bottom: "pool3"
  top: "conv4_1"
  param {
    lr_mult: 1
    decay_mult: 1
  }
  param {
    lr_mult: 2
    decay_mult: 0
  }
  convolution_param {
    num_output: 512
    pad: 1
    kernel_size: 3
    weight_filler {
      type: "xavier"
    }
    bias_filler {
      type: "constant"
      value: 0
    }
  }
}
layer {
  name: "relu4_1"
  type: "ReLU"
  bottom: "conv4_1"
  top: "conv4_1"
}
layer {
  name: "conv4_2"
  type: "Convolution"
  bottom: "conv4_1"
  top: "conv4_2"
  param {
    lr_mult: 1
    decay_mult: 1
  }
  param {
    lr_mult: 2
    decay_mult: 0
  }
  convolution_param {
    num_output: 512
    pad: 1
    kernel_size: 3
    weight_filler {
      type: "xavier"
    }
    bias_filler {
      type: "constant"
      value: 0
    }
  }
}
layer {
  name: "relu4_2"
  type: "ReLU"
  bottom: "conv4_2"
  top: "conv4_2"
}
layer {
  name: "conv4_3"
  type: "Convolution"
  bottom: "conv4_2"
  top: "conv4_3"
  param {
    lr_mult: 1
    decay_mult: 1
  }
  param {
    lr_mult: 2
    decay_mult: 0
  }
  convolution_param {
    num_output: 512
    pad: 1
    kernel_size: 3
    weight_filler {
      type: "xavier"
    }
    bias_filler {
      type: "constant"
      value: 0
    }
  }
}
layer {
  name: "relu4_3"
  type: "ReLU"
  bottom: "conv4_3"
  top: "conv4_3"
}
layer {
  name: "pool4"
  type: "Pooling"
  bottom: "conv4_3"
  top: "pool4"
  pooling_param {
    pool: MAX
    kernel_size: 2
    stride: 2
  }
}
layer {
  name: "conv5_1"
  type: "Convolution"
  bottom: "pool4"
  top: "conv5_1"
  param {
    lr_mult: 1
    decay_mult: 1
  }
  param {
    lr_mult: 2
    decay_mult: 0
  }
  convolution_param {
    num_output: 512
    pad: 1
    kernel_size: 3
    weight_filler {
      type: "xavier"
    }
    bias_filler {
      type: "constant"
      value: 0
    }
    dilation: 1
  }
}
layer {
  name: "relu5_1"
  type: "ReLU"
  bottom: "conv5_1"
  top: "conv5_1"
}
layer {
  name: "conv5_2"
  type: "Convolution"
  bottom: "conv5_1"
  top: "conv5_2"
  param {
    lr_mult: 1
    decay_mult: 1
  }
  param {
    lr_mult: 2
    decay_mult: 0
  }
  convolution_param {
    num_output: 512
    pad: 1
    kernel_size: 3
    weight_filler {
      type: "xavier"
    }
    bias_filler {
      type: "constant"
      value: 0
    }
    dilation: 1
  }
}
layer {
  name: "relu5_2"
  type: "ReLU"
  bottom: "conv5_2"
  top: "conv5_2"
}
layer {
  name: "conv5_3"
  type: "Convolution"
  bottom: "conv5_2"
  top: "conv5_3"
  param {
    lr_mult: 1
    decay_mult: 1
  }
  param {
    lr_mult: 2
    decay_mult: 0
  }
  convolution_param {
    num_output: 512
    pad: 1
    kernel_size: 3
    weight_filler {
      type: "xavier"
    }
    bias_filler {
      type: "constant"
      value: 0
    }
    dilation: 1
  }
}
layer {
  name: "relu5_3"
  type: "ReLU"
  bottom: "conv5_3"
  top: "conv5_3"
}
layer {
  name: "pool5"
  type: "Pooling"
  bottom: "conv5_3"
  top: "pool5"
  pooling_param {
    pool: MAX
    kernel_size: 3
    stride: 1
    pad: 1
  }
}
layer {
  name: "fc6"
  type: "Convolution"
  bottom: "pool5"
  top: "fc6"
  param {
    lr_mult: 1
    decay_mult: 1
  }
  param {
    lr_mult: 2
    decay_mult: 0
  }
  convolution_param {
    num_output: 1024
    pad: 6
    kernel_size: 3
    weight_filler {
      type: "xavier"
    }
    bias_filler {
      type: "constant"
      value: 0
    }
    dilation: 6
  }
}
layer {
  name: "relu6"
  type: "ReLU"
  bottom: "fc6"
  top: "fc6"
}
layer {
  name: "fc7"
  type: "Convolution"
  bottom: "fc6"
  top: "fc7"
  param {
    lr_mult: 1
    decay_mult: 1
  }
  param {
    lr_mult: 2
    decay_mult: 0
  }
  convolution_param {
    num_output: 1024
    kernel_size: 1
    weight_filler {
      type: "xavier"
    }
    bias_filler {
      type: "constant"
      value: 0
    }
  }
}
layer {
  name: "relu7"
  type: "ReLU"
  bottom: "fc7"
  top: "fc7"
}
layer {
  name: "conv6_1"
  type: "Convolution"
  bottom: "fc7"
  top: "conv6_1"
  param {
    lr_mult: 1
    decay_mult: 1
  }
  param {
    lr_mult: 2
    decay_mult: 0
  }
  convolution_param {
    num_output: 256
    pad: 0
    kernel_size: 1
    stride: 1
    weight_filler {
      type: "xavier"
    }
    bias_filler {
      type: "constant"
      value: 0
    }
  }
}
layer {
  name: "conv6_1_relu"
  type: "ReLU"
  bottom: "conv6_1"
  top: "conv6_1"
}
layer {
  name: "conv6_2"
  type: "Convolution"
  bottom: "conv6_1"
  top: "conv6_2"
  param {
    lr_mult: 1
    decay_mult: 1
  }
  param {
    lr_mult: 2
    decay_mult: 0
  }
  convolution_param {
    num_output: 512
    pad: 1
    kernel_size: 3
    stride: 2
    weight_filler {
      type: "xavier"
    }
    bias_filler {
      type: "constant"
      value: 0
    }
  }
}
layer {
  name: "conv6_2_relu"
  type: "ReLU"
  bottom: "conv6_2"
  top: "conv6_2"
}
layer {
  name: "conv7_1"
  type: "Convolution"
  bottom: "conv6_2"
  top: "conv7_1"
  param {
    lr_mult: 1
    decay_mult: 1
  }
  param {
    lr_mult: 2
    decay_mult: 0
  }
  convolution_param {
    num_output: 128
    pad: 0
    kernel_size: 1
    stride: 1
    weight_filler {
      type: "xavier"
    }
    bias_filler {
      type: "constant"
      value: 0
    }
  }
}
layer {
  name: "conv7_1_relu"
  type: "ReLU"
  bottom: "conv7_1"
  top: "conv7_1"
}
layer {
  name: "conv7_2"
  type: "Convolution"
  bottom: "conv7_1"
  top: "conv7_2"
  param {
    lr_mult: 1
    decay_mult: 1
  }
  param {
    lr_mult: 2
    decay_mult: 0
  }
  convolution_param {
    num_output: 256
    pad: 1
    kernel_size: 3
    stride: 2
    weight_filler {
      type: "xavier"
    }
    bias_filler {
      type: "constant"
      value: 0
    }
  }
}
layer {
  name: "conv7_2_relu"
  type: "ReLU"
  bottom: "conv7_2"
  top: "conv7_2"
}
layer {
  name: "conv8_1"
  type: "Convolution"
  bottom: "conv7_2"
  top: "conv8_1"
  param {
    lr_mult: 1
    decay_mult: 1
  }
  param {
    lr_mult: 2
    decay_mult: 0
  }
  convolution_param {
    num_output: 128
    pad: 0
    kernel_size: 1
    stride: 1
    weight_filler {
      type: "xavier"
    }
    bias_filler {
      type: "constant"
      value: 0
    }
  }
}
layer {
  name: "conv8_1_relu"
  type: "ReLU"
  bottom: "conv8_1"
  top: "conv8_1"
}
layer {
  name: "conv8_2"
  type: "Convolution"
  bottom: "conv8_1"
  top: "conv8_2"
  param {
    lr_mult: 1
    decay_mult: 1
  }
  param {
    lr_mult: 2
    decay_mult: 0
  }
  convolution_param {
    num_output: 256
    pad: 0
    kernel_size: 3
    stride: 1
    weight_filler {
      type: "xavier"
    }
    bias_filler {
      type: "constant"
      value: 0
    }
  }
}
layer {
  name: "conv8_2_relu"
  type: "ReLU"
  bottom: "conv8_2"
  top: "conv8_2"
}
layer {
  name: "conv9_1"
  type: "Convolution"
  bottom: "conv8_2"
  top: "conv9_1"
  param {
    lr_mult: 1
    decay_mult: 1
  }
  param {
    lr_mult: 2
    decay_mult: 0
  }
  convolution_param {
    num_output: 128
    pad: 0
    kernel_size: 1
    stride: 1
    weight_filler {
      type: "xavier"
    }
    bias_filler {
      type: "constant"
      value: 0
    }
  }
}
layer {
  name: "conv9_1_relu"
  type: "ReLU"
  bottom: "conv9_1"
  top: "conv9_1"
}
layer {
  name: "conv9_2"
  type: "Convolution"
  bottom: "conv9_1"
  top: "conv9_2"
  param {
    lr_mult: 1
    decay_mult: 1
  }
  param {
    lr_mult: 2
    decay_mult: 0
  }
  convolution_param {
    num_output: 256
    pad: 0
    kernel_size: 3
    stride: 1
    weight_filler {
      type: "xavier"
    }
    bias_filler {
      type: "constant"
      value: 0
    }
  }
}
layer {
  name: "conv9_2_relu"
  type: "ReLU"
  bottom: "conv9_2"
  top: "conv9_2"
}
layer {
  name: "conv4_3_norm"
  type: "Normalize"
  bottom: "conv4_3"
  top: "conv4_3_norm"
  norm_param {
    across_spatial: false
    scale_filler {
      type: "constant"
      value: 20
    }
    channel_shared: false
  }
}
layer {
  name: "conv4_3_norm_mbox_loc"
  type: "Convolution"
  bottom: "conv4_3_norm"
  top: "conv4_3_norm_mbox_loc"
  param {
    lr_mult: 1
    decay_mult: 1
  }
  param {
    lr_mult: 2
    decay_mult: 0
  }
  convolution_param {
    num_output: 16
    pad: 1
    kernel_size: 3
    stride: 1
    weight_filler {
      type: "xavier"
    }
    bias_filler {
      type: "constant"
      value: 0
    }
  }
}
layer {
  name: "conv4_3_norm_mbox_loc_perm"
  type: "Permute"
  bottom: "conv4_3_norm_mbox_loc"
  top: "conv4_3_norm_mbox_loc_perm"
  permute_param {
    order: 0
    order: 2
    order: 3
    order: 1
  }
}
layer {
  name: "conv4_3_norm_mbox_loc_flat"
  type: "Flatten"
  bottom: "conv4_3_norm_mbox_loc_perm"
  top: "conv4_3_norm_mbox_loc_flat"
  flatten_param {
    axis: 1
  }
}
layer {
  name: "conv4_3_norm_mbox_conf"
  type: "Convolution"
  bottom: "conv4_3_norm"
  top: "conv4_3_norm_mbox_conf"
  param {
    lr_mult: 1
    decay_mult: 1
  }
  param {
    lr_mult: 2
    decay_mult: 0
  }
  convolution_param {
    num_output: 88
    pad: 1
    kernel_size: 3
    stride: 1
    weight_filler {
      type: "xavier"
    }
    bias_filler {
      type: "constant"
      value: 0
    }
  }
}
layer {
  name: "conv4_3_norm_mbox_conf_perm"
  type: "Permute"
  bottom: "conv4_3_norm_mbox_conf"
  top: "conv4_3_norm_mbox_conf_perm"
  permute_param {
    order: 0
    order: 2
    order: 3
    order: 1
  }
}
layer {
  name: "conv4_3_norm_mbox_conf_flat"
  type: "Flatten"
  bottom: "conv4_3_norm_mbox_conf_perm"
  top: "conv4_3_norm_mbox_conf_flat"
  flatten_param {
    axis: 1
  }
}
layer {
  name: "conv4_3_norm_mbox_priorbox"
  type: "PriorBox"
  bottom: "conv4_3_norm"
  bottom: "data"
  top: "conv4_3_norm_mbox_priorbox"
  prior_box_param {
    min_size: 30
    max_size: 60
    aspect_ratio: 2
    flip: true
    clip: false
    variance: 0.1
    variance: 0.1
    variance: 0.2
    variance: 0.2
    step: 8
    offset: 0.5
  }
}
layer {
  name: "fc7_mbox_loc"
  type: "Convolution"
  bottom: "fc7"
  top: "fc7_mbox_loc"
  param {
    lr_mult: 1
    decay_mult: 1
  }
  param {
    lr_mult: 2
    decay_mult: 0
  }
  convolution_param {
    num_output: 24
    pad: 1
    kernel_size: 3
    stride: 1
    weight_filler {
      type: "xavier"
    }
    bias_filler {
      type: "constant"
      value: 0
    }
  }
}
layer {
  name: "fc7_mbox_loc_perm"
  type: "Permute"
  bottom: "fc7_mbox_loc"
  top: "fc7_mbox_loc_perm"
  permute_param {
    order: 0
    order: 2
    order: 3
    order: 1
  }
}
layer {
  name: "fc7_mbox_loc_flat"
  type: "Flatten"
  bottom: "fc7_mbox_loc_perm"
  top: "fc7_mbox_loc_flat"
  flatten_param {
    axis: 1
  }
}
layer {
  name: "fc7_mbox_conf"
  type: "Convolution"
  bottom: "fc7"
  top: "fc7_mbox_conf"
  param {
    lr_mult: 1
    decay_mult: 1
  }
  param {
    lr_mult: 2
    decay_mult: 0
  }
  convolution_param {
    num_output: 132
    pad: 1
    kernel_size: 3
    stride: 1
    weight_filler {
      type: "xavier"
    }
    bias_filler {
      type: "constant"
      value: 0
    }
  }
}
layer {
  name: "fc7_mbox_conf_perm"
  type: "Permute"
  bottom: "fc7_mbox_conf"
  top: "fc7_mbox_conf_perm"
  permute_param {
    order: 0
    order: 2
    order: 3
    order: 1
  }
}
layer {
  name: "fc7_mbox_conf_flat"
  type: "Flatten"
  bottom: "fc7_mbox_conf_perm"
  top: "fc7_mbox_conf_flat"
  flatten_param {
    axis: 1
  }
}
layer {
  name: "fc7_mbox_priorbox"
  type: "PriorBox"
  bottom: "fc7"
  bottom: "data"
  top: "fc7_mbox_priorbox"
  prior_box_param {
    min_size: 60
    max_size: 111
    aspect_ratio: 2
    aspect_ratio: 3
    flip: true
    clip: false
    variance: 0.1
    variance: 0.1
    variance: 0.2
    variance: 0.2
    step: 16
    offset: 0.5
  }
}
layer {
  name: "conv6_2_mbox_loc"
  type: "Convolution"
  bottom: "conv6_2"
  top: "conv6_2_mbox_loc"
  param {
    lr_mult: 1
    decay_mult: 1
  }
  param {
    lr_mult: 2
    decay_mult: 0
  }
  convolution_param {
    num_output: 24
    pad: 1
    kernel_size: 3
    stride: 1
    weight_filler {
      type: "xavier"
    }
    bias_filler {
      type: "constant"
      value: 0
    }
  }
}
layer {
  name: "conv6_2_mbox_loc_perm"
  type: "Permute"
  bottom: "conv6_2_mbox_loc"
  top: "conv6_2_mbox_loc_perm"
  permute_param {
    order: 0
    order: 2
    order: 3
    order: 1
  }
}
layer {
  name: "conv6_2_mbox_loc_flat"
  type: "Flatten"
  bottom: "conv6_2_mbox_loc_perm"
  top: "conv6_2_mbox_loc_flat"
  flatten_param {
    axis: 1
  }
}
layer {
  name: "conv6_2_mbox_conf"
  type: "Convolution"
  bottom: "conv6_2"
  top: "conv6_2_mbox_conf"
  param {
    lr_mult: 1
    decay_mult: 1
  }
  param {
    lr_mult: 2
    decay_mult: 0
  }
  convolution_param {
    num_output: 132
    pad: 1
    kernel_size: 3
    stride: 1
    weight_filler {
      type: "xavier"
    }
    bias_filler {
      type: "constant"
      value: 0
    }
  }
}
layer {
  name: "conv6_2_mbox_conf_perm"
  type: "Permute"
  bottom: "conv6_2_mbox_conf"
  top: "conv6_2_mbox_conf_perm"
  permute_param {
    order: 0
    order: 2
    order: 3
    order: 1
  }
}
layer {
  name: "conv6_2_mbox_conf_flat"
  type: "Flatten"
  bottom: "conv6_2_mbox_conf_perm"
  top: "conv6_2_mbox_conf_flat"
  flatten_param {
    axis: 1
  }
}
layer {
  name: "conv6_2_mbox_priorbox"
  type: "PriorBox"
  bottom: "conv6_2"
  bottom: "data"
  top: "conv6_2_mbox_priorbox"
  prior_box_param {
    min_size: 111
    max_size: 162
    aspect_ratio: 2
    aspect_ratio: 3
    flip: true
    clip: false
    variance: 0.1
    variance: 0.1
    variance: 0.2
    variance: 0.2
    step: 32
    offset: 0.5
  }
}
layer {
  name: "conv7_2_mbox_loc"
  type: "Convolution"
  bottom: "conv7_2"
  top: "conv7_2_mbox_loc"
  param {
    lr_mult: 1
    decay_mult: 1
  }
  param {
    lr_mult: 2
    decay_mult: 0
  }
  convolution_param {
    num_output: 24
    pad: 1
    kernel_size: 3
    stride: 1
    weight_filler {
      type: "xavier"
    }
    bias_filler {
      type: "constant"
      value: 0
    }
  }
}
layer {
  name: "conv7_2_mbox_loc_perm"
  type: "Permute"
  bottom: "conv7_2_mbox_loc"
  top: "conv7_2_mbox_loc_perm"
  permute_param {
    order: 0
    order: 2
    order: 3
    order: 1
  }
}
layer {
  name: "conv7_2_mbox_loc_flat"
  type: "Flatten"
  bottom: "conv7_2_mbox_loc_perm"
  top: "conv7_2_mbox_loc_flat"
  flatten_param {
    axis: 1
  }
}
layer {
  name: "conv7_2_mbox_conf"
  type: "Convolution"
  bottom: "conv7_2"
  top: "conv7_2_mbox_conf"
  param {
    lr_mult: 1
    decay_mult: 1
  }
  param {
    lr_mult: 2
    decay_mult: 0
  }
  convolution_param {
    num_output: 132
    pad: 1
    kernel_size: 3
    stride: 1
    weight_filler {
      type: "xavier"
    }
    bias_filler {
      type: "constant"
      value: 0
    }
  }
}
layer {
  name: "conv7_2_mbox_conf_perm"
  type: "Permute"
  bottom: "conv7_2_mbox_conf"
  top: "conv7_2_mbox_conf_perm"
  permute_param {
    order: 0
    order: 2
    order: 3
    order: 1
  }
}
layer {
  name: "conv7_2_mbox_conf_flat"
  type: "Flatten"
  bottom: "conv7_2_mbox_conf_perm"
  top: "conv7_2_mbox_conf_flat"
  flatten_param {
    axis: 1
  }
}
layer {
  name: "conv7_2_mbox_priorbox"
  type: "PriorBox"
  bottom: "conv7_2"
  bottom: "data"
  top: "conv7_2_mbox_priorbox"
  prior_box_param {
    min_size: 162
    max_size: 213
    aspect_ratio: 2
    aspect_ratio: 3
    flip: true
    clip: false
    variance: 0.1
    variance: 0.1
    variance: 0.2
    variance: 0.2
    step: 64
    offset: 0.5
  }
}
layer {
  name: "conv8_2_mbox_loc"
  type: "Convolution"
  bottom: "conv8_2"
  top: "conv8_2_mbox_loc"
  param {
    lr_mult: 1
    decay_mult: 1
  }
  param {
    lr_mult: 2
    decay_mult: 0
  }
  convolution_param {
    num_output: 16
    pad: 1
    kernel_size: 3
    stride: 1
    weight_filler {
      type: "xavier"
    }
    bias_filler {
      type: "constant"
      value: 0
    }
  }
}
layer {
  name: "conv8_2_mbox_loc_perm"
  type: "Permute"
  bottom: "conv8_2_mbox_loc"
  top: "conv8_2_mbox_loc_perm"
  permute_param {
    order: 0
    order: 2
    order: 3
    order: 1
  }
}
layer {
  name: "conv8_2_mbox_loc_flat"
  type: "Flatten"
  bottom: "conv8_2_mbox_loc_perm"
  top: "conv8_2_mbox_loc_flat"
  flatten_param {
    axis: 1
  }
}
layer {
  name: "conv8_2_mbox_conf"
  type: "Convolution"
  bottom: "conv8_2"
  top: "conv8_2_mbox_conf"
  param {
    lr_mult: 1
    decay_mult: 1
  }
  param {
    lr_mult: 2
    decay_mult: 0
  }
  convolution_param {
    num_output: 88
    pad: 1
    kernel_size: 3
    stride: 1
    weight_filler {
      type: "xavier"
    }
    bias_filler {
      type: "constant"
      value: 0
    }
  }
}
layer {
  name: "conv8_2_mbox_conf_perm"
  type: "Permute"
  bottom: "conv8_2_mbox_conf"
  top: "conv8_2_mbox_conf_perm"
  permute_param {
    order: 0
    order: 2
    order: 3
    order: 1
  }
}
layer {
  name: "conv8_2_mbox_conf_flat"
  type: "Flatten"
  bottom: "conv8_2_mbox_conf_perm"
  top: "conv8_2_mbox_conf_flat"
  flatten_param {
    axis: 1
  }
}
layer {
  name: "conv8_2_mbox_priorbox"
  type: "PriorBox"
  bottom: "conv8_2"
  bottom: "data"
  top: "conv8_2_mbox_priorbox"
  prior_box_param {
    min_size: 213
    max_size: 264
    aspect_ratio: 2
    flip: true
    clip: false
    variance: 0.1
    variance: 0.1
    variance: 0.2
    variance: 0.2
    step: 100
    offset: 0.5
  }
}
layer {
  name: "conv9_2_mbox_loc"
  type: "Convolution"
  bottom: "conv9_2"
  top: "conv9_2_mbox_loc"
  param {
    lr_mult: 1
    decay_mult: 1
  }
  param {
    lr_mult: 2
    decay_mult: 0
  }
  convolution_param {
    num_output: 16
    pad: 1
    kernel_size: 3
    stride: 1
    weight_filler {
      type: "xavier"
    }
    bias_filler {
      type: "constant"
      value: 0
    }
  }
}
layer {
  name: "conv9_2_mbox_loc_perm"
  type: "Permute"
  bottom: "conv9_2_mbox_loc"
  top: "conv9_2_mbox_loc_perm"
  permute_param {
    order: 0
    order: 2
    order: 3
    order: 1
  }
}
layer {
  name: "conv9_2_mbox_loc_flat"
  type: "Flatten"
  bottom: "conv9_2_mbox_loc_perm"
  top: "conv9_2_mbox_loc_flat"
  flatten_param {
    axis: 1
  }
}
layer {
  name: "conv9_2_mbox_conf"
  type: "Convolution"
  bottom: "conv9_2"
  top: "conv9_2_mbox_conf"
  param {
    lr_mult: 1
    decay_mult: 1
  }
  param {
    lr_mult: 2
    decay_mult: 0
  }
  convolution_param {
    num_output: 88
    pad: 1
    kernel_size: 3
    stride: 1
    weight_filler {
      type: "xavier"
    }
    bias_filler {
      type: "constant"
      value: 0
    }
  }
}
layer {
  name: "conv9_2_mbox_conf_perm"
  type: "Permute"
  bottom: "conv9_2_mbox_conf"
  top: "conv9_2_mbox_conf_perm"
  permute_param {
    order: 0
    order: 2
    order: 3
    order: 1
  }
}
layer {
  name: "conv9_2_mbox_conf_flat"
  type: "Flatten"
  bottom: "conv9_2_mbox_conf_perm"
  top: "conv9_2_mbox_conf_flat"
  flatten_param {
    axis: 1
  }
}
layer {
  name: "conv9_2_mbox_priorbox"
  type: "PriorBox"
  bottom: "conv9_2"
  bottom: "data"
  top: "conv9_2_mbox_priorbox"
  prior_box_param {
    min_size: 264
    max_size: 315
    aspect_ratio: 2
    flip: true
    clip: false
    variance: 0.1
    variance: 0.1
    variance: 0.2
    variance: 0.2
    step: 300
    offset: 0.5
  }
}
layer {
  name: "mbox_loc"
  type: "Concat"
  bottom: "conv4_3_norm_mbox_loc_flat"
  bottom: "fc7_mbox_loc_flat"
  bottom: "conv6_2_mbox_loc_flat"
  bottom: "conv7_2_mbox_loc_flat"
  bottom: "conv8_2_mbox_loc_flat"
  bottom: "conv9_2_mbox_loc_flat"
  top: "mbox_loc"
  concat_param {
    axis: 1
  }
}
layer {
  name: "mbox_conf"
  type: "Concat"
  bottom: "conv4_3_norm_mbox_conf_flat"
  bottom: "fc7_mbox_conf_flat"
  bottom: "conv6_2_mbox_conf_flat"
  bottom: "conv7_2_mbox_conf_flat"
  bottom: "conv8_2_mbox_conf_flat"
  bottom: "conv9_2_mbox_conf_flat"
  top: "mbox_conf"
  concat_param {
    axis: 1
  }
}
layer {
  name: "mbox_priorbox"
  type: "Concat"
  bottom: "conv4_3_norm_mbox_priorbox"
  bottom: "fc7_mbox_priorbox"
  bottom: "conv6_2_mbox_priorbox"
  bottom: "conv7_2_mbox_priorbox"
  bottom: "conv8_2_mbox_priorbox"
  bottom: "conv9_2_mbox_priorbox"
  top: "mbox_priorbox"
  concat_param {
    axis: 2
  }
}
layer {
  name: "mbox_conf_reshape"
  type: "Reshape"
  bottom: "mbox_conf"
  top: "mbox_conf_reshape"
  reshape_param {
    shape {
      dim: 0
      dim: -1
      dim: 22
    }
  }
}
layer {
  name: "mbox_conf_softmax"
  type: "Softmax"
  bottom: "mbox_conf_reshape"
  top: "mbox_conf_softmax"
  softmax_param {
    axis: 2
  }
}
layer {
  name: "mbox_conf_flatten"
  type: "Flatten"
  bottom: "mbox_conf_softmax"
  top: "mbox_conf_flatten"
  flatten_param {
    axis: 1
  }
}
layer {
  name: "detection_out"
  type: "DetectionOutput"
  bottom: "mbox_loc"
  bottom: "mbox_conf_flatten"
  bottom: "mbox_priorbox"
  top: "detection_out"
  include {
    phase: TEST
  }
  detection_output_param {
    num_classes: 22
    share_location: true
    background_label_id: 0
    nms_param {
      nms_threshold: 0.45
      top_k: 400
    }
    save_output_param {
      output_directory: "/home/dhall/data/VOCdevkit/results/VOC2007/SSD_300x300_score/Main"
      output_name_prefix: "comp4_det_test_"
      output_format: "VOC"
      label_map_file: "data/VOC0712/labelmap_voc.prototxt"
      name_size_file: "data/VOC0712/test_name_size.txt"
      num_test_image: 53
    }
    code_type: CENTER_SIZE
    keep_top_k: 200
    confidence_threshold: 0.01
  }
}
layer {
  name: "detection_eval"
  type: "DetectionEvaluate"
  bottom: "detection_out"
  bottom: "label"
  top: "detection_eval"
  include {
    phase: TEST
  }
  detection_evaluate_param {
    num_classes: 22
    background_label_id: 0
    overlap_threshold: 0.5
    evaluate_difficult_gt: false
    name_size_file: "data/VOC0712/test_name_size.txt"
  }
}
I0121 11:36:31.364094 28306 layer_factory.hpp:77] Creating layer data
I0121 11:36:31.364156 28306 net.cpp:100] Creating Layer data
I0121 11:36:31.364166 28306 net.cpp:408] data -> data
I0121 11:36:31.364178 28306 net.cpp:408] data -> label
I0121 11:36:31.365823 28326 db_lmdb.cpp:35] Opened lmdb examples/VOC0712/VOC0712_test_lmdb
I0121 11:36:31.368754 28306 annotated_data_layer.cpp:62] output data size: 8,3,300,300
I0121 11:36:31.384938 28306 net.cpp:150] Setting up data
I0121 11:36:31.384973 28306 net.cpp:157] Top shape: 8 3 300 300 (2160000)
I0121 11:36:31.384979 28306 net.cpp:157] Top shape: 1 1 4 8 (32)
I0121 11:36:31.384982 28306 net.cpp:165] Memory required for data: 8640128
I0121 11:36:31.384989 28306 layer_factory.hpp:77] Creating layer data_data_0_split
I0121 11:36:31.385005 28306 net.cpp:100] Creating Layer data_data_0_split
I0121 11:36:31.385010 28306 net.cpp:434] data_data_0_split <- data
I0121 11:36:31.385018 28306 net.cpp:408] data_data_0_split -> data_data_0_split_0
I0121 11:36:31.385031 28306 net.cpp:408] data_data_0_split -> data_data_0_split_1
I0121 11:36:31.385038 28306 net.cpp:408] data_data_0_split -> data_data_0_split_2
I0121 11:36:31.385046 28306 net.cpp:408] data_data_0_split -> data_data_0_split_3
I0121 11:36:31.385051 28306 net.cpp:408] data_data_0_split -> data_data_0_split_4
I0121 11:36:31.385057 28306 net.cpp:408] data_data_0_split -> data_data_0_split_5
I0121 11:36:31.385062 28306 net.cpp:408] data_data_0_split -> data_data_0_split_6
I0121 11:36:31.385249 28306 net.cpp:150] Setting up data_data_0_split
I0121 11:36:31.385262 28306 net.cpp:157] Top shape: 8 3 300 300 (2160000)
I0121 11:36:31.385265 28306 net.cpp:157] Top shape: 8 3 300 300 (2160000)
I0121 11:36:31.385270 28306 net.cpp:157] Top shape: 8 3 300 300 (2160000)
I0121 11:36:31.385274 28306 net.cpp:157] Top shape: 8 3 300 300 (2160000)
I0121 11:36:31.385278 28306 net.cpp:157] Top shape: 8 3 300 300 (2160000)
I0121 11:36:31.385282 28306 net.cpp:157] Top shape: 8 3 300 300 (2160000)
I0121 11:36:31.385287 28306 net.cpp:157] Top shape: 8 3 300 300 (2160000)
I0121 11:36:31.385289 28306 net.cpp:165] Memory required for data: 69120128
I0121 11:36:31.385293 28306 layer_factory.hpp:77] Creating layer conv1_1
I0121 11:36:31.385308 28306 net.cpp:100] Creating Layer conv1_1
I0121 11:36:31.385311 28306 net.cpp:434] conv1_1 <- data_data_0_split_0
I0121 11:36:31.385318 28306 net.cpp:408] conv1_1 -> conv1_1
I0121 11:36:31.389158 28306 net.cpp:150] Setting up conv1_1
I0121 11:36:31.389180 28306 net.cpp:157] Top shape: 8 64 300 300 (46080000)
I0121 11:36:31.389189 28306 net.cpp:165] Memory required for data: 253440128
I0121 11:36:31.389206 28306 layer_factory.hpp:77] Creating layer relu1_1
I0121 11:36:31.389219 28306 net.cpp:100] Creating Layer relu1_1
I0121 11:36:31.389226 28306 net.cpp:434] relu1_1 <- conv1_1
I0121 11:36:31.389235 28306 net.cpp:395] relu1_1 -> conv1_1 (in-place)
I0121 11:36:31.389875 28306 net.cpp:150] Setting up relu1_1
I0121 11:36:31.389891 28306 net.cpp:157] Top shape: 8 64 300 300 (46080000)
I0121 11:36:31.389895 28306 net.cpp:165] Memory required for data: 437760128
I0121 11:36:31.389899 28306 layer_factory.hpp:77] Creating layer conv1_2
I0121 11:36:31.389911 28306 net.cpp:100] Creating Layer conv1_2
I0121 11:36:31.389916 28306 net.cpp:434] conv1_2 <- conv1_1
I0121 11:36:31.389924 28306 net.cpp:408] conv1_2 -> conv1_2
I0121 11:36:31.395633 28306 net.cpp:150] Setting up conv1_2
I0121 11:36:31.395653 28306 net.cpp:157] Top shape: 8 64 300 300 (46080000)
I0121 11:36:31.395656 28306 net.cpp:165] Memory required for data: 622080128
I0121 11:36:31.395668 28306 layer_factory.hpp:77] Creating layer relu1_2
I0121 11:36:31.395675 28306 net.cpp:100] Creating Layer relu1_2
I0121 11:36:31.395679 28306 net.cpp:434] relu1_2 <- conv1_2
I0121 11:36:31.395684 28306 net.cpp:395] relu1_2 -> conv1_2 (in-place)
I0121 11:36:31.397156 28306 net.cpp:150] Setting up relu1_2
I0121 11:36:31.397167 28306 net.cpp:157] Top shape: 8 64 300 300 (46080000)
I0121 11:36:31.397171 28306 net.cpp:165] Memory required for data: 806400128
I0121 11:36:31.397174 28306 layer_factory.hpp:77] Creating layer pool1
I0121 11:36:31.397181 28306 net.cpp:100] Creating Layer pool1
I0121 11:36:31.397186 28306 net.cpp:434] pool1 <- conv1_2
I0121 11:36:31.397192 28306 net.cpp:408] pool1 -> pool1
I0121 11:36:31.397248 28306 net.cpp:150] Setting up pool1
I0121 11:36:31.397254 28306 net.cpp:157] Top shape: 8 64 150 150 (11520000)
I0121 11:36:31.397258 28306 net.cpp:165] Memory required for data: 852480128
I0121 11:36:31.397261 28306 layer_factory.hpp:77] Creating layer conv2_1
I0121 11:36:31.397271 28306 net.cpp:100] Creating Layer conv2_1
I0121 11:36:31.397275 28306 net.cpp:434] conv2_1 <- pool1
I0121 11:36:31.397281 28306 net.cpp:408] conv2_1 -> conv2_1
I0121 11:36:31.400971 28306 net.cpp:150] Setting up conv2_1
I0121 11:36:31.400987 28306 net.cpp:157] Top shape: 8 128 150 150 (23040000)
I0121 11:36:31.400991 28306 net.cpp:165] Memory required for data: 944640128
I0121 11:36:31.401001 28306 layer_factory.hpp:77] Creating layer relu2_1
I0121 11:36:31.401010 28306 net.cpp:100] Creating Layer relu2_1
I0121 11:36:31.401015 28306 net.cpp:434] relu2_1 <- conv2_1
I0121 11:36:31.401020 28306 net.cpp:395] relu2_1 -> conv2_1 (in-place)
I0121 11:36:31.401865 28306 net.cpp:150] Setting up relu2_1
I0121 11:36:31.401875 28306 net.cpp:157] Top shape: 8 128 150 150 (23040000)
I0121 11:36:31.401880 28306 net.cpp:165] Memory required for data: 1036800128
I0121 11:36:31.401883 28306 layer_factory.hpp:77] Creating layer conv2_2
I0121 11:36:31.401893 28306 net.cpp:100] Creating Layer conv2_2
I0121 11:36:31.401897 28306 net.cpp:434] conv2_2 <- conv2_1
I0121 11:36:31.401903 28306 net.cpp:408] conv2_2 -> conv2_2
I0121 11:36:31.405560 28306 net.cpp:150] Setting up conv2_2
I0121 11:36:31.405581 28306 net.cpp:157] Top shape: 8 128 150 150 (23040000)
I0121 11:36:31.405588 28306 net.cpp:165] Memory required for data: 1128960128
I0121 11:36:31.405599 28306 layer_factory.hpp:77] Creating layer relu2_2
I0121 11:36:31.405609 28306 net.cpp:100] Creating Layer relu2_2
I0121 11:36:31.405617 28306 net.cpp:434] relu2_2 <- conv2_2
I0121 11:36:31.405627 28306 net.cpp:395] relu2_2 -> conv2_2 (in-place)
I0121 11:36:31.406590 28306 net.cpp:150] Setting up relu2_2
I0121 11:36:31.406606 28306 net.cpp:157] Top shape: 8 128 150 150 (23040000)
I0121 11:36:31.406610 28306 net.cpp:165] Memory required for data: 1221120128
I0121 11:36:31.406615 28306 layer_factory.hpp:77] Creating layer pool2
I0121 11:36:31.406621 28306 net.cpp:100] Creating Layer pool2
I0121 11:36:31.406639 28306 net.cpp:434] pool2 <- conv2_2
I0121 11:36:31.406647 28306 net.cpp:408] pool2 -> pool2
I0121 11:36:31.406708 28306 net.cpp:150] Setting up pool2
I0121 11:36:31.406716 28306 net.cpp:157] Top shape: 8 128 75 75 (5760000)
I0121 11:36:31.406719 28306 net.cpp:165] Memory required for data: 1244160128
I0121 11:36:31.406723 28306 layer_factory.hpp:77] Creating layer conv3_1
I0121 11:36:31.406734 28306 net.cpp:100] Creating Layer conv3_1
I0121 11:36:31.406738 28306 net.cpp:434] conv3_1 <- pool2
I0121 11:36:31.406744 28306 net.cpp:408] conv3_1 -> conv3_1
I0121 11:36:31.411650 28306 net.cpp:150] Setting up conv3_1
I0121 11:36:31.411667 28306 net.cpp:157] Top shape: 8 256 75 75 (11520000)
I0121 11:36:31.411671 28306 net.cpp:165] Memory required for data: 1290240128
I0121 11:36:31.411681 28306 layer_factory.hpp:77] Creating layer relu3_1
I0121 11:36:31.411689 28306 net.cpp:100] Creating Layer relu3_1
I0121 11:36:31.411692 28306 net.cpp:434] relu3_1 <- conv3_1
I0121 11:36:31.411698 28306 net.cpp:395] relu3_1 -> conv3_1 (in-place)
I0121 11:36:31.412609 28306 net.cpp:150] Setting up relu3_1
I0121 11:36:31.412621 28306 net.cpp:157] Top shape: 8 256 75 75 (11520000)
I0121 11:36:31.412624 28306 net.cpp:165] Memory required for data: 1336320128
I0121 11:36:31.412628 28306 layer_factory.hpp:77] Creating layer conv3_2
I0121 11:36:31.412642 28306 net.cpp:100] Creating Layer conv3_2
I0121 11:36:31.412647 28306 net.cpp:434] conv3_2 <- conv3_1
I0121 11:36:31.412654 28306 net.cpp:408] conv3_2 -> conv3_2
I0121 11:36:31.420701 28306 net.cpp:150] Setting up conv3_2
I0121 11:36:31.420718 28306 net.cpp:157] Top shape: 8 256 75 75 (11520000)
I0121 11:36:31.420723 28306 net.cpp:165] Memory required for data: 1382400128
I0121 11:36:31.420730 28306 layer_factory.hpp:77] Creating layer relu3_2
I0121 11:36:31.420737 28306 net.cpp:100] Creating Layer relu3_2
I0121 11:36:31.420742 28306 net.cpp:434] relu3_2 <- conv3_2
I0121 11:36:31.420749 28306 net.cpp:395] relu3_2 -> conv3_2 (in-place)
I0121 11:36:31.421603 28306 net.cpp:150] Setting up relu3_2
I0121 11:36:31.421622 28306 net.cpp:157] Top shape: 8 256 75 75 (11520000)
I0121 11:36:31.421629 28306 net.cpp:165] Memory required for data: 1428480128
I0121 11:36:31.421635 28306 layer_factory.hpp:77] Creating layer conv3_3
I0121 11:36:31.421656 28306 net.cpp:100] Creating Layer conv3_3
I0121 11:36:31.421664 28306 net.cpp:434] conv3_3 <- conv3_2
I0121 11:36:31.421676 28306 net.cpp:408] conv3_3 -> conv3_3
I0121 11:36:31.429816 28306 net.cpp:150] Setting up conv3_3
I0121 11:36:31.429839 28306 net.cpp:157] Top shape: 8 256 75 75 (11520000)
I0121 11:36:31.429847 28306 net.cpp:165] Memory required for data: 1474560128
I0121 11:36:31.429857 28306 layer_factory.hpp:77] Creating layer relu3_3
I0121 11:36:31.429870 28306 net.cpp:100] Creating Layer relu3_3
I0121 11:36:31.429877 28306 net.cpp:434] relu3_3 <- conv3_3
I0121 11:36:31.429886 28306 net.cpp:395] relu3_3 -> conv3_3 (in-place)
I0121 11:36:31.430763 28306 net.cpp:150] Setting up relu3_3
I0121 11:36:31.430779 28306 net.cpp:157] Top shape: 8 256 75 75 (11520000)
I0121 11:36:31.430783 28306 net.cpp:165] Memory required for data: 1520640128
I0121 11:36:31.430788 28306 layer_factory.hpp:77] Creating layer pool3
I0121 11:36:31.430796 28306 net.cpp:100] Creating Layer pool3
I0121 11:36:31.430800 28306 net.cpp:434] pool3 <- conv3_3
I0121 11:36:31.430809 28306 net.cpp:408] pool3 -> pool3
I0121 11:36:31.430871 28306 net.cpp:150] Setting up pool3
I0121 11:36:31.430877 28306 net.cpp:157] Top shape: 8 256 38 38 (2957312)
I0121 11:36:31.430881 28306 net.cpp:165] Memory required for data: 1532469376
I0121 11:36:31.430884 28306 layer_factory.hpp:77] Creating layer conv4_1
I0121 11:36:31.430896 28306 net.cpp:100] Creating Layer conv4_1
I0121 11:36:31.430899 28306 net.cpp:434] conv4_1 <- pool3
I0121 11:36:31.430905 28306 net.cpp:408] conv4_1 -> conv4_1
I0121 11:36:31.443886 28306 net.cpp:150] Setting up conv4_1
I0121 11:36:31.443905 28306 net.cpp:157] Top shape: 8 512 38 38 (5914624)
I0121 11:36:31.443909 28306 net.cpp:165] Memory required for data: 1556127872
I0121 11:36:31.443938 28306 layer_factory.hpp:77] Creating layer relu4_1
I0121 11:36:31.443948 28306 net.cpp:100] Creating Layer relu4_1
I0121 11:36:31.443951 28306 net.cpp:434] relu4_1 <- conv4_1
I0121 11:36:31.443958 28306 net.cpp:395] relu4_1 -> conv4_1 (in-place)
I0121 11:36:31.444885 28306 net.cpp:150] Setting up relu4_1
I0121 11:36:31.444897 28306 net.cpp:157] Top shape: 8 512 38 38 (5914624)
I0121 11:36:31.444901 28306 net.cpp:165] Memory required for data: 1579786368
I0121 11:36:31.444905 28306 layer_factory.hpp:77] Creating layer conv4_2
I0121 11:36:31.444917 28306 net.cpp:100] Creating Layer conv4_2
I0121 11:36:31.444922 28306 net.cpp:434] conv4_2 <- conv4_1
I0121 11:36:31.444928 28306 net.cpp:408] conv4_2 -> conv4_2
I0121 11:36:31.468634 28306 net.cpp:150] Setting up conv4_2
I0121 11:36:31.468662 28306 net.cpp:157] Top shape: 8 512 38 38 (5914624)
I0121 11:36:31.468667 28306 net.cpp:165] Memory required for data: 1603444864
I0121 11:36:31.468682 28306 layer_factory.hpp:77] Creating layer relu4_2
I0121 11:36:31.468693 28306 net.cpp:100] Creating Layer relu4_2
I0121 11:36:31.468699 28306 net.cpp:434] relu4_2 <- conv4_2
I0121 11:36:31.468705 28306 net.cpp:395] relu4_2 -> conv4_2 (in-place)
I0121 11:36:31.469851 28306 net.cpp:150] Setting up relu4_2
I0121 11:36:31.469863 28306 net.cpp:157] Top shape: 8 512 38 38 (5914624)
I0121 11:36:31.469866 28306 net.cpp:165] Memory required for data: 1627103360
I0121 11:36:31.469871 28306 layer_factory.hpp:77] Creating layer conv4_3
I0121 11:36:31.469883 28306 net.cpp:100] Creating Layer conv4_3
I0121 11:36:31.469888 28306 net.cpp:434] conv4_3 <- conv4_2
I0121 11:36:31.469895 28306 net.cpp:408] conv4_3 -> conv4_3
I0121 11:36:31.494341 28306 net.cpp:150] Setting up conv4_3
I0121 11:36:31.494370 28306 net.cpp:157] Top shape: 8 512 38 38 (5914624)
I0121 11:36:31.494374 28306 net.cpp:165] Memory required for data: 1650761856
I0121 11:36:31.494385 28306 layer_factory.hpp:77] Creating layer relu4_3
I0121 11:36:31.494393 28306 net.cpp:100] Creating Layer relu4_3
I0121 11:36:31.494400 28306 net.cpp:434] relu4_3 <- conv4_3
I0121 11:36:31.494407 28306 net.cpp:395] relu4_3 -> conv4_3 (in-place)
I0121 11:36:31.495188 28306 net.cpp:150] Setting up relu4_3
I0121 11:36:31.495203 28306 net.cpp:157] Top shape: 8 512 38 38 (5914624)
I0121 11:36:31.495208 28306 net.cpp:165] Memory required for data: 1674420352
I0121 11:36:31.495211 28306 layer_factory.hpp:77] Creating layer conv4_3_relu4_3_0_split
I0121 11:36:31.495220 28306 net.cpp:100] Creating Layer conv4_3_relu4_3_0_split
I0121 11:36:31.495224 28306 net.cpp:434] conv4_3_relu4_3_0_split <- conv4_3
I0121 11:36:31.495230 28306 net.cpp:408] conv4_3_relu4_3_0_split -> conv4_3_relu4_3_0_split_0
I0121 11:36:31.495239 28306 net.cpp:408] conv4_3_relu4_3_0_split -> conv4_3_relu4_3_0_split_1
I0121 11:36:31.495298 28306 net.cpp:150] Setting up conv4_3_relu4_3_0_split
I0121 11:36:31.495306 28306 net.cpp:157] Top shape: 8 512 38 38 (5914624)
I0121 11:36:31.495309 28306 net.cpp:157] Top shape: 8 512 38 38 (5914624)
I0121 11:36:31.495313 28306 net.cpp:165] Memory required for data: 1721737344
I0121 11:36:31.495316 28306 layer_factory.hpp:77] Creating layer pool4
I0121 11:36:31.495328 28306 net.cpp:100] Creating Layer pool4
I0121 11:36:31.495332 28306 net.cpp:434] pool4 <- conv4_3_relu4_3_0_split_0
I0121 11:36:31.495338 28306 net.cpp:408] pool4 -> pool4
I0121 11:36:31.495388 28306 net.cpp:150] Setting up pool4
I0121 11:36:31.495401 28306 net.cpp:157] Top shape: 8 512 19 19 (1478656)
I0121 11:36:31.495404 28306 net.cpp:165] Memory required for data: 1727651968
I0121 11:36:31.495409 28306 layer_factory.hpp:77] Creating layer conv5_1
I0121 11:36:31.495422 28306 net.cpp:100] Creating Layer conv5_1
I0121 11:36:31.495426 28306 net.cpp:434] conv5_1 <- pool4
I0121 11:36:31.495432 28306 net.cpp:408] conv5_1 -> conv5_1
I0121 11:36:31.519352 28306 net.cpp:150] Setting up conv5_1
I0121 11:36:31.519390 28306 net.cpp:157] Top shape: 8 512 19 19 (1478656)
I0121 11:36:31.519397 28306 net.cpp:165] Memory required for data: 1733566592
I0121 11:36:31.519443 28306 layer_factory.hpp:77] Creating layer relu5_1
I0121 11:36:31.519459 28306 net.cpp:100] Creating Layer relu5_1
I0121 11:36:31.519467 28306 net.cpp:434] relu5_1 <- conv5_1
I0121 11:36:31.519480 28306 net.cpp:395] relu5_1 -> conv5_1 (in-place)
I0121 11:36:31.520371 28306 net.cpp:150] Setting up relu5_1
I0121 11:36:31.520390 28306 net.cpp:157] Top shape: 8 512 19 19 (1478656)
I0121 11:36:31.520396 28306 net.cpp:165] Memory required for data: 1739481216
I0121 11:36:31.520403 28306 layer_factory.hpp:77] Creating layer conv5_2
I0121 11:36:31.520421 28306 net.cpp:100] Creating Layer conv5_2
I0121 11:36:31.520428 28306 net.cpp:434] conv5_2 <- conv5_1
I0121 11:36:31.520440 28306 net.cpp:408] conv5_2 -> conv5_2
I0121 11:36:31.551599 28306 net.cpp:150] Setting up conv5_2
I0121 11:36:31.551637 28306 net.cpp:157] Top shape: 8 512 19 19 (1478656)
I0121 11:36:31.551645 28306 net.cpp:165] Memory required for data: 1745395840
I0121 11:36:31.551658 28306 layer_factory.hpp:77] Creating layer relu5_2
I0121 11:36:31.551672 28306 net.cpp:100] Creating Layer relu5_2
I0121 11:36:31.551679 28306 net.cpp:434] relu5_2 <- conv5_2
I0121 11:36:31.551692 28306 net.cpp:395] relu5_2 -> conv5_2 (in-place)
I0121 11:36:31.552675 28306 net.cpp:150] Setting up relu5_2
I0121 11:36:31.552695 28306 net.cpp:157] Top shape: 8 512 19 19 (1478656)
I0121 11:36:31.552701 28306 net.cpp:165] Memory required for data: 1751310464
I0121 11:36:31.552708 28306 layer_factory.hpp:77] Creating layer conv5_3
I0121 11:36:31.552728 28306 net.cpp:100] Creating Layer conv5_3
I0121 11:36:31.552736 28306 net.cpp:434] conv5_3 <- conv5_2
I0121 11:36:31.552748 28306 net.cpp:408] conv5_3 -> conv5_3
I0121 11:36:31.586869 28306 net.cpp:150] Setting up conv5_3
I0121 11:36:31.586906 28306 net.cpp:157] Top shape: 8 512 19 19 (1478656)
I0121 11:36:31.586915 28306 net.cpp:165] Memory required for data: 1757225088
I0121 11:36:31.586928 28306 layer_factory.hpp:77] Creating layer relu5_3
I0121 11:36:31.586951 28306 net.cpp:100] Creating Layer relu5_3
I0121 11:36:31.586961 28306 net.cpp:434] relu5_3 <- conv5_3
I0121 11:36:31.586971 28306 net.cpp:395] relu5_3 -> conv5_3 (in-place)
I0121 11:36:31.587756 28306 net.cpp:150] Setting up relu5_3
I0121 11:36:31.587775 28306 net.cpp:157] Top shape: 8 512 19 19 (1478656)
I0121 11:36:31.587781 28306 net.cpp:165] Memory required for data: 1763139712
I0121 11:36:31.587787 28306 layer_factory.hpp:77] Creating layer pool5
I0121 11:36:31.587801 28306 net.cpp:100] Creating Layer pool5
I0121 11:36:31.587808 28306 net.cpp:434] pool5 <- conv5_3
I0121 11:36:31.587817 28306 net.cpp:408] pool5 -> pool5
I0121 11:36:31.587903 28306 net.cpp:150] Setting up pool5
I0121 11:36:31.587924 28306 net.cpp:157] Top shape: 8 512 19 19 (1478656)
I0121 11:36:31.587929 28306 net.cpp:165] Memory required for data: 1769054336
I0121 11:36:31.587935 28306 layer_factory.hpp:77] Creating layer fc6
I0121 11:36:31.587952 28306 net.cpp:100] Creating Layer fc6
I0121 11:36:31.587959 28306 net.cpp:434] fc6 <- pool5
I0121 11:36:31.587970 28306 net.cpp:408] fc6 -> fc6
I0121 11:36:31.641899 28306 net.cpp:150] Setting up fc6
I0121 11:36:31.641944 28306 net.cpp:157] Top shape: 8 1024 19 19 (2957312)
I0121 11:36:31.641952 28306 net.cpp:165] Memory required for data: 1780883584
I0121 11:36:31.641966 28306 layer_factory.hpp:77] Creating layer relu6
I0121 11:36:31.641981 28306 net.cpp:100] Creating Layer relu6
I0121 11:36:31.642027 28306 net.cpp:434] relu6 <- fc6
I0121 11:36:31.642061 28306 net.cpp:395] relu6 -> fc6 (in-place)
I0121 11:36:31.642429 28306 net.cpp:150] Setting up relu6
I0121 11:36:31.642449 28306 net.cpp:157] Top shape: 8 1024 19 19 (2957312)
I0121 11:36:31.642457 28306 net.cpp:165] Memory required for data: 1792712832
I0121 11:36:31.642464 28306 layer_factory.hpp:77] Creating layer fc7
I0121 11:36:31.642482 28306 net.cpp:100] Creating Layer fc7
I0121 11:36:31.642489 28306 net.cpp:434] fc7 <- fc6
I0121 11:36:31.642500 28306 net.cpp:408] fc7 -> fc7
I0121 11:36:31.657969 28306 net.cpp:150] Setting up fc7
I0121 11:36:31.658000 28306 net.cpp:157] Top shape: 8 1024 19 19 (2957312)
I0121 11:36:31.658036 28306 net.cpp:165] Memory required for data: 1804542080
I0121 11:36:31.658051 28306 layer_factory.hpp:77] Creating layer relu7
I0121 11:36:31.658066 28306 net.cpp:100] Creating Layer relu7
I0121 11:36:31.658104 28306 net.cpp:434] relu7 <- fc7
I0121 11:36:31.658133 28306 net.cpp:395] relu7 -> fc7 (in-place)
I0121 11:36:31.659521 28306 net.cpp:150] Setting up relu7
I0121 11:36:31.659544 28306 net.cpp:157] Top shape: 8 1024 19 19 (2957312)
I0121 11:36:31.659551 28306 net.cpp:165] Memory required for data: 1816371328
I0121 11:36:31.659557 28306 layer_factory.hpp:77] Creating layer fc7_relu7_0_split
I0121 11:36:31.659569 28306 net.cpp:100] Creating Layer fc7_relu7_0_split
I0121 11:36:31.659575 28306 net.cpp:434] fc7_relu7_0_split <- fc7
I0121 11:36:31.659584 28306 net.cpp:408] fc7_relu7_0_split -> fc7_relu7_0_split_0
I0121 11:36:31.659629 28306 net.cpp:408] fc7_relu7_0_split -> fc7_relu7_0_split_1
I0121 11:36:31.659665 28306 net.cpp:408] fc7_relu7_0_split -> fc7_relu7_0_split_2
I0121 11:36:31.659679 28306 net.cpp:408] fc7_relu7_0_split -> fc7_relu7_0_split_3
I0121 11:36:31.659819 28306 net.cpp:150] Setting up fc7_relu7_0_split
I0121 11:36:31.659834 28306 net.cpp:157] Top shape: 8 1024 19 19 (2957312)
I0121 11:36:31.659845 28306 net.cpp:157] Top shape: 8 1024 19 19 (2957312)
I0121 11:36:31.659853 28306 net.cpp:157] Top shape: 8 1024 19 19 (2957312)
I0121 11:36:31.659860 28306 net.cpp:157] Top shape: 8 1024 19 19 (2957312)
I0121 11:36:31.659865 28306 net.cpp:165] Memory required for data: 1863688320
I0121 11:36:31.659871 28306 layer_factory.hpp:77] Creating layer conv6_1
I0121 11:36:31.659889 28306 net.cpp:100] Creating Layer conv6_1
I0121 11:36:31.659895 28306 net.cpp:434] conv6_1 <- fc7_relu7_0_split_0
I0121 11:36:31.659909 28306 net.cpp:408] conv6_1 -> conv6_1
I0121 11:36:31.667755 28306 net.cpp:150] Setting up conv6_1
I0121 11:36:31.667778 28306 net.cpp:157] Top shape: 8 256 19 19 (739328)
I0121 11:36:31.667784 28306 net.cpp:165] Memory required for data: 1866645632
I0121 11:36:31.667796 28306 layer_factory.hpp:77] Creating layer conv6_1_relu
I0121 11:36:31.667806 28306 net.cpp:100] Creating Layer conv6_1_relu
I0121 11:36:31.667814 28306 net.cpp:434] conv6_1_relu <- conv6_1
I0121 11:36:31.667824 28306 net.cpp:395] conv6_1_relu -> conv6_1 (in-place)
I0121 11:36:31.668697 28306 net.cpp:150] Setting up conv6_1_relu
I0121 11:36:31.668717 28306 net.cpp:157] Top shape: 8 256 19 19 (739328)
I0121 11:36:31.668725 28306 net.cpp:165] Memory required for data: 1869602944
I0121 11:36:31.668731 28306 layer_factory.hpp:77] Creating layer conv6_2
I0121 11:36:31.668750 28306 net.cpp:100] Creating Layer conv6_2
I0121 11:36:31.668756 28306 net.cpp:434] conv6_2 <- conv6_1
I0121 11:36:31.668769 28306 net.cpp:408] conv6_2 -> conv6_2
I0121 11:36:31.685367 28306 net.cpp:150] Setting up conv6_2
I0121 11:36:31.685448 28306 net.cpp:157] Top shape: 8 512 10 10 (409600)
I0121 11:36:31.685472 28306 net.cpp:165] Memory required for data: 1871241344
I0121 11:36:31.685514 28306 layer_factory.hpp:77] Creating layer conv6_2_relu
I0121 11:36:31.685531 28306 net.cpp:100] Creating Layer conv6_2_relu
I0121 11:36:31.685539 28306 net.cpp:434] conv6_2_relu <- conv6_2
I0121 11:36:31.685549 28306 net.cpp:395] conv6_2_relu -> conv6_2 (in-place)
I0121 11:36:31.686275 28306 net.cpp:150] Setting up conv6_2_relu
I0121 11:36:31.686298 28306 net.cpp:157] Top shape: 8 512 10 10 (409600)
I0121 11:36:31.686306 28306 net.cpp:165] Memory required for data: 1872879744
I0121 11:36:31.686313 28306 layer_factory.hpp:77] Creating layer conv6_2_conv6_2_relu_0_split
I0121 11:36:31.686326 28306 net.cpp:100] Creating Layer conv6_2_conv6_2_relu_0_split
I0121 11:36:31.686332 28306 net.cpp:434] conv6_2_conv6_2_relu_0_split <- conv6_2
I0121 11:36:31.686342 28306 net.cpp:408] conv6_2_conv6_2_relu_0_split -> conv6_2_conv6_2_relu_0_split_0
I0121 11:36:31.686383 28306 net.cpp:408] conv6_2_conv6_2_relu_0_split -> conv6_2_conv6_2_relu_0_split_1
I0121 11:36:31.686414 28306 net.cpp:408] conv6_2_conv6_2_relu_0_split -> conv6_2_conv6_2_relu_0_split_2
I0121 11:36:31.686461 28306 net.cpp:408] conv6_2_conv6_2_relu_0_split -> conv6_2_conv6_2_relu_0_split_3
I0121 11:36:31.686625 28306 net.cpp:150] Setting up conv6_2_conv6_2_relu_0_split
I0121 11:36:31.686640 28306 net.cpp:157] Top shape: 8 512 10 10 (409600)
I0121 11:36:31.686648 28306 net.cpp:157] Top shape: 8 512 10 10 (409600)
I0121 11:36:31.686655 28306 net.cpp:157] Top shape: 8 512 10 10 (409600)
I0121 11:36:31.686662 28306 net.cpp:157] Top shape: 8 512 10 10 (409600)
I0121 11:36:31.686668 28306 net.cpp:165] Memory required for data: 1879433344
I0121 11:36:31.686674 28306 layer_factory.hpp:77] Creating layer conv7_1
I0121 11:36:31.686691 28306 net.cpp:100] Creating Layer conv7_1
I0121 11:36:31.686698 28306 net.cpp:434] conv7_1 <- conv6_2_conv6_2_relu_0_split_0
I0121 11:36:31.686712 28306 net.cpp:408] conv7_1 -> conv7_1
I0121 11:36:31.691012 28306 net.cpp:150] Setting up conv7_1
I0121 11:36:31.691035 28306 net.cpp:157] Top shape: 8 128 10 10 (102400)
I0121 11:36:31.691042 28306 net.cpp:165] Memory required for data: 1879842944
I0121 11:36:31.691053 28306 layer_factory.hpp:77] Creating layer conv7_1_relu
I0121 11:36:31.691092 28306 net.cpp:100] Creating Layer conv7_1_relu
I0121 11:36:31.691125 28306 net.cpp:434] conv7_1_relu <- conv7_1
I0121 11:36:31.691143 28306 net.cpp:395] conv7_1_relu -> conv7_1 (in-place)
I0121 11:36:31.692097 28306 net.cpp:150] Setting up conv7_1_relu
I0121 11:36:31.692116 28306 net.cpp:157] Top shape: 8 128 10 10 (102400)
I0121 11:36:31.692123 28306 net.cpp:165] Memory required for data: 1880252544
I0121 11:36:31.692129 28306 layer_factory.hpp:77] Creating layer conv7_2
I0121 11:36:31.692147 28306 net.cpp:100] Creating Layer conv7_2
I0121 11:36:31.692180 28306 net.cpp:434] conv7_2 <- conv7_1
I0121 11:36:31.692211 28306 net.cpp:408] conv7_2 -> conv7_2
I0121 11:36:31.697962 28306 net.cpp:150] Setting up conv7_2
I0121 11:36:31.697984 28306 net.cpp:157] Top shape: 8 256 5 5 (51200)
I0121 11:36:31.697993 28306 net.cpp:165] Memory required for data: 1880457344
I0121 11:36:31.698004 28306 layer_factory.hpp:77] Creating layer conv7_2_relu
I0121 11:36:31.698012 28306 net.cpp:100] Creating Layer conv7_2_relu
I0121 11:36:31.698019 28306 net.cpp:434] conv7_2_relu <- conv7_2
I0121 11:36:31.698030 28306 net.cpp:395] conv7_2_relu -> conv7_2 (in-place)
I0121 11:36:31.699035 28306 net.cpp:150] Setting up conv7_2_relu
I0121 11:36:31.699056 28306 net.cpp:157] Top shape: 8 256 5 5 (51200)
I0121 11:36:31.699064 28306 net.cpp:165] Memory required for data: 1880662144
I0121 11:36:31.699069 28306 layer_factory.hpp:77] Creating layer conv7_2_conv7_2_relu_0_split
I0121 11:36:31.699080 28306 net.cpp:100] Creating Layer conv7_2_conv7_2_relu_0_split
I0121 11:36:31.699087 28306 net.cpp:434] conv7_2_conv7_2_relu_0_split <- conv7_2
I0121 11:36:31.699098 28306 net.cpp:408] conv7_2_conv7_2_relu_0_split -> conv7_2_conv7_2_relu_0_split_0
I0121 11:36:31.699110 28306 net.cpp:408] conv7_2_conv7_2_relu_0_split -> conv7_2_conv7_2_relu_0_split_1
I0121 11:36:31.699149 28306 net.cpp:408] conv7_2_conv7_2_relu_0_split -> conv7_2_conv7_2_relu_0_split_2
I0121 11:36:31.699183 28306 net.cpp:408] conv7_2_conv7_2_relu_0_split -> conv7_2_conv7_2_relu_0_split_3
I0121 11:36:31.699352 28306 net.cpp:150] Setting up conv7_2_conv7_2_relu_0_split
I0121 11:36:31.699368 28306 net.cpp:157] Top shape: 8 256 5 5 (51200)
I0121 11:36:31.699375 28306 net.cpp:157] Top shape: 8 256 5 5 (51200)
I0121 11:36:31.699383 28306 net.cpp:157] Top shape: 8 256 5 5 (51200)
I0121 11:36:31.699411 28306 net.cpp:157] Top shape: 8 256 5 5 (51200)
I0121 11:36:31.699435 28306 net.cpp:165] Memory required for data: 1881481344
I0121 11:36:31.699458 28306 layer_factory.hpp:77] Creating layer conv8_1
I0121 11:36:31.699477 28306 net.cpp:100] Creating Layer conv8_1
I0121 11:36:31.699503 28306 net.cpp:434] conv8_1 <- conv7_2_conv7_2_relu_0_split_0
I0121 11:36:31.699534 28306 net.cpp:408] conv8_1 -> conv8_1
I0121 11:36:31.703181 28306 net.cpp:150] Setting up conv8_1
I0121 11:36:31.703202 28306 net.cpp:157] Top shape: 8 128 5 5 (25600)
I0121 11:36:31.703209 28306 net.cpp:165] Memory required for data: 1881583744
I0121 11:36:31.703241 28306 layer_factory.hpp:77] Creating layer conv8_1_relu
I0121 11:36:31.703253 28306 net.cpp:100] Creating Layer conv8_1_relu
I0121 11:36:31.703260 28306 net.cpp:434] conv8_1_relu <- conv8_1
I0121 11:36:31.703269 28306 net.cpp:395] conv8_1_relu -> conv8_1 (in-place)
I0121 11:36:31.704113 28306 net.cpp:150] Setting up conv8_1_relu
I0121 11:36:31.704130 28306 net.cpp:157] Top shape: 8 128 5 5 (25600)
I0121 11:36:31.704136 28306 net.cpp:165] Memory required for data: 1881686144
I0121 11:36:31.704143 28306 layer_factory.hpp:77] Creating layer conv8_2
I0121 11:36:31.704182 28306 net.cpp:100] Creating Layer conv8_2
I0121 11:36:31.704193 28306 net.cpp:434] conv8_2 <- conv8_1
I0121 11:36:31.704206 28306 net.cpp:408] conv8_2 -> conv8_2
I0121 11:36:31.711132 28306 net.cpp:150] Setting up conv8_2
I0121 11:36:31.711222 28306 net.cpp:157] Top shape: 8 256 3 3 (18432)
I0121 11:36:31.711246 28306 net.cpp:165] Memory required for data: 1881759872
I0121 11:36:31.711277 28306 layer_factory.hpp:77] Creating layer conv8_2_relu
I0121 11:36:31.711326 28306 net.cpp:100] Creating Layer conv8_2_relu
I0121 11:36:31.711355 28306 net.cpp:434] conv8_2_relu <- conv8_2
I0121 11:36:31.711387 28306 net.cpp:395] conv8_2_relu -> conv8_2 (in-place)
I0121 11:36:31.711890 28306 net.cpp:150] Setting up conv8_2_relu
I0121 11:36:31.711933 28306 net.cpp:157] Top shape: 8 256 3 3 (18432)
I0121 11:36:31.711961 28306 net.cpp:165] Memory required for data: 1881833600
I0121 11:36:31.711983 28306 layer_factory.hpp:77] Creating layer conv8_2_conv8_2_relu_0_split
I0121 11:36:31.712010 28306 net.cpp:100] Creating Layer conv8_2_conv8_2_relu_0_split
I0121 11:36:31.712021 28306 net.cpp:434] conv8_2_conv8_2_relu_0_split <- conv8_2
I0121 11:36:31.712033 28306 net.cpp:408] conv8_2_conv8_2_relu_0_split -> conv8_2_conv8_2_relu_0_split_0
I0121 11:36:31.712046 28306 net.cpp:408] conv8_2_conv8_2_relu_0_split -> conv8_2_conv8_2_relu_0_split_1
I0121 11:36:31.712080 28306 net.cpp:408] conv8_2_conv8_2_relu_0_split -> conv8_2_conv8_2_relu_0_split_2
I0121 11:36:31.712093 28306 net.cpp:408] conv8_2_conv8_2_relu_0_split -> conv8_2_conv8_2_relu_0_split_3
I0121 11:36:31.712242 28306 net.cpp:150] Setting up conv8_2_conv8_2_relu_0_split
I0121 11:36:31.712255 28306 net.cpp:157] Top shape: 8 256 3 3 (18432)
I0121 11:36:31.712263 28306 net.cpp:157] Top shape: 8 256 3 3 (18432)
I0121 11:36:31.712292 28306 net.cpp:157] Top shape: 8 256 3 3 (18432)
I0121 11:36:31.712302 28306 net.cpp:157] Top shape: 8 256 3 3 (18432)
I0121 11:36:31.712308 28306 net.cpp:165] Memory required for data: 1882128512
I0121 11:36:31.712314 28306 layer_factory.hpp:77] Creating layer conv9_1
I0121 11:36:31.712337 28306 net.cpp:100] Creating Layer conv9_1
I0121 11:36:31.712347 28306 net.cpp:434] conv9_1 <- conv8_2_conv8_2_relu_0_split_0
I0121 11:36:31.712359 28306 net.cpp:408] conv9_1 -> conv9_1
I0121 11:36:31.715514 28306 net.cpp:150] Setting up conv9_1
I0121 11:36:31.715538 28306 net.cpp:157] Top shape: 8 128 3 3 (9216)
I0121 11:36:31.715545 28306 net.cpp:165] Memory required for data: 1882165376
I0121 11:36:31.715556 28306 layer_factory.hpp:77] Creating layer conv9_1_relu
I0121 11:36:31.715567 28306 net.cpp:100] Creating Layer conv9_1_relu
I0121 11:36:31.715601 28306 net.cpp:434] conv9_1_relu <- conv9_1
I0121 11:36:31.715628 28306 net.cpp:395] conv9_1_relu -> conv9_1 (in-place)
I0121 11:36:31.716462 28306 net.cpp:150] Setting up conv9_1_relu
I0121 11:36:31.716481 28306 net.cpp:157] Top shape: 8 128 3 3 (9216)
I0121 11:36:31.716487 28306 net.cpp:165] Memory required for data: 1882202240
I0121 11:36:31.716495 28306 layer_factory.hpp:77] Creating layer conv9_2
I0121 11:36:31.716509 28306 net.cpp:100] Creating Layer conv9_2
I0121 11:36:31.716542 28306 net.cpp:434] conv9_2 <- conv9_1
I0121 11:36:31.716560 28306 net.cpp:408] conv9_2 -> conv9_2
I0121 11:36:31.723379 28306 net.cpp:150] Setting up conv9_2
I0121 11:36:31.723450 28306 net.cpp:157] Top shape: 8 256 1 1 (2048)
I0121 11:36:31.723475 28306 net.cpp:165] Memory required for data: 1882210432
I0121 11:36:31.723516 28306 layer_factory.hpp:77] Creating layer conv9_2_relu
I0121 11:36:31.723567 28306 net.cpp:100] Creating Layer conv9_2_relu
I0121 11:36:31.723594 28306 net.cpp:434] conv9_2_relu <- conv9_2
I0121 11:36:31.723623 28306 net.cpp:395] conv9_2_relu -> conv9_2 (in-place)
I0121 11:36:31.724339 28306 net.cpp:150] Setting up conv9_2_relu
I0121 11:36:31.724377 28306 net.cpp:157] Top shape: 8 256 1 1 (2048)
I0121 11:36:31.724400 28306 net.cpp:165] Memory required for data: 1882218624
I0121 11:36:31.724422 28306 layer_factory.hpp:77] Creating layer conv9_2_conv9_2_relu_0_split
I0121 11:36:31.724454 28306 net.cpp:100] Creating Layer conv9_2_conv9_2_relu_0_split
I0121 11:36:31.724465 28306 net.cpp:434] conv9_2_conv9_2_relu_0_split <- conv9_2
I0121 11:36:31.724476 28306 net.cpp:408] conv9_2_conv9_2_relu_0_split -> conv9_2_conv9_2_relu_0_split_0
I0121 11:36:31.724489 28306 net.cpp:408] conv9_2_conv9_2_relu_0_split -> conv9_2_conv9_2_relu_0_split_1
I0121 11:36:31.724520 28306 net.cpp:408] conv9_2_conv9_2_relu_0_split -> conv9_2_conv9_2_relu_0_split_2
I0121 11:36:31.724658 28306 net.cpp:150] Setting up conv9_2_conv9_2_relu_0_split
I0121 11:36:31.724671 28306 net.cpp:157] Top shape: 8 256 1 1 (2048)
I0121 11:36:31.724680 28306 net.cpp:157] Top shape: 8 256 1 1 (2048)
I0121 11:36:31.724709 28306 net.cpp:157] Top shape: 8 256 1 1 (2048)
I0121 11:36:31.724719 28306 net.cpp:165] Memory required for data: 1882243200
I0121 11:36:31.724725 28306 layer_factory.hpp:77] Creating layer conv4_3_norm
I0121 11:36:31.724738 28306 net.cpp:100] Creating Layer conv4_3_norm
I0121 11:36:31.724762 28306 net.cpp:434] conv4_3_norm <- conv4_3_relu4_3_0_split_1
I0121 11:36:31.724777 28306 net.cpp:408] conv4_3_norm -> conv4_3_norm
I0121 11:36:31.725122 28306 net.cpp:150] Setting up conv4_3_norm
I0121 11:36:31.725137 28306 net.cpp:157] Top shape: 8 512 38 38 (5914624)
I0121 11:36:31.725147 28306 net.cpp:165] Memory required for data: 1905901696
I0121 11:36:31.725155 28306 layer_factory.hpp:77] Creating layer conv4_3_norm_conv4_3_norm_0_split
I0121 11:36:31.725167 28306 net.cpp:100] Creating Layer conv4_3_norm_conv4_3_norm_0_split
I0121 11:36:31.725177 28306 net.cpp:434] conv4_3_norm_conv4_3_norm_0_split <- conv4_3_norm
I0121 11:36:31.725184 28306 net.cpp:408] conv4_3_norm_conv4_3_norm_0_split -> conv4_3_norm_conv4_3_norm_0_split_0
I0121 11:36:31.725194 28306 net.cpp:408] conv4_3_norm_conv4_3_norm_0_split -> conv4_3_norm_conv4_3_norm_0_split_1
I0121 11:36:31.725208 28306 net.cpp:408] conv4_3_norm_conv4_3_norm_0_split -> conv4_3_norm_conv4_3_norm_0_split_2
I0121 11:36:31.725307 28306 net.cpp:150] Setting up conv4_3_norm_conv4_3_norm_0_split
I0121 11:36:31.725320 28306 net.cpp:157] Top shape: 8 512 38 38 (5914624)
I0121 11:36:31.725332 28306 net.cpp:157] Top shape: 8 512 38 38 (5914624)
I0121 11:36:31.725338 28306 net.cpp:157] Top shape: 8 512 38 38 (5914624)
I0121 11:36:31.725344 28306 net.cpp:165] Memory required for data: 1976877184
I0121 11:36:31.725349 28306 layer_factory.hpp:77] Creating layer conv4_3_norm_mbox_loc
I0121 11:36:31.725366 28306 net.cpp:100] Creating Layer conv4_3_norm_mbox_loc
I0121 11:36:31.725374 28306 net.cpp:434] conv4_3_norm_mbox_loc <- conv4_3_norm_conv4_3_norm_0_split_0
I0121 11:36:31.725384 28306 net.cpp:408] conv4_3_norm_mbox_loc -> conv4_3_norm_mbox_loc
I0121 11:36:31.729178 28306 net.cpp:150] Setting up conv4_3_norm_mbox_loc
I0121 11:36:31.729209 28306 net.cpp:157] Top shape: 8 16 38 38 (184832)
I0121 11:36:31.729218 28306 net.cpp:165] Memory required for data: 1977616512
I0121 11:36:31.729229 28306 layer_factory.hpp:77] Creating layer conv4_3_norm_mbox_loc_perm
I0121 11:36:31.729275 28306 net.cpp:100] Creating Layer conv4_3_norm_mbox_loc_perm
I0121 11:36:31.729310 28306 net.cpp:434] conv4_3_norm_mbox_loc_perm <- conv4_3_norm_mbox_loc
I0121 11:36:31.729327 28306 net.cpp:408] conv4_3_norm_mbox_loc_perm -> conv4_3_norm_mbox_loc_perm
I0121 11:36:31.729583 28306 net.cpp:150] Setting up conv4_3_norm_mbox_loc_perm
I0121 11:36:31.729599 28306 net.cpp:157] Top shape: 8 38 38 16 (184832)
I0121 11:36:31.729606 28306 net.cpp:165] Memory required for data: 1978355840
I0121 11:36:31.729612 28306 layer_factory.hpp:77] Creating layer conv4_3_norm_mbox_loc_flat
I0121 11:36:31.729645 28306 net.cpp:100] Creating Layer conv4_3_norm_mbox_loc_flat
I0121 11:36:31.729652 28306 net.cpp:434] conv4_3_norm_mbox_loc_flat <- conv4_3_norm_mbox_loc_perm
I0121 11:36:31.729662 28306 net.cpp:408] conv4_3_norm_mbox_loc_flat -> conv4_3_norm_mbox_loc_flat
I0121 11:36:31.729756 28306 net.cpp:150] Setting up conv4_3_norm_mbox_loc_flat
I0121 11:36:31.729773 28306 net.cpp:157] Top shape: 8 23104 (184832)
I0121 11:36:31.729779 28306 net.cpp:165] Memory required for data: 1979095168
I0121 11:36:31.729807 28306 layer_factory.hpp:77] Creating layer conv4_3_norm_mbox_conf
I0121 11:36:31.729856 28306 net.cpp:100] Creating Layer conv4_3_norm_mbox_conf
I0121 11:36:31.729867 28306 net.cpp:434] conv4_3_norm_mbox_conf <- conv4_3_norm_conv4_3_norm_0_split_1
I0121 11:36:31.729879 28306 net.cpp:408] conv4_3_norm_mbox_conf -> conv4_3_norm_mbox_conf
I0121 11:36:31.738620 28306 net.cpp:150] Setting up conv4_3_norm_mbox_conf
I0121 11:36:31.738649 28306 net.cpp:157] Top shape: 8 88 38 38 (1016576)
I0121 11:36:31.738656 28306 net.cpp:165] Memory required for data: 1983161472
I0121 11:36:31.738667 28306 layer_factory.hpp:77] Creating layer conv4_3_norm_mbox_conf_perm
I0121 11:36:31.738682 28306 net.cpp:100] Creating Layer conv4_3_norm_mbox_conf_perm
I0121 11:36:31.738697 28306 net.cpp:434] conv4_3_norm_mbox_conf_perm <- conv4_3_norm_mbox_conf
I0121 11:36:31.738706 28306 net.cpp:408] conv4_3_norm_mbox_conf_perm -> conv4_3_norm_mbox_conf_perm
I0121 11:36:31.738925 28306 net.cpp:150] Setting up conv4_3_norm_mbox_conf_perm
I0121 11:36:31.738940 28306 net.cpp:157] Top shape: 8 38 38 88 (1016576)
I0121 11:36:31.738945 28306 net.cpp:165] Memory required for data: 1987227776
I0121 11:36:31.738951 28306 layer_factory.hpp:77] Creating layer conv4_3_norm_mbox_conf_flat
I0121 11:36:31.738963 28306 net.cpp:100] Creating Layer conv4_3_norm_mbox_conf_flat
I0121 11:36:31.738999 28306 net.cpp:434] conv4_3_norm_mbox_conf_flat <- conv4_3_norm_mbox_conf_perm
I0121 11:36:31.739038 28306 net.cpp:408] conv4_3_norm_mbox_conf_flat -> conv4_3_norm_mbox_conf_flat
I0121 11:36:31.739099 28306 net.cpp:150] Setting up conv4_3_norm_mbox_conf_flat
I0121 11:36:31.739111 28306 net.cpp:157] Top shape: 8 127072 (1016576)
I0121 11:36:31.739117 28306 net.cpp:165] Memory required for data: 1991294080
I0121 11:36:31.739123 28306 layer_factory.hpp:77] Creating layer conv4_3_norm_mbox_priorbox
I0121 11:36:31.739135 28306 net.cpp:100] Creating Layer conv4_3_norm_mbox_priorbox
I0121 11:36:31.739163 28306 net.cpp:434] conv4_3_norm_mbox_priorbox <- conv4_3_norm_conv4_3_norm_0_split_2
I0121 11:36:31.739176 28306 net.cpp:434] conv4_3_norm_mbox_priorbox <- data_data_0_split_1
I0121 11:36:31.739187 28306 net.cpp:408] conv4_3_norm_mbox_priorbox -> conv4_3_norm_mbox_priorbox
I0121 11:36:31.739250 28306 net.cpp:150] Setting up conv4_3_norm_mbox_priorbox
I0121 11:36:31.739264 28306 net.cpp:157] Top shape: 1 2 23104 (46208)
I0121 11:36:31.739269 28306 net.cpp:165] Memory required for data: 1991478912
I0121 11:36:31.739275 28306 layer_factory.hpp:77] Creating layer fc7_mbox_loc
I0121 11:36:31.739295 28306 net.cpp:100] Creating Layer fc7_mbox_loc
I0121 11:36:31.739305 28306 net.cpp:434] fc7_mbox_loc <- fc7_relu7_0_split_1
I0121 11:36:31.739315 28306 net.cpp:408] fc7_mbox_loc -> fc7_mbox_loc
I0121 11:36:31.745290 28306 net.cpp:150] Setting up fc7_mbox_loc
I0121 11:36:31.745312 28306 net.cpp:157] Top shape: 8 24 19 19 (69312)
I0121 11:36:31.745319 28306 net.cpp:165] Memory required for data: 1991756160
I0121 11:36:31.745331 28306 layer_factory.hpp:77] Creating layer fc7_mbox_loc_perm
I0121 11:36:31.745343 28306 net.cpp:100] Creating Layer fc7_mbox_loc_perm
I0121 11:36:31.745378 28306 net.cpp:434] fc7_mbox_loc_perm <- fc7_mbox_loc
I0121 11:36:31.745406 28306 net.cpp:408] fc7_mbox_loc_perm -> fc7_mbox_loc_perm
I0121 11:36:31.745645 28306 net.cpp:150] Setting up fc7_mbox_loc_perm
I0121 11:36:31.745661 28306 net.cpp:157] Top shape: 8 19 19 24 (69312)
I0121 11:36:31.745666 28306 net.cpp:165] Memory required for data: 1992033408
I0121 11:36:31.745693 28306 layer_factory.hpp:77] Creating layer fc7_mbox_loc_flat
I0121 11:36:31.745726 28306 net.cpp:100] Creating Layer fc7_mbox_loc_flat
I0121 11:36:31.745755 28306 net.cpp:434] fc7_mbox_loc_flat <- fc7_mbox_loc_perm
I0121 11:36:31.745784 28306 net.cpp:408] fc7_mbox_loc_flat -> fc7_mbox_loc_flat
I0121 11:36:31.745842 28306 net.cpp:150] Setting up fc7_mbox_loc_flat
I0121 11:36:31.745856 28306 net.cpp:157] Top shape: 8 8664 (69312)
I0121 11:36:31.745862 28306 net.cpp:165] Memory required for data: 1992310656
I0121 11:36:31.745867 28306 layer_factory.hpp:77] Creating layer fc7_mbox_conf
I0121 11:36:31.745887 28306 net.cpp:100] Creating Layer fc7_mbox_conf
I0121 11:36:31.745895 28306 net.cpp:434] fc7_mbox_conf <- fc7_relu7_0_split_2
I0121 11:36:31.745905 28306 net.cpp:408] fc7_mbox_conf -> fc7_mbox_conf
I0121 11:36:31.763519 28306 net.cpp:150] Setting up fc7_mbox_conf
I0121 11:36:31.763556 28306 net.cpp:157] Top shape: 8 132 19 19 (381216)
I0121 11:36:31.763563 28306 net.cpp:165] Memory required for data: 1993835520
I0121 11:36:31.763576 28306 layer_factory.hpp:77] Creating layer fc7_mbox_conf_perm
I0121 11:36:31.763591 28306 net.cpp:100] Creating Layer fc7_mbox_conf_perm
I0121 11:36:31.763600 28306 net.cpp:434] fc7_mbox_conf_perm <- fc7_mbox_conf
I0121 11:36:31.763613 28306 net.cpp:408] fc7_mbox_conf_perm -> fc7_mbox_conf_perm
I0121 11:36:31.763878 28306 net.cpp:150] Setting up fc7_mbox_conf_perm
I0121 11:36:31.763895 28306 net.cpp:157] Top shape: 8 19 19 132 (381216)
I0121 11:36:31.763901 28306 net.cpp:165] Memory required for data: 1995360384
I0121 11:36:31.763908 28306 layer_factory.hpp:77] Creating layer fc7_mbox_conf_flat
I0121 11:36:31.763921 28306 net.cpp:100] Creating Layer fc7_mbox_conf_flat
I0121 11:36:31.763952 28306 net.cpp:434] fc7_mbox_conf_flat <- fc7_mbox_conf_perm
I0121 11:36:31.763986 28306 net.cpp:408] fc7_mbox_conf_flat -> fc7_mbox_conf_flat
I0121 11:36:31.764047 28306 net.cpp:150] Setting up fc7_mbox_conf_flat
I0121 11:36:31.764060 28306 net.cpp:157] Top shape: 8 47652 (381216)
I0121 11:36:31.764066 28306 net.cpp:165] Memory required for data: 1996885248
I0121 11:36:31.764072 28306 layer_factory.hpp:77] Creating layer fc7_mbox_priorbox
I0121 11:36:31.764089 28306 net.cpp:100] Creating Layer fc7_mbox_priorbox
I0121 11:36:31.764098 28306 net.cpp:434] fc7_mbox_priorbox <- fc7_relu7_0_split_3
I0121 11:36:31.764108 28306 net.cpp:434] fc7_mbox_priorbox <- data_data_0_split_2
I0121 11:36:31.764118 28306 net.cpp:408] fc7_mbox_priorbox -> fc7_mbox_priorbox
I0121 11:36:31.764183 28306 net.cpp:150] Setting up fc7_mbox_priorbox
I0121 11:36:31.764197 28306 net.cpp:157] Top shape: 1 2 8664 (17328)
I0121 11:36:31.764202 28306 net.cpp:165] Memory required for data: 1996954560
I0121 11:36:31.764214 28306 layer_factory.hpp:77] Creating layer conv6_2_mbox_loc
I0121 11:36:31.764237 28306 net.cpp:100] Creating Layer conv6_2_mbox_loc
I0121 11:36:31.764248 28306 net.cpp:434] conv6_2_mbox_loc <- conv6_2_conv6_2_relu_0_split_1
I0121 11:36:31.764261 28306 net.cpp:408] conv6_2_mbox_loc -> conv6_2_mbox_loc
I0121 11:36:31.769783 28306 net.cpp:150] Setting up conv6_2_mbox_loc
I0121 11:36:31.769814 28306 net.cpp:157] Top shape: 8 24 10 10 (19200)
I0121 11:36:31.769822 28306 net.cpp:165] Memory required for data: 1997031360
I0121 11:36:31.769834 28306 layer_factory.hpp:77] Creating layer conv6_2_mbox_loc_perm
I0121 11:36:31.769847 28306 net.cpp:100] Creating Layer conv6_2_mbox_loc_perm
I0121 11:36:31.769855 28306 net.cpp:434] conv6_2_mbox_loc_perm <- conv6_2_mbox_loc
I0121 11:36:31.769873 28306 net.cpp:408] conv6_2_mbox_loc_perm -> conv6_2_mbox_loc_perm
I0121 11:36:31.770107 28306 net.cpp:150] Setting up conv6_2_mbox_loc_perm
I0121 11:36:31.770122 28306 net.cpp:157] Top shape: 8 10 10 24 (19200)
I0121 11:36:31.770128 28306 net.cpp:165] Memory required for data: 1997108160
I0121 11:36:31.770133 28306 layer_factory.hpp:77] Creating layer conv6_2_mbox_loc_flat
I0121 11:36:31.770144 28306 net.cpp:100] Creating Layer conv6_2_mbox_loc_flat
I0121 11:36:31.770192 28306 net.cpp:434] conv6_2_mbox_loc_flat <- conv6_2_mbox_loc_perm
I0121 11:36:31.770226 28306 net.cpp:408] conv6_2_mbox_loc_flat -> conv6_2_mbox_loc_flat
I0121 11:36:31.770328 28306 net.cpp:150] Setting up conv6_2_mbox_loc_flat
I0121 11:36:31.770344 28306 net.cpp:157] Top shape: 8 2400 (19200)
I0121 11:36:31.770349 28306 net.cpp:165] Memory required for data: 1997184960
I0121 11:36:31.770356 28306 layer_factory.hpp:77] Creating layer conv6_2_mbox_conf
I0121 11:36:31.770375 28306 net.cpp:100] Creating Layer conv6_2_mbox_conf
I0121 11:36:31.770385 28306 net.cpp:434] conv6_2_mbox_conf <- conv6_2_conv6_2_relu_0_split_2
I0121 11:36:31.770396 28306 net.cpp:408] conv6_2_mbox_conf -> conv6_2_mbox_conf
I0121 11:36:31.781936 28306 net.cpp:150] Setting up conv6_2_mbox_conf
I0121 11:36:31.781975 28306 net.cpp:157] Top shape: 8 132 10 10 (105600)
I0121 11:36:31.781983 28306 net.cpp:165] Memory required for data: 1997607360
I0121 11:36:31.781997 28306 layer_factory.hpp:77] Creating layer conv6_2_mbox_conf_perm
I0121 11:36:31.782011 28306 net.cpp:100] Creating Layer conv6_2_mbox_conf_perm
I0121 11:36:31.782021 28306 net.cpp:434] conv6_2_mbox_conf_perm <- conv6_2_mbox_conf
I0121 11:36:31.782033 28306 net.cpp:408] conv6_2_mbox_conf_perm -> conv6_2_mbox_conf_perm
I0121 11:36:31.782269 28306 net.cpp:150] Setting up conv6_2_mbox_conf_perm
I0121 11:36:31.782286 28306 net.cpp:157] Top shape: 8 10 10 132 (105600)
I0121 11:36:31.782299 28306 net.cpp:165] Memory required for data: 1998029760
I0121 11:36:31.782306 28306 layer_factory.hpp:77] Creating layer conv6_2_mbox_conf_flat
I0121 11:36:31.782318 28306 net.cpp:100] Creating Layer conv6_2_mbox_conf_flat
I0121 11:36:31.782325 28306 net.cpp:434] conv6_2_mbox_conf_flat <- conv6_2_mbox_conf_perm
I0121 11:36:31.782338 28306 net.cpp:408] conv6_2_mbox_conf_flat -> conv6_2_mbox_conf_flat
I0121 11:36:31.782430 28306 net.cpp:150] Setting up conv6_2_mbox_conf_flat
I0121 11:36:31.782446 28306 net.cpp:157] Top shape: 8 13200 (105600)
I0121 11:36:31.782452 28306 net.cpp:165] Memory required for data: 1998452160
I0121 11:36:31.782459 28306 layer_factory.hpp:77] Creating layer conv6_2_mbox_priorbox
I0121 11:36:31.782474 28306 net.cpp:100] Creating Layer conv6_2_mbox_priorbox
I0121 11:36:31.782503 28306 net.cpp:434] conv6_2_mbox_priorbox <- conv6_2_conv6_2_relu_0_split_3
I0121 11:36:31.782517 28306 net.cpp:434] conv6_2_mbox_priorbox <- data_data_0_split_3
I0121 11:36:31.782531 28306 net.cpp:408] conv6_2_mbox_priorbox -> conv6_2_mbox_priorbox
I0121 11:36:31.782615 28306 net.cpp:150] Setting up conv6_2_mbox_priorbox
I0121 11:36:31.782631 28306 net.cpp:157] Top shape: 1 2 2400 (4800)
I0121 11:36:31.782637 28306 net.cpp:165] Memory required for data: 1998471360
I0121 11:36:31.782665 28306 layer_factory.hpp:77] Creating layer conv7_2_mbox_loc
I0121 11:36:31.782708 28306 net.cpp:100] Creating Layer conv7_2_mbox_loc
I0121 11:36:31.782721 28306 net.cpp:434] conv7_2_mbox_loc <- conv7_2_conv7_2_relu_0_split_1
I0121 11:36:31.782730 28306 net.cpp:408] conv7_2_mbox_loc -> conv7_2_mbox_loc
I0121 11:36:31.787195 28306 net.cpp:150] Setting up conv7_2_mbox_loc
I0121 11:36:31.787217 28306 net.cpp:157] Top shape: 8 24 5 5 (4800)
I0121 11:36:31.787225 28306 net.cpp:165] Memory required for data: 1998490560
I0121 11:36:31.787236 28306 layer_factory.hpp:77] Creating layer conv7_2_mbox_loc_perm
I0121 11:36:31.787250 28306 net.cpp:100] Creating Layer conv7_2_mbox_loc_perm
I0121 11:36:31.787257 28306 net.cpp:434] conv7_2_mbox_loc_perm <- conv7_2_mbox_loc
I0121 11:36:31.787267 28306 net.cpp:408] conv7_2_mbox_loc_perm -> conv7_2_mbox_loc_perm
I0121 11:36:31.787497 28306 net.cpp:150] Setting up conv7_2_mbox_loc_perm
I0121 11:36:31.787513 28306 net.cpp:157] Top shape: 8 5 5 24 (4800)
I0121 11:36:31.787518 28306 net.cpp:165] Memory required for data: 1998509760
I0121 11:36:31.787524 28306 layer_factory.hpp:77] Creating layer conv7_2_mbox_loc_flat
I0121 11:36:31.787534 28306 net.cpp:100] Creating Layer conv7_2_mbox_loc_flat
I0121 11:36:31.787540 28306 net.cpp:434] conv7_2_mbox_loc_flat <- conv7_2_mbox_loc_perm
I0121 11:36:31.787551 28306 net.cpp:408] conv7_2_mbox_loc_flat -> conv7_2_mbox_loc_flat
I0121 11:36:31.787622 28306 net.cpp:150] Setting up conv7_2_mbox_loc_flat
I0121 11:36:31.787636 28306 net.cpp:157] Top shape: 8 600 (4800)
I0121 11:36:31.787643 28306 net.cpp:165] Memory required for data: 1998528960
I0121 11:36:31.787649 28306 layer_factory.hpp:77] Creating layer conv7_2_mbox_conf
I0121 11:36:31.787667 28306 net.cpp:100] Creating Layer conv7_2_mbox_conf
I0121 11:36:31.787674 28306 net.cpp:434] conv7_2_mbox_conf <- conv7_2_conv7_2_relu_0_split_2
I0121 11:36:31.787685 28306 net.cpp:408] conv7_2_mbox_conf -> conv7_2_mbox_conf
I0121 11:36:31.794559 28306 net.cpp:150] Setting up conv7_2_mbox_conf
I0121 11:36:31.794585 28306 net.cpp:157] Top shape: 8 132 5 5 (26400)
I0121 11:36:31.794592 28306 net.cpp:165] Memory required for data: 1998634560
I0121 11:36:31.794605 28306 layer_factory.hpp:77] Creating layer conv7_2_mbox_conf_perm
I0121 11:36:31.794617 28306 net.cpp:100] Creating Layer conv7_2_mbox_conf_perm
I0121 11:36:31.794625 28306 net.cpp:434] conv7_2_mbox_conf_perm <- conv7_2_mbox_conf
I0121 11:36:31.794637 28306 net.cpp:408] conv7_2_mbox_conf_perm -> conv7_2_mbox_conf_perm
I0121 11:36:31.794867 28306 net.cpp:150] Setting up conv7_2_mbox_conf_perm
I0121 11:36:31.794881 28306 net.cpp:157] Top shape: 8 5 5 132 (26400)
I0121 11:36:31.794888 28306 net.cpp:165] Memory required for data: 1998740160
I0121 11:36:31.794894 28306 layer_factory.hpp:77] Creating layer conv7_2_mbox_conf_flat
I0121 11:36:31.794905 28306 net.cpp:100] Creating Layer conv7_2_mbox_conf_flat
I0121 11:36:31.794912 28306 net.cpp:434] conv7_2_mbox_conf_flat <- conv7_2_mbox_conf_perm
I0121 11:36:31.794921 28306 net.cpp:408] conv7_2_mbox_conf_flat -> conv7_2_mbox_conf_flat
I0121 11:36:31.794972 28306 net.cpp:150] Setting up conv7_2_mbox_conf_flat
I0121 11:36:31.794984 28306 net.cpp:157] Top shape: 8 3300 (26400)
I0121 11:36:31.794991 28306 net.cpp:165] Memory required for data: 1998845760
I0121 11:36:31.794997 28306 layer_factory.hpp:77] Creating layer conv7_2_mbox_priorbox
I0121 11:36:31.795011 28306 net.cpp:100] Creating Layer conv7_2_mbox_priorbox
I0121 11:36:31.795017 28306 net.cpp:434] conv7_2_mbox_priorbox <- conv7_2_conv7_2_relu_0_split_3
I0121 11:36:31.795025 28306 net.cpp:434] conv7_2_mbox_priorbox <- data_data_0_split_4
I0121 11:36:31.795034 28306 net.cpp:408] conv7_2_mbox_priorbox -> conv7_2_mbox_priorbox
I0121 11:36:31.795091 28306 net.cpp:150] Setting up conv7_2_mbox_priorbox
I0121 11:36:31.795104 28306 net.cpp:157] Top shape: 1 2 600 (1200)
I0121 11:36:31.795110 28306 net.cpp:165] Memory required for data: 1998850560
I0121 11:36:31.795116 28306 layer_factory.hpp:77] Creating layer conv8_2_mbox_loc
I0121 11:36:31.795133 28306 net.cpp:100] Creating Layer conv8_2_mbox_loc
I0121 11:36:31.795140 28306 net.cpp:434] conv8_2_mbox_loc <- conv8_2_conv8_2_relu_0_split_1
I0121 11:36:31.795152 28306 net.cpp:408] conv8_2_mbox_loc -> conv8_2_mbox_loc
I0121 11:36:31.799890 28306 net.cpp:150] Setting up conv8_2_mbox_loc
I0121 11:36:31.799933 28306 net.cpp:157] Top shape: 8 16 3 3 (1152)
I0121 11:36:31.799940 28306 net.cpp:165] Memory required for data: 1998855168
I0121 11:36:31.799979 28306 layer_factory.hpp:77] Creating layer conv8_2_mbox_loc_perm
I0121 11:36:31.799994 28306 net.cpp:100] Creating Layer conv8_2_mbox_loc_perm
I0121 11:36:31.800004 28306 net.cpp:434] conv8_2_mbox_loc_perm <- conv8_2_mbox_loc
I0121 11:36:31.800014 28306 net.cpp:408] conv8_2_mbox_loc_perm -> conv8_2_mbox_loc_perm
I0121 11:36:31.800258 28306 net.cpp:150] Setting up conv8_2_mbox_loc_perm
I0121 11:36:31.800273 28306 net.cpp:157] Top shape: 8 3 3 16 (1152)
I0121 11:36:31.800279 28306 net.cpp:165] Memory required for data: 1998859776
I0121 11:36:31.800285 28306 layer_factory.hpp:77] Creating layer conv8_2_mbox_loc_flat
I0121 11:36:31.800295 28306 net.cpp:100] Creating Layer conv8_2_mbox_loc_flat
I0121 11:36:31.800302 28306 net.cpp:434] conv8_2_mbox_loc_flat <- conv8_2_mbox_loc_perm
I0121 11:36:31.800313 28306 net.cpp:408] conv8_2_mbox_loc_flat -> conv8_2_mbox_loc_flat
I0121 11:36:31.800364 28306 net.cpp:150] Setting up conv8_2_mbox_loc_flat
I0121 11:36:31.800377 28306 net.cpp:157] Top shape: 8 144 (1152)
I0121 11:36:31.800407 28306 net.cpp:165] Memory required for data: 1998864384
I0121 11:36:31.800415 28306 layer_factory.hpp:77] Creating layer conv8_2_mbox_conf
I0121 11:36:31.800433 28306 net.cpp:100] Creating Layer conv8_2_mbox_conf
I0121 11:36:31.800442 28306 net.cpp:434] conv8_2_mbox_conf <- conv8_2_conv8_2_relu_0_split_2
I0121 11:36:31.800454 28306 net.cpp:408] conv8_2_mbox_conf -> conv8_2_mbox_conf
I0121 11:36:31.807312 28306 net.cpp:150] Setting up conv8_2_mbox_conf
I0121 11:36:31.807348 28306 net.cpp:157] Top shape: 8 88 3 3 (6336)
I0121 11:36:31.807355 28306 net.cpp:165] Memory required for data: 1998889728
I0121 11:36:31.807369 28306 layer_factory.hpp:77] Creating layer conv8_2_mbox_conf_perm
I0121 11:36:31.807382 28306 net.cpp:100] Creating Layer conv8_2_mbox_conf_perm
I0121 11:36:31.807391 28306 net.cpp:434] conv8_2_mbox_conf_perm <- conv8_2_mbox_conf
I0121 11:36:31.807405 28306 net.cpp:408] conv8_2_mbox_conf_perm -> conv8_2_mbox_conf_perm
I0121 11:36:31.807646 28306 net.cpp:150] Setting up conv8_2_mbox_conf_perm
I0121 11:36:31.807664 28306 net.cpp:157] Top shape: 8 3 3 88 (6336)
I0121 11:36:31.807670 28306 net.cpp:165] Memory required for data: 1998915072
I0121 11:36:31.807677 28306 layer_factory.hpp:77] Creating layer conv8_2_mbox_conf_flat
I0121 11:36:31.807689 28306 net.cpp:100] Creating Layer conv8_2_mbox_conf_flat
I0121 11:36:31.807696 28306 net.cpp:434] conv8_2_mbox_conf_flat <- conv8_2_mbox_conf_perm
I0121 11:36:31.807705 28306 net.cpp:408] conv8_2_mbox_conf_flat -> conv8_2_mbox_conf_flat
I0121 11:36:31.807760 28306 net.cpp:150] Setting up conv8_2_mbox_conf_flat
I0121 11:36:31.807773 28306 net.cpp:157] Top shape: 8 792 (6336)
I0121 11:36:31.807780 28306 net.cpp:165] Memory required for data: 1998940416
I0121 11:36:31.807786 28306 layer_factory.hpp:77] Creating layer conv8_2_mbox_priorbox
I0121 11:36:31.807801 28306 net.cpp:100] Creating Layer conv8_2_mbox_priorbox
I0121 11:36:31.807809 28306 net.cpp:434] conv8_2_mbox_priorbox <- conv8_2_conv8_2_relu_0_split_3
I0121 11:36:31.807818 28306 net.cpp:434] conv8_2_mbox_priorbox <- data_data_0_split_5
I0121 11:36:31.807828 28306 net.cpp:408] conv8_2_mbox_priorbox -> conv8_2_mbox_priorbox
I0121 11:36:31.807888 28306 net.cpp:150] Setting up conv8_2_mbox_priorbox
I0121 11:36:31.807901 28306 net.cpp:157] Top shape: 1 2 144 (288)
I0121 11:36:31.807907 28306 net.cpp:165] Memory required for data: 1998941568
I0121 11:36:31.807914 28306 layer_factory.hpp:77] Creating layer conv9_2_mbox_loc
I0121 11:36:31.807931 28306 net.cpp:100] Creating Layer conv9_2_mbox_loc
I0121 11:36:31.807938 28306 net.cpp:434] conv9_2_mbox_loc <- conv9_2_conv9_2_relu_0_split_0
I0121 11:36:31.807951 28306 net.cpp:408] conv9_2_mbox_loc -> conv9_2_mbox_loc
I0121 11:36:31.810701 28306 net.cpp:150] Setting up conv9_2_mbox_loc
I0121 11:36:31.810724 28306 net.cpp:157] Top shape: 8 16 1 1 (128)
I0121 11:36:31.810731 28306 net.cpp:165] Memory required for data: 1998942080
I0121 11:36:31.810742 28306 layer_factory.hpp:77] Creating layer conv9_2_mbox_loc_perm
I0121 11:36:31.810755 28306 net.cpp:100] Creating Layer conv9_2_mbox_loc_perm
I0121 11:36:31.810762 28306 net.cpp:434] conv9_2_mbox_loc_perm <- conv9_2_mbox_loc
I0121 11:36:31.810775 28306 net.cpp:408] conv9_2_mbox_loc_perm -> conv9_2_mbox_loc_perm
I0121 11:36:31.811002 28306 net.cpp:150] Setting up conv9_2_mbox_loc_perm
I0121 11:36:31.811019 28306 net.cpp:157] Top shape: 8 1 1 16 (128)
I0121 11:36:31.811025 28306 net.cpp:165] Memory required for data: 1998942592
I0121 11:36:31.811031 28306 layer_factory.hpp:77] Creating layer conv9_2_mbox_loc_flat
I0121 11:36:31.811041 28306 net.cpp:100] Creating Layer conv9_2_mbox_loc_flat
I0121 11:36:31.811048 28306 net.cpp:434] conv9_2_mbox_loc_flat <- conv9_2_mbox_loc_perm
I0121 11:36:31.811058 28306 net.cpp:408] conv9_2_mbox_loc_flat -> conv9_2_mbox_loc_flat
I0121 11:36:31.811108 28306 net.cpp:150] Setting up conv9_2_mbox_loc_flat
I0121 11:36:31.811122 28306 net.cpp:157] Top shape: 8 16 (128)
I0121 11:36:31.811128 28306 net.cpp:165] Memory required for data: 1998943104
I0121 11:36:31.811158 28306 layer_factory.hpp:77] Creating layer conv9_2_mbox_conf
I0121 11:36:31.811177 28306 net.cpp:100] Creating Layer conv9_2_mbox_conf
I0121 11:36:31.811184 28306 net.cpp:434] conv9_2_mbox_conf <- conv9_2_conv9_2_relu_0_split_1
I0121 11:36:31.811197 28306 net.cpp:408] conv9_2_mbox_conf -> conv9_2_mbox_conf
I0121 11:36:31.817397 28306 net.cpp:150] Setting up conv9_2_mbox_conf
I0121 11:36:31.817435 28306 net.cpp:157] Top shape: 8 88 1 1 (704)
I0121 11:36:31.817443 28306 net.cpp:165] Memory required for data: 1998945920
I0121 11:36:31.817457 28306 layer_factory.hpp:77] Creating layer conv9_2_mbox_conf_perm
I0121 11:36:31.817476 28306 net.cpp:100] Creating Layer conv9_2_mbox_conf_perm
I0121 11:36:31.817486 28306 net.cpp:434] conv9_2_mbox_conf_perm <- conv9_2_mbox_conf
I0121 11:36:31.817497 28306 net.cpp:408] conv9_2_mbox_conf_perm -> conv9_2_mbox_conf_perm
I0121 11:36:31.817734 28306 net.cpp:150] Setting up conv9_2_mbox_conf_perm
I0121 11:36:31.817749 28306 net.cpp:157] Top shape: 8 1 1 88 (704)
I0121 11:36:31.817754 28306 net.cpp:165] Memory required for data: 1998948736
I0121 11:36:31.817760 28306 layer_factory.hpp:77] Creating layer conv9_2_mbox_conf_flat
I0121 11:36:31.817770 28306 net.cpp:100] Creating Layer conv9_2_mbox_conf_flat
I0121 11:36:31.817777 28306 net.cpp:434] conv9_2_mbox_conf_flat <- conv9_2_mbox_conf_perm
I0121 11:36:31.817788 28306 net.cpp:408] conv9_2_mbox_conf_flat -> conv9_2_mbox_conf_flat
I0121 11:36:31.817838 28306 net.cpp:150] Setting up conv9_2_mbox_conf_flat
I0121 11:36:31.817852 28306 net.cpp:157] Top shape: 8 88 (704)
I0121 11:36:31.817858 28306 net.cpp:165] Memory required for data: 1998951552
I0121 11:36:31.817864 28306 layer_factory.hpp:77] Creating layer conv9_2_mbox_priorbox
I0121 11:36:31.817875 28306 net.cpp:100] Creating Layer conv9_2_mbox_priorbox
I0121 11:36:31.817883 28306 net.cpp:434] conv9_2_mbox_priorbox <- conv9_2_conv9_2_relu_0_split_2
I0121 11:36:31.817891 28306 net.cpp:434] conv9_2_mbox_priorbox <- data_data_0_split_6
I0121 11:36:31.817903 28306 net.cpp:408] conv9_2_mbox_priorbox -> conv9_2_mbox_priorbox
I0121 11:36:31.817960 28306 net.cpp:150] Setting up conv9_2_mbox_priorbox
I0121 11:36:31.817975 28306 net.cpp:157] Top shape: 1 2 16 (32)
I0121 11:36:31.817981 28306 net.cpp:165] Memory required for data: 1998951680
I0121 11:36:31.817987 28306 layer_factory.hpp:77] Creating layer mbox_loc
I0121 11:36:31.817999 28306 net.cpp:100] Creating Layer mbox_loc
I0121 11:36:31.818007 28306 net.cpp:434] mbox_loc <- conv4_3_norm_mbox_loc_flat
I0121 11:36:31.818017 28306 net.cpp:434] mbox_loc <- fc7_mbox_loc_flat
I0121 11:36:31.818027 28306 net.cpp:434] mbox_loc <- conv6_2_mbox_loc_flat
I0121 11:36:31.818035 28306 net.cpp:434] mbox_loc <- conv7_2_mbox_loc_flat
I0121 11:36:31.818042 28306 net.cpp:434] mbox_loc <- conv8_2_mbox_loc_flat
I0121 11:36:31.818050 28306 net.cpp:434] mbox_loc <- conv9_2_mbox_loc_flat
I0121 11:36:31.818059 28306 net.cpp:408] mbox_loc -> mbox_loc
I0121 11:36:31.818114 28306 net.cpp:150] Setting up mbox_loc
I0121 11:36:31.818126 28306 net.cpp:157] Top shape: 8 34928 (279424)
I0121 11:36:31.818132 28306 net.cpp:165] Memory required for data: 2000069376
I0121 11:36:31.818137 28306 layer_factory.hpp:77] Creating layer mbox_conf
I0121 11:36:31.818150 28306 net.cpp:100] Creating Layer mbox_conf
I0121 11:36:31.818156 28306 net.cpp:434] mbox_conf <- conv4_3_norm_mbox_conf_flat
I0121 11:36:31.818164 28306 net.cpp:434] mbox_conf <- fc7_mbox_conf_flat
I0121 11:36:31.818172 28306 net.cpp:434] mbox_conf <- conv6_2_mbox_conf_flat
I0121 11:36:31.818181 28306 net.cpp:434] mbox_conf <- conv7_2_mbox_conf_flat
I0121 11:36:31.818187 28306 net.cpp:434] mbox_conf <- conv8_2_mbox_conf_flat
I0121 11:36:31.818194 28306 net.cpp:434] mbox_conf <- conv9_2_mbox_conf_flat
I0121 11:36:31.818203 28306 net.cpp:408] mbox_conf -> mbox_conf
I0121 11:36:31.818259 28306 net.cpp:150] Setting up mbox_conf
I0121 11:36:31.818272 28306 net.cpp:157] Top shape: 8 192104 (1536832)
I0121 11:36:31.818279 28306 net.cpp:165] Memory required for data: 2006216704
I0121 11:36:31.818284 28306 layer_factory.hpp:77] Creating layer mbox_priorbox
I0121 11:36:31.818325 28306 net.cpp:100] Creating Layer mbox_priorbox
I0121 11:36:31.818333 28306 net.cpp:434] mbox_priorbox <- conv4_3_norm_mbox_priorbox
I0121 11:36:31.818342 28306 net.cpp:434] mbox_priorbox <- fc7_mbox_priorbox
I0121 11:36:31.818349 28306 net.cpp:434] mbox_priorbox <- conv6_2_mbox_priorbox
I0121 11:36:31.818356 28306 net.cpp:434] mbox_priorbox <- conv7_2_mbox_priorbox
I0121 11:36:31.818363 28306 net.cpp:434] mbox_priorbox <- conv8_2_mbox_priorbox
I0121 11:36:31.818370 28306 net.cpp:434] mbox_priorbox <- conv9_2_mbox_priorbox
I0121 11:36:31.818378 28306 net.cpp:408] mbox_priorbox -> mbox_priorbox
I0121 11:36:31.818430 28306 net.cpp:150] Setting up mbox_priorbox
I0121 11:36:31.818444 28306 net.cpp:157] Top shape: 1 2 34928 (69856)
I0121 11:36:31.818449 28306 net.cpp:165] Memory required for data: 2006496128
I0121 11:36:31.818455 28306 layer_factory.hpp:77] Creating layer mbox_conf_reshape
I0121 11:36:31.818470 28306 net.cpp:100] Creating Layer mbox_conf_reshape
I0121 11:36:31.818477 28306 net.cpp:434] mbox_conf_reshape <- mbox_conf
I0121 11:36:31.818486 28306 net.cpp:408] mbox_conf_reshape -> mbox_conf_reshape
I0121 11:36:31.818549 28306 net.cpp:150] Setting up mbox_conf_reshape
I0121 11:36:31.818562 28306 net.cpp:157] Top shape: 8 8732 22 (1536832)
I0121 11:36:31.818568 28306 net.cpp:165] Memory required for data: 2012643456
I0121 11:36:31.818574 28306 layer_factory.hpp:77] Creating layer mbox_conf_softmax
I0121 11:36:31.818584 28306 net.cpp:100] Creating Layer mbox_conf_softmax
I0121 11:36:31.818590 28306 net.cpp:434] mbox_conf_softmax <- mbox_conf_reshape
I0121 11:36:31.818601 28306 net.cpp:408] mbox_conf_softmax -> mbox_conf_softmax
I0121 11:36:31.819438 28306 net.cpp:150] Setting up mbox_conf_softmax
I0121 11:36:31.819454 28306 net.cpp:157] Top shape: 8 8732 22 (1536832)
I0121 11:36:31.819461 28306 net.cpp:165] Memory required for data: 2018790784
I0121 11:36:31.819468 28306 layer_factory.hpp:77] Creating layer mbox_conf_flatten
I0121 11:36:31.819478 28306 net.cpp:100] Creating Layer mbox_conf_flatten
I0121 11:36:31.819486 28306 net.cpp:434] mbox_conf_flatten <- mbox_conf_softmax
I0121 11:36:31.819495 28306 net.cpp:408] mbox_conf_flatten -> mbox_conf_flatten
I0121 11:36:31.819547 28306 net.cpp:150] Setting up mbox_conf_flatten
I0121 11:36:31.819561 28306 net.cpp:157] Top shape: 8 192104 (1536832)
I0121 11:36:31.819566 28306 net.cpp:165] Memory required for data: 2024938112
I0121 11:36:31.819572 28306 layer_factory.hpp:77] Creating layer detection_out
I0121 11:36:31.819600 28306 net.cpp:100] Creating Layer detection_out
I0121 11:36:31.819609 28306 net.cpp:434] detection_out <- mbox_loc
I0121 11:36:31.819617 28306 net.cpp:434] detection_out <- mbox_conf_flatten
I0121 11:36:31.819624 28306 net.cpp:434] detection_out <- mbox_priorbox
I0121 11:36:31.819636 28306 net.cpp:408] detection_out -> detection_out
I0121 11:36:31.821138 28306 net.cpp:150] Setting up detection_out
I0121 11:36:31.821158 28306 net.cpp:157] Top shape: 1 1 1 7 (7)
I0121 11:36:31.821166 28306 net.cpp:165] Memory required for data: 2024938140
I0121 11:36:31.821171 28306 layer_factory.hpp:77] Creating layer detection_eval
I0121 11:36:31.821183 28306 net.cpp:100] Creating Layer detection_eval
I0121 11:36:31.821189 28306 net.cpp:434] detection_eval <- detection_out
I0121 11:36:31.821197 28306 net.cpp:434] detection_eval <- label
I0121 11:36:31.821210 28306 net.cpp:408] detection_eval -> detection_eval
I0121 11:36:31.821352 28306 net.cpp:150] Setting up detection_eval
I0121 11:36:31.821368 28306 net.cpp:157] Top shape: 1 1 22 5 (110)
I0121 11:36:31.821375 28306 net.cpp:165] Memory required for data: 2024938580
I0121 11:36:31.821382 28306 net.cpp:228] detection_eval does not need backward computation.
I0121 11:36:31.821389 28306 net.cpp:228] detection_out does not need backward computation.
I0121 11:36:31.821396 28306 net.cpp:228] mbox_conf_flatten does not need backward computation.
I0121 11:36:31.821403 28306 net.cpp:228] mbox_conf_softmax does not need backward computation.
…
