…
      sampler {
        min_scale: 0.3
        max_scale: 1
        min_aspect_ratio: 0.5
        max_aspect_ratio: 2
      }
      sample_constraint {
        min_jaccard_overlap: 0.9
      }
      max_sample: 1
      max_trials: 50
    }
    batch_sampler {
      sampler {
        min_scale: 0.3
        max_scale: 1
        min_aspect_ratio: 0.5
        max_aspect_ratio: 2
      }
      sample_constraint {
        max_jaccard_overlap: 1
      }
      max_sample: 1
      max_trials: 50
    }
    label_map_file: "data/VOC0712/labelmap_voc.prototxt"
  }
}
layer {
  name: "conv1_1"
  type: "Convolution"
  bottom: "data"
  top: "conv1_1"
  param {
    lr_mult: 1
    decay_mult: 1
  }
  param {
    lr_mult: 2
    decay_mult: 0
  }
  convolution_param {
    num_output: 64
    pad: 1
    kernel_size: 3
    weight_filler {
      type: "xavier"
    }
    bias_filler {
      type: "constant"
      value: 0
    }
  }
}
layer {
  name: "relu1_1"
  type: "ReLU"
  bottom: "conv1_1"
  top: "conv1_1"
}
layer {
  name: "conv1_2"
  type: "Convolution"
  bottom: "conv1_1"
  top: "conv1_2"
  param {
    lr_mult: 1
    decay_mult: 1
  }
  param {
    lr_mult: 2
    decay_mult: 0
  }
  convolution_param {
    num_output: 64
    pad: 1
    kernel_size: 3
    weight_filler {
      type: "xavier"
    }
    bias_filler {
      type: "constant"
      value: 0
    }
  }
}
layer {
  name: "relu1_2"
  type: "ReLU"
  bottom: "conv1_2"
  top: "conv1_2"
}
layer {
  name: "pool1"
  type: "Pooling"
  bottom: "conv1_2"
  top: "pool1"
  pooling_param {
    pool: MAX
    kernel_size: 2
    stride: 2
  }
}
layer {
  name: "conv2_1"
  type: "Convolution"
  bottom: "pool1"
  top: "conv2_1"
  param {
    lr_mult: 1
    decay_mult: 1
  }
  param {
    lr_mult: 2
    decay_mult: 0
  }
  convolution_param {
    num_output: 128
    pad: 1
    kernel_size: 3
    weight_filler {
      type: "xavier"
    }
    bias_filler {
      type: "constant"
      value: 0
    }
  }
}
layer {
  name: "relu2_1"
  type: "ReLU"
  bottom: "conv2_1"
  top: "conv2_1"
}
layer {
  name: "conv2_2"
  type: "Convolution"
  bottom: "conv2_1"
  top: "conv2_2"
  param {
    lr_mult: 1
    decay_mult: 1
  }
  param {
    lr_mult: 2
    decay_mult: 0
  }
  convolution_param {
    num_output: 128
    pad: 1
    kernel_size: 3
    weight_filler {
      type: "xavier"
    }
    bias_filler {
      type: "constant"
      value: 0
    }
  }
}
layer {
  name: "relu2_2"
  type: "ReLU"
  bottom: "conv2_2"
  top: "conv2_2"
}
layer {
  name: "pool2"
  type: "Pooling"
  bottom: "conv2_2"
  top: "pool2"
  pooling_param {
    pool: MAX
    kernel_size: 2
    stride: 2
  }
}
layer {
  name: "conv3_1"
  type: "Convolution"
  bottom: "pool2"
  top: "conv3_1"
  param {
    lr_mult: 1
    decay_mult: 1
  }
  param {
    lr_mult: 2
    decay_mult: 0
  }
  convolution_param {
    num_output: 256
    pad: 1
    kernel_size: 3
    weight_filler {
      type: "xavier"
    }
    bias_filler {
      type: "constant"
      value: 0
    }
  }
}
layer {
  name: "relu3_1"
  type: "ReLU"
  bottom: "conv3_1"
  top: "conv3_1"
}
layer {
  name: "conv3_2"
  type: "Convolution"
  bottom: "conv3_1"
  top: "conv3_2"
  param {
    lr_mult: 1
    decay_mult: 1
  }
  param {
    lr_mult: 2
    decay_mult: 0
  }
  convolution_param {
    num_output: 256
    pad: 1
    kernel_size: 3
    weight_filler {
      type: "xavier"
    }
    bias_filler {
      type: "constant"
      value: 0
    }
  }
}
layer {
  name: "relu3_2"
  type: "ReLU"
  bottom: "conv3_2"
  top: "conv3_2"
}
layer {
  name: "conv3_3"
  type: "Convolution"
  bottom: "conv3_2"
  top: "conv3_3"
  param {
    lr_mult: 1
    decay_mult: 1
  }
  param {
    lr_mult: 2
    decay_mult: 0
  }
  convolution_param {
    num_output: 256
    pad: 1
    kernel_size: 3
    weight_filler {
      type: "xavier"
    }
    bias_filler {
      type: "constant"
      value: 0
    }
  }
}
layer {
  name: "relu3_3"
  type: "ReLU"
  bottom: "conv3_3"
  top: "conv3_3"
}
layer {
  name: "pool3"
  type: "Pooling"
  bottom: "conv3_3"
  top: "pool3"
  pooling_param {
    pool: MAX
    kernel_size: 2
    stride: 2
  }
}
layer {
  name: "conv4_1"
  type: "Convolution"
  bottom: "pool3"
  top: "conv4_1"
  param {
    lr_mult: 1
    decay_mult: 1
  }
  param {
    lr_mult: 2
    decay_mult: 0
  }
  convolution_param {
    num_output: 512
    pad: 1
    kernel_size: 3
    weight_filler {
      type: "xavier"
    }
    bias_filler {
      type: "constant"
      value: 0
    }
  }
}
layer {
  name: "relu4_1"
  type: "ReLU"
  bottom: "conv4_1"
  top: "conv4_1"
}
layer {
  name: "conv4_2"
  type: "Convolution"
  bottom: "conv4_1"
  top: "conv4_2"
  param {
    lr_mult: 1
    decay_mult: 1
  }
  param {
    lr_mult: 2
    decay_mult: 0
  }
  convolution_param {
    num_output: 512
    pad: 1
    kernel_size: 3
    weight_filler {
      type: "xavier"
    }
    bias_filler {
      type: "constant"
      value: 0
    }
  }
}
layer {
  name: "relu4_2"
  type: "ReLU"
  bottom: "conv4_2"
  top: "conv4_2"
}
layer {
  name: "conv4_3"
  type: "Convolution"
  bottom: "conv4_2"
  top: "conv4_3"
  param {
    lr_mult: 1
    decay_mult: 1
  }
  param {
    lr_mult: 2
    decay_mult: 0
  }
  convolution_param {
    num_output: 512
    pad: 1
    kernel_size: 3
    weight_filler {
      type: "xavier"
    }
    bias_filler {
      type: "constant"
      value: 0
    }
  }
}
layer {
  name: "relu4_3"
  type: "ReLU"
  bottom: "conv4_3"
  top: "conv4_3"
}
layer {
  name: "pool4"
  type: "Pooling"
  bottom: "conv4_3"
  top: "pool4"
  pooling_param {
    pool: MAX
    kernel_size: 2
    stride: 2
  }
}
layer {
  name: "conv5_1"
  type: "Convolution"
  bottom: "pool4"
  top: "conv5_1"
  param {
    lr_mult: 1
    decay_mult: 1
  }
  param {
    lr_mult: 2
    decay_mult: 0
  }
  convolution_param {
    num_output: 512
    pad: 1
    kernel_size: 3
    weight_filler {
      type: "xavier"
    }
    bias_filler {
      type: "constant"
      value: 0
    }
    dilation: 1
  }
}
layer {
  name: "relu5_1"
  type: "ReLU"
  bottom: "conv5_1"
  top: "conv5_1"
}
layer {
  name: "conv5_2"
  type: "Convolution"
  bottom: "conv5_1"
  top: "conv5_2"
  param {
    lr_mult: 1
    decay_mult: 1
  }
  param {
    lr_mult: 2
    decay_mult: 0
  }
  convolution_param {
    num_output: 512
    pad: 1
    kernel_size: 3
    weight_filler {
      type: "xavier"
    }
    bias_filler {
      type: "constant"
      value: 0
    }
    dilation: 1
  }
}
layer {
  name: "relu5_2"
  type: "ReLU"
  bottom: "conv5_2"
  top: "conv5_2"
}
layer {
  name: "conv5_3"
  type: "Convolution"
  bottom: "conv5_2"
  top: "conv5_3"
  param {
    lr_mult: 1
    decay_mult: 1
  }
  param {
    lr_mult: 2
    decay_mult: 0
  }
  convolution_param {
    num_output: 512
    pad: 1
    kernel_size: 3
    weight_filler {
      type: "xavier"
    }
    bias_filler {
      type: "constant"
      value: 0
    }
    dilation: 1
  }
}
layer {
  name: "relu5_3"
  type: "ReLU"
  bottom: "conv5_3"
  top: "conv5_3"
}
layer {
  name: "pool5"
  type: "Pooling"
  bottom: "conv5_3"
  top: "pool5"
  pooling_param {
    pool: MAX
    kernel_size: 3
    stride: 1
    pad: 1
  }
}
layer {
  name: "fc6"
  type: "Convolution"
  bottom: "pool5"
  top: "fc6"
  param {
    lr_mult: 1
    decay_mult: 1
  }
  param {
    lr_mult: 2
    decay_mult: 0
  }
  convolution_param {
    num_output: 1024
    pad: 6
    kernel_size: 3
    weight_filler {
      type: "xavier"
    }
    bias_filler {
      type: "constant"
      value: 0
    }
    dilation: 6
  }
}
layer {
  name: "relu6"
  type: "ReLU"
  bottom: "fc6"
  top: "fc6"
}
layer {
  name: "fc7"
  type: "Convolution"
  bottom: "fc6"
  top: "fc7"
  param {
    lr_mult: 1
    decay_mult: 1
  }
  param {
    lr_mult: 2
    decay_mult: 0
  }
  convolution_param {
    num_output: 1024
    kernel_size: 1
    weight_filler {
      type: "xavier"
    }
    bias_filler {
      type: "constant"
      value: 0
    }
  }
}
layer {
  name: "relu7"
  type: "ReLU"
  bottom: "fc7"
  top: "fc7"
}
layer {
  name: "conv6_1"
  type: "Convolution"
  bottom: "fc7"
  top: "conv6_1"
  param {
    lr_mult: 1
    decay_mult: 1
  }
  param {
    lr_mult: 2
    decay_mult: 0
  }
  convolution_param {
    num_output: 256
    pad: 0
    kernel_size: 1
    stride: 1
    weight_filler {
      type: "xavier"
    }
    bias_filler {
      type: "constant"
      value: 0
    }
  }
}
layer {
  name: "conv6_1_relu"
  type: "ReLU"
  bottom: "conv6_1"
  top: "conv6_1"
}
layer {
  name: "conv6_2"
  type: "Convolution"
  bottom: "conv6_1"
  top: "conv6_2"
  param {
    lr_mult: 1
    decay_mult: 1
  }
  param {
    lr_mult: 2
    decay_mult: 0
  }
  convolution_param {
    num_output: 512
    pad: 1
    kernel_size: 3
    stride: 2
    weight_filler {
      type: "xavier"
    }
    bias_filler {
      type: "constant"
      value: 0
    }
  }
}
layer {
  name: "conv6_2_relu"
  type: "ReLU"
  bottom: "conv6_2"
  top: "conv6_2"
}
layer {
  name: "conv7_1"
  type: "Convolution"
  bottom: "conv6_2"
  top: "conv7_1"
  param {
    lr_mult: 1
    decay_mult: 1
  }
  param {
    lr_mult: 2
    decay_mult: 0
  }
  convolution_param {
    num_output: 128
    pad: 0
    kernel_size: 1
    stride: 1
    weight_filler {
      type: "xavier"
    }
    bias_filler {
      type: "constant"
      value: 0
    }
  }
}
layer {
  name: "conv7_1_relu"
  type: "ReLU"
  bottom: "conv7_1"
  top: "conv7_1"
}
layer {
  name: "conv7_2"
  type: "Convolution"
  bottom: "conv7_1"
  top: "conv7_2"
  param {
    lr_mult: 1
    decay_mult: 1
  }
  param {
    lr_mult: 2
    decay_mult: 0
  }
  convolution_param {
    num_output: 256
    pad: 1
    kernel_size: 3
    stride: 2
    weight_filler {
      type: "xavier"
    }
    bias_filler {
      type: "constant"
      value: 0
    }
  }
}
layer {
  name: "conv7_2_relu"
  type: "ReLU"
  bottom: "conv7_2"
  top: "conv7_2"
}
layer {
  name: "conv8_1"
  type: "Convolution"
  bottom: "conv7_2"
  top: "conv8_1"
  param {
    lr_mult: 1
    decay_mult: 1
  }
  param {
    lr_mult: 2
    decay_mult: 0
  }
  convolution_param {
    num_output: 128
    pad: 0
    kernel_size: 1
    stride: 1
    weight_filler {
      type: "xavier"
    }
    bias_filler {
      type: "constant"
      value: 0
    }
  }
}
layer {
  name: "conv8_1_relu"
  type: "ReLU"
  bottom: "conv8_1"
  top: "conv8_1"
}
layer {
  name: "conv8_2"
  type: "Convolution"
  bottom: "conv8_1"
  top: "conv8_2"
  param {
    lr_mult: 1
    decay_mult: 1
  }
  param {
    lr_mult: 2
    decay_mult: 0
  }
  convolution_param {
    num_output: 256
    pad: 0
    kernel_size: 3
    stride: 1
    weight_filler {
      type: "xavier"
    }
    bias_filler {
      type: "constant"
      value: 0
    }
  }
}
layer {
  name: "conv8_2_relu"
  type: "ReLU"
  bottom: "conv8_2"
  top: "conv8_2"
}
layer {
  name: "conv9_1"
  type: "Convolution"
  bottom: "conv8_2"
  top: "conv9_1"
  param {
    lr_mult: 1
    decay_mult: 1
  }
  param {
    lr_mult: 2
    decay_mult: 0
  }
  convolution_param {
    num_output: 128
    pad: 0
    kernel_size: 1
    stride: 1
    weight_filler {
      type: "xavier"
    }
    bias_filler {
      type: "constant"
      value: 0
    }
  }
}
layer {
  name: "conv9_1_relu"
  type: "ReLU"
  bottom: "conv9_1"
  top: "conv9_1"
}
layer {
  name: "conv9_2"
  type: "Convolution"
  bottom: "conv9_1"
  top: "conv9_2"
  param {
    lr_mult: 1
    decay_mult: 1
  }
  param {
    lr_mult: 2
    decay_mult: 0
  }
  convolution_param {
    num_output: 256
    pad: 0
    kernel_size: 3
    stride: 1
    weight_filler {
      type: "xavier"
    }
    bias_filler {
      type: "constant"
      value: 0
    }
  }
}
layer {
  name: "conv9_2_relu"
  type: "ReLU"
  bottom: "conv9_2"
  top: "conv9_2"
}
layer {
  name: "conv4_3_norm"
  type: "Normalize"
  bottom: "conv4_3"
  top: "conv4_3_norm"
  norm_param {
    across_spatial: false
    scale_filler {
      type: "constant"
      value: 20
    }
    channel_shared: false
  }
}
layer {
  name: "conv4_3_norm_mbox_loc"
  type: "Convolution"
  bottom: "conv4_3_norm"
  top: "conv4_3_norm_mbox_loc"
  param {
    lr_mult: 1
    decay_mult: 1
  }
  param {
    lr_mult: 2
    decay_mult: 0
  }
  convolution_param {
    num_output: 16
    pad: 1
    kernel_size: 3
    stride: 1
    weight_filler {
      type: "xavier"
    }
    bias_filler {
      type: "constant"
      value: 0
    }
  }
}
layer {
  name: "conv4_3_norm_mbox_loc_perm"
  type: "Permute"
  bottom: "conv4_3_norm_mbox_loc"
  top: "conv4_3_norm_mbox_loc_perm"
  permute_param {
    order: 0
    order: 2
    order: 3
    order: 1
  }
}
layer {
  name: "conv4_3_norm_mbox_loc_flat"
  type: "Flatten"
  bottom: "conv4_3_norm_mbox_loc_perm"
  top: "conv4_3_norm_mbox_loc_flat"
  flatten_param {
    axis: 1
  }
}
layer {
  name: "conv4_3_norm_mbox_conf"
  type: "Convolution"
  bottom: "conv4_3_norm"
  top: "conv4_3_norm_mbox_conf"
  param {
    lr_mult: 1
    decay_mult: 1
  }
  param {
    lr_mult: 2
    decay_mult: 0
  }
  convolution_param {
    num_output: 84
    pad: 1
    kernel_size: 3
    stride: 1
    weight_filler {
      type: "xavier"
    }
    bias_filler {
      type: "constant"
      value: 0
    }
  }
}
layer {
  name: "conv4_3_norm_mbox_conf_perm"
  type: "Permute"
  bottom: "conv4_3_norm_mbox_conf"
  top: "conv4_3_norm_mbox_conf_perm"
  permute_param {
    order: 0
    order: 2
    order: 3
    order: 1
  }
}
layer {
  name: "conv4_3_norm_mbox_conf_flat"
  type: "Flatten"
  bottom: "conv4_3_norm_mbox_conf_perm"
  top: "conv4_3_norm_mbox_conf_flat"
  flatten_param {
    axis: 1
  }
}
layer {
  name: "conv4_3_norm_mbox_priorbox"
  type: "PriorBox"
  bottom: "conv4_3_norm"
  bottom: "data"
  top: "conv4_3_norm_mbox_priorbox"
  prior_box_param {
    min_size: 30
    max_size: 60
    aspect_ratio: 2
    flip: true
    clip: false
    variance: 0.1
    variance: 0.1
    variance: 0.2
    variance: 0.2
    step: 8
    offset: 0.5
  }
}
layer {
  name: "fc7_mbox_loc"
  type: "Convolution"
  bottom: "fc7"
  top: "fc7_mbox_loc"
  param {
    lr_mult: 1
    decay_mult: 1
  }
  param {
    lr_mult: 2
    decay_mult: 0
  }
  convolution_param {
    num_output: 24
    pad: 1
    kernel_size: 3
    stride: 1
    weight_filler {
      type: "xavier"
    }
    bias_filler {
      type: "constant"
      value: 0
    }
  }
}
layer {
  name: "fc7_mbox_loc_perm"
  type: "Permute"
  bottom: "fc7_mbox_loc"
  top: "fc7_mbox_loc_perm"
  permute_param {
    order: 0
    order: 2
    order: 3
    order: 1
  }
}
layer {
  name: "fc7_mbox_loc_flat"
  type: "Flatten"
  bottom: "fc7_mbox_loc_perm"
  top: "fc7_mbox_loc_flat"
  flatten_param {
    axis: 1
  }
}
layer {
  name: "fc7_mbox_conf"
  type: "Convolution"
  bottom: "fc7"
  top: "fc7_mbox_conf"
  param {
    lr_mult: 1
    decay_mult: 1
  }
  param {
    lr_mult: 2
    decay_mult: 0
  }
  convolution_param {
    num_output: 126
    pad: 1
    kernel_size: 3
    stride: 1
    weight_filler {
      type: "xavier"
    }
    bias_filler {
      type: "constant"
      value: 0
    }
  }
}
layer {
  name: "fc7_mbox_conf_perm"
  type: "Permute"
  bottom: "fc7_mbox_conf"
  top: "fc7_mbox_conf_perm"
  permute_param {
    order: 0
    order: 2
    order: 3
    order: 1
  }
}
layer {
  name: "fc7_mbox_conf_flat"
  type: "Flatten"
  bottom: "fc7_mbox_conf_perm"
  top: "fc7_mbox_conf_flat"
  flatten_param {
    axis: 1
  }
}
layer {
  name: "fc7_mbox_priorbox"
  type: "PriorBox"
  bottom: "fc7"
  bottom: "data"
  top: "fc7_mbox_priorbox"
  prior_box_param {
    min_size: 60
    max_size: 111
    aspect_ratio: 2
    aspect_ratio: 3
    flip: true
    clip: false
    variance: 0.1
    variance: 0.1
    variance: 0.2
    variance: 0.2
    step: 16
    offset: 0.5
  }
}
layer {
  name: "conv6_2_mbox_loc"
  type: "Convolution"
  bottom: "conv6_2"
  top: "conv6_2_mbox_loc"
  param {
    lr_mult: 1
    decay_mult: 1
  }
  param {
    lr_mult: 2
    decay_mult: 0
  }
  convolution_param {
    num_output: 24
    pad: 1
    kernel_size: 3
    stride: 1
    weight_filler {
      type: "xavier"
    }
    bias_filler {
      type: "constant"
      value: 0
    }
  }
}
layer {
  name: "conv6_2_mbox_loc_perm"
  type: "Permute"
  bottom: "conv6_2_mbox_loc"
  top: "conv6_2_mbox_loc_perm"
  permute_param {
    order: 0
    order: 2
    order: 3
    order: 1
  }
}
layer {
  name: "conv6_2_mbox_loc_flat"
  type: "Flatten"
  bottom: "conv6_2_mbox_loc_perm"
  top: "conv6_2_mbox_loc_flat"
  flatten_param {
    axis: 1
  }
}
layer {
  name: "conv6_2_mbox_conf"
  type: "Convolution"
  bottom: "conv6_2"
  top: "conv6_2_mbox_conf"
  param {
    lr_mult: 1
    decay_mult: 1
  }
  param {
    lr_mult: 2
    decay_mult: 0
  }
  convolution_param {
    num_output: 126
    pad: 1
    kernel_size: 3
    stride: 1
    weight_filler {
      type: "xavier"
    }
    bias_filler {
      type: "constant"
      value: 0
    }
  }
}
layer {
  name: "conv6_2_mbox_conf_perm"
  type: "Permute"
  bottom: "conv6_2_mbox_conf"
  top: "conv6_2_mbox_conf_perm"
  permute_param {
    order: 0
    order: 2
    order: 3
    order: 1
  }
}
layer {
  name: "conv6_2_mbox_conf_flat"
  type: "Flatten"
  bottom: "conv6_2_mbox_conf_perm"
  top: "conv6_2_mbox_conf_flat"
  flatten_param {
    axis: 1
  }
}
layer {
  name: "conv6_2_mbox_priorbox"
  type: "PriorBox"
  bottom: "conv6_2"
  bottom: "data"
  top: "conv6_2_mbox_priorbox"
  prior_box_param {
    min_size: 111
    max_size: 162
    aspect_ratio: 2
    aspect_ratio: 3
    flip: true
    clip: false
    variance: 0.1
    variance: 0.1
    variance: 0.2
    variance: 0.2
    step: 32
    offset: 0.5
  }
}
layer {
  name: "conv7_2_mbox_loc"
  type: "Convolution"
  bottom: "conv7_2"
  top: "conv7_2_mbox_loc"
  param {
    lr_mult: 1
    decay_mult: 1
  }
  param {
    lr_mult: 2
    decay_mult: 0
  }
  convolution_param {
    num_output: 24
    pad: 1
    kernel_size: 3
    stride: 1
    weight_filler {
      type: "xavier"
    }
    bias_filler {
      type: "constant"
      value: 0
    }
  }
}
layer {
  name: "conv7_2_mbox_loc_perm"
  type: "Permute"
  bottom: "conv7_2_mbox_loc"
  top: "conv7_2_mbox_loc_perm"
  permute_param {
    order: 0
    order: 2
    order: 3
    order: 1
  }
}
layer {
  name: "conv7_2_mbox_loc_flat"
  type: "Flatten"
  bottom: "conv7_2_mbox_loc_perm"
  top: "conv7_2_mbox_loc_flat"
  flatten_param {
    axis: 1
  }
}
layer {
  name: "conv7_2_mbox_conf"
  type: "Convolution"
  bottom: "conv7_2"
  top: "conv7_2_mbox_conf"
  param {
    lr_mult: 1
    decay_mult: 1
  }
  param {
    lr_mult: 2
    decay_mult: 0
  }
  convolution_param {
    num_output: 126
    pad: 1
    kernel_size: 3
    stride: 1
    weight_filler {
      type: "xavier"
    }
    bias_filler {
      type: "constant"
      value: 0
    }
  }
}
layer {
  name: "conv7_2_mbox_conf_perm"
  type: "Permute"
  bottom: "conv7_2_mbox_conf"
  top: "conv7_2_mbox_conf_perm"
  permute_param {
    order: 0
    order: 2
    order: 3
    order: 1
  }
}
layer {
  name: "conv7_2_mbox_conf_flat"
  type: "Flatten"
  bottom: "conv7_2_mbox_conf_perm"
  top: "conv7_2_mbox_conf_flat"
  flatten_param {
    axis: 1
  }
}
layer {
  name: "conv7_2_mbox_priorbox"
  type: "PriorBox"
  bottom: "conv7_2"
  bottom: "data"
  top: "conv7_2_mbox_priorbox"
  prior_box_param {
    min_size: 162
    max_size: 213
    aspect_ratio: 2
    aspect_ratio: 3
    flip: true
    clip: false
    variance: 0.1
    variance: 0.1
    variance: 0.2
    variance: 0.2
    step: 64
    offset: 0.5
  }
}
layer {
  name: "conv8_2_mbox_loc"
  type: "Convolution"
  bottom: "conv8_2"
  top: "conv8_2_mbox_loc"
  param {
    lr_mult: 1
    decay_mult: 1
  }
  param {
    lr_mult: 2
    decay_mult: 0
  }
  convolution_param {
    num_output: 16
    pad: 1
    kernel_size: 3
    stride: 1
    weight_filler {
      type: "xavier"
    }
    bias_filler {
      type: "constant"
      value: 0
    }
  }
}
layer {
  name: "conv8_2_mbox_loc_perm"
  type: "Permute"
  bottom: "conv8_2_mbox_loc"
  top: "conv8_2_mbox_loc_perm"
  permute_param {
    order: 0
    order: 2
    order: 3
    order: 1
  }
}
layer {
  name: "conv8_2_mbox_loc_flat"
  type: "Flatten"
  bottom: "conv8_2_mbox_loc_perm"
  top: "conv8_2_mbox_loc_flat"
  flatten_param {
    axis: 1
  }
}
layer {
  name: "conv8_2_mbox_conf"
  type: "Convolution"
  bottom: "conv8_2"
  top: "conv8_2_mbox_conf"
  param {
    lr_mult: 1
    decay_mult: 1
  }
  param {
    lr_mult: 2
    decay_mult: 0
  }
  convolution_param {
    num_output: 84
    pad: 1
    kernel_size: 3
    stride: 1
    weight_filler {
      type: "xavier"
    }
    bias_filler {
      type: "constant"
      value: 0
    }
  }
}
layer {
  name: "conv8_2_mbox_conf_perm"
  type: "Permute"
  bottom: "conv8_2_mbox_conf"
  top: "conv8_2_mbox_conf_perm"
  permute_param {
    order: 0
    order: 2
    order: 3
    order: 1
  }
}
layer {
  name: "conv8_2_mbox_conf_flat"
  type: "Flatten"
  bottom: "conv8_2_mbox_conf_perm"
  top: "conv8_2_mbox_conf_flat"
  flatten_param {
    axis: 1
  }
}
layer {
  name: "conv8_2_mbox_priorbox"
  type: "PriorBox"
  bottom: "conv8_2"
  bottom: "data"
  top: "conv8_2_mbox_priorbox"
  prior_box_param {
    min_size: 213
    max_size: 264
    aspect_ratio: 2
    flip: true
    clip: false
    variance: 0.1
    variance: 0.1
    variance: 0.2
    variance: 0.2
    step: 100
    offset: 0.5
  }
}
layer {
  name: "conv9_2_mbox_loc"
  type: "Convolution"
  bottom: "conv9_2"
  top: "conv9_2_mbox_loc"
  param {
    lr_mult: 1
    decay_mult: 1
  }
  param {
    lr_mult: 2
    decay_mult: 0
  }
  convolution_param {
    num_output: 16
    pad: 1
    kernel_size: 3
    stride: 1
    weight_filler {
      type: "xavier"
    }
    bias_filler {
      type: "constant"
      value: 0
    }
  }
}
layer {
  name: "conv9_2_mbox_loc_perm"
  type: "Permute"
  bottom: "conv9_2_mbox_loc"
  top: "conv9_2_mbox_loc_perm"
  permute_param {
    order: 0
    order: 2
    order: 3
    order: 1
  }
}
layer {
  name: "conv9_2_mbox_loc_flat"
  type: "Flatten"
  bottom: "conv9_2_mbox_loc_perm"
  top: "conv9_2_mbox_loc_flat"
  flatten_param {
    axis: 1
  }
}
layer {
  name: "conv9_2_mbox_conf"
  type: "Convolution"
  bottom: "conv9_2"
  top: "conv9_2_mbox_conf"
  param {
    lr_mult: 1
    decay_mult: 1
  }
  param {
    lr_mult: 2
    decay_mult: 0
  }
  convolution_param {
    num_output: 84
    pad: 1
    kernel_size: 3
    stride: 1
    weight_filler {
      type: "xavier"
    }
    bias_filler {
      type: "constant"
      value: 0
    }
  }
}
layer {
  name: "conv9_2_mbox_conf_perm"
  type: "Permute"
  bottom: "conv9_2_mbox_conf"
  top: "conv9_2_mbox_conf_perm"
  permute_param {
    order: 0
    order: 2
    order: 3
    order: 1
  }
}
layer {
  name: "conv9_2_mbox_conf_flat"
  type: "Flatten"
  bottom: "conv9_2_mbox_conf_perm"
  top: "conv9_2_mbox_conf_flat"
  flatten_param {
    axis: 1
  }
}
layer {
  name: "conv9_2_mbox_priorbox"
  type: "PriorBox"
  bottom: "conv9_2"
  bottom: "data"
  top: "conv9_2_mbox_priorbox"
  prior_box_param {
    min_size: 264
    max_size: 315
    aspect_ratio: 2
    flip: true
    clip: false
    variance: 0.1
    variance: 0.1
    variance: 0.2
    variance: 0.2
    step: 300
    offset: 0.5
  }
}
layer {
  name: "mbox_loc"
  type: "Concat"
  bottom: "conv4_3_norm_mbox_loc_flat"
  bottom: "fc7_mbox_loc_flat"
  bottom: "conv6_2_mbox_loc_flat"
  bottom: "conv7_2_mbox_loc_flat"
  bottom: "conv8_2_mbox_loc_flat"
  bottom: "conv9_2_mbox_loc_flat"
  top: "mbox_loc"
  concat_param {
    axis: 1
  }
}
layer {
  name: "mbox_conf"
  type: "Concat"
  bottom: "conv4_3_norm_mbox_conf_flat"
  bottom: "fc7_mbox_conf_flat"
  bottom: "conv6_2_mbox_conf_flat"
  bottom: "conv7_2_mbox_conf_flat"
  bottom: "conv8_2_mbox_conf_flat"
  bottom: "conv9_2_mbox_conf_flat"
  top: "mbox_conf"
  concat_param {
    axis: 1
  }
}
layer {
  name: "mbox_priorbox"
  type: "Concat"
  bottom: "conv4_3_norm_mbox_priorbox"
  bottom: "fc7_mbox_priorbox"
  bottom: "conv6_2_mbox_priorbox"
  bottom: "conv7_2_mbox_priorbox"
  bottom: "conv8_2_mbox_priorbox"
  bottom: "conv9_2_mbox_priorbox"
  top: "mbox_priorbox"
  concat_param {
    axis: 2
  }
}
layer {
  name: "mbox_loss"
  type: "MultiBoxLoss"
  bottom: "mbox_loc"
  bottom: "mbox_conf"
  bottom: "mbox_priorbox"
  bottom: "label"
  top: "mbox_loss"
  include {
    phase: TRAIN
  }
  propagate_down: true
  propagate_down: true
  propagate_down: false
  propagate_down: false
  loss_param {
    normalization: VALID
  }
  multibox_loss_param {
    loc_loss_type: SMOOTH_L1
    conf_loss_type: SOFTMAX
    loc_weight: 1
    num_classes: 21
    share_location: true
    match_type: PER_PREDICTION
    overlap_threshold: 0.5
    use_prior_for_matching: true
    background_label_id: 0
    use_difficult_gt: true
    neg_pos_ratio: 3
    neg_overlap: 0.5
    code_type: CENTER_SIZE
    ignore_cross_boundary_bbox: false
    mining_type: MAX_NEGATIVE
  }
}
I0116 11:34:10.954656 19937 layer_factory.hpp:77] Creating layer data
I0116 11:34:10.955103 19937 net.cpp:100] Creating Layer data
I0116 11:34:10.955121 19937 net.cpp:408] data -> data
I0116 11:34:10.955173 19937 net.cpp:408] data -> label
I0116 11:34:10.956169 19953 db_lmdb.cpp:35] Opened lmdb examples/VOC0712/VOC0712_trainval_lmdb
I0116 11:34:10.967936 19937 annotated_data_layer.cpp:62] output data size: 1,3,300,300
I0116 11:34:10.970233 19937 net.cpp:150] Setting up data
I0116 11:34:10.970253 19937 net.cpp:157] Top shape: 1 3 300 300 (270000)
I0116 11:34:10.970259 19937 net.cpp:157] Top shape: 1 1 5 8 (40)
I0116 11:34:10.970263 19937 net.cpp:165] Memory required for data: 1080160
I0116 11:34:10.970288 19937 layer_factory.hpp:77] Creating layer data_data_0_split
I0116 11:34:10.970311 19937 net.cpp:100] Creating Layer data_data_0_split
I0116 11:34:10.970319 19937 net.cpp:434] data_data_0_split <- data
I0116 11:34:10.970330 19937 net.cpp:408] data_data_0_split -> data_data_0_split_0
I0116 11:34:10.970342 19937 net.cpp:408] data_data_0_split -> data_data_0_split_1
I0116 11:34:10.970350 19937 net.cpp:408] data_data_0_split -> data_data_0_split_2
I0116 11:34:10.970355 19937 net.cpp:408] data_data_0_split -> data_data_0_split_3
I0116 11:34:10.970361 19937 net.cpp:408] data_data_0_split -> data_data_0_split_4
I0116 11:34:10.970366 19937 net.cpp:408] data_data_0_split -> data_data_0_split_5
I0116 11:34:10.970371 19937 net.cpp:408] data_data_0_split -> data_data_0_split_6
I0116 11:34:10.970461 19937 net.cpp:150] Setting up data_data_0_split
I0116 11:34:10.970473 19937 net.cpp:157] Top shape: 1 3 300 300 (270000)
I0116 11:34:10.970477 19937 net.cpp:157] Top shape: 1 3 300 300 (270000)
I0116 11:34:10.970481 19937 net.cpp:157] Top shape: 1 3 300 300 (270000)
I0116 11:34:10.970485 19937 net.cpp:157] Top shape: 1 3 300 300 (270000)
I0116 11:34:10.970489 19937 net.cpp:157] Top shape: 1 3 300 300 (270000)
I0116 11:34:10.970494 19937 net.cpp:157] Top shape: 1 3 300 300 (270000)
I0116 11:34:10.970499 19937 net.cpp:157] Top shape: 1 3 300 300 (270000)
I0116 11:34:10.970501 19937 net.cpp:165] Memory required for data: 8640160
I0116 11:34:10.970504 19937 layer_factory.hpp:77] Creating layer conv1_1
I0116 11:34:10.970522 19937 net.cpp:100] Creating Layer conv1_1
I0116 11:34:10.970526 19937 net.cpp:434] conv1_1 <- data_data_0_split_0
I0116 11:34:10.970531 19937 net.cpp:408] conv1_1 -> conv1_1
I0116 11:34:11.168040 19937 net.cpp:150] Setting up conv1_1
I0116 11:34:11.168081 19937 net.cpp:157] Top shape: 1 64 300 300 (5760000)
I0116 11:34:11.168088 19937 net.cpp:165] Memory required for data: 31680160
I0116 11:34:11.168117 19937 layer_factory.hpp:77] Creating layer relu1_1
I0116 11:34:11.168133 19937 net.cpp:100] Creating Layer relu1_1
I0116 11:34:11.168140 19937 net.cpp:434] relu1_1 <- conv1_1
I0116 11:34:11.168150 19937 net.cpp:395] relu1_1 -> conv1_1 (in-place)
I0116 11:34:11.168586 19937 net.cpp:150] Setting up relu1_1
I0116 11:34:11.168606 19937 net.cpp:157] Top shape: 1 64 300 300 (5760000)
I0116 11:34:11.168613 19937 net.cpp:165] Memory required for data: 54720160
I0116 11:34:11.168622 19937 layer_factory.hpp:77] Creating layer conv1_2
I0116 11:34:11.168642 19937 net.cpp:100] Creating Layer conv1_2
I0116 11:34:11.168648 19937 net.cpp:434] conv1_2 <- conv1_1
I0116 11:34:11.168659 19937 net.cpp:408] conv1_2 -> conv1_2
I0116 11:34:11.171072 19937 net.cpp:150] Setting up conv1_2
I0116 11:34:11.171095 19937 net.cpp:157] Top shape: 1 64 300 300 (5760000)
I0116 11:34:11.171103 19937 net.cpp:165] Memory required for data: 77760160
I0116 11:34:11.171118 19937 layer_factory.hpp:77] Creating layer relu1_2
I0116 11:34:11.171128 19937 net.cpp:100] Creating Layer relu1_2
I0116 11:34:11.171135 19937 net.cpp:434] relu1_2 <- conv1_2
I0116 11:34:11.171144 19937 net.cpp:395] relu1_2 -> conv1_2 (in-place)
I0116 11:34:11.171530 19937 net.cpp:150] Setting up relu1_2
I0116 11:34:11.171548 19937 net.cpp:157] Top shape: 1 64 300 300 (5760000)
I0116 11:34:11.171555 19937 net.cpp:165] Memory required for data: 100800160
I0116 11:34:11.171562 19937 layer_factory.hpp:77] Creating layer pool1
I0116 11:34:11.171573 19937 net.cpp:100] Creating Layer pool1
I0116 11:34:11.171581 19937 net.cpp:434] pool1 <- conv1_2
I0116 11:34:11.171591 19937 net.cpp:408] pool1 -> pool1
I0116 11:34:11.171664 19937 net.cpp:150] Setting up pool1
I0116 11:34:11.171675 19937 net.cpp:157] Top shape: 1 64 150 150 (1440000)
I0116 11:34:11.171682 19937 net.cpp:165] Memory required for data: 106560160
I0116 11:34:11.171689 19937 layer_factory.hpp:77] Creating layer conv2_1
I0116 11:34:11.171702 19937 net.cpp:100] Creating Layer conv2_1
I0116 11:34:11.171708 19937 net.cpp:434] conv2_1 <- pool1
I0116 11:34:11.171718 19937 net.cpp:408] conv2_1 -> conv2_1
I0116 11:34:11.173969 19937 net.cpp:150] Setting up conv2_1
I0116 11:34:11.173990 19937 net.cpp:157] Top shape: 1 128 150 150 (2880000)
I0116 11:34:11.173998 19937 net.cpp:165] Memory required for data: 118080160
I0116 11:34:11.174013 19937 layer_factory.hpp:77] Creating layer relu2_1
I0116 11:34:11.174026 19937 net.cpp:100] Creating Layer relu2_1
I0116 11:34:11.174033 19937 net.cpp:434] relu2_1 <- conv2_1
I0116 11:34:11.174042 19937 net.cpp:395] relu2_1 -> conv2_1 (in-place)
I0116 11:34:11.174283 19937 net.cpp:150] Setting up relu2_1
I0116 11:34:11.174307 19937 net.cpp:157] Top shape: 1 128 150 150 (2880000)
I0116 11:34:11.174315 19937 net.cpp:165] Memory required for data: 129600160
I0116 11:34:11.174321 19937 layer_factory.hpp:77] Creating layer conv2_2
I0116 11:34:11.174335 19937 net.cpp:100] Creating Layer conv2_2
I0116 11:34:11.174341 19937 net.cpp:434] conv2_2 <- conv2_1
I0116 11:34:11.174350 19937 net.cpp:408] conv2_2 -> conv2_2
I0116 11:34:11.177788 19937 net.cpp:150] Setting up conv2_2
I0116 11:34:11.177810 19937 net.cpp:157] Top shape: 1 128 150 150 (2880000)
I0116 11:34:11.177819 19937 net.cpp:165] Memory required for data: 141120160
I0116 11:34:11.177830 19937 layer_factory.hpp:77] Creating layer relu2_2
I0116 11:34:11.177841 19937 net.cpp:100] Creating Layer relu2_2
I0116 11:34:11.177847 19937 net.cpp:434] relu2_2 <- conv2_2
I0116 11:34:11.177857 19937 net.cpp:395] relu2_2 -> conv2_2 (in-place)
I0116 11:34:11.178256 19937 net.cpp:150] Setting up relu2_2
I0116 11:34:11.178278 19937 net.cpp:157] Top shape: 1 128 150 150 (2880000)
I0116 11:34:11.178285 19937 net.cpp:165] Memory required for data: 152640160
I0116 11:34:11.178297 19937 layer_factory.hpp:77] Creating layer pool2
I0116 11:34:11.178310 19937 net.cpp:100] Creating Layer pool2
I0116 11:34:11.178318 19937 net.cpp:434] pool2 <- conv2_2
I0116 11:34:11.178326 19937 net.cpp:408] pool2 -> pool2
I0116 11:34:11.178390 19937 net.cpp:150] Setting up pool2
I0116 11:34:11.178406 19937 net.cpp:157] Top shape: 1 128 75 75 (720000)
I0116 11:34:11.178412 19937 net.cpp:165] Memory required for data: 155520160
I0116 11:34:11.178419 19937 layer_factory.hpp:77] Creating layer conv3_1
I0116 11:34:11.178433 19937 net.cpp:100] Creating Layer conv3_1
I0116 11:34:11.178442 19937 net.cpp:434] conv3_1 <- pool2
I0116 11:34:11.178452 19937 net.cpp:408] conv3_1 -> conv3_1
I0116 11:34:11.183984 19937 net.cpp:150] Setting up conv3_1
I0116 11:34:11.184007 19937 net.cpp:157] Top shape: 1 256 75 75 (1440000)
I0116 11:34:11.184016 19937 net.cpp:165] Memory required for data: 161280160
I0116 11:34:11.184036 19937 layer_factory.hpp:77] Creating layer relu3_1
I0116 11:34:11.184046 19937 net.cpp:100] Creating Layer relu3_1
I0116 11:34:11.184053 19937 net.cpp:434] relu3_1 <- conv3_1
I0116 11:34:11.184064 19937 net.cpp:395] relu3_1 -> conv3_1 (in-place)
I0116 11:34:11.184490 19937 net.cpp:150] Setting up relu3_1
I0116 11:34:11.184511 19937 net.cpp:157] Top shape: 1 256 75 75 (1440000)
I0116 11:34:11.184518 19937 net.cpp:165] Memory required for data: 167040160
I0116 11:34:11.184525 19937 layer_factory.hpp:77] Creating layer conv3_2
I0116 11:34:11.184542 19937 net.cpp:100] Creating Layer conv3_2
I0116 11:34:11.184550 19937 net.cpp:434] conv3_2 <- conv3_1
I0116 11:34:11.184562 19937 net.cpp:408] conv3_2 -> conv3_2
I0116 11:34:11.192929 19937 net.cpp:150] Setting up conv3_2
I0116 11:34:11.192952 19937 net.cpp:157] Top shape: 1 256 75 75 (1440000)
I0116 11:34:11.192960 19937 net.cpp:165] Memory required for data: 172800160
I0116 11:34:11.192970 19937 layer_factory.hpp:77] Creating layer relu3_2
I0116 11:34:11.192983 19937 net.cpp:100] Creating Layer relu3_2
I0116 11:34:11.192991 19937 net.cpp:434] relu3_2 <- conv3_2
I0116 11:34:11.192999 19937 net.cpp:395] relu3_2 -> conv3_2 (in-place)
I0116 11:34:11.193259 19937 net.cpp:150] Setting up relu3_2
I0116 11:34:11.193277 19937 net.cpp:157] Top shape: 1 256 75 75 (1440000)
I0116 11:34:11.193284 19937 net.cpp:165] Memory required for data: 178560160
I0116 11:34:11.193290 19937 layer_factory.hpp:77] Creating layer conv3_3
I0116 11:34:11.193310 19937 net.cpp:100] Creating Layer conv3_3
I0116 11:34:11.193331 19937 net.cpp:434] conv3_3 <- conv3_2
I0116 11:34:11.193346 19937 net.cpp:408] conv3_3 -> conv3_3
I0116 11:34:11.201887 19937 net.cpp:150] Setting up conv3_3
I0116 11:34:11.201910 19937 net.cpp:157] Top shape: 1 256 75 75 (1440000)
I0116 11:34:11.201917 19937 net.cpp:165] Memory required for data: 184320160
I0116 11:34:11.201928 19937 layer_factory.hpp:77] Creating layer relu3_3
I0116 11:34:11.201941 19937 net.cpp:100] Creating Layer relu3_3
I0116 11:34:11.201947 19937 net.cpp:434] relu3_3 <- conv3_3
I0116 11:34:11.201956 19937 net.cpp:395] relu3_3 -> conv3_3 (in-place)
I0116 11:34:11.202390 19937 net.cpp:150] Setting up relu3_3
I0116 11:34:11.202412 19937 net.cpp:157] Top shape: 1 256 75 75 (1440000)
I0116 11:34:11.202420 19937 net.cpp:165] Memory required for data: 190080160
I0116 11:34:11.202427 19937 layer_factory.hpp:77] Creating layer pool3
I0116 11:34:11.202438 19937 net.cpp:100] Creating Layer pool3
I0116 11:34:11.202445 19937 net.cpp:434] pool3 <- conv3_3
I0116 11:34:11.202455 19937 net.cpp:408] pool3 -> pool3
I0116 11:34:11.202534 19937 net.cpp:150] Setting up pool3
I0116 11:34:11.202548 19937 net.cpp:157] Top shape: 1 256 38 38 (369664)
I0116 11:34:11.202554 19937 net.cpp:165] Memory required for data: 191558816
I0116 11:34:11.202560 19937 layer_factory.hpp:77] Creating layer conv4_1
I0116 11:34:11.202577 19937 net.cpp:100] Creating Layer conv4_1
I0116 11:34:11.202584 19937 net.cpp:434] conv4_1 <- pool3
I0116 11:34:11.202594 19937 net.cpp:408] conv4_1 -> conv4_1
I0116 11:34:11.218401 19937 net.cpp:150] Setting up conv4_1
I0116 11:34:11.218426 19937 net.cpp:157] Top shape: 1 512 38 38 (739328)
I0116 11:34:11.218436 19937 net.cpp:165] Memory required for data: 194516128
I0116 11:34:11.218447 19937 layer_factory.hpp:77] Creating layer relu4_1
I0116 11:34:11.218457 19937 net.cpp:100] Creating Layer relu4_1
I0116 11:34:11.218464 19937 net.cpp:434] relu4_1 <- conv4_1
I0116 11:34:11.218477 19937 net.cpp:395] relu4_1 -> conv4_1 (in-place)
I0116 11:34:11.218914 19937 net.cpp:150] Setting up relu4_1
I0116 11:34:11.218935 19937 net.cpp:157] Top shape: 1 512 38 38 (739328)
I0116 11:34:11.218945 19937 net.cpp:165] Memory required for data: 197473440
I0116 11:34:11.218951 19937 layer_factory.hpp:77] Creating layer conv4_2
I0116 11:34:11.218971 19937 net.cpp:100] Creating Layer conv4_2
I0116 11:34:11.218978 19937 net.cpp:434] conv4_2 <- conv4_1
I0116 11:34:11.218988 19937 net.cpp:408] conv4_2 -> conv4_2
I0116 11:34:11.246081 19937 net.cpp:150] Setting up conv4_2
I0116 11:34:11.246119 19937 net.cpp:157] Top shape: 1 512 38 38 (739328)
I0116 11:34:11.246127 19937 net.cpp:165] Memory required for data: 200430752
I0116 11:34:11.246150 19937 layer_factory.hpp:77] Creating layer relu4_2
I0116 11:34:11.246163 19937 net.cpp:100] Creating Layer relu4_2
I0116 11:34:11.246171 19937 net.cpp:434] relu4_2 <- conv4_2
I0116 11:34:11.246183 19937 net.cpp:395] relu4_2 -> conv4_2 (in-place)
I0116 11:34:11.246453 19937 net.cpp:150] Setting up relu4_2
I0116 11:34:11.246471 19937 net.cpp:157] Top shape: 1 512 38 38 (739328)
I0116 11:34:11.246477 19937 net.cpp:165] Memory required for data: 203388064
I0116 11:34:11.246484 19937 layer_factory.hpp:77] Creating layer conv4_3
I0116 11:34:11.246502 19937 net.cpp:100] Creating Layer conv4_3
I0116 11:34:11.246510 19937 net.cpp:434] conv4_3 <- conv4_2
I0116 11:34:11.246520 19937 net.cpp:408] conv4_3 -> conv4_3
I0116 11:34:11.274997 19937 net.cpp:150] Setting up conv4_3
I0116 11:34:11.275037 19937 net.cpp:157] Top shape: 1 512 38 38 (739328)
I0116 11:34:11.275044 19937 net.cpp:165] Memory required for data: 206345376
I0116 11:34:11.275058 19937 layer_factory.hpp:77] Creating layer relu4_3
I0116 11:34:11.275075 19937 net.cpp:100] Creating Layer relu4_3
I0116 11:34:11.275084 19937 net.cpp:434] relu4_3 <- conv4_3
I0116 11:34:11.275094 19937 net.cpp:395] relu4_3 -> conv4_3 (in-place)
I0116 11:34:11.275535 19937 net.cpp:150] Setting up relu4_3
I0116 11:34:11.275557 19937 net.cpp:157] Top shape: 1 512 38 38 (739328)
I0116 11:34:11.275563 19937 net.cpp:165] Memory required for data: 209302688
I0116 11:34:11.275593 19937 layer_factory.hpp:77] Creating layer conv4_3_relu4_3_0_split
I0116 11:34:11.275604 19937 net.cpp:100] Creating Layer conv4_3_relu4_3_0_split
I0116 11:34:11.275611 19937 net.cpp:434] conv4_3_relu4_3_0_split <- conv4_3
I0116 11:34:11.275622 19937 net.cpp:408] conv4_3_relu4_3_0_split -> conv4_3_relu4_3_0_split_0
I0116 11:34:11.275635 19937 net.cpp:408] conv4_3_relu4_3_0_split -> conv4_3_relu4_3_0_split_1
I0116 11:34:11.275701 19937 net.cpp:150] Setting up conv4_3_relu4_3_0_split
I0116 11:34:11.275712 19937 net.cpp:157] Top shape: 1 512 38 38 (739328)
I0116 11:34:11.275719 19937 net.cpp:157] Top shape: 1 512 38 38 (739328)
I0116 11:34:11.275725 19937 net.cpp:165] Memory required for data: 215217312
I0116 11:34:11.275732 19937 layer_factory.hpp:77] Creating layer pool4
I0116 11:34:11.275743 19937 net.cpp:100] Creating Layer pool4
I0116 11:34:11.275748 19937 net.cpp:434] pool4 <- conv4_3_relu4_3_0_split_0
I0116 11:34:11.275759 19937 net.cpp:408] pool4 -> pool4
I0116 11:34:11.275816 19937 net.cpp:150] Setting up pool4
I0116 11:34:11.275825 19937 net.cpp:157] Top shape: 1 512 19 19 (184832)
I0116 11:34:11.275831 19937 net.cpp:165] Memory required for data: 215956640
I0116 11:34:11.275837 19937 layer_factory.hpp:77] Creating layer conv5_1
I0116 11:34:11.275858 19937 net.cpp:100] Creating Layer conv5_1
I0116 11:34:11.275866 19937 net.cpp:434] conv5_1 <- pool4
I0116 11:34:11.275876 19937 net.cpp:408] conv5_1 -> conv5_1
I0116 11:34:11.304158 19937 net.cpp:150] Setting up conv5_1
I0116 11:34:11.304198 19937 net.cpp:157] Top shape: 1 512 19 19 (184832)
I0116 11:34:11.304205 19937 net.cpp:165] Memory required for data: 216695968
I0116 11:34:11.304219 19937 layer_factory.hpp:77] Creating layer relu5_1
I0116 11:34:11.304234 19937 net.cpp:100] Creating Layer relu5_1
I0116 11:34:11.304242 19937 net.cpp:434] relu5_1 <- conv5_1
I0116 11:34:11.304253 19937 net.cpp:395] relu5_1 -> conv5_1 (in-place)
I0116 11:34:11.304688 19937 net.cpp:150] Setting up relu5_1
I0116 11:34:11.304708 19937 net.cpp:157] Top shape: 1 512 19 19 (184832)
I0116 11:34:11.304715 19937 net.cpp:165] Memory required for data: 217435296
I0116 11:34:11.304723 19937 layer_factory.hpp:77] Creating layer conv5_2
I0116 11:34:11.304740 19937 net.cpp:100] Creating Layer conv5_2
I0116 11:34:11.304747 19937 net.cpp:434] conv5_2 <- conv5_1
I0116 11:34:11.304759 19937 net.cpp:408] conv5_2 -> conv5_2
I0116 11:34:11.333396 19937 net.cpp:150] Setting up conv5_2
I0116 11:34:11.333437 19937 net.cpp:157] Top shape: 1 512 19 19 (184832)
I0116 11:34:11.333447 19937 net.cpp:165] Memory required for data: 218174624
I0116 11:34:11.333461 19937 layer_factory.hpp:77] Creating layer relu5_2
I0116 11:34:11.333474 19937 net.cpp:100] Creating Layer relu5_2
I0116 11:34:11.333483 19937 net.cpp:434] relu5_2 <- conv5_2
I0116 11:34:11.333493 19937 net.cpp:395] relu5_2 -> conv5_2 (in-place)
I0116 11:34:11.333771 19937 net.cpp:150] Setting up relu5_2
I0116 11:34:11.333791 19937 net.cpp:157] Top shape: 1 512 19 19 (184832)
I0116 11:34:11.333797 19937 net.cpp:165] Memory required for data: 218913952
I0116 11:34:11.333804 19937 layer_factory.hpp:77] Creating layer conv5_3
I0116 11:34:11.333824 19937 net.cpp:100] Creating Layer conv5_3
I0116 11:34:11.333832 19937 net.cpp:434] conv5_3 <- conv5_2
I0116 11:34:11.333845 19937 net.cpp:408] conv5_3 -> conv5_3
I0116 11:34:11.362558 19937 net.cpp:150] Setting up conv5_3
I0116 11:34:11.362591 19937 net.cpp:157] Top shape: 1 512 19 19 (184832)
I0116 11:34:11.362599 19937 net.cpp:165] Memory required for data: 219653280
I0116 11:34:11.362612 19937 layer_factory.hpp:77] Creating layer relu5_3
I0116 11:34:11.362632 19937 net.cpp:100] Creating Layer relu5_3
I0116 11:34:11.362639 19937 net.cpp:434] relu5_3 <- conv5_3
I0116 11:34:11.362650 19937 net.cpp:395] relu5_3 -> conv5_3 (in-place)
I0116 11:34:11.363078 19937 net.cpp:150] Setting up relu5_3
I0116 11:34:11.363098 19937 net.cpp:157] Top shape: 1 512 19 19 (184832)
I0116 11:34:11.363104 19937 net.cpp:165] Memory required for data: 220392608
I0116 11:34:11.363132 19937 layer_factory.hpp:77] Creating layer pool5
I0116 11:34:11.363147 19937 net.cpp:100] Creating Layer pool5
I0116 11:34:11.363153 19937 net.cpp:434] pool5 <- conv5_3
I0116 11:34:11.363162 19937 net.cpp:408] pool5 -> pool5
I0116 11:34:11.363232 19937 net.cpp:150] Setting up pool5
I0116 11:34:11.363243 19937 net.cpp:157] Top shape: 1 512 19 19 (184832)
I0116 11:34:11.363250 19937 net.cpp:165] Memory required for data: 221131936
I0116 11:34:11.363255 19937 layer_factory.hpp:77] Creating layer fc6
I0116 11:34:11.363272 19937 net.cpp:100] Creating Layer fc6
I0116 11:34:11.363279 19937 net.cpp:434] fc6 <- pool5
I0116 11:34:11.363291 19937 net.cpp:408] fc6 -> fc6
I0116 11:34:11.418277 19937 net.cpp:150] Setting up fc6
I0116 11:34:11.418342 19937 net.cpp:157] Top shape: 1 1024 19 19 (369664)
I0116 11:34:11.418350 19937 net.cpp:165] Memory required for data: 222610592
I0116 11:34:11.418360 19937 layer_factory.hpp:77] Creating layer relu6
I0116 11:34:11.418372 19937 net.cpp:100] Creating Layer relu6
I0116 11:34:11.418378 19937 net.cpp:434] relu6 <- fc6
I0116 11:34:11.418386 19937 net.cpp:395] relu6 -> fc6 (in-place)
I0116 11:34:11.418805 19937 net.cpp:150] Setting up relu6
I0116 11:34:11.418820 19937 net.cpp:157] Top shape: 1 1024 19 19 (369664)
I0116 11:34:11.418824 19937 net.cpp:165] Memory required for data: 224089248
I0116 11:34:11.418828 19937 layer_factory.hpp:77] Creating layer fc7
I0116 11:34:11.418841 19937 net.cpp:100] Creating Layer fc7
I0116 11:34:11.418846 19937 net.cpp:434] fc7 <- fc6
I0116 11:34:11.418853 19937 net.cpp:408] fc7 -> fc7
I0116 11:34:11.428935 19937 net.cpp:150] Setting up fc7
I0116 11:34:11.428956 19937 net.cpp:157] Top shape: 1 1024 19 19 (369664)
I0116 11:34:11.428959 19937 net.cpp:165] Memory required for data: 225567904
I0116 11:34:11.428968 19937 layer_factory.hpp:77] Creating layer relu7
I0116 11:34:11.428977 19937 net.cpp:100] Creating Layer relu7
I0116 11:34:11.428982 19937 net.cpp:434] relu7 <- fc7
I0116 11:34:11.428988 19937 net.cpp:395] relu7 -> fc7 (in-place)
I0116 11:34:11.429302 19937 net.cpp:150] Setting up relu7
I0116 11:34:11.429317 19937 net.cpp:157] Top shape: 1 1024 19 19 (369664)
I0116 11:34:11.429322 19937 net.cpp:165] Memory required for data: 227046560
I0116 11:34:11.429325 19937 layer_factory.hpp:77] Creating layer fc7_relu7_0_split
I0116 11:34:11.429333 19937 net.cpp:100] Creating Layer fc7_relu7_0_split
I0116 11:34:11.429337 19937 net.cpp:434] fc7_relu7_0_split <- fc7
I0116 11:34:11.429343 19937 net.cpp:408] fc7_relu7_0_split -> fc7_relu7_0_split_0
I0116 11:34:11.429352 19937 net.cpp:408] fc7_relu7_0_split -> fc7_relu7_0_split_1
I0116 11:34:11.429361 19937 net.cpp:408] fc7_relu7_0_split -> fc7_relu7_0_split_2
I0116 11:34:11.429368 19937 net.cpp:408] fc7_relu7_0_split -> fc7_relu7_0_split_3
I0116 11:34:11.429438 19937 net.cpp:150] Setting up fc7_relu7_0_split
I0116 11:34:11.429445 19937 net.cpp:157] Top shape: 1 1024 19 19 (369664)
I0116 11:34:11.429450 19937 net.cpp:157] Top shape: 1 1024 19 19 (369664)
I0116 11:34:11.429455 19937 net.cpp:157] Top shape: 1 1024 19 19 (369664)
I0116 11:34:11.429458 19937 net.cpp:157] Top shape: 1 1024 19 19 (369664)
I0116 11:34:11.429461 19937 net.cpp:165] Memory required for data: 232961184
I0116 11:34:11.429466 19937 layer_factory.hpp:77] Creating layer conv6_1
I0116 11:34:11.429476 19937 net.cpp:100] Creating Layer conv6_1
I0116 11:34:11.429481 19937 net.cpp:434] conv6_1 <- fc7_relu7_0_split_0
I0116 11:34:11.429488 19937 net.cpp:408] conv6_1 -> conv6_1
I0116 11:34:11.432740 19937 net.cpp:150] Setting up conv6_1
I0116 11:34:11.432757 19937 net.cpp:157] Top shape: 1 256 19 19 (92416)
I0116 11:34:11.432761 19937 net.cpp:165] Memory required for data: 233330848
I0116 11:34:11.432770 19937 layer_factory.hpp:77] Creating layer conv6_1_relu
I0116 11:34:11.432777 19937 net.cpp:100] Creating Layer conv6_1_relu
I0116 11:34:11.432781 19937 net.cpp:434] conv6_1_relu <- conv6_1
I0116 11:34:11.432788 19937 net.cpp:395] conv6_1_relu -> conv6_1 (in-place)
I0116 11:34:11.433094 19937 net.cpp:150] Setting up conv6_1_relu
I0116 11:34:11.433107 19937 net.cpp:157] Top shape: 1 256 19 19 (92416)
I0116 11:34:11.433128 19937 net.cpp:165] Memory required for data: 233700512
I0116 11:34:11.433133 19937 layer_factory.hpp:77] Creating layer conv6_2
I0116 11:34:11.433145 19937 net.cpp:100] Creating Layer conv6_2
I0116 11:34:11.433148 19937 net.cpp:434] conv6_2 <- conv6_1
I0116 11:34:11.433156 19937 net.cpp:408] conv6_2 -> conv6_2
I0116 11:34:11.444295 19937 net.cpp:150] Setting up conv6_2
I0116 11:34:11.444314 19937 net.cpp:157] Top shape: 1 512 10 10 (51200)
I0116 11:34:11.444319 19937 net.cpp:165] Memory required for data: 233905312
I0116 11:34:11.444337 19937 layer_factory.hpp:77] Creating layer conv6_2_relu
I0116 11:34:11.444344 19937 net.cpp:100] Creating Layer conv6_2_relu
I0116 11:34:11.444349 19937 net.cpp:434] conv6_2_relu <- conv6_2
I0116 11:34:11.444355 19937 net.cpp:395] conv6_2_relu -> conv6_2 (in-place)
I0116 11:34:11.444531 19937 net.cpp:150] Setting up conv6_2_relu
I0116 11:34:11.444543 19937 net.cpp:157] Top shape: 1 512 10 10 (51200)
I0116 11:34:11.444547 19937 net.cpp:165] Memory required for data: 234110112
I0116 11:34:11.444550 19937 layer_factory.hpp:77] Creating layer conv6_2_conv6_2_relu_0_split
I0116 11:34:11.444557 19937 net.cpp:100] Creating Layer conv6_2_conv6_2_relu_0_split
I0116 11:34:11.444561 19937 net.cpp:434] conv6_2_conv6_2_relu_0_split <- conv6_2
I0116 11:34:11.444567 19937 net.cpp:408] conv6_2_conv6_2_relu_0_split -> conv6_2_conv6_2_relu_0_split_0
I0116 11:34:11.444576 19937 net.cpp:408] conv6_2_conv6_2_relu_0_split -> conv6_2_conv6_2_relu_0_split_1
I0116 11:34:11.444581 19937 net.cpp:408] conv6_2_conv6_2_relu_0_split -> conv6_2_conv6_2_relu_0_split_2
I0116 11:34:11.444587 19937 net.cpp:408] conv6_2_conv6_2_relu_0_split -> conv6_2_conv6_2_relu_0_split_3
I0116 11:34:11.444658 19937 net.cpp:150] Setting up conv6_2_conv6_2_relu_0_split
I0116 11:34:11.444664 19937 net.cpp:157] Top shape: 1 512 10 10 (51200)
I0116 11:34:11.444669 19937 net.cpp:157] Top shape: 1 512 10 10 (51200)
I0116 11:34:11.444672 19937 net.cpp:157] Top shape: 1 512 10 10 (51200)
I0116 11:34:11.444675 19937 net.cpp:157] Top shape: 1 512 10 10 (51200)
I0116 11:34:11.444679 19937 net.cpp:165] Memory required for data: 234929312
I0116 11:34:11.444684 19937 layer_factory.hpp:77] Creating layer conv7_1
I0116 11:34:11.444694 19937 net.cpp:100] Creating Layer conv7_1
I0116 11:34:11.444697 19937 net.cpp:434] conv7_1 <- conv6_2_conv6_2_relu_0_split_0
I0116 11:34:11.444705 19937 net.cpp:408] conv7_1 -> conv7_1
I0116 11:34:11.446241 19937 net.cpp:150] Setting up conv7_1
I0116 11:34:11.446256 19937 net.cpp:157] Top shape: 1 128 10 10 (12800)
I0116 11:34:11.446261 19937 net.cpp:165] Memory required for data: 234980512
I0116 11:34:11.446267 19937 layer_factory.hpp:77] Creating layer conv7_1_relu
I0116 11:34:11.446275 19937 net.cpp:100] Creating Layer conv7_1_relu
I0116 11:34:11.446280 19937 net.cpp:434] conv7_1_relu <- conv7_1
I0116 11:34:11.446285 19937 net.cpp:395] conv7_1_relu -> conv7_1 (in-place)
I0116 11:34:11.446599 19937 net.cpp:150] Setting up conv7_1_relu
I0116 11:34:11.446614 19937 net.cpp:157] Top shape: 1 128 10 10 (12800)
I0116 11:34:11.446619 19937 net.cpp:165] Memory required for data: 235031712
I0116 11:34:11.446622 19937 layer_factory.hpp:77] Creating layer conv7_2
I0116 11:34:11.446635 19937 net.cpp:100] Creating Layer conv7_2
I0116 11:34:11.446638 19937 net.cpp:434] conv7_2 <- conv7_1
I0116 11:34:11.446645 19937 net.cpp:408] conv7_2 -> conv7_2
I0116 11:34:11.450142 19937 net.cpp:150] Setting up conv7_2
I0116 11:34:11.450158 19937 net.cpp:157] Top shape: 1 256 5 5 (6400)
I0116 11:34:11.450162 19937 net.cpp:165] Memory required for data: 235057312
I0116 11:34:11.450170 19937 layer_factory.hpp:77] Creating layer conv7_2_relu
I0116 11:34:11.450177 19937 net.cpp:100] Creating Layer conv7_2_relu
I0116 11:34:11.450181 19937 net.cpp:434] conv7_2_relu <- conv7_2
I0116 11:34:11.450187 19937 net.cpp:395] conv7_2_relu -> conv7_2 (in-place)
I0116 11:34:11.450505 19937 net.cpp:150] Setting up conv7_2_relu
I0116 11:34:11.450520 19937 net.cpp:157] Top shape: 1 256 5 5 (6400)
I0116 11:34:11.450536 19937 net.cpp:165] Memory required for data: 235082912
I0116 11:34:11.450541 19937 layer_factory.hpp:77] Creating layer conv7_2_conv7_2_relu_0_split
I0116 11:34:11.450548 19937 net.cpp:100] Creating Layer conv7_2_conv7_2_relu_0_split
I0116 11:34:11.450553 19937 net.cpp:434] conv7_2_conv7_2_relu_0_split <- conv7_2
I0116 11:34:11.450558 19937 net.cpp:408] conv7_2_conv7_2_relu_0_split -> conv7_2_conv7_2_relu_0_split_0
I0116 11:34:11.450567 19937 net.cpp:408] conv7_2_conv7_2_relu_0_split -> conv7_2_conv7_2_relu_0_split_1
I0116 11:34:11.450572 19937 net.cpp:408] conv7_2_conv7_2_relu_0_split -> conv7_2_conv7_2_relu_0_split_2
I0116 11:34:11.450580 19937 net.cpp:408] conv7_2_conv7_2_relu_0_split -> conv7_2_conv7_2_relu_0_split_3
I0116 11:34:11.450654 19937 net.cpp:150] Setting up conv7_2_conv7_2_relu_0_split
I0116 11:34:11.450660 19937 net.cpp:157] Top shape: 1 256 5 5 (6400)
I0116 11:34:11.450664 19937 net.cpp:157] Top shape: 1 256 5 5 (6400)
I0116 11:34:11.450669 19937 net.cpp:157] Top shape: 1 256 5 5 (6400)
I0116 11:34:11.450672 19937 net.cpp:157] Top shape: 1 256 5 5 (6400)
I0116 11:34:11.450675 19937 net.cpp:165] Memory required for data: 235185312
I0116 11:34:11.450678 19937 layer_factory.hpp:77] Creating layer conv8_1
I0116 11:34:11.450688 19937 net.cpp:100] Creating Layer conv8_1
I0116 11:34:11.450693 19937 net.cpp:434] conv8_1 <- conv7_2_conv7_2_relu_0_split_0
I0116 11:34:11.450700 19937 net.cpp:408] conv8_1 -> conv8_1
I0116 11:34:11.451997 19937 net.cpp:150] Setting up conv8_1
I0116 11:34:11.452013 19937 net.cpp:157] Top shape: 1 128 5 5 (3200)
I0116 11:34:11.452016 19937 net.cpp:165] Memory required for data: 235198112
I0116 11:34:11.452023 19937 layer_factory.hpp:77] Creating layer conv8_1_relu
I0116 11:34:11.452029 19937 net.cpp:100] Creating Layer conv8_1_relu
I0116 11:34:11.452033 19937 net.cpp:434] conv8_1_relu <- conv8_1
I0116 11:34:11.452041 19937 net.cpp:395] conv8_1_relu -> conv8_1 (in-place)
I0116 11:34:11.452215 19937 net.cpp:150] Setting up conv8_1_relu
I0116 11:34:11.452226 19937 net.cpp:157] Top shape: 1 128 5 5 (3200)
I0116 11:34:11.452229 19937 net.cpp:165] Memory required for data: 235210912
I0116 11:34:11.452234 19937 layer_factory.hpp:77] Creating layer conv8_2
I0116 11:34:11.452245 19937 net.cpp:100] Creating Layer conv8_2
I0116 11:34:11.452250 19937 net.cpp:434] conv8_2 <- conv8_1
I0116 11:34:11.452255 19937 net.cpp:408] conv8_2 -> conv8_2
I0116 11:34:11.455890 19937 net.cpp:150] Setting up conv8_2
I0116 11:34:11.455906 19937 net.cpp:157] Top shape: 1 256 3 3 (2304)
I0116 11:34:11.455910 19937 net.cpp:165] Memory required for data: 235220128
I0116 11:34:11.455917 19937 layer_factory.hpp:77] Creating layer conv8_2_relu
I0116 11:34:11.455925 19937 net.cpp:100] Creating Layer conv8_2_relu
I0116 11:34:11.455930 19937 net.cpp:434] conv8_2_relu <- conv8_2
I0116 11:34:11.455935 19937 net.cpp:395] conv8_2_relu -> conv8_2 (in-place)
I0116 11:34:11.456248 19937 net.cpp:150] Setting up conv8_2_relu
I0116 11:34:11.456261 19937 net.cpp:157] Top shape: 1 256 3 3 (2304)
I0116 11:34:11.456266 19937 net.cpp:165] Memory required for data: 235229344
I0116 11:34:11.456270 19937 layer_factory.hpp:77] Creating layer conv8_2_conv8_2_relu_0_split
I0116 11:34:11.456277 19937 net.cpp:100] Creating Layer conv8_2_conv8_2_relu_0_split
I0116 11:34:11.456281 19937 net.cpp:434] conv8_2_conv8_2_relu_0_split <- conv8_2
I0116 11:34:11.456287 19937 net.cpp:408] conv8_2_conv8_2_relu_0_split -> conv8_2_conv8_2_relu_0_split_0
I0116 11:34:11.456295 19937 net.cpp:408] conv8_2_conv8_2_relu_0_split -> conv8_2_conv8_2_relu_0_split_1
I0116 11:34:11.456301 19937 net.cpp:408] conv8_2_conv8_2_relu_0_split -> conv8_2_conv8_2_relu_0_split_2
I0116 11:34:11.456308 19937 net.cpp:408] conv8_2_conv8_2_relu_0_split -> conv8_2_conv8_2_relu_0_split_3
I0116 11:34:11.456384 19937 net.cpp:150] Setting up conv8_2_conv8_2_relu_0_split
I0116 11:34:11.456392 19937 net.cpp:157] Top shape: 1 256 3 3 (2304)
I0116 11:34:11.456395 19937 net.cpp:157] Top shape: 1 256 3 3 (2304)
I0116 11:34:11.456399 19937 net.cpp:157] Top shape: 1 256 3 3 (2304)
I0116 11:34:11.456413 19937 net.cpp:157] Top shape: 1 256 3 3 (2304)
I0116 11:34:11.456418 19937 net.cpp:165] Memory required for data: 235266208
I0116 11:34:11.456421 19937 layer_factory.hpp:77] Creating layer conv9_1
I0116 11:34:11.456432 19937 net.cpp:100] Creating Layer conv9_1
I0116 11:34:11.456437 19937 net.cpp:434] conv9_1 <- conv8_2_conv8_2_relu_0_split_0
I0116 11:34:11.456444 19937 net.cpp:408] conv9_1 -> conv9_1
I0116 11:34:11.457623 19937 net.cpp:150] Setting up conv9_1
I0116 11:34:11.457638 19937 net.cpp:157] Top shape: 1 128 3 3 (1152)
I0116 11:34:11.457643 19937 net.cpp:165] Memory required for data: 235270816
I0116 11:34:11.457649 19937 layer_factory.hpp:77] Creating layer conv9_1_relu
I0116 11:34:11.457656 19937 net.cpp:100] Creating Layer conv9_1_relu
I0116 11:34:11.457660 19937 net.cpp:434] conv9_1_relu <- conv9_1
I0116 11:34:11.457667 19937 net.cpp:395] conv9_1_relu -> conv9_1 (in-place)
I0116 11:34:11.458096 19937 net.cpp:150] Setting up conv9_1_relu
I0116 11:34:11.458109 19937 net.cpp:157] Top shape: 1 128 3 3 (1152)
I0116 11:34:11.458113 19937 net.cpp:165] Memory required for data: 235275424
I0116 11:34:11.458119 19937 layer_factory.hpp:77] Creating layer conv9_2
I0116 11:34:11.458129 19937 net.cpp:100] Creating Layer conv9_2
I0116 11:34:11.458134 19937 net.cpp:434] conv9_2 <- conv9_1
I0116 11:34:11.458142 19937 net.cpp:408] conv9_2 -> conv9_2
I0116 11:34:11.461789 19937 net.cpp:150] Setting up conv9_2
I0116 11:34:11.461805 19937 net.cpp:157] Top shape: 1 256 1 1 (256)
I0116 11:34:11.461809 19937 net.cpp:165] Memory required for data: 235276448
I0116 11:34:11.461817 19937 layer_factory.hpp:77] Creating layer conv9_2_relu
I0116 11:34:11.461823 19937 net.cpp:100] Creating Layer conv9_2_relu
I0116 11:34:11.461827 19937 net.cpp:434] conv9_2_relu <- conv9_2
I0116 11:34:11.461835 19937 net.cpp:395] conv9_2_relu -> conv9_2 (in-place)
I0116 11:34:11.462008 19937 net.cpp:150] Setting up conv9_2_relu
I0116 11:34:11.462019 19937 net.cpp:157] Top shape: 1 256 1 1 (256)
I0116 11:34:11.462024 19937 net.cpp:165] Memory required for data: 235277472
I0116 11:34:11.462028 19937 layer_factory.hpp:77] Creating layer conv9_2_conv9_2_relu_0_split
I0116 11:34:11.462034 19937 net.cpp:100] Creating Layer conv9_2_conv9_2_relu_0_split
I0116 11:34:11.462038 19937 net.cpp:434] conv9_2_conv9_2_relu_0_split <- conv9_2
I0116 11:34:11.462044 19937 net.cpp:408] conv9_2_conv9_2_relu_0_split -> conv9_2_conv9_2_relu_0_split_0
I0116 11:34:11.462050 19937 net.cpp:408] conv9_2_conv9_2_relu_0_split -> conv9_2_conv9_2_relu_0_split_1
I0116 11:34:11.462056 19937 net.cpp:408] conv9_2_conv9_2_relu_0_split -> conv9_2_conv9_2_relu_0_split_2
I0116 11:34:11.462116 19937 net.cpp:150] Setting up conv9_2_conv9_2_relu_0_split
I0116 11:34:11.462122 19937 net.cpp:157] Top shape: 1 256 1 1 (256)
I0116 11:34:11.462126 19937 net.cpp:157] Top shape: 1 256 1 1 (256)
I0116 11:34:11.462131 19937 net.cpp:157] Top shape: 1 256 1 1 (256)
I0116 11:34:11.462133 19937 net.cpp:165] Memory required for data: 235280544
I0116 11:34:11.462137 19937 layer_factory.hpp:77] Creating layer conv4_3_norm
I0116 11:34:11.462152 19937 net.cpp:100] Creating Layer conv4_3_norm
I0116 11:34:11.462157 19937 net.cpp:434] conv4_3_norm <- conv4_3_relu4_3_0_split_1
I0116 11:34:11.462162 19937 net.cpp:408] conv4_3_norm -> conv4_3_norm
I0116 11:34:11.462337 19937 net.cpp:150] Setting up conv4_3_norm
I0116 11:34:11.462347 19937 net.cpp:157] Top shape: 1 512 38 38 (739328)
I0116 11:34:11.462352 19937 net.cpp:165] Memory required for data: 238237856
I0116 11:34:11.462357 19937 layer_factory.hpp:77] Creating layer conv4_3_norm_conv4_3_norm_0_split
I0116 11:34:11.462363 19937 net.cpp:100] Creating Layer conv4_3_norm_conv4_3_norm_0_split
I0116 11:34:11.462366 19937 net.cpp:434] conv4_3_norm_conv4_3_norm_0_split <- conv4_3_norm
I0116 11:34:11.462371 19937 net.cpp:408] conv4_3_norm_conv4_3_norm_0_split -> conv4_3_norm_conv4_3_norm_0_split_0
I0116 11:34:11.462378 19937 net.cpp:408] conv4_3_norm_conv4_3_norm_0_split -> conv4_3_norm_conv4_3_norm_0_split_1
I0116 11:34:11.462383 19937 net.cpp:408] conv4_3_norm_conv4_3_norm_0_split -> conv4_3_norm_conv4_3_norm_0_split_2
I0116 11:34:11.462448 19937 net.cpp:150] Setting up conv4_3_norm_conv4_3_norm_0_split
I0116 11:34:11.462455 19937 net.cpp:157] Top shape: 1 512 38 38 (739328)
I0116 11:34:11.462460 19937 net.cpp:157] Top shape: 1 512 38 38 (739328)
I0116 11:34:11.462463 19937 net.cpp:157] Top shape: 1 512 38 38 (739328)
I0116 11:34:11.462466 19937 net.cpp:165] Memory required for data: 247109792
I0116 11:34:11.462471 19937 layer_factory.hpp:77] Creating layer conv4_3_norm_mbox_loc
I0116 11:34:11.462478 19937 net.cpp:100] Creating Layer conv4_3_norm_mbox_loc
I0116 11:34:11.462483 19937 net.cpp:434] conv4_3_norm_mbox_loc <- conv4_3_norm_conv4_3_norm_0_split_0
I0116 11:34:11.462491 19937 net.cpp:408] conv4_3_norm_mbox_loc -> conv4_3_norm_mbox_loc
I0116 11:34:11.464123 19937 net.cpp:150] Setting up conv4_3_norm_mbox_loc
I0116 11:34:11.464139 19937 net.cpp:157] Top shape: 1 16 38 38 (23104)
I0116 11:34:11.464143 19937 net.cpp:165] Memory required for data: 247202208
I0116 11:34:11.464150 19937 layer_factory.hpp:77] Creating layer conv4_3_norm_mbox_loc_perm
I0116 11:34:11.464159 19937 net.cpp:100] Creating Layer conv4_3_norm_mbox_loc_perm
I0116 11:34:11.464162 19937 net.cpp:434] conv4_3_norm_mbox_loc_perm <- conv4_3_norm_mbox_loc
I0116 11:34:11.464170 19937 net.cpp:408] conv4_3_norm_mbox_loc_perm -> conv4_3_norm_mbox_loc_perm
I0116 11:34:11.464288 19937 net.cpp:150] Setting up conv4_3_norm_mbox_loc_perm
I0116 11:34:11.464298 19937 net.cpp:157] Top shape: 1 38 38 16 (23104)
I0116 11:34:11.464301 19937 net.cpp:165] Memory required for data: 247294624
I0116 11:34:11.464305 19937 layer_factory.hpp:77] Creating layer conv4_3_norm_mbox_loc_flat
I0116 11:34:11.464313 19937 net.cpp:100] Creating Layer conv4_3_norm_mbox_loc_flat
I0116 11:34:11.464316 19937 net.cpp:434] conv4_3_norm_mbox_loc_flat <- conv4_3_norm_mbox_loc_perm
I0116 11:34:11.464324 19937 net.cpp:408] conv4_3_norm_mbox_loc_flat -> conv4_3_norm_mbox_loc_flat
I0116 11:34:11.464359 19937 net.cpp:150] Setting up conv4_3_norm_mbox_loc_flat
I0116 11:34:11.464367 19937 net.cpp:157] Top shape: 1 23104 (23104)
I0116 11:34:11.464370 19937 net.cpp:165] Memory required for data: 247387040
I0116 11:34:11.464375 19937 layer_factory.hpp:77] Creating layer conv4_3_norm_mbox_conf
I0116 11:34:11.464390 19937 net.cpp:100] Creating Layer conv4_3_norm_mbox_conf
I0116 11:34:11.464395 19937 net.cpp:434] conv4_3_norm_mbox_conf <- conv4_3_norm_conv4_3_norm_0_split_1
I0116 11:34:11.464401 19937 net.cpp:408] conv4_3_norm_mbox_conf -> conv4_3_norm_mbox_conf
I0116 11:34:11.468788 19937 net.cpp:150] Setting up conv4_3_norm_mbox_conf
I0116 11:34:11.468806 19937 net.cpp:157] Top shape: 1 84 38 38 (121296)
I0116 11:34:11.468811 19937 net.cpp:165] Memory required for data: 247872224
I0116 11:34:11.468817 19937 layer_factory.hpp:77] Creating layer conv4_3_norm_mbox_conf_perm
I0116 11:34:11.468824 19937 net.cpp:100] Creating Layer conv4_3_norm_mbox_conf_perm
I0116 11:34:11.468828 19937 net.cpp:434] conv4_3_norm_mbox_conf_perm <- conv4_3_norm_mbox_conf
I0116 11:34:11.468837 19937 net.cpp:408] conv4_3_norm_mbox_conf_perm -> conv4_3_norm_mbox_conf_perm
I0116 11:34:11.468950 19937 net.cpp:150] Setting up conv4_3_norm_mbox_conf_perm
I0116 11:34:11.468963 19937 net.cpp:157] Top shape: 1 38 38 84 (121296)
I0116 11:34:11.468967 19937 net.cpp:165] Memory required for data: 248357408
I0116 11:34:11.468971 19937 layer_factory.hpp:77] Creating layer conv4_3_norm_mbox_conf_flat
I0116 11:34:11.468978 19937 net.cpp:100] Creating Layer conv4_3_norm_mbox_conf_flat
I0116 11:34:11.468982 19937 net.cpp:434] conv4_3_norm_mbox_conf_flat <- conv4_3_norm_mbox_conf_perm
I0116 11:34:11.468987 19937 net.cpp:408] conv4_3_norm_mbox_conf_flat -> conv4_3_norm_mbox_conf_flat
I0116 11:34:11.469015 19937 net.cpp:150] Setting up conv4_3_norm_mbox_conf_flat
I0116 11:34:11.469022 19937 net.cpp:157] Top shape: 1 121296 (121296)
I0116 11:34:11.469024 19937 net.cpp:165] Memory required for data: 248842592
I0116 11:34:11.469027 19937 layer_factory.hpp:77] Creating layer conv4_3_norm_mbox_priorbox
I0116 11:34:11.469048 19937 net.cpp:100] Creating Layer conv4_3_norm_mbox_priorbox
I0116 11:34:11.469051 19937 net.cpp:434] conv4_3_norm_mbox_priorbox <- conv4_3_norm_conv4_3_norm_0_split_2
I0116 11:34:11.469058 19937 net.cpp:434] conv4_3_norm_mbox_priorbox <- data_data_0_split_1
I0116 11:34:11.469063 19937 net.cpp:408] conv4_3_norm_mbox_priorbox -> conv4_3_norm_mbox_priorbox
I0116 11:34:11.469097 19937 net.cpp:150] Setting up conv4_3_norm_mbox_priorbox
I0116 11:34:11.469104 19937 net.cpp:157] Top shape: 1 2 23104 (46208)
I0116 11:34:11.469106 19937 net.cpp:165] Memory required for data: 249027424
I0116 11:34:11.469110 19937 layer_factory.hpp:77] Creating layer fc7_mbox_loc
I0116 11:34:11.469120 19937 net.cpp:100] Creating Layer fc7_mbox_loc
I0116 11:34:11.469125 19937 net.cpp:434] fc7_mbox_loc <- fc7_relu7_0_split_1
I0116 11:34:11.469131 19937 net.cpp:408] fc7_mbox_loc -> fc7_mbox_loc
I0116 11:34:11.472216 19937 net.cpp:150] Setting up fc7_mbox_loc
I0116 11:34:11.472234 19937 net.cpp:157] Top shape: 1 24 19 19 (8664)
I0116 11:34:11.472237 19937 net.cpp:165] Memory required for data: 249062080
I0116 11:34:11.472244 19937 layer_factory.hpp:77] Creating layer fc7_mbox_loc_perm
I0116 11:34:11.472254 19937 net.cpp:100] Creating Layer fc7_mbox_loc_perm
I0116 11:34:11.472259 19937 net.cpp:434] fc7_mbox_loc_perm <- fc7_mbox_loc
I0116 11:34:11.472265 19937 net.cpp:408] fc7_mbox_loc_perm -> fc7_mbox_loc_perm
I0116 11:34:11.472379 19937 net.cpp:150] Setting up fc7_mbox_loc_perm
I0116 11:34:11.472388 19937 net.cpp:157] Top shape: 1 19 19 24 (8664)
I0116 11:34:11.472391 19937 net.cpp:165] Memory required for data: 249096736
I0116 11:34:11.472395 19937 layer_factory.hpp:77] Creating layer fc7_mbox_loc_flat
I0116 11:34:11.472401 19937 net.cpp:100] Creating Layer fc7_mbox_loc_flat
I0116 11:34:11.472405 19937 net.cpp:434] fc7_mbox_loc_flat <- fc7_mbox_loc_perm
I0116 11:34:11.472411 19937 net.cpp:408] fc7_mbox_loc_flat -> fc7_mbox_loc_flat
I0116 11:34:11.472439 19937 net.cpp:150] Setting up fc7_mbox_loc_flat
I0116 11:34:11.472445 19937 net.cpp:157] Top shape: 1 8664 (8664)
I0116 11:34:11.472447 19937 net.cpp:165] Memory required for data: 249131392
I0116 11:34:11.472451 19937 layer_factory.hpp:77] Creating layer fc7_mbox_conf
I0116 11:34:11.472460 19937 net.cpp:100] Creating Layer fc7_mbox_conf
I0116 11:34:11.472465 19937 net.cpp:434] fc7_mbox_conf <- fc7_relu7_0_split_2
I0116 11:34:11.472472 19937 net.cpp:408] fc7_mbox_conf -> fc7_mbox_conf
I0116 11:34:11.483048 19937 net.cpp:150] Setting up fc7_mbox_conf
I0116 11:34:11.483065 19937 net.cpp:157] Top shape: 1 126 19 19 (45486)
I0116 11:34:11.483069 19937 net.cpp:165] Memory required for data: 249313336
I0116 11:34:11.483077 19937 layer_factory.hpp:77] Creating layer fc7_mbox_conf_perm
I0116 11:34:11.483084 19937 net.cpp:100] Creating Layer fc7_mbox_conf_perm
I0116 11:34:11.483089 19937 net.cpp:434] fc7_mbox_conf_perm <- fc7_mbox_conf
I0116 11:34:11.483095 19937 net.cpp:408] fc7_mbox_conf_perm -> fc7_mbox_conf_perm
I0116 11:34:11.483213 19937 net.cpp:150] Setting up fc7_mbox_conf_perm
I0116 11:34:11.483222 19937 net.cpp:157] Top shape: 1 19 19 126 (45486)
I0116 11:34:11.483225 19937 net.cpp:165] Memory required for data: 249495280
I0116 11:34:11.483229 19937 layer_factory.hpp:77] Creating layer fc7_mbox_conf_flat
I0116 11:34:11.483235 19937 net.cpp:100] Creating Layer fc7_mbox_conf_flat
I0116 11:34:11.483239 19937 net.cpp:434] fc7_mbox_conf_flat <- fc7_mbox_conf_perm
I0116 11:34:11.483247 19937 net.cpp:408] fc7_mbox_conf_flat -> fc7_mbox_conf_flat
I0116 11:34:11.483273 19937 net.cpp:150] Setting up fc7_mbox_conf_flat
I0116 11:34:11.483280 19937 net.cpp:157] Top shape: 1 45486 (45486)
I0116 11:34:11.483283 19937 net.cpp:165] Memory required for data: 249677224
I0116 11:34:11.483286 19937 layer_factory.hpp:77] Creating layer fc7_mbox_priorbox
I0116 11:34:11.483294 19937 net.cpp:100] Creating Layer fc7_mbox_priorbox
I0116 11:34:11.483297 19937 net.cpp:434] fc7_mbox_priorbox <- fc7_relu7_0_split_3
I0116 11:34:11.483302 19937 net.cpp:434] fc7_mbox_priorbox <- data_data_0_split_2
I0116 11:34:11.483307 19937 net.cpp:408] fc7_mbox_priorbox -> fc7_mbox_priorbox
I0116 11:34:11.483350 19937 net.cpp:150] Setting up fc7_mbox_priorbox
I0116 11:34:11.483357 19937 net.cpp:157] Top shape: 1 2 8664 (17328)
I0116 11:34:11.483361 19937 net.cpp:165] Memory required for data: 249746536
I0116 11:34:11.483364 19937 layer_factory.hpp:77] Creating layer conv6_2_mbox_loc
I0116 11:34:11.483374 19937 net.cpp:100] Creating Layer conv6_2_mbox_loc
I0116 11:34:11.483379 19937 net.cpp:434] conv6_2_mbox_loc <- conv6_2_conv6_2_relu_0_split_1
I0116 11:34:11.483386 19937 net.cpp:408] conv6_2_mbox_loc -> conv6_2_mbox_loc
I0116 11:34:11.485685 19937 net.cpp:150] Setting up conv6_2_mbox_loc
I0116 11:34:11.485702 19937 net.cpp:157] Top shape: 1 24 10 10 (2400)
I0116 11:34:11.485707 19937 net.cpp:165] Memory required for data: 249756136
I0116 11:34:11.485713 19937 layer_factory.hpp:77] Creating layer conv6_2_mbox_loc_perm
I0116 11:34:11.485721 19937 net.cpp:100] Creating Layer conv6_2_mbox_loc_perm
I0116 11:34:11.485726 19937 net.cpp:434] conv6_2_mbox_loc_perm <- conv6_2_mbox_loc
I0116 11:34:11.485733 19937 net.cpp:408] conv6_2_mbox_loc_perm -> conv6_2_mbox_loc_perm
I0116 11:34:11.485849 19937 net.cpp:150] Setting up conv6_2_mbox_loc_perm
I0116 11:34:11.485858 19937 net.cpp:157] Top shape: 1 10 10 24 (2400)
I0116 11:34:11.485862 19937 net.cpp:165] Memory required for data: 249765736
I0116 11:34:11.485865 19937 layer_factory.hpp:77] Creating layer conv6_2_mbox_loc_flat
I0116 11:34:11.485872 19937 net.cpp:100] Creating Layer conv6_2_mbox_loc_flat
I0116 11:34:11.485875 19937 net.cpp:434] conv6_2_mbox_loc_flat <- conv6_2_mbox_loc_perm
I0116 11:34:11.485882 19937 net.cpp:408] conv6_2_mbox_loc_flat -> conv6_2_mbox_loc_flat
I0116 11:34:11.485908 19937 net.cpp:150] Setting up conv6_2_mbox_loc_flat
I0116 11:34:11.485916 19937 net.cpp:157] Top shape: 1 2400 (2400)
I0116 11:34:11.485919 19937 net.cpp:165] Memory required for data: 249775336
I0116 11:34:11.485924 19937 layer_factory.hpp:77] Creating layer conv6_2_mbox_conf
I0116 11:34:11.485932 19937 net.cpp:100] Creating Layer conv6_2_mbox_conf
I0116 11:34:11.485937 19937 net.cpp:434] conv6_2_mbox_conf <- conv6_2_conv6_2_relu_0_split_2
I0116 11:34:11.485944 19937 net.cpp:408] conv6_2_mbox_conf -> conv6_2_mbox_conf
I0116 11:34:11.491930 19937 net.cpp:150] Setting up conv6_2_mbox_conf
I0116 11:34:11.491945 19937 net.cpp:157] Top shape: 1 126 10 10 (12600)
I0116 11:34:11.491950 19937 net.cpp:165] Memory required for data: 249825736
I0116 11:34:11.491956 19937 layer_factory.hpp:77] Creating layer conv6_2_mbox_conf_perm
I0116 11:34:11.491966 19937 net.cpp:100] Creating Layer conv6_2_mbox_conf_perm
I0116 11:34:11.491969 19937 net.cpp:434] conv6_2_mbox_conf_perm <- conv6_2_mbox_conf
I0116 11:34:11.491976 19937 net.cpp:408] conv6_2_mbox_conf_perm -> conv6_2_mbox_conf_perm
I0116 11:34:11.492094 19937 net.cpp:150] Setting up conv6_2_mbox_conf_perm
I0116 11:34:11.492103 19937 net.cpp:157] Top shape: 1 10 10 126 (12600)
I0116 11:34:11.492106 19937 net.cpp:165] Memory required for data: 249876136
I0116 11:34:11.492110 19937 layer_factory.hpp:77] Creating layer conv6_2_mbox_conf_flat
I0116 11:34:11.492116 19937 net.cpp:100] Creating Layer conv6_2_mbox_conf_flat
I0116 11:34:11.492120 19937 net.cpp:434] conv6_2_mbox_conf_flat <- conv6_2_mbox_conf_perm
I0116 11:34:11.492127 19937 net.cpp:408] conv6_2_mbox_conf_flat -> conv6_2_mbox_conf_flat
I0116 11:34:11.492153 19937 net.cpp:150] Setting up conv6_2_mbox_conf_flat
I0116 11:34:11.492161 19937 net.cpp:157] Top shape: 1 12600 (12600)
I0116 11:34:11.492164 19937 net.cpp:165] Memory required for data: 249926536
I0116 11:34:11.492167 19937 layer_factory.hpp:77] Creating layer conv6_2_mbox_priorbox
I0116 11:34:11.492174 19937 net.cpp:100] Creating Layer conv6_2_mbox_priorbox
I0116 11:34:11.492178 19937 net.cpp:434] conv6_2_mbox_priorbox <- conv6_2_conv6_2_relu_0_split_3
I0116 11:34:11.492183 19937 net.cpp:434] conv6_2_mbox_priorbox <- data_data_0_split_3
I0116 11:34:11.492189 19937 net.cpp:408] conv6_2_mbox_priorbox -> conv6_2_mbox_priorbox
I0116 11:34:11.492218 19937 net.cpp:150] Setting up conv6_2_mbox_priorbox
I0116 11:34:11.492234 19937 net.cpp:157] Top shape: 1 2 2400 (4800)
I0116 11:34:11.492238 19937 net.cpp:165] Memory required for data: 249945736
I0116 11:34:11.492243 19937 layer_factory.hpp:77] Creating layer conv7_2_mbox_loc
I0116 11:34:11.492254 19937 net.cpp:100] Creating Layer conv7_2_mbox_loc
I0116 11:34:11.492259 19937 net.cpp:434] conv7_2_mbox_loc <- conv7_2_conv7_2_relu_0_split_1
I0116 11:34:11.492265 19937 net.cpp:408] conv7_2_mbox_loc -> conv7_2_mbox_loc
I0116 11:34:11.494189 19937 net.cpp:150] Setting up conv7_2_mbox_loc
I0116 11:34:11.494205 19937 net.cpp:157] Top shape: 1 24 5 5 (600)
I0116 11:34:11.494210 19937 net.cpp:165] Memory required for data: 249948136
I0116 11:34:11.494217 19937 layer_factory.hpp:77] Creating layer conv7_2_mbox_loc_perm
I0116 11:34:11.494223 19937 net.cpp:100] Creating Layer conv7_2_mbox_loc_perm
I0116 11:34:11.494228 19937 net.cpp:434] conv7_2_mbox_loc_perm <- conv7_2_mbox_loc
I0116 11:34:11.494235 19937 net.cpp:408] conv7_2_mbox_loc_perm -> conv7_2_mbox_loc_perm
I0116 11:34:11.494364 19937 net.cpp:150] Setting up conv7_2_mbox_loc_perm
I0116 11:34:11.494374 19937 net.cpp:157] Top shape: 1 5 5 24 (600)
I0116 11:34:11.494377 19937 net.cpp:165] Memory required for data: 249950536
I0116 11:34:11.494380 19937 layer_factory.hpp:77] Creating layer conv7_2_mbox_loc_flat
I0116 11:34:11.494388 19937 net.cpp:100] Creating Layer conv7_2_mbox_loc_flat
I0116 11:34:11.494392 19937 net.cpp:434] conv7_2_mbox_loc_flat <- conv7_2_mbox_loc_perm
I0116 11:34:11.494397 19937 net.cpp:408] conv7_2_mbox_loc_flat -> conv7_2_mbox_loc_flat
I0116 11:34:11.494426 19937 net.cpp:150] Setting up conv7_2_mbox_loc_flat
I0116 11:34:11.494432 19937 net.cpp:157] Top shape: 1 600 (600)
I0116 11:34:11.494436 19937 net.cpp:165] Memory required for data: 249952936
I0116 11:34:11.494438 19937 layer_factory.hpp:77] Creating layer conv7_2_mbox_conf
I0116 11:34:11.494448 19937 net.cpp:100] Creating Layer conv7_2_mbox_conf
I0116 11:34:11.494452 19937 net.cpp:434] conv7_2_mbox_conf <- conv7_2_conv7_2_relu_0_split_2
I0116 11:34:11.494459 19937 net.cpp:408] conv7_2_mbox_conf -> conv7_2_mbox_conf
I0116 11:34:11.498108 19937 net.cpp:150] Setting up conv7_2_mbox_conf
I0116 11:34:11.498126 19937 net.cpp:157] Top shape: 1 126 5 5 (3150)
I0116 11:34:11.498131 19937 net.cpp:165] Memory required for data: 249965536
I0116 11:34:11.498137 19937 layer_factory.hpp:77] Creating layer conv7_2_mbox_conf_perm
I0116 11:34:11.498144 19937 net.cpp:100] Creating Layer conv7_2_mbox_conf_perm
I0116 11:34:11.498149 19937 net.cpp:434] conv7_2_mbox_conf_perm <- conv7_2_mbox_conf
I0116 11:34:11.498155 19937 net.cpp:408] conv7_2_mbox_conf_perm -> conv7_2_mbox_conf_perm
I0116 11:34:11.498276 19937 net.cpp:150] Setting up conv7_2_mbox_conf_perm
I0116 11:34:11.498286 19937 net.cpp:157] Top shape: 1 5 5 126 (3150)
I0116 11:34:11.498289 19937 net.cpp:165] Memory required for data: 249978136
I0116 11:34:11.498297 19937 layer_factory.hpp:77] Creating layer conv7_2_mbox_conf_flat
I0116 11:34:11.498306 19937 net.cpp:100] Creating Layer conv7_2_mbox_conf_flat
I0116 11:34:11.498309 19937 net.cpp:434] conv7_2_mbox_conf_flat <- conv7_2_mbox_conf_perm
I0116 11:34:11.498317 19937 net.cpp:408] conv7_2_mbox_conf_flat -> conv7_2_mbox_conf_flat
I0116 11:34:11.498347 19937 net.cpp:150] Setting up conv7_2_mbox_conf_flat
I0116 11:34:11.498353 19937 net.cpp:157] Top shape: 1 3150 (3150)
I0116 11:34:11.498355 19937 net.cpp:165] Memory required for data: 249990736
I0116 11:34:11.498359 19937 layer_factory.hpp:77] Creating layer conv7_2_mbox_priorbox
I0116 11:34:11.498365 19937 net.cpp:100] Creating Layer conv7_2_mbox_priorbox
I0116 11:34:11.498369 19937 net.cpp:434] conv7_2_mbox_priorbox <- conv7_2_conv7_2_relu_0_split_3
I0116 11:34:11.498374 19937 net.cpp:434] conv7_2_mbox_priorbox <- data_data_0_split_4
I0116 11:34:11.498381 19937 net.cpp:408] conv7_2_mbox_priorbox -> conv7_2_mbox_priorbox
I0116 11:34:11.498412 19937 net.cpp:150] Setting up conv7_2_mbox_priorbox
I0116 11:34:11.498419 19937 net.cpp:157] Top shape: 1 2 600 (1200)
I0116 11:34:11.498421 19937 net.cpp:165] Memory required for data: 249995536
I0116 11:34:11.498435 19937 layer_factory.hpp:77] Creating layer conv8_2_mbox_loc
I0116 11:34:11.498446 19937 net.cpp:100] Creating Layer conv8_2_mbox_loc
I0116 11:34:11.498451 19937 net.cpp:434] conv8_2_mbox_loc <- conv8_2_conv8_2_relu_0_split_1
I0116 11:34:11.498459 19937 net.cpp:408] conv8_2_mbox_loc -> conv8_2_mbox_loc
I0116 11:34:11.499878 19937 net.cpp:150] Setting up conv8_2_mbox_loc
I0116 11:34:11.499896 19937 net.cpp:157] Top shape: 1 16 3 3 (144)
I0116 11:34:11.499899 19937 net.cpp:165] Memory required for data: 249996112
I0116 11:34:11.499917 19937 layer_factory.hpp:77] Creating layer conv8_2_mbox_loc_perm
I0116 11:34:11.499925 19937 net.cpp:100] Creating Layer conv8_2_mbox_loc_perm
I0116 11:34:11.499929 19937 net.cpp:434] conv8_2_mbox_loc_perm <- conv8_2_mbox_loc
I0116 11:34:11.499935 19937 net.cpp:408] conv8_2_mbox_loc_perm -> conv8_2_mbox_loc_perm
I0116 11:34:11.500059 19937 net.cpp:150] Setting up conv8_2_mbox_loc_perm
I0116 11:34:11.500069 19937 net.cpp:157] Top shape: 1 3 3 16 (144)
I0116 11:34:11.500072 19937 net.cpp:165] Memory required for data: 249996688
I0116 11:34:11.500077 19937 layer_factory.hpp:77] Creating layer conv8_2_mbox_loc_flat
I0116 11:34:11.500082 19937 net.cpp:100] Creating Layer conv8_2_mbox_loc_flat
I0116 11:34:11.500087 19937 net.cpp:434] conv8_2_mbox_loc_flat <- conv8_2_mbox_loc_perm
I0116 11:34:11.500092 19937 net.cpp:408] conv8_2_mbox_loc_flat -> conv8_2_mbox_loc_flat
I0116 11:34:11.500120 19937 net.cpp:150] Setting up conv8_2_mbox_loc_flat
I0116 11:34:11.500126 19937 net.cpp:157] Top shape: 1 144 (144)
I0116 11:34:11.500129 19937 net.cpp:165] Memory required for data: 249997264
I0116 11:34:11.500133 19937 layer_factory.hpp:77] Creating layer conv8_2_mbox_conf
I0116 11:34:11.500143 19937 net.cpp:100] Creating Layer conv8_2_mbox_conf
I0116 11:34:11.500147 19937 net.cpp:434] conv8_2_mbox_conf <- conv8_2_conv8_2_relu_0_split_2
I0116 11:34:11.500154 19937 net.cpp:408] conv8_2_mbox_conf -> conv8_2_mbox_conf
I0116 11:34:11.503090 19937 net.cpp:150] Setting up conv8_2_mbox_conf
I0116 11:34:11.503108 19937 net.cpp:157] Top shape: 1 84 3 3 (756)
I0116 11:34:11.503111 19937 net.cpp:165] Memory required for data: 250000288
I0116 11:34:11.503118 19937 layer_factory.hpp:77] Creating layer conv8_2_mbox_conf_perm
I0116 11:34:11.503126 19937 net.cpp:100] Creating Layer conv8_2_mbox_conf_perm
I0116 11:34:11.503131 19937 net.cpp:434] conv8_2_mbox_conf_perm <- conv8_2_mbox_conf
I0116 11:34:11.503139 19937 net.cpp:408] conv8_2_mbox_conf_perm -> conv8_2_mbox_conf_perm
I0116 11:34:11.503260 19937 net.cpp:150] Setting up conv8_2_mbox_conf_perm
I0116 11:34:11.503269 19937 net.cpp:157] Top shape: 1 3 3 84 (756)
I0116 11:34:11.503273 19937 net.cpp:165] Memory required for data: 250003312
I0116 11:34:11.503276 19937 layer_factory.hpp:77] Creating layer conv8_2_mbox_conf_flat
I0116 11:34:11.503283 19937 net.cpp:100] Creating Layer conv8_2_mbox_conf_flat
I0116 11:34:11.503288 19937 net.cpp:434] conv8_2_mbox_conf_flat <- conv8_2_mbox_conf_perm
I0116 11:34:11.503294 19937 net.cpp:408] conv8_2_mbox_conf_flat -> conv8_2_mbox_conf_flat
I0116 11:34:11.503324 19937 net.cpp:150] Setting up conv8_2_mbox_conf_flat
I0116 11:34:11.503330 19937 net.cpp:157] Top shape: 1 756 (756)
I0116 11:34:11.503334 19937 net.cpp:165] Memory required for data: 250006336
I0116 11:34:11.503337 19937 layer_factory.hpp:77] Creating layer conv8_2_mbox_priorbox
I0116 11:34:11.503343 19937 net.cpp:100] Creating Layer conv8_2_mbox_priorbox
I0116 11:34:11.503348 19937 net.cpp:434] conv8_2_mbox_priorbox <- conv8_2_conv8_2_relu_0_split_3
I0116 11:34:11.503353 19937 net.cpp:434] conv8_2_mbox_priorbox <- data_data_0_split_5
I0116 11:34:11.503360 19937 net.cpp:408] conv8_2_mbox_priorbox -> conv8_2_mbox_priorbox
I0116 11:34:11.503391 19937 net.cpp:150] Setting up conv8_2_mbox_priorbox
I0116 11:34:11.503399 19937 net.cpp:157] Top shape: 1 2 144 (288)
I0116 11:34:11.503403 19937 net.cpp:165] Memory required for data: 250007488
I0116 11:34:11.503407 19937 layer_factory.hpp:77] Creating layer conv9_2_mbox_loc
I0116 11:34:11.503429 19937 net.cpp:100] Creating Layer conv9_2_mbox_loc
I0116 11:34:11.503438 19937 net.cpp:434] conv9_2_mbox_loc <- conv9_2_conv9_2_relu_0_split_0
I0116 11:34:11.503445 19937 net.cpp:408] conv9_2_mbox_loc -> conv9_2_mbox_loc
I0116 11:34:11.504832 19937 net.cpp:150] Setting up conv9_2_mbox_loc
I0116 11:34:11.504848 19937 net.cpp:157] Top shape: 1 16 1 1 (16)
I0116 11:34:11.504853 19937 net.cpp:165] Memory required for data: 250007552
I0116 11:34:11.504859 19937 layer_factory.hpp:77] Creating layer conv9_2_mbox_loc_perm
I0116 11:34:11.504868 19937 net.cpp:100] Creating Layer conv9_2_mbox_loc_perm
I0116 11:34:11.504873 19937 net.cpp:434] conv9_2_mbox_loc_perm <- conv9_2_mbox_loc
I0116 11:34:11.504878 19937 net.cpp:408] conv9_2_mbox_loc_perm -> conv9_2_mbox_loc_perm
I0116 11:34:11.504999 19937 net.cpp:150] Setting up conv9_2_mbox_loc_perm
I0116 11:34:11.505008 19937 net.cpp:157] Top shape: 1 1 1 16 (16)
I0116 11:34:11.505012 19937 net.cpp:165] Memory required for data: 250007616
I0116 11:34:11.505015 19937 layer_factory.hpp:77] Creating layer conv9_2_mbox_loc_flat
I0116 11:34:11.505023 19937 net.cpp:100] Creating Layer conv9_2_mbox_loc_flat
I0116 11:34:11.505026 19937 net.cpp:434] conv9_2_mbox_loc_flat <- conv9_2_mbox_loc_perm
I0116 11:34:11.505039 19937 net.cpp:408] conv9_2_mbox_loc_flat -> conv9_2_mbox_loc_flat
I0116 11:34:11.505066 19937 net.cpp:150] Setting up conv9_2_mbox_loc_flat
I0116 11:34:11.505074 19937 net.cpp:157] Top shape: 1 16 (16)
I0116 11:34:11.505077 19937 net.cpp:165] Memory required for data: 250007680
I0116 11:34:11.505081 19937 layer_factory.hpp:77] Creating layer conv9_2_mbox_conf
I0116 11:34:11.505095 19937 net.cpp:100] Creating Layer conv9_2_mbox_conf
I0116 11:34:11.505100 19937 net.cpp:434] conv9_2_mbox_conf <- conv9_2_conv9_2_relu_0_split_1
I0116 11:34:11.505105 19937 net.cpp:408] conv9_2_mbox_conf -> conv9_2_mbox_conf
I0116 11:34:11.508041 19937 net.cpp:150] Setting up conv9_2_mbox_conf
I0116 11:34:11.508059 19937 net.cpp:157] Top shape: 1 84 1 1 (84)
I0116 11:34:11.508062 19937 net.cpp:165] Memory required for data: 250008016
I0116 11:34:11.508069 19937 layer_factory.hpp:77] Creating layer conv9_2_mbox_conf_perm
I0116 11:34:11.508077 19937 net.cpp:100] Creating Layer conv9_2_mbox_conf_perm
I0116 11:34:11.508082 19937 net.cpp:434] conv9_2_mbox_conf_perm <- conv9_2_mbox_conf
I0116 11:34:11.508090 19937 net.cpp:408] conv9_2_mbox_conf_perm -> conv9_2_mbox_conf_perm
I0116 11:34:11.508211 19937 net.cpp:150] Setting up conv9_2_mbox_conf_perm
I0116 11:34:11.508221 19937 net.cpp:157] Top shape: 1 1 1 84 (84)
I0116 11:34:11.508225 19937 net.cpp:165] Memory required for data: 250008352
I0116 11:34:11.508229 19937 layer_factory.hpp:77] Creating layer conv9_2_mbox_conf_flat
I0116 11:34:11.508235 19937 net.cpp:100] Creating Layer conv9_2_mbox_conf_flat
I0116 11:34:11.508239 19937 net.cpp:434] conv9_2_mbox_conf_flat <- conv9_2_mbox_conf_perm
I0116 11:34:11.508244 19937 net.cpp:408] conv9_2_mbox_conf_flat -> conv9_2_mbox_conf_flat
I0116 11:34:11.508273 19937 net.cpp:150] Setting up conv9_2_mbox_conf_flat
I0116 11:34:11.508281 19937 net.cpp:157] Top shape: 1 84 (84)
I0116 11:34:11.508285 19937 net.cpp:165] Memory required for data: 250008688
I0116 11:34:11.508287 19937 layer_factory.hpp:77] Creating layer conv9_2_mbox_priorbox
I0116 11:34:11.508296 19937 net.cpp:100] Creating Layer conv9_2_mbox_priorbox
I0116 11:34:11.508301 19937 net.cpp:434] conv9_2_mbox_priorbox <- conv9_2_conv9_2_relu_0_split_2
I0116 11:34:11.508306 19937 net.cpp:434] conv9_2_mbox_priorbox <- data_data_0_split_6
I0116 11:34:11.508311 19937 net.cpp:408] conv9_2_mbox_priorbox -> conv9_2_mbox_priorbox
I0116 11:34:11.508342 19937 net.cpp:150] Setting up conv9_2_mbox_priorbox
I0116 11:34:11.508349 19937 net.cpp:157] Top shape: 1 2 16 (32)
I0116 11:34:11.508353 19937 net.cpp:165] Memory required for data: 250008816
I0116 11:34:11.508357 19937 layer_factory.hpp:77] Creating layer mbox_loc
I0116 11:34:11.508370 19937 net.cpp:100] Creating Layer mbox_loc
I0116 11:34:11.508378 19937 net.cpp:434] mbox_loc <- conv4_3_norm_mbox_loc_flat
I0116 11:34:11.508394 19937 net.cpp:434] mbox_loc <- fc7_mbox_loc_flat
I0116 11:34:11.508402 19937 net.cpp:434] mbox_loc <- conv6_2_mbox_loc_flat
I0116 11:34:11.508409 19937 net.cpp:434] mbox_loc <- conv7_2_mbox_loc_flat
I0116 11:34:11.508412 19937 net.cpp:434] mbox_loc <- conv8_2_mbox_loc_flat
I0116 11:34:11.508417 19937 net.cpp:434] mbox_loc <- conv9_2_mbox_loc_flat
I0116 11:34:11.508422 19937 net.cpp:408] mbox_loc -> mbox_loc
I0116 11:34:11.508460 19937 net.cpp:150] Setting up mbox_loc
I0116 11:34:11.508468 19937 net.cpp:157] Top shape: 1 34928 (34928)
I0116 11:34:11.508471 19937 net.cpp:165] Memory required for data: 250148528
I0116 11:34:11.508476 19937 layer_factory.hpp:77] Creating layer mbox_conf
I0116 11:34:11.508484 19937 net.cpp:100] Creating Layer mbox_conf
I0116 11:34:11.508491 19937 net.cpp:434] mbox_conf <- conv4_3_norm_mbox_conf_flat
I0116 11:34:11.508496 19937 net.cpp:434] mbox_conf <- fc7_mbox_conf_flat
I0116 11:34:11.508502 19937 net.cpp:434] mbox_conf <- conv6_2_mbox_conf_flat
I0116 11:34:11.508507 19937 net.cpp:434] mbox_conf <- conv7_2_mbox_conf_flat
I0116 11:34:11.508510 19937 net.cpp:434] mbox_conf <- conv8_2_mbox_conf_flat
I0116 11:34:11.508514 19937 net.cpp:434] mbox_conf <- conv9_2_mbox_conf_flat
I0116 11:34:11.508519 19937 net.cpp:408] mbox_conf -> mbox_conf
I0116 11:34:11.508548 19937 net.cpp:150] Setting up mbox_conf
I0116 11:34:11.508556 19937 net.cpp:157] Top shape: 1 183372 (183372)
I0116 11:34:11.508559 19937 net.cpp:165] Memory required for data: 250882016
I0116 11:34:11.508563 19937 layer_factory.hpp:77] Creating layer mbox_priorbox
I0116 11:34:11.508571 19937 net.cpp:100] Creating Layer mbox_priorbox
I0116 11:34:11.508575 19937 net.cpp:434] mbox_priorbox <- conv4_3_norm_mbox_priorbox
I0116 11:34:11.508580 19937 net.cpp:434] mbox_priorbox <- fc7_mbox_priorbox
I0116 11:34:11.508584 19937 net.cpp:434] mbox_priorbox <- conv6_2_mbox_priorbox
I0116 11:34:11.508589 19937 net.cpp:434] mbox_priorbox <- conv7_2_mbox_priorbox
I0116 11:34:11.508594 19937 net.cpp:434] mbox_priorbox <- conv8_2_mbox_priorbox
I0116 11:34:11.508596 19937 net.cpp:434] mbox_priorbox <- conv9_2_mbox_priorbox
I0116 11:34:11.508601 19937 net.cpp:408] mbox_priorbox -> mbox_priorbox
I0116 11:34:11.508628 19937 net.cpp:150] Setting up mbox_priorbox
I0116 11:34:11.508636 19937 net.cpp:157] Top shape: 1 2 34928 (69856)
I0116 11:34:11.508640 19937 net.cpp:165] Memory required for data: 251161440
I0116 11:34:11.508643 19937 layer_factory.hpp:77] Creating layer mbox_loss
I0116 11:34:11.508656 19937 net.cpp:100] Creating Layer mbox_loss
I0116 11:34:11.508659 19937 net.cpp:434] mbox_loss <- mbox_loc
I0116 11:34:11.508663 19937 net.cpp:434] mbox_loss <- mbox_conf
I0116 11:34:11.508668 19937 net.cpp:434] mbox_loss <- mbox_priorbox
…
state {
  phase: TEST
}
layer {
  name: "data"
  type: "AnnotatedData"
  top: "data"
  top: "label"
  include {
    phase: TEST
  }
  transform_param {
    mean_value: 104
    mean_value: 117
    mean_value: 123
    resize_param {
      prob: 1
      resize_mode: WARP
      height: 300
      width: 300
      interp_mode: LINEAR
    }
  }
  data_param {
    source: "examples/VOC0712/VOC0712_test_lmdb"
    batch_size: 8
    backend: LMDB
  }
  annotated_data_param {
    batch_sampler {
    }
    label_map_file: "data/VOC0712/labelmap_voc.prototxt"
  }
}
layer {
  name: "conv1_1"
  type: "Convolution"
  bottom: "data"
  top: "conv1_1"
  param {
    lr_mult: 1
    decay_mult: 1
  }
  param {
    lr_mult: 2
    decay_mult: 0
  }
  convolution_param {
    num_output: 64
    pad: 1
    kernel_size: 3
    weight_filler {
      type: "xavier"
    }
    bias_filler {
      type: "constant"
      value: 0
    }
  }
}
layer {
  name: "relu1_1"
  type: "ReLU"
  bottom: "conv1_1"
  top: "conv1_1"
}
layer {
  name: "conv1_2"
  type: "Convolution"
  bottom: "conv1_1"
  top: "conv1_2"
  param {
    lr_mult: 1
    decay_mult: 1
  }
  param {
    lr_mult: 2
    decay_mult: 0
  }
  convolution_param {
    num_output: 64
    pad: 1
    kernel_size: 3
    weight_filler {
      type: "xavier"
    }
    bias_filler {
      type: "constant"
      value: 0
    }
  }
}
layer {
  name: "relu1_2"
  type: "ReLU"
  bottom: "conv1_2"
  top: "conv1_2"
}
layer {
  name: "pool1"
  type: "Pooling"
  bottom: "conv1_2"
  top: "pool1"
  pooling_param {
    pool: MAX
    kernel_size: 2
    stride: 2
  }
}
layer {
  name: "conv2_1"
  type: "Convolution"
  bottom: "pool1"
  top: "conv2_1"
  param {
    lr_mult: 1
    decay_mult: 1
  }
  param {
    lr_mult: 2
    decay_mult: 0
  }
  convolution_param {
    num_output: 128
    pad: 1
    kernel_size: 3
    weight_filler {
      type: "xavier"
    }
    bias_filler {
      type: "constant"
      value: 0
    }
  }
}
layer {
  name: "relu2_1"
  type: "ReLU"
  bottom: "conv2_1"
  top: "conv2_1"
}
layer {
  name: "conv2_2"
  type: "Convolution"
  bottom: "conv2_1"
  top: "conv2_2"
  param {
    lr_mult: 1
    decay_mult: 1
  }
  param {
    lr_mult: 2
    decay_mult: 0
  }
  convolution_param {
    num_output: 128
    pad: 1
    kernel_size: 3
    weight_filler {
      type: "xavier"
    }
    bias_filler {
      type: "constant"
      value: 0
    }
  }
}
layer {
  name: "relu2_2"
  type: "ReLU"
  bottom: "conv2_2"
  top: "conv2_2"
}
layer {
  name: "pool2"
  type: "Pooling"
  bottom: "conv2_2"
  top: "pool2"
  pooling_param {
    pool: MAX
    kernel_size: 2
    stride: 2
  }
}
layer {
  name: "conv3_1"
  type: "Convolution"
  bottom: "pool2"
  top: "conv3_1"
  param {
    lr_mult: 1
    decay_mult: 1
  }
  param {
    lr_mult: 2
    decay_mult: 0
  }
  convolution_param {
    num_output: 256
    pad: 1
    kernel_size: 3
    weight_filler {
      type: "xavier"
    }
    bias_filler {
      type: "constant"
      value: 0
    }
  }
}
layer {
  name: "relu3_1"
  type: "ReLU"
  bottom: "conv3_1"
  top: "conv3_1"
}
layer {
  name: "conv3_2"
  type: "Convolution"
  bottom: "conv3_1"
  top: "conv3_2"
  param {
    lr_mult: 1
    decay_mult: 1
  }
  param {
    lr_mult: 2
    decay_mult: 0
  }
  convolution_param {
    num_output: 256
    pad: 1
    kernel_size: 3
    weight_filler {
      type: "xavier"
    }
    bias_filler {
      type: "constant"
      value: 0
    }
  }
}
layer {
  name: "relu3_2"
  type: "ReLU"
  bottom: "conv3_2"
  top: "conv3_2"
}
layer {
  name: "conv3_3"
  type: "Convolution"
  bottom: "conv3_2"
  top: "conv3_3"
  param {
    lr_mult: 1
    decay_mult: 1
  }
  param {
    lr_mult: 2
    decay_mult: 0
  }
  convolution_param {
    num_output: 256
    pad: 1
    kernel_size: 3
    weight_filler {
      type: "xavier"
    }
    bias_filler {
      type: "constant"
      value: 0
    }
  }
}
layer {
  name: "relu3_3"
  type: "ReLU"
  bottom: "conv3_3"
  top: "conv3_3"
}
layer {
  name: "pool3"
  type: "Pooling"
  bottom: "conv3_3"
  top: "pool3"
  pooling_param {
    pool: MAX
    kernel_size: 2
    stride: 2
  }
}
layer {
  name: "conv4_1"
  type: "Convolution"
  bottom: "pool3"
  top: "conv4_1"
  param {
    lr_mult: 1
    decay_mult: 1
  }
  param {
    lr_mult: 2
    decay_mult: 0
  }
  convolution_param {
    num_output: 512
    pad: 1
    kernel_size: 3
    weight_filler {
      type: "xavier"
    }
    bias_filler {
      type: "constant"
      value: 0
    }
  }
}
layer {
  name: "relu4_1"
  type: "ReLU"
  bottom: "conv4_1"
  top: "conv4_1"
}
layer {
  name: "conv4_2"
  type: "Convolution"
  bottom: "conv4_1"
  top: "conv4_2"
  param {
    lr_mult: 1
    decay_mult: 1
  }
  param {
    lr_mult: 2
    decay_mult: 0
  }
  convolution_param {
    num_output: 512
    pad: 1
    kernel_size: 3
    weight_filler {
      type: "xavier"
    }
    bias_filler {
      type: "constant"
      value: 0
    }
  }
}
layer {
  name: "relu4_2"
  type: "ReLU"
  bottom: "conv4_2"
  top: "conv4_2"
}
layer {
  name: "conv4_3"
  type: "Convolution"
  bottom: "conv4_2"
  top: "conv4_3"
  param {
    lr_mult: 1
    decay_mult: 1
  }
  param {
    lr_mult: 2
    decay_mult: 0
  }
  convolution_param {
    num_output: 512
    pad: 1
    kernel_size: 3
    weight_filler {
      type: "xavier"
    }
    bias_filler {
      type: "constant"
      value: 0
    }
  }
}
layer {
  name: "relu4_3"
  type: "ReLU"
  bottom: "conv4_3"
  top: "conv4_3"
}
layer {
  name: "pool4"
  type: "Pooling"
  bottom: "conv4_3"
  top: "pool4"
  pooling_param {
    pool: MAX
    kernel_size: 2
    stride: 2
  }
}
layer {
  name: "conv5_1"
  type: "Convolution"
  bottom: "pool4"
  top: "conv5_1"
  param {
    lr_mult: 1
    decay_mult: 1
  }
  param {
    lr_mult: 2
    decay_mult: 0
  }
  convolution_param {
    num_output: 512
    pad: 1
    kernel_size: 3
    weight_filler {
      type: "xavier"
    }
    bias_filler {
      type: "constant"
      value: 0
    }
    dilation: 1
  }
}
layer {
  name: "relu5_1"
  type: "ReLU"
  bottom: "conv5_1"
  top: "conv5_1"
}
layer {
  name: "conv5_2"
  type: "Convolution"
  bottom: "conv5_1"
  top: "conv5_2"
  param {
    lr_mult: 1
    decay_mult: 1
  }
  param {
    lr_mult: 2
    decay_mult: 0
  }
  convolution_param {
    num_output: 512
    pad: 1
    kernel_size: 3
    weight_filler {
      type: "xavier"
    }
    bias_filler {
      type: "constant"
      value: 0
    }
    dilation: 1
  }
}
layer {
  name: "relu5_2"
  type: "ReLU"
  bottom: "conv5_2"
  top: "conv5_2"
}
layer {
  name: "conv5_3"
  type: "Convolution"
  bottom: "conv5_2"
  top: "conv5_3"
  param {
    lr_mult: 1
    decay_mult: 1
  }
  param {
    lr_mult: 2
    decay_mult: 0
  }
  convolution_param {
    num_output: 512
    pad: 1
    kernel_size: 3
    weight_filler {
      type: "xavier"
    }
    bias_filler {
      type: "constant"
      value: 0
    }
    dilation: 1
  }
}
layer {
  name: "relu5_3"
  type: "ReLU"
  bottom: "conv5_3"
  top: "conv5_3"
}
layer {
  name: "pool5"
  type: "Pooling"
  bottom: "conv5_3"
  top: "pool5"
  pooling_param {
    pool: MAX
    kernel_size: 3
    stride: 1
    pad: 1
  }
}
layer {
  name: "fc6"
  type: "Convolution"
  bottom: "pool5"
  top: "fc6"
  param {
    lr_mult: 1
    decay_mult: 1
  }
  param {
    lr_mult: 2
    decay_mult: 0
  }
  convolution_param {
    num_output: 1024
    pad: 6
    kernel_size: 3
    weight_filler {
      type: "xavier"
    }
    bias_filler {
      type: "constant"
      value: 0
    }
    dilation: 6
  }
}
layer {
  name: "relu6"
  type: "ReLU"
  bottom: "fc6"
  top: "fc6"
}
layer {
  name: "fc7"
  type: "Convolution"
  bottom: "fc6"
  top: "fc7"
  param {
    lr_mult: 1
    decay_mult: 1
  }
  param {
    lr_mult: 2
    decay_mult: 0
  }
  convolution_param {
    num_output: 1024
    kernel_size: 1
    weight_filler {
      type: "xavier"
    }
    bias_filler {
      type: "constant"
      value: 0
    }
  }
}
layer {
  name: "relu7"
  type: "ReLU"
  bottom: "fc7"
  top: "fc7"
}
layer {
  name: "conv6_1"
  type: "Convolution"
  bottom: "fc7"
  top: "conv6_1"
  param {
    lr_mult: 1
    decay_mult: 1
  }
  param {
    lr_mult: 2
    decay_mult: 0
  }
  convolution_param {
    num_output: 256
    pad: 0
    kernel_size: 1
    stride: 1
    weight_filler {
      type: "xavier"
    }
    bias_filler {
      type: "constant"
      value: 0
    }
  }
}
layer {
  name: "conv6_1_relu"
  type: "ReLU"
  bottom: "conv6_1"
  top: "conv6_1"
}
layer {
  name: "conv6_2"
  type: "Convolution"
  bottom: "conv6_1"
  top: "conv6_2"
  param {
    lr_mult: 1
    decay_mult: 1
  }
  param {
    lr_mult: 2
    decay_mult: 0
  }
  convolution_param {
    num_output: 512
    pad: 1
    kernel_size: 3
    stride: 2
    weight_filler {
      type: "xavier"
    }
    bias_filler {
      type: "constant"
      value: 0
    }
  }
}
layer {
  name: "conv6_2_relu"
  type: "ReLU"
  bottom: "conv6_2"
  top: "conv6_2"
}
layer {
  name: "conv7_1"
  type: "Convolution"
  bottom: "conv6_2"
  top: "conv7_1"
  param {
    lr_mult: 1
    decay_mult: 1
  }
  param {
    lr_mult: 2
    decay_mult: 0
  }
  convolution_param {
    num_output: 128
    pad: 0
    kernel_size: 1
    stride: 1
    weight_filler {
      type: "xavier"
    }
    bias_filler {
      type: "constant"
      value: 0
    }
  }
}
layer {
  name: "conv7_1_relu"
  type: "ReLU"
  bottom: "conv7_1"
  top: "conv7_1"
}
layer {
  name: "conv7_2"
  type: "Convolution"
  bottom: "conv7_1"
  top: "conv7_2"
  param {
    lr_mult: 1
    decay_mult: 1
  }
  param {
    lr_mult: 2
    decay_mult: 0
  }
  convolution_param {
    num_output: 256
    pad: 1
    kernel_size: 3
    stride: 2
    weight_filler {
      type: "xavier"
    }
    bias_filler {
      type: "constant"
      value: 0
    }
  }
}
layer {
  name: "conv7_2_relu"
  type: "ReLU"
  bottom: "conv7_2"
  top: "conv7_2"
}
layer {
  name: "conv8_1"
  type: "Convolution"
  bottom: "conv7_2"
  top: "conv8_1"
  param {
    lr_mult: 1
    decay_mult: 1
  }
  param {
    lr_mult: 2
    decay_mult: 0
  }
  convolution_param {
    num_output: 128
    pad: 0
    kernel_size: 1
    stride: 1
    weight_filler {
      type: "xavier"
    }
    bias_filler {
      type: "constant"
      value: 0
    }
  }
}
layer {
  name: "conv8_1_relu"
  type: "ReLU"
  bottom: "conv8_1"
  top: "conv8_1"
}
layer {
  name: "conv8_2"
  type: "Convolution"
  bottom: "conv8_1"
  top: "conv8_2"
  param {
    lr_mult: 1
    decay_mult: 1
  }
  param {
    lr_mult: 2
    decay_mult: 0
  }
  convolution_param {
    num_output: 256
    pad: 0
    kernel_size: 3
    stride: 1
    weight_filler {
      type: "xavier"
    }
    bias_filler {
      type: "constant"
      value: 0
    }
  }
}
layer {
  name: "conv8_2_relu"
  type: "ReLU"
  bottom: "conv8_2"
  top: "conv8_2"
}
layer {
  name: "conv9_1"
  type: "Convolution"
  bottom: "conv8_2"
  top: "conv9_1"
  param {
    lr_mult: 1
    decay_mult: 1
  }
  param {
    lr_mult: 2
    decay_mult: 0
  }
  convolution_param {
    num_output: 128
    pad: 0
    kernel_size: 1
    stride: 1
    weight_filler {
      type: "xavier"
    }
    bias_filler {
      type: "constant"
      value: 0
    }
  }
}
layer {
  name: "conv9_1_relu"
  type: "ReLU"
  bottom: "conv9_1"
  top: "conv9_1"
}
layer {
  name: "conv9_2"
  type: "Convolution"
  bottom: "conv9_1"
  top: "conv9_2"
  param {
    lr_mult: 1
    decay_mult: 1
  }
  param {
    lr_mult: 2
    decay_mult: 0
  }
  convolution_param {
    num_output: 256
    pad: 0
    kernel_size: 3
    stride: 1
    weight_filler {
      type: "xavier"
    }
    bias_filler {
      type: "constant"
      value: 0
    }
  }
}
layer {
  name: "conv9_2_relu"
  type: "ReLU"
  bottom: "conv9_2"
  top: "conv9_2"
}
layer {
  name: "conv4_3_norm"
  type: "Normalize"
  bottom: "conv4_3"
  top: "conv4_3_norm"
  norm_param {
    across_spatial: false
    scale_filler {
      type: "constant"
      value: 20
    }
    channel_shared: false
  }
}
layer {
  name: "conv4_3_norm_mbox_loc"
  type: "Convolution"
  bottom: "conv4_3_norm"
  top: "conv4_3_norm_mbox_loc"
  param {
    lr_mult: 1
    decay_mult: 1
  }
  param {
    lr_mult: 2
    decay_mult: 0
  }
  convolution_param {
    num_output: 16
    pad: 1
    kernel_size: 3
    stride: 1
    weight_filler {
      type: "xavier"
    }
    bias_filler {
      type: "constant"
      value: 0
    }
  }
}
layer {
  name: "conv4_3_norm_mbox_loc_perm"
  type: "Permute"
  bottom: "conv4_3_norm_mbox_loc"
  top: "conv4_3_norm_mbox_loc_perm"
  permute_param {
    order: 0
    order: 2
    order: 3
    order: 1
  }
}
layer {
  name: "conv4_3_norm_mbox_loc_flat"
  type: "Flatten"
  bottom: "conv4_3_norm_mbox_loc_perm"
  top: "conv4_3_norm_mbox_loc_flat"
  flatten_param {
    axis: 1
  }
}
layer {
  name: "conv4_3_norm_mbox_conf"
  type: "Convolution"
  bottom: "conv4_3_norm"
  top: "conv4_3_norm_mbox_conf"
  param {
    lr_mult: 1
    decay_mult: 1
  }
  param {
    lr_mult: 2
    decay_mult: 0
  }
  convolution_param {
    num_output: 84
    pad: 1
    kernel_size: 3
    stride: 1
    weight_filler {
      type: "xavier"
    }
    bias_filler {
      type: "constant"
      value: 0
    }
  }
}
layer {
  name: "conv4_3_norm_mbox_conf_perm"
  type: "Permute"
  bottom: "conv4_3_norm_mbox_conf"
  top: "conv4_3_norm_mbox_conf_perm"
  permute_param {
    order: 0
    order: 2
    order: 3
    order: 1
  }
}
layer {
  name: "conv4_3_norm_mbox_conf_flat"
  type: "Flatten"
  bottom: "conv4_3_norm_mbox_conf_perm"
  top: "conv4_3_norm_mbox_conf_flat"
  flatten_param {
    axis: 1
  }
}
layer {
  name: "conv4_3_norm_mbox_priorbox"
  type: "PriorBox"
  bottom: "conv4_3_norm"
  bottom: "data"
  top: "conv4_3_norm_mbox_priorbox"
  prior_box_param {
    min_size: 30
    max_size: 60
    aspect_ratio: 2
    flip: true
    clip: false
    variance: 0.1
    variance: 0.1
    variance: 0.2
    variance: 0.2
    step: 8
    offset: 0.5
  }
}
layer {
  name: "fc7_mbox_loc"
  type: "Convolution"
  bottom: "fc7"
  top: "fc7_mbox_loc"
  param {
    lr_mult: 1
    decay_mult: 1
  }
  param {
    lr_mult: 2
    decay_mult: 0
  }
  convolution_param {
    num_output: 24
    pad: 1
    kernel_size: 3
    stride: 1
    weight_filler {
      type: "xavier"
    }
    bias_filler {
      type: "constant"
      value: 0
    }
  }
}
layer {
  name: "fc7_mbox_loc_perm"
  type: "Permute"
  bottom: "fc7_mbox_loc"
  top: "fc7_mbox_loc_perm"
  permute_param {
    order: 0
    order: 2
    order: 3
    order: 1
  }
}
layer {
  name: "fc7_mbox_loc_flat"
  type: "Flatten"
  bottom: "fc7_mbox_loc_perm"
  top: "fc7_mbox_loc_flat"
  flatten_param {
    axis: 1
  }
}
layer {
  name: "fc7_mbox_conf"
  type: "Convolution"
  bottom: "fc7"
  top: "fc7_mbox_conf"
  param {
    lr_mult: 1
    decay_mult: 1
  }
  param {
    lr_mult: 2
    decay_mult: 0
  }
  convolution_param {
    num_output: 126
    pad: 1
    kernel_size: 3
    stride: 1
    weight_filler {
      type: "xavier"
    }
    bias_filler {
      type: "constant"
      value: 0
    }
  }
}
layer {
  name: "fc7_mbox_conf_perm"
  type: "Permute"
  bottom: "fc7_mbox_conf"
  top: "fc7_mbox_conf_perm"
  permute_param {
    order: 0
    order: 2
    order: 3
    order: 1
  }
}
layer {
  name: "fc7_mbox_conf_flat"
  type: "Flatten"
  bottom: "fc7_mbox_conf_perm"
  top: "fc7_mbox_conf_flat"
  flatten_param {
    axis: 1
  }
}
layer {
  name: "fc7_mbox_priorbox"
  type: "PriorBox"
  bottom: "fc7"
  bottom: "data"
  top: "fc7_mbox_priorbox"
  prior_box_param {
    min_size: 60
    max_size: 111
    aspect_ratio: 2
    aspect_ratio: 3
    flip: true
    clip: false
    variance: 0.1
    variance: 0.1
    variance: 0.2
    variance: 0.2
    step: 16
    offset: 0.5
  }
}
layer {
  name: "conv6_2_mbox_loc"
  type: "Convolution"
  bottom: "conv6_2"
  top: "conv6_2_mbox_loc"
  param {
    lr_mult: 1
    decay_mult: 1
  }
  param {
    lr_mult: 2
    decay_mult: 0
  }
  convolution_param {
    num_output: 24
    pad: 1
    kernel_size: 3
    stride: 1
    weight_filler {
      type: "xavier"
    }
    bias_filler {
      type: "constant"
      value: 0
    }
  }
}
layer {
  name: "conv6_2_mbox_loc_perm"
  type: "Permute"
  bottom: "conv6_2_mbox_loc"
  top: "conv6_2_mbox_loc_perm"
  permute_param {
    order: 0
    order: 2
    order: 3
    order: 1
  }
}
layer {
  name: "conv6_2_mbox_loc_flat"
  type: "Flatten"
  bottom: "conv6_2_mbox_loc_perm"
  top: "conv6_2_mbox_loc_flat"
  flatten_param {
    axis: 1
  }
}
layer {
  name: "conv6_2_mbox_conf"
  type: "Convolution"
  bottom: "conv6_2"
  top: "conv6_2_mbox_conf"
  param {
    lr_mult: 1
    decay_mult: 1
  }
  param {
    lr_mult: 2
    decay_mult: 0
  }
  convolution_param {
    num_output: 126
    pad: 1
    kernel_size: 3
    stride: 1
    weight_filler {
      type: "xavier"
    }
    bias_filler {
      type: "constant"
      value: 0
    }
  }
}
layer {
  name: "conv6_2_mbox_conf_perm"
  type: "Permute"
  bottom: "conv6_2_mbox_conf"
  top: "conv6_2_mbox_conf_perm"
  permute_param {
    order: 0
    order: 2
    order: 3
    order: 1
  }
}
layer {
  name: "conv6_2_mbox_conf_flat"
  type: "Flatten"
  bottom: "conv6_2_mbox_conf_perm"
  top: "conv6_2_mbox_conf_flat"
  flatten_param {
    axis: 1
  }
}
layer {
  name: "conv6_2_mbox_priorbox"
  type: "PriorBox"
  bottom: "conv6_2"
  bottom: "data"
  top: "conv6_2_mbox_priorbox"
  prior_box_param {
    min_size: 111
    max_size: 162
    aspect_ratio: 2
    aspect_ratio: 3
    flip: true
    clip: false
    variance: 0.1
    variance: 0.1
    variance: 0.2
    variance: 0.2
    step: 32
    offset: 0.5
  }
}
layer {
  name: "conv7_2_mbox_loc"
  type: "Convolution"
  bottom: "conv7_2"
  top: "conv7_2_mbox_loc"
  param {
    lr_mult: 1
    decay_mult: 1
  }
  param {
    lr_mult: 2
    decay_mult: 0
  }
  convolution_param {
    num_output: 24
    pad: 1
    kernel_size: 3
    stride: 1
    weight_filler {
      type: "xavier"
    }
    bias_filler {
      type: "constant"
      value: 0
    }
  }
}
layer {
  name: "conv7_2_mbox_loc_perm"
  type: "Permute"
  bottom: "conv7_2_mbox_loc"
  top: "conv7_2_mbox_loc_perm"
  permute_param {
    order: 0
    order: 2
    order: 3
    order: 1
  }
}
layer {
  name: "conv7_2_mbox_loc_flat"
  type: "Flatten"
  bottom: "conv7_2_mbox_loc_perm"
  top: "conv7_2_mbox_loc_flat"
  flatten_param {
    axis: 1
  }
}
layer {
  name: "conv7_2_mbox_conf"
  type: "Convolution"
  bottom: "conv7_2"
  top: "conv7_2_mbox_conf"
  param {
    lr_mult: 1
    decay_mult: 1
  }
  param {
    lr_mult: 2
    decay_mult: 0
  }
  convolution_param {
    num_output: 126
    pad: 1
    kernel_size: 3
    stride: 1
    weight_filler {
      type: "xavier"
    }
    bias_filler {
      type: "constant"
      value: 0
    }
  }
}
layer {
  name: "conv7_2_mbox_conf_perm"
  type: "Permute"
  bottom: "conv7_2_mbox_conf"
  top: "conv7_2_mbox_conf_perm"
  permute_param {
    order: 0
    order: 2
    order: 3
    order: 1
  }
}
layer {
  name: "conv7_2_mbox_conf_flat"
  type: "Flatten"
  bottom: "conv7_2_mbox_conf_perm"
  top: "conv7_2_mbox_conf_flat"
  flatten_param {
    axis: 1
  }
}
layer {
  name: "conv7_2_mbox_priorbox"
  type: "PriorBox"
  bottom: "conv7_2"
  bottom: "data"
  top: "conv7_2_mbox_priorbox"
  prior_box_param {
    min_size: 162
    max_size: 213
    aspect_ratio: 2
    aspect_ratio: 3
    flip: true
    clip: false
    variance: 0.1
    variance: 0.1
    variance: 0.2
    variance: 0.2
    step: 64
    offset: 0.5
  }
}
layer {
  name: "conv8_2_mbox_loc"
  type: "Convolution"
  bottom: "conv8_2"
  top: "conv8_2_mbox_loc"
  param {
    lr_mult: 1
    decay_mult: 1
  }
  param {
    lr_mult: 2
    decay_mult: 0
  }
  convolution_param {
    num_output: 16
    pad: 1
    kernel_size: 3
    stride: 1
    weight_filler {
      type: "xavier"
    }
    bias_filler {
      type: "constant"
      value: 0
    }
  }
}
layer {
  name: "conv8_2_mbox_loc_perm"
  type: "Permute"
  bottom: "conv8_2_mbox_loc"
  top: "conv8_2_mbox_loc_perm"
  permute_param {
    order: 0
    order: 2
    order: 3
    order: 1
  }
}
layer {
  name: "conv8_2_mbox_loc_flat"
  type: "Flatten"
  bottom: "conv8_2_mbox_loc_perm"
  top: "conv8_2_mbox_loc_flat"
  flatten_param {
    axis: 1
  }
}
layer {
  name: "conv8_2_mbox_conf"
  type: "Convolution"
  bottom: "conv8_2"
  top: "conv8_2_mbox_conf"
  param {
    lr_mult: 1
    decay_mult: 1
  }
  param {
    lr_mult: 2
    decay_mult: 0
  }
  convolution_param {
    num_output: 84
    pad: 1
    kernel_size: 3
    stride: 1
    weight_filler {
      type: "xavier"
    }
    bias_filler {
      type: "constant"
      value: 0
    }
  }
}
layer {
  name: "conv8_2_mbox_conf_perm"
  type: "Permute"
  bottom: "conv8_2_mbox_conf"
  top: "conv8_2_mbox_conf_perm"
  permute_param {
    order: 0
    order: 2
    order: 3
    order: 1
  }
}
layer {
  name: "conv8_2_mbox_conf_flat"
  type: "Flatten"
  bottom: "conv8_2_mbox_conf_perm"
  top: "conv8_2_mbox_conf_flat"
  flatten_param {
    axis: 1
  }
}
layer {
  name: "conv8_2_mbox_priorbox"
  type: "PriorBox"
  bottom: "conv8_2"
  bottom: "data"
  top: "conv8_2_mbox_priorbox"
  prior_box_param {
    min_size: 213
    max_size: 264
    aspect_ratio: 2
    flip: true
    clip: false
    variance: 0.1
    variance: 0.1
    variance: 0.2
    variance: 0.2
    step: 100
    offset: 0.5
  }
}
layer {
  name: "conv9_2_mbox_loc"
  type: "Convolution"
  bottom: "conv9_2"
  top: "conv9_2_mbox_loc"
  param {
    lr_mult: 1
    decay_mult: 1
  }
  param {
    lr_mult: 2
    decay_mult: 0
  }
  convolution_param {
    num_output: 16
    pad: 1
    kernel_size: 3
    stride: 1
    weight_filler {
      type: "xavier"
    }
    bias_filler {
      type: "constant"
      value: 0
    }
  }
}
layer {
  name: "conv9_2_mbox_loc_perm"
  type: "Permute"
  bottom: "conv9_2_mbox_loc"
  top: "conv9_2_mbox_loc_perm"
  permute_param {
    order: 0
    order: 2
    order: 3
    order: 1
  }
}
layer {
  name: "conv9_2_mbox_loc_flat"
  type: "Flatten"
  bottom: "conv9_2_mbox_loc_perm"
  top: "conv9_2_mbox_loc_flat"
  flatten_param {
    axis: 1
  }
}
layer {
  name: "conv9_2_mbox_conf"
  type: "Convolution"
  bottom: "conv9_2"
  top: "conv9_2_mbox_conf"
  param {
    lr_mult: 1
    decay_mult: 1
  }
  param {
    lr_mult: 2
    decay_mult: 0
  }
  convolution_param {
    num_output: 84
    pad: 1
    kernel_size: 3
    stride: 1
    weight_filler {
      type: "xavier"
    }
    bias_filler {
      type: "constant"
      value: 0
    }
  }
}
layer {
  name: "conv9_2_mbox_conf_perm"
  type: "Permute"
  bottom: "conv9_2_mbox_conf"
  top: "conv9_2_mbox_conf_perm"
  permute_param {
    order: 0
    order: 2
    order: 3
    order: 1
  }
}
layer {
  name: "conv9_2_mbox_conf_flat"
  type: "Flatten"
  bottom: "conv9_2_mbox_conf_perm"
  top: "conv9_2_mbox_conf_flat"
  flatten_param {
    axis: 1
  }
}
layer {
  name: "conv9_2_mbox_priorbox"
  type: "PriorBox"
  bottom: "conv9_2"
  bottom: "data"
  top: "conv9_2_mbox_priorbox"
  prior_box_param {
    min_size: 264
    max_size: 315
    aspect_ratio: 2
    flip: true
    clip: false
    variance: 0.1
    variance: 0.1
    variance: 0.2
    variance: 0.2
    step: 300
    offset: 0.5
  }
}
layer {
  name: "mbox_loc"
  type: "Concat"
  bottom: "conv4_3_norm_mbox_loc_flat"
  bottom: "fc7_mbox_loc_flat"
  bottom: "conv6_2_mbox_loc_flat"
  bottom: "conv7_2_mbox_loc_flat"
  bottom: "conv8_2_mbox_loc_flat"
  bottom: "conv9_2_mbox_loc_flat"
  top: "mbox_loc"
  concat_param {
    axis: 1
  }
}
layer {
  name: "mbox_conf"
  type: "Concat"
  bottom: "conv4_3_norm_mbox_conf_flat"
  bottom: "fc7_mbox_conf_flat"
  bottom: "conv6_2_mbox_conf_flat"
  bottom: "conv7_2_mbox_conf_flat"
  bottom: "conv8_2_mbox_conf_flat"
  bottom: "conv9_2_mbox_conf_flat"
  top: "mbox_conf"
  concat_param {
    axis: 1
  }
}
layer {
  name: "mbox_priorbox"
  type: "Concat"
  bottom: "conv4_3_norm_mbox_priorbox"
  bottom: "fc7_mbox_priorbox"
  bottom: "conv6_2_mbox_priorbox"
  bottom: "conv7_2_mbox_priorbox"
  bottom: "conv8_2_mbox_priorbox"
  bottom: "conv9_2_mbox_priorbox"
  top: "mbox_priorbox"
  concat_param {
    axis: 2
  }
}
layer {
  name: "mbox_conf_reshape"
  type: "Reshape"
  bottom: "mbox_conf"
  top: "mbox_conf_reshape"
  reshape_param {
    shape {
      dim: 0
      dim: -1
      dim: 21
    }
  }
}
layer {
  name: "mbox_conf_softmax"
  type: "Softmax"
  bottom: "mbox_conf_reshape"
  top: "mbox_conf_softmax"
  softmax_param {
    axis: 2
  }
}
layer {
  name: "mbox_conf_flatten"
  type: "Flatten"
  bottom: "mbox_conf_softmax"
  top: "mbox_conf_flatten"
  flatten_param {
    axis: 1
  }
}
layer {
  name: "detection_out"
  type: "DetectionOutput"
  bottom: "mbox_loc"
  bottom: "mbox_conf_flatten"
  bottom: "mbox_priorbox"
  top: "detection_out"
  include {
    phase: TEST
  }
  detection_output_param {
    num_classes: 21
    share_location: true
    background_label_id: 0
    nms_param {
      nms_threshold: 0.45
      top_k: 400
    }
    save_output_param {
      output_directory: "/home/dhall/data/VOCdevkit/results/VOC2007/SSD_300x300_score/Main"
      output_name_prefix: "comp4_det_test_"
      output_format: "VOC"
      label_map_file: "data/VOC0712/labelmap_voc.prototxt"
      name_size_file: "data/VOC0712/test_name_size.txt"
      num_test_image: 4952
    }
    code_type: CENTER_SIZE
    keep_top_k: 200
    confidence_threshold: 0.01
  }
}
layer {
  name: "detection_eval"
  type: "DetectionEvaluate"
  bottom: "detection_out"
  bottom: "label"
  top: "detection_eval"
  include {
    phase: TEST
  }
  detection_evaluate_param {
    num_classes: 21
    background_label_id: 0
    overlap_threshold: 0.5
    evaluate_difficult_gt: false
    name_size_file: "data/VOC0712/test_name_size.txt"
  }
}
I0116 11:34:11.513250 19937 layer_factory.hpp:77] Creating layer data
I0116 11:34:11.513311 19937 net.cpp:100] Creating Layer data
I0116 11:34:11.513321 19937 net.cpp:408] data -> data
I0116 11:34:11.513331 19937 net.cpp:408] data -> label
I0116 11:34:11.515013 19955 db_lmdb.cpp:35] Opened lmdb examples/VOC0712/VOC0712_test_lmdb
I0116 11:34:11.517560 19937 annotated_data_layer.cpp:62] output data size: 8,3,300,300
I0116 11:34:11.528663 19937 net.cpp:150] Setting up data
I0116 11:34:11.528699 19937 net.cpp:157] Top shape: 8 3 300 300 (2160000)
I0116 11:34:11.528707 19937 net.cpp:157] Top shape: 1 1 2 8 (16)
I0116 11:34:11.528709 19937 net.cpp:165] Memory required for data: 8640064
I0116 11:34:11.528717 19937 layer_factory.hpp:77] Creating layer data_data_0_split
I0116 11:34:11.528733 19937 net.cpp:100] Creating Layer data_data_0_split
I0116 11:34:11.528738 19937 net.cpp:434] data_data_0_split <- data
I0116 11:34:11.528745 19937 net.cpp:408] data_data_0_split -> data_data_0_split_0
I0116 11:34:11.528756 19937 net.cpp:408] data_data_0_split -> data_data_0_split_1
I0116 11:34:11.528764 19937 net.cpp:408] data_data_0_split -> data_data_0_split_2
I0116 11:34:11.528770 19937 net.cpp:408] data_data_0_split -> data_data_0_split_3
I0116 11:34:11.528775 19937 net.cpp:408] data_data_0_split -> data_data_0_split_4
I0116 11:34:11.528781 19937 net.cpp:408] data_data_0_split -> data_data_0_split_5
I0116 11:34:11.528786 19937 net.cpp:408] data_data_0_split -> data_data_0_split_6
I0116 11:34:11.528961 19937 net.cpp:150] Setting up data_data_0_split
I0116 11:34:11.528972 19937 net.cpp:157] Top shape: 8 3 300 300 (2160000)
I0116 11:34:11.528976 19937 net.cpp:157] Top shape: 8 3 300 300 (2160000)
I0116 11:34:11.528981 19937 net.cpp:157] Top shape: 8 3 300 300 (2160000)
I0116 11:34:11.528985 19937 net.cpp:157] Top shape: 8 3 300 300 (2160000)
I0116 11:34:11.528990 19937 net.cpp:157] Top shape: 8 3 300 300 (2160000)
I0116 11:34:11.528993 19937 net.cpp:157] Top shape: 8 3 300 300 (2160000)
I0116 11:34:11.528998 19937 net.cpp:157] Top shape: 8 3 300 300 (2160000)
I0116 11:34:11.529001 19937 net.cpp:165] Memory required for data: 69120064
I0116 11:34:11.529006 19937 layer_factory.hpp:77] Creating layer conv1_1
I0116 11:34:11.529018 19937 net.cpp:100] Creating Layer conv1_1
I0116 11:34:11.529026 19937 net.cpp:434] conv1_1 <- data_data_0_split_0
I0116 11:34:11.529031 19937 net.cpp:408] conv1_1 -> conv1_1
I0116 11:34:11.530741 19937 net.cpp:150] Setting up conv1_1
I0116 11:34:11.530758 19937 net.cpp:157] Top shape: 8 64 300 300 (46080000)
I0116 11:34:11.530763 19937 net.cpp:165] Memory required for data: 253440064
I0116 11:34:11.530776 19937 layer_factory.hpp:77] Creating layer relu1_1
I0116 11:34:11.530783 19937 net.cpp:100] Creating Layer relu1_1
I0116 11:34:11.530787 19937 net.cpp:434] relu1_1 <- conv1_1
I0116 11:34:11.530792 19937 net.cpp:395] relu1_1 -> conv1_1 (in-place)
I0116 11:34:11.531213 19937 net.cpp:150] Setting up relu1_1
I0116 11:34:11.531226 19937 net.cpp:157] Top shape: 8 64 300 300 (46080000)
I0116 11:34:11.531230 19937 net.cpp:165] Memory required for data: 437760064
I0116 11:34:11.531234 19937 layer_factory.hpp:77] Creating layer conv1_2
I0116 11:34:11.531245 19937 net.cpp:100] Creating Layer conv1_2
I0116 11:34:11.531250 19937 net.cpp:434] conv1_2 <- conv1_1
I0116 11:34:11.531257 19937 net.cpp:408] conv1_2 -> conv1_2
I0116 11:34:11.533375 19937 net.cpp:150] Setting up conv1_2
I0116 11:34:11.533392 19937 net.cpp:157] Top shape: 8 64 300 300 (46080000)
I0116 11:34:11.533396 19937 net.cpp:165] Memory required for data: 622080064
I0116 11:34:11.533406 19937 layer_factory.hpp:77] Creating layer relu1_2
I0116 11:34:11.533413 19937 net.cpp:100] Creating Layer relu1_2
I0116 11:34:11.533417 19937 net.cpp:434] relu1_2 <- conv1_2
I0116 11:34:11.533422 19937 net.cpp:395] relu1_2 -> conv1_2 (in-place)
I0116 11:34:11.533609 19937 net.cpp:150] Setting up relu1_2
I0116 11:34:11.533622 19937 net.cpp:157] Top shape: 8 64 300 300 (46080000)
I0116 11:34:11.533625 19937 net.cpp:165] Memory required for data: 806400064
I0116 11:34:11.533628 19937 layer_factory.hpp:77] Creating layer pool1
I0116 11:34:11.533637 19937 net.cpp:100] Creating Layer pool1
I0116 11:34:11.533639 19937 net.cpp:434] pool1 <- conv1_2
I0116 11:34:11.533645 19937 net.cpp:408] pool1 -> pool1
I0116 11:34:11.533700 19937 net.cpp:150] Setting up pool1
I0116 11:34:11.533709 19937 net.cpp:157] Top shape: 8 64 150 150 (11520000)
I0116 11:34:11.533712 19937 net.cpp:165] Memory required for data: 852480064
I0116 11:34:11.533715 19937 layer_factory.hpp:77] Creating layer conv2_1
I0116 11:34:11.533725 19937 net.cpp:100] Creating Layer conv2_1
I0116 11:34:11.533728 19937 net.cpp:434] conv2_1 <- pool1
I0116 11:34:11.533735 19937 net.cpp:408] conv2_1 -> conv2_1
I0116 11:34:11.535508 19937 net.cpp:150] Setting up conv2_1
I0116 11:34:11.535526 19937 net.cpp:157] Top shape: 8 128 150 150 (23040000)
I0116 11:34:11.535529 19937 net.cpp:165] Memory required for data: 944640064
I0116 11:34:11.535539 19937 layer_factory.hpp:77] Creating layer relu2_1
I0116 11:34:11.535547 19937 net.cpp:100] Creating Layer relu2_1
I0116 11:34:11.535552 19937 net.cpp:434] relu2_1 <- conv2_1
I0116 11:34:11.535557 19937 net.cpp:395] relu2_1 -> conv2_1 (in-place)
I0116 11:34:11.535748 19937 net.cpp:150] Setting up relu2_1
I0116 11:34:11.535759 19937 net.cpp:157] Top shape: 8 128 150 150 (23040000)
I0116 11:34:11.535763 19937 net.cpp:165] Memory required for data: 1036800064
I0116 11:34:11.535766 19937 layer_factory.hpp:77] Creating layer conv2_2
I0116 11:34:11.535778 19937 net.cpp:100] Creating Layer conv2_2
I0116 11:34:11.535784 19937 net.cpp:434] conv2_2 <- conv2_1
I0116 11:34:11.535790 19937 net.cpp:408] conv2_2 -> conv2_2
I0116 11:34:11.539196 19937 net.cpp:150] Setting up conv2_2
I0116 11:34:11.539216 19937 net.cpp:157] Top shape: 8 128 150 150 (23040000)
I0116 11:34:11.539219 19937 net.cpp:165] Memory required for data: 1128960064
I0116 11:34:11.539227 19937 layer_factory.hpp:77] Creating layer relu2_2
I0116 11:34:11.539235 19937 net.cpp:100] Creating Layer relu2_2
I0116 11:34:11.539239 19937 net.cpp:434] relu2_2 <- conv2_2
I0116 11:34:11.539245 19937 net.cpp:395] relu2_2 -> conv2_2 (in-place)
I0116 11:34:11.539573 19937 net.cpp:150] Setting up relu2_2
I0116 11:34:11.539587 19937 net.cpp:157] Top shape: 8 128 150 150 (23040000)
I0116 11:34:11.539592 19937 net.cpp:165] Memory required for data: 1221120064
I0116 11:34:11.539595 19937 layer_factory.hpp:77] Creating layer pool2
I0116 11:34:11.539603 19937 net.cpp:100] Creating Layer pool2
I0116 11:34:11.539619 19937 net.cpp:434] pool2 <- conv2_2
I0116 11:34:11.539625 19937 net.cpp:408] pool2 -> pool2
I0116 11:34:11.539687 19937 net.cpp:150] Setting up pool2
I0116 11:34:11.539696 19937 net.cpp:157] Top shape: 8 128 75 75 (5760000)
I0116 11:34:11.539700 19937 net.cpp:165] Memory required for data: 1244160064
I0116 11:34:11.539703 19937 layer_factory.hpp:77] Creating layer conv3_1
I0116 11:34:11.539715 19937 net.cpp:100] Creating Layer conv3_1
I0116 11:34:11.539721 19937 net.cpp:434] conv3_1 <- pool2
I0116 11:34:11.539727 19937 net.cpp:408] conv3_1 -> conv3_1
I0116 11:34:11.543612 19937 net.cpp:150] Setting up conv3_1
I0116 11:34:11.543628 19937 net.cpp:157] Top shape: 8 256 75 75 (11520000)
I0116 11:34:11.543632 19937 net.cpp:165] Memory required for data: 1290240064
I0116 11:34:11.543642 19937 layer_factory.hpp:77] Creating layer relu3_1
I0116 11:34:11.543651 19937 net.cpp:100] Creating Layer relu3_1
I0116 11:34:11.543655 19937 net.cpp:434] relu3_1 <- conv3_1
I0116 11:34:11.543661 19937 net.cpp:395] relu3_1 -> conv3_1 (in-place)
I0116 11:34:11.543865 19937 net.cpp:150] Setting up relu3_1
I0116 11:34:11.543877 19937 net.cpp:157] Top shape: 8 256 75 75 (11520000)
I0116 11:34:11.543881 19937 net.cpp:165] Memory required for data: 1336320064
I0116 11:34:11.543884 19937 layer_factory.hpp:77] Creating layer conv3_2
I0116 11:34:11.543895 19937 net.cpp:100] Creating Layer conv3_2
I0116 11:34:11.543901 19937 net.cpp:434] conv3_2 <- conv3_1
I0116 11:34:11.543910 19937 net.cpp:408] conv3_2 -> conv3_2
I0116 11:34:11.550206 19937 net.cpp:150] Setting up conv3_2
I0116 11:34:11.550223 19937 net.cpp:157] Top shape: 8 256 75 75 (11520000)
I0116 11:34:11.550227 19937 net.cpp:165] Memory required for data: 1382400064
I0116 11:34:11.550235 19937 layer_factory.hpp:77] Creating layer relu3_2
I0116 11:34:11.550241 19937 net.cpp:100] Creating Layer relu3_2
I0116 11:34:11.550246 19937 net.cpp:434] relu3_2 <- conv3_2
I0116 11:34:11.550252 19937 net.cpp:395] relu3_2 -> conv3_2 (in-place)
I0116 11:34:11.550458 19937 net.cpp:150] Setting up relu3_2
I0116 11:34:11.550472 19937 net.cpp:157] Top shape: 8 256 75 75 (11520000)
I0116 11:34:11.550475 19937 net.cpp:165] Memory required for data: 1428480064
I0116 11:34:11.550479 19937 layer_factory.hpp:77] Creating layer conv3_3
I0116 11:34:11.550492 19937 net.cpp:100] Creating Layer conv3_3
I0116 11:34:11.550498 19937 net.cpp:434] conv3_3 <- conv3_2
I0116 11:34:11.550506 19937 net.cpp:408] conv3_3 -> conv3_3
I0116 11:34:11.556685 19937 net.cpp:150] Setting up conv3_3
I0116 11:34:11.556702 19937 net.cpp:157] Top shape: 8 256 75 75 (11520000)
I0116 11:34:11.556706 19937 net.cpp:165] Memory required for data: 1474560064
I0116 11:34:11.556713 19937 layer_factory.hpp:77] Creating layer relu3_3
I0116 11:34:11.556721 19937 net.cpp:100] Creating Layer relu3_3
I0116 11:34:11.556725 19937 net.cpp:434] relu3_3 <- conv3_3
I0116 11:34:11.556732 19937 net.cpp:395] relu3_3 -> conv3_3 (in-place)
I0116 11:34:11.557061 19937 net.cpp:150] Setting up relu3_3
I0116 11:34:11.557076 19937 net.cpp:157] Top shape: 8 256 75 75 (11520000)
I0116 11:34:11.557080 19937 net.cpp:165] Memory required for data: 1520640064
I0116 11:34:11.557085 19937 layer_factory.hpp:77] Creating layer pool3
I0116 11:34:11.557091 19937 net.cpp:100] Creating Layer pool3
I0116 11:34:11.557095 19937 net.cpp:434] pool3 <- conv3_3
I0116 11:34:11.557102 19937 net.cpp:408] pool3 -> pool3
I0116 11:34:11.557160 19937 net.cpp:150] Setting up pool3
I0116 11:34:11.557170 19937 net.cpp:157] Top shape: 8 256 38 38 (2957312)
I0116 11:34:11.557173 19937 net.cpp:165] Memory required for data: 1532469312
I0116 11:34:11.557178 19937 layer_factory.hpp:77] Creating layer conv4_1
I0116 11:34:11.557188 19937 net.cpp:100] Creating Layer conv4_1
I0116 11:34:11.557191 19937 net.cpp:434] conv4_1 <- pool3
I0116 11:34:11.557198 19937 net.cpp:408] conv4_1 -> conv4_1
I0116 11:34:11.568181 19937 net.cpp:150] Setting up conv4_1
I0116 11:34:11.568199 19937 net.cpp:157] Top shape: 8 512 38 38 (5914624)
I0116 11:34:11.568204 19937 net.cpp:165] Memory required for data: 1556127808
I0116 11:34:11.568225 19937 layer_factory.hpp:77] Creating layer relu4_1
I0116 11:34:11.568233 19937 net.cpp:100] Creating Layer relu4_1
I0116 11:34:11.568238 19937 net.cpp:434] relu4_1 <- conv4_1
I0116 11:34:11.568245 19937 net.cpp:395] relu4_1 -> conv4_1 (in-place)
I0116 11:34:11.568441 19937 net.cpp:150] Setting up relu4_1
I0116 11:34:11.568454 19937 net.cpp:157] Top shape: 8 512 38 38 (5914624)
I0116 11:34:11.568457 19937 net.cpp:165] Memory required for data: 1579786304
I0116 11:34:11.568460 19937 layer_factory.hpp:77] Creating layer conv4_2
I0116 11:34:11.568473 19937 net.cpp:100] Creating Layer conv4_2
I0116 11:34:11.568483 19937 net.cpp:434] conv4_2 <- conv4_1
I0116 11:34:11.568490 19937 net.cpp:408] conv4_2 -> conv4_2
I0116 11:34:11.589398 19937 net.cpp:150] Setting up conv4_2
I0116 11:34:11.589426 19937 net.cpp:157] Top shape: 8 512 38 38 (5914624)
I0116 11:34:11.589431 19937 net.cpp:165] Memory required for data: 1603444800
I0116 11:34:11.589447 19937 layer_factory.hpp:77] Creating layer relu4_2
I0116 11:34:11.589457 19937 net.cpp:100] Creating Layer relu4_2
I0116 11:34:11.589462 19937 net.cpp:434] relu4_2 <- conv4_2
I0116 11:34:11.589468 19937 net.cpp:395] relu4_2 -> conv4_2 (in-place)
I0116 11:34:11.589673 19937 net.cpp:150] Setting up relu4_2
I0116 11:34:11.589684 19937 net.cpp:157] Top shape: 8 512 38 38 (5914624)
I0116 11:34:11.589689 19937 net.cpp:165] Memory required for data: 1627103296
I0116 11:34:11.589692 19937 layer_factory.hpp:77] Creating layer conv4_3
I0116 11:34:11.589704 19937 net.cpp:100] Creating Layer conv4_3
I0116 11:34:11.589709 19937 net.cpp:434] conv4_3 <- conv4_2
I0116 11:34:11.589715 19937 net.cpp:408] conv4_3 -> conv4_3
I0116 11:34:11.610859 19937 net.cpp:150] Setting up conv4_3
I0116 11:34:11.610893 19937 net.cpp:157] Top shape: 8 512 38 38 (5914624)
I0116 11:34:11.610898 19937 net.cpp:165] Memory required for data: 1650761792
I0116 11:34:11.610908 19937 layer_factory.hpp:77] Creating layer relu4_3
I0116 11:34:11.610920 19937 net.cpp:100] Creating Layer relu4_3
I0116 11:34:11.610926 19937 net.cpp:434] relu4_3 <- conv4_3
I0116 11:34:11.610934 19937 net.cpp:395] relu4_3 -> conv4_3 (in-place)
I0116 11:34:11.611292 19937 net.cpp:150] Setting up relu4_3
I0116 11:34:11.611306 19937 net.cpp:157] Top shape: 8 512 38 38 (5914624)
I0116 11:34:11.611310 19937 net.cpp:165] Memory required for data: 1674420288
I0116 11:34:11.611315 19937 layer_factory.hpp:77] Creating layer conv4_3_relu4_3_0_split
I0116 11:34:11.611321 19937 net.cpp:100] Creating Layer conv4_3_relu4_3_0_split
I0116 11:34:11.611325 19937 net.cpp:434] conv4_3_relu4_3_0_split <- conv4_3
I0116 11:34:11.611332 19937 net.cpp:408] conv4_3_relu4_3_0_split -> conv4_3_relu4_3_0_split_0
I0116 11:34:11.611340 19937 net.cpp:408] conv4_3_relu4_3_0_split -> conv4_3_relu4_3_0_split_1
I0116 11:34:11.611397 19937 net.cpp:150] Setting up conv4_3_relu4_3_0_split
I0116 11:34:11.611407 19937 net.cpp:157] Top shape: 8 512 38 38 (5914624)
I0116 11:34:11.611410 19937 net.cpp:157] Top shape: 8 512 38 38 (5914624)
I0116 11:34:11.611413 19937 net.cpp:165] Memory required for data: 1721737280
I0116 11:34:11.611418 19937 layer_factory.hpp:77] Creating layer pool4
I0116 11:34:11.611424 19937 net.cpp:100] Creating Layer pool4
I0116 11:34:11.611428 19937 net.cpp:434] pool4 <- conv4_3_relu4_3_0_split_0
I0116 11:34:11.611433 19937 net.cpp:408] pool4 -> pool4
I0116 11:34:11.611485 19937 net.cpp:150] Setting up pool4
I0116 11:34:11.611491 19937 net.cpp:157] Top shape: 8 512 19 19 (1478656)
I0116 11:34:11.611495 19937 net.cpp:165] Memory required for data: 1727651904
I0116 11:34:11.611497 19937 layer_factory.hpp:77] Creating layer conv5_1
I0116 11:34:11.611510 19937 net.cpp:100] Creating Layer conv5_1
I0116 11:34:11.611515 19937 net.cpp:434] conv5_1 <- pool4
I0116 11:34:11.611521 19937 net.cpp:408] conv5_1 -> conv5_1
I0116 11:34:11.633162 19937 net.cpp:150] Setting up conv5_1
I0116 11:34:11.633191 19937 net.cpp:157] Top shape: 8 512 19 19 (1478656)
I0116 11:34:11.633196 19937 net.cpp:165] Memory required for data: 1733566528
I0116 11:34:11.633225 19937 layer_factory.hpp:77] Creating layer relu5_1
I0116 11:34:11.633237 19937 net.cpp:100] Creating Layer relu5_1
I0116 11:34:11.633244 19937 net.cpp:434] relu5_1 <- conv5_1
I0116 11:34:11.633250 19937 net.cpp:395] relu5_1 -> conv5_1 (in-place)
I0116 11:34:11.633452 19937 net.cpp:150] Setting up relu5_1
I0116 11:34:11.633465 19937 net.cpp:157] Top shape: 8 512 19 19 (1478656)
I0116 11:34:11.633467 19937 net.cpp:165] Memory required for data: 1739481152
I0116 11:34:11.633471 19937 layer_factory.hpp:77] Creating layer conv5_2
I0116 11:34:11.633484 19937 net.cpp:100] Creating Layer conv5_2
I0116 11:34:11.633488 19937 net.cpp:434] conv5_2 <- conv5_1
I0116 11:34:11.633496 19937 net.cpp:408] conv5_2 -> conv5_2
I0116 11:34:11.654522 19937 net.cpp:150] Setting up conv5_2
I0116 11:34:11.654552 19937 net.cpp:157] Top shape: 8 512 19 19 (1478656)
I0116 11:34:11.654558 19937 net.cpp:165] Memory required for data: 1745395776
I0116 11:34:11.654567 19937 layer_factory.hpp:77] Creating layer relu5_2
I0116 11:34:11.654577 19937 net.cpp:100] Creating Layer relu5_2
I0116 11:34:11.654583 19937 net.cpp:434] relu5_2 <- conv5_2
I0116 11:34:11.654590 19937 net.cpp:395] relu5_2 -> conv5_2 (in-place)
I0116 11:34:11.654920 19937 net.cpp:150] Setting up relu5_2
I0116 11:34:11.654934 19937 net.cpp:157] Top shape: 8 512 19 19 (1478656)
I0116 11:34:11.654938 19937 net.cpp:165] Memory required for data: 1751310400
I0116 11:34:11.654942 19937 layer_factory.hpp:77] Creating layer conv5_3
I0116 11:34:11.654955 19937 net.cpp:100] Creating Layer conv5_3
I0116 11:34:11.654959 19937 net.cpp:434] conv5_3 <- conv5_2
I0116 11:34:11.654968 19937 net.cpp:408] conv5_3 -> conv5_3
I0116 11:34:11.676038 19937 net.cpp:150] Setting up conv5_3
I0116 11:34:11.676069 19937 net.cpp:157] Top shape: 8 512 19 19 (1478656)
I0116 11:34:11.676074 19937 net.cpp:165] Memory required for data: 1757225024
I0116 11:34:11.676082 19937 layer_factory.hpp:77] Creating layer relu5_3
I0116 11:34:11.676098 19937 net.cpp:100] Creating Layer relu5_3
I0116 11:34:11.676105 19937 net.cpp:434] relu5_3 <- conv5_3
I0116 11:34:11.676115 19937 net.cpp:395] relu5_3 -> conv5_3 (in-place)
I0116 11:34:11.676461 19937 net.cpp:150] Setting up relu5_3
I0116 11:34:11.676476 19937 net.cpp:157] Top shape: 8 512 19 19 (1478656)
I0116 11:34:11.676481 19937 net.cpp:165] Memory required for data: 1763139648
I0116 11:34:11.676484 19937 layer_factory.hpp:77] Creating layer pool5
I0116 11:34:11.676492 19937 net.cpp:100] Creating Layer pool5
I0116 11:34:11.676496 19937 net.cpp:434] pool5 <- conv5_3
I0116 11:34:11.676504 19937 net.cpp:408] pool5 -> pool5
I0116 11:34:11.676568 19937 net.cpp:150] Setting up pool5
I0116 11:34:11.676576 19937 net.cpp:157] Top shape: 8 512 19 19 (1478656)
I0116 11:34:11.676579 19937 net.cpp:165] Memory required for data: 1769054272
I0116 11:34:11.676584 19937 layer_factory.hpp:77] Creating layer fc6
I0116 11:34:11.676596 19937 net.cpp:100] Creating Layer fc6
I0116 11:34:11.676600 19937 net.cpp:434] fc6 <- pool5
I0116 11:34:11.676606 19937 net.cpp:408] fc6 -> fc6
I0116 11:34:11.716836 19937 net.cpp:150] Setting up fc6
I0116 11:34:11.716866 19937 net.cpp:157] Top shape: 8 1024 19 19 (2957312)
I0116 11:34:11.716871 19937 net.cpp:165] Memory required for data: 1780883520
I0116 11:34:11.716878 19937 layer_factory.hpp:77] Creating layer relu6
I0116 11:34:11.716888 19937 net.cpp:100] Creating Layer relu6
I0116 11:34:11.716894 19937 net.cpp:434] relu6 <- fc6
I0116 11:34:11.716903 19937 net.cpp:395] relu6 -> fc6 (in-place)
I0116 11:34:11.717159 19937 net.cpp:150] Setting up relu6
I0116 11:34:11.717170 19937 net.cpp:157] Top shape: 8 1024 19 19 (2957312)
I0116 11:34:11.717175 19937 net.cpp:165] Memory required for data: 1792712768
I0116 11:34:11.717177 19937 layer_factory.hpp:77] Creating layer fc7
I0116 11:34:11.717190 19937 net.cpp:100] Creating Layer fc7
I0116 11:34:11.717195 19937 net.cpp:434] fc7 <- fc6
I0116 11:34:11.717201 19937 net.cpp:408] fc7 -> fc7
I0116 11:34:11.727708 19937 net.cpp:150] Setting up fc7
I0116 11:34:11.727726 19937 net.cpp:157] Top shape: 8 1024 19 19 (2957312)
I0116 11:34:11.727746 19937 net.cpp:165] Memory required for data: 1804542016
I0116 11:34:11.727756 19937 layer_factory.hpp:77] Creating layer relu7
I0116 11:34:11.727764 19937 net.cpp:100] Creating Layer relu7
I0116 11:34:11.727768 19937 net.cpp:434] relu7 <- fc7
I0116 11:34:11.727776 19937 net.cpp:395] relu7 -> fc7 (in-place)
I0116 11:34:11.728117 19937 net.cpp:150] Setting up relu7
I0116 11:34:11.728132 19937 net.cpp:157] Top shape: 8 1024 19 19 (2957312)
I0116 11:34:11.728137 19937 net.cpp:165] Memory required for data: 1816371264
I0116 11:34:11.728140 19937 layer_factory.hpp:77] Creating layer fc7_relu7_0_split
I0116 11:34:11.728148 19937 net.cpp:100] Creating Layer fc7_relu7_0_split
I0116 11:34:11.728152 19937 net.cpp:434] fc7_relu7_0_split <- fc7
I0116 11:34:11.728158 19937 net.cpp:408] fc7_relu7_0_split -> fc7_relu7_0_split_0
I0116 11:34:11.728166 19937 net.cpp:408] fc7_relu7_0_split -> fc7_relu7_0_split_1
I0116 11:34:11.728178 19937 net.cpp:408] fc7_relu7_0_split -> fc7_relu7_0_split_2
I0116 11:34:11.728183 19937 net.cpp:408] fc7_relu7_0_split -> fc7_relu7_0_split_3
I0116 11:34:11.728276 19937 net.cpp:150] Setting up fc7_relu7_0_split
I0116 11:34:11.728284 19937 net.cpp:157] Top shape: 8 1024 19 19 (2957312)
I0116 11:34:11.728291 19937 net.cpp:157] Top shape: 8 1024 19 19 (2957312)
I0116 11:34:11.728294 19937 net.cpp:157] Top shape: 8 1024 19 19 (2957312)
I0116 11:34:11.728297 19937 net.cpp:157] Top shape: 8 1024 19 19 (2957312)
I0116 11:34:11.728302 19937 net.cpp:165] Memory required for data: 1863688256
I0116 11:34:11.728304 19937 layer_factory.hpp:77] Creating layer conv6_1
I0116 11:34:11.728317 19937 net.cpp:100] Creating Layer conv6_1
I0116 11:34:11.728322 19937 net.cpp:434] conv6_1 <- fc7_relu7_0_split_0
I0116 11:34:11.728329 19937 net.cpp:408] conv6_1 -> conv6_1
I0116 11:34:11.731880 19937 net.cpp:150] Setting up conv6_1
I0116 11:34:11.731896 19937 net.cpp:157] Top shape: 8 256 19 19 (739328)
I0116 11:34:11.731900 19937 net.cpp:165] Memory required for data: 1866645568
I0116 11:34:11.731909 19937 layer_factory.hpp:77] Creating layer conv6_1_relu
I0116 11:34:11.731916 19937 net.cpp:100] Creating Layer conv6_1_relu
I0116 11:34:11.731920 19937 net.cpp:434] conv6_1_relu <- conv6_1
I0116 11:34:11.731926 19937 net.cpp:395] conv6_1_relu -> conv6_1 (in-place)
I0116 11:34:11.732267 19937 net.cpp:150] Setting up conv6_1_relu
I0116 11:34:11.732281 19937 net.cpp:157] Top shape: 8 256 19 19 (739328)
I0116 11:34:11.732285 19937 net.cpp:165] Memory required for data: 1869602880
I0116 11:34:11.732290 19937 layer_factory.hpp:77] Creating layer conv6_2
I0116 11:34:11.732302 19937 net.cpp:100] Creating Layer conv6_2
I0116 11:34:11.732306 19937 net.cpp:434] conv6_2 <- conv6_1
I0116 11:34:11.732313 19937 net.cpp:408] conv6_2 -> conv6_2
I0116 11:34:11.743366 19937 net.cpp:150] Setting up conv6_2
I0116 11:34:11.743386 19937 net.cpp:157] Top shape: 8 512 10 10 (409600)
I0116 11:34:11.743389 19937 net.cpp:165] Memory required for data: 1871241280
I0116 11:34:11.743404 19937 layer_factory.hpp:77] Creating layer conv6_2_relu
I0116 11:34:11.743413 19937 net.cpp:100] Creating Layer conv6_2_relu
I0116 11:34:11.743418 19937 net.cpp:434] conv6_2_relu <- conv6_2
I0116 11:34:11.743423 19937 net.cpp:395] conv6_2_relu -> conv6_2 (in-place)
I0116 11:34:11.743626 19937 net.cpp:150] Setting up conv6_2_relu
I0116 11:34:11.743638 19937 net.cpp:157] Top shape: 8 512 10 10 (409600)
I0116 11:34:11.743641 19937 net.cpp:165] Memory required for data: 1872879680
I0116 11:34:11.743645 19937 layer_factory.hpp:77] Creating layer conv6_2_conv6_2_relu_0_split
I0116 11:34:11.743654 19937 net.cpp:100] Creating Layer conv6_2_conv6_2_relu_0_split
I0116 11:34:11.743659 19937 net.cpp:434] conv6_2_conv6_2_relu_0_split <- conv6_2
I0116 11:34:11.743664 19937 net.cpp:408] conv6_2_conv6_2_relu_0_split -> conv6_2_conv6_2_relu_0_split_0
I0116 11:34:11.743672 19937 net.cpp:408] conv6_2_conv6_2_relu_0_split -> conv6_2_conv6_2_relu_0_split_1
I0116 11:34:11.743679 19937 net.cpp:408] conv6_2_conv6_2_relu_0_split -> conv6_2_conv6_2_relu_0_split_2
I0116 11:34:11.743685 19937 net.cpp:408] conv6_2_conv6_2_relu_0_split -> conv6_2_conv6_2_relu_0_split_3
I0116 11:34:11.743795 19937 net.cpp:150] Setting up conv6_2_conv6_2_relu_0_split
I0116 11:34:11.743805 19937 net.cpp:157] Top shape: 8 512 10 10 (409600)
I0116 11:34:11.743810 19937 net.cpp:157] Top shape: 8 512 10 10 (409600)
I0116 11:34:11.743814 19937 net.cpp:157] Top shape: 8 512 10 10 (409600)
I0116 11:34:11.743818 19937 net.cpp:157] Top shape: 8 512 10 10 (409600)
I0116 11:34:11.743820 19937 net.cpp:165] Memory required for data: 1879433280
I0116 11:34:11.743824 19937 layer_factory.hpp:77] Creating layer conv7_1
I0116 11:34:11.743835 19937 net.cpp:100] Creating Layer conv7_1
I0116 11:34:11.743839 19937 net.cpp:434] conv7_1 <- conv6_2_conv6_2_relu_0_split_0
I0116 11:34:11.743847 19937 net.cpp:408] conv7_1 -> conv7_1
I0116 11:34:11.745952 19937 net.cpp:150] Setting up conv7_1
I0116 11:34:11.745968 19937 net.cpp:157] Top shape: 8 128 10 10 (102400)
I0116 11:34:11.745972 19937 net.cpp:165] Memory required for data: 1879842880
I0116 11:34:11.745980 19937 layer_factory.hpp:77] Creating layer conv7_1_relu
I0116 11:34:11.745986 19937 net.cpp:100] Creating Layer conv7_1_relu
I0116 11:34:11.745990 19937 net.cpp:434] conv7_1_relu <- conv7_1
I0116 11:34:11.745997 19937 net.cpp:395] conv7_1_relu -> conv7_1 (in-place)
I0116 11:34:11.746347 19937 net.cpp:150] Setting up conv7_1_relu
I0116 11:34:11.746362 19937 net.cpp:157] Top shape: 8 128 10 10 (102400)
I0116 11:34:11.746366 19937 net.cpp:165] Memory required for data: 1880252480
I0116 11:34:11.746371 19937 layer_factory.hpp:77] Creating layer conv7_2
I0116 11:34:11.746383 19937 net.cpp:100] Creating Layer conv7_2
I0116 11:34:11.746388 19937 net.cpp:434] conv7_2 <- conv7_1
I0116 11:34:11.746394 19937 net.cpp:408] conv7_2 -> conv7_2
I0116 11:34:11.750087 19937 net.cpp:150] Setting up conv7_2
I0116 11:34:11.750103 19937 net.cpp:157] Top shape: 8 256 5 5 (51200)
I0116 11:34:11.750108 19937 net.cpp:165] Memory required for data: 1880457280
I0116 11:34:11.750114 19937 layer_factory.hpp:77] Creating layer conv7_2_relu
I0116 11:34:11.750123 19937 net.cpp:100] Creating Layer conv7_2_relu
I0116 11:34:11.750128 19937 net.cpp:434] conv7_2_relu <- conv7_2
I0116 11:34:11.750133 19937 net.cpp:395] conv7_2_relu -> conv7_2 (in-place)
I0116 11:34:11.750480 19937 net.cpp:150] Setting up conv7_2_relu
I0116 11:34:11.750496 19937 net.cpp:157] Top shape: 8 256 5 5 (51200)
I0116 11:34:11.750501 19937 net.cpp:165] Memory required for data: 1880662080
I0116 11:34:11.750505 19937 layer_factory.hpp:77] Creating layer conv7_2_conv7_2_relu_0_split
I0116 11:34:11.750511 19937 net.cpp:100] Creating Layer conv7_2_conv7_2_relu_0_split
I0116 11:34:11.750516 19937 net.cpp:434] conv7_2_conv7_2_relu_0_split <- conv7_2
I0116 11:34:11.750524 19937 net.cpp:408] conv7_2_conv7_2_relu_0_split -> conv7_2_conv7_2_relu_0_split_0
I0116 11:34:11.750532 19937 net.cpp:408] conv7_2_conv7_2_relu_0_split -> conv7_2_conv7_2_relu_0_split_1
I0116 11:34:11.750540 19937 net.cpp:408] conv7_2_conv7_2_relu_0_split -> conv7_2_conv7_2_relu_0_split_2
I0116 11:34:11.750546 19937 net.cpp:408] conv7_2_conv7_2_relu_0_split -> conv7_2_conv7_2_relu_0_split_3
I0116 11:34:11.750643 19937 net.cpp:150] Setting up conv7_2_conv7_2_relu_0_split
I0116 11:34:11.750653 19937 net.cpp:157] Top shape: 8 256 5 5 (51200)
I0116 11:34:11.750658 19937 net.cpp:157] Top shape: 8 256 5 5 (51200)
I0116 11:34:11.750661 19937 net.cpp:157] Top shape: 8 256 5 5 (51200)
I0116 11:34:11.750664 19937 net.cpp:157] Top shape: 8 256 5 5 (51200)
I0116 11:34:11.750668 19937 net.cpp:165] Memory required for data: 1881481280
I0116 11:34:11.750671 19937 layer_factory.hpp:77] Creating layer conv8_1
I0116 11:34:11.750684 19937 net.cpp:100] Creating Layer conv8_1
I0116 11:34:11.750687 19937 net.cpp:434] conv8_1 <- conv7_2_conv7_2_relu_0_split_0
I0116 11:34:11.750694 19937 net.cpp:408] conv8_1 -> conv8_1
I0116 11:34:11.752146 19937 net.cpp:150] Setting up conv8_1
I0116 11:34:11.752162 19937 net.cpp:157] Top shape: 8 128 5 5 (25600)
I0116 11:34:11.752166 19937 net.cpp:165] Memory required for data: 1881583680
I0116 11:34:11.752187 19937 layer_factory.hpp:77] Creating layer conv8_1_relu
I0116 11:34:11.752194 19937 net.cpp:100] Creating Layer conv8_1_relu
I0116 11:34:11.752198 19937 net.cpp:434] conv8_1_relu <- conv8_1
I0116 11:34:11.752205 19937 net.cpp:395] conv8_1_relu -> conv8_1 (in-place)
I0116 11:34:11.752403 19937 net.cpp:150] Setting up conv8_1_relu
I0116 11:34:11.752415 19937 net.cpp:157] Top shape: 8 128 5 5 (25600)
I0116 11:34:11.752418 19937 net.cpp:165] Memory required for data: 1881686080
I0116 11:34:11.752423 19937 layer_factory.hpp:77] Creating layer conv8_2
I0116 11:34:11.752434 19937 net.cpp:100] Creating Layer conv8_2
I0116 11:34:11.752439 19937 net.cpp:434] conv8_2 <- conv8_1
I0116 11:34:11.752444 19937 net.cpp:408] conv8_2 -> conv8_2
I0116 11:34:11.756384 19937 net.cpp:150] Setting up conv8_2
I0116 11:34:11.756400 19937 net.cpp:157] Top shape: 8 256 3 3 (18432)
I0116 11:34:11.756405 19937 net.cpp:165] Memory required for data: 1881759808
I0116 11:34:11.756412 19937 layer_factory.hpp:77] Creating layer conv8_2_relu
I0116 11:34:11.756418 19937 net.cpp:100] Creating Layer conv8_2_relu
I0116 11:34:11.756423 19937 net.cpp:434] conv8_2_relu <- conv8_2
I0116 11:34:11.756430 19937 net.cpp:395] conv8_2_relu -> conv8_2 (in-place)
I0116 11:34:11.756784 19937 net.cpp:150] Setting up conv8_2_relu
I0116 11:34:11.756798 19937 net.cpp:157] Top shape: 8 256 3 3 (18432)
I0116 11:34:11.756803 19937 net.cpp:165] Memory required for data: 1881833536
I0116 11:34:11.756806 19937 layer_factory.hpp:77] Creating layer conv8_2_conv8_2_relu_0_split
I0116 11:34:11.756814 19937 net.cpp:100] Creating Layer conv8_2_conv8_2_relu_0_split
I0116 11:34:11.756817 19937 net.cpp:434] conv8_2_conv8_2_relu_0_split <- conv8_2
I0116 11:34:11.756824 19937 net.cpp:408] conv8_2_conv8_2_relu_0_split -> conv8_2_conv8_2_relu_0_split_0
I0116 11:34:11.756832 19937 net.cpp:408] conv8_2_conv8_2_relu_0_split -> conv8_2_conv8_2_relu_0_split_1
I0116 11:34:11.756839 19937 net.cpp:408] conv8_2_conv8_2_relu_0_split -> conv8_2_conv8_2_relu_0_split_2
I0116 11:34:11.756845 19937 net.cpp:408] conv8_2_conv8_2_relu_0_split -> conv8_2_conv8_2_relu_0_split_3
I0116 11:34:11.756945 19937 net.cpp:150] Setting up conv8_2_conv8_2_relu_0_split
I0116 11:34:11.756955 19937 net.cpp:157] Top shape: 8 256 3 3 (18432)
I0116 11:34:11.756959 19937 net.cpp:157] Top shape: 8 256 3 3 (18432)
I0116 11:34:11.756963 19937 net.cpp:157] Top shape: 8 256 3 3 (18432)
I0116 11:34:11.756968 19937 net.cpp:157] Top shape: 8 256 3 3 (18432)
I0116 11:34:11.756970 19937 net.cpp:165] Memory required for data: 1882128448
I0116 11:34:11.756974 19937 layer_factory.hpp:77] Creating layer conv9_1
I0116 11:34:11.756984 19937 net.cpp:100] Creating Layer conv9_1
I0116 11:34:11.756989 19937 net.cpp:434] conv9_1 <- conv8_2_conv8_2_relu_0_split_0
I0116 11:34:11.756996 19937 net.cpp:408] conv9_1 -> conv9_1
I0116 11:34:11.758322 19937 net.cpp:150] Setting up conv9_1
I0116 11:34:11.758338 19937 net.cpp:157] Top shape: 8 128 3 3 (9216)
I0116 11:34:11.758342 19937 net.cpp:165] Memory required for data: 1882165312
I0116 11:34:11.758349 19937 layer_factory.hpp:77] Creating layer conv9_1_relu
I0116 11:34:11.758355 19937 net.cpp:100] Creating Layer conv9_1_relu
I0116 11:34:11.758360 19937 net.cpp:434] conv9_1_relu <- conv9_1
I0116 11:34:11.758368 19937 net.cpp:395] conv9_1_relu -> conv9_1 (in-place)
I0116 11:34:11.758709 19937 net.cpp:150] Setting up conv9_1_relu
I0116 11:34:11.758724 19937 net.cpp:157] Top shape: 8 128 3 3 (9216)
I0116 11:34:11.758728 19937 net.cpp:165] Memory required for data: 1882202176
I0116 11:34:11.758733 19937 layer_factory.hpp:77] Creating layer conv9_2
I0116 11:34:11.758744 19937 net.cpp:100] Creating Layer conv9_2
I0116 11:34:11.758747 19937 net.cpp:434] conv9_2 <- conv9_1
I0116 11:34:11.758755 19937 net.cpp:408] conv9_2 -> conv9_2
I0116 11:34:11.762593 19937 net.cpp:150] Setting up conv9_2
I0116 11:34:11.762609 19937 net.cpp:157] Top shape: 8 256 1 1 (2048)
I0116 11:34:11.762614 19937 net.cpp:165] Memory required for data: 1882210368
I0116 11:34:11.762621 19937 layer_factory.hpp:77] Creating layer conv9_2_relu
I0116 11:34:11.762640 19937 net.cpp:100] Creating Layer conv9_2_relu
I0116 11:34:11.762646 19937 net.cpp:434] conv9_2_relu <- conv9_2
I0116 11:34:11.762652 19937 net.cpp:395] conv9_2_relu -> conv9_2 (in-place)
I0116 11:34:11.762848 19937 net.cpp:150] Setting up conv9_2_relu
I0116 11:34:11.762861 19937 net.cpp:157] Top shape: 8 256 1 1 (2048)
I0116 11:34:11.762864 19937 net.cpp:165] Memory required for data: 1882218560
I0116 11:34:11.762868 19937 layer_factory.hpp:77] Creating layer conv9_2_conv9_2_relu_0_split
I0116 11:34:11.762874 19937 net.cpp:100] Creating Layer conv9_2_conv9_2_relu_0_split
I0116 11:34:11.762878 19937 net.cpp:434] conv9_2_conv9_2_relu_0_split <- conv9_2
I0116 11:34:11.762886 19937 net.cpp:408] conv9_2_conv9_2_relu_0_split -> conv9_2_conv9_2_relu_0_split_0
I0116 11:34:11.762892 19937 net.cpp:408] conv9_2_conv9_2_relu_0_split -> conv9_2_conv9_2_relu_0_split_1
I0116 11:34:11.762899 19937 net.cpp:408] conv9_2_conv9_2_relu_0_split -> conv9_2_conv9_2_relu_0_split_2
I0116 11:34:11.762977 19937 net.cpp:150] Setting up conv9_2_conv9_2_relu_0_split
I0116 11:34:11.762986 19937 net.cpp:157] Top shape: 8 256 1 1 (2048)
I0116 11:34:11.762990 19937 net.cpp:157] Top shape: 8 256 1 1 (2048)
I0116 11:34:11.762995 19937 net.cpp:157] Top shape: 8 256 1 1 (2048)
I0116 11:34:11.762997 19937 net.cpp:165] Memory required for data: 1882243136
I0116 11:34:11.763001 19937 layer_factory.hpp:77] Creating layer conv4_3_norm
I0116 11:34:11.763008 19937 net.cpp:100] Creating Layer conv4_3_norm
I0116 11:34:11.763013 19937 net.cpp:434] conv4_3_norm <- conv4_3_relu4_3_0_split_1
I0116 11:34:11.763020 19937 net.cpp:408] conv4_3_norm -> conv4_3_norm
I0116 11:34:11.763242 19937 net.cpp:150] Setting up conv4_3_norm
I0116 11:34:11.763252 19937 net.cpp:157] Top shape: 8 512 38 38 (5914624)
I0116 11:34:11.763255 19937 net.cpp:165] Memory required for data: 1905901632
I0116 11:34:11.763260 19937 layer_factory.hpp:77] Creating layer conv4_3_norm_conv4_3_norm_0_split
I0116 11:34:11.763267 19937 net.cpp:100] Creating Layer conv4_3_norm_conv4_3_norm_0_split
I0116 11:34:11.763270 19937 net.cpp:434] conv4_3_norm_conv4_3_norm_0_split <- conv4_3_norm
I0116 11:34:11.763276 19937 net.cpp:408] conv4_3_norm_conv4_3_norm_0_split -> conv4_3_norm_conv4_3_norm_0_split_0
I0116 11:34:11.763283 19937 net.cpp:408] conv4_3_norm_conv4_3_norm_0_split -> conv4_3_norm_conv4_3_norm_0_split_1
I0116 11:34:11.763288 19937 net.cpp:408] conv4_3_norm_conv4_3_norm_0_split -> conv4_3_norm_conv4_3_norm_0_split_2
I0116 11:34:11.763355 19937 net.cpp:150] Setting up conv4_3_norm_conv4_3_norm_0_split
I0116 11:34:11.763362 19937 net.cpp:157] Top shape: 8 512 38 38 (5914624)
I0116 11:34:11.763366 19937 net.cpp:157] Top shape: 8 512 38 38 (5914624)
I0116 11:34:11.763370 19937 net.cpp:157] Top shape: 8 512 38 38 (5914624)
I0116 11:34:11.763373 19937 net.cpp:165] Memory required for data: 1976877120
I0116 11:34:11.763377 19937 layer_factory.hpp:77] Creating layer conv4_3_norm_mbox_loc
I0116 11:34:11.763387 19937 net.cpp:100] Creating Layer conv4_3_norm_mbox_loc
I0116 11:34:11.763391 19937 net.cpp:434] conv4_3_norm_mbox_loc <- conv4_3_norm_conv4_3_norm_0_split_0
I0116 11:34:11.763397 19937 net.cpp:408] conv4_3_norm_mbox_loc -> conv4_3_norm_mbox_loc
I0116 11:34:11.765197 19937 net.cpp:150] Setting up conv4_3_norm_mbox_loc
I0116 11:34:11.765213 19937 net.cpp:157] Top shape: 8 16 38 38 (184832)
I0116 11:34:11.765216 19937 net.cpp:165] Memory required for data: 1977616448
I0116 11:34:11.765223 19937 layer_factory.hpp:77] Creating layer conv4_3_norm_mbox_loc_perm
I0116 11:34:11.765230 19937 net.cpp:100] Creating Layer conv4_3_norm_mbox_loc_perm
I0116 11:34:11.765235 19937 net.cpp:434] conv4_3_norm_mbox_loc_perm <- conv4_3_norm_mbox_loc
I0116 11:34:11.765244 19937 net.cpp:408] conv4_3_norm_mbox_loc_perm -> conv4_3_norm_mbox_loc_perm
I0116 11:34:11.765393 19937 net.cpp:150] Setting up conv4_3_norm_mbox_loc_perm
I0116 11:34:11.765403 19937 net.cpp:157] Top shape: 8 38 38 16 (184832)
I0116 11:34:11.765406 19937 net.cpp:165] Memory required for data: 1978355776
I0116 11:34:11.765420 19937 layer_factory.hpp:77] Creating layer conv4_3_norm_mbox_loc_flat
I0116 11:34:11.765429 19937 net.cpp:100] Creating Layer conv4_3_norm_mbox_loc_flat
I0116 11:34:11.765432 19937 net.cpp:434] conv4_3_norm_mbox_loc_flat <- conv4_3_norm_mbox_loc_perm
I0116 11:34:11.765439 19937 net.cpp:408] conv4_3_norm_mbox_loc_flat -> conv4_3_norm_mbox_loc_flat
I0116 11:34:11.765485 19937 net.cpp:150] Setting up conv4_3_norm_mbox_loc_flat
I0116 11:34:11.765496 19937 net.cpp:157] Top shape: 8 23104 (184832)
I0116 11:34:11.765499 19937 net.cpp:165] Memory required for data: 1979095104
I0116 11:34:11.765503 19937 layer_factory.hpp:77] Creating layer conv4_3_norm_mbox_conf
I0116 11:34:11.765522 19937 net.cpp:100] Creating Layer conv4_3_norm_mbox_conf
I0116 11:34:11.765527 19937 net.cpp:434] conv4_3_norm_mbox_conf <- conv4_3_norm_conv4_3_norm_0_split_1
I0116 11:34:11.765533 19937 net.cpp:408] conv4_3_norm_mbox_conf -> conv4_3_norm_mbox_conf
I0116 11:34:11.770110 19937 net.cpp:150] Setting up conv4_3_norm_mbox_conf
I0116 11:34:11.770128 19937 net.cpp:157] Top shape: 8 84 38 38 (970368)
I0116 11:34:11.770131 19937 net.cpp:165] Memory required for data: 1982976576
I0116 11:34:11.770138 19937 layer_factory.hpp:77] Creating layer conv4_3_norm_mbox_conf_perm
I0116 11:34:11.770146 19937 net.cpp:100] Creating Layer conv4_3_norm_mbox_conf_perm
I0116 11:34:11.770150 19937 net.cpp:434] conv4_3_norm_mbox_conf_perm <- conv4_3_norm_mbox_conf
I0116 11:34:11.770159 19937 net.cpp:408] conv4_3_norm_mbox_conf_perm -> conv4_3_norm_mbox_conf_perm
I0116 11:34:11.770316 19937 net.cpp:150] Setting up conv4_3_norm_mbox_conf_perm
I0116 11:34:11.770326 19937 net.cpp:157] Top shape: 8 38 38 84 (970368)
I0116 11:34:11.770330 19937 net.cpp:165] Memory required for data: 1986858048
I0116 11:34:11.770334 19937 layer_factory.hpp:77] Creating layer conv4_3_norm_mbox_conf_flat
I0116 11:34:11.770342 19937 net.cpp:100] Creating Layer conv4_3_norm_mbox_conf_flat
I0116 11:34:11.770346 19937 net.cpp:434] conv4_3_norm_mbox_conf_flat <- conv4_3_norm_mbox_conf_perm
I0116 11:34:11.770351 19937 net.cpp:408] conv4_3_norm_mbox_conf_flat -> conv4_3_norm_mbox_conf_flat
I0116 11:34:11.770388 19937 net.cpp:150] Setting up conv4_3_norm_mbox_conf_flat
I0116 11:34:11.770395 19937 net.cpp:157] Top shape: 8 121296 (970368)
I0116 11:34:11.770398 19937 net.cpp:165] Memory required for data: 1990739520
I0116 11:34:11.770402 19937 layer_factory.hpp:77] Creating layer conv4_3_norm_mbox_priorbox
I0116 11:34:11.770411 19937 net.cpp:100] Creating Layer conv4_3_norm_mbox_priorbox
I0116 11:34:11.770416 19937 net.cpp:434] conv4_3_norm_mbox_priorbox <- conv4_3_norm_conv4_3_norm_0_split_2
I0116 11:34:11.770421 19937 net.cpp:434] conv4_3_norm_mbox_priorbox <- data_data_0_split_1
I0116 11:34:11.770426 19937 net.cpp:408] conv4_3_norm_mbox_priorbox -> conv4_3_norm_mbox_priorbox
I0116 11:34:11.770462 19937 net.cpp:150] Setting up conv4_3_norm_mbox_priorbox
I0116 11:34:11.770469 19937 net.cpp:157] Top shape: 1 2 23104 (46208)
I0116 11:34:11.770473 19937 net.cpp:165] Memory required for data: 1990924352
I0116 11:34:11.770475 19937 layer_factory.hpp:77] Creating layer fc7_mbox_loc
I0116 11:34:11.770485 19937 net.cpp:100] Creating Layer fc7_mbox_loc
I0116 11:34:11.770490 19937 net.cpp:434] fc7_mbox_loc <- fc7_relu7_0_split_1
I0116 11:34:11.770498 19937 net.cpp:408] fc7_mbox_loc -> fc7_mbox_loc
I0116 11:34:11.773774 19937 net.cpp:150] Setting up fc7_mbox_loc
I0116 11:34:11.773792 19937 net.cpp:157] Top shape: 8 24 19 19 (69312)
I0116 11:34:11.773797 19937 net.cpp:165] Memory required for data: 1991201600
I0116 11:34:11.773804 19937 layer_factory.hpp:77] Creating layer fc7_mbox_loc_perm
I0116 11:34:11.773811 19937 net.cpp:100] Creating Layer fc7_mbox_loc_perm
I0116 11:34:11.773815 19937 net.cpp:434] fc7_mbox_loc_perm <- fc7_mbox_loc
I0116 11:34:11.773821 19937 net.cpp:408] fc7_mbox_loc_perm -> fc7_mbox_loc_perm
I0116 11:34:11.773973 19937 net.cpp:150] Setting up fc7_mbox_loc_perm
I0116 11:34:11.773983 19937 net.cpp:157] Top shape: 8 19 19 24 (69312)
I0116 11:34:11.773986 19937 net.cpp:165] Memory required for data: 1991478848
I0116 11:34:11.774000 19937 layer_factory.hpp:77] Creating layer fc7_mbox_loc_flat
I0116 11:34:11.774009 19937 net.cpp:100] Creating Layer fc7_mbox_loc_flat
I0116 11:34:11.774013 19937 net.cpp:434] fc7_mbox_loc_flat <- fc7_mbox_loc_perm
I0116 11:34:11.774019 19937 net.cpp:408] fc7_mbox_loc_flat -> fc7_mbox_loc_flat
I0116 11:34:11.774056 19937 net.cpp:150] Setting up fc7_mbox_loc_flat
I0116 11:34:11.774063 19937 net.cpp:157] Top shape: 8 8664 (69312)
I0116 11:34:11.774066 19937 net.cpp:165] Memory required for data: 1991756096
I0116 11:34:11.774070 19937 layer_factory.hpp:77] Creating layer fc7_mbox_conf
I0116 11:34:11.774080 19937 net.cpp:100] Creating Layer fc7_mbox_conf
I0116 11:34:11.774085 19937 net.cpp:434] fc7_mbox_conf <- fc7_relu7_0_split_2
I0116 11:34:11.774092 19937 net.cpp:408] fc7_mbox_conf -> fc7_mbox_conf
I0116 11:34:11.784873 19937 net.cpp:150] Setting up fc7_mbox_conf
I0116 11:34:11.784890 19937 net.cpp:157] Top shape: 8 126 19 19 (363888)
I0116 11:34:11.784894 19937 net.cpp:165] Memory required for data: 1993211648
I0116 11:34:11.784901 19937 layer_factory.hpp:77] Creating layer fc7_mbox_conf_perm
I0116 11:34:11.784909 19937 net.cpp:100] Creating Layer fc7_mbox_conf_perm
I0116 11:34:11.784914 19937 net.cpp:434] fc7_mbox_conf_perm <- fc7_mbox_conf
I0116 11:34:11.784920 19937 net.cpp:408] fc7_mbox_conf_perm -> fc7_mbox_conf_perm
I0116 11:34:11.785073 19937 net.cpp:150] Setting up fc7_mbox_conf_perm
I0116 11:34:11.785082 19937 net.cpp:157] Top shape: 8 19 19 126 (363888)
I0116 11:34:11.785085 19937 net.cpp:165] Memory required for data: 1994667200
I0116 11:34:11.785089 19937 layer_factory.hpp:77] Creating layer fc7_mbox_conf_flat
I0116 11:34:11.785095 19937 net.cpp:100] Creating Layer fc7_mbox_conf_flat
I0116 11:34:11.785099 19937 net.cpp:434] fc7_mbox_conf_flat <- fc7_mbox_conf_perm
I0116 11:34:11.785107 19937 net.cpp:408] fc7_mbox_conf_flat -> fc7_mbox_conf_flat
I0116 11:34:11.785142 19937 net.cpp:150] Setting up fc7_mbox_conf_flat
I0116 11:34:11.785150 19937 net.cpp:157] Top shape: 8 45486 (363888)
I0116 11:34:11.785152 19937 net.cpp:165] Memory required for data: 1996122752
I0116 11:34:11.785156 19937 layer_factory.hpp:77] Creating layer fc7_mbox_priorbox
I0116 11:34:11.785163 19937 net.cpp:100] Creating Layer fc7_mbox_priorbox
I0116 11:34:11.785167 19937 net.cpp:434] fc7_mbox_priorbox <- fc7_relu7_0_split_3
I0116 11:34:11.785176 19937 net.cpp:434] fc7_mbox_priorbox <- data_data_0_split_2
I0116 11:34:11.785181 19937 net.cpp:408] fc7_mbox_priorbox -> fc7_mbox_priorbox
I0116 11:34:11.785226 19937 net.cpp:150] Setting up fc7_mbox_priorbox
I0116 11:34:11.785246 19937 net.cpp:157] Top shape: 1 2 8664 (17328)
I0116 11:34:11.785249 19937 net.cpp:165] Memory required for data: 1996192064
I0116 11:34:11.785254 19937 layer_factory.hpp:77] Creating layer conv6_2_mbox_loc
I0116 11:34:11.785264 19937 net.cpp:100] Creating Layer conv6_2_mbox_loc
I0116 11:34:11.785269 19937 net.cpp:434] conv6_2_mbox_loc <- conv6_2_conv6_2_relu_0_split_1
I0116 11:34:11.785274 19937 net.cpp:408] conv6_2_mbox_loc -> conv6_2_mbox_loc
I0116 11:34:11.787740 19937 net.cpp:150] Setting up conv6_2_mbox_loc
I0116 11:34:11.787756 19937 net.cpp:157] Top shape: 8 24 10 10 (19200)
I0116 11:34:11.787761 19937 net.cpp:165] Memory required for data: 1996268864
I0116 11:34:11.787768 19937 layer_factory.hpp:77] Creating layer conv6_2_mbox_loc_perm
I0116 11:34:11.787776 19937 net.cpp:100] Creating Layer conv6_2_mbox_loc_perm
I0116 11:34:11.787781 19937 net.cpp:434] conv6_2_mbox_loc_perm <- conv6_2_mbox_loc
I0116 11:34:11.787788 19937 net.cpp:408] conv6_2_mbox_loc_perm -> conv6_2_mbox_loc_perm
I0116 11:34:11.787937 19937 net.cpp:150] Setting up conv6_2_mbox_loc_perm
I0116 11:34:11.787947 19937 net.cpp:157] Top shape: 8 10 10 24 (19200)
I0116 11:34:11.787951 19937 net.cpp:165] Memory required for data: 1996345664
I0116 11:34:11.787955 19937 layer_factory.hpp:77] Creating layer conv6_2_mbox_loc_flat
I0116 11:34:11.787961 19937 net.cpp:100] Creating Layer conv6_2_mbox_loc_flat
I0116 11:34:11.787964 19937 net.cpp:434] conv6_2_mbox_loc_flat <- conv6_2_mbox_loc_perm
I0116 11:34:11.787982 19937 net.cpp:408] conv6_2_mbox_loc_flat -> conv6_2_mbox_loc_flat
I0116 11:34:11.788022 19937 net.cpp:150] Setting up conv6_2_mbox_loc_flat
I0116 11:34:11.788028 19937 net.cpp:157] Top shape: 8 2400 (19200)
I0116 11:34:11.788031 19937 net.cpp:165] Memory required for data: 1996422464
I0116 11:34:11.788035 19937 layer_factory.hpp:77] Creating layer conv6_2_mbox_conf
I0116 11:34:11.788045 19937 net.cpp:100] Creating Layer conv6_2_mbox_conf
I0116 11:34:11.788049 19937 net.cpp:434] conv6_2_mbox_conf <- conv6_2_conv6_2_relu_0_split_2
I0116 11:34:11.788058 19937 net.cpp:408] conv6_2_mbox_conf -> conv6_2_mbox_conf
I0116 11:34:11.794281 19937 net.cpp:150] Setting up conv6_2_mbox_conf
I0116 11:34:11.794301 19937 net.cpp:157] Top shape: 8 126 10 10 (100800)
I0116 11:34:11.794306 19937 net.cpp:165] Memory required for data: 1996825664
I0116 11:34:11.794313 19937 layer_factory.hpp:77] Creating layer conv6_2_mbox_conf_perm
I0116 11:34:11.794320 19937 net.cpp:100] Creating Layer conv6_2_mbox_conf_perm
I0116 11:34:11.794325 19937 net.cpp:434] conv6_2_mbox_conf_perm <- conv6_2_mbox_conf
I0116 11:34:11.794332 19937 net.cpp:408] conv6_2_mbox_conf_perm -> conv6_2_mbox_conf_perm
I0116 11:34:11.794487 19937 net.cpp:150] Setting up conv6_2_mbox_conf_perm
I0116 11:34:11.794497 19937 net.cpp:157] Top shape: 8 10 10 126 (100800)
I0116 11:34:11.794500 19937 net.cpp:165] Memory required for data: 1997228864
I0116 11:34:11.794504 19937 layer_factory.hpp:77] Creating layer conv6_2_mbox_conf_flat
I0116 11:34:11.794510 19937 net.cpp:100] Creating Layer conv6_2_mbox_conf_flat
I0116 11:34:11.794514 19937 net.cpp:434] conv6_2_mbox_conf_flat <- conv6_2_mbox_conf_perm
I0116 11:34:11.794522 19937 net.cpp:408] conv6_2_mbox_conf_flat -> conv6_2_mbox_conf_flat
I0116 11:34:11.794556 19937 net.cpp:150] Setting up conv6_2_mbox_conf_flat
I0116 11:34:11.794564 19937 net.cpp:157] Top shape: 8 12600 (100800)
I0116 11:34:11.794566 19937 net.cpp:165] Memory required for data: 1997632064
I0116 11:34:11.794570 19937 layer_factory.hpp:77] Creating layer conv6_2_mbox_priorbox
I0116 11:34:11.794576 19937 net.cpp:100] Creating Layer conv6_2_mbox_priorbox
I0116 11:34:11.794580 19937 net.cpp:434] conv6_2_mbox_priorbox <- conv6_2_conv6_2_relu_0_split_3
I0116 11:34:11.794585 19937 net.cpp:434] conv6_2_mbox_priorbox <- data_data_0_split_3
I0116 11:34:11.794592 19937 net.cpp:408] conv6_2_mbox_priorbox -> conv6_2_mbox_priorbox
I0116 11:34:11.794628 19937 net.cpp:150] Setting up conv6_2_mbox_priorbox
I0116 11:34:11.794636 19937 net.cpp:157] Top shape: 1 2 2400 (4800)
I0116 11:34:11.794639 19937 net.cpp:165] Memory required for data: 1997651264
I0116 11:34:11.794643 19937 layer_factory.hpp:77] Creating layer conv7_2_mbox_loc
I0116 11:34:11.794653 19937 net.cpp:100] Creating Layer conv7_2_mbox_loc
I0116 11:34:11.794657 19937 net.cpp:434] conv7_2_mbox_loc <- conv7_2_conv7_2_relu_0_split_1
I0116 11:34:11.794663 19937 net.cpp:408] conv7_2_mbox_loc -> conv7_2_mbox_loc
I0116 11:34:11.796489 19937 net.cpp:150] Setting up conv7_2_mbox_loc
I0116 11:34:11.796504 19937 net.cpp:157] Top shape: 8 24 5 5 (4800)
I0116 11:34:11.796509 19937 net.cpp:165] Memory required for data: 1997670464
I0116 11:34:11.796515 19937 layer_factory.hpp:77] Creating layer conv7_2_mbox_loc_perm
I0116 11:34:11.796525 19937 net.cpp:100] Creating Layer conv7_2_mbox_loc_perm
I0116 11:34:11.796530 19937 net.cpp:434] conv7_2_mbox_loc_perm <- conv7_2_mbox_loc
I0116 11:34:11.796535 19937 net.cpp:408] conv7_2_mbox_loc_perm -> conv7_2_mbox_loc_perm
I0116 11:34:11.796692 19937 net.cpp:150] Setting up conv7_2_mbox_loc_perm
I0116 11:34:11.796701 19937 net.cpp:157] Top shape: 8 5 5 24 (4800)
I0116 11:34:11.796705 19937 net.cpp:165] Memory required for data: 1997689664
I0116 11:34:11.796710 19937 layer_factory.hpp:77] Creating layer conv7_2_mbox_loc_flat
I0116 11:34:11.796715 19937 net.cpp:100] Creating Layer conv7_2_mbox_loc_flat
I0116 11:34:11.796720 19937 net.cpp:434] conv7_2_mbox_loc_flat <- conv7_2_mbox_loc_perm
I0116 11:34:11.796725 19937 net.cpp:408] conv7_2_mbox_loc_flat -> conv7_2_mbox_loc_flat
I0116 11:34:11.796780 19937 net.cpp:150] Setting up conv7_2_mbox_loc_flat
I0116 11:34:11.796792 19937 net.cpp:157] Top shape: 8 600 (4800)
I0116 11:34:11.796795 19937 net.cpp:165] Memory required for data: 1997708864
I0116 11:34:11.796798 19937 layer_factory.hpp:77] Creating layer conv7_2_mbox_conf
I0116 11:34:11.796809 19937 net.cpp:100] Creating Layer conv7_2_mbox_conf
I0116 11:34:11.796813 19937 net.cpp:434] conv7_2_mbox_conf <- conv7_2_conv7_2_relu_0_split_2
I0116 11:34:11.796821 19937 net.cpp:408] conv7_2_mbox_conf -> conv7_2_mbox_conf
I0116 11:34:11.800642 19937 net.cpp:150] Setting up conv7_2_mbox_conf
I0116 11:34:11.800657 19937 net.cpp:157] Top shape: 8 126 5 5 (25200)
I0116 11:34:11.800662 19937 net.cpp:165] Memory required for data: 1997809664
I0116 11:34:11.800668 19937 layer_factory.hpp:77] Creating layer conv7_2_mbox_conf_perm
I0116 11:34:11.800676 19937 net.cpp:100] Creating Layer conv7_2_mbox_conf_perm
I0116 11:34:11.800680 19937 net.cpp:434] conv7_2_mbox_conf_perm <- conv7_2_mbox_conf
I0116 11:34:11.800688 19937 net.cpp:408] conv7_2_mbox_conf_perm -> conv7_2_mbox_conf_perm
I0116 11:34:11.800842 19937 net.cpp:150] Setting up conv7_2_mbox_conf_perm
I0116 11:34:11.800851 19937 net.cpp:157] Top shape: 8 5 5 126 (25200)
I0116 11:34:11.800855 19937 net.cpp:165] Memory required for data: 1997910464
I0116 11:34:11.800858 19937 layer_factory.hpp:77] Creating layer conv7_2_mbox_conf_flat
I0116 11:34:11.800866 19937 net.cpp:100] Creating Layer conv7_2_mbox_conf_flat
I0116 11:34:11.800870 19937 net.cpp:434] conv7_2_mbox_conf_flat <- conv7_2_mbox_conf_perm
I0116 11:34:11.800878 19937 net.cpp:408] conv7_2_mbox_conf_flat -> conv7_2_mbox_conf_flat
I0116 11:34:11.800911 19937 net.cpp:150] Setting up conv7_2_mbox_conf_flat
I0116 11:34:11.800917 19937 net.cpp:157] Top shape: 8 3150 (25200)
I0116 11:34:11.800921 19937 net.cpp:165] Memory required for data: 1998011264
I0116 11:34:11.800925 19937 layer_factory.hpp:77] Creating layer conv7_2_mbox_priorbox
I0116 11:34:11.800932 19937 net.cpp:100] Creating Layer conv7_2_mbox_priorbox
I0116 11:34:11.800936 19937 net.cpp:434] conv7_2_mbox_priorbox <- conv7_2_conv7_2_relu_0_split_3
I0116 11:34:11.800941 19937 net.cpp:434] conv7_2_mbox_priorbox <- data_data_0_split_4
I0116 11:34:11.800946 19937 net.cpp:408] conv7_2_mbox_priorbox -> conv7_2_mbox_priorbox
I0116 11:34:11.800986 19937 net.cpp:150] Setting up conv7_2_mbox_priorbox
I0116 11:34:11.800992 19937 net.cpp:157] Top shape: 1 2 600 (1200)
I0116 11:34:11.800995 19937 net.cpp:165] Memory required for data: 1998016064
I0116 11:34:11.800998 19937 layer_factory.hpp:77] Creating layer conv8_2_mbox_loc
I0116 11:34:11.801008 19937 net.cpp:100] Creating Layer conv8_2_mbox_loc
I0116 11:34:11.801013 19937 net.cpp:434] conv8_2_mbox_loc <- conv8_2_conv8_2_relu_0_split_1
I0116 11:34:11.801020 19937 net.cpp:408] conv8_2_mbox_loc -> conv8_2_mbox_loc
I0116 11:34:11.802521 19937 net.cpp:150] Setting up conv8_2_mbox_loc
I0116 11:34:11.802537 19937 net.cpp:157] Top shape: 8 16 3 3 (1152)
I0116 11:34:11.802541 19937 net.cpp:165] Memory required for data: 1998020672
I0116 11:34:11.802561 19937 layer_factory.hpp:77] Creating layer conv8_2_mbox_loc_perm
I0116 11:34:11.802568 19937 net.cpp:100] Creating Layer conv8_2_mbox_loc_perm
I0116 11:34:11.802572 19937 net.cpp:434] conv8_2_mbox_loc_perm <- conv8_2_mbox_loc
I0116 11:34:11.802580 19937 net.cpp:408] conv8_2_mbox_loc_perm -> conv8_2_mbox_loc_perm
I0116 11:34:11.802742 19937 net.cpp:150] Setting up conv8_2_mbox_loc_perm
I0116 11:34:11.802752 19937 net.cpp:157] Top shape: 8 3 3 16 (1152)
I0116 11:34:11.802754 19937 net.cpp:165] Memory required for data: 1998025280
I0116 11:34:11.802758 19937 layer_factory.hpp:77] Creating layer conv8_2_mbox_loc_flat
I0116 11:34:11.802765 19937 net.cpp:100] Creating Layer conv8_2_mbox_loc_flat
I0116 11:34:11.802770 19937 net.cpp:434] conv8_2_mbox_loc_flat <- conv8_2_mbox_loc_perm
I0116 11:34:11.802778 19937 net.cpp:408] conv8_2_mbox_loc_flat -> conv8_2_mbox_loc_flat
I0116 11:34:11.802812 19937 net.cpp:150] Setting up conv8_2_mbox_loc_flat
I0116 11:34:11.802819 19937 net.cpp:157] Top shape: 8 144 (1152)
I0116 11:34:11.802832 19937 net.cpp:165] Memory required for data: 1998029888
I0116 11:34:11.802836 19937 layer_factory.hpp:77] Creating layer conv8_2_mbox_conf
I0116 11:34:11.802848 19937 net.cpp:100] Creating Layer conv8_2_mbox_conf
I0116 11:34:11.802853 19937 net.cpp:434] conv8_2_mbox_conf <- conv8_2_conv8_2_relu_0_split_2
I0116 11:34:11.802860 19937 net.cpp:408] conv8_2_mbox_conf -> conv8_2_mbox_conf
I0116 11:34:11.806026 19937 net.cpp:150] Setting up conv8_2_mbox_conf
I0116 11:34:11.806042 19937 net.cpp:157] Top shape: 8 84 3 3 (6048)
I0116 11:34:11.806046 19937 net.cpp:165] Memory required for data: 1998054080
I0116 11:34:11.806053 19937 layer_factory.hpp:77] Creating layer conv8_2_mbox_conf_perm
I0116 11:34:11.806062 19937 net.cpp:100] Creating Layer conv8_2_mbox_conf_perm
I0116 11:34:11.806066 19937 net.cpp:434] conv8_2_mbox_conf_perm <- conv8_2_mbox_conf
I0116 11:34:11.806073 19937 net.cpp:408] conv8_2_mbox_conf_perm -> conv8_2_mbox_conf_perm
I0116 11:34:11.806228 19937 net.cpp:150] Setting up conv8_2_mbox_conf_perm
I0116 11:34:11.806238 19937 net.cpp:157] Top shape: 8 3 3 84 (6048)
I0116 11:34:11.806241 19937 net.cpp:165] Memory required for data: 1998078272
I0116 11:34:11.806246 19937 layer_factory.hpp:77] Creating layer conv8_2_mbox_conf_flat
I0116 11:34:11.806252 19937 net.cpp:100] Creating Layer conv8_2_mbox_conf_flat
I0116 11:34:11.806257 19937 net.cpp:434] conv8_2_mbox_conf_flat <- conv8_2_mbox_conf_perm
I0116 11:34:11.806262 19937 net.cpp:408] conv8_2_mbox_conf_flat -> conv8_2_mbox_conf_flat
I0116 11:34:11.806303 19937 net.cpp:150] Setting up conv8_2_mbox_conf_flat
I0116 11:34:11.806309 19937 net.cpp:157] Top shape: 8 756 (6048)
I0116 11:34:11.806313 19937 net.cpp:165] Memory required for data: 1998102464
I0116 11:34:11.806316 19937 layer_factory.hpp:77] Creating layer conv8_2_mbox_priorbox
I0116 11:34:11.806324 19937 net.cpp:100] Creating Layer conv8_2_mbox_priorbox
I0116 11:34:11.806329 19937 net.cpp:434] conv8_2_mbox_priorbox <- conv8_2_conv8_2_relu_0_split_3
I0116 11:34:11.806334 19937 net.cpp:434] conv8_2_mbox_priorbox <- data_data_0_split_5
I0116 11:34:11.806340 19937 net.cpp:408] conv8_2_mbox_priorbox -> conv8_2_mbox_priorbox
I0116 11:34:11.806378 19937 net.cpp:150] Setting up conv8_2_mbox_priorbox
I0116 11:34:11.806385 19937 net.cpp:157] Top shape: 1 2 144 (288)
I0116 11:34:11.806387 19937 net.cpp:165] Memory required for data: 1998103616
I0116 11:34:11.806391 19937 layer_factory.hpp:77] Creating layer conv9_2_mbox_loc
I0116 11:34:11.806404 19937 net.cpp:100] Creating Layer conv9_2_mbox_loc
I0116 11:34:11.806408 19937 net.cpp:434] conv9_2_mbox_loc <- conv9_2_conv9_2_relu_0_split_0
I0116 11:34:11.806416 19937 net.cpp:408] conv9_2_mbox_loc -> conv9_2_mbox_loc
I0116 11:34:11.807945 19937 net.cpp:150] Setting up conv9_2_mbox_loc
I0116 11:34:11.807961 19937 net.cpp:157] Top shape: 8 16 1 1 (128)
I0116 11:34:11.807965 19937 net.cpp:165] Memory required for data: 1998104128
I0116 11:34:11.807972 19937 layer_factory.hpp:77] Creating layer conv9_2_mbox_loc_perm
I0116 11:34:11.807981 19937 net.cpp:100] Creating Layer conv9_2_mbox_loc_perm
I0116 11:34:11.807986 19937 net.cpp:434] conv9_2_mbox_loc_perm <- conv9_2_mbox_loc
I0116 11:34:11.807991 19937 net.cpp:408] conv9_2_mbox_loc_perm -> conv9_2_mbox_loc_perm
I0116 11:34:11.808145 19937 net.cpp:150] Setting up conv9_2_mbox_loc_perm
I0116 11:34:11.808156 19937 net.cpp:157] Top shape: 8 1 1 16 (128)
I0116 11:34:11.808159 19937 net.cpp:165] Memory required for data: 1998104640
I0116 11:34:11.808162 19937 layer_factory.hpp:77] Creating layer conv9_2_mbox_loc_flat
I0116 11:34:11.808168 19937 net.cpp:100] Creating Layer conv9_2_mbox_loc_flat
I0116 11:34:11.808172 19937 net.cpp:434] conv9_2_mbox_loc_flat <- conv9_2_mbox_loc_perm
I0116 11:34:11.808181 19937 net.cpp:408] conv9_2_mbox_loc_flat -> conv9_2_mbox_loc_flat
I0116 11:34:11.808217 19937 net.cpp:150] Setting up conv9_2_mbox_loc_flat
I0116 11:34:11.808223 19937 net.cpp:157] Top shape: 8 16 (128)
I0116 11:34:11.808226 19937 net.cpp:165] Memory required for data: 1998105152
I0116 11:34:11.808239 19937 layer_factory.hpp:77] Creating layer conv9_2_mbox_conf
I0116 11:34:11.808251 19937 net.cpp:100] Creating Layer conv9_2_mbox_conf
I0116 11:34:11.808256 19937 net.cpp:434] conv9_2_mbox_conf <- conv9_2_conv9_2_relu_0_split_1
I0116 11:34:11.808264 19937 net.cpp:408] conv9_2_mbox_conf -> conv9_2_mbox_conf
I0116 11:34:11.811360 19937 net.cpp:150] Setting up conv9_2_mbox_conf
I0116 11:34:11.811378 19937 net.cpp:157] Top shape: 8 84 1 1 (672)
I0116 11:34:11.811383 19937 net.cpp:165] Memory required for data: 1998107840
I0116 11:34:11.811389 19937 layer_factory.hpp:77] Creating layer conv9_2_mbox_conf_perm
I0116 11:34:11.811396 19937 net.cpp:100] Creating Layer conv9_2_mbox_conf_perm
I0116 11:34:11.811400 19937 net.cpp:434] conv9_2_mbox_conf_perm <- conv9_2_mbox_conf
I0116 11:34:11.811408 19937 net.cpp:408] conv9_2_mbox_conf_perm -> conv9_2_mbox_conf_perm
I0116 11:34:11.811579 19937 net.cpp:150] Setting up conv9_2_mbox_conf_perm
I0116 11:34:11.811589 19937 net.cpp:157] Top shape: 8 1 1 84 (672)
I0116 11:34:11.811594 19937 net.cpp:165] Memory required for data: 1998110528
I0116 11:34:11.811597 19937 layer_factory.hpp:77] Creating layer conv9_2_mbox_conf_flat
I0116 11:34:11.811604 19937 net.cpp:100] Creating Layer conv9_2_mbox_conf_flat
I0116 11:34:11.811609 19937 net.cpp:434] conv9_2_mbox_conf_flat <- conv9_2_mbox_conf_perm
I0116 11:34:11.811614 19937 net.cpp:408] conv9_2_mbox_conf_flat -> conv9_2_mbox_conf_flat
I0116 11:34:11.811651 19937 net.cpp:150] Setting up conv9_2_mbox_conf_flat
I0116 11:34:11.811657 19937 net.cpp:157] Top shape: 8 84 (672)
I0116 11:34:11.811661 19937 net.cpp:165] Memory required for data: 1998113216
I0116 11:34:11.811664 19937 layer_factory.hpp:77] Creating layer conv9_2_mbox_priorbox
I0116 11:34:11.811671 19937 net.cpp:100] Creating Layer conv9_2_mbox_priorbox
I0116 11:34:11.811674 19937 net.cpp:434] conv9_2_mbox_priorbox <- conv9_2_conv9_2_relu_0_split_2
I0116 11:34:11.811681 19937 net.cpp:434] conv9_2_mbox_priorbox <- data_data_0_split_6
I0116 11:34:11.811686 19937 net.cpp:408] conv9_2_mbox_priorbox -> conv9_2_mbox_priorbox
I0116 11:34:11.811725 19937 net.cpp:150] Setting up conv9_2_mbox_priorbox
I0116 11:34:11.811731 19937 net.cpp:157] Top shape: 1 2 16 (32)
I0116 11:34:11.811735 19937 net.cpp:165] Memory required for data: 1998113344
I0116 11:34:11.811739 19937 layer_factory.hpp:77] Creating layer mbox_loc
I0116 11:34:11.811748 19937 net.cpp:100] Creating Layer mbox_loc
I0116 11:34:11.811751 19937 net.cpp:434] mbox_loc <- conv4_3_norm_mbox_loc_flat
I0116 11:34:11.811758 19937 net.cpp:434] mbox_loc <- fc7_mbox_loc_flat
I0116 11:34:11.811763 19937 net.cpp:434] mbox_loc <- conv6_2_mbox_loc_flat
I0116 11:34:11.811767 19937 net.cpp:434] mbox_loc <- conv7_2_mbox_loc_flat
I0116 11:34:11.811771 19937 net.cpp:434] mbox_loc <- conv8_2_mbox_loc_flat
I0116 11:34:11.811775 19937 net.cpp:434] mbox_loc <- conv9_2_mbox_loc_flat
I0116 11:34:11.811784 19937 net.cpp:408] mbox_loc -> mbox_loc
I0116 11:34:11.811825 19937 net.cpp:150] Setting up mbox_loc
I0116 11:34:11.811831 19937 net.cpp:157] Top shape: 8 34928 (279424)
I0116 11:34:11.811835 19937 net.cpp:165] Memory required for data: 1999231040
I0116 11:34:11.811838 19937 layer_factory.hpp:77] Creating layer mbox_conf
I0116 11:34:11.811846 19937 net.cpp:100] Creating Layer mbox_conf
I0116 11:34:11.811849 19937 net.cpp:434] mbox_conf <- conv4_3_norm_mbox_conf_flat
I0116 11:34:11.811854 19937 net.cpp:434] mbox_conf <- fc7_mbox_conf_flat
I0116 11:34:11.811859 19937 net.cpp:434] mbox_conf <- conv6_2_mbox_conf_flat
I0116 11:34:11.811863 19937 net.cpp:434] mbox_conf <- conv7_2_mbox_conf_flat
I0116 11:34:11.811867 19937 net.cpp:434] mbox_conf <- conv8_2_mbox_conf_flat
I0116 11:34:11.811872 19937 net.cpp:434] mbox_conf <- conv9_2_mbox_conf_flat
I0116 11:34:11.811877 19937 net.cpp:408] mbox_conf -> mbox_conf
I0116 11:34:11.811913 19937 net.cpp:150] Setting up mbox_conf
I0116 11:34:11.811919 19937 net.cpp:157] Top shape: 8 183372 (1466976)
I0116 11:34:11.811923 19937 net.cpp:165] Memory required for data: 2005098944
I0116 11:34:11.811926 19937 layer_factory.hpp:77] Creating layer mbox_priorbox
I0116 11:34:11.811944 19937 net.cpp:100] Creating Layer mbox_priorbox
I0116 11:34:11.811947 19937 net.cpp:434] mbox_priorbox <- conv4_3_norm_mbox_priorbox
I0116 11:34:11.811954 19937 net.cpp:434] mbox_priorbox <- fc7_mbox_priorbox
I0116 11:34:11.811959 19937 net.cpp:434] mbox_priorbox <- conv6_2_mbox_priorbox
I0116 11:34:11.811962 19937 net.cpp:434] mbox_priorbox <- conv7_2_mbox_priorbox
I0116 11:34:11.811966 19937 net.cpp:434] mbox_priorbox <- conv8_2_mbox_priorbox
I0116 11:34:11.811970 19937 net.cpp:434] mbox_priorbox <- conv9_2_mbox_priorbox
I0116 11:34:11.811975 19937 net.cpp:408] mbox_priorbox -> mbox_priorbox
I0116 11:34:11.812014 19937 net.cpp:150] Setting up mbox_priorbox
I0116 11:34:11.812021 19937 net.cpp:157] Top shape: 1 2 34928 (69856)
I0116 11:34:11.812024 19937 net.cpp:165] Memory required for data: 2005378368
I0116 11:34:11.812027 19937 layer_factory.hpp:77] Creating layer mbox_conf_reshape
I0116 11:34:11.812041 19937 net.cpp:100] Creating Layer mbox_conf_reshape
I0116 11:34:11.812046 19937 net.cpp:434] mbox_conf_reshape <- mbox_conf
I0116 11:34:11.812052 19937 net.cpp:408] mbox_conf_reshape -> mbox_conf_reshape
I0116 11:34:11.812096 19937 net.cpp:150] Setting up mbox_conf_reshape
I0116 11:34:11.812103 19937 net.cpp:157] Top shape: 8 8732 21 (1466976)
I0116 11:34:11.812105 19937 net.cpp:165] Memory required for data: 2011246272
I0116 11:34:11.812109 19937 layer_factory.hpp:77] Creating layer mbox_conf_softmax
I0116 11:34:11.812117 19937 net.cpp:100] Creating Layer mbox_conf_softmax
I0116 11:34:11.812121 19937 net.cpp:434] mbox_conf_softmax <- mbox_conf_reshape
I0116 11:34:11.812127 19937 net.cpp:408] mbox_conf_softmax -> mbox_conf_softmax
I0116 11:34:11.812419 19937 net.cpp:150] Setting up mbox_conf_softmax
I0116 11:34:11.812433 19937 net.cpp:157] Top shape: 8 8732 21 (1466976)
I0116 11:34:11.812436 19937 net.cpp:165] Memory required for data: 2017114176
I0116 11:34:11.812440 19937 layer_factory.hpp:77] Creating layer mbox_conf_flatten
I0116 11:34:11.812446 19937 net.cpp:100] Creating Layer mbox_conf_flatten
I0116 11:34:11.812450 19937 net.cpp:434] mbox_conf_flatten <- mbox_conf_softmax
I0116 11:34:11.812456 19937 net.cpp:408] mbox_conf_flatten -> mbox_conf_flatten
I0116 11:34:11.812494 19937 net.cpp:150] Setting up mbox_conf_flatten
I0116 11:34:11.812503 19937 net.cpp:157] Top shape: 8 183372 (1466976)
I0116 11:34:11.812506 19937 net.cpp:165] Memory required for data: 2022982080
I0116 11:34:11.812510 19937 layer_factory.hpp:77] Creating layer detection_out
I0116 11:34:11.812525 19937 net.cpp:100] Creating Layer detection_out
I0116 11:34:11.812530 19937 net.cpp:434] detection_out <- mbox_loc
I0116 11:34:11.812535 19937 net.cpp:434] detection_out <- mbox_conf_flatten
I0116 11:34:11.812538 19937 net.cpp:434] detection_out <- mbox_priorbox
I0116 11:34:11.812546 19937 net.cpp:408] detection_out -> detection_out
I0116 11:34:11.815500 19937 net.cpp:150] Setting up detection_out
I0116 11:34:11.815516 19937 net.cpp:157] Top shape: 1 1 1 7 (7)
I0116 11:34:11.815521 19937 net.cpp:165] Memory required for data: 2022982108
I0116 11:34:11.815524 19937 layer_factory.hpp:77] Creating layer detection_eval
I0116 11:34:11.815534 19937 net.cpp:100] Creating Layer detection_eval
I0116 11:34:11.815538 19937 net.cpp:434] detection_eval <- detection_out
I0116 11:34:11.815544 19937 net.cpp:434] detection_eval <- label
I0116 11:34:11.815551 19937 net.cpp:408] detection_eval -> detection_eval
I0116 11:34:11.816654 19937 net.cpp:150] Setting up detection_eval
I0116 11:34:11.816666 19937 net.cpp:157] Top shape: 1 1 21 5 (105)
I0116 11:34:11.816669 19937 net.cpp:165] Memory required for data: 2022982528
I0116 11:34:11.816675 19937 net.cpp:228] detection_eval does not need backward computation.
I0116 11:34:11.816679 19937 net.cpp:228] detection_out does not need backward computation.
I0116 11:34:11.816684 19937 net.cpp:228] mbox_conf_flatten does not need backward computation.
I0116 11:34:11.816687 19937 net.cpp:228] mbox_conf_softmax does not need backward computation.
…
