…
      sampler {
        min_scale: 0.3
        max_scale: 1
        min_aspect_ratio: 0.5
        max_aspect_ratio: 2
      }
      sample_constraint {
        min_jaccard_overlap: 0.9
      }
      max_sample: 1
      max_trials: 50
    }
    batch_sampler {
      sampler {
        min_scale: 0.3
        max_scale: 1
        min_aspect_ratio: 0.5
        max_aspect_ratio: 2
      }
      sample_constraint {
        max_jaccard_overlap: 1
      }
      max_sample: 1
      max_trials: 50
    }
    label_map_file: "data/VOC0712/labelmap_voc.prototxt"
  }
}
layer {
  name: "conv1_1"
  type: "Convolution"
  bottom: "data"
  top: "conv1_1"
  param {
    lr_mult: 1
    decay_mult: 1
  }
  param {
    lr_mult: 2
    decay_mult: 0
  }
  convolution_param {
    num_output: 64
    pad: 1
    kernel_size: 3
    weight_filler {
      type: "xavier"
    }
    bias_filler {
      type: "constant"
      value: 0
    }
  }
}
layer {
  name: "relu1_1"
  type: "ReLU"
  bottom: "conv1_1"
  top: "conv1_1"
}
layer {
  name: "conv1_2"
  type: "Convolution"
  bottom: "conv1_1"
  top: "conv1_2"
  param {
    lr_mult: 1
    decay_mult: 1
  }
  param {
    lr_mult: 2
    decay_mult: 0
  }
  convolution_param {
    num_output: 64
    pad: 1
    kernel_size: 3
    weight_filler {
      type: "xavier"
    }
    bias_filler {
      type: "constant"
      value: 0
    }
  }
}
layer {
  name: "relu1_2"
  type: "ReLU"
  bottom: "conv1_2"
  top: "conv1_2"
}
layer {
  name: "pool1"
  type: "Pooling"
  bottom: "conv1_2"
  top: "pool1"
  pooling_param {
    pool: MAX
    kernel_size: 2
    stride: 2
  }
}
layer {
  name: "conv2_1"
  type: "Convolution"
  bottom: "pool1"
  top: "conv2_1"
  param {
    lr_mult: 1
    decay_mult: 1
  }
  param {
    lr_mult: 2
    decay_mult: 0
  }
  convolution_param {
    num_output: 128
    pad: 1
    kernel_size: 3
    weight_filler {
      type: "xavier"
    }
    bias_filler {
      type: "constant"
      value: 0
    }
  }
}
layer {
  name: "relu2_1"
  type: "ReLU"
  bottom: "conv2_1"
  top: "conv2_1"
}
layer {
  name: "conv2_2"
  type: "Convolution"
  bottom: "conv2_1"
  top: "conv2_2"
  param {
    lr_mult: 1
    decay_mult: 1
  }
  param {
    lr_mult: 2
    decay_mult: 0
  }
  convolution_param {
    num_output: 128
    pad: 1
    kernel_size: 3
    weight_filler {
      type: "xavier"
    }
    bias_filler {
      type: "constant"
      value: 0
    }
  }
}
layer {
  name: "relu2_2"
  type: "ReLU"
  bottom: "conv2_2"
  top: "conv2_2"
}
layer {
  name: "pool2"
  type: "Pooling"
  bottom: "conv2_2"
  top: "pool2"
  pooling_param {
    pool: MAX
    kernel_size: 2
    stride: 2
  }
}
layer {
  name: "conv3_1"
  type: "Convolution"
  bottom: "pool2"
  top: "conv3_1"
  param {
    lr_mult: 1
    decay_mult: 1
  }
  param {
    lr_mult: 2
    decay_mult: 0
  }
  convolution_param {
    num_output: 256
    pad: 1
    kernel_size: 3
    weight_filler {
      type: "xavier"
    }
    bias_filler {
      type: "constant"
      value: 0
    }
  }
}
layer {
  name: "relu3_1"
  type: "ReLU"
  bottom: "conv3_1"
  top: "conv3_1"
}
layer {
  name: "conv3_2"
  type: "Convolution"
  bottom: "conv3_1"
  top: "conv3_2"
  param {
    lr_mult: 1
    decay_mult: 1
  }
  param {
    lr_mult: 2
    decay_mult: 0
  }
  convolution_param {
    num_output: 256
    pad: 1
    kernel_size: 3
    weight_filler {
      type: "xavier"
    }
    bias_filler {
      type: "constant"
      value: 0
    }
  }
}
layer {
  name: "relu3_2"
  type: "ReLU"
  bottom: "conv3_2"
  top: "conv3_2"
}
layer {
  name: "conv3_3"
  type: "Convolution"
  bottom: "conv3_2"
  top: "conv3_3"
  param {
    lr_mult: 1
    decay_mult: 1
  }
  param {
    lr_mult: 2
    decay_mult: 0
  }
  convolution_param {
    num_output: 256
    pad: 1
    kernel_size: 3
    weight_filler {
      type: "xavier"
    }
    bias_filler {
      type: "constant"
      value: 0
    }
  }
}
layer {
  name: "relu3_3"
  type: "ReLU"
  bottom: "conv3_3"
  top: "conv3_3"
}
layer {
  name: "pool3"
  type: "Pooling"
  bottom: "conv3_3"
  top: "pool3"
  pooling_param {
    pool: MAX
    kernel_size: 2
    stride: 2
  }
}
layer {
  name: "conv4_1"
  type: "Convolution"
  bottom: "pool3"
  top: "conv4_1"
  param {
    lr_mult: 1
    decay_mult: 1
  }
  param {
    lr_mult: 2
    decay_mult: 0
  }
  convolution_param {
    num_output: 512
    pad: 1
    kernel_size: 3
    weight_filler {
      type: "xavier"
    }
    bias_filler {
      type: "constant"
      value: 0
    }
  }
}
layer {
  name: "relu4_1"
  type: "ReLU"
  bottom: "conv4_1"
  top: "conv4_1"
}
layer {
  name: "conv4_2"
  type: "Convolution"
  bottom: "conv4_1"
  top: "conv4_2"
  param {
    lr_mult: 1
    decay_mult: 1
  }
  param {
    lr_mult: 2
    decay_mult: 0
  }
  convolution_param {
    num_output: 512
    pad: 1
    kernel_size: 3
    weight_filler {
      type: "xavier"
    }
    bias_filler {
      type: "constant"
      value: 0
    }
  }
}
layer {
  name: "relu4_2"
  type: "ReLU"
  bottom: "conv4_2"
  top: "conv4_2"
}
layer {
  name: "conv4_3"
  type: "Convolution"
  bottom: "conv4_2"
  top: "conv4_3"
  param {
    lr_mult: 1
    decay_mult: 1
  }
  param {
    lr_mult: 2
    decay_mult: 0
  }
  convolution_param {
    num_output: 512
    pad: 1
    kernel_size: 3
    weight_filler {
      type: "xavier"
    }
    bias_filler {
      type: "constant"
      value: 0
    }
  }
}
layer {
  name: "relu4_3"
  type: "ReLU"
  bottom: "conv4_3"
  top: "conv4_3"
}
layer {
  name: "pool4"
  type: "Pooling"
  bottom: "conv4_3"
  top: "pool4"
  pooling_param {
    pool: MAX
    kernel_size: 2
    stride: 2
  }
}
layer {
  name: "conv5_1"
  type: "Convolution"
  bottom: "pool4"
  top: "conv5_1"
  param {
    lr_mult: 1
    decay_mult: 1
  }
  param {
    lr_mult: 2
    decay_mult: 0
  }
  convolution_param {
    num_output: 512
    pad: 1
    kernel_size: 3
    weight_filler {
      type: "xavier"
    }
    bias_filler {
      type: "constant"
      value: 0
    }
    dilation: 1
  }
}
layer {
  name: "relu5_1"
  type: "ReLU"
  bottom: "conv5_1"
  top: "conv5_1"
}
layer {
  name: "conv5_2"
  type: "Convolution"
  bottom: "conv5_1"
  top: "conv5_2"
  param {
    lr_mult: 1
    decay_mult: 1
  }
  param {
    lr_mult: 2
    decay_mult: 0
  }
  convolution_param {
    num_output: 512
    pad: 1
    kernel_size: 3
    weight_filler {
      type: "xavier"
    }
    bias_filler {
      type: "constant"
      value: 0
    }
    dilation: 1
  }
}
layer {
  name: "relu5_2"
  type: "ReLU"
  bottom: "conv5_2"
  top: "conv5_2"
}
layer {
  name: "conv5_3"
  type: "Convolution"
  bottom: "conv5_2"
  top: "conv5_3"
  param {
    lr_mult: 1
    decay_mult: 1
  }
  param {
    lr_mult: 2
    decay_mult: 0
  }
  convolution_param {
    num_output: 512
    pad: 1
    kernel_size: 3
    weight_filler {
      type: "xavier"
    }
    bias_filler {
      type: "constant"
      value: 0
    }
    dilation: 1
  }
}
layer {
  name: "relu5_3"
  type: "ReLU"
  bottom: "conv5_3"
  top: "conv5_3"
}
layer {
  name: "pool5"
  type: "Pooling"
  bottom: "conv5_3"
  top: "pool5"
  pooling_param {
    pool: MAX
    kernel_size: 3
    stride: 1
    pad: 1
  }
}
layer {
  name: "fc6"
  type: "Convolution"
  bottom: "pool5"
  top: "fc6"
  param {
    lr_mult: 1
    decay_mult: 1
  }
  param {
    lr_mult: 2
    decay_mult: 0
  }
  convolution_param {
    num_output: 1024
    pad: 6
    kernel_size: 3
    weight_filler {
      type: "xavier"
    }
    bias_filler {
      type: "constant"
      value: 0
    }
    dilation: 6
  }
}
layer {
  name: "relu6"
  type: "ReLU"
  bottom: "fc6"
  top: "fc6"
}
layer {
  name: "fc7"
  type: "Convolution"
  bottom: "fc6"
  top: "fc7"
  param {
    lr_mult: 1
    decay_mult: 1
  }
  param {
    lr_mult: 2
    decay_mult: 0
  }
  convolution_param {
    num_output: 1024
    kernel_size: 1
    weight_filler {
      type: "xavier"
    }
    bias_filler {
      type: "constant"
      value: 0
    }
  }
}
layer {
  name: "relu7"
  type: "ReLU"
  bottom: "fc7"
  top: "fc7"
}
layer {
  name: "conv6_1"
  type: "Convolution"
  bottom: "fc7"
  top: "conv6_1"
  param {
    lr_mult: 1
    decay_mult: 1
  }
  param {
    lr_mult: 2
    decay_mult: 0
  }
  convolution_param {
    num_output: 256
    pad: 0
    kernel_size: 1
    stride: 1
    weight_filler {
      type: "xavier"
    }
    bias_filler {
      type: "constant"
      value: 0
    }
  }
}
layer {
  name: "conv6_1_relu"
  type: "ReLU"
  bottom: "conv6_1"
  top: "conv6_1"
}
layer {
  name: "conv6_2"
  type: "Convolution"
  bottom: "conv6_1"
  top: "conv6_2"
  param {
    lr_mult: 1
    decay_mult: 1
  }
  param {
    lr_mult: 2
    decay_mult: 0
  }
  convolution_param {
    num_output: 512
    pad: 1
    kernel_size: 3
    stride: 2
    weight_filler {
      type: "xavier"
    }
    bias_filler {
      type: "constant"
      value: 0
    }
  }
}
layer {
  name: "conv6_2_relu"
  type: "ReLU"
  bottom: "conv6_2"
  top: "conv6_2"
}
layer {
  name: "conv7_1"
  type: "Convolution"
  bottom: "conv6_2"
  top: "conv7_1"
  param {
    lr_mult: 1
    decay_mult: 1
  }
  param {
    lr_mult: 2
    decay_mult: 0
  }
  convolution_param {
    num_output: 128
    pad: 0
    kernel_size: 1
    stride: 1
    weight_filler {
      type: "xavier"
    }
    bias_filler {
      type: "constant"
      value: 0
    }
  }
}
layer {
  name: "conv7_1_relu"
  type: "ReLU"
  bottom: "conv7_1"
  top: "conv7_1"
}
layer {
  name: "conv7_2"
  type: "Convolution"
  bottom: "conv7_1"
  top: "conv7_2"
  param {
    lr_mult: 1
    decay_mult: 1
  }
  param {
    lr_mult: 2
    decay_mult: 0
  }
  convolution_param {
    num_output: 256
    pad: 1
    kernel_size: 3
    stride: 2
    weight_filler {
      type: "xavier"
    }
    bias_filler {
      type: "constant"
      value: 0
    }
  }
}
layer {
  name: "conv7_2_relu"
  type: "ReLU"
  bottom: "conv7_2"
  top: "conv7_2"
}
layer {
  name: "conv8_1"
  type: "Convolution"
  bottom: "conv7_2"
  top: "conv8_1"
  param {
    lr_mult: 1
    decay_mult: 1
  }
  param {
    lr_mult: 2
    decay_mult: 0
  }
  convolution_param {
    num_output: 128
    pad: 0
    kernel_size: 1
    stride: 1
    weight_filler {
      type: "xavier"
    }
    bias_filler {
      type: "constant"
      value: 0
    }
  }
}
layer {
  name: "conv8_1_relu"
  type: "ReLU"
  bottom: "conv8_1"
  top: "conv8_1"
}
layer {
  name: "conv8_2"
  type: "Convolution"
  bottom: "conv8_1"
  top: "conv8_2"
  param {
    lr_mult: 1
    decay_mult: 1
  }
  param {
    lr_mult: 2
    decay_mult: 0
  }
  convolution_param {
    num_output: 256
    pad: 0
    kernel_size: 3
    stride: 1
    weight_filler {
      type: "xavier"
    }
    bias_filler {
      type: "constant"
      value: 0
    }
  }
}
layer {
  name: "conv8_2_relu"
  type: "ReLU"
  bottom: "conv8_2"
  top: "conv8_2"
}
layer {
  name: "conv9_1"
  type: "Convolution"
  bottom: "conv8_2"
  top: "conv9_1"
  param {
    lr_mult: 1
    decay_mult: 1
  }
  param {
    lr_mult: 2
    decay_mult: 0
  }
  convolution_param {
    num_output: 128
    pad: 0
    kernel_size: 1
    stride: 1
    weight_filler {
      type: "xavier"
    }
    bias_filler {
      type: "constant"
      value: 0
    }
  }
}
layer {
  name: "conv9_1_relu"
  type: "ReLU"
  bottom: "conv9_1"
  top: "conv9_1"
}
layer {
  name: "conv9_2"
  type: "Convolution"
  bottom: "conv9_1"
  top: "conv9_2"
  param {
    lr_mult: 1
    decay_mult: 1
  }
  param {
    lr_mult: 2
    decay_mult: 0
  }
  convolution_param {
    num_output: 256
    pad: 0
    kernel_size: 3
    stride: 1
    weight_filler {
      type: "xavier"
    }
    bias_filler {
      type: "constant"
      value: 0
    }
  }
}
layer {
  name: "conv9_2_relu"
  type: "ReLU"
  bottom: "conv9_2"
  top: "conv9_2"
}
layer {
  name: "conv4_3_norm"
  type: "Normalize"
  bottom: "conv4_3"
  top: "conv4_3_norm"
  norm_param {
    across_spatial: false
    scale_filler {
      type: "constant"
      value: 20
    }
    channel_shared: false
  }
}
layer {
  name: "conv4_3_norm_mbox_loc"
  type: "Convolution"
  bottom: "conv4_3_norm"
  top: "conv4_3_norm_mbox_loc"
  param {
    lr_mult: 1
    decay_mult: 1
  }
  param {
    lr_mult: 2
    decay_mult: 0
  }
  convolution_param {
    num_output: 16
    pad: 1
    kernel_size: 3
    stride: 1
    weight_filler {
      type: "xavier"
    }
    bias_filler {
      type: "constant"
      value: 0
    }
  }
}
layer {
  name: "conv4_3_norm_mbox_loc_perm"
  type: "Permute"
  bottom: "conv4_3_norm_mbox_loc"
  top: "conv4_3_norm_mbox_loc_perm"
  permute_param {
    order: 0
    order: 2
    order: 3
    order: 1
  }
}
layer {
  name: "conv4_3_norm_mbox_loc_flat"
  type: "Flatten"
  bottom: "conv4_3_norm_mbox_loc_perm"
  top: "conv4_3_norm_mbox_loc_flat"
  flatten_param {
    axis: 1
  }
}
layer {
  name: "conv4_3_norm_mbox_conf"
  type: "Convolution"
  bottom: "conv4_3_norm"
  top: "conv4_3_norm_mbox_conf"
  param {
    lr_mult: 1
    decay_mult: 1
  }
  param {
    lr_mult: 2
    decay_mult: 0
  }
  convolution_param {
    num_output: 88
    pad: 1
    kernel_size: 3
    stride: 1
    weight_filler {
      type: "xavier"
    }
    bias_filler {
      type: "constant"
      value: 0
    }
  }
}
layer {
  name: "conv4_3_norm_mbox_conf_perm"
  type: "Permute"
  bottom: "conv4_3_norm_mbox_conf"
  top: "conv4_3_norm_mbox_conf_perm"
  permute_param {
    order: 0
    order: 2
    order: 3
    order: 1
  }
}
layer {
  name: "conv4_3_norm_mbox_conf_flat"
  type: "Flatten"
  bottom: "conv4_3_norm_mbox_conf_perm"
  top: "conv4_3_norm_mbox_conf_flat"
  flatten_param {
    axis: 1
  }
}
layer {
  name: "conv4_3_norm_mbox_priorbox"
  type: "PriorBox"
  bottom: "conv4_3_norm"
  bottom: "data"
  top: "conv4_3_norm_mbox_priorbox"
  prior_box_param {
    min_size: 30
    max_size: 60
    aspect_ratio: 2
    flip: true
    clip: false
    variance: 0.1
    variance: 0.1
    variance: 0.2
    variance: 0.2
    step: 8
    offset: 0.5
  }
}
layer {
  name: "fc7_mbox_loc"
  type: "Convolution"
  bottom: "fc7"
  top: "fc7_mbox_loc"
  param {
    lr_mult: 1
    decay_mult: 1
  }
  param {
    lr_mult: 2
    decay_mult: 0
  }
  convolution_param {
    num_output: 24
    pad: 1
    kernel_size: 3
    stride: 1
    weight_filler {
      type: "xavier"
    }
    bias_filler {
      type: "constant"
      value: 0
    }
  }
}
layer {
  name: "fc7_mbox_loc_perm"
  type: "Permute"
  bottom: "fc7_mbox_loc"
  top: "fc7_mbox_loc_perm"
  permute_param {
    order: 0
    order: 2
    order: 3
    order: 1
  }
}
layer {
  name: "fc7_mbox_loc_flat"
  type: "Flatten"
  bottom: "fc7_mbox_loc_perm"
  top: "fc7_mbox_loc_flat"
  flatten_param {
    axis: 1
  }
}
layer {
  name: "fc7_mbox_conf"
  type: "Convolution"
  bottom: "fc7"
  top: "fc7_mbox_conf"
  param {
    lr_mult: 1
    decay_mult: 1
  }
  param {
    lr_mult: 2
    decay_mult: 0
  }
  convolution_param {
    num_output: 132
    pad: 1
    kernel_size: 3
    stride: 1
    weight_filler {
      type: "xavier"
    }
    bias_filler {
      type: "constant"
      value: 0
    }
  }
}
layer {
  name: "fc7_mbox_conf_perm"
  type: "Permute"
  bottom: "fc7_mbox_conf"
  top: "fc7_mbox_conf_perm"
  permute_param {
    order: 0
    order: 2
    order: 3
    order: 1
  }
}
layer {
  name: "fc7_mbox_conf_flat"
  type: "Flatten"
  bottom: "fc7_mbox_conf_perm"
  top: "fc7_mbox_conf_flat"
  flatten_param {
    axis: 1
  }
}
layer {
  name: "fc7_mbox_priorbox"
  type: "PriorBox"
  bottom: "fc7"
  bottom: "data"
  top: "fc7_mbox_priorbox"
  prior_box_param {
    min_size: 60
    max_size: 111
    aspect_ratio: 2
    aspect_ratio: 3
    flip: true
    clip: false
    variance: 0.1
    variance: 0.1
    variance: 0.2
    variance: 0.2
    step: 16
    offset: 0.5
  }
}
layer {
  name: "conv6_2_mbox_loc"
  type: "Convolution"
  bottom: "conv6_2"
  top: "conv6_2_mbox_loc"
  param {
    lr_mult: 1
    decay_mult: 1
  }
  param {
    lr_mult: 2
    decay_mult: 0
  }
  convolution_param {
    num_output: 24
    pad: 1
    kernel_size: 3
    stride: 1
    weight_filler {
      type: "xavier"
    }
    bias_filler {
      type: "constant"
      value: 0
    }
  }
}
layer {
  name: "conv6_2_mbox_loc_perm"
  type: "Permute"
  bottom: "conv6_2_mbox_loc"
  top: "conv6_2_mbox_loc_perm"
  permute_param {
    order: 0
    order: 2
    order: 3
    order: 1
  }
}
layer {
  name: "conv6_2_mbox_loc_flat"
  type: "Flatten"
  bottom: "conv6_2_mbox_loc_perm"
  top: "conv6_2_mbox_loc_flat"
  flatten_param {
    axis: 1
  }
}
layer {
  name: "conv6_2_mbox_conf"
  type: "Convolution"
  bottom: "conv6_2"
  top: "conv6_2_mbox_conf"
  param {
    lr_mult: 1
    decay_mult: 1
  }
  param {
    lr_mult: 2
    decay_mult: 0
  }
  convolution_param {
    num_output: 132
    pad: 1
    kernel_size: 3
    stride: 1
    weight_filler {
      type: "xavier"
    }
    bias_filler {
      type: "constant"
      value: 0
    }
  }
}
layer {
  name: "conv6_2_mbox_conf_perm"
  type: "Permute"
  bottom: "conv6_2_mbox_conf"
  top: "conv6_2_mbox_conf_perm"
  permute_param {
    order: 0
    order: 2
    order: 3
    order: 1
  }
}
layer {
  name: "conv6_2_mbox_conf_flat"
  type: "Flatten"
  bottom: "conv6_2_mbox_conf_perm"
  top: "conv6_2_mbox_conf_flat"
  flatten_param {
    axis: 1
  }
}
layer {
  name: "conv6_2_mbox_priorbox"
  type: "PriorBox"
  bottom: "conv6_2"
  bottom: "data"
  top: "conv6_2_mbox_priorbox"
  prior_box_param {
    min_size: 111
    max_size: 162
    aspect_ratio: 2
    aspect_ratio: 3
    flip: true
    clip: false
    variance: 0.1
    variance: 0.1
    variance: 0.2
    variance: 0.2
    step: 32
    offset: 0.5
  }
}
layer {
  name: "conv7_2_mbox_loc"
  type: "Convolution"
  bottom: "conv7_2"
  top: "conv7_2_mbox_loc"
  param {
    lr_mult: 1
    decay_mult: 1
  }
  param {
    lr_mult: 2
    decay_mult: 0
  }
  convolution_param {
    num_output: 24
    pad: 1
    kernel_size: 3
    stride: 1
    weight_filler {
      type: "xavier"
    }
    bias_filler {
      type: "constant"
      value: 0
    }
  }
}
layer {
  name: "conv7_2_mbox_loc_perm"
  type: "Permute"
  bottom: "conv7_2_mbox_loc"
  top: "conv7_2_mbox_loc_perm"
  permute_param {
    order: 0
    order: 2
    order: 3
    order: 1
  }
}
layer {
  name: "conv7_2_mbox_loc_flat"
  type: "Flatten"
  bottom: "conv7_2_mbox_loc_perm"
  top: "conv7_2_mbox_loc_flat"
  flatten_param {
    axis: 1
  }
}
layer {
  name: "conv7_2_mbox_conf"
  type: "Convolution"
  bottom: "conv7_2"
  top: "conv7_2_mbox_conf"
  param {
    lr_mult: 1
    decay_mult: 1
  }
  param {
    lr_mult: 2
    decay_mult: 0
  }
  convolution_param {
    num_output: 132
    pad: 1
    kernel_size: 3
    stride: 1
    weight_filler {
      type: "xavier"
    }
    bias_filler {
      type: "constant"
      value: 0
    }
  }
}
layer {
  name: "conv7_2_mbox_conf_perm"
  type: "Permute"
  bottom: "conv7_2_mbox_conf"
  top: "conv7_2_mbox_conf_perm"
  permute_param {
    order: 0
    order: 2
    order: 3
    order: 1
  }
}
layer {
  name: "conv7_2_mbox_conf_flat"
  type: "Flatten"
  bottom: "conv7_2_mbox_conf_perm"
  top: "conv7_2_mbox_conf_flat"
  flatten_param {
    axis: 1
  }
}
layer {
  name: "conv7_2_mbox_priorbox"
  type: "PriorBox"
  bottom: "conv7_2"
  bottom: "data"
  top: "conv7_2_mbox_priorbox"
  prior_box_param {
    min_size: 162
    max_size: 213
    aspect_ratio: 2
    aspect_ratio: 3
    flip: true
    clip: false
    variance: 0.1
    variance: 0.1
    variance: 0.2
    variance: 0.2
    step: 64
    offset: 0.5
  }
}
layer {
  name: "conv8_2_mbox_loc"
  type: "Convolution"
  bottom: "conv8_2"
  top: "conv8_2_mbox_loc"
  param {
    lr_mult: 1
    decay_mult: 1
  }
  param {
    lr_mult: 2
    decay_mult: 0
  }
  convolution_param {
    num_output: 16
    pad: 1
    kernel_size: 3
    stride: 1
    weight_filler {
      type: "xavier"
    }
    bias_filler {
      type: "constant"
      value: 0
    }
  }
}
layer {
  name: "conv8_2_mbox_loc_perm"
  type: "Permute"
  bottom: "conv8_2_mbox_loc"
  top: "conv8_2_mbox_loc_perm"
  permute_param {
    order: 0
    order: 2
    order: 3
    order: 1
  }
}
layer {
  name: "conv8_2_mbox_loc_flat"
  type: "Flatten"
  bottom: "conv8_2_mbox_loc_perm"
  top: "conv8_2_mbox_loc_flat"
  flatten_param {
    axis: 1
  }
}
layer {
  name: "conv8_2_mbox_conf"
  type: "Convolution"
  bottom: "conv8_2"
  top: "conv8_2_mbox_conf"
  param {
    lr_mult: 1
    decay_mult: 1
  }
  param {
    lr_mult: 2
    decay_mult: 0
  }
  convolution_param {
    num_output: 88
    pad: 1
    kernel_size: 3
    stride: 1
    weight_filler {
      type: "xavier"
    }
    bias_filler {
      type: "constant"
      value: 0
    }
  }
}
layer {
  name: "conv8_2_mbox_conf_perm"
  type: "Permute"
  bottom: "conv8_2_mbox_conf"
  top: "conv8_2_mbox_conf_perm"
  permute_param {
    order: 0
    order: 2
    order: 3
    order: 1
  }
}
layer {
  name: "conv8_2_mbox_conf_flat"
  type: "Flatten"
  bottom: "conv8_2_mbox_conf_perm"
  top: "conv8_2_mbox_conf_flat"
  flatten_param {
    axis: 1
  }
}
layer {
  name: "conv8_2_mbox_priorbox"
  type: "PriorBox"
  bottom: "conv8_2"
  bottom: "data"
  top: "conv8_2_mbox_priorbox"
  prior_box_param {
    min_size: 213
    max_size: 264
    aspect_ratio: 2
    flip: true
    clip: false
    variance: 0.1
    variance: 0.1
    variance: 0.2
    variance: 0.2
    step: 100
    offset: 0.5
  }
}
layer {
  name: "conv9_2_mbox_loc"
  type: "Convolution"
  bottom: "conv9_2"
  top: "conv9_2_mbox_loc"
  param {
    lr_mult: 1
    decay_mult: 1
  }
  param {
    lr_mult: 2
    decay_mult: 0
  }
  convolution_param {
    num_output: 16
    pad: 1
    kernel_size: 3
    stride: 1
    weight_filler {
      type: "xavier"
    }
    bias_filler {
      type: "constant"
      value: 0
    }
  }
}
layer {
  name: "conv9_2_mbox_loc_perm"
  type: "Permute"
  bottom: "conv9_2_mbox_loc"
  top: "conv9_2_mbox_loc_perm"
  permute_param {
    order: 0
    order: 2
    order: 3
    order: 1
  }
}
layer {
  name: "conv9_2_mbox_loc_flat"
  type: "Flatten"
  bottom: "conv9_2_mbox_loc_perm"
  top: "conv9_2_mbox_loc_flat"
  flatten_param {
    axis: 1
  }
}
layer {
  name: "conv9_2_mbox_conf"
  type: "Convolution"
  bottom: "conv9_2"
  top: "conv9_2_mbox_conf"
  param {
    lr_mult: 1
    decay_mult: 1
  }
  param {
    lr_mult: 2
    decay_mult: 0
  }
  convolution_param {
    num_output: 88
    pad: 1
    kernel_size: 3
    stride: 1
    weight_filler {
      type: "xavier"
    }
    bias_filler {
      type: "constant"
      value: 0
    }
  }
}
layer {
  name: "conv9_2_mbox_conf_perm"
  type: "Permute"
  bottom: "conv9_2_mbox_conf"
  top: "conv9_2_mbox_conf_perm"
  permute_param {
    order: 0
    order: 2
    order: 3
    order: 1
  }
}
layer {
  name: "conv9_2_mbox_conf_flat"
  type: "Flatten"
  bottom: "conv9_2_mbox_conf_perm"
  top: "conv9_2_mbox_conf_flat"
  flatten_param {
    axis: 1
  }
}
layer {
  name: "conv9_2_mbox_priorbox"
  type: "PriorBox"
  bottom: "conv9_2"
  bottom: "data"
  top: "conv9_2_mbox_priorbox"
  prior_box_param {
    min_size: 264
    max_size: 315
    aspect_ratio: 2
    flip: true
    clip: false
    variance: 0.1
    variance: 0.1
    variance: 0.2
    variance: 0.2
    step: 300
    offset: 0.5
  }
}
layer {
  name: "mbox_loc"
  type: "Concat"
  bottom: "conv4_3_norm_mbox_loc_flat"
  bottom: "fc7_mbox_loc_flat"
  bottom: "conv6_2_mbox_loc_flat"
  bottom: "conv7_2_mbox_loc_flat"
  bottom: "conv8_2_mbox_loc_flat"
  bottom: "conv9_2_mbox_loc_flat"
  top: "mbox_loc"
  concat_param {
    axis: 1
  }
}
layer {
  name: "mbox_conf"
  type: "Concat"
  bottom: "conv4_3_norm_mbox_conf_flat"
  bottom: "fc7_mbox_conf_flat"
  bottom: "conv6_2_mbox_conf_flat"
  bottom: "conv7_2_mbox_conf_flat"
  bottom: "conv8_2_mbox_conf_flat"
  bottom: "conv9_2_mbox_conf_flat"
  top: "mbox_conf"
  concat_param {
    axis: 1
  }
}
layer {
  name: "mbox_priorbox"
  type: "Concat"
  bottom: "conv4_3_norm_mbox_priorbox"
  bottom: "fc7_mbox_priorbox"
  bottom: "conv6_2_mbox_priorbox"
  bottom: "conv7_2_mbox_priorbox"
  bottom: "conv8_2_mbox_priorbox"
  bottom: "conv9_2_mbox_priorbox"
  top: "mbox_priorbox"
  concat_param {
    axis: 2
  }
}
layer {
  name: "mbox_loss"
  type: "MultiBoxLoss"
  bottom: "mbox_loc"
  bottom: "mbox_conf"
  bottom: "mbox_priorbox"
  bottom: "label"
  top: "mbox_loss"
  include {
    phase: TRAIN
  }
  propagate_down: true
  propagate_down: true
  propagate_down: false
  propagate_down: false
  loss_param {
    normalization: VALID
  }
  multibox_loss_param {
    loc_loss_type: SMOOTH_L1
    conf_loss_type: SOFTMAX
    loc_weight: 1
    num_classes: 22
    share_location: true
    match_type: PER_PREDICTION
    overlap_threshold: 0.5
    use_prior_for_matching: true
    background_label_id: 0
    use_difficult_gt: true
    neg_pos_ratio: 3
    neg_overlap: 0.5
    code_type: CENTER_SIZE
    ignore_cross_boundary_bbox: false
    mining_type: MAX_NEGATIVE
  }
}
I0122 22:58:15.932951 11460 layer_factory.hpp:77] Creating layer data
I0122 22:58:15.933410 11460 net.cpp:100] Creating Layer data
I0122 22:58:15.933428 11460 net.cpp:408] data -> data
I0122 22:58:15.933465 11460 net.cpp:408] data -> label
I0122 22:58:15.934487 11477 db_lmdb.cpp:35] Opened lmdb examples/VOC0712/VOC0712_trainval_lmdb
I0122 22:58:15.946344 11460 annotated_data_layer.cpp:62] output data size: 32,3,300,300
I0122 22:58:16.001699 11460 net.cpp:150] Setting up data
I0122 22:58:16.001736 11460 net.cpp:157] Top shape: 32 3 300 300 (8640000)
I0122 22:58:16.001766 11460 net.cpp:157] Top shape: 1 1 1 8 (8)
I0122 22:58:16.001771 11460 net.cpp:165] Memory required for data: 34560032
I0122 22:58:16.001783 11460 layer_factory.hpp:77] Creating layer data_data_0_split
I0122 22:58:16.001804 11460 net.cpp:100] Creating Layer data_data_0_split
I0122 22:58:16.001811 11460 net.cpp:434] data_data_0_split <- data
I0122 22:58:16.001827 11460 net.cpp:408] data_data_0_split -> data_data_0_split_0
I0122 22:58:16.001838 11460 net.cpp:408] data_data_0_split -> data_data_0_split_1
I0122 22:58:16.001845 11460 net.cpp:408] data_data_0_split -> data_data_0_split_2
I0122 22:58:16.001852 11460 net.cpp:408] data_data_0_split -> data_data_0_split_3
I0122 22:58:16.001857 11460 net.cpp:408] data_data_0_split -> data_data_0_split_4
I0122 22:58:16.001863 11460 net.cpp:408] data_data_0_split -> data_data_0_split_5
I0122 22:58:16.001868 11460 net.cpp:408] data_data_0_split -> data_data_0_split_6
I0122 22:58:16.001999 11460 net.cpp:150] Setting up data_data_0_split
I0122 22:58:16.002010 11460 net.cpp:157] Top shape: 32 3 300 300 (8640000)
I0122 22:58:16.002015 11460 net.cpp:157] Top shape: 32 3 300 300 (8640000)
I0122 22:58:16.002020 11460 net.cpp:157] Top shape: 32 3 300 300 (8640000)
I0122 22:58:16.002024 11460 net.cpp:157] Top shape: 32 3 300 300 (8640000)
I0122 22:58:16.002028 11460 net.cpp:157] Top shape: 32 3 300 300 (8640000)
I0122 22:58:16.002033 11460 net.cpp:157] Top shape: 32 3 300 300 (8640000)
I0122 22:58:16.002043 11460 net.cpp:157] Top shape: 32 3 300 300 (8640000)
I0122 22:58:16.002046 11460 net.cpp:165] Memory required for data: 276480032
I0122 22:58:16.002051 11460 layer_factory.hpp:77] Creating layer conv1_1
I0122 22:58:16.002071 11460 net.cpp:100] Creating Layer conv1_1
I0122 22:58:16.002075 11460 net.cpp:434] conv1_1 <- data_data_0_split_0
I0122 22:58:16.002081 11460 net.cpp:408] conv1_1 -> conv1_1
I0122 22:58:16.060734 11478 blocking_queue.cpp:50] Waiting for data
I0122 22:58:16.173737 11460 net.cpp:150] Setting up conv1_1
I0122 22:58:16.173773 11460 net.cpp:157] Top shape: 32 64 300 300 (184320000)
I0122 22:58:16.173779 11460 net.cpp:165] Memory required for data: 1013760032
I0122 22:58:16.173801 11460 layer_factory.hpp:77] Creating layer relu1_1
I0122 22:58:16.173812 11460 net.cpp:100] Creating Layer relu1_1
I0122 22:58:16.173818 11460 net.cpp:434] relu1_1 <- conv1_1
I0122 22:58:16.173825 11460 net.cpp:395] relu1_1 -> conv1_1 (in-place)
I0122 22:58:16.174155 11460 net.cpp:150] Setting up relu1_1
I0122 22:58:16.174171 11460 net.cpp:157] Top shape: 32 64 300 300 (184320000)
I0122 22:58:16.174175 11460 net.cpp:165] Memory required for data: 1751040032
I0122 22:58:16.174180 11460 layer_factory.hpp:77] Creating layer conv1_2
I0122 22:58:16.174196 11460 net.cpp:100] Creating Layer conv1_2
I0122 22:58:16.174201 11460 net.cpp:434] conv1_2 <- conv1_1
I0122 22:58:16.174209 11460 net.cpp:408] conv1_2 -> conv1_2
I0122 22:58:16.176031 11460 net.cpp:150] Setting up conv1_2
I0122 22:58:16.176048 11460 net.cpp:157] Top shape: 32 64 300 300 (184320000)
I0122 22:58:16.176054 11460 net.cpp:165] Memory required for data: 2488320032
I0122 22:58:16.176065 11460 layer_factory.hpp:77] Creating layer relu1_2
I0122 22:58:16.176072 11460 net.cpp:100] Creating Layer relu1_2
I0122 22:58:16.176077 11460 net.cpp:434] relu1_2 <- conv1_2
I0122 22:58:16.176084 11460 net.cpp:395] relu1_2 -> conv1_2 (in-place)
I0122 22:58:16.176379 11460 net.cpp:150] Setting up relu1_2
I0122 22:58:16.176393 11460 net.cpp:157] Top shape: 32 64 300 300 (184320000)
I0122 22:58:16.176398 11460 net.cpp:165] Memory required for data: 3225600032
I0122 22:58:16.176403 11460 layer_factory.hpp:77] Creating layer pool1
I0122 22:58:16.176409 11460 net.cpp:100] Creating Layer pool1
I0122 22:58:16.176414 11460 net.cpp:434] pool1 <- conv1_2
I0122 22:58:16.176421 11460 net.cpp:408] pool1 -> pool1
I0122 22:58:16.176479 11460 net.cpp:150] Setting up pool1
I0122 22:58:16.176489 11460 net.cpp:157] Top shape: 32 64 150 150 (46080000)
I0122 22:58:16.176492 11460 net.cpp:165] Memory required for data: 3409920032
I0122 22:58:16.176496 11460 layer_factory.hpp:77] Creating layer conv2_1
I0122 22:58:16.176527 11460 net.cpp:100] Creating Layer conv2_1
I0122 22:58:16.176532 11460 net.cpp:434] conv2_1 <- pool1
I0122 22:58:16.176539 11460 net.cpp:408] conv2_1 -> conv2_1
I0122 22:58:16.178203 11460 net.cpp:150] Setting up conv2_1
I0122 22:58:16.178220 11460 net.cpp:157] Top shape: 32 128 150 150 (92160000)
I0122 22:58:16.178225 11460 net.cpp:165] Memory required for data: 3778560032
I0122 22:58:16.178234 11460 layer_factory.hpp:77] Creating layer relu2_1
I0122 22:58:16.178244 11460 net.cpp:100] Creating Layer relu2_1
I0122 22:58:16.178248 11460 net.cpp:434] relu2_1 <- conv2_1
I0122 22:58:16.178254 11460 net.cpp:395] relu2_1 -> conv2_1 (in-place)
I0122 22:58:16.178438 11460 net.cpp:150] Setting up relu2_1
I0122 22:58:16.178450 11460 net.cpp:157] Top shape: 32 128 150 150 (92160000)
I0122 22:58:16.178454 11460 net.cpp:165] Memory required for data: 4147200032
I0122 22:58:16.178458 11460 layer_factory.hpp:77] Creating layer conv2_2
I0122 22:58:16.178473 11460 net.cpp:100] Creating Layer conv2_2
I0122 22:58:16.178478 11460 net.cpp:434] conv2_2 <- conv2_1
I0122 22:58:16.178484 11460 net.cpp:408] conv2_2 -> conv2_2
I0122 22:58:16.181052 11460 net.cpp:150] Setting up conv2_2
I0122 22:58:16.181068 11460 net.cpp:157] Top shape: 32 128 150 150 (92160000)
I0122 22:58:16.181073 11460 net.cpp:165] Memory required for data: 4515840032
I0122 22:58:16.181080 11460 layer_factory.hpp:77] Creating layer relu2_2
I0122 22:58:16.181087 11460 net.cpp:100] Creating Layer relu2_2
I0122 22:58:16.181090 11460 net.cpp:434] relu2_2 <- conv2_2
I0122 22:58:16.181098 11460 net.cpp:395] relu2_2 -> conv2_2 (in-place)
I0122 22:58:16.181403 11460 net.cpp:150] Setting up relu2_2
I0122 22:58:16.181417 11460 net.cpp:157] Top shape: 32 128 150 150 (92160000)
I0122 22:58:16.181421 11460 net.cpp:165] Memory required for data: 4884480032
I0122 22:58:16.181426 11460 layer_factory.hpp:77] Creating layer pool2
I0122 22:58:16.181432 11460 net.cpp:100] Creating Layer pool2
I0122 22:58:16.181437 11460 net.cpp:434] pool2 <- conv2_2
I0122 22:58:16.181443 11460 net.cpp:408] pool2 -> pool2
I0122 22:58:16.181489 11460 net.cpp:150] Setting up pool2
I0122 22:58:16.181496 11460 net.cpp:157] Top shape: 32 128 75 75 (23040000)
I0122 22:58:16.181500 11460 net.cpp:165] Memory required for data: 4976640032
I0122 22:58:16.181504 11460 layer_factory.hpp:77] Creating layer conv3_1
I0122 22:58:16.181514 11460 net.cpp:100] Creating Layer conv3_1
I0122 22:58:16.181519 11460 net.cpp:434] conv3_1 <- pool2
I0122 22:58:16.181526 11460 net.cpp:408] conv3_1 -> conv3_1
I0122 22:58:16.185616 11460 net.cpp:150] Setting up conv3_1
I0122 22:58:16.185633 11460 net.cpp:157] Top shape: 32 256 75 75 (46080000)
I0122 22:58:16.185638 11460 net.cpp:165] Memory required for data: 5160960032
I0122 22:58:16.185650 11460 layer_factory.hpp:77] Creating layer relu3_1
I0122 22:58:16.185657 11460 net.cpp:100] Creating Layer relu3_1
I0122 22:58:16.185662 11460 net.cpp:434] relu3_1 <- conv3_1
I0122 22:58:16.185667 11460 net.cpp:395] relu3_1 -> conv3_1 (in-place)
I0122 22:58:16.185966 11460 net.cpp:150] Setting up relu3_1
I0122 22:58:16.185981 11460 net.cpp:157] Top shape: 32 256 75 75 (46080000)
I0122 22:58:16.185984 11460 net.cpp:165] Memory required for data: 5345280032
I0122 22:58:16.185988 11460 layer_factory.hpp:77] Creating layer conv3_2
I0122 22:58:16.186000 11460 net.cpp:100] Creating Layer conv3_2
I0122 22:58:16.186004 11460 net.cpp:434] conv3_2 <- conv3_1
I0122 22:58:16.186012 11460 net.cpp:408] conv3_2 -> conv3_2
I0122 22:58:16.192144 11460 net.cpp:150] Setting up conv3_2
I0122 22:58:16.192162 11460 net.cpp:157] Top shape: 32 256 75 75 (46080000)
I0122 22:58:16.192167 11460 net.cpp:165] Memory required for data: 5529600032
I0122 22:58:16.192173 11460 layer_factory.hpp:77] Creating layer relu3_2
I0122 22:58:16.192181 11460 net.cpp:100] Creating Layer relu3_2
I0122 22:58:16.192186 11460 net.cpp:434] relu3_2 <- conv3_2
I0122 22:58:16.192193 11460 net.cpp:395] relu3_2 -> conv3_2 (in-place)
I0122 22:58:16.192366 11460 net.cpp:150] Setting up relu3_2
I0122 22:58:16.192378 11460 net.cpp:157] Top shape: 32 256 75 75 (46080000)
I0122 22:58:16.192394 11460 net.cpp:165] Memory required for data: 5713920032
I0122 22:58:16.192399 11460 layer_factory.hpp:77] Creating layer conv3_3
I0122 22:58:16.192414 11460 net.cpp:100] Creating Layer conv3_3
I0122 22:58:16.192417 11460 net.cpp:434] conv3_3 <- conv3_2
I0122 22:58:16.192425 11460 net.cpp:408] conv3_3 -> conv3_3
I0122 22:58:16.198540 11460 net.cpp:150] Setting up conv3_3
I0122 22:58:16.198559 11460 net.cpp:157] Top shape: 32 256 75 75 (46080000)
I0122 22:58:16.198563 11460 net.cpp:165] Memory required for data: 5898240032
I0122 22:58:16.198570 11460 layer_factory.hpp:77] Creating layer relu3_3
I0122 22:58:16.198577 11460 net.cpp:100] Creating Layer relu3_3
I0122 22:58:16.198581 11460 net.cpp:434] relu3_3 <- conv3_3
I0122 22:58:16.198587 11460 net.cpp:395] relu3_3 -> conv3_3 (in-place)
I0122 22:58:16.198900 11460 net.cpp:150] Setting up relu3_3
I0122 22:58:16.198915 11460 net.cpp:157] Top shape: 32 256 75 75 (46080000)
I0122 22:58:16.198920 11460 net.cpp:165] Memory required for data: 6082560032
I0122 22:58:16.198923 11460 layer_factory.hpp:77] Creating layer pool3
I0122 22:58:16.198930 11460 net.cpp:100] Creating Layer pool3
I0122 22:58:16.198935 11460 net.cpp:434] pool3 <- conv3_3
I0122 22:58:16.198942 11460 net.cpp:408] pool3 -> pool3
I0122 22:58:16.198988 11460 net.cpp:150] Setting up pool3
I0122 22:58:16.198994 11460 net.cpp:157] Top shape: 32 256 38 38 (11829248)
I0122 22:58:16.198998 11460 net.cpp:165] Memory required for data: 6129877024
I0122 22:58:16.199002 11460 layer_factory.hpp:77] Creating layer conv4_1
I0122 22:58:16.199013 11460 net.cpp:100] Creating Layer conv4_1
I0122 22:58:16.199018 11460 net.cpp:434] conv4_1 <- pool3
I0122 22:58:16.199023 11460 net.cpp:408] conv4_1 -> conv4_1
I0122 22:58:16.210530 11460 net.cpp:150] Setting up conv4_1
I0122 22:58:16.210551 11460 net.cpp:157] Top shape: 32 512 38 38 (23658496)
I0122 22:58:16.210554 11460 net.cpp:165] Memory required for data: 6224511008
I0122 22:58:16.210561 11460 layer_factory.hpp:77] Creating layer relu4_1
I0122 22:58:16.210568 11460 net.cpp:100] Creating Layer relu4_1
I0122 22:58:16.210572 11460 net.cpp:434] relu4_1 <- conv4_1
I0122 22:58:16.210580 11460 net.cpp:395] relu4_1 -> conv4_1 (in-place)
I0122 22:58:16.210896 11460 net.cpp:150] Setting up relu4_1
I0122 22:58:16.210911 11460 net.cpp:157] Top shape: 32 512 38 38 (23658496)
I0122 22:58:16.210914 11460 net.cpp:165] Memory required for data: 6319144992
I0122 22:58:16.210919 11460 layer_factory.hpp:77] Creating layer conv4_2
I0122 22:58:16.210932 11460 net.cpp:100] Creating Layer conv4_2
I0122 22:58:16.210937 11460 net.cpp:434] conv4_2 <- conv4_1
I0122 22:58:16.210943 11460 net.cpp:408] conv4_2 -> conv4_2
I0122 22:58:16.231937 11460 net.cpp:150] Setting up conv4_2
I0122 22:58:16.231963 11460 net.cpp:157] Top shape: 32 512 38 38 (23658496)
I0122 22:58:16.231968 11460 net.cpp:165] Memory required for data: 6413778976
I0122 22:58:16.231983 11460 layer_factory.hpp:77] Creating layer relu4_2
I0122 22:58:16.231993 11460 net.cpp:100] Creating Layer relu4_2
I0122 22:58:16.231998 11460 net.cpp:434] relu4_2 <- conv4_2
I0122 22:58:16.232007 11460 net.cpp:395] relu4_2 -> conv4_2 (in-place)
I0122 22:58:16.232194 11460 net.cpp:150] Setting up relu4_2
I0122 22:58:16.232205 11460 net.cpp:157] Top shape: 32 512 38 38 (23658496)
I0122 22:58:16.232209 11460 net.cpp:165] Memory required for data: 6508412960
I0122 22:58:16.232214 11460 layer_factory.hpp:77] Creating layer conv4_3
I0122 22:58:16.232226 11460 net.cpp:100] Creating Layer conv4_3
I0122 22:58:16.232230 11460 net.cpp:434] conv4_3 <- conv4_2
I0122 22:58:16.232239 11460 net.cpp:408] conv4_3 -> conv4_3
I0122 22:58:16.253948 11460 net.cpp:150] Setting up conv4_3
I0122 22:58:16.253975 11460 net.cpp:157] Top shape: 32 512 38 38 (23658496)
I0122 22:58:16.253980 11460 net.cpp:165] Memory required for data: 6603046944
I0122 22:58:16.253988 11460 layer_factory.hpp:77] Creating layer relu4_3
I0122 22:58:16.253998 11460 net.cpp:100] Creating Layer relu4_3
I0122 22:58:16.254004 11460 net.cpp:434] relu4_3 <- conv4_3
I0122 22:58:16.254032 11460 net.cpp:395] relu4_3 -> conv4_3 (in-place)
I0122 22:58:16.254356 11460 net.cpp:150] Setting up relu4_3
I0122 22:58:16.254371 11460 net.cpp:157] Top shape: 32 512 38 38 (23658496)
I0122 22:58:16.254375 11460 net.cpp:165] Memory required for data: 6697680928
I0122 22:58:16.254379 11460 layer_factory.hpp:77] Creating layer conv4_3_relu4_3_0_split
I0122 22:58:16.254389 11460 net.cpp:100] Creating Layer conv4_3_relu4_3_0_split
I0122 22:58:16.254392 11460 net.cpp:434] conv4_3_relu4_3_0_split <- conv4_3
I0122 22:58:16.254398 11460 net.cpp:408] conv4_3_relu4_3_0_split -> conv4_3_relu4_3_0_split_0
I0122 22:58:16.254406 11460 net.cpp:408] conv4_3_relu4_3_0_split -> conv4_3_relu4_3_0_split_1
I0122 22:58:16.254453 11460 net.cpp:150] Setting up conv4_3_relu4_3_0_split
I0122 22:58:16.254459 11460 net.cpp:157] Top shape: 32 512 38 38 (23658496)
I0122 22:58:16.254464 11460 net.cpp:157] Top shape: 32 512 38 38 (23658496)
I0122 22:58:16.254467 11460 net.cpp:165] Memory required for data: 6886948896
I0122 22:58:16.254472 11460 layer_factory.hpp:77] Creating layer pool4
I0122 22:58:16.254478 11460 net.cpp:100] Creating Layer pool4
I0122 22:58:16.254482 11460 net.cpp:434] pool4 <- conv4_3_relu4_3_0_split_0
I0122 22:58:16.254492 11460 net.cpp:408] pool4 -> pool4
I0122 22:58:16.254532 11460 net.cpp:150] Setting up pool4
I0122 22:58:16.254539 11460 net.cpp:157] Top shape: 32 512 19 19 (5914624)
I0122 22:58:16.254541 11460 net.cpp:165] Memory required for data: 6910607392
I0122 22:58:16.254545 11460 layer_factory.hpp:77] Creating layer conv5_1
I0122 22:58:16.254559 11460 net.cpp:100] Creating Layer conv5_1
I0122 22:58:16.254562 11460 net.cpp:434] conv5_1 <- pool4
I0122 22:58:16.254568 11460 net.cpp:408] conv5_1 -> conv5_1
I0122 22:58:16.277614 11460 net.cpp:150] Setting up conv5_1
I0122 22:58:16.277642 11460 net.cpp:157] Top shape: 32 512 19 19 (5914624)
I0122 22:58:16.277648 11460 net.cpp:165] Memory required for data: 6934265888
I0122 22:58:16.277657 11460 layer_factory.hpp:77] Creating layer relu5_1
I0122 22:58:16.277667 11460 net.cpp:100] Creating Layer relu5_1
I0122 22:58:16.277671 11460 net.cpp:434] relu5_1 <- conv5_1
I0122 22:58:16.277678 11460 net.cpp:395] relu5_1 -> conv5_1 (in-place)
I0122 22:58:16.277987 11460 net.cpp:150] Setting up relu5_1
I0122 22:58:16.278002 11460 net.cpp:157] Top shape: 32 512 19 19 (5914624)
I0122 22:58:16.278005 11460 net.cpp:165] Memory required for data: 6957924384
I0122 22:58:16.278009 11460 layer_factory.hpp:77] Creating layer conv5_2
I0122 22:58:16.278022 11460 net.cpp:100] Creating Layer conv5_2
I0122 22:58:16.278026 11460 net.cpp:434] conv5_2 <- conv5_1
I0122 22:58:16.278034 11460 net.cpp:408] conv5_2 -> conv5_2
I0122 22:58:16.299358 11460 net.cpp:150] Setting up conv5_2
I0122 22:58:16.299384 11460 net.cpp:157] Top shape: 32 512 19 19 (5914624)
I0122 22:58:16.299389 11460 net.cpp:165] Memory required for data: 6981582880
I0122 22:58:16.299397 11460 layer_factory.hpp:77] Creating layer relu5_2
I0122 22:58:16.299408 11460 net.cpp:100] Creating Layer relu5_2
I0122 22:58:16.299414 11460 net.cpp:434] relu5_2 <- conv5_2
I0122 22:58:16.299422 11460 net.cpp:395] relu5_2 -> conv5_2 (in-place)
I0122 22:58:16.299600 11460 net.cpp:150] Setting up relu5_2
I0122 22:58:16.299612 11460 net.cpp:157] Top shape: 32 512 19 19 (5914624)
I0122 22:58:16.299616 11460 net.cpp:165] Memory required for data: 7005241376
I0122 22:58:16.299620 11460 layer_factory.hpp:77] Creating layer conv5_3
I0122 22:58:16.299633 11460 net.cpp:100] Creating Layer conv5_3
I0122 22:58:16.299638 11460 net.cpp:434] conv5_3 <- conv5_2
I0122 22:58:16.299646 11460 net.cpp:408] conv5_3 -> conv5_3
I0122 22:58:16.320927 11460 net.cpp:150] Setting up conv5_3
I0122 22:58:16.320966 11460 net.cpp:157] Top shape: 32 512 19 19 (5914624)
I0122 22:58:16.320971 11460 net.cpp:165] Memory required for data: 7028899872
I0122 22:58:16.320981 11460 layer_factory.hpp:77] Creating layer relu5_3
I0122 22:58:16.320996 11460 net.cpp:100] Creating Layer relu5_3
I0122 22:58:16.321002 11460 net.cpp:434] relu5_3 <- conv5_3
I0122 22:58:16.321036 11460 net.cpp:395] relu5_3 -> conv5_3 (in-place)
I0122 22:58:16.321355 11460 net.cpp:150] Setting up relu5_3
I0122 22:58:16.321370 11460 net.cpp:157] Top shape: 32 512 19 19 (5914624)
I0122 22:58:16.321374 11460 net.cpp:165] Memory required for data: 7052558368
I0122 22:58:16.321379 11460 layer_factory.hpp:77] Creating layer pool5
I0122 22:58:16.321386 11460 net.cpp:100] Creating Layer pool5
I0122 22:58:16.321391 11460 net.cpp:434] pool5 <- conv5_3
I0122 22:58:16.321398 11460 net.cpp:408] pool5 -> pool5
I0122 22:58:16.321449 11460 net.cpp:150] Setting up pool5
I0122 22:58:16.321458 11460 net.cpp:157] Top shape: 32 512 19 19 (5914624)
I0122 22:58:16.321461 11460 net.cpp:165] Memory required for data: 7076216864
I0122 22:58:16.321465 11460 layer_factory.hpp:77] Creating layer fc6
I0122 22:58:16.321480 11460 net.cpp:100] Creating Layer fc6
I0122 22:58:16.321485 11460 net.cpp:434] fc6 <- pool5
I0122 22:58:16.321491 11460 net.cpp:408] fc6 -> fc6
I0122 22:58:16.363842 11460 net.cpp:150] Setting up fc6
I0122 22:58:16.363878 11460 net.cpp:157] Top shape: 32 1024 19 19 (11829248)
I0122 22:58:16.363883 11460 net.cpp:165] Memory required for data: 7123533856
I0122 22:58:16.363893 11460 layer_factory.hpp:77] Creating layer relu6
I0122 22:58:16.363903 11460 net.cpp:100] Creating Layer relu6
I0122 22:58:16.363910 11460 net.cpp:434] relu6 <- fc6
I0122 22:58:16.363919 11460 net.cpp:395] relu6 -> fc6 (in-place)
I0122 22:58:16.364163 11460 net.cpp:150] Setting up relu6
I0122 22:58:16.364176 11460 net.cpp:157] Top shape: 32 1024 19 19 (11829248)
I0122 22:58:16.364179 11460 net.cpp:165] Memory required for data: 7170850848
I0122 22:58:16.364183 11460 layer_factory.hpp:77] Creating layer fc7
I0122 22:58:16.364197 11460 net.cpp:100] Creating Layer fc7
I0122 22:58:16.364202 11460 net.cpp:434] fc7 <- fc6
I0122 22:58:16.364209 11460 net.cpp:408] fc7 -> fc7
I0122 22:58:16.374328 11460 net.cpp:150] Setting up fc7
I0122 22:58:16.374346 11460 net.cpp:157] Top shape: 32 1024 19 19 (11829248)
I0122 22:58:16.374351 11460 net.cpp:165] Memory required for data: 7218167840
I0122 22:58:16.374357 11460 layer_factory.hpp:77] Creating layer relu7
I0122 22:58:16.374364 11460 net.cpp:100] Creating Layer relu7
I0122 22:58:16.374368 11460 net.cpp:434] relu7 <- fc7
I0122 22:58:16.374378 11460 net.cpp:395] relu7 -> fc7 (in-place)
I0122 22:58:16.374693 11460 net.cpp:150] Setting up relu7
I0122 22:58:16.374708 11460 net.cpp:157] Top shape: 32 1024 19 19 (11829248)
I0122 22:58:16.374712 11460 net.cpp:165] Memory required for data: 7265484832
I0122 22:58:16.374716 11460 layer_factory.hpp:77] Creating layer fc7_relu7_0_split
I0122 22:58:16.374724 11460 net.cpp:100] Creating Layer fc7_relu7_0_split
I0122 22:58:16.374728 11460 net.cpp:434] fc7_relu7_0_split <- fc7
I0122 22:58:16.374735 11460 net.cpp:408] fc7_relu7_0_split -> fc7_relu7_0_split_0
I0122 22:58:16.374743 11460 net.cpp:408] fc7_relu7_0_split -> fc7_relu7_0_split_1
I0122 22:58:16.374755 11460 net.cpp:408] fc7_relu7_0_split -> fc7_relu7_0_split_2
I0122 22:58:16.374761 11460 net.cpp:408] fc7_relu7_0_split -> fc7_relu7_0_split_3
I0122 22:58:16.374832 11460 net.cpp:150] Setting up fc7_relu7_0_split
I0122 22:58:16.374841 11460 net.cpp:157] Top shape: 32 1024 19 19 (11829248)
I0122 22:58:16.374847 11460 net.cpp:157] Top shape: 32 1024 19 19 (11829248)
I0122 22:58:16.374852 11460 net.cpp:157] Top shape: 32 1024 19 19 (11829248)
I0122 22:58:16.374856 11460 net.cpp:157] Top shape: 32 1024 19 19 (11829248)
I0122 22:58:16.374860 11460 net.cpp:165] Memory required for data: 7454752800
I0122 22:58:16.374863 11460 layer_factory.hpp:77] Creating layer conv6_1
I0122 22:58:16.374874 11460 net.cpp:100] Creating Layer conv6_1
I0122 22:58:16.374879 11460 net.cpp:434] conv6_1 <- fc7_relu7_0_split_0
I0122 22:58:16.374886 11460 net.cpp:408] conv6_1 -> conv6_1
I0122 22:58:16.378330 11460 net.cpp:150] Setting up conv6_1
I0122 22:58:16.378347 11460 net.cpp:157] Top shape: 32 256 19 19 (2957312)
I0122 22:58:16.378351 11460 net.cpp:165] Memory required for data: 7466582048
I0122 22:58:16.378360 11460 layer_factory.hpp:77] Creating layer conv6_1_relu
I0122 22:58:16.378388 11460 net.cpp:100] Creating Layer conv6_1_relu
I0122 22:58:16.378394 11460 net.cpp:434] conv6_1_relu <- conv6_1
I0122 22:58:16.378401 11460 net.cpp:395] conv6_1_relu -> conv6_1 (in-place)
I0122 22:58:16.378726 11460 net.cpp:150] Setting up conv6_1_relu
I0122 22:58:16.378741 11460 net.cpp:157] Top shape: 32 256 19 19 (2957312)
I0122 22:58:16.378746 11460 net.cpp:165] Memory required for data: 7478411296
I0122 22:58:16.378749 11460 layer_factory.hpp:77] Creating layer conv6_2
I0122 22:58:16.378762 11460 net.cpp:100] Creating Layer conv6_2
I0122 22:58:16.378767 11460 net.cpp:434] conv6_2 <- conv6_1
I0122 22:58:16.378774 11460 net.cpp:408] conv6_2 -> conv6_2
I0122 22:58:16.389935 11460 net.cpp:150] Setting up conv6_2
I0122 22:58:16.389952 11460 net.cpp:157] Top shape: 32 512 10 10 (1638400)
I0122 22:58:16.389957 11460 net.cpp:165] Memory required for data: 7484964896
I0122 22:58:16.389972 11460 layer_factory.hpp:77] Creating layer conv6_2_relu
I0122 22:58:16.389981 11460 net.cpp:100] Creating Layer conv6_2_relu
I0122 22:58:16.389986 11460 net.cpp:434] conv6_2_relu <- conv6_2
I0122 22:58:16.389991 11460 net.cpp:395] conv6_2_relu -> conv6_2 (in-place)
I0122 22:58:16.390171 11460 net.cpp:150] Setting up conv6_2_relu
I0122 22:58:16.390182 11460 net.cpp:157] Top shape: 32 512 10 10 (1638400)
I0122 22:58:16.390187 11460 net.cpp:165] Memory required for data: 7491518496
I0122 22:58:16.390190 11460 layer_factory.hpp:77] Creating layer conv6_2_conv6_2_relu_0_split
I0122 22:58:16.390197 11460 net.cpp:100] Creating Layer conv6_2_conv6_2_relu_0_split
I0122 22:58:16.390200 11460 net.cpp:434] conv6_2_conv6_2_relu_0_split <- conv6_2
I0122 22:58:16.390208 11460 net.cpp:408] conv6_2_conv6_2_relu_0_split -> conv6_2_conv6_2_relu_0_split_0
I0122 22:58:16.390215 11460 net.cpp:408] conv6_2_conv6_2_relu_0_split -> conv6_2_conv6_2_relu_0_split_1
I0122 22:58:16.390223 11460 net.cpp:408] conv6_2_conv6_2_relu_0_split -> conv6_2_conv6_2_relu_0_split_2
I0122 22:58:16.390228 11460 net.cpp:408] conv6_2_conv6_2_relu_0_split -> conv6_2_conv6_2_relu_0_split_3
I0122 22:58:16.390319 11460 net.cpp:150] Setting up conv6_2_conv6_2_relu_0_split
I0122 22:58:16.390338 11460 net.cpp:157] Top shape: 32 512 10 10 (1638400)
I0122 22:58:16.390343 11460 net.cpp:157] Top shape: 32 512 10 10 (1638400)
I0122 22:58:16.390347 11460 net.cpp:157] Top shape: 32 512 10 10 (1638400)
I0122 22:58:16.390352 11460 net.cpp:157] Top shape: 32 512 10 10 (1638400)
I0122 22:58:16.390354 11460 net.cpp:165] Memory required for data: 7517732896
I0122 22:58:16.390358 11460 layer_factory.hpp:77] Creating layer conv7_1
I0122 22:58:16.390369 11460 net.cpp:100] Creating Layer conv7_1
I0122 22:58:16.390374 11460 net.cpp:434] conv7_1 <- conv6_2_conv6_2_relu_0_split_0
I0122 22:58:16.390383 11460 net.cpp:408] conv7_1 -> conv7_1
I0122 22:58:16.391957 11460 net.cpp:150] Setting up conv7_1
I0122 22:58:16.391973 11460 net.cpp:157] Top shape: 32 128 10 10 (409600)
I0122 22:58:16.391978 11460 net.cpp:165] Memory required for data: 7519371296
I0122 22:58:16.391984 11460 layer_factory.hpp:77] Creating layer conv7_1_relu
I0122 22:58:16.391993 11460 net.cpp:100] Creating Layer conv7_1_relu
I0122 22:58:16.391999 11460 net.cpp:434] conv7_1_relu <- conv7_1
I0122 22:58:16.392004 11460 net.cpp:395] conv7_1_relu -> conv7_1 (in-place)
I0122 22:58:16.392316 11460 net.cpp:150] Setting up conv7_1_relu
I0122 22:58:16.392330 11460 net.cpp:157] Top shape: 32 128 10 10 (409600)
I0122 22:58:16.392334 11460 net.cpp:165] Memory required for data: 7521009696
I0122 22:58:16.392339 11460 layer_factory.hpp:77] Creating layer conv7_2
I0122 22:58:16.392352 11460 net.cpp:100] Creating Layer conv7_2
I0122 22:58:16.392356 11460 net.cpp:434] conv7_2 <- conv7_1
I0122 22:58:16.392364 11460 net.cpp:408] conv7_2 -> conv7_2
I0122 22:58:16.395946 11460 net.cpp:150] Setting up conv7_2
I0122 22:58:16.395963 11460 net.cpp:157] Top shape: 32 256 5 5 (204800)
I0122 22:58:16.395967 11460 net.cpp:165] Memory required for data: 7521828896
I0122 22:58:16.395975 11460 layer_factory.hpp:77] Creating layer conv7_2_relu
I0122 22:58:16.395995 11460 net.cpp:100] Creating Layer conv7_2_relu
I0122 22:58:16.396001 11460 net.cpp:434] conv7_2_relu <- conv7_2
I0122 22:58:16.396006 11460 net.cpp:395] conv7_2_relu -> conv7_2 (in-place)
I0122 22:58:16.396327 11460 net.cpp:150] Setting up conv7_2_relu
I0122 22:58:16.396342 11460 net.cpp:157] Top shape: 32 256 5 5 (204800)
I0122 22:58:16.396347 11460 net.cpp:165] Memory required for data: 7522648096
I0122 22:58:16.396350 11460 layer_factory.hpp:77] Creating layer conv7_2_conv7_2_relu_0_split
I0122 22:58:16.396358 11460 net.cpp:100] Creating Layer conv7_2_conv7_2_relu_0_split
I0122 22:58:16.396363 11460 net.cpp:434] conv7_2_conv7_2_relu_0_split <- conv7_2
I0122 22:58:16.396369 11460 net.cpp:408] conv7_2_conv7_2_relu_0_split -> conv7_2_conv7_2_relu_0_split_0
I0122 22:58:16.396378 11460 net.cpp:408] conv7_2_conv7_2_relu_0_split -> conv7_2_conv7_2_relu_0_split_1
I0122 22:58:16.396384 11460 net.cpp:408] conv7_2_conv7_2_relu_0_split -> conv7_2_conv7_2_relu_0_split_2
I0122 22:58:16.396389 11460 net.cpp:408] conv7_2_conv7_2_relu_0_split -> conv7_2_conv7_2_relu_0_split_3
I0122 22:58:16.396463 11460 net.cpp:150] Setting up conv7_2_conv7_2_relu_0_split
I0122 22:58:16.396472 11460 net.cpp:157] Top shape: 32 256 5 5 (204800)
I0122 22:58:16.396477 11460 net.cpp:157] Top shape: 32 256 5 5 (204800)
I0122 22:58:16.396481 11460 net.cpp:157] Top shape: 32 256 5 5 (204800)
I0122 22:58:16.396486 11460 net.cpp:157] Top shape: 32 256 5 5 (204800)
I0122 22:58:16.396489 11460 net.cpp:165] Memory required for data: 7525924896
I0122 22:58:16.396493 11460 layer_factory.hpp:77] Creating layer conv8_1
I0122 22:58:16.396503 11460 net.cpp:100] Creating Layer conv8_1
I0122 22:58:16.396508 11460 net.cpp:434] conv8_1 <- conv7_2_conv7_2_relu_0_split_0
I0122 22:58:16.396517 11460 net.cpp:408] conv8_1 -> conv8_1
I0122 22:58:16.397828 11460 net.cpp:150] Setting up conv8_1
I0122 22:58:16.397845 11460 net.cpp:157] Top shape: 32 128 5 5 (102400)
I0122 22:58:16.397848 11460 net.cpp:165] Memory required for data: 7526334496
I0122 22:58:16.397855 11460 layer_factory.hpp:77] Creating layer conv8_1_relu
I0122 22:58:16.397864 11460 net.cpp:100] Creating Layer conv8_1_relu
I0122 22:58:16.397868 11460 net.cpp:434] conv8_1_relu <- conv8_1
I0122 22:58:16.397876 11460 net.cpp:395] conv8_1_relu -> conv8_1 (in-place)
I0122 22:58:16.398054 11460 net.cpp:150] Setting up conv8_1_relu
I0122 22:58:16.398066 11460 net.cpp:157] Top shape: 32 128 5 5 (102400)
I0122 22:58:16.398071 11460 net.cpp:165] Memory required for data: 7526744096
I0122 22:58:16.398073 11460 layer_factory.hpp:77] Creating layer conv8_2
I0122 22:58:16.398088 11460 net.cpp:100] Creating Layer conv8_2
I0122 22:58:16.398093 11460 net.cpp:434] conv8_2 <- conv8_1
I0122 22:58:16.398099 11460 net.cpp:408] conv8_2 -> conv8_2
I0122 22:58:16.401814 11460 net.cpp:150] Setting up conv8_2
I0122 22:58:16.401831 11460 net.cpp:157] Top shape: 32 256 3 3 (73728)
I0122 22:58:16.401836 11460 net.cpp:165] Memory required for data: 7527039008
I0122 22:58:16.401844 11460 layer_factory.hpp:77] Creating layer conv8_2_relu
I0122 22:58:16.401851 11460 net.cpp:100] Creating Layer conv8_2_relu
I0122 22:58:16.401856 11460 net.cpp:434] conv8_2_relu <- conv8_2
I0122 22:58:16.401862 11460 net.cpp:395] conv8_2_relu -> conv8_2 (in-place)
I0122 22:58:16.402178 11460 net.cpp:150] Setting up conv8_2_relu
I0122 22:58:16.402191 11460 net.cpp:157] Top shape: 32 256 3 3 (73728)
I0122 22:58:16.402195 11460 net.cpp:165] Memory required for data: 7527333920
I0122 22:58:16.402199 11460 layer_factory.hpp:77] Creating layer conv8_2_conv8_2_relu_0_split
I0122 22:58:16.402212 11460 net.cpp:100] Creating Layer conv8_2_conv8_2_relu_0_split
I0122 22:58:16.402216 11460 net.cpp:434] conv8_2_conv8_2_relu_0_split <- conv8_2
I0122 22:58:16.402222 11460 net.cpp:408] conv8_2_conv8_2_relu_0_split -> conv8_2_conv8_2_relu_0_split_0
I0122 22:58:16.402230 11460 net.cpp:408] conv8_2_conv8_2_relu_0_split -> conv8_2_conv8_2_relu_0_split_1
I0122 22:58:16.402236 11460 net.cpp:408] conv8_2_conv8_2_relu_0_split -> conv8_2_conv8_2_relu_0_split_2
I0122 22:58:16.402253 11460 net.cpp:408] conv8_2_conv8_2_relu_0_split -> conv8_2_conv8_2_relu_0_split_3
I0122 22:58:16.402336 11460 net.cpp:150] Setting up conv8_2_conv8_2_relu_0_split
I0122 22:58:16.402349 11460 net.cpp:157] Top shape: 32 256 3 3 (73728)
I0122 22:58:16.402354 11460 net.cpp:157] Top shape: 32 256 3 3 (73728)
I0122 22:58:16.402357 11460 net.cpp:157] Top shape: 32 256 3 3 (73728)
I0122 22:58:16.402361 11460 net.cpp:157] Top shape: 32 256 3 3 (73728)
I0122 22:58:16.402365 11460 net.cpp:165] Memory required for data: 7528513568
I0122 22:58:16.402369 11460 layer_factory.hpp:77] Creating layer conv9_1
I0122 22:58:16.402379 11460 net.cpp:100] Creating Layer conv9_1
I0122 22:58:16.402384 11460 net.cpp:434] conv9_1 <- conv8_2_conv8_2_relu_0_split_0
I0122 22:58:16.402392 11460 net.cpp:408] conv9_1 -> conv9_1
I0122 22:58:16.403585 11460 net.cpp:150] Setting up conv9_1
I0122 22:58:16.403601 11460 net.cpp:157] Top shape: 32 128 3 3 (36864)
I0122 22:58:16.403605 11460 net.cpp:165] Memory required for data: 7528661024
I0122 22:58:16.403612 11460 layer_factory.hpp:77] Creating layer conv9_1_relu
I0122 22:58:16.403619 11460 net.cpp:100] Creating Layer conv9_1_relu
I0122 22:58:16.403623 11460 net.cpp:434] conv9_1_relu <- conv9_1
I0122 22:58:16.403630 11460 net.cpp:395] conv9_1_relu -> conv9_1 (in-place)
I0122 22:58:16.403950 11460 net.cpp:150] Setting up conv9_1_relu
I0122 22:58:16.403964 11460 net.cpp:157] Top shape: 32 128 3 3 (36864)
I0122 22:58:16.403969 11460 net.cpp:165] Memory required for data: 7528808480
I0122 22:58:16.403972 11460 layer_factory.hpp:77] Creating layer conv9_2
I0122 22:58:16.403985 11460 net.cpp:100] Creating Layer conv9_2
I0122 22:58:16.403990 11460 net.cpp:434] conv9_2 <- conv9_1
I0122 22:58:16.403997 11460 net.cpp:408] conv9_2 -> conv9_2
I0122 22:58:16.407721 11460 net.cpp:150] Setting up conv9_2
I0122 22:58:16.407737 11460 net.cpp:157] Top shape: 32 256 1 1 (8192)
I0122 22:58:16.407742 11460 net.cpp:165] Memory required for data: 7528841248
I0122 22:58:16.407749 11460 layer_factory.hpp:77] Creating layer conv9_2_relu
I0122 22:58:16.407757 11460 net.cpp:100] Creating Layer conv9_2_relu
I0122 22:58:16.407763 11460 net.cpp:434] conv9_2_relu <- conv9_2
I0122 22:58:16.407768 11460 net.cpp:395] conv9_2_relu -> conv9_2 (in-place)
I0122 22:58:16.407950 11460 net.cpp:150] Setting up conv9_2_relu
I0122 22:58:16.407963 11460 net.cpp:157] Top shape: 32 256 1 1 (8192)
I0122 22:58:16.407966 11460 net.cpp:165] Memory required for data: 7528874016
I0122 22:58:16.407970 11460 layer_factory.hpp:77] Creating layer conv9_2_conv9_2_relu_0_split
I0122 22:58:16.407979 11460 net.cpp:100] Creating Layer conv9_2_conv9_2_relu_0_split
I0122 22:58:16.407982 11460 net.cpp:434] conv9_2_conv9_2_relu_0_split <- conv9_2
I0122 22:58:16.407989 11460 net.cpp:408] conv9_2_conv9_2_relu_0_split -> conv9_2_conv9_2_relu_0_split_0
I0122 22:58:16.407996 11460 net.cpp:408] conv9_2_conv9_2_relu_0_split -> conv9_2_conv9_2_relu_0_split_1
I0122 22:58:16.408004 11460 net.cpp:408] conv9_2_conv9_2_relu_0_split -> conv9_2_conv9_2_relu_0_split_2
I0122 22:58:16.408064 11460 net.cpp:150] Setting up conv9_2_conv9_2_relu_0_split
I0122 22:58:16.408072 11460 net.cpp:157] Top shape: 32 256 1 1 (8192)
I0122 22:58:16.408077 11460 net.cpp:157] Top shape: 32 256 1 1 (8192)
I0122 22:58:16.408082 11460 net.cpp:157] Top shape: 32 256 1 1 (8192)
I0122 22:58:16.408084 11460 net.cpp:165] Memory required for data: 7528972320
I0122 22:58:16.408088 11460 layer_factory.hpp:77] Creating layer conv4_3_norm
I0122 22:58:16.408097 11460 net.cpp:100] Creating Layer conv4_3_norm
I0122 22:58:16.408102 11460 net.cpp:434] conv4_3_norm <- conv4_3_relu4_3_0_split_1
I0122 22:58:16.408108 11460 net.cpp:408] conv4_3_norm -> conv4_3_norm
I0122 22:58:16.408277 11460 net.cpp:150] Setting up conv4_3_norm
I0122 22:58:16.408285 11460 net.cpp:157] Top shape: 32 512 38 38 (23658496)
I0122 22:58:16.408289 11460 net.cpp:165] Memory required for data: 7623606304
I0122 22:58:16.408295 11460 layer_factory.hpp:77] Creating layer conv4_3_norm_conv4_3_norm_0_split
I0122 22:58:16.408303 11460 net.cpp:100] Creating Layer conv4_3_norm_conv4_3_norm_0_split
I0122 22:58:16.408318 11460 net.cpp:434] conv4_3_norm_conv4_3_norm_0_split <- conv4_3_norm
I0122 22:58:16.408324 11460 net.cpp:408] conv4_3_norm_conv4_3_norm_0_split -> conv4_3_norm_conv4_3_norm_0_split_0
I0122 22:58:16.408331 11460 net.cpp:408] conv4_3_norm_conv4_3_norm_0_split -> conv4_3_norm_conv4_3_norm_0_split_1
I0122 22:58:16.408337 11460 net.cpp:408] conv4_3_norm_conv4_3_norm_0_split -> conv4_3_norm_conv4_3_norm_0_split_2
I0122 22:58:16.408390 11460 net.cpp:150] Setting up conv4_3_norm_conv4_3_norm_0_split
I0122 22:58:16.408399 11460 net.cpp:157] Top shape: 32 512 38 38 (23658496)
I0122 22:58:16.408403 11460 net.cpp:157] Top shape: 32 512 38 38 (23658496)
I0122 22:58:16.408408 11460 net.cpp:157] Top shape: 32 512 38 38 (23658496)
I0122 22:58:16.408411 11460 net.cpp:165] Memory required for data: 7907508256
I0122 22:58:16.408416 11460 layer_factory.hpp:77] Creating layer conv4_3_norm_mbox_loc
I0122 22:58:16.408427 11460 net.cpp:100] Creating Layer conv4_3_norm_mbox_loc
I0122 22:58:16.408430 11460 net.cpp:434] conv4_3_norm_mbox_loc <- conv4_3_norm_conv4_3_norm_0_split_0
I0122 22:58:16.408437 11460 net.cpp:408] conv4_3_norm_mbox_loc -> conv4_3_norm_mbox_loc
I0122 22:58:16.410207 11460 net.cpp:150] Setting up conv4_3_norm_mbox_loc
I0122 22:58:16.410223 11460 net.cpp:157] Top shape: 32 16 38 38 (739328)
I0122 22:58:16.410228 11460 net.cpp:165] Memory required for data: 7910465568
I0122 22:58:16.410234 11460 layer_factory.hpp:77] Creating layer conv4_3_norm_mbox_loc_perm
I0122 22:58:16.410243 11460 net.cpp:100] Creating Layer conv4_3_norm_mbox_loc_perm
I0122 22:58:16.410248 11460 net.cpp:434] conv4_3_norm_mbox_loc_perm <- conv4_3_norm_mbox_loc
I0122 22:58:16.410255 11460 net.cpp:408] conv4_3_norm_mbox_loc_perm -> conv4_3_norm_mbox_loc_perm
I0122 22:58:16.410385 11460 net.cpp:150] Setting up conv4_3_norm_mbox_loc_perm
I0122 22:58:16.410395 11460 net.cpp:157] Top shape: 32 38 38 16 (739328)
I0122 22:58:16.410399 11460 net.cpp:165] Memory required for data: 7913422880
I0122 22:58:16.410403 11460 layer_factory.hpp:77] Creating layer conv4_3_norm_mbox_loc_flat
I0122 22:58:16.410418 11460 net.cpp:100] Creating Layer conv4_3_norm_mbox_loc_flat
I0122 22:58:16.410423 11460 net.cpp:434] conv4_3_norm_mbox_loc_flat <- conv4_3_norm_mbox_loc_perm
I0122 22:58:16.410429 11460 net.cpp:408] conv4_3_norm_mbox_loc_flat -> conv4_3_norm_mbox_loc_flat
I0122 22:58:16.410466 11460 net.cpp:150] Setting up conv4_3_norm_mbox_loc_flat
I0122 22:58:16.410475 11460 net.cpp:157] Top shape: 32 23104 (739328)
I0122 22:58:16.410480 11460 net.cpp:165] Memory required for data: 7916380192
I0122 22:58:16.410483 11460 layer_factory.hpp:77] Creating layer conv4_3_norm_mbox_conf
I0122 22:58:16.410501 11460 net.cpp:100] Creating Layer conv4_3_norm_mbox_conf
I0122 22:58:16.410506 11460 net.cpp:434] conv4_3_norm_mbox_conf <- conv4_3_norm_conv4_3_norm_0_split_1
I0122 22:58:16.410513 11460 net.cpp:408] conv4_3_norm_mbox_conf -> conv4_3_norm_mbox_conf
I0122 22:58:16.415158 11460 net.cpp:150] Setting up conv4_3_norm_mbox_conf
I0122 22:58:16.415174 11460 net.cpp:157] Top shape: 32 88 38 38 (4066304)
I0122 22:58:16.415179 11460 net.cpp:165] Memory required for data: 7932645408
I0122 22:58:16.415186 11460 layer_factory.hpp:77] Creating layer conv4_3_norm_mbox_conf_perm
I0122 22:58:16.415195 11460 net.cpp:100] Creating Layer conv4_3_norm_mbox_conf_perm
I0122 22:58:16.415200 11460 net.cpp:434] conv4_3_norm_mbox_conf_perm <- conv4_3_norm_mbox_conf
I0122 22:58:16.415207 11460 net.cpp:408] conv4_3_norm_mbox_conf_perm -> conv4_3_norm_mbox_conf_perm
I0122 22:58:16.415328 11460 net.cpp:150] Setting up conv4_3_norm_mbox_conf_perm
I0122 22:58:16.415338 11460 net.cpp:157] Top shape: 32 38 38 88 (4066304)
I0122 22:58:16.415343 11460 net.cpp:165] Memory required for data: 7948910624
I0122 22:58:16.415346 11460 layer_factory.hpp:77] Creating layer conv4_3_norm_mbox_conf_flat
I0122 22:58:16.415354 11460 net.cpp:100] Creating Layer conv4_3_norm_mbox_conf_flat
I0122 22:58:16.415357 11460 net.cpp:434] conv4_3_norm_mbox_conf_flat <- conv4_3_norm_mbox_conf_perm
I0122 22:58:16.415375 11460 net.cpp:408] conv4_3_norm_mbox_conf_flat -> conv4_3_norm_mbox_conf_flat
I0122 22:58:16.415407 11460 net.cpp:150] Setting up conv4_3_norm_mbox_conf_flat
I0122 22:58:16.415415 11460 net.cpp:157] Top shape: 32 127072 (4066304)
I0122 22:58:16.415417 11460 net.cpp:165] Memory required for data: 7965175840
I0122 22:58:16.415421 11460 layer_factory.hpp:77] Creating layer conv4_3_norm_mbox_priorbox
I0122 22:58:16.415428 11460 net.cpp:100] Creating Layer conv4_3_norm_mbox_priorbox
I0122 22:58:16.415432 11460 net.cpp:434] conv4_3_norm_mbox_priorbox <- conv4_3_norm_conv4_3_norm_0_split_2
I0122 22:58:16.415438 11460 net.cpp:434] conv4_3_norm_mbox_priorbox <- data_data_0_split_1
I0122 22:58:16.415446 11460 net.cpp:408] conv4_3_norm_mbox_priorbox -> conv4_3_norm_mbox_priorbox
I0122 22:58:16.415479 11460 net.cpp:150] Setting up conv4_3_norm_mbox_priorbox
I0122 22:58:16.415489 11460 net.cpp:157] Top shape: 1 2 23104 (46208)
I0122 22:58:16.415493 11460 net.cpp:165] Memory required for data: 7965360672
I0122 22:58:16.415498 11460 layer_factory.hpp:77] Creating layer fc7_mbox_loc
I0122 22:58:16.415508 11460 net.cpp:100] Creating Layer fc7_mbox_loc
I0122 22:58:16.415513 11460 net.cpp:434] fc7_mbox_loc <- fc7_relu7_0_split_1
I0122 22:58:16.415521 11460 net.cpp:408] fc7_mbox_loc -> fc7_mbox_loc
I0122 22:58:16.418701 11460 net.cpp:150] Setting up fc7_mbox_loc
I0122 22:58:16.418718 11460 net.cpp:157] Top shape: 32 24 19 19 (277248)
I0122 22:58:16.418722 11460 net.cpp:165] Memory required for data: 7966469664
I0122 22:58:16.418730 11460 layer_factory.hpp:77] Creating layer fc7_mbox_loc_perm
I0122 22:58:16.418740 11460 net.cpp:100] Creating Layer fc7_mbox_loc_perm
I0122 22:58:16.418745 11460 net.cpp:434] fc7_mbox_loc_perm <- fc7_mbox_loc
I0122 22:58:16.418751 11460 net.cpp:408] fc7_mbox_loc_perm -> fc7_mbox_loc_perm
I0122 22:58:16.418866 11460 net.cpp:150] Setting up fc7_mbox_loc_perm
I0122 22:58:16.418875 11460 net.cpp:157] Top shape: 32 19 19 24 (277248)
I0122 22:58:16.418879 11460 net.cpp:165] Memory required for data: 7967578656
I0122 22:58:16.418884 11460 layer_factory.hpp:77] Creating layer fc7_mbox_loc_flat
I0122 22:58:16.418889 11460 net.cpp:100] Creating Layer fc7_mbox_loc_flat
I0122 22:58:16.418893 11460 net.cpp:434] fc7_mbox_loc_flat <- fc7_mbox_loc_perm
I0122 22:58:16.418900 11460 net.cpp:408] fc7_mbox_loc_flat -> fc7_mbox_loc_flat
I0122 22:58:16.418928 11460 net.cpp:150] Setting up fc7_mbox_loc_flat
I0122 22:58:16.418934 11460 net.cpp:157] Top shape: 32 8664 (277248)
I0122 22:58:16.418938 11460 net.cpp:165] Memory required for data: 7968687648
I0122 22:58:16.418941 11460 layer_factory.hpp:77] Creating layer fc7_mbox_conf
I0122 22:58:16.418952 11460 net.cpp:100] Creating Layer fc7_mbox_conf
I0122 22:58:16.418957 11460 net.cpp:434] fc7_mbox_conf <- fc7_relu7_0_split_2
I0122 22:58:16.418965 11460 net.cpp:408] fc7_mbox_conf -> fc7_mbox_conf
I0122 22:58:16.430236 11460 net.cpp:150] Setting up fc7_mbox_conf
I0122 22:58:16.430255 11460 net.cpp:157] Top shape: 32 132 19 19 (1524864)
I0122 22:58:16.430260 11460 net.cpp:165] Memory required for data: 7974787104
I0122 22:58:16.430268 11460 layer_factory.hpp:77] Creating layer fc7_mbox_conf_perm
I0122 22:58:16.430274 11460 net.cpp:100] Creating Layer fc7_mbox_conf_perm
I0122 22:58:16.430279 11460 net.cpp:434] fc7_mbox_conf_perm <- fc7_mbox_conf
I0122 22:58:16.430289 11460 net.cpp:408] fc7_mbox_conf_perm -> fc7_mbox_conf_perm
I0122 22:58:16.430416 11460 net.cpp:150] Setting up fc7_mbox_conf_perm
I0122 22:58:16.430426 11460 net.cpp:157] Top shape: 32 19 19 132 (1524864)
I0122 22:58:16.430430 11460 net.cpp:165] Memory required for data: 7980886560
I0122 22:58:16.430434 11460 layer_factory.hpp:77] Creating layer fc7_mbox_conf_flat
I0122 22:58:16.430440 11460 net.cpp:100] Creating Layer fc7_mbox_conf_flat
I0122 22:58:16.430444 11460 net.cpp:434] fc7_mbox_conf_flat <- fc7_mbox_conf_perm
I0122 22:58:16.430450 11460 net.cpp:408] fc7_mbox_conf_flat -> fc7_mbox_conf_flat
I0122 22:58:16.430479 11460 net.cpp:150] Setting up fc7_mbox_conf_flat
I0122 22:58:16.430500 11460 net.cpp:157] Top shape: 32 47652 (1524864)
I0122 22:58:16.430503 11460 net.cpp:165] Memory required for data: 7986986016
I0122 22:58:16.430507 11460 layer_factory.hpp:77] Creating layer fc7_mbox_priorbox
I0122 22:58:16.430516 11460 net.cpp:100] Creating Layer fc7_mbox_priorbox
I0122 22:58:16.430521 11460 net.cpp:434] fc7_mbox_priorbox <- fc7_relu7_0_split_3
I0122 22:58:16.430526 11460 net.cpp:434] fc7_mbox_priorbox <- data_data_0_split_2
I0122 22:58:16.430531 11460 net.cpp:408] fc7_mbox_priorbox -> fc7_mbox_priorbox
I0122 22:58:16.430564 11460 net.cpp:150] Setting up fc7_mbox_priorbox
I0122 22:58:16.430575 11460 net.cpp:157] Top shape: 1 2 8664 (17328)
I0122 22:58:16.430579 11460 net.cpp:165] Memory required for data: 7987055328
I0122 22:58:16.430583 11460 layer_factory.hpp:77] Creating layer conv6_2_mbox_loc
I0122 22:58:16.430593 11460 net.cpp:100] Creating Layer conv6_2_mbox_loc
I0122 22:58:16.430598 11460 net.cpp:434] conv6_2_mbox_loc <- conv6_2_conv6_2_relu_0_split_1
I0122 22:58:16.430606 11460 net.cpp:408] conv6_2_mbox_loc -> conv6_2_mbox_loc
I0122 22:58:16.432983 11460 net.cpp:150] Setting up conv6_2_mbox_loc
I0122 22:58:16.433001 11460 net.cpp:157] Top shape: 32 24 10 10 (76800)
I0122 22:58:16.433004 11460 net.cpp:165] Memory required for data: 7987362528
I0122 22:58:16.433012 11460 layer_factory.hpp:77] Creating layer conv6_2_mbox_loc_perm
I0122 22:58:16.433020 11460 net.cpp:100] Creating Layer conv6_2_mbox_loc_perm
I0122 22:58:16.433027 11460 net.cpp:434] conv6_2_mbox_loc_perm <- conv6_2_mbox_loc
I0122 22:58:16.433032 11460 net.cpp:408] conv6_2_mbox_loc_perm -> conv6_2_mbox_loc_perm
I0122 22:58:16.433154 11460 net.cpp:150] Setting up conv6_2_mbox_loc_perm
I0122 22:58:16.433163 11460 net.cpp:157] Top shape: 32 10 10 24 (76800)
I0122 22:58:16.433167 11460 net.cpp:165] Memory required for data: 7987669728
I0122 22:58:16.433171 11460 layer_factory.hpp:77] Creating layer conv6_2_mbox_loc_flat
I0122 22:58:16.433177 11460 net.cpp:100] Creating Layer conv6_2_mbox_loc_flat
I0122 22:58:16.433182 11460 net.cpp:434] conv6_2_mbox_loc_flat <- conv6_2_mbox_loc_perm
I0122 22:58:16.433188 11460 net.cpp:408] conv6_2_mbox_loc_flat -> conv6_2_mbox_loc_flat
I0122 22:58:16.433215 11460 net.cpp:150] Setting up conv6_2_mbox_loc_flat
I0122 22:58:16.433223 11460 net.cpp:157] Top shape: 32 2400 (76800)
I0122 22:58:16.433225 11460 net.cpp:165] Memory required for data: 7987976928
I0122 22:58:16.433229 11460 layer_factory.hpp:77] Creating layer conv6_2_mbox_conf
I0122 22:58:16.433239 11460 net.cpp:100] Creating Layer conv6_2_mbox_conf
I0122 22:58:16.433243 11460 net.cpp:434] conv6_2_mbox_conf <- conv6_2_conv6_2_relu_0_split_2
I0122 22:58:16.433251 11460 net.cpp:408] conv6_2_mbox_conf -> conv6_2_mbox_conf
I0122 22:58:16.439760 11460 net.cpp:150] Setting up conv6_2_mbox_conf
I0122 22:58:16.439777 11460 net.cpp:157] Top shape: 32 132 10 10 (422400)
I0122 22:58:16.439782 11460 net.cpp:165] Memory required for data: 7989666528
I0122 22:58:16.439790 11460 layer_factory.hpp:77] Creating layer conv6_2_mbox_conf_perm
I0122 22:58:16.439798 11460 net.cpp:100] Creating Layer conv6_2_mbox_conf_perm
I0122 22:58:16.439805 11460 net.cpp:434] conv6_2_mbox_conf_perm <- conv6_2_mbox_conf
I0122 22:58:16.439811 11460 net.cpp:408] conv6_2_mbox_conf_perm -> conv6_2_mbox_conf_perm
I0122 22:58:16.439930 11460 net.cpp:150] Setting up conv6_2_mbox_conf_perm
I0122 22:58:16.439939 11460 net.cpp:157] Top shape: 32 10 10 132 (422400)
I0122 22:58:16.439944 11460 net.cpp:165] Memory required for data: 7991356128
I0122 22:58:16.439947 11460 layer_factory.hpp:77] Creating layer conv6_2_mbox_conf_flat
I0122 22:58:16.439954 11460 net.cpp:100] Creating Layer conv6_2_mbox_conf_flat
I0122 22:58:16.439959 11460 net.cpp:434] conv6_2_mbox_conf_flat <- conv6_2_mbox_conf_perm
I0122 22:58:16.439965 11460 net.cpp:408] conv6_2_mbox_conf_flat -> conv6_2_mbox_conf_flat
I0122 22:58:16.439993 11460 net.cpp:150] Setting up conv6_2_mbox_conf_flat
I0122 22:58:16.440001 11460 net.cpp:157] Top shape: 32 13200 (422400)
I0122 22:58:16.440004 11460 net.cpp:165] Memory required for data: 7993045728
I0122 22:58:16.440024 11460 layer_factory.hpp:77] Creating layer conv6_2_mbox_priorbox
I0122 22:58:16.440032 11460 net.cpp:100] Creating Layer conv6_2_mbox_priorbox
I0122 22:58:16.440035 11460 net.cpp:434] conv6_2_mbox_priorbox <- conv6_2_conv6_2_relu_0_split_3
I0122 22:58:16.440042 11460 net.cpp:434] conv6_2_mbox_priorbox <- data_data_0_split_3
I0122 22:58:16.440049 11460 net.cpp:408] conv6_2_mbox_priorbox -> conv6_2_mbox_priorbox
I0122 22:58:16.440081 11460 net.cpp:150] Setting up conv6_2_mbox_priorbox
I0122 22:58:16.440093 11460 net.cpp:157] Top shape: 1 2 2400 (4800)
I0122 22:58:16.440096 11460 net.cpp:165] Memory required for data: 7993064928
I0122 22:58:16.440100 11460 layer_factory.hpp:77] Creating layer conv7_2_mbox_loc
I0122 22:58:16.440111 11460 net.cpp:100] Creating Layer conv7_2_mbox_loc
I0122 22:58:16.440115 11460 net.cpp:434] conv7_2_mbox_loc <- conv7_2_conv7_2_relu_0_split_1
I0122 22:58:16.440121 11460 net.cpp:408] conv7_2_mbox_loc -> conv7_2_mbox_loc
I0122 22:58:16.442111 11460 net.cpp:150] Setting up conv7_2_mbox_loc
I0122 22:58:16.442128 11460 net.cpp:157] Top shape: 32 24 5 5 (19200)
I0122 22:58:16.442132 11460 net.cpp:165] Memory required for data: 7993141728
I0122 22:58:16.442139 11460 layer_factory.hpp:77] Creating layer conv7_2_mbox_loc_perm
I0122 22:58:16.442148 11460 net.cpp:100] Creating Layer conv7_2_mbox_loc_perm
I0122 22:58:16.442152 11460 net.cpp:434] conv7_2_mbox_loc_perm <- conv7_2_mbox_loc
I0122 22:58:16.442159 11460 net.cpp:408] conv7_2_mbox_loc_perm -> conv7_2_mbox_loc_perm
I0122 22:58:16.442278 11460 net.cpp:150] Setting up conv7_2_mbox_loc_perm
I0122 22:58:16.442287 11460 net.cpp:157] Top shape: 32 5 5 24 (19200)
I0122 22:58:16.442291 11460 net.cpp:165] Memory required for data: 7993218528
I0122 22:58:16.442301 11460 layer_factory.hpp:77] Creating layer conv7_2_mbox_loc_flat
I0122 22:58:16.442306 11460 net.cpp:100] Creating Layer conv7_2_mbox_loc_flat
I0122 22:58:16.442311 11460 net.cpp:434] conv7_2_mbox_loc_flat <- conv7_2_mbox_loc_perm
I0122 22:58:16.442317 11460 net.cpp:408] conv7_2_mbox_loc_flat -> conv7_2_mbox_loc_flat
I0122 22:58:16.442348 11460 net.cpp:150] Setting up conv7_2_mbox_loc_flat
I0122 22:58:16.442354 11460 net.cpp:157] Top shape: 32 600 (19200)
I0122 22:58:16.442358 11460 net.cpp:165] Memory required for data: 7993295328
I0122 22:58:16.442361 11460 layer_factory.hpp:77] Creating layer conv7_2_mbox_conf
I0122 22:58:16.442371 11460 net.cpp:100] Creating Layer conv7_2_mbox_conf
I0122 22:58:16.442376 11460 net.cpp:434] conv7_2_mbox_conf <- conv7_2_conv7_2_relu_0_split_2
I0122 22:58:16.442384 11460 net.cpp:408] conv7_2_mbox_conf -> conv7_2_mbox_conf
I0122 22:58:16.446234 11460 net.cpp:150] Setting up conv7_2_mbox_conf
I0122 22:58:16.446251 11460 net.cpp:157] Top shape: 32 132 5 5 (105600)
I0122 22:58:16.446256 11460 net.cpp:165] Memory required for data: 7993717728
I0122 22:58:16.446264 11460 layer_factory.hpp:77] Creating layer conv7_2_mbox_conf_perm
I0122 22:58:16.446271 11460 net.cpp:100] Creating Layer conv7_2_mbox_conf_perm
I0122 22:58:16.446276 11460 net.cpp:434] conv7_2_mbox_conf_perm <- conv7_2_mbox_conf
I0122 22:58:16.446283 11460 net.cpp:408] conv7_2_mbox_conf_perm -> conv7_2_mbox_conf_perm
I0122 22:58:16.446411 11460 net.cpp:150] Setting up conv7_2_mbox_conf_perm
I0122 22:58:16.446422 11460 net.cpp:157] Top shape: 32 5 5 132 (105600)
I0122 22:58:16.446425 11460 net.cpp:165] Memory required for data: 7994140128
I0122 22:58:16.446429 11460 layer_factory.hpp:77] Creating layer conv7_2_mbox_conf_flat
I0122 22:58:16.446435 11460 net.cpp:100] Creating Layer conv7_2_mbox_conf_flat
I0122 22:58:16.446440 11460 net.cpp:434] conv7_2_mbox_conf_flat <- conv7_2_mbox_conf_perm
I0122 22:58:16.446447 11460 net.cpp:408] conv7_2_mbox_conf_flat -> conv7_2_mbox_conf_flat
I0122 22:58:16.446477 11460 net.cpp:150] Setting up conv7_2_mbox_conf_flat
I0122 22:58:16.446485 11460 net.cpp:157] Top shape: 32 3300 (105600)
I0122 22:58:16.446490 11460 net.cpp:165] Memory required for data: 7994562528
I0122 22:58:16.446493 11460 layer_factory.hpp:77] Creating layer conv7_2_mbox_priorbox
I0122 22:58:16.446511 11460 net.cpp:100] Creating Layer conv7_2_mbox_priorbox
I0122 22:58:16.446516 11460 net.cpp:434] conv7_2_mbox_priorbox <- conv7_2_conv7_2_relu_0_split_3
I0122 22:58:16.446521 11460 net.cpp:434] conv7_2_mbox_priorbox <- data_data_0_split_4
I0122 22:58:16.446528 11460 net.cpp:408] conv7_2_mbox_priorbox -> conv7_2_mbox_priorbox
I0122 22:58:16.446563 11460 net.cpp:150] Setting up conv7_2_mbox_priorbox
I0122 22:58:16.446573 11460 net.cpp:157] Top shape: 1 2 600 (1200)
I0122 22:58:16.446576 11460 net.cpp:165] Memory required for data: 7994567328
I0122 22:58:16.446580 11460 layer_factory.hpp:77] Creating layer conv8_2_mbox_loc
I0122 22:58:16.446590 11460 net.cpp:100] Creating Layer conv8_2_mbox_loc
I0122 22:58:16.446595 11460 net.cpp:434] conv8_2_mbox_loc <- conv8_2_conv8_2_relu_0_split_1
I0122 22:58:16.446604 11460 net.cpp:408] conv8_2_mbox_loc -> conv8_2_mbox_loc
I0122 22:58:16.447902 11460 net.cpp:150] Setting up conv8_2_mbox_loc
I0122 22:58:16.447918 11460 net.cpp:157] Top shape: 32 16 3 3 (4608)
I0122 22:58:16.447922 11460 net.cpp:165] Memory required for data: 7994585760
I0122 22:58:16.447943 11460 layer_factory.hpp:77] Creating layer conv8_2_mbox_loc_perm
I0122 22:58:16.447952 11460 net.cpp:100] Creating Layer conv8_2_mbox_loc_perm
I0122 22:58:16.447957 11460 net.cpp:434] conv8_2_mbox_loc_perm <- conv8_2_mbox_loc
I0122 22:58:16.447964 11460 net.cpp:408] conv8_2_mbox_loc_perm -> conv8_2_mbox_loc_perm
I0122 22:58:16.448086 11460 net.cpp:150] Setting up conv8_2_mbox_loc_perm
I0122 22:58:16.448096 11460 net.cpp:157] Top shape: 32 3 3 16 (4608)
I0122 22:58:16.448099 11460 net.cpp:165] Memory required for data: 7994604192
I0122 22:58:16.448103 11460 layer_factory.hpp:77] Creating layer conv8_2_mbox_loc_flat
I0122 22:58:16.448110 11460 net.cpp:100] Creating Layer conv8_2_mbox_loc_flat
I0122 22:58:16.448115 11460 net.cpp:434] conv8_2_mbox_loc_flat <- conv8_2_mbox_loc_perm
I0122 22:58:16.448120 11460 net.cpp:408] conv8_2_mbox_loc_flat -> conv8_2_mbox_loc_flat
I0122 22:58:16.448149 11460 net.cpp:150] Setting up conv8_2_mbox_loc_flat
I0122 22:58:16.448158 11460 net.cpp:157] Top shape: 32 144 (4608)
I0122 22:58:16.448163 11460 net.cpp:165] Memory required for data: 7994622624
I0122 22:58:16.448165 11460 layer_factory.hpp:77] Creating layer conv8_2_mbox_conf
I0122 22:58:16.448180 11460 net.cpp:100] Creating Layer conv8_2_mbox_conf
I0122 22:58:16.448185 11460 net.cpp:434] conv8_2_mbox_conf <- conv8_2_conv8_2_relu_0_split_2
I0122 22:58:16.448192 11460 net.cpp:408] conv8_2_mbox_conf -> conv8_2_mbox_conf
I0122 22:58:16.451261 11460 net.cpp:150] Setting up conv8_2_mbox_conf
I0122 22:58:16.451277 11460 net.cpp:157] Top shape: 32 88 3 3 (25344)
I0122 22:58:16.451282 11460 net.cpp:165] Memory required for data: 7994724000
I0122 22:58:16.451288 11460 layer_factory.hpp:77] Creating layer conv8_2_mbox_conf_perm
I0122 22:58:16.451297 11460 net.cpp:100] Creating Layer conv8_2_mbox_conf_perm
I0122 22:58:16.451304 11460 net.cpp:434] conv8_2_mbox_conf_perm <- conv8_2_mbox_conf
I0122 22:58:16.451310 11460 net.cpp:408] conv8_2_mbox_conf_perm -> conv8_2_mbox_conf_perm
I0122 22:58:16.451433 11460 net.cpp:150] Setting up conv8_2_mbox_conf_perm
I0122 22:58:16.451442 11460 net.cpp:157] Top shape: 32 3 3 88 (25344)
I0122 22:58:16.451447 11460 net.cpp:165] Memory required for data: 7994825376
I0122 22:58:16.451450 11460 layer_factory.hpp:77] Creating layer conv8_2_mbox_conf_flat
I0122 22:58:16.451457 11460 net.cpp:100] Creating Layer conv8_2_mbox_conf_flat
I0122 22:58:16.451460 11460 net.cpp:434] conv8_2_mbox_conf_flat <- conv8_2_mbox_conf_perm
I0122 22:58:16.451468 11460 net.cpp:408] conv8_2_mbox_conf_flat -> conv8_2_mbox_conf_flat
I0122 22:58:16.451498 11460 net.cpp:150] Setting up conv8_2_mbox_conf_flat
I0122 22:58:16.451503 11460 net.cpp:157] Top shape: 32 792 (25344)
I0122 22:58:16.451508 11460 net.cpp:165] Memory required for data: 7994926752
I0122 22:58:16.451510 11460 layer_factory.hpp:77] Creating layer conv8_2_mbox_priorbox
I0122 22:58:16.451519 11460 net.cpp:100] Creating Layer conv8_2_mbox_priorbox
I0122 22:58:16.451524 11460 net.cpp:434] conv8_2_mbox_priorbox <- conv8_2_conv8_2_relu_0_split_3
I0122 22:58:16.451539 11460 net.cpp:434] conv8_2_mbox_priorbox <- data_data_0_split_5
I0122 22:58:16.451550 11460 net.cpp:408] conv8_2_mbox_priorbox -> conv8_2_mbox_priorbox
I0122 22:58:16.451581 11460 net.cpp:150] Setting up conv8_2_mbox_priorbox
I0122 22:58:16.451591 11460 net.cpp:157] Top shape: 1 2 144 (288)
I0122 22:58:16.451594 11460 net.cpp:165] Memory required for data: 7994927904
I0122 22:58:16.451598 11460 layer_factory.hpp:77] Creating layer conv9_2_mbox_loc
I0122 22:58:16.451611 11460 net.cpp:100] Creating Layer conv9_2_mbox_loc
I0122 22:58:16.451614 11460 net.cpp:434] conv9_2_mbox_loc <- conv9_2_conv9_2_relu_0_split_0
I0122 22:58:16.451622 11460 net.cpp:408] conv9_2_mbox_loc -> conv9_2_mbox_loc
I0122 22:58:16.453141 11460 net.cpp:150] Setting up conv9_2_mbox_loc
I0122 22:58:16.453158 11460 net.cpp:157] Top shape: 32 16 1 1 (512)
I0122 22:58:16.453162 11460 net.cpp:165] Memory required for data: 7994929952
I0122 22:58:16.453169 11460 layer_factory.hpp:77] Creating layer conv9_2_mbox_loc_perm
I0122 22:58:16.453177 11460 net.cpp:100] Creating Layer conv9_2_mbox_loc_perm
I0122 22:58:16.453181 11460 net.cpp:434] conv9_2_mbox_loc_perm <- conv9_2_mbox_loc
I0122 22:58:16.453189 11460 net.cpp:408] conv9_2_mbox_loc_perm -> conv9_2_mbox_loc_perm
I0122 22:58:16.453311 11460 net.cpp:150] Setting up conv9_2_mbox_loc_perm
I0122 22:58:16.453320 11460 net.cpp:157] Top shape: 32 1 1 16 (512)
I0122 22:58:16.453325 11460 net.cpp:165] Memory required for data: 7994932000
I0122 22:58:16.453328 11460 layer_factory.hpp:77] Creating layer conv9_2_mbox_loc_flat
I0122 22:58:16.453336 11460 net.cpp:100] Creating Layer conv9_2_mbox_loc_flat
I0122 22:58:16.453339 11460 net.cpp:434] conv9_2_mbox_loc_flat <- conv9_2_mbox_loc_perm
I0122 22:58:16.453346 11460 net.cpp:408] conv9_2_mbox_loc_flat -> conv9_2_mbox_loc_flat
I0122 22:58:16.453375 11460 net.cpp:150] Setting up conv9_2_mbox_loc_flat
I0122 22:58:16.453384 11460 net.cpp:157] Top shape: 32 16 (512)
I0122 22:58:16.453388 11460 net.cpp:165] Memory required for data: 7994934048
I0122 22:58:16.453392 11460 layer_factory.hpp:77] Creating layer conv9_2_mbox_conf
I0122 22:58:16.453402 11460 net.cpp:100] Creating Layer conv9_2_mbox_conf
I0122 22:58:16.453407 11460 net.cpp:434] conv9_2_mbox_conf <- conv9_2_conv9_2_relu_0_split_1
I0122 22:58:16.453418 11460 net.cpp:408] conv9_2_mbox_conf -> conv9_2_mbox_conf
I0122 22:58:16.456493 11460 net.cpp:150] Setting up conv9_2_mbox_conf
I0122 22:58:16.456511 11460 net.cpp:157] Top shape: 32 88 1 1 (2816)
I0122 22:58:16.456516 11460 net.cpp:165] Memory required for data: 7994945312
I0122 22:58:16.456522 11460 layer_factory.hpp:77] Creating layer conv9_2_mbox_conf_perm
I0122 22:58:16.456531 11460 net.cpp:100] Creating Layer conv9_2_mbox_conf_perm
I0122 22:58:16.456537 11460 net.cpp:434] conv9_2_mbox_conf_perm <- conv9_2_mbox_conf
I0122 22:58:16.456543 11460 net.cpp:408] conv9_2_mbox_conf_perm -> conv9_2_mbox_conf_perm
I0122 22:58:16.456667 11460 net.cpp:150] Setting up conv9_2_mbox_conf_perm
I0122 22:58:16.456677 11460 net.cpp:157] Top shape: 32 1 1 88 (2816)
I0122 22:58:16.456681 11460 net.cpp:165] Memory required for data: 7994956576
I0122 22:58:16.456684 11460 layer_factory.hpp:77] Creating layer conv9_2_mbox_conf_flat
I0122 22:58:16.456691 11460 net.cpp:100] Creating Layer conv9_2_mbox_conf_flat
I0122 22:58:16.456694 11460 net.cpp:434] conv9_2_mbox_conf_flat <- conv9_2_mbox_conf_perm
I0122 22:58:16.456701 11460 net.cpp:408] conv9_2_mbox_conf_flat -> conv9_2_mbox_conf_flat
I0122 22:58:16.456729 11460 net.cpp:150] Setting up conv9_2_mbox_conf_flat
I0122 22:58:16.456739 11460 net.cpp:157] Top shape: 32 88 (2816)
I0122 22:58:16.456743 11460 net.cpp:165] Memory required for data: 7994967840
I0122 22:58:16.456750 11460 layer_factory.hpp:77] Creating layer conv9_2_mbox_priorbox
I0122 22:58:16.456758 11460 net.cpp:100] Creating Layer conv9_2_mbox_priorbox
I0122 22:58:16.456763 11460 net.cpp:434] conv9_2_mbox_priorbox <- conv9_2_conv9_2_relu_0_split_2
I0122 22:58:16.456768 11460 net.cpp:434] conv9_2_mbox_priorbox <- data_data_0_split_6
I0122 22:58:16.456789 11460 net.cpp:408] conv9_2_mbox_priorbox -> conv9_2_mbox_priorbox
I0122 22:58:16.456821 11460 net.cpp:150] Setting up conv9_2_mbox_priorbox
I0122 22:58:16.456833 11460 net.cpp:157] Top shape: 1 2 16 (32)
I0122 22:58:16.456837 11460 net.cpp:165] Memory required for data: 7994967968
I0122 22:58:16.456841 11460 layer_factory.hpp:77] Creating layer mbox_loc
I0122 22:58:16.456857 11460 net.cpp:100] Creating Layer mbox_loc
I0122 22:58:16.456862 11460 net.cpp:434] mbox_loc <- conv4_3_norm_mbox_loc_flat
I0122 22:58:16.456868 11460 net.cpp:434] mbox_loc <- fc7_mbox_loc_flat
I0122 22:58:16.456873 11460 net.cpp:434] mbox_loc <- conv6_2_mbox_loc_flat
I0122 22:58:16.456878 11460 net.cpp:434] mbox_loc <- conv7_2_mbox_loc_flat
I0122 22:58:16.456882 11460 net.cpp:434] mbox_loc <- conv8_2_mbox_loc_flat
I0122 22:58:16.456887 11460 net.cpp:434] mbox_loc <- conv9_2_mbox_loc_flat
I0122 22:58:16.456892 11460 net.cpp:408] mbox_loc -> mbox_loc
I0122 22:58:16.456928 11460 net.cpp:150] Setting up mbox_loc
I0122 22:58:16.456936 11460 net.cpp:157] Top shape: 32 34928 (1117696)
I0122 22:58:16.456940 11460 net.cpp:165] Memory required for data: 7999438752
I0122 22:58:16.456943 11460 layer_factory.hpp:77] Creating layer mbox_conf
I0122 22:58:16.456950 11460 net.cpp:100] Creating Layer mbox_conf
I0122 22:58:16.456954 11460 net.cpp:434] mbox_conf <- conv4_3_norm_mbox_conf_flat
I0122 22:58:16.456959 11460 net.cpp:434] mbox_conf <- fc7_mbox_conf_flat
I0122 22:58:16.456964 11460 net.cpp:434] mbox_conf <- conv6_2_mbox_conf_flat
I0122 22:58:16.456969 11460 net.cpp:434] mbox_conf <- conv7_2_mbox_conf_flat
I0122 22:58:16.456974 11460 net.cpp:434] mbox_conf <- conv8_2_mbox_conf_flat
I0122 22:58:16.456979 11460 net.cpp:434] mbox_conf <- conv9_2_mbox_conf_flat
I0122 22:58:16.456984 11460 net.cpp:408] mbox_conf -> mbox_conf
I0122 22:58:16.457013 11460 net.cpp:150] Setting up mbox_conf
I0122 22:58:16.457020 11460 net.cpp:157] Top shape: 32 192104 (6147328)
I0122 22:58:16.457022 11460 net.cpp:165] Memory required for data: 8024028064
I0122 22:58:16.457026 11460 layer_factory.hpp:77] Creating layer mbox_priorbox
I0122 22:58:16.457031 11460 net.cpp:100] Creating Layer mbox_priorbox
I0122 22:58:16.457036 11460 net.cpp:434] mbox_priorbox <- conv4_3_norm_mbox_priorbox
I0122 22:58:16.457041 11460 net.cpp:434] mbox_priorbox <- fc7_mbox_priorbox
I0122 22:58:16.457046 11460 net.cpp:434] mbox_priorbox <- conv6_2_mbox_priorbox
I0122 22:58:16.457049 11460 net.cpp:434] mbox_priorbox <- conv7_2_mbox_priorbox
I0122 22:58:16.457054 11460 net.cpp:434] mbox_priorbox <- conv8_2_mbox_priorbox
I0122 22:58:16.457058 11460 net.cpp:434] mbox_priorbox <- conv9_2_mbox_priorbox
I0122 22:58:16.457064 11460 net.cpp:408] mbox_priorbox -> mbox_priorbox
I0122 22:58:16.457093 11460 net.cpp:150] Setting up mbox_priorbox
I0122 22:58:16.457098 11460 net.cpp:157] Top shape: 1 2 34928 (69856)
I0122 22:58:16.457101 11460 net.cpp:165] Memory required for data: 8024307488
I0122 22:58:16.457104 11460 layer_factory.hpp:77] Creating layer mbox_loss
I0122 22:58:16.457114 11460 net.cpp:100] Creating Layer mbox_loss
I0122 22:58:16.457118 11460 net.cpp:434] mbox_loss <- mbox_loc
I0122 22:58:16.457123 11460 net.cpp:434] mbox_loss <- mbox_conf
I0122 22:58:16.457128 11460 net.cpp:434] mbox_loss <- mbox_priorbox
…
state {
  phase: TEST
}
layer {
  name: "data"
  type: "AnnotatedData"
  top: "data"
  top: "label"
  include {
    phase: TEST
  }
  transform_param {
    mean_value: 104
    mean_value: 117
    mean_value: 123
    resize_param {
      prob: 1
      resize_mode: WARP
      height: 300
      width: 300
      interp_mode: LINEAR
    }
  }
  data_param {
    source: "examples/VOC0712/VOC0712_test_lmdb"
    batch_size: 16
    backend: LMDB
  }
  annotated_data_param {
    batch_sampler {
    }
    label_map_file: "data/VOC0712/labelmap_voc.prototxt"
  }
}
layer {
  name: "conv1_1"
  type: "Convolution"
  bottom: "data"
  top: "conv1_1"
  param {
    lr_mult: 1
    decay_mult: 1
  }
  param {
    lr_mult: 2
    decay_mult: 0
  }
  convolution_param {
    num_output: 64
    pad: 1
    kernel_size: 3
    weight_filler {
      type: "xavier"
    }
    bias_filler {
      type: "constant"
      value: 0
    }
  }
}
layer {
  name: "relu1_1"
  type: "ReLU"
  bottom: "conv1_1"
  top: "conv1_1"
}
layer {
  name: "conv1_2"
  type: "Convolution"
  bottom: "conv1_1"
  top: "conv1_2"
  param {
    lr_mult: 1
    decay_mult: 1
  }
  param {
    lr_mult: 2
    decay_mult: 0
  }
  convolution_param {
    num_output: 64
    pad: 1
    kernel_size: 3
    weight_filler {
      type: "xavier"
    }
    bias_filler {
      type: "constant"
      value: 0
    }
  }
}
layer {
  name: "relu1_2"
  type: "ReLU"
  bottom: "conv1_2"
  top: "conv1_2"
}
layer {
  name: "pool1"
  type: "Pooling"
  bottom: "conv1_2"
  top: "pool1"
  pooling_param {
    pool: MAX
    kernel_size: 2
    stride: 2
  }
}
layer {
  name: "conv2_1"
  type: "Convolution"
  bottom: "pool1"
  top: "conv2_1"
  param {
    lr_mult: 1
    decay_mult: 1
  }
  param {
    lr_mult: 2
    decay_mult: 0
  }
  convolution_param {
    num_output: 128
    pad: 1
    kernel_size: 3
    weight_filler {
      type: "xavier"
    }
    bias_filler {
      type: "constant"
      value: 0
    }
  }
}
layer {
  name: "relu2_1"
  type: "ReLU"
  bottom: "conv2_1"
  top: "conv2_1"
}
layer {
  name: "conv2_2"
  type: "Convolution"
  bottom: "conv2_1"
  top: "conv2_2"
  param {
    lr_mult: 1
    decay_mult: 1
  }
  param {
    lr_mult: 2
    decay_mult: 0
  }
  convolution_param {
    num_output: 128
    pad: 1
    kernel_size: 3
    weight_filler {
      type: "xavier"
    }
    bias_filler {
      type: "constant"
      value: 0
    }
  }
}
layer {
  name: "relu2_2"
  type: "ReLU"
  bottom: "conv2_2"
  top: "conv2_2"
}
layer {
  name: "pool2"
  type: "Pooling"
  bottom: "conv2_2"
  top: "pool2"
  pooling_param {
    pool: MAX
    kernel_size: 2
    stride: 2
  }
}
layer {
  name: "conv3_1"
  type: "Convolution"
  bottom: "pool2"
  top: "conv3_1"
  param {
    lr_mult: 1
    decay_mult: 1
  }
  param {
    lr_mult: 2
    decay_mult: 0
  }
  convolution_param {
    num_output: 256
    pad: 1
    kernel_size: 3
    weight_filler {
      type: "xavier"
    }
    bias_filler {
      type: "constant"
      value: 0
    }
  }
}
layer {
  name: "relu3_1"
  type: "ReLU"
  bottom: "conv3_1"
  top: "conv3_1"
}
layer {
  name: "conv3_2"
  type: "Convolution"
  bottom: "conv3_1"
  top: "conv3_2"
  param {
    lr_mult: 1
    decay_mult: 1
  }
  param {
    lr_mult: 2
    decay_mult: 0
  }
  convolution_param {
    num_output: 256
    pad: 1
    kernel_size: 3
    weight_filler {
      type: "xavier"
    }
    bias_filler {
      type: "constant"
      value: 0
    }
  }
}
layer {
  name: "relu3_2"
  type: "ReLU"
  bottom: "conv3_2"
  top: "conv3_2"
}
layer {
  name: "conv3_3"
  type: "Convolution"
  bottom: "conv3_2"
  top: "conv3_3"
  param {
    lr_mult: 1
    decay_mult: 1
  }
  param {
    lr_mult: 2
    decay_mult: 0
  }
  convolution_param {
    num_output: 256
    pad: 1
    kernel_size: 3
    weight_filler {
      type: "xavier"
    }
    bias_filler {
      type: "constant"
      value: 0
    }
  }
}
layer {
  name: "relu3_3"
  type: "ReLU"
  bottom: "conv3_3"
  top: "conv3_3"
}
layer {
  name: "pool3"
  type: "Pooling"
  bottom: "conv3_3"
  top: "pool3"
  pooling_param {
    pool: MAX
    kernel_size: 2
    stride: 2
  }
}
layer {
  name: "conv4_1"
  type: "Convolution"
  bottom: "pool3"
  top: "conv4_1"
  param {
    lr_mult: 1
    decay_mult: 1
  }
  param {
    lr_mult: 2
    decay_mult: 0
  }
  convolution_param {
    num_output: 512
    pad: 1
    kernel_size: 3
    weight_filler {
      type: "xavier"
    }
    bias_filler {
      type: "constant"
      value: 0
    }
  }
}
layer {
  name: "relu4_1"
  type: "ReLU"
  bottom: "conv4_1"
  top: "conv4_1"
}
layer {
  name: "conv4_2"
  type: "Convolution"
  bottom: "conv4_1"
  top: "conv4_2"
  param {
    lr_mult: 1
    decay_mult: 1
  }
  param {
    lr_mult: 2
    decay_mult: 0
  }
  convolution_param {
    num_output: 512
    pad: 1
    kernel_size: 3
    weight_filler {
      type: "xavier"
    }
    bias_filler {
      type: "constant"
      value: 0
    }
  }
}
layer {
  name: "relu4_2"
  type: "ReLU"
  bottom: "conv4_2"
  top: "conv4_2"
}
layer {
  name: "conv4_3"
  type: "Convolution"
  bottom: "conv4_2"
  top: "conv4_3"
  param {
    lr_mult: 1
    decay_mult: 1
  }
  param {
    lr_mult: 2
    decay_mult: 0
  }
  convolution_param {
    num_output: 512
    pad: 1
    kernel_size: 3
    weight_filler {
      type: "xavier"
    }
    bias_filler {
      type: "constant"
      value: 0
    }
  }
}
layer {
  name: "relu4_3"
  type: "ReLU"
  bottom: "conv4_3"
  top: "conv4_3"
}
layer {
  name: "pool4"
  type: "Pooling"
  bottom: "conv4_3"
  top: "pool4"
  pooling_param {
    pool: MAX
    kernel_size: 2
    stride: 2
  }
}
layer {
  name: "conv5_1"
  type: "Convolution"
  bottom: "pool4"
  top: "conv5_1"
  param {
    lr_mult: 1
    decay_mult: 1
  }
  param {
    lr_mult: 2
    decay_mult: 0
  }
  convolution_param {
    num_output: 512
    pad: 1
    kernel_size: 3
    weight_filler {
      type: "xavier"
    }
    bias_filler {
      type: "constant"
      value: 0
    }
    dilation: 1
  }
}
layer {
  name: "relu5_1"
  type: "ReLU"
  bottom: "conv5_1"
  top: "conv5_1"
}
layer {
  name: "conv5_2"
  type: "Convolution"
  bottom: "conv5_1"
  top: "conv5_2"
  param {
    lr_mult: 1
    decay_mult: 1
  }
  param {
    lr_mult: 2
    decay_mult: 0
  }
  convolution_param {
    num_output: 512
    pad: 1
    kernel_size: 3
    weight_filler {
      type: "xavier"
    }
    bias_filler {
      type: "constant"
      value: 0
    }
    dilation: 1
  }
}
layer {
  name: "relu5_2"
  type: "ReLU"
  bottom: "conv5_2"
  top: "conv5_2"
}
layer {
  name: "conv5_3"
  type: "Convolution"
  bottom: "conv5_2"
  top: "conv5_3"
  param {
    lr_mult: 1
    decay_mult: 1
  }
  param {
    lr_mult: 2
    decay_mult: 0
  }
  convolution_param {
    num_output: 512
    pad: 1
    kernel_size: 3
    weight_filler {
      type: "xavier"
    }
    bias_filler {
      type: "constant"
      value: 0
    }
    dilation: 1
  }
}
layer {
  name: "relu5_3"
  type: "ReLU"
  bottom: "conv5_3"
  top: "conv5_3"
}
layer {
  name: "pool5"
  type: "Pooling"
  bottom: "conv5_3"
  top: "pool5"
  pooling_param {
    pool: MAX
    kernel_size: 3
    stride: 1
    pad: 1
  }
}
layer {
  name: "fc6"
  type: "Convolution"
  bottom: "pool5"
  top: "fc6"
  param {
    lr_mult: 1
    decay_mult: 1
  }
  param {
    lr_mult: 2
    decay_mult: 0
  }
  convolution_param {
    num_output: 1024
    pad: 6
    kernel_size: 3
    weight_filler {
      type: "xavier"
    }
    bias_filler {
      type: "constant"
      value: 0
    }
    dilation: 6
  }
}
layer {
  name: "relu6"
  type: "ReLU"
  bottom: "fc6"
  top: "fc6"
}
layer {
  name: "fc7"
  type: "Convolution"
  bottom: "fc6"
  top: "fc7"
  param {
    lr_mult: 1
    decay_mult: 1
  }
  param {
    lr_mult: 2
    decay_mult: 0
  }
  convolution_param {
    num_output: 1024
    kernel_size: 1
    weight_filler {
      type: "xavier"
    }
    bias_filler {
      type: "constant"
      value: 0
    }
  }
}
layer {
  name: "relu7"
  type: "ReLU"
  bottom: "fc7"
  top: "fc7"
}
layer {
  name: "conv6_1"
  type: "Convolution"
  bottom: "fc7"
  top: "conv6_1"
  param {
    lr_mult: 1
    decay_mult: 1
  }
  param {
    lr_mult: 2
    decay_mult: 0
  }
  convolution_param {
    num_output: 256
    pad: 0
    kernel_size: 1
    stride: 1
    weight_filler {
      type: "xavier"
    }
    bias_filler {
      type: "constant"
      value: 0
    }
  }
}
layer {
  name: "conv6_1_relu"
  type: "ReLU"
  bottom: "conv6_1"
  top: "conv6_1"
}
layer {
  name: "conv6_2"
  type: "Convolution"
  bottom: "conv6_1"
  top: "conv6_2"
  param {
    lr_mult: 1
    decay_mult: 1
  }
  param {
    lr_mult: 2
    decay_mult: 0
  }
  convolution_param {
    num_output: 512
    pad: 1
    kernel_size: 3
    stride: 2
    weight_filler {
      type: "xavier"
    }
    bias_filler {
      type: "constant"
      value: 0
    }
  }
}
layer {
  name: "conv6_2_relu"
  type: "ReLU"
  bottom: "conv6_2"
  top: "conv6_2"
}
layer {
  name: "conv7_1"
  type: "Convolution"
  bottom: "conv6_2"
  top: "conv7_1"
  param {
    lr_mult: 1
    decay_mult: 1
  }
  param {
    lr_mult: 2
    decay_mult: 0
  }
  convolution_param {
    num_output: 128
    pad: 0
    kernel_size: 1
    stride: 1
    weight_filler {
      type: "xavier"
    }
    bias_filler {
      type: "constant"
      value: 0
    }
  }
}
layer {
  name: "conv7_1_relu"
  type: "ReLU"
  bottom: "conv7_1"
  top: "conv7_1"
}
layer {
  name: "conv7_2"
  type: "Convolution"
  bottom: "conv7_1"
  top: "conv7_2"
  param {
    lr_mult: 1
    decay_mult: 1
  }
  param {
    lr_mult: 2
    decay_mult: 0
  }
  convolution_param {
    num_output: 256
    pad: 1
    kernel_size: 3
    stride: 2
    weight_filler {
      type: "xavier"
    }
    bias_filler {
      type: "constant"
      value: 0
    }
  }
}
layer {
  name: "conv7_2_relu"
  type: "ReLU"
  bottom: "conv7_2"
  top: "conv7_2"
}
layer {
  name: "conv8_1"
  type: "Convolution"
  bottom: "conv7_2"
  top: "conv8_1"
  param {
    lr_mult: 1
    decay_mult: 1
  }
  param {
    lr_mult: 2
    decay_mult: 0
  }
  convolution_param {
    num_output: 128
    pad: 0
    kernel_size: 1
    stride: 1
    weight_filler {
      type: "xavier"
    }
    bias_filler {
      type: "constant"
      value: 0
    }
  }
}
layer {
  name: "conv8_1_relu"
  type: "ReLU"
  bottom: "conv8_1"
  top: "conv8_1"
}
layer {
  name: "conv8_2"
  type: "Convolution"
  bottom: "conv8_1"
  top: "conv8_2"
  param {
    lr_mult: 1
    decay_mult: 1
  }
  param {
    lr_mult: 2
    decay_mult: 0
  }
  convolution_param {
    num_output: 256
    pad: 0
    kernel_size: 3
    stride: 1
    weight_filler {
      type: "xavier"
    }
    bias_filler {
      type: "constant"
      value: 0
    }
  }
}
layer {
  name: "conv8_2_relu"
  type: "ReLU"
  bottom: "conv8_2"
  top: "conv8_2"
}
layer {
  name: "conv9_1"
  type: "Convolution"
  bottom: "conv8_2"
  top: "conv9_1"
  param {
    lr_mult: 1
    decay_mult: 1
  }
  param {
    lr_mult: 2
    decay_mult: 0
  }
  convolution_param {
    num_output: 128
    pad: 0
    kernel_size: 1
    stride: 1
    weight_filler {
      type: "xavier"
    }
    bias_filler {
      type: "constant"
      value: 0
    }
  }
}
layer {
  name: "conv9_1_relu"
  type: "ReLU"
  bottom: "conv9_1"
  top: "conv9_1"
}
layer {
  name: "conv9_2"
  type: "Convolution"
  bottom: "conv9_1"
  top: "conv9_2"
  param {
    lr_mult: 1
    decay_mult: 1
  }
  param {
    lr_mult: 2
    decay_mult: 0
  }
  convolution_param {
    num_output: 256
    pad: 0
    kernel_size: 3
    stride: 1
    weight_filler {
      type: "xavier"
    }
    bias_filler {
      type: "constant"
      value: 0
    }
  }
}
layer {
  name: "conv9_2_relu"
  type: "ReLU"
  bottom: "conv9_2"
  top: "conv9_2"
}
layer {
  name: "conv4_3_norm"
  type: "Normalize"
  bottom: "conv4_3"
  top: "conv4_3_norm"
  norm_param {
    across_spatial: false
    scale_filler {
      type: "constant"
      value: 20
    }
    channel_shared: false
  }
}
layer {
  name: "conv4_3_norm_mbox_loc"
  type: "Convolution"
  bottom: "conv4_3_norm"
  top: "conv4_3_norm_mbox_loc"
  param {
    lr_mult: 1
    decay_mult: 1
  }
  param {
    lr_mult: 2
    decay_mult: 0
  }
  convolution_param {
    num_output: 16
    pad: 1
    kernel_size: 3
    stride: 1
    weight_filler {
      type: "xavier"
    }
    bias_filler {
      type: "constant"
      value: 0
    }
  }
}
layer {
  name: "conv4_3_norm_mbox_loc_perm"
  type: "Permute"
  bottom: "conv4_3_norm_mbox_loc"
  top: "conv4_3_norm_mbox_loc_perm"
  permute_param {
    order: 0
    order: 2
    order: 3
    order: 1
  }
}
layer {
  name: "conv4_3_norm_mbox_loc_flat"
  type: "Flatten"
  bottom: "conv4_3_norm_mbox_loc_perm"
  top: "conv4_3_norm_mbox_loc_flat"
  flatten_param {
    axis: 1
  }
}
layer {
  name: "conv4_3_norm_mbox_conf"
  type: "Convolution"
  bottom: "conv4_3_norm"
  top: "conv4_3_norm_mbox_conf"
  param {
    lr_mult: 1
    decay_mult: 1
  }
  param {
    lr_mult: 2
    decay_mult: 0
  }
  convolution_param {
    num_output: 88
    pad: 1
    kernel_size: 3
    stride: 1
    weight_filler {
      type: "xavier"
    }
    bias_filler {
      type: "constant"
      value: 0
    }
  }
}
layer {
  name: "conv4_3_norm_mbox_conf_perm"
  type: "Permute"
  bottom: "conv4_3_norm_mbox_conf"
  top: "conv4_3_norm_mbox_conf_perm"
  permute_param {
    order: 0
    order: 2
    order: 3
    order: 1
  }
}
layer {
  name: "conv4_3_norm_mbox_conf_flat"
  type: "Flatten"
  bottom: "conv4_3_norm_mbox_conf_perm"
  top: "conv4_3_norm_mbox_conf_flat"
  flatten_param {
    axis: 1
  }
}
layer {
  name: "conv4_3_norm_mbox_priorbox"
  type: "PriorBox"
  bottom: "conv4_3_norm"
  bottom: "data"
  top: "conv4_3_norm_mbox_priorbox"
  prior_box_param {
    min_size: 30
    max_size: 60
    aspect_ratio: 2
    flip: true
    clip: false
    variance: 0.1
    variance: 0.1
    variance: 0.2
    variance: 0.2
    step: 8
    offset: 0.5
  }
}
layer {
  name: "fc7_mbox_loc"
  type: "Convolution"
  bottom: "fc7"
  top: "fc7_mbox_loc"
  param {
    lr_mult: 1
    decay_mult: 1
  }
  param {
    lr_mult: 2
    decay_mult: 0
  }
  convolution_param {
    num_output: 24
    pad: 1
    kernel_size: 3
    stride: 1
    weight_filler {
      type: "xavier"
    }
    bias_filler {
      type: "constant"
      value: 0
    }
  }
}
layer {
  name: "fc7_mbox_loc_perm"
  type: "Permute"
  bottom: "fc7_mbox_loc"
  top: "fc7_mbox_loc_perm"
  permute_param {
    order: 0
    order: 2
    order: 3
    order: 1
  }
}
layer {
  name: "fc7_mbox_loc_flat"
  type: "Flatten"
  bottom: "fc7_mbox_loc_perm"
  top: "fc7_mbox_loc_flat"
  flatten_param {
    axis: 1
  }
}
layer {
  name: "fc7_mbox_conf"
  type: "Convolution"
  bottom: "fc7"
  top: "fc7_mbox_conf"
  param {
    lr_mult: 1
    decay_mult: 1
  }
  param {
    lr_mult: 2
    decay_mult: 0
  }
  convolution_param {
    num_output: 132
    pad: 1
    kernel_size: 3
    stride: 1
    weight_filler {
      type: "xavier"
    }
    bias_filler {
      type: "constant"
      value: 0
    }
  }
}
layer {
  name: "fc7_mbox_conf_perm"
  type: "Permute"
  bottom: "fc7_mbox_conf"
  top: "fc7_mbox_conf_perm"
  permute_param {
    order: 0
    order: 2
    order: 3
    order: 1
  }
}
layer {
  name: "fc7_mbox_conf_flat"
  type: "Flatten"
  bottom: "fc7_mbox_conf_perm"
  top: "fc7_mbox_conf_flat"
  flatten_param {
    axis: 1
  }
}
layer {
  name: "fc7_mbox_priorbox"
  type: "PriorBox"
  bottom: "fc7"
  bottom: "data"
  top: "fc7_mbox_priorbox"
  prior_box_param {
    min_size: 60
    max_size: 111
    aspect_ratio: 2
    aspect_ratio: 3
    flip: true
    clip: false
    variance: 0.1
    variance: 0.1
    variance: 0.2
    variance: 0.2
    step: 16
    offset: 0.5
  }
}
layer {
  name: "conv6_2_mbox_loc"
  type: "Convolution"
  bottom: "conv6_2"
  top: "conv6_2_mbox_loc"
  param {
    lr_mult: 1
    decay_mult: 1
  }
  param {
    lr_mult: 2
    decay_mult: 0
  }
  convolution_param {
    num_output: 24
    pad: 1
    kernel_size: 3
    stride: 1
    weight_filler {
      type: "xavier"
    }
    bias_filler {
      type: "constant"
      value: 0
    }
  }
}
layer {
  name: "conv6_2_mbox_loc_perm"
  type: "Permute"
  bottom: "conv6_2_mbox_loc"
  top: "conv6_2_mbox_loc_perm"
  permute_param {
    order: 0
    order: 2
    order: 3
    order: 1
  }
}
layer {
  name: "conv6_2_mbox_loc_flat"
  type: "Flatten"
  bottom: "conv6_2_mbox_loc_perm"
  top: "conv6_2_mbox_loc_flat"
  flatten_param {
    axis: 1
  }
}
layer {
  name: "conv6_2_mbox_conf"
  type: "Convolution"
  bottom: "conv6_2"
  top: "conv6_2_mbox_conf"
  param {
    lr_mult: 1
    decay_mult: 1
  }
  param {
    lr_mult: 2
    decay_mult: 0
  }
  convolution_param {
    num_output: 132
    pad: 1
    kernel_size: 3
    stride: 1
    weight_filler {
      type: "xavier"
    }
    bias_filler {
      type: "constant"
      value: 0
    }
  }
}
layer {
  name: "conv6_2_mbox_conf_perm"
  type: "Permute"
  bottom: "conv6_2_mbox_conf"
  top: "conv6_2_mbox_conf_perm"
  permute_param {
    order: 0
    order: 2
    order: 3
    order: 1
  }
}
layer {
  name: "conv6_2_mbox_conf_flat"
  type: "Flatten"
  bottom: "conv6_2_mbox_conf_perm"
  top: "conv6_2_mbox_conf_flat"
  flatten_param {
    axis: 1
  }
}
layer {
  name: "conv6_2_mbox_priorbox"
  type: "PriorBox"
  bottom: "conv6_2"
  bottom: "data"
  top: "conv6_2_mbox_priorbox"
  prior_box_param {
    min_size: 111
    max_size: 162
    aspect_ratio: 2
    aspect_ratio: 3
    flip: true
    clip: false
    variance: 0.1
    variance: 0.1
    variance: 0.2
    variance: 0.2
    step: 32
    offset: 0.5
  }
}
layer {
  name: "conv7_2_mbox_loc"
  type: "Convolution"
  bottom: "conv7_2"
  top: "conv7_2_mbox_loc"
  param {
    lr_mult: 1
    decay_mult: 1
  }
  param {
    lr_mult: 2
    decay_mult: 0
  }
  convolution_param {
    num_output: 24
    pad: 1
    kernel_size: 3
    stride: 1
    weight_filler {
      type: "xavier"
    }
    bias_filler {
      type: "constant"
      value: 0
    }
  }
}
layer {
  name: "conv7_2_mbox_loc_perm"
  type: "Permute"
  bottom: "conv7_2_mbox_loc"
  top: "conv7_2_mbox_loc_perm"
  permute_param {
    order: 0
    order: 2
    order: 3
    order: 1
  }
}
layer {
  name: "conv7_2_mbox_loc_flat"
  type: "Flatten"
  bottom: "conv7_2_mbox_loc_perm"
  top: "conv7_2_mbox_loc_flat"
  flatten_param {
    axis: 1
  }
}
layer {
  name: "conv7_2_mbox_conf"
  type: "Convolution"
  bottom: "conv7_2"
  top: "conv7_2_mbox_conf"
  param {
    lr_mult: 1
    decay_mult: 1
  }
  param {
    lr_mult: 2
    decay_mult: 0
  }
  convolution_param {
    num_output: 132
    pad: 1
    kernel_size: 3
    stride: 1
    weight_filler {
      type: "xavier"
    }
    bias_filler {
      type: "constant"
      value: 0
    }
  }
}
layer {
  name: "conv7_2_mbox_conf_perm"
  type: "Permute"
  bottom: "conv7_2_mbox_conf"
  top: "conv7_2_mbox_conf_perm"
  permute_param {
    order: 0
    order: 2
    order: 3
    order: 1
  }
}
layer {
  name: "conv7_2_mbox_conf_flat"
  type: "Flatten"
  bottom: "conv7_2_mbox_conf_perm"
  top: "conv7_2_mbox_conf_flat"
  flatten_param {
    axis: 1
  }
}
layer {
  name: "conv7_2_mbox_priorbox"
  type: "PriorBox"
  bottom: "conv7_2"
  bottom: "data"
  top: "conv7_2_mbox_priorbox"
  prior_box_param {
    min_size: 162
    max_size: 213
    aspect_ratio: 2
    aspect_ratio: 3
    flip: true
    clip: false
    variance: 0.1
    variance: 0.1
    variance: 0.2
    variance: 0.2
    step: 64
    offset: 0.5
  }
}
layer {
  name: "conv8_2_mbox_loc"
  type: "Convolution"
  bottom: "conv8_2"
  top: "conv8_2_mbox_loc"
  param {
    lr_mult: 1
    decay_mult: 1
  }
  param {
    lr_mult: 2
    decay_mult: 0
  }
  convolution_param {
    num_output: 16
    pad: 1
    kernel_size: 3
    stride: 1
    weight_filler {
      type: "xavier"
    }
    bias_filler {
      type: "constant"
      value: 0
    }
  }
}
layer {
  name: "conv8_2_mbox_loc_perm"
  type: "Permute"
  bottom: "conv8_2_mbox_loc"
  top: "conv8_2_mbox_loc_perm"
  permute_param {
    order: 0
    order: 2
    order: 3
    order: 1
  }
}
layer {
  name: "conv8_2_mbox_loc_flat"
  type: "Flatten"
  bottom: "conv8_2_mbox_loc_perm"
  top: "conv8_2_mbox_loc_flat"
  flatten_param {
    axis: 1
  }
}
layer {
  name: "conv8_2_mbox_conf"
  type: "Convolution"
  bottom: "conv8_2"
  top: "conv8_2_mbox_conf"
  param {
    lr_mult: 1
    decay_mult: 1
  }
  param {
    lr_mult: 2
    decay_mult: 0
  }
  convolution_param {
    num_output: 88
    pad: 1
    kernel_size: 3
    stride: 1
    weight_filler {
      type: "xavier"
    }
    bias_filler {
      type: "constant"
      value: 0
    }
  }
}
layer {
  name: "conv8_2_mbox_conf_perm"
  type: "Permute"
  bottom: "conv8_2_mbox_conf"
  top: "conv8_2_mbox_conf_perm"
  permute_param {
    order: 0
    order: 2
    order: 3
    order: 1
  }
}
layer {
  name: "conv8_2_mbox_conf_flat"
  type: "Flatten"
  bottom: "conv8_2_mbox_conf_perm"
  top: "conv8_2_mbox_conf_flat"
  flatten_param {
    axis: 1
  }
}
layer {
  name: "conv8_2_mbox_priorbox"
  type: "PriorBox"
  bottom: "conv8_2"
  bottom: "data"
  top: "conv8_2_mbox_priorbox"
  prior_box_param {
    min_size: 213
    max_size: 264
    aspect_ratio: 2
    flip: true
    clip: false
    variance: 0.1
    variance: 0.1
    variance: 0.2
    variance: 0.2
    step: 100
    offset: 0.5
  }
}
layer {
  name: "conv9_2_mbox_loc"
  type: "Convolution"
  bottom: "conv9_2"
  top: "conv9_2_mbox_loc"
  param {
    lr_mult: 1
    decay_mult: 1
  }
  param {
    lr_mult: 2
    decay_mult: 0
  }
  convolution_param {
    num_output: 16
    pad: 1
    kernel_size: 3
    stride: 1
    weight_filler {
      type: "xavier"
    }
    bias_filler {
      type: "constant"
      value: 0
    }
  }
}
layer {
  name: "conv9_2_mbox_loc_perm"
  type: "Permute"
  bottom: "conv9_2_mbox_loc"
  top: "conv9_2_mbox_loc_perm"
  permute_param {
    order: 0
    order: 2
    order: 3
    order: 1
  }
}
layer {
  name: "conv9_2_mbox_loc_flat"
  type: "Flatten"
  bottom: "conv9_2_mbox_loc_perm"
  top: "conv9_2_mbox_loc_flat"
  flatten_param {
    axis: 1
  }
}
layer {
  name: "conv9_2_mbox_conf"
  type: "Convolution"
  bottom: "conv9_2"
  top: "conv9_2_mbox_conf"
  param {
    lr_mult: 1
    decay_mult: 1
  }
  param {
    lr_mult: 2
    decay_mult: 0
  }
  convolution_param {
    num_output: 88
    pad: 1
    kernel_size: 3
    stride: 1
    weight_filler {
      type: "xavier"
    }
    bias_filler {
      type: "constant"
      value: 0
    }
  }
}
layer {
  name: "conv9_2_mbox_conf_perm"
  type: "Permute"
  bottom: "conv9_2_mbox_conf"
  top: "conv9_2_mbox_conf_perm"
  permute_param {
    order: 0
    order: 2
    order: 3
    order: 1
  }
}
layer {
  name: "conv9_2_mbox_conf_flat"
  type: "Flatten"
  bottom: "conv9_2_mbox_conf_perm"
  top: "conv9_2_mbox_conf_flat"
  flatten_param {
    axis: 1
  }
}
layer {
  name: "conv9_2_mbox_priorbox"
  type: "PriorBox"
  bottom: "conv9_2"
  bottom: "data"
  top: "conv9_2_mbox_priorbox"
  prior_box_param {
    min_size: 264
    max_size: 315
    aspect_ratio: 2
    flip: true
    clip: false
    variance: 0.1
    variance: 0.1
    variance: 0.2
    variance: 0.2
    step: 300
    offset: 0.5
  }
}
layer {
  name: "mbox_loc"
  type: "Concat"
  bottom: "conv4_3_norm_mbox_loc_flat"
  bottom: "fc7_mbox_loc_flat"
  bottom: "conv6_2_mbox_loc_flat"
  bottom: "conv7_2_mbox_loc_flat"
  bottom: "conv8_2_mbox_loc_flat"
  bottom: "conv9_2_mbox_loc_flat"
  top: "mbox_loc"
  concat_param {
    axis: 1
  }
}
layer {
  name: "mbox_conf"
  type: "Concat"
  bottom: "conv4_3_norm_mbox_conf_flat"
  bottom: "fc7_mbox_conf_flat"
  bottom: "conv6_2_mbox_conf_flat"
  bottom: "conv7_2_mbox_conf_flat"
  bottom: "conv8_2_mbox_conf_flat"
  bottom: "conv9_2_mbox_conf_flat"
  top: "mbox_conf"
  concat_param {
    axis: 1
  }
}
layer {
  name: "mbox_priorbox"
  type: "Concat"
  bottom: "conv4_3_norm_mbox_priorbox"
  bottom: "fc7_mbox_priorbox"
  bottom: "conv6_2_mbox_priorbox"
  bottom: "conv7_2_mbox_priorbox"
  bottom: "conv8_2_mbox_priorbox"
  bottom: "conv9_2_mbox_priorbox"
  top: "mbox_priorbox"
  concat_param {
    axis: 2
  }
}
layer {
  name: "mbox_conf_reshape"
  type: "Reshape"
  bottom: "mbox_conf"
  top: "mbox_conf_reshape"
  reshape_param {
    shape {
      dim: 0
      dim: -1
      dim: 22
    }
  }
}
layer {
  name: "mbox_conf_softmax"
  type: "Softmax"
  bottom: "mbox_conf_reshape"
  top: "mbox_conf_softmax"
  softmax_param {
    axis: 2
  }
}
layer {
  name: "mbox_conf_flatten"
  type: "Flatten"
  bottom: "mbox_conf_softmax"
  top: "mbox_conf_flatten"
  flatten_param {
    axis: 1
  }
}
layer {
  name: "detection_out"
  type: "DetectionOutput"
  bottom: "mbox_loc"
  bottom: "mbox_conf_flatten"
  bottom: "mbox_priorbox"
  top: "detection_out"
  include {
    phase: TEST
  }
  detection_output_param {
    num_classes: 22
    share_location: true
    background_label_id: 0
    nms_param {
      nms_threshold: 0.45
      top_k: 400
    }
    save_output_param {
      output_directory: "/home/dhall/data/VOCdevkit/results/VOC2007/SSD_300x300/Main"
      output_name_prefix: "comp4_det_test_"
      output_format: "VOC"
      label_map_file: "data/VOC0712/labelmap_voc.prototxt"
      name_size_file: "data/VOC0712/test_name_size.txt"
      num_test_image: 5005
    }
    code_type: CENTER_SIZE
    keep_top_k: 200
    confidence_threshold: 0.01
  }
}
layer {
  name: "detection_eval"
  type: "DetectionEvaluate"
  bottom: "detection_out"
  bottom: "label"
  top: "detection_eval"
  include {
    phase: TEST
  }
  detection_evaluate_param {
    num_classes: 22
    background_label_id: 0
    overlap_threshold: 0.5
    evaluate_difficult_gt: false
    name_size_file: "data/VOC0712/test_name_size.txt"
  }
}
I0122 22:58:16.461742 11460 layer_factory.hpp:77] Creating layer data
I0122 22:58:16.461809 11460 net.cpp:100] Creating Layer data
I0122 22:58:16.461822 11460 net.cpp:408] data -> data
I0122 22:58:16.461833 11460 net.cpp:408] data -> label
I0122 22:58:16.463479 11479 db_lmdb.cpp:35] Opened lmdb examples/VOC0712/VOC0712_test_lmdb
I0122 22:58:16.466420 11460 annotated_data_layer.cpp:62] output data size: 16,3,300,300
I0122 22:58:16.494129 11460 net.cpp:150] Setting up data
I0122 22:58:16.494166 11460 net.cpp:157] Top shape: 16 3 300 300 (4320000)
I0122 22:58:16.494174 11460 net.cpp:157] Top shape: 1 1 4 8 (32)
I0122 22:58:16.494177 11460 net.cpp:165] Memory required for data: 17280128
I0122 22:58:16.494184 11460 layer_factory.hpp:77] Creating layer data_data_0_split
I0122 22:58:16.494199 11460 net.cpp:100] Creating Layer data_data_0_split
I0122 22:58:16.494204 11460 net.cpp:434] data_data_0_split <- data
I0122 22:58:16.494212 11460 net.cpp:408] data_data_0_split -> data_data_0_split_0
I0122 22:58:16.494225 11460 net.cpp:408] data_data_0_split -> data_data_0_split_1
I0122 22:58:16.494232 11460 net.cpp:408] data_data_0_split -> data_data_0_split_2
I0122 22:58:16.494238 11460 net.cpp:408] data_data_0_split -> data_data_0_split_3
I0122 22:58:16.494244 11460 net.cpp:408] data_data_0_split -> data_data_0_split_4
I0122 22:58:16.494249 11460 net.cpp:408] data_data_0_split -> data_data_0_split_5
I0122 22:58:16.494254 11460 net.cpp:408] data_data_0_split -> data_data_0_split_6
I0122 22:58:16.494472 11460 net.cpp:150] Setting up data_data_0_split
I0122 22:58:16.494483 11460 net.cpp:157] Top shape: 16 3 300 300 (4320000)
I0122 22:58:16.494488 11460 net.cpp:157] Top shape: 16 3 300 300 (4320000)
I0122 22:58:16.494493 11460 net.cpp:157] Top shape: 16 3 300 300 (4320000)
I0122 22:58:16.494498 11460 net.cpp:157] Top shape: 16 3 300 300 (4320000)
I0122 22:58:16.494521 11460 net.cpp:157] Top shape: 16 3 300 300 (4320000)
I0122 22:58:16.494526 11460 net.cpp:157] Top shape: 16 3 300 300 (4320000)
I0122 22:58:16.494531 11460 net.cpp:157] Top shape: 16 3 300 300 (4320000)
I0122 22:58:16.494534 11460 net.cpp:165] Memory required for data: 138240128
I0122 22:58:16.494539 11460 layer_factory.hpp:77] Creating layer conv1_1
I0122 22:58:16.494554 11460 net.cpp:100] Creating Layer conv1_1
I0122 22:58:16.494557 11460 net.cpp:434] conv1_1 <- data_data_0_split_0
I0122 22:58:16.494563 11460 net.cpp:408] conv1_1 -> conv1_1
I0122 22:58:16.496125 11460 net.cpp:150] Setting up conv1_1
I0122 22:58:16.496140 11460 net.cpp:157] Top shape: 16 64 300 300 (92160000)
I0122 22:58:16.496145 11460 net.cpp:165] Memory required for data: 506880128
I0122 22:58:16.496157 11460 layer_factory.hpp:77] Creating layer relu1_1
I0122 22:58:16.496166 11460 net.cpp:100] Creating Layer relu1_1
I0122 22:58:16.496170 11460 net.cpp:434] relu1_1 <- conv1_1
I0122 22:58:16.496176 11460 net.cpp:395] relu1_1 -> conv1_1 (in-place)
I0122 22:58:16.496546 11460 net.cpp:150] Setting up relu1_1
I0122 22:58:16.496561 11460 net.cpp:157] Top shape: 16 64 300 300 (92160000)
I0122 22:58:16.496564 11460 net.cpp:165] Memory required for data: 875520128
I0122 22:58:16.496568 11460 layer_factory.hpp:77] Creating layer conv1_2
I0122 22:58:16.496579 11460 net.cpp:100] Creating Layer conv1_2
I0122 22:58:16.496583 11460 net.cpp:434] conv1_2 <- conv1_1
I0122 22:58:16.496590 11460 net.cpp:408] conv1_2 -> conv1_2
I0122 22:58:16.498661 11460 net.cpp:150] Setting up conv1_2
I0122 22:58:16.498678 11460 net.cpp:157] Top shape: 16 64 300 300 (92160000)
I0122 22:58:16.498683 11460 net.cpp:165] Memory required for data: 1244160128
I0122 22:58:16.498693 11460 layer_factory.hpp:77] Creating layer relu1_2
I0122 22:58:16.498700 11460 net.cpp:100] Creating Layer relu1_2
I0122 22:58:16.498705 11460 net.cpp:434] relu1_2 <- conv1_2
I0122 22:58:16.498710 11460 net.cpp:395] relu1_2 -> conv1_2 (in-place)
I0122 22:58:16.498906 11460 net.cpp:150] Setting up relu1_2
I0122 22:58:16.498919 11460 net.cpp:157] Top shape: 16 64 300 300 (92160000)
I0122 22:58:16.498922 11460 net.cpp:165] Memory required for data: 1612800128
I0122 22:58:16.498926 11460 layer_factory.hpp:77] Creating layer pool1
I0122 22:58:16.498934 11460 net.cpp:100] Creating Layer pool1
I0122 22:58:16.498937 11460 net.cpp:434] pool1 <- conv1_2
I0122 22:58:16.498944 11460 net.cpp:408] pool1 -> pool1
I0122 22:58:16.498999 11460 net.cpp:150] Setting up pool1
I0122 22:58:16.499007 11460 net.cpp:157] Top shape: 16 64 150 150 (23040000)
I0122 22:58:16.499011 11460 net.cpp:165] Memory required for data: 1704960128
I0122 22:58:16.499016 11460 layer_factory.hpp:77] Creating layer conv2_1
I0122 22:58:16.499025 11460 net.cpp:100] Creating Layer conv2_1
I0122 22:58:16.499029 11460 net.cpp:434] conv2_1 <- pool1
I0122 22:58:16.499035 11460 net.cpp:408] conv2_1 -> conv2_1
I0122 22:58:16.500840 11460 net.cpp:150] Setting up conv2_1
I0122 22:58:16.500856 11460 net.cpp:157] Top shape: 16 128 150 150 (46080000)
I0122 22:58:16.500861 11460 net.cpp:165] Memory required for data: 1889280128
I0122 22:58:16.500872 11460 layer_factory.hpp:77] Creating layer relu2_1
I0122 22:58:16.500880 11460 net.cpp:100] Creating Layer relu2_1
I0122 22:58:16.500885 11460 net.cpp:434] relu2_1 <- conv2_1
I0122 22:58:16.500890 11460 net.cpp:395] relu2_1 -> conv2_1 (in-place)
I0122 22:58:16.501081 11460 net.cpp:150] Setting up relu2_1
I0122 22:58:16.501092 11460 net.cpp:157] Top shape: 16 128 150 150 (46080000)
I0122 22:58:16.501096 11460 net.cpp:165] Memory required for data: 2073600128
I0122 22:58:16.501101 11460 layer_factory.hpp:77] Creating layer conv2_2
I0122 22:58:16.501111 11460 net.cpp:100] Creating Layer conv2_2
I0122 22:58:16.501114 11460 net.cpp:434] conv2_2 <- conv2_1
I0122 22:58:16.501121 11460 net.cpp:408] conv2_2 -> conv2_2
I0122 22:58:16.504241 11460 net.cpp:150] Setting up conv2_2
I0122 22:58:16.504261 11460 net.cpp:157] Top shape: 16 128 150 150 (46080000)
I0122 22:58:16.504264 11460 net.cpp:165] Memory required for data: 2257920128
I0122 22:58:16.504286 11460 layer_factory.hpp:77] Creating layer relu2_2
I0122 22:58:16.504294 11460 net.cpp:100] Creating Layer relu2_2
I0122 22:58:16.504298 11460 net.cpp:434] relu2_2 <- conv2_2
I0122 22:58:16.504304 11460 net.cpp:395] relu2_2 -> conv2_2 (in-place)
I0122 22:58:16.504637 11460 net.cpp:150] Setting up relu2_2
I0122 22:58:16.504650 11460 net.cpp:157] Top shape: 16 128 150 150 (46080000)
I0122 22:58:16.504655 11460 net.cpp:165] Memory required for data: 2442240128
I0122 22:58:16.504659 11460 layer_factory.hpp:77] Creating layer pool2
I0122 22:58:16.504668 11460 net.cpp:100] Creating Layer pool2
I0122 22:58:16.504673 11460 net.cpp:434] pool2 <- conv2_2
I0122 22:58:16.504678 11460 net.cpp:408] pool2 -> pool2
I0122 22:58:16.504736 11460 net.cpp:150] Setting up pool2
I0122 22:58:16.504752 11460 net.cpp:157] Top shape: 16 128 75 75 (11520000)
I0122 22:58:16.504756 11460 net.cpp:165] Memory required for data: 2488320128
I0122 22:58:16.504760 11460 layer_factory.hpp:77] Creating layer conv3_1
I0122 22:58:16.504770 11460 net.cpp:100] Creating Layer conv3_1
I0122 22:58:16.504773 11460 net.cpp:434] conv3_1 <- pool2
I0122 22:58:16.504781 11460 net.cpp:408] conv3_1 -> conv3_1
I0122 22:58:16.508704 11460 net.cpp:150] Setting up conv3_1
I0122 22:58:16.508723 11460 net.cpp:157] Top shape: 16 256 75 75 (23040000)
I0122 22:58:16.508726 11460 net.cpp:165] Memory required for data: 2580480128
I0122 22:58:16.508738 11460 layer_factory.hpp:77] Creating layer relu3_1
I0122 22:58:16.508746 11460 net.cpp:100] Creating Layer relu3_1
I0122 22:58:16.508750 11460 net.cpp:434] relu3_1 <- conv3_1
I0122 22:58:16.508757 11460 net.cpp:395] relu3_1 -> conv3_1 (in-place)
I0122 22:58:16.508952 11460 net.cpp:150] Setting up relu3_1
I0122 22:58:16.508965 11460 net.cpp:157] Top shape: 16 256 75 75 (23040000)
I0122 22:58:16.508968 11460 net.cpp:165] Memory required for data: 2672640128
I0122 22:58:16.508972 11460 layer_factory.hpp:77] Creating layer conv3_2
I0122 22:58:16.508985 11460 net.cpp:100] Creating Layer conv3_2
I0122 22:58:16.508988 11460 net.cpp:434] conv3_2 <- conv3_1
I0122 22:58:16.508996 11460 net.cpp:408] conv3_2 -> conv3_2
I0122 22:58:16.515436 11460 net.cpp:150] Setting up conv3_2
I0122 22:58:16.515455 11460 net.cpp:157] Top shape: 16 256 75 75 (23040000)
I0122 22:58:16.515460 11460 net.cpp:165] Memory required for data: 2764800128
I0122 22:58:16.515466 11460 layer_factory.hpp:77] Creating layer relu3_2
I0122 22:58:16.515473 11460 net.cpp:100] Creating Layer relu3_2
I0122 22:58:16.515477 11460 net.cpp:434] relu3_2 <- conv3_2
I0122 22:58:16.515483 11460 net.cpp:395] relu3_2 -> conv3_2 (in-place)
I0122 22:58:16.515674 11460 net.cpp:150] Setting up relu3_2
I0122 22:58:16.515686 11460 net.cpp:157] Top shape: 16 256 75 75 (23040000)
I0122 22:58:16.515689 11460 net.cpp:165] Memory required for data: 2856960128
I0122 22:58:16.515693 11460 layer_factory.hpp:77] Creating layer conv3_3
I0122 22:58:16.515708 11460 net.cpp:100] Creating Layer conv3_3
I0122 22:58:16.515712 11460 net.cpp:434] conv3_3 <- conv3_2
I0122 22:58:16.515720 11460 net.cpp:408] conv3_3 -> conv3_3
I0122 22:58:16.522137 11460 net.cpp:150] Setting up conv3_3
I0122 22:58:16.522155 11460 net.cpp:157] Top shape: 16 256 75 75 (23040000)
I0122 22:58:16.522158 11460 net.cpp:165] Memory required for data: 2949120128
I0122 22:58:16.522166 11460 layer_factory.hpp:77] Creating layer relu3_3
I0122 22:58:16.522172 11460 net.cpp:100] Creating Layer relu3_3
I0122 22:58:16.522177 11460 net.cpp:434] relu3_3 <- conv3_3
I0122 22:58:16.522184 11460 net.cpp:395] relu3_3 -> conv3_3 (in-place)
I0122 22:58:16.522526 11460 net.cpp:150] Setting up relu3_3
I0122 22:58:16.522541 11460 net.cpp:157] Top shape: 16 256 75 75 (23040000)
I0122 22:58:16.522545 11460 net.cpp:165] Memory required for data: 3041280128
I0122 22:58:16.522550 11460 layer_factory.hpp:77] Creating layer pool3
I0122 22:58:16.522560 11460 net.cpp:100] Creating Layer pool3
I0122 22:58:16.522565 11460 net.cpp:434] pool3 <- conv3_3
I0122 22:58:16.522572 11460 net.cpp:408] pool3 -> pool3
I0122 22:58:16.522632 11460 net.cpp:150] Setting up pool3
I0122 22:58:16.522655 11460 net.cpp:157] Top shape: 16 256 38 38 (5914624)
I0122 22:58:16.522660 11460 net.cpp:165] Memory required for data: 3064938624
I0122 22:58:16.522662 11460 layer_factory.hpp:77] Creating layer conv4_1
I0122 22:58:16.522675 11460 net.cpp:100] Creating Layer conv4_1
I0122 22:58:16.522678 11460 net.cpp:434] conv4_1 <- pool3
I0122 22:58:16.522686 11460 net.cpp:408] conv4_1 -> conv4_1
I0122 22:58:16.533936 11460 net.cpp:150] Setting up conv4_1
I0122 22:58:16.533957 11460 net.cpp:157] Top shape: 16 512 38 38 (11829248)
I0122 22:58:16.533962 11460 net.cpp:165] Memory required for data: 3112255616
I0122 22:58:16.533970 11460 layer_factory.hpp:77] Creating layer relu4_1
I0122 22:58:16.533979 11460 net.cpp:100] Creating Layer relu4_1
I0122 22:58:16.533984 11460 net.cpp:434] relu4_1 <- conv4_1
I0122 22:58:16.533989 11460 net.cpp:395] relu4_1 -> conv4_1 (in-place)
I0122 22:58:16.534189 11460 net.cpp:150] Setting up relu4_1
I0122 22:58:16.534201 11460 net.cpp:157] Top shape: 16 512 38 38 (11829248)
I0122 22:58:16.534205 11460 net.cpp:165] Memory required for data: 3159572608
I0122 22:58:16.534209 11460 layer_factory.hpp:77] Creating layer conv4_2
I0122 22:58:16.534221 11460 net.cpp:100] Creating Layer conv4_2
I0122 22:58:16.534225 11460 net.cpp:434] conv4_2 <- conv4_1
I0122 22:58:16.534234 11460 net.cpp:408] conv4_2 -> conv4_2
I0122 22:58:16.555819 11460 net.cpp:150] Setting up conv4_2
I0122 22:58:16.555847 11460 net.cpp:157] Top shape: 16 512 38 38 (11829248)
I0122 22:58:16.555852 11460 net.cpp:165] Memory required for data: 3206889600
I0122 22:58:16.555866 11460 layer_factory.hpp:77] Creating layer relu4_2
I0122 22:58:16.555876 11460 net.cpp:100] Creating Layer relu4_2
I0122 22:58:16.555881 11460 net.cpp:434] relu4_2 <- conv4_2
I0122 22:58:16.555891 11460 net.cpp:395] relu4_2 -> conv4_2 (in-place)
I0122 22:58:16.556108 11460 net.cpp:150] Setting up relu4_2
I0122 22:58:16.556121 11460 net.cpp:157] Top shape: 16 512 38 38 (11829248)
I0122 22:58:16.556125 11460 net.cpp:165] Memory required for data: 3254206592
I0122 22:58:16.556129 11460 layer_factory.hpp:77] Creating layer conv4_3
I0122 22:58:16.556141 11460 net.cpp:100] Creating Layer conv4_3
I0122 22:58:16.556146 11460 net.cpp:434] conv4_3 <- conv4_2
I0122 22:58:16.556154 11460 net.cpp:408] conv4_3 -> conv4_3
I0122 22:58:16.577519 11460 net.cpp:150] Setting up conv4_3
I0122 22:58:16.577548 11460 net.cpp:157] Top shape: 16 512 38 38 (11829248)
I0122 22:58:16.577553 11460 net.cpp:165] Memory required for data: 3301523584
I0122 22:58:16.577560 11460 layer_factory.hpp:77] Creating layer relu4_3
I0122 22:58:16.577570 11460 net.cpp:100] Creating Layer relu4_3
I0122 22:58:16.577576 11460 net.cpp:434] relu4_3 <- conv4_3
I0122 22:58:16.577584 11460 net.cpp:395] relu4_3 -> conv4_3 (in-place)
I0122 22:58:16.577932 11460 net.cpp:150] Setting up relu4_3
I0122 22:58:16.577947 11460 net.cpp:157] Top shape: 16 512 38 38 (11829248)
I0122 22:58:16.577951 11460 net.cpp:165] Memory required for data: 3348840576
I0122 22:58:16.577956 11460 layer_factory.hpp:77] Creating layer conv4_3_relu4_3_0_split
I0122 22:58:16.577965 11460 net.cpp:100] Creating Layer conv4_3_relu4_3_0_split
I0122 22:58:16.577968 11460 net.cpp:434] conv4_3_relu4_3_0_split <- conv4_3
I0122 22:58:16.577975 11460 net.cpp:408] conv4_3_relu4_3_0_split -> conv4_3_relu4_3_0_split_0
I0122 22:58:16.577982 11460 net.cpp:408] conv4_3_relu4_3_0_split -> conv4_3_relu4_3_0_split_1
I0122 22:58:16.578042 11460 net.cpp:150] Setting up conv4_3_relu4_3_0_split
I0122 22:58:16.578055 11460 net.cpp:157] Top shape: 16 512 38 38 (11829248)
I0122 22:58:16.578059 11460 net.cpp:157] Top shape: 16 512 38 38 (11829248)
I0122 22:58:16.578063 11460 net.cpp:165] Memory required for data: 3443474560
I0122 22:58:16.578068 11460 layer_factory.hpp:77] Creating layer pool4
I0122 22:58:16.578074 11460 net.cpp:100] Creating Layer pool4
I0122 22:58:16.578078 11460 net.cpp:434] pool4 <- conv4_3_relu4_3_0_split_0
I0122 22:58:16.578085 11460 net.cpp:408] pool4 -> pool4
I0122 22:58:16.578138 11460 net.cpp:150] Setting up pool4
I0122 22:58:16.578163 11460 net.cpp:157] Top shape: 16 512 19 19 (2957312)
I0122 22:58:16.578168 11460 net.cpp:165] Memory required for data: 3455303808
I0122 22:58:16.578171 11460 layer_factory.hpp:77] Creating layer conv5_1
I0122 22:58:16.578186 11460 net.cpp:100] Creating Layer conv5_1
I0122 22:58:16.578191 11460 net.cpp:434] conv5_1 <- pool4
I0122 22:58:16.578197 11460 net.cpp:408] conv5_1 -> conv5_1
I0122 22:58:16.599576 11460 net.cpp:150] Setting up conv5_1
I0122 22:58:16.599603 11460 net.cpp:157] Top shape: 16 512 19 19 (2957312)
I0122 22:58:16.599608 11460 net.cpp:165] Memory required for data: 3467133056
I0122 22:58:16.599617 11460 layer_factory.hpp:77] Creating layer relu5_1
I0122 22:58:16.599627 11460 net.cpp:100] Creating Layer relu5_1
I0122 22:58:16.599633 11460 net.cpp:434] relu5_1 <- conv5_1
I0122 22:58:16.599639 11460 net.cpp:395] relu5_1 -> conv5_1 (in-place)
I0122 22:58:16.599838 11460 net.cpp:150] Setting up relu5_1
I0122 22:58:16.599849 11460 net.cpp:157] Top shape: 16 512 19 19 (2957312)
I0122 22:58:16.599853 11460 net.cpp:165] Memory required for data: 3478962304
I0122 22:58:16.599858 11460 layer_factory.hpp:77] Creating layer conv5_2
I0122 22:58:16.599871 11460 net.cpp:100] Creating Layer conv5_2
I0122 22:58:16.599875 11460 net.cpp:434] conv5_2 <- conv5_1
I0122 22:58:16.599884 11460 net.cpp:408] conv5_2 -> conv5_2
I0122 22:58:16.621516 11460 net.cpp:150] Setting up conv5_2
I0122 22:58:16.621546 11460 net.cpp:157] Top shape: 16 512 19 19 (2957312)
I0122 22:58:16.621551 11460 net.cpp:165] Memory required for data: 3490791552
I0122 22:58:16.621561 11460 layer_factory.hpp:77] Creating layer relu5_2
I0122 22:58:16.621572 11460 net.cpp:100] Creating Layer relu5_2
I0122 22:58:16.621577 11460 net.cpp:434] relu5_2 <- conv5_2
I0122 22:58:16.621587 11460 net.cpp:395] relu5_2 -> conv5_2 (in-place)
I0122 22:58:16.621785 11460 net.cpp:150] Setting up relu5_2
I0122 22:58:16.621799 11460 net.cpp:157] Top shape: 16 512 19 19 (2957312)
I0122 22:58:16.621803 11460 net.cpp:165] Memory required for data: 3502620800
I0122 22:58:16.621807 11460 layer_factory.hpp:77] Creating layer conv5_3
I0122 22:58:16.621820 11460 net.cpp:100] Creating Layer conv5_3
I0122 22:58:16.621824 11460 net.cpp:434] conv5_3 <- conv5_2
I0122 22:58:16.621831 11460 net.cpp:408] conv5_3 -> conv5_3
I0122 22:58:16.643544 11460 net.cpp:150] Setting up conv5_3
I0122 22:58:16.643571 11460 net.cpp:157] Top shape: 16 512 19 19 (2957312)
I0122 22:58:16.643576 11460 net.cpp:165] Memory required for data: 3514450048
I0122 22:58:16.643585 11460 layer_factory.hpp:77] Creating layer relu5_3
I0122 22:58:16.643601 11460 net.cpp:100] Creating Layer relu5_3
I0122 22:58:16.643609 11460 net.cpp:434] relu5_3 <- conv5_3
I0122 22:58:16.643615 11460 net.cpp:395] relu5_3 -> conv5_3 (in-place)
I0122 22:58:16.643966 11460 net.cpp:150] Setting up relu5_3
I0122 22:58:16.643980 11460 net.cpp:157] Top shape: 16 512 19 19 (2957312)
I0122 22:58:16.643986 11460 net.cpp:165] Memory required for data: 3526279296
I0122 22:58:16.643991 11460 layer_factory.hpp:77] Creating layer pool5
I0122 22:58:16.643999 11460 net.cpp:100] Creating Layer pool5
I0122 22:58:16.644003 11460 net.cpp:434] pool5 <- conv5_3
I0122 22:58:16.644009 11460 net.cpp:408] pool5 -> pool5
I0122 22:58:16.644074 11460 net.cpp:150] Setting up pool5
I0122 22:58:16.644084 11460 net.cpp:157] Top shape: 16 512 19 19 (2957312)
I0122 22:58:16.644088 11460 net.cpp:165] Memory required for data: 3538108544
I0122 22:58:16.644091 11460 layer_factory.hpp:77] Creating layer fc6
I0122 22:58:16.644105 11460 net.cpp:100] Creating Layer fc6
I0122 22:58:16.644109 11460 net.cpp:434] fc6 <- pool5
I0122 22:58:16.644117 11460 net.cpp:408] fc6 -> fc6
I0122 22:58:16.685225 11460 net.cpp:150] Setting up fc6
I0122 22:58:16.685252 11460 net.cpp:157] Top shape: 16 1024 19 19 (5914624)
I0122 22:58:16.685257 11460 net.cpp:165] Memory required for data: 3561767040
I0122 22:58:16.685266 11460 layer_factory.hpp:77] Creating layer relu6
I0122 22:58:16.685276 11460 net.cpp:100] Creating Layer relu6
I0122 22:58:16.685284 11460 net.cpp:434] relu6 <- fc6
I0122 22:58:16.685314 11460 net.cpp:395] relu6 -> fc6 (in-place)
I0122 22:58:16.685575 11460 net.cpp:150] Setting up relu6
I0122 22:58:16.685587 11460 net.cpp:157] Top shape: 16 1024 19 19 (5914624)
I0122 22:58:16.685591 11460 net.cpp:165] Memory required for data: 3585425536
I0122 22:58:16.685595 11460 layer_factory.hpp:77] Creating layer fc7
I0122 22:58:16.685611 11460 net.cpp:100] Creating Layer fc7
I0122 22:58:16.685616 11460 net.cpp:434] fc7 <- fc6
I0122 22:58:16.685622 11460 net.cpp:408] fc7 -> fc7
I0122 22:58:16.696614 11460 net.cpp:150] Setting up fc7
I0122 22:58:16.696635 11460 net.cpp:157] Top shape: 16 1024 19 19 (5914624)
I0122 22:58:16.696640 11460 net.cpp:165] Memory required for data: 3609084032
I0122 22:58:16.696646 11460 layer_factory.hpp:77] Creating layer relu7
I0122 22:58:16.696660 11460 net.cpp:100] Creating Layer relu7
I0122 22:58:16.696665 11460 net.cpp:434] relu7 <- fc7
I0122 22:58:16.696671 11460 net.cpp:395] relu7 -> fc7 (in-place)
I0122 22:58:16.697041 11460 net.cpp:150] Setting up relu7
I0122 22:58:16.697055 11460 net.cpp:157] Top shape: 16 1024 19 19 (5914624)
I0122 22:58:16.697059 11460 net.cpp:165] Memory required for data: 3632742528
I0122 22:58:16.697063 11460 layer_factory.hpp:77] Creating layer fc7_relu7_0_split
I0122 22:58:16.697074 11460 net.cpp:100] Creating Layer fc7_relu7_0_split
I0122 22:58:16.697079 11460 net.cpp:434] fc7_relu7_0_split <- fc7
I0122 22:58:16.697087 11460 net.cpp:408] fc7_relu7_0_split -> fc7_relu7_0_split_0
I0122 22:58:16.697093 11460 net.cpp:408] fc7_relu7_0_split -> fc7_relu7_0_split_1
I0122 22:58:16.697104 11460 net.cpp:408] fc7_relu7_0_split -> fc7_relu7_0_split_2
I0122 22:58:16.697110 11460 net.cpp:408] fc7_relu7_0_split -> fc7_relu7_0_split_3
I0122 22:58:16.697206 11460 net.cpp:150] Setting up fc7_relu7_0_split
I0122 22:58:16.697214 11460 net.cpp:157] Top shape: 16 1024 19 19 (5914624)
I0122 22:58:16.697219 11460 net.cpp:157] Top shape: 16 1024 19 19 (5914624)
I0122 22:58:16.697224 11460 net.cpp:157] Top shape: 16 1024 19 19 (5914624)
I0122 22:58:16.697228 11460 net.cpp:157] Top shape: 16 1024 19 19 (5914624)
I0122 22:58:16.697232 11460 net.cpp:165] Memory required for data: 3727376512
I0122 22:58:16.697235 11460 layer_factory.hpp:77] Creating layer conv6_1
I0122 22:58:16.697247 11460 net.cpp:100] Creating Layer conv6_1
I0122 22:58:16.697252 11460 net.cpp:434] conv6_1 <- fc7_relu7_0_split_0
I0122 22:58:16.697260 11460 net.cpp:408] conv6_1 -> conv6_1
I0122 22:58:16.700708 11460 net.cpp:150] Setting up conv6_1
I0122 22:58:16.700726 11460 net.cpp:157] Top shape: 16 256 19 19 (1478656)
I0122 22:58:16.700731 11460 net.cpp:165] Memory required for data: 3733291136
I0122 22:58:16.700737 11460 layer_factory.hpp:77] Creating layer conv6_1_relu
I0122 22:58:16.700744 11460 net.cpp:100] Creating Layer conv6_1_relu
I0122 22:58:16.700749 11460 net.cpp:434] conv6_1_relu <- conv6_1
I0122 22:58:16.700757 11460 net.cpp:395] conv6_1_relu -> conv6_1 (in-place)
I0122 22:58:16.701100 11460 net.cpp:150] Setting up conv6_1_relu
I0122 22:58:16.701115 11460 net.cpp:157] Top shape: 16 256 19 19 (1478656)
I0122 22:58:16.701119 11460 net.cpp:165] Memory required for data: 3739205760
I0122 22:58:16.701123 11460 layer_factory.hpp:77] Creating layer conv6_2
I0122 22:58:16.701136 11460 net.cpp:100] Creating Layer conv6_2
I0122 22:58:16.701140 11460 net.cpp:434] conv6_2 <- conv6_1
I0122 22:58:16.701148 11460 net.cpp:408] conv6_2 -> conv6_2
I0122 22:58:16.712433 11460 net.cpp:150] Setting up conv6_2
I0122 22:58:16.712455 11460 net.cpp:157] Top shape: 16 512 10 10 (819200)
I0122 22:58:16.712458 11460 net.cpp:165] Memory required for data: 3742482560
I0122 22:58:16.712474 11460 layer_factory.hpp:77] Creating layer conv6_2_relu
I0122 22:58:16.712482 11460 net.cpp:100] Creating Layer conv6_2_relu
I0122 22:58:16.712487 11460 net.cpp:434] conv6_2_relu <- conv6_2
I0122 22:58:16.712494 11460 net.cpp:395] conv6_2_relu -> conv6_2 (in-place)
I0122 22:58:16.712695 11460 net.cpp:150] Setting up conv6_2_relu
I0122 22:58:16.712707 11460 net.cpp:157] Top shape: 16 512 10 10 (819200)
I0122 22:58:16.712712 11460 net.cpp:165] Memory required for data: 3745759360
I0122 22:58:16.712733 11460 layer_factory.hpp:77] Creating layer conv6_2_conv6_2_relu_0_split
I0122 22:58:16.712740 11460 net.cpp:100] Creating Layer conv6_2_conv6_2_relu_0_split
I0122 22:58:16.712744 11460 net.cpp:434] conv6_2_conv6_2_relu_0_split <- conv6_2
I0122 22:58:16.712751 11460 net.cpp:408] conv6_2_conv6_2_relu_0_split -> conv6_2_conv6_2_relu_0_split_0
I0122 22:58:16.712759 11460 net.cpp:408] conv6_2_conv6_2_relu_0_split -> conv6_2_conv6_2_relu_0_split_1
I0122 22:58:16.712766 11460 net.cpp:408] conv6_2_conv6_2_relu_0_split -> conv6_2_conv6_2_relu_0_split_2
I0122 22:58:16.712774 11460 net.cpp:408] conv6_2_conv6_2_relu_0_split -> conv6_2_conv6_2_relu_0_split_3
I0122 22:58:16.712869 11460 net.cpp:150] Setting up conv6_2_conv6_2_relu_0_split
I0122 22:58:16.712878 11460 net.cpp:157] Top shape: 16 512 10 10 (819200)
I0122 22:58:16.712883 11460 net.cpp:157] Top shape: 16 512 10 10 (819200)
I0122 22:58:16.712888 11460 net.cpp:157] Top shape: 16 512 10 10 (819200)
I0122 22:58:16.712893 11460 net.cpp:157] Top shape: 16 512 10 10 (819200)
I0122 22:58:16.712895 11460 net.cpp:165] Memory required for data: 3758866560
I0122 22:58:16.712899 11460 layer_factory.hpp:77] Creating layer conv7_1
I0122 22:58:16.712910 11460 net.cpp:100] Creating Layer conv7_1
I0122 22:58:16.712915 11460 net.cpp:434] conv7_1 <- conv6_2_conv6_2_relu_0_split_0
I0122 22:58:16.712924 11460 net.cpp:408] conv7_1 -> conv7_1
I0122 22:58:16.715100 11460 net.cpp:150] Setting up conv7_1
I0122 22:58:16.715116 11460 net.cpp:157] Top shape: 16 128 10 10 (204800)
I0122 22:58:16.715121 11460 net.cpp:165] Memory required for data: 3759685760
I0122 22:58:16.715127 11460 layer_factory.hpp:77] Creating layer conv7_1_relu
I0122 22:58:16.715134 11460 net.cpp:100] Creating Layer conv7_1_relu
I0122 22:58:16.715138 11460 net.cpp:434] conv7_1_relu <- conv7_1
I0122 22:58:16.715147 11460 net.cpp:395] conv7_1_relu -> conv7_1 (in-place)
I0122 22:58:16.715487 11460 net.cpp:150] Setting up conv7_1_relu
I0122 22:58:16.715502 11460 net.cpp:157] Top shape: 16 128 10 10 (204800)
I0122 22:58:16.715507 11460 net.cpp:165] Memory required for data: 3760504960
I0122 22:58:16.715512 11460 layer_factory.hpp:77] Creating layer conv7_2
I0122 22:58:16.715523 11460 net.cpp:100] Creating Layer conv7_2
I0122 22:58:16.715528 11460 net.cpp:434] conv7_2 <- conv7_1
I0122 22:58:16.715535 11460 net.cpp:408] conv7_2 -> conv7_2
I0122 22:58:16.719295 11460 net.cpp:150] Setting up conv7_2
I0122 22:58:16.719312 11460 net.cpp:157] Top shape: 16 256 5 5 (102400)
I0122 22:58:16.719317 11460 net.cpp:165] Memory required for data: 3760914560
I0122 22:58:16.719324 11460 layer_factory.hpp:77] Creating layer conv7_2_relu
I0122 22:58:16.719333 11460 net.cpp:100] Creating Layer conv7_2_relu
I0122 22:58:16.719338 11460 net.cpp:434] conv7_2_relu <- conv7_2
I0122 22:58:16.719343 11460 net.cpp:395] conv7_2_relu -> conv7_2 (in-place)
I0122 22:58:16.719691 11460 net.cpp:150] Setting up conv7_2_relu
I0122 22:58:16.719707 11460 net.cpp:157] Top shape: 16 256 5 5 (102400)
I0122 22:58:16.719710 11460 net.cpp:165] Memory required for data: 3761324160
I0122 22:58:16.719715 11460 layer_factory.hpp:77] Creating layer conv7_2_conv7_2_relu_0_split
I0122 22:58:16.719723 11460 net.cpp:100] Creating Layer conv7_2_conv7_2_relu_0_split
I0122 22:58:16.719728 11460 net.cpp:434] conv7_2_conv7_2_relu_0_split <- conv7_2
I0122 22:58:16.719734 11460 net.cpp:408] conv7_2_conv7_2_relu_0_split -> conv7_2_conv7_2_relu_0_split_0
I0122 22:58:16.719741 11460 net.cpp:408] conv7_2_conv7_2_relu_0_split -> conv7_2_conv7_2_relu_0_split_1
I0122 22:58:16.719748 11460 net.cpp:408] conv7_2_conv7_2_relu_0_split -> conv7_2_conv7_2_relu_0_split_2
I0122 22:58:16.719753 11460 net.cpp:408] conv7_2_conv7_2_relu_0_split -> conv7_2_conv7_2_relu_0_split_3
I0122 22:58:16.719853 11460 net.cpp:150] Setting up conv7_2_conv7_2_relu_0_split
I0122 22:58:16.719863 11460 net.cpp:157] Top shape: 16 256 5 5 (102400)
I0122 22:58:16.719867 11460 net.cpp:157] Top shape: 16 256 5 5 (102400)
I0122 22:58:16.719871 11460 net.cpp:157] Top shape: 16 256 5 5 (102400)
I0122 22:58:16.719887 11460 net.cpp:157] Top shape: 16 256 5 5 (102400)
I0122 22:58:16.719892 11460 net.cpp:165] Memory required for data: 3762962560
I0122 22:58:16.719895 11460 layer_factory.hpp:77] Creating layer conv8_1
I0122 22:58:16.719907 11460 net.cpp:100] Creating Layer conv8_1
I0122 22:58:16.719911 11460 net.cpp:434] conv8_1 <- conv7_2_conv7_2_relu_0_split_0
I0122 22:58:16.719919 11460 net.cpp:408] conv8_1 -> conv8_1
I0122 22:58:16.721385 11460 net.cpp:150] Setting up conv8_1
I0122 22:58:16.721402 11460 net.cpp:157] Top shape: 16 128 5 5 (51200)
I0122 22:58:16.721406 11460 net.cpp:165] Memory required for data: 3763167360
I0122 22:58:16.721413 11460 layer_factory.hpp:77] Creating layer conv8_1_relu
I0122 22:58:16.721422 11460 net.cpp:100] Creating Layer conv8_1_relu
I0122 22:58:16.721428 11460 net.cpp:434] conv8_1_relu <- conv8_1
I0122 22:58:16.721436 11460 net.cpp:395] conv8_1_relu -> conv8_1 (in-place)
I0122 22:58:16.721632 11460 net.cpp:150] Setting up conv8_1_relu
I0122 22:58:16.721644 11460 net.cpp:157] Top shape: 16 128 5 5 (51200)
I0122 22:58:16.721648 11460 net.cpp:165] Memory required for data: 3763372160
I0122 22:58:16.721652 11460 layer_factory.hpp:77] Creating layer conv8_2
I0122 22:58:16.721663 11460 net.cpp:100] Creating Layer conv8_2
I0122 22:58:16.721668 11460 net.cpp:434] conv8_2 <- conv8_1
I0122 22:58:16.721674 11460 net.cpp:408] conv8_2 -> conv8_2
I0122 22:58:16.725570 11460 net.cpp:150] Setting up conv8_2
I0122 22:58:16.725587 11460 net.cpp:157] Top shape: 16 256 3 3 (36864)
I0122 22:58:16.725591 11460 net.cpp:165] Memory required for data: 3763519616
I0122 22:58:16.725599 11460 layer_factory.hpp:77] Creating layer conv8_2_relu
I0122 22:58:16.725607 11460 net.cpp:100] Creating Layer conv8_2_relu
I0122 22:58:16.725612 11460 net.cpp:434] conv8_2_relu <- conv8_2
I0122 22:58:16.725617 11460 net.cpp:395] conv8_2_relu -> conv8_2 (in-place)
I0122 22:58:16.725963 11460 net.cpp:150] Setting up conv8_2_relu
I0122 22:58:16.725978 11460 net.cpp:157] Top shape: 16 256 3 3 (36864)
I0122 22:58:16.725982 11460 net.cpp:165] Memory required for data: 3763667072
I0122 22:58:16.725986 11460 layer_factory.hpp:77] Creating layer conv8_2_conv8_2_relu_0_split
I0122 22:58:16.725998 11460 net.cpp:100] Creating Layer conv8_2_conv8_2_relu_0_split
I0122 22:58:16.726003 11460 net.cpp:434] conv8_2_conv8_2_relu_0_split <- conv8_2
I0122 22:58:16.726009 11460 net.cpp:408] conv8_2_conv8_2_relu_0_split -> conv8_2_conv8_2_relu_0_split_0
I0122 22:58:16.726016 11460 net.cpp:408] conv8_2_conv8_2_relu_0_split -> conv8_2_conv8_2_relu_0_split_1
I0122 22:58:16.726023 11460 net.cpp:408] conv8_2_conv8_2_relu_0_split -> conv8_2_conv8_2_relu_0_split_2
I0122 22:58:16.726030 11460 net.cpp:408] conv8_2_conv8_2_relu_0_split -> conv8_2_conv8_2_relu_0_split_3
I0122 22:58:16.726130 11460 net.cpp:150] Setting up conv8_2_conv8_2_relu_0_split
I0122 22:58:16.726140 11460 net.cpp:157] Top shape: 16 256 3 3 (36864)
I0122 22:58:16.726145 11460 net.cpp:157] Top shape: 16 256 3 3 (36864)
I0122 22:58:16.726148 11460 net.cpp:157] Top shape: 16 256 3 3 (36864)
I0122 22:58:16.726153 11460 net.cpp:157] Top shape: 16 256 3 3 (36864)
I0122 22:58:16.726156 11460 net.cpp:165] Memory required for data: 3764256896
I0122 22:58:16.726161 11460 layer_factory.hpp:77] Creating layer conv9_1
I0122 22:58:16.726171 11460 net.cpp:100] Creating Layer conv9_1
I0122 22:58:16.726176 11460 net.cpp:434] conv9_1 <- conv8_2_conv8_2_relu_0_split_0
I0122 22:58:16.726183 11460 net.cpp:408] conv9_1 -> conv9_1
I0122 22:58:16.727535 11460 net.cpp:150] Setting up conv9_1
I0122 22:58:16.727550 11460 net.cpp:157] Top shape: 16 128 3 3 (18432)
I0122 22:58:16.727555 11460 net.cpp:165] Memory required for data: 3764330624
I0122 22:58:16.727562 11460 layer_factory.hpp:77] Creating layer conv9_1_relu
I0122 22:58:16.727569 11460 net.cpp:100] Creating Layer conv9_1_relu
I0122 22:58:16.727574 11460 net.cpp:434] conv9_1_relu <- conv9_1
I0122 22:58:16.727582 11460 net.cpp:395] conv9_1_relu -> conv9_1 (in-place)
I0122 22:58:16.727926 11460 net.cpp:150] Setting up conv9_1_relu
I0122 22:58:16.727951 11460 net.cpp:157] Top shape: 16 128 3 3 (18432)
I0122 22:58:16.727955 11460 net.cpp:165] Memory required for data: 3764404352
I0122 22:58:16.727959 11460 layer_factory.hpp:77] Creating layer conv9_2
I0122 22:58:16.727970 11460 net.cpp:100] Creating Layer conv9_2
I0122 22:58:16.727977 11460 net.cpp:434] conv9_2 <- conv9_1
I0122 22:58:16.727985 11460 net.cpp:408] conv9_2 -> conv9_2
I0122 22:58:16.732053 11460 net.cpp:150] Setting up conv9_2
I0122 22:58:16.732069 11460 net.cpp:157] Top shape: 16 256 1 1 (4096)
I0122 22:58:16.732074 11460 net.cpp:165] Memory required for data: 3764420736
I0122 22:58:16.732081 11460 layer_factory.hpp:77] Creating layer conv9_2_relu
I0122 22:58:16.732090 11460 net.cpp:100] Creating Layer conv9_2_relu
I0122 22:58:16.732095 11460 net.cpp:434] conv9_2_relu <- conv9_2
I0122 22:58:16.732100 11460 net.cpp:395] conv9_2_relu -> conv9_2 (in-place)
I0122 22:58:16.732300 11460 net.cpp:150] Setting up conv9_2_relu
I0122 22:58:16.732311 11460 net.cpp:157] Top shape: 16 256 1 1 (4096)
I0122 22:58:16.732316 11460 net.cpp:165] Memory required for data: 3764437120
I0122 22:58:16.732319 11460 layer_factory.hpp:77] Creating layer conv9_2_conv9_2_relu_0_split
I0122 22:58:16.732326 11460 net.cpp:100] Creating Layer conv9_2_conv9_2_relu_0_split
I0122 22:58:16.732329 11460 net.cpp:434] conv9_2_conv9_2_relu_0_split <- conv9_2
I0122 22:58:16.732336 11460 net.cpp:408] conv9_2_conv9_2_relu_0_split -> conv9_2_conv9_2_relu_0_split_0
I0122 22:58:16.732344 11460 net.cpp:408] conv9_2_conv9_2_relu_0_split -> conv9_2_conv9_2_relu_0_split_1
I0122 22:58:16.732350 11460 net.cpp:408] conv9_2_conv9_2_relu_0_split -> conv9_2_conv9_2_relu_0_split_2
I0122 22:58:16.732430 11460 net.cpp:150] Setting up conv9_2_conv9_2_relu_0_split
I0122 22:58:16.732440 11460 net.cpp:157] Top shape: 16 256 1 1 (4096)
I0122 22:58:16.732445 11460 net.cpp:157] Top shape: 16 256 1 1 (4096)
I0122 22:58:16.732450 11460 net.cpp:157] Top shape: 16 256 1 1 (4096)
I0122 22:58:16.732453 11460 net.cpp:165] Memory required for data: 3764486272
I0122 22:58:16.732456 11460 layer_factory.hpp:77] Creating layer conv4_3_norm
I0122 22:58:16.732465 11460 net.cpp:100] Creating Layer conv4_3_norm
I0122 22:58:16.732468 11460 net.cpp:434] conv4_3_norm <- conv4_3_relu4_3_0_split_1
I0122 22:58:16.732475 11460 net.cpp:408] conv4_3_norm -> conv4_3_norm
I0122 22:58:16.732702 11460 net.cpp:150] Setting up conv4_3_norm
I0122 22:58:16.732713 11460 net.cpp:157] Top shape: 16 512 38 38 (11829248)
I0122 22:58:16.732717 11460 net.cpp:165] Memory required for data: 3811803264
I0122 22:58:16.732722 11460 layer_factory.hpp:77] Creating layer conv4_3_norm_conv4_3_norm_0_split
I0122 22:58:16.732728 11460 net.cpp:100] Creating Layer conv4_3_norm_conv4_3_norm_0_split
I0122 22:58:16.732731 11460 net.cpp:434] conv4_3_norm_conv4_3_norm_0_split <- conv4_3_norm
I0122 22:58:16.732738 11460 net.cpp:408] conv4_3_norm_conv4_3_norm_0_split -> conv4_3_norm_conv4_3_norm_0_split_0
I0122 22:58:16.732745 11460 net.cpp:408] conv4_3_norm_conv4_3_norm_0_split -> conv4_3_norm_conv4_3_norm_0_split_1
I0122 22:58:16.732751 11460 net.cpp:408] conv4_3_norm_conv4_3_norm_0_split -> conv4_3_norm_conv4_3_norm_0_split_2
I0122 22:58:16.732820 11460 net.cpp:150] Setting up conv4_3_norm_conv4_3_norm_0_split
I0122 22:58:16.732827 11460 net.cpp:157] Top shape: 16 512 38 38 (11829248)
I0122 22:58:16.732832 11460 net.cpp:157] Top shape: 16 512 38 38 (11829248)
I0122 22:58:16.732836 11460 net.cpp:157] Top shape: 16 512 38 38 (11829248)
I0122 22:58:16.732839 11460 net.cpp:165] Memory required for data: 3953754240
I0122 22:58:16.732843 11460 layer_factory.hpp:77] Creating layer conv4_3_norm_mbox_loc
I0122 22:58:16.732853 11460 net.cpp:100] Creating Layer conv4_3_norm_mbox_loc
I0122 22:58:16.732858 11460 net.cpp:434] conv4_3_norm_mbox_loc <- conv4_3_norm_conv4_3_norm_0_split_0
I0122 22:58:16.732866 11460 net.cpp:408] conv4_3_norm_mbox_loc -> conv4_3_norm_mbox_loc
I0122 22:58:16.734673 11460 net.cpp:150] Setting up conv4_3_norm_mbox_loc
I0122 22:58:16.734690 11460 net.cpp:157] Top shape: 16 16 38 38 (369664)
I0122 22:58:16.734705 11460 net.cpp:165] Memory required for data: 3955232896
I0122 22:58:16.734714 11460 layer_factory.hpp:77] Creating layer conv4_3_norm_mbox_loc_perm
I0122 22:58:16.734722 11460 net.cpp:100] Creating Layer conv4_3_norm_mbox_loc_perm
I0122 22:58:16.734727 11460 net.cpp:434] conv4_3_norm_mbox_loc_perm <- conv4_3_norm_mbox_loc
I0122 22:58:16.734735 11460 net.cpp:408] conv4_3_norm_mbox_loc_perm -> conv4_3_norm_mbox_loc_perm
I0122 22:58:16.734889 11460 net.cpp:150] Setting up conv4_3_norm_mbox_loc_perm
I0122 22:58:16.734899 11460 net.cpp:157] Top shape: 16 38 38 16 (369664)
I0122 22:58:16.734902 11460 net.cpp:165] Memory required for data: 3956711552
I0122 22:58:16.734906 11460 layer_factory.hpp:77] Creating layer conv4_3_norm_mbox_loc_flat
I0122 22:58:16.734915 11460 net.cpp:100] Creating Layer conv4_3_norm_mbox_loc_flat
I0122 22:58:16.734920 11460 net.cpp:434] conv4_3_norm_mbox_loc_flat <- conv4_3_norm_mbox_loc_perm
I0122 22:58:16.734925 11460 net.cpp:408] conv4_3_norm_mbox_loc_flat -> conv4_3_norm_mbox_loc_flat
I0122 22:58:16.734969 11460 net.cpp:150] Setting up conv4_3_norm_mbox_loc_flat
I0122 22:58:16.734978 11460 net.cpp:157] Top shape: 16 23104 (369664)
I0122 22:58:16.734982 11460 net.cpp:165] Memory required for data: 3958190208
I0122 22:58:16.734987 11460 layer_factory.hpp:77] Creating layer conv4_3_norm_mbox_conf
I0122 22:58:16.735005 11460 net.cpp:100] Creating Layer conv4_3_norm_mbox_conf
I0122 22:58:16.735010 11460 net.cpp:434] conv4_3_norm_mbox_conf <- conv4_3_norm_conv4_3_norm_0_split_1
I0122 22:58:16.735018 11460 net.cpp:408] conv4_3_norm_mbox_conf -> conv4_3_norm_mbox_conf
I0122 22:58:16.739980 11460 net.cpp:150] Setting up conv4_3_norm_mbox_conf
I0122 22:58:16.739998 11460 net.cpp:157] Top shape: 16 88 38 38 (2033152)
I0122 22:58:16.740003 11460 net.cpp:165] Memory required for data: 3966322816
I0122 22:58:16.740011 11460 layer_factory.hpp:77] Creating layer conv4_3_norm_mbox_conf_perm
I0122 22:58:16.740018 11460 net.cpp:100] Creating Layer conv4_3_norm_mbox_conf_perm
I0122 22:58:16.740023 11460 net.cpp:434] conv4_3_norm_mbox_conf_perm <- conv4_3_norm_mbox_conf
I0122 22:58:16.740030 11460 net.cpp:408] conv4_3_norm_mbox_conf_perm -> conv4_3_norm_mbox_conf_perm
I0122 22:58:16.740188 11460 net.cpp:150] Setting up conv4_3_norm_mbox_conf_perm
I0122 22:58:16.740198 11460 net.cpp:157] Top shape: 16 38 38 88 (2033152)
I0122 22:58:16.740202 11460 net.cpp:165] Memory required for data: 3974455424
I0122 22:58:16.740206 11460 layer_factory.hpp:77] Creating layer conv4_3_norm_mbox_conf_flat
I0122 22:58:16.740213 11460 net.cpp:100] Creating Layer conv4_3_norm_mbox_conf_flat
I0122 22:58:16.740218 11460 net.cpp:434] conv4_3_norm_mbox_conf_flat <- conv4_3_norm_mbox_conf_perm
I0122 22:58:16.740223 11460 net.cpp:408] conv4_3_norm_mbox_conf_flat -> conv4_3_norm_mbox_conf_flat
I0122 22:58:16.740260 11460 net.cpp:150] Setting up conv4_3_norm_mbox_conf_flat
I0122 22:58:16.740269 11460 net.cpp:157] Top shape: 16 127072 (2033152)
I0122 22:58:16.740272 11460 net.cpp:165] Memory required for data: 3982588032
I0122 22:58:16.740277 11460 layer_factory.hpp:77] Creating layer conv4_3_norm_mbox_priorbox
I0122 22:58:16.740283 11460 net.cpp:100] Creating Layer conv4_3_norm_mbox_priorbox
I0122 22:58:16.740288 11460 net.cpp:434] conv4_3_norm_mbox_priorbox <- conv4_3_norm_conv4_3_norm_0_split_2
I0122 22:58:16.740293 11460 net.cpp:434] conv4_3_norm_mbox_priorbox <- data_data_0_split_1
I0122 22:58:16.740300 11460 net.cpp:408] conv4_3_norm_mbox_priorbox -> conv4_3_norm_mbox_priorbox
I0122 22:58:16.740339 11460 net.cpp:150] Setting up conv4_3_norm_mbox_priorbox
I0122 22:58:16.740347 11460 net.cpp:157] Top shape: 1 2 23104 (46208)
I0122 22:58:16.740350 11460 net.cpp:165] Memory required for data: 3982772864
I0122 22:58:16.740355 11460 layer_factory.hpp:77] Creating layer fc7_mbox_loc
I0122 22:58:16.740365 11460 net.cpp:100] Creating Layer fc7_mbox_loc
I0122 22:58:16.740370 11460 net.cpp:434] fc7_mbox_loc <- fc7_relu7_0_split_1
I0122 22:58:16.740378 11460 net.cpp:408] fc7_mbox_loc -> fc7_mbox_loc
I0122 22:58:16.743780 11460 net.cpp:150] Setting up fc7_mbox_loc
I0122 22:58:16.743808 11460 net.cpp:157] Top shape: 16 24 19 19 (138624)
I0122 22:58:16.743813 11460 net.cpp:165] Memory required for data: 3983327360
I0122 22:58:16.743821 11460 layer_factory.hpp:77] Creating layer fc7_mbox_loc_perm
I0122 22:58:16.743829 11460 net.cpp:100] Creating Layer fc7_mbox_loc_perm
I0122 22:58:16.743834 11460 net.cpp:434] fc7_mbox_loc_perm <- fc7_mbox_loc
I0122 22:58:16.743842 11460 net.cpp:408] fc7_mbox_loc_perm -> fc7_mbox_loc_perm
I0122 22:58:16.743999 11460 net.cpp:150] Setting up fc7_mbox_loc_perm
I0122 22:58:16.744009 11460 net.cpp:157] Top shape: 16 19 19 24 (138624)
I0122 22:58:16.744012 11460 net.cpp:165] Memory required for data: 3983881856
I0122 22:58:16.744016 11460 layer_factory.hpp:77] Creating layer fc7_mbox_loc_flat
I0122 22:58:16.744024 11460 net.cpp:100] Creating Layer fc7_mbox_loc_flat
I0122 22:58:16.744029 11460 net.cpp:434] fc7_mbox_loc_flat <- fc7_mbox_loc_perm
I0122 22:58:16.744034 11460 net.cpp:408] fc7_mbox_loc_flat -> fc7_mbox_loc_flat
I0122 22:58:16.744069 11460 net.cpp:150] Setting up fc7_mbox_loc_flat
I0122 22:58:16.744081 11460 net.cpp:157] Top shape: 16 8664 (138624)
I0122 22:58:16.744083 11460 net.cpp:165] Memory required for data: 3984436352
I0122 22:58:16.744087 11460 layer_factory.hpp:77] Creating layer fc7_mbox_conf
I0122 22:58:16.744101 11460 net.cpp:100] Creating Layer fc7_mbox_conf
I0122 22:58:16.744105 11460 net.cpp:434] fc7_mbox_conf <- fc7_relu7_0_split_2
I0122 22:58:16.744112 11460 net.cpp:408] fc7_mbox_conf -> fc7_mbox_conf
I0122 22:58:16.755646 11460 net.cpp:150] Setting up fc7_mbox_conf
I0122 22:58:16.755671 11460 net.cpp:157] Top shape: 16 132 19 19 (762432)
I0122 22:58:16.755679 11460 net.cpp:165] Memory required for data: 3987486080
I0122 22:58:16.755691 11460 layer_factory.hpp:77] Creating layer fc7_mbox_conf_perm
I0122 22:58:16.755703 11460 net.cpp:100] Creating Layer fc7_mbox_conf_perm
I0122 22:58:16.755712 11460 net.cpp:434] fc7_mbox_conf_perm <- fc7_mbox_conf
I0122 22:58:16.755722 11460 net.cpp:408] fc7_mbox_conf_perm -> fc7_mbox_conf_perm
I0122 22:58:16.755887 11460 net.cpp:150] Setting up fc7_mbox_conf_perm
I0122 22:58:16.755898 11460 net.cpp:157] Top shape: 16 19 19 132 (762432)
I0122 22:58:16.755903 11460 net.cpp:165] Memory required for data: 3990535808
I0122 22:58:16.755906 11460 layer_factory.hpp:77] Creating layer fc7_mbox_conf_flat
I0122 22:58:16.755914 11460 net.cpp:100] Creating Layer fc7_mbox_conf_flat
I0122 22:58:16.755918 11460 net.cpp:434] fc7_mbox_conf_flat <- fc7_mbox_conf_perm
I0122 22:58:16.755924 11460 net.cpp:408] fc7_mbox_conf_flat -> fc7_mbox_conf_flat
I0122 22:58:16.755960 11460 net.cpp:150] Setting up fc7_mbox_conf_flat
I0122 22:58:16.755970 11460 net.cpp:157] Top shape: 16 47652 (762432)
I0122 22:58:16.755973 11460 net.cpp:165] Memory required for data: 3993585536
I0122 22:58:16.755976 11460 layer_factory.hpp:77] Creating layer fc7_mbox_priorbox
I0122 22:58:16.755985 11460 net.cpp:100] Creating Layer fc7_mbox_priorbox
I0122 22:58:16.755988 11460 net.cpp:434] fc7_mbox_priorbox <- fc7_relu7_0_split_3
I0122 22:58:16.755995 11460 net.cpp:434] fc7_mbox_priorbox <- data_data_0_split_2
I0122 22:58:16.756001 11460 net.cpp:408] fc7_mbox_priorbox -> fc7_mbox_priorbox
I0122 22:58:16.756042 11460 net.cpp:150] Setting up fc7_mbox_priorbox
I0122 22:58:16.756050 11460 net.cpp:157] Top shape: 1 2 8664 (17328)
I0122 22:58:16.756054 11460 net.cpp:165] Memory required for data: 3993654848
I0122 22:58:16.756058 11460 layer_factory.hpp:77] Creating layer conv6_2_mbox_loc
I0122 22:58:16.756072 11460 net.cpp:100] Creating Layer conv6_2_mbox_loc
I0122 22:58:16.756077 11460 net.cpp:434] conv6_2_mbox_loc <- conv6_2_conv6_2_relu_0_split_1
I0122 22:58:16.756084 11460 net.cpp:408] conv6_2_mbox_loc -> conv6_2_mbox_loc
I0122 22:58:16.758641 11460 net.cpp:150] Setting up conv6_2_mbox_loc
I0122 22:58:16.758661 11460 net.cpp:157] Top shape: 16 24 10 10 (38400)
I0122 22:58:16.758664 11460 net.cpp:165] Memory required for data: 3993808448
I0122 22:58:16.758671 11460 layer_factory.hpp:77] Creating layer conv6_2_mbox_loc_perm
I0122 22:58:16.758692 11460 net.cpp:100] Creating Layer conv6_2_mbox_loc_perm
I0122 22:58:16.758698 11460 net.cpp:434] conv6_2_mbox_loc_perm <- conv6_2_mbox_loc
I0122 22:58:16.758704 11460 net.cpp:408] conv6_2_mbox_loc_perm -> conv6_2_mbox_loc_perm
I0122 22:58:16.758867 11460 net.cpp:150] Setting up conv6_2_mbox_loc_perm
I0122 22:58:16.758877 11460 net.cpp:157] Top shape: 16 10 10 24 (38400)
I0122 22:58:16.758882 11460 net.cpp:165] Memory required for data: 3993962048
I0122 22:58:16.758885 11460 layer_factory.hpp:77] Creating layer conv6_2_mbox_loc_flat
I0122 22:58:16.758893 11460 net.cpp:100] Creating Layer conv6_2_mbox_loc_flat
I0122 22:58:16.758898 11460 net.cpp:434] conv6_2_mbox_loc_flat <- conv6_2_mbox_loc_perm
I0122 22:58:16.758903 11460 net.cpp:408] conv6_2_mbox_loc_flat -> conv6_2_mbox_loc_flat
I0122 22:58:16.758939 11460 net.cpp:150] Setting up conv6_2_mbox_loc_flat
I0122 22:58:16.758947 11460 net.cpp:157] Top shape: 16 2400 (38400)
I0122 22:58:16.758951 11460 net.cpp:165] Memory required for data: 3994115648
I0122 22:58:16.758955 11460 layer_factory.hpp:77] Creating layer conv6_2_mbox_conf
I0122 22:58:16.758965 11460 net.cpp:100] Creating Layer conv6_2_mbox_conf
I0122 22:58:16.758970 11460 net.cpp:434] conv6_2_mbox_conf <- conv6_2_conv6_2_relu_0_split_2
I0122 22:58:16.758978 11460 net.cpp:408] conv6_2_mbox_conf -> conv6_2_mbox_conf
I0122 22:58:16.765580 11460 net.cpp:150] Setting up conv6_2_mbox_conf
I0122 22:58:16.765599 11460 net.cpp:157] Top shape: 16 132 10 10 (211200)
I0122 22:58:16.765604 11460 net.cpp:165] Memory required for data: 3994960448
I0122 22:58:16.765611 11460 layer_factory.hpp:77] Creating layer conv6_2_mbox_conf_perm
I0122 22:58:16.765619 11460 net.cpp:100] Creating Layer conv6_2_mbox_conf_perm
I0122 22:58:16.765624 11460 net.cpp:434] conv6_2_mbox_conf_perm <- conv6_2_mbox_conf
I0122 22:58:16.765630 11460 net.cpp:408] conv6_2_mbox_conf_perm -> conv6_2_mbox_conf_perm
I0122 22:58:16.765785 11460 net.cpp:150] Setting up conv6_2_mbox_conf_perm
I0122 22:58:16.765795 11460 net.cpp:157] Top shape: 16 10 10 132 (211200)
I0122 22:58:16.765799 11460 net.cpp:165] Memory required for data: 3995805248
I0122 22:58:16.765802 11460 layer_factory.hpp:77] Creating layer conv6_2_mbox_conf_flat
I0122 22:58:16.765810 11460 net.cpp:100] Creating Layer conv6_2_mbox_conf_flat
I0122 22:58:16.765815 11460 net.cpp:434] conv6_2_mbox_conf_flat <- conv6_2_mbox_conf_perm
I0122 22:58:16.765820 11460 net.cpp:408] conv6_2_mbox_conf_flat -> conv6_2_mbox_conf_flat
I0122 22:58:16.765861 11460 net.cpp:150] Setting up conv6_2_mbox_conf_flat
I0122 22:58:16.765875 11460 net.cpp:157] Top shape: 16 13200 (211200)
I0122 22:58:16.765882 11460 net.cpp:165] Memory required for data: 3996650048
I0122 22:58:16.765887 11460 layer_factory.hpp:77] Creating layer conv6_2_mbox_priorbox
I0122 22:58:16.765899 11460 net.cpp:100] Creating Layer conv6_2_mbox_priorbox
I0122 22:58:16.765905 11460 net.cpp:434] conv6_2_mbox_priorbox <- conv6_2_conv6_2_relu_0_split_3
I0122 22:58:16.765910 11460 net.cpp:434] conv6_2_mbox_priorbox <- data_data_0_split_3
I0122 22:58:16.765918 11460 net.cpp:408] conv6_2_mbox_priorbox -> conv6_2_mbox_priorbox
I0122 22:58:16.765960 11460 net.cpp:150] Setting up conv6_2_mbox_priorbox
I0122 22:58:16.765969 11460 net.cpp:157] Top shape: 1 2 2400 (4800)
I0122 22:58:16.765974 11460 net.cpp:165] Memory required for data: 3996669248
I0122 22:58:16.765976 11460 layer_factory.hpp:77] Creating layer conv7_2_mbox_loc
I0122 22:58:16.765988 11460 net.cpp:100] Creating Layer conv7_2_mbox_loc
I0122 22:58:16.765992 11460 net.cpp:434] conv7_2_mbox_loc <- conv7_2_conv7_2_relu_0_split_1
I0122 22:58:16.766000 11460 net.cpp:408] conv7_2_mbox_loc -> conv7_2_mbox_loc
I0122 22:58:16.767711 11460 net.cpp:150] Setting up conv7_2_mbox_loc
I0122 22:58:16.767729 11460 net.cpp:157] Top shape: 16 24 5 5 (9600)
I0122 22:58:16.767734 11460 net.cpp:165] Memory required for data: 3996707648
I0122 22:58:16.767740 11460 layer_factory.hpp:77] Creating layer conv7_2_mbox_loc_perm
I0122 22:58:16.767750 11460 net.cpp:100] Creating Layer conv7_2_mbox_loc_perm
I0122 22:58:16.767755 11460 net.cpp:434] conv7_2_mbox_loc_perm <- conv7_2_mbox_loc
I0122 22:58:16.767774 11460 net.cpp:408] conv7_2_mbox_loc_perm -> conv7_2_mbox_loc_perm
I0122 22:58:16.767935 11460 net.cpp:150] Setting up conv7_2_mbox_loc_perm
I0122 22:58:16.767946 11460 net.cpp:157] Top shape: 16 5 5 24 (9600)
I0122 22:58:16.767948 11460 net.cpp:165] Memory required for data: 3996746048
I0122 22:58:16.767952 11460 layer_factory.hpp:77] Creating layer conv7_2_mbox_loc_flat
I0122 22:58:16.767959 11460 net.cpp:100] Creating Layer conv7_2_mbox_loc_flat
I0122 22:58:16.767963 11460 net.cpp:434] conv7_2_mbox_loc_flat <- conv7_2_mbox_loc_perm
I0122 22:58:16.767971 11460 net.cpp:408] conv7_2_mbox_loc_flat -> conv7_2_mbox_loc_flat
I0122 22:58:16.768005 11460 net.cpp:150] Setting up conv7_2_mbox_loc_flat
I0122 22:58:16.768015 11460 net.cpp:157] Top shape: 16 600 (9600)
I0122 22:58:16.768019 11460 net.cpp:165] Memory required for data: 3996784448
I0122 22:58:16.768023 11460 layer_factory.hpp:77] Creating layer conv7_2_mbox_conf
I0122 22:58:16.768033 11460 net.cpp:100] Creating Layer conv7_2_mbox_conf
I0122 22:58:16.768038 11460 net.cpp:434] conv7_2_mbox_conf <- conv7_2_conv7_2_relu_0_split_2
I0122 22:58:16.768045 11460 net.cpp:408] conv7_2_mbox_conf -> conv7_2_mbox_conf
I0122 22:58:16.772069 11460 net.cpp:150] Setting up conv7_2_mbox_conf
I0122 22:58:16.772088 11460 net.cpp:157] Top shape: 16 132 5 5 (52800)
I0122 22:58:16.772091 11460 net.cpp:165] Memory required for data: 3996995648
I0122 22:58:16.772099 11460 layer_factory.hpp:77] Creating layer conv7_2_mbox_conf_perm
I0122 22:58:16.772107 11460 net.cpp:100] Creating Layer conv7_2_mbox_conf_perm
I0122 22:58:16.772114 11460 net.cpp:434] conv7_2_mbox_conf_perm <- conv7_2_mbox_conf
I0122 22:58:16.772119 11460 net.cpp:408] conv7_2_mbox_conf_perm -> conv7_2_mbox_conf_perm
I0122 22:58:16.772300 11460 net.cpp:150] Setting up conv7_2_mbox_conf_perm
I0122 22:58:16.772311 11460 net.cpp:157] Top shape: 16 5 5 132 (52800)
I0122 22:58:16.772315 11460 net.cpp:165] Memory required for data: 3997206848
I0122 22:58:16.772318 11460 layer_factory.hpp:77] Creating layer conv7_2_mbox_conf_flat
I0122 22:58:16.772325 11460 net.cpp:100] Creating Layer conv7_2_mbox_conf_flat
I0122 22:58:16.772330 11460 net.cpp:434] conv7_2_mbox_conf_flat <- conv7_2_mbox_conf_perm
I0122 22:58:16.772336 11460 net.cpp:408] conv7_2_mbox_conf_flat -> conv7_2_mbox_conf_flat
I0122 22:58:16.772377 11460 net.cpp:150] Setting up conv7_2_mbox_conf_flat
I0122 22:58:16.772382 11460 net.cpp:157] Top shape: 16 3300 (52800)
I0122 22:58:16.772387 11460 net.cpp:165] Memory required for data: 3997418048
I0122 22:58:16.772389 11460 layer_factory.hpp:77] Creating layer conv7_2_mbox_priorbox
I0122 22:58:16.772397 11460 net.cpp:100] Creating Layer conv7_2_mbox_priorbox
I0122 22:58:16.772400 11460 net.cpp:434] conv7_2_mbox_priorbox <- conv7_2_conv7_2_relu_0_split_3
I0122 22:58:16.772405 11460 net.cpp:434] conv7_2_mbox_priorbox <- data_data_0_split_4
I0122 22:58:16.772413 11460 net.cpp:408] conv7_2_mbox_priorbox -> conv7_2_mbox_priorbox
I0122 22:58:16.772454 11460 net.cpp:150] Setting up conv7_2_mbox_priorbox
I0122 22:58:16.772459 11460 net.cpp:157] Top shape: 1 2 600 (1200)
I0122 22:58:16.772464 11460 net.cpp:165] Memory required for data: 3997422848
I0122 22:58:16.772466 11460 layer_factory.hpp:77] Creating layer conv8_2_mbox_loc
I0122 22:58:16.772478 11460 net.cpp:100] Creating Layer conv8_2_mbox_loc
I0122 22:58:16.772483 11460 net.cpp:434] conv8_2_mbox_loc <- conv8_2_conv8_2_relu_0_split_1
I0122 22:58:16.772491 11460 net.cpp:408] conv8_2_mbox_loc -> conv8_2_mbox_loc
I0122 22:58:16.774081 11460 net.cpp:150] Setting up conv8_2_mbox_loc
I0122 22:58:16.774097 11460 net.cpp:157] Top shape: 16 16 3 3 (2304)
I0122 22:58:16.774101 11460 net.cpp:165] Memory required for data: 3997432064
I0122 22:58:16.774121 11460 layer_factory.hpp:77] Creating layer conv8_2_mbox_loc_perm
I0122 22:58:16.774130 11460 net.cpp:100] Creating Layer conv8_2_mbox_loc_perm
I0122 22:58:16.774135 11460 net.cpp:434] conv8_2_mbox_loc_perm <- conv8_2_mbox_loc
I0122 22:58:16.774142 11460 net.cpp:408] conv8_2_mbox_loc_perm -> conv8_2_mbox_loc_perm
I0122 22:58:16.774328 11460 net.cpp:150] Setting up conv8_2_mbox_loc_perm
I0122 22:58:16.774340 11460 net.cpp:157] Top shape: 16 3 3 16 (2304)
I0122 22:58:16.774343 11460 net.cpp:165] Memory required for data: 3997441280
I0122 22:58:16.774348 11460 layer_factory.hpp:77] Creating layer conv8_2_mbox_loc_flat
I0122 22:58:16.774354 11460 net.cpp:100] Creating Layer conv8_2_mbox_loc_flat
I0122 22:58:16.774361 11460 net.cpp:434] conv8_2_mbox_loc_flat <- conv8_2_mbox_loc_perm
I0122 22:58:16.774368 11460 net.cpp:408] conv8_2_mbox_loc_flat -> conv8_2_mbox_loc_flat
I0122 22:58:16.774405 11460 net.cpp:150] Setting up conv8_2_mbox_loc_flat
I0122 22:58:16.774413 11460 net.cpp:157] Top shape: 16 144 (2304)
I0122 22:58:16.774417 11460 net.cpp:165] Memory required for data: 3997450496
I0122 22:58:16.774420 11460 layer_factory.hpp:77] Creating layer conv8_2_mbox_conf
I0122 22:58:16.774433 11460 net.cpp:100] Creating Layer conv8_2_mbox_conf
I0122 22:58:16.774437 11460 net.cpp:434] conv8_2_mbox_conf <- conv8_2_conv8_2_relu_0_split_2
I0122 22:58:16.774444 11460 net.cpp:408] conv8_2_mbox_conf -> conv8_2_mbox_conf
I0122 22:58:16.777683 11460 net.cpp:150] Setting up conv8_2_mbox_conf
I0122 22:58:16.777700 11460 net.cpp:157] Top shape: 16 88 3 3 (12672)
I0122 22:58:16.777704 11460 net.cpp:165] Memory required for data: 3997501184
I0122 22:58:16.777712 11460 layer_factory.hpp:77] Creating layer conv8_2_mbox_conf_perm
I0122 22:58:16.777721 11460 net.cpp:100] Creating Layer conv8_2_mbox_conf_perm
I0122 22:58:16.777726 11460 net.cpp:434] conv8_2_mbox_conf_perm <- conv8_2_mbox_conf
I0122 22:58:16.777734 11460 net.cpp:408] conv8_2_mbox_conf_perm -> conv8_2_mbox_conf_perm
I0122 22:58:16.777895 11460 net.cpp:150] Setting up conv8_2_mbox_conf_perm
I0122 22:58:16.777906 11460 net.cpp:157] Top shape: 16 3 3 88 (12672)
I0122 22:58:16.777910 11460 net.cpp:165] Memory required for data: 3997551872
I0122 22:58:16.777915 11460 layer_factory.hpp:77] Creating layer conv8_2_mbox_conf_flat
I0122 22:58:16.777920 11460 net.cpp:100] Creating Layer conv8_2_mbox_conf_flat
I0122 22:58:16.777925 11460 net.cpp:434] conv8_2_mbox_conf_flat <- conv8_2_mbox_conf_perm
I0122 22:58:16.777930 11460 net.cpp:408] conv8_2_mbox_conf_flat -> conv8_2_mbox_conf_flat
I0122 22:58:16.777967 11460 net.cpp:150] Setting up conv8_2_mbox_conf_flat
I0122 22:58:16.777976 11460 net.cpp:157] Top shape: 16 792 (12672)
I0122 22:58:16.777979 11460 net.cpp:165] Memory required for data: 3997602560
I0122 22:58:16.777983 11460 layer_factory.hpp:77] Creating layer conv8_2_mbox_priorbox
I0122 22:58:16.777992 11460 net.cpp:100] Creating Layer conv8_2_mbox_priorbox
I0122 22:58:16.777997 11460 net.cpp:434] conv8_2_mbox_priorbox <- conv8_2_conv8_2_relu_0_split_3
I0122 22:58:16.778002 11460 net.cpp:434] conv8_2_mbox_priorbox <- data_data_0_split_5
I0122 22:58:16.778007 11460 net.cpp:408] conv8_2_mbox_priorbox -> conv8_2_mbox_priorbox
I0122 22:58:16.778048 11460 net.cpp:150] Setting up conv8_2_mbox_priorbox
I0122 22:58:16.778057 11460 net.cpp:157] Top shape: 1 2 144 (288)
I0122 22:58:16.778060 11460 net.cpp:165] Memory required for data: 3997603712
I0122 22:58:16.778064 11460 layer_factory.hpp:77] Creating layer conv9_2_mbox_loc
I0122 22:58:16.778075 11460 net.cpp:100] Creating Layer conv9_2_mbox_loc
I0122 22:58:16.778079 11460 net.cpp:434] conv9_2_mbox_loc <- conv9_2_conv9_2_relu_0_split_0
I0122 22:58:16.778089 11460 net.cpp:408] conv9_2_mbox_loc -> conv9_2_mbox_loc
I0122 22:58:16.779659 11460 net.cpp:150] Setting up conv9_2_mbox_loc
I0122 22:58:16.779676 11460 net.cpp:157] Top shape: 16 16 1 1 (256)
I0122 22:58:16.779681 11460 net.cpp:165] Memory required for data: 3997604736
I0122 22:58:16.779690 11460 layer_factory.hpp:77] Creating layer conv9_2_mbox_loc_perm
I0122 22:58:16.779696 11460 net.cpp:100] Creating Layer conv9_2_mbox_loc_perm
I0122 22:58:16.779701 11460 net.cpp:434] conv9_2_mbox_loc_perm <- conv9_2_mbox_loc
I0122 22:58:16.779707 11460 net.cpp:408] conv9_2_mbox_loc_perm -> conv9_2_mbox_loc_perm
I0122 22:58:16.779867 11460 net.cpp:150] Setting up conv9_2_mbox_loc_perm
I0122 22:58:16.779887 11460 net.cpp:157] Top shape: 16 1 1 16 (256)
I0122 22:58:16.779892 11460 net.cpp:165] Memory required for data: 3997605760
I0122 22:58:16.779896 11460 layer_factory.hpp:77] Creating layer conv9_2_mbox_loc_flat
I0122 22:58:16.779903 11460 net.cpp:100] Creating Layer conv9_2_mbox_loc_flat
I0122 22:58:16.779908 11460 net.cpp:434] conv9_2_mbox_loc_flat <- conv9_2_mbox_loc_perm
I0122 22:58:16.779914 11460 net.cpp:408] conv9_2_mbox_loc_flat -> conv9_2_mbox_loc_flat
I0122 22:58:16.779954 11460 net.cpp:150] Setting up conv9_2_mbox_loc_flat
I0122 22:58:16.779963 11460 net.cpp:157] Top shape: 16 16 (256)
I0122 22:58:16.779966 11460 net.cpp:165] Memory required for data: 3997606784
I0122 22:58:16.779970 11460 layer_factory.hpp:77] Creating layer conv9_2_mbox_conf
I0122 22:58:16.779980 11460 net.cpp:100] Creating Layer conv9_2_mbox_conf
I0122 22:58:16.779985 11460 net.cpp:434] conv9_2_mbox_conf <- conv9_2_conv9_2_relu_0_split_1
I0122 22:58:16.779994 11460 net.cpp:408] conv9_2_mbox_conf -> conv9_2_mbox_conf
I0122 22:58:16.783229 11460 net.cpp:150] Setting up conv9_2_mbox_conf
I0122 22:58:16.783246 11460 net.cpp:157] Top shape: 16 88 1 1 (1408)
I0122 22:58:16.783252 11460 net.cpp:165] Memory required for data: 3997612416
I0122 22:58:16.783258 11460 layer_factory.hpp:77] Creating layer conv9_2_mbox_conf_perm
I0122 22:58:16.783265 11460 net.cpp:100] Creating Layer conv9_2_mbox_conf_perm
I0122 22:58:16.783270 11460 net.cpp:434] conv9_2_mbox_conf_perm <- conv9_2_mbox_conf
I0122 22:58:16.783278 11460 net.cpp:408] conv9_2_mbox_conf_perm -> conv9_2_mbox_conf_perm
I0122 22:58:16.783444 11460 net.cpp:150] Setting up conv9_2_mbox_conf_perm
I0122 22:58:16.783454 11460 net.cpp:157] Top shape: 16 1 1 88 (1408)
I0122 22:58:16.783457 11460 net.cpp:165] Memory required for data: 3997618048
I0122 22:58:16.783462 11460 layer_factory.hpp:77] Creating layer conv9_2_mbox_conf_flat
I0122 22:58:16.783468 11460 net.cpp:100] Creating Layer conv9_2_mbox_conf_flat
I0122 22:58:16.783473 11460 net.cpp:434] conv9_2_mbox_conf_flat <- conv9_2_mbox_conf_perm
I0122 22:58:16.783479 11460 net.cpp:408] conv9_2_mbox_conf_flat -> conv9_2_mbox_conf_flat
I0122 22:58:16.783515 11460 net.cpp:150] Setting up conv9_2_mbox_conf_flat
I0122 22:58:16.783524 11460 net.cpp:157] Top shape: 16 88 (1408)
I0122 22:58:16.783527 11460 net.cpp:165] Memory required for data: 3997623680
I0122 22:58:16.783531 11460 layer_factory.hpp:77] Creating layer conv9_2_mbox_priorbox
I0122 22:58:16.783540 11460 net.cpp:100] Creating Layer conv9_2_mbox_priorbox
I0122 22:58:16.783543 11460 net.cpp:434] conv9_2_mbox_priorbox <- conv9_2_conv9_2_relu_0_split_2
I0122 22:58:16.783550 11460 net.cpp:434] conv9_2_mbox_priorbox <- data_data_0_split_6
I0122 22:58:16.783557 11460 net.cpp:408] conv9_2_mbox_priorbox -> conv9_2_mbox_priorbox
I0122 22:58:16.783596 11460 net.cpp:150] Setting up conv9_2_mbox_priorbox
I0122 22:58:16.783603 11460 net.cpp:157] Top shape: 1 2 16 (32)
I0122 22:58:16.783607 11460 net.cpp:165] Memory required for data: 3997623808
I0122 22:58:16.783610 11460 layer_factory.hpp:77] Creating layer mbox_loc
I0122 22:58:16.783622 11460 net.cpp:100] Creating Layer mbox_loc
I0122 22:58:16.783629 11460 net.cpp:434] mbox_loc <- conv4_3_norm_mbox_loc_flat
I0122 22:58:16.783634 11460 net.cpp:434] mbox_loc <- fc7_mbox_loc_flat
I0122 22:58:16.783640 11460 net.cpp:434] mbox_loc <- conv6_2_mbox_loc_flat
I0122 22:58:16.783645 11460 net.cpp:434] mbox_loc <- conv7_2_mbox_loc_flat
I0122 22:58:16.783649 11460 net.cpp:434] mbox_loc <- conv8_2_mbox_loc_flat
I0122 22:58:16.783654 11460 net.cpp:434] mbox_loc <- conv9_2_mbox_loc_flat
I0122 22:58:16.783659 11460 net.cpp:408] mbox_loc -> mbox_loc
I0122 22:58:16.783701 11460 net.cpp:150] Setting up mbox_loc
I0122 22:58:16.783710 11460 net.cpp:157] Top shape: 16 34928 (558848)
I0122 22:58:16.783713 11460 net.cpp:165] Memory required for data: 3999859200
I0122 22:58:16.783717 11460 layer_factory.hpp:77] Creating layer mbox_conf
I0122 22:58:16.783723 11460 net.cpp:100] Creating Layer mbox_conf
I0122 22:58:16.783728 11460 net.cpp:434] mbox_conf <- conv4_3_norm_mbox_conf_flat
I0122 22:58:16.783745 11460 net.cpp:434] mbox_conf <- fc7_mbox_conf_flat
I0122 22:58:16.783751 11460 net.cpp:434] mbox_conf <- conv6_2_mbox_conf_flat
I0122 22:58:16.783756 11460 net.cpp:434] mbox_conf <- conv7_2_mbox_conf_flat
I0122 22:58:16.783759 11460 net.cpp:434] mbox_conf <- conv8_2_mbox_conf_flat
I0122 22:58:16.783764 11460 net.cpp:434] mbox_conf <- conv9_2_mbox_conf_flat
I0122 22:58:16.783771 11460 net.cpp:408] mbox_conf -> mbox_conf
I0122 22:58:16.783810 11460 net.cpp:150] Setting up mbox_conf
I0122 22:58:16.783819 11460 net.cpp:157] Top shape: 16 192104 (3073664)
I0122 22:58:16.783823 11460 net.cpp:165] Memory required for data: 4012153856
I0122 22:58:16.783826 11460 layer_factory.hpp:77] Creating layer mbox_priorbox
I0122 22:58:16.783833 11460 net.cpp:100] Creating Layer mbox_priorbox
I0122 22:58:16.783836 11460 net.cpp:434] mbox_priorbox <- conv4_3_norm_mbox_priorbox
I0122 22:58:16.783841 11460 net.cpp:434] mbox_priorbox <- fc7_mbox_priorbox
I0122 22:58:16.783846 11460 net.cpp:434] mbox_priorbox <- conv6_2_mbox_priorbox
I0122 22:58:16.783850 11460 net.cpp:434] mbox_priorbox <- conv7_2_mbox_priorbox
I0122 22:58:16.783854 11460 net.cpp:434] mbox_priorbox <- conv8_2_mbox_priorbox
I0122 22:58:16.783859 11460 net.cpp:434] mbox_priorbox <- conv9_2_mbox_priorbox
I0122 22:58:16.783865 11460 net.cpp:408] mbox_priorbox -> mbox_priorbox
I0122 22:58:16.783901 11460 net.cpp:150] Setting up mbox_priorbox
I0122 22:58:16.783910 11460 net.cpp:157] Top shape: 1 2 34928 (69856)
I0122 22:58:16.783913 11460 net.cpp:165] Memory required for data: 4012433280
I0122 22:58:16.783916 11460 layer_factory.hpp:77] Creating layer mbox_conf_reshape
I0122 22:58:16.783924 11460 net.cpp:100] Creating Layer mbox_conf_reshape
I0122 22:58:16.783929 11460 net.cpp:434] mbox_conf_reshape <- mbox_conf
I0122 22:58:16.783934 11460 net.cpp:408] mbox_conf_reshape -> mbox_conf_reshape
I0122 22:58:16.783980 11460 net.cpp:150] Setting up mbox_conf_reshape
I0122 22:58:16.783989 11460 net.cpp:157] Top shape: 16 8732 22 (3073664)
I0122 22:58:16.783993 11460 net.cpp:165] Memory required for data: 4024727936
I0122 22:58:16.783996 11460 layer_factory.hpp:77] Creating layer mbox_conf_softmax
I0122 22:58:16.784006 11460 net.cpp:100] Creating Layer mbox_conf_softmax
I0122 22:58:16.784010 11460 net.cpp:434] mbox_conf_softmax <- mbox_conf_reshape
I0122 22:58:16.784015 11460 net.cpp:408] mbox_conf_softmax -> mbox_conf_softmax
I0122 22:58:16.784309 11460 net.cpp:150] Setting up mbox_conf_softmax
I0122 22:58:16.784322 11460 net.cpp:157] Top shape: 16 8732 22 (3073664)
I0122 22:58:16.784325 11460 net.cpp:165] Memory required for data: 4037022592
I0122 22:58:16.784329 11460 layer_factory.hpp:77] Creating layer mbox_conf_flatten
I0122 22:58:16.784335 11460 net.cpp:100] Creating Layer mbox_conf_flatten
I0122 22:58:16.784339 11460 net.cpp:434] mbox_conf_flatten <- mbox_conf_softmax
I0122 22:58:16.784348 11460 net.cpp:408] mbox_conf_flatten -> mbox_conf_flatten
I0122 22:58:16.784386 11460 net.cpp:150] Setting up mbox_conf_flatten
I0122 22:58:16.784394 11460 net.cpp:157] Top shape: 16 192104 (3073664)
I0122 22:58:16.784399 11460 net.cpp:165] Memory required for data: 4049317248
I0122 22:58:16.784401 11460 layer_factory.hpp:77] Creating layer detection_out
I0122 22:58:16.784423 11460 net.cpp:100] Creating Layer detection_out
I0122 22:58:16.784430 11460 net.cpp:434] detection_out <- mbox_loc
I0122 22:58:16.784435 11460 net.cpp:434] detection_out <- mbox_conf_flatten
I0122 22:58:16.784438 11460 net.cpp:434] detection_out <- mbox_priorbox
I0122 22:58:16.784446 11460 net.cpp:408] detection_out -> detection_out
I0122 22:58:16.787436 11460 net.cpp:150] Setting up detection_out
I0122 22:58:16.787452 11460 net.cpp:157] Top shape: 1 1 1 7 (7)
I0122 22:58:16.787456 11460 net.cpp:165] Memory required for data: 4049317276
I0122 22:58:16.787461 11460 layer_factory.hpp:77] Creating layer detection_eval
I0122 22:58:16.787470 11460 net.cpp:100] Creating Layer detection_eval
I0122 22:58:16.787475 11460 net.cpp:434] detection_eval <- detection_out
I0122 22:58:16.787490 11460 net.cpp:434] detection_eval <- label
I0122 22:58:16.787498 11460 net.cpp:408] detection_eval -> detection_eval
I0122 22:58:16.788678 11460 net.cpp:150] Setting up detection_eval
I0122 22:58:16.788691 11460 net.cpp:157] Top shape: 1 1 22 5 (110)
I0122 22:58:16.788694 11460 net.cpp:165] Memory required for data: 4049317716
I0122 22:58:16.788698 11460 net.cpp:228] detection_eval does not need backward computation.
I0122 22:58:16.788703 11460 net.cpp:228] detection_out does not need backward computation.
I0122 22:58:16.788708 11460 net.cpp:228] mbox_conf_flatten does not need backward computation.
I0122 22:58:16.788712 11460 net.cpp:228] mbox_conf_softmax does not need backward computation.
…
